scripts/results/MultipleCombat/2v2/NoWeapon/HierarchySelfplay/mappo/v1/wandb/offline-run-20250710_161817-94xtz9r2/files/actor_7.pt (torch, 625346 bytes, 28 tensors)

base.mlp.fc.0.weight f4 [128, 21]
0.10402804 -0.18033415 0.16824663 -0.20827375 -0.07591036 0.116526216 -0.07471669 0.0089435
-0.16636176 0.07294731 -0.12240547 0.14145194 0.002292429 -0.062117107 -0.055693053 -0.004000196
0.1412792 -0.104987435 0.10053133 -0.19455278 0.040606532 -0.108705334 -0.1358709 -0.16859283
0.017257769 -0.061804473 -0.02727432 0.06799063 -0.098917924 0.109452255 -0.1730309 -0.12537041
0.07433215 -0.19354476 -0.13501641 0.21337865 0.1516103 0.043445762 -0.20904021 0.19623223
-0.14623298 -0.18852764 -0.18259269 -0.21284354 0.044552974 0.13966985 -0.019343482 0.13817471
0.06582436 -0.12751475 0.06048213 0.08731062 -0.066577286 -0.21606351 -0.01569677 -0.055894714
-0.11059766 0.046828393 -0.17047115 -0.051387683 0.053212773 -0.11756062 -0.1748612 -0.024665052
0.19040993 0.187346 0.13556601 0.07148364 -0.10036825 0.12176024 0.17772841 0.069116846
0.15625553 0.06294987 -0.10171257 0.07024396 0.099246174 -0.13401327 -0.12461501 -0.07856843
0.013902395 0.11537469 -0.19644979 -0.05292017 0.023395019 -0.09639316 0.072190344 0.026838064
0.16415212 -0.118458845 0.103083074 0.19209097 0.07649834 -0.059759513 0.07167186 0.12533325
0.06733372 0.11052534 -0.14272122 -0.11207339 -0.22163224 -0.14928901 -0.05724111 -0.18279195
0.09367068 -0.15498957 -0.11323931 0.09810072 -0.1253166 0.137699 -0.066895105 -0.06287683
-0.030022992 0.026202131 0.06824647 0.004867475 -0.17416897 -0.09803471 -0.14143091 -0.16935588
-0.07330586 -0.13482468 0.22039881 -0.10422711 -0.045476545 -0.022303514 0.0776364 0.10484842
0.026281632 0.02572098 0.16547446 0.14759244 0.16856265 -0.07051933 -0.12591681 -0.07181998
-0.17540056 -0.19043784 0.074432045 -0.10849483 0.06714734 -0.21064475 -0.06644603 0.17844403
0.10877905 0.05026464 -0.13320898 -0.14698008 -0.0467839 0.04618735 0.11132971 -0.11877613
0.038226593 -0.19071232 -0.042666845 0.05307309 -0.21342194 0.035658896 -0.09485213 -0.07237738
0.15654458 0.18687198 -0.059326135 -0.20742372 -0.068519786 0.08796341 0.19096176 0.07257806
-0.15438676 0.017326307 0.009757311 0.13232489 -0.10095673 0.13067187 -0.19714919 -0.21259943
-0.041986678 0.05529914 0.00020392062 -0.15116136 -0.09679817 -0.11275012 0.07489089 0.050194465
-0.18684153 -0.1751583 -0.08104979 -0.17694029 0.015758857 -0.15115911 -0.07104642 0.11526991
-0.18078056 0.08516549 -0.0466739 0.16290969 0.11797472 0.15044603 0.12416463 -0.09072638
0.20338643 0.0908814 0.111482956 0.22304599 0.09414269 -0.2170819 -0.02885282 0.09012058
-0.090588436 0.016252363 -0.0181057 -0.1411723 0.11721165 -0.11994861 -0.030730274 -0.027134478
-0.13382709 -0.136601 0.2067077 -0.1341205 -0.14001364 0.119943365 -0.0379568 0.16870679
0.039032843 0.08946152 0.18736394 0.03316452 -0.12914002 0.025526268 -0.064422145 0.054407775
0.13846554 -0.20082471 -0.03183109 0.03587184 -0.013729011 -0.055937767 -0.1493098 0.12040852
-0.047772694 0.025626644 -0.13265368 0.05651608 -0.10615267 -0.06712675 0.03750933 -0.14833735
-0.11946243 0.17045616 0.054322664 -0.02557517 -0.14620921 0.1741553 0.010974055 -0.06480481
00000000: a70c d53d 84a9 38be d848 2c3e b745 55be
00000010: e476 9bbd 4ca5 ee3d 1005 99bd c287 123c
00000020: bd5a 2abe 6665 953d b8af fabd c7d8 103e
00000030: 943c 163b 826e 7ebd 661e 64bd 1314 83bb
00000040: 7fab 103e a703 d7bd 5fe3 cd3d d838 47be
00000050: 0953 263d e7a0 debd be21 0bbe 99a3 2cbe
00000060: 2a60 8d3c b026 7dbd 656e dfbc ac3e 8b3d
00000070: 7b95 cabd 8128 e03d 032f 31be 1a61 00be
00000080: 743b 983d 9930 46be be41 0abe ef7f 5a3e
00000090: bb3f 1b3e 2ff4 313d a30e 56be 1af1 483e
000000a0: 19be 15be 640d 41be 94f9 3abe a8f3 59be
000000b0: 2e7d 363d 9d05 0f3e 3976 9ebc ac7d 0d3e
000000c0: ecce 863d 3a93 02be 1cbc 773d e9cf b23d
000000d0: ac59 88bd c13f 5dbe 8396 80bc dbf1 64bd
000000e0: 0781 e2bd 21cf 3f3d fd8f 2ebe e47b 52bd
000000f0: a3f5 593d 9fc3 f0bd d00e 33be 5d0e cabc
00000100: d2fa 423e a1d7 3f3e d1d1 0a3e 0466 923d
00000110: de8d cdbd 6f5d f93d 70fe 353e 228d 8d3d
00000120: 7301 203e ddeb 803d ae4e d0bd 11dc 8f3d
00000130: 9441 cb3d c63a 09be 2836 ffbd 7ce8 a0bd
00000140: dfc6 633c 9149 ec3d 222a 49be d2c2 58bd
00000150: e9a6 bf3c c769 c5bd 88d8 933d 80db db3c
00000160: 7e17 283e 8d9a f2bd 381d d33d 7fb3 443e
00000170: 29ab 9c3d 64c6 74bd b2c8 923d 5c57 003e
00000180: 43e6 893d 1c5b e23d 8325 12be bc86 e5bd
00000190: 90f3 62be 38df 18be a775 6abd d02d 3bbe
000001a0: 6ad6 bf3d 96b5 1ebe 03ea e7bd 08e9 c83d
000001b0: ff52 00be f700 0d3e 4d00 89bd 91c5 80bd
000001c0: c7f2 f5bc daa5 d63c cec4 8b3d 577f 9f3b
000001d0: 5a59 32be 6cc6 c8bd 44d3 10be a16b 2dbe
000001e0: 6221 96bd 7b0f 0abe 3ab0 613e 0675 d5bd
000001f0: 9d45 3abd dcb5 b6bc d5ff 9e3d c5ba d63d
00000200: 944c d73c ceb4 d23c 2372 293e 7922 173e
00000210: b09b 2c3e 706c 90bd 56f0 00be 5b16 93bd
00000220: 349c 33be 2302 43be d46f 983d 8a32 debd
00000230: 8b84 893d 42b3 57be db14 88bd 08ba 363e
00000240: 8dc7 de3d 4ce2 4d3d ef67 08be f281 16be
00000250: 7aa0 3fbd f22e 3d3d d500 e43d e640 f3bd
00000260: 7d93 1c3d 174a 43be 6ec3 2ebd 2b63 593d
00000270: 488b 5abe 100f 123d d541 c2bd 983a 94bd
00000280: 394d 203e 5e5b 3f3e f6ff 72bd e266 54be
00000290: 1a54 8cbd 2926 b43d 7b8b 433e cea3 943d
000002a0: 9017 1ebe e6ef 8d3c 21dd 1f3c 2d80 073e
000002b0: 67c2 cebd d9ce 053e 7ae1 49be aab3 59be
000002c0: 39fa 2bbd 5a81 623d 86d3 5539 0bca 1abe
000002d0: 1e3e c6bd 89e9 e6bd 6560 993d b698 4d3d
000002e0: 6353 3fbe b35c 33be 6ffd a5bd d62f 35be
000002f0: b818 813c 74c9 1abe c980 91bd a112 ec3d
00000300: 8a1e 39be 3f6b ae3d 222d 3fbd ccd1 263e
00000310: bb9c f13d 860e 1a3e 074a fe3d c1ce b9bd
00000320: 8844 503e 0720 ba3d 2d51 e43d 2b66 643e
00000330: e2cd c03d b84a 5ebe c05c ecbc 2391 b83d
00000340: 6e86 b9bd ad23 853c 6852 94bc 798f 10be
00000350: a90c f03d 9ea7 f5bd 0ebe fbbc 2049 debc
00000360: f809 09be 22e1 0bbe 2fab 533e e256 09be
00000370: bc5f 0fbe dea4 f53d 9778 1bbd 79c1 2c3e
00000380: e7e0 1f3d 9a37 b73d 55dc 3f3e 85d7 073d
00000390: 483d 04be 771c d13c c2ef 83bd b0da 5e3d
000003a0: e9c9 0d3e fea4 4dbe 5161 02bd 5aee 123d
000003b0: a5ef 60bc 001f 65bd abe4 18be be98 f63d
000003c0: 4dad 43bd f8ee d13c 5ed6 07be 687d 673d
000003d0: 9266 d9bd c079 89bd 62a3 193d bfe5 17be
000003e0: b8a8 f4bd 0f8c 2e3e 7181 5e3d 0583 d1bc
000003f0: deb7 15be c455 323e 86cc 333c 62b8 84bd

base.mlp.fc.0.bias f4 [128]
-0.023890123 0.12758394 0.06751195 0.16095844 0.09963344 -0.095103845 -0.09635776 0.057473287
0.10648592 0.15787822 -0.045035575 -0.06094452 -0.008707214 0.015412065 0.056683686 0.13345267
-0.10680427 -0.20872238 0.03857306 0.07481091 -0.0503344 -0.024778016 -0.15384565 -0.21483286
0.17223625 -0.1371412 0.10081137 0.13657281 -0.038671702 0.046477236 0.09909971 0.18634544
-0.07749259 -0.11292835 0.09331268 -0.03967272 -0.12630163 0.16825669 0.17483418 0.20502967
-0.19750433 -0.088400416 0.19922547 0.043121625 0.16402374 0.055744726 -0.08991205 -0.047673944
-0.10835476 0.073367156 0.052716143 -0.18882972 -0.13939661 0.16323772 -0.08685408 -0.10932738
-0.19873582 -0.00796857 -0.015272566 0.16227347 0.016807534 -0.1798234 0.009290438 0.0140634915
-0.027230542 -0.063319586 -0.058136076 -0.08719079 0.043105118 0.073774174 0.14698347 -0.051505715
0.14132205 -0.09726835 0.12809217 -0.18336152 -0.12698415 0.021927476 0.1141391 0.07092497
-0.14198326 -0.00554857 -0.19241892 0.2050113 -0.19973285 -0.003017214 0.034293983 -0.0013325465
-0.047573496 0.107652806 -0.15511797 -0.093535446 -0.05048832 0.11187333 0.12581493 0.005285561
-0.076801315 -0.077182576 0.1886383 0.0106793465 0.21322882 -0.20577288 0.042905863 -0.07226073
0.08370797 -0.103305735 -0.09547907 -0.09114234 0.030653946 0.021907842 -0.20798534 0.07722486
-0.020648789 0.03421122 0.1133938 -0.15249419 -0.08799973 0.1898338 -0.1135935 -0.060664877
-0.13095674 -0.0874442 -0.07388466 -0.18754129 0.077226624 0.0986819 -0.20690563 -0.034976814
00000000: 38b5 c3bc 5da5 023e b543 8a3d 4ad2 243e
00000010: 9e0c cc3d cec5 c2bd 3857 c5bd 1c69 6b3d
00000020: 4a15 da3d d4aa 213e 3977 38bd f6a0 79bd
00000030: b4a8 0ebc e382 7c3c 272d 683d d1a7 083e
00000040: 32bc dabd 52bb 55be c9fe 1d3d 7636 993d
00000050: 722b 4ebd 44fb cabc b789 1dbe 25fd 5bbe
00000060: b35e 303e be6e 0cbe 3176 ce3d bed9 0b3e
00000070: 3866 1ebd ea5e 3e3d caf4 ca3d 57d1 3e3e
00000080: 6fb4 9ebd fb46 e7bd b81a bf3d dd7f 22bd
00000090: 3755 01be 7b4b 2c3e bb07 333e 4cf3 513e
000000a0: 933e 4abe 470b b5bd c301 4c3e 4da0 303d
000000b0: d7f5 273e 9554 643d cf23 b8bd c145 43bd
000000c0: 1ae9 ddbd 8541 963d e2ec 573d 945c 41be
000000d0: fcbd 0ebe ca27 273e 8de0 b1bd 09e7 dfbd
000000e0: 6781 4bbe 9b8e 02bc c939 7abc 042b 263e
000000f0: f4af 893c a023 38be ec36 183c 8f6a 663c
00000100: 9612 dfbc b3ad 81bd 1820 6ebd 1691 b2bd
00000110: fe8e 303d ea16 973d d682 163e a8f7 52bd
00000120: bab6 103e a134 c7bd 982a 033e 1fc3 3bbe
00000130: 2208 02be 40a1 b33c c3c1 e93d 1c41 913d
00000140: 0f64 11be c7d0 b5bb 7709 45be 7bee 513e
00000150: c586 4cbe 73bc 45bb d977 0c3d d7a8 aeba
00000160: 6ddc 42bd 1379 dc3d 3fd7 1ebe 838f bfbd
00000170: d7cc 4ebd d81d e53d a1d5 003e 8032 ad3b
00000180: 024a 9dbd e611 9ebd 662a 413e 6df8 2e3c
00000190: a858 5a3e 20b6 52be 0fbe 2f3d 6ffd 93bd
000001a0: 166f ab3d f591 d3bd 888a c3bd d6a8 babd
000001b0: fc1d fb3c 1378 b33c 1cfa 54be 1128 9e3d
000001c0: a627 a9bc 1021 0c3d 023b e83d 7027 1cbe
000001d0: 3439 b4bd cb63 423e b5a3 e8bd bc7b 78bd
000001e0: 8619 06be f215 b3bd d750 97bd d30a 40be
000001f0: fe28 9e3d bc19 ca3d 12df 53be d943 0fbd

base.mlp.fc.2.weight f4 [128]
0.99860704 1.0061251 1.0007237 1.0074723 1.0048664 1.0051444 0.9958851 0.9992475
1.0033724 1.0013341 0.99706596 1.0018137 0.99334383 1.0015025 0.9983332 0.9941356
1.0045977 1.0066719 0.9991812 1.0062299 0.99467087 0.99588823 0.9956315 0.99699056
1.0008144 0.99973273 0.9959296 1.0104245 0.99743116 1.0013325 0.9971281 1.0070179
1.0005331 0.99927133 0.9995359 1.003408 0.9991071 0.99892616 1.0007344 1.0021386
0.99756414 1.0024025 0.99537474 0.9969114 0.9978911 1.0002288 0.99468917 0.99816096
0.99855375 1.0106926 1.0031989 0.9952236 1.0021477 1.0043502 1.0029023 1.0043089
0.99499446 1.0052505 0.9970684 0.99811125 1.0003862 0.9942828 1.0086426 1.0048547
1.0039334 0.99316984 1.0066307 1.0002875 1.0053074 1.0064877 0.9991153 1.0058455
1.0005846 0.99759823 1.0065837 0.99530697 0.9909035 0.99462533 0.9960612 0.99426407
0.99896646 0.99701947 0.99289626 1.0014062 1.014256 0.99476486 1.0004247 0.99343544
1.0067279 0.99933636 1.0018048 0.9982312 1.0015398 0.9933476 1.0014982 0.9937664
1.000298 0.9972922 1.0015945 1.0032907 1.010339 1.0046477 0.9894198 1.0038493
1.0112998 1.0020232 0.9969281 0.99691683 0.9945462 0.9987635 0.9967496 1.0054551
0.9969798 1.0034214 1.0055059 0.9956692 0.99993587 1.0147597 0.9963262 1.005514
1.0013865 1.0017463 0.9957572 0.99830145 0.9982283 1.0020826 1.0009328 1.0020273
00000000: b6a4 7f3f b5c8 803f b717 803f daf4 803f
00000010: 769f 803f 92a8 803f 53f2 7e3f afce 7f3f
00000020: 826e 803f b72b 803f b73f 7f3f 6e3b 803f
00000030: c84b 7e3f 3c31 803f c492 7f3f ac7f 7e3f
00000040: a896 803f a0da 803f 57ca 7f3f 24cc 803f
00000050: c0a2 7e3f 88f2 7e3f b5e1 7e3f c63a 7f3f
00000060: b01a 803f 7cee 7f3f 3ef5 7e3f 9755 813f
00000070: a657 7f3f aa2b 803f ca43 7f3f f6e5 803f
00000080: 7811 803f 3fd0 7f3f 96e1 7f3f ac6f 803f
00000090: 7cc5 7f3f a0b9 7f3f 1118 803f 1446 803f
000000a0: 5d60 7f3f ba4e 803f e1d0 7e3f 9635 7f3f
000000b0: cb75 7f3f 7f07 803f f3a3 7e3f 7a87 7f3f
000000c0: 38a1 7f3f 605e 813f d268 803f f9c6 7e3f
000000d0: 6046 803f 8c8e 803f 1a5f 803f 328d 803f
000000e0: f5b7 7e3f 0cac 803f e03f 7f3f 3884 7f3f
000000f0: a80c 803f 5189 7e3f 331b 813f 149f 803f
00000100: e480 803f 6140 7e3f 46d9 803f 6c09 803f
00000110: eaad 803f 97d4 803f 05c6 7f3f 8cbf 803f
00000120: 2813 803f 9962 7f3f bcd7 803f 70cc 7e3f
00000130: daab 7d3f c49f 7e3f defd 7e3f 1788 7e3f
00000140: 44bc 7f3f ab3c 7f3f 732e 7e3f 142e 803f
00000150: 24d3 813f e9a8 7e3f eb0d 803f c951 7e3f
00000160: 76dc 803f 82d4 7f3f 243b 803f 148c 7f3f
00000170: 7532 803f 074c 7e3f 1831 803f 7a67 7e3f
00000180: c409 803f 8b4e 7f3f 4034 803f d46b 803f
00000190: ca52 813f 4c98 803f 9e4a 7d3f 227e 803f
000001a0: 4672 813f 4c42 803f ae36 7f3f f135 7f3f
000001b0: 949a 7e3f f7ae 7f3f fb2a 7f3f c1b2 803f
000001c0: 113a 7f3f 1d70 803f 6bb4 803f 2de4 7e3f
000001d0: ccfb 7f3f a5e3 813f 3c0f 7f3f afb4 803f
000001e0: 6f2d 803f 3939 803f f2e9 7e3f af90 7f3f
000001f0: e48b 7f3f 3e44 803f 911e 803f 6e42 803f

base.mlp.fc.2.bias f4 [128]
-0.0008926188 0.00037599515 -0.0013450203 -0.00511472 0.00032424898 0.00069369056 -0.0036460184 0.0013414137
-0.003647515 -0.0011539154 0.0032065664 -0.0021225323 -0.008653159 0.00022662722 -0.0003817327 0.005611409
0.00039078205 -0.0030047293 0.001376853 -0.0018836764 -0.0035731914 0.005137256 0.0041261395 0.0025848337
0.0013727531 0.00010410485 0.0030568866 -0.0046088216 0.0005134061 -0.0010924535 -0.005334518 -0.0040458543
0.0030990331 0.0003128277 -0.0013750924 0.0018728494 0.00023088309 -0.00061540754 -0.003225529 -0.00049110147
0.0027218128 0.0034131056 -0.005085994 0.0036994633 -0.0056716474 0.004166352 0.006020223 0.0016693256
0.0021441851 -0.0036864304 -0.0009941332 0.0068362 0.0002712159 0.0012634933 -0.0024591957 0.0035622474
0.004808616 -0.0032049464 0.0016761479 -0.00026672025 0.0006621354 0.0038583484 -0.001191976 0.0016774173
0.0044621807 0.0065834303 -0.002068658 0.0019422729 -0.003361082 0.0018521952 0.001398178 -0.00093190634
-0.0011678686 0.0027832708 0.0030996306 0.0045877905 0.008694713 -0.007867948 0.0034279441 0.0041055875
0.002498914 -0.0058929785 -0.0053563667 -0.0005832027 -0.0023787257 -0.0074741854 -0.0035205437 0.0035936243
0.0017273012 -0.00055179646 -0.0018410721 -0.0024630278 0.00029048632 0.0062571997 -0.0027401731 0.0059407474
0.00020118518 -0.00090600515 0.0015089303 -0.0013040556 0.00085452775 -0.00067495747 -0.008242079 -0.0038008513
0.0025587184 0.0026305253 0.0027860806 -0.005103047 0.004573264 -0.0039378963 0.0034875353 -0.0024372009
0.003549051 0.001537716 0.0013769451 -0.0071636145 0.00020536764 0.0030423494 -0.0017906477 0.0024991294
-0.00075130834 0.0016721436 0.004278462 0.001106181 -0.003077076 -0.0016969087 8.3806946e-05 -0.0022003937
00000000: a2fe 69ba 3721 c539 644b b0ba 6299 a7bb
00000010: f6ff a939 c9d8 353a 0af2 6ebb 60d2 af3a
00000020: 260b 6fbb fa3e 97ba 4225 523b 2f1a 0bbb
00000030: fbc5 0dbc c8a2 6d39 4c23 c8b9 e9df b73b
00000040: e1e1 cc39 feea 44bb 8577 b43a b1e5 f6ba
00000050: 342c 6abb 6d56 a83b 9134 873b 5066 293b
00000060: f3ed b33a de52 da38 0c56 483b 9905 97bb
00000070: 1a96 063a a830 8fba 2ecd aebb 1693 84bb
00000080: 2619 4b3b 0603 a439 723c b4ba 667a f53a
00000090: 3519 7239 4d53 21ba 6663 53bb 43bd 00ba
000000a0: 7160 323b 69ae 5f3b 69a8 a6bb b272 723b
000000b0: 3ad9 b9bb e585 883b 4a45 c53b 46cd da3a
000000c0: 7585 0c3b 0a98 71bb 934d 82ba 3402 e03b
000000d0: fb31 8e39 cd9b a53a 752a 21bb 9874 693b
000000e0: 9891 9d3b 140a 52bb 31b2 db3a 96d6 8bb9
000000f0: 2893 2d3a 58dc 7c3b 143c 9cba c9dc db3a
00000100: 7c37 923b d1b9 d73b 5292 07bb dd93 fe3a
00000110: 9945 5cbb 5cc5 f23a 1243 b73a 2d4b 74ba
00000120: 2b13 99ba 8967 363b 2c23 4b3b 2d55 963b
00000130: 4574 0e3c 91e8 00bc 5ca7 603b 2a88 863b
00000140: d2c4 233b e319 c1bb 7684 afbb 12e2 18ba
00000150: 65e4 1bbb 03ea f4bb ecb8 66bb 0383 6b3b
00000160: 9c66 e23a 6fa6 10ba 2150 f1ba c06a 21bb
00000170: 6a4c 9839 3209 cd3b 7a94 33bb 9aaa c23b
00000180: 3cf5 5239 fa80 6dba 4dc7 c53a d8ec aaba
00000190: 6302 603a a1ef 30ba c909 07bc b417 79bb
000001a0: 2cb0 273b e464 2c3b ad96 363b 7637 a7bb
000001b0: 52db 953b 7809 81bb 228f 643b 72b9 1fbb
000001c0: 3297 683b 308d c93a 9c7a b43a c1bc eabb
000001d0: f557 5739 2762 473b 2bb4 eaba 6fc8 233b
000001e0: 73f3 44ba d42b db3a 5732 8c3b 46fd 903a
000001f0: c5a8 49bb cf6a deba 83c1 af38 7b34 10bb

base.mlp.fc.3.weight f4 [128, 128]
0.07439309 -0.03351279 -0.078694955 0.0002697955 0.046126403 0.058264814 0.087335825 -0.016362444
0.021685595 -0.053607736 -0.0763669 0.032493614 -0.03849731 0.06941553 -0.08436386 -0.06709944
0.04914218 0.009569497 -0.020083837 -0.010242265 0.034768496 0.054135345 -0.021424169 -0.0869751
-0.053399425 -0.038227152 -0.027364975 -0.06384379 -0.05019692 0.07786481 -0.08361773 0.023988007
-0.035351083 -0.072282754 -0.04862761 -0.041806735 0.029772943 -0.085736014 0.024318099 -0.04807356
0.018171167 0.04693428 0.0028428384 -0.070243 0.06677527 0.08864598 -0.01191364 0.07156431
-0.06302832 -0.07689816 0.013268744 -0.07025975 0.023641132 -0.026695697 0.0062686694 -0.0010397151
0.03743694 -0.052009728 -0.013257309 0.021832777 -0.015275276 0.010029079 0.065250985 0.0012811683
0.042799324 0.069141 -0.048546806 -0.08593211 0.035546776 -0.021267036 -0.014877526 -0.06606169
0.0514796 0.030076131 0.025549745 -0.034346867 -0.03769509 0.004085887 0.044134412 0.091651544
-0.032424737 -0.025030388 0.044764224 -0.0490631 0.076891534 -0.0068113627 -0.09297182 0.07818147
0.07414797 -0.02166672 -0.09523752 0.055389445 -0.01681162 0.020299576 0.044888984 0.078915186
0.003231669 0.059805643 0.053970266 -0.08003028 0.00068821386 0.050952125 0.013978467 -0.08510485
0.0809955 0.04165264 0.012284077 -0.090038426 0.07565975 -0.06044271 0.033809107 -0.095189564
-0.04394308 0.0836473 -0.040998034 -0.074445605 0.076473825 0.059315987 -0.055738423 0.010047998
0.04030711 -0.034502756 -0.057785325 0.025701098 0.040080085 -0.07573696 -0.009530194 0.004324958
0.076039374 -0.01195323 0.02034992 0.04862462 0.07896118 0.04214754 -0.050390482 0.07683542
-0.008092486 -0.067975625 0.047498744 0.04454639 -0.006272777 0.07055437 0.06822994 -0.024659438
0.037169594 -0.08335775 -0.011079611 0.024096722 -0.039810482 -0.05870453 -0.028285785 0.08683917
0.00932118 0.071102105 0.003991027 -0.08264917 -0.07943825 -0.07360402 -0.05331034 -0.01933873
0.050189048 -0.07542209 0.07545797 0.073344395 -0.024178494 0.07573391 0.042918783 -0.024146188
0.028320283 -0.0658077 0.036361102 0.05263999 0.07393249 0.058334086 -0.06609804 0.049618058
0.073883474 -0.07228915 -0.02717849 -0.023866016 0.08105652 -0.03727072 -0.063984 -0.07704051
0.026907172 0.06937951 0.001201112 -0.036342148 -0.082117125 -0.040706877 0.031073695 0.060914088
0.044941496 -0.03492776 0.03354757 0.06397191 -0.050025173 -0.0933738 0.04822896 0.07853982
0.058668125 -0.048418142 -0.034374855 0.062521406 0.021994853 0.00021949047 -0.035870727 0.06727309
0.025524748 0.00722972 0.03374402 0.02058077 0.08297823 -0.056790117 0.047412887 -0.017325338
0.050577417 -0.009171642 0.08381605 0.039299533 -0.07576677 -0.06595442 0.02975509 -0.0800361
0.038237497 -0.08720716 -0.07276142 -0.009335936 0.045177553 -0.06452253 0.0528024 -0.047193374
0.041464854 0.077615306 0.02809731 0.07254162 -0.026487872 0.09316414 -0.007908112 0.062357593
0.024605043 0.036358163 0.096015334 0.04440634 0.01795811 0.07041274 0.050875675 -0.0049588904
-0.05440198 0.06186014 0.008015294 -0.06297937 -0.00102655 0.052958973 -0.007864302 0.02461956
00000000: 685b 983d b544 09bd d22a a1bd 5773 8d39
00000010: 0aef 3c3d 16a7 6e3d 20dd b23d 880a 86bc
00000020: fda5 b13c c993 5bbd 4066 9cbd 0618 053d
00000030: 5baf 1dbd bb29 8e3d f6c6 acbd 6e6b 89bd
00000040: 4f49 493d 61c9 1c3c dc86 a4bc 2ccf 27bc
00000050: 6969 0e3d 06bd 5d3d bd81 afbc 0020 b2bd
00000060: 5bb9 5abd 1394 1cbd 832c e0bc 88c0 82bd
00000070: 499b 4dbd 9677 9f3d c63f abbd 7f82 c43c
00000080: 4ccc 10bd fb08 94bd bf2d 47bd 8a3d 2bbd
00000090: 63e6 f33c 5d96 afbd c036 c73c c8e8 44bd
000000a0: b3db 943c 293e 403d ea4e 3a3b 90db 8fbd
000000b0: 79c1 883d 068c b53d 6e31 43bc 4f90 923d
000000c0: fe14 81bd c87c 9dbd 2565 593c 58e4 8fbd
000000d0: 0cab c13c efb0 dabc 6969 cd3b 0d47 88ba
000000e0: 7a57 193d 2708 55bd 2f35 59bc a7da b23c
000000f0: 2745 7abc 0251 243c 4fa2 853d e0ec a73a
00000100: 584e 2f3d cc99 8d3d 04d9 46bd 2dfd afbd
00000110: 7f99 113d 3538 aebc dec0 73bc 5a4b 87bd
00000120: 46dc 523d 3862 f63c b34d d13c 4daf 0cbd
00000130: 2b66 1abd e8e2 853b 49c6 343d ceb3 bb3d
00000140: cdcf 04bd 870c cdbc b15a 373d 64f6 48bd
00000150: 4f79 9d3d da31 dfbb 0268 bebd 9b1d a03d
00000160: e4da 973d 687e b1bc e40b c3bd 0be0 623d
00000170: 86b8 89bc 4c4b a63c 83dd 373d 499e a13d
00000180: 69ca 533b c3f6 743d ed0f 5d3d eae6 a3bd
00000190: 4069 343a 2db3 503d f105 653c 744b aebd
000001a0: f8e0 a53d f59b 2a3d 2743 493c 1166 b8bd
000001b0: 80f3 9a3d c692 77bd 6b7b 0a3d bff2 c2bd
000001c0: a9fd 33bd 474f ab3d 8eed 27bd f076 98bd
000001d0: 4f9e 9c3d 52f5 723d f94d 64bd 5ca0 243c
000001e0: 1119 253d c352 0dbd 4eb0 6cbd 1c8b d23c
000001f0: 042b 243d fb1b 9bbd 8824 1cbc 61b8 8d3b
00000200: 88ba 9b3d 7bd7 43bc e0b4 a63c 9c2a 473d
00000210: 66b6 a13d e6a2 2c3d 4066 4ebd e45b 9d3d
00000220: 5996 04bc ce36 8bbd 0b8e 423d 4776 363d
00000230: de8b cdbb cf7e 903d 24bc 8b3d 9702 cabc
00000240: 253f 183d 78b7 aabd 4287 35bc 7d66 c53c
00000250: 5110 23bd 2974 70bd 97b7 e7bc bcd8 b13d
00000260: ddb7 183c fb9d 913d 29c7 823b f843 a9bd
00000270: 85b0 a2bd b4bd 96bd f15b 5abd 426c 9ebc
00000280: 0893 4d3d e676 9abd b589 9a3d 9635 963d
00000290: fa11 c6bc 611a 9b3d 9bcb 2f3d 3ace c5bc
000002a0: f0ff e73c 30c6 86bd 61ef 143d 089d 573d
000002b0: eb69 973d b9ef 6e3d 695e 87bd 4e3c 4b3d
000002c0: 3850 973d 550c 94bd 6da5 debc aa82 c3bc
000002d0: f600 a63d 2fa9 18bd 0b0a 83bd 6ac7 9dbd
000002e0: 6e6c dc3c d816 8e3d a26e 9d3a 81db 14bd
000002f0: 062d a8bd 41bc 26bd 438e fe3c 0d81 793d
00000300: 9314 383d 6910 0fbd 2d69 093d b403 833d
00000310: 32e7 4cbd c33a bfbd bb8b 453d 7cd9 a03d
00000320: fd4d 703d 1a52 46bd a6cc 0cbd 390b 803d
00000330: 8d2e b43c 0627 6639 2fed 12bd 79c6 893d
00000340: 4719 d13c 49e7 ec3b 2b37 0a3d 0199 a83c
00000350: 7ef0 a93d c19c 68bd 0434 423d deed 8dbc
00000360: 442a 4f3d a844 16bc c0a7 ab3d 8cf8 203d
00000370: 9c2b 9bbd 1c13 87bd f2c0 f33c f7e9 a3bd
00000380: ec9e 1c3d ab99 b2bd f003 95bd c1f5 18bc
00000390: 190c 393d 6324 84bd 5447 583d d74d 41bd
000003a0: 0dd7 293d c6f4 9e3d 542c e63c b390 943d
000003b0: 18fd d8bc d7cc be3d 0791 01bc ad6a 7f3d
000003c0: 8490 c93c 4cec 143d b0a3 c43d 6ce3 353d
000003d0: e31c 933c 8e34 903d 0363 503d 307e a2bb
000003e0: 9cd4 5ebd 0f61 7d3d 9452 033c 54fb 80bd
000003f0: 4d8d 86ba 82eb 583d 46d9 00bc f6ae c93c

base.mlp.fc.3.bias f4 [128]
-0.050690137 -0.011796437 -0.055355784 -0.0080861775 -0.024308586 0.07003108 -0.064934514 0.057967093
-0.009578854 -0.06561118 0.05006752 2.1437634e-05 -0.049991284 -0.016967982 0.06863241 0.038607966
-0.076729804 0.08099179 -0.071512245 0.010360316 -0.072031274 -0.08119974 0.06066253 0.055377357
-0.05902067 0.084093526 0.07574122 0.030811347 0.0826578 0.039545994 0.07451381 -0.07209369
0.053128965 0.013928184 -0.04769213 -0.037573706 -0.0069273785 -0.0026126574 -0.031021493 -0.07096997
-0.0023024995 0.044428516 0.014652759 0.043539815 0.0601947 0.07900554 -0.012452977 -0.008541363
0.0038866263 0.027879922 0.050095655 -0.07334283 -0.049855657 -0.004813878 -0.02700421 -0.013378598
-0.012209238 0.058795005 0.024563352 0.045687042 -0.058410928 -0.021636492 -0.038917236 -0.015256133
0.028510593 -0.023845421 0.020033527 -0.08173082 -0.074601814 -0.006180993 -0.066139676 -0.04175872
0.0407403 0.031709068 -0.0174033 -0.013497878 -0.07833249 0.035726015 0.02955559 0.056884006
-0.04139061 0.040435944 0.083322756 -0.010614547 0.063973956 0.0038200605 -0.059395388 0.037083596
-0.05691079 0.0045168805 -0.017366415 0.05619535 -0.07459772 0.020079602 0.0021147982 0.02860599
-0.049309317 0.0039075105 0.07758789 -0.023817277 -0.013705404 -0.0026910263 -0.053254012 0.06730896
-0.06456135 0.03219675 -0.019779978 0.0043465286 0.011056945 -0.046737824 -0.03183111 0.047219362
0.031842653 -0.04878445 0.017276127 -0.06602506 0.0634327 0.027219083 -0.088481955 -0.036762018
-0.0015888843 0.070046745 -0.08563263 -0.034765966 0.06253975 0.037297208 -0.021791425 0.06930175
00000000: 76a0 4fbd d845 41bc bfbc 62bd e37b 04bc
00000010: cd22 c7bc 746c 8f3d 63fc 84bd e76e 6d3d
00000020: a0f0 1cbc 285f 86bd 9a13 4d3d f8d4 b337
00000030: a9c3 4cbd 7000 8bbc 268f 8c3d 6323 1e3d
00000040: 8424 9dbd 06df a53d 0375 92bd 51be 293c
00000050: 2285 93bd 0d4c a6bd 4679 783d 5ed3 623d
00000060: a8bf 71bd 3a39 ac3d 361e 9b3d 1468 fc3c
00000070: 7e48 a93d fbfa 213d b29a 983d dba5 93bd
00000080: c29d 593d 0a33 643c d358 43bd e3e6 19bd
00000090: 10ff e2bb 1e39 2bbb c920 febc b458 91bd
000000a0: 88e5 16bb adfa 353d 2012 703c ce56 323d
000000b0: b88e 763d a8cd a13d 9207 4cbc 13f1 0bbc
000000c0: c5b6 7e3b 6f64 e43c 1a31 4d3d c434 96bd
000000d0: 7235 4cbd bcbd 9dbb ef37 ddbc e831 5bbc
000000e0: 4109 48bc 08d3 703d 1539 c93c 5622 3b3d
000000f0: 4c40 6fbd 033f b1bc ae67 1fbd dcf4 79bc
00000100: 0c8f e93c 7957 c3bc 5a1d a43c 7d62 a7bd
00000110: d6c8 98bd ed89 cabb 3d74 87bd 310b 2bbd
00000120: 4ddf 263d 5ee1 013d 5e91 8ebc 3426 5dbc
00000130: c96c a0bd 7155 123d 911e f23c 34ff 683d
00000140: 3389 29bd 29a0 253d 1fa5 aa3d a3e8 2dbc
00000150: c704 833d fb59 7a3b 9448 73bd f8e4 173d
00000160: 4a1b 69bd 5702 943b 0344 8ebc 182d 663d
00000170: b0c6 98bd fa7d a43c 6d98 0a3b 1c57 ea3c
00000180: 91f8 49bd 930a 803b 66e6 9e3d 731c c3bc
00000190: a18c 60bc ee5b 30bb e120 5abd 48d9 893d
000001a0: be38 84bd bde0 033d 9f09 a2bc 536d 8e3b
000001b0: 3028 353c 2970 3fbd 5761 02bd 1769 413d
000001c0: 716d 023d 34d2 47bd aa86 8d3c 2638 87bd
000001d0: 01e9 813d 8efa de3c 0736 b5bd c593 16bd
000001e0: 1c42 d0ba ab74 8f3d 2960 afbd c266 0ebd
000001f0: d714 803d f5c4 183d ee83 b2bc 13ee 8d3d

base.mlp.fc.5.weight f4 [128]
1.0002441 1.0096481 1.0081829 0.99408525 1.0015583 1.0054297 0.9939455 0.9989516
0.9957111 0.99218005 0.9974211 1.011626 0.998181 0.99398917 0.9924696 1.0028014
0.9985029 1.0016855 1.0013747 0.9978936 1.0052834 0.9998921 1.0037458 0.9958369
1.0000932 1.000159 1.00314 1.0030038 1.0087194 1.0027671 0.99993974 0.9993852
1.0023271 0.99904644 1.0037843 1.0055718 0.9999915 0.99790996 0.99480075 1.0031748
1.0000297 0.99809533 0.99787384 0.9953057 1.0042135 1.0088385 1.0007272 0.996574
1.0026155 1.0092198 1.0086918 1.0006918 1.002083 0.99930257 0.99831563 1.0051112
1.0055112 1.0032451 1.005681 0.9958535 0.99463224 0.9954301 0.99341905 1.0047632
1.0031343 0.9934998 0.9925072 1.0002701 1.0015317 1.0057657 0.9994605 0.9974123
0.99697715 1.0058796 1.000473 0.9985205 1.0054438 1.0073321 1.0014082 0.998953
0.9981547 1.0015986 1.0022963 0.9968585 0.9952645 1.0025947 0.99692 1.0033801
1.000677 0.99211967 0.9978073 0.99724925 1.0029968 0.9976409 0.9989798 0.9950568
0.9930622 0.9974584 0.9963377 0.99687344 0.99752206 1.0003424 1.0018334 0.99363863
0.9986816 1.0093122 1.001501 1.0043854 1.0038483 1.0052484 0.99969095 1.0028037
1.000167 0.99752504 0.9978468 0.99852043 0.99700654 1.0127119 0.99495494 0.99989986
0.99340856 1.010657 1.0031157 0.9955241 1.0022371 0.99730015 1.0043707 0.9930493
00000000: 0008 803f 263c 813f 230c 813f 5f7c 7e3f
00000010: 1033 803f ecb1 803f 3673 7e3f 4bbb 7f3f
00000020: ece6 7e3f 83ff 7d3f fd56 7f3f f67c 813f
00000030: ca88 7f3f 1376 7e3f 7d12 7e3f cc5b 803f
00000040: e39d 7f3f 3b37 803f 0c2d 803f f475 7f3f
00000050: 20ad 803f eef8 7f3f be7a 803f 2bef 7e3f
00000060: 0e03 803f 3605 803f e466 803f 6e62 803f
00000070: b81d 813f ac5a 803f 0dfc 7f3f b5d7 7f3f
00000080: 414c 803f 82c1 7f3f 017c 803f 94b6 803f
00000090: 71ff 7f3f 0777 7f3f 43ab 7e3f 0868 803f
000000a0: f900 803f 2d83 7f3f a974 7f3f 5bcc 7e3f
000000b0: 118a 803f 9f21 813f d417 803f 791f 7f3f
000000c0: b455 803f 1d2e 813f d01c 813f ab16 803f
000000d0: 4144 803f 4bd2 7f3f 9d91 7f3f 7ca7 803f
000000e0: 97b4 803f 566a 803f 28ba 803f 41f0 7e3f
000000f0: 38a0 7e3f 82d4 7e3f b650 7e3f 159c 803f
00000100: b466 803f 0156 7e3f f414 7e3f da08 803f
00000110: 3132 803f eebc 803f a5dc 7f3f 6a56 7f3f
00000120: e539 7f3f aac0 803f 800f 803f 0a9f 7f3f
00000130: 62b2 803f 42f0 803f 252e 803f 62bb 7f3f
00000140: 1187 7f3f 6234 803f 3f4b 803f 1e32 7f3f
00000150: a7c9 7e3f 0655 803f 2636 7f3f c26e 803f
00000160: 2f16 803f 8efb 7d3f 4d70 7f3f ba4b 7f3f
00000170: 3362 803f 6565 7f3f 24bd 7f3f 0bbc 7e3f
00000180: 5339 7e3f 6f59 7f3f fd0f 7f3f 1933 7f3f
00000190: 9b5d 7f3f 380b 803f 143c 803f 1a5f 7e3f
000001a0: 99a9 7f3f 2431 813f 2f31 803f b38f 803f
000001b0: 1a7e 803f fbab 803f bfeb 7f3f df5b 803f
000001c0: 7905 803f cd5d 7f3f e372 7f3f 099f 7f3f
000001d0: d23b 7f3f 8ba0 813f 5eb5 7e3f 70f9 7f3f
000001e0: 0650 7e3f 355d 813f 1866 803f abda 7e3f
000001f0: 4e49 803f 104f 7f3f 388f 803f 7b38 7e3f

base.mlp.fc.5.bias f4 [128]
0.0036445619 -0.0017636952 0.0010515368 0.00531091 0.00036961984 -0.0016491308 0.0041927504 -0.0020612068
0.0029889508 0.0025357632 0.0014297175 -0.0022078434 -0.00013019888 -0.002409343 0.004324012 -0.0018512089
0.0037196595 -0.0016564472 -0.0015311333 -0.0026503894 0.0012694867 -0.0014863494 0.000684063 -0.0011722699
0.001471825 -0.00053042924 -0.00083078974 0.003843626 -0.0031101464 0.0030576172 -0.0007683806 -0.0024761215
-0.0014718301 -7.31942e-05 0.0010943984 -0.0039594485 -0.003917299 0.0026766497 0.005010989 5.3722863e-05
-0.0045587076 0.002008923 0.00071190496 -0.003030591 -0.0031183024 -0.0005831387 0.0018751452 -0.0027960655
0.0011812812 0.0019887302 0.0034957074 0.0006982378 8.701721e-05 0.0005336932 0.0012364932 -0.0044456623
0.0019580473 -0.001811043 0.002317883 0.002465489 0.004231402 0.0034916857 0.0059791002 0.0032103264
0.0010080106 0.006242644 0.0028764345 -0.00023670829 -0.0010043837 7.2402036e-06 0.0013859004 -0.0011397192
0.0009697344 -0.0018329308 -0.0015033222 -0.0008915423 -0.008302424 -0.0019132503 0.0024768885 0.0025006335
-0.000663947 0.0040828637 0.0003828135 0.0035616888 0.0032124964 -0.0005780243 0.0029947862 0.00030057947
0.00010309518 -0.0010718256 -0.0052820262 0.002753091 -0.00085147785 0.002537203 0.0010095099 -0.0018711216
0.0016825795 0.002533595 0.0029705463 0.0020568643 0.0021164056 0.0004156189 -0.0017494452 0.004364115
-0.0011477085 0.00031788455 -0.001532546 0.0012219322 0.0002573732 -0.0019025124 -4.6865785e-05 -0.0035696463
-0.0009351527 -0.0060818214 0.002198018 0.0035301866 0.0032120363 0.0014905152 0.0025445772 -0.00025649247
-0.0012651028 -0.0050710784 0.0011668009 0.0024517884 -0.00038862292 0.0029450885 -0.00036544728 0.006976955
00000000: 9ad9 6e3b ca2b e7ba b8d3 893a 2407 ae3b
00000010: 89c9 c139 a627 d8ba 5763 893b 5015 07bb
00000020: 46e2 433b 0c2f 263b 5c65 bb3a 77b1 10bb
00000030: ff85 08b9 11e6 1dbb 71b0 8d3b 43a4 f2ba
00000040: 88c5 733b 251d d9ba 4fb0 c8ba 28b2 2dbb
00000050: e864 a63a 9cd1 c2ba b152 333a daa6 99ba
00000060: 40ea c03a 810c 0bba 5bc9 59ba 58e5 7b3b
00000070: 99d3 4bbb 4e62 483b 266d 49ba 6d46 22bb
00000080: 6cea c0ba d67f 99b8 eb71 8f3a 43be 81bb
00000090: b05c 80bb bb6a 2f3b 3933 a43b 7c54 6138
000000a0: 3661 95bb 23a8 033b 229f 3a3a e19c 46bb
000000b0: 6f5c 4cbb c7dd 18ba 6fc7 f53a 323e 37bb
000000c0: 38d5 9a3a 5b55 023b 3d18 653b f209 373a
000000d0: 027d b638 8be7 0b3a d411 a23a ebac 91bb
000000e0: 9552 003b 8560 edba a0e7 173b 0b94 213b
000000f0: 93a7 8a3b c4d4 643b 54ec c33b 5764 523b
00000100: 391f 843a 188f cc3b 9082 3c3b e634 78b9
00000110: 86a5 83ba e0f0 f236 1aa7 b53a a162 95ba
00000120: c635 7e3a f43e f0ba 1f0b c5ba 64b6 69ba
00000130: e406 08bc 07c6 faba 4b53 223b abe1 233b
00000140: bb0c 2eba 8bc9 853b 5cb4 c839 396b 693b
00000150: bf88 523b 8e86 17ba 2d44 443b 1897 9d39
00000160: ce34 d838 807c 8cba d914 adbb 346d 343b
00000170: b635 5fba 3447 263b 8851 843a 6c40 f5ba
00000180: 008a dc3a ac0a 263b 7fad 423b 75cc 063b
00000190: 65b3 0a3b 6de7 d939 a44d e5ba da00 8f3b
000001a0: b56e 96ba bea9 a639 b6df c8ba 3e29 a03a
000001b0: 0cf0 8639 b95d f9ba c191 44b8 baf0 69bb
000001c0: 0925 75ba 044a c7bb 9f0c 103b b45a 673b
000001d0: 0781 523b 645d c33a ecc2 263b d679 86b9
000001e0: ced1 a5ba 4a2b a6bb 57ef 983a 2fae 203b
000001f0: 16c0 cbb9 6302 413b 8199 bfb9 f19e e43b

rnn.gru.weight_ih_l0 f4 [384, 128]
-0.06966172 0.06685021 -0.046441156 0.08706337 0.042541374 0.0022247203 0.0022557373 0.028614834
0.07206924 -0.027406447 0.040539786 0.05025171 -0.041948225 0.08074917 -0.06931975 -0.008235964
0.006021334 0.025571207 -0.0060574436 0.07150485 -0.021165926 0.05819664 0.014420117 0.08647269
0.08070927 0.09182459 -0.019176982 -0.06490697 -0.061814003 -0.039228056 -0.0073426943 0.044463612
0.04571704 0.058878366 -0.022259273 -0.021868873 -0.07640056 -0.025296936 0.0050907712 -0.0070985965
-0.01639306 0.06727236 0.008621926 0.032350298 -0.02571156 0.044256747 -0.022197012 -0.0076077776
-0.022559246 0.05850203 0.029489366 0.040309645 -0.0051506115 0.06360543 -0.0596803 0.088081285
0.08519629 0.017476805 -0.051416866 -0.08067891 -0.08071734 0.08643568 0.042630535 -0.07839725
0.014584037 0.088935204 -0.07479307 0.07934705 -0.02233996 0.052429408 -0.019694105 -0.03456919
0.060988657 0.0701655 -0.04155188 -0.012571689 0.026760228 0.082503706 -0.06449909 0.011861212
-0.07928583 -0.07040866 -0.06942052 0.07506846 0.06786024 -0.067909345 0.029391844 0.050367583
0.07923549 -0.004944385 -0.06438567 -0.08028 0.040745053 0.06266537 -0.042736012 0.061308376
0.06267287 -0.050528713 -0.061089896 0.06679819 -0.06306295 0.014716984 0.08402351 -0.054595597
-0.07193807 0.059796114 -0.0011018275 0.030775351 -0.054072212 -0.07277886 -0.07022464 0.06794173
-0.04918973 -0.084806815 -0.004550302 0.066032626 -0.02595622 0.011677469 0.058024112 -0.029523443
0.014941499 0.029050417 0.03689298 0.009138155 -0.086772494 0.01427037 -0.05398339 -0.040640403
-0.06789706 0.024390804 0.056945022 -0.037818596 -0.0863732 -0.04868079 0.05835744 -0.030669365
0.04811839 -0.018571617 0.039522868 0.044858795 -0.025434308 0.0148771545 0.059471473 0.026501384
0.07588953 -0.026797414 0.06966629 0.075791255 -0.00037193688 0.059095003 -0.018626845 -0.0060290936
0.014393627 -0.018904546 -0.024882458 -0.05620557 -0.06552031 0.03596749 -0.03735318 0.0121306265
-0.08039264 0.014089732 -0.025660343 -0.002942439 -0.059946604 -0.020744957 0.014947013 -0.07915399
-0.021409433 -0.087133974 0.08028565 0.020831866 0.0733114 0.0067764632 -0.050582144 0.010202569
0.084281266 0.0051164487 -0.07985919 0.05119633 -0.008899464 0.0341392 0.0013336847 -0.042164356
0.04313169 0.08352743 -0.051206633 -0.073808774 -0.05339465 0.0776588 0.084837966 0.08662406
-0.038260322 -0.080267385 -0.06351073 1.8779854e-05 0.075453795 0.093669675 0.030364731 -0.016633736
0.054153167 0.06643558 0.041916005 0.07700685 0.023827063 0.042127375 -0.019554807 0.0361274
0.029385295 -0.020659106 0.054786086 -0.054233927 0.04849433 0.041246705 0.059515305 -0.006634797
-0.042032775 0.009970742 0.015199632 0.07369095 -0.029438708 0.07656721 -0.062114533 0.037568845
-0.06413836 0.009147601 -0.006697108 -0.080101565 -0.025441742 -0.083890945 0.04131107 -0.034719743
-0.049183775 0.026841514 -0.04002787 0.050521255 0.06513802 -0.03274207 0.04537165 -0.07190362
0.028660584 0.0072541228 0.049886905 0.034527738 0.04110557 0.035611343 -0.08186273 -0.015879938
-0.011483118 -0.0274359 -0.058415595 0.036957778 0.07833985 -0.012494296 -0.0446474 -0.041962948
00000000: ceaa 8ebd c3e8 883d 1539 3ebd 484e b23d
00000010: dd3f 2e3d 9dcc 113b fed4 133b a869 ea3c
00000020: 0a99 933d 7c83 e0bc 0c0d 263d bdd4 4d3d
00000030: e7d1 2bbd d25f a53d 83f7 8dbd 23f0 06bc
00000040: 9c4e c53b b57a d13c 857d c6bb 2371 923d
00000050: 2a64 adbc 9a5f 6e3d 5b42 6c3c 9818 b13d
00000060: e74a a53d 880e bc3d 0c19 9dbc f2ed 84bd
00000070: ae30 7dbd 99ad 20bd fc9a f0bb 7a1f 363d
00000080: ca41 3b3d 712a 713d 1459 b6bc 5a26 b3bc
00000090: e677 9cbd 853b cfbc 7cd0 a63b 589b e8bb
000000a0: bd4a 86bc 17c6 893d fb42 0d3c bf81 043d
000000b0: 0da1 d2bc 9046 353d 82d6 b5bc aa4a f9bb
000000c0: 2bce b8bc d39f 6f3d af93 f13c ba1b 253d
000000d0: 76c6 a8bb 9043 823d 5573 74bd f663 b43d
000000e0: 647b ae3d 842b 8f3c 7e9a 52bd fc3a a5bd
000000f0: 224f a5bd 3105 b13d 5b9d 2e3d bd8e a0bd
00000100: e2f1 6e3c a923 b63d 1c2d 99bd b580 a23d
00000110: 4b02 b7bc 38c0 563d 8855 a1bc 6c98 0dbd
00000120: 3ecf 793d eeb2 8f3d 4e32 2abd 7cf9 4dbc
00000130: 4438 db3c b4f7 a83d 1918 84bd 8755 423c
00000140: 9c60 a2bd 6a32 90bd 582c 8ebd 7ebd 993d
00000150: 4ffa 8a3d 0e14 8bbd 2ac7 f03c 3d4e 4e3d
00000160: 3746 a23d 8204 a2bb a2dc 83bd d769 a4bd
00000170: 49e4 263d b456 803d f50b 2fbd 7e1e 7b3d
00000180: a25a 803d 32f7 4ebd 6639 7abd 7dcd 883d
00000190: 2627 81bd 811f 713c 8514 ac3d a29f 5fbd
000001a0: 4454 93bd c5ec 743d 326b 90ba 971c fc3c
000001b0: d37a 5dbd 150d 95bd f0d1 8fbd 0925 8b3d
000001c0: 2c7b 49bd 32af adbd b31a 95bb 1d3c 873d
000001d0: 24a2 d4bc db52 3f3c b1aa 6d3d 26db f1bc
000001e0: 30cd 743c 24fb ed3c 181d 173d 33b8 153c
000001f0: c7b5 b1bd 45ce 693c b01d 5dbd 8d76 26bd
00000200: 9d0d 8bbd 39cf c73c 2f3f 693d ace7 1abd
00000210: 6fe4 b0bd 8265 47bd 3608 6f3d 523e fbbc
00000220: ca17 453d 8123 98bc bbe2 213d dbbd 373d
00000230: 9c5b d0bc 4fbf 733c 5c98 733d 6e19 d93c
00000240: f86b 9b3d 4086 dbbc 33ad 8e3d 7238 9b3d
00000250: 8600 c3b9 9a0d 723d 5397 98bc b48f c5bb
00000260: 3fd3 6b3c b5dd 9abc 4cd6 cbbc d037 66bd
00000270: 832f 86bd a652 133d a6ff 18bd 89bf 463c
00000280: e5a4 a4bd 9fd8 663c a435 d2bc efd5 40bb
00000290: 928a 75bd 54f1 a9bc 51e4 743c 7d1b a2bd
000002a0: d662 afbc 4c73 b2bd ce6c a43d 97a7 aa3c
000002b0: 4a24 963d 180d de3b 392f 4fbd ad28 273c
000002c0: a89b ac3d e2a7 a73b 378d a3bd 3eb3 513d
000002d0: 0fcf 11bc 8cd5 0b3d 08cf ae3a 88b4 2cbd
000002e0: dbaa 303d 6e10 ab3d 0cbe 51bd 0e29 97bd
000002f0: 59b4 5abd 940b 9f3d 87bf ad3d f567 b13d
00000300: dbb6 1cbd 3a63 a4bd ea11 82bd 6e89 9d37
00000310: 8587 9a3d e3d5 bf3d 75bf f83c 7943 88bc
00000320: b6cf 5d3d 610f 883d 1eb0 2b3d c4b5 9d3d
00000330: f930 c33c c18d 2c3d 6731 a0bc 53fa 133d
00000340: 6eb9 f03c 493d a9bc 6067 603d 6524 5ebd
00000350: fea1 463d 4ef2 283d 52c6 733d b668 d9bb
00000360: 8f2a 2cbd 535c 233c e107 793c 48eb 963d
00000370: 7229 f1bc 45cf 9c3d cf6b 7ebd cae1 193d
00000380: f95a 83bd d2df 153c 6a73 dbbb 4a0c a4bd
00000390: 336b d0bc 04cf abbd cc35 293d 4a36 0ebd
000003a0: ed74 49bd bce2 db3c 44f4 23bd 60ef 4e3d
000003b0: 1567 853d 8c1c 06bd a0d7 393d 3542 93bd
000003c0: 9ac9 ea3c feb3 ed3b 3656 4c3d f56c 0d3d
000003d0: 505e 283d 33dd 113d a6a7 a7bd a516 82bc
000003e0: b023 3cbc 41c1 e0bc 3145 6fbd 0a61 173d
000003f0: a570 a03d e0b4 4cbc 31e0 36bd 57e1 2bbd

rnn.gru.weight_hh_l0 f4 [384, 128]
0.08129918 0.070139274 -0.024272058 -0.043492544 0.013244669 -0.0017297528 0.039097197 -0.060463123
-0.06765948 0.069970235 0.00085831864 -0.065824814 -0.013703789 -0.04360745 0.0029223952 0.052305955
0.027982585 0.0041270424 0.02567147 -0.015962044 0.0150493 -0.022064392 0.067985475 0.008207673
-0.060187552 -0.009097695 -0.019445097 0.04729165 -0.053060893 0.047209606 0.018517507 0.0060400693
0.08322327 0.06760712 0.04681303 0.05221166 -0.07365134 0.03047162 0.019608561 0.06991834
0.07959074 0.08281827 0.048701935 0.004113133 0.037004534 -0.09209354 0.055543296 -0.0805566
0.016442312 -0.018751482 0.049776044 0.08543983 0.016062716 -0.07371038 -0.01088477 0.046349622
0.07405847 0.012289739 -0.054297447 0.09079761 0.05898163 0.026034564 0.036492564 -0.08695831
0.065603204 -0.061657786 -0.09531222 0.0384293 -0.05481826 -0.019055812 0.07685548 0.0787884
0.07442284 0.0087113995 0.007641596 -0.045509953 -0.08040757 0.012308418 0.029747585 -0.07672563
-0.0037980916 -0.07965893 0.008150456 0.05251831 0.0018988667 -0.065389134 -0.06765655 0.0795701
-0.004280351 0.04639634 -0.042268977 0.06671204 0.034535944 0.020111255 0.084548764 0.09149453
-0.07572475 -0.046631865 -0.046961203 -0.024321562 0.015924208 0.0712355 -0.05756366 0.019909162
-0.086174786 0.043106187 0.068031125 -0.042552993 -0.011690522 0.060648795 -0.05133462 0.012798585
-0.069477275 -0.0586351 0.0076567866 0.07514778 -0.05882275 0.051041164 -0.06358888 0.030366225
-0.027216066 0.028530262 0.06563352 -0.055316634 0.04683222 0.029632231 0.029266903 -0.036045294
0.029835919 0.033083133 -0.07506778 -0.07858804 0.03564866 0.030664936 -0.066831134 0.014819201
0.079244725 -0.024370724 -0.024736203 0.08118844 0.043330904 -0.06493159 -0.020931385 0.049201854
0.08640286 0.08176992 -0.019270936 0.025483396 0.046721544 -0.065170124 -0.020629028 0.032108366
0.003848402 -0.051879786 -0.022210483 -0.046015557 -0.02295412 0.02230397 0.026662473 -0.005477147
0.076025486 0.011177813 -0.047972437 -0.0154256765 -0.038485996 -0.02838091 -0.010851034 0.046823177
0.018065883 -0.08808931 0.024529079 0.06854709 0.04662713 0.03183318 0.020885557 0.051942114
-0.029607695 -0.049312882 -0.029769877 0.0405657 -0.0682451 -0.059489314 0.050892435 -0.06680531
0.028707653 0.027926328 -0.047701035 0.023603316 0.049624868 0.083772756 -0.0034506132 0.048785288
-0.007952862 0.07719696 0.05406925 0.053047203 0.004247419 -0.08872375 0.0031952534 -0.01941612
-0.07881253 0.040947337 0.083228 0.072827674 -0.038598973 0.0121808825 0.0649781 -0.059973445
-0.0056142216 -0.0019544926 0.033626903 0.038588922 -0.059872966 -0.040538996 -0.06325676 -0.050459146
-0.068795875 0.022412322 -0.07685011 -0.087505184 0.046944402 0.012730757 0.073630214 -0.010258043
0.088582374 -0.04237418 0.0017894196 0.04404277 -0.063116185 -0.05507157 -0.012689398 -0.04108291
-0.055874743 -0.009276967 -0.05614887 0.028040089 -0.014384832 0.0610455 -0.06564037 0.07936475
0.021301063 -0.029095965 0.080447316 -0.07272936 -0.0044392757 0.013504455 0.00010872197 0.061062377
-0.050357297 -0.06710402 -0.064859234 0.01298171 0.006223025 -0.079014555 -0.05957596 -0.03602815
00000000: 2f80 a63d 2ea5 8f3d 32d6 c6bc 3d25 32bd
00000010: 2b00 593c dfb8 e2ba 6224 203d 2ea8 77bd
00000020: 0e91 8abd 8e4c 8f3d ca00 613a 29cf 86bd
00000030: db85 60bc ba9d 32bd a885 3f3b c53e 563d
00000040: bc3b e53c 243c 873b fa4c d23c d5c2 82bc
00000050: 5791 763c 62c0 b4bc f83b 8b3d 7a79 063c
00000060: 3987 76bd 800e 15bc 534b 9fbc e4b4 413d
00000070: 6156 59bd dc5e 413d 07b2 973c c6eb c53b
00000080: f670 aa3d 9a75 8a3d 05bf 3f3d e5db 553d
00000090: 84d6 96bd 9e9f f93c 22a2 a03c 5931 8f3d
000000a0: 7800 a33d a09c a93d ae7b 473d 76c7 863b
000000b0: 1192 173d 8a9b bcbd 5e81 633d dcfa a4bd
000000c0: 07b2 863c b59c 99bc f7e1 4b3d 14fb ae3d
000000d0: f595 833c 78f5 96bd 0956 32bc 1ad9 3d3d
000000e0: f8ab 973d e75a 493c 0067 5ebd 19f4 b93d
000000f0: b996 713d 7046 d53c 3a79 153d 3317 b2bd
00000100: f95a 863d e08c 7cbd 0e33 c3bd 0b68 1d3d
00000110: 1d89 60bd ef1a 9cbc 6866 9d3d d05b a13d
00000120: 006b 983d 42ba 0e3c 5a66 fa3b a568 3abd
00000130: b9ac a4bd 3fa9 493c 35b1 f33c 5422 9dbd
00000140: 67e9 78bb 3924 a3bd 7d89 053c 701d 573d
00000150: 65e3 f83a bdea 85bd 848f 8abd a6f5 a23d
00000160: 3042 8cbb 170a 3e3d 3c22 2dbd 52a0 883d
00000170: 9075 0d3d 5cc0 a43c e727 ad3d 7c61 bb3d
00000180: 9415 9bbd 0e01 3fbd 645a 40bd 033e c7bc
00000190: 7c73 823c ebe3 913d dfc7 6bbd 8a18 a33c
000001a0: 687c b0bd 1d90 303d e753 8b3d 0c4c 2ebd
000001b0: 9a89 3fbc df6a 783d 4044 52bd 28b1 513c
000001c0: 1a4a 8ebd 5c2b 70bd c8e5 fa3b 14e7 993d
000001d0: 20f0 70bd 8a10 513d e33a 82bd 97c2 f83c
000001e0: 3af4 debc 4cb8 e93c de6a 863d b293 62bd
000001f0: 24d3 3f3d 4bbf f23c 25c1 ef3c 3ba4 13bd
00000200: 756a f43c 2e82 073d 23bd 99bd c4f2 a0bd
00000210: 5404 123d 0835 fb3c c3de 88bd 3ccc 723c
00000220: 0f4b a23d 1da5 c7bc 94a3 cabc 2046 a63d
00000230: bf7b 313d dafa 84bd 4c78 abbc e287 493d
00000240: fcf3 b03d fd76 a73d 15de 9dbc 8ec2 d03c
00000250: 175f 3f3d ea77 85bd 35fe a8bc 1084 033d
00000260: 7935 7c3b e67f 54bd c2f2 b5bc cf7a 3cbd
00000270: 470a bcbc d1b6 b63c 426b da3c a479 b3bb
00000280: 40b3 9b3d 2523 373c bf7e 44bd fabb 7cbc
00000290: 7ea3 1dbd 157f e8bc 89c8 31bc a9c9 3f3d
000002a0: e7fe 933c 2b68 b4bd 35f1 c83c 6b62 8c3d
000002b0: 17fc 3e3d 8263 023d 3018 ab3c 41c1 543d
000002c0: d68b f2bc 4efc 49bd f5df f3bc 3828 263d
000002d0: 16c4 8bbd 11ab 73bd 9674 503d 39d1 88bd
000002e0: 502c eb3c c1c5 e43c 2962 43bd be5b c13c
000002f0: 7243 4b3d 0d91 ab3d af23 62bb 15d3 473d
00000300: b94c 02bc 7119 9e3d b877 5d3d 0648 593d
00000310: ef2d 8b3b ccb4 b5bd 7567 513b 8e0e 9fbc
00000320: 7768 a1bd 65b8 273d 7173 aa3d ad26 953d
00000330: f519 1ebd 5392 473c 3d13 853d b7a6 75bd
00000340: 81f7 b7bb f216 00bb 5dbc 093d 6b0f 1e3d
00000350: 5b3d 75bd 380c 26bd c38c 81bd 40ae 4ebd
00000360: dae4 8cbd 0c9a b73c 9763 9dbd eb35 b3bd
00000370: c648 403d aa94 503c 70cb 963d 5a11 28bc
00000380: ad6a b53d 8c90 2dbd f58a ea3a 3166 343d
00000390: 0f43 81bd ba92 61bd 31e7 4fbc 8e46 28bd
000003a0: eadc 64bd 6bfe 17bc 5cfc 65bd 54b4 e53c
000003b0: 5cae 6bbc d90a 7a3d 756e 86bd fc89 a23d
000003c0: 917f ae3c a95a eebc 90c1 a43d 21f3 94bd
000003d0: 5877 91bb ca41 5d3c aa01 e438 8b1c 7a3d
000003e0: 7443 4ebd d56d 89bd ebd4 84bd 3db1 543c
000003f0: 84ea cb3b 62d2 a1bd ec05 74bd 4192 13bd
