scripts/results/MAPPOTraining2v1/2v1/NoWeapon/MAPPOTraining/mappo/v1_2v1_mappo_render/run3/actor_episode_3.pt (torch, 699980 bytes, 30 tensors)

base.mlp.fc.0.weight f4 [128, 21]
00000000: d423 d6ba fdbd ef3d e5e9 37be 0873 24be
00000010: 2321 acbd 3eaf 6f3d e8ac 8dbb db2c 313e
00000020: 7aa4 9ebc 2184 6c3d e70f 87bd b5b1 2fbd
00000030: 3e7a 55be 86fd 13be 0b3a b8bd f370 043c
00000040: eaad b03d 0314 063e 4a7d 17be e19c c2bd
00000050: 5153 a23d 565c 1d3e c42e 723c e614 623e
00000060: 911f a4bc b5cf d5bc 1e50 533e 3863 41be
00000070: 0135 88be e162 c7bd fbbd 56be cf95 223f
00000080: 4eb2 fbbd 5739 92bd 4a60 01be 36f7 99be
00000090: ffb6 1cbe 696b fa3e 88ab e23d e5e4 0d3e
000000a0: 1ab7 073d 6fe4 0fbe fe43 9b3c 4936 5abe
000000b0: 07e1 31be 887b 02be f9ec e93d eb65 ec3d
000000c0: dcf9 e4bd d3f2 673a 2093 183e ae36 653e
000000d0: e9ac 9f3d 1241 5a3c 011b 063e 8c71 15be
000000e0: 1f2c ff3c 43b0 3dbe b14d 13be bc3c 04be
000000f0: 9414 ab3d a561 933d 89e1 e9bd 999c 393d
00000100: d42a 403e 1cb4 cbbd 5504 0ebd 81a9 b63d
00000110: 0a60 f13d 624f 2f3e 314b 74be 7cb8 3a3e
00000120: cf46 b5bd d435 8a3e c083 193e b5f2 173e
00000130: d4a0 20bc 03ad dabe c656 6bbd 8e2d 4c3e
00000140: 318d 7ebe c9a4 023e f3cf 123e e837 28be
00000150: 06ed bf3c 4228 85bd 20c4 95bd 1d66 05be
00000160: dc96 633d d9aa 16be 10da 543d 6cab 1a3e
00000170: b7c3 983d 30d1 f23d 88fb 96be 1560 2ebe
00000180: a082 a53d 6016 393c 0c85 16be e5ae c7bd
00000190: 95e7 313e 8aa9 ef3d 0d5d 02be f519 a9bd
000001a0: 0751 34be 7586 80bb 5e46 28be 155d 2cbe
000001b0: 23ff 44bc e633 063d f605 b7bd e097 043e
000001c0: 2ffb 07be aac1 4a3e 3f22 193e 976f 3cbe
000001d0: 3975 5ebd 7b53 213c cd68 023d c1fd 533d
000001e0: 5661 af3d f428 563c 740f dabd 1779 d33d
000001f0: 5d59 56be 7f71 04be fdbf 5fbd 2ab2 d9bd
00000200: 1858 9cbd 0f26 37be 1121 3ebd 550f 3f3d
00000210: c892 11be 2f7b 37bc e6f5 1f3e 1bc5 b7bc
00000220: e2ba c63b c337 9abc 83e4 343d e314 0e3e
00000230: c2aa 533e 10e8 0d3e bd26 543e 0049 81bc
00000240: 0bbc 48be b6de d3bd da26 183e e269 b9ba
00000250: 9622 debd 7e3c 2bbe f61e 51be 1499 3cbe
00000260: b64c 35bd 9816 f53d 379e f13d db81 57be
00000270: 2663 0b3e 12db 2ebe 7df6 3cbd ba35 b5bd
00000280: da29 2cbd c17e 2fbd 7784 48be 8bf0 40be
00000290: 54dd 0bbd ddf1 383b 2605 cbbd ca59 a83d
000002a0: f970 9cbe 622b 53be f8d9 5a3e 625f f6bd
000002b0: 5923 e23d d72a d4bc 6d43 6bbe cecd 4f3e
000002c0: b9bf 6c3e 41b7 38be 66f0 dd3e 19c5 5bbe
000002d0: 792a 2ebc fbef 80bd 818f b83e fb50 163e
000002e0: c6ac 113e 2408 643d f50d 59bd 64a5 c6bd
000002f0: 1258 2bbe bb60 b83d 79b8 713e c7ac 5c3e
00000300: 2843 07be ff7b 43bb f716 1cbe a716 cfbd
00000310: c840 8abe 2092 fd3c fb95 a8be c07d f63e
00000320: 124d 123d a300 2e3e 7de5 04be 7957 7cbe
00000330: 42c0 41be 7676 ec3e 1f3e 6cbd 37cb 663e
00000340: a49e d43d 9320 d8bb 8c0a a9bd b583 89bd
00000350: 8aca 033d 6a65 a5bd b821 a53c 558c 70bd
00000360: c3e9 59be c871 44be 9bfc 603e d342 53be
00000370: 7b63 0c3d 094c 463e 9778 793d 79a3 cbbc
00000380: f736 42be d62a 1f3d 7123 8f3a 66ed c2bd
00000390: daf4 a2bd 1949 96bd 9627 f33c 3fcc 073d
000003a0: 1af7 48bd d393 3e3e 1936 7e3d 89ee b4be
000003b0: 13f6 aebb e413 6fbe 7917 80bd 3f57 ba3d
000003c0: dc73 aebd 73e4 123f e434 10be d7e4 73bd
000003d0: d549 6c3d 4de6 23be 2954 323c dac4 213e
000003e0: 42fe 93bd e6f5 8dbd 343d 51be 6ad4 ab3d
000003f0: 10bc 4a3e 2f53 70bd 013c 31be 17c8 d4bd
-0.0016337582 0.11706159 -0.17960317 -0.16059506 -0.08404758 0.058516733 -0.0043235905 0.17302267
-0.019365538 0.057743195 -0.0659483 -0.042894084 -0.20847413 -0.1445218 -0.08995446 0.00808357
0.086269215 0.13093571 -0.14793888 -0.095025785 0.079260476 0.15367255 0.014781658 0.22078285
-0.020034583 -0.026100019 0.20636031 -0.18885505 -0.2660294 -0.097356565 -0.2097091 0.6350984
-0.12289868 -0.07139843 -0.12634388 -0.3007142 -0.15304182 0.48910072 0.11067873 0.13856848
0.033133604 -0.14051984 0.01895332 -0.2130977 -0.17370997 -0.12742436 0.11422152 0.11542877
-0.111804694 0.00088481343 0.14899874 0.2238414 0.07796652 0.013321178 0.13096239 -0.14594096
0.031148968 -0.1852427 -0.14385106 -0.12913793 0.08353534 0.071963586 -0.114199705 0.04531536
0.18766338 -0.099464625 -0.0346721 0.08919049 0.11785896 0.17120126 -0.23856808 0.18234438
-0.08851396 0.26994193 0.14991665 0.14838679 -0.009803969 -0.42710122 -0.0574558 0.19939253
-0.24858548 0.12758173 0.14337139 -0.16427577 0.023428451 -0.06501819 -0.073127985 -0.13027234
0.055563793 -0.1471361 0.051965773 0.15104455 0.07459205 0.118563056 -0.29488778 -0.1702884
0.08081555 0.0112968385 -0.14699191 -0.09750155 0.17373498 0.11702259 -0.12730809 -0.08256904
-0.17609034 -0.0039222785 -0.16433093 -0.16832383 -0.01202372 0.032764338 -0.08936684 0.1294856
-0.13279413 0.1980044 0.1495447 -0.18401943 -0.05431101 0.009846563 0.031838227 0.05175567
0.08563487 0.013071287 -0.10647479 0.103258304 -0.20932527 -0.1293392 -0.054626454 -0.10629685
-0.0763399 -0.17885612 -0.046418253 0.04664548 -0.14216149 -0.011198803 0.15621147 -0.022432854
0.0060647586 -0.018825417 0.04416324 0.13875155 0.20670608 0.13858056 0.20717902 -0.01578188
-0.19602983 -0.10345213 0.1485857 -0.0014145935 -0.108464405 -0.16722295 -0.20421967 -0.1841777
-0.04426261 0.119672 0.11797755 -0.2104563 0.13612041 -0.17075756 -0.046133507 -0.08848138
-0.0420321 -0.04284549 -0.19581781 -0.1884176 -0.03414662 0.0028220334 -0.09913091 0.08220251
-0.3055494 -0.20622018 0.21372211 -0.120299116 0.11041898 -0.025899334 -0.2297494 0.20293352
0.23120011 -0.18038656 0.43347472 -0.21461906 -0.010630243 -0.06295773 0.36046985 0.14679329
0.14226064 0.055671826 -0.052991826 -0.096995145 -0.16732815 0.09002825 0.23605527 0.21550284
-0.13209212 -0.0029828546 -0.15243135 -0.101117425 -0.2700255 0.030953467 -0.32926926 0.48142815
0.03571803 0.1699243 -0.12978168 -0.24642743 -0.18920997 0.4618413 -0.05767643 0.22538458
0.10381821 -0.00659568 -0.08253965 -0.06714574 0.03217558 -0.08075984 0.02015768 -0.05872758
-0.2128058 -0.19184029 0.21971361 -0.2063096 0.03427456 0.19364943 0.06090602 -0.024858223
-0.1896628 0.03885921 0.0010920597 -0.095179364 -0.07956858 -0.07338161 0.029681962 0.03315377
-0.04906378 0.18611078 0.06206331 -0.35338238 -0.005339393 -0.23347431 -0.06254477 0.09098672
-0.08518192 0.57379836 -0.14082676 -0.05954441 0.0576876 -0.16005822 0.010884323 0.15797749
-0.0722623 -0.06931667 -0.20433503 0.08390124 0.19798303 -0.05867308 -0.17308046 -0.103897266

base.mlp.fc.0.bias f4 [128]
00000000: 8694 a63d de68 b7bc 1b7e 493e b3c1 56bd
00000010: 5478 12be 587c 663d 046c e83d 1c4d e3b9
00000020: ab8f 323e ab45 d4bd ed0e 873d 5810 8d3d
00000030: ff43 a93d 68a2 d33c d054 983c 3714 72be
00000040: e17d 90be a614 3ebd 1cf6 d7bd 3c8d 0d3e
00000050: cb90 243e 01ba 113e b63b c9bd e258 62be
00000060: 5568 62be 6641 f13d 833f 87be db84 88be
00000070: 3966 d1bd bd06 5ebe 9a65 20be e7ac 0cbe
00000080: 38d6 0bbe beba 893e 48ac 87bd b91e 0f3e
00000090: 27a7 9e3b 1ce1 e5bc 3ed4 d8bd 57bb 1fbe
000000a0: d988 33be 7562 173e c118 8fbd 3cdd 59be
000000b0: 76bf 023e cca3 843b 9290 38be cb3a 4abe
000000c0: 4739 52be 2258 68be 26e1 b03d 2412 1a3e
000000d0: 1936 923c ef71 3ebe c2c7 69bd 7501 64be
000000e0: 1ba4 bf3c ae53 6dbd 1b7a 2bbd 78a9 57bd
000000f0: e826 043d b049 de3d b789 aa3d ab17 febc
00000100: b41c 73bd c974 4ebd 7a48 0bbe 3ad6 363e
00000110: 9dbe c0bd bdaa 063e f4a4 ffbd e402 c03a
00000120: 4dad 793d ec37 f8bd 66ff cc3d e50a 2bbe
00000130: f48a 81bc c1eb 95bd 0944 f53d 7c66 623e
00000140: f774 3e3d 934d a6bc 2d73 28be d19f a63d
00000150: a41b d7bd 979a b83d 87dc ccbd 3728 3f3e
00000160: f7b3 0e3e a664 ed3d 2295 a7ba 6b43 e13d
00000170: 1583 53be 4570 2a3e 6c9e 5abd a046 853d
00000180: c396 22bd df93 68bd e04f aebd 3822 103e
00000190: 45cf 13be 0715 d5bc a471 e13d 8242 afbb
000001a0: dfd4 18be 1aed 67be 6ee4 06be c14b 6e3e
000001b0: 776c 2abe 6335 e13d ec30 863d cb5b 0dbe
000001c0: cc5b c5bd 0091 38be 8ef0 95bc c7a7 e1bc
000001d0: 55b4 2d3c 2987 303d 5d9e 993d b602 aabd
000001e0: eb8d 753c 2a0d 4e3d bff9 4dbd 6afd 4ebc
000001f0: 4a41 78bd 718d 3b3e 17c4 02be 5556 dd3c
0.08133797 -0.022388872 0.19677012 -0.05243082 -0.14303714 0.056270927 0.11348727 -0.00043354265
0.17437617 -0.103648506 0.06594644 0.06887883 0.08264922 0.025834277 0.01859513 -0.23640524
-0.28221038 -0.04640641 -0.105449885 0.13823408 0.16070859 0.14231111 -0.09825842 -0.22104219
-0.22110112 0.11780052 -0.26415643 -0.2666386 -0.102245755 -0.21682258 -0.15663758 -0.13737832
-0.13655937 0.26900285 -0.06624657 0.13976564 0.0048417035 -0.028061442 -0.10587357 -0.15598808
-0.17532672 0.14783652 -0.06987143 -0.212758 0.12768349 0.0040478464 -0.18023899 -0.1974899
-0.20529662 -0.2268987 0.08636694 0.15045983 0.017848061 -0.1859815 -0.05707527 -0.22266181
0.023393681 -0.05794113 -0.041864496 -0.052651852 0.032263666 0.108538985 0.08327048 -0.031017145
-0.059353545 -0.050404344 -0.13601866 0.17855158 -0.094113566 0.13151069 -0.12482634 0.0014649299
0.060956288 -0.12120041 0.10009651 -0.16703375 -0.015813328 -0.07320357 0.11975867 0.22109407
0.046498265 -0.020300662 -0.16450186 0.08135951 -0.10503319 0.09013861 -0.10003 0.18667684
0.13935839 0.11591463 -0.0012785534 0.10999187 -0.20655473 0.1664439 -0.05337374 0.06507611
-0.03969456 -0.056781646 -0.08511329 0.14075553 -0.14434536 -0.026011003 0.11008003 -0.0053485045
-0.14924954 -0.22649041 -0.13173077 0.23271085 -0.16642939 0.10996511 0.065523 -0.13804547
-0.096366495 -0.18024063 -0.018303182 -0.027545823 0.010602077 0.04309765 0.075009085 -0.08301298
0.014987449 0.050305523 -0.050287005 -0.012633661 -0.06060914 0.18315674 -0.12770115 0.027018705

base.mlp.fc.2.weight f4 [128]
00000000: 9b2c 733f e2e6 903f 24c6 6f3f 8692 6d3f
00000010: 18a6 4f3f 9bb6 5d3f 9ea5 5a3f 5bf5 5c3f
00000020: 6281 903f af72 8e3f 1fbb 2e3f 8eee 803f
00000030: 1be2 653f 5a03 813f 6d80 663f 32d8 273f
00000040: 829a 463f b50a 4f3f 619f 133f 0531 683f
00000050: ca47 883f 1c75 863f 3546 853f dc37 603f
00000060: 9483 533f 1a5a 843f 0ec7 713f 461d 573f
00000070: ff6a 873f c170 713f 74c7 543f d046 593f
00000080: 8e07 5d3f f281 8b3f 1f86 843f 4520 4a3f
00000090: df1e 473f 13cb 5b3f d25b 4e3f 5721 753f
000000a0: 0268 613f 7041 6f3f f8f2 783f d266 3f3f
000000b0: ae96 4c3f 077b 5a3f f890 4c3f 5b5d 7c3f
000000c0: 8635 743f cf08 5f3f 14fa 363f 74ef 653f
000000d0: aeba 703f f5bc 543f bab7 693f 6d88 5f3f
000000e0: afe9 503f 2429 4e3f a6bf a53f 621d 843f
000000f0: 33c2 623f 8af7 433f e4f1 8a3f 39c4 7b3f
00000100: e761 783f d4b8 8b3f cf3a 913f 8334 6d3f
00000110: 4297 643f 7001 753f 7989 963f 747e 583f
00000120: b301 4f3f 89c0 803f eaae 633f b1ff 553f
00000130: 93a7 4e3f 402a 4c3f 2680 813f 3a6d 983f
00000140: 4ec7 7c3f 2bfd 5c3f 0474 363f ea02 663f
00000150: 67bd 553f 573d 673f 06d0 753f de92 913f
00000160: dd45 843f 80c1 2a3f 89dd 873f 4505 933f
00000170: fd93 7c3f 554c 503f aef4 963f cec7 873f
00000180: b32b 5f3f bef2 993f bab4 8f3f 17fe 733f
00000190: f2fc 463f ea66 903f bfec 6b3f dab5 6d3f
000001a0: 4672 863f a757 613f b904 7d3f aeff 8e3f
000001b0: 1a2b 7e3f b91c 8b3f e5b0 8b3f 7e19 7d3f
000001c0: 29d2 693f 9e01 4d3f bc87 813f d35a 463f
000001d0: 1737 5d3f 282d 723f 5690 7e3f 2511 843f
000001e0: c540 5b3f f75e 5a3f 0e2a 3c3f af07 7a3f
000001f0: bd48 4f3f 8c8f 703f acbf 3c3f 02dc 883f
0.9498994 1.132046 0.93661714 0.928017 0.81112814 0.8660676 0.8540896 0.8631188
1.1289485 1.1128749 0.68254274 1.0072801 0.89798135 1.0079148 0.9003971 0.6556426
0.7757951 0.8087571 0.5766507 0.906998 1.0646908 1.0504489 1.041205 0.87585235
0.8262265 1.0339997 0.9444436 0.8402904 1.0579528 0.94312674 0.8311684 0.84873676
0.8633965 1.0899031 1.035343 0.7895549 0.7778148 0.8585674 0.80608857 0.95754
0.8804933 0.93459225 0.9724574 0.74766266 0.7991742 0.85343975 0.79908705 0.9857995
0.9539417 0.87122816 0.7147534 0.898185 0.9403485 0.83100826 0.9129597 0.87317544
0.8160657 0.80531526 1.2949111 1.0321467 0.88577574 0.7654959 1.0855069 0.98346287
0.9702439 1.091578 1.1346072 0.9265825 0.892933 0.9570532 1.1760703 0.8456795
0.8086197 1.0058757 0.8893877 0.8359328 0.8072445 0.7975197 1.0117233 1.1908333
0.98741615 0.86323804 0.71270776 0.89848197 0.8349213 0.9032797 0.96020544 1.1372945
1.033382 0.6670151 1.0614482 1.1485983 0.9866331 0.81366473 1.179342 1.060785
0.87176055 1.2027204 1.1227028 0.95309585 0.77729714 1.1281407 0.9215812 0.9285561
1.0503623 0.8802437 0.9883533 1.1171777 0.9928452 1.086814 1.0913359 0.98867023
0.91336304 0.8008059 1.0119548 0.77482337 0.86412185 0.9460015 0.9943899 1.0317732
0.85645705 0.85301155 0.7350167 0.97667974 0.80970365 0.93969035 0.7372997 1.0692141

base.mlp.fc.2.bias f4 [128]
00000000: f039 8a3d d10b 883c 37ea 963d eace a2bd
00000010: 3cea 483e d936 123e b594 273e d95c 1a3e
00000020: edb0 673c 1e2e c93c 63f3 4e3e 5781 363d
00000030: 1349 c33d 9722 d5bc e2fe cf3d 60c7 913e
00000040: 7a8b 4f3c dac4 523e f8ce 72bd cfd3 d63d
00000050: 0cbd ed3c 47e5 543d b3b9 113d 3522 3b3d
00000060: 416d 323e d160 bfbb 4949 f7bb 2c66 7c3d
00000070: 64e5 f2bc 0a6b 573d dfab 173e cb9b 253e
00000080: 4c9c 483c 43e8 a4bc 9d17 23bd a590 4f3e
00000090: 04ca 713e 8e33 293e 0aa4 353d 63ab 7a3d
000000a0: cb13 073e ee65 a53d 7aa6 c93c e606 853e
000000b0: 1824 2fbd d01d 203e 15ce a03d 6c57 fc3c
000000c0: baf8 6c3d 7bf8 733d b81e 0abd a024 ee3d
000000d0: 3ae7 9d3d 4e73 413e eaf9 d43d e96a 123e
000000e0: 26d9 11bc c2c3 553e 2a71 973c f267 853c
000000f0: 0822 76bd 3c7a 9cbb 6ff4 c33c 66b9 183d
00000100: 5fa0 6dbd 29d7 1bbd ce5c 25bd 7d97 b43d
00000110: 4a70 033e ae92 8c3c 9b3f 4e3c b062 363e
00000120: 5cb9 4c3e d9fa 9c3c a61c 063e 26d3 333e
00000130: 0476 643d 95a6 883d 40f6 11ba 6423 24bd
00000140: daaf f83c 7118 153e e432 b83d ebee ec3d
00000150: 884b 383e 7dbf e43d e881 633d 3811 be3c
00000160: 677a 65bd 34bc a43e cf8e 903b cc98 ffbc
00000170: 8785 eb3c 3212 4c3e bac4 923c 4e79 62bd
00000180: 7cd2 0b3e 50a8 fabc de40 073d cc04 683d
00000190: b08c 2f3d f478 05bd dd07 d43d 665f 64bd
000001a0: 3813 903c 515f 113e 10e4 cdbc 22b7 6dbd
000001b0: 00a0 37bc 02fa 14bd 6355 2abd e5f4 853c
000001c0: a614 ce3d 7ffd 203e bef7 21bd 9745 6f3e
000001d0: a2f1 1c3e 672b 9abd d11b f53c bf48 8539
000001e0: d3b9 263e bf74 233e 0764 093e bbea 9ebd
000001f0: de44 0cbd 7081 b83c d338 4f3d ff8c 033d
0.06749332 0.016607197 0.07368892 -0.07949622 0.19620603 0.14278735 0.16365321 0.15074481
0.0141413035 0.024558123 0.20210032 0.04455694 0.09535422 -0.02601747 0.10156037 0.28472424
0.012667531 0.20582905 -0.059279412 0.10489618 0.029020809 0.05197647 0.035577487 0.04568692
0.1742449 -0.005840399 -0.007546578 0.061620876 -0.029650398 0.052592315 0.14811657 0.16172712
0.012244295 -0.020130282 -0.03981744 0.20270021 0.23612219 0.16523573 0.044345893 0.061198603
0.13191144 0.08076082 0.024615515 0.25981826 -0.04275903 0.15636373 0.07851807 0.030803405
0.05785439 0.05956314 -0.033720702 0.116280794 0.077101186 0.18891641 0.1039923 0.14298595
-0.00890187 0.20875457 0.018486578 0.016284917 -0.06009105 -0.0047753137 0.023920266 0.037286185
-0.05801427 -0.03804699 -0.04037171 0.088179566 0.12835804 0.017159786 0.012588407 0.17811084
0.19992584 0.019162582 0.13096866 0.17561015 0.05577661 0.06672398 -0.0005568005 -0.040072814
0.03035729 0.14560105 0.089940816 0.115690075 0.17997563 0.11169336 0.05554381 0.02320157
-0.056024935 0.32174838 0.0044115554 -0.031200789 0.028750194 0.19928816 0.017916072 -0.055291466
0.13654512 -0.030597836 0.033020847 0.0566452 0.04285878 -0.032586053 0.10353062 -0.05575504
0.01758729 0.14196517 -0.025133163 -0.058035977 -0.011207581 -0.03637124 -0.041585337 0.016352126
0.10062532 0.15721701 -0.039542906 0.2336639 0.1532655 -0.075278096 0.02992049 0.00025421937
0.16281824 0.15962504 0.13417064 -0.07759615 -0.034245364 0.022522658 0.0505913 0.032116886

base.mlp.fc.3.weight f4 [128, 128]
00000000: cde3 0fbe 4cf4 813d 92d5 71bd 72c5 8b3d
00000010: 2723 c1bd ddbb a2bc 92c4 94bd ee33 08bd
00000020: 031a 06bd 6e60 e33d 7af9 20ba 7451 1ebc
00000030: f0e9 163b 44fb 04be 7e79 6fbd fda8 eabc
00000040: cdb3 a33d 7389 6c3c 05a8 f03b 623f 57bd
00000050: 0240 b63d 339c 3dbe 2ad3 a6bc 7a8c e33c
00000060: a3cc f3bc b858 d23c 90ee 01be a590 a43d
00000070: 1d9c 5fbc 5b27 1dbd e057 c3bd 795c d5bb
00000080: 9a25 043e d24c 04be dacf a2b9 8609 46bd
00000090: dc93 03be 574c 70bd 37d4 2ebe f006 02bd
000000a0: e4e1 f2bc 58a9 f5bd dda7 463e 18dc 443a
000000b0: 0462 c7bd 532e a4bc f4a1 3bbe 8d9d 303d
000000c0: adbb 1abd a107 c2bd 3e06 203d 448d 12be
000000d0: 1e23 c2bd 18ce edbd 76bd edbd 64d3 eebd
000000e0: af66 c6bd fd81 3fbd 0d90 dd3d 9015 353d
000000f0: 14ab 0abc f3fc 0cbd 4e0d 603e 91c0 05be
00000100: 6533 35be b326 a9bd 0949 40bd d788 72bd
00000110: 2cb4 16bd 4c59 453e 28eb c7bc 1059 c0bb
00000120: 7de9 2e3c 5258 393c 5603 26bd c2b6 85bc
00000130: a8f4 8abb 09dd 233e 80e0 4f3d fbc6 3dbb
00000140: a82c 70bd a3e5 f3bd 6e47 763d 0332 17bd
00000150: 64bb 4f3c ae13 23bd 1097 70bc 9be8 af3d
00000160: 18bb 05be 20f8 cdbd 3507 f83d 1ecd 3dbe
00000170: b9d9 6fbd 9afa bcbd 2a0a 8ebd 17c7 73be
00000180: 0376 21bc 6982 0cbe 0eed 353e 6094 b5bb
00000190: 5e22 aebd 9222 06be 2b92 01be 8f58 913c
000001a0: e062 063e 33a4 bbbd 4c13 de3d ac6f cd3c
000001b0: 636b cabb 8653 47be 5a88 0cbe d3d1 b53c
000001c0: 318e 963b 0b6e 34bb 26a6 253d 261e 0ebe
000001d0: 3945 c63b 3e4c 843d 8859 c6bd c136 8bbd
000001e0: df75 1f3c 4d6d dcbc 1375 423d 45c2 cfbd
000001f0: 46cd c4bd dbb2 863c 0e60 143d 1c6b ea3d
00000200: 2615 963d 4fce a5be c6a8 2b3e c3c7 213c
00000210: 6efe 343d 6e1a d23d eb33 9a3d 5da1 b43d
00000220: 0c62 e53d 3c54 5abe d603 aa3d 2942 50bd
00000230: 7a48 ba3c 5852 31be 1566 163e da18 a43c
00000240: 1cc2 f5ba f29b 4a3d 1e19 013e afe9 f73b
00000250: 2f83 983d e1d5 163e e665 11bd e62d 7dbd
00000260: e2f4 163e 2500 1cbe 3b4a fdbd 5391 603d
00000270: f5ab a7be d1ce af3d db7b 233d a425 563d
00000280: 3a58 313d 5057 3fbd eb57 2fbd 21e0 053e
00000290: 076d 1b3e 532a 113e 9579 d33d f845 7a3c
000002a0: b4df 283c cd5b fa3d 3416 b3bd ef2d 1c3d
000002b0: 223d 513b b458 333e c78c 84bd d03f 483d
000002c0: 23d8 e23d cd99 d4bd 2998 b53d e6eb d03c
000002d0: e879 1e3e 7e61 5c3d 0068 783d adab a83c
000002e0: 51bd b7bd 7444 ab3d 60bd edbd 830b c7bb
000002f0: e205 7ebd 9c98 48be 8945 fbbd 2db7 fe3d
00000300: 861f c13d aec6 a6bd 2c06 863c 106e b63d
00000310: d9b9 743d 98ba 29bc 9b2d 97b9 05ff 2b3e
00000320: ec8d 393e 6b22 fcbd c351 033e cde8 3b3e
00000330: 677a 283e ff0f 2f3d 5c06 a33d cd4e 013d
00000340: 0762 eb3d 0dac 3e3d fbd6 30bd f09e 673d
00000350: dd3c e43d 3dea 8b3d d007 0f3e 6a28 3ebe
00000360: 7278 273d 53d4 6e3d b60a 0cbe 42ee cd3d
00000370: e798 3e3d 9083 ac3c 3cea 043e d9bb 833d
00000380: 3f7a 7a3d a359 a93c 9401 10bd 7a07 843d
00000390: 22c0 a9bb 4aa7 653d 81c2 1e3e ec7a 5dbd
000003a0: 6a55 5dbe 6c9f 093d f04e 9dbc 5d4b f8bd
000003b0: f2dc feb9 7884 303e bfe5 96bd e02d 183d
000003c0: 94ae f93d 7102 103e fa77 14bd 201f de3d
000003d0: 73ef 283e 4614 00be 3bd0 cf3d ad83 8e3d
000003e0: c0e0 d83c 95db 123e c855 b43d db70 aabd
000003f0: a087 8d3d a3b9 cc3d 3272 8b3d 1e0b babc
-0.14051743 0.06345424 -0.059041567 0.06824769 -0.09430533 -0.01986497 -0.07264055 -0.03325265
-0.03273965 0.11102377 -0.00061406905 -0.009662975 0.0023027621 -0.12986475 -0.058465473 -0.028645033
0.07993279 0.014437067 0.0073442482 -0.05255068 0.08898927 -0.18516617 -0.020364363 0.027776945
-0.029760664 0.02567707 -0.1268866 0.08035401 -0.01364806 -0.03836761 -0.09538245 -0.0065112677
0.12904969 -0.1291993 -0.0003105391 -0.048348926 -0.12849373 -0.058666553 -0.17073141 -0.031744897
-0.029648729 -0.119951904 0.19399972 0.0007509603 -0.09735492 -0.02004162 -0.18323499 0.043119002
-0.037776638 -0.09474111 0.039068453 -0.14311701 -0.09479354 -0.11611575 -0.116084024 -0.11661413
-0.09687554 -0.046754826 0.10818491 0.044210017 -0.00846364 -0.03442092 0.21880075 -0.1306174
-0.17695387 -0.082593344 -0.04694465 -0.059212532 -0.03679292 0.19272345 -0.024404123 -0.005869992
0.010675785 0.011312561 -0.040530525 -0.016322497 -0.004240591 0.16002287 0.05075121 -0.0028957713
-0.058636338 -0.11909034 0.060126714 -0.03691293 0.012678955 -0.03981369 -0.014684454 0.08589288
-0.13059652 -0.10057092 0.1211075 -0.18535277 -0.058557246 -0.09227486 -0.069355324 -0.23806415
-0.009854796 -0.13721623 0.1776621 -0.0055413693 -0.08502649 -0.13099125 -0.12653415 0.017742423
0.13123655 -0.09162178 0.10843524 0.025077663 -0.0061773523 -0.19465455 -0.13723889 0.022194779
0.0045945873 -0.002753141 0.040441655 -0.13878688 0.0060507325 0.064598545 -0.096850455 -0.06797553
0.0097326925 -0.026907587 0.047474932 -0.10144476 -0.09609465 0.016442707 0.036224417 0.11446211
0.073282525 -0.32383963 0.167636 0.009874287 0.044187956 0.10258947 0.07529434 0.0881984
0.112003416 -0.21321195 0.08301513 -0.050844345 0.022739638 -0.17316568 0.14687379 0.020031381
-0.0018749866 0.049465127 0.12607238 0.007565699 0.07446896 0.14730026 -0.03549757 -0.06181135
0.14741853 -0.1523443 -0.12367674 0.054826092 -0.3274838 0.08584369 0.03991304 0.05228199
0.04329703 -0.046714127 -0.042808454 0.1307378 0.1517831 0.14176302 0.10325924 0.015275471
0.010307241 0.12224541 -0.08744469 0.038129743 0.0031927307 0.17514306 -0.06472164 0.04888898
0.11076381 -0.10380898 0.08866913 0.02550311 0.15476191 0.053803913 0.060646057 0.020589674
-0.08971656 0.08362666 -0.11608386 -0.0060743704 -0.06201733 -0.19589466 -0.12269122 0.12437282
0.09429841 -0.08143364 0.016360365 0.089077115 0.05974755 -0.010359429 -0.00028834943 0.16796501
0.18120545 -0.12311252 0.12824158 0.18350525 0.16452943 0.042739864 0.07960197 0.03156929
0.114933066 0.0465508 -0.04317377 0.05654806 0.11144421 0.06831787 0.13967824 -0.18570104
0.04088635 0.058307957 -0.13675961 0.1005521 0.046532538 0.021058828 0.12979978 0.064323135
0.06115174 0.020672625 -0.035157755 0.064467385 -0.0051803747 0.056067742 0.15503885 -0.054072306
-0.21614614 0.033599302 -0.01920268 -0.121237494 -0.00048611272 0.17238033 -0.07368039 0.037153125
0.12191501 0.14063431 -0.03624723 0.108457804 0.16497593 -0.12507734 0.10147139 0.06958709
0.026474357 0.14341576 0.08805424 -0.08322307 0.06910634 0.09996345 0.068088904 -0.02271038

base.mlp.fc.3.bias f4 [128]
00000000: e442 f83d ca26 6ebd 04c9 c03c 7ada 18be
00000010: 6f19 7f3d 6882 103d 43e1 573d f53d 83bd
00000020: d42e 8abc aff3 82bd 04b5 6a3d f686 0d3e
00000030: 47f8 32bd 09e0 213d dc4b 643d 698c b3bd
00000040: f73c 7d3d 8ab9 74bd 1992 26bc 8f53 833d
00000050: d597 babd a7db 3e3c 4196 b7bd 192f 063e
00000060: 21a7 843b 9f12 16bd 64c0 ce3c 1293 f03c
00000070: fe45 0b3e 8303 0cbe f6b6 823b e8c4 923c
00000080: c80c c6bd 32ea 293d fb34 ffbd 12a2 92bd
00000090: 8a8e d0bc c688 b5bd 04e0 23be 8e29 183d
000000a0: 090e b13c 0df8 adbd 54ac d8bd d371 62bd
000000b0: b614 d4bc 15e8 36bc 86bb f43b 3756 12bc
000000c0: 87b8 ccbb 62e8 ccb9 cbfa 3a3b 3af9 86bd
000000d0: 0a2f 123e 16f5 8fbd 77a5 04be 5843 343d
000000e0: be19 853d 9847 10bc 865b 083d 2dfc 2c3d
000000f0: 84db 223c ba05 603c 6f13 d83c 6bb4 be3b
00000100: ef38 b5bd 7368 24bd e7fd 883d 81f5 623d
00000110: e9d3 893c 4098 ae3c 4803 10bd 7f88 403d
00000120: 60e0 1abd 6166 a4bc ed09 8abd c156 12bc
00000130: 8715 59bd 9919 59bd bc63 9b3d de64 59bd
00000140: 329d b93d 579d 443d 9477 c7bd 2004 753d
00000150: 88b3 7a3c aacb c2bc 3f64 ea3c 01a2 b9bd
00000160: 6c0d 8dbd d7cc c9bd 8107 b63c 9ae1 683d
00000170: fc39 9abd b29b 1f3d 6b2f 5b3b ccf9 493d
00000180: 9997 c53c e89b 983d 736d 0abd 8a58 c03d
00000190: 3810 5ebd e1ce 86bd be6a 2b3e ce2e a53c
000001a0: 29b5 a9bd a5e5 b33d a9cb 0bbb a450 0abe
000001b0: 226e d23c 3dea 953d 9c4a 82bd 1ebc 4c3d
000001c0: 142f 783d 7ada ddbd 26fe a7bc 58e6 3b3e
000001d0: b5f1 a5bd 3411 acbb 3075 aabd 731f af3d
000001e0: f404 8bbd f202 b03d 103a ae3d 7fee 0cbd
000001f0: 0a66 fcbd 0ba5 7fbd d9e9 99bd 466b 87bd
0.121221334 -0.05814246 0.023533352 -0.14927092 0.062280115 0.035280615 0.05270506 -0.06408302
-0.016868033 -0.06394135 0.057301536 0.13821015 -0.043693807 0.039520297 0.055736408 -0.087670155
0.06182572 -0.059747256 -0.010166668 0.06412422 -0.09110991 0.011649049 -0.089642055 0.13103904
0.0040482436 -0.036638852 0.025238223 0.029367004 0.13600919 -0.13673215 0.003989096 0.017916158
-0.096704066 0.04148311 -0.12461277 -0.07159819 -0.025458593 -0.08863978 -0.16003424 0.037149005
0.021613138 -0.084945776 -0.10579744 -0.055284332 -0.025888782 -0.011163731 0.0074686436 -0.008931688
-0.0062475833 -0.0003908305 0.0028530832 -0.06590505 0.14275756 -0.07029168 -0.12953745 0.044009537
0.064990506 -0.008806132 0.03329041 0.04223268 0.009940032 0.01367324 0.026376454 0.0058198473
-0.0884875 -0.040138673 0.06689053 0.055409912 0.01682468 0.021312833 -0.03515938 0.047005173
-0.037811637 -0.02006835 -0.067401744 -0.008931817 -0.052999046 -0.053002927 0.07587382 -0.05307471
0.09063186 0.048001613 -0.097396046 0.059818387 0.015301593 -0.023778755 0.028612254 -0.09064103
-0.06887326 -0.09853523 0.022220375 0.056855775 -0.07530591 0.038966842 0.0033445011 0.04931049
0.024120139 0.07451612 -0.033795785 0.093918875 -0.054214686 -0.06582428 0.16739938 0.02016392
-0.08286507 0.087840356 -0.0021331108 -0.13507324 0.025687281 0.07320068 -0.06361887 0.04998409
0.060591772 -0.10832687 -0.02050693 0.18349588 -0.081027426 -0.005251074 -0.08323133 0.0855092
-0.06788054 0.08594312 0.08507168 -0.034407135 -0.1232415 -0.062413257 -0.07515306 -0.06612258

base.mlp.fc.5.weight f4 [128]
00000000: f30a 813f 8a30 7a3f 3128 6e3f 65df 623f
00000010: 2e37 893f d0f4 893f a269 823f fc0f 8f3f
00000020: 13df 9f3f 5d40 933f 8cb9 6d3f 0d57 7c3f
00000030: 8763 753f 40a0 7d3f 5e34 883f 9c59 693f
00000040: 31e8 8a3f 3fa5 933f 14e8 873f 33ce 963f
00000050: b91f 823f 8a93 893f 2c80 963f 116e 943f
00000060: 7da7 673f 748a ab3f 3bf8 623f dbf5 893f
00000070: 1363 9b3f 6785 903f 1b70 853f 0ad5 813f
00000080: f3fd a13f b2f2 853f ff16 4f3f 2021 a73f
00000090: 7cd5 9c3f d84c 853f 57f0 703f 761c 993f
000000a0: 0a90 a93f cc32 593f d8b9 833f 6421 8f3f
000000b0: e74d 853f abc6 363f 2ba7 793f a64a 993f
000000c0: 1097 393f aba3 7b3f 5789 813f eba7 913f
000000d0: 0c24 9c3f 383b 883f 71c1 713f 0d9e b23f
000000e0: 34a4 9c3f 11be 733f cb76 8b3f b053 8b3f
000000f0: 63e7 7e3f d18a 553f 3546 5f3f e2ca 743f
00000100: 713d 723f b339 873f 75d8 7f3f ef0c 993f
00000110: eaee 813f dd6b 753f b006 9e3f f780 7e3f
00000120: 0b64 8e3f 2540 863f 7425 833f eea9 8f3f
00000130: d296 953f b39f 8e3f bb6c 8d3f 9951 813f
00000140: bc13 873f ba32 a63f ced4 713f 4264 8c3f
00000150: 1df4 823f b04c 6e3f fa6c 793f a1d8 913f
00000160: d8d6 413f f979 933f e715 a43f 5094 8f3f
00000170: c4a9 8c3f 9727 993f d4ca 883f 9c20 813f
00000180: 8ca1 923f 69f8 703f db95 813f 08e8 953f
00000190: 6996 8b3f a53b 863f 1a9f 9d3f bc69 8b3f
000001a0: 3177 693f 548a 863f bfa8 763f 8935 523f
000001b0: 4404 7f3f c97a b83f 25cc 9f3f 1bfc a33f
000001c0: 9e27 9c3f b0dd 773f af37 813f 9873 b63f
000001d0: 1c59 903f f517 763f d50c 893f 6e1b 9c3f
000001e0: c504 893f c5c0 6d3f 536a 873f 7b51 863f
000001f0: 5112 953f 349c 8b3f d54f a33f efa3 8d3f
1.0081466 0.97730315 0.9303008 0.88622123 1.0719965 1.0777836 1.0188487 1.1176753
1.2489952 1.1504017 0.9286125 0.9857033 0.9585499 0.9907265 1.0640981 0.9115236
1.0852109 1.1534804 1.06177 1.1781677 1.0165931 1.074815 1.1757865 1.159609
0.9048994 1.3401628 0.8866002 1.0778154 1.213961 1.1290711 1.0424837 1.0143139
1.2655624 1.046469 0.80894464 1.3056984 1.225265 1.0414076 0.9411673 1.196181
1.3247082 0.84843135 1.029109 1.1182065 1.0414399 0.71396893 0.97520703 1.1975906
0.7249613 0.9829661 1.0120038 1.137937 1.2198501 1.0643072 0.94435793 1.3954483
1.2237611 0.95211893 1.0895628 1.0884914 0.9957182 0.8341494 0.872165 0.95622075
0.94625 1.0564483 0.9993966 1.1957072 1.0151036 0.9586771 1.2345791 0.99415535
1.1124281 1.0488325 1.0245805 1.1223733 1.1686652 1.1142486 1.1048807 1.0103027
1.0552897 1.298423 0.9446534 1.0968096 1.0230747 0.93085766 0.9743191 1.1394235
0.7571845 1.1521598 1.2819184 1.1217136 1.0989308 1.1965207 1.0686898 1.0088077
1.145555 0.94129044 1.0123857 1.1711435 1.0905277 1.0486952 1.2314179 1.0891643
0.91197497 1.0510964 0.96351236 0.8211294 0.99615884 1.4412471 1.2484175 1.2811311
1.219959 0.96822643 1.0095118 1.4254026 1.1277194 0.96130306 1.0707041 1.2195871
1.070458 0.9287227 1.0579323 1.0493616 1.1646215 1.0907044 1.2758738 1.1065654

base.mlp.fc.5.bias f4 [128]
00000000: 87e1 093e d06b 693c 559f 103e e348 a63d
00000010: a4ce e2bd 2834 ddbd dfd1 f4bc 514b fdbd
00000020: 0b3d 903e 171a 33be 92a7 89bd 1694 2cbd
00000030: 8452 9fbb 09a3 28bd e3a1 b43d 78e5 c13d
00000040: 6ac8 4f3e a338 f5bd ee53 d4bc 6d42 4b3e
00000050: 066d 18bd e3d2 cbbd 308c 4abe 0238 2ebe
00000060: 50c0 b43d 9da2 82be 313a 923d 6a92 01be
00000070: d162 663e 2026 b9bd fa66 50bd df59 dabb
00000080: aaf2 8dbe 2cfb 68bd fecc 3f3e e5b5 493d
00000090: 21c8 75bd 39e9 72bd 098a 66bd f7b8 54be
000000a0: ae2d a63e 2683 043e 0bdf 00bd f49e 04be
000000b0: 3d18 78bd 632d 6d3e 24d0 95bd 3cb1 53be
000000c0: 8495 ab3e 416a f93d a86a 67bd b383 5c3d
000000d0: ebbf 5f3e 45b6 e1bd 220b bc3c 61ad 02be
000000e0: c2cd 7c3e 73f6 f83c 784f c4bd 808f d7bd
000000f0: cb75 3abd af4e f03d ea23 77bd 0de6 ed3c
00000100: c9d4 ba3c c444 95bd 5426 c2bc a841 ec3d
00000110: 1b53 86bc f1a2 683c e964 023e 1262 c03b
00000120: 4dc2 0ebe 1197 28bd fc47 b9bd 32d7 09be
00000130: b5c6 45be 9300 03be 47cd 67bc aa07 fcbb
00000140: 3e46 cfbd e7d1 9d3e 0350 e83c 618e acbd
00000150: 70c2 01bd 201a fa3d 115d c93b 3f72 1cbe
00000160: cd74 733e 9b80 42be 5402 c7bc 79cb 03bd
00000170: 0899 e7bd a530 ca3d eaa2 a5bc 66ee 8cbc
00000180: f6f0 903d 6073 a33d 5532 3fbd 096a 4bbd
00000190: 739c 30bd ae8b 83bd c1df 213e e8bc 88bc
000001a0: ac5b 933d 9330 e23d 6000 33bc 8da4 b73c
000001b0: 990a b33c 8924 bb3d f6c1 83be 1ba3 86be
000001c0: 0dc7 5e3e 84a8 b53c 3b0c dabc 2c89 b13e
000001d0: 1882 0dbe d2b8 0dbb 24ea d6bd 4b7e 2cbc
000001e0: f0c7 8abd 218f 463d 67c7 18bd 8fa0 93bd
000001f0: da70 2fbe f8af 42be 1490 94be 2fe0 fcbd
0.13464938 0.014246896 0.1412328 0.08119371 -0.1107457 -0.10800964 -0.02988523 -0.12367881
0.28171572 -0.17490421 -0.067214146 -0.042133413 -0.0048621316 -0.041171107 0.0881994 0.09467596
0.20291296 -0.11973693 -0.025918927 0.19849558 -0.037213348 -0.09952333 -0.1978004 -0.17013553
0.08825743 -0.2551469 0.071400054 -0.12653509 0.22498633 -0.09040475 -0.050879456 -0.0066635455
-0.277242 -0.05688016 0.18730542 0.049245734 -0.06000531 -0.05930445 -0.056283984 -0.20773683
0.32456726 0.12940654 -0.03146271 -0.12951261 -0.06056999 0.23161845 -0.0731509 -0.20673078
0.3351251 0.121784694 -0.0564982 0.053836536 0.21850555 -0.11021093 0.022954527 -0.12761451
0.24687865 0.030390954 -0.0958547 -0.10525417 -0.045522492 0.11733758 -0.060336985 0.02904036
0.022806542 -0.072885066 -0.023699917 0.115359604 -0.01639705 0.0141990045 0.12733807 0.005871066
-0.13941307 -0.041159693 -0.09046933 -0.13460997 -0.19314082 -0.12793188 -0.014148063 -0.0076913433
-0.101208195 0.30824205 0.028358465 -0.08425594 -0.03167957 0.12212014 0.0061451276 -0.15277956
0.23775025 -0.18994372 -0.024293102 -0.03217647 -0.11308485 0.098725595 -0.020219285 -0.017203521
0.0707721 0.079809904 -0.04667886 -0.04966167 -0.04311795 -0.06423126 0.15808012 -0.01669164
0.071952194 0.11044421 -0.010925382 0.022417331 0.02185564 0.09137828 -0.25733918 -0.26296315
0.2175562 0.022175081 -0.02661716 0.34674966 -0.13819158 -0.0021625054 -0.104938775 -0.010528157
-0.06776416 0.048476342 -0.03729954 -0.072083585 -0.17132893 -0.19012439 -0.29016173 -0.12347447

rnn.gru.weight_ih_l0 f4 [384, 128]
00000000: fe20 8c3d 3a69 8d3d 0665 abbd 6498 893c
00000010: 1ebf 993c 29da 9fbd 8d07 ff3b 56ef 9dbd
00000020: e397 91bd f9df 993d 4006 453d 144b 343c
00000030: dee9 023e 8c0e 85b9 8ced fdbc 384b 48bc
00000040: 1057 d63c ec1c 11bd 5e2e 83bd 2145 4d3e
00000050: e757 fbbd 78c5 ea3c 8241 093d 071a 1abd
00000060: 081e 4d3d 000e f03c 7c63 e4bc e199 7abd
00000070: 126b 8b3d b468 4ebd 3680 ed3c e072 12bb
00000080: 8727 283d 7b03 963c a755 28bd 28b8 723d
00000090: cd17 803b d843 743c 5708 05bd 2048 f13c
000000a0: c92d 1bbc a12d ccbd 76ca 6c3d 621e 83bd
000000b0: 5fb1 0e3d 3d9a 9a3d d370 16be 0424 5d3d
000000c0: 6d81 953c d969 04be 2d63 51bd 4f38 b53c
000000d0: 7857 7d3c f87f 19bc ef0e de3c 1c80 7e3b
000000e0: 7e9c b83d d718 a53c eec3 9dbd 428e bebc
000000f0: ddd7 c5bd ec16 333e a245 54be 0a93 333d
00000100: da29 ac3d 24d2 babc 8326 b5bd b0cb 053e
00000110: a115 f13c 5a29 b9bd d4b9 573e b01f 41bc
00000120: d3cf 8abd 779b 433c 6bcb 313d b876 4bbb
00000130: fcba 87bd 15b0 57bd 1d5a d0bc d95f 363d
00000140: e295 5d3c f1d8 8e3c 8dd8 27bb 575d 61bd
00000150: 8234 123d 3a05 e73d f515 043d fb13 943d
00000160: 81e7 52bd 5f38 f73d b032 94bd e2b5 793d
00000170: b56d c6bc ffac b1ba c596 91bc 3a02 64bb
00000180: 555c 333e a910 84bd 58bc 71bc 19d5 5fbd
00000190: 5b0a f63d d95e 373d 23ef 0bbd 61cf c2bd
000001a0: 1544 8e3d 1d0b 723d 0cf6 b73d af76 0cbd
000001b0: a572 41be e09e 83bd 3424 8cbd 9de9 3cbd
000001c0: 20ce c23c 14cd 5abd ed9c 21bd 7a92 933c
000001d0: 2417 c4bc 9558 47bd 273e 0d3e 234b 673d
000001e0: 48d6 60bc 8aca 4e3d e533 1abe 77fd a0bc
000001f0: 3ee1 42be e8fd 973d 64db 71bd 09b5 5a3d
00000200: 0df7 1bbe f0bb d33b d315 00bd 8c48 6bbd
00000210: d76e c83d d67c 023e e2e3 593e 7ce0 4c3d
00000220: 4dbb 5ebd 7bd6 3b3e 4e19 db3d 029b 4dbd
00000230: a994 a23d 6062 2fbd 23e4 483d fefe ba3d
00000240: f4c7 0ebd 17e6 c7bd 1bb8 313d 5800 09bd
00000250: 82ab b6bc 948c 603d 9fcd a53d 08c3 8c3d
00000260: 7b0b 823d 95ab 703d e5e0 573e 42bb 423d
00000270: e256 993c b9b4 033d 9ca7 333e b8ac de3d
00000280: 0fc0 ad3d 6a28 283e 7baf 4f3e 1be1 ac3d
00000290: 631d 03bc 6bc4 403e dac8 b73d b6d9 ab3d
000002a0: 5580 38bd 2dc5 be3d d47e 4c3e d444 113e
000002b0: 9bea 473e 4fc8 153e 4ace eb3d b94f 323e
000002c0: d266 b53d d560 efbd 3410 163e 1f4d c83d
000002d0: b771 883b 6d68 033e 5a5a 483e 5871 3bbd
000002e0: 77ac b6ba e077 b83d 4aec 843d 3a85 4a3e
000002f0: 9f62 8cbd 7555 1a3d c7b1 8b3d f4d6 403e
00000300: 94eb 213e 8b54 7d3d 1cbb 873d 3dc6 dfbd
00000310: 4a7e 173e 2587 1f3d 04b8 e4bd c776 273d
00000320: 76c1 003e 903f 553e 4244 1d3e 2a94 0b3e
00000330: 663c 263e a8b1 8f3d b0c8 8cbd b13b 493e
00000340: d6ff ccbd ea48 62be 0ecc c03d 56a0 373a
00000350: cada e53d 4944 803c aaed 093e b542 183e
00000360: b934 1e3e 176d fb3a 700e 98bd 5720 453e
00000370: cfa9 4a3e b0f9 79be 2ac5 483b bf05 963d
00000380: 87fd edbd 9281 0ebe 96b6 3f3e 86cb 8e3d
00000390: 75a7 153d 10d2 063e 29a8 253b 3248 8abc
000003a0: e8bd 123e d609 88be 41cd a73d 87d9 803d
000003b0: 5fd9 8dbd 8e8c be3d 50c1 333d fdcd b03d
000003c0: 19cd 80bd 98f3 db3d 7a11 d43d 3ea9 eabd
000003d0: d831 3e3e 26e1 57bd 39bd 153e 8acc 22bd
000003e0: 59f0 13be fb0a 673c f5b6 bf3c dc43 133e
000003f0: 077c ee3d 06ca fc3a de59 c73d eb9b 3f3e
0.0684223 0.06904836 -0.08368878 0.016796298 0.01876789 -0.078052826 0.0077828825 -0.07711665
-0.07109048 0.075134225 0.048101664 0.011004228 0.12784526 -0.00025378575 -0.03099706 -0.012224965
0.026164562 -0.035427973 -0.06405328 0.20045902 -0.122726254 0.028658614 0.03350974 -0.037622478
0.05007747 0.02930355 -0.02787947 -0.061181907 0.068075314 -0.05039282 0.0289918 -0.0022346303
0.04105332 0.018312206 -0.04109731 0.059257656 0.0039090873 0.014908753 -0.032478657 0.029453337
-0.009471365 -0.099696405 0.05781027 -0.064022794 0.034837123 0.0754895 -0.14691477 0.053989425
0.018250192 -0.12931003 -0.051119972 0.022121577 0.015462749 -0.009368889 0.02710673 0.0038833683
0.090142235 0.020153446 -0.07703386 -0.023261193 -0.09660313 0.17489213 -0.20729688 0.0438414
0.0840642 -0.022805281 -0.08845236 0.13065982 0.029429259 -0.0904109 0.21066982 -0.01178734
-0.067779206 0.011938921 0.043406885 -0.0031046104 -0.06627461 -0.05265816 -0.025433594 0.044525
0.013524504 0.01743743 -0.0025611252 -0.055020656 0.035694607 0.11280294 0.032247502 0.072303735
-0.05149031 0.12071299 -0.072362304 0.060964473 -0.024222234 -0.0013555585 -0.017772088 -0.0034791366
0.1751569 -0.0644849 -0.014754377 -0.054646585 0.12013694 0.04476819 -0.034163605 -0.09512211
0.06946579 0.05909263 0.089824766 -0.034292873 -0.1889139 -0.064267874 -0.06842843 -0.04612123
0.023779929 -0.053418234 -0.039456297 0.018014181 -0.023936816 -0.048668463 0.1379324 0.05646814
-0.013722964 0.050486125 -0.15058859 -0.019652111 -0.19031236 0.07421476 -0.059047118 0.053395305
-0.15230961 0.006461613 -0.031270813 -0.057442233 0.09786766 0.12742934 0.21278337 0.050018772
-0.054377843 0.18343537 0.10698186 -0.050196655 0.07938511 -0.042818427 0.049045693 0.09130667
-0.03485866 -0.09760683 0.043388467 -0.033447593 -0.022298578 0.054821566 0.0809586 0.06873137
0.06349846 0.058757383 0.21081884 0.047541864 0.018718187 0.032154772 0.17544407 0.10872787
0.08483898 0.16421667 0.20281784 0.08441373 -0.008002612 0.18824928 0.08973856 0.083911344
-0.045044262 0.09314952 0.19970256 0.14186412 0.19523089 0.14627193 0.11513956 0.17413224
0.08857502 -0.11688391 0.14654619 0.09780335 0.0041639465 0.12832804 0.19565716 -0.04576239
-0.0013936897 0.09007239 0.06490381 0.19777384 -0.06854748 0.037679154 0.06821018 0.18831998
0.15812522 0.061848205 0.06627485 -0.10926483 0.14794269 0.038947243 -0.11167911 0.04088476
0.125738 0.20825028 0.1535807 0.13630739 0.16233978 0.07016307 -0.068742156 0.19651677
-0.10009734 -0.22098127 0.0941392 0.0007004788 0.11223371 0.01565756 0.13469568 0.14869197
0.154498 0.0019182292 -0.07424629 0.19250618 0.1979134 -0.24411654 0.0030635097 0.07325315
-0.11620622 -0.13916615 0.18721995 0.06972413 0.036536653 0.1316607 0.0025277233 -0.016880129
0.14330256 -0.26570004 0.08193446 0.0629149 -0.06926226 0.093041524 0.04388553 0.08633039
-0.06289119 0.10739821 0.10354896 -0.11458062 0.18573701 -0.052704953 0.14622964 -0.039745845
-0.14447154 0.014101739 0.02340267 0.14381355 0.1164475 0.0019286282 0.09733938 0.18711822

rnn.gru.weight_hh_l0 f4 [384, 128]
00000000: d060 bcbd d1f1 8cbd 8e2a b1bc 4a90 873d
00000010: 484c bb3b 564d 923c 5327 8a3d c1d3 c33c
00000020: ea55 4bbd 4a55 e0bc ff0b 503d 6c22 993d
00000030: e353 483d 369b 09bd e3c3 ab3c 0bc8 1b3d
00000040: e6ab a43c 1bd9 563d b017 b5bc b1a8 6dbc
00000050: 7f27 bdbc f501 ea3c 774d 1b3c 7d83 363d
00000060: a543 dcbd e509 14bd 6794 313e 335d da3d
00000070: 660f f0bc 6600 153d b689 10be 1a02 fe3d
00000080: 7223 933d 4bd9 513d 5703 433d 80cd 303d
00000090: 3daa fcbd d8a7 dc3d c725 163d 3bcf e7bc
000000a0: aec0 83bd 28dd c9bc 46f1 bf3d 82f1 bf3d
000000b0: 6ea8 36be d3fb 0f3d dbad e1bd 74b9 cebd
000000c0: 0c85 1cbb ea2a ad3d a6e5 d2bd 5d86 123d
000000d0: 5c83 e0bc ca66 0a3e c3c3 6bbd 6f52 1f3c
000000e0: 5f1b 8ebd 5fbd 3ebd 66c4 d7bd 788f 083d
000000f0: a191 22bd e180 febd 06e6 153d 1388 d9bd
00000100: 01ee 12be b000 4dbd 84e3 753d 656e 9fbd
00000110: 9736 c33d 7aea a33d 4207 b13d b6c3 f7bd
00000120: c174 95bd dc00 853d 968e a33d cdab b1bd
00000130: 9ee1 c8bc 3aae da3d 7dfa 3cbd d7a3 e13d
00000140: 67b5 2b3e dde0 b2bd 1bd5 20bd a4ed f03b
00000150: 5867 be3d 1af3 d8bc 170b 3b3e 01bc 02be
00000160: c81c 493d 999d eabd 5af9 aabc 3ab6 20be
00000170: 935f c53d 9f73 043d 7c8b 833c 010e c33c
00000180: f7e0 a03d ebb7 b93c 2054 753d 284f c33d
00000190: 0f65 47bd 141b 843d a226 8ebd b4ee a5bc
000001a0: 557d a2bd 1490 343e 44a4 443d b01c 66bd
000001b0: c315 4fbd 46ca f73d c1c7 00bd 60f6 893c
000001c0: 1168 253c 09ed 91bd e88e d3bd 44e3 9dbd
000001d0: b577 abbc a74c ac3d dd9a f0bc 9fe1 183b
000001e0: 1aae c83d 7191 1cbb e1b4 3dbe 6208 42bd
000001f0: dab2 e63d 78ae 0bbe 33a0 c7bd 58ae 52bd
00000200: 2ad0 04bd 0131 06be 733f b23c 48ea a7bd
00000210: 2536 d8bd 6931 25be 2a4f acbd ec40 e23d
00000220: 6cdf 823d f88a 8b3c acd6 fbbd b9fd fb3c
00000230: cfb0 c43c 56a1 a53d 590f 26bd 2b1d b13d
00000240: 6844 1ebc 7fee ca3d 8848 133e ef3d 37be
00000250: f16e 0c3e 0230 1abe 0d1d 3a3d c6e5 1bbe
00000260: 5a64 753d 33cd 273d fb59 bcba 7b70 9c3d
00000270: 6d19 1c3d 7601 17bd 8a71 003e 11b2 b43d
00000280: beea 1dbe 9709 1bbd da35 2f3d bab4 453e
00000290: 7613 213d f0ad 19bd 838b 833c e86a 60bd
000002a0: 168d 39be 7268 61be 1b75 85bd da26 9bbe
000002b0: 314e 593d f801 ecbd 4c17 24bd 8486 873d
000002c0: 857b 0f3e 6313 27be 0c75 da3d aa7c eabd
000002d0: b38c 18bc a466 663d 1633 ed3c 624f dabd
000002e0: 6ce8 f23b 8894 ba3d 1298 61bc 06ef a0bc
000002f0: 9697 8d3d f2da 973c ce66 79bd e0ab ca3d
00000300: 2101 b93d c3a3 373e 9a1a ac3c 1f9a 0b3d
00000310: 319a 43bd 5e84 3b3d a67f e5bd c57f 6d3c
00000320: 732b f9bd a2e5 4e3e 8f93 953c 52af 86bc
00000330: 444c 2abd 3af8 933c 0b66 2cbd 6a3f c53b
00000340: c4e2 a23b b8d0 eabc 73a8 81bd be7f e2bc
00000350: a053 8bbd ed60 913d 839b 94bc 1bba 27be
00000360: afd3 3a3c 421b 11be e6bb 813d 98e3 e73c
00000370: 5d6a 81bd 7d25 d83d 0ff1 fd3c 0ba4 223d
00000380: 69a0 63bc 6252 14be 1b2f 0e3e 1514 e33c
00000390: 11f1 1bbd 6b0e c4bd 7883 51bd e4b9 7abd
000003a0: ea62 143d 7d4f da3d 9545 1bbd 2b18 da3d
000003b0: b477 01bd c0dd 053d 8813 233e edab 043e
000003c0: 9a60 f5bb beee 03be 9606 7dbd 1ba4 2b3d
000003d0: 0b3b 02bc 6d4d 1c3e 1438 bc3c cd8f 83bd
000003e0: 144c 653d 41a1 db3d 1488 303d 62c0 d3bc
000003f0: 501a 07be c2be 01be f580 df3c 9f5a 113e
-0.09198153 -0.0688206 -0.021626737 0.06619318 0.0057158805 0.017859142 0.06745782 0.023904683
-0.04964248 -0.027384419 0.05079269 0.074772686 0.048908126 -0.033595286 0.02096743 0.038032573
0.020101499 0.05245314 -0.022106022 -0.014505551 -0.023090122 0.028565386 0.009478918 0.04455899
-0.1075509 -0.03614225 0.17341767 0.106623076 -0.029304218 0.036377333 -0.14115033 0.124027446
0.07184495 0.051232617 0.047610607 0.04316473 -0.12337158 0.10774201 0.03665712 -0.028297057
-0.06433235 -0.024641588 0.09372191 0.09372236 -0.17837688 0.035152268 -0.110194884 -0.10093966
-0.0023883013 0.08455451 -0.10297708 0.03577267 -0.027406387 0.13515773 -0.05755974 0.009724244
-0.06938814 -0.046567317 -0.10535507 0.033339947 -0.039689664 -0.124269255 0.03659632 -0.10621657
-0.14348604 -0.050049484 0.06003143 -0.07784728 0.095318966 0.08003707 0.086439624 -0.12097876
-0.0729766 0.064943045 0.079861805 -0.086753465 -0.024521645 0.10677762 -0.04613732 0.11017578
0.16768418 -0.087342955 -0.039265733 0.0073525477 0.09297055 -0.026483107 0.18265949 -0.1276703
0.049099714 -0.114558406 -0.020870853 -0.15694514 0.0963737 0.032336827 0.016057722 0.023810389
0.07855409 0.022670707 0.05989468 0.09536582 -0.04868036 0.06450477 -0.069409624 -0.020255424
-0.079340614 0.17633086 0.04800822 -0.056179702 -0.050557863 0.120991275 -0.0314405 0.016841114
0.010095612 -0.07125289 -0.103299916 -0.07709363 -0.020931104 0.08413058 -0.02937072 0.002332784
0.09798832 -0.00238904 -0.18526031 -0.047371276 0.11264582 -0.13640773 -0.097473525 -0.0514358
-0.032425083 -0.13104631 0.02175877 -0.081989825 -0.10557202 -0.1613213 -0.08413537 0.11047539
0.063902706 0.017034039 -0.12296805 0.030760633 0.02401009 0.08087413 -0.04054198 0.086481415
-0.009659864 0.09908771 0.14383137 -0.1789472 0.13714196 -0.15057376 0.04543786 -0.1522437
0.059910156 0.040967178 -0.0014370078 0.076386414 0.038110185 -0.036866628 0.12543312 0.08823026
-0.15421578 -0.037850942 0.042775966 0.19307223 0.0393252 -0.037519395 0.016057735 -0.054789454
-0.18120226 -0.22012499 -0.06516477 -0.3030308 0.053053085 -0.11523813 -0.04006128 0.06617454
0.14011963 -0.16315989 0.10666856 -0.11449559 -0.009310889 0.05625023 0.028955024 -0.10659672
0.0074129608 0.09110361 -0.013769167 -0.019645225 0.06913678 0.018537018 -0.060889058 0.09896064
0.090334184 0.17933564 0.021008778 0.03408253 -0.04775447 0.045780532 -0.11205988 0.014495795
-0.121664904 0.20204785 0.018258838 -0.016441021 -0.04157664 0.0180627 -0.042089503 0.0060195224
0.00497088 -0.028663978 -0.06330957 -0.027648803 -0.068030596 0.07098565 -0.01814056 -0.16379587
0.011403008 -0.14170554 0.06334667 0.028306767 -0.06319115 0.10554025 0.030998735 0.039707225
-0.013893225 -0.14484552 0.13885157 0.027719537 -0.038071696 -0.095730625 -0.05115077 -0.061212435
0.036227144 0.106596924 -0.037908155 0.10649141 -0.0316083 0.03268218 0.1592542 0.1295621
-0.0074883224 -0.12884042 -0.06177386 0.04190455 -0.007948647 0.1526391 0.022975959 -0.06423912
0.055980757 0.10724116 0.043098524 -0.025848571 -0.13193631 -0.12670425 0.027283171 0.14194725

rnn.gru.bias_ih_l0 f4 [384]
00000000: 78dd 063d c420 41be 37e0 22be 1d22 2f3d
00000010: 6651 3f3c 7005 c9bd 14d6 f13d 7fbd 333d
00000020: fc70 653d 1b3a fcbc 1a77 153c 2ca1 ea3d
00000030: ac6b 00be 923b 66bd f8dc 4dbd 763b 0cbe
00000040: 712d 5a3d dc1a 2bbe c59f 0abe ac89 dabc
00000050: 2285 c6bd 3a0a aabd 9856 653c e3d7 2bbd
00000060: e32e 383e 322a 333a 1d24 84bd 36db 94bc
00000070: 1054 3b3c 2e46 70bc 016e e03d 46a4 8f3c
00000080: 8024 12be 95e2 96bd c770 b03d 37ae 31bd
00000090: 4806 913d e8ad 533d 115b 20be e82c bbbd
000000a0: 75df da3d 840e 993d 943b 04bd f887 d83d
000000b0: e103 04be 6bea d3bd 2e7a 4dbd cafa ff3d
000000c0: 7ea5 10be 44bc c5bc 95de 183e 3267 ecbd
000000d0: 888e 59bc 8442 5c3e 8c39 a2bc 1477 c53c
000000e0: 7b78 93bd 6e85 56bc 738b a53d 0bcc 013e
000000f0: b6b6 9bbd 006f 56bd ee66 03be 4412 713d
00000100: b973 bc3c dc70 293d be08 343c 1908 3f3e
00000110: c73b 893c db63 dc3d b978 773d 88c9 923c
00000120: 9193 cc3d c58c 1e3e 3266 d33c b241 4f3e
00000130: 095f d93c 046d 263e 160c 463d af73 353e
00000140: a5c1 913d 70d6 353e 7767 243e 09e2 ac3d
00000150: 622c cbbb 5483 ee3d f5bf 7d3d d7a9 403c
00000160: 6836 91bd f768 ac3b 4183 21be d608 e13c
00000170: d147 5f3e 6656 2b3e 6970 6d3e 14db ba3d
00000180: 811f 113d 5109 85bd 47db e0bd 543c 143e
00000190: f30b 0d3e 105c 1c3e 4b91 29be db4e 973d
000001a0: 13af 79bd ee8e 803e 4bf9 c33c 04c8 5d3d
000001b0: c866 eebc 30e5 94bc 2e57 553d d6fa 1f3e
000001c0: 6d93 b93b 8a38 103e a34e a3bd c65c 743e
000001d0: 8bde 173e 6091 08bd 179c 653d 72e4 113e
000001e0: 1e78 2fbe 6493 18bd 1031 a0bd cc5d 8dbb
000001f0: 06b0 783d cf51 e23d 052c e33d 36a4 2fbe
00000200: 3d62 3dbe e485 f73d b764 6bbc e329 973e
00000210: d140 5b3e 60de 1a3d 26fb f03c 89ad f23d
00000220: 5daf 583e 75df fb3d c701 413e bb5f 5a3e
00000230: 370e 243e 1a93 8b3e bbc2 803e 89f2 253e
00000240: f884 3f3e 98b5 9a3e c81d 2e3e 3700 cb3c
00000250: eb80 673d 0258 a23e 0604 05be f7a3 e83d
00000260: bf24 be3d 1f82 ca3d 4481 bbbd f0e5 2e3e
00000270: 0a09 92bc 59b1 6fba d1fa d83c c037 303e
00000280: 9d4b e2bd 152d 8fbc 3339 903e 24ce 15bc
00000290: 9a93 003e f9e7 b63e e7e6 9a3d 986b 47bb
000002a0: 33d7 223d bff1 9e3d a476 023e 20a1 3e3e
000002b0: 318b e63d cc70 e63d 641d 9a3e 7858 dc3d
000002c0: 16c8 ee3d 53ec 5d3e 3b66 173e 8b48 1bbe
000002d0: 6b1b 4b3e 4a03 1bbe 2578 943e 7bdd cf3d
000002e0: 5cf0 123e b87e 183e a138 973e a5eb 20be
000002f0: 651b 8b3e a295 853d 49d9 7d3e b4ed 323d
00000300: 0034 893c f24a 873e 1209 1e3e b1ed 6ebe
00000310: 4c04 adbd 8026 503d d52b 633e 0926 6cbd
00000320: 468f a83d fefa 753e a316 27be fb6e 293d
00000330: bf6b 803e d51c bc3c 8e07 943e c0b0 22be
00000340: b0eb 2f3e 2231 d1bd 9a45 1c3e cd62 813e
00000350: 1aa9 bb3d b478 523e d2ab 773d f094 823e
00000360: ec79 373e 124b 0b3e c7f2 143e 4664 e7bc
00000370: bc50 8d3d b3ce 713d fd61 82bc 77ee 163e
00000380: f6c2 8b3d 2b2c 563e 5789 8cbc b3fc e2bc
00000390: 1cf4 2d3e c8ee c33a 7f7d 24bc c38e 063e
000003a0: 6e68 6c3e e1eb 60bc 9461 7d3e aa81 8b3e
000003b0: 9430 ab3d 4c8c ad3d 7b7a c43d 3b25 79bd
000003c0: 8af8 8f3d 853c 26be db4c a53d 1031 a13d
000003d0: 6396 023e 619b 733d 7119 0e3e 0e98 6e3e
000003e0: 7c2c 0f3e d09f 853e 3a62 4c3e 870a 893e
000003f0: dde7 89bd 1b1f a93c a1a2 1f3d 96f7 5d3e
0.032926053 -0.18860155 -0.15905844 0.042757142 0.011677122 -0.0981549 0.1180841 0.04388189
0.056015953 -0.030789426 0.009122634 0.11456522 -0.12541074 -0.056209154 -0.05025956 -0.13694558
0.053265993 -0.16709465 -0.1353751 -0.026676975 -0.09693362 -0.08302732 0.013997696 -0.041953932
0.17986636 0.00068345957 -0.064522006 -0.018170934 0.011433616 -0.01466517 0.109584816 0.017534386
-0.14271736 -0.07367436 0.086152606 -0.043379035 0.07081276 0.05167952 -0.15659739 -0.091394246
0.10687152 0.07473472 -0.03228338 0.10572809 -0.12892105 -0.10347446 -0.050165348 0.12499006
-0.1412563 -0.024137624 0.14928658 -0.115431204 -0.013278611 0.21509749 -0.019802831 0.024104632
-0.07200714 -0.013093336 0.080832385 0.12675492 -0.07603209 -0.05235195 -0.12832233 0.05885531
0.0230044 0.041367397 0.010988412 0.18655433 0.016752137 0.107612334 0.060417864 0.017918363
0.099890836 0.15483387 0.025805566 0.20239905 0.026534574 0.16252524 0.04835137 0.17719911
0.07117013 0.17757583 0.16055094 0.0844155 -0.006200359 0.116461426 0.061950643 0.011759243
-0.07090455 0.005261536 -0.15772726 0.027470034 0.2180474 0.16732177 0.23187412 0.09123817
0.035430435 -0.064959176 -0.10979324 0.14476138 0.1377409 0.15269494 -0.16559331 0.07388087
-0.06095798 0.25109047 0.023922583 0.054145828 -0.029101744 -0.018175691 0.052085094 0.1562303
0.0056633265 0.14084068 -0.07973983 0.23863515 0.14830987 -0.033341765 0.056057062 0.14247301
-0.17135665 -0.037249938 -0.07821858 -0.00431416 0.060714744 0.1105076 0.110923804 -0.17152485
-0.18494506 0.120860845 -0.014367274 0.29524145 0.21411444 0.03780973 0.029416632 0.118495055
0.21160646 0.122984804 0.18848334 0.21325581 0.16021048 0.27260667 0.25148568 0.16205801
0.18703067 0.3021667 0.17003548 0.024780376 0.05651943 0.3170777 -0.12989816 0.11359399
0.092843525 0.098881 -0.09155515 0.17079902 -0.017826576 -0.00091435533 0.026486786 0.17208767
-0.11049578 -0.017477551 0.2816864 -0.009143386 0.12556306 0.35723856 0.075635724 -0.003042912
0.03975601 0.07760953 0.1274057 0.18616152 0.112570174 0.11251983 0.30100548 0.107590616
0.11659257 0.21672182 0.14785092 -0.15164392 0.19834678 -0.15137973 0.28997913 0.10149666
0.14349502 0.1489209 0.29535392 -0.15714891 0.27169338 0.06522681 0.24789919 0.043683723
0.016748428 0.26424366 0.15433148 -0.2333286 -0.08448085 0.050817966 0.2218469 -0.05765346
0.08230452 0.24021527 -0.16317229 0.041365605 0.25082204 0.022962967 0.28912014 -0.15887737
0.17179751 -0.102144495 0.15260926 0.25270692 0.09163113 0.20553857 0.060466595 0.25504255
0.17917603 0.13602856 0.14545737 -0.028246056 0.069001645 0.059035014 -0.015915865 0.14739405
0.06824295 0.20915286 -0.017155332 -0.027708387 0.16987652 0.0014948482 -0.010039686 0.13140397
0.23086712 -0.013728113 0.24744254 0.27247363 0.08358875 0.08474025 0.09593674 -0.06082652
0.07029827 -0.16234024 0.080713 0.07870686 0.1275268 0.059474353 0.13876893 0.23300192
0.13981813 0.2609849 0.19959345 0.26765844 -0.067336775 0.020644715 0.038973454 0.21676478
