scripts/results/MAPPOTraining2v1/2v1/NoWeapon/MAPPOTraining/mappo/v1_2v1_mappo_training/wandb/offline-run-20250807_165042-zjjd28i2/files/actor_episode_11700.pt (torch, 700180 bytes, 30 tensors)

base.mlp.fc.0.weight f4 [128, 21]
-0.0016337582 0.11706159 -0.17960317 -0.16059506 -0.08404758 0.058516733 -0.0043235905 0.17302267
-0.019365538 0.057743195 -0.0659483 -0.042894084 -0.20847413 -0.1445218 -0.08995446 0.00808357
0.086269215 0.13093571 -0.14793888 -0.095025785 0.079260476 0.17337622 0.019363444 0.21991566
-0.011372909 -0.021992644 0.22892736 -0.17789483 -0.24668415 -0.12277857 -0.15295795 0.6613515
-0.11671775 -0.06621382 -0.11777295 -0.27698016 -0.15326841 0.46238318 0.12074005 0.14379302
0.04356726 -0.14818719 0.01895332 -0.2130977 -0.17370997 -0.12742436 0.11422152 0.11542877
-0.111804694 0.00088481343 0.14899874 0.2238414 0.07796652 0.013321178 0.13096239 -0.14594096
0.031148968 -0.1852427 -0.14385106 -0.12913793 0.08353534 0.071963586 -0.114199705 0.04891616
0.17673983 -0.10033045 -0.032021485 0.07249709 0.12316884 0.17411734 -0.2291415 0.16465871
-0.060353342 0.26885775 0.15249251 0.14956577 -0.006125576 -0.3991642 -0.065025434 0.21094257
-0.24675456 0.12750651 0.14390627 -0.16627102 0.023428451 -0.06501819 -0.073127985 -0.13027234
0.055563793 -0.1471361 0.051965773 0.15104455 0.07459205 0.118563056 -0.29488778 -0.1702884
0.08081555 0.0112968385 -0.14699191 -0.09750155 0.17373498 0.11702259 -0.12730809 -0.08256904
-0.17609034 -0.0039222785 -0.16433093 -0.16832383 -0.01202372 0.032764338 -0.08936684 0.1294856
-0.13279413 0.1980044 0.1495447 -0.18401943 -0.05431101 0.009846563 0.031838227 0.05175567
0.08563487 0.013071287 -0.10647479 0.103258304 -0.20932527 -0.1293392 -0.054626454 -0.10629685
-0.0763399 -0.17885612 -0.046418253 0.04664548 -0.14216149 -0.011198803 0.15621147 -0.022432854
0.0060647586 -0.018825417 0.04416324 0.13875155 0.20670608 0.13858056 0.20717902 -0.01578188
-0.19602983 -0.10345213 0.1485857 -0.0014145935 -0.108464405 -0.16722295 -0.20421967 -0.1841777
-0.04426261 0.119672 0.11797755 -0.2104563 0.13612041 -0.17075756 -0.046133507 -0.08848138
-0.0420321 -0.04284549 -0.19581781 -0.1884176 -0.03414662 0.0028220334 -0.09913091 0.08220251
-0.27268893 -0.1534639 0.24652548 -0.08407157 0.123979434 0.0084204925 -0.19323061 0.19915704
0.18202849 -0.13456073 0.47057196 -0.17427146 0.02893763 -0.024858382 0.38594455 0.14738216
0.088187024 0.09105578 -0.008187189 -0.057514198 -0.20526747 0.110274576 0.24119964 0.21425778
-0.123794615 0.002498825 -0.12918128 -0.09046611 -0.25073722 0.0070006037 -0.26743415 0.5049007
0.041215003 0.17453353 -0.12195048 -0.22315736 -0.1895313 0.4330532 -0.047881752 0.22955903
0.113970645 -0.013662109 -0.08253965 -0.06714574 0.03217558 -0.08075984 0.02015768 -0.05872758
-0.2128058 -0.19184029 0.21971361 -0.2063096 0.03427456 0.19364943 0.06090602 -0.024858223
-0.1896628 0.03885921 0.0010920597 -0.095179364 -0.07956858 -0.07338161 0.029681962 0.031929586
-0.05993337 0.18722552 0.06283431 -0.30914554 -0.012915087 -0.23284838 -0.06302586 0.08778643
-0.067396946 0.5514771 -0.13962626 -0.058812406 0.058693565 -0.13003844 0.018457076 0.13816942
-0.070939116 -0.06821447 -0.20317592 0.08288122 0.19798303 -0.05867308 -0.17308046 -0.103897266
00000000: d423 d6ba fdbd ef3d e5e9 37be 0873 24be
00000010: 2321 acbd 3eaf 6f3d e8ac 8dbb db2c 313e
00000020: 7aa4 9ebc 2184 6c3d e70f 87bd b5b1 2fbd
00000030: 3e7a 55be 86fd 13be 0b3a b8bd f370 043c
00000040: eaad b03d 0314 063e 4a7d 17be e19c c2bd
00000050: 5153 a23d 8989 313e 16a0 9e3c 9231 613e
00000060: 7055 3abc eb29 b4bc ef6b 6a3e 102a 36be
00000070: c59a 7cbe 5573 fbbd 02a1 1cbe 554e 293f
00000080: b709 efbd 1c9b 87bd f232 f1bd 58d0 8dbe
00000090: 65f2 1cbe 7dbd ec3e 8f46 f73d 7a3e 133e
000000a0: 9573 323d 62be 17be fe43 9b3c 4936 5abe
000000b0: 07e1 31be 887b 02be f9ec e93d eb65 ec3d
000000c0: dcf9 e4bd d3f2 673a 2093 183e ae36 653e
000000d0: e9ac 9f3d 1241 5a3c 011b 063e 8c71 15be
000000e0: 1f2c ff3c 43b0 3dbe b14d 13be bc3c 04be
000000f0: 9414 ab3d a561 933d 89e1 e9bd 505c 483d
00000100: 49fb 343e 0d7a cdbd f628 03bd 5b79 943d
00000110: f23f fc3d d14b 323e 12a4 6abe 4b9c 283e
00000120: 1135 77bd b9a7 893e ff26 1c3e c527 193e
00000130: 0eb9 c8bb 405f ccbe 0e2c 85bd 5401 583e
00000140: 3aad 7cbe 1191 023e 2a5c 133e f342 2abe
00000150: 06ed bf3c 4228 85bd 20c4 95bd 1d66 05be
00000160: dc96 633d d9aa 16be 10da 543d 6cab 1a3e
00000170: b7c3 983d 30d1 f23d 88fb 96be 1560 2ebe
00000180: a082 a53d 6016 393c 0c85 16be e5ae c7bd
00000190: 95e7 313e 8aa9 ef3d 0d5d 02be f519 a9bd
000001a0: 0751 34be 7586 80bb 5e46 28be 155d 2cbe
000001b0: 23ff 44bc e633 063d f605 b7bd e097 043e
000001c0: 2ffb 07be aac1 4a3e 3f22 193e 976f 3cbe
000001d0: 3975 5ebd 7b53 213c cd68 023d c1fd 533d
000001e0: 5661 af3d f428 563c 740f dabd 1779 d33d
000001f0: 5d59 56be 7f71 04be fdbf 5fbd 2ab2 d9bd
00000200: 1858 9cbd 0f26 37be 1121 3ebd 550f 3f3d
00000210: c892 11be 2f7b 37bc e6f5 1f3e 1bc5 b7bc
00000220: e2ba c63b c337 9abc 83e4 343d e314 0e3e
00000230: c2aa 533e 10e8 0d3e bd26 543e 0049 81bc
00000240: 0bbc 48be b6de d3bd da26 183e e269 b9ba
00000250: 9622 debd 7e3c 2bbe f61e 51be 1499 3cbe
00000260: b64c 35bd 9816 f53d 379e f13d db81 57be
00000270: 2663 0b3e 12db 2ebe 7df6 3cbd ba35 b5bd
00000280: da29 2cbd c17e 2fbd 7784 48be 8bf0 40be
00000290: 54dd 0bbd ddf1 383b 2605 cbbd ca59 a83d
000002a0: e29d 8bbe a425 1dbe 2d71 7c3e b72d acbd
000002b0: eee8 fd3d 1bf6 093c 3fde 45be d3ef 4b3e
000002c0: ad65 3a3e 4aca 09be cfee f03e 3874 32be
000002d0: 9c0e ed3c cea3 cbbc 869a c53e 59eb 163e
000002e0: 669b b43d 747b ba3d 8f23 06bc 0294 6bbd
000002f0: a331 52be a3d7 e13d 0afd 763e 6466 5b3e
00000300: 0888 fdbd 54c3 233b 1948 04be 4c46 b9bd
00000310: a160 80be 5265 e53b 21ed 88be 2c41 013f
00000320: 10d1 283d ebb8 323e 2cc1 f9bd 5d83 64be
00000330: 7e14 42be 26b9 dd3e a81f 44bd 8611 6b3e
00000340: 7169 e93d 0ad7 5fbc 8c0a a9bd b583 89bd
00000350: 8aca 033d 6a65 a5bd b821 a53c 558c 70bd
00000360: c3e9 59be c871 44be 9bfc 603e d342 53be
00000370: 7b63 0c3d 094c 463e 9778 793d 79a3 cbbc
00000380: f736 42be d62a 1f3d 7123 8f3a 66ed c2bd
00000390: daf4 a2bd 1949 96bd 9627 f33c 99c8 023d
000003a0: b27c 75bd 0cb8 3f3e 46af 803d 5348 9ebe
000003b0: cd99 53bc ce6f 6ebe b413 81bd 5fc9 b33d
000003c0: 6907 8abd 9a2d 0d3f 30fa 0ebe 47e5 70bd
000003d0: aa68 703d cc28 05be 4b33 973c 497c 0d3e
000003e0: 8748 91bd 07b4 8bbd 590d 50be a1bd a93d
000003f0: 10bc 4a3e 2f53 70bd 013c 31be 17c8 d4bd

base.mlp.fc.0.bias f4 [128]
0.08133797 -0.014721511 0.19677012 -0.05043619 -0.14303714 0.056270927 0.11348727 -0.00043354265
0.21231544 -0.09658235 0.06594644 0.069898844 0.08264922 0.017984338 0.01859513 -0.23640524
-0.28221038 -0.04640641 -0.10727122 0.13823408 0.15754648 0.17396182 -0.09192182 -0.22104219
-0.22110112 0.112628855 -0.26415643 -0.2666386 -0.09311504 -0.21682258 -0.15663758 -0.13737832
-0.110327706 0.2738115 -0.057461843 0.13976564 0.0048417035 -0.028061442 -0.10587357 -0.15598808
-0.17532672 0.14783652 -0.060232677 -0.212758 0.12321785 0.0040478464 -0.19322091 -0.18823607
-0.20529662 -0.2268987 0.08636694 0.15045983 0.017848061 -0.1859815 -0.05707527 -0.22266181
0.024662372 -0.05794113 -0.04466884 -0.04443447 0.05545141 0.09339382 0.09130118 -0.031017145
-0.046035793 -0.04476601 -0.13419504 0.17855158 -0.094113566 0.13912174 -0.10121757 0.0014649299
0.060956288 -0.16149428 0.10009651 -0.16703375 -0.015813328 -0.07320357 0.13725835 0.22329806
0.046498265 -0.020300662 -0.16450186 0.08135951 -0.10503319 0.09013861 -0.10003 0.19604836
0.14666174 0.11591463 0.015627418 0.1179229 -0.20655473 0.1664439 -0.028432406 0.064225644
-0.03969456 -0.055779606 -0.08512789 0.14075553 -0.14434536 -0.021258019 0.11008003 -0.010140139
-0.13693415 -0.22649041 -0.11259259 0.2280591 -0.13804637 0.1106307 0.07534757 -0.13804547
-0.096366495 -0.18024063 0.019841433 -0.027545823 0.010602077 0.04825302 0.075009085 -0.051432822
0.014987449 0.050305523 -0.050287005 -2.7400747e-05 -0.024356298 0.18315674 -0.12770115 0.03849256
00000000: 8694 a63d 7e32 71bc 1b7e 493e 2e96 4ebd
00000010: 5478 12be 587c 663d 046c e83d 1c4d e3b9
00000020: 3869 593e f8cc c5bd ed0e 873d 2027 8f3d
00000030: ff43 a93d e453 933c d054 983c 3714 72be
00000040: e17d 90be a614 3ebd 03b1 dbbd 3c8d 0d3e
00000050: dd53 213e 0c23 323e 8241 bcbd e258 62be
00000060: 5568 62be f5a9 e63d 833f 87be db84 88be
00000070: 19b3 bebd bd06 5ebe 9a65 20be e7ac 0cbe
00000080: 7ef3 e1bd 0531 8c3e 1c5d 6bbd b91e 0f3e
00000090: 27a7 9e3b 1ce1 e5bc 3ed4 d8bd 57bb 1fbe
000000a0: d988 33be 7562 173e 8ab6 76bd 3cdd 59be
000000b0: a459 fc3d cca3 843b b4db 45be f5c0 40be
000000c0: 4739 52be 2258 68be 26e1 b03d 2412 1a3e
000000d0: 1936 923c ef71 3ebe c2c7 69bd 7501 64be
000000e0: be08 ca3c ae53 6dbd acf6 36bd eb00 36bd
000000f0: 0521 633d 4245 bf3d 1dfc ba3d ab17 febc
00000100: 0790 3cbd 905c 37bd 6d6a 09be 3ad6 363e
00000110: 9dbe c0bd ee75 0e3e 284b cfbd e402 c03a
00000120: 4dad 793d c25e 25be 66ff cc3d e50a 2bbe
00000130: f48a 81bc c1eb 95bd 748d 0c3e 3fa8 643e
00000140: f774 3e3d 934d a6bc 2d73 28be d19f a63d
00000150: a41b d7bd 979a b83d 87dc ccbd e7c0 483e
00000160: 7f2e 163e a664 ed3d 1205 803c 9081 f13d
00000170: 1583 53be 4570 2a3e 14eb e8bc bc88 833d
00000180: c396 22bd 2879 64bd 8857 aebd 3822 103e
00000190: 45cf 13be 4c25 aebc a471 e13d d322 26bc
000001a0: 7738 0cbe 1aed 67be f296 e6bd 5388 693e
000001b0: 075c 0dbe 5992 e23d d44f 9a3d cb5b 0dbe
000001c0: cc5b c5bd 0091 38be 808a a23c c7a7 e1bc
000001d0: 55b4 2d3c f5a4 453d 5d9e 993d 39ab 52bd
000001e0: eb8d 753c 2a0d 4e3d bff9 4dbd a8da e5b7
000001f0: dc86 c7bc 718d 3b3e 17c4 02be 60aa 1d3d

base.mlp.fc.2.weight f4 [128]
0.9645701 1.1308483 0.9572412 0.93404365 0.8194526 0.88370407 0.88342905 0.8878047
1.1544234 1.0991178 0.7169989 1.0047779 0.9495533 0.997799 0.9113832 0.7120461
0.7930922 0.8374785 0.6005763 0.9240505 1.0467175 1.0676359 1.0533105 0.8740499
0.8615974 1.0289512 1.0014075 0.85955817 1.0729065 0.9715734 0.8550995 0.87122333
0.8556791 1.0680484 1.0414963 0.8187674 0.8164822 0.8894928 0.7881475 0.97502434
0.8959685 0.9618312 0.9693507 0.7719864 0.79734474 0.8677765 0.7913493 0.9833143
0.9711614 0.8893294 0.74104595 0.9190469 0.9532618 0.8550766 0.9391298 0.8970828
0.8910438 0.81451243 1.2899079 1.0251329 0.88489723 0.7815209 1.0783553 0.99156976
0.9655601 1.1036625 1.1204811 0.957265 0.91427577 0.9552386 1.1638712 0.86523867
0.8384215 1.0041069 0.9199485 0.8569587 0.8259769 0.8151713 1.0115007 1.1862816
1.0076667 0.8893506 0.7765205 0.92515975 0.8594733 0.9423262 0.97619414 1.137509
1.0241513 0.71901536 1.0527093 1.1416761 1.0044578 0.8407451 1.1848459 1.033273
0.90526485 1.1934409 1.1044469 0.9740897 0.7925292 1.102592 0.944345 0.92494655
1.0461425 0.9041603 0.99908775 1.1083232 1.0056762 1.0743284 1.1061181 1.0029489
0.9433643 0.8217286 0.9872255 0.8137304 0.8885999 0.96001273 1.0121832 1.0318799
0.8837654 0.8739668 0.76088583 0.97410905 0.84701025 0.9648817 0.7493686 1.0704182
00000000: 11ee 763f a3bf 903f c20d 753f 7c1d 6f3f
00000010: a5c7 513f 6e3a 623f 6828 623f 2b47 633f
00000020: 25c4 933f e4af 8c3f 3d8d 373f 909c 803f
00000030: ed15 733f c16f 7f3f 6950 693f a748 363f
00000040: 1708 4b3f fe64 563f 5ebf 193f 938e 6c3f
00000050: d7fa 853f 4ba8 883f e1d2 863f bcc1 5f3f
00000060: a691 5c3f acb4 833f 1f2e 803f 010c 5c3f
00000070: 0055 893f 09b9 783f cde7 5a3f 7e08 5f3f
00000080: c90d 5b3f cfb5 883f c04f 853f be9a 513f
00000090: fa04 513f cdb5 633f 09c4 493f 329b 793f
000000a0: 315e 653f 923a 763f 5e27 783f e7a0 453f
000000b0: c91e 4c3f 9a26 5e3f de95 4a3f 7cba 7b3f
000000c0: 099e 783f 17ab 633f 30b5 3d3f a846 6b3f
000000d0: f708 743f 4de6 5a3f d06a 703f 38a7 653f
000000e0: 721b 643f e383 503f b41b a53f 8e37 833f
000000f0: a088 623f c111 483f 8c07 8a3f 84d7 7d3f
00000100: f22e 773f d044 8d3f ed6b 8f3f 520f 753f
00000110: fa0d 6a3f 848a 743f bbf9 943f 4880 5d3f
00000120: cba2 563f 9386 803f bf81 6b3f a561 5b3f
00000130: 3973 533f 11af 503f db78 813f 13d8 973f
00000140: 39fb 803f 7bac 633f 0cca 463f 45d7 6c3f
00000150: 7106 5c3f 4a3c 713f dce7 793f e599 913f
00000160: 6417 833f 6411 383f 2ebf 863f 7122 923f
00000170: 1392 803f 123b 573f 08a9 973f 4a42 843f
00000180: 70bf 673f acc2 983f 845e 8d3f f15d 793f
00000190: 32e3 4a3f bc21 8d3f 98c0 713f 4cc9 6c3f
000001a0: ffe7 853f 0d77 673f 37c4 7f3f 89dd 8d3f
000001b0: ffb9 803f 9883 893f 4795 8d3f a160 803f
000001c0: 5380 713f ce5c 523f cfba 7c3f a350 503f
000001d0: 487b 633f 65c3 753f 388f 813f a414 843f
000001e0: 733e 623f 4abc 5f3f 6ac9 423f 365f 793f
000001f0: aad5 583f 7d02 773f 9fd6 3f3f 7703 893f

base.mlp.fc.2.bias f4 [128]
0.049667586 0.023311008 0.05011221 -0.096907824 0.18371977 0.12393391 0.13273756 0.12408003
0.056348234 0.029690636 0.16710737 0.047358077 0.045448054 -0.029951077 0.087283105 0.23198894
-0.0034547 0.17472818 -0.057667155 0.0847869 0.025759472 0.092830665 0.02706133 0.048298478
0.13753946 -0.00779394 -0.061144125 0.039911672 -0.053220786 0.023705084 0.12259423 0.13736515
0.0379753 -0.015711062 -0.031956315 0.17063232 0.19612338 0.13343617 0.06333483 0.04208192
0.113443725 0.052164286 0.031092592 0.2327522 -0.036741525 0.1395147 0.08836262 0.03441359
0.038624093 0.039735317 -0.061123095 0.093953766 0.060937833 0.16391148 0.07572223 0.11713958
-0.079625584 0.19697103 0.016772402 0.02109925 -0.04098196 -0.0255629 0.029275207 0.025693865
-0.04444118 -0.050349478 -0.039085515 0.05690647 0.10390467 0.020983381 0.042284466 0.1559649
0.17001818 -0.01961476 0.101713814 0.15201353 0.038557764 0.048329752 0.013946017 -0.03753208
0.007996262 0.11836062 0.0290356 0.08773461 0.15400326 0.07204958 0.03685199 0.030866798
-0.04693686 0.2723579 0.018459644 -0.024259929 0.007985814 0.17097472 0.04546665 -0.050950285
0.10197455 -0.02844028 0.026705405 0.03377769 0.028708398 -0.027612323 0.07902415 -0.062744476
0.025738187 0.11630518 -0.00824043 -0.061541796 0.015697168 -0.034927115 -0.0563727 0.00337114
0.06794951 0.13693808 -0.011512783 0.19324026 0.1260415 -0.10401674 0.009061201 0.034653883
0.13406321 0.13693082 0.106530435 -0.06227662 -0.004675172 -0.004703577 0.038278807 0.04124208
00000000: 3d70 4b3d baf6 be3c 7642 4d3d 9c77 c6bd
00000010: 0921 3c3e 10d1 fd3d 5bec 073e ac1d fe3d
00000020: 68cd 663d c739 f33c 321e 2b3e 8bfa 413d
00000030: bd27 3a3d f65b f5bc 7cc1 b23d 828e 6d3e
00000040: 4068 62bb f2eb 323e 6534 6cbd c1a4 ad3d
00000050: 8705 d33c 011e be3d b9af dd3c a0d4 453d
00000060: 25d7 0c3e 4f64 ffbb 4372 7abd 6c7a 233d
00000070: 0afe 59bd 2a31 c23c af12 fb3d 73a9 0c3e
00000080: fd8b 1b3d 7cb4 80bc a0e4 02bd 3dba 2e3e
00000090: 91d4 483e 7ea3 083e b1b5 813d 175e 2c3d
000000a0: 2f55 e83d 38aa 553d e4b5 fe3c 9856 6e3e
000000b0: 487e 16bd f1dc 0e3e 76f7 b43d 44f5 0c3d
000000c0: 4c34 1e3d 80c1 223d 365c 7abd d56a c03d
000000d0: f399 793d 69d8 273e 4214 9b3d e0e6 ef3d
000000e0: bd12 a3bd c6b2 493e 4766 893c 56d8 ac3c
000000f0: b3dc 27bd 4969 d1bc 8fd2 ef3c f17b d23c
00000100: f407 36bd 413b 4ebd 2218 20bd c216 693d
00000110: f9cb d43d 57e5 ab3c 7a32 2d3d 43b5 1f3e
00000120: 3f19 2e3e 22af a0bc 554f d03d 6fa9 1b3e
00000130: bfee 1d3d 6bf5 453d d67d 643c 3dbb 19bd
00000140: c102 033c 0e67 f23d 11dc ed3c 34ae b33d
00000150: 08b3 1d3e bb8e 933d 1df2 163d 5edc fc3c
00000160: dd40 40bd 7f72 8b3e ae38 973c c2bc c6bc
00000170: eed6 023c ff13 2f3e 3d3b 3a3d 3fb1 50bd
00000180: 08d8 d03d 97fb e8bc 4bc5 da3c 7a5a 0a3d
00000190: e02d eb3c 3d33 e2bc 6ad7 a13d 2d80 80bd
000001a0: e4d8 d23c 6931 ee3d de02 07bc 4013 7cbd
000001b0: 5997 803c bc0f 0fbd 0fe7 66bd 58ee 5c3b
000001c0: 1d29 8b3d 7f39 0c3e 1da0 3cbc c6e0 453e
000001d0: 0611 013e bb06 d5bd 6e75 143c 3bf1 0d3d
000001e0: de47 093e 9837 0c3e a12c da3d c515 7fbd
000001f0: 2f32 99bb 7720 9abb 3dca 1c3d 75ed 283d

base.mlp.fc.3.weight f4 [128, 128]
-0.10834325 0.033916757 -0.026833827 0.084203005 -0.061659943 0.012619394 -0.040344924 -0.0006720633
-0.06656233 0.07203286 0.033013694 0.022338621 0.034715954 -0.11142347 -0.026264533 0.006988354
0.111666314 0.04706664 0.03396289 -0.020258289 0.075662 -0.22292899 0.010698859 0.0594559
0.0025180054 0.029725317 -0.09544546 0.112352066 -0.0007808478 -0.0065702666 -0.06293908 0.026352331
0.07639695 -0.14009868 -0.02011483 -0.015409418 -0.095744856 -0.026125308 -0.13946846 0.00036743417
0.0027060404 -0.0875497 0.16541801 0.033909068 -0.06448049 0.012582991 -0.14865163 0.0734263
-0.005331973 -0.06257691 0.07098309 -0.110908926 -0.06269622 -0.083246686 -0.08361791 -0.084318794
-0.06539036 -0.013910032 0.07411371 0.00966141 -0.053255517 -0.019604677 0.18328607 -0.09851432
-0.19614676 -0.05104728 -0.035805263 -0.026897045 -0.004832228 0.16583072 -0.06809713 0.026811274
0.043855175 0.011263314 -0.008144787 0.016200546 0.027778612 0.19214821 0.010248006 -0.013309567
-0.026459897 -0.08663342 0.09257957 -0.004609133 0.045348223 -0.0076821875 0.017642377 0.044356357
-0.15356979 -0.06429454 0.07450987 -0.20706765 -0.026500674 -0.05918986 -0.10886146 -0.20202243
0.022642227 -0.13141279 0.1850844 0.026709551 -0.053482346 -0.14066125 -0.09433336 0.03631565
0.09544768 -0.059323788 0.067593694 0.027768727 -0.053088903 -0.16157357 -0.10574103 0.053866994
0.036656898 0.030157402 -0.007766928 -0.10615253 0.03826098 0.081777014 -0.06493352 -0.10545568
0.041993707 0.005619764 0.08014361 -0.12717418 -0.14368907 0.048650935 0.06831708 0.08093827
0.073282525 -0.32383963 0.167636 0.009874287 0.044187956 0.10258947 0.07529434 0.0881984
0.112003416 -0.21321195 0.08301513 -0.050844345 0.022739638 -0.17316568 0.14687379 0.020031381
-0.0018749866 0.049465127 0.12607238 0.007565699 0.07446896 0.14730026 -0.03549757 -0.06181135
0.14741853 -0.1523443 -0.12367674 0.054826092 -0.3274838 0.08584369 0.03991304 0.05228199
0.04329703 -0.046714127 -0.042808454 0.1307378 0.1517831 0.14176302 0.10325924 0.015275471
0.010307241 0.12224541 -0.08744469 0.038129743 0.0031927307 0.17514306 -0.06472164 0.04888898
0.11076381 -0.10380898 0.08866913 0.02550311 0.15476191 0.053803913 0.060646057 0.020589674
-0.08971656 0.08362666 -0.11608386 -0.0060743704 -0.06201733 -0.19589466 -0.12269122 0.12437282
0.09429841 -0.08143364 0.016360365 0.089077115 0.05974755 -0.010359429 -0.00028834943 0.16796501
0.18120545 -0.12311252 0.12824158 0.18350525 0.16452943 0.042739864 0.07960197 0.03156929
0.114933066 0.0465508 -0.04317377 0.05654806 0.11144421 0.06831787 0.13967824 -0.18570104
0.04088635 0.058307957 -0.13675961 0.1005521 0.046532538 0.021058828 0.12979978 0.064323135
0.06115174 0.020672625 -0.035157755 0.064467385 -0.0051803747 0.056067742 0.15503885 -0.054072306
-0.21614614 0.033599302 -0.01920268 -0.121237494 -0.00048611272 0.17238033 -0.07368039 0.037153125
0.12191501 0.14063431 -0.03624723 0.108457804 0.16497593 -0.12507734 0.10147139 0.06958709
0.026474357 0.14341576 0.08805424 -0.08322307 0.06910634 0.09996345 0.068088904 -0.02271038
00000000: 11e3 ddbd 4cec 0a3d 9dd2 dbbc a072 ac3d
00000010: 238f 7cbd 93c1 4e3c b840 25bd 682d 30ba
00000020: d551 88bd f785 933d 5e39 073d 7cff b63c
00000030: 5132 0e3d fd31 e4bd b828 d7bc 90fe e43b
00000040: 4fb1 e43d f3c8 403d ac1c 0b3d b6f4 a5bc
00000050: aef4 9a3d 7f47 64be 444a 2f3c 0888 733d
00000060: 1f05 253b 8282 f33c e978 c3bd d718 e63d
00000070: cfb1 4cba 644b d7bb 34e6 80bd d8e0 d73c
00000080: 0176 9c3d 0776 0fbe dbc7 a4bc c977 7cbc
00000090: e115 c4bd be04 d6bc d2d0 0ebe 2ea4 c039
000000a0: d357 313b 424d b3bd 5763 293e 3ce4 0a3d
000000b0: 590e 84bd e428 4e3c 2238 18be 8760 963d
000000c0: d5b7 aebb 5328 80bd 955f 913d 3824 e3bd
000000d0: e066 80bd 3d7d aabd de3f abbd 55af acbd
000000e0: 62eb 85bd e7e6 63bc eec8 973d e44a 1e3c
000000f0: 7522 5abd fd99 a0bc 58af 3b3e e0c1 c9bd
00000100: b2da 48be f416 51bd 8aa8 12bd 3157 dcbc
00000110: ab57 9ebb 87cf 293e 8276 8bbd 51a3 db3c
00000120: 7ca1 333d c389 383c b671 05bc 02b7 843c
00000130: f98f e33c 80c2 443e 41e7 273c 5f10 5abc
00000140: 6dc2 d8bc dd6c b1bd 5c9a bd3d 3608 97bb
00000150: 0fbf 393d dcba fbbb bf86 903c 03af 353d
00000160: 6641 1dbe dbac 83bd a198 983d 8b09 54be
00000170: f117 d9bc 1171 72bd c2f2 debd f8de 4ebe
00000180: 317c b93c 1391 06be c486 3d3e fdcd da3c
00000190: 4e10 5bbd 8109 10be d931 c1bd b8bf 143d
000001a0: 137a c33d 80fd 72bd 906e 8a3d 3e7b e33c
000001b0: c073 59bd 8b73 25be c18e d8bd a3a3 5c3d
000001c0: 8b25 163d a80c f73c b781 febb 7f66 d9bd
000001d0: 8cb7 1c3d b57a a73d defb 84bd 26f9 d7bd
000001e0: 9801 2c3d ff25 b83b 5522 a43d f339 02be
000001f0: 3a23 13be 3446 473d d3e9 8b3d f7c2 a53d
00000200: 2615 963d 4fce a5be c6a8 2b3e c3c7 213c
00000210: 6efe 343d 6e1a d23d eb33 9a3d 5da1 b43d
00000220: 0c62 e53d 3c54 5abe d603 aa3d 2942 50bd
00000230: 7a48 ba3c 5852 31be 1566 163e da18 a43c
00000240: 1cc2 f5ba f29b 4a3d 1e19 013e afe9 f73b
00000250: 2f83 983d e1d5 163e e665 11bd e62d 7dbd
00000260: e2f4 163e 2500 1cbe 3b4a fdbd 5391 603d
00000270: f5ab a7be d1ce af3d db7b 233d a425 563d
00000280: 3a58 313d 5057 3fbd eb57 2fbd 21e0 053e
00000290: 076d 1b3e 532a 113e 9579 d33d f845 7a3c
000002a0: b4df 283c cd5b fa3d 3416 b3bd ef2d 1c3d
000002b0: 223d 513b b458 333e c78c 84bd d03f 483d
000002c0: 23d8 e23d cd99 d4bd 2998 b53d e6eb d03c
000002d0: e879 1e3e 7e61 5c3d 0068 783d adab a83c
000002e0: 51bd b7bd 7444 ab3d 60bd edbd 830b c7bb
000002f0: e205 7ebd 9c98 48be 8945 fbbd 2db7 fe3d
00000300: 861f c13d aec6 a6bd 2c06 863c 106e b63d
00000310: d9b9 743d 98ba 29bc 9b2d 97b9 05ff 2b3e
00000320: ec8d 393e 6b22 fcbd c351 033e cde8 3b3e
00000330: 677a 283e ff0f 2f3d 5c06 a33d cd4e 013d
00000340: 0762 eb3d 0dac 3e3d fbd6 30bd f09e 673d
00000350: dd3c e43d 3dea 8b3d d007 0f3e 6a28 3ebe
00000360: 7278 273d 53d4 6e3d b60a 0cbe 42ee cd3d
00000370: e798 3e3d 9083 ac3c 3cea 043e d9bb 833d
00000380: 3f7a 7a3d a359 a93c 9401 10bd 7a07 843d
00000390: 22c0 a9bb 4aa7 653d 81c2 1e3e ec7a 5dbd
000003a0: 6a55 5dbe 6c9f 093d f04e 9dbc 5d4b f8bd
000003b0: f2dc feb9 7884 303e bfe5 96bd e02d 183d
000003c0: 94ae f93d 7102 103e fa77 14bd 201f de3d
000003d0: 73ef 283e 4614 00be 3bd0 cf3d ad83 8e3d
000003e0: c0e0 d83c 95db 123e c855 b43d db70 aabd
000003f0: a087 8d3d a3b9 cc3d 3272 8b3d 1e0b babc

base.mlp.fc.3.bias f4 [128]
0.0905106 -0.05814246 0.023533352 -0.14927092 0.062280115 0.035280615 0.05270506 -0.06408302
0.010791419 -0.06394135 0.026115233 0.14379616 -0.043693807 0.040802926 0.059148986 -0.087670155
0.0742782 -0.052806813 -0.032314528 0.073207274 -0.09110991 0.011649049 -0.089642055 0.13354361
0.0040482436 -0.031001361 0.025238223 0.029915169 0.15733966 -0.13673215 0.003989096 0.017916158
-0.096704066 0.04148311 -0.12461277 -0.069837175 -0.022805752 -0.08863978 -0.15918985 0.037149005
0.020093953 -0.084945776 -0.10579744 -0.055284332 -0.025888782 -0.011163731 0.03214959 -0.008931688
-0.0062475833 0.023025736 -0.00019587406 -0.06043748 0.12649761 -0.07029168 -0.12953745 0.03048403
0.054849625 -0.008806132 0.03329041 0.04223268 0.011663567 0.01367324 0.039872676 0.0058198473
-0.0884875 -0.040138673 -0.005961632 0.04274475 0.026306063 0.021312833 -0.041458506 0.047005173
-0.06763693 -0.02006835 -0.067401744 -0.0183144 -0.052999046 -0.053002927 0.074999586 -0.05307471
0.018076226 0.07736318 -0.097396046 0.059818387 0.015301593 -0.01913298 0.028612254 -0.09064103
-0.06887326 -0.09853523 0.08261577 0.0034620601 -0.06743589 0.041247707 0.025036708 0.04931049
0.026245521 0.07412839 -0.033795785 0.07650946 -0.051219366 -0.06582428 0.17358816 0.015511194
-0.08286507 0.095712066 -0.0021331108 -0.13507324 0.036703397 0.08782005 -0.06361887 0.03593687
0.06619663 -0.10832687 -0.02050693 0.17306513 -0.081027426 -0.005251074 -0.08323133 0.09025085
-0.09828997 0.15132998 0.09579211 -0.034407135 -0.1232415 -0.062413257 -0.07515306 -0.06612258
00000000: 9f5d b93d ca26 6ebd 04c9 c03c 7ada 18be
00000010: 6f19 7f3d 6882 103d 43e1 573d f53d 83bd
00000020: 7ece 303c aff3 82bd 9def d53c 4d3f 133e
00000030: 47f8 32bd f820 273d 3546 723d 698c b3bd
00000040: 2b1f 983d f54b 58bd 3d5c 04bd b2ed 953d
00000050: d597 babd a7db 3e3c 4196 b7bd a8bf 083e
00000060: 21a7 843b 91f6 fdbc 64c0 ce3c a810 f53c
00000070: a61d 213e 8303 0cbe f6b6 823b e8c4 923c
00000080: c80c c6bd 32ea 293d fb34 ffbd cb06 8fbd
00000090: 21d3 babc c688 b5bd aa02 23be 8e29 183d
000000a0: 139c a43c 0df8 adbd 54ac d8bd d371 62bd
000000b0: b614 d4bc 15e8 36bc 4aaf 033d 3756 12bc
000000c0: 87b8 ccbb 78a0 bc3c 8b63 4db9 4b8d 77bd
000000d0: 9788 013e 16f5 8fbd 77a5 04be a5b9 f93c
000000e0: 00aa 603d 9847 10bc 865b 083d 2dfc 2c3d
000000f0: 8c18 3f3c ba05 603c 8851 233d 6bb4 be3b
00000100: ef38 b5bd 7368 24bd cb59 c3bb 1e15 2f3d
00000110: d07f d73c 4098 ae3c 65d0 29bd 7f88 403d
00000120: 3b85 8abd 6166 a4bc ed09 8abd 1508 96bc
00000130: 8715 59bd 9919 59bd 6299 993d de64 59bd
00000140: 9814 943c 9670 9e3d 9477 c7bd 2004 753d
00000150: 88b3 7a3c c4bc 9cbc 3f64 ea3c 01a2 b9bd
00000160: 6c0d 8dbd d7cc c9bd 7532 a93d bbe3 623b
00000170: d41b 8abd 5bf3 283d c819 cd3c ccf9 493d
00000180: d900 d73c a0d0 973d 736d 0abd feb0 9c3d
00000190: 66cb 51bd e1ce 86bd 18c1 313e aa22 7e3c
000001a0: 29b5 a9bd b004 c43d a9cb 0bbb a450 0abe
000001b0: 4d56 163d 00db b33d 9c4a 82bd 8a32 133d
000001c0: 1992 873d 7ada ddbd 26fe a7bc fc37 313e
000001d0: b5f1 a5bd 3411 acbb 3075 aabd 70d5 b83d
000001e0: 404c c9bd 3ff6 1a3e a72e c43d 7fee 0cbd
000001f0: 0a66 fcbd 0ba5 7fbd d9e9 99bd 466b 87bd

base.mlp.fc.5.weight f4 [128]
0.9941418 0.9937799 0.94598305 0.90544224 1.0916361 1.0935067 1.0245607 1.1439354
1.2543566 1.1694679 0.9169757 0.9895855 0.97978747 0.9707084 1.0569184 0.97884315
1.0861769 1.1400156 1.0223765 1.1732996 1.0285492 1.1091017 1.1691604 1.1030289
0.9201148 1.2992233 0.92495716 1.1149236 1.2295148 1.1364897 1.0705823 1.0231099
1.2588556 1.061574 0.8676971 1.2694101 1.2204876 1.0594248 0.9406016 1.2098082
1.3031722 0.89106804 1.049182 1.1419134 1.0646572 0.7604523 0.9829132 1.2231681
0.7951291 1.0162758 0.9313265 1.1114777 1.2105417 1.0961063 0.95963764 1.3004473
1.199042 0.97006094 1.1094217 1.079392 0.98636293 0.87933993 0.88730174 0.9897163
0.99008447 1.0895584 0.99741787 1.1474408 1.0415782 1.0033789 1.1966784 1.0088971
1.0782838 1.069604 1.0250069 1.135993 1.1396892 1.1197641 1.1056316 1.0436174
1.080837 1.3242383 0.95528245 1.1387804 1.0517802 0.8960052 1.0069063 1.153333
0.7808783 1.1548697 1.3401623 1.070278 1.1297071 1.1967502 1.0764686 1.0456711
1.1162022 0.9430112 1.0297855 1.1147753 1.0753629 1.0839105 1.2225481 1.0751926
0.91991496 1.04825 1.0300585 0.8638315 0.9902462 1.4398283 1.2661992 1.1880323
1.2196302 0.9748372 1.0659082 1.3889582 1.1530706 0.99210733 1.0914931 1.1845367
1.0538512 0.96923095 1.054014 1.0521766 1.144369 1.099892 1.2623309 1.1091998
00000000: 1480 7e3f 5c68 7e3f f22b 723f 10cb 673f
00000010: bbba 8b3f 07f8 8b3f ce24 833f 7a6c 923f
00000020: c28e a03f 20b1 953f ebbe 6a3f 7a55 7d3f
00000030: 5ad3 7a3f 5880 783f 1a49 873f 7795 7a3f
00000040: d807 8b3f 08ec 913f 3cdd 823f ae2e 963f
00000050: 80a7 833f 0bf7 8d3f 0ca7 953f 0d30 8d3f
00000060: a58c 6b3f f34c a63f fec9 6c3f d1b5 8e3f
00000070: be60 9d3f 7f78 913f d708 893f 44f5 823f
00000080: 2e22 a13f a8e1 873f 6621 5e3f 087c a23f
00000090: f038 9c3f 3b9b 873f 44cb 703f ffda 9a3f
000000a0: 59ce a63f 091d 643f 994b 863f 382a 923f
000000b0: b046 883f 00ad 423f 33a0 7b3f c690 9c3f
000000c0: 958d 4b3f 5315 823f 6a6b 6e3f e744 8e3f
000000d0: 08f3 9a3f 364d 8c3f d0aa 753f 0f75 a63f
000000e0: 357a 993f ea55 783f 8801 8e3f 8429 8a3f
000000f0: 4882 7c3f 6c1c 613f 3526 633f 0c5e 7d3f
00000100: 2d76 7d3f a676 8b3f c756 7f3f 57df 923f
00000110: 6f52 853f b86e 803f c22c 993f 8a23 813f
00000120: 3405 8a3f c9e8 883f 6d33 833f 3868 913f
00000130: 56e1 913f 6e54 8f3f 5685 8d3f 4195 853f
00000140: de58 8a3f a480 a93f 648d 743f 8ec3 913f
00000150: bca0 863f 9960 653f 4ee2 803f 6aa0 933f
00000160: a4e7 473f c5d2 933f 708a ab3f dffe 883f
00000170: 3e9a 903f 1c2f 993f b9c9 893f 8dd8 853f
00000180: b7df 8e3f 2f69 713f 03d0 833f f5b0 8e3f
00000190: 7ea5 893f 94bd 8a3f 757c 9c3f e99f 893f
000001a0: 8c7f 6b3f 0e2d 863f f5d8 833f 1024 5d3f
000001b0: c680 7d3f 4b4c b83f d112 a23f 7111 983f
000001c0: d81c 9c3f ee8e 793f ae6f 883f 62c9 b13f
000001d0: d197 933f bffa 7d3f 0cb6 8b3f e69e 973f
000001e0: 99e4 863f 851f 783f eee9 863f b9ad 863f
000001f0: af7a 923f 43c9 8c3f 0f94 a13f 42fa 8d3f

base.mlp.fc.5.bias f4 [128]
0.10449111 -0.0051421695 0.1250817 0.06234669 -0.12649344 -0.118361086 -0.032878216 -0.14840959
0.29851195 -0.19151364 -0.05081536 -0.041261464 -0.022419646 -0.043421794 0.08631247 0.028946193
0.19690594 -0.103476144 -0.026017776 0.19662166 -0.04783499 -0.13125327 -0.18878977 -0.14952484
0.07606917 -0.20958242 0.034051046 -0.16218561 0.23512027 -0.095579535 -0.076198824 -0.0137546845
-0.26666614 -0.06835173 0.12870045 0.05108836 -0.051825546 -0.0736279 -0.05583179 -0.2179006
0.30527622 0.086530626 -0.05148582 -0.14976682 -0.08168846 0.18591492 -0.061605625 -0.22961459
0.26332825 0.090936854 -0.037656996 0.05725934 0.19597498 -0.13956994 0.011215127 -0.10537793
0.21827441 0.015664475 -0.113544255 -0.09099808 -0.04092852 0.073007256 -0.073026314 -0.00094398885
-0.019005844 -0.102705576 -0.03966877 0.09920845 -0.03938397 -0.029307002 0.117062755 -0.0054760235
-0.1284993 -0.059421387 -0.08770096 -0.14587048 -0.15981829 -0.13072196 -0.019185025 -0.038805548
-0.11762254 0.31821117 0.01802345 -0.1266073 -0.05685443 0.11211318 -0.024164708 -0.16299054
0.21635051 -0.18874162 0.029951112 -0.019709695 -0.14151168 0.0935456 -0.0013454997 -0.051687527
0.0638027 0.07424232 -0.06062981 -0.019714877 -0.03964045 -0.09710729 0.1586726 -0.012759765
0.0669434 0.1100028 -0.075093776 -0.02080864 0.07283442 0.10176618 -0.27146253 -0.24241202
0.20913753 0.018050224 -0.08280421 0.32100704 -0.16111176 -0.028326431 -0.12295575 -0.005189835
-0.044267546 0.10930412 -0.026267715 -0.07188919 -0.14732717 -0.19822893 -0.274523 -0.1229848
00000000: 6fff d53d a57f a8bb 6b15 003e 3e5f 7f3d
00000010: 7f87 01be 4c67 f2bd 4fab 06bd aff8 17be
00000020: 8fd6 983e 271c 44be c423 50bd c801 29bd
00000030: 68a9 b7bc 0ddb 31bd 98c4 b03d 9120 ed3c
00000040: b6a1 493e 4deb d3bd 3b23 d5bc 3057 493e
00000050: 9fee 43bd 4267 06be 1b52 41be 0a1d 19be
00000060: 27ca 9b3d c69c 56be 1c79 0b3d fc13 26be
00000070: 5ec3 703e 34bf c3bd 210e 9cbd 545b 61bc
00000080: 7788 88be fefb 8bbd 0dca 033e 0742 513d
00000090: 0647 54bd 39ca 96bd e0af 64bd 5621 5fbe
000000a0: 2a4d 9c3e f836 b13d cce2 52bd 795c 19be
000000b0: 484c a7bd 7b60 3e3e 2e56 7cbd 1620 6bbe
000000c0: f6d2 863e 1a3d ba3d 393e 1abd c588 6a3d
000000d0: aaad 483e 6ceb 0ebe a7bf 373c 62d0 d7bd
000000e0: 5483 5f3e c952 803c e489 e8bd 345d babd
000000f0: aaa4 27bd d484 953d d28e 95bd 0576 77ba
00000100: 25b2 9bbc 4d57 d2bd b87b 22bd cd2d cb3d
00000110: 1651 21bd 3d15 f0bc 99be ef3d 3770 b3bb
00000120: 5295 03be d763 73bd 909c b3bd 125f 15be
00000130: 68a7 23be fadb 05be ea29 9dbc 91f2 1ebd
00000140: 16e4 f0bd 93ec a23e eaa5 933c 58a5 01be
00000150: 31e0 68bd 989b e53d 11f5 c5bc fee6 26be
00000160: fd8a 5d3e 7c45 41be 095c f53c 3a76 a1bc
00000170: 70e8 10be d694 bf3d 7a5b b0ba 4db6 53bd
00000180: fdaa 823d 5c0c 983d f756 78bd 1881 a1bc
00000190: 065e 22bd 30e0 c6bd 127b 223e 550e 51bc
000001a0: 9f19 893d 2649 e13d c4ca 99bd e276 aabc
000001b0: 362a 953d c96a d03d 23fd 8abe db3a 78be
000001c0: 2628 563e 10de 933c 4195 a9bd 095b a43e
000001d0: 7bfa 24be d50c e8bc 39d0 fbbd 7e0f aabb
000001e0: e351 35bd d7da df3d 642f d7bc a43a 93bd
000001f0: efdc 16be 86fc 4abe 478e 8cbe 74df fbbd

rnn.gru.weight_ih_l0 f4 [384, 128]
0.0685664 0.06922983 -0.08357041 0.01693913 0.01899114 -0.07782677 0.007989747 -0.076878294
-0.07106958 0.075376146 0.048297286 0.010691927 0.12803209 -5.8492813e-05 -0.031295303 -0.012079354
0.02623078 -0.035188902 -0.06444575 0.20038913 -0.12252185 0.028870115 0.033766937 -0.037892725
0.05022177 0.029612489 -0.027734116 -0.06094808 0.06766723 -0.050165065 0.02919764 -0.0020392372
0.04134381 0.01852684 -0.041009538 0.059479423 0.004142847 0.015119755 -0.032279976 0.029723508
-0.009471024 -0.099575646 0.058002632 -0.0637881 0.03504872 0.075541705 -0.1472859 0.054243907
0.01826306 -0.12901904 -0.05138012 0.022316204 0.015711032 -0.009146515 0.027281411 0.004214811
0.09021883 0.020330213 -0.07681333 -0.023031676 -0.096963316 0.1750162 -0.20713209 0.04401701
0.08423489 -0.022593766 -0.08812693 0.13084485 0.02962076 -0.09024533 0.21085733 -0.011607484
-0.0675368 0.012140367 0.043620702 -0.0028629259 -0.06601768 -0.052421395 -0.025766704 0.044718776
0.012375393 0.017449243 -0.0023856368 -0.054797623 0.035898533 0.11283735 0.032429498 0.07254785
-0.051419877 0.12096824 -0.07298539 0.060468327 -0.02398551 -0.001578747 -0.017983759 -0.003290486
0.17534658 -0.06475047 -0.014551593 -0.05475518 0.1203504 0.044978682 -0.034616724 -0.09538806
0.06962385 0.05927558 0.08999983 -0.034158915 -0.18928252 -0.06502293 -0.06815071 -0.04625744
0.023860255 -0.053240526 -0.039266832 0.017990997 -0.02369479 -0.048480954 0.13816045 0.05668901
-0.014326671 0.050296698 -0.15080923 -0.019445306 -0.19005989 0.0744649 -0.058765057 0.053626828
-0.1523079 0.0064618303 -0.031270515 -0.05744199 0.0978683 0.12743017 0.21278389 0.050019104
-0.054378115 0.1834362 0.1069823 -0.05019678 0.07938562 -0.042817105 0.049044278 0.091307074
-0.034857415 -0.09760623 0.043388773 -0.033448435 -0.022298375 0.054821793 0.080959156 0.0687319
0.06349886 0.058757797 0.21081905 0.047542192 0.018714726 0.03215508 0.17544481 0.10872842
0.08483967 0.1642175 0.20281789 0.08441398 -0.008000677 0.18825008 0.089739144 0.08391191
-0.045043524 0.09314993 0.19970322 0.141865 0.19523174 0.14627197 0.11513556 0.1741331
0.08857503 -0.11688351 0.14654654 0.0978026 0.0041674357 0.12832883 0.19565742 -0.04576192
-0.0013930465 0.09007286 0.064904444 0.19777466 -0.068546936 0.0376795 0.068210706 0.1883203
0.15812552 0.061848477 0.066274665 -0.109265216 0.14794321 0.038947538 -0.11167617 0.040885072
0.1257375 0.20825103 0.15358144 0.13630824 0.1623406 0.07016367 -0.06874145 0.19651729
-0.10009672 -0.22098324 0.09413963 0.00070072594 0.112234294 0.015656386 0.13469607 0.14869279
0.15449807 0.0019185286 -0.07425542 0.19250685 0.19791417 -0.2441165 0.0030642988 0.073253706
-0.11620704 -0.13916636 0.18722054 0.06972467 0.036537006 0.13166149 0.0025228665 -0.016879518
0.14330271 -0.265701 0.081935026 0.06291532 -0.06926397 0.09303047 0.04388598 0.08633106
-0.06289024 0.10739868 0.10354955 -0.11458226 0.18573788 -0.05270463 0.14623052 -0.039743252
-0.14447081 0.014100051 0.023402788 0.14381436 0.116448015 0.0019289104 0.09734008 0.18711904
00000000: 8a6c 8c3d 5ec8 8d3d f726 abbd eec3 8a3c
00000010: 4f93 9b3c a463 9fbd 6ee7 023c 5e72 9dbd
00000020: ee8c 91bd cf5e 9a3d 60d3 453d 312d 2f3c
00000030: d81a 033e 2e56 75b8 812f 00bd 7ce8 45bc
00000040: efe1 d63c 3d22 10bd 22fc 83bd cf32 4d3e
00000050: bcec fabd 0581 ec3c 334f 0a3d 6735 1bbd
00000060: 58b5 4d3d e495 f23c a832 e3bc b2a4 79bd
00000070: 1e95 8a3d e279 4dbd e42f ef3c b9a4 05bb
00000080: 2058 293d 99c5 973c 9ef9 27bd b2a0 733d
00000090: b8c0 873b d9b8 773c 0238 04bd b77e f33c
000000a0: 5b2c 1bbc 51ee cbbd 2b94 6d3d 56a3 82bd
000000b0: 3f8f 0f3d 9cb5 9a3d 1dd2 16be dc2e 5e3d
000000c0: 6a9c 953c 911d 04be f673 52bd 79d0 b63c
000000d0: 6cb4 803c 44db 15bc 447d df3c 661c 8a3b
000000e0: a6c4 b83d 8c8b a63c 4f50 9dbd edac bcbc
000000f0: b494 c6bd 7237 333e 6f1a 54be 2e4b 343d
00000100: 5883 ac3d 9016 b9bc e47b b4bd 31fc 053e
00000110: 3ca7 f23c 8bd2 b8bd fcea 573e 512d 3ebc
00000120: bc50 8abd 64e8 463c 9fab 323d ed9f 3bbb
00000130: 4734 87bd d1b7 56bd b214 d3bc 092b 373d
00000140: 29c2 4a3c b7f1 8e3c 5858 1cbb 7973 60bd
00000150: 570a 133d 4517 e73d cbd4 043d f893 943d
00000160: a69d 52bd 32be f73d 5d79 95bd a3ad 773d
00000170: 437d c4bc f5ed ceba ad52 93bc 32a5 57bb
00000180: 0e8e 333e e59b 84bd ce69 6ebc f846 60bd
00000190: 457a f63d 913b 383d 44ca 0dbd d15a c3bd
000001a0: f396 8e3d f3ca 723d d551 b83d 38ea 0bbd
000001b0: 47d3 41be be2a 85bd 9992 8bbd 7178 3dbd
000001c0: 9576 c33c bd12 5abd 42d6 20bd db61 933c
000001d0: 941b c2bc f793 46bd ef79 0d3e bc32 683d
000001e0: 6aba 6abc e903 4e3d bc6d 1abe c34b 9fbc
000001f0: 0f9f 42be 0e81 983d a1b3 70bd cea7 5b3d
00000200: 9af6 1bbe c3bd d33b 8315 00bd 4b48 6bbd
00000210: 2d6f c83d 0e7d 023e 05e4 593e d5e0 4c3d
00000220: 96bb 5ebd b3d6 3b3e 8919 db3d 249b 4dbd
00000230: ee94 a23d fd60 2fbd a7e2 483d 34ff ba3d
00000240: a6c6 0ebd c6e5 c7bd 6db8 313d 3a01 09bd
00000250: 15ab b6bc d18c 603d eacd a53d 4fc3 8c3d
00000260: b10b 823d 04ac 703d f3e0 573e 9abb 423d
00000270: a04f 993c 0cb5 033d cea7 333e 02ad de3d
00000280: 6cc0 ad3d a228 283e 7eaf 4f3e 3de1 ac3d
00000290: 4615 03bc a1c4 403e 28c9 b73d 02da ab3d
000002a0: 8f7f 38bd 64c5 be3d 007f 4c3e 0f45 113e
000002b0: d4ea 473e 52c8 153e 31cc eb3d f34f 323e
000002c0: d366 b53d 9f60 efbd 4c10 163e bb4c c83d
000002d0: fc8e 883b a268 033e 6b5a 483e da70 3bbd
000002e0: e296 b6ba 1f78 b83d 9fec 843d 7185 4a3e
000002f0: 5662 8cbd d255 1a3d 0eb2 8b3d 09d7 403e
00000300: a8eb 213e d454 7d3d 03bb 873d 71c6 dfbd
00000310: 6d7e 173e 7487 1f3d 7ab6 e4bd 1b77 273d
00000320: 55c1 003e c23f 553e 7444 1d3e 6394 0b3e
00000330: 9d3c 263e f8b1 8f3d 51c8 8cbd d43b 493e
00000340: 82ff ccbd 6e49 62be 47cc c03d ecb0 373a
00000350: 18db e53d d241 803c c4ed 093e ec42 183e
00000360: be34 1e3e 2377 fb3a 3a13 98bd 8420 453e
00000370: 03aa 4a3e adf9 79be 67d2 483b 0a06 963d
00000380: f5fd edbd a081 0ebe beb6 3f3e cfcb 8e3d
00000390: d4a7 153d 45d2 063e ad56 253b ea46 8abc
000003a0: f2bd 123e f609 88be 8dcd a73d bfd9 803d
000003b0: 45da 8dbd c286 be3d c9c1 333d 57ce b03d
000003c0: 99cc 80bd d7f3 db3d c911 d43d 1baa eabd
000003d0: 1232 3e3e cfe0 57bd 74bd 153e d2c9 22bd
000003e0: 28f0 13be e603 673c 34b7 bf3c 1244 133e
000003f0: 4c7c ee3d 7ed3 fc3a 3c5a c73d 229c 3f3e

rnn.gru.weight_hh_l0 f4 [384, 128]
-0.09225583 -0.06889604 -0.021901485 0.06619318 0.00571587 0.017859139 0.067166485 0.024178764
-0.049641933 -0.027386941 0.05079269 0.074772656 0.048889775 -0.033595286 0.02096743 0.03803129
0.021163164 0.05245314 -0.022106022 -0.014501874 -0.02308617 0.028565386 0.009633751 0.04431177
-0.10758256 -0.03610991 0.17352957 0.106622145 -0.029018393 0.03670254 -0.1414223 0.124027446
0.07211934 0.05092387 0.047610607 0.043401722 -0.123371474 0.10774201 0.036931966 -0.028086487
-0.06460633 -0.024391646 0.0947931 0.09372339 -0.1785151 0.035424743 -0.110194884 -0.10093876
-0.002129806 0.08428078 -0.10297708 0.036046628 -0.027407171 0.13543116 -0.05755974 0.009697235
-0.071239635 -0.046295933 -0.105354674 0.03306598 -0.03971075 -0.12432616 0.03659632 -0.106216565
-0.14375968 -0.050049484 0.060036473 -0.0781211 0.09559291 0.08031144 0.08644044 -0.12063454
-0.07295744 0.064943045 0.079843365 -0.08647959 -0.02449539 0.106503114 -0.04613732 0.11044971
0.16792673 -0.087308176 -0.039917156 0.0073525477 0.09288228 -0.026483107 0.18300176 -0.1277127
0.049104523 -0.114558406 -0.020531101 -0.15721877 0.09664781 0.03283982 0.015783574 0.02381206
0.078944825 0.022671167 0.059619237 0.09502998 -0.047897752 0.06448139 -0.069684215 -0.020529503
-0.07934083 0.17605722 0.04800822 -0.0561797 -0.050589375 0.12099118 -0.031298738 0.016567137
0.009867667 -0.07116087 -0.10302563 -0.07636525 -0.020931106 0.08415961 -0.028313044 0.0023328154
0.097988255 -0.0023890391 -0.18525535 -0.047371276 0.113183945 -0.13675477 -0.09766019 -0.051435478
-0.032425467 -0.13104631 0.02175844 -0.081989825 -0.10557202 -0.1613213 -0.08413537 0.11047695
0.063902706 0.01703398 -0.12296805 0.030760633 0.02401009 0.08087413 -0.04054198 0.086481415
-0.009659864 0.09908771 0.14383137 -0.17894728 0.13714196 -0.15057376 0.04543825 -0.15224534
0.059910156 0.040967178 -0.0014370051 0.076386414 0.038110185 -0.036867023 0.12543312 0.08823026
-0.15421511 -0.037850942 0.042775966 0.19307296 0.0393252 -0.037519395 0.016057735 -0.05478769
-0.18120252 -0.2201274 -0.06516477 -0.3030308 0.05305308 -0.11523656 -0.04006128 0.06617454
0.14012119 -0.16316055 0.10666856 -0.114495225 -0.009310889 0.056251835 0.028955024 -0.10659672
0.0074130967 0.09110361 -0.013769167 -0.019645836 0.06913678 0.018537018 -0.060889058 0.09896064
0.090333305 0.17933564 0.021008778 0.034082912 -0.04775294 0.045780916 -0.11205988 0.014495866
-0.121664904 0.20204785 0.01825916 -0.016438205 -0.04157664 0.0180627 -0.042089503 0.006022267
0.00497088 -0.028663522 -0.06330957 -0.027648803 -0.06803038 0.07098565 -0.01814056 -0.16379589
0.011402258 -0.14170554 0.0633467 0.028307814 -0.06318849 0.10554025 0.030996792 0.0397072
-0.013893195 -0.14484552 0.13885091 0.02772005 -0.038071696 -0.095730625 -0.05115123 -0.061212435
0.036227144 0.106596924 -0.037908155 0.10649141 -0.0316083 0.03268218 0.15925509 0.1295629
-0.0074888305 -0.12883976 -0.06177386 0.04190455 -0.007948647 0.1526391 0.022975959 -0.06423912
0.055980757 0.10724116 0.043098524 -0.025848571 -0.13193697 -0.12670425 0.027283171 0.14194725
00000000: a0f0 bcbd 5e19 8dbd be6a b3bc 4a90 873d
00000010: 314c bb3b 544d 923c 958e 893d 8b12 c63c
00000020: 5755 4bbd 945a e0bc ff0b 503d 6822 993d
00000030: a540 483d 369b 09bd e3c3 ab3c b3c6 1b3d
00000040: 5f5e ad3c 1bd9 563d b017 b5bc 4599 6dbc
00000050: 351f bdbc f501 ea3c e1d6 1d3c 4280 353d
00000060: 3f54 dcbd fce7 13bd bcb1 313e b65c da3d
00000070: fbb7 edbc 6755 163d 02d1 10be 1a02 fe3d
00000080: 4eb3 933d 8c95 503d 5703 433d 01c6 313d
00000090: 2faa fcbd d8a7 dc3d f945 173d a215 e6bc
000000a0: 5350 84bd fdd0 c7bc e322 c23d 0cf2 bf3d
000000b0: aacc 36be 8919 113d dbad e1bd fbb8 cebd
000000c0: 3794 0bbb 679b ac3d a6e5 d2bd a1a5 133d
000000d0: 0185 e0bc 77ae 0a3e c3c3 6bbd 27e1 1e3c
000000e0: 16e6 91bd cea0 3dbd 31c4 d7bd 3170 073d
000000f0: bda7 22bd b79e febd 06e6 153d 1288 d9bd
00000100: bd35 13be b000 4dbd cee8 753d f5fd 9fbd
00000110: 37c6 c33d 537a a43d af07 b13d 3e0f f7bd
00000120: b66a 95bd dc00 853d eb84 a33d 361c b1bd
00000130: 8eaa c8bc 4e1e da3d 7dfa 3cbd 7533 e23d
00000140: fcf4 2b3e a1ce b2bd 2c80 23bd a4ed f03b
00000150: 1139 be3d 1af3 d8bc d064 3b3e 1ec7 02be
00000160: d321 493d 999d eabd d730 a8bc f5fd 20be
00000170: 49ef c53d 0c83 063d 8e4c 813c 8211 c33c
00000180: d3ad a13d e2b8 b93c 4d33 743d 149f c23d
00000190: 6f30 44bd d20e 843d 99b6 8ebd 7d2d a8bc
000001a0: 727d a2bd 5848 343e 44a4 443d af1c 66bd
000001b0: ce36 4fbd 39ca f73d 1b33 00bd ceb7 873c
000001c0: ffab 213c cabc 91bd 1aff d2bd 6265 9cbd
000001d0: b677 abbc e05b ac3d c2f0 e7bc 26e2 183b
000001e0: 11ae c83d 6d91 1cbb 94b3 3dbe 6208 42bd
000001f0: fccc e73d 7109 0cbe 1102 c8bd 02ae 52bd
00000200: 91d0 04bd 0131 06be c23e b23c 48ea a7bd
00000210: 2536 d8bd 6931 25be 2a4f acbd bd41 e23d
00000220: 6cdf 823d d88a 8b3c acd6 fbbd b9fd fb3c
00000230: cfb0 c43c 56a1 a53d 590f 26bd 2b1d b13d
00000240: 6844 1ebc 7fee ca3d 8848 133e f53d 37be
00000250: f16e 0c3e 0230 1abe 751d 3a3d 34e6 1bbe
00000260: 5a64 753d 33cd 273d e459 bcba 7b70 9c3d
00000270: 6d19 1c3d e001 17bd 8a71 003e 11b2 b43d
00000280: 91ea 1dbe 9709 1bbd da35 2f3d ebb4 453e
00000290: 7613 213d f0ad 19bd 838b 833c 0f69 60bd
000002a0: 278d 39be 1469 61be 1b75 85bd da26 9bbe
000002b0: 304e 593d 2501 ecbd 4c17 24bd 8486 873d
000002c0: ee7b 0f3e 8f13 27be 0c75 da3d 797c eabd
000002d0: b38c 18bc 5368 663d 1633 ed3c 624f dabd
000002e0: 90e9 f23b 8894 ba3d 1298 61bc 4ef0 a0bc
000002f0: 9697 8d3d f2da 973c ce66 79bd e0ab ca3d
00000300: ab00 b93d c3a3 373e 9a1a ac3c 869a 0b3d
00000310: 9698 43bd c584 3b3d a67f e5bd 1280 6d3c
00000320: 732b f9bd a2e5 4e3e 3c94 953c 6aa9 86bc
00000330: 444c 2abd 3af8 933c 0b66 2cbd 7056 c53b
00000340: c4e2 a23b c3cf eabc 73a8 81bd be7f e2bc
00000350: 8353 8bbd ed60 913d 839b 94bc 1cba 27be
00000360: 89d0 3a3c 421b 11be eabb 813d cae5 e73c
00000370: f868 81bd 7d25 d83d fcec fd3c 04a4 223d
00000380: 49a0 63bc 6252 14be ef2e 0e3e 2915 e33c
00000390: 11f1 1bbd 6b0e c4bd f483 51bd e4b9 7abd
000003a0: ea62 143d 7d4f da3d 9545 1bbd 2b18 da3d
000003b0: b477 01bd c0dd 053d c413 233e 23ac 043e
000003c0: dd64 f5bb 92ee 03be 9606 7dbd 1ba4 2b3d
000003d0: 0b3b 02bc 6d4d 1c3e 1438 bc3c cd8f 83bd
000003e0: 144c 653d 41a1 db3d 1488 303d 62c0 d3bc
000003f0: 7c1a 07be c2be 01be f580 df3c 9f5a 113e

rnn.gru.bias_ih_l0 f4 [384]
0.032643743 -0.18860257 -0.1610707 0.042757437 0.011677109 -0.098155245 0.11809634 0.04370648
0.056034558 -0.030788334 0.009121975 0.11456522 -0.12541023 -0.056156173 -0.05028775 -0.13670906
0.05351293 -0.16709226 -0.1353751 -0.026676968 -0.09601795 -0.08312221 0.02845723 -0.01632278
0.19550595 -0.012005507 -0.095720835 -0.018171852 0.010967313 0.02605404 0.11072497 0.017534582
-0.11064033 -0.046203032 0.086152606 -0.043379612 0.070794985 0.05167776 -0.154599 -0.07958667
0.10687152 0.081823945 -0.02328418 0.1057157 -0.12259841 -0.103098534 -0.05016533 0.12498576
-0.14166111 -0.022815917 0.14929752 -0.11546966 -0.022718295 0.2123118 -0.019856077 0.0057814047
-0.067512624 -0.013012904 0.08081613 0.12667856 -0.076030456 -0.052273024 -0.12832233 0.05885477
0.019524638 0.041367397 0.01089394 0.1869862 0.01716301 0.10756689 0.060418565 0.017548608
0.10003072 0.15483387 0.023783317 0.19551475 0.026395515 0.15179867 0.04837599 0.17896123
0.056727834 0.16620216 0.16055092 0.0844155 -0.0062032402 0.116478585 0.029852679 -0.0061107352
-0.07585556 0.005676941 -0.15843849 0.007703605 0.23421776 0.1702232 0.2318317 0.09106313
0.0354324 -0.064959176 -0.086852364 0.13040504 0.13452265 0.15269496 -0.1713834 0.07272376
-0.060966805 0.24979274 0.023922624 0.0541431 -0.029100016 -0.018174559 0.100247465 0.15358116
0.003980289 0.14554346 -0.08328299 0.22750397 0.14830987 -0.010894651 0.06346576 0.14247581
-0.17123196 -0.037249938 -0.0744503 -0.0043147756 0.073147684 0.12621829 0.017560998 -0.17152174
-0.15870278 0.10655067 0.00721391 0.30158553 0.20799519 0.09166923 0.040856276 0.107384674
0.19384341 0.11145489 0.17416 0.2077901 0.116197295 0.27139738 0.23291233 0.21683508
0.16072273 0.2758473 0.18006214 0.02101288 0.07135023 0.30463588 -0.17028674 0.110702805
0.051349085 0.14320913 0.012861942 0.13636701 -0.010377624 -0.06510497 0.039431803 0.17521234
-0.11144299 0.10629824 0.27920315 -0.025482064 0.09702552 0.3574354 0.08260171 -0.0015792707
0.06569854 0.05275836 0.15407056 0.14848945 0.11788413 0.13217182 0.2870728 0.1110081
0.10183465 0.16176024 0.14979292 -0.13556306 0.2513485 -0.086127594 0.29186404 0.102389544
0.17501166 0.21412323 0.26072955 -0.14645992 0.2570455 0.061333265 0.25140876 0.06926366
-0.01404169 0.25847054 0.12473636 -0.2910305 -0.062634744 0.08185562 0.23282018 0.036976174
0.08210925 0.23325962 -0.11432356 0.005383842 0.21976793 -0.025890196 0.28202808 -0.13364193
0.18276137 -0.12252872 0.14291981 0.25495693 0.07043275 0.20663439 0.072409935 0.22012033
0.1052253 0.12177618 0.22736482 -0.057097606 0.044558413 0.094493695 -0.10272136 0.1794965
0.017146314 0.18901773 -0.01700785 -0.020672407 0.107126355 -0.0039358423 -0.04350879 0.074791595
0.20885281 -0.046101283 0.22793765 0.28614977 0.11014902 0.07113875 0.19663078 -0.12569554
0.074764095 -0.106782414 0.081099465 0.16555579 0.113023214 0.093611345 0.07782952 0.2625899
0.1322904 0.24666366 0.16330971 0.26686132 -0.116106965 0.04628384 0.026105423 0.18763757
00000000: 72b5 053d 0821 41be b8ef 24be 6c22 2f3d
00000010: 5851 3f3c 9e05 c9bd 7edc f13d 9105 333d
00000020: 7e84 653d d137 fcbc 5674 153c 2ca1 ea3d
00000030: 8a6b 00be 0404 66bd 87fa 4dbd 76fd 0bbe
00000040: 6030 5b3d 3c1a 2bbe c59f 0abe a889 dabc
00000050: 0fa5 c4bd fa3b aabd 231f e93c 5ab7 85bc
00000060: b632 483e bfb2 44bc 4909 c4bd 23dd 94bc
00000070: 3fb0 333c 486f d53c c6c3 e23d afa4 8f3c
00000080: 6697 e2bd 643f 3dbd c770 b03d d2ae 31bd
00000090: f6fc 903d 0fac 533d 334f 1ebe 56fe a2bd
000000a0: 75df da3d 5093 a73d 77be bebc 7981 d83d
000000b0: e014 fbbd 5325 d3bd 297a 4dbd 89f8 ff3d
000000c0: 9c0f 11be 72e8 babc 73e1 183e 5b7b ecbd
000000d0: b81b babc 4468 593e 36a9 a2bc f071 bd3b
000000e0: 0f44 8abd 1334 55bc ed82 a53d 06b8 013e
000000f0: dbb5 9bbd 3d1c 56bd ee66 03be b311 713d
00000100: 22f2 9f3c dc70 293d 7f7c 323c 4f79 3f3e
00000110: 7199 8c3c 084c dc3d 7579 773d 19c2 8f3c
00000120: e8dc cc3d c58c 1e3e 3bd5 c23c 0535 483e
00000130: 683b d83c 1c71 1b3e e725 463d 9d41 373e
00000140: 725b 683d e630 2a3e 7667 243e 09e2 ac3d
00000150: 8d44 cbbb 538c ee3d 9b8d f43c 903c c8bb
00000160: 295a 9bbd a205 ba3b b33d 22be 866e fc3b
00000170: c8d6 6f3e fe4e 2e3e 4a65 6d3e 4e7f ba3d
00000180: 9021 113d 5109 85bd a7df b1bd e688 053e
00000190: 4ec0 093e 115c 1c3e 217f 2fbe 32f0 943d
000001a0: 54b8 79bd abc9 7f3e 61f9 c33c 28c5 5d3d
000001b0: 2863 eebc d0e2 94bc 8b4e cd3d 6144 1d3e
000001c0: 166d 823b 5809 153e 4690 aabd cdf6 683e
000001d0: 8bde 173e 7a7f 32bc 56fa 813d 2ee5 113e
000001e0: 6e57 2fbe 6493 18bd 6679 98bd f662 8dbb
000001f0: 74ce 953d 5e3f 013e 15dc 8f3c 65a3 2fbe
00000200: fb82 22be 3d37 da3d aa62 ec3b 6b69 9a3e
00000210: b1fc 543e 14bd bb3d e958 273d 7fec db3d
00000220: e37e 463e 7642 e43d 0057 323e eec6 543e
00000230: d9f8 ed3d 99f4 8a3e 9280 6e3e 040a 5e3e
00000240: 8094 243e db3b 8d3e 3662 383e 3423 ac3c
00000250: 1220 923d 3cf9 9b3e a65f 2ebe 27b8 e23d
00000260: 6b53 523d 6aa5 123e e5ba 523c cba3 0b3e
00000270: e906 2abc c155 85bd 3e83 213d dd6a 333e
00000280: 393c e4bd e4b2 d93d b7f3 8e3e c3bf d0bc
00000290: 51b5 c63d c601 b73e 162b a93d 88ff ceba
000002a0: f58c 863d 2619 583d acc4 1d3e 9e0d 183e
000002b0: 3c6d f13d 0d58 073e 35fb 923e 3758 e33d
000002c0: af8e d03d 7aa4 253e 5163 193e 0bd1 0abe
000002d0: c0b0 803e aa63 b0bd 346f 953e 9cb1 d13d
000002e0: 4236 333e 1f43 5b3e 587e 853e 97f9 15be
000002f0: 789b 833e 9738 7b3d a6b8 803e 1bda 8d3d
00000300: 1e0f 66bc 4056 843e c775 ff3d f301 95be
00000310: a546 80bd eba3 a73d 6a68 6e3e 5474 173d
00000320: e528 a83d 9cdb 6e3e 7822 eabd f16a b03b
00000330: d80a 613e ad17 d4bc fc65 903e 6ed9 08be
00000340: cc25 3b3e 56f0 fabd 9259 123e b789 823e
00000350: 0c3f 903d f797 533e a94b 943d 3967 613e
00000360: 5d80 d73d ca65 f93d 53d2 683e 2edf 69bd
00000370: e282 363d e985 c13d 945f d2bd eecd 373e
00000380: 6d76 8c3c dd8d 413e 0c54 8bbc 2e59 a9bc
00000390: 1065 db3d 3df8 80bb 4636 32bd 562c 993d
000003a0: 83dd 553e b3d4 3cbd 7d68 693e 3982 923e
000003b0: cf95 e13d 31b1 913d 9459 493e 55b6 00be
000003c0: eb1d 993d bdb0 dabd 7a17 a63d 7587 293e
000003d0: b778 e73d 4eb7 bf3d 1565 9f3d 2f72 863e
000003e0: 2277 073e 6695 7c3e a93a 273e 0ca2 883e
000003f0: 7dc9 edbd 2094 3d3d 0adb d53c 1024 403e
