scripts/results/MAPPOTraining2v1/2v1/NoWeapon/MAPPOTraining/mappo/v1_2v1_mappo_training/wandb/offline-run-20250807_165042-zjjd28i2/files/actor_episode_3400.pt (torch, 700146 bytes, 30 tensors)

base.mlp.fc.0.weight f4 [128, 21]
-0.0016337582 0.11706159 -0.17960317 -0.16059506 -0.08404758 0.058516733 -0.0043235905 0.17302267
-0.019365538 0.057743195 -0.0659483 -0.042894084 -0.20847413 -0.1445218 -0.08995446 0.00808357
0.086269215 0.13093571 -0.14793888 -0.095025785 0.079260476 0.14773408 -0.048608214 0.18211135
-0.038319785 -0.060839467 0.17084573 -0.20954935 -0.18278697 0.0030143957 -0.06385646 0.3541697
-0.14368524 -0.09376858 -0.15053415 -0.20246218 -0.12984262 0.3234598 0.090108514 0.12124143
0.0039311945 -0.11625377 0.01895332 -0.2130977 -0.17370997 -0.12742436 0.11422152 0.11542877
-0.111804694 0.00088481343 0.14899874 0.2238414 0.07796652 0.013321178 0.13096239 -0.14594096
0.031148968 -0.1852427 -0.14385106 -0.12913793 0.08353534 0.071963586 -0.114199705 0.043179173
0.07322335 -0.09283691 -0.03502831 0.015201002 0.11042243 0.1682991 -0.1385012 0.057959676
-0.01424857 0.25068486 0.14260691 0.13866945 -0.0013048776 -0.19519557 -0.0156026725 0.02608082
-0.2508145 0.13708468 0.122433126 -0.16772111 0.023428451 -0.06501819 -0.073127985 -0.13027234
0.055563793 -0.1471361 0.051965773 0.15104455 0.07459205 0.118563056 -0.29488778 -0.1702884
0.08081555 0.0112968385 -0.14699191 -0.09750155 0.17373498 0.11702259 -0.12730809 -0.08256904
-0.17609034 -0.0039222785 -0.16433093 -0.16832383 -0.01202372 0.032764338 -0.08936684 0.1294856
-0.13279413 0.1980044 0.1495447 -0.18401943 -0.05431101 0.009846563 0.031838227 0.05175567
0.08563487 0.013071287 -0.10647479 0.103258304 -0.20932527 -0.1293392 -0.054626454 -0.10629685
-0.0763399 -0.17885612 -0.046418253 0.04664548 -0.14216149 -0.011198803 0.15621147 -0.022432854
0.0060647586 -0.018825417 0.04416324 0.13875155 0.20670608 0.13858056 0.20717902 -0.01578188
-0.19602983 -0.10345213 0.1485857 -0.0014145935 -0.108464405 -0.16722295 -0.20421967 -0.1841777
-0.04426261 0.119672 0.11797755 -0.2104563 0.13612041 -0.17075756 -0.046133507 -0.08848138
-0.0420321 -0.04284549 -0.19581781 -0.1884176 -0.03414662 0.0028220334 -0.09913091 0.08220251
-0.22828227 -0.023598274 0.22705889 -0.08425587 0.1905365 0.048792567 -0.19818637 0.0720203
0.073112704 -0.06652345 0.24200398 -0.17468071 0.0358657 -0.04235095 0.18110159 0.028148625
0.11391025 0.08297307 -0.0363947 -0.053613957 -0.18899097 0.09679674 0.17661409 0.17577098
-0.14349288 -0.05750159 -0.17316793 -0.11452573 -0.20479809 0.1382995 -0.17511295 0.20889996
0.019812623 0.15515171 -0.1498551 -0.1545322 -0.15288219 0.28476304 -0.0734238 0.21076584
0.08269785 0.012713352 -0.022949863 -0.03540053 0.051028267 -0.04756779 0.05982399 -0.007607461
-0.17504571 -0.12784037 0.21105145 -0.20000833 0.0050698756 0.22317602 0.09173618 0.0027034231
-0.21757795 0.025322514 -0.10291794 -0.060096666 -0.062536865 -0.037395775 0.00037276556 0.12948312
0.013834312 0.20907536 0.12216176 -0.20702742 0.04253694 -0.17395398 -0.14014477 0.15217263
0.04285468 0.33845025 -0.08066965 -0.0059796018 0.10394553 -0.21330857 0.0932243 -0.044495035
-0.014543584 -0.032348864 -0.13733113 0.036821958 0.24739613 -0.031408805 -0.12643273 -0.05729104
00000000: d423 d6ba fdbd ef3d e5e9 37be 0873 24be
00000010: 2321 acbd 3eaf 6f3d e8ac 8dbb db2c 313e
00000020: 7aa4 9ebc 2184 6c3d e70f 87bd b5b1 2fbd
00000030: 3e7a 55be 86fd 13be 0b3a b8bd f370 043c
00000040: eaad b03d 0314 063e 4a7d 17be e19c c2bd
00000050: 5153 a23d 9a47 173e 6819 47bd 667b 3a3e
00000060: 35f5 1cbd ce32 79bd 2ff2 2e3e 1b94 56be
00000070: 822c 3bbe 2b8d 453b 2dc7 82bd bb55 b53e
00000080: 3922 13be be09 c0bd a025 1abe 3f52 4fbe
00000090: 77f5 04be 869c a53e d08a b83d 6d4d f83d
000000a0: 40d1 803b 7516 eebd fe43 9b3c 4936 5abe
000000b0: 07e1 31be 887b 02be f9ec e93d eb65 ec3d
000000c0: dcf9 e4bd d3f2 673a 2093 183e ae36 653e
000000d0: e9ac 9f3d 1241 5a3c 011b 063e 8c71 15be
000000e0: 1f2c ff3c 43b0 3dbe b14d 13be bc3c 04be
000000f0: 9414 ab3d a561 933d 89e1 e9bd a5dc 303d
00000100: 20f6 953d 4721 bebd d879 0fbd a00d 793c
00000110: 2825 e23d 9956 2c3e 42d3 0dbe 2067 6d3d
00000120: d672 69bc c459 803e 8c07 123e 5dff 0d3e
00000130: 6d08 abba 59e1 47be 5aa2 7fbc 72a7 d53c
00000140: c26a 80be ed5f 0c3e 38be fa3d 15bf 2bbe
00000150: 06ed bf3c 4228 85bd 20c4 95bd 1d66 05be
00000160: dc96 633d d9aa 16be 10da 543d 6cab 1a3e
00000170: b7c3 983d 30d1 f23d 88fb 96be 1560 2ebe
00000180: a082 a53d 6016 393c 0c85 16be e5ae c7bd
00000190: 95e7 313e 8aa9 ef3d 0d5d 02be f519 a9bd
000001a0: 0751 34be 7586 80bb 5e46 28be 155d 2cbe
000001b0: 23ff 44bc e633 063d f605 b7bd e097 043e
000001c0: 2ffb 07be aac1 4a3e 3f22 193e 976f 3cbe
000001d0: 3975 5ebd 7b53 213c cd68 023d c1fd 533d
000001e0: 5661 af3d f428 563c 740f dabd 1779 d33d
000001f0: 5d59 56be 7f71 04be fdbf 5fbd 2ab2 d9bd
00000200: 1858 9cbd 0f26 37be 1121 3ebd 550f 3f3d
00000210: c892 11be 2f7b 37bc e6f5 1f3e 1bc5 b7bc
00000220: e2ba c63b c337 9abc 83e4 343d e314 0e3e
00000230: c2aa 533e 10e8 0d3e bd26 543e 0049 81bc
00000240: 0bbc 48be b6de d3bd da26 183e e269 b9ba
00000250: 9622 debd 7e3c 2bbe f61e 51be 1499 3cbe
00000260: b64c 35bd 9816 f53d 379e f13d db81 57be
00000270: 2663 0b3e 12db 2ebe 7df6 3cbd ba35 b5bd
00000280: da29 2cbd c17e 2fbd 7784 48be 8bf0 40be
00000290: 54dd 0bbd ddf1 383b 2605 cbbd ca59 a83d
000002a0: d4c2 69be 2b51 c1bc 2082 683e 578e acbd
000002b0: 001c 433e b7da 473d 5ef1 4abe 617f 933d
000002c0: 1dbc 953d 723d 88bd e4cf 773e 80df 32be
000002d0: eae7 123d 3178 2dbd b272 393e f297 e63c
000002e0: c749 e93d c9ed a93d 9c12 15bd 4f9a 5bbd
000002f0: d986 41be 5f3d c63d 53da 343e 4ffd 333e
00000300: ccef 12be ca86 6bbd ef52 31be 778c eabd
00000310: 97b6 51be 629e 0d3e cf50 33be dfe9 553e
00000320: 154e a23c 17e0 1e3e 9e73 19be b03d 1ebe
00000330: 268d 1cbe 76cc 913e 385f 96bd 00d3 573e
00000340: 7e5d a93d aa4b 503c 5a01 bcbc 2500 11bd
00000350: 0403 513d 71d6 42bd 000a 753d 0248 f9bb
00000360: 2f3f 33be 96e8 02be df1d 583e fcce 4cbe
00000370: 3321 a63b 4188 643e 2ee0 bb3d ea2b 313b
00000380: c1cc 5ebe 2971 cf3c a4c6 d2bd ec27 76bd
00000390: 5413 80bd 502c 19bd bf6f c339 3997 043e
000003a0: 4fa9 623c da17 563e f22f fa3d fffe 53be
000003b0: 373b 2e3d fe20 32be 1c82 0fbe 24d3 1b3e
000003c0: 6488 2f3d 5a49 ad3e 2136 a5bd 89f0 c3bb
000003d0: 65e1 d43d 906d 5abe 62ec be3d 6d40 36bd
000003e0: 3648 6ebc 3e80 04bd 88a0 0cbe 9fd2 163d
000003f0: 6955 7d3e 85a6 00bd 9577 01be 02aa 6abd

base.mlp.fc.0.bias f4 [128]
0.08133797 -0.046760146 0.19677012 -0.049037118 -0.14303714 0.056270927 0.11348727 -0.00043354265
0.19603895 -0.123112954 0.09509478 0.115828924 0.13101958 0.032274205 0.03785499 -0.2213869
-0.21401796 -0.031469285 -0.08664207 0.13823408 0.16736381 0.14657804 -0.08182925 -0.17244165
-0.22110112 0.11159804 -0.20153598 -0.23105541 -0.07763267 -0.19224674 -0.14113495 -0.13737832
-0.11612768 0.28112027 -0.056238208 0.13976564 0.0048417035 -0.028061442 -0.07155252 -0.15598808
-0.17532672 0.14783652 -0.079381324 -0.212758 0.1706637 0.0040478464 -0.14397053 -0.15664673
-0.20529662 -0.18759575 0.140637 0.15045983 0.017848061 -0.1859815 -0.05707527 -0.2125492
0.060733512 -0.05794113 -0.069620796 -0.07762979 0.09063204 0.102176204 0.046444606 -0.031017145
-0.039439213 0.0053546936 -0.13594064 0.17855158 -0.094113566 0.12357749 -0.113649115 0.0014649299
0.060956288 -0.15317972 0.10009651 -0.16703375 0.020925 -0.02699307 0.1025415 0.21799453
0.05108486 -0.020300662 -0.13470243 0.08135951 -0.10503319 0.09013861 -0.10003 0.1709514
0.15391216 0.12513857 0.007902132 0.121454015 -0.19525735 0.1664439 -0.047708903 0.07145629
-0.03969456 -0.0618663 -0.086361766 0.14075553 -0.12853912 -0.02259401 0.11008003 -0.012292673
-0.15875632 -0.22631156 -0.13566963 0.20773818 -0.16213399 0.11742789 0.15129703 -0.0663866
-0.096366495 -0.17073189 0.010698704 -0.022775339 0.010602077 0.066328615 0.08086852 -0.06601882
0.014987449 0.050305523 -0.024537621 0.021570474 -0.056375757 0.18554986 -0.10702696 -4.403126e-05
00000000: 8694 a63d 9187 3fbd 1b7e 493e 25db 48bd
00000010: 5478 12be 587c 663d 046c e83d 1c4d e3b9
00000020: 6fbe 483e a522 fcbd 0dc1 c23d b737 ed3d
00000030: ff29 063e f531 043d d60d 1b3d 3fb3 62be
00000040: 8627 5bbe f0e5 00bd 6671 b1bd 3c8d 0d3e
00000050: 6b61 2b3e 8e18 163e 1896 a7bd 8b94 30be
00000060: 5568 62be 838d e43d 735f 4ebe ca99 6cbe
00000070: e1fd 9ebd 54dc 44be ae85 10be e7ac 0cbe
00000080: 59d4 edbd ffee 8f3e 095a 66bd b91e 0f3e
00000090: 27a7 9e3b 1ce1 e5bc 218a 92bd 57bb 1fbe
000000a0: d988 33be 7562 173e ad92 a2bd 3cdd 59be
000000b0: 77c2 2e3e cca3 843b 036d 13be 0068 20be
000000c0: 4739 52be 1a19 40be 2503 103e 2412 1a3e
000000d0: 1936 923c ef71 3ebe c2c7 69bd 7fa6 59be
000000e0: b4c3 783d ae53 6dbd 5995 8ebd 5efc 9ebd
000000f0: 4a9d b93d c241 d13d b33c 3e3d ab17 febc
00000100: 038b 21bd 6d76 af3b 0634 0bbe 3ad6 363e
00000110: 9dbe c0bd 3216 fd3d dec0 e8bd e402 c03a
00000120: 4dad 793d 25db 1cbe 66ff cc3d e50a 2bbe
00000130: e86a ab3c 9220 ddbc 4701 d23d f539 5f3e
00000140: 5c3e 513d 934d a6bc 6fef 09be d19f a63d
00000150: a41b d7bd 979a b83d 87dc ccbd e20d 2f3e
00000160: 269b 1d3e 5324 003e f277 013c e2bc f83d
00000170: 8bf1 47be 4570 2a3e 696a 43bd ad57 923d
00000180: c396 22bd 8467 7dbd 70de b0bd 3822 103e
00000190: c29f 03be 1317 b9bc a471 e13d 3567 49bc
000001a0: 0491 22be 38be 67be fbec 0abe 51b9 543e
000001b0: 7406 26be 097e f03d 9ced 1a3e b3f5 87bd
000001c0: cc5b c5bd 57d4 2ebe 9e49 2f3c 5993 babc
000001d0: 55b4 2d3c 4cd7 873d 659e a53d e034 87bd
000001e0: eb8d 753c 2a0d 4e3d 1f03 c9bc 90b4 b03c
000001f0: 44ea 66bd c800 3e3e f330 dbbd 35ae 38b8

base.mlp.fc.2.weight f4 [128]
0.99133474 1.0688679 0.97346646 0.9834314 0.900992 0.95667535 0.91512895 0.9231415
1.0574322 1.0717067 0.915212 1.0468991 0.97516984 1.0113498 0.9438283 0.84934866
0.97281885 0.8951402 0.92539036 0.9590722 1.0408565 0.9713546 1.055379 0.9805731
0.9186143 1.006636 1.0059965 0.97316104 1.0316442 1.0020248 0.90279245 0.916154
0.9821439 1.0140567 1.0101757 0.90989745 0.9054963 0.9276012 0.9698832 0.97903806
0.9468435 0.97040504 1.0010395 0.863506 0.9195438 0.9089892 0.9280169 1.0139307
0.9571165 1.0125964 0.88860446 0.96871436 0.96637 0.92698795 0.9409271 0.91669554
0.93727815 0.91944087 1.1730237 1.022812 0.96575695 0.87730604 1.0604699 1.0041142
0.9949229 1.0608695 1.0878801 0.96698815 0.99096715 0.9914269 1.1008631 0.89640266
0.86374795 1.0111542 0.94346935 0.8944404 0.93413043 0.8734261 1.0097636 1.1256927
1.0165966 0.95957524 0.88232815 0.92028576 0.9421313 0.95929044 0.9623821 1.1099105
1.0065739 0.86240804 1.0569794 1.0869203 1.0086505 0.9061154 1.1377892 1.0443869
0.9385718 1.1714532 1.0324165 0.9739935 0.9659223 1.0624921 0.98918796 0.9710417
1.0387133 0.9283403 0.9827924 1.0758495 0.99037683 1.0374736 1.0393687 1.0064605
0.9756084 0.93181694 0.9858842 0.88758636 0.9852304 0.9846092 1.0164825 1.0351713
0.92414874 0.95201635 0.82275707 1.0043849 0.9904301 0.94801486 0.8435257 1.0422447
00000000: 1dc8 7d3f aad0 883f 1935 793f 29c2 7b3f
00000010: 69a7 663f ade8 743f e445 6a3f 0053 6c3f
00000020: f059 873f af2d 893f 554b 6a3f ca00 863f
00000030: bba4 793f e973 813f bb9e 713f ea6e 593f
00000040: a80a 793f e827 653f 62e6 6c3f c185 753f
00000050: c93a 853f b2aa 783f a916 873f d706 7b3f
00000060: 4f2a 6b3f 73d9 803f 7ec4 803f 1521 793f
00000070: eb0c 843f 5942 803f 681d 673f 1289 6a3f
00000080: c86d 7b3f 9ccc 813f 704d 813f 0aef 683f
00000090: 9bce 673f 4677 6d3f 444a 783f 3da2 7a3f
000000a0: 5664 723f 776c 783f 1022 803f bb0e 5d3f
000000b0: 3967 6b3f 84b3 683f 8492 6d3f 7bc8 813f
000000c0: 9605 753f c29c 813f 957b 633f aafd 773f
000000d0: 0664 773f 154f 6d3f 99e0 703f 8fac 6a3f
000000e0: 76f1 6f3f 7a60 6b3f a425 963f 81eb 823f
000000f0: d93b 773f 2197 603f 7abd 873f d086 803f
00000100: 44b3 7e3f 92ca 873f a83f 8b3f 898c 773f
00000110: 06b0 7d3f 27ce 7d3f 15e9 8c3f a57a 653f
00000120: 961e 5d3f 806d 813f 3587 713f 0cfa 643f
00000130: 2c23 6f3f da98 5f3f ef3f 813f b316 903f
00000140: d61f 823f b9a6 753f 42e0 613f d997 6b3f
00000150: 842f 713f 0f94 753f ac5e 763f 8c11 8e3f
00000160: 6ad7 803f c6c6 5c3f 1a4b 873f 3420 8b3f
00000170: 761b 813f 2ef7 673f 14a3 913f 78ae 853f
00000180: 3e46 703f 2ef2 953f 3926 843f a357 793f
00000190: af46 773f beff 873f 6c3b 7d3f 3096 783f
000001a0: 8ff4 843f b6a7 6d3f 4898 7b3f 70b5 893f
000001b0: 5689 7d3f efcb 843f 090a 853f b3d3 803f
000001c0: 79c1 793f 8e8b 6e3f e862 7c3f dc38 633f
000001d0: 0f38 7c3f 590f 7c3f 191c 823f 7e80 843f
000001e0: 0395 6c3f 58b7 733f 35a0 523f af8f 803f
000001f0: d48c 7d3f 1ab1 723f 4df1 573f 4668 853f

base.mlp.fc.2.bias f4 [128]
0.010856746 0.0005863036 0.02441583 -0.07201168 0.0891621 0.041808452 0.08572196 0.07801647
0.016667575 0.010551228 0.0216302 0.005179968 0.03045526 0.0061950623 0.04204281 0.08600208
-0.03763208 0.10120967 -0.047972895 0.03613396 0.0014338611 0.06439996 0.005930224 0.00043822403
0.074072726 0.015974578 -0.020824937 -0.012149319 -0.014931286 0.001468378 0.059958495 0.07966104
0.0038462826 0.022069698 -0.018966442 0.06908815 0.09483369 0.077544056 0.002374069 0.020980189
0.047134195 0.027734319 -0.0031532997 0.12766054 -0.019226044 0.085682854 0.024170201 -0.0014644205
0.03799114 0.004478262 -0.0596257 0.033865746 0.035062432 0.07734145 0.059248358 0.08283482
-0.015087685 0.082303606 0.004320173 0.0024997266 0.0009023996 -0.010803333 0.0038275328 2.1482061e-05
-0.022197481 -0.02072416 -0.012490059 0.029953988 0.014816857 0.0018986069 0.013864874 0.11199729
0.12990993 0.0023041894 0.063281216 0.1018586 -0.0073214783 0.013663382 -0.016156461 -0.01091295
-0.018053534 0.037335582 -0.00482442 0.07647011 0.062731795 0.038280558 0.037322093 0.013496628
-0.01505168 0.12075325 0.011584789 -0.004908807 -0.007929077 0.09363869 0.022212112 -0.01507478
0.054197714 -0.008169768 0.0045886016 0.020595592 -0.013782698 0.0067685884 0.018822687 -0.0345993
0.015429751 0.07855959 -0.02032597 -0.03493184 -0.0035653405 -0.013726474 -0.025550803 0.030885072
0.024564847 0.024729464 -0.012768596 0.10646757 0.021859935 -0.03501185 -0.0133004775 0.012980314
0.07844643 0.047160316 0.034740917 -0.021860676 -0.022991192 0.0025475535 -0.03461729 0.011562679
00000000: 7ee0 313c 2bb2 193a b503 c83c dc7a 93bd
00000010: 9e9a b63d 573f 2b3d ff8e af3d 19c7 9f3d
00000020: 708a 883c 0fdf 2c3c d131 b13c b9bc a93b
00000030: 4f7d f93c f3ff ca3b 1535 2c3d dc21 b03d
00000040: 1924 1abd 0447 cf3d 3a7f 44bd 3401 143d
00000050: 65f0 bb3a 20e4 833d 5352 c23b 6fc1 e539
00000060: 71b3 973d 1edd 823c 0f99 aabc f00d 47bc
00000070: 5aa2 74bc 9776 c03a 0a97 753d 5425 a33d
00000080: ea11 7c3b 83cb b43c 835f 9bbc 177e 8d3d
00000090: 2a38 c23d 6bcf 9e3d 4596 1b3b a5de ab3c
000000a0: c90f 413d 1533 e33c 97a7 4ebb 72b9 023e
000000b0: f07f 9dbc 7e7a af3d 9600 c63c ccf1 bfba
000000c0: 999c 1b3d 62be 923b 143a 74bd cfb6 0a3d
000000d0: a09d 0f3d 3265 9e3d 68ae 723d 4da5 a93d
000000e0: 5632 77bc cb8e a83d 3d90 8d3b 74d2 233b
000000f0: 038f 6c3a 7600 31bc 58d7 7a3b 6034 b437
00000100: 7ed7 b5bc b7c5 a9bc 1ba3 4cbc 1162 f53c
00000110: 67c2 723c adda f83a 7f29 633c d65e e53d
00000120: 1c07 053e e201 173b 9599 813d 3e9b d03d
00000130: 03e9 efbb 61dc 5f3c 8e5a 84bc 3bcc 32bc
00000140: 01e5 93bc 32ed 183d 2b16 9ebb 5c9c 9c3d
00000150: 8779 803d 13cc 1c3d 0ddf 183d f620 5d3c
00000160: 529b 76bc 7b4d f73d 20ce 3d3c 0fda a0bb
00000170: f6e8 01bc a4c5 bf3d 2df6 b53c 36fc 76bc
00000180: 6cfe 5d3d 7eda 05bc fb5b 963b 16b8 a83c
00000190: d3d0 61bc 09cb dd3b 0932 9a3c ffb7 0dbd
000001a0: 11cd 7c3c dae3 a03d a682 a6bc b014 0fbd
000001b0: 7da8 69bb 01e5 60bc eb4f d1bc b102 fd3c
000001c0: 383c c93c 7295 ca3c 6033 51bc ab0b da3d
000001d0: 9b13 b33c 9668 0fbd 3fea 59bc 62ab 543c
000001e0: 86a8 a03d 2d2b 413d 7e4c 0e3d 2915 b3bc
000001f0: 0658 bcbc dbf4 263b dcca 0dbd 6471 3d3c

base.mlp.fc.3.weight f4 [128, 128]
-0.12687041 -0.01847055 -0.04537476 0.0589521 -0.07966926 -0.0030637954 -0.05757414 -0.018706085
0.036636937 0.05374868 0.020961508 0.07018275 0.055668782 -0.051619202 -0.044386037 -0.0134081235
0.099218436 0.030218236 0.112538554 -0.038572777 -0.0061596497 -0.10666932 -0.02853919 0.03824733
-0.016070606 -0.01786754 -0.0012338929 0.09978339 -0.023055146 -0.03462267 -0.08066886 0.00919577
0.0047695125 -0.056865465 -0.0043583126 -0.03249491 -0.11341547 -0.043738317 -0.10261941 -0.018341761
-0.01451204 -0.105757974 0.097164795 0.01671148 -0.02334063 -0.0041789813 -0.13977201 0.08085624
-0.023227675 -0.03869743 0.12988438 -0.13156869 -0.08123702 -0.10084155 -0.10111972 -0.10308315
-0.10514712 -0.033866778 -0.003318171 0.025618982 -0.012866419 -0.012320126 0.16954523 -0.117041185
-0.011134852 0.029333543 0.004421782 -0.04590581 -0.024350874 0.14846604 -0.034506626 0.010413815
0.026095262 -0.029744733 -0.026523564 -0.0003948902 -0.013558131 0.19257692 -0.0030793485 0.042826667
-0.045093596 -0.10574491 0.067003846 -0.021974264 0.026118774 -0.026637837 -0.00035832546 0.04424784
0.017009431 -0.083498 0.071256585 -0.07467598 -0.045141317 -0.078555785 -0.01619222 -0.108152024
0.0049905227 -0.095545165 0.10300941 0.009547837 -0.054018434 0.03190728 -0.11312143 0.02772321
0.0926939 -0.077459365 0.10735898 -0.011467626 -0.05700866 -0.05235666 0.0051784776 0.061480515
0.017868882 0.010989354 0.029953988 -0.12453727 0.017839571 0.0844631 -0.08376567 -0.13245778
0.023758296 -0.0104313325 0.06637681 0.022858953 -0.114737414 0.030581918 0.07037898 0.06933005
-0.0006162682 -0.20393936 0.09387985 -0.02184024 -0.028703246 0.029685507 0.0032106112 0.015843604
0.096003994 -0.1782926 0.019997604 -0.019615177 -0.044341758 -0.05790963 0.07326966 -0.04862716
0.02330922 -0.021887815 0.0010101241 -0.06513067 -0.033685908 0.11941174 -0.10272149 -0.04685359
0.07522363 -0.00749003 -0.0035440533 -0.010628507 -0.13686599 0.028252965 -0.032319106 -0.019697629
0.045592953 0.050325047 0.035374817 0.059674174 0.08078779 0.06882856 0.09375739 -0.05791986
-0.06292438 0.04909153 -0.06345993 -0.033361834 0.06741637 0.10272374 -0.014145656 -0.039782286
0.037348844 -0.17334598 0.014495692 -0.046669625 0.082219325 -0.018820573 -0.013452314 -0.05134762
0.004127166 0.013489 -0.1916286 -0.10679416 0.026155693 -0.12579533 -0.17561816 0.051240902
0.1092351 0.031079112 0.10819514 0.016930085 -0.012674585 0.019322498 -0.04825287 0.0961245
0.11034489 -0.0732294 0.056367595 0.110919744 0.08936003 -0.034167655 -0.03491641 0.120728925
0.04211119 -0.024171723 0.0129892165 -0.016558751 0.04152362 -0.004314458 0.06603072 -0.13876383
0.11067982 -0.0045148926 -0.09600188 0.17516963 -0.027204545 -0.04967111 0.090081036 0.12525143
-0.010780297 0.092876524 -0.109905854 -0.009172115 0.03949832 0.13200216 0.08249324 0.06161921
-0.13924533 -0.03857647 -0.016976018 0.0136929825 -0.01635702 0.23047215 0.035859343 0.106094405
0.050146967 0.0707179 -0.03076957 0.038385797 0.09361178 -0.10752752 0.027502723 0.02480476
-0.045867488 0.07023944 0.0145221315 -0.024810195 0.050623454 0.026220864 0.028002014 -0.056430604
00000000: 51ea 01be 8d4f 97bc e2da 39bd c277 713d
00000010: a329 a3bd f5c9 48bb ddd2 6bbd 813d 99bc
00000020: 9d10 163d 9327 5c3d 78b7 ab3c f9bb 8f3d
00000030: f304 643d a86e 53bd 22ce 35bd bfad 5bbc
00000040: 0933 cb3d 3c8c f73c 9d7a e63d 7dfe 1dbd
00000050: e3d6 c9bb 7275 dabd 05cb e9bc 3ba9 1c3d
00000060: 81a6 83bc f25e 92bc 93ba a1ba 3c5b cc3d
00000070: 25de bcbc 80d0 0dbd b735 a5bd dba9 163c
00000080: 9249 9c3b c3eb 68bd 2dd0 8ebb 6219 05bd
00000090: 5f46 e8bd f326 33bd 202a d2bd 7641 96bc
000000a0: e8c3 6dbc a397 d8bd 56fe c63d 84e6 883c
000000b0: d934 bfbc d6ef 88bb 6520 0fbe f597 a53d
000000c0: f747 bebc 3281 1ebd 6900 053e f1b9 06be
000000d0: 985f a6bd 0486 cebd db17 cfbd 421d d3bd
000000e0: 6057 d7bd e4b7 0abd ac75 59bb e6de d13c
000000f0: accd 52bc 5bda 49bc 449d 2d3e 4ab3 efbd
00000100: f46e 36bc e64c f03c 99e4 903b bb07 3cbd
00000110: 7c7b c7bc 7b07 183e d256 0dbd b59e 2a3c
00000120: bbc5 d53c 3aab f3bc f247 d9bc 4409 cfb9
00000130: ec22 5ebc e232 453e e5ce 49bb 046b 2f3d
00000140: 10b4 38bd ca90 d8bd 5039 893d 5f03 b4bc
00000150: 0af7 d53c 9837 dabc a1dd bbb9 393d 353d
00000160: 5d57 8b3c 0001 abbd f9ee 913d b8ef 98bd
00000170: 1ae6 38bd dbe1 a0bd 8ca5 84bc cf7e ddbd
00000180: 8a87 a33b 2fad c3bd 99f6 d23d 886e 1c3c
00000190: 6f42 5dbd 35b1 023d 35ac e7bd c91b e33c
000001a0: 4dd6 bd3d 04a3 9ebd 06df db3d b6e2 3bbc
000001b0: ea81 69bd f073 56bd 38b0 a93b fed2 7b3d
000001c0: c361 923c b10c 343c 1162 f53c 650d ffbd
000001d0: 4b24 923c fdfa ac3d 568d abbd 03a3 07be
000001e0: c2a0 c23c 2ee8 2abc 91f0 873d b342 bb3c
000001f0: 73fb eabd ee86 fa3c db22 903d eafc 8d3d
00000200: 0f8d 21ba 7bd5 50be 1444 c03d 4eea b2bc
00000210: 1223 ebbc 052f f33c 1e69 523b 72ca 813c
00000220: be9d c43d 5692 36be 04d2 a33c 02b0 a0bc
00000230: b49f 35bd a632 6dbd 670e 963d 462d 47bd
00000240: faf2 be3c 134e b3bc 2466 843a 3b63 85bd
00000250: 3cfa 09bd 248e f43d a55f d2bd 8de9 3fbd
00000260: d90e 9a3d ed6e f5bb 5943 68bb 3023 2ebc
00000270: 9926 0cbe c372 e73c 0a61 04bd ec5c a1bc
00000280: adbf 3a3d a321 4e3d 2fe5 103d e86c 743d
00000290: 1274 a53d fdf5 8c3d e003 c03d 603d 6dbd
000002a0: 7fde 80bd 3314 493d 48f7 81bd 6ba6 08bd
000002b0: 9811 8a3d d360 d23d 2ec3 67bc c0f2 22bd
000002c0: 1afb 183d 9c81 31be 577f 6d3c a628 3fbd
000002d0: 9b62 a83d 9a2d 9abc 1867 5cbc e251 52bd
000002e0: 2d3d 873b f700 5d3c 4a3a 44be e6b6 dabd
000002f0: 7744 d63c 7ed0 00be 3fd5 33be fbe1 513d
00000300: a7b6 df3d 9f99 fe3c 6a95 dd3d f6b0 8a3c
00000310: 10a9 4fbc 374a 9e3c cda4 45bd ecdc c43d
00000320: 80fc e13d 4cf9 95bd b5e1 663d e429 e33d
00000330: 6402 b73d 62f3 0bbd 8204 0fbd ba40 f73d
00000340: c87c 2c3d c703 c6bc b9d0 543c 38a6 87bc
00000350: ac14 2a3d 4c60 8dbb 1d3b 873d 1b18 0ebe
00000360: 1aac e23d aaf1 93bb a29c c4bd ab5f 333e
00000370: 11dc debc ef73 4bbd 687c b83d e941 003e
00000380: d89f 30bc 0c36 be3d 5216 e1bd a346 16bc
00000390: fec8 213d 932b 073e 37f2 a83d 6d64 7c3d
000003a0: 5496 0ebe 5c02 1ebd 4a11 8bbc 8858 603c
000003b0: 28ff 85bc e400 6c3e 3fe1 123d 0648 d93d
000003c0: e866 4d3d 8cd4 903d 7710 fcbc 6d3a 1d3d
000003d0: 88b7 bf3d 6337 dcbd 644d e13c 5a33 cb3c
000003e0: 8cdf 3bbd b2d9 8f3d 3cee 6d3c c03e cbbc
000003f0: 8a5a 4f3d 23cd d63c 7b64 e53c c723 67bd

base.mlp.fc.3.bias f4 [128]
0.113708846 0.016851384 0.1172103 -0.088533536 0.06976317 0.035280615 0.059938535 -0.06408302
0.0029509205 -0.054549098 0.05577694 0.10046306 -0.035708718 -0.0020601752 0.016952308 -0.054659773
0.07846324 0.020472685 -0.0023475382 -0.047168504 0.022467064 0.03333037 -0.07545829 0.064202435
0.0040482436 0.026504831 0.025238223 0.029915169 0.12958285 -0.08176538 0.013663725 0.026746808
-0.096704066 0.04148311 -0.115195036 -0.090598315 -0.06639216 -0.07973085 -0.07184134 0.045408823
-0.022905907 -0.075427756 -0.097505234 -0.04982138 -0.016694978 0.0042423713 -0.034664977 -9.095243e-06
0.0036035222 0.09759162 -0.030498719 -0.05953078 0.102408536 -0.057483498 -0.100554265 -0.048565913
0.044199962 0.0032602863 0.049744654 0.04223268 -0.018795121 0.03120577 0.03746696 0.0058198473
-0.0884875 -0.030880017 -0.0024122838 -0.011807917 0.026306063 0.021312833 -0.04749517 0.054734457
-0.005124217 -0.02006835 -0.028702505 -0.0183144 -0.043479037 -0.039101094 0.027852828 -0.05307471
0.088706814 0.027160587 -0.097396046 0.059818387 0.024752053 -0.03841694 0.04227619 -0.09064103
-0.0593489 -0.0844125 0.039721612 0.034574404 -0.054621723 0.0004893862 -0.030539352 0.058683984
0.04314911 0.035628546 -0.013451723 0.018936291 -0.03604313 -0.06582428 0.110418476 -0.0056796353
-0.06490098 0.013278714 0.013293903 -0.07011454 0.038398854 0.021855976 -0.06361887 -0.020589069
0.054835893 -0.10832687 0.009708591 0.11207626 -0.054663807 0.008358246 -0.07097868 0.06742273
-0.02683507 0.0032593233 0.015204421 -0.014496279 -0.06914042 0.0069740554 -0.014934331 -0.05664479
00000000: 2fe0 e83d ea0b 8a3c f40b f03d 1251 b5bd
00000010: fedf 8e3d 6882 103d 1c82 753d f53d 83bd
00000020: 3b64 413b e06e 5fbd 5c76 643d 94bf cd3d
00000030: 4e43 12bd 0104 07bb 91df 8a3c ede2 5fbd
00000040: 56b1 a03d 55b6 a73c 28d9 19bb c333 41bd
00000050: d90c b83c 6d85 083d e089 9abd 917c 833d
00000060: 21a7 843b a920 d93c 64c0 ce3c a810 f53c
00000070: 5eb1 043e 9c74 a7bd d1dd 5f3c 1f1c db3c
00000080: c80c c6bd 32ea 293d 60eb ebbd 9c8b b9bd
00000090: 9df8 87bd ee49 a3bd 8d21 93bd 9afe 393d
000000a0: 2ba5 bbbc de79 9abd d3b0 c7bd 8111 4cbd
000000b0: e8c3 88bc 9703 8b3b ddfc 0dbd c597 18b7
000000c0: 1229 6c3b 1ede c73d 73d8 f9bc 8cd6 73bd
000000d0: 91bb d13d d173 6bbd 65ef cdbd 0ded 46bd
000000e0: 050b 353d 87aa 553b 0dc1 4b3d 2dfc 2c3d
000000f0: 3af8 99bc 3ea3 ff3c f476 193d 6bb4 be3b
00000100: ef38 b5bd 17f8 fcbc 6817 1ebb fe75 41bc
00000110: d07f d73c 4098 ae3c 4c8a 42bd 3d31 603d
00000120: 0ce9 a7bb 6166 a4bc 8421 ebbc 1508 96bc
00000130: 1317 32bd 7828 20bd 9d2b e43c de64 59bd
00000140: ebab b53d e17f de3c 9477 c7bd 2004 753d
00000150: d1c4 ca3c 155b 1dbd cc29 2d3d 01a2 b9bd
00000160: d517 73bd 76e0 acbd 21b3 223d e49d 0d3d
00000170: 07bb 5fbd 274a 003a aa2d fabc 9e5e 703d
00000180: 1fbd 303d 3def 113d 9e64 5cbc 4820 9b3c
00000190: f6a1 13bd e1ce 86bd 1523 e23d 3c1c babb
000001a0: ceea 84bd f78e 593c acce 593c 3698 8fbd
000001b0: 1e48 1d3d 4e0b b33c 9c4a 82bd 68aa a8bc
000001c0: 9a9b 603d 7ada ddbd c810 1f3c 3d88 e53d
000001d0: 28e7 5fbd 06f1 083c 455d 91bd ee14 8a3d
000001e0: 39d5 dbbc 5f9a 553b f71b 793c cd81 6dbc
000001f0: 7e99 8dbd 9e86 e43b 20af 74bc 5e04 68bd

base.mlp.fc.5.weight f4 [128]
1.038318 1.0400254 1.0438722 0.96870184 1.0755243 1.0364059 0.99442315 1.0345987
1.0887446 1.1084648 1.0378469 1.0401654 0.9543459 0.97649056 1.0375255 1.0085803
1.1006634 1.0267619 1.0418081 1.049779 1.0667201 1.003693 1.0930141 1.1242718
0.86255175 0.9899135 0.9252098 0.98160315 1.0348928 1.0103443 1.0367441 0.99489534
1.072832 1.060228 0.9177778 1.1108035 1.1085372 0.95474905 0.9080597 1.072632
1.0734806 0.9018559 1.0419745 0.99541897 1.011094 0.85444194 0.9297479 1.0920439
0.97466767 1.0892434 1.1026659 1.0037076 1.0697528 1.073732 0.9878645 1.1151124
1.061721 0.9566503 0.99187654 0.9882529 1.0022678 0.89430326 0.99644667 0.97887987
0.98953825 1.0436409 1.0469904 1.0597849 1.0100557 0.93550473 1.0962124 1.0363994
1.0207828 0.98361367 1.0482942 1.0683678 1.0792037 1.0371963 1.0729394 0.97026026
1.0537674 1.0677501 0.9513289 0.97579926 1.0451143 0.9737311 1.0032722 1.0526148
0.840092 1.0721985 1.1193525 0.90573776 0.9885397 1.1094382 1.0324386 0.9466951
1.0267376 1.0056107 1.0384765 1.0621893 1.020925 1.0134951 1.1290796 1.0588542
1.0296439 1.0548675 0.913367 0.98914057 0.950942 1.1372751 1.0903546 1.1288695
1.0978367 1.0235884 1.0237281 1.1339637 1.0375167 1.029588 0.9882486 1.0632293
0.9259139 0.9435963 1.078859 0.9973131 1.0052071 0.98750496 1.0308423 1.00847
00000000: 9be7 843f 8d1f 853f 9b9d 853f d8fc 773f
00000010: c8aa 893f f3a8 843f 8492 7e3f bb6d 843f
00000020: fc5b 8b3f 2de2 8d3f 2bd8 843f 2424 853f
00000030: 0350 743f 49fb 793f a3cd 843f 2919 813f
00000040: 8ae2 8c3f ef6c 833f f859 853f 295f 863f
00000050: 498a 883f 0379 803f e3e7 8b3f 23e8 8f3f
00000060: 31d0 5c3f f96a 7d3f 8dda 6c3f 584a 7b3f
00000070: 5e77 843f f652 813f 08b4 843f 76b1 7e3f
00000080: 8f52 893f 8db5 873f 7cf3 6a3f cf2e 8e3f
00000090: 8ce4 8d3f 6f6a 743f 9a76 683f 014c 893f
000000a0: d067 893f 07e0 663f 6c5f 853f c7d3 7e3f
000000b0: 876b 813f b5bc 5a3f f503 6e3f 18c8 8b3f
000000c0: d283 793f 546c 8b3f 2824 8d3f 7e79 803f
000000d0: a9ed 883f 0d70 893f b0e4 7c3f 01bc 8e3f
000000e0: 79e6 873f 09e7 743f 9feb 7d3f 24fe 7c3f
000000f0: 504a 803f 0ff1 643f 2117 7f3f df97 7a3f
00000100: 6152 7d3f 0696 853f c803 863f 08a7 873f
00000110: 8149 813f 3d7d 6f3f b050 8c3f bca8 843f
00000120: 03a9 823f 1bce 7b3f 812e 863f 47c0 883f
00000130: 5923 8a3f d9c2 843f 1456 893f fa62 783f
00000140: dae1 863f 09ac 883f 4a8a 733f fbcd 793f
00000150: 4ec6 853f 7146 793f 396b 803f 15bc 863f
00000160: 4510 573f cd3d 893f f146 8f3f 6ede 673f
00000170: f010 7d3f 1202 8e3f f326 843f 9c5a 723f
00000180: 236c 833f dab7 803f ccec 843f d2f5 873f
00000190: acad 823f 35ba 813f ae85 903f 8988 873f
000001a0: 5fcb 833f e605 873f 6bd2 693f 5138 7d3f
000001b0: ef70 733f 3b92 913f bd90 8b3f cc7e 903f
000001c0: ea85 8c3f f204 833f 8609 833f b925 913f
000001d0: 59cd 843f 8ac9 833f dcfd 7c3f e617 883f
000001e0: b108 6d3f 878f 713f 0d18 8a3f e94f 7f3f
000001f0: a0aa 803f 20cd 7c3f a4f2 833f 8c15 813f

base.mlp.fc.5.bias f4 [128]
0.072388045 -0.019372372 0.05994433 0.011916291 -0.09620643 -0.04884596 -0.0058683143 -0.040845025
0.14304519 -0.12354433 -0.03745088 -0.04015316 0.011183963 -0.052800406 0.02681763 -0.013204063
0.1262127 -0.036089998 -0.0030991628 0.04607929 -0.029722955 -0.021619566 -0.10494647 -0.12396262
0.13023612 -0.007052338 0.031403363 -0.028097888 0.081826925 -0.025722407 -0.03319139 0.011894842
-0.081550874 -0.0622013 0.07371791 0.03516151 -0.052308593 0.02894793 0.030929413 -0.06576701
0.09870121 0.077975616 -0.042193793 -0.0073853917 -0.021429313 0.09413991 -0.05088484 -0.09332492
0.074130766 0.052097343 -0.10878014 0.028657902 0.09356123 -0.110990345 0.00079827616 -0.048148364
0.08429424 0.03752248 0.009629784 0.0059310277 -0.027007611 0.05266382 -0.04146708 0.022503607
-0.008301248 -0.044765707 -0.07476042 0.021772103 -0.00510195 0.04103268 0.06080925 -0.03302429
-0.02826197 0.022462398 -0.051791836 -0.07372161 -0.09127302 -0.040457588 -0.024202565 0.032931533
-0.04020879 0.079889104 0.020914922 0.03027288 -0.04220223 0.049469076 -0.013164153 -0.048482638
0.15901734 -0.09768697 -0.033620324 0.06934597 -0.0009253447 0.046406932 -0.019417616 0.04395089
0.042549618 0.049483206 -0.047256246 -0.0066661704 -0.0271526 -0.025288468 0.0730432 -0.0049120137
-0.037791166 0.02431989 0.03169773 -0.019949133 0.08579938 0.008754784 -0.09665677 -0.13200073
0.063123725 -0.021349736 -0.058215037 0.12568687 -0.051338527 -0.06581239 -0.017084002 -0.0067134616
0.019291371 -0.008097399 -0.023849413 -0.004465317 -0.04795134 -0.018512066 -0.11062848 -0.017378548
00000000: 2f40 943d cfb2 9ebc 3088 753d 8c3c 433c
00000010: e007 c5bd b412 48bd fd4a c0bb 1d4d 27bd
00000020: 707a 123e cf04 fdbd 1866 19bd a477 24bd
00000030: f13c 373c 3d45 58bd a5b0 db3c db55 58bc
00000040: e73d 013e 1bd3 13bd 531b 4bbb a3bd 3c3d
00000050: 8e7d f3bc 841b b1bc 2dee d6bd 1de0 fdbd
00000060: 9e5c 053e 4d17 e7bb d0a0 003d 8b2d e6bc
00000070: e094 a73d ccb7 d2bc b2f3 07bd 95e2 423c
00000080: 2504 a7bd cac6 7ebd 6af9 963d 8405 103d
00000090: 8941 56bd 3624 ed3c ae5f fd3c dbb0 86bd
000000a0: dc23 ca3d aeb1 9f3d 66d3 2cbd 2801 f2bb
000000b0: 878c afbc 6dcc c03d 9f6c 50bd 2321 bfbd
000000c0: dfd1 973d 0664 553d 1fc8 debd fac3 ea3c
000000d0: 089d bf3d e84e e3bd 6843 513a 3837 45bd
000000e0: 75a2 ac3d 2cb1 193d 3ec6 1d3c 1159 c23b
000000f0: 113f ddbc 05b6 573d 63d9 29bd 7c59 b83c
00000100: f501 08bc 3f5c 37bd fe1b 99bd 695b b23c
00000110: 422e a7bb e211 283d 1f13 793d 7a44 07bd
00000120: a685 e7bc 1003 b83c ad23 54bd 5bfb 96bd
00000130: 59ed babd dbb6 25bd 7544 c6bc 37e3 063d
00000140: f9b1 24bd e69c a33d c555 ab3c d5fe f73c
00000150: 3fdc 2cbd 16a0 4a3d 76ae 57bc bb95 46bd
00000160: 71d5 223e 1b10 c8bd 77b5 09bd 4305 8e3d
00000170: d592 72ba 3215 3e3d b111 9fbc d905 343d
00000180: 8248 2e3d e7ae 4a3d c48f 41bd e46f dabb
00000190: 216f debc c329 cfbc ac97 953d f5f4 a0bb
000001a0: e9ca 1abd 823a c73c 7bd5 013d 5d6c a3bc
000001b0: 96b7 af3d 3a70 0f3c fcf3 c5bd 332b 07be
000001c0: 0347 813d a4e5 aebc e472 6ebd 0fb4 003e
000001d0: 5948 52bd a5c8 86bd c0f3 8bbc 99fc dbbb
000001e0: f008 9e3c f4aa 04bc d85f c3bc cb51 92bb
000001f0: a068 44bd 9ea6 97bc 2f91 e2bd 755d 8ebc

rnn.gru.weight_ih_l0 f4 [384, 128]
0.0474208 0.09987044 -0.040054537 0.05958053 -0.04835909 -0.14332432 -0.05678721 -0.14180806
0.035125237 0.006626751 -0.024113342 0.09206079 0.06616805 -0.09123094 0.059837986 -0.072975285
0.114423424 0.009945789 -0.004471079 0.14285566 -0.050536204 -0.035455666 -0.03449124 -0.11365181
-0.0064268196 -0.006021342 -0.0882259 -0.1256434 0.16088042 0.015973123 -0.0361802 -0.06423507
-0.027518073 -0.045260742 -0.099087596 -0.0031882296 -0.059462886 -0.0457644 -0.090732306 -0.03740025
0.04477245 -0.15475468 -0.007415657 -0.12580557 -0.027114252 0.01528122 -0.11118104 -0.014346809
-0.03797466 -0.02069738 -0.1100107 -0.039675508 0.029931394 -0.07583401 -0.03174773 0.008477628
0.16689722 -0.0399954 -0.13937493 -0.08318419 -0.0012412801 0.11762734 -0.12031745 -0.015337761
0.024861788 -0.08857873 -0.15266716 0.07370174 -0.034123667 -0.15077372 0.13806304 -0.07505846
-0.1362981 -0.04898459 -0.020823892 -0.068710834 -0.13308488 -0.11692932 0.07415042 -0.01781507
0.07082851 0.13748433 -0.062939785 -0.117821544 -0.028527737 0.05654317 -0.030026857 0.009213887
-0.102264 0.053693987 -0.028339425 0.0861035 -0.08639722 0.10690695 -0.0040013636 -0.06278135
0.11783124 0.044022 -0.07672869 -0.026538938 0.059100624 -0.017726367 0.022423502 -0.0054986556
0.008363412 0.080814 0.030444056 -0.078229226 -0.12370416 -0.017088743 -0.13613278 -0.080361776
0.056298178 -0.11295478 -0.10499591 0.101700075 -0.08965555 -0.111571 0.0740997 -0.014316392
0.011513981 -0.018107228 -0.058756832 -0.08083423 -0.12105064 0.10182117 -0.040067833 -0.008760969
-0.11674839 -0.04393079 -0.0875592 -0.11313609 0.046048455 0.07565447 0.15884507 -0.003141526
-0.031026298 0.13295972 0.0544268 -0.03945831 0.026827239 -0.036705714 0.058934838 0.038605977
-0.0045470023 -0.088045724 0.059304737 -0.022177894 -0.0044406396 0.002431985 0.02976124 0.019650685
0.008335842 0.043552995 0.15773503 -0.0056621777 0.043949828 0.06364883 0.1230878 0.057880204
0.0328209 0.11270024 0.14756505 0.030567111 0.027727908 0.13471663 0.057829626 0.030874172
-0.010541191 0.039687406 0.14833198 0.088563584 0.14308465 0.09274654 0.06956093 0.122234754
0.03467299 -0.08567492 0.09047543 0.10168972 0.030555777 0.077845275 0.14228222 -0.04159943
0.028413739 0.03473459 0.011177006 0.14670378 -0.00026627336 -0.015769854 0.046104662 0.13525322
0.105873145 0.009747572 0.015521873 -0.105507575 0.09436542 -0.014538794 -0.09071967 -0.011324056
0.07339985 0.15542072 0.10205307 0.08421771 0.110312745 0.017744068 -0.014988159 0.14389609
-0.06450791 -0.18119691 0.04104392 -0.052562147 0.06069103 0.02401315 0.08263857 0.097218916
0.09851528 -0.049735207 -0.10925534 0.11855208 0.14460383 -0.11682816 0.0667565 0.019497627
-0.12064585 -0.07864943 0.13673991 0.01864298 0.02148229 0.07830622 -0.014513999 0.021718336
0.09147057 -0.17610772 0.02845937 0.06368405 -0.024213843 0.050497677 -0.0073317257 0.09368219
-0.03412252 0.056135036 0.051067498 -0.07351163 0.13474211 -0.10423845 0.09382855 -0.019160371
-0.1758888 -0.038892202 0.037501164 0.08985445 0.056752138 -0.035296623 0.10238071 0.13569635
00000000: 503c 423d e088 cc3d 3a10 24bd b70a 743d
00000010: 2e14 46bd 9cc3 12be b599 68bd 2236 11be
00000020: 7bdf 0f3d 3725 d93b 5889 c5bc 5e8a bc3d
00000030: 1d83 873d 49d7 babd ad18 753d 1174 95bd
00000040: d456 ea3d aaf3 223c 2182 92bb c148 123e
00000050: 0dff 4ebd f639 11bd b046 0dbd 48c2 e8bd
00000060: 1298 d2bb ad4e c5bb c8af b4bd aaa8 00be
00000070: d6bd 243e 11da 823c b031 14bd ad8d 83bd
00000080: 956d e1bc 5463 39bd 70ee cabd 9ef1 50bb
00000090: 5b8f 73bd 7473 3bbd dcd1 b9bd 0131 19bd
000000a0: 5163 373d 0378 1ebe 0aff f2bb 2dd3 00be
000000b0: b51e debc 155e 7a3c e3b2 e3bd e10e 6bbc
000000c0: 518b 1bbd 8d8d a9bc 4a4d e1bd c982 22bd
000000d0: af32 f53c dd4e 9bbd e809 02bd c0e5 0a3c
000000e0: 1be7 2a3e 37d2 23bd 4db8 0ebe 795c aabd
000000f0: 73b2 a2ba 9ae6 f03d ff68 f6bd 3b4b 7bbc
00000100: f3aa cb3c c468 b5bd c854 1cbe f0f0 963d
00000110: 42c5 0bbd 6d64 1abe 6660 0d3e 40b8 99bd
00000120: bb91 0bbe 11a4 48bd de96 aabc 44b8 8cbd
00000130: 6747 08be a478 efbd 2ddc 973d e9f0 91bc
00000140: 8a0e 913d b1c8 0c3e 93e6 80bd 6c4c f1bd
00000150: 00b3 e9bc d099 673d e2fa f5bc d8f5 163c
00000160: ca6f d1bd 3aee 5b3d 1528 e8bc 0857 b03d
00000170: 07f1 b0bd 08f2 da3d df1d 83bb 8293 80bd
00000180: 8151 f13d 6a50 343d ee23 9dbd 3068 d9bc
00000190: 7f13 723d e336 91bc 7eb1 b73c 112e b4bb
000001a0: b106 093c cf81 a53d d065 f93c a536 a0bd
000001b0: 9b58 fdbd b1fd 8bbc 6466 0bbe b794 a4bd
000001c0: eb98 663d d654 e7bd 1808 d7bd 2148 d03d
000001d0: 549d b7bd 567f e4bd 95c1 973d 4d8f 6abc
000001e0: 23a5 3c3c 9c55 94bc 01ab 70bd 6b8c a5bd
000001f0: 66e9 f7bd 9e87 d03d 2b1e 24bd 2b8a 0fbc
00000200: c819 efbd c6f0 33bd 3d52 b3bd e5b3 e7bd
00000210: 4e9d 3c3d bbf0 9a3d 48a8 223e 0fe2 4dbb
00000220: dd2a febc 9826 083e a3ee 5e3d 099f 21bd
00000230: ccc4 db3c bb58 16bd a865 713d 4d21 1e3d
00000240: 05ff 94bb 5151 b4bd 86e9 723d 6aae b5bc
00000250: c982 91bb f061 1f3b d8cd f33c 79fa a03c
00000260: 0e93 083c a064 323d 4b85 213e ca89 b9bb
00000270: bc04 343d 515a 823d 7515 fc3d cb13 6d3d
00000280: 356f 063d 62cf e63d 4b1b 173e e167 fa3c
00000290: a325 e33c 28f3 093e c2de 6c3d d5eb fc3c
000002a0: f6b4 2cbc 438f 223d 57e4 173e d360 b53d
000002b0: c884 123e e6f1 bd3d f675 8e3d 3756 fa3d
000002c0: 4405 0e3d 5576 afbd 2f4b b93d b342 d03d
000002d0: 1c50 fa3c 586d 9f3d 6eb2 113e 2a64 2abd
000002e0: eec3 e83c dc45 0e3d c31f 373c 8439 163e
000002f0: 9b9a 8bb9 c82f 81bc 3ed8 3c3d d27f 0a3e
00000300: 05d4 d83d 48b4 1f3c 744f 7e3c 5b14 d8bd
00000310: a842 c13d 1f34 6ebc 3ccb b9bd 8988 39bc
00000320: a952 963d 9c26 1f3e 3301 d13d 567a ac3d
00000330: a6eb e13d 025c 913c e590 75bc 7f59 133e
00000340: b91c 84bd af8b 39be ab1d 283d 684b 57bd
00000350: 2897 783d 3ab7 c43c 693e a93d b61a c73d
00000360: 61c2 c93d 25b7 4bbd 44c1 dfbd 6fcb f23d
00000370: 0713 143e 9a43 efbd a2b7 883d 7db9 9f3c
00000380: 2c15 f7bd f412 a1bd 8c05 0c3e 2ab9 983c
00000390: a1fb af3c 035f a03d 20cc 6dbc a7ea b13c
000003a0: ec54 bb3d 9555 34be a023 e93c c96c 823d
000003b0: 1c5c c6bc a7d6 4e3d f93e f0bb 73dc bf3d
000003c0: 0ec4 0bbd daed 653d 272c 513d 448d 96bd
000003d0: d6f9 093e f87a d5bd 2f29 c03d 36f6 9cbc
000003e0: 321c 34be 6e4d 1fbd d29a 193d 9c05 b83d
000003f0: ee74 683d 3193 10bd faac d13d fcf3 0a3e

rnn.gru.weight_hh_l0 f4 [384, 128]
-0.0070746806 -0.0014120692 -0.069219805 0.08158586 -0.07603141 0.046604004 0.088499546 -0.021288496
-0.08492675 -0.10507182 0.037506647 0.07585723 0.0015009424 -0.024414707 -0.008278133 -0.03661879
-0.049440056 0.026139082 -0.03719882 0.065128356 -0.06849606 0.009661182 -0.014426578 0.070802994
-0.083152734 -0.013879519 0.12794401 0.088979274 -0.038240682 -0.033799566 -0.08907846 0.116785295
0.13191585 0.033062633 0.055925768 -0.03398143 -0.1309764 0.10743681 0.04882596 0.01089181
-0.041033372 0.057699025 0.096750215 0.10796001 -0.11950111 -0.019714376 -0.058039542 -0.044286046
-0.03586053 0.072452635 -0.057125185 -0.012225557 -0.02846661 0.076431125 -0.02623702 0.030073274
-0.043479368 -0.06417957 -0.05367978 0.03356292 0.035381272 -0.07734331 0.03589264 -0.025895908
-0.1421459 -0.08025391 0.06197707 -0.09083186 0.12739664 -0.03618038 0.12898403 -0.13036497
-0.031723406 0.022558324 0.039540578 -0.078678064 -0.009414938 0.1316318 -0.07024788 0.029721389
0.12895574 -0.088320374 0.013449685 -0.0139199905 0.06485619 -0.008995579 0.15894094 -0.04646661
0.0046869195 -0.15874915 -0.04314611 -0.07367247 0.07052483 -0.0057722945 0.09102509 0.045606155
0.0020458037 0.06365603 0.00790028 0.040264983 -0.053487215 0.05523947 -0.11884143 0.01144872
-0.064843014 0.076475345 0.04757088 -0.06550844 -0.013253789 0.08634427 -0.083408065 -0.009398293
0.05309051 -0.04113842 -0.091972955 -0.112242565 -0.028325 0.0852953 -0.041843783 0.047630727
0.042620607 0.07931284 -0.12754883 -0.0049493224 0.19056852 -0.048090387 -0.08176008 -0.05268238
0.012744272 -0.07452861 -0.01271262 -0.08733469 -0.07144923 -0.10739506 -0.07412256 0.11136094
0.017142383 -0.028086934 -0.10212598 0.042146754 0.014489019 0.09142737 -0.03316629 0.06080445
-0.023713822 0.091853574 0.10203242 -0.13368434 0.088038884 -0.13166067 0.03711401 -0.12983458
0.016314106 0.02603767 0.0013278545 0.07051388 0.043122742 -0.031376887 0.12696153 0.09161836
-0.10912157 -0.029313333 0.032058652 0.14788435 0.027470523 -0.036512405 -0.043437872 -0.020817768
-0.14150788 -0.1759332 -0.07672733 -0.19987532 0.07803517 -0.07022901 0.015950741 0.07569489
0.11757112 -0.14205237 0.064276256 -0.1601862 -0.0059904642 -0.028271887 0.024316486 -0.098711625
0.006672518 0.07771525 0.027362384 -0.011444918 0.09572164 0.058250327 -0.016992897 0.108685814
0.074791655 0.1631355 0.043010347 0.014855629 -0.024221778 -0.0041080266 -0.07377264 -0.048379753
-0.10773965 0.15068598 -0.00076524325 -0.062168878 -0.024989972 0.024618844 -0.042680636 -0.039229445
-0.061013673 0.0019321581 -0.021272749 -0.032161288 -0.07744358 0.08140542 -0.05106155 -0.10476033
0.012539589 -0.08420824 0.06419512 0.033617437 -0.05692969 0.053975645 -0.0030416024 0.034068365
-0.045501605 -0.12982294 0.10072701 -0.020185519 -0.031971376 -0.050435983 -0.04512322 -0.0058344714
0.04094842 0.08979271 -0.03757414 0.09197049 0.023709247 -0.0065741483 0.12088723 0.12561414
0.007474835 -0.11155278 -0.01073433 0.02564854 -0.022868108 0.12637657 0.03388505 -0.0702271
0.0051947073 0.08451414 0.055773716 -0.0080985315 -0.08667973 -0.08221545 0.020980468 0.12582135
00000000: b9d2 e7bb 2e15 b9ba 1dc3 8dbd 7d16 a73d
00000010: 5bb6 9bbd d7e3 3e3d 403f b53d 3665 aebc
00000020: 13ee adbd e52f d7bd 92a0 193d 095b 9b3d
00000030: 45bb c43a 5a01 c8bc 02a1 07bc 96fd 15bd
00000040: a881 4abd a121 d63c ca5d 18bd 0462 853d
00000050: aa47 8cbd ef49 1e3c 745d 6cbc 2901 913d
00000060: fb4b aabd ec66 63bc c103 033e c43a b63d
00000070: 43a2 1cbd 6a71 0abd c56e b6bd 212d ef3d
00000080: f314 073e af6c 073d 6b12 653d 1d30 0bbd
00000090: ad1e 06be d507 dc3d bbfd 473d 9073 323c
000000a0: 9c12 28bd d055 6c3d fa24 c63d 231a dd3d
000000b0: ffbc f4bd 0b80 a1bc dfba 6dbd 4965 35bd
000000c0: 7ee2 12bd 0c62 943d 19fc 69bd b44d 48bc
000000d0: cf32 e9bc ec87 9c3d 05ef d6bc 3a5c f63c
000000e0: 6c17 32bd 9470 83bd 54df 5bbd 4679 093d
000000f0: f4eb 103d 2b66 9ebd 2904 133d a823 d4bc
00000100: b28e 11be 295c a4bd abdb 7d3d 0e06 babd
00000110: 4474 023e e131 14bd 6414 043e 657e 05be
00000120: 67f0 01bd 3ccc b83c 4df5 213d f721 a1bd
00000130: 1d41 1abc 7dca 063e 1fde 8fbd 457a f33c
00000140: f90c 043e 50e1 b4bd 115c 5c3c ac10 64bc
00000150: 52d3 843d 3162 13bc 6ac1 223e c653 3ebd
00000160: bb94 993b 238f 22be fab9 30bd 98e1 96bd
00000170: 526f 903d 8425 bdbb 5d6b ba3d 85cd 3a3d
00000180: e412 063b 185e 823d 2d70 013c e5ec 243d
00000190: 6915 5bbd c842 623d 2363 f3bd 6993 3b3c
000001a0: 6acc 84bd 1b9f 9c3d afd9 423d 4a29 86bd
000001b0: 6c26 59bc 44d5 b03d d9d1 aabd 4cfb 19bc
000001c0: 6f75 593d c380 28bd 515c bcbd 6edf e5bd
000001d0: d509 e8bc 4daf ae3d 6364 2bbd 7018 433d
000001e0: f292 2e3d c56e a23d 299c 02be ed2d a2bb
000001f0: 6524 433e 6dfa 44bd d471 a7bd 7bc9 57bd
00000200: 5acd 503c 75a2 98bd 9848 50bc 88dc b2bd
00000210: f953 92bd f1f1 dbbd 92cd 97bd 3411 e43d
00000220: 2f6e 8c3c 9216 e6bc 6d27 d1bd 13a2 2c3d
00000230: 5a63 6d3c 463e bb3d 60d9 07bd 160e 793d
00000240: 7d43 c2bc ba1d bc3d 60f6 d03d 8ce4 08be
00000250: bb4d b43d 0ed2 06be dc04 183d 5bf3 04be
00000260: 29a5 853c f44c d53c 670b ae3a 9569 903d
00000270: 79a1 303d 0d85 00bd 3402 023e 68a2 bb3d
00000280: 217b dfbd 8422 f0bc ef4f 033d ff6e 173e
00000290: dd09 e13c 088e 15bd e9eb 31bd 068a aabc
000002a0: 71e7 10be d527 34be 3823 9dbd 1eac 4cbe
000002b0: e7d0 9f3d 3ad4 8fbd 21ab 823c ec05 9b3d
000002c0: 21c9 f03d 2d76 11be 45a3 833d da07 24be
000002d0: a84b c4bb 729a e7bc 5e33 c73c 5229 cabd
000002e0: 23a5 da3b 2c29 9f3d 1427 e03c 7783 3bbc
000002f0: b509 c43d e597 6e3d b034 8bbc ab96 de3d
00000300: 5e2c 993d fe0c 273e 9e2b 303d 0665 733c
00000310: c06c c6bc a09c 86bb 1c16 97bd d929 46bd
00000320: 9ba6 dcbd 6d4d 1a3e 9b9a 48ba cba4 7ebd
00000330: c5b7 ccbc 75ad c93c e4d1 2ebd 0eaf 20bd
00000340: 79e9 79bd 7840 fd3a 3044 aebc 8ebb 03bd
00000350: bd9a 9ebd e3b7 a63d ea25 51bd 958c d6bd
00000360: d972 4d3c 5f75 acbd bb78 833d 70b2 093d
00000370: 1b2f 69bd 9115 5d3d 9f55 47bb 458b 0b3d
00000380: e45f 3abd 4ef0 04be f649 ce3d 1a5c a5bc
00000390: 6bf4 02bd f695 4ebd 20d3 38bd 182f bfbb
000003a0: 88b9 273d 3ee5 b73d 57e7 19bd 065b bc3d
000003b0: e539 c23c f46b d7bb b993 f73d fea0 003e
000003c0: 76ef f43b c975 e4bd 0bdf 2fbc e31c d23c
000003d0: e655 bbbc dc68 013e 0dcb 0a3d 3ad3 8fbd
000003e0: 5d38 aa3b c015 ad3d fb72 643d b4af 04bc
000003f0: 2485 b1bd 9360 a8bd 3bdf ab3c 50d7 003e

rnn.gru.bias_ih_l0 f4 [384]
0.10660909 -0.14377013 -0.04121713 0.05760306 -0.096922286 -0.056551773 0.027590286 0.055945378
0.011027984 -0.023034008 -0.14268568 0.10113655 -0.0011274159 -0.0741842 -0.041144203 -0.12432136
-0.033617545 -0.079997115 -0.0382209 -0.022720572 -0.030456211 0.0020946045 -0.036666155 0.029983638
0.12440952 0.009455546 -0.08344284 -0.11594825 0.08611704 0.08810713 0.02304307 -0.04065036
0.10662556 -0.031852636 0.044652935 -0.059788927 -0.026432417 0.064829215 -0.11156053 -0.05001351
0.046748996 0.017907532 0.004166433 0.02470186 -0.024662063 0.045609944 0.010378778 0.025770603
-0.07918601 -0.01375698 0.06625759 -0.10662259 -0.020174904 -0.019794839 -0.023761744 -0.020232912
-0.05918664 0.094795994 0.08420181 0.10498131 -0.03156514 -0.0299141 -0.13977191 -0.058431346
0.014870045 0.004857026 0.006180628 0.08356338 -0.019072818 0.071197696 0.054482102 0.036612388
0.022765167 0.07897072 0.08233596 0.05883536 0.046949733 0.069384284 0.14458552 0.009202181
-0.0020825623 0.17124864 0.1313004 0.080142766 -0.0039933934 0.10021524 0.008334795 -0.124132276
-0.037641674 -0.017006883 -0.13261434 0.084152624 0.08368224 0.11424924 0.13171563 0.089899644
-0.1371105 -0.047537923 -0.04003791 0.054055646 -0.0161707 0.015552 -0.09040364 0.040004313
0.07127553 0.07513352 0.022781271 0.0438013 -0.00094710104 -0.10331188 0.08221074 0.044302337
-0.043813393 0.13938896 -0.058482148 0.17748086 0.13954258 0.041503295 0.017209394 0.017556887
-0.095072374 0.014261658 -0.03179808 0.0057897586 0.10728285 0.06744457 0.090201154 -0.05928737
-0.060869183 0.07258676 0.104775734 0.2157413 0.01134044 0.070401266 0.1340004 0.19442989
0.12991026 -0.122582115 0.003131861 0.11273388 0.13526992 0.16216415 0.102109246 0.13557336
0.17548083 0.15147486 -0.06631056 -0.13366543 0.06360883 0.17412055 -0.02831225 0.21153411
-0.07473085 0.052230787 -0.0057627633 0.07874391 0.037030082 0.053775433 0.10619747 0.06302031
-0.0040332326 0.09496405 0.17751646 -0.007904047 0.084676825 0.24360654 0.09293819 0.09755851
0.052631207 -0.10454364 0.08475347 0.10748958 0.091686524 0.09726186 0.22647423 -0.04140336
0.1005193 0.24143657 0.10402434 0.026541077 0.20796475 0.03378936 0.22055764 0.21199776
0.19927931 0.2228622 0.122540765 -0.03384183 0.1937164 -0.08850155 0.14007427 -0.07007548
0.060227547 0.14590709 0.18252578 -0.28400326 -0.0049473136 0.14106306 0.14083941 0.037946638
-0.014851162 0.06915349 0.062484562 0.23072907 0.24036676 0.12419234 0.13676819 -0.19521524
0.22066739 -0.02282925 0.106308505 0.15636006 0.095420346 0.046663657 -0.032057863 0.04042807
0.070699625 0.07343431 0.16662742 0.05917814 0.14857452 0.13321257 0.0030424728 0.11781884
0.058587153 0.15027255 0.13765308 0.008000932 0.1445829 0.04789343 0.11595421 0.2187389
0.12527835 0.0404754 0.15284972 0.13919117 0.058318842 0.05840321 0.041447934 0.12020467
0.10550672 0.06443223 0.19208407 0.12326838 0.025438601 0.041918457 0.15858765 0.124069154
0.1158037 0.14124033 0.13031532 0.16985126 0.0014242994 0.078243256 0.048734203 0.21210934
00000000: de55 da3d 7a38 13be 4bd3 28bd 30f1 6b3d
00000010: 317f c6bd d5a2 67bd 0605 e23c fb26 653d
00000020: b8ae 343c d1b1 bcbc 321c 12be ae20 cf3d
00000030: cdc5 93ba e3ed 97bd d386 28bd 329c febd
00000040: 8db2 09bd 87d5 a3bd 858d 1cbd 7e20 babc
00000050: 4e7f f9bc a245 093b 402f 16bd 3fa0 f53c
00000060: 6bca fe3d 6feb 1a3c 14e4 aabd 4776 edbd
00000070: 215e b03d 8371 b43d d2c4 bc3c fe80 26bd
00000080: 805e da3d e977 02bd ffe5 363d 3ce5 74bd
00000090: cc88 d8bc 2ec5 843d d979 e4bd f7da 4cbd
000000a0: e07b 3f3d d1b2 923c 9386 883b 8e5b ca3c
000000b0: 1808 cabc 7ed1 3a3d c00b 2a3c df1c d33c
000000c0: 462c a2bd f564 61bc 0fb2 873d f25c dabd
000000d0: d745 a5bc c928 a2bc fda7 c2bc 7ebf a5bc
000000e0: b16d 72bd 6724 c23d 0072 ac3d 7100 d73d
000000f0: 734a 01bd 6a0e f5bc 5e20 0fbe b555 6fbd
00000100: 7da1 733c b027 9f3b de86 ca3b 4723 ab3d
00000110: 993e 9cbc 19d0 913d a028 5f3d dff6 153d
00000120: 047e ba3c 67bb a13d c19f a83d 59fd 703d
00000130: 5d4e 403d 5919 8e3d 3a0e 143e bfc4 163c
00000140: 997b 08bb ce5b 2f3e 9d73 063e e421 a43d
00000150: 03db 82bb a63d cd3d aa8e 083c 1039 febd
00000160: 282e 1abd 0552 8bbc 0ecc 07be 3658 ac3d
00000170: 9861 ab3d 81fb e93d 76e0 063e 4e1d b83d
00000180: b266 0cbe 20b7 42bd cbfe 23bd 7469 5d3d
00000190: 6a78 84bc d1cd 7e3c 8b25 b9bd 90db 233d
000001a0: e8f8 913d 9adf 993d ca9f ba3c fe68 333d
000001b0: e046 78ba 2e95 d3bd 1b5e a83d 5e76 353d
000001c0: ac75 33bd fbbb 0e3e fa8a 6fbd 8bbd 353e
000001d0: 40e4 0e3e 5cff 293d b7fa 8c3c 76d3 8f3c
000001e0: 4eb5 c2bd bba9 693c b43e 02bd 04b8 bd3b
000001f0: 1cb7 db3d 6120 8a3d 62bb b83d 50d7 72bd
00000200: f751 79bd 5ea8 943d a994 d63d 4aeb 5c3e
00000210: 41cd 393c 8a2e 903d 6737 093e a118 473e
00000220: 3207 053e 550c fbbd e93f 4d3b 05e1 e63d
00000230: 3384 0a3e 5c0e 263e a71e d13d bed3 0a3e
00000240: 3fb1 333e 3a1c 1b3e d5cd 87bd 97df 08be
00000250: 5945 823d a84c 323e 17ef e7bc 669c 583e
00000260: 7d0c 99bd f3ef 553d 90d5 bcbb 7d44 a13d
00000270: dbac 173d a143 5c3d 0f7e d93d cb10 813d
00000280: 3529 84bb 837c c23d e0c6 353e fa7f 01bc
00000290: 0b6b ad3d fe73 793e 6156 be3d c2cc c73d
000002a0: d293 573d fa1a d6bd 3a93 ad3d 7f23 dc3d
000002b0: 25c6 bb3d 3a31 c73d dce8 673e 9296 29bd
000002c0: 10dd cd3d 263b 773e b70a d53d ac6c d93c
000002d0: b6f4 543e b666 0a3d ddd9 613e f115 593e
000002e0: e00f 4c3e fd35 643e a7f6 fa3d bb9d 0abd
000002f0: 985d 463e 4d40 b5bd a16f 0f3e bc83 8fbd
00000300: 29b1 763d ab68 153e 0ae8 3a3e e068 91be
00000310: 131d a2bb d672 103e 3538 103e ef6d 1b3d
00000320: 4a52 73bc 58a0 8d3d d0ef 7f3d 3e44 6c3e
00000330: b422 763e 8e58 fe3d f60c 0c3e 81e6 47be
00000340: a2f6 613e 6804 bbbc 46b8 d93d da1c 203e
00000350: be6b c33d 6422 3f3d 1b4f 03bd e797 253d
00000360: f7ca 903d ba64 963d 61a0 2a3e c764 723d
00000370: eb23 183e e068 083e 3964 473b 014b f13d
00000380: 15f9 6f3d 0ce1 193e eef4 0c3e 5716 033c
00000390: 8a0d 143e e72b 443d 6779 ed3d 17fd 5f3e
000003a0: f848 003e 88c9 253d a384 1c3e 2188 0e3e
000003b0: bddf 6e3d 3438 6f3d 4fc5 293d de2d f63d
000003c0: e813 d83d 0cf5 833d b0b1 443e 2274 fc3d
000003d0: 9d64 d03c b0b2 2b3d cd64 223e f817 fe3d
000003e0: 7e2a ed3d 4ea1 103e 6171 053e 7ded 2d3e
000003f0: 8faf ba3a 003e a03d 849d 473d 3133 593e
