scripts/results/MAPPOTraining2v1/2v1/NoWeapon/MAPPOTraining/mappo/v1_2v1_mappo_training/wandb/offline-run-20250807_165042-zjjd28i2/files/actor_episode_6200.pt (torch, 700146 bytes, 30 tensors)

base.mlp.fc.0.weight f4 [128, 21]
00000000: d423 d6ba fdbd ef3d e5e9 37be 0873 24be
00000010: 2321 acbd 3eaf 6f3d e8ac 8dbb db2c 313e
00000020: 7aa4 9ebc 2184 6c3d e70f 87bd b5b1 2fbd
00000030: 3e7a 55be 86fd 13be 0b3a b8bd f370 043c
00000040: eaad b03d 0314 063e 4a7d 17be e19c c2bd
00000050: 5153 a23d d5de 203e f0fb 01bd faa8 513e
00000060: 2db3 dabc f89e 65bd 2c10 503e 0d3d 46be
00000070: 8b96 33be e399 1cbd 5c55 81bd 94c9 ee3e
00000080: 42f5 06be 90b1 a4bd 95e9 05be cc7f 54be
00000090: f255 ecbd 82a1 be3e dd57 d83d 4a99 0e3e
000000a0: 6478 a93c a26d 0abe fe43 9b3c 4936 5abe
000000b0: 07e1 31be 887b 02be f9ec e93d eb65 ec3d
000000c0: dcf9 e4bd d3f2 673a 2093 183e ae36 653e
000000d0: e9ac 9f3d 1241 5a3c 011b 063e 8c71 15be
000000e0: 1f2c ff3c 43b0 3dbe b14d 13be bc3c 04be
000000f0: 9414 ab3d a561 933d 89e1 e9bd 8c64 e6ba
00000100: d58e 063d 9253 ffbd 79f2 8fbd fa39 3e3d
00000110: acfa a13d 8c22 093e ad97 43be c776 3c3e
00000120: e0e5 8ebd 67a8 8d3e 55a9 e13d 7d02 d43d
00000130: 5788 1fbd e491 42be 3cb0 a1bd 290f f63d
00000140: 3e91 90be 221b df3d e1c3 a93d 30fa 08be
00000150: 06ed bf3c 4228 85bd 20c4 95bd 1d66 05be
00000160: dc96 633d d9aa 16be 10da 543d 6cab 1a3e
00000170: b7c3 983d 30d1 f23d 88fb 96be 1560 2ebe
00000180: a082 a53d 6016 393c 0c85 16be e5ae c7bd
00000190: 95e7 313e 8aa9 ef3d 0d5d 02be f519 a9bd
000001a0: 0751 34be 7586 80bb 5e46 28be 155d 2cbe
000001b0: 23ff 44bc e633 063d f605 b7bd e097 043e
000001c0: 2ffb 07be aac1 4a3e 3f22 193e 976f 3cbe
000001d0: 3975 5ebd 7b53 213c cd68 023d c1fd 533d
000001e0: 5661 af3d f428 563c 740f dabd 1779 d33d
000001f0: 5d59 56be 7f71 04be fdbf 5fbd 2ab2 d9bd
00000200: 1858 9cbd 0f26 37be 1121 3ebd 550f 3f3d
00000210: c892 11be 2f7b 37bc e6f5 1f3e 1bc5 b7bc
00000220: e2ba c63b c337 9abc 83e4 343d e314 0e3e
00000230: c2aa 533e 10e8 0d3e bd26 543e 0049 81bc
00000240: 0bbc 48be b6de d3bd da26 183e e269 b9ba
00000250: 9622 debd 7e3c 2bbe f61e 51be 1499 3cbe
00000260: b64c 35bd 9816 f53d 379e f13d db81 57be
00000270: 2663 0b3e 12db 2ebe 7df6 3cbd ba35 b5bd
00000280: da29 2cbd c17e 2fbd 7784 48be 8bf0 40be
00000290: 54dd 0bbd ddf1 383b 2605 cbbd ca59 a83d
000002a0: eac0 89be ed70 41bd 3811 623e 4867 e6bd
000002b0: 8ab3 303e 88e7 ce3c 24ee 64be 6c6e 343e
000002c0: 0904 113e c994 24bd 6133 ab3e 22f6 4bbe
000002d0: 6252 1e3c 395c 73bd 2e5a 433e 5268 9c3d
000002e0: 0a46 4f3e 3263 7a3d 7532 57bd b5d1 a5bd
000002f0: b103 2fbe 27ba d23d 76cc 4b3e e6ee 4e3e
00000300: 19bc 06be c460 33bd beb5 14be aee3 c9bd
00000310: b60f 45be d015 be3d a2ce 31be f1c5 a03e
00000320: ebe6 083d 5b5b 2b3e 9335 03be a6ce 24be
00000330: bdae 1abe f9c1 b23e 88fe 69bd 0b72 6c3e
00000340: 8b22 cc3d 43cd eabb 8c0a a9bd b583 89bd
00000350: 8aca 033d 6a65 a5bd b821 a53c 558c 70bd
00000360: c3e9 59be c871 44be 9bfc 603e d342 53be
00000370: 7b63 0c3d 094c 463e 9778 793d 79a3 cbbc
00000380: f736 42be d62a 1f3d 7123 8f3a 66ed c2bd
00000390: daf4 a2bd 1949 96bd 9627 f33c 0461 0c3e
000003a0: 66a1 133d 0aab 703e 5470 093e d1d0 44be
000003b0: f6ec 9b3d 94da 20be e26d 01be f669 be3d
000003c0: 67df dc3c 2ec2 e53e ae4b 88bd 6981 133c
000003d0: 0062 ff3d d62b 64be 104e b03d 67fa f43c
000003e0: fada 123b 3891 4dbc d644 f5bd d686 873c
000003f0: 10bc 4a3e 2f53 70bd 013c 31be 17c8 d4bd
-0.0016337582 0.11706159 -0.17960317 -0.16059506 -0.08404758 0.058516733 -0.0043235905 0.17302267
-0.019365538 0.057743195 -0.0659483 -0.042894084 -0.20847413 -0.1445218 -0.08995446 0.00808357
0.086269215 0.13093571 -0.14793888 -0.095025785 0.079260476 0.15710004 -0.031734407 0.20474616
-0.026696766 -0.056059808 0.20318669 -0.19359227 -0.17537896 -0.038232695 -0.06315109 0.46638167
-0.13179496 -0.0804168 -0.13077386 -0.20751876 -0.1153983 0.37232596 0.105636336 0.13925663
0.02068729 -0.13518384 0.01895332 -0.2130977 -0.17370997 -0.12742436 0.11422152 0.11542877
-0.111804694 0.00088481343 0.14899874 0.2238414 0.07796652 0.013321178 0.13096239 -0.14594096
0.031148968 -0.1852427 -0.14385106 -0.12913793 0.08353534 0.071963586 -0.114199705 -0.0017577573
0.03285106 -0.12467112 -0.0702867 0.04644201 0.0790914 0.13392085 -0.19100828 0.18404685
-0.06977439 0.27667543 0.11018626 0.10352037 -0.038948383 -0.19000965 -0.07894942 0.1201461
-0.2823581 0.10893847 0.08289314 -0.13376689 0.023428451 -0.06501819 -0.073127985 -0.13027234
0.055563793 -0.1471361 0.051965773 0.15104455 0.07459205 0.118563056 -0.29488778 -0.1702884
0.08081555 0.0112968385 -0.14699191 -0.09750155 0.17373498 0.11702259 -0.12730809 -0.08256904
-0.17609034 -0.0039222785 -0.16433093 -0.16832383 -0.01202372 0.032764338 -0.08936684 0.1294856
-0.13279413 0.1980044 0.1495447 -0.18401943 -0.05431101 0.009846563 0.031838227 0.05175567
0.08563487 0.013071287 -0.10647479 0.103258304 -0.20932527 -0.1293392 -0.054626454 -0.10629685
-0.0763399 -0.17885612 -0.046418253 0.04664548 -0.14216149 -0.011198803 0.15621147 -0.022432854
0.0060647586 -0.018825417 0.04416324 0.13875155 0.20670608 0.13858056 0.20717902 -0.01578188
-0.19602983 -0.10345213 0.1485857 -0.0014145935 -0.108464405 -0.16722295 -0.20421967 -0.1841777
-0.04426261 0.119672 0.11797755 -0.2104563 0.13612041 -0.17075756 -0.046133507 -0.08848138
-0.0420321 -0.04284549 -0.19581781 -0.1884176 -0.03414662 0.0028220334 -0.09913091 0.08220251
-0.26904994 -0.047226835 0.22076881 -0.11250168 0.17255989 0.025256887 -0.22356468 0.17620248
0.14161696 -0.040180955 0.33437636 -0.19918111 0.009663196 -0.059414122 0.1907737 0.07637085
0.20241562 0.061129756 -0.052538354 -0.08096639 -0.17091252 0.10289412 0.19902214 0.2020832
-0.13157691 -0.043793455 -0.14522454 -0.098578796 -0.19244274 0.09281504 -0.1736398 0.31401017
0.033423346 0.16734068 -0.12813406 -0.16094455 -0.1510572 0.34913614 -0.057127506 0.23090379
0.09967526 -0.0071655824 -0.08253965 -0.06714574 0.03217558 -0.08075984 0.02015768 -0.05872758
-0.2128058 -0.19184029 0.21971361 -0.2063096 0.03427456 0.19364943 0.06090602 -0.024858223
-0.1896628 0.03885921 0.0010920597 -0.095179364 -0.07956858 -0.07338161 0.029681962 0.13708884
0.036042593 0.23502746 0.13421756 -0.19220282 0.07613556 -0.15708381 -0.12639573 0.09297554
0.026961995 0.4487471 -0.0665506 0.009003022 0.12469864 -0.22282347 0.08608639 0.029904557
0.0022408352 -0.01254683 -0.1197602 0.016543787 0.19798303 -0.05867308 -0.17308046 -0.103897266

base.mlp.fc.0.bias f4 [128]
00000000: 8694 a63d 1b1e e3bc 1b7e 493e 96dc a9bd
00000010: 5478 12be 587c 663d 046c e83d 1c4d e3b9
00000020: 443b 363e 151b d3bd ed0e 873d 6b81 0b3e
00000030: ff43 a93d a8cd d83c d054 983c 3714 72be
00000040: fb31 64be a614 3ebd 921d ccbd 3c8d 0d3e
00000050: 688e 143e 36ca 193e bedf 9dbd dbe5 26be
00000060: 5568 62be e2af d63d b64a 4ebe db84 88be
00000070: 1b0b a2bd bd06 5ebe 9a65 20be e7ac 0cbe
00000080: 97bd f9bd 059a 903e 4aaa 79bd b91e 0f3e
00000090: 27a7 9e3b 1ce1 e5bc 5020 b5bd 57bb 1fbe
000000a0: d988 33be 7562 173e f319 9fbd 3cdd 59be
000000b0: 3d9e 353e cca3 843b 1585 1abe d9ce 0dbe
000000c0: 4739 52be 4485 36be 47c6 0c3e 2412 1a3e
000000d0: 1936 923c ef71 3ebe c2c7 69bd 7501 64be
000000e0: b940 5c3d ae53 6dbd 2c66 51bd eb2c 78bd
000000f0: 199c a13d 4dca cf3d d807 903d ab17 febc
00000100: a62a 2ebd f10e 3a39 62e4 11be 3ad6 363e
00000110: 9dbe c0bd 08e4 ec3d 8ccf f1bd e402 c03a
00000120: 4dad 793d 495c 14be 66ff cc3d e50a 2bbe
00000130: 3d6d 06bc c1eb 95bd 4dce ed3d 1d7f 5e3e
00000140: f774 3e3d 934d a6bc 4864 21be d19f a63d
00000150: a41b d7bd 979a b83d 87dc ccbd 2fa8 3a3e
00000160: 99af 163e a664 ed3d 45bb eb3b abd3 033e
00000170: 1583 53be 4570 2a3e 5a5f 61bd 5776 983d
00000180: c396 22bd ff03 89bd d4c4 acbd 3822 103e
00000190: 6df2 d8bd cc06 d5bc a471 e13d 8609 79bc
000001a0: b8b4 10be 1aed 67be 1b14 13be 21fb 4c3e
000001b0: edc7 23be 83f1 e43d e2c7 193e 7c1b adbd
000001c0: cc5b c5bd 0091 38be d524 c73c c7a7 e1bc
000001d0: 55b4 2d3c 3702 893d 5d9e 993d 8e22 86bd
000001e0: eb8d 753c 2a0d 4e3d bff9 4dbd 6f91 163c
000001f0: d89b 55bd 718d 3b3e 8f80 f6bd 520b 573c
0.08133797 -0.027724316 0.19677012 -0.082940266 -0.14303714 0.056270927 0.11348727 -0.00043354265
0.17796046 -0.103079 0.06594644 0.13623588 0.08264922 0.026465252 0.01859513 -0.23640524
-0.22284691 -0.04640641 -0.099665776 0.13823408 0.14507449 0.15018544 -0.07708691 -0.1629862
-0.22110112 0.10482766 -0.20145687 -0.2666386 -0.079122745 -0.21682258 -0.15663758 -0.13737832
-0.121943645 0.28242508 -0.060953416 0.13976564 0.0048417035 -0.028061442 -0.08844054 -0.15598808
-0.17532672 0.14783652 -0.07768621 -0.212758 0.17736144 0.0040478464 -0.1508983 -0.13848437
-0.20529662 -0.17824274 0.13747512 0.15045983 0.017848061 -0.1859815 -0.05707527 -0.22266181
0.05377266 -0.05794113 -0.05112283 -0.060589712 0.078911014 0.10146008 0.07032746 -0.031017145
-0.04252114 0.00017743908 -0.14247277 0.17855158 -0.094113566 0.11566931 -0.118071645 0.0014649299
0.060956288 -0.14488329 0.10009651 -0.16703375 -0.008204755 -0.07320357 0.116116144 0.21728177
0.046498265 -0.020300662 -0.1576091 0.08135951 -0.10503319 0.09013861 -0.10003 0.1822822
0.14715423 0.11591463 0.007193955 0.12873714 -0.20655473 0.1664439 -0.055022575 0.074444465
-0.03969456 -0.06690215 -0.084359795 0.14075553 -0.10593114 -0.026004218 0.11008003 -0.0152000245
-0.14131439 -0.22649041 -0.14363138 0.20017673 -0.15994234 0.11178877 0.15017655 -0.08452508
-0.096366495 -0.18024063 0.024309555 -0.027545823 0.010602077 0.066898756 0.075009085 -0.065495595
0.014987449 0.050305523 -0.050287005 0.0091899475 -0.052150577 0.18315674 -0.12036239 0.013125258

base.mlp.fc.2.weight f4 [128]
00000000: 05e0 7a3f cacf 903f 1494 7c3f ca26 5c3f
00000010: b26a 613f 86a7 6d3f 9638 683f b960 653f
00000020: c466 863f 6179 8d3f aa0f 4b3f 1b62 8b3f
00000030: 9f31 723f 0abc 823f 14f2 713f 5cd9 4c3f
00000040: 5e87 753f cf39 603f afb6 583f c991 6f3f
00000050: 4e9e 813f 2f6f 6f3f e514 803f 323d 7f3f
00000060: 5b8f 693f cbc0 803f 0f27 7e3f 491c 693f
00000070: febb 823f a0c7 7c3f e35b 643f 2369 653f
00000080: 69a3 723f 56a3 7e3f 36e5 823f b300 5e3f
00000090: f7d2 673f 5ad6 6d3f 54ac 5d3f 6d8d 803f
000000a0: dfd4 6f3f c3b7 793f 11a2 823f 51a6 523f
000000b0: 18ce 563f cb0f 643f 63b3 583f 14d0 843f
000000c0: b69d 783f f0fc 743f 8644 4d3f 5a29 763f
000000d0: a88e 7b3f 8fc3 633f 576a 713f e88e 6c3f
000000e0: c10a 703f 52ec 603f bddb 9c3f 4fbf 813f
000000f0: a31c 7b3f cd88 5c3f 6248 893f 621a 813f
00000100: f8b0 713f ed8c 8c3f db4d 8d3f 601d 753f
00000110: ff5b 773f 2ce1 803f 7ccc 8b3f a009 633f
00000120: a2b1 573f 30a4 803f 1eba 743f 9ece 603f
00000130: 3ae0 603f e63f 573f b9e7 813f cc1b 963f
00000140: 85e6 813f 3f25 6d3f 4c3c 523f 2a8d 6c3f
00000150: 00f6 6c3f 8f28 763f af10 783f 6d99 913f
00000160: 1c66 753f ecc7 4f3f deab 8a3f 9272 8d3f
00000170: 1407 823f 09f8 633f 28a7 933f 8ee5 833f
00000180: 22d8 6a3f c318 973f aca6 823f 9a2b 763f
00000190: ea12 653f 60c3 843f 5d3b 7a3f 41c1 773f
000001a0: 526c 883f e9db 6b3f ac3d 7b3f 8fc7 8a3f
000001b0: b444 813f 061e 8c3f 6974 863f 9c71 7f3f
000001c0: 4212 7c3f 28cf 663f 9333 803f 12a5 593f
000001d0: b67b 793f c221 6d3f 863c 833f 1a8d 7e3f
000001e0: 4fda 6c3f 7321 673f d606 493f 6a47 743f
000001f0: a184 6c3f 521e 713f 6893 493f 82d8 873f
0.97998077 1.1313412 0.9866345 0.8599669 0.8805343 0.92833745 0.90711343 0.8960071
1.0500112 1.1052667 0.79320776 1.0889314 0.94606966 1.0213635 0.94510007 0.80019164
0.9590968 0.8758821 0.84653753 0.93581825 1.0126436 0.9352903 1.0006377 0.9970275
0.9123437 1.0058836 0.9927835 0.91058785 1.0213621 0.98742104 0.8920271 0.8961355
0.94780594 0.9946798 1.02262 0.86719817 0.9055628 0.929052 0.86591077 1.004316
0.9368419 0.97546023 1.0205709 0.8228503 0.83908224 0.890866 0.8464872 1.0376
0.9711565 0.9569845 0.80182683 0.9615685 0.9826455 0.88970274 0.94302887 0.9240556
0.9376641 0.87860596 1.2254559 1.0136508 0.9809057 0.8614624 1.0725214 1.0086176
0.9441066 1.0980507 1.1039385 0.9574795 0.9662475 1.0068717 1.0921779 0.8868656
0.8425542 1.0050106 0.9559649 0.8781527 0.8784214 0.84081876 1.0148841 1.1727233
1.0148474 0.9263496 0.82123256 0.924029 0.92562866 0.9615564 0.9690046 1.1374947
0.9585893 0.8116443 1.08337 1.1050589 1.015841 0.89050347 1.1535387 1.030443
0.9173604 1.1804432 1.0207114 0.9616028 0.89481986 1.0372124 0.9774683 0.9677926
1.0658057 0.9213243 0.9814098 1.084215 1.0099092 1.0946662 1.0504276 0.9978273
0.9846536 0.90159845 1.0015739 0.850175 0.9745439 0.92629635 1.0252845 0.99434054
0.9252061 0.90285414 0.78526056 0.9542147 0.92389876 0.9418689 0.7874055 1.0612948

base.mlp.fc.2.bias f4 [128]
00000000: f8e3 fa3c 1df2 f63b dc5b 9e3c b4ba 83bd
00000010: 8bf1 f53d a249 993d b3cc d33d 42c6 e63d
00000020: ece4 ea3c 4f4c a53c 0fa9 b63d 516f 753c
00000030: c8db 613d cc0f 17bb 3340 503d 3dad 133e
00000040: fa32 4dbd 80e7 073e 4a1e 7ebd b339 8e3d
00000050: 80fe 093c 2908 b23d 1a37 323c 3dea 13bc
00000060: dec6 ae3d 38d1 f13b eb47 d2bc 25fa 32bc
00000070: b012 8fbc 70f5 803c 6cbe a13d d112 e23d
00000080: eeba b7bb bca1 1f3c 833b e3bc 3af9 f93d
00000090: 872c d73d 4ad3 b23d 6789 a8ba a511 003c
000000a0: 6546 8b3d 1841 093d 80f1 bbbb 5293 373e
000000b0: 3b6c 5fbc 29f5 e53d 799d 353d 2ed4 813b
000000c0: 51ce 0d3d 6886 8f3c 5bfd 93bd b7e6 503d
000000d0: e9aa f83c f760 fd3d cf3f 883d 4b90 b03d
000000e0: 7b86 09bd bf12 063e b777 4a3c 6613 163c
000000f0: c304 5fbc e207 a8bc ad2c 123c 2d09 b63b
00000100: 4a0e ebbc 9ced 08bd 7735 cabc 9dce 523d
00000110: 4fa1 483d 219a febb 3b90 bb3c f9fc 043e
00000120: e3dc 253e a5dc aa3c 30b0 7d3d 6fd5 013e
00000130: df37 6cbb 5a9e 943c d1ce 25bc 194d c4bc
00000140: ea6c 72bb 8d87 a33d 710c 73bc 37b9 ab3d
00000150: fba7 b33d 6f1e 463d 61b2 273d df14 983c
00000160: 7e72 d0bc 1f46 333e 55b9 0c3c efe3 4cbc
00000170: 8338 c1bb 59e8 f53d 7c69 043d 499b b6bc
00000180: db38 b03d 56b8 97bc ca83 283c 3d45 2c3d
00000190: 0391 13bc 7b51 eebb 3538 253d ec2b 27bd
000001a0: 53e5 b43c a829 bf3d 923c f1bc 0fae 42bd
000001b0: f958 b5bb e3c0 9abc db1a 1bbd beba e73c
000001c0: ad78 c63c 5640 7b3d 3b90 c0ba 05c2 1b3e
000001d0: b962 263d 1d95 3dbd 3403 0cbc f35d a33c
000001e0: a22f b43d 5a31 d03d 16d1 a33d 383e 27bd
000001f0: 8a30 d1bc b0d9 783c 0ec3 22bb 8945 a13c
0.030626282 0.0075361864 0.019330911 -0.06432095 0.12008961 0.074847475 0.10341778 0.112682834
0.028673612 0.020177988 0.08918964 0.014980153 0.05514124 -0.0023050187 0.050842475 0.14421554
-0.050097443 0.13271904 -0.062040605 0.06944599 0.008422494 0.08692963 0.010877395 -0.009028015
0.08534025 0.007379677 -0.025669059 -0.010923897 -0.017464966 0.015742034 0.07897648 0.11038745
-0.0056070006 0.00974315 -0.027738338 0.12205739 0.1050654 0.087317064 -0.0012858332 0.007816707
0.06800536 0.033509344 -0.005735576 0.17927292 -0.013636644 0.11228401 0.04433963 0.0039620614
0.034620587 0.017520145 -0.07226058 0.051001277 0.030354934 0.1237201 0.066527955 0.08621272
-0.033575516 0.13093089 0.012357644 0.009159898 -0.013611975 -0.020511571 0.008921784 0.005555293
-0.028693337 -0.033429727 -0.024683697 0.051466573 0.04898196 -0.0077698384 0.022895923 0.12987126
0.16197543 0.020857165 0.061935604 0.12679075 -0.0036044044 0.018141914 -0.01012011 -0.023962544
-0.0036991187 0.07984839 -0.014834509 0.08384936 0.08772274 0.048368867 0.0409416 0.01856464
-0.02544522 0.17507218 0.0085891085 -0.0125055155 -0.0058966293 0.120072074 0.03232716 -0.022290843
0.08604594 -0.018520515 0.010285327 0.04205822 -0.009006741 -0.007272897 0.040336806 -0.04081337
0.022082007 0.09334117 -0.029447827 -0.047529276 -0.005534288 -0.018890804 -0.03786741 0.028287288
0.024227465 0.061340652 -0.0014691422 0.15210731 0.040621493 -0.046284784 -0.008545686 0.01994226
0.08798148 0.10165663 0.07998864 -0.04083082 -0.02553584 0.0151886195 -0.00248355 0.019686477

base.mlp.fc.3.weight f4 [128, 128]
00000000: 1d31 f9bd 6725 a33b f6a6 25bd 3c81 3f3d
00000010: f98f 99bd a49c 3a3a e603 5bbd b341 5ebc
00000020: 2936 b13d 7aef 853d e21f af3c a78c 8c3d
00000030: 1b66 b53c f869 d2bd 9b6a 1fbd 95c8 09bc
00000040: 568a aa3d 98a9 0c3d bdbc ab3d 0959 08bd
00000050: 51b9 93bb 3b63 7dbd 3386 79bd 752f 583d
00000060: 6f39 3abc b5b1 53bc ad43 27bd c6b2 cc3d
00000070: 05d4 54bd 7447 9fbc d1ad 9abd fc6c 5a3c
00000080: 718b 103d 5822 87bd c805 efbb 82a6 e1bc
00000090: d8ee debd fe57 20bd 3a30 cfbc 9c66 5dbc
000000a0: 288a 25bc 2c64 cebd 17b0 cc3d e0aa aa3c
000000b0: 9d38 3ebc ad5a 5938 d4ee 83bd 9d46 d43d
000000c0: 63df 96bc 3cb2 74bd ad75 883d 773d 01be
000000d0: cbec 9bbd 4d90 c5bd 1fcb c6bd c4d2 c8bd
000000e0: ad18 0dbe e5c9 e9bc 149d c4bc b6ac 7c3c
000000f0: 60dd 8936 75ec 3cbd 519c 313e 8322 e5bd
00000100: ceba 503c 209d 0ebd 2826 86bc 23ec 26bd
00000110: bee5 9cbc 933b 0c3e b894 7bbb 5e06 6e3c
00000120: 3690 f93c 1bf1 21bd 4e46 b1bc 6837 653b
00000130: 4718 83bb d04e 393e de93 0e3c 4bc1 0a3d
00000140: d5d3 22bd 78ae cdbd fdae a13d 1eb0 8ebc
00000150: 1f75 fd3c 1c0d b3bc 0093 993b 865c 4b3d
00000160: 4288 783c 4a80 a4bd c6a9 a63d f526 83bd
00000170: 1415 23bd c71b 97bd 8044 303c 21a4 c2bd
00000180: 8767 1f3c fd00 e1bd ef46 7e3d a34e 673c
00000190: 8deb f4bc e827 063d de00 ddbd 2c6b cdbb
000001a0: 989b b83d ad2e 95bd ea60 c43d 1a6f 58bc
000001b0: 9fb2 88bc 727b b5bd 556f a4bc 264c e33c
000001c0: 0d60 bb3c 88c8 833c 1548 163d 8e63 f5bd
000001d0: c526 be3c a934 4b3d 0e6a a0bd f82c 72bd
000001e0: f456 e73c 7c23 d1bb 4e48 8c3d 62b7 1c3d
000001f0: 0762 87bd 5331 123d a5f9 6a3d ee41 bd3d
00000200: bacb 453d ed35 a9be f752 123e cba4 4fbc
00000210: aa26 a13c 62a4 a13d cfb8 553d 462c 843d
00000220: 489a 9a3d 3ea2 7bbe 7c4c 813d c38c b7bd
00000230: 9d3e 00bb 9847 01be 950d fa3d 9d6b 7dba
00000240: 6679 46bd 8397 df3c 1a7c ba3d 3828 86bc
00000250: e2df 503d 2c38 f43d 8d20 7ebd e694 b9bd
00000260: 5829 fe3d 3e8c b9bd dee1 36bd a9a9 fc3c
00000270: 67cc 75be 79e3 793d 0f4b 823c 5799 ef3c
00000280: abe8 903b 6f3b 42bc 8db9 41bc dee0 dd3d
00000290: 5acf 043e 3763 f13d 8cc5 bc3d 1211 16bc
000002a0: ec8d 63bc 8c99 c83d 06b2 10be 80f8 873c
000002b0: bc0a 603c 0aa0 1b3e af83 0dbd 018e 71bc
000002c0: 2f1d b13d 9aca 02be c697 813d c27f f33a
000002d0: 1c3c 063e 6053 f83c b5d5 133d 727b 28bb
000002e0: 4e8e 45bd e297 7c3d 624b 0ebe 8006 03bd
000002f0: b310 08bd 6387 46be 306a 2ebe 468f cc3d
00000300: d38a eb3d 2e5b f4bc cf8d 663d 0d81 863d
00000310: def7 123d 7e0d 00bd 08cd 72bd 9c9a 143e
00000320: 9083 223e 03bf babd 849d d73d ce53 243e
00000330: 75b5 f83d 602a 953c 29d7 9e3c 42c6 873d
00000340: cfae b93d 18b7 c43c f40d 89bd 99fc 053d
00000350: b935 b83d 1fee 353d c5e2 eb3d 2ebf 30be
00000360: 6257 8e3d 5a82 343d 7a53 2dbe 8978 053e
00000370: 8d9e b23c 8b19 93ba 5631 f83d dd08 b73d
00000380: 3250 1d3d 19be 5c3d 1dc6 73bd 568c 223d
00000390: 36ed 953b 1f4d b23d 4bbc 063e 7962 8b3b
000003a0: 513c 6dbe eb04 233c 8b11 4dbd 370f 7ebd
000003b0: 49bf 89bc 35f0 4a3e 263a 86bc 4e01 7b3d
000003c0: 0389 ca3d 5710 f33d a2ea 87bd a79f b23d
000003d0: 1b98 113e 7423 f5bd aa72 9c3d 72db ac3c
000003e0: b865 5d3b 4a36 f43d dac2 833d a4f9 83bd
000003f0: 2e4d a33d cc3e 9a3d ba06 313d 1a6d a0bc
-0.12167571 0.004978824 -0.04044243 0.046754107 -0.07498164 0.0007118678 -0.053470515 -0.013565469
0.08652908 0.06539817 0.021377508 0.06862765 0.022143414 -0.10274118 -0.038920026 -0.008409639
0.08327167 0.034341425 0.08385608 -0.033288036 -0.0045081754 -0.06186221 -0.060918998 0.052779634
-0.011366232 -0.012920787 -0.040836025 0.09995036 -0.05196001 -0.019443251 -0.07552684 0.013331648
0.03528923 -0.065983474 -0.0072943904 -0.027545217 -0.108853996 -0.039146416 -0.02529155 -0.0135132335
-0.01010374 -0.100777 0.09994524 0.020833433 -0.011610177 5.182128e-05 -0.06442037 0.10365031
-0.018417066 -0.05974029 0.0666307 -0.12621103 -0.07613524 -0.09646664 -0.09706711 -0.09805825
-0.13778944 -0.028538654 -0.024000682 0.015422037 4.1086896e-06 -0.04612394 0.17344786 -0.11188223
0.01273985 -0.034817815 -0.016375616 -0.04075254 -0.019152518 0.13694601 -0.0038388204 0.014527885
0.030464273 -0.039536577 -0.02163997 0.0034975652 -0.004000697 0.18096471 0.0087022465 0.033875745
-0.0397528 -0.10043043 0.078947045 -0.017417964 0.030939637 -0.021856837 0.004686713 0.049648784
0.015169205 -0.08032282 0.081378505 -0.06403915 -0.039815024 -0.07378345 0.010758519 -0.09503961
0.009729273 -0.109865166 0.062079366 0.01411787 -0.029897476 0.0327529 -0.10791181 -0.0062688794
0.09014052 -0.07284293 0.095887974 -0.013210082 -0.016686736 -0.08861436 -0.020072618 0.027746271
0.022872949 0.016086832 0.036689837 -0.11981879 0.023211846 0.049610768 -0.07832728 -0.059124917
0.028239705 -0.006382404 0.068497285 0.038260825 -0.06610494 0.03569157 0.057366986 0.09241091
0.048289992 -0.33048955 0.14289461 -0.012673567 0.019671757 0.07892682 0.0521782 0.06453757
0.07548958 -0.24573609 0.06313416 -0.08962395 -0.001956857 -0.12624967 0.12209622 -0.000966722
-0.04845562 0.027293926 0.09105702 -0.0163766 0.05099476 0.119247764 -0.06204276 -0.09061603
0.124102294 -0.09059952 -0.044648997 0.030842619 -0.24003755 0.06100795 0.015904931 0.029247923
0.0044222674 -0.01185499 -0.011824024 0.10833906 0.12969723 0.11786502 0.092173666 -0.009159343
-0.013888817 0.09794912 -0.1413041 0.016597986 0.013674434 0.15197769 -0.03454941 -0.014743329
0.086481445 -0.12772599 0.063277766 0.0018577504 0.13108867 0.030313194 0.03609248 -0.0025708345
-0.048231415 0.061668284 -0.13895944 -0.03198862 -0.03321905 -0.19387583 -0.17032695 0.09988265
0.11501088 -0.029828634 0.056287583 0.06567583 0.035880916 -0.031262867 -0.059277564 0.14512104
0.158705 -0.09118464 0.105280906 0.16047594 0.12143985 0.018208683 0.019389706 0.066296116
0.09066545 0.024013087 -0.066921145 0.0327116 0.08994622 0.044416543 0.11517862 -0.1726043
0.06950261 0.044069625 -0.16926375 0.13034262 0.021804119 -0.0011222822 0.12118785 0.089372374
0.03840656 0.05389223 -0.059515107 0.039684616 0.004575397 0.08706116 0.13157766 0.004253682
-0.2316754 0.009949903 -0.05006556 -0.06202623 -0.016814845 0.19818194 -0.01638515 0.06128054
0.09889414 0.11868351 -0.066365495 0.087218575 0.1421818 -0.11969653 0.07639058 0.021100733
0.0033782553 0.11924417 0.06433649 -0.064440995 0.07973705 0.07531509 0.043219306 -0.019583274

base.mlp.fc.3.bias f4 [128]
00000000: 874d d73d bc87 00bd 6c60 193d eb90 05be
00000010: fedf 8e3d 6882 103d cfdb 683d f53d 83bd
00000020: 8cf3 d13b aff3 82bd 5c76 643d 26ae d63d
00000030: 4e43 12bd 4201 673c 560c 143d 1e0f a0bd
00000040: a13b 4b3d a8f6 ea3c 2ab9 31bd 1a0b 59bc
00000050: 143c 983c 6d85 083d e089 9abd aa02 363d
00000060: 21a7 843b 4e56 143d 64c0 ce3c a810 f53c
00000070: 35a3 1d3e bd6d 48bc d1dd 5f3c e8c4 923c
00000080: c80c c6bd 32ea 293d 60eb ebbd aee9 88bd
00000090: 8c49 80bd c688 b5bd 8971 cdbd 9afe 393d
000000a0: 7f87 933b de79 9abd d3b0 c7bd d371 62bd
000000b0: e8c3 88bc 2359 e4ba 26d7 91bd c597 18b7
000000c0: 87b8 ccbb a5ec b33d 77fe 07bd 45af 11bd
000000d0: 2468 dd3d e4a6 77bd 1468 e1bd cd74 4ebd
000000e0: 5b71 a53d 87aa 553b 6ad4 243d 2dfc 2c3d
000000f0: 86a6 10bc 1758 d63c 3da4 863d 6bb4 be3b
00000100: ef38 b5bd 17f8 fcbc 6817 1ebb bfb9 363c
00000110: d07f d73c 4098 ae3c ed73 ffbc 3d31 603d
00000120: 59dd 3ebc 6166 a4bc 8421 ebbc 1508 96bc
00000130: 1317 32bd 9919 59bd 535c 1c3d de64 59bd
00000140: 95f3 3f3d 89db af3d 9477 c7bd 2004 753d
00000150: 88b3 7a3c 0c6f 99bc cb8d 093d 01a2 b9bd
00000160: 6c0d 8dbd d7cc c9bd 69b8 613c 00fc 54bc
00000170: 07bb 5fbd 2440 8f3c becb 86bd ccf9 493d
00000180: 3681 7d3d d92f 4f3d 88c3 b7bc 153c 933b
00000190: ba00 40bd e1ce 86bd 552d b23d 3aaa 993b
000001a0: f8ad 96bd d500 223d 2037 f23b 6aaf c3bd
000001b0: 38d0 e3b9 3403 a13c 9c4a 82bd 5c02 283d
000001c0: 23b8 7f3d 7ada ddbd 6d93 e8bb 6423 073e
000001d0: 3543 94bd fd5c 963b 3075 aabd aa23 913d
000001e0: 5d3a 71bd 5f9a 553b 20b1 823d cd81 6dbc
000001f0: 424f 9cbc cf30 b33c 3d57 a93b 5e04 68bd
0.10512834 -0.031379446 0.03744547 -0.13043563 0.06976317 0.035280615 0.05685025 -0.06408302
0.006407207 -0.06394135 0.05577694 0.10482435 -0.035708718 0.014099421 0.036144577 -0.078153834
0.049617413 0.028682068 -0.043389477 -0.013247276 0.018583335 0.03333037 -0.07545829 0.044436134
0.0040482436 0.03621512 0.025238223 0.029915169 0.1539429 -0.012233195 0.013663725 0.017916158
-0.096704066 0.04148311 -0.115195036 -0.06685196 -0.06264028 -0.08863978 -0.10031421 0.045408823
0.0045022364 -0.075427756 -0.097505234 -0.055284332 -0.016694978 -0.0017421584 -0.071211144 -9.095243e-06
-0.0062475833 0.08785371 -0.03320166 -0.03556754 0.10810879 -0.060461894 -0.110061795 -0.05040436
0.080782615 0.0032602863 0.040241636 0.04223268 -0.008828765 0.026165051 0.06574295 0.0058198473
-0.0884875 -0.030880017 -0.0024122838 0.011152684 0.026306063 0.021312833 -0.031183207 0.054734457
-0.011649453 -0.02006835 -0.028702505 -0.0183144 -0.043479037 -0.053002927 0.038173985 -0.05307471
0.046863157 0.08586795 -0.097396046 0.059818387 0.015301593 -0.01872971 0.03358249 -0.09064103
-0.06887326 -0.09853523 0.013776877 -0.012999535 -0.054621723 0.01748664 -0.065818295 0.04931049
0.061890803 0.05058274 -0.022432104 0.0044932463 -0.046875693 -0.06582428 0.08700053 0.004689482
-0.07357401 0.039551575 0.0073918253 -0.09554942 -0.0004345195 0.019654848 -0.06361887 0.041017875
0.062431466 -0.10832687 -0.0070976526 0.13197094 -0.07239381 0.004588722 -0.08323133 0.070868805
-0.05889355 0.0032593233 0.0638144 -0.014496279 -0.019080762 0.02187386 0.0051678703 -0.05664479

base.mlp.fc.5.weight f4 [128]
00000000: 6497 7e3f 4ec6 833f b57b 813f 34d6 6f3f
00000010: 07c3 8c3f fde6 853f a8c2 833f 8798 873f
00000020: e5d9 963f 6052 913f 968e 843f 32d7 813f
00000030: 6da0 793f d2b0 663f 3fde 843f 5571 783f
00000040: cec2 8b3f ac22 8a3f 0d5e 823f ca78 8b3f
00000050: ed8c 883f 218f 823f 5daa 913f 9eb5 943f
00000060: 637e 623f c5a3 8f3f 6b03 783f 06a6 803f
00000070: d8f8 8e3f 710e 8b3f 6f44 853f 16fe 7c3f
00000080: 2893 943f 7623 843f ad6b 693f 88c3 9a3f
00000090: 9c02 923f 41eb 7b3f deaf 683f 4f79 8e3f
000000a0: d692 923f 1faa 5a3f 2c0d 853f d410 803f
000000b0: 0a51 7e3f a0bd 583f 6941 623f 0a16 943f
000000c0: d23e 643f a7ea 8a3f ca1a 813f fdd3 883f
000000d0: e87b 8c3f 6ab3 873f 7b09 633f 6f8b 9c3f
000000e0: 72c1 933f 862c 773f 91b9 823f bc41 733f
000000f0: 0bf9 863f 3d95 623f 6440 813f 4e04 6c3f
00000100: 359c 663f d067 863f 662c 803f 5e2c 8f3f
00000110: 9422 823f 2e05 763f 73e6 8d3f 2244 833f
00000120: 79c4 853f 9ccb 753f 6f27 843f 6809 893f
00000130: 1fc0 8a3f cbed 863f 7b96 8c3f d777 7d3f
00000140: a35a 863f d43f 9a3f 5428 783f 4bfe 823f
00000150: 539f 823f aacf 763f e081 743f 1a9a 813f
00000160: f7ef 4b3f cfb3 883f cebc 8b3f 2b40 813f
00000170: 9e3d 803f 9aa6 963f e960 823f 5a1a 6f3f
00000180: c22a 8d3f 9be2 833f 5679 7a3f 4442 7b3f
00000190: 885c 873f e2d1 7e3f 9228 8b3f ad45 893f
000001a0: 8490 783f a529 883f 4423 6d3f bd28 633f
000001b0: 0e33 723f ad60 943f 1aad 8f3f 7255 913f
000001c0: 94bd 8f3f 57cc 6f3f 4a51 833f d658 9d3f
000001d0: 14ba 883f f890 743f 232d 813f 61c1 8b3f
000001e0: 56d7 783f 70ef 6d3f b2f8 8e3f 3139 7c3f
000001f0: 7554 893f 67b6 7c3f 1e77 8f3f 6527 793f
0.99449754 1.0294893 1.0115877 0.93686223 1.0997018 1.0461117 1.0293779 1.0593423
1.1785246 1.1353264 1.0356014 1.0143797 0.97510415 0.90113556 1.0380324 0.9704793
1.0918825 1.0791831 1.0184952 1.0896237 1.0668007 1.019993 1.1380116 1.1617925
0.884741 1.1221853 0.96880215 1.0050666 1.1169691 1.0863782 1.0411509 0.98825204
1.1607409 1.0323322 0.91179925 1.2090921 1.1407046 0.98405844 0.9089335 1.113077
1.1451061 0.85415834 1.0394645 1.0005136 0.99342406 0.84664345 0.8838106 1.1569226
0.89158356 1.085286 1.00863 1.0689694 1.0975313 1.0601628 0.8868634 1.2230052
1.154341 0.9655231 1.021288 0.9502218 1.0544752 0.8850897 1.0097775 0.9219407
0.90082103 1.0500431 1.0013549 1.1185415 1.0166802 0.96101654 1.1085953 1.0255167
1.0450584 0.9601381 1.0324534 1.0705996 1.0839881 1.0541319 1.0983423 0.99010986
1.049641 1.2050729 0.96936536 1.0233854 1.0204872 0.9641062 0.95510674 1.0125153
0.7966303 1.0679873 1.0916994 1.0097708 1.0018804 1.1769593 1.0185825 0.93399584
1.1028674 1.030353 0.97841394 0.9814799 1.0575113 0.99539006 1.0871756 1.0724388
0.97095513 1.0637709 0.92631936 0.88734037 0.94609153 1.1592003 1.1224701 1.1354201
1.122973 0.9367117 1.0259182 1.2292736 1.0681787 0.95533705 1.00919 1.091839
0.97203577 0.9294348 1.1169646 0.9852477 1.0728899 0.98715824 1.1208227 0.97325736

base.mlp.fc.5.bias f4 [128]
00000000: f5f9 873d 8656 c9bc f7c1 743d 1ef6 e23c
00000010: 1ed9 fdbd ac18 78bd 8267 15bd c335 8bbd
00000020: 5814 5e3e ef87 1dbe 2081 2dbd 2c98 5dbd
00000030: b394 39bc 05d1 20bd dd55 363d cab2 c83c
00000040: 2b0a 023e 669d 36bd 868f 67bc aa7f a13d
00000050: 277f 0fbd de58 19bd 1266 1abe 42c3 2bbe
00000060: 4ddc e53d ac2c a0bd b854 d3bb e4ac 56bd
00000070: 5cee 123e 0970 17bd 7ad1 32bd b360 a73c
00000080: 638e 2abe 20e1 1cbd 37f8 b13d 2c21 3b3d
00000090: 3448 33bd a88c 433b 708d 363c cca9 e5bd
000000a0: c1bb 0f3e 46de ff3d 4069 18bd a88e 44bc
000000b0: f7ff c9bb c5bd c93d 5261 4abd 001e 25be
000000c0: a4d6 273e aa27 6f3d 500c 03be 4ce0 6d3d
000000d0: adc7 df3d deed c4bd 3ee2 c73d fa52 97bd
000000e0: 4b61 163e 3d03 c03c 7fbf a9bc c8da 333d
000000f0: 8729 12bd 7f86 8c3d 771f 74bd f216 993d
00000100: 47f7 9f3d 90ab 67bd 3cbb 16bd ebd4 0f3d
00000110: c890 84bc 72b8 8a3c fecd ad3d 013a d0bc
00000120: 7f53 87bd 993f 3b3d a4f5 11bd 79ba a1bd
00000130: 88d3 c3bd b886 6dbd c4aa ecbc e721 3f3c
00000140: f5f0 77bd 85e0 3a3e 0b74 873b 4a5f 5fbc
00000150: 65cc aebc b36a 7b3d a947 fd3c ccc0 4bbc
00000160: 7ef7 4d3e bf44 c3bd d7f3 0c3d 84f0 5a3d
00000170: a754 83bc 6a3a 5a3d e30f cfbc 8a2b 693d
00000180: d0cb 3d3d 19c8 593d b7e3 62ba df42 a93c
00000190: d961 e5bc b19b debb 6510 023e 8cf9 bcbb
000001a0: 6517 913c a143 333d 04d1 cb3c 7546 f3bc
000001b0: f279 cb3d 2985 463d 992b 05be 0657 27be
000001c0: 70bd ff3d 4503 813d 3514 69bd 897f 283e
000001d0: 8597 a2bd ae7f 5939 71a0 1bbd 051b 44bc
000001e0: 9892 d03b 7ed7 113c 3937 19bd 0f5a 7a3b
000001f0: 866d 69bd 5cc9 77bd 455c 23be a853 8e3c
0.066394724 -0.02457739 0.05975529 0.027705248 -0.123949274 -0.060570404 -0.036475666 -0.067973636
0.21687448 -0.15383886 -0.04235947 -0.0541002 -0.011326957 -0.039261837 0.04451548 0.024499316
0.12699191 -0.0445837 -0.01413334 0.07885678 -0.03503337 -0.037438266 -0.15077999 -0.16773704
0.1122366 -0.078210205 -0.0064493082 -0.052410975 0.1434874 -0.03697208 -0.043656804 0.020431852
-0.16655879 -0.038300633 0.08689921 0.045685932 -0.04377003 0.0029838476 0.01114212 -0.11214027
0.14036466 0.12493567 -0.03720975 -0.0119969025 -0.0061645466 0.09850649 -0.049409218 -0.16124725
0.16390473 0.058387436 -0.12797666 0.058075234 0.10926757 -0.09615682 0.09759949 -0.073888734
0.14685552 0.023439044 -0.020721195 0.043909818 -0.035684135 0.068615906 -0.05960032 0.074750796
0.07810836 -0.0565601 -0.036799654 0.035115164 -0.016182318 0.016933654 0.084865555 -0.025418283
-0.066077225 0.04571495 -0.03563465 -0.07896895 -0.09561831 -0.057989806 -0.028890021 0.011665798
-0.06053253 0.1824971 0.0041337064 -0.0136335585 -0.021337697 0.061381053 0.03091796 -0.012436103
0.20113942 -0.09534597 0.03441223 0.05345203 -0.016031576 0.053278364 -0.02527613 0.056926288
0.04633695 0.053169344 -0.0008655148 0.02066177 -0.028000759 -0.006793462 0.12701567 -0.005767053
0.01771135 0.043765668 0.02487994 -0.029696682 0.099353686 0.048466835 -0.13004912 -0.1634179
0.12487304 0.06299452 -0.056904037 0.16454901 -0.07939056 0.00020742297 -0.037994806 -0.011969333
0.0063651316 0.008901475 -0.03740618 0.0038200652 -0.056989215 -0.060494766 -0.15953167 0.017373875

rnn.gru.weight_ih_l0 f4 [384, 128]
00000000: 32c9 903d 0e94 923d ccf0 a5bd 21d1 9e3c
00000010: f7a2 b83c eaf2 98bd dbcf 313c 815d 97bd
00000020: 84ff a8bd bef5 a13d ad92 323d d5cc ef3b
00000030: d4ac 053e cbde 803b 6049 2dbd 64c1 1bbc
00000040: 1d6d bd3c 1568 0bbd 92dd 82bd da4f 493e
00000050: 694c fbbd e36b 023d cfb5 193d 9827 22bd
00000060: 5fef 543d fabb ea3c 9f09 cdbc c798 6dbd
00000070: 51b7 723d 0579 52bd db07 043d 98cf 093a
00000080: 505d 393d 02c0 ae3c eefd 1fbd d062 833d
00000090: 4e9b 203c eb8d 923c 5019 e8bc 5bc6 073d
000000a0: 273e 95bc 955c c8bd 039d 783d 14b7 79bd
000000b0: 4928 1b3d 47ea 9d3d 2ba4 1abe 559a 6d3d
000000c0: bf74 a13c 3fde 05be 0080 75bd bc8b d43c
000000d0: cc51 8a3c e29f bbbb 242a ed3c ca2b b23b
000000e0: 2659 a93d 0f25 b83c 2d90 97bd 554f aabc
000000f0: 5842 d6bd 9b74 353e 4a49 59be 5bd5 3b3d
00000100: 4567 b03d a7d8 9dbc 18e0 afbd 371a 083e
00000110: 3e0e 033d bdfa b3bd ef80 5c3e 53df 15bc
00000120: ed65 83bd 821e 6e3c e4cc 3b3d b564 9539
00000130: 6a6e 80bd 2dd1 49bd e013 04bd 6c72 413d
00000140: 3dd9 503c ed63 a73b 0696 c737 94b0 54bd
00000150: bb05 1e3d 1f7e e03d 7ec0 0e3d 4528 9a3d
00000160: 4939 4ebd 071a fe3d 0e4f a4bd b670 833d
00000170: c2a5 adbc 0116 07bc 4362 a3bc bae5 87ba
00000180: 4234 373e 8424 90bd d184 42bc e302 69bd
00000190: 4e1b ff3d 9752 433d 9bb8 2fbd e025 d0bd
000001a0: 856b 933d 1e47 673d b247 bd3d 34dd 01bd
000001b0: e7c7 46be 980e 93bd 70f4 83bd cdd6 4dbd
000001c0: 0218 a33c 0df5 51bd 9959 13bd 63b0 ef3b
000001d0: 3933 a6bc d124 3dbd 018d 103e ca7e 7f3d
000001e0: 8f1e 67bc 72ed 363d 84d0 23be 5e05 8bbc
000001f0: 3c56 47be 7999 953d e8e0 62bd 0002 663d
00000200: 0bd3 1bbe eaba da3b 9a8b febc b38e 6abd
00000210: 6304 c93d 9fbd 023e 3a1c 5a3e d8ca 4d3d
00000220: 4f08 68bd 5726 3c3e 4dd3 da3d 4528 4fbd
00000230: 36f5 a23d c846 2ebd 462a 453d 006d bb3d
00000240: d5a7 11bd 3143 c7bd bca2 303d 8bc6 0cbd
00000250: 80e4 b4bc da84 613d 9d66 a63d 5f2a 8d3d
00000260: 7f50 823d f18c 6d3d c516 583e bea6 433d
00000270: 00fe 913c 3ead 043d 3ae7 333e 2d19 df3d
00000280: f262 ae3d 3a5e 283e dad4 4f3e ffa9 ad3d
00000290: 8db3 f9bb 32fb 403e fb30 b83d 3069 ac3d
000002a0: 6533 40bd cf0b bf3d 18b5 4c3e 757d 113e
000002b0: 2b24 483e 86e1 153e fa8e ec3d 18a0 323e
000002c0: 6397 b53d 6b1f efbd f8ce 143e e0e4 c83d
000002d0: b838 4e3b 6fae 033e d577 483e 1c2b 3bbd
000002e0: 5c3d 36bb 66ca b83d 555c 853d d3b3 4a3e
000002f0: f80f 8ebd 9203 1b3d 6e73 8a3d 38f9 403e
00000300: 6e11 223e 2078 7e3d d908 883d 9536 dfbd
00000310: acac 173e 2f48 203d 4f4e e4bd ea32 283d
00000320: b005 013e 8471 553e 256e 1d3e e4d0 0b3e
00000330: 647e 263e 3c35 903d bc46 8ebd 9e70 493e
00000340: 7c84 ccbd 25dc 63be d129 c13d f151 733a
00000350: c143 e63d 22f8 7d3c 7021 0a3e 5f7a 183e
00000360: 7e47 1e3e 7642 0d3b fedd 96bd 7e5e 453e
00000370: 6be1 4a3e adad 7abe 9a9e 083b 9f5c 963d
00000380: b057 edbd 8304 0fbe 06eb 3f3e 04cc 8e3d
00000390: a9f1 163d d607 073e 1da4 3f3b 9cd5 95bc
000003a0: 6fea 123e f9ee 87be af2d a83d 5d42 813d
000003b0: 083c 8dbd 18ef bf3d 85fa 343d 58dd af3d
000003c0: af9c 83bd 6a3f dc3d bb9d d43d 02e5 ecbd
000003d0: 067b 3e3e fe21 57bd 5cf9 153e 9d63 21bd
000003e0: a7c7 13be 71cc 5d3c ee3a b83c aa73 133e
000003f0: 2cb3 ed3d 5e9f 0b3b 4d18 c83d 5ed0 3f3e
0.07069625 0.071571454 -0.08102569 0.01938683 0.022538645 -0.07468207 0.010852779 -0.07390881
-0.08251861 0.079082 0.043596912 0.007318119 0.1305421 0.003932809 -0.042306304 -0.009506557
0.023123318 -0.034034807 -0.063899174 0.19659367 -0.122704335 0.03184117 0.0375269 -0.03958854
0.051986095 0.028654087 -0.025029002 -0.058007028 0.059256855 -0.051384944 0.032234054 0.0005257069
0.045255005 0.02133179 -0.039060526 0.06415331 0.0098026525 0.017889937 -0.028332382 0.03314815
-0.018218113 -0.097832836 0.060696613 -0.060965613 0.037880216 0.077107005 -0.15101688 0.05800851
0.01970899 -0.13073061 -0.059936523 0.025945537 0.016884707 -0.0057258466 0.028950758 0.005437349
0.08268957 0.022478608 -0.07400546 -0.020789782 -0.10461873 0.17720263 -0.21219364 0.04585777
0.08613447 -0.019268347 -0.08587664 0.1329125 0.031996004 -0.08788059 0.2153356 -0.009147483
-0.06415925 0.014533641 0.045849696 0.00028494527 -0.0627106 -0.04927175 -0.032245517 0.04722826
0.012747106 0.0051083476 2.3792509e-05 -0.05192621 0.038579684 0.10961556 0.034851544 0.07527212
-0.0503476 0.12407308 -0.08022891 0.06417982 -0.021197204 -0.008244992 -0.019944316 -0.0010368146
0.17891029 -0.07038215 -0.011872486 -0.05688752 0.1245638 0.047686186 -0.042900663 -0.10163474
0.07198242 0.056464307 0.092421904 -0.031705096 -0.19412194 -0.07180518 -0.06443107 -0.050253678
0.019908909 -0.05125909 -0.03597412 0.007314728 -0.020288097 -0.04617769 0.14116289 0.062376775
-0.014106407 0.04466004 -0.15997511 -0.016970333 -0.1946649 0.07304663 -0.05539027 0.05615425
-0.15217225 0.006675114 -0.031072427 -0.057264995 0.0981529 0.12767647 0.2129983 0.050242275
-0.05664855 0.18374 0.10684834 -0.050575513 0.079569265 -0.04254797 0.04813602 0.091516495
-0.035560448 -0.097296126 0.043123946 -0.034369033 -0.022081614 0.055058338 0.08125041 0.06892847
0.0636301 0.05799574 0.21102436 0.04776644 0.017821312 0.03239178 0.17568675 0.10893474
0.08514966 0.16442195 0.2029604 0.0847969 -0.007620281 0.18845823 0.08993717 0.084185004
-0.046924014 0.09328424 0.19990957 0.14208014 0.19545047 0.14636812 0.11550708 0.17443883
0.08866765 -0.116759144 0.14532077 0.098092794 0.0031466912 0.1285951 0.19576962 -0.04569541
-0.002780757 0.090229794 0.065117516 0.1979516 -0.069366395 0.0378452 0.06760298 0.1884507
0.15826961 0.06212628 0.066423126 -0.108990826 0.14811963 0.03913134 -0.11147749 0.04106418
0.12599826 0.20844084 0.15374048 0.13653904 0.16259152 0.07041404 -0.06947085 0.19671866
-0.09986207 -0.22251947 0.09431804 0.00092819246 0.11243392 0.015501054 0.13489318 0.14890431
0.1545696 0.0021554506 -0.073665604 0.19274327 0.19812553 -0.24480315 0.0020846487 0.07341885
-0.11588991 -0.13966565 0.18741998 0.06972507 0.03685156 0.13186583 0.0029242106 -0.018290333
0.14347242 -0.2654951 0.082118385 0.06311486 -0.06896216 0.093717754 0.044184227 0.0858714
-0.064263694 0.10754283 0.10381647 -0.11567117 0.18601617 -0.05252265 0.14645904 -0.03940164
-0.1443163 0.013537512 0.022489037 0.14399591 0.1160644 0.0021304707 0.0977026 0.1873183

rnn.gru.weight_hh_l0 f4 [384, 128]
00000000: 2188 c7bd 0244 8cbd 62db aebc 4b20 863d
00000010: ee5b 123c e19e 713c 0a76 763d 2e4b df3c
00000020: cd18 64bd e765 b6bc a41c 503d b27f 973d
00000030: b77e 493d c09a 09bd dac2 ab3c f90e 1c3d
00000040: a2d4 ad3c a7a6 563d a6ce b4bc 0f0d 8ebc
00000050: 4d6c c9bc f704 ea3c 8105 353c bed9 2a3d
00000060: 13df d3bd 2307 16bd 3cea 313e e1aa d83d
00000070: b985 e4bc ba3e 173d 932e 17be 0d02 fe3d
00000080: 6adb 893d c996 503d 1402 433d 17f7 463d
00000090: cec5 fdbd 55a7 dc3d c42c 2e3d da31 e9bc
000000a0: 30d6 83bd 0ae4 dcbc 5554 c13d 1ff5 bb3d
000000b0: 84f1 37be 6e15 2a3d 6373 e2bd ef39 d0bd
000000c0: 5188 273b 5e56 ad3d f32f d1bd 6e74 1d3d
000000d0: b086 e0bc dae2 103e c3c3 6bbd 71eb c73b
000000e0: fe58 8abd d091 2fbd e3b4 d7bd d563 003d
000000f0: 0d61 27bd d97e fabd 6ae5 153d 758e d9bd
00000100: c7be 0ebe 8abc 4bbd b870 763d caf9 98bd
00000110: bd59 c93d 900c a93d 4f08 b13d f0ef f3bd
00000120: d674 94bd b901 853d 4b34 a33d 5609 abbd
00000130: 5646 d4bc 8152 d43d c1f9 3cbd fca8 e63d
00000140: f7f5 303e a322 aebd c7d3 14bd 4776 f23b
00000150: 18f4 c43d b3f9 d8bc 176a 3d3e 3521 07be
00000160: 5850 563d 1fc5 ebbd 24dc a7bc 11e2 25be
00000170: d35b cc3d edb2 e53c c7e4 0b3c ce17 c33c
00000180: 8766 ad3d 6ac1 9b3c 0f2d 873d 7b19 c83d
00000190: f091 47bd 90e4 893d 156c 9abd b703 dbbc
000001a0: 0690 a2bd 4d4a 353e 36a4 443d cbe0 65bd
000001b0: ed40 4fbd 90b8 fd3d c440 00bd 190f 433c
000001c0: 8099 263c deda 93bd 3a11 d2bd 7363 9cbd
000001d0: 70b6 9fbc 0e6e a43d bb2c d7bc 4179 ef3b
000001e0: eb0f cb3d c66b a5ba b640 40be 2dca 41bd
000001f0: b172 dd3d 66d5 11be 7fdd c7bd 7551 51bd
00000200: 8043 06bd 0231 06be fa7d b23c af4b a8bd
00000210: 9808 d8bd 313d 25be 82f3 acbd 69db e23d
00000220: a50e 823d e1d2 8e3c 8fd4 fbbd 1db6 fb3c
00000230: eaae c43c 56a1 a53d 3f0f 26bd 601d b13d
00000240: 7e44 1ebc 81ee ca3d 9148 133e 7883 37be
00000250: 6665 0c3e 0230 1abe 3c34 393d 4338 1cbe
00000260: ce79 753d 67cf 273d 7641 bcba 6357 9c3d
00000270: 9cb8 1c3d ccf8 16bd 400a 003e 11b2 b43d
00000280: de4a 1ebe 6809 1bbd da35 2f3d c411 463e
00000290: 9315 213d f0ad 19bd 1b8e 863c eb7d 60bd
000002a0: 408c 39be db7a 61be 7ecb 84bd b227 9bbe
000002b0: f848 593d de19 ecbd 0bff 25bd 3c98 873d
000002c0: 84d8 0f3e b010 27be 7376 da3d d2bb e9bd
000002d0: 0c8d 18bc eecc 673d 1633 ed3c a8e4 dabd
000002e0: 5b8a f13b 6076 ba3d a196 61bc bbba a2bc
000002f0: c62b 8d3d 232c 953c ce66 79bd 6eac ca3d
00000300: 14a1 b93d 0f9b 373e 8b1a ac3c ca4a 0b3d
00000310: 1f19 43bd 4959 3b3d ae7f e5bd 7764 6d3c
00000320: f115 f9bd a8e5 4e3e ac87 953c 7a38 84bc
00000330: cc3c 2abd dd10 933c 0966 2cbd fa37 ce3b
00000340: 513c ae3b 5277 e8bc a2ec 80bd ac90 e2bc
00000350: 3f92 8abd ed60 913d 179b 94bc 1622 28be
00000360: 8cdc 3a3c 211c 11be 51ba 813d f7aa e43c
00000370: 8d58 81bd 2a03 d83d 3bd4 fd3c fea3 223d
00000380: 967b 5dbc 1051 14be a9b6 0d3e 7e53 e33c
00000390: 1ebc 1bbd bee6 c3bd 27f9 52bd e675 7cbd
000003a0: e862 143d eff4 d93d 9545 1bbd 2b18 da3d
000003b0: 7b78 01bd a817 063d c413 233e 1b47 043e
000003c0: f9ee f4bb 7df9 03be f18c 7bbd a9a4 2b3d
000003d0: fa6d 02bc 5a39 1c3e 056a bc3c 8066 83bd
000003e0: d50f 673d d5a2 db3d 2c90 303d 98be d3bc
000003f0: 5977 07be 3d26 02be 8c80 df3c 0fbb 113e
-0.097427614 -0.06848909 -0.021344844 0.06549128 0.008933051 0.014747352 0.060171165 0.027257528
-0.055687714 -0.022265388 0.050808564 0.07397403 0.04919311 -0.033594847 0.020966936 0.038100217
0.021219555 0.052405026 -0.022071194 -0.017340211 -0.024587775 0.02856682 0.0110486755 0.04171156
-0.103452824 -0.0366279 0.1737451 0.105794676 -0.027895795 0.036925055 -0.1476386 0.12402735
0.06731303 0.05092505 0.047609404 0.048575487 -0.12391244 0.107741036 0.04252316 -0.028466154
-0.064373374 -0.026964206 0.09439913 0.091776125 -0.17963225 0.041524343 -0.110571645 -0.101673
0.0025563429 0.08463739 -0.10214224 0.038441114 -0.027407974 0.14149037 -0.05755974 0.006101065
-0.06755255 -0.042863667 -0.10532548 0.031345207 -0.04086404 -0.122312255 0.03659574 -0.10622875
-0.13939963 -0.04974035 0.06016609 -0.074695185 0.09831569 0.08254349 0.08644163 -0.11910999
-0.07248847 0.06494469 0.079689585 -0.0835139 -0.025912445 0.10367299 -0.04613662 0.112627
0.17281328 -0.085027 -0.03633478 0.0073993537 0.0961687 -0.026486253 0.18497501 -0.13196261
0.052322716 -0.11512207 -0.020490713 -0.16199519 0.099784516 0.02803942 0.0085384315 0.023815062
0.08466821 0.019013125 0.06600391 0.09770485 -0.04872316 0.06733048 -0.07540146 -0.02673517
-0.079376265 0.17704125 0.048008166 -0.056122582 -0.050599027 0.12388718 -0.031311765 0.011905455
0.010168433 -0.0721948 -0.10257192 -0.07636156 -0.019496173 0.08028804 -0.026266446 0.0073081558
0.099151455 -0.001262062 -0.18774685 -0.04731195 0.10812891 -0.14241561 -0.09759044 -0.051103074
-0.032779217 -0.13104632 0.021788586 -0.082175605 -0.10548514 -0.16136624 -0.08444883 0.110770054
0.063504495 0.01743454 -0.12296402 0.030726487 0.024009187 0.08087413 -0.040541884 0.08648181
-0.0096598845 0.09908772 0.1438315 -0.17921245 0.13710555 -0.15057376 0.04521583 -0.15255837
0.059930615 0.04096928 -0.0014362771 0.07633855 0.038261995 -0.036858365 0.1250391 0.08823026
-0.15458247 -0.037850767 0.042775966 0.19342715 0.039327215 -0.037519395 0.016425183 -0.054807585
-0.18119907 -0.22019522 -0.064841256 -0.30303723 0.053048104 -0.11528371 -0.04052643 0.06620833
0.14047438 -0.1631496 0.10667124 -0.11412777 -0.009310972 0.05659192 0.028955024 -0.10688144
0.0073712296 0.091046095 -0.013768823 -0.01986443 0.06893115 0.018209523 -0.060889058 0.098961696
0.09063926 0.17930244 0.02100875 0.03400687 -0.04763138 0.045739446 -0.112059936 0.014489285
-0.12162388 0.20204794 0.01825317 -0.016140211 -0.041561887 0.017952377 -0.042089496 0.006293294
0.005317249 -0.028377209 -0.06295134 -0.027656876 -0.067661755 0.07098565 -0.018140359 -0.16419253
0.011405122 -0.14170887 0.06334365 0.027913554 -0.06315718 0.105474785 0.030984988 0.039707176
-0.013518235 -0.14484048 0.1383921 0.027749773 -0.0380212 -0.09565495 -0.05150714 -0.061635874
0.036227137 0.106424205 -0.037908155 0.10649141 -0.03160904 0.032737404 0.15925509 0.1291775
-0.007474777 -0.12888141 -0.06141371 0.04190508 -0.007960791 0.15256253 0.022999773 -0.06416035
0.056411583 0.10724417 0.043106243 -0.025847718 -0.13229121 -0.12709899 0.027282976 0.14231513

rnn.gru.bias_ih_l0 f4 [384]
00000000: ed59 e13c 2c92 41be 3a43 c43c 837e db3b
00000010: 4624 d2bd 6ac4 b9bd 8b69 dc3d 1c6a 913d
00000020: 6cdc 0a3d 6311 08bd 6a52 e9bc 6ea6 cd3d
00000030: c3d5 dabb a247 a3bd 6627 4dbd 3bf1 06be
00000040: 028d 643d cf55 87bd 54f7 e6bd 5208 09bd
00000050: 44fe d1bd 82bc 5cbd bdab ea3b d51f fe3c
00000060: 0ee5 4d3e 8a42 833c c3e3 5fbd 22f8 b0bd
00000070: 2d12 323d a766 a83d e9c8 a03d 7a46 33bc
00000080: 5184 43bc be44 16bd 3205 ac3d 060e 36bd
00000090: dbef a6bc 15ba 703d 785e 9ebd 7fe7 12bd
000000a0: 30ee 603d e657 1a3d 8ad2 023b 4d75 993d
000000b0: be8e f6bd 59fd 67bc 973c c73c 7265 45bc
000000c0: d8e2 a3bd 7f43 4dbc 3fcd 0a3e ba5a 19be
000000d0: e1ad d2bc 3194 c63d 7d2a 55bc 0c53 61bd
000000e0: 2728 9bbd 4a46 d43d 21b0 fb3d d9d0 f43d
000000f0: b9f7 90bd 5e0d b4bd a160 03be e0d3 963c
00000100: 1b99 483d d5eb 7fbb ef39 19bc aa01 cd3d
00000110: 19e9 cebd 26c8 dc3d e1a1 733d 8c51 933c
00000120: c528 483d 00be d23d 5808 c33d 02f8 f53d
00000130: 0c8f 053d 5e23 a13d cd37 253d c73f efbb
00000140: b36c 7b3d 26d1 123e d35e 2e3e f5e5 a03d
00000150: 677d 85bc a9c5 ee3d d52a 4e3d 0bf8 2abe
00000160: 65bd 3a3d 28a8 e83c 77a4 25be 1bd9 983d
00000170: 205e e13d fddb db3d 5789 203e 4380 ba3d
00000180: d75a dabd af9e 84bd 0d92 013d 1967 a83d
00000190: 3e94 dd3d 1c9d 873d a46c d4bd 2264 093d
000001a0: 0af9 b33d f68f 153e 29d2 d13c 2a7c 833d
000001b0: c010 02bd cf0a bcbc 7534 213d b095 713d
000001c0: a1a3 cbba 59ff b03d e833 24bc 2ac5 503e
000001d0: f421 153e 4fd6 853d 19e1 6d3d 6e61 cf3d
000001e0: 56ff 17be b6f4 0cbd 6071 65bd f19e a1ba
000001f0: 0b49 ea3d ce49 433d 7bd2 743d 315b e6bd
00000200: 3413 bcbd 9f0c d53d 2374 0a3e 0870 8f3e
00000210: 76fa 473c 2448 e63d 5b4e 1a3d c8cf 543e
00000220: dda2 7f3d c077 24be 38aa ac3d 6655 303e
00000230: 1c41 ef3d 95b2 533e 9a52 433e 9d5b 043e
00000240: 78e7 143e a126 213e 6b00 e63c 6f65 b5bd
00000250: bdc3 3f3d a53e 693e 6b24 57be 67d7 773e
00000260: f609 55bd 99d1 b33d b3e5 063d 95a7 073e
00000270: 3a59 53bd 8fa0 44bc 6350 063d 5633 0e3e
00000280: 47d7 67bd 7ea3 1e3e 9b3b 383e 9479 97bd
00000290: 4d6a 9d3d 82cf a93e 344b 523d d911 103e
000002a0: 0515 ee3d 1bac 19be f9f9 8e3d fb65 683d
000002b0: f7e1 cd3d 1569 2d3e 5bb0 593e 38dc dc3d
000002c0: 4d74 fc3c 0e6c 893e ac4c 1d3b 180d c4bc
000002d0: b93c 713e bf8a ac3a a093 7a3e de6c ec3d
000002e0: eff5 6e3e a751 8e3e 7764 453e c624 803c
000002f0: d018 803e 8cc1 68bb d8cb 403e a54f f9bb
00000300: 1a32 173e 3e30 3c3e 7e0e 553e 6301 aebe
00000310: 517f ae3d c1e0 503e 99fa 4a3e 762c b23b
00000320: 7bfc 40bb f665 053e e9ed 833d b28b 8d3e
00000330: 6337 543e 5d60 1a3e f67c 463e a66b 37be
00000340: 6db7 303e e8d4 d2bb 34bc 223e 51f5 443e
00000350: 815b e83d 8ace f23d 257c 883c dc18 c83d
00000360: cfb2 a23d ac60 223b 6df5 383e 9453 76bd
00000370: c28d 473e b5ca 7b3d a94b 88bd 7d0d 223e
00000380: 8312 5dbd 8562 033e f5cd 913d 43d2 8c3b
00000390: 41bc 153e 27c6 00bd 5ce3 423c 35d0 113e
000003a0: e58b 363e 189b e83c f032 613e cd5f 533e
000003b0: aae9 853d 9100 c9bc 92e0 f33d 3acd 0bbd
000003c0: 2924 253e 543f d23d 3c22 a93d ee6c 183e
000003d0: 4e88 94bc 829c 9b3d 6021 373e ddfa 093e
000003e0: 8f3a cb3d d0b4 aa3d 7b5f 4d3d 4fbf 523e
000003f0: 15a1 74bd 66ed 00bb 9a42 c03d 1a3a a13d
0.0275087 -0.18903416 0.023957837 0.006698431 -0.10260825 -0.09070666 0.10762318 0.07100317
0.033901617 -0.033219706 -0.02848168 0.100415096 -0.0066783144 -0.07972647 -0.0500864 -0.1317796
0.055798538 -0.066081636 -0.11277643 -0.0334552 -0.102535754 -0.053890713 0.007161586 0.031021038
0.20106909 0.01602294 -0.05466057 -0.086410776 0.043474365 0.082227044 0.078508206 -0.010942096
-0.011933402 -0.03668665 0.083994284 -0.044446968 -0.020378044 0.05877121 -0.07732862 -0.035865303
0.054914653 0.037681483 0.0019961917 0.074930765 -0.12038945 -0.014159524 0.024320884 -0.012048112
-0.080022514 -0.012528299 0.13554858 -0.14976016 -0.025717678 0.09696234 -0.013010618 -0.05501084
-0.07576018 0.10364969 0.12289453 0.11953897 -0.07078499 -0.08791612 -0.1282983 0.018411577
0.048974138 -0.003905048 -0.009352191 0.10010083 -0.101030536 0.10780363 0.05948055 0.01798322
0.048867006 0.10290146 0.09523076 0.12010194 0.032607123 0.07868074 0.04033642 -0.007301304
0.06138296 0.14337596 0.1702836 0.07856361 -0.016295148 0.116587944 0.050333817 -0.16696183
0.045590777 0.028400496 -0.1617602 0.074632846 0.11004281 0.10735319 0.15677391 0.09106495
-0.106618576 -0.06475579 0.031633426 0.08222789 0.108192906 0.06621763 -0.10372284 0.03354276
0.08787735 0.14605698 0.025612907 0.06420167 -0.031754255 -0.022954373 0.039356668 0.058980644
-0.0015536436 0.08642454 -0.010022141 0.20387712 0.14563733 0.06535017 0.058075998 0.10126005
-0.14843497 -0.034413062 -0.056016326 -0.0012330693 0.11439713 0.047677808 0.059771042 -0.11247862
-0.0918335 0.10402798 0.13520865 0.2801516 0.012205711 0.112442285 0.03767238 0.20782387
0.062411178 -0.16061306 0.08430904 0.17220077 0.116823405 0.20673592 0.19074479 0.12925573
0.14541423 0.15737392 0.028076371 -0.088572375 0.04681753 0.22777803 -0.21009986 0.24203263
-0.052011453 0.08780212 0.032933902 0.13247521 -0.051598765 -0.012001171 0.032791506 0.1388677
-0.05660179 0.15492055 0.17991488 -0.07396236 0.07686291 0.33166128 0.05134125 0.14069308
0.11625103 -0.1500706 0.06981272 0.05673788 0.10052865 0.16934617 0.2125868 0.10784191
0.030817175 0.26840252 0.0024001999 -0.023932025 0.2355832 0.0013163908 0.24470377 0.11544202
0.23336004 0.2779667 0.19276606 0.015642535 0.2501893 -0.0035515754 0.1882776 -0.0076083713
0.14765206 0.18377778 0.2080631 -0.33985433 0.085203774 0.20398237 0.19822158 0.005437429
-0.0029447365 0.13027176 0.06441862 0.27645642 0.20724253 0.15075822 0.19383606 -0.17912158
0.17257471 -0.006434072 0.15892106 0.19234206 0.11345578 0.118558004 0.01666076 0.097703665
0.07944261 0.002477686 0.18062373 -0.0601383 0.1948767 0.061472613 -0.06655056 0.15825458
-0.053972732 0.12830551 0.07119361 0.004297526 0.14622594 -0.031438973 0.011895027 0.14239581
0.17826803 0.028394267 0.21992087 0.20642014 0.065387085 -0.024536403 0.11908068 -0.034131266
0.16127075 0.10265985 0.08258483 0.14885303 -0.018131401 0.07598211 0.17883825 0.13474603
0.099232785 0.083352685 0.050139885 0.20580791 -0.059723932 -0.001967275 0.09387703 0.0787241
