scripts/results/MAPPOTraining2v1/2v1/NoWeapon/MAPPOTraining/mappo/v1_2v1_mappo_training/wandb/offline-run-20250807_165042-zjjd28i2/files/actor_episode_5500.pt (torch, 700146 bytes, 30 tensors)

base.mlp.fc.0.weight f4 [128, 21]
000000 d4 23 d6 ba fd bd ef 3d e5 e9 37 be 08 73 24 be
       -0.0016337582 0.11706159 -0.17960317 -0.16059506
000010 23 21 ac bd 3e af 6f 3d e8 ac 8d bb db 2c 31 3e
       -0.08404758 0.058516733 -0.0043235905 0.17302267
000020 7a a4 9e bc 21 84 6c 3d e7 0f 87 bd b5 b1 2f bd
       -0.019365538 0.057743195 -0.0659483 -0.042894084
000030 3e 7a 55 be 86 fd 13 be 0b 3a b8 bd f3 70 04 3c
       -0.20847413 -0.1445218 -0.08995446 0.00808357
000040 ea ad b0 3d 03 14 06 3e 4a 7d 17 be e1 9c c2 bd
       0.086269215 0.13093571 -0.14793888 -0.095025785
000050 51 53 a2 3d 14 a1 17 3e 9c cd be bc 09 10 4a 3e
       0.079260476 0.1480754 -0.023291402 0.1973268
000060 74 f6 0c bd 94 cb 62 bd f2 bd 41 3e 3f 79 4f be
       -0.034414724 -0.05536993 0.18920115 -0.20261095
000070 51 78 34 be 7c f0 2f bd c2 35 57 bd ce 24 c8 3e
       -0.17624022 -0.042953953 -0.0525415 0.3909058
000080 4a 24 0c be c4 49 ae bd 03 64 0f be ff fe 6b be
       -0.13685718 -0.085101634 -0.14002995 -0.23046492
000090 8e ae 05 be db 6f ba 3e e8 2b c7 3d 8a 7e 06 3e
       -0.13054869 0.36413464 0.09725171 0.13134208
0000a0 5f 49 5d 3c b0 1c 01 be fe 43 9b 3c 49 36 5a be
       0.013506263 -0.126086 0.01895332 -0.2130977
0000b0 07 e1 31 be 88 7b 02 be f9 ec e9 3d eb 65 ec 3d
       -0.17370997 -0.12742436 0.11422152 0.11542877
0000c0 dc f9 e4 bd d3 f2 67 3a 20 93 18 3e ae 36 65 3e
       -0.111804694 0.00088481343 0.14899874 0.2238414
0000d0 e9 ac 9f 3d 12 41 5a 3c 01 1b 06 3e 8c 71 15 be
       0.07796652 0.013321178 0.13096239 -0.14594096
0000e0 1f 2c ff 3c 43 b0 3d be b1 4d 13 be bc 3c 04 be
       0.031148968 -0.1852427 -0.14385106 -0.12913793
0000f0 94 14 ab 3d a5 61 93 3d 89 e1 e9 bd ad 81 63 3c
       0.08353534 0.071963586 -0.114199705 0.013885898
000100 74 a5 30 3d 07 ee 02 be 9b ea 82 bd 91 36 d7 3c
       0.04312654 -0.12786113 -0.06392404 0.026271136
000110 00 93 b2 3d ce 5d 0f 3e 23 e0 35 be e8 61 02 3e
       0.08719444 0.14000627 -0.17761283 0.12732661
000120 02 7f 9c bd cd 95 96 3e 9d 35 e8 3d 58 15 dd 3d
       -0.07641412 0.29411164 0.11338351 0.107950866
000130 ca 90 0d bd 40 58 4b be b7 2c b5 bc c4 3c b4 3d
       -0.03456191 -0.19857883 -0.022116048 0.088006526
000140 5d 7e 8e be 05 d1 e5 3d 64 08 ba 3d 8c d7 0c be
       -0.27830783 0.11221508 0.09083632 -0.137541
000150 06 ed bf 3c 42 28 85 bd 20 c4 95 bd 1d 66 05 be
       0.023428451 -0.06501819 -0.073127985 -0.13027234
000160 dc 96 63 3d d9 aa 16 be 10 da 54 3d 6c ab 1a 3e
       0.055563793 -0.1471361 0.051965773 0.15104455
000170 b7 c3 98 3d 30 d1 f2 3d 88 fb 96 be 15 60 2e be
       0.07459205 0.118563056 -0.29488778 -0.1702884
000180 a0 82 a5 3d 60 16 39 3c 0c 85 16 be e5 ae c7 bd
       0.08081555 0.0112968385 -0.14699191 -0.09750155
000190 95 e7 31 3e 8a a9 ef 3d 0d 5d 02 be f5 19 a9 bd
       0.17373498 0.11702259 -0.12730809 -0.08256904
0001a0 07 51 34 be 75 86 80 bb 5e 46 28 be 15 5d 2c be
       -0.17609034 -0.0039222785 -0.16433093 -0.16832383
0001b0 23 ff 44 bc e6 33 06 3d f6 05 b7 bd e0 97 04 3e
       -0.01202372 0.032764338 -0.08936684 0.1294856
0001c0 2f fb 07 be aa c1 4a 3e 3f 22 19 3e 97 6f 3c be
       -0.13279413 0.1980044 0.1495447 -0.18401943
0001d0 39 75 5e bd 7b 53 21 3c cd 68 02 3d c1 fd 53 3d
       -0.05431101 0.009846563 0.031838227 0.05175567
0001e0 56 61 af 3d f4 28 56 3c 74 0f da bd 17 79 d3 3d
       0.08563487 0.013071287 -0.10647479 0.103258304
0001f0 5d 59 56 be 7f 71 04 be fd bf 5f bd 2a b2 d9 bd
       -0.20932527 -0.1293392 -0.054626454 -0.10629685
000200 18 58 9c bd 0f 26 37 be 11 21 3e bd 55 0f 3f 3d
       -0.0763399 -0.17885612 -0.046418253 0.04664548
000210 c8 92 11 be 2f 7b 37 bc e6 f5 1f 3e 1b c5 b7 bc
       -0.14216149 -0.011198803 0.15621147 -0.022432854
000220 e2 ba c6 3b c3 37 9a bc 83 e4 34 3d e3 14 0e 3e
       0.0060647586 -0.018825417 0.04416324 0.13875155
000230 c2 aa 53 3e 10 e8 0d 3e bd 26 54 3e 00 49 81 bc
       0.20670608 0.13858056 0.20717902 -0.01578188
000240 0b bc 48 be b6 de d3 bd da 26 18 3e e2 69 b9 ba
       -0.19602983 -0.10345213 0.1485857 -0.0014145935
000250 96 22 de bd 7e 3c 2b be f6 1e 51 be 14 99 3c be
       -0.108464405 -0.16722295 -0.20421967 -0.1841777
000260 b6 4c 35 bd 98 16 f5 3d 37 9e f1 3d db 81 57 be
       -0.04426261 0.119672 0.11797755 -0.2104563
000270 26 63 0b 3e 12 db 2e be 7d f6 3c bd ba 35 b5 bd
       0.13612041 -0.17075756 -0.046133507 -0.08848138
000280 da 29 2c bd c1 7e 2f bd 77 84 48 be 8b f0 40 be
       -0.0420321 -0.04284549 -0.19581781 -0.1884176
000290 54 dd 0b bd dd f1 38 3b 26 05 cb bd ca 59 a8 3d
       -0.03414662 0.0028220334 -0.09913091 0.08220251
0002a0 28 c0 89 be 7c c2 22 bd e2 4e 60 3e 87 81 e6 bd
       -0.26904416 -0.039736256 0.21905091 -0.11255174
0002b0 4f 27 1f 3e 4c 45 d5 3c 96 75 65 be 20 b5 2b 3e
       0.15542339 0.02603402 -0.22408137 0.16768312
0002c0 78 21 00 3e 92 63 6a bd 9d be 90 3e 6f 6f 48 be
       0.12512767 -0.057223864 0.28270426 -0.19573759
0002d0 7c 10 58 3c c1 cb 77 bd 13 84 2a 3e 7f a7 69 3d
       0.013187524 -0.06049705 0.16651945 0.057044502
0002e0 06 c3 4e 3e 99 7f 70 3d 9a 3e 56 bd 59 04 a2 bd
       0.20191583 0.058715437 -0.052305795 -0.079109855
0002f0 c7 d5 2d be 91 b2 c4 3d a7 19 51 3e c4 bd 46 3e
       -0.16976081 0.09604371 0.20419942 0.19408327
000300 9c ee 0d be 98 00 35 bd 3a ce 21 be 2f d7 da bd
       -0.13860554 -0.04419002 -0.15801325 -0.10685574
000310 f4 97 46 be be 6e b9 3d 81 a7 21 be 7e 35 71 3e
       -0.19393903 0.090543255 -0.15786554 0.23555562
000320 8d 4f e8 3c 94 9e 26 3e 4b 4c 0c be 98 be 37 be
       0.028358245 0.1627143 -0.13700978 -0.179438
000330 49 c4 1f be 1f d3 aa 3e 63 bd 84 bd 86 eb 63 3e
       -0.1560222 0.33364198 -0.06481435 0.22257814
000340 8a 76 be 3d 15 ad d4 3a 8c 0a a9 bd b5 83 89 bd
       0.09299953 0.0016225899 -0.08253965 -0.06714574
000350 8a ca 03 3d 6a 65 a5 bd b8 21 a5 3c 55 8c 70 bd
       0.03217558 -0.08075984 0.02015768 -0.05872758
000360 c3 e9 59 be c8 71 44 be 9b fc 60 3e d3 42 53 be
       -0.2128058 -0.19184029 0.21971361 -0.2063096
000370 7b 63 0c 3d 09 4c 46 3e 97 78 79 3d 79 a3 cb bc
       0.03427456 0.19364943 0.06090602 -0.024858223
000380 f7 36 42 be d6 2a 1f 3d 71 23 8f 3a 66 ed c2 bd
       -0.1896628 0.03885921 0.0010920597 -0.095179364
000390 da f4 a2 bd 19 49 96 bd 96 27 f3 3c d5 2b 05 3e
       -0.07956858 -0.07338161 0.029681962 0.13005002
0003a0 82 0f 29 3d 7c 1e 69 3e 47 84 02 3e 3b 2d 44 be
       0.041274555 0.22765535 0.12745772 -0.19157879
0003b0 e9 cd 80 3d 68 31 29 be cc ae 03 be fb 87 c1 3d
       0.06289274 -0.16522753 -0.12859648 0.09449764
0003c0 2b c0 2b 3d c0 c1 be 3e 1c 35 92 bd 85 85 95 3b
       0.041931313 0.37257195 -0.07139036 0.004563036
0003d0 1c bb ed 3d c3 6c 75 be dd d3 a7 3d b8 f6 6b 3c
       0.11607954 -0.2396727 0.081947066 0.014402084
0003e0 a7 f2 a7 bb 82 da a8 bc 15 83 01 be 76 45 cd 3c
       -0.005125362 -0.020612005 -0.1264766 0.025057536
0003f0 10 bc 4a 3e 2f 53 70 bd 01 3c 31 be 17 c8 d4 bd
       0.19798303 -0.05867308 -0.17308046 -0.103897266

base.mlp.fc.0.bias f4 [128]
000000 86 94 a6 3d eb d2 16 bd 1b 7e 49 3e d3 21 a2 bd
       0.08133797 -0.03682224 0.19677012 -0.07916608
000010 54 78 12 be 58 7c 66 3d 04 6c e8 3d 1c 4d e3 b9
       -0.14303714 0.056270927 0.11348727 -0.00043354265
000020 59 0d 35 3e 69 1a e5 bd ed 0e 87 3d 8c c9 02 3e
       0.17680873 -0.11186678 0.06594644 0.12772197
000030 ff 43 a9 3d 01 ca eb 3c d0 54 98 3c 37 14 72 be
       0.08264922 0.028782846 0.01859513 -0.23640524
000040 89 6c 6e be a6 14 3e bd 59 7f dc bd 3c 8d 0d 3e
       -0.2328359 -0.04640641 -0.10766477 0.13823408
000050 01 72 27 3e 4c f9 19 3e 2c 3f d1 bd d4 9a 29 be
       0.16352083 0.15036505 -0.10217127 -0.16562968
000060 55 68 62 be b5 44 c7 3d 24 22 52 be db 84 88 be
       -0.22110112 0.09729902 -0.20520836 -0.2666386
000070 f8 91 b5 bd bd 06 5e be 9a 65 20 be e7 ac 0c be
       -0.08865732 -0.21682258 -0.15663758 -0.13737832
000080 ca 41 07 be 9e 85 91 3e 4c 39 89 bd b9 1e 0f 3e
       -0.1320869 0.28422254 -0.06700382 0.13976564
000090 27 a7 9e 3b 1c e1 e5 bc b6 a3 7d bd 57 bb 1f be
       0.0048417035 -0.028061442 -0.061923705 -0.15598808
0000a0 d9 88 33 be 75 62 17 3e 4b a9 ae bd 3c dd 59 be
       -0.17532672 0.14783652 -0.08528384 -0.212758
0000b0 86 3a 29 3e cc a3 84 3b 4e 20 2e be 6d b7 11 be
       0.16526231 0.0040478464 -0.17004511 -0.14230128
0000c0 47 39 52 be 44 a7 43 be 56 1c 06 3e 24 12 1a 3e
       -0.20529662 -0.19106776 0.13096747 0.15045983
0000d0 19 36 92 3c ef 71 3e be c2 c7 69 bd 75 01 64 be
       0.017848061 -0.1859815 -0.05707527 -0.22266181
0000e0 b1 f8 63 3d ae 53 6d bd 26 38 58 bd a5 3d 89 bd
       0.055657092 -0.05794113 -0.052787922 -0.06701211
0000f0 c9 ba 97 3d ba fb d6 3d 06 69 84 3d ab 17 fe bc
       0.07408673 0.10497232 0.06465344 -0.031017145
000100 e5 01 7c bd 78 f4 d2 3a 4d d0 0e be 3a d6 36 3e
       -0.061525244 0.0016094586 -0.13946648 0.17855158
000110 9d be c0 bd 3e 7c e5 3d 7c 66 fd bd e4 02 c0 3a
       -0.094113566 0.11205338 -0.12373063 0.0014649299
000120 4d ad 79 3d c4 ec 33 be 66 ff cc 3d e5 0a 2b be
       0.060956288 -0.17570788 0.10009651 -0.16703375
000130 3d 6d 06 bc c1 eb 95 bd 7f be e5 3d 9f 6d 61 3e
       -0.008204755 -0.07320357 0.11217975 0.22014473
000140 f7 74 3e 3d 93 4d a6 bc 6b 9b 19 be d1 9f a6 3d
       0.046498265 -0.020300662 -0.15000694 0.08135951
000150 a4 1b d7 bd 97 9a b8 3d 87 dc cc bd 07 d4 34 3e
       -0.10503319 0.09013861 -0.10003 0.17659007
000160 57 b5 12 3e a6 64 ed 3d c1 78 1b 3b ce 8c 02 3e
       0.14326988 0.11591463 0.0023723098 0.12749025
000170 15 83 53 be 45 70 2a 3e 39 89 3d bd f8 5d 99 3d
       -0.20655473 0.1664439 -0.046273444 0.07488626
000180 c3 96 22 bd 71 f2 85 bd 2d 25 ae bd 38 22 10 3e
       -0.03969456 -0.06540383 -0.085031845 0.14075553
000190 e1 c9 d6 bd 68 f6 bf bc a4 71 e1 3d 07 72 65 bc
       -0.10487724 -0.023432925 0.11008003 -0.014004237
0001a0 34 de 17 be 1a ed 67 be 28 5c 16 be 6f 52 4b 3e
       -0.14830858 -0.22649041 -0.14683592 0.19855665
0001b0 c5 f0 24 be e6 c1 e5 3d 1d 8e 17 3e 4c 86 a6 bd
       -0.16107471 0.11218624 0.14800306 -0.08131084
0001c0 cc 5b c5 bd 00 91 38 be e0 32 48 3c c7 a7 e1 bc
       -0.096366495 -0.18024063 0.012219161 -0.027545823
0001d0 55 b4 2d 3c 4b 1e 3e 3d 5d 9e 99 3d 0f 5f 8a bd
       0.010602077 0.04641561 0.075009085 -0.06756412
0001e0 eb 8d 75 3c 2a 0d 4e 3d bf f9 4d bd fe 5c 36 bb
       0.014987449 0.050305523 -0.050287005 -0.0027826424
0001f0 36 50 5a bd 71 8d 3b 3e af 17 f6 bd 7f 8b 33 3c
       -0.05329915 0.18315674 -0.12016236 0.010958551

base.mlp.fc.2.weight f4 [128]
000000 1e 17 77 3f 7d ca 8f 3f cf c7 76 3f b8 c8 6d 3f
       0.9651965 1.123367 0.96398634 0.928844
000010 3b 31 5c 3f bd 54 6d 3f 34 0e 66 3f ab d1 64 3f
       0.8601262 0.92707425 0.8986542 0.8938243
000020 ca d5 85 3f 11 b6 8d 3f b5 33 58 3f ef d4 8a 3f
       1.0455868 1.1071187 0.844539 1.0846232
000030 61 47 74 3f ba 86 84 3f 9c fa 6b 3f fe 33 4a 3f
       0.95421416 1.0353615 0.92179275 0.78985584
000040 07 da 71 3f b3 14 5e 3f cf 79 5e 3f b2 a0 6e 3f
       0.9447331 0.86750335 0.86904615 0.9321395
000050 ae 30 81 3f 91 74 6a 3f 55 82 81 3f bb de 80 3f
       1.0092981 0.91584116 1.0117899 1.0067972
000060 94 25 68 3f 99 0b 7d 3f 04 d8 7a 3f 14 ed 6d 3f
       0.9068234 0.9884582 0.97985864 0.9293988
000070 b9 bb 7e 3f 55 49 7d 3f 09 12 5f 3f d5 80 63 3f
       0.9950519 0.9894002 0.87136894 0.8886846
000080 26 ac 75 3f 98 69 80 3f bc 97 81 3f 5a a0 5e 3f
       0.959658 1.0032225 1.0124431 0.8696343
000090 07 8d 64 3f ff bd 67 3f c6 d1 5f 3f 09 79 78 3f
       0.8927769 0.90524286 0.87429464 0.97059685
0000a0 f0 72 6c 3f 2c 76 74 3f e9 05 82 3f bb 34 4e 3f
       0.9236288 0.95492816 1.0158054 0.8054921
0000b0 bf 33 5f 3f f3 28 61 3f 9f e1 58 3f e5 02 86 3f
       0.87188333 0.8795311 0.8471927 1.0469633
0000c0 63 53 75 3f 4b 22 81 3f 1b 15 59 3f 64 c9 74 3f
       0.95830363 1.008859 0.8479783 0.956198
0000d0 fc a4 79 3f 4b d5 61 3f 1d 34 6c 3f 2e 7f 6a 3f
       0.9751737 0.88216084 0.9226702 0.9160031
0000e0 a0 7b 6f 3f d3 90 61 3f 85 2c 9e 3f f3 2a 84 3f
       0.9354801 0.8811161 1.2357336 1.0325607
0000f0 38 30 78 3f 44 bb 5c 3f 1a 8a 8a 3f 70 8f 7f 3f
       0.96948576 0.86223245 1.0823395 0.99828243
000100 ca 7a 74 3f d4 2e 8c 3f 8d d1 8d 3f 78 cc 71 3f
       0.9549986 1.0951791 1.1079575 0.9445262
000110 6a 0e 75 3f 29 6a 80 3f 28 5d 8a 3f 91 f0 60 3f
       0.9572512 1.0032398 1.0809679 0.87867075
000120 51 0d 55 3f 02 74 7c 3f 9b ae 70 3f bc 06 5e 3f
       0.83223444 0.98614514 0.94016427 0.86729026
000130 42 a6 62 3f 35 76 58 3f fe 90 83 3f 45 bd 95 3f
       0.8853494 0.8455537 1.0278623 1.1698385
000140 ed 1b 80 3f 36 34 6d 3f 72 1c 59 3f be 64 68 3f
       1.0008522 0.9265779 0.8480903 0.9077872
000150 a4 ed 6b 3f d1 47 72 3f b8 89 74 3f db dd 91 3f
       0.92159486 0.94640833 0.9552264 1.139583
000160 51 88 7e 3f 90 60 53 3f c0 91 8a 3f 77 c9 8d 3f
       0.9942675 0.8256922 1.0825729 1.1077107
000170 dc 8c 7e 3f c1 cc 61 3f 56 6c 90 3f 00 da 85 3f
       0.99433684 0.88203055 1.1283062 1.0457153
000180 cf 17 6a 3f 44 3a 97 3f f6 cb 87 3f 58 9e 75 3f
       0.9144258 1.1814656 1.0609119 0.9594474
000190 1b 7a 69 3f dc 4b 87 3f 84 42 79 3f ea 9c 77 3f
       0.91201943 1.0570025 0.9736712 0.96723807
0001a0 e7 58 88 3f 3f 5a 6b 3f af 8f 7d 3f 53 e2 88 3f
       1.0652131 0.9193458 0.9904737 1.0694069
0001b0 9d f0 81 3f af 5e 8b 3f 8a 2c 84 3f 1d 2e 81 3f
       1.0151554 1.088827 1.0326092 1.0092198
0001c0 54 8d 78 3f 48 6c 65 3f ab 78 7f 3f 02 43 5b 3f
       0.9709065 0.8961835 0.997935 0.8564912
0001d0 03 ce 77 3f 74 21 6a 3f ac a7 80 3f 00 26 80 3f
       0.96798724 0.91457295 1.0051169 1.0011597
0001e0 34 89 68 3f 76 36 66 3f 74 ac 48 3f 24 b4 77 3f
       0.90834355 0.8992685 0.7838814 0.9675925
0001f0 5b 05 66 3f 8d 74 6e 3f be 54 4d 3f f0 b9 89 3f
       0.8985192 0.9314659 0.8020743 1.0759869

base.mlp.fc.2.bias f4 [128]
000000 cf 3e 35 3d 64 73 14 3b 97 7d 24 3d 96 8d a2 bd
       0.044249352 0.0022651786 0.040158834 -0.079371616
000010 0f ca 0d 3e 02 a5 9a 3d 11 b2 e2 3d 8e e4 eb 3d
       0.1384661 0.07551004 0.1106912 0.11518203
000020 6e 13 a4 3c 89 1b 3c 3c 14 70 0e 3d 65 79 d8 3b
       0.020028796 0.011481174 0.034774855 0.006606268
000030 6f 50 40 3d a2 81 fb 39 d0 a5 93 3d a2 d3 1c 3e
       0.046951707 0.00047971035 0.072093606 0.15315107
000040 f8 8d 77 bd 2c d9 0e 3e de ee 8f bd e2 84 94 3d
       -0.060438126 0.13950032 -0.07027982 0.07251908
000050 31 f6 df 3b 41 73 a6 3d e0 d3 9c 3c 6c 11 3a bc
       0.006834768 0.08127452 0.019143999 -0.011356693
000060 84 02 b9 3d 95 42 f5 3a fd 8c fe bc 02 5e 00 bd
       0.09033683 0.001871186 -0.031073088 -0.031339653
000070 f0 9a f9 bc 66 7e 67 3c 18 ee c7 3d 1f 5e ee 3d
       -0.030469388 0.014129257 0.0976221 0.11639046
000080 98 c6 6d bc 49 68 37 3c a8 07 0e bd f3 dd f5 3d
       -0.0145126805 0.011194297 -0.03467527 0.12005224
000090 bc 82 ec 3d d0 a1 de 3d 5b e4 6b 3c d4 2d 1d 3d
       0.11548373 0.10870707 0.014397706 0.038373783
0000a0 09 44 a3 3d f0 5e 55 3d ef 08 63 bc d0 28 47 3e
       0.07971961 0.052092493 -0.01385711 0.19449162
0000b0 45 7e ef bc ba 39 fa 3d 53 92 1e 3d c9 f6 1c 3a
       -0.029235015 0.12218042 0.038713764 0.00059877016
0000c0 4f 81 3e 3d f8 a8 17 3c 6b db 9c bd 5a bc 64 3d
       0.046510037 0.009256594 -0.07659038 0.05584369
0000d0 f6 43 16 3d 09 76 05 3e 64 ee ae 3d 83 23 be 3d
       0.036685906 0.13033308 0.08541563 0.09284117
0000e0 dc b2 00 bd bc e4 03 3e 6f 74 57 3c f3 a2 bf 3b
       -0.031420574 0.12880224 0.0131503185 0.0058482825
0000f0 45 38 9a bc 68 26 91 bc f0 f8 66 3b 72 39 73 3c
       -0.01882566 -0.017718509 0.0035243593 0.014845239
000100 f0 42 32 bd 3b f9 ec bc 2e c6 a9 bc 3a d9 7f 3d
       -0.043520868 -0.028927436 -0.020724382 0.062463023
000110 ec 8a 68 3d 35 06 3c bc 7f c3 8b 3c ad 2e 0c 3e
       0.05677311 -0.011476089 0.017060993 0.1368968
000120 44 ae 2e 3e a8 4e 2e 3a 29 b0 9a 3d 71 cc 0b 3e
       0.17058665 0.0006649294 0.07553131 0.13652207
000130 f9 a5 22 bc e3 ed 49 3c 4c c0 60 bc e8 80 af bc
       -0.009927266 0.012324783 -0.013717722 -0.021423772
000140 01 ce 0c 3c 6c 08 a3 3d 90 33 29 bd 6b 43 c9 3d
       0.008594037 0.07960591 -0.04130894 0.09827312
000150 6a b0 bb 3d c7 c5 7a 3d de cf 59 3d f2 f0 73 3c
       0.09164508 0.06122377 0.053176753 0.014888989
000160 e0 5f f6 bc 83 b4 25 3e 83 26 7b 3b c5 6c 5b bc
       -0.030075014 0.16182141 0.0038322515 -0.013392632
000170 fa 40 67 3c 54 13 03 3e 4e 6c f7 3c 76 9e b1 bc
       0.014114613 0.12800342 0.03020301 -0.021682005
000180 14 41 b4 3d 28 af 87 bc d8 0c 50 3c d3 7c 33 3d
       0.08801475 -0.016563013 0.012698375 0.043820214
000190 d9 fe fd bb 64 59 a4 bb 0d 07 33 3d 90 51 1d bd
       -0.0077513275 -0.005015539 0.043707896 -0.038407862
0001a0 2a 02 7a 3c 33 a5 c1 3d 8d a2 02 bd 56 29 36 bd
       0.015259305 0.094553374 -0.0318933 -0.044473015
0001b0 ae 58 d3 bb c1 22 87 bc 75 2c 24 bd 22 8a e1 3c
       -0.0064497804 -0.016496064 -0.04008146 0.027531687
0001c0 b7 d5 13 3d c1 e2 87 3d 55 bf 58 bc 4b a7 15 3e
       0.036092486 0.06635047 -0.013229211 0.14614598
0001d0 53 d5 3d 3d 68 c6 71 bd 55 67 19 3c 69 34 7a 3c
       0.04634602 -0.059027106 0.009363015 0.015271285
0001e0 9a ac d2 3d 9b b4 d6 3d f7 d2 a4 3d 16 c6 5d bd
       0.102868274 0.104836665 0.08048051 -0.054143988
0001f0 c5 08 59 bc d1 48 cc 3c 77 7d 92 bc c4 67 a2 3c
       -0.01324672 0.024937065 -0.017882092 0.01982487

base.mlp.fc.3.weight f4 [128, 128]
000000 73 1a f9 bd 12 9d dc bb f0 6a 25 bd 49 b7 04 3d
       -0.12163248 -0.0067325914 -0.040385187 0.032401357
000010 89 00 9a bd 27 0a 73 3a 39 2e 5b bd a7 42 62 bc
       -0.07519633 0.0009271227 -0.05351088 -0.0138098365
000020 a7 54 b3 3d 2b 79 91 3d 05 5b b1 3c a7 a7 8f 3d
       0.087563805 0.07103189 0.021649847 0.07014399
000030 ad 7e b4 3c df 41 c6 bd 5a 32 1f bd c4 60 0d bc
       0.02203306 -0.09680533 -0.03886638 -0.008629028
000040 97 cd a4 3d b0 08 0c 3d 00 09 92 3d ae 79 08 bd
       0.08047026 0.034187973 0.07130623 -0.033319168
000050 67 a8 dd 3a fb b6 3a bd 28 54 45 bd ea 89 74 3d
       0.001691115 -0.04558466 -0.04817596 0.059701838
000060 97 51 3c bc ef e2 9e bc 1f 1b 11 bd 5d 2b cd 3d
       -0.011494062 -0.01939532 -0.035426255 0.100180365
000070 d1 34 6e bd 02 1b 9f bc 50 96 9a bd 1b 7c 59 3c
       -0.05815584 -0.019422058 -0.07548201 0.013274218
000080 e1 45 07 3d c0 34 8c bd 40 cd b5 bb a0 f1 e2 bc
       0.033025626 -0.06845999 -0.0055481493 -0.027703106
000090 7a 12 df bd 35 58 20 bd 8e ea c2 bc f6 9c 5b bc
       -0.10892196 -0.03914662 -0.023793485 -0.013404122
0000a0 61 67 23 bc 05 43 ce bd 4d 2c cc 3d 23 ce a6 3c
       -0.009973378 -0.10071377 0.09969387 0.020361966
0000b0 1a 43 8b bc 28 cb 64 b8 0f 03 be bd b7 7d d9 3d
       -0.01699977 -5.454864e-05 -0.09277927 0.10619681
0000c0 a4 df 95 bc 2f 88 8e bd d6 4f d9 3d 77 4a 01 be
       -0.018295117 -0.06959569 0.106109306 -0.12626062
0000d0 8d be 9b bd 42 c7 c5 bd 98 dd c6 bd 99 18 c9 bd
       -0.07604704 -0.09657146 -0.097102344 -0.09819145
0000e0 e4 61 d5 bd 71 d9 eb bc 34 f5 cd bc e4 10 1d 3d
       -0.10419062 -0.028790208 -0.025141336 0.038346186
0000f0 b3 14 9e bb 0f cf 6e bd 88 68 35 3e a8 e3 e4 bd
       -0.004824245 -0.058302935 0.17715657 -0.111762345
000100 7a 07 8f 3b f3 be af bc 61 4b 9b bc 9f e2 26 bd
       0.004364905 -0.021453356 -0.018956842 -0.040743466
000110 79 26 9d bc 50 ac 0b 3e c7 02 a3 3c 59 8e 6b 3c
       -0.019183384 0.13639951 0.019898785 0.0143772
000120 05 a1 f7 3c 6c 5c 43 bd 40 23 b1 bc 60 d6 5c 3b
       0.030228147 -0.047695562 -0.021623254 0.0033697113
000130 88 05 84 bb 52 b3 39 3e 6a 52 9e 3c e3 16 20 3d
       -0.0040289797 0.18134812 0.019326407 0.039084326
000140 94 15 22 bd 44 19 ce bd af 1a 9c 3d 36 a8 8e bc
       -0.03957136 -0.10063413 0.07622277 -0.017414194
000150 d2 9f fc 3c 1a 03 b3 bc 36 e2 9c 3b 02 91 73 3d
       0.030837927 -0.021852065 0.0047877086 0.059464462
000160 59 d1 96 3c de b1 a4 bd ba 26 ad 3d fd 67 80 bd
       0.018410372 -0.08041738 0.08454652 -0.06269834
000170 58 a1 22 bd fe a1 97 bd 9f 00 90 3c 5b 74 be bd
       -0.03970465 -0.074039444 0.017578421 -0.09299537
000180 86 27 1e 3c a2 bf e7 bd 8e 28 9b 3d d0 77 69 3c
       0.009652978 -0.11315848 0.075760946 0.014249757
000190 f6 c6 c6 bc d5 d8 ee 3c f4 e9 dc bd 18 4d b6 3a
       -0.024264794 0.029156128 -0.107868105 0.0013908474
0001a0 1d 4f bf 3d 64 36 95 bd 4d 6f e2 3d 9c e4 84 bc
       0.093412615 -0.07285765 0.11056385 -0.01622229
0001b0 da 83 8d bc 73 a0 a8 bd b3 61 58 bc 24 ad fc 3c
       -0.017274786 -0.08233728 -0.013206887 0.030844279
0001c0 70 76 bb 3c 36 0b 84 3c 73 13 31 3d 2e fb f5 bd
       0.022883624 0.016118627 0.04323144 -0.12010799
0001d0 e9 3f be 3c c3 2d 30 3d cd 16 a0 bd 7e 72 86 bd
       0.023223834 0.04301239 -0.07816849 -0.065648064
0001e0 c8 25 e7 3c c5 65 ce bb b3 b0 8c 3d c6 c8 13 3d
       0.028216258 -0.006298753 0.0686964 0.036080144
0001f0 81 4e 81 bd 95 33 12 3d 19 fa 6c 3d 02 e1 d7 3d
       -0.063138016 0.035693724 0.0578557 0.10540964
000200 3c 59 f7 3c ca a6 9d be b2 94 ff 3d 16 9a fb bc
       0.030193917 -0.30791312 0.12479533 -0.030713122
000210 f8 a3 94 3a 75 5e 79 3d 66 37 0b 3d ec 06 3e 3d
       0.001134037 0.060881097 0.03398838 0.04639332
000220 86 46 73 3d 7e fe 6f be 98 d8 39 3d 93 2d 83 bd
       0.05939343 -0.23436925 0.045372576 -0.06405177
000230 6a 80 a2 bc 3d 5e d9 bd 9a a1 d4 3d 34 9c 9d bc
       -0.019836623 -0.10613678 0.103823856 -0.019239523
000240 4a 2b 61 bc 95 1b 14 3c 5e fa 81 3d 39 8f 0d bd
       -0.013743231 0.009039779 0.06346582 -0.034560416
000250 9f 99 06 3d b7 7c d8 3d 7a f9 a3 bd 2a 1a a8 bd
       0.03286135 0.105706625 -0.08006568 -0.082081154
000260 14 01 d9 3d eb e6 94 bd ab 96 f0 bc 09 09 55 3c
       0.10595909 -0.072706066 -0.02936872 0.013002642
000270 10 08 55 be 89 7d 30 3d 66 0b 1e bb 52 2c 34 3c
       -0.20803857 0.04308847 -0.002411568 0.010996895
000280 83 ae 51 3c 5a cd f6 3b eb 16 a9 3b 73 b3 b8 3d
       0.0127979545 0.007531804 0.0051602027 0.09018602
000290 2e f3 e3 3d cf d9 cb 3d 88 8e aa 3d 39 0f e0 bc
       0.11130367 0.09953653 0.08327967 -0.027351009
0002a0 63 67 03 bd 2a 76 a3 3d cd b1 01 be a3 fb 13 bb
       -0.03208102 0.079815224 -0.12665482 -0.0022580407
0002b0 b3 a8 01 3d 4c 01 09 3e 94 25 28 bd 31 bd d6 bc
       0.031655025 0.13379401 -0.041051462 -0.02621326
0002c0 60 0b 8c 3d f6 1f 15 be a4 33 8e 3d 96 9e 84 bc
       0.06838107 -0.14562973 0.069434434 -0.0161889
0002d0 4b 8e e7 3d 1d ad 46 3c cf fc 92 3c be b5 aa bc
       0.11306437 0.012126234 0.017942814 -0.020838615
0002e0 c7 0b 06 bd 2f 90 32 3d 15 d3 20 be 0b 87 11 bd
       -0.032726076 0.043594535 -0.15705521 -0.035529178
0002f0 34 98 52 bc 16 79 3c be 99 27 31 be d2 b0 a7 3d
       -0.012853671 -0.18405566 -0.17300262 0.08188023
000300 c1 85 08 3e d5 6d a1 bc 9a db 96 3d a5 d4 42 3d
       0.13332273 -0.019705692 0.073661044 0.047566075
000310 89 f4 91 3c 3a ea 1d bc 8f c3 80 bd 38 12 02 3e
       0.017816799 -0.0096383635 -0.062873 0.12702262
000320 a7 a1 0f 3e 1c d7 9c bd c4 93 b2 3d 16 9d 11 3e
       0.14026509 -0.07658216 0.0871959 0.1422008
000330 f0 01 d4 3d 15 da bb 38 ed 22 5f bb 72 aa a7 3d
       0.10351932 8.957476e-05 -0.0034047917 0.08186807
000340 04 b6 94 3d 1e 97 c2 3b eb 94 a8 bd 58 11 6d 3c
       0.07261279 0.0059384247 -0.08231529 0.014469467
000350 cb 20 93 3d 23 32 d7 3c 87 cf c6 3d 6e a4 11 be
       0.07183989 0.026269024 0.097075514 -0.14222881
000360 b3 23 b1 3d c2 ac d2 3c 10 8d 14 be 05 9c 15 3e
       0.08649387 0.025717143 -0.14506936 0.14610298
000370 48 e8 73 3b 70 cd 9e bc 91 43 d2 3d 0f 27 d8 3d
       0.0037217308 -0.01938507 0.102667935 0.10554325
000380 58 fc a5 3c 2b fe 8d 3d 6b aa 9e bd 0e 60 b0 3c
       0.020261928 0.06933244 -0.077473484 0.021530177
000390 e9 7d 99 3c a6 09 d1 3d 19 58 e8 3d 2d 8c a3 3c
       0.018736796 0.102069184 0.11344928 0.019964302
0003a0 cd 72 51 be 0d 9d 05 bc 7c 3a f9 bc 7d 69 45 bd
       -0.2045395 -0.00815512 -0.030423395 -0.048196305
0003b0 17 f5 33 3c 08 36 57 3e d5 da 83 bb 72 79 9b 3d
       0.010983727 0.21016705 -0.0040238895 0.07591523
0003c0 64 91 a5 3d 73 62 ce 3d e7 e9 45 bd 45 39 8d 3d
       0.08084372 0.100773714 -0.04831877 0.06895689
0003d0 a9 40 fe 3d 87 94 e0 bd e8 e6 6e 3d 53 06 da 3b
       0.12414677 -0.10965829 0.058325678 0.006653586
0003e0 da 70 73 bc 0a 35 cf 3d 02 ee 3c 3d 65 7d 49 bd
       -0.014858449 0.10117538 0.04612542 -0.04919185
0003f0 61 54 83 3d f7 9c 6a 3d 1b f7 ce 3c 7e fc 7f bc
       0.064125784 0.0572786 0.025264313 -0.015624164

base.mlp.fc.3.bias f4 [128]
000000 2e dc d4 3d 09 7d 6b bc 31 54 25 3d a8 f9 01 be
       0.103935584 -0.014373072 0.040363494 -0.12692893
000010 fe df 8e 3d 68 82 10 3d cf db 68 3d f5 3d 83 bd
       0.06976317 0.035280615 0.05685025 -0.06408302
000020 36 a9 88 bc af f3 82 bd 5c 76 64 3d 2e cb cb 3d
       -0.016682249 -0.06394135 0.05577694 0.09950863
000030 4e 43 12 bd 79 28 f9 3c b4 93 10 3d 1e 0f a0 bd
       -0.035708718 0.030414807 0.03529711 -0.078153834
000040 ad d3 45 3d 35 12 f8 3c a4 e9 fb bc 8e 41 a4 bc
       0.048297573 0.03028212 -0.030751057 -0.02005079
000050 df 4c b8 3c 6d 85 08 3d e0 89 9a bd dd 72 3a 3d
       0.022497592 0.03333037 -0.07545829 0.0455197
000060 21 a7 84 3b 3a 9f ff 3c 64 c0 ce 3c a8 10 f5 3c
       0.0040482436 0.031203855 0.025238223 0.029915169
000070 f9 57 03 3e bd 5d b8 bb d1 dd 5f 3c e8 c4 92 3c
       0.12826528 -0.005626409 0.013663725 0.017916158
000080 c8 0c c6 bd 32 ea 29 3d 60 eb eb bd d0 53 a2 bd
       -0.096704066 0.04148311 -0.115195036 -0.07926142
000090 c5 97 b7 bd c6 88 b5 bd 56 d7 b5 bd 9a fe 39 3d
       -0.089644946 -0.08863978 -0.08878963 0.045408823
0000a0 6e 14 67 bc de 79 9a bd d3 b0 c7 bd d3 71 62 bd
       -0.014103992 -0.075427756 -0.097505234 -0.055284332
0000b0 e8 c3 88 bc e4 68 e8 b9 26 d7 91 bd c5 97 18 b7
       -0.016694978 -0.00044328638 -0.071211144 -9.095243e-06
0000c0 87 b8 cc bb a8 b2 a7 3d 32 a8 67 bc d1 0d 8b bd
       -0.0062475833 0.08188373 -0.014139222 -0.06789745
0000d0 97 d6 c9 3d e4 a6 77 bd 14 68 e1 bd 9c ce 61 bd
       0.09855383 -0.060461894 -0.110061795 -0.05512868
0000e0 37 82 7b 3d 87 aa 55 3b 6a d4 24 3d 2d fc 2c 3d
       0.06140348 0.0032602863 0.040241636 0.04223268
0000f0 63 78 83 bc 17 58 d6 3c 27 7f 6c 3d 6b b4 be 3b
       -0.016048616 0.026165051 0.05773845 0.0058198473
000100 ef 38 b5 bd 17 f8 fc bc 68 17 1e bb 1d 38 52 b9
       -0.0884875 -0.030880017 -0.0024122838 -0.00020048064
000110 d0 7f d7 3c 40 98 ae 3c ee d2 14 bd 3d 31 60 3d
       0.026306063 0.021312833 -0.03633397 0.054734457
000120 00 48 c7 3b 61 66 a4 bc 84 21 eb bc 15 08 96 bc
       0.006081581 -0.02006835 -0.028702505 -0.0183144
000130 13 17 32 bd 99 19 59 bd 03 13 da 3c de 64 59 bd
       -0.043479037 -0.053002927 0.026620394 -0.05307471
000140 85 9f 88 3d c3 7a 8c 3d 94 77 c7 bd 20 04 75 3d
       0.06671051 0.068593524 -0.097396046 0.059818387
000150 88 b3 7a 3c dd 63 25 bd cb 8d 09 3d 01 a2 b9 bd
       0.015301593 -0.04037844 0.03358249 -0.09064103
000160 6c 0d 8d bd d7 cc c9 bd a1 72 56 3d 79 79 76 bb
       -0.06887326 -0.09853523 0.052355412 -0.0037609024
000170 07 bb 5f bd 12 6d 20 39 da 40 54 bd cc f9 49 3d
       -0.054621723 0.00015299421 -0.05181966 0.04931049
000180 59 74 07 3d 15 5d c6 3c 1b b8 85 bc 20 aa 0a 3b
       0.033069942 0.024214307 -0.01632314 0.0021158531
000190 c0 e2 aa bc e1 ce 86 bd 53 58 fd 3d cb a6 f1 bb
       -0.020860076 -0.06582428 0.12370362 -0.0073746196
0001a0 f8 ad 96 bd b0 4b 3c 3d 20 37 f2 3b 58 57 b5 bd
       -0.07357401 0.04597062 0.0073918253 -0.0885455
0001b0 ea f1 45 3d 92 4a 37 3c 9c 4a 82 bd df fd 1d 3d
       0.04832641 0.011187213 -0.06361887 0.03857219
0001c0 c5 6c 5e 3d 7a da dd bd 6d 93 e8 bb fc 56 ee 3d
       0.05430295 -0.10832687 -0.0070976526 0.11637685
0001d0 35 43 94 bd fd 5c 96 3b 30 75 aa bd 36 17 be 3d
       -0.07239381 0.004588722 -0.08323133 0.09281771
0001e0 44 4f 7a bd 5f 9a 55 3b be 06 5d 3d cd 81 6d bc
       -0.06111075 0.0032593233 0.053961508 -0.014496279
0001f0 14 f1 31 bc 41 aa 3d bb 48 eb 2a 3c 5e 04 68 bd
       -0.0108607 -0.002894059 0.010432072 -0.05664479

base.mlp.fc.5.weight f4 [128]
000000 86 23 82 3f 4e d2 85 3f c2 20 85 3f bc 4b 77 3f
       1.0167091 1.0454805 1.0400622 0.96599936
000010 98 da 8b 3f a5 d6 86 3f 30 ee 83 3f b6 2d 87 3f
       1.0926085 1.0534254 1.0307064 1.0560825
000020 f8 5c 92 3f 4e cb 8c 3f d1 15 85 3f a5 73 84 3f
       1.1434622 1.0999544 1.0397283 1.0347792
000030 6a ad 74 3f 31 7d 72 3f 7d 7c 86 3f 22 3a 86 3f
       0.9557711 0.94722277 1.0506741 1.0486491
000040 58 dc 8c 3f ad 79 86 3f 02 16 84 3f d4 1a 8b 3f
       1.1004744 1.0505883 1.0319216 1.0867562
000050 f5 92 89 3f 0a 58 83 3f 73 9b 8e 3f 32 7a 95 3f
       1.0747973 1.0261242 1.1141189 1.1677916
000060 1b f2 62 3f 39 b2 89 3f cc 14 73 3f 3e fd 81 3f
       0.88650674 1.0757514 0.9495361 1.0155408
000070 f6 df 88 3f 18 62 8b 3f 01 40 89 3f cb bd 7c 3f
       1.0693347 1.0889311 1.0722657 0.987271
000080 11 1f 91 3f bc c7 83 3f 66 a5 6f 3f 21 c5 95 3f
       1.1337606 1.0295329 0.93611753 1.1700784
000090 88 46 92 3f 5d a1 78 3f da fb 68 3f 39 4e 8e 3f
       1.1427774 0.9712122 0.91009295 1.1117622
0000a0 95 82 8e 3f de d6 5a 3f bf d9 86 3f 12 c5 7f 3f
       1.11336 0.8548411 1.0535201 0.9991008
0000b0 2d b3 80 3f 6f 2e 5f 3f f2 aa 65 3f 33 ef 90 3f
       1.005468 0.8718023 0.89713967 1.1322998
0000c0 a3 cf 71 3f ba af 8c 3f 8e d2 85 3f cb ff 83 3f
       0.94457453 1.0991127 1.0454881 1.0312437
0000d0 37 53 8c 3f 93 1f 8a 3f 84 b3 68 3f 05 58 9a 3f
       1.0962895 1.0790886 0.9089892 1.2058111
0000e0 37 8b 8f 3f 2a 54 77 3f 47 77 7e 3f ad d6 6b 3f
       1.121436 0.966128 0.9940075 0.92124444
0000f0 00 04 88 3f 63 a6 62 3f 4e 85 82 3f 7a 95 6f 3f
       1.0626221 0.88535136 1.0196931 0.9358746
000100 49 51 6e 3f ad f8 89 3f e1 47 82 3f 3c 69 8e 3f
       0.9309278 1.0779015 1.0178186 1.1125865
000110 e3 cd 81 3f 1a db 6f 3f 08 8b 8e 3f 91 2a 80 3f
       1.0140957 0.936937 1.1136179 1.001299
000120 f2 f0 84 3f 90 b6 7a 3f eb cb 82 3f 12 e3 88 3f
       1.0386031 0.9793482 1.0218481 1.0694296
000130 a8 74 8b 3f dc 8c 85 3f 47 95 8b 3f 37 50 7e 3f
       1.0894976 1.0433612 1.0904931 0.9934115
000140 28 48 87 3f fc 6b 95 3f 10 d5 75 3f 6b dc 85 3f
       1.0568895 1.1673579 0.9602823 1.0457891
000150 07 d0 84 3f 84 09 72 3f 31 24 7c 3f 17 95 82 3f
       1.0375985 0.9454577 0.98492724 1.0201749
000160 21 3c 4f 3f 7b f8 89 3f a4 76 8e 3f 36 58 83 3f
       0.80951124 1.0778955 1.1129956 1.0261295
000170 5b ba 7c 3f bf cc 91 3f 0b 29 83 3f 4b 1b 70 3f
       0.98721856 1.1390609 1.02469 0.93791646
000180 66 ad 88 3f fe 7e 80 3f d5 d4 77 3f e2 0e 7b 3f
       1.0677917 1.0038755 0.9680913 0.98069584
000190 f3 57 87 3f f0 57 80 3f d7 9f 90 3f af e5 86 3f
       1.0573715 1.0026836 1.1298779 1.0538844
0001a0 ef ff 75 3f d2 2d 8d 3f a9 77 70 3f 46 0a 70 3f
       0.9609365 1.1029608 0.93932587 0.93765676
0001b0 e8 a1 7b 3f 46 fe 8f 3f 4d a2 8f 3f 0c be 91 3f
       0.98293924 1.1249473 1.1221405 1.1386123
0001c0 e2 73 91 3f 74 e3 6b 3f 73 8d 85 3f fc 66 99 3f
       1.136349 0.9214394 1.0433792 1.1984553
0001d0 4b 97 87 3f 54 6b 76 3f fb 70 82 3f 58 87 8e 3f
       1.0593046 0.9625752 1.0190729 1.1135054
0001e0 a3 77 77 3f 7b 3f 67 3f 7b d7 8f 3f 50 a7 79 3f
       0.96666926 0.9033124 1.1237634 0.97520924
0001f0 0e 7d 8a 3f ff 68 7b 3f 52 4f 8e 3f 03 67 7a 3f
       1.0819414 0.98207086 1.1117957 0.97813433

base.mlp.fc.5.bias f4 [128]
000000 e8 3a 63 3d ad 6f 30 bd 05 95 e9 3c 57 25 c9 bb
       0.0554761 -0.043075252 0.02851344 -0.0061384845
000010 97 25 eb bd f6 e7 84 bd 0f 09 15 bd 8b bb 82 bd
       -0.11481779 -0.064895555 -0.036385592 -0.06383427
000020 62 1e 39 3e 00 83 e9 bd f1 c5 39 bd 84 f9 7b bd
       0.18077996 -0.114019394 -0.045354787 -0.061517254
000030 9f 7f 37 3c e8 7b fc bc a8 88 25 3d 80 c6 67 bd
       0.011199861 -0.030820802 0.04041353 -0.05658579
000040 7e 67 fd 3d 69 42 df bb df f1 69 bc 82 27 93 3d
       0.12373255 -0.0068133366 -0.014278858 0.0718527
000050 89 5b f1 bc 31 a0 33 bd 2e 17 01 be b9 a2 31 be
       -0.029462593 -0.043853942 -0.12606499 -0.1734723
000060 41 b1 e4 3d e8 37 2c bd e0 ee 30 3c 70 a1 7a bd
       0.11166621 -0.042045504 0.01079914 -0.061189115
000070 d8 49 d7 3d 1c 22 cc bc 15 bb 9c bd 81 05 b5 3c
       0.105121315 -0.024918608 -0.076528706 0.022097351
000080 5b 16 0c be ed 60 0b bd 0a 52 78 3d 54 0e 40 3d
       -0.13680403 -0.034027983 0.060625114 0.046888664
000090 21 2e 45 bd 2c c8 8a 3c e6 13 6c 3c 72 0d df bd
       -0.048139695 0.016941153 0.014409041 -0.10891236
0000a0 27 5e ec 3d 35 54 fe 3d 05 df 54 bd b1 7f 1b bc
       0.11541396 0.12418405 -0.0519705 -0.009490893
0000b0 0e cf 88 bc 93 28 8a 3d 74 a0 86 bd a0 b9 08 be
       -0.016700294 0.0674602 -0.06573573 -0.1335206
0000c0 2f 06 de 3d f3 d4 3a 3d 51 cf f2 bd 4b 9b 5a 3d
       0.10841023 0.04561324 -0.11855949 0.053370755
0000d0 d9 b1 c2 3d 69 cd e8 bd 3d 1b 99 3d af c8 74 bd
       0.09506578 -0.11367304 0.074758984 -0.0597617
0000e0 40 b9 f4 3d c0 4e be 3c c0 73 03 3c 81 df 99 3d
       0.11949396 0.02323091 0.008023202 0.07513333
0000f0 f3 e3 12 bd 65 bd 8b 3d 5b c5 61 bd 89 ee 7a 3d
       -0.03586192 0.068232335 -0.055119853 0.06126264
000100 76 63 47 3d 64 74 a8 bd 6f 9e 54 bd d1 98 b0 3c
       0.048678838 -0.08225325 -0.051908907 0.021557244
000110 1a 78 29 bc f4 91 32 3d 62 51 9b 3d b8 86 0f 3a
       -0.010343576 0.043596223 0.07583882 0.0005475092
000120 c4 15 48 bd 36 e7 df 3c 7e 46 cd bc ad cb 9f bd
       -0.048848882 0.02733193 -0.025058027 -0.0780252
000130 da f7 cd bd 94 be 38 bd 94 12 0b bd d1 ac 0d 3c
       -0.100570396 -0.045103624 -0.033953264 0.00864716
000140 77 0f 78 bd 48 13 1b 3e 39 a6 50 3c d6 e0 13 bd
       -0.060561623 0.15144074 0.012734943 -0.036103092
000150 6c d1 1c bd 45 a8 0c 3d a7 82 81 3b b6 3d 9b bc
       -0.038285658 0.03434016 0.0039523426 -0.018950325
000160 9f 17 41 3e 10 41 d6 bd e4 42 0a 3d 7d 80 45 3d
       0.18856667 -0.104616284 0.033755198 0.04821824
000170 b2 91 66 3a 2f b6 24 3d 9a c4 d1 bc e9 a2 5b 3d
       0.0008795514 0.040212806 -0.025606442 0.05362216
000180 ba ea 1a 3d 67 cf 06 3d df 86 45 3c c7 24 7d 3c
       0.03782151 0.032912638 0.012056082 0.015450663
000190 ff 92 e8 bc b7 3e 49 bc ac 14 cb 3d e9 99 31 bc
       -0.028390406 -0.012283019 0.09916052 -0.010839918
0001a0 b9 ad f1 3c 69 bb 4c 3d 1e eb 4f 3c 89 60 09 bd
       0.029501783 0.049983416 0.012690334 -0.03353933
0001b0 0c e1 f6 3d 40 27 46 3c e1 17 03 be a2 a3 15 be
       0.12054643 0.012094319 -0.12802078 -0.14613202
0001c0 d5 ec db 3d 6b 7b a2 3d b8 75 a1 bd 3b 4b 11 3e
       0.107385315 0.07933696 -0.07883781 0.14188854
0001d0 b9 bb 91 bd 8c 74 ef bb b4 f4 33 bd e0 98 83 ba
       -0.071158834 -0.0073075946 -0.04393454 -0.0010040067
0001e0 98 8f 22 3b 51 7f 15 3d 4a b8 04 bd 2f b0 88 3c
       0.0024804827 0.03649837 -0.032402314 0.016685573
0001f0 1d 78 00 bd 55 8b 2a bd 7a 04 15 be b6 d1 71 3c
       -0.03136455 -0.041636784 -0.14552489 0.014759472

rnn.gru.weight_ih_l0 f4 [384, 128]
000000 ce d4 94 3d 86 2c 82 3d d6 f3 b3 bd ac 34 50 3c
       0.07267152 0.063561484 -0.087867424 0.01270787
000010 97 80 50 3c 0b c9 aa bd bf 1b 29 3b f7 43 a9 bd
       0.012725971 -0.08339127 0.0025803891 -0.082649164
000020 d7 a4 3d bd ad 75 8c 3d 17 09 11 3d 9e 39 85 3c
       -0.04629978 0.068583824 0.03540906 0.016262826
000030 87 28 fc 3d 86 c6 8f bb 66 45 d3 bc 71 97 83 bc
       0.123124175 -0.0043876795 -0.025789928 -0.016063424
000040 ad 41 37 3d 73 3e 33 bd b5 3b 8e bd 33 fd 5d 3e
       0.044740368 -0.043760728 -0.06944982 0.21678619
000050 8a 51 04 be 85 b4 c1 3c 0e 82 de 3c 84 12 4d bd
       -0.1292173 0.023645649 0.027161624 -0.050066486
000060 42 bb 40 3d 9e 68 9a 3c f5 77 04 bd 93 da 87 bd
       0.047053583 0.018848713 -0.032340962 -0.066334866
000070 18 37 b7 3d 40 8d 62 bd 17 17 c4 3c b1 30 d8 bb
       0.08946055 -0.055310488 0.023936791 -0.0065976013
000080 20 92 0d 3d f0 f3 59 3c a5 83 36 bd c0 dc 61 3d
       0.034563184 0.013302788 -0.04455914 0.055142164
000090 c4 9d 04 ba 49 a7 2e 3c 2f be 0f bd ec 33 c0 3c
       -0.00050589093 0.010660001 -0.035093483 0.023462258
0000a0 69 e7 88 3c 07 ad d1 bd 27 ad 56 3d 09 7a 8c bd
       0.016711907 -0.102380805 0.052411225 -0.06859214
0000b0 aa 19 fa 3c 11 a0 93 3d 6a 56 22 be 49 8f 42 3d
       0.030529816 0.072082646 -0.15853277 0.04749993
0000c0 22 a4 80 3c 4d 27 ee bd 16 a9 7e bd 03 6e 8e 3c
       0.015703265 -0.1162859 -0.06217297 0.017386442
0000d0 10 38 48 3d 14 f5 73 bc e7 6a c3 3c 25 ca 99 bb
       0.04888159 -0.014889974 0.023854686 -0.004693287
0000e0 e1 09 f2 3d 17 01 80 3c cc e4 a7 bd f7 7e df bc
       0.118182905 0.01562552 -0.081979364 -0.027282221
0000f0 74 0b c2 bd f5 c3 2f 3e da e7 52 be 0c 1e 25 3d
       -0.09474841 0.17164595 -0.20596257 0.040311858
000100 cd 22 a5 3d 65 0c e4 bc 0d ed bf bd 11 36 06 3e
       0.08063278 -0.027837941 -0.09371386 0.13106562
000110 a4 df c6 3c da 5e c2 bd fa b3 5d 3e e0 fd 8a bc
       0.024276562 -0.09490748 0.21650687 -0.01696676
000120 9b 7b 95 bd 90 1f 02 3c 7a 02 1b 3d 6b c1 0d bc
       -0.072989665 0.007942095 0.03784416 -0.0086520715
000130 33 69 93 bd b1 35 6d bd 39 19 95 bc 54 25 23 3d
       -0.071977995 -0.057912532 -0.018200504 0.03983052
000140 a9 5e 48 3b 61 64 1b 3d 21 8d e7 bb f5 12 75 bd
       0.0030574 0.037937526 -0.0070663844 -0.059832532
000150 d9 24 fd 3c 15 1f 06 3e 16 9e e6 3c f5 7d 8a 3d
       0.03090136 0.13097794 0.028151553 0.06762306
000160 33 84 58 bd c9 4b eb 3d d9 c8 b7 bd 38 54 69 3d
       -0.05286045 0.11489064 -0.089738555 0.056965083
000170 86 a5 ec bc 6b d4 88 3c 5d 15 c2 bc e8 12 ec bb
       -0.028887521 0.016702851 -0.023691827 -0.0072044022
000180 c8 4d 30 3e 4b ef 48 bd a2 68 9d bc d4 8f 83 bd
       0.17217171 -0.049056333 -0.019214932 -0.064239174
000190 6f 8e ed 3d 45 4f 24 3d 3d 92 2d bd 36 bf a2 bd
       0.11599433 0.04011466 -0.04237579 -0.07946627
0001a0 6c 90 85 3d d9 19 86 3d 4f dd af 3d 3f 63 ed bc
       0.06521687 0.06547899 0.08587133 -0.028977988
0001b0 2e f7 4c be 63 05 91 bd b5 e4 97 bd 87 95 49 bd
       -0.20016167 -0.070811056 -0.07416669 -0.049214866
0001c0 d9 e4 41 3d 25 56 6a bd 36 17 36 bd 80 3f 17 3d
       0.047337387 -0.05721106 -0.04445573 0.036925793
0001d0 2d ec f0 bc cb db 5a bd 59 69 08 3e 8a a3 51 3d
       -0.029409492 -0.053432267 0.13321437 0.051181354
0001e0 f0 20 b0 bc 19 22 1a 3d ea c4 1a be e8 49 c8 bc
       -0.02150008 0.037630174 -0.15114179 -0.024449304
0001f0 db 2c 49 be 0d 7e 85 3d 5c d5 88 bd 43 7f 49 3d
       -0.19646017 0.06518183 -0.0668132 0.04919363
000200 87 d3 1b be 4f da da 3b 43 8c fe bc 09 8f 6a bd
       -0.1521741 0.0066788564 -0.031072741 -0.057265315
000210 50 04 c9 3d 8f bd 02 3e 0d 1c 5a 3e aa ca 4d 3d
       0.09815276 0.12767623 0.21299763 0.050242104
000220 5b 0e 68 bd 77 26 3c 3e 29 d3 da 3d 36 27 4f bd
       -0.056654315 0.18374048 0.10684807 -0.050574504
000230 30 f5 a2 3d 47 47 2e bd 54 28 45 3d de 6c bb 3d
       0.07956922 -0.042548444 0.048134163 0.09151624
000240 03 ae 11 bd 66 3d c7 bd 75 a5 30 3d 9e cc 0c bd
       -0.03556634 -0.09728508 0.043126542 -0.034374826
000250 db da b4 bc ab 84 61 3d 75 66 a6 3d 2f 2a 8d 3d
       -0.022077015 0.055058163 0.08125011 0.068928115
000260 84 50 82 3d 40 92 6d 3d 79 16 58 3e a4 a6 43 3d
       0.063630134 0.058000803 0.21102323 0.047766343
000270 f1 f5 91 3c b9 af 04 3d 2a e7 33 3e 22 19 df 3d
       0.01781747 0.032394145 0.17568651 0.108934656
000280 bc 62 ae 3d 08 5e 28 3e 7a d4 4f 3e ca a9 ad 3d
       0.08514926 0.1644212 0.20295897 0.0847965
000290 0d b6 f9 bb ed fa 40 3e e0 30 b8 3d 0c 69 ac 3d
       -0.007620579 0.1884572 0.08993697 0.084184736
0002a0 88 3c 40 bd d5 0b bf 3d 07 b5 4c 3e 51 7d 11 3e
       -0.046932727 0.09328429 0.19990931 0.1420796
0002b0 ee 23 48 3e 2b e1 15 3e dd 8e ec 3d 38 a0 32 3e
       0.19544956 0.14636676 0.115506865 0.17443931
0002c0 25 97 b5 3d 12 1f ef bd 21 cf 14 3e d5 e4 c8 3d
       0.08866719 -0.11675848 0.14532138 0.09809271
0002d0 9b c8 4d 3b 76 ae 03 3e 7e 77 48 3e 24 21 3b bd
       0.0031400088 0.1285952 0.19576833 -0.045685902
0002e0 80 c3 36 bb 6c ca b8 3d 54 5c 85 3d 90 b3 4a 3e
       -0.0027887523 0.09022984 0.06511751 0.1979506
0002f0 ea 0e 8e bd 3e 03 1b 3d b0 74 8a 3d e7 f8 40 3e
       -0.069364384 0.03784489 0.067605376 0.18844949
000300 14 11 22 3e db 77 7e 3d d0 08 88 3d b6 36 df bd
       0.15826827 0.06212602 0.06642306 -0.10899107
000310 8f ac 17 3e 0e 48 20 3d 4e 4e e4 bd b7 32 28 3d
       0.1481192 0.039131217 -0.11147748 0.04106399
000320 99 05 01 3e 46 71 55 3e e8 6d 1d 3e d0 d0 0b 3e
       0.12599792 0.20843992 0.15373957 0.13653874
000330 6a 7e 26 3e 13 35 90 3d f9 45 8e bd 5c 70 49 3e
       0.1625916 0.07041373 -0.0694694 0.19671768
000340 c5 82 cc bd 50 dd 63 be c5 29 c1 3d 40 41 73 3a
       -0.0998588 -0.22252393 0.09431795 0.00092794374
000350 b8 43 e6 3d c6 dd 7d 3c 2c 21 0a 3e 2d 7a 18 3e
       0.11243385 0.015494769 0.13489217 0.14890356
000360 38 47 1e 3e 62 3d 0d 3b 20 dd 96 bd f9 5f 45 3e
       0.15456855 0.002155148 -0.07366395 0.19274892
000370 34 e1 4a 3e 6e ae 7a be 2f e5 08 3b 7d 5c 96 3d
       0.1981247 -0.24480602 0.0020888557 0.073418595
000380 c2 57 ed bd a4 04 0f be d9 ea 3f 3e af cd 8e 3d
       -0.11589004 -0.13966614 0.18741931 0.06972825
000390 37 f1 16 3d ad 07 07 3e e9 90 3f 3b c6 d9 95 bc
       0.036851134 0.13186522 0.002923066 -0.018292319
0003a0 28 ea 12 3e d6 ef 87 be a7 2d a8 3d 72 42 81 3d
       0.14347136 -0.26550168 0.082118325 0.063115016
0003b0 67 3e 8d bd 86 ec bf 3d 3a fa 34 3d 40 e0 af 3d
       -0.06896668 0.09371285 0.044183947 0.08587694
0003c0 03 9f 83 bd 4c 3f dc 3d 6b 9d d4 3d 56 e9 ec bd
       -0.064268135 0.107542604 0.103815876 -0.11567943
0003d0 08 7b 3e 3e 21 22 57 bd 2a f9 15 3e ee 63 21 bd
       0.1860162 -0.052522782 0.1464583 -0.03940194
0003e0 ee c5 13 be be cb 5d 3c c3 43 b8 3c 88 73 13 3e
       -0.14430973 0.013537345 0.022493249 0.1439954
0003f0 d4 b4 ed 3d 88 bb 0b 3b e5 1d c8 3d 22 d0 3f 3e
       0.11606756 0.0021321494 0.09771327 0.1873174

rnn.gru.weight_hh_l0 f4 [384, 128]
000000 a9 a1 aa bd 45 43 8c bd b8 06 af bc 28 20 86 3d
       -0.083316155 -0.06848768 -0.021365508 0.06549102
000010 7c e4 a8 bb 50 09 71 3c 5d 77 81 3d de f4 e2 3c
       -0.0051541906 0.014711693 0.06321595 0.027704652
000020 75 f4 1e bd 06 f8 14 bd ee d9 46 3d 4d 80 97 3d
       -0.03880735 -0.036369346 0.048547678 0.07397518
000030 e0 5a 37 3d cb 9a 09 bd df bf ab 3c 6d ab 1c 3d
       0.0447644 -0.033594888 0.020965515 0.038249422
000040 de 12 b3 3c 24 83 53 3d c7 78 ac bc 53 16 54 bb
       0.021859583 0.051638737 -0.021053685 -0.003236194
000050 ee c8 ca bc 6a a1 ed 3c c7 00 68 bb 10 1a 28 3d
       -0.024754014 0.029007632 -0.0035400854 0.04104048
000060 96 eb de bd 4d 4c 15 bd 7f e9 31 3e 76 ab d8 3d
       -0.10884778 -0.03644972 0.17374228 0.105795786
000070 3c fa ba bc d8 97 18 3d 63 67 0c be f5 01 fe 3d
       -0.0228244 0.037254184 -0.13711314 0.12402717
000080 2c 36 a9 3d 60 96 50 3d b2 cf 42 3d a1 31 0d 3d
       0.082622856 0.05092466 0.047561355 0.034471158
000090 6b d1 fd bd 4b a7 dc 3d a3 34 17 3d 72 a9 ec bc
       -0.12393459 0.10774096 0.036915433 -0.028889392
0000a0 50 c9 84 bd 61 b3 52 bc ce f3 c1 3d 7b 31 c3 3d
       -0.0648371 -0.01286015 0.0947033 0.09530922
0000b0 ef 30 38 be c8 42 f4 3c 26 68 db bd e5 21 d0 bd
       -0.17987417 0.029817 -0.10713224 -0.10162715
0000c0 0c 58 8b bc 9d 40 ad 3d d5 e0 d0 bd f7 e0 0c 3d
       -0.017009757 0.0845959 -0.10199133 0.03439423
0000d0 7a d3 e0 bc bc a5 06 3e 19 c3 6b bd 3d 23 40 3c
       -0.02744459 0.1314916 -0.057559106 0.011727151
0000e0 ca 61 8a bd b7 8c 2f bd 77 e5 d7 bd 5d 63 00 3d
       -0.06756933 -0.042858806 -0.10541814 0.03134476
0000f0 31 4a 27 bd fa fe fd bd 5a d8 15 3d db 89 d9 bd
       -0.04084224 -0.124021485 0.036583282 -0.10621997
000100 ce be 0e be 0e 9b 4b bd 37 6c 76 3d f7 d1 b6 bd
       -0.13939974 -0.04970842 0.060161795 -0.08926766
000110 15 6f c9 3d 0f 39 aa 3d a1 04 b1 3d 2d ff f2 bd
       0.0983564 0.08311664 0.08643461 -0.11865077
000120 e7 36 a4 bd 65 fe 84 3d 66 ec a1 3d ce 64 a7 bd
       -0.08018284 0.064938344 0.079064175 -0.08173524
000130 4b 4a d7 bc ab 33 d4 3d 9b f6 3c bd 24 c6 c9 3d
       -0.026280543 0.103614174 -0.04613362 0.098522455
000140 3f a6 24 3e ea 84 d0 bd 88 26 19 bd 7e 77 f2 3b
       0.16079043 -0.10181601 -0.037390262 0.0073994985
000150 17 dd c4 3d 64 01 d9 bc 56 f2 3d 3e f2 b5 ee bd
       0.09612482 -0.02648992 0.18549475 -0.11655797
000160 89 92 34 3d 88 a6 e9 bd 37 ef a7 bc 01 e3 16 be
       0.04408506 -0.114087164 -0.020499809 -0.14735033
000170 15 ad cc 3d f4 86 12 3d 08 cd b9 3c a1 18 c3 3c
       0.0999395 0.035773233 0.022680774 0.023815455
000180 f0 26 8f 3d 37 ff ce 3c 53 95 54 3d 9d ca bd 3d
       0.069898486 0.02526818 0.05190022 0.09267161
000190 a6 29 47 bd 3d 85 7c 3d 0a b8 84 bd 9a 1a b5 bc
       -0.048623703 0.061650503 -0.06480415 -0.022107411
0001a0 66 a8 a2 bd 88 12 36 3e fb a2 44 3d 79 aa 66 bd
       -0.07942276 0.17780507 0.048006993 -0.05631492
0001b0 c9 64 51 bd 07 0c f2 3d 7d bf fd bc e2 8f df 3c
       -0.051121507 0.118187 -0.030975098 0.027290288
0001c0 b2 ae 24 3c 64 ac 93 bd 82 9d de bd 73 62 9c bd
       0.010051416 -0.07210615 -0.10869886 -0.07635965
0001d0 0c c3 9d bc be 20 a5 3d fa 2b d7 bc 93 54 b9 ba
       -0.019258045 0.08062886 -0.026266087 -0.0014139585
0001e0 fb f2 cb 3d 19 22 93 bb 90 5c 31 be dc e0 41 bd
       0.09958454 -0.0044901487 -0.17320466 -0.047333583
0001f0 7c 55 fa 3d 8d 98 fb bd bc dc c7 bd f9 f6 81 bd
       0.12223336 -0.12284956 -0.097588986 -0.063459344
000200 05 3c 06 bd 02 31 06 be fa 7d b2 3c af 4b a8 bd
       -0.032772083 -0.13104632 0.021788586 -0.082175605
000210 42 0c d8 bd 31 3d 25 be 52 ee ac bd 00 d7 e2 3d
       -0.10549213 -0.16136624 -0.084438935 0.11076164
000220 5c 12 82 3d 07 c4 8e 3c 30 d3 fb bd 1d b6 fb 3c
       0.06351158 0.017427457 -0.1229614 0.030726487
000230 2a b7 c4 3c 56 a1 a5 3d 3f 0f 26 bd c2 18 b1 3d
       0.02401312 0.08087413 -0.040541884 0.086473
000240 30 6d 1e bc 37 ee ca 3d 6b 47 13 3e b8 81 37 be
       -0.009669587 0.09908717 0.14382713 -0.17920578
000250 d3 63 0c 3e 02 30 1a be be 3b 39 3d 43 38 1c be
       0.13709955 -0.15057376 0.04522299 -0.15255837
000260 a2 71 75 3d 67 cf 27 3d ad 41 bc ba 63 57 9c 3d
       0.05992282 0.04096928 -0.0014362835 0.07633855
000270 b8 b0 1c 3d a2 01 17 bd 16 0c 00 3e 11 b2 b4 3d
       0.03825447 -0.03686679 0.1250461 0.08823026
000280 6f 4b 1e be 68 09 1b bd 27 36 2f 3d 04 10 46 3e
       -0.15458463 -0.037850767 0.042776253 0.19342047
000290 93 15 21 3d f0 ad 19 bd 7f 99 86 3c d9 7d 60 bd
       0.039327215 -0.037519395 0.016430615 -0.054807518
0002a0 40 8c 39 be 19 79 61 be bd cf 84 bd 9b 26 9b be
       -0.18119907 -0.22018851 -0.064849354 -0.3030289
0002b0 54 51 59 3d 3c 1e ec bd e2 fe 25 bd 3c 98 87 3d
       0.053056076 -0.11529204 -0.04052628 0.06620833
0002c0 3c d7 0f 3e b0 10 27 be d5 74 da 3d 02 c0 e9 bd
       0.14046949 -0.1631496 0.10666815 -0.11413576
0002d0 0c 8d 18 bc 40 c5 67 3d 16 33 ed 3c dc df da bd
       -0.009310972 0.056584597 0.028955024 -0.10687229
0002e0 5b 8a f1 3b 60 76 ba 3d 7c 97 61 bc bb ba a2 bc
       0.0073712296 0.091046095 -0.013769027 -0.01986443
0002f0 c6 2b 8d 3d 8e 24 95 3c ce 66 79 bd 40 b0 ca 3d
       0.06893115 0.018205907 -0.060889058 0.09896898
000300 14 a1 b9 3d 0f 9b 37 3e 8b 1a ac 3c 05 52 0b 3d
       0.09063926 0.17930244 0.02100875 0.034013767
000310 1f 19 43 bd d2 58 3b 3d ae 7f e5 bd 27 40 6d 3c
       -0.04763138 0.045739003 -0.112059936 0.014480627
000320 fa 12 f9 bd a8 e5 4e 3e 7e 87 95 3c f9 3a 84 bc
       -0.121618226 0.20204794 0.018253084 -0.016141402
000330 a3 33 2a bd dd 10 93 3c 09 66 2c bd e1 fc cd 3b
       -0.04155315 0.017952377 -0.042089496 0.006286249
000340 ca f3 ad 3b 7c 6b e8 bc 7b ea 80 bd ac 90 e2 bc
       0.005308603 -0.028371565 -0.062947236 -0.027656876
000350 3f 92 8a bd ed 60 91 3d a9 aa 94 bc 4f 20 28 be
       -0.067661755 0.07098565 -0.018147783 -0.16418575
000360 bd f7 3a 3c 4b 1a 11 be 48 ba 81 3d dc b9 e4 3c
       0.0114116045 -0.14170186 0.063343585 0.027920656
000370 8d 58 81 bd 60 ff d7 3d 10 e3 fd 3c fe a3 22 3d
       -0.06315718 0.10546756 0.03099206 0.039707176
000380 f6 9d 5d bc 55 4f 14 be 72 b4 0d 3e 6e 4f e3 3c
       -0.01352643 -0.14483388 0.13838366 0.027747836
000390 dd c0 1b bd ef e9 c3 bd c0 ee 52 bd a8 6d 7c bd
       -0.038025726 -0.09566104 -0.05149722 -0.061628014
0003a0 e8 62 14 3d 5d f1 d9 3d 95 45 1b bd 2b 18 da 3d
       0.036227137 0.106417395 -0.037908155 0.10649141
0003b0 cb 6d 01 bd 05 0f 06 3d c4 13 23 3e 25 4a 04 3e
       -0.031598847 0.032729167 0.15925509 0.12918909
0003c0 b0 ee f4 bb 7d f9 03 be 0d 85 7b bd a9 a4 2b 3d
       -0.007474743 -0.12888141 -0.061406184 0.04190508
0003d0 85 90 02 bc 71 37 1c 3e 05 6a bc 3c c1 67 83 bd
       -0.007969026 0.15255524 0.022999773 -0.06416274
0003e0 7f 0e 67 3d ea 9d db 3d af 97 30 3d 98 be d3 bc
       0.05641031 0.10723479 0.043113407 -0.025847718
0003f0 99 75 07 be 73 28 02 be 8c 80 df 3c 71 bb 11 3e
       -0.13228454 -0.12710743 0.027282976 0.1423166
