scripts/results/MAPPOTraining2v1/2v1/NoWeapon/MAPPOTraining/mappo/v1_2v1_mappo_training/wandb/offline-run-20250807_165042-zjjd28i2/files/actor_episode_10000.pt (torch, 700180 bytes, 30 tensors)

base.mlp.fc.0.weight f4 [128, 21]
0	0xbad623d4	-0.0016337582
1	0x3defbdfd	0.11706159
2	0xbe37e9e5	-0.17960317
3	0xbe247308	-0.16059506
4	0xbdac2123	-0.08404758
5	0x3d6faf3e	0.058516733
6	0xbb8dace8	-0.0043235905
7	0x3e312cdb	0.17302267
8	0xbc9ea47a	-0.019365538
9	0x3d6c8421	0.057743195
10	0xbd870fe7	-0.0659483
11	0xbd2fb1b5	-0.042894084
12	0xbe557a3e	-0.20847413
13	0xbe13fd86	-0.1445218
14	0xbdb83a0b	-0.08995446
15	0x3c0470f3	0.00808357
16	0x3db0adea	0.086269215
17	0x3e061403	0.13093571
18	0xbe177d4a	-0.14793888
19	0xbdc29ce1	-0.095025785
20	0x3da25351	0.079260476
21	0x3e31816a	0.17334524
22	0xbd02f2ef	-0.03196996
23	0x3e627247	0.22113906
24	0xbc326d76	-0.010890355
25	0xbcdb6fed	-0.026786769
26	0x3e65ede9	0.22454037
27	0xbe3648e2	-0.1780124
28	0xbe6d3171	-0.23163392
29	0xbdda8ef4	-0.106717974
30	0xbde43c42	-0.11144306
31	0x3f14d509	0.58137566
32	0xbdf70f24	-0.12063435
33	0xbd8fe7fa	-0.07026668
34	0xbded9459	-0.11600561
35	0xbe4250f8	-0.189762
36	0xbe1453c1	-0.14485075
37	0x3ec3e56a	0.38260967
38	0x3dfcf47c	0.12351319
39	0x3e16cc1d	0.147263
40	0x3d080d37	0.033215728
41	0xbe18c73f	-0.14919756
42	0x3c9b43fe	0.01895332
43	0xbe5a3649	-0.2130977
44	0xbe31e107	-0.17370997
45	0xbe027b88	-0.12742436
46	0x3de9ecf9	0.11422152
47	0x3dec65eb	0.11542877
48	0xbde4f9dc	-0.111804694
49	0x3a67f2d3	0.00088481343
50	0x3e189320	0.14899874
51	0x3e6536ae	0.2238414
52	0x3d9face9	0.07796652
53	0x3c5a4112	0.013321178
54	0x3e061b01	0.13096239
55	0xbe15718c	-0.14594096
56	0x3cff2c1f	0.031148968
57	0xbe3db043	-0.1852427
58	0xbe134db1	-0.14385106
59	0xbe043cbc	-0.12913793
60	0x3dab1494	0.08353534
61	0x3d9361a5	0.071963586
62	0xbde9e189	-0.114199705
63	0x3d338f46	0.043837808
64	0x3e17b4a8	0.14815009
65	0xbd8fc088	-0.07019144
66	0xbc76d5b8	-0.015065603
67	0x3d8069a7	0.062701516
68	0x3df292e5	0.11844424
69	0x3e41e431	0.18934704
70	0xbe5efad5	-0.21775372
71	0x3e30f19d	0.17279668
72	0xbd4cc314	-0.04999073
73	0x3e86a316	0.262963
74	0x3e3289f8	0.17435443
75	0x3e2d8dc2	0.16948608
76	0x3c93c4bc	0.018038146
77	0xbea832db	-0.328513
78	0xbdc7dbb3	-0.09758701
79	0x3e322a7b	0.17399018
80	0xbe6ad131	-0.22931363
81	0x3e28bef8	0.16479099
82	0x3e1b65be	0.1517553
83	0xbe41c549	-0.18922915
84	0x3cbfed06	0.023428451
85	0xbd852842	-0.06501819
86	0xbd95c420	-0.073127985
87	0xbe05661d	-0.13027234
88	0x3d6396dc	0.055563793
89	0xbe16aad9	-0.1471361
90	0x3d54da10	0.051965773
91	0x3e1aab6c	0.15104455
92	0x3d98c3b7	0.07459205
93	0x3df2d130	0.118563056
94	0xbe96fb88	-0.29488778
95	0xbe2e6015	-0.1702884
96	0x3da582a0	0.08081555
97	0x3c391660	0.0112968385
98	0xbe16850c	-0.14699191
99	0xbdc7aee5	-0.09750155
100	0x3e31e795	0.17373498
101	0x3defa98a	0.11702259
102	0xbe025d0d	-0.12730809
103	0xbda919f5	-0.08256904
104	0xbe345107	-0.17609034
105	0xbb808675	-0.0039222785
106	0xbe28465e	-0.16433093
107	0xbe2c5d15	-0.16832383
108	0xbc44ff23	-0.01202372
109	0x3d0633e6	0.032764338
110	0xbdb705f6	-0.08936684
111	0x3e0497e0	0.1294856
112	0xbe07fb2f	-0.13279413
113	0x3e4ac1aa	0.1980044
114	0x3e19223f	0.1495447
115	0xbe3c6f97	-0.18401943
116	0xbd5e7539	-0.05431101
117	0x3c21537b	0.009846563
118	0x3d0268cd	0.031838227
119	0x3d53fdc1	0.05175567
120	0x3daf6156	0.08563487
121	0x3c5628f4	0.013071287
122	0xbdda0f74	-0.10647479
123	0x3dd37917	0.103258304
124	0xbe56595d	-0.20932527
125	0xbe04717f	-0.1293392
126	0xbd5fbffd	-0.054626454
127	0xbdd9b22a	-0.10629685
128	0xbd9c5818	-0.0763399
129	0xbe37260f	-0.17885612
130	0xbd3e2111	-0.046418253
131	0x3d3f0f55	0.04664548
132	0xbe1192c8	-0.14216149
133	0xbc377b2f	-0.011198803
134	0x3e1ff5e6	0.15621147
135	0xbcb7c51b	-0.022432854
136	0x3bc6bae2	0.0060647586
137	0xbc9a37c3	-0.018825417
138	0x3d34e483	0.04416324
139	0x3e0e14e3	0.13875155
140	0x3e53aac2	0.20670608
141	0x3e0de810	0.13858056
142	0x3e5426bd	0.20717902
143	0xbc814900	-0.01578188
144	0xbe48bc0b	-0.19602983
145	0xbdd3deb6	-0.10345213
146	0x3e1826da	0.1485857
147	0xbab969e2	-0.0014145935
148	0xbdde2296	-0.108464405
149	0xbe2b3c7e	-0.16722295
150	0xbe511ef6	-0.20421967
151	0xbe3c9914	-0.1841777
152	0xbd354cb6	-0.04426261
153	0x3df51698	0.119672
154	0x3df19e37	0.11797755
155	0xbe5781db	-0.2104563
156	0x3e0b6326	0.13612041
157	0xbe2edb12	-0.17075756
158	0xbd3cf67d	-0.046133507
159	0xbdb535ba	-0.08848138
160	0xbd2c29da	-0.0420321
161	0xbd2f7ec1	-0.04284549
162	0xbe488477	-0.19581781
163	0xbe40f08b	-0.1884176
164	0xbd0bdd54	-0.03414662
165	0x3b38f1dd	0.0028220334
166	0xbdcb0526	-0.09913091
167	0x3da859ca	0.08220251
168	0xbe925e8f	-0.28587767
169	0xbe12d763	-0.14339976
170	0x3e579541	0.2105303
171	0xbdfa9ad9	-0.12236566
172	0x3e016fa1	0.1264024
173	0x3c703d58	0.014663063
174	0xbe6e51f2	-0.23273447
175	0x3e41f328	0.18940413
176	0x3e2035c6	0.15645513
177	0xbe158e8c	-0.14605159
178	0x3f06a2ca	0.52592146
179	0xbe5c0631	-0.21486737
180	0xbbfadad2	-0.00765548
181	0xbd874b2b	-0.06606134
182	0x3eae7bd9	0.34078863
183	0x3ddc5397	0.10758131
184	0x3e26651c	0.16249508
185	0x3d5807fd	0.052741993
186	0xbd5acd5a	-0.053418495
187	0xbdd23675	-0.10264293
188	0xbe2842ac	-0.16431683
189	0x3de6518f	0.11246025
190	0x3e42cca6	0.1902338
191	0x3e5f3bfa	0.21800223
192	0xbdf783a6	-0.12085657
193	0x39095993	0.00013098707
194	0xbe030600	-0.12795258
195	0xbdb3d787	-0.08781343
196	0xbe7399e0	-0.23789167
197	0x3c9c6dc8	0.019095317
198	0xbe7224e2	-0.23646882
199	0x3edac133	0.42725524
200	0x3d21eba0	0.03953135
201	0x3e30f5e2	0.17281297
202	0xbdf0b7cc	-0.117538065
203	0xbe09e588	-0.13466465
204	0xbe448f49	-0.19195284
205	0x3eba1e99	0.3635147
206	0xbd2e83b1	-0.04260606
207	0x3e70a491	0.23500277
208	0x3dd89c52	0.10576691
209	0xbc8dcc90	-0.017309457
210	0xbda90a8c	-0.08253965
211	0xbd8983b5	-0.06714574
212	0x3d03ca8a	0.03217558
213	0xbda5656a	-0.08075984
214	0x3ca521b8	0.02015768
215	0xbd708c55	-0.05872758
216	0xbe59e9c3	-0.2128058
217	0xbe4471c8	-0.19184029
218	0x3e60fc9b	0.21971361
219	0xbe5342d3	-0.2063096
220	0x3d0c637b	0.03427456
221	0x3e464c09	0.19364943
222	0x3d797897	0.06090602
223	0xbccba379	-0.024858223
224	0xbe4236f7	-0.1896628
225	0x3d1f2ad6	0.03885921
226	0x3a8f2371	0.0010920597
227	0xbdc2ed66	-0.095179364
228	0xbda2f4da	-0.07956858
229	0xbd964919	-0.07338161
230	0x3cf32796	0.029681962
231	0x3d03dc9e	0.03219282
232	0xbd700cc5	-0.058605928
233	0x3e411f7a	0.18859664
234	0x3d832e2c	0.06405291
235	0xbe9f8c61	-0.31161788
236	0xbc5cc600	-0.013474941
237	0xbe6d359d	-0.23164983
238	0xbd84e101	-0.064882286
239	0x3daf39c0	0.08555937
240	0xbd6a4b74	-0.057200864
241	0x3f0bee81	0.54660803
242	0xbe0dcb11	-0.13846995
243	0xbd6c377b	-0.057670098
244	0x3d75f452	0.060047455
245	0xbe0678fc	-0.1313209
246	0x3ca40ec7	0.020026578
247	0x3e0961e1	0.13416244
248	0xbd8f0ad4	-0.06984487
249	0xbd882fc2	-0.06649734
250	0xbe4eb315	-0.20185502
251	0x3da6fd0c	0.081537336
252	0x3e4abc10	0.19798303
253	0xbd70532f	-0.05867308
254	0xbe313c01	-0.17308046
255	0xbdd4c817	-0.103897266

base.mlp.fc.0.bias f4 [128]
0	0x3da69486	0.08133797
1	0xbc60a7dc	-0.013711896
2	0x3e497e1b	0.19677012
3	0xbce11a88	-0.027478471
4	0xbe127854	-0.14303714
5	0x3d667c58	0.056270927
6	0x3de86c04	0.11348727
7	0xb9e34d1c	-0.00043354265
8	0x3e2f7a3f	0.17136477
9	0xbdbe54e9	-0.09293539
10	0x3d870eed	0.06594644
11	0x3d91e7b5	0.07124273
12	0x3da943ff	0.08264922
13	0x3d13011d	0.035889734
14	0x3c9854d0	0.01859513
15	0xbe721437	-0.23640524
16	0xbe907de1	-0.28221038
17	0xbd3e14a6	-0.04640641
18	0xbdbd0f7b	-0.09231468
19	0x3e0d8d3c	0.13823408
20	0x3e1aee5e	0.15129992
21	0x3e1111c9	0.14166941
22	0xbdb62da8	-0.08895427
23	0xbe6258e2	-0.22104219
24	0xbe626855	-0.22110112
25	0x3df6761d	0.12034247
26	0xbe61849e	-0.22023246
27	0xbe8884db	-0.2666386
28	0xbd88b8eb	-0.06675895
29	0xbe5e06bd	-0.21682258
30	0xbe20659a	-0.15663758
31	0xbe0cace7	-0.13737832
32	0xbe1a8016	-0.15087923
33	0x3e95dd25	0.29270282
34	0xbd617335	-0.05504151
35	0x3e0f1eb9	0.13976564
36	0x3b9ea727	0.0048417035
37	0xbce5e11c	-0.028061442
38	0xbdaf301e	-0.085540995
39	0xbe1fbb57	-0.15598808
40	0xbe3388d9	-0.17532672
41	0x3e176275	0.14783652
42	0xbd7b6a99	-0.061380956
43	0xbe59dd3c	-0.212758
44	0x3e1a0ad8	0.15043199
45	0x3b84a3cc	0.0040478464
46	0xbe2ae845	-0.16690166
47	0xbe33b097	-0.17547832
48	0xbe523947	-0.20529662
49	0xbe5c3c2b	-0.21507327
50	0x3db0e126	0.08636694
51	0x3e1a1224	0.15045983
52	0x3c923619	0.017848061
53	0xbe3e71ef	-0.1859815
54	0xbd69c7c2	-0.05707527
55	0xbe640175	-0.22266181
56	0x3d78940f	0.060688075
57	0xbd6d53ae	-0.05794113
58	0xbd8263e7	-0.06366711
59	0xbd46a208	-0.04849437
60	0x3daa6969	0.08320887
61	0x3de3d579	0.11124701
62	0x3db3d5c5	0.08781008
63	0xbcfe17ab	-0.031017145
64	0xbd3c1721	-0.045920495
65	0xbd010256	-0.03149637
66	0xbe00fcc4	-0.12596422
67	0x3e36d63a	0.17855158
68	0xbdc0be9d	-0.094113566
69	0x3e0ad8fd	0.13559337
70	0xbde74f15	-0.112943806
71	0x3ac002e4	0.0014649299
72	0x3d79ad4d	0.060956288
73	0xbe1050c8	-0.14093316
74	0x3dccff66	0.10009651
75	0xbe2b0ae5	-0.16703375
76	0xbbd0dcb8	-0.006373968
77	0xbd95ebc1	-0.07320357
78	0x3e03aab3	0.12858085
79	0x3e6f3c50	0.23362851
80	0x3d3e74f7	0.046498265
81	0xbca64d93	-0.020300662
82	0xbe28732d	-0.16450186
83	0x3da69fd1	0.08135951
84	0xbdd71ba4	-0.10503319
85	0x3db89a97	0.09013861
86	0xbdccdc87	-0.10003
87	0x3e43fe02	0.19139865
88	0x3e1a737a	0.15083113
89	0x3ded64a6	0.11591463
90	0x3c8e4789	0.017368095
91	0x3e0973f9	0.13423146
92	0xbe538315	-0.20655473
93	0x3e2a7045	0.1664439
94	0xbd3dd471	-0.046345178
95	0x3da1862f	0.078869216
96	0xbd2296c3	-0.03969456
97	0xbd5c9990	-0.053857386
98	0xbdc250d0	-0.0948807
99	0x3e102238	0.14075553
100	0xbe0fa0e1	-0.14026214
101	0xbc365ba2	-0.011130245
102	0x3de171a4	0.11008003
103	0xbb2ca0ac	-0.0026340885
104	0xbe0f4fda	-0.13995305
105	0xbe67ed1a	-0.22649041
106	0xbddbfc4f	-0.107414834
107	0x3e6a0151	0.22852065
108	0xbe086d84	-0.13323027
109	0x3dfe2c22	0.124107614
110	0x3ddd7a18	0.10814303
111	0xbe0d5bcb	-0.13804547
112	0xbdc55bcc	-0.096366495
113	0xbe389100	-0.18024063
114	0x3d230880	0.039803028
115	0xbce1a7c7	-0.027545823
116	0x3c2db455	0.010602077
117	0x3da56eb1	0.08077753
118	0x3d999e5d	0.075009085
119	0xbd72b669	-0.05925599
120	0x3c758deb	0.014987449
121	0x3d4e0d2a	0.050305523
122	0xbd4df9bf	-0.050287005
123	0xbd0969fd	-0.033548344
124	0xbd77e0a8	-0.060516983
125	0x3e3b8d71	0.18315674
126	0xbe02c417	-0.12770115
127	0x3d03be13	0.03216369

base.mlp.fc.2.weight f4 [128]
0	0x3f7a11a6	0.9768318
1	0x3f8eabc7	1.1146172
2	0x3f77386e	0.9657048
3	0x3f6cd149	0.92506844
4	0x3f5b156e	0.85579574
5	0x3f663e13	0.8993847
6	0x3f6702e2	0.90238774
7	0x3f636b01	0.8883515
8	0x3f966386	1.1749122
9	0x3f8adf97	1.0849484
10	0x3f37d70d	0.71812516
11	0x3f83237f	1.0245208
12	0x3f6b615e	0.91945446
13	0x3f813983	1.0095676
14	0x3f6c8424	0.9238913
15	0x3f3c30ed	0.73512155
16	0x3f51010c	0.8164222
17	0x3f5bbff9	0.858398
18	0x3f1befc3	0.6091272
19	0x3f6e96f3	0.9319908
20	0x3f844674	1.0334
21	0x3f890401	1.0704347
22	0x3f858689	1.0431682
23	0x3f682db0	0.90694714
24	0x3f65be04	0.89743066
25	0x3f86cc1b	1.0531038
26	0x3f84b087	1.0366372
27	0x3f61d4dc	0.8821542
28	0x3f8a60c9	1.0810786
29	0x3f72a4a4	0.9478247
30	0x3f5faff2	0.87377846
31	0x3f60f423	0.87872523
32	0x3f687496	0.90802896
33	0x3f870824	1.0549359
34	0x3f859ecc	1.0439086
35	0x3f51478b	0.8174979
36	0x3f574702	0.84092724
37	0x3f66bc38	0.9013095
38	0x3f5ff707	0.8748631
39	0x3f79bf24	0.9755728
40	0x3f6a69ea	0.9156786
41	0x3f7399fa	0.95156825
42	0x3f6f095e	0.9337367
43	0x3f4d2774	0.80138326
44	0x3f5bf704	0.8592379
45	0x3f5fd404	0.87432885
46	0x3f562a7e	0.8365859
47	0x3f821098	1.0161314
48	0x3f7734ec	0.9656513
49	0x3f639dcc	0.88912654
50	0x3f415597	0.75521225
51	0x3f70cf69	0.9406648
52	0x3f77665a	0.9664055
53	0x3f5d8f5c	0.86546874
54	0x3f713057	0.94214386
55	0x3f69d367	0.913382
56	0x3f676730	0.90391827
57	0x3f565e2d	0.8373745
58	0x3fa327df	1.2746543
59	0x3f80a81c	1.0051303
60	0x3f7148b6	0.94251573
61	0x3f44f550	0.7693682
62	0x3f879889	1.0593425
63	0x3f8079c3	1.0037159
64	0x3f6f8af1	0.9357138
65	0x3f8bfa71	1.0935804
66	0x3f905d50	1.1278477
67	0x3f7307b1	0.9493361
68	0x3f733d63	0.95015544
69	0x3f6d4849	0.92688423
70	0x3f97c2b1	1.185629
71	0x3f5eeb57	0.8707785
72	0x3f55a87a	0.834602
73	0x3f81743c	1.0113597
74	0x3f6e78d9	0.9315315
75	0x3f5f2308	0.8716283
76	0x3f566f71	0.83763796
77	0x3f533229	0.82498413
78	0x3f7e2080	0.9926834
79	0x3f99a2b5	1.2002779
80	0x3f80874e	1.0041292
81	0x3f6666f0	0.9000082
82	0x3f4779a7	0.7792
83	0x3f6c4254	0.9228871
84	0x3f5c84ac	0.8613994
85	0x3f73c015	0.9521497
86	0x3f76a509	0.96345574
87	0x3f906fe6	1.1284149
88	0x3f790864	0.9727843
89	0x3f3c067c	0.73447394
90	0x3f861208	1.0474253
91	0x3f8fd6d3	1.1237434
92	0x3f80b2c0	1.005455
93	0x3f58082d	0.84387475
94	0x3f9bdf16	1.2177455
95	0x3f7a40c5	0.9775508
96	0x3f679860	0.9046688
97	0x3f9959b0	1.1980495
98	0x3f874082	1.0566561
99	0x3f780336	0.968799
100	0x3f50a760	0.81505394
101	0x3f8814d6	1.0631359
102	0x3f75ce23	0.96017665
103	0x3f77e1db	0.96829003
104	0x3f83a73a	1.0285408
105	0x3f6b5adf	0.91935533
106	0x3f803f8b	1.0019392
107	0x3f91295c	1.1340747
108	0x3f82f284	1.023026
109	0x3f880fda	1.0629838
110	0x3f8c1d15	1.0946375
111	0x3f79d4db	0.97590417
112	0x3f71b9c6	0.9442409
113	0x3f55eaa2	0.83561146
114	0x3f8025ed	1.0011574
115	0x3f547a3c	0.82999015
116	0x3f6cd03d	0.92505246
117	0x3f784c6e	0.9699162
118	0x3f82bfeb	1.0214819
119	0x3f86b3ff	1.052368
120	0x3f684c19	0.90741116
121	0x3f6296de	0.88511455
122	0x3f441867	0.76599735
123	0x3f720894	0.9454434
124	0x3f58780d	0.8455818
125	0x3f73daeb	0.9525592
126	0x3f4303d4	0.76177716
127	0x3f879585	1.0592505

base.mlp.fc.2.bias f4 [128]
0	0x3d15e6ea	0.03659717
1	0x3c922b4a	0.017842907
2	0x3d267ee2	0.04064835
3	0xbd9b883a	-0.075943425
4	0x3e1722b7	0.14759336
5	0x3ddc49ea	0.107562855
6	0x3de793b8	0.11307472
7	0x3dfd04de	0.12354444
8	0x3ca921e3	0.020646041
9	0x3ce92847	0.028461589
10	0x3e27cb9a	0.16386262
11	0x3cdb630f	0.026780633
12	0x3d970f0e	0.07375918
13	0xbc0076c0	-0.007840812
14	0x3d967d33	0.073480986
15	0x3e5672d6	0.20942244
16	0xbceed702	-0.029155258
17	0x3e1bb848	0.15207016
18	0xbd638a94	-0.05555208
19	0x3d9a3911	0.07530416
20	0x3c34aafc	0.011027094
21	0x3da02c20	0.07820916
22	0x3c9b21e5	0.01893706
23	0x3c75afab	0.014995496
24	0x3dcdb341	0.100439556
25	0x3c1eae32	0.009685086
26	0xbd032229	-0.032015
27	0x3c7c84d6	0.01541253
28	0xbccbd826	-0.024883341
29	0x3d44c213	0.048036646
30	0x3dd48897	0.10377615
31	0x3e04d56b	0.12972037
32	0x3ca70b6b	0.020391187
33	0x3b865448	0.0040994026
34	0xbcdf8edc	-0.0272898
35	0x3e2e78f6	0.1703833
36	0x3e2ffabd	0.17185493
37	0x3df8b630	0.121441245
38	0x3c636969	0.013880112
39	0x3d27befc	0.04095362
40	0x3dbe4bdf	0.09291815
41	0x3d80a787	0.06281953
42	0x3cbd43cc	0.023103617
43	0x3e4f6da4	0.20256668
44	0xbd5bf1ba	-0.053697325
45	0x3e070f70	0.13189483
46	0x3d869325	0.06571034
47	0x3c833ffb	0.01602172
48	0x3d350ac4	0.04419972
49	0x3d1b1164	0.037858382
50	0xbd9dd519	-0.07706661
51	0x3d954645	0.072887935
52	0x3d412ad7	0.047159996
53	0x3e1d4853	0.15359621
54	0x3d94668c	0.07246122
55	0x3dcddadb	0.10051509
56	0xbd15f47c	-0.03661011
57	0x3e31856a	0.1733605
58	0x3bbdb58b	0.005789464
59	0x3c394bde	0.011309592
60	0xbc815af6	-0.015790444
61	0xbbdf0752	-0.0068062926
62	0x3ca82158	0.020523712
63	0x3c56c52e	0.013108535
64	0xbd10ed03	-0.035382282
65	0xbd1036c9	-0.035208497
66	0xbcc8cd04	-0.024511822
67	0x3d83adc3	0.06429627
68	0x3d89be82	0.067257896
69	0x3c0fae4f	0.008769586
70	0x3cb12caf	0.021627752
71	0x3e1913a2	0.14948896
72	0x3e31ddb9	0.17369737
73	0x3b243932	0.0025058505
74	0x3db8ba69	0.0901993
75	0x3e0bedd3	0.13664941
76	0x3cedc221	0.029023232
77	0x3d17f938	0.037102908
78	0xb9ab3340	-0.00032653846
79	0xbcc946c7	-0.024569882
80	0x3c2be585	0.010491733
81	0x3ddbecc9	0.107385226
82	0x3cc5c0a3	0.024139708
83	0x3db73776	0.08946125
84	0x3e1bdb9d	0.15220495
85	0x3d7c411e	0.061585538
86	0x3d497900	0.04918766
87	0x3caf4d4c	0.021399163
88	0xbd26346e	-0.040577345
89	0x3e84e101	0.25952914
90	0x3c6f654d	0.014611554
91	0xbc709246	-0.014683312
92	0x3bc99ade	0.006152495
93	0x3e2a8650	0.16652799
94	0x3cc6ec4c	0.024282597
95	0xbd1996af	-0.03749722
96	0x3dd0a44d	0.10187588
97	0xbc7e61ff	-0.015526294
98	0x3c991fec	0.01869198
99	0x3d1af234	0.03782864
100	0x3c0ccda9	0.008593955
101	0xbc73fcba	-0.014891798
102	0x3d802c92	0.06258501
103	0xbd23e513	-0.040013384
104	0x3c94ee05	0.018179903
105	0x3dcd4ba6	0.100241944
106	0xbc1a48ad	-0.009416741
107	0xbd3b8003	-0.04577638
108	0x3c859687	0.016307129
109	0xbcaac06f	-0.020843713
110	0xbd2001e6	-0.03906431
111	0x3d01f5d1	0.03172857
112	0x3d8579e7	0.06517392
113	0x3e019a8f	0.12656616
114	0x3b8e5614	0.0043437574
115	0x3e341c24	0.1758886
116	0x3db96ca3	0.09053924
117	0xbd92d1c7	-0.07168918
118	0xbab1d308	-0.001356692
119	0x3cb88f2f	0.022529213
120	0x3de00be6	0.109397694
121	0x3e002aaf	0.12516282
122	0x3dcea869	0.100907154
123	0xbd81c594	-0.06336513
124	0xbd21b486	-0.0394788
125	0x3bd8d410	0.0066170767
126	0x3ccc4ccd	0.024938965
127	0x3cf88f39	0.030341731

base.mlp.fc.3.weight f4 [128, 128]
0	0xbd718f94	-0.058974817
1	0xbccb464b	-0.024813792
2	0x3cb616d0	0.022227675
3	0xbab30037	-0.001365668
4	0xbc6475fd	-0.013944146
5	0x3d7c7adc	0.061640605
6	0x3c091ffd	0.008369443
7	0x3d445641	0.04793382
8	0x3d6c67e6	0.057716273
9	0x3c45f1b3	0.012081551
10	0x3da4e6f1	0.08051861
11	0x3d94219f	0.07232975
12	0x3daaa741	0.083326824
13	0xbdd7a800	-0.1053009
14	0x3cbb0a01	0.022831919
15	0x3d537b7f	0.051631447
16	0x3e2605d7	0.16213165
17	0x3dc38eb0	0.095487
18	0xbc8061d2	-0.015671644
19	0x3cedbc9c	0.0290206
20	0xbb14ebe5	-0.0022723612
21	0xbdcfc5d1	-0.10145152
22	0xbd94ee16	-0.07271974
23	0x3de035b6	0.109477445
24	0x3d4e3aef	0.050349172
25	0xbc00a275	-0.007851233
26	0xbda4b850	-0.08042967
27	0x3e25eb25	0.16202982
28	0xbdbed9e3	-0.09318902
29	0x3d2c6649	0.042089734
30	0xbc698ff3	-0.014255512
31	0x3d98b23f	0.07455873
32	0x3d952eb3	0.07284298
33	0xbdb96cde	-0.09053968
34	0xbd65f1b5	-0.056138713
35	0x3d046daf	0.032331165
36	0xbd46b52c	-0.048512623
37	0x3cb8314b	0.022484442
38	0xbdb5b0a8	-0.08871585
39	0x3d49d612	0.04927642
40	0x3d530d31	0.051526252
41	0xbd1d6ee2	-0.038435824
42	0x3dd17ac8	0.10228497
43	0x3da4df1f	0.080503695
44	0xbc5f715a	-0.013637865
45	0x3d79f73a	0.06102679
46	0xbdcba3e0	-0.09943366
47	0x3d9e1100	0.07718086
48	0x3d342a23	0.043985497
49	0xbc5588ef	-0.013033136
50	0x3df8bfec	0.12145981
51	0xbd80fd81	-0.06298352
52	0xbc5c58a5	-0.013448869
53	0xbd120b08	-0.03565505
54	0xbd0ebab9	-0.03484604
55	0xbd11da65	-0.035608668
56	0xbdab39b1	-0.08360613
57	0x3d0667a1	0.032813672
58	0x3bd93248	0.0066283084
59	0xbd559a8b	-0.052149337
60	0xbd7d0793	-0.0617748
61	0xbd9308bb	-0.071793996
62	0x3dfe1301	0.124059685
63	0xbd49271a	-0.049109556
64	0xbd678167	-0.056519892
65	0x3b95654e	0.0045591956
66	0xbcb71884	-0.022350557
67	0x3cb56689	0.02214362
68	0x3d33b005	0.043869037
69	0x3dd7ea52	0.1054274
70	0xbd5bfac1	-0.053705934
71	0x3d9a099f	0.07521366
72	0x3dbb67e7	0.09150677
73	0xbd9b0d10	-0.07570851
74	0x3d265332	0.040606685
75	0x3d84555a	0.06461592
76	0x3d9dd0e8	0.07705861
77	0x3e77c9a6	0.24198017
78	0xbd13f640	-0.036123514
79	0x3c4d4248	0.01252801
80	0x3cbd4210	0.02310279
81	0xbd1ca8f6	-0.03824707
82	0x3e10ccb6	0.14140591
83	0x3d36c091	0.04461724
84	0x3dbd4753	0.0924212
85	0x3d285c14	0.041103438
86	0x3d8921b8	0.066958845
87	0xbc12fa42	-0.008970799
88	0xbc322452	-0.010872917
89	0xbcbd3a93	-0.02309922
90	0x3cf84f03	0.030311113
91	0xbde4b4a8	-0.1116727
92	0x3cbcd695	0.02305154
93	0xbc4c4aba	-0.012468988
94	0xbd82d219	-0.06387729
95	0xbdbc2744	-0.09187177
96	0x3d928bec	0.07155594
97	0xbdd8074c	-0.10548267
98	0x3d9f627d	0.07782457
99	0x3d9c2561	0.07624317
100	0xbba5205b	-0.0050392575
101	0x3cd3683f	0.025806544
102	0xbd39c03d	-0.04534935
103	0x3ae465f3	0.0017425403
104	0x3d06cd02	0.032910354
105	0xbc2e22e7	-0.010628439
106	0x3cdcdbaa	0.026960213
107	0xbce86d18	-0.028372332
108	0xbda952c1	-0.08267737
109	0xbd8716f2	-0.06596173
110	0xbd66752e	-0.056264095
111	0x3dd2c968	0.102923214
112	0x3daf3858	0.085556686
113	0x3d9ee648	0.077587664
114	0xbca552bc	-0.020181052
115	0xbd701368	-0.058612257
116	0x3db027e6	0.0860136
117	0xbc08d8db	-0.008352484
118	0xbc7bbef3	-0.01536535
119	0xbdd7c7dd	-0.10536168
120	0x3db97cae	0.09056984
121	0x3d5fcbc0	0.05463767
122	0x3e043a5f	0.12912892
123	0x3b9dca42	0.004815371
124	0xbd91c14e	-0.07116948
125	0x3dc90974	0.09816256
126	0x3df26586	0.1183577
127	0x3cd9124a	0.026497979
128	0x3d961526	0.073282525
129	0xbea5ce4f	-0.32383963
130	0x3e2ba8c6	0.167636
131	0x3c21c7c3	0.009874287
132	0x3d34fe6e	0.044187956
133	0x3dd21a6e	0.10258947
134	0x3d9a33eb	0.07529434
135	0x3db4a15d	0.0881984
136	0x3de5620c	0.112003416
137	0xbe5a543c	-0.21321195
138	0x3daa03d6	0.08301513
139	0xbd504229	-0.050844345
140	0x3cba487a	0.022739638
141	0xbe315258	-0.17316568
142	0x3e166615	0.14687379
143	0x3ca418da	0.020031381
144	0xbaf5c21c	-0.0018749866
145	0x3d4a9bf2	0.049465127
146	0x3e01191e	0.12607238
147	0x3bf7e9af	0.007565699
148	0x3d98832f	0.07446896
149	0x3e16d5e1	0.14730026
150	0xbd1165e6	-0.03549757
151	0xbd7d2de6	-0.06181135
152	0x3e16f4e2	0.14741853
153	0xbe1c0025	-0.1523443
154	0xbdfd4a3b	-0.12367674
155	0x3d609153	0.054826092
156	0xbea7abf5	-0.3274838
157	0x3dafced1	0.08584369
158	0x3d237bdb	0.03991304
159	0x3d5625a4	0.05228199
160	0x3d31583a	0.04329703
161	0xbd3f5750	-0.046714127
162	0xbd2f57eb	-0.042808454
163	0x3e05e021	0.1307378
164	0x3e1b6d07	0.1517831
165	0x3e112a53	0.14176302
166	0x3dd37995	0.10325924
167	0x3c7a45f8	0.015275471
168	0x3c28dfb4	0.010307241
169	0x3dfa5bcd	0.12224541
170	0xbdb31634	-0.08744469
171	0x3d1c2def	0.038129743
172	0x3b513d22	0.0031927307
173	0x3e3358b4	0.17514306
174	0xbd848cc7	-0.06472164
175	0x3d483fd0	0.04888898
176	0x3de2d823	0.11076381
177	0xbdd499cd	-0.10380898
178	0x3db59829	0.08866913
179	0x3cd0ebe6	0.02550311
180	0x3e1e79e8	0.15476191
181	0x3d5c617e	0.053803913
182	0x3d786800	0.060646057
183	0x3ca8abad	0.020589674
184	0xbdb7bd51	-0.08971656
185	0x3dab4474	0.08362666
186	0xbdedbd60	-0.11608386
187	0xbbc70b83	-0.0060743704
188	0xbd7e05e2	-0.06201733
189	0xbe48989c	-0.19589466
190	0xbdfb4589	-0.12269122
191	0x3dfeb72d	0.12437282
192	0x3dc11f86	0.09429841
193	0xbda6c6ae	-0.08143364
194	0x3c86062c	0.016360365
195	0x3db66e10	0.089077115
196	0x3d74b9d9	0.05974755
197	0xbc29ba98	-0.010359429
198	0xb9972d9b	-0.00028834943
199	0x3e2bff05	0.16796501
200	0x3e398dec	0.18120545
201	0xbdfc226b	-0.12311252
202	0x3e0351c3	0.12824158
203	0x3e3be8cd	0.18350525
204	0x3e287a67	0.16452943
205	0x3d2f0fff	0.042739864
206	0x3da3065c	0.07960197
207	0x3d014ecd	0.03156929
208	0x3deb6207	0.114933066
209	0x3d3eac0d	0.0465508
210	0xbd30d6fb	-0.04317377
211	0x3d679ef0	0.05654806
212	0x3de43cdd	0.11144421
213	0x3d8bea3d	0.06831787
214	0x3e0f07d0	0.13967824
215	0xbe3e286a	-0.18570104
216	0x3d277872	0.04088635
217	0x3d6ed453	0.058307957
218	0xbe0c0ab6	-0.13675961
219	0x3dcdee42	0.1005521
220	0x3d3e98e7	0.046532538
221	0x3cac8390	0.021058828
222	0x3e04ea3c	0.12979978
223	0x3d83bbd9	0.064323135
224	0x3d7a7a3f	0.06115174
225	0x3ca959a3	0.020672625
226	0xbd100194	-0.035157755
227	0x3d84077a	0.064467385
228	0xbba9c022	-0.0051803747
229	0x3d65a74a	0.056067742
230	0x3e1ec281	0.15503885
231	0xbd5d7aec	-0.054072306
232	0xbe5d556a	-0.21614614
233	0x3d099f6c	0.033599302
234	0xbc9d4ef0	-0.01920268
235	0xbdf84b5d	-0.121237494
236	0xb9fedcf2	-0.00048611272
237	0x3e308478	0.17238033
238	0xbd96e5bf	-0.07368039
239	0x3d182de0	0.037153125
240	0x3df9ae94	0.12191501
241	0x3e100271	0.14063431
242	0xbd1477fa	-0.03624723
243	0x3dde1f20	0.108457804
244	0x3e28ef73	0.16497593
245	0xbe001446	-0.12507734
246	0x3dcfd03b	0.10147139
247	0x3d8e83ad	0.06958709
248	0x3cd8e0c0	0.026474357
249	0x3e12db95	0.14341576
250	0x3db455c8	0.08805424
251	0xbdaa70db	-0.08322307
252	0x3d8d87a0	0.06910634
253	0x3dccb9a3	0.09996345
254	0x3d8b7232	0.068088904
255	0xbcba0b1e	-0.02271038

base.mlp.fc.3.bias f4 [128]
0	0x3d1bfe75	0.038084466
1	0xbd6e26ca	-0.05814246
2	0x3cc0c904	0.023533352
3	0xbe18da7a	-0.14927092
4	0x3d7f196f	0.062280115
5	0x3d108268	0.035280615
6	0x3d57e143	0.05270506
7	0xbd833df5	-0.06408302
8	0x3c9f30d4	0.019432463
9	0xbd82f3af	-0.06394135
10	0x3d741852	0.059593506
11	0x3e11a94e	0.14224741
12	0xbd32f847	-0.043693807
13	0x3b650c80	0.0034950078
14	0x3d7a970e	0.061179213
15	0xbdb38c69	-0.087670155
16	0x3d5fbe25	0.054624695
17	0xbc40157d	-0.011723873
18	0xbb9b14bf	-0.0047326977
19	0x3d77c6d8	0.060492367
20	0xbd7e1e82	-0.062040813
21	0x3cc36643	0.023852473
22	0xbdb79641	-0.089642055
23	0x3da4c646	0.0804563
24	0x3b84a721	0.0040482436
25	0xbb857506	-0.004072788
26	0x3ccec064	0.025238223
27	0x3cf510a8	0.029915169
28	0x3e0842ba	0.13306704
29	0xbdefa051	-0.117005
30	0x3b82b6f6	0.003989096
31	0x3c92c4e8	0.017916158
32	0xbdc60cc8	-0.096704066
33	0x3d29ea32	0.04148311
34	0xbdff34fb	-0.12461277
35	0xbd896f6d	-0.06710706
36	0xbd7eb087	-0.06218007
37	0xbdb588c6	-0.08863978
38	0xbe02d0fb	-0.12775032
39	0x3d18298e	0.037149005
40	0x3cf8121b	0.03028207
41	0xbdadf80d	-0.084945776
42	0xbdd8ac54	-0.10579744
43	0xbd6271d3	-0.055284332
44	0xbcd414b6	-0.025888782
45	0xbc36e815	-0.011163731
46	0xbd044641	-0.03229356
47	0xbc125637	-0.008931688
48	0xbbccb887	-0.0062475833
49	0x3cced443	0.025247699
50	0x3d3ea128	0.04654041
51	0xbd6b06e5	-0.057379622
52	0x3df060f4	0.11737242
53	0xbd8ff516	-0.07029168
54	0xbe04a577	-0.12953745
55	0xbd751673	-0.059835862
56	0x3d537e9f	0.051634427
57	0xbc104798	-0.008806132
58	0x3d085b86	0.03329041
59	0x3d2cfc2d	0.04223268
60	0x3ce4010f	0.027832536
61	0x3c6005ba	0.01367324
62	0x3dbdd060	0.0926826
63	0x3bbeb46b	0.0058198473
64	0xbdb538ef	-0.0884875
65	0xbd246873	-0.040138673
66	0xbb1e1768	-0.0024122838
67	0x3cfe6a3e	0.03105652
68	0x3cd77fd0	0.026306063
69	0x3cae9840	0.021312833
70	0xbd82e6f6	-0.063917086
71	0x3d40887f	0.047005173
72	0xbd25b8cd	-0.040459443
73	0xbca46661	-0.02006835
74	0xbd8a09ed	-0.067401744
75	0xbc960815	-0.0183144
76	0xbd591587	-0.052999046
77	0xbd591999	-0.053002927
78	0x3d9f0543	0.077646755
79	0xbd5964de	-0.05307471
80	0x3ca50cd8	0.020147726
81	0x3d32b29c	0.043627366
82	0xbdc77794	-0.097396046
83	0x3d750420	0.059818387
84	0x3c7ab388	0.015301593
85	0xbd1364cc	-0.0359848
86	0x3cea643f	0.028612254
87	0xbdb9a201	-0.09064103
88	0xbd8d0d6c	-0.06887326
89	0xbdc9ccd7	-0.09853523
90	0x3d3d8cec	0.04627697
91	0x3c5790ae	0.013157053
92	0xbd8a1bd4	-0.06743589
93	0x3d10336c	0.03520529
94	0x3c2fd946	0.010732954
95	0x3d49f9cc	0.04931049
96	0x3cf9477f	0.0304296
97	0x3d7465cb	0.05966739
98	0xbd0a6d73	-0.033795785
99	0x3d570bbb	0.05250142
100	0xbd3ca130	-0.046052158
101	0xbd86cee1	-0.06582428
102	0x3e1af791	0.15133502
103	0x3cfb201a	0.030654956
104	0xbd96adf8	-0.07357401
105	0x3d79cc2f	0.06098574
106	0xbb0bcba9	-0.0021331108
107	0xbe00bdf5	-0.12572463
108	0x3cc3b586	0.023890268
109	0x3d39f400	0.045398712
110	0xbd824a9c	-0.06361887
111	0x3b23a8f7	0.0024972537
112	0x3dbfa09b	0.09356805
113	0xbdddda7a	-0.10832687
114	0xbca7fe26	-0.02050693
115	0x3e28d70d	0.16488285
116	0xbda5f1b5	-0.081027426
117	0xbbac1134	-0.005251074
118	0xbdaa7530	-0.08323133
119	0x3d908aea	0.07057746
120	0xbdb7c234	-0.08972588
121	0x3dcbba9a	0.09947701
122	0x3ddb6601	0.10712815
123	0xbd0cee7f	-0.034407135
124	0xbde8e22a	-0.11371262
125	0xbd23fbb7	-0.040034976
126	0xbd313935	-0.043267448
127	0xbd68045e	-0.05664479

base.mlp.fc.5.weight f4 [128]
0	0x3f7502f6	0.95707643
1	0x3f7800b2	0.9687606
2	0x3f743ea0	0.9540806
3	0x3f631f65	0.8871978
4	0x3f8ade8b	1.0849165
5	0x3f86b235	1.0523134
6	0x3f81b033	1.0131897
7	0x3f882c83	1.0638584
8	0x3f9b756c	1.2145209
9	0x3f93a28c	1.153398
10	0x3f71e0f0	0.9448385
11	0x3f81638d	1.0108505
12	0x3f6a1f2c	0.91453815
13	0x3f71a611	0.9439402
14	0x3f870fe1	1.0551721
15	0x3f6cc219	0.9248367
16	0x3f831510	1.0240803
17	0x3f92ca25	1.146794
18	0x3f805253	1.0025123
19	0x3f91acd8	1.1380873
20	0x3f81a368	1.0127993
21	0x3f856310	1.0420856
22	0x3f93a306	1.1534126
23	0x3f8b0759	1.0861617
24	0x3f5b3af0	0.85636806
25	0x3fa0dea8	1.2567949
26	0x3f6f7b0e	0.9354714
27	0x3f82b576	1.0211627
28	0x3f94167a	1.1569359
29	0x3f8c026f	1.0938243
30	0x3f832726	1.0246322
31	0x3f81e32b	1.0147451
32	0x3f9625b6	1.1730258
33	0x3f7ee63f	0.9957008
34	0x3f62f608	0.88656664
35	0x3fa389b3	1.2776397
36	0x3f97cd7f	1.1859587
37	0x3f7de380	0.9917526
38	0x3f671ace	0.90275276
39	0x3f915fbd	1.1357342
40	0x3f9f3d73	1.2440628
41	0x3f5a103e	0.85181034
42	0x3f7d2098	0.9887786
43	0x3f8a0838	1.0783758
44	0x3f82af9e	1.0209844
45	0x3f42663f	0.75937265
46	0x3f678991	0.90444285
47	0x3f96414e	1.173868
48	0x3f4d9ab7	0.803142
49	0x3f7f9311	0.9983378
50	0x3f80caa8	1.0061846
51	0x3f8f694e	1.1204011
52	0x3f9533fc	1.1656489
53	0x3f849f18	1.0361052
54	0x3f63cca1	0.88984114
55	0x3fa230ce	1.2671144
56	0x3f954df9	1.166442
57	0x3f6ce1e8	0.92532206
58	0x3f82b1cc	1.0210509
59	0x3f80f027	1.0073289
60	0x3f82adf6	1.0209339
61	0x3f5a80fa	0.8535305
62	0x3f710b87	0.94158214
63	0x3f6b4544	0.91902566
64	0x3f6970ae	0.9118756
65	0x3f8ad88e	1.0847337
66	0x3f678ab1	0.90446
67	0x3f8f8500	1.1212463
68	0x3f785a09	0.9701238
69	0x3f78493a	0.96986735
70	0x3f91156f	1.1334666
71	0x3f7a912e	0.97877777
72	0x3f8af13d	1.085487
73	0x3f77744c	0.9666183
74	0x3f845f1e	1.0341527
75	0x3f8b7839	1.0896064
76	0x3f8b6edc	1.0893207
77	0x3f887baf	1.0662745
78	0x3f90e15a	1.1318772
79	0x3f80bb0a	1.005708
80	0x3f846dbd	1.034599
81	0x3f9cf6e6	1.2262847
82	0x3f6ecb8c	0.9327934
83	0x3f8827a9	1.0637103
84	0x3f7e9d82	0.9945909
85	0x3f70f029	0.94116455
86	0x3f76ef62	0.9645902
87	0x3f85aa1b	1.0442537
88	0x3f3b3ab6	0.7313646
89	0x3f89f7c7	1.0778741
90	0x3f9faa94	1.2473931
91	0x3f86c121	1.0527688
92	0x3f8282b4	1.0196137
93	0x3f97cf99	1.1860229
94	0x3f899a7d	1.0750271
95	0x3f767859	0.96277386
96	0x3f90cdde	1.1312826
97	0x3f73dd48	0.95259523
98	0x3f812519	1.0089446
99	0x3f89bfc5	1.0761648
100	0x3f8c2052	1.0947363
101	0x3f81a899	1.0129577
102	0x3f9a3daf	1.2050074
103	0x3f8e6ee0	1.1127586
104	0x3f66ce36	0.901584
105	0x3f805ffc	1.0029292
106	0x3f7004d0	0.93757343
107	0x3f508af4	0.81462026
108	0x3f7ab082	0.9792558
109	0x3fafe3f7	1.3741444
110	0x3f93ef7c	1.155746
111	0x3f8d0946	1.1018455
112	0x3f9caa33	1.2239441
113	0x3f6746d1	0.9034243
114	0x3f88e072	1.0693495
115	0x3faa5db1	1.3309842
116	0x3f8f7a10	1.1209126
117	0x3f6ac386	0.91704595
118	0x3f855d37	1.0419072
119	0x3f91eb66	1.1399963
120	0x3f8609a1	1.0471689
121	0x3f6c9020	0.9240742
122	0x3f8dada6	1.1068618
123	0x3f810a4f	1.0081271
124	0x3f8d1bbd	1.102409
125	0x3f81194f	1.0085849
126	0x3f9a297e	1.2043912
127	0x3f8713f6	1.0552967

base.mlp.fc.5.bias f4 [128]
0	0x3dd4ff6d	0.10400281
1	0x3c991a96	0.018689435
2	0x3dec8da1	0.11550451
3	0x3d9fef21	0.07809282
4	0xbdea9385	-0.11453918
5	0xbd8ea4c3	-0.069650196
6	0xbca2b9d8	-0.019864008
7	0xbd8d0834	-0.0688633
8	0x3e84bbcb	0.25924525
9	0xbe2fa786	-0.17153749
10	0xbd15e27d	-0.03659295
11	0xbd3f535b	-0.046710353
12	0x3d41fec6	0.04736211
13	0xbd394989	-0.045236144
14	0x3da559f7	0.080738
15	0x3da497e8	0.08036786
16	0x3e0e65b6	0.13905987
17	0xbddb10b6	-0.10696547
18	0xbc03291c	-0.008005407
19	0x3e21df15	0.15807755
20	0xbd02952d	-0.031880546
21	0xbd786e50	-0.060652077
22	0xbe2bd092	-0.16778782
23	0xbe044b74	-0.12919408
24	0x3e134b92	0.14384297
25	0xbe1ec5ca	-0.15505138
26	0x3cc5fd78	0.024168715
27	0xbd8197c7	-0.06327777
28	0x3e421b55	0.18955739
29	0xbd57e495	-0.052708227
30	0xbce25ecc	-0.027633093
31	0xbb9a2f67	-0.004705358
32	0xbe34cb72	-0.17655733
33	0xba25ad90	-0.00063201133
34	0x3ddb8819	0.10719318
35	0x3d0e1912	0.034691878
36	0xbd71fc50	-0.059078515
37	0xbb28955c	-0.002572379
38	0xbc4ed66d	-0.012624365
39	0xbe0bd2e1	-0.13654663
40	0x3e7f1baa	0.24912897
41	0x3dfe9333	0.1243042
42	0x3c55dfee	0.013053877
43	0xbdae490b	-0.085100256
44	0xbd11d648	-0.035604745
45	0x3e3dfa11	0.18552424
46	0xbd559276	-0.05214163
47	0xbe34feb8	-0.17675292
48	0x3e81e3ad	0.25369015
49	0x3de3c7d7	0.11122101
50	0xbda7d8c3	-0.08195641
51	0x3d5472c6	0.05186727
52	0x3e2c4fd5	0.16827329
53	0xbd9eb7dd	-0.07749913
54	0x3db04482	0.08606817
55	0xbdc8fcbd	-0.09813831
56	0x3e33fc8f	0.17576812
57	0x3d85d972	0.06535615
58	0xbcb93837	-0.022609813
59	0xbc56a1a5	-0.0131000625
60	0xbd1826c7	-0.037146356
61	0x3dca2b5b	0.09871551
62	0xbd5f2118	-0.05447492
63	0x3d999898	0.07499808
64	0x3d81b58d	0.06333456
65	0xbdbae794	-0.09126201
66	0x3d73fc3f	0.059566732
67	0x3daa6cdf	0.08321547
68	0x3d1c39fb	0.038141232
69	0x3bb534e4	0.0055299867
70	0x3dd0a67b	0.10188004
71	0x3cd03110	0.02541402
72	0xbdc4eed7	-0.096158676
73	0x3d313fc7	0.043273713
74	0xbdbaf226	-0.091282174
75	0xbdcb4ce2	-0.099267736
76	0xbdd778c0	-0.10521078
77	0xbd95add4	-0.07308546
78	0xbc8ed772	-0.017436717
79	0x3b57efe6	0.0032949387
80	0xbd8f592b	-0.06999429
81	0x3e5bc46d	0.21461649
82	0x3d23fdb3	0.04003687
83	0xbd65b555	-0.056081135
84	0x3b8080ba	0.0039215954
85	0x3dae72da	0.08518
86	0x3caa0dcf	0.020758538
87	0xbd455bbe	-0.048183195
88	0x3e881638	0.26579452
89	0xbdde7da4	-0.10863808
90	0x3d1088ba	0.035286643
91	0xbc018520	-0.007905275
92	0xbcf38af3	-0.029729342
93	0x3d97ea71	0.07417763
94	0xbd15a42d	-0.036533523
95	0x3cf18dd3	0.029486572
96	0x3d3cb90b	0.04607491
97	0x3d6e3e92	0.05816514
98	0xbd0c54c0	-0.03426051
99	0xbb9357dc	-0.0044965576
100	0xbd3eb058	-0.046554893
101	0xbcd03226	-0.025414538
102	0x3e1ce634	0.1532219
103	0xbbef7217	-0.0073073017
104	0x3db1fc99	0.08690757
105	0x3d839c0b	0.06426247
106	0x3c816c2a	0.015798647
107	0x3cf73f21	0.03018147
108	0x3dfecf72	0.12441911
109	0x3da22b2a	0.07918389
110	0xbe239b22	-0.15977147
111	0xbe3f871e	-0.18703887
112	0x3e4a86c8	0.19777977
113	0x3db9705d	0.09054635
114	0xbdb9151f	-0.09037232
115	0x3e872c6d	0.26401082
116	0xbe020847	-0.1269847
117	0x3d3c8836	0.04602834
118	0xbd8d3ec2	-0.06896736
119	0xbc61db4a	-0.013785193
120	0xbd14c3f9	-0.036319707
121	0x3d24e2d6	0.04025539
122	0xbcfa38e5	-0.030544708
123	0xbccc04c4	-0.024904616
124	0xbdd48222	-0.10376383
125	0xbdd49373	-0.10379686
126	0xbe5d32e3	-0.21601443
127	0xbd892740	-0.066969395

rnn.gru.weight_ih_l0 f4 [384, 128]
0	0x3d8c2193	0.06842341
1	0x3d8d6ffb	0.06906124
2	0xbdab69d0	-0.083697915
3	0x3c89a796	0.016803544
4	0x3c997815	0.018734017
5	0xbd9fe056	-0.078064606
6	0x3bff5e87	0.007793251
7	0xbd9dfbe2	-0.077140585
8	0xbd8f5295	-0.06998173
9	0x3d99c5df	0.07508444
10	0x3d4503ca	0.048099317
11	0x3c36d69b	0.011159564
12	0x3e02eca3	0.12785582
13	0xb985d3b3	-0.00025525465
14	0xbcf8e66c	-0.030383311
15	0xbc483ba0	-0.012221247
16	0x3cd8c07b	0.02645897
17	0xbd111fc7	-0.035430696
18	0xbd81ab49	-0.06331498
19	0x3e4d4b14	0.20048171
20	0xbdfb599e	-0.122729525
21	0x3cea745c	0.028619938
22	0x3d091c85	0.033474464
23	0xbd188e2b	-0.037244957
24	0x3d4d316a	0.050095953
25	0x3cf0107e	0.02930474
26	0xbce4842e	-0.02789506
27	0xbd7abad3	-0.061213326
28	0x3d8c6e65	0.068569936
29	0xbd4e7d22	-0.050412305
30	0x3ced4e23	0.028967923
31	0xbb11f6f3	-0.0022272437
32	0x3d28067a	0.0410218
33	0x3c960416	0.018312495
34	0xbd28793e	-0.04113125
35	0x3d72aff4	0.059249833
36	0x3b7ef59a	0.0038903714
37	0x3c7468f6	0.014917603
38	0xbd04f8e9	-0.03246394
39	0x3cf10312	0.02942041
40	0xbc17222f	-0.009224459
41	0xbdcc3398	-0.09970778
42	0x3d6cb272	0.057787366
43	0xbd832e0d	-0.06405268
44	0x3d0eaa47	0.034830358
45	0x3d9a9359	0.075476356
46	0xbe1678bd	-0.14694495
47	0x3d5ce22c	0.05392663
48	0x3c951eca	0.018203158
49	0xbe03a609	-0.12856306
50	0xbd50abe6	-0.050945185
51	0x3cb53921	0.022121968
52	0x3c7fc97e	0.015612004
53	0xbc19fa90	-0.009398118
54	0x3cde23d6	0.027116697
55	0x3bbe1f9a	0.005802107
56	0x3db89f34	0.090147406
57	0x3ca511dc	0.020150118
58	0xbd9dc9cd	-0.07704506
59	0xbcbe83b2	-0.023256157
60	0xbdc549bc	-0.09633204
61	0x3e331798	0.17489469
62	0xbe5403d8	-0.20704591
63	0x3d339ae6	0.043848895
64	0x3dac2504	0.08405498
65	0xbcbb2053	-0.022842562
66	0xbdb4e64a	-0.08832987
67	0x3e05cc4d	0.13066216
68	0x3cf0f587	0.029413952
69	0xbdb93f15	-0.09045235
70	0x3e57bc00	0.2106781
71	0xbc41398c	-0.011793505
72	0xbd8ad33b	-0.0677857
73	0x3c43c6ae	0.011949224
74	0x3d31bb64	0.0433916
75	0xbb4d3a21	-0.0031315165
76	0xbd87c4fe	-0.0662937
77	0xbd57c119	-0.052674387
78	0xbccdaa15	-0.025105515
79	0x3d365282	0.04451228
80	0x3c4b76b8	0.0124184415
81	0x3c96a936	0.018391233
82	0xbb26801e	-0.0025405954
83	0xbd61630a	-0.05502609
84	0x3d122f8c	0.035689875
85	0x3de7303c	0.11288497
86	0x3d04178f	0.03224903
87	0x3d94043d	0.07227371
88	0xbd52c6fe	-0.051459305
89	0x3df72792	0.12068094
90	0xbd9391ea	-0.07205565
91	0x3d7c82ee	0.0616483
92	0xbcc671f3	-0.024224257
93	0xba21cd86	-0.0006172288
94	0xbc8fae74	-0.01753924
95	0xbb6523b8	-0.0034963917
96	0x3e335bef	0.17515539
97	0xbd83aecd	-0.06429825
98	0xbc722bfa	-0.014780993
99	0xbd5ae9aa	-0.053445496
100	0x3df606a6	0.12012987
101	0x3d374523	0.04474367
102	0xbd09b1d3	-0.033616852
103	0xbdc2b40e	-0.09506999
104	0x3d8e4891	0.06947435
105	0x3d726b23	0.059184205
106	0x3db7ec38	0.08980602
107	0xbd0c9e7e	-0.034330837
108	0xbe4192ce	-0.18903658
109	0xbd8298b4	-0.06376782
110	0xbd8c31b1	-0.068454154
111	0xbd3b00b1	-0.045654956
112	0x3cc63669	0.024195867
113	0xbd5ab667	-0.05339661
114	0xbd21c502	-0.039494522
115	0x3c9641a9	0.018341856
116	0xbcc46652	-0.023974571
117	0xbd475e92	-0.048674174
118	0x3e0d3cc1	0.13792707
119	0x3d67471a	0.056464292
120	0xbc6cf9a3	-0.014463815
121	0x3d51176f	0.05104774
122	0xbe198f8b	-0.14996164
123	0xbca125d5	-0.01967136
124	0xbe42e634	-0.19033128
125	0x3d97f62b	0.0742
126	0xbd720fbf	-0.059097048
127	0x3d5aa140	0.053376436
128	0xbe1bf495	-0.1523002
129	0x3bd33be3	0.006446348
130	0xbd002249	-0.031282697
131	0xbd6b5595	-0.057454664
132	0x3dc862fb	0.09784504
133	0x3e027737	0.1274079
134	0x3e59df11	0.212765
135	0x3d4cc9f3	0.04999728
136	0xbd5e7766	-0.054313086
137	0x3e3bcf97	0.18340908
138	0x3ddb103d	0.106964566
139	0xbd4d96c0	-0.050192595
140	0x3da28d23	0.07937076
141	0xbd2f2efb	-0.042769413
142	0x3d48e5b1	0.049047176
143	0x3dbaf7d2	0.09129299
144	0xbd0e8bd4	-0.03480132
145	0xbdc7f26f	-0.097630374
146	0x3d31a565	0.043370623
147	0xbd086ddc	-0.033307895
148	0xbcb6d227	-0.022317005
149	0x3d6076d3	0.05480082
150	0x3da5bfee	0.08093248
151	0x3d8cb66b	0.06870731
152	0x3d82061a	0.0634882
153	0x3d708e90	0.05872971
154	0x3e57dced	0.2108037
155	0x3d42a576	0.047521077
156	0x3c99740f	0.018732099
157	0x3d039e62	0.032133467
158	0x3e33a274	0.1754244
159	0x3ddea3c3	0.10871079
160	0x3dadb1d7	0.08481186
161	0x3e28239b	0.16419832
162	0x3e4facda	0.20280781
163	0x3dad1b54	0.08452478
164	0xbc014580	-0.007890105
165	0x3e40bfd0	0.1882317
166	0x3db7c382	0.08972837
167	0x3dabcc5e	0.08388589
168	0xbd37ee5a	-0.044905044
169	0x3dbebf7b	0.09313866
170	0x3e4c7a2d	0.19968481
171	0x3e113e82	0.14184001
172	0x3e47e57b	0.19521134
173	0x3e15c6d3	0.14626627
174	0x3debcc1e	0.11513542
175	0x3e324870	0.17410445
176	0x3db564b7	0.088571005
177	0xbdef6800	-0.11689758
178	0x3e160daf	0.14653657
179	0x3dc8715b	0.09787246
180	0x3b8cf213	0.0043013184
181	0x3e0362a2	0.12830594
182	0x3e4856ee	0.19564411
183	0xbd3b8bfd	-0.0457878
184	0xbaac7e1d	-0.0013160143
185	0x3db87099	0.09005851
186	0x3d84e1d2	0.06488384
187	0x3e4a8026	0.19775447
188	0xbd8c651b	-0.06855222
189	0x3d1a4a17	0.037668314
190	0x3d8bad24	0.06820133
191	0x3e40d319	0.18830527
192	0x3e21e7a8	0.15811026
193	0x3d7d3e3f	0.06182694
194	0x3d87b2bd	0.066258885
195	0xbddf8ed1	-0.10915912
196	0x3e1779d9	0.14792575
197	0x3d1f7573	0.038930368
198	0xbde48157	-0.11157482
199	0x3d276687	0.040869262
200	0x3e00bef0	0.12572837
201	0x3e553b6e	0.20823452
202	0x3e1d3e92	0.153559
203	0x3e0b8dc2	0.13628295
204	0x3e2635f2	0.16231516
205	0x3d8fa671	0.07014168
206	0xbd8cc53b	-0.06873556
207	0x3e493720	0.19649935
208	0xbdcd0adc	-0.10011837
209	0xbe623b6e	-0.22092983
210	0x3dc0c487	0.094124846
211	0x3a3252dc	0.0006802508
212	0x3de5d1d3	0.112216614
213	0x3c806678	0.01567386
214	0x3e09e972	0.13467959
215	0x3e183cd0	0.14866948
216	0x3e1e341d	0.15449567
217	0x3af8594c	0.0018947511
218	0xbd98103f	-0.07424974
219	0x3e451b3f	0.19248675
220	0x3e4aa468	0.19789279
221	0xbe79f3f1	-0.24409463
222	0x3b4a7747	0.0030893849
223	0x3d95fd17	0.07323664
224	0xbdeddbf8	-0.11614221
225	0xbe0e834b	-0.13917272
226	0x3e3fb13f	0.18719958
227	0x3d8ec18d	0.06970511
228	0x3d15e3c2	0.03659416
229	0x3e06ccd3	0.13164072
230	0x3b254d71	0.002522316
231	0xbc8a083e	-0.016849633
232	0x3e12bab5	0.14329036
233	0xbe8802b7	-0.2656457
234	0x3da7c4b0	0.08191812
235	0x3d80d220	0.06290078
236	0xbd8dd709	-0.0692578
237	0x3dbe8aa9	0.09303791
238	0x3d33a5ae	0.043859176
239	0x3db0c03a	0.08630414
240	0xbd80923d	-0.06277893
241	0x3ddbecb2	0.107385054
242	0x3dd40682	0.10352804
243	0xbdea5676	-0.11442272
244	0x3e3e2b42	0.18571189
245	0xbd57f0f6	-0.052720033
246	0x3e15b797	0.14620815
247	0xbd2253c6	-0.039630674
248	0xbe13f571	-0.14449097
249	0x3c66f09f	0.0140954545
250	0x3cbfb6e7	0.023402644
251	0x3e133eb5	0.1437939
252	0x3dee6fa0	0.116423845
253	0x3af9da71	0.0019062293
254	0x3dc74ab2	0.09731044
255	0x3e3f9611	0.1870959

rnn.gru.weight_hh_l0 f4 [384, 128]
0	0xbdbc3413	-0.0918962
1	0xbd8c4456	-0.068489715
2	0xbcb07808	-0.02154161
3	0x3d87904a	0.06619318
4	0x3bbb4c0b	0.005715852
5	0x3c924d54	0.017859139
6	0x3d8a2bba	0.067466214
7	0x3cc43e25	0.023955414
8	0xbd4b5a34	-0.04964657
9	0xbce15e71	-0.027510853
10	0x3d500c0e	0.050792746
11	0x3d99234e	0.07477437
12	0x3d49bbea	0.049251474
13	0xbd099b36	-0.033595286
14	0x3cabc3d9	0.02096741
15	0x3d1bc6b3	0.03803129
16	0x3cadddcf	0.02122393
17	0x3d56d92c	0.052453205
18	0xbcb517b0	-0.022106022
19	0xbc6a7bfa	-0.014311785
20	0xbcbcde0d	-0.0230551
21	0x3cea01f5	0.028565386
22	0x3c17f434	0.009274531
23	0x3d36fcf5	0.044674832
24	0xbdd99e40	-0.10625887
25	0xbd13e7fd	-0.036109913
26	0x3e31b1bc	0.17352957
27	0x3dda529c	0.10660288
28	0xbcebc73a	-0.028781522
29	0x3d16579c	0.036704645
30	0xbe10a126	-0.14123973
31	0x3dfe021a	0.124027446
32	0x3d92f63c	0.07175872
33	0x3d5095f4	0.050924256
34	0x3d430357	0.047610607
35	0x3d304ce7	0.04304209
36	0xbdfca937	-0.12336963
37	0x3ddca7d8	0.10774201
38	0x3d15c75d	0.03656708
39	0xbce91bd9	-0.028455662
40	0xbd83a458	-0.064278305
41	0xbcc5c50e	-0.024141815
42	0x3dc1fa1b	0.09471532
43	0x3dbff575	0.09372989
44	0xbe36cbaf	-0.17851137
45	0x3d11405f	0.03546178
46	0xbde1addb	-0.110194884
47	0xbdceb8c5	-0.10093836
48	0xbb261e3b	-0.0025347609
49	0x3dad575c	0.08463928
50	0xbdd2e5a6	-0.10297708
51	0x3d123a6d	0.03570025
52	0xbce08501	-0.027407171
53	0x3e0a4fbb	0.13506977
54	0xbd6bc3c3	-0.05755974
55	0x3c1af403	0.009457591
56	0xbd91d94d	-0.07121525
57	0xbd3e3ae1	-0.04644287
58	0xbdd7c927	-0.10536414
59	0x3d08ea5b	0.033426624
60	0xbd23b27c	-0.039965138
61	0xbdfeb64d	-0.12437115
62	0x3d15e606	0.03659632
63	0xbdd98812	-0.106216565
64	0xbe12d6ff	-0.14339827
65	0xbd4d00b0	-0.050049484
66	0x3d768035	0.06018086
67	0xbd9f3ff4	-0.0777587
68	0x3dc308da	0.09523173
69	0x3da3c1e2	0.079959646
70	0x3db108f1	0.086442836
71	0xbdf65f6e	-0.120299205
72	0xbd9571a7	-0.07297068
73	0x3d8500dc	0.064943045
74	0x3da29c94	0.07940021
75	0xbdb1d984	-0.08684066
76	0xbcc85613	-0.024455106
77	0x3ddadd51	0.10686744
78	0xbd3cfa7d	-0.04613732
79	0x3de17564	0.110087186
80	0x3e2c183f	0.16806124
81	0xbdb3f495	-0.08786885
82	0xbd264f98	-0.04060325
83	0x3bf0eda4	0.0073525477
84	0x3dbc844b	0.092049204
85	0xbcd8f31a	-0.026483107
86	0x3e3b65a1	0.18300487
87	0xbe0214b6	-0.12703213
88	0x3d49eda7	0.04929891
89	0xbdea9d99	-0.114558406
90	0xbca8093f	-0.020512221
91	0xbe209f45	-0.15685757
92	0x3dc531a9	0.096286125
93	0x3d06cab2	0.03290815
94	0x3c844140	0.016144395
95	0x3cc318ac	0.023815475
96	0x3da0dcb4	0.07854596
97	0x3cb9bc80	0.022672892
98	0x3d75ac44	0.05997874
99	0x3dc1c30d	0.09461031
100	0xbd452499	-0.048130605
101	0x3d83ea5d	0.064411856
102	0xbd8df9e4	-0.069324285
103	0xbca537db	-0.020168236
104	0xbda27cc4	-0.079339534
105	0x3e34a716	0.17641863
106	0x3d44a444	0.04800822
107	0xbd661caf	-0.0561797
108	0xbd4f36ce	-0.050589375
109	0x3df7cdea	0.12099822
110	0xbd00331b	-0.031298738
111	0x3c8aaca3	0.016928023
112	0x3c26fab7	0.010191611
113	0xbd9391e5	-0.072055615
114	0xbdd37ce3	-0.103265546
115	0xbd9c656b	-0.076365314
116	0xbcab77b6	-0.020931106
117	0x3dac5eae	0.08416496
118	0xbce936cc	-0.028468512
119	0x3b18e12b	0.002332757
120	0x3dc865b3	0.097850226
121	0xbb1c916d	-0.0023890391
122	0xbe3de87e	-0.1854572
123	0xbd420862	-0.047371276
124	0x3de888bd	0.11354206
125	0xbe0c1319	-0.1367916
126	0xbdc7dca7	-0.09758883
127	0xbd52b0da	-0.05143819
128	0xbd04aa95	-0.032389242
129	0xbe063101	-0.13104631
130	0x3cb2579d	0.021770293
131	0xbda7ea48	-0.081989825
132	0xbdd83625	-0.10557202
133	0xbe253169	-0.1613213
134	0xbdac4ef5	-0.08413497
135	0x3de24067	0.1104744
136	0x3d82e140	0.06390619
137	0x3c8b3db0	0.016997188
138	0xbdfbd6ac	-0.12296805
139	0x3cfbfdb9	0.030760633
140	0x3cc4b0cf	0.02401009
141	0x3da5a156	0.08087413
142	0xbd260f3f	-0.040541884
143	0x3db11d27	0.086481385
144	0xbc1e4468	-0.009659864
145	0x3dcaee7f	0.09908771
146	0x3e134888	0.14383137
147	0xbe3732f1	-0.17890526
148	0x3e0c6ef1	0.13714196
149	0xbe1a3002	-0.15057376
150	0x3d39f75b	0.045401912
151	0xbe1be0c8	-0.15222466
152	0x3d75645a	0.059910156
153	0x3d27cd33	0.040967178
154	0xbabc59e4	-0.0014370051
155	0x3d9c707b	0.076386414
156	0x3d1c1592	0.03810651
157	0xbd16f93c	-0.036858782
158	0x3e00718a	0.12543312
159	0x3db4b211	0.08823026
160	0xbe1df406	-0.15425119
161	0xbd1b0997	-0.037850942
162	0x3d2f35da	0.042775966
163	0x3e45ab41	0.1930361
164	0x3d211376	0.0393252
165	0xbd19adf0	-0.037519395
166	0x3c838b83	0.016057735
167	0xbd606761	-0.05478609
168	0xbe398a2a	-0.18119112
169	0xbe615a93	-0.22007208
170	0xbd85751b	-0.06516477
171	0xbe9b26da	-0.3030308
172	0x3d594859	0.05304751
173	0xbdec00bd	-0.11523578
174	0xbd24174c	-0.04006128
175	0x3d878684	0.06617454
176	0x3e0f71ff	0.1400833
177	0xbe27109f	-0.16314934
178	0x3dda750c	0.10666856
179	0xbdea810d	-0.11450396
180	0xbc188cb3	-0.009310889
181	0x3d66535e	0.05623185
182	0x3ced3316	0.028955024
183	0xbdda4f62	-0.10659672
184	0x3bf2ee54	0.007413665
185	0x3dba9488	0.09110361
186	0xbc619812	-0.013769167
187	0xbca0a53f	-0.019610045
188	0x3d8d9796	0.06913678
189	0x3c97d325	0.018533299
190	0xbd7966ce	-0.060889058
191	0x3dcaabe0	0.09896064
192	0x3db8fa48	0.09032112
193	0x3e37a3c3	0.17933564
194	0x3cac1a86	0.021008741
195	0x3d0b747b	0.03404663
196	0xbd439856	-0.0477527
197	0x3d3b6204	0.04574777
198	0xbde57fa6	-0.11205988
199	0x3c6d8012	0.014495866
200	0xbdf92b73	-0.121664904
201	0x3e4ee5a2	0.20204785
202	0x3c954889	0.018223064
203	0xbc86c5ef	-0.016451804
204	0xbd2a4c44	-0.04157664
205	0x3c93f84c	0.018062733
206	0xbd2c660b	-0.042089503
207	0x3bc428d5	0.005986313
208	0x3ba2e619	0.0049712774
209	0xbceb0881	-0.028690578
210	0xbd81b320	-0.063329935
211	0xbce27fbe	-0.027648803
212	0xbd8b5b48	-0.0680452
213	0x3d9160ed	0.07098565
214	0xbc949b83	-0.01814056
215	0xbe27baf5	-0.16379912
216	0x3c3ac548	0.011399575
217	0xbe111b42	-0.14170554
218	0x3d81bbea	0.0633467
219	0x3ce79753	0.0282704
220	0xbd81733b	-0.063208066
221	0x3dd8257d	0.10554025
222	0x3cfe21ec	0.031022035
223	0x3d22a3fe	0.039707176
224	0xbc63d178	-0.013904922
225	0xbe145262	-0.14484552
226	0x3e0e38ae	0.13888809
227	0x3ce2e6a8	0.027697876
228	0xbd1bf111	-0.038071696
229	0xbdc40e6b	-0.095730625
230	0xbd515dff	-0.051115032
231	0xbd7aad52	-0.061200447
232	0x3d1462ea	0.036227144
233	0x3dda4f5b	0.10659667
234	0xbd1b4595	-0.037908155
235	0x3dda182b	0.10649141
236	0xbd0177b4	-0.0316083
237	0x3d05ddc0	0.03268218
238	0x3e2313c4	0.15925509
239	0x3e04a253	0.12952547
240	0xbbf4b9f1	-0.007468455
241	0xbe03f83c	-0.12887663
242	0xbd7d06aa	-0.061773933
243	0x3d2ba41b	0.04190455
244	0xbc023b0b	-0.007948647
245	0x3e1c4d6d	0.1526391
246	0x3cbc3872	0.022976134
247	0xbd838fcd	-0.06423912
248	0x3d6525b0	0.055944145
249	0x3ddba141	0.10724116
250	0x3d308813	0.04309852
251	0xbcd3c062	-0.025848571
252	0xbe0710d1	-0.13190009
253	0xbe01bec2	-0.12670425
254	0x3cdf80f5	0.027283171
255	0x3e1154c0	0.14192486
