scripts/results/MAPPOTraining2v1/2v1/NoWeapon/MAPPOTraining/mappo/v1_2v1_mappo_training/wandb/offline-run-20250807_165042-zjjd28i2/files/actor_episode_12400.pt (torch, 700180 bytes, 30 tensors)

base.mlp.fc.0.weight f4 [128, 21]
00000000: d423 d6ba fdbd ef3d e5e9 37be 0873 24be
00000010: 2321 acbd 3eaf 6f3d e8ac 8dbb db2c 313e
00000020: 7aa4 9ebc 2184 6c3d e70f 87bd b5b1 2fbd
00000030: 3e7a 55be 86fd 13be 0b3a b8bd f370 043c
00000040: eaad b03d 0314 063e 4a7d 17be e19c c2bd
00000050: 5153 a23d fd7a 253e 9f0e 8f3c ab2d 663e
00000060: 5acb 65bc f3ee ccbc a031 5d3e 6686 3abe
00000070: 6ca0 90be 46c7 b7bd 9050 50be f37a 253f
00000080: 130d efbd 55af 86bd 5458 f6bd 46d8 97be
00000090: 816c 27be 6f64 f63e 54bf ee3d f99f 143e
000000a0: dd63 233d a1ea 15be fe43 9b3c 4936 5abe
000000b0: 07e1 31be 887b 02be f9ec e93d eb65 ec3d
000000c0: dcf9 e4bd d3f2 673a 2093 183e ae36 653e
000000d0: e9ac 9f3d 1241 5a3c 011b 063e 8c71 15be
000000e0: 1f2c ff3c 43b0 3dbe b14d 13be bc3c 04be
000000f0: 9414 ab3d a561 933d 89e1 e9bd 8f44 513d
00000100: 0fec 3e3e f161 bebd b52c eabc 450b c33d
00000110: e9f9 fe3d a2ae 353e 3aff 7cbe f573 3d3e
00000120: 3588 aabd b60e 893e d10e 1f3e 3aa4 1d3e
00000130: 0c80 6abb 60a7 d6be c160 6bbd 088e 513e
00000140: 41e0 77be 4444 083e 82fd 173e 188d 2ebe
00000150: 06ed bf3c 4228 85bd 20c4 95bd 1d66 05be
00000160: dc96 633d d9aa 16be 10da 543d 6cab 1a3e
00000170: b7c3 983d 30d1 f23d 88fb 96be 1560 2ebe
00000180: a082 a53d 6016 393c 0c85 16be e5ae c7bd
00000190: 95e7 313e 8aa9 ef3d 0d5d 02be f519 a9bd
000001a0: 0751 34be 7586 80bb 5e46 28be 155d 2cbe
000001b0: 23ff 44bc e633 063d f605 b7bd e097 043e
000001c0: 2ffb 07be aac1 4a3e 3f22 193e 976f 3cbe
000001d0: 3975 5ebd 7b53 213c cd68 023d c1fd 533d
000001e0: 5661 af3d f428 563c 740f dabd 1779 d33d
000001f0: 5d59 56be 7f71 04be fdbf 5fbd 2ab2 d9bd
00000200: 1858 9cbd 0f26 37be 1121 3ebd 550f 3f3d
00000210: c892 11be 2f7b 37bc e6f5 1f3e 1bc5 b7bc
00000220: e2ba c63b c337 9abc 83e4 343d e314 0e3e
00000230: c2aa 533e 10e8 0d3e bd26 543e 0049 81bc
00000240: 0bbc 48be b6de d3bd da26 183e e269 b9ba
00000250: 9622 debd 7e3c 2bbe f61e 51be 1499 3cbe
00000260: b64c 35bd 9816 f53d 379e f13d db81 57be
00000270: 2663 0b3e 12db 2ebe 7df6 3cbd ba35 b5bd
00000280: da29 2cbd c17e 2fbd 7784 48be 8bf0 40be
00000290: 54dd 0bbd ddf1 383b 2605 cbbd ca59 a83d
000002a0: 71ef 98be 9629 4cbe d7dd 613e 6bb6 e7bd
000002b0: b592 e43d aa23 92bc d9c4 63be aabf 3b3e
000002c0: f946 6f3e c4d4 30be 47e0 e43e 18db 53be
000002d0: 9f30 58bb 401c 64bd 624c bc3e 928e 033e
000002e0: 6611 073e 5cfe 7f3d 6b5a 37bd e9d2 b7bd
000002f0: 1dd3 32be 20a3 c83d 7c48 753e 39da 5f3e
00000300: deb6 01be d616 feba 160f 12be b764 c2bd
00000310: 24a1 91be 14f6 1f3d 1d3b a5be 915e fc3e
00000320: 09c5 283d 561d 333e 16d4 febd 1ef4 78be
00000330: 14df 4cbe 1659 e83e af75 56bd 0f9b 6c3e
00000340: cfb0 e13d c30b 41bc 8c0a a9bd b583 89bd
00000350: 8aca 033d 6a65 a5bd b821 a53c 558c 70bd
00000360: c3e9 59be c871 44be 9bfc 603e d342 53be
00000370: 7b63 0c3d 094c 463e 9778 793d 79a3 cbbc
00000380: f736 42be d62a 1f3d 7123 8f3a 66ed c2bd
00000390: daf4 a2bd 1949 96bd 9627 f33c 3fcc 073d
000003a0: 1af7 48bd d393 3e3e 1936 7e3d 89ee b4be
000003b0: 13f6 aebb e413 6fbe 7917 80bd 3f57 ba3d
000003c0: dc73 aebd 73e4 123f e434 10be d7e4 73bd
000003d0: d549 6c3d 4de6 23be 2954 323c dac4 213e
000003e0: 42fe 93bd e6f5 8dbd 343d 51be 6ad4 ab3d
000003f0: 10bc 4a3e 2f53 70bd 013c 31be 17c8 d4bd
-0.0016337582 0.11706159 -0.17960317 -0.16059506 -0.08404758 0.058516733 -0.0043235905 0.17302267
-0.019365538 0.057743195 -0.0659483 -0.042894084 -0.20847413 -0.1445218 -0.08995446 0.00808357
0.086269215 0.13093571 -0.14793888 -0.095025785 0.079260476 0.16160198 0.017463027 0.22478358
-0.014025534 -0.025016284 0.21600962 -0.18215331 -0.28247392 -0.08973555 -0.20343232 0.6464073
-0.116724156 -0.06576411 -0.12028566 -0.2965719 -0.16349985 0.481235 0.11657587 0.1451415
0.03989016 -0.14640285 0.01895332 -0.2130977 -0.17370997 -0.12742436 0.11422152 0.11542877
-0.111804694 0.00088481343 0.14899874 0.2238414 0.07796652 0.013321178 0.13096239 -0.14594096
0.031148968 -0.1852427 -0.14385106 -0.12913793 0.08353534 0.071963586 -0.114199705 0.051090773
0.18644737 -0.092960246 -0.028585771 0.09523634 0.1245001 0.17742398 -0.24706736 0.18501265
-0.08326761 0.26769036 0.15532996 0.15394679 -0.0035781888 -0.41924572 -0.05746532 0.20464337
-0.2420664 0.13307291 0.148428 -0.1704601 0.023428451 -0.06501819 -0.073127985 -0.13027234
0.055563793 -0.1471361 0.051965773 0.15104455 0.07459205 0.118563056 -0.29488778 -0.1702884
0.08081555 0.0112968385 -0.14699191 -0.09750155 0.17373498 0.11702259 -0.12730809 -0.08256904
-0.17609034 -0.0039222785 -0.16433093 -0.16832383 -0.01202372 0.032764338 -0.08936684 0.1294856
-0.13279413 0.1980044 0.1495447 -0.18401943 -0.05431101 0.009846563 0.031838227 0.05175567
0.08563487 0.013071287 -0.10647479 0.103258304 -0.20932527 -0.1293392 -0.054626454 -0.10629685
-0.0763399 -0.17885612 -0.046418253 0.04664548 -0.14216149 -0.011198803 0.15621147 -0.022432854
0.0060647586 -0.018825417 0.04416324 0.13875155 0.20670608 0.13858056 0.20717902 -0.01578188
-0.19602983 -0.10345213 0.1485857 -0.0014145935 -0.108464405 -0.16722295 -0.20421967 -0.1841777
-0.04426261 0.119672 0.11797755 -0.2104563 0.13612041 -0.17075756 -0.046133507 -0.08848138
-0.0420321 -0.04284549 -0.19581781 -0.1884176 -0.03414662 0.0028220334 -0.09913091 0.08220251
-0.2987018 -0.19937739 0.22057281 -0.1131409 0.11160795 -0.017839272 -0.2224306 0.18334833
0.23366918 -0.17268664 0.4470236 -0.20689046 -0.0032987965 -0.055691004 0.36777025 0.12847355
0.1319023 0.062498435 -0.044763964 -0.08975775 -0.17463346 0.097967386 0.23953432 0.21860589
-0.12667415 -0.0019385468 -0.14263567 -0.09491866 -0.28443253 0.039053038 -0.32271662 0.49290898
0.041203532 0.1749166 -0.12442796 -0.24311873 -0.20006973 0.45380467 -0.052358326 0.23106025
0.11020052 -0.011782589 -0.08253965 -0.06714574 0.03217558 -0.08075984 0.02015768 -0.05872758
-0.2128058 -0.19184029 0.21971361 -0.2063096 0.03427456 0.19364943 0.06090602 -0.024858223
-0.1896628 0.03885921 0.0010920597 -0.095179364 -0.07956858 -0.07338161 0.029681962 0.03315377
-0.04906378 0.18611078 0.06206331 -0.35338238 -0.005339393 -0.23347431 -0.06254477 0.09098672
-0.08518192 0.57379836 -0.14082676 -0.05954441 0.0576876 -0.16005822 0.010884323 0.15797749
-0.0722623 -0.06931667 -0.20433503 0.08390124 0.19798303 -0.05867308 -0.17308046 -0.103897266

base.mlp.fc.0.bias f4 [128]
00000000: 8694 a63d bb37 87bc 1b7e 493e d26c 3dbd
00000010: 5478 12be 587c 663d 046c e83d 1c4d e3b9
00000020: b30a 3a3e 40a6 c9bd ed0e 873d 5810 8d3d
00000030: ff43 a93d abd4 b13c d054 983c 3714 72be
00000040: e17d 90be a614 3ebd afe8 d5bd 3c8d 0d3e
00000050: aaf8 203e 5879 193e 51c8 c5bd e258 62be
00000060: 5568 62be 90bb ef3d 833f 87be db84 88be
00000070: 8acb bcbd bd06 5ebe 9a65 20be e7ac 0cbe
00000080: f73d 02be 022a 893e 0cc3 8abd b91e 0f3e
00000090: 27a7 9e3b 1ce1 e5bc 3ed4 d8bd 57bb 1fbe
000000a0: d988 33be 7562 173e 7232 83bd 3cdd 59be
000000b0: 72b4 f73d cca3 843b 965e 41be cb3a 4abe
000000c0: 4739 52be 2258 68be 26e1 b03d 2412 1a3e
000000d0: 1936 923c ef71 3ebe c2c7 69bd 7501 64be
000000e0: 1ba4 bf3c ae53 6dbd fcee 36bd d144 47bd
000000f0: ea64 1d3d 2efa d63d bf38 b53d ab17 febc
00000100: 4c0b 74bd c974 4ebd 313c 0cbe 3ad6 363e
00000110: 9dbe c0bd 0ea7 093e 56f3 f3bd e402 c03a
00000120: 4dad 793d e808 01be 66ff cc3d e50a 2bbe
00000130: f48a 81bc c1eb 95bd 8d26 023e a4ca 613e
00000140: f774 3e3d 934d a6bc 2d73 28be d19f a63d
00000150: a41b d7bd 979a b83d 87dc ccbd 96e0 443e
00000160: 998d 0b3e a664 ed3d 21b8 ed3b 96f6 df3d
00000170: 1583 53be 4570 2a3e a0bc 5fbd 8330 803d
00000180: c396 22bd f3c1 6dbd eff9 afbd 3822 103e
00000190: 45cf 13be 6a09 debc a471 e13d 9c8f 19bc
000001a0: baa2 13be 1aed 67be 8f5e febd ada8 6b3e
000001b0: faff 23be e150 de3d ec30 863d cb5b 0dbe
000001c0: cc5b c5bd 0091 38be d520 02bc c7a7 e1bc
000001d0: 55b4 2d3c e1d3 2f3d 5d9e 993d 9b4b 95bd
000001e0: eb8d 753c 2a0d 4e3d bff9 4dbd 924f 47bc
000001f0: 53d0 6cbd 718d 3b3e 17c4 02be f0ad 033d
0.08133797 -0.016506067 0.19677012 -0.046246357 -0.14303714 0.056270927 0.11348727 -0.00043354265
0.18168144 -0.09846163 0.06594644 0.06887883 0.08264922 0.021707853 0.01859513 -0.23640524
-0.28221038 -0.04640641 -0.104447715 0.13823408 0.15719858 0.14987695 -0.09657348 -0.22104219
-0.22110112 0.117056966 -0.26415643 -0.2666386 -0.092185095 -0.21682258 -0.15663758 -0.13737832
-0.1271895 0.26789862 -0.067754835 0.13976564 0.0048417035 -0.028061442 -0.10587357 -0.15598808
-0.17532672 0.14783652 -0.06406106 -0.212758 0.12094964 0.0040478464 -0.18883738 -0.1974899
-0.20529662 -0.2268987 0.08636694 0.15045983 0.017848061 -0.1859815 -0.05707527 -0.22266181
0.023393681 -0.05794113 -0.044661507 -0.048649613 0.038426317 0.10496937 0.08848714 -0.031017145
-0.059581086 -0.050404344 -0.13694836 0.17855158 -0.094113566 0.13442633 -0.11911647 0.0014649299
0.060956288 -0.12601054 0.10009651 -0.16703375 -0.015813328 -0.07320357 0.12710018 0.22049958
0.046498265 -0.020300662 -0.16450186 0.08135951 -0.10503319 0.09013861 -0.10003 0.19226298
0.13628234 0.11591463 0.007254616 0.109357044 -0.20655473 0.1664439 -0.054623246 0.06259253
-0.03969456 -0.058046293 -0.08592593 0.14075553 -0.14434536 -0.027104098 0.11008003 -0.009372618
-0.14417544 -0.22649041 -0.12420379 0.23013563 -0.16015616 0.1085527 0.065523 -0.13804547
-0.096366495 -0.18024063 -0.007942398 -0.027545823 0.010602077 0.042926673 0.075009085 -0.07289811
0.014987449 0.050305523 -0.050287005 -0.012164967 -0.05781586 0.18315674 -0.12770115 0.0321483

base.mlp.fc.2.weight f4 [128]
00000000: ed48 743f 24b5 913f 0f84 703f 6185 6f3f
00000010: 0d0c 513f 1c4a 5d3f 02c0 5b3f f75b 5e3f
00000020: 3b34 913f a6ce 8e3f be48 303f a466 803f
00000030: be57 673f 320c 803f 810b 683f c8da 283f
00000040: 4ac7 453f dadc 4f3f 437e 163f 0680 693f
00000050: 9b82 873f 8e6b 873f ef78 853f 5171 5e3f
00000060: 3130 553f 7ede 833f 28ba 723f 30a8 573f
00000070: 4c49 883f 4228 723f bb9e 553f 6de2 5a3f
00000080: b70f 5d3f 029c 8a3f 3b14 843f fb18 4c3f
00000090: e89b 473f 0c39 5c3f 55cc 4c3f 13c2 763f
000000a0: eed2 613f a830 703f f13c 7a3f e772 403f
000000b0: ec86 4b3f 1500 5b3f 9b0e 4b3f 2f83 7b3f
000000c0: 3313 753f a99e 5f3f a31f 383f e2d4 663f
000000d0: 6abc 713f f78a 563f 7fda 6a3f 3196 603f
000000e0: 28f0 523f 14b2 4f3f 88c9 a43f 025a 843f
000000f0: e6cd 613f d26c 453f 5b5b 8b3f 060d 7d3f
00000100: f7c0 783f 2545 8c3f 3934 903f b6ef 6e3f
00000110: 9e62 653f 7a04 763f 2f39 973f 5003 593f
00000120: 9b58 503f 83b3 803f 6c37 643f d5fa 563f
00000130: b543 4f3f cff1 4b3f a107 823f 51f1 973f
00000140: 1b68 7e3f 6a4c 5e3f 8220 393f 215a 663f
00000150: be27 573f d559 683f aa18 773f a1f3 913f
00000160: 430a 843f 1c0a 2c3f 119c 883f 9d46 923f
00000170: bdc3 7d3f eac2 513f 97b1 963f b385 863f
00000180: b099 5f3f 0314 993f 02c3 8f3f 3a13 753f
00000190: 3d53 483f b98d 8f3f 572c 6d3f bef3 6b3f
000001a0: e2e5 863f 0fbd 623f 4300 7f3f e851 8e3f
000001b0: c779 7f3f e1d5 893f 8705 8c3f daac 7d3f
000001c0: ca29 6b3f c1d4 4b3f ce22 813f 9b0c 483f
000001d0: 2f47 5e3f 61c3 723f b54b 803f 6d22 843f
000001e0: 94ff 5b3f 71fc 5a3f 8c29 3d3f 5ba7 7a3f
000001f0: 834c 523f 63f3 713f 9874 3c3f a07c 893f
0.95423776 1.1383405 0.93951505 0.93562895 0.81659013 0.86441207 0.85839856 0.8685908
1.1344064 1.1156814 0.68860996 1.0031323 0.9036826 1.0003722 0.90642554 0.65958834
0.77257216 0.8119637 0.5878641 0.91210973 1.0586733 1.0579698 1.0427531 0.8689166
0.8327666 1.0302274 0.948153 0.8424101 1.0647368 0.9459268 0.8344533 0.8550175
0.86352104 1.082886 1.0318674 0.7972562 0.7797227 0.86024547 0.79999286 0.96389884
0.8821248 0.93824244 0.9774924 0.7517533 0.7950275 0.85547 0.7931916 0.98247045
0.9573242 0.8735147 0.71923274 0.90168583 0.9442812 0.83805794 0.9173965 0.87729174
0.823977 0.811311 1.2874002 1.0339968 0.882048 0.7711917 1.0887254 0.98848
0.9716944 1.0958601 1.1265937 0.9333452 0.896036 0.9610058 1.1814326 0.8477068
0.813852 1.0054783 0.8914707 0.8397649 0.8096269 0.79665846 1.0158578 1.1870519
0.993776 0.8683535 0.7231523 0.89981276 0.84045017 0.9076207 0.9652201 1.1402475
1.0315632 0.67202926 1.0672628 1.14278 0.991268 0.8193804 1.1772946 1.0509552
0.87343884 1.1959232 1.1231387 0.9573246 0.7825201 1.1215125 0.9264578 0.92168796
1.0538905 0.8856973 0.99609774 1.1118746 0.9979519 1.0768396 1.0939187 0.99091876
0.9186064 0.7962151 1.0088747 0.78144234 0.8682737 0.94829375 1.0023104 1.0323006
0.85936856 0.85541445 0.7389152 0.97911614 0.82148 0.94512004 0.7361541 1.0741158

base.mlp.fc.2.bias f4 [128]
00000000: 1c0b 813d 4d3d b73c 1810 913d dee4 afbd
00000010: c725 433e 063d 143e c82b 233e 55b8 143e
00000020: b1d7 b63c 2620 f33c e76d 493e fd87 473d
00000030: f746 b93d 61e3 e4bc cfc0 c33d ba26 903e
00000040: c897 843c b781 4f3e 5251 5dbd 5fee cb3d
00000050: 61ec f03c 2cc5 713d e670 0d3d 893c 573d
00000060: dee8 2b3e e7c3 ccbb e55b 2bbc 4d37 743d
00000070: 2420 14bd ffcd 4c3d 4848 143e f127 1f3e
00000080: 41f9 b63c 6144 aabc 6bec 26bd 6bcf 473e
00000090: 9acb 6f3e aa8c 273e 771b 4b3d a60d 613d
000000a0: 375f 053e 2cbe 9d3d 0be5 fb3c efeb 823e
000000b0: 09ba 1ebd bd2a 1e3e f882 ab3d 518b 0b3d
000000c0: 49de 5e3d 57f4 6c3d 72f4 1abd 91b2 e63d
000000d0: c865 953d 597e 3a3e 31e9 cb3d de12 0e3e
000000e0: 4d29 87bc c594 4f3e 3206 9f3c 6856 a53c
000000f0: 1684 51bd bcb6 cabb 0acc ec3c 6227 033d
00000100: 14da 6abd 7c16 2dbd 389d 27bd 0e31 a73d
00000110: 852a 003e 282e a93c 8f96 ad3c 6738 343e
00000120: e0c1 473e bdef 803c 2738 053e cbf9 2f3e
00000130: b7a6 5a3d 98fc 8a3d 8996 dc3b 1896 24bd
00000140: 8ec4 c43c 1547 103e 2612 a53d 3642 ea3d
00000150: d8a4 323e 846f dc3d 138a 4e3d 667c e93c
00000160: 40f1 69bd e95c a23e 9fb1 433c ae82 00bd
00000170: a232 c53c 3da5 463e 7cd4 bf3c 1da3 6abd
00000180: ec26 0a3e 3f47 00bd 0288 0c3d 81bc 573d
00000190: ee66 1c3d c3c3 07bd f592 c93d c3f8 71bd
000001a0: cc4b b83c 9605 0c3e 1fbc 8dbc b5bb 75bd
000001b0: 1e6f d1ba c03a 1ebd 0d44 34bd 1bc7 693c
000001c0: 6c1b c33d 06c9 253e 25ec 01bd c5ad 683e
000001d0: 7d8d 183e ced8 9cbd 174f b43c 9967 193c
000001e0: 3eda 233e f65e 213e a565 053e 16ce 9dbd
000001f0: be4d 01bd 61c3 8b3c 8b03 553d aabc 173d
0.06300947 0.022368098 0.07083148 -0.08588575 0.1905738 0.14476404 0.1593467 0.14523442
0.022319647 0.029678416 0.1967083 0.048713673 0.090467386 -0.027940454 0.0955826 0.28154546
0.016185656 0.20264326 -0.05403263 0.09957575 0.02940959 0.05902593 0.034531496 0.052547965
0.1678805 -0.0062489393 -0.010458921 0.05962305 -0.036163464 0.05000114 0.14480698 0.1554258
0.02233565 -0.020784559 -0.04075281 0.19512717 0.23417512 0.16362253 0.04958674 0.054944657
0.13024603 0.07702288 0.030748865 0.25570628 -0.038751636 0.15445991 0.0837459 0.03406841
0.054411206 0.057850208 -0.037830777 0.112645276 0.07294804 0.1821226 0.09956587 0.13874385
-0.016499186 0.20271595 0.019412134 0.020182803 -0.051151358 -0.0061863344 0.028905887 0.03201998
-0.05733688 -0.04225777 -0.04092142 0.08163653 0.1251622 0.020651892 0.021189956 0.17599641
0.19507551 0.015739316 0.13009702 0.17185132 0.053381648 0.0678646 0.0067318124 -0.040182203
0.024019506 0.14089616 0.08060102 0.1143841 0.17445695 0.107634574 0.050424647 0.0285017
-0.05711484 0.3171151 0.011944204 -0.031374626 0.024071995 0.19398971 0.02341675 -0.057284463
0.1349141 -0.031317946 0.034309395 0.052670006 0.0381841 -0.033145677 0.09842483 -0.05907513
0.02249708 0.13674006 -0.017301617 -0.059993464 -0.001597855 -0.038630247 -0.04401021 0.014268662
0.09526715 0.16189966 -0.031719346 0.22722538 0.14897723 -0.0765854 0.02201037 0.0093630785
0.16001222 0.15758881 0.13027056 -0.077053234 -0.03156828 0.017060937 0.052005332 0.03704516

base.mlp.fc.3.weight f4 [128, 128]
00000000: 70fe 13be 8445 893d 021b 81bd 02fd 983d
00000010: d8b0 c8bd 12af c1bc bc80 9cbd 8fec 17bd
00000020: 0b4d 2dbd a8e6 e33d e5b3 83bb 2dc6 5fbc
00000030: b966 d9ba 077e eabd 309c 7fbd c83b fcbc
00000040: 0e87 9b3d 573c 323c 5912 e93b c04b 67bd
00000050: dbd9 a53d 9982 47be dab6 c7bc eef3 c23c
00000060: 063e 09bd 5f6c 133d d124 06be 276a 9c3d
00000070: fbff 67bc 2fd1 2dbd 1528 cbbd 4689 28bc
00000080: 72a6 f33d 13f8 f3bd 52c5 df3b bfce 54bd
00000090: 610e 07be 1bc0 7fbd 1cfb 32be 9b98 12bd
000000a0: 6f41 09bd 1dd0 fdbd 3927 493e 2a35 20bb
000000b0: dc42 cfbd ce51 c3bc d3a9 3dbe cf2c 203d
000000c0: af37 2bbd 2f2f cabd 266b 0f3d 019e 16be
000000d0: 4451 cabd 3f68 f5bd fcd6 f5bd b8ba f6bd
000000e0: 53dc cebd 7c5f 4ebd e24c c03d e267 393d
000000f0: 1147 9fbc 546a cdbc 205c 613e 51e9 09be
00000100: a802 34be f1ad b1bd ef06 11bd f662 81bd
00000110: bfba 26bd b291 493e 9903 0abd 11f1 1cbc
00000120: c850 e83b 26e5 ab3c 41d5 35bd f84e a4bc
00000130: c83b 07bc 7ddb 1f3e aa9b 4b3d aee8 c63b
00000140: f65d 80bd 90c3 fbbd ba40 663d 1724 27bd
00000150: 3b22 123c d71e 33bd f03d 99bc 23de b03d
00000160: f083 00be 177e d0bd fb9e f33d 9ca8 35be
00000170: f53a 80bd 3784 c4bd a840 a9bd 4cfc 67be
00000180: 2790 60bc 2540 02be 937f 343e 7764 1cbc
00000190: d67a b6bd 53a6 fcbd a29c 05be d4c6 f13c
000001a0: c838 053e 828f c3bd 0d2e e13d 4550 0d3d
000001b0: 0997 4abc 9848 3bbe 48cc 10be 8233 943c
000001c0: 3840 263a 0bf5 d4bb a872 da3c 40a4 11be
000001d0: 7efa 103b 3bfa 813d b5ae cebd 4114 aabd
000001e0: a818 c33b 5d11 fbbc 031c 333d c13a d0bd
000001f0: de8d eabd c4d1 4a3c 6a4f 043d 42c1 f03d
00000200: 2615 963d 4fce a5be c6a8 2b3e c3c7 213c
00000210: 6efe 343d 6e1a d23d eb33 9a3d 5da1 b43d
00000220: 0c62 e53d 3c54 5abe d603 aa3d 2942 50bd
00000230: 7a48 ba3c 5852 31be 1566 163e da18 a43c
00000240: 1cc2 f5ba f29b 4a3d 1e19 013e afe9 f73b
00000250: 2f83 983d e1d5 163e e665 11bd e62d 7dbd
00000260: e2f4 163e 2500 1cbe 3b4a fdbd 5391 603d
00000270: f5ab a7be d1ce af3d db7b 233d a425 563d
00000280: 3a58 313d 5057 3fbd eb57 2fbd 21e0 053e
00000290: 076d 1b3e 532a 113e 9579 d33d f845 7a3c
000002a0: b4df 283c cd5b fa3d 3416 b3bd ef2d 1c3d
000002b0: 223d 513b b458 333e c78c 84bd d03f 483d
000002c0: 23d8 e23d cd99 d4bd 2998 b53d e6eb d03c
000002d0: e879 1e3e 7e61 5c3d 0068 783d adab a83c
000002e0: 51bd b7bd 7444 ab3d 60bd edbd 830b c7bb
000002f0: e205 7ebd 9c98 48be 8945 fbbd 2db7 fe3d
00000300: 861f c13d aec6 a6bd 2c06 863c 106e b63d
00000310: d9b9 743d 98ba 29bc 9b2d 97b9 05ff 2b3e
00000320: ec8d 393e 6b22 fcbd c351 033e cde8 3b3e
00000330: 677a 283e ff0f 2f3d 5c06 a33d cd4e 013d
00000340: 0762 eb3d 0dac 3e3d fbd6 30bd f09e 673d
00000350: dd3c e43d 3dea 8b3d d007 0f3e 6a28 3ebe
00000360: 7278 273d 53d4 6e3d b60a 0cbe 42ee cd3d
00000370: e798 3e3d 9083 ac3c 3cea 043e d9bb 833d
00000380: 3f7a 7a3d a359 a93c 9401 10bd 7a07 843d
00000390: 22c0 a9bb 4aa7 653d 81c2 1e3e ec7a 5dbd
000003a0: 6a55 5dbe 6c9f 093d f04e 9dbc 5d4b f8bd
000003b0: f2dc feb9 7884 303e bfe5 96bd e02d 183d
000003c0: 94ae f93d 7102 103e fa77 14bd 201f de3d
000003d0: 73ef 283e 4614 00be 3bd0 cf3d ad83 8e3d
000003e0: c0e0 d83c 95db 123e c855 b43d db70 aabd
000003f0: a087 8d3d a3b9 cc3d 3272 8b3d 1e0b babc
-0.14452529 0.06702712 -0.063039795 0.074701324 -0.09799355 -0.02364305 -0.07641742 -0.037090834
-0.042309802 0.111279786 -0.004019248 -0.013658089 -0.00165864 -0.11449819 -0.06240481 -0.030790225
0.07594119 0.010878644 0.007112783 -0.056468725 0.08098193 -0.19483413 -0.024379183 0.023797955
-0.033506416 0.035992023 -0.13099982 0.076374345 -0.014160152 -0.04243582 -0.099197544 -0.010286635
0.11896981 -0.11912551 0.0068289423 -0.05195498 -0.13189079 -0.062439065 -0.17478603 -0.035790067
-0.033509668 -0.1239321 0.19643869 -0.002444575 -0.10120174 -0.023842718 -0.18521814 0.039105233
-0.04180115 -0.09872281 0.035014294 -0.14708711 -0.098787814 -0.11982774 -0.12003896 -0.120473325
-0.10100617 -0.05038403 0.09389664 0.045265086 -0.019443067 -0.025075115 0.22007799 -0.1346791
-0.17579138 -0.08675755 -0.035407003 -0.063177034 -0.04070544 0.19684485 -0.033694837 -0.009578959
0.007089708 0.02098329 -0.044392828 -0.020057186 -0.008253999 0.15611072 0.049709 0.006070218
-0.062679216 -0.1229316 0.05621407 -0.040805902 0.008919294 -0.043730583 -0.018706292 0.08636119
-0.1255033 -0.101803 0.118955575 -0.177401 -0.06261245 -0.095955305 -0.08264285 -0.22654837
-0.013706244 -0.12719782 0.1762679 -0.009545437 -0.08910148 -0.12336411 -0.13048032 0.029513754
0.13009942 -0.09548856 0.109951116 0.03450038 -0.012365111 -0.18289411 -0.14140427 0.018090967
0.0006341967 -0.006498938 0.026666 -0.14222813 0.0022121961 0.06346556 -0.100919165 -0.083046444
0.005953867 -0.030647928 0.043727886 -0.101674564 -0.1145284 0.012379114 0.032302298 0.11755611
0.073282525 -0.32383963 0.167636 0.009874287 0.044187956 0.10258947 0.07529434 0.0881984
0.112003416 -0.21321195 0.08301513 -0.050844345 0.022739638 -0.17316568 0.14687379 0.020031381
-0.0018749866 0.049465127 0.12607238 0.007565699 0.07446896 0.14730026 -0.03549757 -0.06181135
0.14741853 -0.1523443 -0.12367674 0.054826092 -0.3274838 0.08584369 0.03991304 0.05228199
0.04329703 -0.046714127 -0.042808454 0.1307378 0.1517831 0.14176302 0.10325924 0.015275471
0.010307241 0.12224541 -0.08744469 0.038129743 0.0031927307 0.17514306 -0.06472164 0.04888898
0.11076381 -0.10380898 0.08866913 0.02550311 0.15476191 0.053803913 0.060646057 0.020589674
-0.08971656 0.08362666 -0.11608386 -0.0060743704 -0.06201733 -0.19589466 -0.12269122 0.12437282
0.09429841 -0.08143364 0.016360365 0.089077115 0.05974755 -0.010359429 -0.00028834943 0.16796501
0.18120545 -0.12311252 0.12824158 0.18350525 0.16452943 0.042739864 0.07960197 0.03156929
0.114933066 0.0465508 -0.04317377 0.05654806 0.11144421 0.06831787 0.13967824 -0.18570104
0.04088635 0.058307957 -0.13675961 0.1005521 0.046532538 0.021058828 0.12979978 0.064323135
0.06115174 0.020672625 -0.035157755 0.064467385 -0.0051803747 0.056067742 0.15503885 -0.054072306
-0.21614614 0.033599302 -0.01920268 -0.121237494 -0.00048611272 0.17238033 -0.07368039 0.037153125
0.12191501 0.14063431 -0.03624723 0.108457804 0.16497593 -0.12507734 0.10147139 0.06958709
0.026474357 0.14341576 0.08805424 -0.08322307 0.06910634 0.09996345 0.068088904 -0.02271038

base.mlp.fc.3.bias f4 [128]
00000000: 6ff7 003e ca26 6ebd 04c9 c03c 7ada 18be
00000010: 6f19 7f3d 6882 103d 43e1 573d f53d 83bd
00000020: 55bf 91bc aff3 82bd dde7 833d 5a45 083e
00000030: 47f8 32bd c8d1 1e3d 34fe 593d 698c b3bd
00000040: 1658 893d 8ab9 74bd 8bf2 9bbc 75cb 8a3d
00000050: d597 babd a7db 3e3c 4196 b7bd 5f24 043e
00000060: 21a7 843b 9f12 16bd 64c0 ce3c 1293 f03c
00000070: dfd9 0c3e 8303 0cbe f6b6 823b e8c4 923c
00000080: c80c c6bd 32ea 293d fb34 ffbd 3651 9dbd
00000090: afb8 cabc c688 b5bd aa02 23be 8e29 183d
000000a0: d389 da3c 0df8 adbd 54ac d8bd d371 62bd
000000b0: b614 d4bc 15e8 36bc 8276 243c 3756 12bc
000000c0: 87b8 ccbb ad81 c53a 2619 16bc 3518 91bd
000000d0: b481 133e 16f5 8fbd 77a5 04be 6a65 f13c
000000e0: 873c 8e3d 9847 10bc 865b 083d 2dfc 2c3d
000000f0: b26d 0e3c ba05 603c 6f13 d83c 6bb4 be3b
00000100: ef38 b5bd 7368 24bd 9315 a03d 2556 763d
00000110: e9d3 893c 4098 ae3c 9d1e 12bd 7f88 403d
00000120: 800c 27bd 6166 a4bc ed09 8abd 1508 96bc
00000130: 8715 59bd 9919 59bd f9ee 973d de64 59bd
00000140: 5ada ac3d b441 473d 9477 c7bd 2004 753d
00000150: 88b3 7a3c 4707 8fbc 3f64 ea3c 01a2 b9bd
00000160: 6c0d 8dbd d7cc c9bd 786b a73c f466 553d
00000170: d41b 8abd 8f30 1c3d b83e 6b3b ccf9 493d
00000180: acc1 c13c 0ae7 953d 736d 0abd 464a b23d
00000190: 888b 6cbd e1ce 86bd ec97 2d3e 5934 9e3c
000001a0: 29b5 a9bd 3fb3 b93d a9cb 0bbb a450 0abe
000001b0: 23f0 5c3c 8d43 943d 9c4a 82bd defa 183d
000001c0: 3139 7c3d 7ada ddbd 26fe a7bc 1451 403e
000001d0: b5f1 a5bd 3411 acbb 3075 aabd 676b ad3d
000001e0: 12d3 bcbd e2b4 bc3d d4b3 a53d 7fee 0cbd
000001f0: 0a66 fcbd 0ba5 7fbd d9e9 99bd 466b 87bd
0.12594388 -0.05814246 0.023533352 -0.14927092 0.062280115 0.035280615 0.05270506 -0.06408302
-0.01779143 -0.06394135 0.06440709 0.13307706 -0.043693807 0.03877428 0.053220943 -0.087670155
0.06706254 -0.059747256 -0.019036552 0.067770876 -0.09110991 0.011649049 -0.089642055 0.129045
0.0040482436 -0.036638852 0.025238223 0.029367004 0.13754986 -0.13673215 0.003989096 0.017916158
-0.096704066 0.04148311 -0.12461277 -0.076815054 -0.024746267 -0.08863978 -0.15918985 0.037149005
0.026677048 -0.084945776 -0.10579744 -0.055284332 -0.025888782 -0.011163731 0.01003802 -0.008931688
-0.0062475833 0.0015068554 -0.009161269 -0.07084695 0.14404947 -0.07029168 -0.12953745 0.029467303
0.069451384 -0.008806132 0.03329041 0.04223268 0.008693146 0.01367324 0.026376454 0.0058198473
-0.0884875 -0.040138673 0.07816615 0.060140748 0.01682468 0.021312833 -0.035673726 0.047005173
-0.040783405 -0.02006835 -0.067401744 -0.0183144 -0.052999046 -0.053002927 0.07418627 -0.05307471
0.08440085 0.048646644 -0.097396046 0.059818387 0.015301593 -0.017459525 0.028612254 -0.09064103
-0.06887326 -0.09853523 0.020436987 0.052100137 -0.06743589 0.038132247 0.0035895538 0.04931049
0.02365192 0.07319458 -0.033795785 0.08705573 -0.057750255 -0.06582428 0.16952485 0.01931207
-0.08286507 0.090673916 -0.0021331108 -0.13507324 0.013484987 0.07239447 -0.06361887 0.03734862
0.06157798 -0.10832687 -0.02050693 0.18780929 -0.081027426 -0.005251074 -0.08323133 0.08467751
-0.09219946 0.09214188 0.0809094 -0.034407135 -0.1232415 -0.062413257 -0.07515306 -0.06612258

base.mlp.fc.5.weight f4 [128]
00000000: 5329 813f 7388 793f 0a1c 6d3f 7621 623f
00000010: ae54 893f 11eb 8a3f 7686 823f ba94 8e3f
00000020: a27d 9f3f c654 923f 0030 6f3f 7cfb 793f
00000030: f33b 753f a147 7a3f 1e7d 873f 3db0 683f
00000040: 199f 8b3f 0e87 943f bd90 873f a204 973f
00000050: 73de 823f daa6 883f 79ba 953f bf6f 933f
00000060: b698 663f 4f9f ab3f 366b 623f 5877 893f
00000070: b4bc 9b3f 6af0 903f fa05 853f caa7 813f
00000080: ea95 a13f e4f7 853f 620a 4e3f 8436 a63f
00000090: 6220 9c3f d005 853f 912a 713f 5a97 993f
000000a0: 8d29 aa3f d64b 583f d6f4 823f 20ea 8e3f
000000b0: cc2c 843f 1e19 353f 0891 7b3f 4fc1 983f
000000c0: 5b91 383f 20cc 7c3f 6c18 803f 3496 903f
000000d0: 0393 9c3f 14f7 873f 4370 6f3f fd18 b03f
000000e0: 4767 9d3f dbaa 733f d42b 8b3f 866b 8b3f
000000f0: aab5 7c3f 8dff 523f 8502 613f 0aa9 733f
00000100: 6235 713f ab29 873f 649d 803f 069f 983f
00000110: 2492 813f b53a 743f 99fb 9c3f aaff 7e3f
00000120: efb8 8d3f b75d 853f 0819 833f adf3 8e3f
00000130: 573a 953f 5f89 8d3f 6c02 8d3f eec3 803f
00000140: c4f5 873f c243 a63f 7811 723f 7aa4 8b3f
00000150: b22a 823f b729 6f3f 1d38 783f 7e10 913f
00000160: a2b7 413f bb83 923f 62f3 a53f a5a4 8f3f
00000170: fa70 8d3f 11bb 983f 2546 883f 03e3 803f
00000180: cc70 913f 9fa2 703f 60fc 803f c4b5 963f
00000190: 28bb 8a3f 586a 863f 9246 9e3f e40d 8b3f
000001a0: 65b5 673f 83db 863f 5f59 783f 3e2e 513f
000001b0: a1b6 813f 93fa b83f 082b 9f3f 27ab a23f
000001c0: af66 9c3f 8640 783f ab67 813f 9be4 b63f
000001d0: 71f9 8f3f 2155 773f de9d 883f 4c2f 9a3f
000001e0: 3ff8 883f ba01 6f3f e53a 863f 1bec 843f
000001f0: 0693 953f 2593 8b3f 73d6 a23f 9482 8d3f
1.0090736 0.9747383 0.9262091 0.8833231 1.0728967 1.0852987 1.0197284 1.1139138
1.2460215 1.1432121 0.9343262 0.9764936 0.957946 0.9776555 1.0585058 0.9089392
1.0907928 1.1603715 1.0591046 1.1798289 1.0224136 1.0675919 1.1697532 1.1518477
0.9007677 1.3407992 0.8844484 1.0739546 1.2166963 1.1323369 1.0392449 1.012933
1.2623875 1.0466275 0.8048459 1.2985387 1.2197382 1.0392399 0.94205576 1.1999314
1.329393 0.84490716 1.0230968 1.1165199 1.0326171 0.7074145 0.98268175 1.1933993
0.72096795 0.9874897 1.0007453 1.1295838 1.2232364 1.0622277 0.9353067 1.3757626
1.2297143 0.9518258 1.087275 1.0892189 0.987147 0.8242119 0.8789447 0.9517981
0.9422208 1.0559591 1.0048032 1.192353 1.0122724 0.9540208 1.2264282 0.9960886
1.1072062 1.0419225 1.0242014 1.1168114 1.1658429 1.1057547 1.1016364 1.0059793
1.0621877 1.2989428 0.94557905 1.0909569 1.016928 0.93423027 0.9696062 1.1333158
0.75670826 1.1446451 1.29649 1.122212 1.1050103 1.1932088 1.0646406 1.0069278
1.1362548 0.9399814 1.0077019 1.177422 1.0838366 1.0501204 1.2365286 1.0863614
0.9051116 1.053574 0.9701137 0.81711185 1.0133859 1.4451469 1.2435007 1.2708482
1.2218837 0.96973455 1.0109762 1.4288515 1.1247998 0.9661427 1.0673177 1.2045684
1.0700759 0.9336201 1.0486723 1.0384554 1.1685493 1.090428 1.2721695 1.1055474

base.mlp.fc.5.bias f4 [128]
00000000: 07eb 093e 1d44 803c da5b 143e 91e7 ab3d
00000010: b11c e4bd 61e9 eabd c228 f7bc cabc f5bd
00000020: 3f8e 8e3e b8a4 2bbe 0715 8cbd c2ff 41bd
00000030: b614 6fbb 9928 21bd 4800 af3d ab85 c63d
00000040: 0130 523e f573 01be e580 e1bc a052 4d3e
00000050: c086 30bd 1c57 bcbd e4d7 43be 13df 2dbe
00000060: 445a bd3d 43a5 82be e31a 963d 27ef fabd
00000070: 4d67 673e bccd bebd 44d0 41bd ec2d a4bb
00000080: 390d 8cbe c9e5 66bd 9ea9 433e 06ab 503d
00000090: e0fc 6bbd be92 67bd 16c4 6abd c8f3 57be
000000a0: fb47 a73e 1aa7 073e f3f5 d2bc 6375 02be
000000b0: 89bc 53bd 2931 733e 4a98 8dbd 0b03 4fbe
000000c0: f02c ad3e 1c23 f13d 8a69 69bd 3d1b 6b3d
000000d0: 24fd 5e3e efcc dcbd f2c5 043d 21bc 06be
000000e0: 2e8e 7e3e b694 003d 20de bfbd 031f d7bd
000000f0: 7f57 44bd 50d4 013e e494 88bd ca0a 0b3d
00000100: 5568 da3c 0dd9 92bd 00d2 91bc 7762 f23d
00000110: 71f3 59bc 42ae 973c 17e2 043e 4102 863b
00000120: c3a8 0cbe f7f7 0abd 5de1 b6bd d803 04be
00000130: 1b3b 42be d3f9 f3bd 0137 82bc 76c7 5cbb
00000140: 1842 d5bd 1eab 9c3e 4c4d e03c ec9c a1bd
00000150: 011b cfbc 9fd2 023e f293 353c 2e8f 15be
00000160: 2d1b 743e b418 3abe fa71 b9bc 1649 03bd
00000170: 168a f4bd e2b4 c63d 50a1 a6bc d3f7 77bc
00000180: a9d9 983d 7d7a a03d 1c00 29bd 7764 40bd
00000190: a3a9 24bd 460e 86bd ab3c 243e 7c7a 94bc
000001a0: 591f a23d 9c93 e63d a462 8fbc d328 d13c
000001b0: 3e8c 0b3c 52f1 b93d 4c1a 81be c33c 87be
000001c0: 5b23 5d3e 0aba ab3c a881 e3bc 048d b23e
000001d0: 1757 0abe 7060 d2bb 5ab4 cebd d150 f7bb
000001e0: 483e 89bd 202a 6a3d 0320 2cbd 33ff 79bd
000001f0: 80e6 32be 6d19 42be a179 92be d763 f9bd
0.13468562 0.015657479 0.14488164 0.08393777 -0.11138285 -0.11470295 -0.030170802 -0.11998899
0.278429 -0.16762054 -0.06839948 -0.04736305 -0.003648085 -0.039345358 0.085449755 0.09693464
0.20526125 -0.1264189 -0.027527282 0.2005105 -0.043097258 -0.09196302 -0.19125324 -0.16979627
0.092457324 -0.2551671 0.07329347 -0.12252646 0.22598 -0.093165845 -0.04731776 -0.005010357
-0.27353838 -0.056371484 0.19107673 0.05094435 -0.057614207 -0.05653643 -0.05731591 -0.21089089
0.32672104 0.13247338 -0.025752043 -0.12740092 -0.051693473 0.23749222 -0.069138125 -0.20216005
0.33823347 0.11774275 -0.056985416 0.057399023 0.21776253 -0.107812755 0.032415338 -0.13157703
0.24858925 0.03139182 -0.09368539 -0.10503962 -0.047935005 0.12678647 -0.06669024 0.033945836
0.026661078 -0.071703054 -0.017800331 0.11835187 -0.01330267 0.01851571 0.12976871 0.004089624
-0.13736252 -0.033927884 -0.089297034 -0.12892091 -0.1896786 -0.119128846 -0.015895369 -0.0033688224
-0.10412997 0.30599302 0.027380608 -0.078912586 -0.025281431 0.12775658 0.011082636 -0.146054
0.23838492 -0.18173486 -0.022637356 -0.032052122 -0.119404 0.097024694 -0.020340592 -0.0151347695
0.074633904 0.07835863 -0.04125987 -0.04697081 -0.04020084 -0.06545691 0.16038768 -0.018124811
0.07916135 0.11258623 -0.01750309 0.025532162 0.008517323 0.09079231 -0.25215375 -0.26413545
0.21595518 0.020962734 -0.027771786 0.3487321 -0.13509785 -0.0064201877 -0.10092993 -0.007547476
-0.06701332 0.05716908 -0.042022716 -0.061034393 -0.17470741 -0.18955012 -0.2860842 -0.12177246

rnn.gru.weight_ih_l0 f4 [384, 128]
00000000: 3c91 8c3d e7ef 8d3d 3507 abbd 1244 8b3c
00000010: 327f 9c3c 6729 9fbd 2459 043c 4233 9dbd
00000020: e3c2 92bd e2a6 9a3d 9532 463d 6b68 2b3c
00000030: c530 033e 0e22 0c38 3d8f 01bd e6bd 44bc
00000040: 8c98 d53c e6a6 0fbd a9f6 84bd 8e2c 4d3e
00000050: 53bb fabd 1f79 ed3c 03da 0a3d d63f 1dbd
00000060: bff4 4d3d f1a9 f33c 0cab e2bc 0329 79bd
00000070: f601 8a3d e300 4dbd d207 f03c 93e4 ffba
00000080: 76f5 293d cb90 983c 27ce 27bd db06 743d
00000090: a47c 8b3b a368 793c f5de 03bd c399 f43c
000000a0: e694 1ebc 08d2 cbbd f4fe 6d3d ab61 82bd
000000b0: 95f6 0f3d e5c2 9a3d c0cf 16be 93c6 5e3d
000000c0: a3a8 953c 3a26 04be dadb 53bd 8d7f b73c
000000d0: 5aca 813c f10b 14bc 321d e03c 4654 563b
000000e0: 1cb1 b83d db23 a73c 3314 9dbd 24c9 bbbc
000000f0: e038 c7bd f144 333e f0fd 53be a29c 343d
00000100: 88ae ac3d 5230 b8bc f778 b4bd d411 063e
00000110: 5568 f33c 01a2 b8bd 7c00 583e 64bb 3cbc
00000120: 4a14 8abd 0787 483c 6418 333d d6f1 33bb
00000130: acef 86bd 2b3a 56bd a5d3 d5bc 3783 373d
00000140: 85ea 4f3c 6ba7 8a3c e18e 17bb 94fd 5fbd
00000150: e36b 133d 373b e73d 4c2a 053d ecd7 943d
00000160: c28a 52bd a903 f83d db5f 95bd a101 763d
00000170: cc88 c3bc 0ae7 03bb 31b0 96bc 0030 51bb
00000180: dda3 333e 0d35 85bd dfda 6cbc 5272 63bd
00000190: 77ad f63d fcac 383d dc85 0ebd 8efd c3bd
000001a0: 3ab7 8e3d f440 733d d186 b83d 6595 0bbd
000001b0: 26b2 41be d6bf 84bd 6c42 8bbd 3115 40bd
000001c0: 711b c13c ffbf 59bd 1f65 20bd 82aa 943c
000001d0: df15 c1bc 143b 46bd 3d98 0d3e 869f 683d
000001e0: 74ac 66bc d68b 4b3d e2e6 1abe f26e 9ebc
000001f0: 667d 42be 95c3 983d e80b 70bd 7723 5c3d
00000200: 04f7 1bbe 84bc d33b d815 00bd 9648 6bbd
00000210: d26e c83d d67c 023e e2e3 593e 6fe0 4c3d
00000220: 4dbb 5ebd 7bd6 3b3e 4e19 db3d 0e9b 4dbd
00000230: a994 a23d 5962 2fbd 24e4 483d fefe ba3d
00000240: edc7 0ebd 20e6 c7bd 0ab8 313d d800 09bd
00000250: 8fab b6bc 838c 603d 92cd a53d fbc2 8c3d
00000260: 7b0b 823d 8eab 703d e5e0 573e 33bb 423d
00000270: a856 993c aab4 033d 9ca7 333e b8ac de3d
00000280: ffbf ad3d 6a28 283e 7baf 4f3e 00e1 ac3d
00000290: e51e 03bc 6bc4 403e dac8 b73d a7d9 ab3d
000002a0: bf80 38bd 2dc5 be3d d47e 4c3e d444 113e
000002b0: 9bea 473e 4fc8 153e 4fce eb3d b94f 323e
000002c0: d266 b53d d560 efbd 3410 163e 234d c83d
000002d0: 226f 883b 6d68 033e 5a5a 483e 5c71 3bbd
000002e0: 79b7 b6ba e077 b83d 46ec 843d 3a85 4a3e
000002f0: a062 8cbd 7355 1a3d c7b1 8b3d f4d6 403e
00000300: 94eb 213e 7b54 7d3d 27bb 873d 68c6 dfbd
00000310: 4a7e 173e 1587 1f3d fab7 e4bd b776 273d
00000320: 76c1 003e 903f 553e 4244 1d3e 2a94 0b3e
00000330: 663c 263e a0b1 8f3d b0c8 8cbd b13b 493e
00000340: d9ff ccbd ea48 62be 0ecc c03d 19a6 373a
00000350: c9da e53d bf43 803c aaed 093e b542 183e
00000360: b934 1e3e 9070 fb3a 6e0e 98bd 5720 453e
00000370: cfa9 4a3e b0f9 79be 40c6 483b bf05 963d
00000380: 81fd edbd 9281 0ebe 96b6 3f3e 83cb 8e3d
00000390: 63a7 153d 10d2 063e bea3 253b 4048 8abc
000003a0: e8bd 123e d609 88be 41cd a73d 87d9 803d
000003b0: 5fd9 8dbd 3b8c be3d 4ac1 333d edcd b03d
000003c0: 09cd 80bd 98f3 db3d 7a11 d43d 8da9 eabd
000003d0: d831 3e3e 36e1 57bd 39bd 153e b0cc 22bd
000003e0: 59f0 13be 180b 673c ebb6 bf3c dc43 133e
000003f0: fa7b ee3d 62cd fc3a ce59 c73d eb9b 3f3e
0.06863639 0.06930523 -0.08350984 0.017000232 0.01910362 -0.07771569 0.008077893 -0.07675792
-0.07166078 0.075513616 0.048388083 0.010461907 0.12811573 3.3410317e-05 -0.031630743 -0.012008166
0.026073717 -0.035071276 -0.06492359 0.20036528 -0.122427605 0.02898842 0.03389932 -0.038390957
0.050282236 0.02974412 -0.027669452 -0.060830127 0.06738655 -0.050049674 0.029300604 -0.0019523076
0.041493855 0.01862373 -0.040968087 0.05957685 0.0042568017 0.015222701 -0.03219505 0.029858476
-0.009679055 -0.0995217 0.05810447 -0.06366285 0.03514727 0.075567044 -0.14727688 0.054388594
0.018268889 -0.12905207 -0.05172334 0.022399688 0.015843559 -0.00903605 0.027357671 0.003270404
0.09018156 0.02040284 -0.07669868 -0.02292306 -0.09727645 0.17506768 -0.20702338 0.04409469
0.08431727 -0.022483978 -0.08812135 0.13092738 0.029712835 -0.09015275 0.21093935 -0.011519287
-0.06742151 0.012239224 0.043724433 -0.0027457378 -0.065886825 -0.052301567 -0.026101897 0.04480287
0.012690191 0.016925534 -0.0023125934 -0.05468519 0.03599156 0.11290591 0.03251104 0.07267746
-0.05140186 0.12110073 -0.072936736 0.060060147 -0.02386894 -0.0020126724 -0.018394561 -0.003191948
0.17542978 -0.06504259 -0.01445648 -0.055528946 0.120448045 0.045086846 -0.034795627 -0.09569846
0.069685414 0.059388116 0.09010089 -0.03407802 -0.18915614 -0.06481902 -0.06799778 -0.04689521
0.023572655 -0.053161617 -0.039158937 0.01814771 -0.02357 -0.048396185 0.13827606 0.05679276
-0.014079202 0.049693905 -0.15127137 -0.019340012 -0.18993148 0.07459179 -0.058605105 0.05374476
-0.15230948 0.006461682 -0.03127083 -0.05744227 0.09786762 0.12742934 0.21278337 0.050018724
-0.054377843 0.18343537 0.10698186 -0.0501967 0.07938511 -0.0428184 0.049045697 0.09130667
-0.034858633 -0.0976069 0.043388404 -0.03344807 -0.022298602 0.054821502 0.0809585 0.06873127
0.06349846 0.058757357 0.21081884 0.04754181 0.018718079 0.032154717 0.17544407 0.10872787
0.08483886 0.16421667 0.20281784 0.08441353 -0.008002971 0.18824928 0.08973856 0.08391123
-0.045044657 0.09314952 0.19970256 0.14186412 0.19523089 0.14627193 0.115139596 0.17413224
0.08857502 -0.11688391 0.14654619 0.09780338 0.0041636387 0.12832804 0.19565716 -0.045762405
-0.0013940177 0.09007239 0.06490378 0.19777384 -0.06854749 0.037679147 0.06821018 0.18831998
0.15812522 0.061848145 0.06627493 -0.10926515 0.14794269 0.038947184 -0.11167903 0.0408847
0.125738 0.20825028 0.1535807 0.13630739 0.16233978 0.07016301 -0.068742156 0.19651677
-0.100097366 -0.22098127 0.0941392 0.00070056465 0.112233706 0.015657304 0.13469568 0.14869197
0.154498 0.0019183327 -0.07424627 0.19250618 0.1979134 -0.24411654 0.0030635744 0.07325315
-0.11620618 -0.13916615 0.18721995 0.069724105 0.036536586 0.1316607 0.00252746 -0.016880155
0.14330256 -0.26570004 0.08193446 0.0629149 -0.06926226 0.093040906 0.043885507 0.08633027
-0.06289107 0.10739821 0.10354896 -0.114581205 0.18573701 -0.052705012 0.14622964 -0.039745986
-0.14447154 0.014101766 0.023402652 0.14381355 0.116447404 0.0019287283 0.09733926 0.18711822

rnn.gru.weight_hh_l0 f4 [384, 128]
00000000: 8f5b bdbd 4fd5 8cbd 5f15 b5bc 4a90 873d
00000010: 584c bb3b 4a4d 923c 882c 893d 8cbe c73c
00000020: 3256 4bbd 9a56 e0bc ff0b 503d 6822 993d
00000030: c558 483d 369b 09bd e3c3 ab3c 30c8 1b3d
00000040: cac4 ab3c 1bd9 563d b017 b5bc 3ca5 6dbc
00000050: 3821 bdbc f501 ea3c e632 213c 9b9f 343d
00000060: d265 dcbd f7e7 13bd ecb0 313e 975e da3d
00000070: 9e24 ecbc 4a05 153d 0907 11be 1a02 fe3d
00000080: 3d1e 943d 43f6 4f3d 5703 433d d9c2 323d
00000090: 3daa fcbd d8a7 dc3d 141b 183d 043f e4bc
000000a0: 69bb 84bd eddd c9bc dfd7 c13d 7af1 bf3d
000000b0: d5cc 36be 33f1 113d dbad e1bd 82b9 cebd
000000c0: 12f9 faba 2330 ac3d a6e5 d2bd be7b 143d
000000d0: 1b85 e0bc 1de4 0a3e c3c3 6bbd 1157 223c
000000e0: 8ec2 90bd 01c8 3cbd 7ac4 d7bd 169a 063d
000000f0: 09be 22bd 4379 febd 06e6 153d 1f88 d9bd
00000100: 546b 13be b000 4dbd 7fe3 753d 3069 a0bd
00000110: 4a31 c43d 41e5 a43d c206 b13d ecc8 f6bd
00000120: 3769 95bd dc00 853d 5174 a43d 02b1 b0bd
00000130: 06ed c8bc 70b3 d93d 7dfa 3cbd 9f9e e23d
00000140: b732 2c3e 1be0 b1bd d5b4 20bd a4ed f03b
00000150: 5868 be3d 1af3 d8bc bb48 3b3e 1ac3 02be
00000160: 6dee 483d 999d eabd 900e a7bc 8d33 21be
00000170: 5e5a c63d f768 063d 6241 7f3c c90c c33c
00000180: d31f a23d c3b7 b93c e65e 733d 5d54 c23d
00000190: 1295 43bd 2c1d 843d 6d21 8fbd 7ed9 a9bc
000001a0: 487d a2bd c112 343e 44a4 443d af1c 66bd
000001b0: a23a 4fbd 6aca f73d 97cd 00bd 930b 863c
000001c0: ed93 1d3c 9308 91bd 1d94 d2bd 65cc 9cbd
000001d0: b677 abbc 264c ac3d 1cfe e5bc 5fe2 183b
000001e0: 11ae c83d 6591 1cbb 62b5 3dbe 6208 42bd
000001f0: c6ad e73d 2335 0cbe b83c c8bd 2dae 52bd
00000200: 1cd0 04bd 0131 06be 5f3f b23c 48ea a7bd
00000210: 2536 d8bd 6931 25be 2a4f acbd ec40 e23d
00000220: 6cdf 823d f88a 8b3c acd6 fbbd b9fd fb3c
00000230: cfb0 c43c 56a1 a53d 590f 26bd 2b1d b13d
00000240: 6844 1ebc 7fee ca3d 8848 133e ef3d 37be
00000250: f16e 0c3e 0230 1abe ff1c 3a3d c6e5 1bbe
00000260: 5a64 753d 33cd 273d e059 bcba 7b70 9c3d
00000270: 6d19 1c3d 7601 17bd 8a71 003e 11b2 b43d
00000280: beea 1dbe 9709 1bbd da35 2f3d bab4 453e
00000290: 7613 213d f0ad 19bd 838b 833c 006b 60bd
000002a0: 168d 39be 7268 61be 1b75 85bd da26 9bbe
000002b0: 314e 593d 0902 ecbd 4c17 24bd 8486 873d
000002c0: 7e7b 0f3e 6013 27be 0c75 da3d aa7c eabd
000002d0: b38c 18bc 8666 663d 1633 ed3c 624f dabd
000002e0: 6ce8 f23b 8894 ba3d 1298 61bc 06ef a0bc
000002f0: 9697 8d3d f2da 973c ce66 79bd e0ab ca3d
00000300: 2101 b93d c3a3 373e 9a1a ac3c 119a 0b3d
00000310: 3f9a 43bd 5084 3b3d a67f e5bd c57f 6d3c
00000320: 732b f9bd a2e5 4e3e a493 953c 3daf 86bc
00000330: 444c 2abd 3af8 933c 0b66 2cbd 4c40 c53b
00000340: c4e2 a23b a2d0 eabc 73a8 81bd be7f e2bc
00000350: a053 8bbd ed60 913d 839b 94bc 1bba 27be
00000360: afd3 3a3c 421b 11be e6bb 813d 98e3 e73c
00000370: 706a 81bd 7d25 d83d 0ff1 fd3c 0ba4 223d
00000380: 69a0 63bc 6252 14be 1b2f 0e3e 1214 e33c
00000390: 11f1 1bbd 6b0e c4bd 6a83 51bd e4b9 7abd
000003a0: ea62 143d 7d4f da3d 9545 1bbd 2b18 da3d
000003b0: b477 01bd c0dd 053d 8813 233e edab 043e
000003c0: 7061 f5bb beee 03be 9606 7dbd 1ba4 2b3d
000003d0: 0b3b 02bc 6d4d 1c3e 1438 bc3c cd8f 83bd
000003e0: 144c 653d 41a1 db3d 1488 303d 62c0 d3bc
000003f0: 501a 07be c2be 01be f580 df3c 9f5a 113e
-0.09245979 -0.06876623 -0.022104917 0.06619318 0.005715888 0.01785912 0.06697947 0.024382852
-0.04964275 -0.027385045 0.05079269 0.074772656 0.048912782 -0.033595286 0.02096743 0.03803271
0.02096786 0.05245314 -0.022106022 -0.014504727 -0.023087129 0.028565386 0.009838795 0.044097524
-0.10761608 -0.03610989 0.17352647 0.10662573 -0.028826054 0.036381997 -0.1416284 0.124027446
0.0723233 0.050771963 0.047610607 0.043642852 -0.12337158 0.10774201 0.0371352 -0.02786208
-0.06481058 -0.024641955 0.09465002 0.0937223 -0.17851575 0.035630416 -0.110194884 -0.100939766
-0.0019147715 0.08407619 -0.10297708 0.036250822 -0.02740722 0.13563581 -0.05755974 0.009908454
-0.07068358 -0.046089176 -0.10535522 0.03286179 -0.039732013 -0.124254726 0.03659632 -0.10621666
-0.14396411 -0.050049484 0.06003141 -0.07832563 0.09579714 0.08051539 0.08643867 -0.120500416
-0.07295459 0.064943045 0.08029998 -0.086275116 -0.024527084 0.10629928 -0.04613732 0.11065411
0.16816221 -0.08685323 -0.039234955 0.0073525477 0.09297246 -0.026483107 0.18289463 -0.12769738
0.049055506 -0.114558406 -0.020392686 -0.15742321 0.09685205 0.032814946 0.015579553 0.023809807
0.07916226 0.022670632 0.059416674 0.09488747 -0.047749586 0.064508766 -0.06988797 -0.020733591
-0.07934052 0.17585279 0.04800822 -0.0561797 -0.050593026 0.12099154 -0.031446066 0.01636294
0.009617788 -0.070817135 -0.102821566 -0.07656173 -0.020931106 0.08412962 -0.02807527 0.0023328287
0.097988255 -0.0023890373 -0.18526223 -0.047371276 0.113124415 -0.13692145 -0.09777206 -0.05143564
-0.03242503 -0.13104631 0.021758733 -0.081989825 -0.10557202 -0.1613213 -0.08413537 0.11047539
0.063902706 0.017034039 -0.12296805 0.030760633 0.02401009 0.08087413 -0.04054198 0.086481415
-0.009659864 0.09908771 0.14383137 -0.1789472 0.13714196 -0.15057376 0.04543781 -0.1522437
0.059910156 0.040967178 -0.0014370047 0.076386414 0.038110185 -0.036866628 0.12543312 0.08823026
-0.15421578 -0.037850942 0.042775966 0.19307223 0.0393252 -0.037519395 0.016057735 -0.054789543
-0.18120226 -0.22012499 -0.06516477 -0.3030308 0.053053085 -0.11523826 -0.04006128 0.06617454
0.14011952 -0.16315985 0.10666856 -0.11449559 -0.009310889 0.056250118 0.028955024 -0.10659672
0.0074129608 0.09110361 -0.013769167 -0.019645225 0.06913678 0.018537018 -0.060889058 0.09896064
0.090334184 0.17933564 0.021008778 0.034082476 -0.047754522 0.04578048 -0.11205988 0.014495795
-0.121664904 0.20204785 0.018258877 -0.016440982 -0.04157664 0.0180627 -0.042089503 0.0060196277
0.00497088 -0.028663937 -0.06330957 -0.027648803 -0.068030596 0.07098565 -0.01814056 -0.16379587
0.011403008 -0.14170554 0.06334667 0.028306767 -0.063191295 0.10554025 0.030998735 0.039707225
-0.013893225 -0.14484552 0.13885157 0.027719531 -0.038071696 -0.095730625 -0.051150717 -0.061212435
0.036227144 0.106596924 -0.037908155 0.10649141 -0.0316083 0.03268218 0.1592542 0.1295621
-0.007488422 -0.12884042 -0.06177386 0.04190455 -0.007948647 0.1526391 0.022975959 -0.06423912
0.055980757 0.10724116 0.043098524 -0.025848571 -0.13193631 -0.12670425 0.027283171 0.14194725

rnn.gru.bias_ih_l0 f4 [384]
00000000: eaf1 043d c420 41be 996e 24be 5122 2f3d
00000010: 6851 3f3c 9c05 c9bd 23d5 f13d b9fb 323d
00000020: 1974 653d 1b3a fcbc 3477 153c 2ca1 ea3d
00000030: 916b 00be d938 66bd e6dd 4dbd 4838 0cbe
00000040: 8e31 5a3d dc1a 2bbe c59f 0abe ac89 dabc
00000050: af87 c6bd 9df1 a9bd 2bc5 e53c 4286 1ebd
00000060: b3c8 373e f4c6 43bc cbc5 d1bd bedc 94bc
00000070: 1a55 3b3c 8bbb 80bc 5b0b de3d 88a4 8f3c
00000080: 38f0 0ebe 70c6 95bd c770 b03d b0ae 31bd
00000090: 4906 913d b4ac 533d 00f3 1cbe 84fb abbd
000000a0: 75df da3d b5b4 983d b429 04bd 2c82 d83d
000000b0: 179c 04be 03eb d3bd 2e7a 4dbd cafa ff3d
000000c0: 02a6 10be b57d c7bc 88df 183e 7667 ecbd
000000d0: 63bf babc 2d4b 5c3e 665e a2bc 4bef 5d3c
000000e0: 6333 a2bd 70f2 55bc 4988 a53d 16cc 013e
000000f0: 69b6 9bbd 0276 56bd ee66 03be 5111 713d
00000100: 1fac be3c dc70 293d aa00 343c 0707 3f3e
00000110: 1ff5 8c3c e863 dc3d ae78 773d 15cf 923c
00000120: bc84 cc3d c58c 1e3e e801 173d 0e66 4f3e
00000130: 9d5e d93c 85ba 263e 452e 463d aff3 363e
00000140: 5368 a13d 9748 3a3e 8267 243e 09e2 ac3d
00000150: 042a cbbb 6a83 ee3d 9386 7d3d 6c54 773b
00000160: bb8d 9fbd 7402 b23b 1280 21be cf14 e13c
00000170: 0047 613e 4318 2d3e 5d72 6d3e 48e4 ba3d
00000180: 4720 113d 5109 85bd 869d e0bd 1139 133e
00000190: 2934 0d3e 115c 1c3e ea42 24be 24bd 953d
000001a0: dab1 79bd a990 803e 4bf9 c33c 26cc 5d3d
000001b0: 9b63 eebc 1ae5 94bc d8f7 543d 00fb 1f3e
000001c0: a66e 593a a4b0 1a3e 6e23 a3bd 5066 733e
000001d0: 8bde 173e d06d 07bd b196 2e3d 2ee5 113e
000001e0: 2375 2fbe 6493 18bd 3e26 a0bd 274d 8dbb
000001f0: 1371 583d c009 e63d 267b d03d 36a4 2fbe
00000200: 9d6c 4cbe ff59 f33d 6ade 47bb b32e 973e
00000210: b1e8 5a3e 95ec a43d 6753 2a3d ba78 a93d
00000220: 20e0 4f3e 388e fb3d 51bf 3b3e 6012 5a3e
00000230: 06a8 153e 208c 8b3e 223f 7f3e 68e7 2a3e
00000240: 1072 0c3e 682b 9a3e f902 1e3e b5d0 c83c
00000250: 068e 553d 699c a13e a35d 06be 850b e33d
00000260: f265 923d 0947 033e 46e3 18bd f3a2 1e3e
00000270: 4e23 b5bc 6c1c cdbb a30b e33c 0cac 303e
00000280: 2a01 d4bd 49d6 edbc 0da9 903e cb3c 853b
00000290: 70ea 033e c25a b73e 07a5 a53d 0aae 31bd
000002a0: 6bc4 603d 9d5f 803d e7d6 143e 9114 363e
000002b0: bff6 073e affe 063e a505 9b3e 908b c23d
000002c0: 497b 0f3e 1c49 543e 8ab6 163e 2c31 14be
000002d0: 4195 5b3e f765 01be f2c8 953e 1080 f73d
000002e0: 2dd9 1a3e 5cef 173e 980d 8f3e 3a1d 1dbe
000002f0: d6c3 863e 669c 183d 4008 783e ab1c fa3c
00000300: 99fb f93c 66f3 863e cfb7 203e ab0c 64be
00000310: 5dbf a0bd 62bd 3e3d 7174 5c3e 021f 46bd
00000320: 2090 cf3d 0ce6 6b3e 917b 23be 331f 5c3d
00000330: 45c9 763e cb1f 123d b8e9 933e e35a 28be
00000340: d6c9 2d3e 5df3 b1bd 06fb 2f3e 1905 823e
00000350: 41b4 c13d c472 553e 885d 963d 3945 813e
00000360: c34b 383e ad58 083e c6fd 1b3e a2bb c2bc
00000370: da28 7f3d a70e 5c3d 8299 2ebd bbde 1d3e
00000380: f400 9b3d ddef 4f3e 6f8d 34bc 712c cabc
00000390: 7fd4 093e d97f 71b9 e86b d83a 367c e83d
000003a0: de9c 6e3e 2717 2ebc d10a 783e 31a8 8d3e
000003b0: 587e c43d 7671 c13d 5b30 d73d 36f2 9cbd
000003c0: 9b71 b33d 165e 1dbe 598b c03d c500 d73d
000003d0: 7e40 003e f2e8 6f3d b20b 073e b172 7c3e
000003e0: a0c0 173e 6e4d 863e 0297 513e c7a4 893e
000003f0: b9e4 99bd 03e0 fb3c 325a d73c f55f 553e
0.03245727 -0.18860155 -0.16057815 0.042757336 0.011677124 -0.09815523 0.11808231 0.043697093
0.056018922 -0.030789426 0.0091226585 0.11456522 -0.12541033 -0.056206558 -0.050260447 -0.13693345
0.053269915 -0.16709465 -0.1353751 -0.026676975 -0.09693848 -0.08298037 0.028048119 -0.038702257
0.17947654 -0.01194929 -0.10242804 -0.018171664 0.011433864 -0.015714427 0.1084201 0.01753451
-0.13958824 -0.073132396 0.086152606 -0.043379486 0.07081277 0.051678374 -0.15327072 -0.08397582
0.10687152 0.07456342 -0.032266334 0.10571703 -0.12950169 -0.10347559 -0.050165348 0.12499006
-0.14125827 -0.024351934 0.1492902 -0.11543171 -0.022796338 0.21513052 -0.019820403 0.013545821
-0.079199575 -0.01305829 0.08082635 0.12675509 -0.07603151 -0.052358635 -0.12832233 0.058854405
0.023275433 0.041367397 0.010986486 0.18655024 0.017206727 0.10761243 0.060417823 0.01792101
0.099862546 0.15483387 0.036867052 0.20253775 0.026534373 0.16282089 0.04838397 0.17866395
0.078812264 0.18191753 0.1605511 0.0844155 -0.006200077 0.11646159 0.061895918 0.0037739528
-0.07790705 0.0054324213 -0.15771511 0.027475743 0.2199974 0.16903786 0.23188157 0.091255724
0.035431173 -0.064959176 -0.10967545 0.14377238 0.13789429 0.15269496 -0.1604115 0.07311466
-0.060960628 0.25110367 0.023922583 0.05414977 -0.02910023 -0.01817565 0.051994175 0.15623093
0.0008294381 0.15106446 -0.07965742 0.23769498 0.14830987 -0.03306371 0.04262418 0.14247581
-0.17134528 -0.037249938 -0.07819794 -0.004312176 0.05284221 0.112323284 0.10179739 -0.17152485
-0.19963308 0.118824 -0.003049756 0.29527816 0.21377827 0.08052937 0.041583445 0.0827498
0.2030034 0.122829854 0.183347 0.21296072 0.14614877 0.27255344 0.24926427 0.16689837
0.13715386 0.3011124 0.15430821 0.024513582 0.052137397 0.31564644 -0.13121657 0.110861816
0.07148351 0.12820067 -0.03732612 0.15491848 -0.022111561 -0.0062594917 0.02771551 0.1725313
-0.103517845 -0.029032843 0.28253976 0.004066085 0.128824 0.3581143 0.08088117 -0.043378867
0.05487482 0.06268237 0.14535104 0.17781283 0.1327772 0.13183092 0.30277744 0.09499276
0.14011873 0.20731014 0.1471807 -0.14471883 0.21443655 -0.12636553 0.29254872 0.12084973
0.15121908 0.14837402 0.2794006 -0.1534318 0.26321286 0.03725853 0.24221897 0.030531248
0.030515479 0.26357573 0.15695117 -0.22270457 -0.07849 0.04656733 0.21528794 -0.048369415
0.101349115 0.23036975 -0.15965106 0.05374069 0.24100216 0.03567485 0.2888925 -0.1644092
0.16971526 -0.08688996 0.17185602 0.25394514 0.09458209 0.20844561 0.073420584 0.25248125
0.17997651 0.13315077 0.15233526 -0.02377111 0.06229482 0.05372491 -0.042626865 0.15416996
0.07568541 0.20306344 -0.0110200485 -0.024679394 0.13459967 -0.00023031178 0.0016511651 0.11351816
0.23302028 -0.010625637 0.24222876 0.27667382 0.09594411 0.09445469 0.1050727 -0.076633856
0.08761903 -0.15367922 0.094015785 0.10498194 0.12524602 0.058571763 0.13188055 0.24653126
0.14819574 0.2623095 0.20467761 0.26883528 -0.075143285 0.030746466 0.026288126 0.20837386
