scripts/results/MAPPOTraining2v1/2v1/NoWeapon/MAPPOTraining/mappo/v1_2v1_mappo_training/wandb/offline-run-20250807_165042-zjjd28i2/files/actor_episode_12200.pt (torch, 700180 bytes, 30 tensors)

base.mlp.fc.0.weight f4 [128, 21]
0	0xbad623d4	-0.0016337582
1	0x3defbdfd	0.11706159
2	0xbe37e9e5	-0.17960317
3	0xbe247308	-0.16059506
4	0xbdac2123	-0.08404758
5	0x3d6faf3e	0.058516733
6	0xbb8dace8	-0.0043235905
7	0x3e312cdb	0.17302267
8	0xbc9ea47a	-0.019365538
9	0x3d6c8421	0.057743195
10	0xbd870fe7	-0.0659483
11	0xbd2fb1b5	-0.042894084
12	0xbe557a3e	-0.20847413
13	0xbe13fd86	-0.1445218
14	0xbdb83a0b	-0.08995446
15	0x3c0470f3	0.00808357
16	0x3db0adea	0.086269215
17	0x3e061403	0.13093571
18	0xbe177d4a	-0.14793888
19	0xbdc29ce1	-0.095025785
20	0x3da25351	0.079260476
21	0x3e28390b	0.1642801
22	0x3c64e224	0.013969932
23	0x3e66f81b	0.22555582
24	0xbc525a6b	-0.01283894
25	0xbc8cbaf6	-0.017178994
26	0x3e61cf21	0.2205167
27	0xbe3896ea	-0.18026319
28	0xbe890032	-0.26757962
29	0xbdd94f5e	-0.10610841
30	0xbe3c85c3	-0.18410401
31	0x3f29a0ce	0.66260993
32	0xbded01c1	-0.115726
33	0xbd8371dc	-0.06418201
34	0xbdf1fa85	-0.11815361
35	0xbe938881	-0.28815082
36	0xbe1c5285	-0.15265854
37	0x3ef3cb4b	0.47616038
38	0x3df3c7a0	0.1190331
39	0x3e174bb2	0.14774969
40	0x3d2952eb	0.041338842
41	0xbe18082b	-0.14846866
42	0x3c9b43fe	0.01895332
43	0xbe5a3649	-0.2130977
44	0xbe31e107	-0.17370997
45	0xbe027b88	-0.12742436
46	0x3de9ecf9	0.11422152
47	0x3dec65eb	0.11542877
48	0xbde4f9dc	-0.111804694
49	0x3a67f2d3	0.00088481343
50	0x3e189320	0.14899874
51	0x3e6536ae	0.2238414
52	0x3d9face9	0.07796652
53	0x3c5a4112	0.013321178
54	0x3e061b01	0.13096239
55	0xbe15718c	-0.14594096
56	0x3cff2c1f	0.031148968
57	0xbe3db043	-0.1852427
58	0xbe134db1	-0.14385106
59	0xbe043cbc	-0.12913793
60	0x3dab1494	0.08353534
61	0x3d9361a5	0.071963586
62	0xbde9e189	-0.114199705
63	0x3d3c337d	0.04594754
64	0x3e3c8270	0.18409133
65	0xbdc44c8e	-0.09584914
66	0xbd03ae28	-0.03214851
67	0x3db64f49	0.08901841
68	0x3df55a2e	0.11980091
69	0x3e31a310	0.1734736
70	0xbe746198	-0.23865354
71	0x3e38aa2c	0.18033665
72	0xbdb28c42	-0.08718158
73	0x3e882508	0.26590753
74	0x3e1c8235	0.15284045
75	0x3e1b31c8	0.15155709
76	0xbbe297da	-0.006915075
77	0xbed6bc9f	-0.4194078
78	0xbd7c12ad	-0.061541248
79	0x3e559390	0.20857072
80	0xbe7c0a59	-0.24613322
81	0x3e04d872	0.12973192
82	0x3e13eeb4	0.14446527
83	0xbe2ad504	-0.16682822
84	0x3cbfed06	0.023428451
85	0xbd852842	-0.06501819
86	0xbd95c420	-0.073127985
87	0xbe05661d	-0.13027234
88	0x3d6396dc	0.055563793
89	0xbe16aad9	-0.1471361
90	0x3d54da10	0.051965773
91	0x3e1aab6c	0.15104455
92	0x3d98c3b7	0.07459205
93	0x3df2d130	0.118563056
94	0xbe96fb88	-0.29488778
95	0xbe2e6015	-0.1702884
96	0x3da582a0	0.08081555
97	0x3c391660	0.0112968385
98	0xbe16850c	-0.14699191
99	0xbdc7aee5	-0.09750155
100	0x3e31e795	0.17373498
101	0x3defa98a	0.11702259
102	0xbe025d0d	-0.12730809
103	0xbda919f5	-0.08256904
104	0xbe345107	-0.17609034
105	0xbb808675	-0.0039222785
106	0xbe28465e	-0.16433093
107	0xbe2c5d15	-0.16832383
108	0xbc44ff23	-0.01202372
109	0x3d0633e6	0.032764338
110	0xbdb705f6	-0.08936684
111	0x3e0497e0	0.1294856
112	0xbe07fb2f	-0.13279413
113	0x3e4ac1aa	0.1980044
114	0x3e19223f	0.1495447
115	0xbe3c6f97	-0.18401943
116	0xbd5e7539	-0.05431101
117	0x3c21537b	0.009846563
118	0x3d0268cd	0.031838227
119	0x3d53fdc1	0.05175567
120	0x3daf6156	0.08563487
121	0x3c5628f4	0.013071287
122	0xbdda0f74	-0.10647479
123	0x3dd37917	0.103258304
124	0xbe56595d	-0.20932527
125	0xbe04717f	-0.1293392
126	0xbd5fbffd	-0.054626454
127	0xbdd9b22a	-0.10629685
128	0xbd9c5818	-0.0763399
129	0xbe37260f	-0.17885612
130	0xbd3e2111	-0.046418253
131	0x3d3f0f55	0.04664548
132	0xbe1192c8	-0.14216149
133	0xbc377b2f	-0.011198803
134	0x3e1ff5e6	0.15621147
135	0xbcb7c51b	-0.022432854
136	0x3bc6bae2	0.0060647586
137	0xbc9a37c3	-0.018825417
138	0x3d34e483	0.04416324
139	0x3e0e14e3	0.13875155
140	0x3e53aac2	0.20670608
141	0x3e0de810	0.13858056
142	0x3e5426bd	0.20717902
143	0xbc814900	-0.01578188
144	0xbe48bc0b	-0.19602983
145	0xbdd3deb6	-0.10345213
146	0x3e1826da	0.1485857
147	0xbab969e2	-0.0014145935
148	0xbdde2296	-0.108464405
149	0xbe2b3c7e	-0.16722295
150	0xbe511ef6	-0.20421967
151	0xbe3c9914	-0.1841777
152	0xbd354cb6	-0.04426261
153	0x3df51698	0.119672
154	0x3df19e37	0.11797755
155	0xbe5781db	-0.2104563
156	0x3e0b6326	0.13612041
157	0xbe2edb12	-0.17075756
158	0xbd3cf67d	-0.046133507
159	0xbdb535ba	-0.08848138
160	0xbd2c29da	-0.0420321
161	0xbd2f7ec1	-0.04284549
162	0xbe488477	-0.19581781
163	0xbe40f08b	-0.1884176
164	0xbd0bdd54	-0.03414662
165	0x3b38f1dd	0.0028220334
166	0xbdcb0526	-0.09913091
167	0x3da859ca	0.08220251
168	0xbe927b47	-0.28609678
169	0xbe38ee82	-0.18059734
170	0x3e65317a	0.22382155
171	0xbdd7fd7a	-0.10546394
172	0x3e0643a1	0.13111736
173	0xbb8a2af7	-0.0042165476
174	0xbe5a6d91	-0.21330859
175	0x3e440dfc	0.1914596
176	0x3e61c30f	0.22047065
177	0xbe181149	-0.14850344
178	0x3ef0a53e	0.4700107
179	0xbe4d3b8d	-0.20042248
180	0x3b839195	0.0040151575
181	0xbd447d06	-0.047970794
182	0x3ec00d04	0.3750993
183	0x3e15ccfc	0.14628977
184	0x3de0fa71	0.10985268
185	0x3d92fd31	0.07177199
186	0xbd166788	-0.03671983
187	0xbda2d7b9	-0.07951302
188	0xbe3b027d	-0.18262668
189	0x3dce824b	0.10083445
190	0x3e71f01b	0.23626749
191	0x3e60b527	0.21944104
192	0xbe0067b9	-0.12539567
193	0x3bb18f18	0.0054186694
194	0xbe0d4a68	-0.13797915
195	0xbdbe69bb	-0.0929751
196	0xbe8a660f	-0.2703099
197	0x3cbf38ca	0.023342509
198	0xbe9af06c	-0.30261552
199	0x3f01cf67	0.50707096
200	0x3d2d4946	0.042306207
201	0x3e34c01a	0.17651406
202	0xbdfa8925	-0.122331895
203	0xbe70b0f5	-0.23505004
204	0xbe40fb1a	-0.18845788
205	0x3ee50ca0	0.44736195
206	0xbd4c5895	-0.049889166
207	0x3e6f104f	0.23346065
208	0x3de4dc02	0.11174776
209	0xbc62becd	-0.013839436
210	0xbda90a8c	-0.08253965
211	0xbd8983b5	-0.06714574
212	0x3d03ca8a	0.03217558
213	0xbda5656a	-0.08075984
214	0x3ca521b8	0.02015768
215	0xbd708c55	-0.05872758
216	0xbe59e9c3	-0.2128058
217	0xbe4471c8	-0.19184029
218	0x3e60fc9b	0.21971361
219	0xbe5342d3	-0.2063096
220	0x3d0c637b	0.03427456
221	0x3e464c09	0.19364943
222	0x3d797897	0.06090602
223	0xbccba379	-0.024858223
224	0xbe4236f7	-0.1896628
225	0x3d1f2ad6	0.03885921
226	0x3a8f2371	0.0010920597
227	0xbdc2ed66	-0.095179364
228	0xbda2f4da	-0.07956858
229	0xbd964919	-0.07338161
230	0x3cf32796	0.029681962
231	0x3d07cc3f	0.03315377
232	0xbd48f71a	-0.04906378
233	0x3e3e93d3	0.18611078
234	0x3d7e3619	0.06206331
235	0xbeb4ee89	-0.35338238
236	0xbbaef613	-0.005339393
237	0xbe6f13e4	-0.23347431
238	0xbd801779	-0.06254477
239	0x3dba573f	0.09098672
240	0xbdae73dc	-0.08518192
241	0x3f12e473	0.57379836
242	0xbe1034e4	-0.14082676
243	0xbd73e4d7	-0.05954441
244	0x3d6c49d5	0.0576876
245	0xbe23e64d	-0.16005822
246	0x3c325429	0.010884323
247	0x3e21c4da	0.15797749
248	0xbd93fe42	-0.0722623
249	0xbd8df5e6	-0.06931667
250	0xbe513d34	-0.20433503
251	0x3dabd46a	0.08390124
252	0x3e4abc10	0.19798303
253	0xbd70532f	-0.05867308
254	0xbe313c01	-0.17308046
255	0xbdd4c817	-0.103897266

base.mlp.fc.0.bias f4 [128]
0	0x3da69486	0.08133797
1	0xbc6c9706	-0.014440304
2	0x3e497e1b	0.19677012
3	0xbd4c4d45	-0.049878377
4	0xbe127854	-0.14303714
5	0x3d667c58	0.056270927
6	0x3de86c04	0.11348727
7	0xb9e34d1c	-0.00043354265
8	0x3e423a13	0.18967466
9	0xbdc56ffa	-0.096404985
10	0x3d870eed	0.06594644
11	0x3d8d1058	0.06887883
12	0x3da943ff	0.08264922
13	0x3cd69cea	0.02619787
14	0x3c9854d0	0.01859513
15	0xbe721437	-0.23640524
16	0xbe907de1	-0.28221038
17	0xbd3e14a6	-0.04640641
18	0xbdd5f926	-0.10447912
19	0x3e0d8d3c	0.13823408
20	0x3e21d3ea	0.15803495
21	0x3e20dc5a	0.15709057
22	0xbdc65cd2	-0.09685673
23	0xbe6258e2	-0.22104219
24	0xbe626855	-0.22110112
25	0x3df82740	0.12116861
26	0xbe873f83	-0.26415643
27	0xbe8884db	-0.2666386
28	0xbdaeb857	-0.08531254
29	0xbe5e06bd	-0.21682258
30	0xbe20659a	-0.15663758
31	0xbe0cace7	-0.13737832
32	0xbe02d6d6	-0.12777266
33	0x3e8b0026	0.2714855
34	0xbd821cf9	-0.06353182
35	0x3e0f1eb9	0.13976564
36	0x3b9ea727	0.0048417035
37	0xbce5e11c	-0.028061442
38	0xbdd8d43e	-0.10587357
39	0xbe1fbb57	-0.15598808
40	0xbe3388d9	-0.17532672
41	0x3e176275	0.14783652
42	0xbd813bb2	-0.06310214
43	0xbe59dd3c	-0.212758
44	0x3df86948	0.12129456
45	0x3b84a3cc	0.0040478464
46	0xbe3d291b	-0.18472712
47	0xbe4a3acb	-0.1974899
48	0xbe523947	-0.20529662
49	0xbe685822	-0.2268987
50	0x3db0e126	0.08636694
51	0x3e1a1224	0.15045983
52	0x3c923619	0.017848061
53	0xbe3e71ef	-0.1859815
54	0xbd69c7c2	-0.05707527
55	0xbe640175	-0.22266181
56	0x3cbff669	0.023432927
57	0xbd6d53ae	-0.05794113
58	0xbd495a99	-0.049158666
59	0xbd4175e6	-0.047231577
60	0x3d53c3aa	0.05170027
61	0x3dd5f8a7	0.10447817
62	0x3db6eae1	0.08931518
63	0xbcfe17ab	-0.031017145
64	0xbd720d0b	-0.05909447
65	0xbd4e74c9	-0.050404344
66	0xbe099c8b	-0.13438623
67	0x3e36d63a	0.17855158
68	0xbdc0be9d	-0.094113566
69	0x3e08b51f	0.13350342
70	0xbde2bba8	-0.11070949
71	0x3ac002e4	0.0014649299
72	0x3d79ad4d	0.060956288
73	0xbe04d79e	-0.12972876
74	0x3dccff66	0.10009651
75	0xbe2b0ae5	-0.16703375
76	0xbc818af4	-0.015813328
77	0xbd95ebc1	-0.07320357
78	0x3e053976	0.13010201
79	0x3e6400f7	0.22265993
80	0x3d3e74f7	0.046498265
81	0xbca64d93	-0.020300662
82	0xbe28732d	-0.16450186
83	0x3da69fd1	0.08135951
84	0xbdd71ba4	-0.10503319
85	0x3db89a97	0.09013861
86	0xbdccdc87	-0.10003
87	0x3e46f89a	0.19430771
88	0x3e0cc098	0.13745344
89	0x3ded64a6	0.11591463
90	0x3c32f069	0.010921576
91	0x3de6d54c	0.11271152
92	0xbe538315	-0.20655473
93	0x3e2a7045	0.1664439
94	0xbd2b29f2	-0.04178805
95	0x3d7f1537	0.06227609
96	0xbd2296c3	-0.03969456
97	0xbd657f85	-0.056029815
98	0xbdb30ef7	-0.08743089
99	0x3e102238	0.14075553
100	0xbe13cf45	-0.14434536
101	0xbccccf38	-0.025001153
102	0x3de171a4	0.11008003
103	0xbc19773b	-0.009366806
104	0xbe115d45	-0.14195736
105	0xbe67ed1a	-0.22649041
106	0xbdf7fdef	-0.12108981
107	0x3e6dc158	0.23218286
108	0xbe1f3355	-0.15546925
109	0x3ddf38ee	0.1089953
110	0x3d8630ec	0.065523
111	0xbe0d5bcb	-0.13804547
112	0xbdc55bcc	-0.096366495
113	0xbe389100	-0.18024063
114	0xb9a9e8ae	-0.00032407552
115	0xbce1a7c7	-0.027545823
116	0x3c2db455	0.010602077
117	0x3d2b7485	0.04185917
118	0x3d999e5d	0.075009085
119	0xbd836e95	-0.06417576
120	0x3c758deb	0.014987449
121	0x3d4e0d2a	0.050305523
122	0xbd4df9bf	-0.050287005
123	0xbc1a0b83	-0.009402159
124	0xbd5ed0d8	-0.054398388
125	0x3e3b8d71	0.18315674
126	0xbe02c417	-0.12770115
127	0x3d0c31b1	0.034227077

base.mlp.fc.2.weight f4 [128]
0	0x3f75c724	0.9600699
1	0x3f91e10a	1.1396801
2	0x3f731ad3	0.94962806
3	0x3f6f4e92	0.93479264
4	0x3f51da68	0.81973886
5	0x3f5ef1e2	0.87087834
6	0x3f5f1c15	0.87152225
7	0x3f611673	0.8792488
8	0x3f913bfd	1.1346432
9	0x3f8e8a82	1.1136019
10	0x3f32098d	0.69545823
11	0x3f8044a9	1.0020953
12	0x3f69edd8	0.91378546
13	0x3f7fb546	0.99885976
14	0x3f69ae2f	0.9128141
15	0x3f2b650a	0.6695105
16	0x3f46c300	0.77641296
17	0x3f53318f	0.82497495
18	0x3f1700d0	0.58985615
19	0x3f6b940e	0.9202279
20	0x3f877cf3	1.0585006
21	0x3f86c612	1.0529196
22	0x3f85ce7d	1.045364
23	0x3f5e35fc	0.86801124
24	0x3f588ec6	0.84592855
25	0x3f83f5d6	1.0309398
26	0x3f71dcd3	0.94477576
27	0x3f598322	0.8496572
28	0x3f88482c	1.0647025
29	0x3f726636	0.9468721
30	0x3f57a3b6	0.8423418
31	0x3f5c4676	0.86045015
32	0x3f5946ba	0.84873545
33	0x3f8aa6a9	1.0832111
34	0x3f84851b	1.035312
35	0x3f4e5f0a	0.8061377
36	0x3f4c2ac9	0.79752785
37	0x3f5fc0e6	0.87403715
38	0x3f4ba05b	0.7954156
39	0x3f789b6f	0.9711217
40	0x3f64013b	0.8906438
41	0x3f7397bb	0.951534
42	0x3f79de16	0.976045
43	0x3f438b74	0.76384664
44	0x3f48f67f	0.78501123
45	0x3f5b9681	0.85776526
46	0x3f488187	0.78322643
47	0x3f7bb018	0.9831557
48	0x3f776639	0.96640354
49	0x3f606bc2	0.87664425
50	0x3f393d2d	0.7235897
51	0x3f67e88f	0.9058923
52	0x3f7417b9	0.953487
53	0x3f5869ab	0.84536237
54	0x3f6c766e	0.9236821
55	0x3f63f679	0.8904796
56	0x3f52e606	0.8238224
57	0x3f50c73d	0.81554013
58	0x3fa44d9f	1.2836188
59	0x3f841377	1.031844
60	0x3f62cab3	0.88590544
61	0x3f4490c8	0.7678342
62	0x3f8b0665	1.0861326
63	0x3f7e9baa	0.99456275
64	0x3f788024	0.9707053
65	0x3f8c6cdc	1.0970721
66	0x3f902359	1.1260787
67	0x3f71df63	0.94481486
68	0x3f686be4	0.9078963
69	0x3f7568f2	0.9586326
70	0x3f95f649	1.1715785
71	0x3f5b46b8	0.85654783
72	0x3f534f38	0.82542753
73	0x3f8045b8	1.0021276
74	0x3f67a7ac	0.9049022
75	0x3f598056	0.8496145
76	0x3f4f3ac3	0.8094904
77	0x3f4dab46	0.8033947
78	0x3f81e48d	1.0147873
79	0x3f9814a7	1.1881303
80	0x3f805195	1.0024897
81	0x3f61439c	0.8799379
82	0x3f3c2a78	0.735023
83	0x3f6951bd	0.9114035
84	0x3f58d107	0.8469395
85	0x3f6cd38b	0.9251029
86	0x3f78ff22	0.972643
87	0x3f920988	1.1409159
88	0x3f83e14c	1.030313
89	0x3f2efd8f	0.6835565
90	0x3f883e46	1.0644004
91	0x3f923fa5	1.1425673
92	0x3f801a51	1.0008031
93	0x3f52a5da	0.8228432
94	0x3f95f57f	1.1715544
95	0x3f85bbb1	1.0447904
96	0x3f62b45a	0.88556445
97	0x3f991eab	1.1962484
98	0x3f8ef7e1	1.1169397
99	0x3f763a4d	0.9618271
100	0x3f48a371	0.7837439
101	0x3f8efa83	1.11702
102	0x3f710735	0.9415162
103	0x3f6b8be0	0.9201031
104	0x3f86bd9c	1.0526614
105	0x3f6536f3	0.8953697
106	0x3f7fcb45	0.9991954
107	0x3f8e115d	1.1099049
108	0x3f8051ea	1.0024998
109	0x3f899fcb	1.075189
110	0x3f8bbd74	1.0917192
111	0x3f7db4cc	0.99104
112	0x3f6e4bef	0.93084615
113	0x3f4cc0c8	0.7998166
114	0x3f7f2956	0.9967245
115	0x3f4bc593	0.7959835
116	0x3f617948	0.88075686
117	0x3f73a3af	0.95171636
118	0x3f81800f	1.0117205
119	0x3f830a2e	1.0237482
120	0x3f5fa118	0.87355185
121	0x3f5d3347	0.8640637
122	0x3f40117a	0.7502667
123	0x3f7b000d	0.9804695
124	0x3f52c056	0.8232473
125	0x3f73cd31	0.9523497
126	0x3f3d8c52	0.74042237
127	0x3f896d46	1.0736473

base.mlp.fc.2.bias f4 [128]
0	0x3d66e33b	0.056369048
1	0x3cc8e1b8	0.024521694
2	0x3d75d244	0.060014978
3	0xbdb36b07	-0.08760648
4	0x3e3ef208	0.18647015
5	0x3e0d1d57	0.13780724
6	0x3e159d1a	0.1461071
7	0x3e09a4f0	0.13441825
8	0x3ce92301	0.028459074
9	0x3d016e3c	0.03159927
10	0x3e422d25	0.18962534
11	0x3d4a8e00	0.049451828
12	0x3da50fb5	0.080596365
13	0xbcc91c7f	-0.02454972
14	0x3db4e946	0.08833556
15	0x3e8b953e	0.272623
16	0x3c494286	0.012283927
17	0x3e41a320	0.18909883
18	0xbd611d46	-0.054959558
19	0x3db96d97	0.09054106
20	0x3cd95aad	0.026532495
21	0x3d898777	0.06715291
22	0x3d0054b0	0.031330764
23	0x3d597e43	0.05309893
24	0x3e1e96c6	0.15487203
25	0xbaf61a6b	-0.0018776184
26	0xbbeb2b01	-0.0071767573
27	0x3d536b31	0.051615898
28	0xbd175a8c	-0.036951587
29	0x3d48b597	0.049001303
30	0x3e0bcce1	0.13652374
31	0x3e191bf7	0.14952074
32	0x3ccc4e35	0.024939636
33	0xbc8acedc	-0.016944341
34	0xbd14b3b2	-0.036304183
35	0x3e3e2936	0.18570408
36	0x3e5d1e4c	0.21593589
37	0x3e198207	0.14991008
38	0x3d5e2fa0	0.054244637
39	0x3d43bd71	0.047788087
40	0x3df7a620	0.12092233
41	0x3d81a96c	0.06331143
42	0x3d02157b	0.031758767
43	0x3e78e468	0.2430588
44	0xbce555b2	-0.027994964
45	0x3e1b3ce0	0.1515994
46	0x3dc10afb	0.094259225
47	0x3d075c67	0.033047106
48	0x3d37ce81	0.04487467
49	0x3d5d3070	0.05400127
50	0xbd2ea6c7	-0.04263952
51	0x3ddddac2	0.1083274
52	0x3d813686	0.06309228
53	0x3e330d1f	0.17485474
54	0x3dbe1195	0.09280697
55	0x3e0022cc	0.12513274
56	0xbc82da01	-0.015973093
57	0x3e4b2637	0.19838797
58	0x3c8b91fd	0.017037386
59	0x3cae1dd7	0.021254463
60	0xbd2ba028	-0.041900784
61	0xbbf16cc5	-0.0073677027
62	0x3cf03df5	0.029326418
63	0x3cce17d9	0.025157856
64	0xbd5e82d8	-0.054324
65	0xbd313233	-0.043260764
66	0xbd1c9549	-0.038228307
67	0x3d906c07	0.070518546
68	0x3de708f9	0.11281008
69	0x3ca2e236	0.019883256
70	0x3cd1a844	0.02559293
71	0x3e2a6f14	0.16643935
72	0x3e3c135a	0.18366757
73	0x3c6a8201	0.014313222
74	0x3defe354	0.11713281
75	0x3e25500a	0.16143814
76	0x3d5c1d23	0.053738724
77	0x3d78de54	0.060758904
78	0x3c15edfb	0.009150977
79	0xbd1a4a36	-0.03766843
80	0x3c74a33a	0.014931494
81	0x3e045ddb	0.12926428
82	0x3d8ef3aa	0.06980069
83	0x3dd1bafd	0.10240743
84	0x3e2c20c8	0.1680938
85	0x3db919a8	0.09038097
86	0x3d2d61ec	0.042329714
87	0x3cf914ff	0.03040552
88	0xbd5f1328	-0.05446163
89	0x3e9cfb57	0.30660507
90	0x3c7f1353	0.015568572
91	0xbce4c403	-0.027925497
92	0x3c61b0e9	0.013775089
93	0x3e431f64	0.19054943
94	0x3ccd354f	0.025049834
95	0xbd5fbf2b	-0.05462567
96	0x3dfaa01e	0.12237571
97	0xbcecf0b7	-0.028923376
98	0x3d01f828	0.0317308
99	0x3d42d7be	0.04756903
100	0x3d193b0d	0.03740983
101	0xbcfc25ef	-0.030779807
102	0x3daa5c71	0.08318413
103	0xbd672495	-0.05643137
104	0x3cc64376	0.02420209
105	0x3e01f351	0.12690474
106	0xbc6d6387	-0.014489061
107	0xbd69f1cb	-0.057115357
108	0x3ade7d02	0.0016974511
109	0xbd185510	-0.037190497
110	0xbd2ae136	-0.041718684
111	0x3c6f2f4e	0.014598681
112	0x3da946f0	0.082654834
113	0x3e22bd44	0.15892512
114	0xbccaa7e4	-0.02473826
115	0x3e59adf5	0.21257766
116	0x3e0b7162	0.13617471
117	0xbda4543a	-0.080238774
118	0x3c45639c	0.0120476745
119	0x3c8cf395	0.017205993
120	0x3e15745e	0.14595172
121	0x3e17bd0f	0.14818214
122	0x3df20eed	0.11819253
123	0xbd92e0f7	-0.07171815
124	0xbcecc991	-0.028904708
125	0x3c1918c3	0.009344283
126	0x3d420f52	0.04737789
127	0x3d1ed75c	0.0387796

base.mlp.fc.3.weight f4 [128, 128]
0	0xbe038c51	-0.12846495
1	0x3d555bd0	0.052089512
2	0xbd40ac0e	-0.047039084
3	0x3d9859ac	0.074389786
4	0xbda70188	-0.08154589
5	0xbbf0cc1b	-0.00734855
6	0xbd76f55b	-0.060292583
7	0xbcab88e5	-0.0209393
8	0xbd4aed94	-0.04954298
9	0x3dc6daed	0.097097255
10	0x3c4a0c61	0.012332053
11	0x3b245a70	0.002507832
12	0x3c6b8aba	0.014376337
13	0xbdfc9fd6	-0.12335174
14	0xbd3d98f4	-0.046288446
15	0xbc620a20	-0.013796359
16	0x3dbc5cf7	0.09197419
17	0x3cddf6a2	0.027095143
18	0x3cb31421	0.021860184
19	0xbd2563a7	-0.04037824
20	0x3dc241e9	0.094852276
21	0xbe4f9e1d	-0.20275159
22	0xbc0842e1	-0.008316726
23	0x3d23c68d	0.039984275
24	0xbc8f285b	-0.017475298
25	0x3cb841b2	0.022492263
26	0xbdebb94e	-0.115099534
27	0x3dbd2f93	0.0923759
28	0xbc548d5a	-0.012973154
29	0xbcd7f599	-0.026362227
30	0xbda9e791	-0.08296121
31	0x3bc62c17	0.0060477364
32	0x3de32819	0.110916324
33	0xbe117e4b	-0.14208333
34	0xbc2bfeff	-0.0104978075
35	0xbd11ee01	-0.03562737
36	0xbdecdd40	-0.115656376
37	0xbd3d93fd	-0.04628371
38	0xbe2258f7	-0.1585425
39	0xbca211ac	-0.019783817
40	0xbc8e3866	-0.017360877
41	0xbddce379	-0.107855745
42	0x3e3c099a	0.18363038
43	0x3c65c9a6	0.0140251275
44	0xbdae210c	-0.08502397
45	0xbbf55a2b	-0.0074875555
46	0xbe2cc1bb	-0.16870777
47	0x3d6242fa	0.055239655
48	0xbcd28feb	-0.025703391
49	0xbda9386d	-0.082627155
50	0x3d50a894	0.05094202
51	0xbe0617ae	-0.1309497
52	0xbda970f2	-0.08273496
53	0xbdd3fef0	-0.1035136
54	0xbdd4c1a9	-0.103885
55	0xbdd5e2e2	-0.10443665
56	0xbdae5b07	-0.08513456
57	0xbd0b17c2	-0.033958204
58	0x3dd5fe3a	0.104488805
59	0x3cfa5fd7	0.030563278
60	0xbcd8b5f0	-0.026453942
61	0xbd0b3f00	-0.03399563
62	0x3e51cda8	0.20488608
63	0xbdf2f957	-0.11863964
64	0xbe436c9d	-0.19084401
65	0xbd910706	-0.07081418
66	0xbd433e41	-0.04766679
67	0xbd40f56c	-0.047109053
68	0xbcca6a1b	-0.024708798
69	0x3e3b4a1e	0.18289992
70	0xbd2e809e	-0.042603128
71	0x3bdc4037	0.006721522
72	0x3cbf664e	0.023364212
73	0x3c3b13b5	0.011418273
74	0xbce7bcd5	-0.028288284
75	0xbb7ac8df	-0.00382667
76	0x3c030135	0.007995893
77	0x3e305425	0.17219599
78	0x3d0ae551	0.0339101
79	0xbc44a417	-0.012002013
80	0xbd3f228d	-0.04666381
81	0xbddadead	-0.10687003
82	0x3d93c926	0.072161004
83	0xbcca9608	-0.024729744
84	0x3ccf28b7	0.025287969
85	0xbce44768	-0.02786608
86	0xbb2da5ce	-0.0026496532
87	0x3d90daa8	0.07072955
88	0xbe14a8c5	-0.14517505
89	0xbdad2a7b	-0.08455368
90	0x3dd0728f	0.101781
91	0xbe4e1a8a	-0.20127311
92	0xbd3f1c7b	-0.04665802
93	0xbda2c2db	-0.07947322
94	0xbdad7011	-0.084686406
95	0xbe6e91da	-0.23297825
96	0x3b1dc5ed	0.0024074272
97	0xbe10a370	-0.14124846
98	0x3e3e9f1a	0.1861538
99	0x3bd63f92	0.00653834
100	0xbd95ba3f	-0.07310914
101	0xbe165914	-0.14682418
102	0xbdea76ba	-0.114484265
103	0x3c94ea33	0.018178081
104	0x3df2c403	0.118537925
105	0xbda2c2d2	-0.07947315
106	0x3dbfdc54	0.09368196
107	0x3cb8343b	0.022485843
108	0xbcc803b5	-0.02441583
109	0xbe44c3cb	-0.19215314
110	0xbe00724c	-0.12543601
111	0x3d0be6c2	0.034155615
112	0x3c884d2b	0.016638359
113	0x3c24ee16	0.01006653
114	0x3cb27a1e	0.021786746
115	0xbe01133e	-0.12604997
116	0x3c95ec06	0.018301021
117	0x3d92f70a	0.07176025
118	0xbdae0f76	-0.08499043
119	0xbdb396ec	-0.087690204
120	0x3cb4628f	0.022019653
121	0xbc6bf1d4	-0.014400918
122	0x3d755bc1	0.059901956
123	0xbdf4c6b4	-0.11951962
124	0xbdf1df45	-0.118101634
125	0x3ce89a3a	0.028393853
126	0x3d465932	0.048424907
127	0x3dd1b2e5	0.102391995
128	0x3d961526	0.073282525
129	0xbea5ce4f	-0.32383963
130	0x3e2ba8c6	0.167636
131	0x3c21c7c3	0.009874287
132	0x3d34fe6e	0.044187956
133	0x3dd21a6e	0.10258947
134	0x3d9a33eb	0.07529434
135	0x3db4a15d	0.0881984
136	0x3de5620c	0.112003416
137	0xbe5a543c	-0.21321195
138	0x3daa03d6	0.08301513
139	0xbd504229	-0.050844345
140	0x3cba487a	0.022739638
141	0xbe315258	-0.17316568
142	0x3e166615	0.14687379
143	0x3ca418da	0.020031381
144	0xbaf5c21c	-0.0018749866
145	0x3d4a9bf2	0.049465127
146	0x3e01191e	0.12607238
147	0x3bf7e9af	0.007565699
148	0x3d98832f	0.07446896
149	0x3e16d5e1	0.14730026
150	0xbd1165e6	-0.03549757
151	0xbd7d2de6	-0.06181135
152	0x3e16f4e2	0.14741853
153	0xbe1c0025	-0.1523443
154	0xbdfd4a3b	-0.12367674
155	0x3d609153	0.054826092
156	0xbea7abf5	-0.3274838
157	0x3dafced1	0.08584369
158	0x3d237bdb	0.03991304
159	0x3d5625a4	0.05228199
160	0x3d31583a	0.04329703
161	0xbd3f5750	-0.046714127
162	0xbd2f57eb	-0.042808454
163	0x3e05e021	0.1307378
164	0x3e1b6d07	0.1517831
165	0x3e112a53	0.14176302
166	0x3dd37995	0.10325924
167	0x3c7a45f8	0.015275471
168	0x3c28dfb4	0.010307241
169	0x3dfa5bcd	0.12224541
170	0xbdb31634	-0.08744469
171	0x3d1c2def	0.038129743
172	0x3b513d22	0.0031927307
173	0x3e3358b4	0.17514306
174	0xbd848cc7	-0.06472164
175	0x3d483fd0	0.04888898
176	0x3de2d823	0.11076381
177	0xbdd499cd	-0.10380898
178	0x3db59829	0.08866913
179	0x3cd0ebe6	0.02550311
180	0x3e1e79e8	0.15476191
181	0x3d5c617e	0.053803913
182	0x3d786800	0.060646057
183	0x3ca8abad	0.020589674
184	0xbdb7bd51	-0.08971656
185	0x3dab4474	0.08362666
186	0xbdedbd60	-0.11608386
187	0xbbc70b83	-0.0060743704
188	0xbd7e05e2	-0.06201733
189	0xbe48989c	-0.19589466
190	0xbdfb4589	-0.12269122
191	0x3dfeb72d	0.12437282
192	0x3dc11f86	0.09429841
193	0xbda6c6ae	-0.08143364
194	0x3c86062c	0.016360365
195	0x3db66e10	0.089077115
196	0x3d74b9d9	0.05974755
197	0xbc29ba98	-0.010359429
198	0xb9972d9b	-0.00028834943
199	0x3e2bff05	0.16796501
200	0x3e398dec	0.18120545
201	0xbdfc226b	-0.12311252
202	0x3e0351c3	0.12824158
203	0x3e3be8cd	0.18350525
204	0x3e287a67	0.16452943
205	0x3d2f0fff	0.042739864
206	0x3da3065c	0.07960197
207	0x3d014ecd	0.03156929
208	0x3deb6207	0.114933066
209	0x3d3eac0d	0.0465508
210	0xbd30d6fb	-0.04317377
211	0x3d679ef0	0.05654806
212	0x3de43cdd	0.11144421
213	0x3d8bea3d	0.06831787
214	0x3e0f07d0	0.13967824
215	0xbe3e286a	-0.18570104
216	0x3d277872	0.04088635
217	0x3d6ed453	0.058307957
218	0xbe0c0ab6	-0.13675961
219	0x3dcdee42	0.1005521
220	0x3d3e98e7	0.046532538
221	0x3cac8390	0.021058828
222	0x3e04ea3c	0.12979978
223	0x3d83bbd9	0.064323135
224	0x3d7a7a3f	0.06115174
225	0x3ca959a3	0.020672625
226	0xbd100194	-0.035157755
227	0x3d84077a	0.064467385
228	0xbba9c022	-0.0051803747
229	0x3d65a74a	0.056067742
230	0x3e1ec281	0.15503885
231	0xbd5d7aec	-0.054072306
232	0xbe5d556a	-0.21614614
233	0x3d099f6c	0.033599302
234	0xbc9d4ef0	-0.01920268
235	0xbdf84b5d	-0.121237494
236	0xb9fedcf2	-0.00048611272
237	0x3e308478	0.17238033
238	0xbd96e5bf	-0.07368039
239	0x3d182de0	0.037153125
240	0x3df9ae94	0.12191501
241	0x3e100271	0.14063431
242	0xbd1477fa	-0.03624723
243	0x3dde1f20	0.108457804
244	0x3e28ef73	0.16497593
245	0xbe001446	-0.12507734
246	0x3dcfd03b	0.10147139
247	0x3d8e83ad	0.06958709
248	0x3cd8e0c0	0.026474357
249	0x3e12db95	0.14341576
250	0x3db455c8	0.08805424
251	0xbdaa70db	-0.08322307
252	0x3d8d87a0	0.06910634
253	0x3dccb9a3	0.09996345
254	0x3d8b7232	0.068088904
255	0xbcba0b1e	-0.02271038

base.mlp.fc.3.bias f4 [128]
0	0x3de2af1a	0.11068554
1	0xbd6e26ca	-0.05814246
2	0x3cc0c904	0.023533352
3	0xbe18da7a	-0.14927092
4	0x3d7f196f	0.062280115
5	0x3d108268	0.035280615
6	0x3d57e143	0.05270506
7	0xbd833df5	-0.06408302
8	0xba54f4e3	-0.0008123649
9	0xbd82f3af	-0.06394135
10	0x3d105b5c	0.035243377
11	0x3e0e54bb	0.1389951
12	0xbd32f847	-0.043693807
13	0x3d1f0e69	0.038832102
14	0x3d5d824d	0.054079343
15	0xbdb38c69	-0.087670155
16	0x3d971479	0.07376952
17	0xbd584bf5	-0.052806813
18	0xbd132dd4	-0.035932377
19	0x3d9673dc	0.07346317
20	0xbdba97d5	-0.09110991
21	0x3c3edba7	0.011649049
22	0xbdb79641	-0.089642055
23	0x3e077c55	0.13231023
24	0x3b84a721	0.0040482436
25	0xbcfdf691	-0.031001361
26	0x3ccec064	0.025238223
27	0x3cf510a8	0.029915169
28	0x3e1458ff	0.14487074
29	0xbe0c0383	-0.13673215
30	0x3b82b6f6	0.003989096
31	0x3c92c4e8	0.017916158
32	0xbdc60cc8	-0.096704066
33	0x3d29ea32	0.04148311
34	0xbdff34fb	-0.12461277
35	0xbd9e81b3	-0.07739582
36	0xbd014d24	-0.031567708
37	0xbdb588c6	-0.08863978
38	0xbe2302aa	-0.15918985
39	0x3d18298e	0.037149005
40	0x3cde36f6	0.027125817
41	0xbdadf80d	-0.084945776
42	0xbdd8ac54	-0.10579744
43	0xbd6271d3	-0.055284332
44	0xbcd414b6	-0.025888782
45	0xbc36e815	-0.011163731
46	0x3c43b7b5	0.011945655
47	0xbc125637	-0.008931688
48	0xbbccb887	-0.0062475833
49	0xbb1dc567	-0.002407396
50	0xb9d0b97e	-0.00039811054
51	0xbd913e18	-0.070919216
52	0x3e132891	0.14370944
53	0xbd8ff516	-0.07029168
54	0xbe04a577	-0.12953745
55	0x3cbcb349	0.023034709
56	0x3d93d738	0.07218784
57	0xbc104798	-0.008806132
58	0x3d085b86	0.03329041
59	0x3d2cfc2d	0.04223268
60	0x3c1b17ee	0.0094661545
61	0x3c6005ba	0.01367324
62	0x3cdd5250	0.027016789
63	0x3bbeb46b	0.0058198473
64	0xbdb538ef	-0.0884875
65	0xbd246873	-0.040138673
66	0x3da8223e	0.08209656
67	0x3d67d0e2	0.05659569
68	0x3cd77fd0	0.026306063
69	0x3cae9840	0.021312833
70	0xbd1600d5	-0.036621887
71	0x3d40887f	0.047005173
72	0xbd4a6426	-0.049411915
73	0xbca46661	-0.02006835
74	0xbd8a09ed	-0.067401744
75	0xbc960815	-0.0183144
76	0xbd591587	-0.052999046
77	0xbd591999	-0.053002927
78	0x3d9fd57b	0.0780439
79	0xbd5964de	-0.05307471
80	0x3d815cd3	0.06316533
81	0x3d6422cf	0.05569726
82	0xbdc77794	-0.097396046
83	0x3d750420	0.059818387
84	0x3c7ab388	0.015301593
85	0xbc597426	-0.013272321
86	0x3cea643f	0.028612254
87	0xbdb9a201	-0.09064103
88	0xbd8d0d6c	-0.06887326
89	0xbdc9ccd7	-0.09853523
90	0x3d214aa3	0.03937782
91	0x3d132a56	0.035929047
92	0xbd8a1bd4	-0.06743589
93	0x3d2dfd85	0.042478103
94	0x3c4e45af	0.012589856
95	0x3d49f9cc	0.04931049
96	0x3cb778df	0.022396503
97	0x3d9c3d21	0.07628847
98	0xbd0a6d73	-0.033795785
99	0x3da62524	0.08112553
100	0xbd75dbbd	-0.060024012
101	0xbd86cee1	-0.06582428
102	0x3e2b238a	0.16712776
103	0x3ce8e057	0.028427286
104	0xbda9b529	-0.08286507
105	0x3db6f62d	0.08933673
106	0xbb0bcba9	-0.0021331108
107	0xbe0a50a4	-0.13507324
108	0x3cb7041c	0.022340827
109	0x3d974b53	0.07387414
110	0xbd824a9c	-0.06361887
111	0x3d13c973	0.03608079
112	0x3d8932fd	0.06699178
113	0xbdddda7a	-0.10832687
114	0xbca7fe26	-0.02050693
115	0x3e3bd406	0.183426
116	0xbda5f1b5	-0.081027426
117	0xbbac1134	-0.005251074
118	0xbdaa7530	-0.08323133
119	0x3db0cf06	0.086332366
120	0xbd98cf01	-0.07461358
121	0x3dfb85e1	0.12281395
122	0x3db23277	0.08701032
123	0xbd0cee7f	-0.034407135
124	0xbdfc660a	-0.1232415
125	0xbd7fa50b	-0.062413257
126	0xbd99e9d9	-0.07515306
127	0xbd876b46	-0.06612258

base.mlp.fc.5.weight f4 [128]
0	0x3f7f4d2b	0.99727124
1	0x3f7f67cf	0.99767774
2	0x3f6d77b6	0.9276079
3	0x3f63c94d	0.88979036
4	0x3f8b3d4b	1.087808
5	0x3f8be618	1.0929594
6	0x3f83099c	1.0237308
7	0x3f91cfc5	1.1391531
8	0x3fa0d22f	1.2564143
9	0x3f936f20	1.1518288
10	0x3f6e9dc9	0.9320951
11	0x3f7a94bb	0.97883195
12	0x3f789758	0.9710593
13	0x3f77f247	0.9685406
14	0x3f873d9b	1.0565675
15	0x3f713921	0.94227797
16	0x3f8b89a2	1.0901377
17	0x3f94ff26	1.1640365
18	0x3f86272b	1.0480703
19	0x3f972e05	1.1810919
20	0x3f83d466	1.0299194
21	0x3f8c0385	1.0938574
22	0x3f969c2f	1.1766413
23	0x3f91db21	1.1394998
24	0x3f69459f	0.9112186
25	0x3faa3b81	1.3299409
26	0x3f66bc3e	0.90130985
27	0x3f8d6b85	1.1048437
28	0x3f9d3159	1.2280685
29	0x3f910b7e	1.1331632
30	0x3f860b06	1.0472114
31	0x3f82ac17	1.0208768
32	0x3fa2f65b	1.2731432
33	0x3f88ef18	1.0697966
34	0x3f562359	0.83647686
35	0x3fa5506b	1.2915167
36	0x3f9b4876	1.2131488
37	0x3f8611af	1.0474147
38	0x3f72e126	0.948748
39	0x3f9c1626	1.2194259
40	0x3fa96224	1.3233075
41	0x3f5dda1b	0.8666093
42	0x3f843c7b	1.0330957
43	0x3f9051b6	1.1274936
44	0x3f864b2f	1.0491694
45	0x3f3a5561	0.7278653
46	0x3f7aca04	0.979645
47	0x3f9a4449	1.2052089
48	0x3f3ed3bc	0.7454183
49	0x3f7efca3	0.99604243
50	0x3f7d9f62	0.99071324
51	0x3f8fc3c7	1.1231622
52	0x3f9c5e5a	1.2216294
53	0x3f89a57f	1.075363
54	0x3f7295e7	0.9475998
55	0x3fad1410	1.3521748
56	0x3f9cf244	1.2261434
57	0x3f78287c	0.96936774
58	0x3f8c6889	1.0969402
59	0x3f8bb1b1	1.0913602
60	0x3f7bd1c6	0.98366964
61	0x3f586d36	0.8454164
62	0x3f6203e6	0.882872
63	0x3f77a7b0	0.96740246
64	0x3f73a660	0.95175743
65	0x3f89f0aa	1.077657
66	0x3f807b65	1.0037657
67	0x3f9644ad	1.1739708
68	0x3f837570	1.0270214
69	0x3f7a805f	0.9785213
70	0x3f9b93e6	1.215451
71	0x3f823de3	1.0175136
72	0x3f8d6159	1.1045333
73	0x3f878263	1.0586666
74	0x3f82d4b7	1.0221165
75	0x3f904e48	1.127389
76	0x3f956954	1.1672769
77	0x3f8ec9f6	1.1155384
78	0x3f8d1c43	1.102425
79	0x3f835bdb	1.0262407
80	0x3f886370	1.0655346
81	0x3fa759c5	1.307427
82	0x3f759760	0.95934105
83	0x3f8ee173	1.1162552
84	0x3f85a129	1.0439807
85	0x3f6e6227	0.9311852
86	0x3f7beb35	0.9840577
87	0x3f92cd38	1.1468878
88	0x3f451b33	0.7699463
89	0x3f93103a	1.1489327
90	0x3fa745b5	1.3068148
91	0x3f8dfcaa	1.1092732
92	0x3f91e95b	1.139934
93	0x3f992643	1.1964802
94	0x3f88b7ce	1.0681093
95	0x3f84919a	1.0356934
96	0x3f908607	1.1290902
97	0x3f71915a	0.94362414
98	0x3f816c65	1.0111204
99	0x3f948fb1	1.1606351
100	0x3f8a6d8c	1.0814681
101	0x3f888e9c	1.0668521
102	0x3f9df832	1.2341368
103	0x3f8b6322	1.0889628
104	0x3f6b0341	0.9180184
105	0x3f860c9e	1.04726
106	0x3f80ca97	1.0061826
107	0x3f538631	0.82626635
108	0x3f81f748	1.0153589
109	0x3fb84277	1.4395283
110	0x3fa08b48	1.2542505
111	0x3fa0c99f	1.256153
112	0x3f9cc29f	1.2246894
113	0x3f7a0e61	0.9767819
114	0x3f8454ae	1.0338342
115	0x3fb54e4a	1.4164517
116	0x3f9156b6	1.1354587
117	0x3f7aebdc	0.9801614
118	0x3f89c8d0	1.0764408
119	0x3f984106	1.1894844
120	0x3f894aed	1.072599
121	0x3f748cfa	0.95527613
122	0x3f85c531	1.0450803
123	0x3f861b1c	1.0477023
124	0x3f94aa88	1.1614542
125	0x3f8d2cb6	1.102927
126	0x3fa2c57f	1.2716521
127	0x3f8ecc68	1.115613

base.mlp.fc.5.bias f4 [128]
0	0x3e004e38	0.12529838
1	0xbc0860fa	-0.008323902
2	0x3e12a5f8	0.14321125
3	0x3d9eec63	0.07759931
4	0xbe00193b	-0.12509625
5	0xbdf75b5b	-0.120779715
6	0xbd0acec9	-0.033888612
7	0xbe14dbe9	-0.14537014
8	0x3e98cc90	0.2984357
9	0xbe33c29c	-0.17554706
10	0xbd8ab2e5	-0.06772403
11	0xbd2d2840	-0.042274714
12	0xbc851ac8	-0.016248122
13	0xbd21d185	-0.039506454
14	0x3db075c6	0.086162135
15	0x3d83275a	0.0640399
16	0x3e52c172	0.20581606
17	0xbe03d65e	-0.12874743
18	0xbcd76773	-0.026294446
19	0x3e4fed6c	0.20305413
20	0xbd4d5971	-0.050134126
21	0xbdf09e6c	-0.117489666
22	0xbe4a73f0	-0.19770789
23	0xbe27f097	-0.16400371
24	0x3da87db8	0.08227104
25	0xbe783c68	-0.24241793
26	0x3d69bd22	0.057065137
27	0xbe1d30e3	-0.1535068
28	0x3e6f49c4	0.23367983
29	0xbdbe6d0c	-0.09298143
30	0xbd61826c	-0.05505602
31	0xbc4ea03b	-0.012611444
32	0xbe9123e4	-0.28347695
33	0xbda2cc62	-0.07949139
34	0x3e2355f8	0.15950763
35	0x3d481442	0.048847444
36	0xbd6b324e	-0.05742102
37	0xbd844052	-0.064575806
38	0xbd8333eb	-0.06406387
39	0xbe6be85e	-0.2303786
40	0x3ea4ba3f	0.32173344
41	0x3de22726	0.11042623
42	0xbd16b1f1	-0.036790792
43	0xbe0cf441	-0.1376505
44	0xbd8b5080	-0.068024635
45	0x3e5e5cfe	0.21715161
46	0xbd8e6daf	-0.06954514
47	0xbe5ae0e1	-0.21374847
48	0x3ea08950	0.3135476
49	0x3de0f86c	0.10984883
50	0xbd45cb89	-0.04828981
51	0x3d67ad27	0.056561615
52	0x3e5c3c3b	0.21507351
53	0xbdf666f1	-0.12031353
54	0x3ca66325	0.020310948
55	0xbdff780d	-0.1247407
56	0x3e79ddbf	0.24400996
57	0x3c5bd7c7	0.013418145
58	0xbdd2ab37	-0.10286563
59	0xbdd992ee	-0.10623728
60	0xbd32b370	-0.043628156
61	0x3dd95213	0.106113575
62	0xbd8f1e11	-0.069881566
63	0x3c9c7e20	0.01910311
64	0x3c8cf080	0.017204523
65	0xbdbfe645	-0.09370092
66	0xbcb66a67	-0.022267533
67	0x3de56572	0.1120099
68	0xbcdf1af3	-0.02723453
69	0xbbbf1306	-0.005831125
70	0x3e014fb4	0.1262806
71	0xbc90d989	-0.017681854
72	0xbe10bec0	-0.14135265
73	0xbd4feb6e	-0.050761633
74	0xbdb25a5b	-0.0870864
75	0xbe0f78af	-0.14010881
76	0xbe43cc87	-0.1912099
77	0xbe040ffd	-0.12896724
78	0xbc4f8b7e	-0.012667535
79	0xbcc15d86	-0.023604166
80	0xbddb544c	-0.10709438
81	0x3e9e387c	0.3090247
82	0x3c5fcf5f	0.013660281
83	0xbdd6c1e7	-0.10486203
84	0xbd53ca40	-0.051706553
85	0x3e0308e0	0.12796354
86	0xbb55aa6a	-0.0032602795
87	0xbe230b29	-0.15922226
88	0x3e66c38b	0.22535531
89	0xbe3e34fe	-0.18574902
90	0xbc87353d	-0.016504878
91	0xbceb944f	-0.028757242
92	0xbe1e193c	-0.15439314
93	0x3dcd2bdd	0.10018132
94	0xbbf8ec68	-0.007596541
95	0xbd3528a9	-0.04422823
96	0x3d9117de	0.070846304
97	0x3da4fdce	0.08056222
98	0xbd33bd8f	-0.04388195
99	0xbd15985c	-0.036522254
100	0xbd2b5be4	-0.04183568
101	0xbda82dde	-0.082118735
102	0x3e23528a	0.15949455
103	0xbbdec46f	-0.006798319
104	0x3d87c56e	0.066294536
105	0x3ddf247e	0.10895632
106	0xbd58b8b3	-0.052910518
107	0x3c84d76c	0.016216002
108	0x3c217082	0.009853484
109	0x3db1d051	0.08682311
110	0xbe86d0fe	-0.26331323
111	0xbe857f33	-0.26073608
112	0x3e5effea	0.21777311
113	0x3c670f6c	0.014102798
114	0xbd4eab93	-0.050456595
115	0x3eae5ade	0.340537
116	0xbe14df20	-0.1453824
117	0xbc9f3aa7	-0.019437147
118	0xbde04c84	-0.10952094
119	0xbbe06acc	-0.0068486687
120	0xbd8976f6	-0.06712143
121	0x3db6de59	0.08929128
122	0xbd175f98	-0.0369564
123	0xbd900e0e	-0.07033931
124	0xbe2a3c66	-0.16624603
125	0xbe4de06d	-0.20105143
126	0xbe921a61	-0.2853575
127	0xbe068023	-0.13134818

rnn.gru.weight_ih_l0 f4 [384, 128]
0	0x3d8c93b2	0.06864108
1	0x3d8df3f2	0.069312945
2	0xbdab0575	-0.0835065
3	0x3c8b4f96	0.017005723
4	0x3c9c8a94	0.019109048
5	0xbd9f2611	-0.077709325
6	0x3c046b68	0.008082248
7	0xbd9d2ffd	-0.07675169
8	0xbd92e320	-0.07172227
9	0x3d9aaa0c	0.07551965
10	0x3d46363b	0.048391562
11	0x3c2ad376	0.010426393
12	0x3e0332c1	0.1281233
13	0x38146ee4	3.5389225e-05
14	0xbd01c2e6	-0.03168001
15	0xbc4497a6	-0.011999046
16	0x3cd4e0ab	0.025986036
17	0xbd0fa2cc	-0.035067365
18	0xbd84a5ac	-0.06476912
19	0x3e4d113a	0.20026103
20	0xbdfab9c4	-0.12242463
21	0x3ced87a4	0.028995343
22	0x3d0ae0e5	0.033905882
23	0xbd1ccaca	-0.038279332
24	0x3d4dfcfa	0.050290085
25	0x3cf3d85d	0.029766256
26	0xbce29760	-0.027660072
27	0xbd792055	-0.06082185
28	0x3d89c19d	0.06726382
29	0xbd4cfe38	-0.05004713
30	0x3cf013b0	0.029306263
31	0xbaff4266	-0.0019474744
32	0x3d29fc78	0.04150054
33	0x3c989e09	0.018630045
34	0xbd27c19a	-0.040956117
35	0x3d740ba5	0.059581418
36	0x3b8b9827	0.0042600813
37	0x3c7978ee	0.015226586
38	0xbd03da28	-0.032190472
39	0x3cf4ac36	0.029867273
40	0xbc208071	-0.009796248
41	0xbdcbcd39	-0.099512525
42	0x3d6e01b2	0.058107086
43	0xbd825fc1	-0.0636592
44	0x3d0ffe09	0.035154376
45	0x3d9ac9a9	0.07557995
46	0xbe16f97d	-0.1474361
47	0x3d5ecd27	0.054394867
48	0x3c95c3a5	0.018281767
49	0xbe041026	-0.12896785
50	0xbd5381d1	-0.051637474
51	0x3cb78831	0.022403808
52	0x3c81773b	0.015803924
53	0xbc13f697	-0.00903096
54	0x3ce02b57	0.027364416
55	0x3b652da4	0.003496983
56	0x3db880cf	0.09008943
57	0x3ca733d5	0.020410458
58	0xbd9d114d	-0.076693155
59	0xbcbbbd48	-0.022917405
60	0xbdc743ce	-0.097297296
61	0x3e33478c	0.17507762
62	0xbe53fd82	-0.20702174
63	0x3d34a655	0.04410394
64	0x3dacb35b	0.08432647
65	0xbcb820d0	-0.022476584
66	0xbdb47dc8	-0.08813053
67	0x3e0612da	0.13093129
68	0x3cf377c9	0.029720204
69	0xbdb89e45	-0.090145625
70	0x3e5801ce	0.21094438
71	0xbc3cabfa	-0.011515612
72	0xbd8a12f8	-0.06741899
73	0x3c48a116	0.012245437
74	0x3d331c10	0.043727934
75	0xbb33769f	-0.0027383936
76	0xbd86ef26	-0.06588583
77	0xbd563734	-0.05229874
78	0xbcd6389c	-0.02615004
79	0x3d378ee0	0.04481399
80	0x3c520cf2	0.012820469
81	0x3c89f440	0.0168401
82	0xbb171ff8	-0.0023059826
83	0xbd5ff3df	-0.054675933
84	0x3d13761b	0.036001306
85	0x3de713a9	0.11283047
86	0x3d053493	0.03252084
87	0x3d94db37	0.072683744
88	0xbd52801c	-0.051391706
89	0x3df80645	0.12110571
90	0xbd95cd7c	-0.07314584
91	0x3d771459	0.06032214
92	0xbcc37b08	-0.023862377
93	0xbb09e65a	-0.0021041841
94	0xbc970700	-0.018435955
95	0xbb50d9c1	-0.0031868073
96	0x3e33a52b	0.17543475
97	0xbd8548b4	-0.06508008
98	0xbc6cc71b	-0.014451767
99	0xbd628735	-0.055304725
100	0x3df6aefd	0.12045095
101	0x3d38b0d7	0.045090523
102	0xbd0eeffe	-0.034896843
103	0xbdc400fe	-0.09570502
104	0x3d8eba09	0.06969077
105	0x3d72ec21	0.05930722
106	0x3db88989	0.09010608
107	0xbd0b956c	-0.034078047
108	0xbe41ba90	-0.18918824
109	0xbd85447f	-0.06507205
110	0xbd8b4006	-0.06799321
111	0xbd3f67bb	-0.046729784
112	0x3cc1124f	0.0235683
113	0xbd59bad6	-0.053156696
114	0xbd206027	-0.039154198
115	0x3c931723	0.017955368
116	0xbcc10eee	-0.02356669
117	0xbd46343f	-0.04838967
118	0x3e0d99f5	0.13828261
119	0x3d68a2da	0.056795932
120	0xbc64cf7a	-0.013965482
121	0x3d4b38d9	0.04961476
122	0xbe1ae40c	-0.15126055
123	0xbc9e65ec	-0.01933571
124	0xbe427d83	-0.18993191
125	0x3d98c724	0.07459858
126	0xbd700ad7	-0.058604088
127	0x3d5c2763	0.0537485
128	0xbe1bf6f3	-0.15230922
129	0x3bd3bb94	0.00646157
130	0xbd0015e8	-0.03127089
131	0xbd6b48ab	-0.05744235
132	0x3dc86ec1	0.0978675
133	0x3e027cc8	0.12742913
134	0x3e59e3d7	0.2127832
135	0x3d4ce041	0.050018553
136	0xbd5ebb40	-0.054377794
137	0x3e3bd66e	0.18343517
138	0x3ddb1955	0.10698191
139	0xbd4d9b1f	-0.050196763
140	0x3da2949b	0.079385005
141	0xbd2f6221	-0.042818192
142	0x3d48e438	0.04904577
143	0x3dbafef1	0.091306575
144	0xbd0ec79a	-0.034858324
145	0xbdc7e633	-0.09760704
146	0x3d31b7e4	0.043388262
147	0xbd08fff0	-0.033447206
148	0xbcb6abd5	-0.022298733
149	0x3d608c59	0.054821346
150	0x3da5cd7a	0.08095832
151	0x3d8cc2e6	0.068731114
152	0x3d820b6e	0.06349836
153	0x3d70ab58	0.058757156
154	0x3e57e0e0	0.21081877
155	0x3d42bb07	0.047541644
156	0x3c99575a	0.01871841
157	0x3d03b47f	0.032154556
158	0x3e33a791	0.1754439
159	0x3ddeaca9	0.10872776
160	0x3dadbfe2	0.08483864
161	0x3e28285f	0.1642165
162	0x3e4faf7b	0.20281784
163	0x3dace154	0.084414154
164	0xbc031c06	-0.008002287
165	0x3e40c460	0.18824911
166	0x3db7c8ca	0.08973844
167	0x3dabd98e	0.08391105
168	0xbd387fed	-0.045043875
169	0x3dbec522	0.09314944
170	0x3e4c7ec9	0.1997024
171	0x3e1144c6	0.14186391
172	0x3e47ea90	0.19523072
173	0x3e15c84f	0.14627193
174	0x3debce90	0.11514008
175	0x3e324fae	0.17413208
176	0x3db566d2	0.08857502
177	0xbdef60e2	-0.11688401
178	0x3e161029	0.14654602
179	0x3dc84d56	0.09780376
180	0x3b887475	0.0041642734
181	0x3e036860	0.12832785
182	0x3e485a52	0.19565704
183	0xbd3b718c	-0.045762584
184	0xbab6a0b0	-0.0013933387
185	0x3db877d3	0.0900723
186	0x3d84ec35	0.064903654
187	0x3e4a852c	0.19777364
188	0xbd8c62af	-0.0685476
189	0x3d1a5564	0.03767909
190	0x3d8bb1b8	0.068210065
191	0x3e40d6ec	0.18831986
192	0x3e21eb8c	0.1581251
193	0x3d7d5451	0.06184799
194	0x3d87bb4e	0.066275224
195	0xbddfc5e8	-0.109264195
196	0x3e177e40	0.14794254
197	0x3d1f86f7	0.038947072
198	0xbde4b7b7	-0.11167853
199	0x3d277694	0.04088457
200	0x3e00c17d	0.1257381
201	0x3e553f85	0.20825012
202	0x3e1d4435	0.1535805
203	0x3e0b941c	0.13630718
204	0x3e263c59	0.16233958
205	0x3d8fb18e	0.07016288
206	0xbd8cc8bf	-0.06874227
207	0x3e493ba7	0.19651662
208	0xbdccffea	-0.10009749
209	0xbe6248da	-0.22098103
210	0x3dc0cc01	0.09413911
211	0x3a379a63	0.00070039014
212	0x3de5daba	0.112233594
213	0x3c8044ae	0.015657749
214	0x3e09eda0	0.13469553
215	0x3e1842a8	0.14869177
216	0x3e1e34b9	0.154498
217	0x3afb699b	0.0019181253
218	0xbd980e19	-0.07424564
219	0x3e45204a	0.19250599
220	0x3e4aa9c1	0.19791318
221	0xbe79f9b0	-0.24411654
222	0x3b48c3ee	0.0030634361
223	0x3d9605b0	0.073253036
224	0xbdedfd45	-0.11620573
225	0xbe0e8192	-0.13916615
226	0x3e3fb68b	0.18721978
227	0x3d8ecb72	0.06972398
228	0x3d15a79f	0.03653681
229	0x3e06d204	0.13166052
230	0x3b25ad8c	0.0025280444
231	0xbc8a488a	-0.016880292
232	0x3e12bde3	0.14330249
233	0xbe8809c7	-0.2656996
234	0x3da7cd32	0.08193435
235	0x3d80d97a	0.0629148
236	0xbd8dd96d	-0.06926236
237	0x3dbe8ce9	0.0930422
238	0x3d33c116	0.043885313
239	0x3db0cdd0	0.086330056
240	0xbd80ccec	-0.06289086
241	0x3ddbf38a	0.10739811
242	0x3dd4116b	0.10354885
243	0xbdeaa8d2	-0.11457981
244	0x3e3e31ca	0.1857368
245	0xbd57e159	-0.052705143
246	0x3e15bd2c	0.14622945
247	0xbd22cc2e	-0.039745502
248	0xbe13f066	-0.14447173
249	0x3c670ac3	0.014101687
250	0x3cbfb69f	0.02340251
251	0x3e1343d1	0.14381339
252	0x3dee7be4	0.11644724
253	0x3afcc6a4	0.0019285274
254	0x3dc759b0	0.097339034
255	0x3e3f9bdd	0.18711801

rnn.gru.weight_hh_l0 f4 [384, 128]
0	0xbdbd51ea	-0.092441395
1	0xbd8cce2f	-0.06875264
2	0xbcb4eee3	-0.022086566
3	0x3d87904a	0.06619318
4	0x3bbb4c42	0.0057158777
5	0x3c924d4a	0.01785912
6	0x3d89362b	0.06699785
7	0x3cc7980e	0.024364498
8	0xbd4b563a	-0.04964278
9	0xbce0591f	-0.027386246
10	0x3d500bff	0.05079269
11	0x3d992268	0.074772656
12	0x3d4861eb	0.048921507
13	0xbd099b36	-0.033595286
14	0x3cabc3e3	0.02096743
15	0x3d1bc71a	0.038031675
16	0x3cab7f7f	0.020934818
17	0x3d56d91b	0.05245314
18	0xbcb517b0	-0.022106022
19	0xbc6d96c4	-0.014501277
20	0xbcbd2060	-0.023086727
21	0x3cea01f5	0.028565386
22	0x3c20e5d5	0.009820421
23	0x3d34bdb6	0.044126235
24	0xbddc7271	-0.107640155
25	0xbd13e804	-0.03610994
26	0x3e31b13d	0.17352767
27	0x3dda5eb9	0.10662598
28	0xbcec4b17	-0.0288444
29	0x3d1526cf	0.036413964
30	0xbe11022c	-0.14160985
31	0x3dfe021a	0.124027446
32	0x3d941498	0.072304904
33	0x3d507913	0.050896715
34	0x3d430357	0.047610607
35	0x3d32878d	0.043586303
36	0xbdfcaa3d	-0.12337158
37	0x3ddca7d8	0.10774201
38	0x3d1807ed	0.037116934
39	0xbce49034	-0.027900793
40	0xbd848cb1	-0.06472147
41	0xbcc9d984	-0.024639852
42	0x3dc1cbc2	0.09462692
43	0x3dbff17e	0.09372233
44	0xbe36ccb8	-0.17851532
45	0x3d11de02	0.035612114
46	0xbde1addb	-0.110194884
47	0xbdceb970	-0.10093963
48	0xbafedee1	-0.0019445085
49	0x3dac3a10	0.08409512
50	0xbdd2e5a6	-0.10297708
51	0x3d14688d	0.03623252
52	0xbce08501	-0.027407171
53	0x3e0adf40	0.13561726
54	0xbd6bc3c3	-0.05755974
55	0x3c21ebd1	0.009882883
56	0xbd90ce46	-0.070705935
57	0xbd3cdb33	-0.046107482
58	0xbdd7c4bf	-0.10535573
59	0x3d06ad47	0.032880094
60	0xbd229fa4	-0.039703026
61	0xbdfe9eba	-0.124326184
62	0x3d15e606	0.03659632
63	0xbdd98812	-0.106216565
64	0xbe136677	-0.14394556
65	0xbd4d00b0	-0.050049484
66	0x3d75e385	0.060031433
67	0xbda05f8b	-0.078307234
68	0x3dc427a5	0.09577874
69	0x3da4db9c	0.080497
70	0x3db106ae	0.08643852
71	0xbdf6d28d	-0.12051878
72	0xbd956909	-0.072954245
73	0x3d8500dc	0.064943045
74	0x3da469a9	0.080279656
75	0xbdb0baa7	-0.08629351
76	0xbcc8e8f2	-0.02452514
77	0x3dd9bce0	0.10631728
78	0xbd3cfa7d	-0.04613732
79	0x3de294fa	0.11063571
80	0x3e2c2de8	0.16814387
81	0xbdb20a91	-0.08693422
82	0xbd226261	-0.039644603
83	0x3bf0eda4	0.0073525477
84	0x3dbe6a62	0.09297635
85	0xbcd8f31a	-0.026483107
86	0x3e3b468a	0.18288627
87	0xbe02c89b	-0.12771837
88	0x3d485fba	0.048919417
89	0xbdea9d99	-0.114558406
90	0xbca73509	-0.020411031
91	0xbe212eb0	-0.15740466
92	0x3dc650b9	0.096833654
93	0x3d0655f6	0.032796822
94	0x3c7f8e54	0.0155978985
95	0x3cc30b20	0.023809016
96	0x3da20f95	0.07913128
97	0x3cb9b7ce	0.022670653
98	0x3d737111	0.059434
99	0x3dc25e00	0.09490585
100	0xbd43af6b	-0.047774713
101	0x3d8418ce	0.064500436
102	0xbd8f17c8	-0.06986958
103	0xbca9b300	-0.020715237
104	0xbda27d46	-0.0793405
105	0x3e34179e	0.17587134
106	0x3d44a444	0.04800822
107	0xbd661caf	-0.0561797
108	0xbd4f3707	-0.050589588
109	0x3df7ca71	0.120991595
110	0xbd00d729	-0.031455193
111	0x3c863211	0.016381295
112	0x3c1ea54c	0.0096829645
113	0xbd911255	-0.07083575
114	0xbdd29dc2	-0.10283996
115	0xbd9ce3f4	-0.07660666
116	0xbcab77b6	-0.020931106
117	0x3dac4d66	0.084132
118	0xbce65982	-0.028118853
119	0x3b18e23f	0.0023328213
120	0x3dc8ae11	0.097988255
121	0xbb1c9165	-0.0023890373
122	0xbe3db631	-0.18526532
123	0xbd420862	-0.047371276
124	0x3de7a3f3	0.11310568
125	0xbe0c3049	-0.13690294
126	0xbdc8d51d	-0.09806273
127	0xbd52ae2f	-0.051435646
128	0xbd04cfea	-0.032424845
129	0xbe063101	-0.13104631
130	0x3cb23fd2	0.021758948
131	0xbda7ea48	-0.081989825
132	0xbdd83625	-0.10557202
133	0xbe253169	-0.1613213
134	0xbdac4f2a	-0.08413537
135	0x3de240d5	0.11047522
136	0x3d82df6c	0.063902706
137	0x3c8b8af8	0.017034039
138	0xbdfbd6ac	-0.12296805
139	0x3cfbfdb9	0.030760633
140	0x3cc4b0cf	0.02401009
141	0x3da5a156	0.08087413
142	0xbd260f59	-0.04054198
143	0x3db11d2b	0.086481415
144	0xbc1e4468	-0.009659864
145	0x3dcaee7f	0.09908771
146	0x3e134888	0.14383137
147	0xbe373def	-0.1789472
148	0x3e0c6ef1	0.13714196
149	0xbe1a3002	-0.15057376
150	0x3d3a1ccd	0.045437623
151	0xbe1be5b9	-0.15224351
152	0x3d75645a	0.059910156
153	0x3d27cd33	0.040967178
154	0xbabc59e0	-0.0014370047
155	0x3d9c707b	0.076386414
156	0x3d1c196d	0.038110185
157	0xbd170176	-0.036866628
158	0x3e00718a	0.12543312
159	0x3db4b211	0.08823026
160	0xbe1deacb	-0.15421598
161	0xbd1b0997	-0.037850942
162	0x3d2f35da	0.042775966
163	0x3e45b4af	0.19307207
164	0x3d211376	0.0393252
165	0xbd19adf0	-0.037519395
166	0x3c838b83	0.016057735
167	0xbd606b23	-0.054789674
168	0xbe398d0c	-0.18120211
169	0xbe616872	-0.22012499
170	0xbd85751b	-0.06516477
171	0xbe9b26da	-0.3030308
172	0x3d594e31	0.053053085
173	0xbdec020f	-0.1152383
174	0xbd24174c	-0.04006128
175	0x3d878684	0.06617454
176	0x3e0f7b7e	0.14011952
177	0xbe271357	-0.16315971
178	0x3dda750c	0.10666856
179	0xbdea7caa	-0.11449559
180	0xbc188cb3	-0.009310889
181	0x3d6666c4	0.05625035
182	0x3ced3316	0.028955024
183	0xbdda4f62	-0.10659672
184	0x3bf2e86c	0.0074129608
185	0x3dba9488	0.09110361
186	0xbc619812	-0.013769167
187	0xbca0ef06	-0.019645225
188	0x3d8d9796	0.06913678
189	0x3c97daf2	0.018537018
190	0xbd7966ce	-0.060889058
191	0x3dcaabe0	0.09896064
192	0x3db90121	0.090334184
193	0x3e37a3c3	0.17933564
194	0x3cac1a9a	0.021008778
195	0x3d0b99df	0.03408229
196	0xbd439a73	-0.047754716
197	0x3d3b841e	0.045780294
198	0xbde57fa6	-0.11205988
199	0x3c6d7fc5	0.014495795
200	0xbdf92b73	-0.121664904
201	0x3e4ee5a2	0.20204785
202	0x3c95932f	0.01825866
203	0xbc86afb2	-0.0164412
204	0xbd2a4c44	-0.04157664
205	0x3c93f83a	0.0180627
206	0xbd2c660b	-0.042089503
207	0x3bc53e44	0.0060193855
208	0x3ba2e2c4	0.00497088
209	0xbcead115	-0.028664151
210	0xbd81a873	-0.06330957
211	0xbce27fbe	-0.027648803
212	0xbd8b53a0	-0.068030596
213	0x3d9160ed	0.07098565
214	0xbc949b83	-0.01814056
215	0xbe27ba1b	-0.16379587
216	0x3c3ad3af	0.011403008
217	0xbe111b42	-0.14170554
218	0x3d81bbe6	0.06334667
219	0x3ce7e399	0.02830677
220	0xbd816a8f	-0.063191526
221	0x3dd8257d	0.10554025
222	0x3cfdf10e	0.030998733
223	0x3d22a40b	0.039707225
224	0xbc63a069	-0.013893225
225	0xbe145262	-0.14484552
226	0x3e0e2f28	0.13885176
227	0x3ce3141c	0.02771955
228	0xbd1bf111	-0.038071696
229	0xbdc40e6b	-0.095730625
230	0xbd51833b	-0.05115054
231	0xbd7ab9e4	-0.061212435
232	0x3d1462ea	0.036227144
233	0x3dda4f7d	0.106596924
234	0xbd1b4595	-0.037908155
235	0x3dda182b	0.10649141
236	0xbd0177b4	-0.0316083
237	0x3d05ddc0	0.03268218
238	0x3e231388	0.1592542
239	0x3e04abed	0.1295621
240	0xbbf56138	-0.007488396
241	0xbe03eecb	-0.12884061
242	0xbd7d0696	-0.06177386
243	0x3d2ba41b	0.04190455
244	0xbc023b0b	-0.007948647
245	0x3e1c4d6d	0.1526391
246	0x3cbc3814	0.022975959
247	0xbd838fcd	-0.06423912
248	0x3d654c14	0.055980757
249	0x3ddba141	0.10724116
250	0x3d308814	0.043098524
251	0xbcd3c062	-0.025848571
252	0xbe071a43	-0.13193612
253	0xbe01bec2	-0.12670425
254	0x3cdf80f5	0.027283171
255	0x3e115a9f	0.14194725
