scripts/results/MAPPOTraining2v1/2v1/NoWeapon/MAPPOTraining/mappo/v1_2v1_mappo_training/wandb/offline-run-20250807_165042-zjjd28i2/files/actor_episode_5700.pt (torch, 700146 bytes, 30 tensors)

base.mlp.fc.0.weight f4 [128, 21]
-0.0016337582 0.11706159 -0.17960317 -0.16059506 -0.08404758 0.058516733 -0.0043235905 0.17302267
-0.019365538 0.057743195 -0.0659483 -0.042894084 -0.20847413 -0.1445218 -0.08995446 0.00808357
0.086269215 0.13093571 -0.14793888 -0.095025785 0.079260476 0.15054053 -0.0186242 0.19802916
-0.032736473 -0.054531522 0.19301385 -0.20039873 -0.18028183 -0.03747874 -0.05994996 0.40329745
-0.13490896 -0.08324463 -0.13802849 -0.23113763 -0.13224968 0.36764488 0.09891727 0.1333832
0.01598544 -0.12800293 0.01895332 -0.2130977 -0.17370997 -0.12742436 0.11422152 0.11542877
-0.111804694 0.00088481343 0.14899874 0.2238414 0.07796652 0.013321178 0.13096239 -0.14594096
0.031148968 -0.1852427 -0.14385106 -0.12913793 0.08353534 0.071963586 -0.114199705 0.02685479
0.06370814 -0.10793412 -0.04848953 0.043576375 0.10276343 0.15572666 -0.1917948 0.116284825
-0.07164367 0.27810052 0.13159895 0.12685347 -0.018268919 -0.21459784 -0.02562759 0.068180874
-0.26213324 0.12965338 0.10781111 -0.15452383 0.023428451 -0.06501819 -0.073127985 -0.13027234
0.055563793 -0.1471361 0.051965773 0.15104455 0.07459205 0.118563056 -0.29488778 -0.1702884
0.08081555 0.0112968385 -0.14699191 -0.09750155 0.17373498 0.11702259 -0.12730809 -0.08256904
-0.17609034 -0.0039222785 -0.16433093 -0.16832383 -0.01202372 0.032764338 -0.08936684 0.1294856
-0.13279413 0.1980044 0.1495447 -0.18401943 -0.05431101 0.009846563 0.031838227 0.05175567
0.08563487 0.013071287 -0.10647479 0.103258304 -0.20932527 -0.1293392 -0.054626454 -0.10629685
-0.0763399 -0.17885612 -0.046418253 0.04664548 -0.14216149 -0.011198803 0.15621147 -0.022432854
0.0060647586 -0.018825417 0.04416324 0.13875155 0.20670608 0.13858056 0.20717902 -0.01578188
-0.19602983 -0.10345213 0.1485857 -0.0014145935 -0.108464405 -0.16722295 -0.20421967 -0.1841777
-0.04426261 0.119672 0.11797755 -0.2104563 0.13612041 -0.17075756 -0.046133507 -0.08848138
-0.0420321 -0.04284549 -0.19581781 -0.1884176 -0.03414662 0.0028220334 -0.09913091 0.08220251
-0.26742464 -0.040587805 0.21805006 -0.1121894 0.15755382 0.02955382 -0.22314985 0.16681747
0.13392588 -0.07182971 0.30468386 -0.19589841 0.013094592 -0.0605077 0.16764991 0.05191105
0.20608835 0.05929436 -0.053334717 -0.07840197 -0.17003746 0.09919461 0.20945455 0.19618167
-0.13590814 -0.042502068 -0.15346326 -0.10367557 -0.1989787 0.09406434 -0.16567673 0.24967939
0.031388268 0.16561955 -0.13390175 -0.1791226 -0.15922639 0.3370219 -0.062116936 0.22581783
0.09638573 -0.0013891761 -0.08253965 -0.06714574 0.03217558 -0.08075984 0.02015768 -0.05872758
-0.2128058 -0.19184029 0.21971361 -0.2063096 0.03427456 0.19364943 0.06090602 -0.024858223
-0.1896628 0.03885921 0.0010920597 -0.095179364 -0.07956858 -0.07338161 0.029681962 0.13362637
0.046694655 0.2302607 0.13061956 -0.18985444 0.067993276 -0.16157389 -0.13385856 0.09759038
0.03370528 0.387674 -0.06785714 0.007947505 0.11965454 -0.23867863 0.077054635 0.017644146
-0.0019790651 -0.01691414 -0.122685134 0.021571983 0.19798303 -0.05867308 -0.17308046 -0.103897266
00000000: d423 d6ba fdbd ef3d e5e9 37be 0873 24be
00000010: 2321 acbd 3eaf 6f3d e8ac 8dbb db2c 313e
00000020: 7aa4 9ebc 2184 6c3d e70f 87bd b5b1 2fbd
00000030: 3e7a 55be 86fd 13be 0b3a b8bd f370 043c
00000040: eaad b03d 0314 063e 4a7d 17be e19c c2bd
00000050: 5153 a23d 4c27 1a3e c791 98bc 28c8 4a3e
00000060: ae16 06bd 725c 5fbd 6ca5 453e 5335 4dbe
00000070: cd9b 38be 4f83 19bd 178e 75bd 017d ce3e
00000080: 9325 0abe 297c aabd 5757 0dbe 58af 6cbe
00000090: 766c 07be f33b bc3e 2395 ca3d 9b95 083e
000000a0: e6f3 823c 3313 03be fe43 9b3c 4936 5abe
000000b0: 07e1 31be 887b 02be f9ec e93d eb65 ec3d
000000c0: dcf9 e4bd d3f2 673a 2093 183e ae36 653e
000000d0: e9ac 9f3d 1241 5a3c 011b 063e 8c71 15be
000000e0: 1f2c ff3c 43b0 3dbe b14d 13be bc3c 04be
000000f0: 9414 ab3d a561 933d 89e1 e9bd 94fe db3c
00000100: 6a79 823d 900c ddbd f59c 46bd 247d 323d
00000110: a275 d23d cf76 1f3e db65 44be bd26 ee3d
00000120: ebb9 92bd 3163 8e3e e0c1 063e e0e5 013e
00000130: b3a8 95bc 89bf 5bbe f4f0 d1bc 6aa2 8b3d
00000140: 5436 86be dbc3 043e 12cc dc3d 7f3b 1ebe
00000150: 06ed bf3c 4228 85bd 20c4 95bd 1d66 05be
00000160: dc96 633d d9aa 16be 10da 543d 6cab 1a3e
00000170: b7c3 983d 30d1 f23d 88fb 96be 1560 2ebe
00000180: a082 a53d 6016 393c 0c85 16be e5ae c7bd
00000190: 95e7 313e 8aa9 ef3d 0d5d 02be f519 a9bd
000001a0: 0751 34be 7586 80bb 5e46 28be 155d 2cbe
000001b0: 23ff 44bc e633 063d f605 b7bd e097 043e
000001c0: 2ffb 07be aac1 4a3e 3f22 193e 976f 3cbe
000001d0: 3975 5ebd 7b53 213c cd68 023d c1fd 533d
000001e0: 5661 af3d f428 563c 740f dabd 1779 d33d
000001f0: 5d59 56be 7f71 04be fdbf 5fbd 2ab2 d9bd
00000200: 1858 9cbd 0f26 37be 1121 3ebd 550f 3f3d
00000210: c892 11be 2f7b 37bc e6f5 1f3e 1bc5 b7bc
00000220: e2ba c63b c337 9abc 83e4 343d e314 0e3e
00000230: c2aa 533e 10e8 0d3e bd26 543e 0049 81bc
00000240: 0bbc 48be b6de d3bd da26 183e e269 b9ba
00000250: 9622 debd 7e3c 2bbe f61e 51be 1499 3cbe
00000260: b64c 35bd 9816 f53d 379e f13d db81 57be
00000270: 2663 0b3e 12db 2ebe 7df6 3cbd ba35 b5bd
00000280: da29 2cbd c17e 2fbd 7784 48be 8bf0 40be
00000290: 54dd 0bbd ddf1 383b 2605 cbbd ca59 a83d
000002a0: e2eb 88be 663f 26bd 8448 5f3e 8ec3 e5bd
000002b0: ca55 213e da1a f23c 6581 64be 33d2 2a3e
000002c0: de23 093e 741b 93bd 86ff 9b3e 9899 48be
000002d0: b38a 563c ecd6 77bd 6bac 2b3e aea0 543d
000002e0: d308 533e a5de 723d 8175 5abd 3691 a0bd
000002f0: 4d1e 2ebe 8b26 cb3d 417b 563e d9e3 483e
00000300: 812b 0bbe a616 2ebd 7925 1dbe db53 d4bd
00000310: 13c1 4bbe cea4 c03d 29a7 29be f4ab 7f3e
00000320: fc90 003d 2c98 293e 8a1d 09be ea6b 37be
00000330: 3e0c 23be 228e ac3e 546e 7ebd ca3c 673e
00000340: e265 c53d 0415 b6ba 8c0a a9bd b583 89bd
00000350: 8aca 033d 6a65 a5bd b821 a53c 558c 70bd
00000360: c3e9 59be c871 44be 9bfc 603e d342 53be
00000370: 7b63 0c3d 094c 463e 9778 793d 79a3 cbbc
00000380: f736 42be d62a 1f3d 7123 8f3a 66ed c2bd
00000390: daf4 a2bd 1949 96bd 9627 f33c 5ad5 083e
000003a0: e542 3f3d 76c9 6b3e 22c1 053e 3469 42be
000003b0: 0f40 8b3d a073 25be 3812 09be 77dd c73d
000003c0: 8c0e 0a3d 357d c63e aff8 8abd 4136 023c
000003d0: 710d f53d 2c68 74be d2ce 9d3d 758a 903c
000003e0: 34b3 01bb 868f 8abc 5842 fbbd bab7 b03c
000003f0: 10bc 4a3e 2f53 70bd 013c 31be 17c8 d4bd

base.mlp.fc.0.bias f4 [128]
0.08133797 -0.03490552 0.19677012 -0.062183313 -0.14303714 0.056270927 0.11348727 -0.00043354265
0.17708538 -0.10885517 0.06594644 0.13120793 0.08264922 0.026368327 0.01859513 -0.23640524
-0.22849238 -0.04640641 -0.104631394 0.13823408 0.16276634 0.14890277 -0.079535276 -0.16255091
-0.22110112 0.104380965 -0.20428395 -0.2666386 -0.08616724 -0.21682258 -0.15663758 -0.13737832
-0.12769516 0.28261304 -0.06472269 0.13976564 0.0048417035 -0.028061442 -0.068290316 -0.15598808
-0.17532672 0.14783652 -0.08222874 -0.212758 0.15969148 0.0040478464 -0.15615657 -0.13966323
-0.20529662 -0.18252116 0.13487233 0.15045983 0.017848061 -0.1859815 -0.05707527 -0.22266181
0.053912744 -0.05794113 -0.057933655 -0.06264105 0.07564306 0.107127234 0.067757875 -0.031017145
-0.051707666 -0.001360106 -0.1411491 0.17855158 -0.094113566 0.11329116 -0.12080951 0.0014649299
0.060956288 -0.16229549 0.10009651 -0.16703375 -0.008204755 -0.07320357 0.11468329 0.21830294
0.046498265 -0.020300662 -0.1564586 0.08135951 -0.10503319 0.09013861 -0.10003 0.1782608
0.14359759 0.11591463 0.0041768723 0.12704907 -0.20655473 0.1664439 -0.058631398 0.0738382
-0.03969456 -0.06584675 -0.0874154 0.14075553 -0.105323724 -0.026754748 0.11008003 -0.015170402
-0.14535695 -0.22649041 -0.14534138 0.19958901 -0.1591237 0.111313514 0.15043838 -0.08228065
-0.096366495 -0.18024063 0.016930724 -0.027545823 0.010602077 0.055706155 0.075009085 -0.06741097
0.014987449 0.050305523 -0.050287005 -8.906419e-05 -0.04876224 0.18315674 -0.12014965 0.012850499
00000000: 8694 a63d 17f9 0ebd 1b7e 493e eeb3 7ebd
00000010: 5478 12be 587c 663d 046c e83d 1c4d e3b9
00000020: df55 353e 76ef debd ed0e 873d 5f5b 063e
00000030: ff43 a93d 6402 d83c d054 983c 3714 72be
00000040: e8f9 69be a614 3ebd fc48 d6bd 3c8d 0d3e
00000050: 38ac 263e f879 183e 64e3 a2bd bf73 26be
00000060: 5568 62be b0c5 d53d d02f 51be db84 88be
00000070: 7378 b0bd bd06 5ebe 9a65 20be e7ac 0cbe
00000080: 85c2 02be a8b2 903e 548d 84bd b91e 0f3e
00000090: 27a7 9e3b 1ce1 e5bc cbdb 8bbd 57bb 1fbe
000000a0: d988 33be 7562 173e 8b67 a8bd 3cdd 59be
000000b0: 2a86 233e cca3 843b 82e7 1fbe e103 0fbe
000000c0: 4739 52be d4e6 3abe f91b 0a3e 2412 1a3e
000000d0: 1936 923c ef71 3ebe c2c7 69bd 7501 64be
000000e0: 9cd3 5c3d ae53 6dbd d74b 6dbd f349 80bd
000000f0: c0ea 9a3d 8665 db3d a4c4 8a3d ab17 febc
00000100: 6bcb 53bd 9645 b2ba 6489 10be 3ad6 363e
00000110: 9dbe c0bd 3205 e83d fa6a f7bd e402 c03a
00000120: 4dad 793d ca30 26be 66ff cc3d e50a 2bbe
00000130: 3d6d 06bc c1eb 95bd 13df ea3d ce8a 5f3e
00000140: f774 3e3d 934d a6bc af36 20be d19f a63d
00000150: a41b d7bd 979a b83d 87dc ccbd 008a 363e
00000160: 3f0b 133e a664 ed3d 25de 883b 2719 023e
00000170: 1583 53be 4570 2a3e 7a27 70bd 7b38 973d
00000180: c396 22bd a9da 86bd d806 b3bd 3822 103e
00000190: f7b3 d7bd c62c dbbc a471 e13d 478d 78bc
000001a0: 74d8 14be 1aed 67be 5fd4 14be 1061 4c3e
000001b0: 53f1 22be 57f8 e33d 850c 1a3e c282 a8bd
000001c0: cc5b c5bd 0091 38be 4db2 8a3c c7a7 e1bc
000001d0: 55b4 2d3c 232c 643d 5d9e 993d c30e 8abd
000001e0: eb8d 753c 2a0d 4e3d bff9 4dbd f9c7 bab8
000001f0: eaba 47bd 718d 3b3e 0511 f6bd e68a 523c

base.mlp.fc.2.weight f4 [128]
0.9679162 1.1281236 0.9666242 0.9266929 0.85876584 0.92786545 0.9046652 0.8940804
1.0364057 1.1104765 0.81843233 1.0877606 0.9537913 1.0319465 0.9222955 0.794367
0.9551238 0.87259865 0.8638134 0.9329593 1.0113798 0.91837597 1.0126134 1.0077592
0.9075698 0.9948795 0.9781117 0.9206546 1.0162938 0.9893666 0.87852913 0.89031
0.9540834 1.0037056 1.0164293 0.8633077 0.89271843 0.9120938 0.8689606 0.97463614
0.9277144 0.95796907 1.0207889 0.80731934 0.8616002 0.8849373 0.83790565 1.0437633
0.96063 0.9977842 0.83670074 0.95797205 0.9775108 0.8852762 0.9286277 0.9188825
0.92919993 0.88336736 1.2364823 1.0313525 0.97157395 0.86696345 1.082696 1.003614
0.9558601 1.0901699 1.1058626 0.94885886 0.9611229 1.0054495 1.0753303 0.8886288
0.8353724 0.99645704 0.9476297 0.87201923 0.8868875 0.84402484 1.0238217 1.1687875
1.0041456 0.9302531 0.8328273 0.9123896 0.92418677 0.95193684 0.9563136 1.136988
0.9882172 0.81908494 1.0798674 1.1060096 0.99842405 0.88418233 1.130048 1.0437478
0.9165868 1.1793461 1.0600305 0.95655566 0.9029996 1.0553094 0.97471267 0.9629477
1.0686773 0.922202 0.9819169 1.0678343 1.0106091 1.0869163 1.0316222 1.0049905
0.97634166 0.9004571 0.99782574 0.8534735 0.9701369 0.925629 1.0080034 0.990604
0.916507 0.9017529 0.7772288 0.96818817 0.9125889 0.93234444 0.7957308 1.0758983
00000000: 5bc9 773f 5b66 903f af74 773f bf3b 6d3f
00000010: 14d8 5b3f 9788 6d3f 2398 673f 74e2 643f
00000020: f1a8 843f 1824 8e3f c884 513f bd3b 8b3f
00000030: ab2b 743f d316 843f 8f1b 6c3f a35b 4b3f
00000040: fe82 743f a062 5f3f e022 5d3f 6cd6 6e3f
00000050: e574 813f b01a 6b3f 519d 813f 41fe 803f
00000060: 7f56 683f 6cb0 7e3f 8765 7a3f 05b0 6b3f
00000070: ea15 823f 2147 7d3f 49e7 603f 5beb 633f
00000080: cf3e 743f 6d79 803f 5b1a 823f bc01 5d3f
00000090: 3289 643f fb7e 693f 3474 5e3f c181 793f
000000a0: b17e 6d3f 763d 753f 36a9 823f 7bac 4e3f
000000b0: d591 5c3f 408b 623f fc80 563f 099a 853f
000000c0: d9eb 753f c96e 7f3f 0532 563f a83d 753f
000000d0: 263e 7a3f 76a1 623f 8cba 6d3f e23b 6b3f
000000e0: 0ce0 6d3f 5d24 623f 0d45 9e3f 5c03 843f
000000f0: 12b9 783f 51f1 5d3f c895 8a3f 6c76 803f
00000100: 3fb3 743f b08a 8b3f e88c 8d3f 6ae8 723f
00000110: 260c 763f 92b2 803f 6ca4 893f 2d7d 633f
00000120: f7da 553f cf17 7f3f dc97 723f a73c 5f3f
00000130: 0f0b 633f 0312 583f 970c 833f d49a 953f
00000140: d887 803f 1125 6e3f 2c34 553f 5d92 693f
00000150: 8197 6c3f 22b2 733f f8d0 743f d388 913f
00000160: cdfb 7c3f 8daf 513f 1839 8a3f b991 8d3f
00000170: b898 7f3f c659 623f 6aa5 903f 8799 853f
00000180: 6fa5 6a3f d0f4 963f 14af 873f d5e0 743f
00000190: fb2a 673f 6114 873f c586 793f be83 763f
000001a0: 6bca 883f 6e15 6c3f e85e 7b3f cbae 883f
000001b0: a45b 813f 1320 8b3f 320c 843f 87a3 803f
000001c0: 87f1 793f 5b84 663f 8271 7f3f 3d7d 5a3f
000001d0: e45a 783f 06f6 6c3f 4106 813f 3998 7d3f
000001e0: 34a0 6a3f 47d9 663f 77f8 463f 2edb 773f
000001f0: 6d9f 693f 20ae 6e3f 04b5 4b3f 09b7 893f

base.mlp.fc.2.bias f4 [128]
0.04182696 0.004270519 0.037892755 -0.07069618 0.1399234 0.07514862 0.10533805 0.11502642
0.020590244 0.014508894 0.06253971 0.010137307 0.04741931 -0.0017898157 0.071911246 0.1493462
-0.055937327 0.1354168 -0.06668662 0.071835175 0.010016037 0.07891244 0.018595766 -0.008491571
0.08961693 0.0068588112 -0.028751744 -0.021167304 -0.024027325 0.014147543 0.09142244 0.11544907
-0.010609411 0.009460078 -0.032461554 0.1264925 0.11572098 0.10269838 0.003505993 0.034868456
0.07624579 0.04937159 -0.010699188 0.19305214 -0.034904525 0.11786124 0.04382664 0.0031645184
0.044549413 0.012422572 -0.07321437 0.05417261 0.034793906 0.1276973 0.08021206 0.09030739
-0.033249754 0.12705955 0.012851596 0.008863585 -0.017403658 -0.014762825 0.006652674 0.010226837
-0.038654875 -0.031043347 -0.022987366 0.058559254 0.053274367 -0.010103824 0.019203978 0.12837721
0.16784894 0.008781608 0.06905705 0.13250633 -0.011451356 0.014280167 -0.011203353 -0.023507163
0.005795154 0.07640489 -0.027316967 0.09427022 0.08926667 0.05630964 0.052576553 0.0163924
-0.030397603 0.16824448 0.0055893003 -0.014680382 0.010506396 0.12610935 0.030532304 -0.023349755
0.08634081 -0.01794561 0.013963996 0.046932925 -0.0075359014 -0.008704682 0.042716123 -0.039947186
0.01825382 0.092181146 -0.030606946 -0.04462372 -0.004701029 -0.017969416 -0.037504006 0.025361106
0.03133191 0.062462132 -0.008977666 0.14897162 0.044338875 -0.055034265 0.007029547 0.017363336
0.09555419 0.103015006 0.08739058 -0.051947333 -0.018535085 0.024442112 -0.011258983 0.021638526
00000000: bf52 2b3d b6ef 8b3b 6f35 1b3d 29c9 90bd
00000010: 1448 0f3e 85e7 993d 7abb d73d f992 eb3d
00000020: dfac a83c b6b6 6d3c d214 803d f316 263c
00000030: c03a 423d 4098 eaba 3446 933d 36ee 183e
00000040: 8a1e 65bd b4aa 0a3e ff92 88bd 521e 933d
00000050: 4e1a 243c d89c a13d 2656 983c 3b20 0bbc
00000060: 1589 b73d e1bf e03b c788 ebbc 0e67 adbc
00000070: f4d4 c4bc 19cb 673c b03b bb3d 9070 ec3d
00000080: 18d3 2dbc 71fe 1a3c 68f6 04bd 4087 013e
00000090: 1fff ec3d 8753 d23d cdc4 653b 3ad2 0e3d
000000a0: c126 9c3d dd39 4a3d a64b 2fbc 76af 453e
000000b0: 0cf8 0ebd 3c61 f13d 9083 333d cf63 4f3b
000000c0: 7279 363d 0b88 4b3c 6af1 95bd 19e4 5d3d
000000d0: 0e84 0e3d 15c3 023e 3846 a43d 15f3 b83d
000000e0: e530 08bd e61b 023e 808f 523c 9238 113c
000000f0: 1e92 8ebc c7df 71bc adfe d93b 778e 273c
00000100: 9354 1ebd 9e4e febc 0050 bcbc d4db 6f3d
00000110: 3936 5a3d 828a 25bc a951 9d3c 5175 033e
00000120: 98e0 2b3e bce0 0f3c c86d 8d3d bdaf 073e
00000130: 789e 3bbc 5df7 693c 458e 37bc 1892 c0bc
00000140: 46e5 bd3b 2b7a 9c3d d5c7 dfbc bf10 c13d
00000150: 72d1 b63d f0a4 663d 835a 573d 5b49 863c
00000160: 6504 f9bc 4848 2c3e 7326 b73b fc85 70bc
00000170: 0523 2c3c cf22 013e e21e fa3c fc47 bfbc
00000180: 73d3 b03d ac02 93bc 3fc9 643c bd3c 403d
00000190: b9ef f6bb 159e 0ebc 1af7 2e3d a99f 23bd
000001a0: 0989 953c 78c9 bc3d 6bbb fabc 5dc7 36bd
000001b0: 170b 9abb 9934 93bc cd9d 19bd 18c2 cf3c
000001c0: e455 003d 4bd8 7f3d 0f17 13bc 048c 183e
000001d0: ae9c 353d 9c6b 61bd 1d58 e63b 8e3d 8e3c
000001e0: eab1 c33d 88f9 d23d d5f9 b23d bac6 54bd
000001f0: e4d6 97bc d33a c83c 9977 38bc 4743 b13c

base.mlp.fc.3.weight f4 [128, 128]
-0.118584104 -0.011000826 -0.03733131 0.03642488 -0.072116755 0.0039496156 -0.050446637 -0.010734043
0.08218476 0.06529164 0.024590187 0.06292988 0.025093602 -0.09966159 -0.035812564 -0.005513503
0.07732392 0.037307896 0.07011242 -0.030272188 0.0022454937 -0.0533743 -0.040235795 0.054960486
-0.008440626 -0.017625367 -0.03572705 0.10320062 -0.05983166 -0.01638557 -0.07243897 0.016325466
0.026893992 -0.07054885 -0.0071322946 -0.024600754 -0.1058577 -0.036066435 -0.023515387 -0.010371574
-0.00695877 -0.097673096 0.096450455 0.023504268 -0.018632364 0.0030320454 -0.09203079 0.10030282
-0.015281538 -0.066307776 0.087951355 -0.12322036 -0.07301056 -0.09350153 -0.09402883 -0.09513448
-0.10272131 -0.02572001 -0.025987847 0.030613018 -0.007827392 -0.06007414 0.17227775 -0.108736254
0.0067437836 -0.019184275 -0.020175705 -0.03768233 -0.016135802 0.13194978 0.008708811 0.01746306
0.03333413 -0.047634065 -0.018553285 0.006462486 -0.0010417745 0.18430324 0.013105154 0.038811937
-0.036554307 -0.097575866 0.08161256 -0.0143524455 0.03389886 -0.0187992 0.007826362 0.048630387
0.017405923 -0.07740128 0.077360064 -0.06331683 -0.036673862 -0.07095092 0.008740375 -0.09295041
0.012701193 -0.11283952 0.075497136 0.017265497 -0.021184286 0.028974965 -0.10483531 0.0019148404
0.08655781 -0.069799624 0.098371305 -0.015304176 -0.02435202 -0.0792852 -0.013379479 0.032507464
0.025920507 0.01916849 0.03855416 -0.11701777 0.026258774 0.04482105 -0.07513539 -0.066453844
0.031286363 -0.0032632384 0.07172225 0.03551249 -0.06326751 0.038718283 0.06081297 0.09542538
0.027909813 -0.346961 0.122508846 -0.033186547 -0.00083322177 0.05875468 0.031857133 0.04431528
0.05189398 -0.25468612 0.04351177 -0.094177246 -0.022029234 -0.10550953 0.10164244 -0.021158699
-0.044349737 0.0070048575 0.06661379 -0.036754496 0.03065511 0.09889535 -0.08229816 -0.08828546
0.10381916 -0.06788432 -0.023683826 0.010769202 -0.21753594 0.040793303 -0.004572582 0.008962257
-0.014249964 0.008548002 0.008902713 0.08820222 0.109247945 0.09736472 0.08528008 -0.02969753
-0.034271803 0.07753502 -0.1266776 -0.0039237086 0.029402666 0.13169192 -0.047886193 -0.025264444
0.06608962 -0.14779499 0.055478737 -0.018422853 0.110768974 0.010059016 0.015737813 -0.023002425
-0.027925346 0.041508127 -0.15926209 -0.048773654 -0.013054825 -0.1810249 -0.1912723 0.07951254
0.13679376 -0.009104508 0.07693213 0.04529733 0.015537951 -0.011137771 -0.0840781 0.12485457
0.138396 -0.078829 0.08493997 0.14018235 0.101079315 -0.0020808554 -0.007901797 0.08666063
0.07023759 0.0037115037 -0.08711398 0.01229441 0.069647 0.02401004 0.094814315 -0.19335628
0.09001535 0.023992598 -0.17711246 0.15088727 0.0013599929 -0.021434236 0.09575039 0.11035445
0.018103516 0.07497492 -0.07968727 0.019327518 0.028739357 0.106963046 0.1111729 0.02525454
-0.22869752 -0.010310132 -0.06741714 -0.04024833 -0.038562313 0.21851078 0.004836865 0.07999061
0.078504756 0.09849807 -0.04603776 0.06709262 0.121873885 -0.11011859 0.05596772 0.002154561
-0.017039992 0.09898857 0.04409768 -0.04493875 0.09177527 0.054968588 0.023069257 -0.040431187
00000000: 39dc f2bd cf3c 34bc b7e8 18bd 4132 153d
00000010: f3b1 93bd c76b 813b 22a1 4ebd d7dd 2fbc
00000020: 7c50 a83d a0b7 853d 5c71 c93c 62e1 803d
00000030: 1991 cd3c 601b ccbd 32b0 12bd 9eaa b4bb
00000040: 015c 9e3d 2ad0 183d 1a97 8f3d 61fd f7bc
00000050: 2229 133b 039f 5abd 4ace 24bd 3f1e 613d
00000060: 8d4a 0abc 1363 90bc 8756 12bd d95a d33d
00000070: 0b12 75bd 083b 86bc e25a 94bd fcbc 853c
00000080: ca50 dc3c ea7b 90bd 06b6 e9bb 8587 c9bc
00000090: eccb d8bd 66ba 13bd 57a3 c0bc 89ed 29bc
000000a0: 6506 e4bb d508 c8bd d187 c53d 068c c03c
000000b0: e6a2 98bc 48b5 463b a47a bcbd 916b cd3d
000000c0: 6a5f 7abc 5fcc 87bd d71f b43d f55a fcbd
000000d0: 8f86 95bd bb7d bfbd 3092 c0bd ded5 c2bd
000000e0: 8d5f d2bd c5b2 d2bc 77e4 d4bc 27c8 fa3c
000000f0: 763e 00bc 4d10 76bd 9469 303e 1db1 debd
00000100: f5fa dc3b 5728 9dbc 8547 a5bc c958 1abd
00000110: 3b2f 84bc d81d 073e 67af 0e3c b10e 8f3c
00000120: 5e89 083d f01b 43bd 0ffd 97bc 43c3 d33b
00000130: 278c 88ba fdb9 3c3e 00b7 563c 44f9 1e3d
00000140: f8b9 15bd dbd5 c7bd 7c24 a73d 8526 6bbc
00000150: 88d9 0a3d c800 9abc 243a 003c a830 473d
00000160: de96 8e3c 9084 9ebd f46e 9e3d 41ac 81bd
00000170: 5537 16bd b74e 91bd ca33 0f3c c95c bebd
00000180: aa18 503c 6818 e7bd 3e9e 9a3d 5f70 8d3c
00000190: ab8a adbc e85c ed3c e5b3 d6bd 62fb fa3a
000001a0: 3945 b13d 1bf3 8ebd e576 c93d 5ebe 7abc
000001b0: e37d c7bc 4760 a2bd 9a35 5bbc 8c26 053d
000001c0: 3e57 d43c 3d07 9d3c f8ea 1d3d 03a7 efbd
000001d0: a41c d73c 4796 373d 95e0 99bd f418 88bd
000001e0: 2126 003d 0edc 55bb 1de3 923d 8b75 113d
000001f0: 6592 81bd 1097 1e3d 0517 793d 626e c33d
00000200: 1fa3 e43c dfa4 b1be ebe5 fa3d 9eee 07bd
00000210: 916c 5aba bfa8 703d a07c 023d f083 353d
00000220: c88e 543d 3866 82be 6639 323d 00e0 c0bd
00000230: a776 b4bc 6115 d8bd e929 d03d 0255 adbc
00000240: 12a8 35bd 0189 e53b d06c 883d e28b 16bd
00000250: 6d20 fb3c a589 ca3d f08b a8bd 02cf b4bd
00000260: 249f d43d ef06 8bbd 9504 c2bc 4f71 303c
00000270: bec1 5ebe e116 273d 99d5 95bb 6ed6 123c
00000280: ae78 69bc eb0c 0c3c afdc 113c 5ea3 b43d
00000290: 63bd df3d 2867 c73d 53a7 ae3d 3c48 f3bc
000002a0: 9760 0cbd aeca 9e3d c6b7 01be 7492 80bb
000002b0: dcdd f03c 3fda 063e 5024 44bd 61f7 cebc
000002c0: ff59 873d 9257 17be ac3d 633d 86eb 96bc
000002d0: d8da e23d 92ce 243c 96ec 803c 956f bcbc
000002e0: b2c3 e4bc 6d04 2a3d 9a15 23be e2c6 47bd
000002f0: e8e3 55bc 975e 39be e3dc 43be 78d7 a23d
00000300: aa13 0c3e 132b 15bc 988e 9d3d b189 393d
00000310: e492 7e3c 337b 36bc 2431 acbd c1b3 ff3d
00000320: aeb7 0d3e 1971 a1bd 02f5 ad3d f68b 0f3e
00000330: ac02 cf3d f65e 08bb 8a76 01bc 217b b13d
00000340: bad8 8f3d b33c 733b d068 b2bd 7e6e 493c
00000350: 16a3 8e3d b4b0 c43c 022e c23d 30ff 45be
00000360: f859 b83d 208c c43c f85c 35be 3182 1a3e
00000370: ca41 b23a da96 afbc c818 c43d 8401 e23d
00000380: d34d 943c 738c 993d 1433 a3bd be54 9e3c
00000390: cd6e eb3c 710f db3d 9eae e33d 9ce2 ce3c
000003a0: af2f 6abe d4eb 28bc ff11 8abd 6fdb 24bd
000003b0: 84f3 1dbd 4ac1 5f3e 907e 9e3b 1ed2 a33d
000003c0: 1ac7 a03d 5bb9 c93d 1792 3cbd db67 893d
000003d0: 0499 f93d db85 e1bd 683e 653d 8933 0d3b
000003e0: 7497 8bbc 85ba ca3d c59f 343d b211 38bd
000003f0: acf4 bb3d be26 613d bdfb bc3c 2c9b 25bd

base.mlp.fc.3.bias f4 [128]
0.10112792 -0.010880368 0.03744547 -0.13043563 0.06976317 0.035280615 0.05685025 -0.06408302
-0.0082337195 -0.06394135 0.05577694 0.10050825 -0.035708718 0.028714227 0.029498123 -0.078153834
0.049668714 0.026671669 -0.035825264 -0.015626278 0.022815485 0.03333037 -0.07545829 0.044436134
0.0040482436 0.027638739 0.025238223 0.029915169 0.1279727 -0.008217337 0.013663725 0.017916158
-0.096704066 0.04148311 -0.115195036 -0.06115289 -0.07765584 -0.08863978 -0.09036094 0.045408823
-0.0073830397 -0.075427756 -0.097505234 -0.055284332 -0.016694978 -0.0017421584 -0.071211144 -9.095243e-06
-0.0062475833 0.08574668 -0.017532565 -0.049601514 0.10289615 -0.060461894 -0.110061795 -0.05632259
0.0681845 0.0032602863 0.040241636 0.04223268 -0.013561441 0.026165051 0.0580344 0.0058198473
-0.0884875 -0.030880017 -0.0024122838 -0.008450719 0.026306063 0.021312833 -0.035600897 0.054734457
-0.008972955 -0.02006835 -0.028702505 -0.0183144 -0.043479037 -0.053002927 0.030632647 -0.05307471
0.06017304 0.06903267 -0.097396046 0.059818387 0.015301593 -0.032454744 0.03358249 -0.09064103
-0.06887326 -0.09853523 0.030794464 -0.010659215 -0.054621723 0.015686842 -0.059396885 0.04931049
0.02659792 0.035545494 -0.01632314 -0.0033366738 -0.028967695 -0.06582428 0.118180305 0.0035613724
-0.07357401 0.04680416 0.0073918253 -0.08298637 0.04553779 0.020914273 -0.06361887 0.03967082
0.06283073 -0.10832687 -0.0070976526 0.12189275 -0.07239381 0.004588722 -0.08323133 0.08281504
-0.06655608 0.0032593233 0.052229926 -0.014496279 -0.022087002 0.010364894 0.0059924494 -0.05664479
00000000: 281c cf3d 9243 32bc 6c60 193d eb90 05be
00000010: fedf 8e3d 6882 103d cfdb 683d f53d 83bd
00000020: b9e6 06bc aff3 82bd 5c76 643d 45d7 cd3d
00000030: 4e43 12bd 193a eb3c 0ca6 f13c 1e0f a0bd
00000040: 6c71 4b3d 8b7e da3c 83bd 12bd ae02 80bc
00000050: 8ae7 ba3c 6d85 083d e089 9abd aa02 363d
00000060: 21a7 843b a36a e23c 64c0 ce3c a810 f53c
00000070: 470b 033e 02a2 06bc d1dd 5f3c e8c4 923c
00000080: c80c c6bd 32ea 293d 60eb ebbd 747b 7abd
00000090: 060a 9fbd c688 b5bd 280f b9bd 9afe 393d
000000a0: 6ded f1bb de79 9abd d3b0 c7bd d371 62bd
000000b0: e8c3 88bc 2359 e4ba 26d7 91bd c597 18b7
000000c0: 87b8 ccbb f59b af3d 74a0 8fbc f52a 4bbd
000000d0: 37bb d23d e4a6 77bd 1468 e1bd 84b2 66bd
000000e0: 51a4 8b3d 87aa 553b 6ad4 243d 2dfc 2c3d
000000f0: ce30 5ebc 1758 d63c 7bb5 6d3d 6bb4 be3b
00000100: ef38 b5bd 17f8 fcbc 6817 1ebb e274 0abc
00000110: d07f d73c 4098 ae3c 3fd2 11bd 3d31 603d
00000120: 4d03 13bc 6166 a4bc 8421 ebbc 1508 96bc
00000130: 1317 32bd 9919 59bd 51f1 fa3c de64 59bd
00000140: 0178 763d 0061 8d3d 9477 c7bd 2004 753d
00000150: 88b3 7a3c 44ef 04bd cb8d 093d 01a2 b9bd
00000160: 6c0d 8dbd d7cc c9bd ac44 fc3c fda3 2ebc
00000170: 07bb 5fbd b181 803c 264a 73bd ccf9 493d
00000180: e2e3 d93c 2798 113d 1bb8 85bc 19ac 5abb
00000190: a94d edbc e1ce 86bd 8408 f23d ea65 693b
000001a0: f8ad 96bd b8b5 3f3d 2037 f23b c2f4 a9bd
000001b0: d585 3a3d 6954 ab3c 9c4a 82bd df7d 223d
000001c0: 66ad 803d 7ada ddbd 6d93 e8bb e8a2 f93d
000001d0: 3543 94bd fd5c 963b 3075 aabd ef9a a93d
000001e0: 8e4e 88bd 5f9a 553b 0cef 553d cd81 6dbc
000001f0: cdef b4bc 84d1 293c 4f5c c43b 5e04 68bd

base.mlp.fc.5.weight f4 [128]
1.0040947 1.0401479 1.0602734 0.9656344 1.0973015 1.0612475 1.0315818 1.0766867
1.1596105 1.1274173 1.0391269 1.0349858 0.971463 0.9450859 1.048647 0.983334
1.1028051 1.0588307 1.0222454 1.0858266 1.0735726 1.0418221 1.1303577 1.1771948
0.9061858 1.0874046 0.94733775 1.031693 1.0744344 1.0852505 1.0749133 0.9794384
1.1458638 1.0245953 0.9163903 1.1847892 1.1484388 0.97076833 0.90391636 1.1134243
1.129848 0.85678893 1.0696334 1.0266403 1.0011027 0.8727516 0.9034446 1.1527624
0.90959674 1.1055218 1.0458459 1.0554947 1.0977476 1.0712708 0.91247517 1.2073623
1.1350979 0.9738842 1.0173501 0.933549 1.0575145 0.88557655 1.0130599 0.9437701
0.9183775 1.0756179 1.0065022 1.1095085 1.0333128 0.957658 1.111091 1.0156904
1.0416911 0.9830299 1.0157412 1.0711317 1.0899506 1.0563873 1.0867419 0.99237025
1.046671 1.1758562 0.9522573 1.0405107 1.0388608 0.9534686 0.9824826 1.0235287
0.79586464 1.0673409 1.104793 1.0229807 0.9963442 1.1688299 1.016398 0.9451963
1.0882804 1.0090714 0.99864906 0.9861618 1.0552651 1.0173491 1.136364 1.0645148
0.9516042 1.0883478 0.937524 0.9464514 0.972196 1.1640812 1.1183068 1.1404376
1.1385815 0.921841 1.0354146 1.2139015 1.0781351 0.97124726 1.0149082 1.1182402
0.9625711 0.9349417 1.1173828 0.99570143 1.0718981 0.97269964 1.1217502 0.98027444
00000000: 2d86 803f 9123 853f 0ab7 873f d133 773f
00000010: 6074 8c3f f5d6 873f df0a 843f dfd0 893f
00000020: 1e6e 943f 364f 903f 1c02 853f 6a7a 843f
00000030: cdb1 783f 26f1 713f 113a 863f c7bb 7b3f
00000040: b828 8d3f c487 873f f0d8 823f 5efc 8a3f
00000050: d46a 893f 6d5a 853f 90af 903f 52ae 963f
00000060: cbfb 673f 1330 8b3f ba84 723f 840e 843f
00000070: 1187 893f 7de9 8a3f c296 893f 7abc 7a3f
00000080: aaab 923f f025 833f 8e98 6a3f 2ca7 973f
00000090: 0b00 933f 4684 783f 1067 673f b084 8e3f
000000a0: dc9e 903f 8556 5b3f bfe9 883f f368 833f
000000b0: 2224 803f a66c 5f3f 2548 673f b88d 933f
000000c0: 55db 683f bd81 8d3f 47de 853f 731a 873f
000000d0: fe82 8c3f 671f 893f f997 693f d98a 9a3f
000000e0: e34a 913f 7a50 793f 8738 823f 11fd 6e3f
000000f0: a35c 873f 25b5 623f f2ab 813f eb9a 713f
00000100: ca1a 6b3f d9ad 893f 10d5 803f 6004 8e3f
00000110: 9843 843f 1329 753f 3b38 8e3f 2502 823f
00000120: 2256 853f d9a7 7b3f cf03 823f d81a 893f
00000130: 8083 8b3f b337 873f 5c1a 8b3f fa0b 7e3f
00000140: 51f9 853f 7582 963f 22c7 733f 742f 853f
00000150: 64f9 843f 8516 743f fb83 7b3f fd02 833f
00000160: c9bd 4b3f a09e 883f db69 8d3f 08f1 823f
00000170: 6a10 7f3f 389c 953f 5419 823f 62f8 713f
00000180: c64c 8b3f 4029 813f 77a7 7f3f 1a75 7c3f
00000190: ed12 873f 7f38 823f 6074 913f 0542 883f
000001a0: 559c 733f fb4e 8b3f 9301 703f a44a 723f
000001b0: d6e1 783f 9d00 953f ad24 8f3f dcf9 913f
000001c0: 0abd 913f c6fd 6b3f 7788 843f 2061 9b3f
000001d0: 5500 8a3f a9a3 783f 83e8 813f 7f22 8f3f
000001e0: 0f6b 763f 5758 6f3f 6606 8f3f 4ae6 7e3f
000001f0: f533 893f d802 793f 8395 8f3f 44f3 7a3f

base.mlp.fc.5.bias f4 [128]
0.05653022 -0.03384499 0.0073620137 -0.0052450355 -0.12088865 -0.07436136 -0.038563695 -0.086277284
0.19247021 -0.14436983 -0.044982173 -0.05999106 -0.0048713107 -0.033384737 0.038092334 0.009162658
0.125501 -0.0130779445 -0.0172491 0.07295064 -0.02893355 -0.06071173 -0.1423592 -0.18416199
0.09210015 -0.052408654 0.013585426 -0.07929265 0.10788649 -0.023075312 -0.079945385 0.02946741
-0.15006457 -0.029865785 0.080333345 0.049327847 -0.042889163 0.016806966 0.018075883 -0.11141642
0.124580346 0.12172 -0.06893472 -0.03726875 -0.013520057 0.06592226 -0.072410405 -0.15516584
0.14305492 0.0529262 -0.12615132 0.05595749 0.099534735 -0.10799479 0.072413035 -0.05823873
0.12897298 0.015499076 -0.015222525 0.06305667 -0.03633474 0.067133896 -0.053242885 0.05330427
0.061802715 -0.08165773 -0.0409174 0.027969273 -0.03167657 0.021712782 0.08007419 -0.01477425
-0.061394922 0.022074975 -0.01807281 -0.07960946 -0.10137336 -0.059189677 -0.029801827 0.008927023
-0.057636365 0.1573585 0.020340797 -0.032602314 -0.040434204 0.043693934 0.0053426395 -0.022502026
0.20225228 -0.09307147 0.030403396 0.04558285 -0.008897054 0.053165436 -0.023415873 0.046316467
0.03712536 0.038394146 -0.019199923 0.0126133105 -0.025580227 -0.02818333 0.106607735 -0.005215856
0.039260633 0.05077011 0.013295431 -0.043967225 0.11960347 0.021436634 -0.12543032 -0.14807412
0.12244152 0.079401106 -0.07050445 0.15109627 -0.09158024 -0.014326276 -0.04137811 -0.0065180575
0.007841603 0.0037516225 -0.030397257 -0.0052183 -0.041673493 -0.031485066 -0.15288343 0.012391141
00000000: 3b8c 673d 0ba1 0abd 0c3d f13b 8cde abbb
00000010: 7894 f7bd c54a 98bd f7f4 1dbd 25b2 b0bd
00000020: e916 453e afd5 13be 3a3f 38bd 30b9 75bd
00000030: 849f 9fbb 6fbe 08bd b506 1c3d f91e 163c
00000040: 5683 003e e044 56bc fc4d 8dbc 2567 953d
00000050: 0d06 edbc ddac 78bd 9cc6 11be f694 3cbe
00000060: 019f bc3d 75aa 56bd 6895 5e3c 2f64 a2bd
00000070: 98f3 dc3d 7008 bdbc 68ba a3bd a365 f13c
00000080: 87aa 19be 17a9 f4bc cf85 a43d ff0b 4a3d
00000090: 8cac 2fbd c3ae 893c e013 943c 4b2e e4bd
000000a0: fb23 ff3d 5648 f93d a52d 8dbd 1ea7 18bd
000000b0: 3b83 5dbc 4002 873d e84b 94bd cbe3 1ebe
000000c0: fd7c 123e 25c9 583d d02d 01be ae33 653d
000000d0: ded8 cb3d 5f2c ddbd 494d 943d bc8b 6ebd
000000e0: 7e11 043e d6ef 7d3c e667 79bc db23 813d
000000f0: bdd3 14bd 7f7d 893d 3615 5abd 9455 5a3d
00000100: d824 7d3d 2b3c a7bd 0199 27bd d11f e53c
00000110: 4bbf 01bd 01df b13c f0fd a33d b20f 72bc
00000120: 3e79 7bbd 94d6 b43c 6e0d 94bc 490a a3bd
00000130: d69c cfbd e070 72bd f622 f4bc a642 123c
00000140: 1c14 6cbd 9622 213e bea1 a63c 018a 05bd
00000150: 569e 25bd 69f8 323d 4f11 af3b 2b56 b8bc
00000160: 391b 4f3e 419c bebd 8b10 f93c 15b5 3a3d
00000170: f3c4 11bc 00c4 593d a5d2 bfbc 56b6 3d3d
00000180: c310 183d 2e43 1d3d 2849 9dbc 0fa8 4e3c
00000190: a08d d1bc bae0 e6bc 2855 da3d c5e9 aabb
000001a0: c2cf 203d 52f4 4f3d 14d5 593c fa16 34bd
000001b0: aaf2 f43d e19b af3c ce70 00be bea0 17be
000001c0: 9fc2 fa3d 0c9d a23d a364 90bd fbb8 1a3e
000001d0: 6c8e bbbd c2b8 6abc 187c 29bd 6e95 d5bb
000001e0: 117a 003c c8dd 753b ab03 f9bc 46fe aabb
000001f0: d3b1 2abd 7cf6 00bd 798d 1cbe 3604 4b3c

rnn.gru.weight_ih_l0 f4 [384, 128]
0.072373345 0.060993142 -0.09040856 0.0101962825 0.010044885 -0.08600782 2.7566752e-05 -0.08535128
-0.042379305 0.065864794 0.032830585 0.019065922 0.12063764 -0.0057033156 -0.02262539 -0.018543217
0.04782265 -0.04702427 -0.06935343 0.21893045 -0.12669183 0.021008331 0.024351738 -0.052889653
0.044777542 0.015917126 -0.034932844 -0.06892701 0.09253857 -0.052614596 0.021291202 -0.009082483
0.031822447 0.0106643 -0.046969883 0.05264583 -0.0030976979 0.008142396 -0.037535373 0.020723227
0.02037395 -0.10461892 0.0498382 -0.07118963 0.027953507 0.06983568 -0.1610919 0.044718992
0.0134109445 -0.11333549 -0.064022355 0.01496729 0.05287076 -0.017596504 0.021645084 -0.0077623664
0.12210249 0.013064202 -0.084516056 -0.029648114 -0.09176634 0.16932273 -0.20340869 0.037905414
0.078269586 -0.030458035 -0.096266404 0.12855043 0.021722946 -0.097347304 0.21448404 -0.01955468
-0.075714335 0.0054909647 0.035155397 -0.011313053 -0.07467606 -0.06053736 -0.0154545335 0.037304234
0.003923068 0.041363303 -0.009644728 -0.062455717 0.028342996 0.13329475 0.025687767 0.0650224
-0.05469952 0.11223229 -0.080503635 0.054482684 -0.031383615 0.020535732 -0.023922522 -0.009594019
0.16974354 -0.04603016 -0.021766435 -0.067147076 0.11341015 0.037538067 -0.038342588 -0.07638874
0.062743425 0.068592966 0.083372064 -0.03070524 -0.19644716 -0.06673587 -0.07690089 -0.04855997
0.05030497 -0.059562203 -0.0470863 0.04042671 -0.032118537 -0.05591928 0.1306587 0.04885423
-0.024109846 0.035073705 -0.14851706 -0.026982853 -0.19430149 0.06266068 -0.07069616 0.04672621
-0.1521733 0.00667684 -0.03107258 -0.05726513 0.09815284 0.12767625 0.21299776 0.05024207
-0.05664743 0.18374011 0.106848225 -0.05057439 0.07956935 -0.042548217 0.04813633 0.09151671
-0.03556135 -0.09729323 0.043124784 -0.034369726 -0.022080503 0.055058192 0.081250206 0.06892819
0.06363016 0.05799812 0.21102366 0.04776635 0.017820934 0.032393117 0.17568654 0.10893486
0.0851494 0.16442136 0.20295934 0.08479677 -0.0076204417 0.18845747 0.08993723 0.084184915
-0.04692485 0.09328435 0.1999093 0.14207956 0.19544977 0.14636709 0.11550708 0.17443898
0.08866782 -0.11675839 0.14532131 0.098092906 0.0031461304 0.1285951 0.19576861 -0.04569197
-0.0027809984 0.09022994 0.06511759 0.19795066 -0.069364786 0.037845135 0.06760381 0.18844965
0.15826853 0.06212616 0.06642323 -0.10899081 0.1481191 0.039131198 -0.111477375 0.04106397
0.12599799 0.20844005 0.1537398 0.13653877 0.1625915 0.07041385 -0.06946919 0.19671793
-0.099861205 -0.22251962 0.09431813 0.00092808844 0.112433985 0.015500101 0.13489236 0.14890377
0.15456872 0.0021552967 -0.07367027 0.19274531 0.19812483 -0.24480341 0.0020849654 0.07341879
-0.11588986 -0.13966532 0.18741943 0.06972593 0.03685133 0.13186537 0.002920735 -0.018288845
0.14347152 -0.26549777 0.082118526 0.063115224 -0.06896535 0.09371219 0.04418396 0.08587446
-0.06426251 0.10754282 0.10381625 -0.11567322 0.1860161 -0.052522738 0.14645849 -0.039401826
-0.14431526 0.013537388 0.022490822 0.1439952 0.11606665 0.002133716 0.09770576 0.18731755
00000000: 7a38 943d f2d3 793d 2028 b9bd 4f0e 273c
00000010: 4d93 243c de24 b0bd 263f e737 a7cc aebd
00000020: ec95 2dbd 1fe4 863d 5d79 063d 2330 9c3c
00000030: de10 f73d e1e2 babb e258 b9bc f2e7 97bc
00000040: afe1 433d 859c 40bd 2c09 8ebd 4e2f 603e
00000050: 81bb 01be aa19 ac3c 4c7d c73c d2a2 58bd
00000060: a868 373d a264 823c be15 0fbd 9b29 8dbd
00000070: dd84 bd3d 6782 57bd e36a ae3c b2ce 14bc
00000080: 4158 023d 51b9 2e3c 7e63 40bd 27a3 573d
00000090: bf02 4bbb af67 053c b1be 19bd c2c3 a93c
000000a0: 45e7 a63c 7242 d6bd 2423 4c3d decb 91bd
000000b0: c1fe e43c 0206 8f3d 46f5 24be 432b 373d
000000c0: 94b9 5b3c 701c e8bd 271e 83bd 5d39 753c
000000d0: 038f 583d 8b26 90bc 0851 b13c 735b febb
000000e0: df10 fa3d 3c0b 563c c116 adbd 9ae0 f2bc
000000f0: feef bbbd f062 2d3e 5e4a 50be b542 1b3d
00000100: ce4b a03d 2183 f9bc 5227 c5bd b9a2 033e
00000110: 52f4 b13c 065e c7bd b4a1 5b3e 2331 a0bc
00000120: 1e10 9bbd 8ded b33b 1bff 0f3d 625a 39bc
00000130: c3ef 98bd 06f6 77bd 0335 7dbc 53cc 183d
00000140: 148d 803b 916c 293d ec04 1ebc 91d1 7fbd
00000150: 922f e83c 6b7e 083e 276f d23c 772a 853d
00000160: 9b0c 60bd 0bda e53d 17df a4bd 3c29 5f3d
00000170: 1b8c 00bd 8d3a a83c 2af9 c3bc 3b30 1dbc
00000180: 40d1 2d3e 1f8a 3cbd 864f b2bc 6884 89bd
00000190: 9543 e83d 84c1 193d 1e0d 1dbd b371 9cbd
000001a0: a07f 803d 787a 8c3d f9be aa3d 8e89 fbbc
000001b0: 7229 49be d1ac 88bd 377e 9dbd d2e6 46bd
000001c0: 960c 4e3d 7ff7 73bd 90dd 40bd 7a96 253d
000001d0: ba8e 03bd 9d0b 65bd 65cb 053e 601b 483d
000001e0: 0382 c5bc 72a9 0f3d db14 18be 250b ddbc
000001f0: f8f6 46be 3e54 803d 26c9 90bd fb63 3f3d
00000200: 51d3 1bbe 65c9 da3b ec8b febc d78e 6abd
00000210: 5b04 c93d 90bd 023e 161c 5a3e a1ca 4d3d
00000220: 2307 68bd 5e26 3c3e 3ed3 da3d 1727 4fbd
00000230: 41f5 a23d 0a47 2ebd 9a2a 453d 1d6d bb3d
00000240: c7a8 11bd ac41 c7bd 9da3 303d 45c7 0cbd
00000250: 2ce2 b4bc b384 613d 8266 a63d 392a 8d3d
00000260: 8850 823d 708f 6d3d 9616 583e a6a6 433d
00000270: 35fd 913c a5ae 043d 2ce7 333e 3d19 df3d
00000280: cf62 ae3d 135e 283e 93d4 4f3e eea9 ad3d
00000290: e6b4 f9bb fffa 403e 0331 b83d 2469 ac3d
000002a0: 4634 40bd de0b bf3d 06b5 4c3e 4e7d 113e
000002b0: fc23 483e 41e1 153e fa8e ec3d 22a0 323e
000002c0: 7997 b53d 061f efbd 1ccf 143e efe4 c83d
000002d0: 4f2f 4e3b 6fae 033e 9177 483e 8127 3bbd
000002e0: 6941 36bb 7aca b83d 5f5c 853d 94b3 4a3e
000002f0: 200f 8ebd 8003 1b3d de73 8a3d f2f8 403e
00000300: 2511 223e 0078 7e3d e708 883d 9336 dfbd
00000310: 89ac 173e 0948 203d 404e e4bd b232 283d
00000320: 9e05 013e 4f71 553e f76d 1d3e d2d0 0b3e
00000330: 637e 263e 2335 903d dd45 8ebd 6d70 493e
00000340: 0884 ccbd 2fdc 63be dd29 c13d f64a 733a
00000350: ca43 e63d 23f4 7d3c 3921 0a3e 3b7a 183e
00000360: 4347 1e3e e13f 0d3b 70e0 96bd 075f 453e
00000370: 3ce1 4a3e bfad 7abe eaa3 083b 975c 963d
00000380: aa57 edbd 6d04 0fbe e1ea 3f3e 78cc 8e3d
00000390: 6cf1 163d b707 073e cd69 3f3b 7dd2 95bc
000003a0: 33ea 123e 53ef 87be c22d a83d 8e42 813d
000003b0: b53d 8dbd 2dec bf3d 3dfa 343d f3de af3d
000003c0: 109c 83bd 693f dc3d 9d9d d43d 15e6 ecbd
000003d0: 017b 3e3e 1522 57bd 37f9 153e cf63 21bd
000003e0: 61c7 13be eccb 5d3c ac3e b83c 7a73 133e
000003f0: 5ab4 ed3d d0d5 0b3b f519 c83d 2cd0 3f3e

rnn.gru.weight_hh_l0 f4 [384, 128]
-0.08034454 -0.06847033 -0.021380264 0.065490976 -0.008123798 0.014748574 0.06612474 0.027266262
-0.035900485 -0.03933635 0.051064316 0.073977634 0.05015568 -0.033594847 0.020967185 0.03795602
0.021245051 0.052690405 -0.023125697 -0.00026940057 -0.02451937 0.028529456 -0.006584507 0.04189987
-0.11152541 -0.036761604 0.17374973 0.10579363 -0.019815203 0.036959577 -0.13421188 0.12402717
0.08732877 0.050925076 0.0475609 0.03150431 -0.12394886 0.107741036 0.035927173 -0.028543916
-0.064654775 -0.009893274 0.09456911 0.09834906 -0.17966539 0.02684674 -0.106887184 -0.10172143
-0.02088127 0.08464536 -0.101986244 0.033419106 -0.027394742 0.12858552 -0.05755997 0.015218268
-0.06754519 -0.042864714 -0.10695792 0.03134491 -0.04083404 -0.12675765 0.036600783 -0.105634175
-0.13939895 -0.049829263 0.060168304 -0.09227629 0.09827605 0.08235333 0.08644766 -0.11910994
-0.0826131 0.064905934 0.0788869 -0.08359262 -0.02592327 0.10367857 -0.04613875 0.09555571
0.15980245 -0.104334734 -0.0423711 0.0073993644 0.09612369 -0.026485853 0.18478002 -0.11365538
0.04206037 -0.11477181 -0.020480983 -0.1447933 0.09984879 0.038550064 0.025676735 0.02381457
0.06647688 0.027403774 0.048932973 0.09260265 -0.048687376 0.061062034 -0.052863978 -0.019251525
-0.07935019 0.17708655 0.048008192 -0.056339875 -0.050555807 0.11693899 -0.03097893 0.030245442
0.010219682 -0.07229125 -0.10544375 -0.07638077 -0.019423466 0.080410115 -0.02626638 -0.0046085785
0.09714038 -0.0076351846 -0.17028344 -0.04730444 0.12520033 -0.124818474 -0.09759148 -0.06363371
-0.03277654 -0.13104632 0.021788586 -0.082175605 -0.10548766 -0.16136624 -0.08444603 0.11076754
0.06350704 0.01743189 -0.12296402 0.030726487 0.024010226 0.08087413 -0.040541884 0.0864788
-0.009662955 0.0990875 0.14383066 -0.17920998 0.13710362 -0.15057376 0.04521926 -0.15255837
0.059927948 0.04096928 -0.0014362775 0.07633855 0.038258366 -0.036861226 0.12504166 0.08823026
-0.15458804 -0.037850767 0.0427764 0.19342467 0.039327215 -0.037519395 0.016427381 -0.054807507
-0.18119907 -0.22019273 -0.064844206 -0.30303407 0.05305083 -0.11528498 -0.04052628 0.06620833
0.14047156 -0.1631496 0.10666827 -0.11413015 -0.009310972 0.056589216 0.028955024 -0.10687865
0.0073712296 0.091046095 -0.013768897 -0.01986443 0.06893115 0.018208941 -0.060889058 0.09896339
0.09063926 0.17930244 0.02100875 0.03401011 -0.04763138 0.045739435 -0.112059936 0.0144862095
-0.1216212 0.20204794 0.018253094 -0.016140211 -0.041559 0.017952377 -0.042089496 0.0062906705
0.005314458 -0.02837513 -0.06294949 -0.027656876 -0.067661755 0.07098565 -0.018142443 -0.16419001
0.011406319 -0.14170726 0.06334365 0.027916197 -0.06315718 0.10547241 0.030987615 0.039707176
-0.013520971 -0.14483826 0.13838957 0.027747836 -0.038023006 -0.09565613 -0.05150407 -0.061633088
0.036227137 0.10642188 -0.037908155 0.10649141 -0.031606052 0.032734655 0.15925509 0.12918034
-0.007474777 -0.12888141 -0.061411 0.04190508 -0.007963627 0.15256016 0.022999773 -0.064160556
0.05640916 0.10724133 0.04310893 -0.025847718 -0.13228874 -0.12710343 0.027282976 0.1423166
00000000: ae8b a4bd 2c3a 8cbd aa25 afbc 2220 863d
00000010: ae19 05bc 01a4 713c 686c 873d 7f5d df3c
00000020: 630c 13bd 271f 21bd d128 513d 9681 973d
00000030: 0b70 4d3d c09a 09bd 60c3 ab3c c677 1b3d
00000040: 1a0a ae3c e5d1 573d 1a72 bdbc 553e 8db9
00000050: d9dc c8bc 9bb6 e93c d9c2 d7bb 339f 2b3d
00000060: 6f67 e4bd 5693 16bd 73eb 313e 55aa d83d
00000070: 7e53 a2bc ed62 173d d76e 09be f501 fe3d
00000080: 6dd9 b23d d096 503d 38cf 423d aa0a 013d
00000090: e6d8 fdbd 55a7 dc3d 5f28 133d eed4 e9bc
000000a0: b969 84bd 6617 22bc 73ad c13d 3b6b c93d
000000b0: 34fa 37be b2ed db3c abe7 dabd 5353 d0bd
000000c0: 320f abbc 8c5a ad3d 2ade d0bd 79e2 083d
000000d0: f06a e0bc ecab 033e 01c4 6bbd 0b56 793c
000000e0: 2255 8abd e992 2fbd c10c dbbd 8563 003d
000000f0: 9841 27bd c2cc 01be b4ea 153d bb56 d8bd
00000100: 99be 0ebe c519 4cbd 0a73 763d 5afb bcbd
00000110: f444 c93d dda8 a83d 790b b13d eaef f3bd
00000120: 0f31 a9bd 67ed 843d 748f a13d 9c32 abbd
00000130: 0a5d d4bc 6e55 d43d fcfb 3cbd b6b2 c33d
00000140: 41a3 233e 73ad d5bd 528d 2dbd 5e76 f23b
00000150: 7fdc c43d dcf8 d8bc f936 3d3e 27c4 e8bd
00000160: 7f47 2c3d 7c0d ebbd bcc7 a7bc b244 14be
00000170: 867d cc3d ace6 1d3d 0458 d23c c616 c33c
00000180: 0825 883d e17d e03c f16d 483d 75a6 bd3d
00000190: 6a6c 47bd 2f1c 7a3d e687 58bd 60b5 9dbc
000001a0: 5a82 a2bd 2d56 353e 3da4 443d a4c4 66bd
000001b0: 9b13 4fbd b67d ef3d 86c7 fdbc 4ac5 f73c
000001c0: 7470 273c 6f0d 94bd e5f2 d7bd 856d 9cbd
000001d0: f61d 9fbc 0fae a43d 972c d7bc 8f03 97bb
000001e0: 89f1 c63d 9230 fabb c85e 2ebe 4dc2 41bd
000001f0: 8434 003e d4a0 ffbd 0bde c7bd 6452 82bd
00000200: b140 06bd 0231 06be fa7d b23c af4b a8bd
00000210: ea09 d8bd 313d 25be 0af2 acbd 18da e23d
00000220: fb0f 823d 53cd 8e3c 8fd4 fbbd 1db6 fb3c
00000230: 18b1 c43c 56a1 a53d 3f0f 26bd cc1b b13d
00000240: 5f51 1ebc 63ee ca3d 5848 133e d282 37be
00000250: e464 0c3e 0230 1abe d537 393d 4338 1cbe
00000260: 0277 753d 67cf 273d 7a41 bcba 6357 9c3d
00000270: ceb4 1c3d ccfb 16bd ec0a 003e 11b2 b43d
00000280: 544c 1ebe 6809 1bbd 4e36 2f3d 1e11 463e
00000290: 9315 213d f0ad 19bd b792 863c d67d 60bd
000002a0: 408c 39be 347a 61be 0acd 84bd 4827 9bbe
000002b0: d44b 593d 881a ecbd e2fe 25bd 3c98 873d
000002c0: c7d7 0f3e b010 27be e574 da3d 11bd e9bd
000002d0: 0c8d 18bc 18ca 673d 1633 ed3c 32e3 dabd
000002e0: 5b8a f13b 6076 ba3d f196 61bc bbba a2bc
000002f0: c62b 8d3d eb2a 953c ce66 79bd 51ad ca3d
00000300: 14a1 b93d 0f9b 373e 8b1a ac3c 2f4e 0b3d
00000310: 1f19 43bd 4659 3b3d ae7f e5bd 9157 6d3c
00000320: 8914 f9bd a8e5 4e3e 8387 953c 7a38 84bc
00000330: c539 2abd dd10 933c 0966 2cbd f821 ce3b
00000340: e824 ae3b f672 e8bc aaeb 80bd ac90 e2bc
00000350: 3f92 8abd ed60 913d 769f 94bc 6d21 28be
00000360: 92e1 3a3c b51b 11be 51ba 813d 82b0 e43c
00000370: 8d58 81bd eb01 d83d bdd9 fd3c fea3 223d
00000380: 1087 5dbc 7b50 14be ffb5 0d3e 6e4f e33c
00000390: 03be 1bbd 5ce7 c3bd eff5 52bd fa72 7cbd
000003a0: e862 143d b7f3 d93d 9545 1bbd 2b18 da3d
000003b0: 5975 01bd c614 063d c413 233e da47 043e
000003c0: f9ee f4bb 7df9 03be 1a8a 7bbd a9a4 2b3d
000003d0: df79 02bc bb38 1c3e 056a bc3c 9c66 83bd
000003e0: 4b0d 673d 58a1 db3d fd92 303d 98be d3bc
000003f0: b376 07be 6727 02be 8c80 df3c 71bb 113e

rnn.gru.bias_ih_l0 f4 [384]
0.044603344 -0.18903421 0.023833353 0.0059135905 -0.10663298 -0.09071242 0.107746445 0.07123471
0.07714634 -0.033205103 -0.028066777 0.10041754 -0.006242878 -0.0797269 -0.050088342 -0.13210833
0.050349172 -0.07043496 -0.11277912 -0.034736127 -0.08618236 -0.058359914 0.001154318 0.031006865
0.20108178 0.016028939 -0.05547027 -0.1054888 0.059066523 0.082191065 0.07851592 -0.010930711
-0.009477367 -0.03677773 0.0846596 -0.04452097 -0.020155514 0.05876403 -0.08470572 -0.030717442
0.050716866 0.03774096 0.002278106 0.07493975 -0.11463008 -0.01537844 0.074062444 -0.0024389978
-0.0800658 -0.012058611 0.13313934 -0.15056191 -0.02902527 0.10278855 -0.013012139 -0.054948803
-0.07570048 0.10405099 0.12096323 0.11953457 -0.070782 -0.0863133 -0.12829766 0.018646097
0.04898674 -0.0010075737 -0.002109326 0.09464242 -0.10005591 0.107803755 0.059487518 0.018059993
0.075562514 0.09537888 0.09523394 0.12012782 0.03458735 0.073577 0.040650804 0.008510243
0.06136061 0.1705167 0.17028087 0.07856351 -0.01627143 0.11658795 0.049394287 -0.15158065
0.04056236 0.018682761 -0.16203278 0.039636463 0.12528619 0.1052577 0.15625651 0.09106489
-0.106798775 -0.06475204 0.022337275 0.08213759 0.10612058 0.073433414 -0.07211115 0.032198098
0.08794563 0.14605789 0.02561515 0.067014 -0.0318859 -0.03136478 0.09347783 0.033811733
-0.0015464058 0.090408154 0.033193562 0.20386559 0.14563744 0.04980038 0.058056664 0.09444526
-0.13577174 -0.03423873 -0.05144015 -0.0012557835 0.12495609 0.034419257 0.055272043 -0.08459892
-0.04361648 0.098898895 0.14718276 0.26440668 -0.01025108 0.11203817 0.02489502 0.20124316
0.04244421 -0.16254613 0.081698366 0.16845536 0.100335404 0.20480774 0.19175142 0.10837504
0.13254085 0.15095769 0.016638592 -0.062238067 0.017642966 0.21698664 -0.18904832 0.24463521
-0.09261005 0.083792046 0.035127774 0.14005116 -0.09516895 -0.007789772 0.016032293 0.13660024
-0.0321393 0.1544874 0.16751386 -0.022314556 0.10234459 0.33100998 0.07393777 0.1320802
0.13968815 -0.13203798 0.09624522 0.040060874 0.09483722 0.11177063 0.23658797 0.10666339
0.07734793 0.2655227 0.045861054 -0.021234684 0.23493539 -0.006597944 0.245047 0.0752283
0.22765122 0.27004337 0.17551844 0.013166176 0.24962243 -0.00083465595 0.17931941 -0.01931812
0.14374541 0.19320379 0.2104623 -0.33244994 0.08063325 0.19234408 0.18426873 -0.00041128587
-0.060249235 0.13215697 0.077400826 0.2677277 0.20017739 0.13540912 0.18933019 -0.19141795
0.17086017 -0.06589827 0.14498 0.19362438 0.14599767 0.110113226 0.005431912 0.09239036
0.092457056 0.0022746355 0.1793486 -0.048444223 0.20259076 0.025167288 -0.029290866 0.16269718
-0.025858184 0.12404935 0.062448535 0.07151364 0.14278807 -0.024180619 -0.0014976976 0.12868597
0.17283067 0.013092233 0.21434668 0.20563753 0.04888142 -0.0053406474 0.11386779 -0.0028902825
0.15511543 0.10665554 0.09320459 0.14203888 -0.005753961 0.051820822 0.18407206 0.14579654
0.090932235 0.07020381 -0.0014337939 0.20105416 0.00915377 0.030320996 0.09339584 0.21084653
00000000: ffb1 363d 2f92 41be 2a3e c33c cbc6 c13b
00000010: 6462 dabd 6fc7 b9bd 2baa dc3d 81e3 913d
00000020: e6fe 9d3d 1302 08bd 4cec e5bc b6a7 cd3d
00000030: 0e91 ccbb db47 a3bd 6f29 4dbd 6847 07be
00000040: ef3a 4e3d 3440 90bd bdf8 e6bd 7847 0ebd
00000050: 6180 b0bd ce0a 6fbd 7c4c 973a 1c02 fe3c
00000060: 62e8 4d3e 1f4f 833c cb34 63bd 830a d8bd
00000070: bdef 713d ca53 a83d f4cc a03d ba16 33bc
00000080: f546 1bbc 3fa4 16bd 0362 ad3d 9f5b 36bd
00000090: 2d1d a5bc 8db2 703d 317a adbd 25a3 fbbc
000000a0: 7dbc 4f3d 4496 1a3d 474c 153b 037a 993d
000000b0: 2dc3 eabd daf5 7bbc 0dae 973d 98d7 1fbb
000000c0: 8af9 a3bd 7b91 45bc ae55 083e e72c 1abe
000000d0: 67c6 edbc ce82 d23d de30 55bc ff11 61bd
000000e0: da08 9bbd af18 d53d 92bb f73d 8ace f43d
000000f0: 27f6 90bd 07c5 b0bd 7660 03be b3bf 983c
00000100: 52a6 483d 9010 84ba 9e3c 0abb e3d3 c13d
00000110: 1dea ccbd 37c8 dc3d 2fa9 733d 8df2 933c
00000120: 85c0 9a3d 0156 c33d 030a c33d 9305 f63d
00000130: 77ab 0d3d 8aaf 963d 7581 263d 8c6e 0b3c
00000140: 4355 7b3d ee9b 2e3e 1c5e 2e3e e8e5 a03d
00000150: a94b 85bc aac5 ee3d aa51 4a3d f537 1bbe
00000160: b824 263d 970c 993c eceb 25be d859 223d
00000170: 064b 003e 5991 d73d b501 203e 3b80 ba3d
00000180: 51b9 dabd b89c 84bd a9fc b63c c137 a83d
00000190: bf55 d93d 4264 963d 03af 93bd 27e2 033d
000001a0: d71c b43d 3390 153e ddd6 d13c a33e 893d
000001b0: ca9a 02bd 5b78 00bd 4e71 bf3d 2c7e 0a3d
000001c0: c5b0 caba e927 b93d f9f5 073d 24c2 503e
000001d0: fb21 153e 7cfb 4b3d d3cc 6d3d 846c c13d
000001e0: bf07 0bbe e93d 0cbd e8b2 52bd 1a99 a4ba
000001f0: fae8 ff3d 35fb 0c3d f064 623d 3342 adbd
00000200: 32a7 32bd 818b ca3d 14b7 163e 5060 873e
00000210: 25f4 27bc 4574 e53d a4f0 cb3c b012 4e3e
00000220: fbd9 2d3d 7e72 26be 7951 a73d 907f 2c3e
00000230: a67c cd3d 1fb9 513e 7c5a 443e bcf3 dd3d
00000240: cab8 073e a794 1a3e a84d 883c 58ed 7ebd
00000250: fb87 903c bf31 5e3e e295 41be a781 7a3e
00000260: 57aa bdbd 2a9b ab3d 24e2 0f3d 9269 0f3e
00000270: f0e7 c2bd 5841 ffbb 2856 833c efe0 0b3e
00000280: 80a4 03bd f231 1e3e c188 2b3e 04cd b6bc
00000290: 0a9a d13d 247a a93e b06c 973d 0840 073e
000002a0: 690a 0f3e f734 07be 371c c53d df16 243d
000002b0: 043a c23d 00e8 e43d 1e44 723e 5672 da3d
000002c0: 9768 9e3d 97f2 873e cdd8 3b3d 5cf4 adbc
000002d0: e792 703e 9133 d8bb 9aed 7a3e 4c11 9a3d
000002e0: 671d 693e 2043 8a3e 1bbb 333e f2b6 573c
000002f0: 069d 7f3e d0cc 5aba 829f 373e 0941 9ebc
00000300: ff31 133e 37d7 453e 6e83 573e e136 aabe
00000310: 0c23 a53d d9f5 443e f1b0 3c3e dba1 d7b9
00000320: e7c7 76bd 2854 073e 5384 9e3d 9b13 893e
00000330: 4dfb 4c3e b0a8 0a3e c6df 413e 1103 44be
00000340: f8f5 2e3e acf5 86bd a375 143e 7845 463e
00000350: 6a80 153e 0b83 e13d 2efe b13b 2837 bd3d
00000360: 205a bd3d 0d12 153b 29a7 373e 736d 46bd
00000370: f473 4f3e a12b ce3c 66f3 efbc 179a 263e
00000380: 8bd4 d3bc 960d fe3d 09ca 7f3d be75 923d
00000390: 0937 123e 6f16 c6bc 644e c4ba 41c6 033e
000003a0: 86fa 303e ce80 563c b27d 5b3e a592 523e
000003b0: e237 483d 9900 afbb 8433 e93d e56a 3dbb
000003c0: 94d6 1e3e 386e da3d 0ce2 be3d a472 113e
000003d0: b98b bcbb 1242 543d 637d 3c3e b04b 153e
000003e0: ae3a ba3d 04c7 8f3d 24ee bbba 24e1 4d3e
000003f0: b2f9 153c bd63 f83c 5146 bf3d 27e8 573e
