scripts/results/MAPPOTraining2v1/2v1/NoWeapon/MAPPOTraining/mappo/v1_2v1_mappo_training/wandb/offline-run-20250807_165042-zjjd28i2/files/actor_episode_5800.pt (torch, 700146 bytes, 30 tensors)

base.mlp.fc.0.weight f4 [128, 21]
-0.0016337582 0.11706159 -0.17960317 -0.16059506 -0.08404758 0.058516733 -0.0043235905 0.17302267
-0.019365538 0.057743195 -0.0659483 -0.042894084 -0.20847413 -0.1445218 -0.08995446 0.00808357
0.086269215 0.13093571 -0.14793888 -0.095025785 0.079260476 0.15461868 -0.023201862 0.2019302
-0.02917455 -0.04990163 0.19829518 -0.19640148 -0.17940122 -0.04675011 -0.05078841 0.4130752
-0.13157496 -0.08011403 -0.13399555 -0.22170337 -0.12221344 0.36484036 0.1030937 0.13750027
0.01947567 -0.13214275 0.01895332 -0.2130977 -0.17370997 -0.12742436 0.11422152 0.11542877
-0.111804694 0.00088481343 0.14899874 0.2238414 0.07796652 0.013321178 0.13096239 -0.14594096
0.031148968 -0.1852427 -0.14385106 -0.12913793 0.08353534 0.071963586 -0.114199705 0.01597178
0.043237858 -0.12025975 -0.060894437 0.03832295 0.09546382 0.14480223 -0.18095689 0.120289184
-0.04342599 0.27190244 0.11836942 0.11441559 -0.029760577 -0.19947633 -0.02505446 0.08667029
-0.27283627 0.11817878 0.094958946 -0.14345694 0.023428451 -0.06501819 -0.073127985 -0.13027234
0.055563793 -0.1471361 0.051965773 0.15104455 0.07459205 0.118563056 -0.29488778 -0.1702884
0.08081555 0.0112968385 -0.14699191 -0.09750155 0.17373498 0.11702259 -0.12730809 -0.08256904
-0.17609034 -0.0039222785 -0.16433093 -0.16832383 -0.01202372 0.032764338 -0.08936684 0.1294856
-0.13279413 0.1980044 0.1495447 -0.18401943 -0.05431101 0.009846563 0.031838227 0.05175567
0.08563487 0.013071287 -0.10647479 0.103258304 -0.20932527 -0.1293392 -0.054626454 -0.10629685
-0.0763399 -0.17885612 -0.046418253 0.04664548 -0.14216149 -0.011198803 0.15621147 -0.022432854
0.0060647586 -0.018825417 0.04416324 0.13875155 0.20670608 0.13858056 0.20717902 -0.01578188
-0.19602983 -0.10345213 0.1485857 -0.0014145935 -0.108464405 -0.16722295 -0.20421967 -0.1841777
-0.04426261 0.119672 0.11797755 -0.2104563 0.13612041 -0.17075756 -0.046133507 -0.08848138
-0.0420321 -0.04284549 -0.19581781 -0.1884176 -0.03414662 0.0028220334 -0.09913091 0.08220251
-0.26216003 -0.026589647 0.22183993 -0.10776829 0.1603774 0.035393447 -0.21841227 0.16240028
0.13333566 -0.06527385 0.31043327 -0.19108416 0.017632093 -0.055887695 0.17036314 0.060030963
0.20343103 0.06373104 -0.04894313 -0.073134005 -0.17462641 0.103145935 0.20564428 0.20036355
-0.13223891 -0.03890988 -0.14829472 -0.09964454 -0.19791526 0.08200793 -0.15800826 0.26012868
0.035028122 0.16898523 -0.12967952 -0.17068799 -0.150373 0.3350332 -0.05796719 0.23015577
0.09997899 -0.0056203427 -0.08253965 -0.06714574 0.03217558 -0.08075984 0.02015768 -0.05872758
-0.2128058 -0.19184029 0.21971361 -0.2063096 0.03427456 0.19364943 0.06090602 -0.024858223
-0.1896628 0.03885921 0.0010920597 -0.095179364 -0.07956858 -0.07338161 0.029681962 0.13777785
0.04240201 0.2345588 0.13445075 -0.18607807 0.07321265 -0.15740523 -0.13342285 0.08607953
0.042685732 0.39777917 -0.06407887 0.011444006 0.124017976 -0.22991759 0.08774058 0.015399321
0.0023392674 -0.01251167 -0.1189328 0.017199378 0.19798303 -0.05867308 -0.17308046 -0.103897266
00000000: d423 d6ba fdbd ef3d e5e9 37be 0873 24be
00000010: 2321 acbd 3eaf 6f3d e8ac 8dbb db2c 313e
00000020: 7aa4 9ebc 2184 6c3d e70f 87bd b5b1 2fbd
00000030: 3e7a 55be 86fd 13be 0b3a b8bd f370 043c
00000040: eaad b03d 0314 063e 4a7d 17be e19c c2bd
00000050: 5153 a23d 5c54 1e3e d511 bebc cac6 4e3e
00000060: 77ff eebc a765 4cbd e40d 4b3e 781d 49be
00000070: f4b4 37be 0b7d 3fbd 8207 50bd 987e d33e
00000080: 96bb 06be d312 a4bd 2136 09be 3506 63be
00000090: 0a4b fabd 5bcc ba3e ca22 d33d dfcc 0c3e
000000a0: 718b 9f3c 6e50 07be fe43 9b3c 4936 5abe
000000b0: 07e1 31be 887b 02be f9ec e93d eb65 ec3d
000000c0: dcf9 e4bd d3f2 673a 2093 183e ae36 653e
000000d0: e9ac 9f3d 1241 5a3c 011b 063e 8c71 15be
000000e0: 1f2c ff3c 43b0 3dbe b14d 13be bc3c 04be
000000f0: 9414 ab3d a561 933d 89e1 e9bd 40d7 823c
00000100: 2e1a 313d be4a f6bd 726c 79bd 87f8 1c3d
00000110: 8982 c33d 0947 143e c34c 39be 2d5a f63d
00000120: 73df 31bd cc36 8b3e ab6b f23d b952 ea3d
00000130: 74cc f3bc 8643 4cbe 033f cdbc 3180 b13d
00000140: 32b1 8bbe b707 f23d d679 c23d 60e6 12be
00000150: 06ed bf3c 4228 85bd 20c4 95bd 1d66 05be
00000160: dc96 633d d9aa 16be 10da 543d 6cab 1a3e
00000170: b7c3 983d 30d1 f23d 88fb 96be 1560 2ebe
00000180: a082 a53d 6016 393c 0c85 16be e5ae c7bd
00000190: 95e7 313e 8aa9 ef3d 0d5d 02be f519 a9bd
000001a0: 0751 34be 7586 80bb 5e46 28be 155d 2cbe
000001b0: 23ff 44bc e633 063d f605 b7bd e097 043e
000001c0: 2ffb 07be aac1 4a3e 3f22 193e 976f 3cbe
000001d0: 3975 5ebd 7b53 213c cd68 023d c1fd 533d
000001e0: 5661 af3d f428 563c 740f dabd 1779 d33d
000001f0: 5d59 56be 7f71 04be fdbf 5fbd 2ab2 d9bd
00000200: 1858 9cbd 0f26 37be 1121 3ebd 550f 3f3d
00000210: c892 11be 2f7b 37bc e6f5 1f3e 1bc5 b7bc
00000220: e2ba c63b c337 9abc 83e4 343d e314 0e3e
00000230: c2aa 533e 10e8 0d3e bd26 543e 0049 81bc
00000240: 0bbc 48be b6de d3bd da26 183e e269 b9ba
00000250: 9622 debd 7e3c 2bbe f61e 51be 1499 3cbe
00000260: b64c 35bd 9816 f53d 379e f13d db81 57be
00000270: 2663 0b3e 12db 2ebe 7df6 3cbd ba35 b5bd
00000280: da29 2cbd c17e 2fbd 7784 48be 8bf0 40be
00000290: 54dd 0bbd ddf1 383b 2605 cbbd ca59 a83d
000002a0: d739 86be 88d2 d9bc 022a 633e 9fb5 dcbd
000002b0: f939 243e b8f8 103d 77a7 5fbe 424c 263e
000002c0: 2589 083e 4cae 85bd 1cf1 9e3e 91ab 43be
000002d0: 2e71 903c 7fea 64bd ad73 2e3e 07e3 753d
000002e0: 3950 503e 6b85 823d 9778 48bd 48c7 95bd
000002f0: 44d1 32be 2d3e d33d 6a94 523e 1a2c 4d3e
00000300: a369 07be f75f 1fbd 92da 17be 7012 ccbd
00000310: 4caa 4abe c6f3 a73d ebcc 21be 962f 853e
00000320: a679 0f3d 770a 2d3e b5ca 04be d5c8 2ebe
00000330: 61fb 19be 7989 ab3e 016f 6dbd f4ad 6b3e
00000340: c9c1 cc3d da2a b8bb 8c0a a9bd b583 89bd
00000350: 8aca 033d 6a65 a5bd b821 a53c 558c 70bd
00000360: c3e9 59be c871 44be 9bfc 603e d342 53be
00000370: 7b63 0c3d 094c 463e 9778 793d 79a3 cbbc
00000380: f736 42be d62a 1f3d 7123 8f3a 66ed c2bd
00000390: daf4 a2bd 1949 96bd 9627 f33c a315 0d3e
000003a0: bbad 2d3d 2f30 703e 75ad 093e 408b 3ebe
000003b0: 84f0 953d d62e 21be 00a0 08be 774a b03d
000003c0: 3cd7 2e3d b6a9 cb3e c83b 83bd a47f 3b3c
000003d0: 23fd fd3d 846f 6bbe 55b1 b33d 6f4d 7c3c
000003e0: 654e 193b bffd 4cbc 0a93 f3bd b6e5 8c3c
000003f0: 10bc 4a3e 2f53 70bd 013c 31be 17c8 d4bd

base.mlp.fc.0.bias f4 [128]
0.08133797 -0.030765424 0.19677012 -0.07325033 -0.14303714 0.056270927 0.11348727 -0.00043354265
0.18167433 -0.104624115 0.06594644 0.1355805 0.08264922 0.02406446 0.01859513 -0.23640524
-0.22351375 -0.04640641 -0.10216355 0.13823408 0.1525273 0.15380837 -0.082952894 -0.15836878
-0.22110112 0.103148386 -0.19978803 -0.2666386 -0.07942113 -0.21682258 -0.15663758 -0.13737832
-0.12416274 0.28225434 -0.06187827 0.13976564 0.0048417035 -0.028061442 -0.0631756 -0.15598808
-0.17532672 0.14783652 -0.07764011 -0.212758 0.16334727 0.0040478464 -0.15317376 -0.13605116
-0.20529662 -0.1847867 0.13747956 0.15045983 0.017848061 -0.1859815 -0.05707527 -0.22266181
0.052152745 -0.05794113 -0.053232834 -0.059755046 0.08153807 0.1086698 0.071514405 -0.031017145
-0.045190588 -0.0025460713 -0.14347005 0.17855158 -0.094113566 0.11733926 -0.11783592 0.0014649299
0.060956288 -0.16821001 0.10009651 -0.16703375 -0.008204755 -0.07320357 0.11839022 0.21685547
0.046498265 -0.020300662 -0.15640144 0.08135951 -0.10503319 0.09013861 -0.10003 0.1828953
0.14465919 0.11591463 0.007862745 0.12740389 -0.20655473 0.1664439 -0.05496706 0.07368625
-0.03969456 -0.06667937 -0.085038535 0.14075553 -0.10465313 -0.028323274 0.11008003 -0.01706121
-0.14126334 -0.22649041 -0.14043744 0.19943915 -0.15527444 0.11050382 0.14991303 -0.08907842
-0.096366495 -0.18024063 0.022669945 -0.027545823 0.010602077 0.05888195 0.075009085 -0.0607882
0.014987449 0.050305523 -0.050287005 0.005942601 -0.056408983 0.18315674 -0.1194954 0.01592662
00000000: 8694 a63d c507 fcbc 1b7e 493e 4504 96bd
00000010: 5478 12be 587c 663d 046c e83d 1c4d e3b9
00000020: d608 3a3e 2b45 d6bd ed0e 873d 9dd5 0a3e
00000030: ff43 a93d d522 c53c d054 983c 3714 72be
00000040: cae0 64be a614 3ebd 203b d1bd 3c8d 0d3e
00000050: 1e30 1c3e f17f 1d3e 35e3 a9bd 6d2b 22be
00000060: 5568 62be 763f d33d 3c95 4cbe db84 88be
00000070: 8ca7 a2bd bd06 5ebe 9a65 20be e7ac 0cbe
00000080: 0949 febd a483 903e 1274 7dbd b91e 0f3e
00000090: 27a7 9e3b 1ce1 e5bc 3562 81bd 57bb 1fbe
000000a0: d988 33be 7562 173e c701 9fbd 3cdd 59be
000000b0: 8244 273e cca3 843b 95d9 1cbe ff50 0bbe
000000c0: 4739 52be ba38 3dbe 71c7 0c3e 2412 1a3e
000000d0: 1936 923c ef71 3ebe c2c7 69bd 7501 64be
000000e0: 1e9e 553d ae53 6dbd ac0a 5abd b5c1 74bd
000000f0: 6ffd a63d 468e de3d 2576 923d ab17 febc
00000100: c419 39bd fddb 26bb d0e9 12be 3ad6 363e
00000110: 9dbe c0bd 914f f03d f553 f1bd e402 c03a
00000120: 4dad 793d 3f3f 2cbe 66ff cc3d e50a 2bbe
00000130: 3d6d 06bc c1eb 95bd 9276 f23d 5c0f 5e3e
00000140: f774 3e3d 934d a6bc b327 20be d19f a63d
00000150: a41b d7bd 979a b83d 87dc ccbd e848 3b3e
00000160: 8a21 143e a664 ed3d bed2 003c 2a76 023e
00000170: 1583 53be 4570 2a3e 2425 61bd d1e8 963d
00000180: c396 22bd 328f 88bd af28 aebd 3822 103e
00000190: 6154 d6bd 3606 e8bc a471 e13d f3c3 8bbc
000001a0: 56a7 10be 1aed 67be d5ce 0fbe c739 4c3e
000001b0: 4300 1fbe d44f e23d cd82 193e bf6e b6bd
000001c0: cc5b c5bd 0091 38be 52b6 b93c c7a7 e1bc
000001d0: 55b4 2d3c 332e 713d 5d9e 993d 0cfd 78bd
000001e0: eb8d 753c 2a0d 4e3d bff9 4dbd 26ba c23b
000001f0: 1b0d 67bd 718d 3b3e 01ba f4bd 8b78 823c

base.mlp.fc.2.weight f4 [128]
0.97156674 1.1279887 0.9701276 0.9071843 0.8608358 0.9335556 0.9103889 0.8960921
1.0263845 1.1068552 0.8188035 1.0859406 0.95689756 1.028956 0.9277082 0.79727405
0.9515384 0.8783889 0.8545608 0.9361701 1.0098493 0.90904415 1.008373 1.0030773
0.91258585 0.9960774 0.98559576 0.9230234 1.015488 0.9909656 0.8855519 0.89946806
0.9427711 1.0042689 1.021661 0.86515087 0.8997983 0.9178728 0.86134243 0.97975445
0.93565696 0.9632129 1.0174698 0.8133776 0.8553394 0.891099 0.8400309 1.0413837
0.9651947 0.9913075 0.8240839 0.96176916 0.9829693 0.89160866 0.9339675 0.9229512
0.93319666 0.8875314 1.239977 1.0225382 0.97728145 0.8654869 1.076481 1.0087911
0.9582141 1.0880333 1.1035506 0.9547275 0.9652006 1.004605 1.0741851 0.8921563
0.84033895 0.98633313 0.9539086 0.87701625 0.89028156 0.8435119 1.0185541 1.1699836
1.0098652 0.9314552 0.8485121 0.91830134 0.9282878 0.9577721 0.96354896 1.135896
0.98305166 0.82484704 1.0785049 1.1072787 1.0021026 0.88715094 1.1301436 1.039547
0.923061 1.1782444 1.0522012 0.96138495 0.89411616 1.0492388 0.97891206 0.963341
1.0671523 0.9278891 0.983362 1.0712868 1.0097654 1.086663 1.0360184 0.9990024
0.9817446 0.9044885 1.002604 0.8566151 0.97446907 0.9120901 1.0139632 0.98581916
0.92151785 0.9036497 0.7846075 0.97211283 0.89746594 0.937387 0.79051936 1.0693886
00000000: 99b8 783f ef61 903f 485a 783f 3b3d 683f
00000010: bc5f 5c3f 80fd 6e3f 3f0f 693f 4b66 653f
00000020: 9160 833f 6ead 8d3f 1b9d 513f 1a00 8b3f
00000030: 3df7 743f d5b4 833f 497e 6d3f 271a 4c3f
00000040: 0598 733f 18de 603f 7fc4 5a3f d8a8 6f3f
00000050: be42 813f 1eb7 683f 5e12 813f d664 803f
00000060: 3a9f 693f eefe 7e3f 0150 7c3f 434b 6c3f
00000070: 83fb 813f ecaf 7d3f 88b3 623f 8a43 663f
00000080: 7259 713f e28b 803f cac5 823f 877a 5d3f
00000090: 2e59 663f b6f9 6a3f f080 5c3f 30d1 7a3f
000000a0: 3787 6f3f 1f95 763f 733c 823f 8439 503f
000000b0: 86f7 5a3f 101f 643f 440c 573f 104c 853f
000000c0: 0017 773f 54c6 7d3f 2af7 523f 8136 763f
000000d0: e0a3 7b3f 7740 643f 7e18 6f3f 8846 6c3f
000000e0: fae5 6e3f 4235 633f 91b7 9e3f 88e2 823f
000000f0: 1e2f 7a3f 8d90 5d3f 21ca 893f 1120 813f
00000100: 854d 753f ad44 8b3f 2541 8d3f 0569 743f
00000110: 6317 773f e696 803f e67e 893f 5b64 643f
00000120: 7420 573f 5480 7c3f 5b33 743f 2384 603f
00000130: 7ee9 633f 65f0 573f fb5f 823f 06c2 953f
00000140: 4343 813f d973 6e3f 1738 593f cc15 6b3f
00000150: 45a4 6d3f 8d30 753f 25ab 763f 0a65 913f
00000160: 46a9 7b3f 2d29 533f 730c 8a3f 4fbb 8d3f
00000170: e644 803f 531c 633f 8ca8 903f e00f 853f
00000180: ba4d 6c3f b6d0 963f 87ae 863f 531d 763f
00000190: cce4 643f 754d 863f fb99 7a3f 849d 763f
000001a0: 7298 883f 248a 6d3f 9dbd 7b3f ed1f 893f
000001b0: fe3f 813f c617 8b3f 409c 843f 9fbe 7f3f
000001c0: 9d53 7b3f 8f8c 673f 5455 803f 214b 5b3f
000001d0: ce76 793f bd7e 693f 8cc9 813f a55e 7c3f
000001e0: 98e8 6b3f 9655 673f 0adc 483f 63dc 783f
000001f0: 54c0 653f 98f8 6f3f 7a5f 4a3f bae1 883f

base.mlp.fc.2.bias f4 [128]
0.037830085 0.008141724 0.033956554 -0.071476996 0.13744488 0.06929561 0.09960428 0.112556554
0.025706057 0.018902903 0.06252926 0.014621039 0.04383248 -0.0053484174 0.06647408 0.1459849
-0.05112644 0.12963003 -0.0646504 0.0681325 0.011414334 0.084917024 0.016991125 -0.004350919
0.084413365 0.004937938 -0.024259623 -0.023675535 -0.016981192 0.011983729 0.084591545 0.10663172
-0.0075516393 0.008550661 -0.02991124 0.124162726 0.108731486 0.09691819 0.009455447 0.02971309
0.06853451 0.043921355 -0.006124066 0.18698367 -0.030863645 0.11185559 0.044702742 0.006838582
0.039766926 0.009170008 -0.07142843 0.049994715 0.029224413 0.121504836 0.07482575 0.08596543
-0.036324065 0.12291343 0.012865561 0.011914535 -0.011672076 -0.0142523255 0.010581384 0.005002397
-0.032836717 -0.03385058 -0.025720926 0.052566297 0.04885952 -0.0061488366 0.022960523 0.124606125
0.162743 0.0043939184 0.06271322 0.12741444 -0.015421988 0.015167431 -0.007332842 -0.025514385
3.49937e-06 0.07472383 -0.042093508 0.08827137 0.08477615 0.05047967 0.04547266 0.019714873
-0.029261068 0.16228092 0.009307974 -0.015106061 0.0065376265 0.12276189 0.032385867 -0.02395997
0.07989877 -0.019113911 0.013542667 0.041905213 -0.0071733166 -0.011035966 0.03808704 -0.042420425
0.022467608 0.08651885 -0.025723394 -0.047482844 -0.0008478264 -0.018804189 -0.038465366 0.023309356
0.025898313 0.058127996 -0.0033969919 0.14540432 0.03962543 -0.056081742 0.0010722163 0.022111537
0.090445094 0.10071508 0.079796895 -0.046208158 -0.01873258 0.019282259 -0.005625243 0.024668252
00000000: b8f3 1a3d de64 053c 0716 0b3d 8862 92bd
00000010: 5abe 0c3e dbea 8d3d 54fd cb3d 0d84 e63d
00000020: 8295 d23c 43da 9a3c 570f 803d 158d 6f3c
00000030: b089 333d c741 afbb 9023 883d 117d 153e
00000040: f569 51bd bcbd 043e 6e67 84bd 0d89 8b3d
00000050: 3003 3b3c fae8 ad3d f930 8b3c 2792 8ebb
00000060: eae0 ac3d 6dce a13b 1ebc c6bc 32f3 c1bc
00000070: 241c 8bbc 6757 443c 553e ad3d bb61 da3d
00000080: be73 f7bb 1218 0c3c 6b08 f5bc 0749 fe3d
00000090: 9dae de3d 0b7d c63d 05eb 1a3c de68 f33c
000000a0: d25b 8c3d e1e6 333d 64ac c8bb a678 3f3e
000000b0: c1d5 fcbc 8b14 e53d 391a 373d 2f16 e03b
000000c0: a5e2 223d cd3d 163c 1249 92bd 42c7 4c3d
000000d0: 0968 ef3c 87d7 f83d 3e3e 993d a50e b03d
000000e0: 8bc8 14bd 09ba fb3d 13ca 523c 2f35 433c
000000f0: 3c3c 3fbc 9682 69bc 8b5d 2d3c 26eb a33b
00000100: cb7f 06bd e8a6 0abd b1b4 d2bc c24f 573d
00000110: ec20 483d 2e7c c9bb b517 bc3c 7f31 ff3d
00000120: 1aa6 263e dcfa 8f3b ca6f 803d ee78 023e
00000130: 82ac 7cbc d180 783c 5648 f0bb 8b03 d1bc
00000140: b8d6 6a36 cf08 993d 3e6a 2cbd 9fc7 b43d
00000150: 1e9f ad3d c5c3 4e3d 8a41 3a3d 1681 a13c
00000160: e8b4 efbc f82c 263e 7980 183c 697f 77bc
00000170: 9639 d63b 966a fb3d 0ba7 043d b347 c4bc
00000180: f7a1 a33d c794 9cbc 10e2 5d3c cda4 2b3d
00000190: 240e ebbb 32d0 34bc 2801 1c3d 0ac1 2dbd
000001a0: fd0d b83c cb30 b13d deb9 d2bc 5f7d 42bd
000001b0: ab40 5eba 3e0b 9abc dc8d 1dbd 43f3 be3c
000001c0: b328 d43c 9f17 6e3d 11a0 5ebb dfe4 143e
000001d0: 464e 223d f8b5 65bd 9c89 8c3a 4123 b53c
000001e0: 473b b93d b543 ce3d 8e6c a33d c444 3dbd
000001f0: 1175 99bc d4f5 9d3c f553 b8bb 1315 ca3c

base.mlp.fc.3.weight f4 [128, 128]
-0.11480308 -0.013258002 -0.03355242 0.03353353 -0.06831365 0.0076908823 -0.04663571 -0.006932543
0.07903981 0.058362383 0.028167833 0.05879552 0.028866747 -0.097552404 -0.032036528 -0.0016628586
0.07256825 0.04116473 0.06254494 -0.0264841 0.0026018277 -0.05558785 -0.045295916 0.04760473
-0.004635523 -0.018028298 -0.041474216 0.106877275 -0.060511284 -0.012622471 -0.06863193 0.020113016
0.02546592 -0.071178585 -0.01034441 -0.02083532 -0.10205762 -0.032239154 -0.024125827 -0.0065911924
-0.0031810333 -0.093888536 0.0903594 0.027388643 -0.015140214 0.006837765 -0.08288022 0.094601154
-0.011514842 -0.068132445 0.08399847 -0.11943536 -0.069246516 -0.08968146 -0.09022357 -0.091327034
-0.10377921 -0.021925332 -0.02335278 0.021329356 -0.01083002 -0.062433146 0.16471821 -0.10496335
0.005979324 -0.020450454 -0.02075897 -0.033878557 -0.012335683 0.12717447 0.0070824428 0.021302814
0.03718373 -0.050081894 -0.014734297 0.010281135 0.0027109184 0.1879878 0.005148122 0.03559015
-0.032790463 -0.09378211 0.08575727 -0.010546868 0.03770266 -0.014996703 0.011594585 0.046961173
0.017474854 -0.07365652 0.074721605 -0.06667069 -0.032901883 -0.06712276 0.013257408 -0.09428352
0.01649616 -0.11409451 0.07217127 0.020999828 -0.017305814 0.028156249 -0.10106024 0.00042254187
0.0816648 -0.06600443 0.09910085 -0.020313576 -0.024143206 -0.08164199 -0.019781489 0.033377074
0.029704629 0.022961345 0.033945706 -0.11321416 0.030042276 0.039254896 -0.07136523 -0.06798484
0.035114836 0.00048907707 0.07543644 0.032800864 -0.062293563 0.042480074 0.06445357 0.08916327
0.038481716 -0.33896667 0.13305506 -0.022131141 0.009603317 0.06926016 0.042381514 0.054779977
0.05873717 -0.24760506 0.053816568 -0.08781054 -0.011540964 -0.11537827 0.11214954 -0.0107032675
-0.044446815 0.01754122 0.07270077 -0.026203677 0.04119768 0.09963198 -0.07177722 -0.09616415
0.114353575 -0.08020149 -0.033797946 0.021213142 -0.22703537 0.05132034 0.0059947805 0.019441849
0.00077570067 -0.001883248 -0.0020320292 0.09858398 0.11975427 0.107915156 0.0805016 -0.019124642
-0.023707617 0.08809043 -0.135713 0.006505462 0.021582576 0.1421734 -0.041135103 -0.026375575
0.076650195 -0.13731064 0.06554255 -0.007866305 0.121311374 0.020560361 0.026274508 -0.012451595
-0.037407514 0.051952746 -0.14869533 -0.03476865 -0.023772253 -0.19016181 -0.17609192 0.0901038
0.12457935 -0.020443005 0.066028915 0.055870507 0.026116762 -0.02095343 -0.06644416 0.13537754
0.14886382 -0.07848884 0.09551734 0.1506429 0.111677706 0.008408941 0.007749824 0.07601286
0.08082692 0.014233098 -0.07641288 0.022833455 0.08017443 0.03458771 0.105360575 -0.1763034
0.07929941 0.03435399 -0.16597119 0.13979514 0.011939632 -0.010936409 0.108341284 0.0986745
0.02864693 0.06312153 -0.06916512 0.029846448 0.014803187 0.095856115 0.12173366 0.014424123
-0.23282774 0.00022409273 -0.052192654 -0.05308491 -0.025319217 0.20730726 -0.0065857084 0.069692746
0.08907211 0.10903828 -0.05465882 0.07750628 0.13242902 -0.10714256 0.06654575 0.003995165
-0.006467643 0.10944858 0.05450701 -0.05565012 0.08226746 0.06551346 0.033508554 -0.028041732
00000000: e11d ebbd 1738 59bc 436e 09bd 745a 093d
00000010: 07e8 8bbd cc03 fc3b 1605 3fbd 632a e3bb
00000020: a0df a13d 650d 6f3d 3ac0 e63c 92d3 703d
00000030: f579 ec3c 8ec9 c7bd bc38 03bd 47f4 d9ba
00000040: aa9e 943d 599c 283d 9017 803d 2ff5 d8bc
00000050: 6d83 2a3b 16b0 63bd 3688 39bd 2dfd 423d
00000060: 96e5 97bb 15b0 93bc dee0 29bd 79e2 da3d
00000070: aeda 77bd 7bce 4ebc e68e 8cbd 0dc4 a43c
00000080: e89d d03c 14c6 91bd 9a7b 29bc d5ae aabc
00000090: 9603 d1bd 340d 04bd 87a3 c5bc eefa d7bb
000000a0: e278 50bb a248 c0bd 590e b93d 265e e03c
000000b0: a90e 78bc 550f e03b 1bbd a9bd 40be c13d
000000c0: bfa8 3cbc 0689 8bbd 6407 ac3d 879a f4bd
000000d0: 1ed1 8dbd eaaa b7bd 23c7 b8bd ab09 bbbd
000000e0: 328a d4bd c19c b3bc 544e bfbc e7ba ae3c
000000f0: 6570 31bc e6b9 7fbd e4ab 283e 06f7 d6bd
00000100: 35ee c33b b687 a7bc b70e aabc 3ec4 0abd
00000110: 9b1b 4abc 063a 023e d613 e83b 3d83 ae3c
00000120: f84d 183d ac22 4dbd 1f68 71bc 3572 283c
00000130: aaa9 313b e07f 403e 94b1 a83b fac6 113d
00000140: 4b4f 06bd d610 c0bd 82a1 af3d c5cc 2cbc
00000150: 1b6e 1a3d bbb4 75bc 37f7 3d3c 5c5a 403d
00000160: 6d27 8f3c 3bd9 96bd a407 993d a58a 88bd
00000170: 20c4 06bd a877 89bd 9935 593c b817 c1bd
00000180: f422 873c 62aa e9bd 88ce 933d d507 ac3c
00000190: ecc4 8dbc efa7 e63c acf8 cebd 9c88 dd39
000001a0: e03f a73d 552d 87bd 63f5 ca3d a868 a6bc
000001b0: f9c7 c5bc ea33 a7bd ca0c a2bc 66b6 083d
000001c0: 1f57 f33c 6e19 bc3c a70a 0b3d d3dc e7bd
000001d0: 381b f63c bec9 203d ef27 92bd a33b 8bbd
000001e0: 93d4 0f3d 6835 003a 6c7e 9a3d 335a 063d
000001f0: 8927 7fbd 96ff 2d3d 3c00 843d 3c9b b63d
00000200: 019f 1d3d 0a8d adbe 963f 083e 5e4c b5bc
00000210: 3b57 1d3c 45d8 8d3d 3d98 2d3d f860 603d
00000220: 6396 703d 2e8c 7dbe c36e 5c3d 03d6 b3bd
00000230: 5016 3dbc 714b ecbd a8ae e53d c25c 2fbc
00000240: dd0d 36bd 9bb2 8f3c 24e4 943d 18a9 d6bc
00000250: e6be 283d da0b cc3d efff 92bd b6f1 c4bd
00000260: 3532 ea3d ae40 a4bd b76f 0abd 2fc7 ad3c
00000270: f67b 68be 4735 523d dd6f c43b 8344 9f3c
00000280: 6458 4b3a 51d7 f6ba cb2b 05bb 66e6 c93d
00000290: ba41 f53d 9f02 dd3d 06de a43d 48ab 9cbc
000002a0: 7a36 c2bc c168 b43d 59f8 0abe c52b d53b
000002b0: f1cd b03c e795 113e 487d 28bd 9711 d8bc
000002c0: c7fa 9c3d 299b 0cbe 2c3b 863d ade1 00bc
000002d0: 1972 f83d 346e a83c a33d d73c c601 4cbc
000002e0: 9f38 19bd 67cc 543d 9743 18be 9269 0ebd
000002f0: 07be c2bc c7b9 42be 7151 34be 5788 b83d
00000300: 7523 ff3d 1778 a7bc 2b3a 873d 79d8 643d
00000310: d2f2 d53c 87a6 abbc e013 88bd 69a0 0a3e
00000320: c26f 183e c2be a0bd 989e c33d 2242 1a3e
00000330: 48b7 e43d a8c5 093c 3cf2 fd3b a1ac 9b3d
00000340: 9688 a53d f131 693c 5b7e 9cbd 3a0d bb3c
00000350: 7e32 a43d d8ab 0d3d 49c7 d73d e188 34be
00000360: bb67 a23d c5b6 0c3d 5af4 29be 7526 0f3e
00000370: 729e 433c a02e 33bc 09e2 dd3d db15 ca3d
00000380: f7ac ea3c dc45 813d 71a6 8dbd 8a80 f43c
00000390: 1189 723c 3650 c43d 7f4f f93d 2853 6c3c
000003a0: 656a 6ebe 6ffa 6a39 f7c7 55bd 906f 59bd
000003b0: 3f6a cfbc 5b48 543e edcc d7bb 12bb 8e3d
000003c0: 706b b63d 764f df3d ede1 5fbd 9dbb 9e3d
000003d0: 799b 073e 8f6d dbbd 2349 883d e0e9 823b
000003e0: 86ee d3bb 9426 e03d be42 5f3d 61f1 63bd
000003f0: d87b a83d ec2b 863d 4440 093d c6b7 e5bc

base.mlp.fc.3.bias f4 [128]
0.09757631 -0.021714 0.03744547 -0.13043563 0.06976317 0.035280615 0.05685025 -0.06408302
-0.00538584 -0.06394135 0.05577694 0.10212423 -0.035708718 0.022502098 0.03041653 -0.078153834
0.050714254 0.018112285 -0.035076 -0.01822933 0.01871855 0.03333037 -0.07545829 0.044436134
0.0040482436 0.022721345 0.025238223 0.029915169 0.13585989 -0.0037524416 0.013663725 0.017916158
-0.096704066 0.04148311 -0.115195036 -0.053631507 -0.062297784 -0.08863978 -0.07546903 0.045408823
-0.0025867028 -0.075427756 -0.097505234 -0.055284332 -0.016694978 -0.0017421584 -0.071211144 -9.095243e-06
-0.0062475833 0.09043125 -0.012899841 -0.041172866 0.1077535 -0.060461894 -0.110061795 -0.063530624
0.07346097 0.0032602863 0.040241636 0.04223268 -0.0095068775 0.026165051 0.061954502 0.0058198473
-0.0884875 -0.030880017 -0.0024122838 -0.0012568149 0.026306063 0.021312833 -0.03814874 0.054734457
0.0010866101 -0.02006835 -0.028702505 -0.0183144 -0.043479037 -0.053002927 0.03495708 -0.05307471
0.058213953 0.076307684 -0.097396046 0.059818387 0.015301593 -0.030062795 0.03358249 -0.09064103
-0.06887326 -0.09853523 0.032631043 -0.017965378 -0.054621723 0.016197396 -0.05427549 0.04931049
0.03376382 0.040604994 -0.015997758 -0.010868479 -0.03360034 -0.06582428 0.113413006 0.0021291883
-0.07357401 0.05006482 0.0073918253 -0.091717504 0.045045435 0.018203175 -0.06361887 0.033008
0.06263617 -0.10832687 -0.0070976526 0.12789187 -0.07239381 0.004588722 -0.08323133 0.08236798
-0.07276639 0.0032593233 0.05247981 -0.014496279 -0.018611837 -0.0021426585 -0.0023895777 -0.05664479
00000000: 17d6 c73d 8fe1 b1bc 6c60 193d eb90 05be
00000010: fedf 8e3d 6882 103d cfdb 683d f53d 83bd
00000020: b37b b0bb aff3 82bd 5c76 643d 8226 d13d
00000030: 4e43 12bd 5256 b83c 162c f93c 1e0f a0bd
00000040: c0b9 4f3d 3760 943c daab 0fbd ad55 95bc
00000050: a557 993c 6d85 083d e089 9abd aa02 363d
00000060: 21a7 843b 1d22 ba3c 64c0 ce3c a810 f53c
00000070: db1e 0b3e 86eb 75bb d1dd 5f3c e8c4 923c
00000080: c80c c6bd 32ea 293d 60eb ebbd b6ac 5bbd
00000090: f62b 7fbd c688 b5bd 828f 9abd 9afe 393d
000000a0: ac85 29bb de79 9abd d3b0 c7bd d371 62bd
000000b0: e8c3 88bc 2359 e4ba 26d7 91bd c597 18b7
000000c0: 87b8 ccbb 0534 b93d db59 53bc e1a4 28bd
000000d0: dead dc3d e4a6 77bd 1468 e1bd 581c 82bd
000000e0: b472 963d 87aa 553b 6ad4 243d 2dfc 2c3d
000000f0: bcc2 1bbc 1758 d63c 01c4 7d3d 6bb4 be3b
00000100: ef38 b5bd 17f8 fcbc 6817 1ebb b6bb a4ba
00000110: d07f d73c 4098 ae3c da41 1cbd 3d31 603d
00000120: 966c 8e3a 6166 a4bc 8421 ebbc 1508 96bc
00000130: 1317 32bd 9919 59bd 282f 0f3d de64 59bd
00000140: c171 6e3d 3447 9c3d 9477 c7bd 2004 753d
00000150: 88b3 7a3c 4046 f6bc cb8d 093d 01a2 b9bd
00000160: 6c0d 8dbd d7cc c9bd 21a8 053d 212c 93bc
00000170: 07bb 5fbd 67b0 843c fa4f 5ebd ccf9 493d
00000180: ee4b 0a3d 6c51 263d bb0d 83bc b411 32bc
00000190: 83a0 09bd e1ce 86bd 1445 e83d da89 0b3b
000001a0: f8ad 96bd c510 4d3d 2037 f23b 63d6 bbbd
000001b0: 9081 383d d31e 953c 9c4a 82bd 6633 073d
000001c0: 6447 803d 7ada ddbd 6d93 e8bb 16f6 023e
000001d0: 3543 94bd fd5c 963b 3075 aabd 8bb0 a83d
000001e0: 8c06 95bd 5f9a 553b 12f5 563d cd81 6dbc
000001f0: da77 98bc d86b 0cbb 769a 1cbb 5e04 68bd

base.mlp.fc.5.weight f4 [128]
0.994474 1.0399785 1.0428797 0.96386015 1.0995232 1.0485066 1.0260917 1.0653684
1.1533198 1.1246246 1.0347965 1.0277328 0.9652841 0.9365463 1.047197 0.97406983
1.0957551 1.0513747 1.0224987 1.0841818 1.0690353 1.033366 1.1294367 1.1730162
0.89260805 1.0957655 0.954545 1.0220466 1.0808259 1.0797353 1.0678525 0.972141
1.1503911 1.0215898 0.91879994 1.1924733 1.1548083 0.9732747 0.9037752 1.1115874
1.1295446 0.8648043 1.06285 1.0151254 0.9977 0.86794096 0.9017469 1.1461204
0.91697717 1.1087966 1.0357552 1.0672956 1.0907533 1.0757155 0.9020231 1.2038187
1.13641 0.9617511 1.0142548 0.9342042 1.0601945 0.8884717 1.0124354 0.92692226
0.9135799 1.0597626 1.0035775 1.112601 1.01512 0.96096337 1.1094027 1.0113621
1.0401255 0.9675237 1.0147847 1.0709282 1.0898535 1.0505594 1.0932763 0.9900536
1.0453498 1.1804931 0.9500936 1.0360639 1.0260491 0.9481374 0.9630831 1.0141894
0.7981008 1.0706923 1.1023124 1.0228981 0.9957377 1.1719913 1.0141867 0.9393328
1.091739 1.0198418 0.996273 0.9867429 1.0580485 1.0123906 1.1268797 1.0623791
0.9459267 1.0805556 0.93234414 0.93270063 0.9617076 1.1538823 1.117396 1.1400493
1.1279293 0.9208534 1.0392532 1.2179933 1.0763017 0.96164644 1.0079505 1.1185143
0.9695075 0.93364507 1.1176573 0.99369293 1.0679888 0.96771 1.1144115 0.975508
00000000: d995 7e3f 041e 853f 157d 853f 8abf 763f
00000010: 2dbd 8c3f 7735 863f f956 833f fe5d 883f
00000020: fc9f 933f b3f3 8f3f 3674 843f c08c 833f
00000030: dc1c 773f 80c1 6f3f 8d0a 863f a45c 793f
00000040: b441 8c3f 7293 863f 3de1 823f 78c6 8a3f
00000050: 26d6 883f 5645 843f 6291 903f 6525 963f
00000060: f681 643f 0b42 8c3f 105d 743f 6cd2 823f
00000070: 8158 8a3f c434 8a3f 64af 883f 3cde 783f
00000080: 0440 933f 74c3 823f 7936 6b3f f7a2 983f
00000090: c2d0 933f 8828 793f d05d 673f 7f48 8e3f
000000a0: eb94 903f d163 5d3f 780b 883f a1ef 813f
000000b0: 4469 7f3f 6131 5e3f e3d8 663f 13b4 923f
000000c0: 04bf 6a3f 0ced 8d3f a093 843f 249d 883f
000000d0: ce9d 8b3f 0cb1 893f fcea 663f bb16 9a3f
000000e0: e275 913f 5235 763f 1ad3 813f 0228 6f3f
000000f0: 74b4 873f e272 633f 7c97 813f c74a 6d3f
00000100: 5fe0 693f 4da6 873f 3a75 803f b669 8e3f
00000110: 74ef 813f b201 763f e800 8e3f 5074 813f
00000120: d522 853f a2af 773f 77e4 813f 2d14 893f
00000130: 5280 8b3f bb78 863f 7af0 8b3f 2774 7d3f
00000140: 06ce 853f 661a 973f 5639 733f be9d 843f
00000150: 9455 833f 22b9 723f 9d8c 763f f5d0 813f
00000160: 5650 4c3f 720c 893f 9318 8d3f 53ee 823f
00000170: aae8 7e3f d003 963f dfd0 813f 1d78 703f
00000180: 1bbe 8b3f 2d8a 823f bf0b 7f3f 2f9b 7c3f
00000190: 226e 873f 0496 813f 983d 903f 0afc 873f
000001a0: 4128 723f a54f 8a3f 1bae 6e3f 78c5 6e3f
000001b0: 7832 763f 6ab2 933f d506 8f3f 23ed 913f
000001c0: fd5f 903f 0cbd 6b3f 4006 853f 34e7 9b3f
000001d0: 41c4 893f 762e 763f 8604 813f 7a2b 8f3f
000001e0: a531 783f 5d03 6f3f 650f 8f3f a962 7e3f
000001f0: dbb3 883f d8bb 773f 09a5 8e3f e4ba 793f

base.mlp.fc.5.bias f4 [128]
0.06063115 -0.038820498 0.025039606 -0.0026257217 -0.12240391 -0.061332542 -0.032828465 -0.073665075
0.1917005 -0.14145201 -0.040078577 -0.059461173 0.0012065961 -0.037844673 0.037602317 0.020140762
0.12518159 -0.019308148 -0.016014008 0.07117624 -0.031190256 -0.051526617 -0.1409023 -0.17898326
0.10548226 -0.061241917 0.007733898 -0.068600245 0.116458915 -0.027472837 -0.07143987 0.0366938
-0.15464891 -0.026135687 0.079053186 0.051051334 -0.039169498 0.014503432 0.019432882 -0.109020896
0.12818149 0.11472205 -0.061590426 -0.025480235 -0.009552316 0.072152175 -0.07001514 -0.14877363
0.13795334 0.055090353 -0.12410706 0.056960914 0.10394976 -0.11142316 0.083708376 -0.06359547
0.13302462 0.028712515 -0.012082393 0.062092945 -0.035854027 0.06536882 -0.054857936 0.07102881
0.06733952 -0.06580779 -0.037599646 0.028226187 -0.013049847 0.018876102 0.07787315 -0.009166016
-0.060531713 0.037820965 -0.016583454 -0.07861901 -0.10041946 -0.05333182 -0.029521735 0.012097649
-0.05886901 0.16294941 0.02361775 -0.027465615 -0.026242454 0.046621602 0.023758635 -0.012827954
0.20069343 -0.09606102 0.02461861 0.039486982 -0.008234375 0.05098934 -0.022446042 0.051921397
0.040127147 0.041740563 -0.015989996 0.0122960545 -0.023166416 -0.022752063 0.10830554 -0.008843992
0.045191504 0.053564318 0.018946726 -0.046158805 0.1185334 0.024517238 -0.1241611 -0.14879201
0.11643724 0.08019842 -0.07277454 0.1567491 -0.088553704 -0.003644709 -0.035173923 -0.006710337
0.00068254734 0.0060364064 -0.030767446 -0.002763668 -0.04400777 -0.043190718 -0.15646067 0.01642383
00000000: 5e58 783d 3e02 1fbd dc1f cd3c 4d14 2cbb
00000010: e7ae fabd d537 7bbd 2477 06bd b7dd 96bd
00000020: 234d 443e ccd8 10be 6f29 24bd 8f8d 73bd
00000030: a626 9e3a 0403 1bbd e304 1a3d 3dfe a43c
00000040: 9a2f 003e 1f2c 9ebc cf2f 83bc d9c4 913d
00000050: b582 ffbc 930d 53bd b148 10be 6347 37be
00000060: 1507 d83d ced8 7abd a36c fd3b 497e 8cbd
00000070: 0382 ee3d b70e e1bc 114f 92bd 3d4c 163d
00000080: 495c 1ebe 821a d6bc a3e6 a13d 341b 513d
00000090: 3270 20bd ce9f 6d3c b531 9f3c 5946 dfbd
000000a0: 0242 033e 65f3 ea3d 3e46 7cbd edbb d0bc
000000b0: 5181 1cbc 85c4 933d 1964 8fbd 1d58 18be
000000c0: a443 0d3e 6ca6 613d d82b febd d94f 693d
000000d0: 9de3 d43d d331 e4bd 4c6f ab3d 573e 82bd
000000e0: 9b37 083e 8236 eb3c 3bf5 45bc 2c55 7e3d
000000f0: acdb 12bd 17e0 853d b7b2 60bd 8e77 913d
00000100: 4de9 893d 3cc6 86bd 1602 1abd 9b3a e73c
00000110: 07cf 55bc 0ea2 9a3c f57b 9f3d 0f2d 16bc
00000120: 1af0 77bd 28ea 1a3d 06da 87bc 0103 a1bd
00000130: b8a8 cdbd 7772 5abd 91d7 f1bc 3835 463c
00000140: a220 71bd 36dc 263e 037a c13c 92ff e0bc
00000150: 6afa d6bc 4bf6 3e3d 78a1 c23c 572c 52bc
00000160: 9482 4d3e a4bb c4bd f8ac c93c 1abd 213d
00000170: 79e9 06bc 33da 503d c3e0 b7bc 88ab 543d
00000180: 5d5c 243d 27f8 2a3d 74fd 82bc 6475 493c
00000190: 7fc7 bdbc 8962 babc 4ccf dd3d 64e6 10bc
000001a0: ba1a 393d 4266 5b3d 2a36 9b3c 0411 3dbd
000001b0: a4c1 f23d 60d8 c83c 2d48 febd ef5c 18be
000001c0: a676 ee3d 123f a43d d10a 95bd d682 203e
000001d0: a55b b5bd 12dc 6ebb 8812 10bd 63e2 dbbb
000001e0: faec 323a 0ccd c53b 030c fcbc a81e 35bb
000001f0: 7e41 34bd c0e8 30bd 3a37 20be 458b 863c

rnn.gru.weight_ih_l0 f4 [384, 128]
0.071574554 0.06130601 -0.09014653 0.010445225 0.01033107 -0.085734725 0.00028416666 -0.08506467
-0.043380603 0.06616601 0.033094723 0.019050399 0.12088593 -0.006487342 -0.022565102 -0.018325174
0.046719622 -0.046315532 -0.06947563 0.21780965 -0.12608036 0.021283755 0.024653764 -0.05258083
0.044991277 0.016281508 -0.034687907 -0.06865134 0.092206985 -0.052424178 0.021568723 -0.008850072
0.032121748 0.010922676 -0.046757646 0.052920535 -0.0027996653 0.008384391 -0.0372983 0.021012126
0.019172952 -0.1044247 0.050113864 -0.07092018 0.028207073 0.07004447 -0.16082741 0.045020755
0.013592535 -0.11316941 -0.06399823 0.015217358 0.050620172 -0.017314808 0.021855226 -0.007304188
0.12099519 0.013314742 -0.084256135 -0.029421173 -0.0916973 0.16953556 -0.20337974 0.038132705
0.07848554 -0.030184964 -0.096012644 0.12874974 0.02198862 -0.09709912 0.21397065 -0.019291893
-0.07543365 0.005730139 0.035414774 -0.011039028 -0.07439416 -0.060263116 -0.01569559 0.037553165
0.0039308527 0.040829852 -0.009404883 -0.062189758 0.028605899 0.13234891 0.025929715 0.065282635
-0.05457136 0.11250623 -0.07990805 0.054809183 -0.031133344 0.020002762 -0.02394103 -0.009364355
0.16997913 -0.04618965 -0.021501439 -0.06682725 0.11367199 0.03780187 -0.037686914 -0.0771126
0.06297089 0.0682135 0.08361233 -0.03205199 -0.19661698 -0.06602349 -0.07661352 -0.049075995
0.049298227 -0.059350137 -0.046817224 0.039836593 -0.0318295 -0.055667944 0.13091525 0.04914519
-0.023790298 0.03532838 -0.14836313 -0.026723191 -0.19414243 0.06319427 -0.07005743 0.046970036
-0.15217306 0.0066742245 -0.03107317 -0.057265643 0.09815206 0.12767583 0.21299766 0.05024137
-0.056643948 0.18373929 0.1068476 -0.05057352 0.07956867 -0.04254868 0.048139043 0.09151605
-0.03555919 -0.097297065 0.04312412 -0.034369484 -0.022079559 0.055057507 0.081249356 0.06892734
0.063629776 0.057994895 0.21102364 0.047765624 0.017824935 0.032394692 0.1756861 0.108934216
0.085148565 0.1644212 0.20295954 0.08479612 -0.007621139 0.18845752 0.089936666 0.08418414
-0.046920475 0.09328393 0.19990891 0.14207949 0.19544977 0.14636733 0.11550642 0.17443812
0.08866742 -0.11675519 0.14531921 0.098092206 0.0031490852 0.12859443 0.19576879 -0.04569681
-0.0027764274 0.09022932 0.06511687 0.19795077 -0.06936294 0.037844673 0.067605264 0.18844981
0.15826873 0.062125452 0.0664225 -0.108991474 0.14811897 0.039130647 -0.11147798 0.041063387
0.12599759 0.20844012 0.15373972 0.13653834 0.16259082 0.07041318 -0.06946746 0.19671796
-0.099861905 -0.22251362 0.09431749 0.00092743716 0.11243331 0.015502284 0.13489245 0.14890365
0.15456906 0.0021545577 -0.073665984 0.19274247 0.19812481 -0.24479902 0.002084802 0.07341827
-0.11589055 -0.13966188 0.18741927 0.06972445 0.036850702 0.13186523 0.002924356 -0.018287132
0.1434716 -0.26549625 0.08211789 0.063114345 -0.06896244 0.09371695 0.044183206 0.085872784
-0.064259775 0.10754232 0.10381556 -0.11566723 0.18601546 -0.052523304 0.14645834 -0.03940248
-0.14431715 0.013536828 0.022492122 0.14399521 0.11606665 0.0021309573 0.09770134 0.18731761
00000000: ae95 923d 031c 7b3d be9e b8bd 7322 2b3c
00000010: a643 293c b095 afbd 34fc 9439 6336 aebd
00000020: dcaf 31bd 0c82 873d 558e 073d 950f 9c3c
00000030: 0b93 f73d c593 d4bb 73da b8bc ad1e 96bc
00000040: 135d 3f3d 5bb5 3dbd 3d49 8ebd 7e09 5f3e
00000050: 361b 01be 455b ae3c b1f6 c93c ff5e 57bd
00000060: c648 383d cc60 853c e814 0ebd 1399 8cbd
00000070: 04d7 bc3d bcba 56bd e4b0 b03c e4ff 10bc
00000080: 1892 033d 06f5 323c f284 3fbd 34c3 583d
00000090: 977a 37bb af5e 093c 1ac6 18bd 9f21 ac3c
000000a0: 9810 9d3c 9edc d5bd 3244 4d3d 993e 91bd
000000b0: 8512 e73c 7a73 8f3d f1af 24be af67 383d
000000c0: 39b3 5e3c 5dc5 e7bd 8111 83bd 3a52 793c
000000d0: 1957 4f3d c9d7 8dbc bb09 b33c f857 efbb
000000e0: 54cc f73d 1326 5a3c 7b8e acbd ac04 f1bc
000000f0: cbcb bbbd bb9a 2d3e c742 50be 0a31 1c3d
00000100: 07bd a03d 7546 f7bc 47a2 c4bd f9d6 033e
00000110: 7a21 b43c e7db c6bd 1f1b 5b3e 080a 9ebc
00000120: f57c 9abd e4c3 bb3b 150f 113d 0add 34bc
00000130: f75b 98bd 75d6 76bd 0a94 80bc 59d1 193d
00000140: 62ce 803b 343d 273d f016 1abc b0ba 7ebd
00000150: eb56 ea3c 7986 073e 8e6a d43c e7b2 853d
00000160: 3886 5fbd ab69 e63d d5a6 a3bd 987f 603d
00000170: 5b0b ffbc d5dc a33c fb1f c4bc f46c 19bc
00000180: 020f 2e3e 5c31 3dbd c923 b0bc badc 88bd
00000190: dccc e83d 22d6 1a3d 985d 1abd 36ed 9dbd
000001a0: e2f6 803d 85b3 8b3d f13c ab3d f348 03bd
000001b0: f655 49be 5337 87bd 8de7 9cbd e903 49bd
000001c0: f0ec 493d 2119 73bd 6bc3 3fbd b22b 233d
000001d0: a65f 02bd 1204 64bd a60e 063e 774c 493d
000001e0: dfe3 c2bc 7eb4 103d 81ec 17be 98ea dabc
000001f0: 46cd 46be ff6b 813d 457a 8fbd a763 403d
00000200: 41d3 1bbe 74b3 da3b 298d febc 618f 6abd
00000210: f203 c93d 74bd 023e 0f1c 5a3e e5c9 4d3d
00000220: 7c03 68bd 2726 3c3e ead2 da3d 2e26 4fbd
00000230: e6f4 a23d 8647 2ebd 722d 453d c46c bb3d
00000240: 83a6 11bd af43 c7bd eba2 303d 04c7 0cbd
00000250: 31e0 b4bc fb83 613d 1066 a63d c729 8d3d
00000260: 5450 823d 0e8c 6d3d 9516 583e e3a5 433d
00000270: 9905 923c 4cb0 043d 0fe7 333e e718 df3d
00000280: 5f62 ae3d 085e 283e a0d4 4f3e 97a9 ad3d
00000290: bfba f9bb 02fb 403e b730 b83d bc68 ac3d
000002a0: af2f 40bd a50b bf3d ecb4 4c3e 497d 113e
000002b0: fc23 483e 51e1 153e a18e ec3d e89f 323e
000002c0: 4497 b53d 581d efbd 8fce 143e 91e4 c83d
000002d0: e260 4e3b 42ae 033e 9d77 483e 942c 3bbd
000002e0: b9f4 35bb 26ca b83d fe5b 853d 9bb3 4a3e
000002f0: 280e 8ebd 0403 1b3d a174 8a3d fdf8 403e
00000300: 3311 223e 4277 7e3d 8508 883d ec36 dfbd
00000310: 80ac 173e 7547 203d 914e e4bd 1532 283d
00000320: 8305 013e 5471 553e f26d 1d3e b5d0 0b3e
00000330: 357e 263e c934 903d f544 8ebd 6f70 493e
00000340: 6684 ccbd 9cda 63be 8729 c13d 411f 733a
00000350: 6f43 e63d 4bfd 7d3c 3f21 0a3e 337a 183e
00000360: 5a47 1e3e 7b33 0d3b 31de 96bd 485e 453e
00000370: 3be1 4a3e 98ac 7abe 2ca1 083b 515c 963d
00000380: 0658 edbd 8603 0fbe d6ea 3f3e b1cb 8e3d
00000390: c3f0 163d ae07 073e 8da6 3f3b e5ce 95bc
000003a0: 38ea 123e 20ef 87be 6d2d a83d 1842 813d
000003b0: 2e3c 8dbd acee bf3d 73f9 343d 12de af3d
000003c0: a19a 83bd 263f dc3d 419d d43d f1e2 ecbd
000003d0: d67a 3e3e ad22 57bd 2df9 153e 7f64 21bd
000003e0: e0c7 13be 92c9 5d3c 6641 b83c 7b73 133e
000003f0: 5ab4 ed3d 88a7 0b3b a417 c83d 30d0 3f3e

rnn.gru.weight_hh_l0 f4 [384, 128]
-0.08071099 -0.06847516 -0.0213775 0.06549115 -0.007758965 0.014749247 0.06591944 0.027184643
-0.03624842 -0.038970444 0.05106162 0.07397702 0.050170563 -0.033594847 0.020967074 0.037923742
0.02116161 0.052657302 -0.02321526 -0.0006352942 -0.024573613 0.028532088 -0.006124563 0.04188791
-0.11124671 -0.03674519 0.1737491 0.10579364 -0.020180376 0.036876086 -0.1345825 0.12402717
0.086665235 0.050924998 0.04761038 0.031870224 -0.12394537 0.107741036 0.035731733 -0.02857202
-0.0646647 -0.010259188 0.0944615 0.098145515 -0.17958714 0.0271123 -0.10703914 -0.10171854
-0.019880721 0.084643096 -0.10213314 0.033674072 -0.027399518 0.12884912 -0.05755993 0.014773972
-0.06754677 -0.042864572 -0.10687146 0.031345442 -0.040836684 -0.12661889 0.03659924 -0.105450004
-0.13939963 -0.04982295 0.060168188 -0.09182044 0.09828233 0.08237095 0.08644622 -0.11918972
-0.082000166 0.06491221 0.07896457 -0.08358929 -0.025850486 0.103678524 -0.046138413 0.095921636
0.15999828 -0.10404157 -0.04223883 0.0073993537 0.09612496 -0.026485959 0.18463881 -0.11392248
0.042029206 -0.114493094 -0.02048289 -0.14513728 0.0998464 0.038165994 0.025307136 0.023814538
0.06690087 0.02758653 0.04929908 0.09261158 -0.048780303 0.06099199 -0.05378966 -0.01962905
-0.07936154 0.17699648 0.048008166 -0.05632465 -0.050480727 0.11683795 -0.0310374 0.029799365
0.010200954 -0.07228734 -0.105890214 -0.07637667 -0.019528707 0.08030414 -0.026266675 -0.004919501
0.09835866 -0.007759064 -0.17065157 -0.047306243 0.124834366 -0.12528946 -0.09759085 -0.0635922
-0.03277673 -0.13104632 0.021788586 -0.082175605 -0.105487436 -0.16136624 -0.08444643 0.110770136
0.06350681 0.017432084 -0.12296402 0.030726487 0.024009248 0.08087413 -0.040541884 0.08648186
-0.009659983 0.09908772 0.14383152 -0.17921019 0.13710555 -0.15057376 0.045214564 -0.15255837
0.059928115 0.04096928 -0.0014362771 0.07633855 0.038263246 -0.03685846 0.12504144 0.08823026
-0.15458228 -0.037850767 0.042775966 0.19342488 0.039327215 -0.037519395 0.016422614 -0.054807477
-0.18119907 -0.22019295 -0.06484158 -0.30303502 0.053048134 -0.11528457 -0.04052628 0.06620833
0.14047186 -0.1631496 0.106670424 -0.11412955 -0.009310972 0.056589417 0.028955024 -0.106878996
0.0073712296 0.091046095 -0.013768881 -0.01986443 0.06893115 0.018208614 -0.060889058 0.098961696
0.09063926 0.17930244 0.02100875 0.034005545 -0.04763138 0.045739446 -0.112059936 0.014489081
-0.12162156 0.20204794 0.018253094 -0.016140211 -0.04156184 0.017952377 -0.042089496 0.0062908586
0.0053147916 -0.028375374 -0.06295168 -0.027656876 -0.067661755 0.07098565 -0.018141067 -0.16419022
0.011403286 -0.14170785 0.06334365 0.027916009 -0.06315718 0.10547699 0.030987423 0.039707176
-0.013520696 -0.14483978 0.13838977 0.027747836 -0.03802115 -0.09565694 -0.051504556 -0.06163336
0.036227137 0.10642429 -0.037908155 0.10649141 -0.03160919 0.032734904 0.15925509 0.12918
-0.007474777 -0.12888141 -0.061411176 0.04190508 -0.007960938 0.15256253 0.022999773 -0.06416193
0.05640974 0.10724171 0.04310874 -0.025847718 -0.13228895 -0.12709682 0.027282976 0.1423166
00000000: ce4b a5bd b43c 8cbd de1f afbc 3920 863d
00000010: ea3e febb d3a6 713c c500 873d 54b2 de3c
00000020: 3979 14bd 799f 1fbd fd25 513d 4481 973d
00000030: a67f 4d3d c09a 09bd 24c3 ab3c ed55 1b3d
00000040: 1d5b ad3c 2faf 573d ee2d bebc df89 26ba
00000050: 9a4e c9bc 20bc e93c 8fb0 c8bb a892 2b3d
00000060: 51d5 e3bd 2082 16bd 49eb 313e 56aa d83d
00000070: 5151 a5bc 610b 173d ffcf 09be f501 fe3d
00000080: 8b7d b13d bb96 503d 1a03 433d 5a8a 023d
00000090: 12d7 fdbd 55a7 dc3d 705b 123d de0f eabc
000000a0: ed6e 84bd 2716 28bc 0875 c13d 8400 c93d
000000b0: b1e5 37be 9d1a de3c 5637 dbbd cf51 d0bd
000000c0: e5dc a2bc 5c59 ad3d 2e2b d1bd d3ed 093d
000000d0: f474 e0bc 06f1 033e f6c3 6bbd 880e 723c
000000e0: f655 8abd c392 2fbd 6ddf dabd 1464 003d
000000f0: 5e44 27bd 62a8 01be 16e9 153d 2cf6 d7bd
00000100: c7be 0ebe 2613 4cbd eb72 763d 5b0c bcbd
00000110: 3f48 c93d 1ab2 a83d b70a b13d bd19 f4bd
00000120: b4ef a7bd b1f0 843d 2db8 a13d dd30 abbd
00000130: 66c4 d3bc 6855 d43d a2fb 3cbd 9072 c43d
00000140: 97d6 233e bf13 d5bd a002 2dbd 4776 f23b
00000150: 2add c43d 15f9 d8bc f511 3d3e 3050 e9bd
00000160: d126 2c3d 5b7b eabd bccb a7bc de9e 14be
00000170: 457c cc3d f253 1c3d e950 cf3c b516 c33c
00000180: 5303 893d 26fd e13c d5ed 493d 24ab bd3d
00000190: dbcd 47bd bdd2 793d 8c52 5cbd 1acd a0bc
000001a0: 4e88 a2bd 913e 353e 36a4 443d adb4 66bd
000001b0: e1c4 4ebd bc48 ef3d 2542 febc cc1d f43c
000001c0: e721 273c 630b 94bd f8dc d8bd 5f6b 9cbd
000001d0: abfa 9fbc 7f76 a43d 362d d7bc c433 a1bb
000001e0: 4470 c93d bf3f febb 49bf 2ebe 31c4 41bd
000001f0: 29a9 ff3d e14b 00be b6dd c7bd a13c 82bd
00000200: e440 06bd 0231 06be fa7d b23c af4b a8bd
00000210: cc09 d8bd 313d 25be 40f2 acbd 74db e23d
00000220: dc0f 823d bbcd 8e3c 8fd4 fbbd 1db6 fb3c
00000230: 0baf c43c 56a1 a53d 3f0f 26bd 671d b13d
00000240: e844 1ebc 81ee ca3d 9248 133e e082 37be
00000250: 6665 0c3e 0230 1abe e832 393d 4338 1cbe
00000260: 2f77 753d 67cf 273d 7641 bcba 6357 9c3d
00000270: ecb9 1c3d e6f8 16bd dd0a 003e 11b2 b43d
00000280: d14a 1ebe 6809 1bbd da35 2f3d 2c11 463e
00000290: 9315 213d f0ad 19bd b888 863c ce7d 60bd
000002a0: 408c 39be 437a 61be aacb 84bd 6827 9bbe
000002b0: 0049 593d 511a ecbd e2fe 25bd 3c98 873d
000002c0: dbd7 0f3e b010 27be 0676 da3d c1bc e9bd
000002d0: 0c8d 18bc 4eca 673d 1633 ed3c 60e3 dabd
000002e0: 5b8a f13b 6076 ba3d df96 61bc bbba a2bc
000002f0: c62b 8d3d 3b2a 953c ce66 79bd 6eac ca3d
00000300: 14a1 b93d 0f9b 373e 8b1a ac3c 6649 0b3d
00000310: 1f19 43bd 4959 3b3d ae7f e5bd 9c63 6d3c
00000320: b914 f9bd a8e5 4e3e 8387 953c 7a38 84bc
00000330: bf3c 2abd dd10 933c 0966 2cbd 8c23 ce3b
00000340: b427 ae3b 7973 e8bc cfec 80bd ac90 e2bc
00000350: 3f92 8abd ed60 913d 939c 94bc 7b21 28be
00000360: d9d4 3a3c dd1b 11be 51ba 813d 1db0 e43c
00000370: 8d58 81bd 5204 d83d 56d9 fd3c fea3 223d
00000380: e985 5dbc e150 14be 0cb6 0d3e 6e4f e33c
00000390: 11bc 1bbd c9e7 c3bd 71f6 52bd 4373 7cbd
000003a0: e862 143d faf4 d93d 9545 1bbd 2b18 da3d
000003b0: a378 01bd 0915 063d c413 233e c347 043e
000003c0: f9ee f4bb 7df9 03be 498a 7bbd a9a4 2b3d
000003d0: 986e 02bc 5a39 1c3e 056a bc3c 5467 83bd
000003e0: e60d 673d 8ba1 db3d ca92 303d 98be d3bc
000003f0: c176 07be ab25 02be 8c80 df3c 71bb 113e

rnn.gru.bias_ih_l0 f4 [384]
0.044237316 -0.18903306 0.024469724 0.0073719085 -0.10424142 -0.09070636 0.107709326 0.07089489
0.04702534 -0.033191487 -0.027785514 0.10041543 -0.0067261225 -0.07972647 -0.050086126 -0.13175856
0.05454198 -0.0679403 -0.11277949 -0.03441698 -0.08946382 -0.059599165 0.003745418 0.031003967
0.20107038 0.016068056 -0.04972638 -0.08664223 0.064125575 0.07802479 0.07850947 -0.010931547
-0.020624893 -0.03672664 0.084004015 -0.044515267 -0.020189002 0.058763493 -0.08530543 -0.039771758
0.05056703 0.037362058 0.0008937007 0.07493347 -0.11386386 -0.013898273 0.07410081 0.002888875
-0.079970315 -0.0124105755 0.13377221 -0.14953206 -0.024777815 0.10172868 -0.0130104255 -0.054984346
-0.07571177 0.1040569 0.12310481 0.11953295 -0.07078482 -0.08786079 -0.1282983 0.017754858
0.048977252 -0.0014256 -0.0027392313 0.09342743 -0.10019329 0.10780363 0.059487615 0.018083418
0.065534964 0.09470588 0.0952332 0.12011594 0.032111354 0.079153694 0.040611554 0.013497075
0.061345942 0.13111816 0.17002648 0.07856365 -0.016296413 0.116587944 0.050438806 -0.159905
0.040336546 0.021209916 -0.1619652 0.04550595 0.12860261 0.11198626 0.15497686 0.09106495
-0.09813918 -0.06475207 0.022028806 0.08213824 0.10631593 0.09304114 -0.066411525 0.033350024
0.08787427 0.14606835 0.025613468 0.06670331 -0.03181726 -0.030447086 0.09559458 0.036440223
-0.0015532477 0.09024686 0.005902967 0.20387602 0.14563744 0.06351894 0.058150332 0.096593484
-0.13688083 -0.03412631 -0.048971817 -0.0012304591 0.1249074 0.046719268 0.056628942 -0.08478135
-0.047572378 0.10265824 0.14946401 0.27332827 -0.0054017147 0.111858025 0.023909803 0.19995695
0.033836965 -0.16252556 0.0823146 0.16938943 0.111232944 0.2086287 0.19429435 0.10291358
0.1352284 0.15436186 0.015730523 -0.056489863 0.025915451 0.22337508 -0.1947289 0.24825668
-0.08377949 0.083351605 0.033822116 0.13679872 -0.07025599 -0.0023995594 -0.004487044 0.13612464
-0.028812513 0.1540067 0.18060921 -0.021566242 0.104199566 0.33203176 0.05187907 0.10850505
0.14303225 -0.124024495 0.093796805 0.029288307 0.10007798 0.10827653 0.23768876 0.10523989
0.07127648 0.2696587 0.03420702 -0.023415053 0.24033518 -0.012530162 0.24497317 0.089671455
0.22769265 0.27168185 0.18117891 0.0132361 0.2389901 -0.028105412 0.18542251 -0.03917744
0.15038936 0.1979233 0.21124154 -0.33385125 0.08011644 0.19564512 0.17604177 0.005337505
-0.03727955 0.1335378 0.08488449 0.26837277 0.20386127 0.14541897 0.19101477 -0.16777147
0.15596391 -0.033119824 0.150665 0.19300121 0.15108311 0.11346125 0.02600674 0.082959555
0.07199567 0.0057692965 0.1801148 -0.05506119 0.20581046 0.03927368 -0.031028342 0.16141343
-0.031759754 0.1305425 0.07588266 0.07960285 0.1359036 -0.037439622 0.0139108505 0.12509038
0.17971301 0.014967082 0.21785195 0.21219513 0.044261508 -0.019678049 0.09847338 -0.015678354
0.16043748 0.11071134 0.092224196 0.14897878 -0.009693964 0.061487038 0.18264435 0.14122465
0.0907946 0.059682194 0.003931693 0.20199826 -0.0024712454 0.022956293 0.09270942 0.21887185
00000000: 3032 353d e291 41be bb74 c83c 0d90 f13b
00000010: 877c d5bd 42c4 b9bd b596 dc3d 5731 913d
00000020: a59d 403d ccf3 07bd 729e e3bc 9ba6 cd3d
00000030: ce66 dcbb a247 a3bd 1c27 4dbd b7eb 06be
00000040: 6967 5f3d 4924 8bbd eff8 e6bd d2f8 0cbd
00000050: cf38 b7bd 411e 74bd b075 753b 08fc fd3c
00000060: 65e5 4d3e 28a1 833c e3ad 4bbd 7b71 b1bd
00000070: 4554 833d 76cb 9f3d 93c9 a03d 3b1a 33bc
00000080: 89f5 a8bc ac6e 16bd 4c0a ac3d a455 36bd
00000090: 6863 a5bc fdb1 703d 9db4 aebd b6e7 22bd
000000a0: 601f 4f3d f508 193d 3d47 6a3a b876 993d
000000b0: 7531 e9bd 95b5 63bc 2ac2 973d 4853 3d3b
000000c0: 7ac7 a3bd ba55 4bbc 95fb 083e ef1e 19be
000000d0: d8fa cabc 2057 d03d ae29 55bc 4437 61bd
000000e0: c60e 9bbd c91b d53d 601e fc3d b1cd f43d
000000f0: a2f7 90bd 5cf0 b3bd a160 03be a372 913c
00000100: 5f9c 483d 33db baba ad84 33bb e156 bf3d
00000110: 2432 cdbd 26c8 dc3d 49a9 733d ad23 943c
00000120: 3237 863d 28f5 c13d a009 c33d 59ff f53d
00000130: 3287 033d 551b a23d 4d58 263d d622 5d3c
00000140: e245 7b3d d743 063e 6c1b 2e3e fbe5 a03d
00000150: 0e80 85bc a9c5 ee3d ec98 4e3d 23be 23be
00000160: ef37 253d 6bc0 ad3c 35da 25be 7264 3a3d
00000170: 67b0 033e 0d59 e53d 41b2 1e3e 4380 ba3d
00000180: 32fd c8bd bc9c 84bd c175 b43c 1838 a83d
00000190: 2bbc d93d 5a8c be3d c402 88bd 099a 083d
000001a0: 6df7 b33d f192 153e 56d3 d13c bf9b 883d
000001b0: d152 02bd 2b6c f9bc 17c7 c33d 5842 153d
000001c0: 5896 cbba 59d3 b83d ad6d c13b e0c4 503e
000001d0: fb21 153e 3816 823d 0b2f 6e3d ced2 c53d
000001e0: 7d2a 0cbe 08c8 0bbd ac96 48bd 5b47 a1ba
000001f0: 73cf ff3d b45c 3f3d c0f3 673d d8a1 adbd
00000200: 41db 42bd 7c3e d23d 180d 193e aff1 8b3e
00000210: de00 b1bb d215 e53d 7ede c33c 84c1 4c3e
00000220: a198 0a3d 1a6d 26be 8f94 a83d 6c74 2d3e
00000230: 19ce e33d c3a2 553e 19f5 463e 5bc4 d23d
00000240: 5079 0a3e 0911 1e3e 4cdd 803c ea61 67bd
00000250: a44c d43c 70bc 643e 0367 47be 0037 7e3e
00000260: 9594 abbd 3fb4 aa3d 0f89 0a3d f714 0c3e
00000270: 5fe2 8fbd ed41 1dbb 0e08 93bb 4264 0b3e
00000280: 3808 ecbc efb3 1d3e 9ff1 383e b0ab b0bc
00000290: 9566 d53d 1100 aa3e 267f 543d e537 de3d
000002a0: 0c77 123e 8e00 febd 8a18 c03d 08ee ef3c
000002b0: aff5 cc3d 16c0 dd3d af64 733e 0388 d73d
000002c0: 67f9 913d b510 8a3e a91c 0c3d edd0 bfbc
000002d0: 6d1a 763e 4f4b 4dbc 3fda 7a3e aba5 b73d
000002e0: 4328 693e e219 8b3e f786 393e 3adc 583c
000002f0: d2b9 743e 523d e6bc 66df 3d3e 8678 20bd
00000300: abff 193e 68ac 4a3e b44f 583e 8dee aabe
00000310: 1714 a43d 3257 483e 4b44 343e 3de6 ae3b
00000320: 71b2 18bd 22be 083e ebd7 ad3d 2868 893e
00000330: 02c1 503e b6e8 143e 6099 433e 49cc 2bbe
00000340: 01b5 1f3e a7a8 07bd ed47 1a3e 1ca2 453e
00000350: 88b5 1a3e 5f5e e83d 160c d53c b3e6 a93d
00000360: 7772 933d 5e0c bd3b 0470 383e d887 61bd
00000370: fabf 523e 70dd 203d 262f febc 9049 253e
00000380: 8416 02bd efac 053e 5e68 9b3d d206 a33d
00000390: 502a 0b3e 4a5a 19bd 56ea 633c b117 003e
000003a0: b006 383e 7e38 753c 9514 5f3e ae49 593e
000003b0: 8e4b 353d dc33 a1bc 69ac c93d e46f 80bc
000003c0: b949 243e a1bc e23d 0ae0 bc3d e58d 183e
000003d0: 6fd3 1ebc d5d9 7b3d 1f07 3b3e 329d 103e
000003e0: 85f2 b93d 5175 743d 6ed5 803b a2d8 4e3e
000003f0: 9ef4 21bb d60e bc3c 70de bd3d f11f 603e
