scripts/results/MAPPOTraining2v1/2v1/NoWeapon/MAPPOTraining/mappo/v1_2v1_mappo_training/wandb/offline-run-20250807_165042-zjjd28i2/files/actor_episode_5400.pt (torch, 700146 bytes, 30 tensors)

base.mlp.fc.0.weight f4 [128, 21]
00000000: d423 d6ba fdbd ef3d e5e9 37be 0873 24be
00000010: 2321 acbd 3eaf 6f3d e8ac 8dbb db2c 313e
00000020: 7aa4 9ebc 2184 6c3d e70f 87bd b5b1 2fbd
00000030: 3e7a 55be 86fd 13be 0b3a b8bd f370 043c
00000040: eaad b03d 0314 063e 4a7d 17be e19c c2bd
00000050: 5153 a23d 786c 163e bb4b cabc 5e09 493e
00000060: dd6e 10bd ee1a 5ebd 7f21 3f3e 69aa 50be
00000070: 7bf9 37be bcd6 1bbd b89a 4bbd 7b6a c73e
00000080: 40b2 0dbe c45b b0bd 869f 10be f8d4 6abe
00000090: 09fe 06be 7b6e b93e 426a c53d 496d 053e
000000a0: 6bfe 473c 86f3 ffbd fe43 9b3c 4936 5abe
000000b0: 07e1 31be 887b 02be f9ec e93d eb65 ec3d
000000c0: dcf9 e4bd d3f2 673a 2093 183e ae36 653e
000000d0: e9ac 9f3d 1241 5a3c 011b 063e 8c71 15be
000000e0: 1f2c ff3c 43b0 3dbe b14d 13be bc3c 04be
000000f0: 9414 ab3d a561 933d 89e1 e9bd cb73 ff3b
00000100: a02c 1a3d 162b 06be d666 8cbd f5d9 aa3c
00000110: 948c a43d d73a 0a3e 62b5 33be 4724 083e
00000120: 1202 96bd ea71 943e 18d4 de3d 44b7 d33d
00000130: b5a3 1ebd f015 47be 8cf1 98bc 3814 be3d
00000140: aadd 90be abcd de3d 0154 af3d 2b5a 08be
00000150: 06ed bf3c 4228 85bd 20c4 95bd 1d66 05be
00000160: dc96 633d d9aa 16be 10da 543d 6cab 1a3e
00000170: b7c3 983d 30d1 f23d 88fb 96be 1560 2ebe
00000180: a082 a53d 6016 393c 0c85 16be e5ae c7bd
00000190: 95e7 313e 8aa9 ef3d 0d5d 02be f519 a9bd
000001a0: 0751 34be 7586 80bb 5e46 28be 155d 2cbe
000001b0: 23ff 44bc e633 063d f605 b7bd e097 043e
000001c0: 2ffb 07be aac1 4a3e 3f22 193e 976f 3cbe
000001d0: 3975 5ebd 7b53 213c cd68 023d c1fd 533d
000001e0: 5661 af3d f428 563c 740f dabd 1779 d33d
000001f0: 5d59 56be 7f71 04be fdbf 5fbd 2ab2 d9bd
00000200: 1858 9cbd 0f26 37be 1121 3ebd 550f 3f3d
00000210: c892 11be 2f7b 37bc e6f5 1f3e 1bc5 b7bc
00000220: e2ba c63b c337 9abc 83e4 343d e314 0e3e
00000230: c2aa 533e 10e8 0d3e bd26 543e 0049 81bc
00000240: 0bbc 48be b6de d3bd da26 183e e269 b9ba
00000250: 9622 debd 7e3c 2bbe f61e 51be 1499 3cbe
00000260: b64c 35bd 9816 f53d 379e f13d db81 57be
00000270: 2663 0b3e 12db 2ebe 7df6 3cbd ba35 b5bd
00000280: da29 2cbd c17e 2fbd 7784 48be 8bf0 40be
00000290: 54dd 0bbd ddf1 383b 2605 cbbd ca59 a83d
000002a0: 632b 8bbe b2f7 03bd 0a6c 5f3e 6385 e9bd
000002b0: 06b9 1f3e 196d b53c 696b 67be 3c2d 2a3e
000002c0: 5cb2 053e a7f2 77bd 6273 913e faf8 49be
000002d0: 503b 413c 480a 7ebd 3240 273e 054f 563d
000002e0: cd18 4f3e 07d0 693d 0baf 57bd 0f68 a5bd
000002f0: 534e 2cbe 7806 c23d 42ee 4f3e d37b 453e
00000300: d2f5 0ebe c7a5 30bd 55a7 24be 9690 ddbd
00000310: 732e 4abe cca3 c33d b1f8 1ebe d5f7 6f3e
00000320: 877c da3c cb6f 253e 0ab7 0dbe 374d 37be
00000330: 432e 21be 71c1 a93e e9df 86bd 9fc2 623e
00000340: ae99 bb3d 74c1 3e3b 8c0a a9bd b583 89bd
00000350: 8aca 033d 6a65 a5bd b821 a53c 558c 70bd
00000360: c3e9 59be c871 44be 9bfc 603e d342 53be
00000370: 7b63 0c3d 094c 463e 9778 793d 79a3 cbbc
00000380: f736 42be d62a 1f3d 7123 8f3a 66ed c2bd
00000390: daf4 a2bd 1949 96bd 9627 f33c 9c89 033e
000003a0: 454f 253d 2953 673e 3618 013e 1278 43be
000003b0: d9a7 743d 06f5 2abe 55e5 06be 23ae cd3d
000003c0: 4c5f 343d 70f4 bd3e 3970 96bd b941 473b
000003d0: 84ff e93d 71fb 75be 695f a43d 0549 4a3c
000003e0: 6feb d7bb d699 b5bc c945 03be e66b db3c
000003f0: 10bc 4a3e 2f53 70bd 013c 31be 17c8 d4bd
-0.0016337582 0.11706159 -0.17960317 -0.16059506 -0.08404758 0.058516733 -0.0043235905 0.17302267
-0.019365538 0.057743195 -0.0659483 -0.042894084 -0.20847413 -0.1445218 -0.08995446 0.00808357
0.086269215 0.13093571 -0.14793888 -0.095025785 0.079260476 0.14689815 -0.024694314 0.1963248
-0.035261977 -0.0542249 0.18665121 -0.20377506 -0.17966263 -0.038046584 -0.0497081 0.38948426
-0.13837528 -0.08611253 -0.14123353 -0.22932804 -0.13182844 0.36217102 0.09639408 0.1302997
0.012206654 -0.1249762 0.01895332 -0.2130977 -0.17370997 -0.12742436 0.11422152 0.11542877
-0.111804694 0.00088481343 0.14899874 0.2238414 0.07796652 0.013321178 0.13096239 -0.14594096
0.031148968 -0.1852427 -0.14385106 -0.12913793 0.08353534 0.071963586 -0.114199705 0.007795786
0.037640214 -0.13102373 -0.06855552 0.020855883 0.08034626 0.13499008 -0.17549661 0.13295089
-0.07324614 0.2899316 0.108802974 0.103376895 -0.038730342 -0.19441962 -0.018669866 0.092812
-0.28294116 0.10879072 0.08560944 -0.13315646 0.023428451 -0.06501819 -0.073127985 -0.13027234
0.055563793 -0.1471361 0.051965773 0.15104455 0.07459205 0.118563056 -0.29488778 -0.1702884
0.08081555 0.0112968385 -0.14699191 -0.09750155 0.17373498 0.11702259 -0.12730809 -0.08256904
-0.17609034 -0.0039222785 -0.16433093 -0.16832383 -0.01202372 0.032764338 -0.08936684 0.1294856
-0.13279413 0.1980044 0.1495447 -0.18401943 -0.05431101 0.009846563 0.031838227 0.05175567
0.08563487 0.013071287 -0.10647479 0.103258304 -0.20932527 -0.1293392 -0.054626454 -0.10629685
-0.0763399 -0.17885612 -0.046418253 0.04664548 -0.14216149 -0.011198803 0.15621147 -0.022432854
0.0060647586 -0.018825417 0.04416324 0.13875155 0.20670608 0.13858056 0.20717902 -0.01578188
-0.19602983 -0.10345213 0.1485857 -0.0014145935 -0.108464405 -0.16722295 -0.20421967 -0.1841777
-0.04426261 0.119672 0.11797755 -0.2104563 0.13612041 -0.17075756 -0.046133507 -0.08848138
-0.0420321 -0.04284549 -0.19581781 -0.1884176 -0.03414662 0.0028220334 -0.09913091 0.08220251
-0.2718154 -0.032218643 0.21818557 -0.114023946 0.15597925 0.022146748 -0.22599567 0.16618818
0.1305632 -0.060534146 0.28408343 -0.19723883 0.011793926 -0.062021524 0.16333082 0.052321453
0.20224304 0.057083156 -0.05265717 -0.08076488 -0.16826753 0.0947389 0.20305732 0.19285516
-0.1396096 -0.043126848 -0.16079457 -0.10818593 -0.19744281 0.09552726 -0.15524556 0.23434384
0.026670707 0.16155927 -0.13839355 -0.17900549 -0.15740304 0.33155397 -0.06585676 0.22144555
0.091601714 0.0029107006 -0.08253965 -0.06714574 0.03217558 -0.08075984 0.02015768 -0.05872758
-0.2128058 -0.19184029 0.21971361 -0.2063096 0.03427456 0.19364943 0.06090602 -0.024858223
-0.1896628 0.03885921 0.0010920597 -0.095179364 -0.07956858 -0.07338161 0.029681962 0.12845463
0.0403588 0.22590317 0.12606892 -0.19088772 0.059730384 -0.16695032 -0.1317342 0.100429796
0.044036195 0.37100554 -0.073456235 0.0030404164 0.11425689 -0.24021699 0.080260105 0.012346511
-0.006589345 -0.022168081 -0.1281959 0.026784848 0.19798303 -0.05867308 -0.17308046 -0.103897266

base.mlp.fc.0.bias f4 [128]
00000000: 8694 a63d a75e 1bbd 1b7e 493e a91c abbd
00000010: 5478 12be 587c 663d 046c e83d 1c4d e3b9
00000020: e585 333e cbbd e7bd ed0e 873d c104 013e
00000030: ff43 a93d ea11 ec3c d054 983c 3714 72be
00000040: 0750 6fbe a614 3ebd 6511 e0bd 3c8d 0d3e
00000050: 793f 283e d7e5 143e a597 d8bd 563d 2bbe
00000060: 5568 62be 1d31 cb3d f4a2 4ebe db84 88be
00000070: 797c a0bd bd06 5ebe 9a65 20be e7ac 0cbe
00000080: c444 09be f6e9 913e 3770 86bd b91e 0f3e
00000090: 27a7 9e3b 1ce1 e5bc 5f87 72bd 57bb 1fbe
000000a0: d988 33be 7562 173e 95e4 b0bd 3cdd 59be
000000b0: 0ae9 2b3e cca3 843b 9b45 28be b427 13be
000000c0: 4739 52be 666d 47be 7482 043e 2412 1a3e
000000d0: 1936 923c ef71 3ebe c2c7 69bd 7501 64be
000000e0: 51fb 623d ae53 6dbd 577b 52bd 4a9e 8bbd
000000f0: 985d 953d 30f7 db3d ca41 823d ab17 febc
00000100: 02e1 93bd d218 4d3b 5492 0dbe 3ad6 363e
00000110: 9dbe c0bd 1bc5 e23d ad8a 01be e402 c03a
00000120: 4dad 793d 132e 35be 66ff cc3d e50a 2bbe
00000130: 3d6d 06bc c1eb 95bd e0c2 e23d 7c21 623e
00000140: f774 3e3d 934d a6bc 92a1 14be d19f a63d
00000150: a41b d7bd 979a b83d 87dc ccbd e1a5 333e
00000160: cef5 113e a664 ed3d 2087 4b3a 10a4 023e
00000170: 1583 53be 4570 2a3e 9e9a 42bd cba9 993d
00000180: c396 22bd c2e9 83bd f7d4 b9bd 3822 103e
00000190: 39b3 d2bd 22e2 bfbc a471 e13d 9482 4bbc
000001a0: 60ce 18be 1aed 67be 8ef4 17be 33dd 4d3e
000001b0: e3a9 26be 2db3 e63d 88d7 193e 7185 a5bd
000001c0: cc5b c5bd 0091 38be 34f3 183c c7a7 e1bc
000001d0: 55b4 2d3c 7718 4b3d 5d9e 993d 22a6 93bd
000001e0: eb8d 753c 2a0d 4e3d bff9 4dbd 7798 46bb
000001f0: e778 6bbd 718d 3b3e c117 f6bd d066 1b3c
0.08133797 -0.037932064 0.19677012 -0.08355076 -0.14303714 0.056270927 0.11348727 -0.00043354265
0.17531545 -0.11315497 0.06594644 0.1259947 0.08264922 0.028817136 0.01859513 -0.23640524
-0.23370372 -0.04640641 -0.10940818 0.13823408 0.16430463 0.14540802 -0.10575799 -0.16722617
-0.22110112 0.09921477 -0.20179349 -0.2666386 -0.07836241 -0.21682258 -0.15663758 -0.13737832
-0.13405138 0.2849881 -0.06564372 0.13976564 0.0048417035 -0.028061442 -0.05921113 -0.15598808
-0.17532672 0.14783652 -0.086373486 -0.212758 0.16788116 0.0040478464 -0.16432802 -0.14370614
-0.20529662 -0.19475326 0.12940389 0.15045983 0.017848061 -0.1859815 -0.05707527 -0.22266181
0.055415455 -0.05794113 -0.051387157 -0.068173006 0.07293242 0.10740507 0.063602045 -0.031017145
-0.07220651 0.0031295312 -0.13825351 0.17855158 -0.094113566 0.11072751 -0.12650557 0.0014649299
0.060956288 -0.17693357 0.10009651 -0.16703375 -0.008204755 -0.07320357 0.11072326 0.22083086
0.046498265 -0.020300662 -0.14514759 0.08135951 -0.10503319 0.09013861 -0.10003 0.17543747
0.14253923 0.11591463 0.00077639706 0.12757897 -0.20655473 0.1664439 -0.047510736 0.075030886
-0.03969456 -0.0644107 -0.09073823 0.14075553 -0.1028809 -0.023423258 0.11008003 -0.012421269
-0.14922476 -0.22649041 -0.14839384 0.20103912 -0.16275744 0.11264644 0.15023625 -0.080820926
-0.096366495 -0.18024063 0.009335328 -0.027545823 0.010602077 0.04958388 0.075009085 -0.07209422
0.014987449 0.050305523 -0.050287005 -0.0030303278 -0.05748835 0.18315674 -0.120162494 0.009484962

base.mlp.fc.2.weight f4 [128]
00000000: a25e 773f 7d83 8f3f 5ed2 763f 0943 6c3f
00000010: 6e54 5c3f 70b2 6d3f 9205 663f db89 643f
00000020: 3172 863f d09f 8d3f 1182 583f 64a8 8a3f
00000030: f307 743f f4b6 843f 6f4d 6c3f 360e 4a3f
00000040: fc5e 723f cdcc 5c3f 134d 5e3f 26f3 6e3f
00000050: ec43 813f f210 6c3f 7c6d 813f f9bd 803f
00000060: f05f 683f 3cda 7d3f 3ea1 7b3f 3cbe 6c3f
00000070: 0914 7f3f 1847 7d3f 8150 5f3f 687f 633f
00000080: 0daa 763f 7433 803f e7ae 813f 7947 5e3f
00000090: ac39 653f 964b 673f f6e0 5f3f e19e 783f
000000a0: 4511 6d3f ea5a 743f ac1c 823f f12b 4e3f
000000b0: e8c5 5e3f fe64 613f 5d9b 5a3f a0f5 853f
000000c0: c6a9 753f c6e2 803f a810 5a3f 16f0 743f
000000d0: 78cc 793f 7f7e 613f b910 6c3f 8a67 6a3f
000000e0: af3e 6f3f b9d5 613f ea70 9d3f ae17 843f
000000f0: 8fc8 773f 3579 5d3f 4194 8a3f 7564 7f3f
00000100: 0094 713f 5537 8c3f abff 8d3f 2642 713f
00000110: 10ed 743f 435b 803f 3c4d 8b3f 6041 613f
00000120: bfde 543f 0a5b 7b3f 4c62 703f 3585 5d3f
00000130: fc87 633f 4af3 583f c4a1 833f d39c 953f
00000140: 7d2f 803f 353e 6d3f 07b1 573f a98a 683f
00000150: 51f2 6b3f c2e1 713f ecac 743f e6a8 913f
00000160: a101 7d3f 7c4d 543f c262 8a3f 267a 8d3f
00000170: 78a4 7e3f e4ec 613f f371 913f acb1 853f
00000180: fee2 693f ef6e 973f 1cc8 863f 8977 763f
00000190: 18c3 693f 2734 873f e8ae 793f 5713 783f
000001a0: e735 883f df35 6b3f b169 7d3f 0247 893f
000001b0: 23a0 813f 055b 8b3f 2893 843f d61a 813f
000001c0: b4a5 783f ed52 653f 5ac2 7e3f ce0d 5b3f
000001d0: bec9 773f 1ed7 683f d86f 803f d89f 803f
000001e0: 3f5d 683f 8db0 663f 9152 483f 9984 763f
000001f0: aabc 673f 159f 6e3f a1cc 4d3f ec6d 893f
0.96628773 1.1212002 0.96414745 0.9228979 0.8606633 0.928504 0.8985225 0.8927285
1.0503598 1.1064396 0.84573466 1.0832639 0.9532463 1.0368333 0.92305654 0.78927934
0.94676185 0.8625 0.86836356 0.93339765 1.0098853 0.92213356 1.0111537 1.0057975
0.9077139 0.99161124 0.9829291 0.92477775 0.99639946 0.98936605 0.87232214 0.8886628
0.96353227 1.0015702 1.0131501 0.8682781 0.89541125 0.9034971 0.8745264 0.9711743
0.92604476 0.95451224 1.0165 0.805358 0.8702073 0.88044727 0.85393316 1.0465584
0.9596218 1.0069206 0.85181665 0.9567884 0.9757762 0.8808364 0.92213017 0.9156424
0.9345502 0.8821674 1.2300084 1.0319726 0.96790403 0.8651307 1.0826494 0.9976266
0.94366455 1.0954386 1.1093649 0.9424156 0.9567423 1.0027851 1.0882945 0.8799038
0.83152384 0.9818579 0.9389999 0.8653138 0.8887937 0.8474623 1.0283742 1.1688484
1.0014492 0.92673045 0.842545 0.9083658 0.9216662 0.94485104 0.9557636 1.1379669
0.9883061 0.8293073 1.0811388 1.1052902 0.9946971 0.8825209 1.13629 1.0444846
0.9136199 1.1830729 1.0529819 0.96276146 0.91313314 1.0562791 0.9753251 0.9690451
1.064145 0.91879076 0.989894 1.0724795 1.0126995 1.0887152 1.0357409 1.0086315
0.9712784 0.8957966 0.99515307 0.8556794 0.9679221 0.9095324 1.0034132 1.004878
0.9076728 0.90113145 0.78250986 0.9629608 0.90522254 0.9321149 0.80390364 1.073667

base.mlp.fc.2.bias f4 [128]
00000000: 3ae7 313d 2500 883a c89f 243d 7340 9ebd
00000010: 5a56 0d3e 5f3f 973d cb6c e33d 0554 ee3d
00000020: 786c 963c f1a2 263c f0e6 073d 5aaf a33b
00000030: 0d32 453d 2550 1f3b 279d 913d f187 1d3e
00000040: c5e1 7abd 82b1 133e 4eb3 93bd 9067 923d
00000050: 677d a23b 7703 9b3d 069d 903c 7293 52bc
00000060: 30d3 b73d 0b80 833b 6b06 e4bc c17c debc
00000070: e3a3 c5bc b71e 6c3c 2d4d c63d 5d58 ee3d
00000080: 948a 86bc 600d 4d3c c76b 06bd 2d13 f93d
00000090: 04d5 e73d 9c6f e23d 4ecb 913c f871 1c3d
000000a0: 184f 9e3d 764c 573d 2142 73bc 2896 473e
000000b0: eb9b d1bc 6d88 f83d e180 1a3d ad2c 44ba
000000c0: 58c5 393d 24c2 0c3c 5827 9fbd c398 633d
000000d0: 81a8 143d f7d1 063e 6272 b03d f429 bf3d
000000e0: 5d34 f8bc 02f4 023e 65f6 443c fcc3 923b
000000f0: aedd a1bc e530 80bc 00be 1b3b 3c8e 7f3c
00000100: fe8c 35bd e761 dbbc 09dd 9dbc 4c62 843d
00000110: f089 6b3d ecb9 4fbc 32f8 7c3c c631 0b3e
00000120: cc8d 2f3e 1321 f53a de40 9d3d d5d1 0d3e
00000130: 1b19 56bc 7d39 253c dbe0 78bc 2ee0 a5bc
00000140: ed00 063c 4bf1 a23d 2f4b 0fbd f68e c83d
00000150: 5a1c bc3d 70da 803d 8dea 573d 9c4c 603c
00000160: ea2f f7bc 6a40 223e 5f11 193b 3310 51bc
00000170: bcb8 643c d2d6 023e 78b9 e53c a8f4 acbc
00000180: 7c14 b63d eaf4 77bc 365a 4f3c b25b 273d
00000190: 5093 93bb f239 4abb 628c 2d3d 80b7 16bd
000001a0: 619a 6a3c a1dd c23d 3cd1 08bd 3a71 2bbd
000001b0: c708 04bc b126 7ebc 4604 1cbd 0131 e83c
000001c0: 75a8 133d 3506 893d e1dd 81bc 52b2 163e
000001d0: c3f4 3e3d 1db5 5ebd 768c 363c 1ee8 493c
000001e0: efb3 d43d 1a7f d23d 7fca a63d 8c41 5dbd
000001f0: 5071 80bc 6de0 c83c 2d0a a4bc d5f8 943c
0.043433405 0.001037602 0.04019144 -0.077271365 0.13802472 0.07385134 0.11104735 0.11637119
0.018362269 0.010170684 0.033179224 0.004995269 0.048143435 0.0024309244 0.071100526 0.15383889
-0.061250467 0.14423183 -0.07211934 0.07148659 0.004958797 0.0756902 0.017653 -0.0128525365
0.08975828 0.0040130666 -0.027835092 -0.027159097 -0.024125999 0.01441162 0.09682689 0.11637948
-0.016423501 0.012515396 -0.03281763 0.121618606 0.113199264 0.11056444 0.017797139 0.038194627
0.0772993 0.052563153 -0.014847309 0.19490874 -0.025587043 0.12135396 0.037720565 -0.0007483464
0.045354217 0.008591209 -0.07771176 0.055565607 0.03629351 0.13166033 0.08615567 0.09334174
-0.030298406 0.12788394 0.012021636 0.0044789296 -0.019759025 -0.015648315 0.0023764372 0.015597876
-0.044323914 -0.026780082 -0.019270437 0.06464061 0.057504594 -0.012678605 0.015440034 0.13593206
0.17143935 0.0018701873 0.07678388 0.13849576 -0.013067509 0.010084507 -0.0151903285 -0.020248499
0.008178932 0.07956179 -0.03498381 0.09792893 0.09185095 0.06291664 0.05271392 0.01369014
-0.030174214 0.15844885 0.0023356301 -0.01276021 0.01396006 0.1277726 0.02804254 -0.021112755
0.08890626 -0.015134076 0.012655785 0.04085893 -0.004503645 -0.0030857292 0.042370208 -0.036796093
0.014319033 0.095149286 -0.033402666 -0.04185603 -0.008058733 -0.015512154 -0.038090013 0.02834368
0.036049325 0.06690637 -0.01585287 0.14716461 0.04662014 -0.05437194 0.011141887 0.012323407
0.10385882 0.10278149 0.08144092 -0.05401759 -0.015679032 0.024521077 -0.020024383 0.018185059

base.mlp.fc.3.weight f4 [128, 128]
00000000: 64fb f8bd eb17 e6bb 4026 25bd 431d 043d
00000010: d0ef 99bd 477b 843a 51f8 5abd c490 61bc
00000020: a888 bf3d cdb1 943d 5f29 b23c d3e7 933d
00000030: 3513 b53c f636 c9bd a0f8 1ebd d6d2 0cbc
00000040: 64e1 a43d 1032 0c3d 6ff0 883d 6641 08bd
00000050: a5e1 8c3b be4a 24bd 3068 40bd d475 753d
00000060: 196e 3bbc 8434 cfbc 2c8c 15bd 7c5c cd3d
00000070: 61c8 76bd fa79 9ebc 5c79 9abd 6f66 5a3c
00000080: 1a29 1e3d 7369 8ebd c563 dabb 37a8 e2bc
00000090: f9fa debd 4528 20bd 3056 c4bc 7e99 5abc
000000a0: f746 22bc eb23 cebd ba64 cc3d 11ca a63c
000000b0: 7ac7 90bc 8fee 77b7 fae0 b7bd fb15 dc3d
000000c0: bc64 95bc d67e 8bbd 39a1 e23d 833a 01be
000000d0: 469c 9bbd feb4 c5bd 57c2 c6bd 4bfd c8bd
000000e0: d51f d8bd ea8a ebbc 0536 b1bc a11c 2f3d
000000f0: 3d63 b1bb d260 71bd 7f82 373e 83be e4bd
00000100: 2dd6 4c3b 1b92 bbbc 204f aebc 10a5 26bd
00000110: a4a3 9cbc 6ff7 0b3e 911f 033d 4c2b 6c3c
00000120: e4c2 f73c 4ddf 45bd 199c b0bc 023d 5f3b
00000130: 2fbd 81bb a6cf 393e 2c0a bd3c bef5 1b3d
00000140: deca 21bd 58fd cdbd 6b8e 9c3d 834b 8ebc
00000150: bf11 fd3c be82 b2bc eaaa 9e3b 2993 813d
00000160: 3765 923c f595 a4bd f4e0 b23d d94f 83bd
00000170: b45a 22bd 5b8d 97bd 2a88 fb3c 2ecc c3bd
00000180: 17f4 1e3c c6e7 eebd 374e 9a3d 4287 6a3c
00000190: 1326 e2bc edcc df3c a1c8 dcbd 5fc5 cbb9
000001a0: 5e3a c13d 7c1a 95bd 18d7 ed3d e22c a8bc
000001b0: 1474 87bc 486f aebd c196 74bc 87b1 fc3c
000001c0: befc bb3c b88c 843c 38d4 393d 38ed f5bd
000001d0: 1cca be3c 3ad6 2b3d 2ef3 9fbd b4fe 78bd
000001e0: 4494 e73c 9be7 ccbb cecb 8c3d 2015 133d
000001f0: 37c9 71bd c473 123d c077 6d3d 05eb da3d
00000200: 3c01 113d 72a1 98be da2b 053e b271 cfbc
00000210: c0a3 cb3b e53c 873d 1e8d 203d d9ff 523d
00000220: 7b0e 893d 183b 6fbe 429b 4e3d e019 89bd
00000230: 64d1 6dbc 2147 e1bd 7853 df3d 2fab 66bc
00000240: 981f 72ba 8e96 693c 628e 8b3d 6d8d f0bc
00000250: 75e4 1b3d ac62 d13d 5f6f 99bd 72c3 a4bd
00000260: 16c0 e33d acbd 97bd e269 13bd 0e9e 953c
00000270: 74f9 50be 4811 463d 889b 303b 45cc 843c
00000280: fc53 c53c 755c 5f3b a405 c1b9 4326 c33d
00000290: 8291 ee3d f562 d63d 1e6f a13d e5bb b5bc
000002a0: ae5e dcbc 6e2f ae3d db20 01be a359 343b
000002b0: 57b6 ef3c be2f 0e3e 2acc 07bd f2a2 fabc
000002c0: a7ab 963d 0ebc 0fbe f761 923d 9934 33bc
000002d0: c247 f23d 3b12 8e3c 53eb bd3c e8b3 7fbc
000002e0: 9849 15bd 656c 473d d950 1bbe 8b91 0abd
000002f0: 20e0 7ebc 1746 3fbe ff28 30be d673 b23d
00000300: b0e1 ee3d 49eb efbc 4cf6 8b3d 7e77 583d
00000310: d7cf bc3c 7ce1 5fbc 0fc7 87bd 264e 073e
00000320: aadd 143e e6d7 8abd 2d70 bd3d 49df 163e
00000330: 6499 de3d b6ed ac3b a38c abbb 95da 9a3d
00000340: 3567 9f3d f589 353c 7b8c 97bd 9de2 a03c
00000350: 7db5 9d3d 4f31 013d aa79 d13d 502a 0dbe
00000360: 09e4 a23d 1c4c fc3c 3fbe 16be 21e8 0f3e
00000370: 2f20 123c 06f1 68bc 34c3 ca3d 92c5 cb3d
00000380: 9f65 d03c 696f 803d 93f1 93bd 9fcd da3c
00000390: 9aaa 303c 205a c43d 230d f33d 21fd 5e3c
000003a0: af3b 46be 379e 40bb f5ec fdbc 7949 57bd
000003b0: f5ed 873c 8fbb 4b3e 1e5e 25bc 824d 903d
000003c0: 4139 b03d f806 d93d 1006 6bbd 73c7 973d
000003d0: d97e 043e 27f7 cabd 863a 823d 8742 3b3b
000003e0: 7dfe 1ebc b66e d93d a018 523d 4d67 62bd
000003f0: 6c92 283d ead4 7f3d 8c51 f93c c7ad d0bb
-0.12157324 -0.007021894 -0.04031968 0.03225447 -0.07516444 0.001010754 -0.05345947 -0.013767425
0.09352237 0.07260475 0.021748243 0.07221951 0.022103885 -0.09824936 -0.038811326 -0.008595189
0.08050802 0.03422743 0.06686484 -0.033265494 0.00429936 -0.040110342 -0.04697436 0.059926823
-0.011439824 -0.025293596 -0.03651063 0.100274056 -0.06024969 -0.019345272 -0.07542679 0.013330086
0.038613416 -0.069537066 -0.0066647255 -0.027668102 -0.10887713 -0.039100904 -0.023966879 -0.013342259
-0.009904615 -0.100654446 0.099801496 0.020360025 -0.017673243 -1.4777891e-05 -0.08978458 0.1074638
-0.01823651 -0.068113014 0.11065907 -0.12619977 -0.07598166 -0.09653662 -0.09705036 -0.09813937
-0.105529465 -0.028752763 -0.021632204 0.042751912 -0.0054134415 -0.058930226 0.17920874 -0.1116915
0.0031255588 -0.022896817 -0.021277964 -0.04068476 -0.019120999 0.13668607 0.032012526 0.01441462
0.030244298 -0.04830866 -0.021558808 0.0034063463 -0.00395932 0.18145618 0.02307614 0.038076155
-0.03950011 -0.10058087 0.076443516 -0.017369991 0.030892251 -0.021790858 0.004842152 0.06326897
0.017870529 -0.080364145 0.08734313 -0.06411714 -0.039637282 -0.07400008 0.030704577 -0.095604286
0.00970175 -0.11665301 0.075344495 0.014314475 -0.027606046 0.027319396 -0.107804544 -0.0003886623
0.09434961 -0.07280442 0.116132915 -0.020529214 -0.016534843 -0.08517319 -0.014928521 0.03084637
0.022947665 0.016180381 0.045368403 -0.120081365 0.023289733 0.04195235 -0.07810055 -0.06078978
0.02826894 -0.0062531955 0.0687481 0.03590882 -0.059029784 0.035754934 0.05797553 0.10689358
0.035401568 -0.29810673 0.1300501 -0.025322769 0.006214589 0.066034116 0.03919708 0.051513527
0.06692215 -0.23362386 0.050441034 -0.066943884 -0.014515255 -0.10999895 0.10904592 -0.014078899
-0.0009236275 0.014257086 0.06814267 -0.029364312 0.03805967 0.10223898 -0.074919455 -0.08045091
0.11120622 -0.07409224 -0.03598965 0.018263843 -0.20407659 0.048356324 0.0026948173 0.016210685
0.024087898 0.0034082208 -0.0003681603 0.09528782 0.11648847 0.10468093 0.07882522 -0.022184322
-0.026900616 0.0850514 -0.1261019 0.0027519248 0.029261751 0.138854 -0.03315369 -0.030595277
0.07356959 -0.14036581 0.071475916 -0.010937833 0.11830093 0.017342677 0.0231835 -0.015606858
-0.036447138 0.048687357 -0.1516756 -0.033830207 -0.015556365 -0.18679081 -0.17203139 0.087135
0.1166414 -0.029286997 0.06834087 0.05284833 0.023048325 -0.0136645995 -0.06629764 0.13213405
0.14537683 -0.067794606 0.092499115 0.14733614 0.10869101 0.005277361 -0.005235271 0.075612225
0.07783357 0.011080255 -0.073998414 0.019639308 0.07700632 0.031541165 0.10228284 -0.13785672
0.079536505 0.03079801 -0.1472101 0.14053394 0.008918806 -0.014217621 0.09900513 0.09949793
0.025439082 0.0627125 -0.07223811 0.026709376 0.010782862 0.095875025 0.1186774 0.013610155
-0.19358705 -0.0029391178 -0.030996779 -0.052560303 0.016592959 0.19895767 -0.01009324 0.070460334
0.0860467 0.10597032 -0.05737883 0.07411089 0.12939014 -0.09910422 0.06358819 0.002857359
-0.009704229 0.106168196 0.051293015 -0.055274297 0.041155264 0.06245891 0.030434392 -0.006368372

base.mlp.fc.3.bias f4 [128]
00000000: 827f d43d 7918 a2bc 9a65 223d e70d 03be
00000010: fedf 8e3d 6882 103d cfdb 683d f53d 83bd
00000020: 709a b0bc aff3 82bd 5c76 643d 0d04 cd3d
00000030: 4e43 12bd 00c0 083d ea73 0d3d 1e0f a0bd
00000040: e3a5 493d 7a68 073d 7b9a f5bc c046 b7bc
00000050: 4fa2 983c 6d85 083d e089 9abd 2e05 403d
00000060: 21a7 843b c08f 0d3d 64c0 ce3c a810 f53c
00000070: fe40 033e 5ade a1bb d1dd 5f3c e8c4 923c
00000080: c80c c6bd 32ea 293d 60eb ebbd 7db0 a8bd
00000090: 3e69 aebd c688 b5bd 60c5 a4bd 9afe 393d
000000a0: 1968 57bc de79 9abd d3b0 c7bd d371 62bd
000000b0: e8c3 88bc 693f 4339 f543 8bbd c597 18b7
000000c0: 87b8 ccbb 99d0 a63d 2768 1cbb d805 9dbd
000000d0: 173e c03d e4a6 77bd 1468 e1bd e541 51bd
000000e0: cb2b 723d 87aa 553b 6ad4 243d 2dfc 2c3d
000000f0: 65d5 87bc 1758 d63c c852 733d 6bb4 be3b
00000100: ef38 b5bd 17f8 fcbc 6817 1ebb 1244 4a3b
00000110: d07f d73c 4098 ae3c 6563 0fbd 3d31 603d
00000120: 7d0a 2a3c 6166 a4bc 8421 ebbc 1508 96bc
00000130: 1317 32bd 9919 59bd ecb8 e53c de64 59bd
00000140: 4e9d 973d 7c1b 8d3d 9477 c7bd 2004 753d
00000150: 88b3 7a3c 3238 26bd cb8d 093d 01a2 b9bd
00000160: 6c0d 8dbd d7cc c9bd acaf 223d 4c06 95b8
00000170: 07bb 5fbd deff 63bb ca6f 3cbd ccf9 493d
00000180: 6dd2 f63c a221 cf3c 1bb8 85bc d68e 093c
00000190: e15e 2fbd e1ce 86bd 29e5 f93d 5515 02bc
000001a0: f8ad 96bd 05d0 413d 2037 f23b f60f c2bd
000001b0: 7356 493d 7a9b 83bb 9c4a 82bd dc91 253d
000001c0: cd39 683d 7ada ddbd 6d93 e8bb e1c3 ef3d
000001d0: 3543 94bd fd5c 963b 3075 aabd 097e bb3d
000001e0: f9e0 6ebd 5f9a 553b 1ce5 633d cd81 6dbc
000001f0: 468b 2bbc d979 f3ba d182 603c 5e04 68bd
0.10375883 -0.01978706 0.039647676 -0.12798272 0.06976317 0.035280615 0.05685025 -0.06408302
-0.021558017 -0.06394135 0.05577694 0.10010538 -0.035708718 0.03338623 0.034534372 -0.078153834
0.049230468 0.03305862 -0.029980889 -0.022372603 0.018632082 0.03333037 -0.07545829 0.04687994
0.0040482436 0.03456092 0.025238223 0.029915169 0.12817761 -0.0049398364 0.013663725 0.017916158
-0.096704066 0.04148311 -0.115195036 -0.082367875 -0.08516167 -0.08863978 -0.08045459 0.045408823
-0.013147377 -0.075427756 -0.097505234 -0.055284332 -0.016694978 0.00018620271 -0.06800071 -9.095243e-06
-0.0062475833 0.081452556 -0.002386579 -0.0766713 0.09386843 -0.060461894 -0.110061795 -0.051088233
0.059123795 0.0032602863 0.040241636 0.04223268 -0.016581247 0.026165051 0.05940512 0.0058198473
-0.0884875 -0.030880017 -0.0024122838 0.0030863327 0.026306063 0.021312833 -0.0350069 0.054734457
0.010378477 -0.02006835 -0.028702505 -0.0183144 -0.043479037 -0.053002927 0.02804228 -0.05307471
0.0740305 0.06890008 -0.097396046 0.059818387 0.015301593 -0.040580936 0.03358249 -0.09064103
-0.06887326 -0.09853523 0.039718315 -7.1060465e-05 -0.054621723 -0.003478996 -0.046005048 0.04931049
0.030129636 0.025284592 -0.01632314 0.008395871 -0.042815093 -0.06582428 0.12201912 -0.007939656
-0.07357401 0.047317524 0.0073918253 -0.094757006 0.04915471 -0.004016337 -0.06361887 0.040422305
0.056695748 -0.10832687 -0.0070976526 0.11707283 -0.07239381 0.004588722 -0.08323133 0.09154899
-0.05832002 0.0032593233 0.055638418 -0.014496279 -0.010470217 -0.0018575742 0.013703064 -0.05664479

base.mlp.fc.5.weight f4 [128]
00000000: 1fa0 823f e26b 843f 71eb 843f b15b 773f
00000010: 3c3d 8c3f b626 883f 5484 853f db10 873f
00000020: 879b 913f 64a4 8d3f c32b 853f bb4e 843f
00000030: 91b1 763f 53c4 713f 1e34 863f c437 863f
00000040: 611e 8d3f bd32 863f 67d5 833f 82b4 8a3f
00000050: 6c78 893f 8ba6 833f 269c 8d3f 7a30 953f
00000060: a80a 643f 05a7 893f e053 703f b3ea 823f
00000070: 9fdc 883f b584 8b3f cd2c 893f 0998 7d3f
00000080: 568e 913f 65aa 823f 30e2 6c3f bb39 943f
00000090: 7825 913f 198a 783f 8351 673f 3e7f 8d3f
000000a0: 5bb3 8e3f 1b70 593f 9e75 883f 08a7 803f
000000b0: 1dc7 803f f9c3 603f 319b 653f be15 913f
000000c0: 8abe 703f 66a6 8b3f 50cc 853f 1e0a 833f
000000d0: c240 8b3f 9c01 8a3f 21d3 6c3f c5a0 993f
000000e0: dc02 8f3f 2091 733f 4e15 803f db4f 6c3f
000000f0: d9bd 873f 71cb 633f 1a8e 823f e847 6f3f
00000100: e459 6e3f ea0f 8b3f afae 823f 9498 8e3f
00000110: 1b68 823f 27e2 6f3f 8ac5 8d3f 6042 7f3f
00000120: 5943 843f 53f7 7c3f 2309 813f 8fed 883f
00000130: b47b 8b3f a2d7 853f a813 8c3f 37bb 7d3f
00000140: 23b0 873f cd23 953f ce4c 723f a478 843f
00000150: 535b 853f 71df 723f 530f 7f3f 234a 823f
00000160: e9b9 503f 37fb 893f 7016 8d3f 8328 823f
00000170: 8406 7f3f 7e56 913f 65f8 833f 2487 713f
00000180: 9221 883f d322 803f 7d8c 793f 6e8a 783f
00000190: a399 853f aad6 803f 4cd6 8f3f ed17 873f
000001a0: d33d 763f bf86 8d3f d560 713f 62d5 6f3f
000001b0: d0cc 7d3f e0ca 903f 99d7 8f3f 1646 923f
000001c0: aa8d 913f 164d 6b3f 9651 853f b4a9 993f
000001d0: 5ba0 873f 89f5 763f bbef 833f 75f4 8c3f
000001e0: 20c1 743f cf4f 673f 18c6 8f3f 4a4e 793f
000001f0: 08a4 8a3f 0dba 793f 1c52 8e3f 943c 7c3f
1.0205115 1.0345423 1.0384351 0.96624285 1.0956187 1.0636814 1.0431008 1.0552019
1.1375588 1.1065793 1.040398 1.0336527 0.96364695 0.9444019 1.0484655 1.0485768
1.1024896 1.0484234 1.02995 1.0836337 1.0739875 1.02852 1.1063278 1.1655419
0.8907876 1.0754095 0.93877983 1.0227875 1.0692328 1.0899874 1.0716797 0.9906011
1.1371562 1.020825 0.92532635 1.1580118 1.133956 0.9708572 0.9035875 1.1054456
1.1148485 0.84936684 1.0660894 1.0050974 1.0060765 0.8779903 0.8968993 1.133476
0.9404074 1.0910156 1.0452976 1.0237463 1.0879138 1.0781741 0.9250966 1.2002188
1.1172748 0.9514332 1.0006502 0.9230935 1.0604812 0.889823 1.0199616 0.93469095
0.9310591 1.0864232 1.0209559 1.1140313 1.018802 0.93704456 1.1075909 0.99710655
1.0333053 0.98814887 1.0080913 1.0697497 1.0897126 1.0456431 1.0943499 0.9911379
1.0600628 1.165155 0.94648445 1.0349317 1.0418495 0.94872195 0.9963276 1.0178875
0.81533676 1.077979 1.1022472 1.0168613 0.9961932 1.135452 1.0310179 0.94346833
1.0635245 1.0010628 0.97479993 0.97086227 1.0437511 1.006551 1.1237273 1.0554177
0.96188086 1.1056746 0.9428838 0.9368497 0.99140644 1.1311913 1.123767 1.1427639
1.1371357 0.919145 1.0415523 1.2004914 1.0595812 0.96468407 1.0307535 1.1012102
0.95607185 0.90356153 1.1232328 0.97385085 1.0831308 0.97549516 1.1118808 0.98529935

base.mlp.fc.5.bias f4 [128]
00000000: 69ae 623d c404 07bd 0100 f63c b59b c5bb
00000010: 6a02 f1bd 7667 9abd e8f4 4dbd 3ef0 7fbd
00000020: 05f7 313e 1911 f8bd 8165 3abd fb3f 7ebd
00000030: fc79 663b da38 f9bc 2a92 2b3d 31a8 68bd
00000040: 90c5 ff3d 26cb 78bb d3ff 6abc 762e 8c3d
00000050: 33e1 e3bc a639 3ebd c7fe f0bd dfba 2fbe
00000060: bd0f dc3d 35fd 2ebd 9e6f ab3c 1d8c 8cbd
00000070: 6cb1 d33d 3ed4 bbbc 58d2 99bd 39dc 943c
00000080: d9b8 0fbe 854e cebc 204b 913d dc0b 463d
00000090: df54 46bd de2e 8d3c 56ef 933c c319 d1bd
000000a0: 2f28 ed3d 7a27 043e 6284 84bd 3176 82bc
000000b0: e5a4 8bbc 87ce 783d 246c 7dbd f80c 0abe
000000c0: 87be e53d adf2 353d 3150 d9bd 8d4f 513d
000000d0: 546f b53d 8722 e8bd ca9b 6d3d 8919 68bd
000000e0: 3344 ec3d 7400 213d 59c7 b73a 4c86 943d
000000f0: 733c 11bd 2463 813d f021 58bd e8ce 813d
00000100: 1f11 463d 3b94 babd 0cc6 60bd 22bf cc3c
00000110: ce43 78bc 8699 323d a33f 953d bcb3 a43b
00000120: 9f79 2ebd e092 8d3c 92f4 2bbc f034 a0bd
00000130: 8305 cfbd 58e2 40bd 8fe0 00bd ee0e 2d3c
00000140: e35e 71bd a6c4 183e f46e da3c 48b9 cfbc
00000150: 75a3 2dbd 8b2b 093d 8840 fabb 3b3f 86bc
00000160: 1eb4 3a3e ff3d d6bd b395 e23c 8cd0 573d
00000170: f275 05bc 33b3 273d afe5 d2bc a982 463d
00000180: eea1 183d 4d78 0e3d ad29 953b e226 cb3c
00000190: 8775 ebbc 7551 87bc 39e6 d53d a3a1 45bc
000001a0: 4070 e43c f800 503d be98 173c 073b 29bd
000001b0: 7504 f73d 4e2f 913c 373e 05be 795d 14be
000001c0: 9646 db3d d67d a63d 0832 9ebd 381f 113e
000001d0: c166 92bd c968 03bc 3332 66bd 4a99 f9ba
000001e0: 77d7 173c 04cc 123d 6cd0 f3bc 9c91 953c
000001f0: fb5a fbbc b8a3 10bd 1df7 11be 4b52 ef3b
0.05534211 -0.03296353 0.030029299 -0.0060305246 -0.117680386 -0.07539265 -0.05028239 -0.062484972
0.17379387 -0.12112636 -0.045506958 -0.062072735 0.0035167923 -0.030422617 0.04188744 -0.056801025
0.12488854 -0.0037962883 -0.01434322 0.06844799 -0.027817344 -0.046441697 -0.11767345 -0.1716113
0.10745189 -0.042721946 0.020927247 -0.06862662 0.10336575 -0.022928353 -0.07510823 0.018171417
-0.14035358 -0.025183925 0.07094407 0.048351154 -0.048420783 0.017234262 0.01805846 -0.10209992
0.1157993 0.12905684 -0.064705625 -0.015925499 -0.017046401 0.060743835 -0.06187071 -0.1348151
0.11217981 0.044420887 -0.106109984 0.051101256 0.08859125 -0.113347106 0.0580099 -0.056664977
0.115364455 0.039307073 0.0014021202 0.072521776 -0.03545804 0.06317738 -0.05276674 0.06338292
0.04835617 -0.09110304 -0.054876372 0.024993483 -0.015152885 0.043603443 0.07287528 0.005026309
-0.042596456 0.01728195 -0.010495322 -0.07822597 -0.10108473 -0.04709086 -0.031464156 0.010562642
-0.05892838 0.14918765 0.026664235 -0.025356904 -0.042392213 0.03348879 -0.0076370873 -0.016387573
0.18232772 -0.104610436 0.027659273 0.05268912 -0.008145796 0.040942382 -0.025744287 0.04846445
0.037263803 0.034782697 0.0045520873 0.024798814 -0.028742565 -0.016518334 0.10444302 -0.012062463
0.027885556 0.050782174 0.009252725 -0.04131606 0.12061397 0.017722752 -0.13012014 -0.14488782
0.107068226 0.0812947 -0.077243865 0.14172065 -0.07148505 -0.008020588 -0.056200217 -0.0019042876
0.009267679 0.035839096 -0.02976247 0.018257909 -0.030683031 -0.035312384 -0.14254422 0.0073035113

rnn.gru.weight_ih_l0 f4 [384, 128]
00000000: 6d4d 9a3d c000 813d c3f0 b4bd 2c64 483c
00000010: 191d 483c 84c4 abbd 8de3 0a3b e550 aabd
00000020: dbee 3abd 636e 8b3d 8301 0f3d 997d 833c
00000030: 3539 fb3d bdb7 a9bb 6750 cdbc 17ab 87bc
00000040: d0a5 3c3d 43be 44bd 534b 94bd ba77 613e
00000050: a709 04be f8c6 bd3c 581e da3c d04e 4fbd
00000060: ca18 3f3d 7461 8c3c f976 06bd d7d7 88bd
00000070: afb3 ba3d cdc7 63bd 1def bf3c 114d e7bb
00000080: f472 0b3d af81 513c 1a66 38bd 00ad 5f3d
00000090: 4d6b 8bba acf8 263c cfbd 11bd bee4 bb3c
000000a0: 9c3e 953c 0175 d2bd 38bb 543d ae71 8dbd
000000b0: 3f25 f63c eeca 923d ccd0 22be e367 403d
000000c0: b527 7a3c 86b7 edbd b931 83bd 3558 8a3c
000000d0: 01c0 523d cf62 7cbc cb4a c03c db86 e1bb
000000e0: 0c0e f53d 19bf 773c d9d5 a8bd 37df e2bc
000000f0: 9e68 c2bd d358 2f3e f734 53be 6749 233d
00000100: c43f a43d 5e06 e8bc 70ee c0bd c3ea 053e
00000110: b8fd c23c c548 c3bd d195 5d3e d106 8fbc
00000120: eb7e 96bd 2c53 f63b 85d9 183d 23fa 15bc
00000130: 4675 94bd a236 6fbd 5f22 98bc 6036 213d
00000140: 4216 aa3a e86e 213d acd8 f7bb 4f2b 77bd
00000150: 5d3a f93c 9360 083e 7005 e33c b17d 893d
00000160: c8b9 59bd 2a40 ea3d 02ae a4bd 43a9 5f3d
00000170: c45c f0bc c4b6 8d3c 283f cfbc b5fc f9bb
00000180: 7fd2 2f3e c923 48bd 0b1a a1bc aaaf 87bd
00000190: fa6a ec3d 1c61 223d 4a30 22bd 4b4b a3bd
000001a0: b6a1 843d 690e 8e3d 17ed ae3d 3d09 f3bc
000001b0: a3d4 49be 72bf 83bd e9f3 98bd 3619 52bd
000001c0: e1ee 423d 8814 6cbd 4b2d 38bd 186a 1f3d
000001d0: 0822 f5bc 76d2 5cbd d9ef 073e 7cb8 4f3d
000001e0: cbe5 bcbc f247 183d 78d6 1abe c11f ccbc
000001f0: c9cb 49be 6d4c 823d 3a06 90bd 54aa 473d
00000200: bed6 1bbe 3fb1 da3b 66a4 febc dc9a 6abd
00000210: 63fd c83d 4cba 023e e818 5a3e 86bd 4d3d
00000220: 6603 68bd 0e23 3c3e e3cc da3d fd13 4fbd
00000230: 6cef a23d 4953 2ebd 4939 453d 5d66 bb3d
00000240: 48ae 11bd 1a2f c7bd 68b6 303d 9fd7 0cbd
00000250: 469c b4bc 0578 613d 995f a63d d122 8d3d
00000260: ba4b 823d b2a8 6d3d b313 583e af99 433d
00000270: e4f9 913c 8cd1 043d e2e3 333e 7513 df3d
00000280: 825b ae3d 065b 283e ded1 4f3e a2a3 ad3d
00000290: f320 fabb 1cf8 403e 752b b83d 3562 ac3d
000002a0: d43b 40bd 9f07 bf3d cbb1 4c3e 557a 113e
000002b0: f120 483e a0de 153e ba88 ec3d ac9c 323e
000002c0: 3492 b53d 8812 efbd 4bd2 143e 2adf c83d
000002d0: 9f57 4d3b 05ab 033e 0175 483e a503 3bbd
000002e0: e47b 36bb f4c4 b83d 7056 853d 18b1 4a3e
000002f0: dfff 8dbd 0af9 1a3d 5381 8a3d 53f6 403e
00000300: 720e 223e 706a 7e3d 9302 883d 013d dfbd
00000310: a5a9 173e 623d 203d 0853 e4bd 3327 283d
00000320: 6902 013e 6d6e 553e 006b 1d3e 8bcd 0b3e
00000330: 057b 263e bc2e 903d cd38 8ebd 7f6d 493e
00000340: 8678 ccbd dbda 63be 3824 c13d 5312 703a
00000350: 853d e63d e7b3 7d3c 5b1e 0a3e 3477 183e
00000360: 7b45 1e3e 8965 0c3b 4be2 96bd f869 453e
00000370: 49de 4a3e d8a9 7abe b52b 0a3b 1857 963d
00000380: a65d edbd f2ff 0ebe e4e7 3f3e efd3 8e3d
00000390: c4e4 163d ae04 073e 492c 403b 49b7 95bc
000003a0: 7be7 123e 6ef2 87be e627 a83d da3c 813d
000003b0: 9b43 8dbd b1e5 bf3d 19ec 343d 1ff2 af3d
000003c0: 8098 83bd 763a dc3d b196 d43d 30ea ecbd
000003d0: c677 3e3e 7e2d 57bd 02f6 153e a070 21bd
000003e0: 47c0 13be 1ca2 5d3c 2e85 b83c c170 133e
000003f0: d1c5 ed3d 5910 0c3b f62b c83d 52cd 3f3e
0.07534299 0.06298971 -0.08834984 0.012230914 0.012213969 -0.08387092 0.002119276 -0.08316211
-0.045637947 0.06808164 0.03491355 0.0160511 0.12266771 -0.005179374 -0.025062753 -0.016561074
0.04605657 -0.04803301 -0.072409295 0.22018328 -0.12894307 0.023166165 0.026625797 -0.05061227
0.0466545 0.017136313 -0.032828305 -0.06681793 0.09116303 -0.055610467 0.023429448 -0.0070587476
0.034045175 0.012787267 -0.045019247 0.054608345 -0.0010636837 0.010191124 -0.035581406 0.022936221
0.018218331 -0.10276223 0.05193636 -0.06906448 0.030047057 0.07167612 -0.15899962 0.046974074
0.015268256 -0.1160727 -0.06405968 0.016887764 0.05145264 -0.015404417 0.023473164 -0.006882531
0.1196557 0.015121245 -0.08243913 -0.027694328 -0.094926104 0.17123728 -0.20625673 0.039864924
0.08019975 -0.028323349 -0.09420478 0.13077836 0.023802623 -0.09535364 0.21639182 -0.017459305
-0.073484264 0.007517239 0.037316818 -0.0091538755 -0.07248931 -0.05840171 -0.018571077 0.039358497
0.0012976604 0.03941241 -0.007563671 -0.060344037 0.030423338 0.1331809 0.027712554 0.06713427
-0.05315569 0.114380196 -0.08041002 0.05460478 -0.02934111 0.017299064 -0.02529867 -0.007629002
0.17170142 -0.048862252 -0.019665739 -0.06625302 0.11543842 0.039643392 -0.039596833 -0.07973345
0.064761564 0.06936342 0.08541315 -0.029667491 -0.1971002 -0.06433 -0.07468397 -0.051293574
0.047591094 -0.057636768 -0.04496507 0.03891954 -0.029923454 -0.05391165 0.13275088 0.050713047
-0.023058793 0.037177987 -0.15120876 -0.024917485 -0.19706644 0.06362233 -0.070324376 0.048746422
-0.15218636 0.0066739614 -0.03108425 -0.05727659 0.09813955 0.12766379 0.21298563 0.05022957
-0.056643866 0.18372747 0.1068361 -0.05055617 0.07955822 -0.042559896 0.048150335 0.091503836
-0.0355666 -0.09725781 0.043142706 -0.03438532 -0.022047173 0.0550461 0.081237026 0.06891406
0.063621 0.05802221 0.21101265 0.047753986 0.017819352 0.032426402 0.17567399 0.10892383
0.085135475 0.16440973 0.20294902 0.08478476 -0.0076333224 0.18844646 0.08992664 0.08417169
-0.046932057 0.093276255 0.19989698 0.14206822 0.19543816 0.14635706 0.11549516 0.17442578
0.08865777 -0.116734564 0.14533345 0.0980819 0.0031332744 0.12858208 0.19575883 -0.045657773
-0.002784484 0.09021941 0.06510627 0.19794118 -0.06933569 0.03783516 0.06762948 0.18843965
0.15825823 0.062113225 0.06641116 -0.109003074 0.14810808 0.03912104 -0.111486495 0.04105301
0.12598576 0.20842905 0.15372849 0.13652627 0.16257866 0.07040164 -0.06944428 0.19670676
-0.099839255 -0.22251455 0.09430736 0.0009158004 0.11242203 0.015484787 0.13488142 0.14889222
0.15456192 0.0021422824 -0.07367381 0.19278705 0.19811358 -0.24478853 0.002108318 0.073408306
-0.11590128 -0.13964823 0.18740803 0.06974017 0.03683926 0.13185379 0.002932327 -0.018275874
0.14346115 -0.26552147 0.08210735 0.06310435 -0.0689766 0.09369982 0.044170473 0.08591103
-0.064255714 0.10753338 0.103803046 -0.11568105 0.18600377 -0.05253362 0.14644626 -0.03941405
-0.14428817 0.013527419 0.022524443 0.14398481 0.11609996 0.0021372049 0.0977401 0.18730667

rnn.gru.weight_hh_l0 f4 [384, 128]
00000000: 3860 a9bd c80c 8cbd 8f05 afbc 1f20 863d
00000010: b5f0 bcbb b56d 6f3c b4f4 803d 4e83 2c3d
00000020: c1ac 1cbd 0a7a 17bd 9759 4d3d e67f 973d
00000030: 07c0 333d 389b 09bd d9bb ab3c 8b84 1e3d
00000040: 751f be3c 0dff 533d 4bd0 b1bc bffe 2bbb
00000050: f9c6 bbbc 4f7f ed3c 568a 9cbb aecd 2b3d
00000060: 05c2 ddbd 759b 15bd ebef 313e 1fb1 d83d
00000070: 5c99 b1bc ecb5 1c3d 5fca 0bbe d501 fe3d
00000080: ae7d b23d 2a98 503d c777 433d 65ac 0a3d
00000090: a2d7 fdbd 60a6 dc3d 3456 133d 5f9c ebbc
000000a0: afed 84bd b9ad 48bc 375a c73d 0f75 c43d
000000b0: b07f 39be f3ea ed3c 02ae dbbd 3e49 d0bd
000000c0: 48c0 8cbc 4f1b ad3d ad5f cfbd 4f89 103d
000000d0: 25d5 e0bc e919 063e 57bb 6bbd d7c1 383c
000000e0: b375 8abd 8e8b 2fbd d87c d8bd 1525 eb3c
000000f0: c64f 27bd 2c1a ffbd 9fc1 153d 1daf dabd
00000100: 29bf 0ebe b3b1 4bbd fb4f 763d 1446 b9bd
00000110: 3b2f c93d 5dfc ab3d 39e0 b03d b49c f1bd
00000120: 160b a7bd c011 853d c3ee a13d 7464 a7bd
00000130: 073f dfbc bb18 d43d aefc 3cbd b585 c83d
00000140: 3b55 253e 3aaa d3bd d45a 1abd b57f f23b
00000150: eedc c43d 430a d9bc 76c5 3e3e 2281 edbd
00000160: ec1a 313d 7b5b ebbd f142 a3bc e247 16be
00000170: a4a7 cc3d eaaf 183d a341 bf3c 3a2a c33c
00000180: 5f3d 8f3d 076c d43c 8f13 523d ebd7 bd3d
00000190: 4579 46bd d99e 803d 6e85 6ebd 9a8b b4bc
000001a0: 8ea7 a2bd 4477 383e 09a1 443d 4eab 66bd
000001b0: 612d 59bd 6cb6 f13d 1e20 fcbc 171f d93c
000001c0: 3a32 243c e48b 93bd 82c2 dfbd ae5d 9cbd
000001d0: 49e6 86bc ba15 a93d 133d d7bc 69a9 e9b9
000001e0: d1d1 cc3d d9b1 7fbb c3b8 30be 51dd 41bd
000001f0: 3796 fb3d ae06 fcbd a3fa c7bd abf8 81bd
00000200: 0b2b 06bd 9131 06be 307e b23c af4b a8bd
00000210: d714 d8bd fc3c 25be abdc acbd c6d0 e23d
00000220: fa1a 823d 48a2 8e3c 7ecd fbbd 20b6 fb3c
00000230: 22e0 c43c 56a1 a53d 3f0f 26bd 4f0b b13d
00000240: a0ef 1ebc 22ee ca3d 1d43 133e 817d 37be
00000250: a05d 0c3e 1030 1abe cc51 393d 5f38 1cbe
00000260: ff5e 753d 73cf 273d 944c bcba 5557 9c3d
00000270: 7292 1c3d 201f 17bd 8110 003e 11b2 b43d
00000280: f44d 1ebe 6809 1bbd 1c34 2f3d cd0b 463e
00000290: b315 213d f0ad 19bd 6dcd 863c cc7e 60bd
000002a0: 2a8c 39be e074 61be 7ee1 84bd 5424 9bbe
000002b0: ef6a 593d 7e2f ecbd 99fe 25bd 8c98 873d
000002c0: f3d6 0f3e b010 27be 8f70 da3d 98ca e9bd
000002d0: 0a8d 18bc 91b3 673d ee32 ed3c c8d1 dabd
000002e0: 088b f13b 6076 ba3d 7397 61bc de76 a2bc
000002f0: c62b 8d3d 0701 953c b966 79bd 55b9 ca3d
00000300: 08a1 b93d 0f9b 373e 451b ac3c ee68 0b3d
00000310: ca17 43bd c752 3b3d 657f e5bd d9df 6c3c
00000320: 6e06 f9bd a8e5 4e3e db86 953c 6746 84bc
00000330: 3e1c 2abd 9e11 933c f065 2cbd 3975 cd3b
00000340: e146 ad3b 883a e8bc 0bed 80bd ac90 e2bc
00000350: 3f92 8abd ed60 913d 18d1 94bc 031c 28be
00000360: 5c74 3b3c 7b15 11be 0bb5 813d cedb e43c
00000370: b558 81bd c3f2 d73d 3b00 fe3c eca3 223d
00000380: 53fb 5dbc 5b4a 14be e2ad 0d3e c24f e33c
00000390: fec1 1bbd 27ec c3bd bcdf 52bd 635a 7cbd
000003a0: ea62 143d 88e7 d93d 9545 1bbd 2b18 da3d
000003b0: 7843 01bd d0fc 053d 7513 233e 2b54 043e
000003c0: 80ee f4bb 83f9 03be 6a72 7bbd a3a4 2b3d
000003d0: 6f1e 03bc c72f 1c3e ad6d bc3c f56f 83bd
000003e0: 890e 673d bd8e db3d d0a8 303d 65be d3bc
000003f0: 6271 07be f22c 02be 6d82 df3c 65bb 113e
-0.082703054 -0.06838375 -0.021364955 0.06549095 -0.005765999 0.014613559 0.062966734 0.04211741
-0.03825069 -0.03698162 0.050134268 0.073974416 0.043884303 -0.033595294 0.020963596 0.03870062
0.02320836 0.051756907 -0.021705767 -0.002624437 -0.022922026 0.02899137 -0.004777233 0.0419442
-0.10828022 -0.03652521 0.17376678 0.10580658 -0.021679573 0.03825943 -0.13651417 0.12402693
0.08715378 0.050926365 0.04772165 0.033855814 -0.12394644 0.10773921 0.03597088 -0.028761087
-0.06490647 -0.01224845 0.09734004 0.0959264 -0.18115115 0.029042697 -0.10726549 -0.1017022
-0.01718153 0.08452474 -0.101256706 0.035287198 -0.027445385 0.13095821 -0.057551708 0.011276684
-0.067607306 -0.0428577 -0.10570687 0.028704206 -0.040847562 -0.12456164 0.036561605 -0.106779315
-0.1394011 -0.049730014 0.06013487 -0.090465695 0.098234616 0.08397744 0.08636517 -0.11797467
-0.08156411 0.06497526 0.07906868 -0.08173457 -0.027251733 0.103562795 -0.04613941 0.097911276
0.16145794 -0.103352025 -0.037684277 0.007400478 0.096124515 -0.026494151 0.18630013 -0.11596896
0.043238565 -0.11492058 -0.019929381 -0.14675859 0.099929124 0.03727714 0.023346728 0.023823846
0.069941275 0.025930418 0.051288184 0.09269699 -0.048455495 0.06280298 -0.058232717 -0.022039223
-0.07942115 0.18014246 0.048005138 -0.056315713 -0.053021792 0.11802372 -0.030777033 0.026504083
0.010021741 -0.072044164 -0.10925771 -0.076350555 -0.01646723 0.08256097 -0.02627424 -0.00044567444
0.10000957 -0.0039015918 -0.17257981 -0.047330204 0.122845106 -0.123059615 -0.09764602 -0.06346258
-0.032755893 -0.13104846 0.021788687 -0.082175605 -0.1055085 -0.16136545 -0.084405266 0.110749766
0.063528016 0.017411366 -0.12295054 0.030726492 0.024032656 0.08087413 -0.040541884 0.08644735
-0.009700686 0.099087015 0.1438107 -0.1791897 0.1370759 -0.15057397 0.045244023 -0.15255879
0.05990505 0.040969323 -0.0014366084 0.07633845 0.0382256 -0.036894917 0.12506296 0.08823026
-0.15459424 -0.037850767 0.042774305 0.19340439 0.039327335 -0.037519395 0.016455377 -0.054808423
-0.18119875 -0.2201724 -0.06488322 -0.30301154 0.053080495 -0.11532496 -0.040526006 0.06620893
0.1404684 -0.1631496 0.10666 -0.11415595 -0.00931097 0.056567732 0.02895495 -0.10684544
0.00737131 0.091046095 -0.013769018 -0.01983207 0.06893115 0.018188966 -0.06088898 0.098986305
0.090639174 0.17930244 0.021009097 0.034035616 -0.04763011 0.04573324 -0.11205939 0.014457666
-0.121594295 0.20204794 0.01825278 -0.016146852 -0.04153084 0.017952736 -0.042089403 0.0062700775
0.0052879904 -0.028348222 -0.06295212 -0.027656876 -0.067661755 0.07098565 -0.01816611 -0.16416936
0.011441316 -0.1416835 0.06333359 0.027936842 -0.06315748 0.1054435 0.03100597 0.03970711
-0.01354869 -0.1448149 0.13835862 0.027747992 -0.038026802 -0.09566527 -0.0514829 -0.061609637
0.036227144 0.10639864 -0.037908155 0.10649141 -0.031558484 0.032711804 0.15925391 0.12922733
-0.0074747205 -0.1288815 -0.06138841 0.041905057 -0.008002861 0.152526 0.023001516 -0.064178385
0.056410346 0.107205845 0.043129742 -0.025847623 -0.13226846 -0.12712458 0.027283872 0.14231642

rnn.gru.bias_ih_l0 f4 [384]
00000000: de0a 2d3d 498e 41be 1b83 473c 4c1b d23b
00000010: a314 d4bd bda2 b9bd e57b cc3d 3b6f 163d
00000020: 8cbe 923d 9077 07bd 3dc1 15bd 1eb3 cd3d
00000030: 9357 36bc 7f46 a3bd 6cd5 4bbd 7200 06be
00000040: e4c0 793d 307c e8bd 2ed4 e6bd 643b 0bbd
00000050: 35b2 a2bc 9956 89bd 950e 51bb f863 fd3c
00000060: 6eaa 4d3e 3e4c 8a3c 5f08 65bd fe0a 0ebe
00000070: 54d9 643d affa a33d b897 a03d 70ea f7bb
00000080: 9c33 5c3c 9535 16bd ec92 a13d c22b 37bd
00000090: 5729 afbc fdc1 703d 8ce6 94bd e2a9 86bd
000000a0: 1a2e 5b3d 3eae 213d 8cf0 f63a 28ce 993d
000000b0: ebdb debd 297e 3ebc 2bdf a33d 4042 86ba
000000c0: 52c1 a4bd d433 5dbc 16a2 063e 2437 19be
000000d0: 28e2 08bd 9b41 a13d 8bcf 54bc 248a 62bd
000000e0: 88fb 9abd b5a0 d03d ec0e d23d 47f1 f43d
000000f0: f2f1 90bd e0c0 8ebd ed60 03be be65 5d3c
00000100: 0e8f 483d 9c05 fbbb c078 cfba 30d2 a93d
00000110: f670 cebd 3cd6 dc3d 8481 743d a3e4 933c
00000120: 12f3 bb3d 797d c63d 6ffc c23d 8e38 f73d
00000130: 704f 253d 21de 973d 4bfb 263d e414 1f3c
00000140: 5621 7a3d 837d 3c3e dcb9 143e 41e4 a03d
00000150: 0162 85bc c2c7 ee3d 3d80 373d 8bf4 0fbe
00000160: 14a3 253d 8664 123d db16 24be ef32 163d
00000170: cc26 123e 0c83 cb3d e4ae 233e 4780 ba3d
00000180: e6d9 d6bd b184 7cbd ba8d a63c 6f3d a83d
00000190: 2b17 db3d 5876 a83d 7652 b4bd 4916 063d
000001a0: 15be 9f3d 829f 153e 5e30 d33c d5b1 a33d
000001b0: 13c2 01bd 394a 9ebc 6f3d cf3d bb67 9dbc
000001c0: c055 beba 34c6 bd3d 43b0 cc3c 23da 503e
000001d0: 6f24 153e 9f7b 453d 248e 0d3d a9b0 a03d
000001e0: 5e2a ebbd 484d e6bc ec3f 51bd 27a1 aaba
000001f0: 901a 013e 0901 43bd 510a 3d3d 832e b4bd
00000200: fdc0 6ebd ac00 ae3d 24ca 0f3e eee7 933e
00000210: b510 83bd bf1e c73d 0aa3 0d3d 2a65 6c3e
00000220: 9555 7e3d 05c8 17be e9fa 813d eede 2b3e
00000230: 67ed ba3d c945 533e 5df5 353e d84d bb3d
00000240: 08c1 f53d dd6b 253e 9cae e9bc c17f 93bd
00000250: 4de5 bf3c 5321 4b3e 6e32 45be a16f 613e
00000260: 3463 82bd f0e1 953d 94c6 e83c f73c 093e
00000270: 7ce0 6fbd 885e e4bc c137 8e3c 4840 023e
00000280: f026 97bc 8f3c 1a3e cbbd 373e 8eb3 16bb
00000290: 70b5 bf3d 6f94 a23e 6dbc 1a3d 7306 f43d
000002a0: f575 f73d a65c 0ebe 3117 b53d d370 dfbc
000002b0: 0cae 9b3d 2abe e83d cd81 653e 02c8 ac3d
000002c0: 5df4 163e 9d9f 803e 6a45 723d e39f 01bd
000002d0: 862b 763e a8f4 20bd 7bb7 763e 88da 0f3e
000002e0: f4dc 593e 1c9d 803e f0f9 323e f314 33bd
000002f0: fd9f 7d3e cc6f d2bc e522 293e 58f5 3cbd
00000300: 5405 1d3e 5d5c 363e a47b 543e 8a47 afbe
00000310: 36f1 6c3d e8c6 2f3e 03fe 2e3e 1e69 54bc
00000320: 637d 2dbd ff30 f03d c731 9b3d 314e 763e
00000330: 2882 393e db86 fd3d 7c1c 3d3e c97a 2cbe
00000340: 25d7 213e 3c5e 0fbd 68cf 1c3e 520a 433e
00000350: aed3 2c3e d31e c63d e68c cbbc 213d 4e3d
00000360: bf00 843d 7bc0 36bd 0bb0 1a3e 6a64 cbbc
00000370: dd0c 553e bc4d 8f3b 271f 97bb 4b39 243e
00000380: 6626 6d3d 4d58 cb3d 5898 943d c596 613d
00000390: 40ee 313e 3845 0abd 8fa7 ed3d 6bd7 053e
000003a0: a806 393e dbd2 e93b e94f 4b3e b705 743e
000003b0: fd77 f53c 7c31 03bd fffc da3d 01a3 553c
000003c0: 2a8a 273e fcaa bb3d f38b fa3d 555d 073e
000003d0: 9e0a 1abc 3a81 363d 0ce1 363e cf79 163e
000003e0: 93c2 d03d c57d a43d a020 2dbc 5247 403e
000003f0: 2e57 6b3c 2ae5 043d fd8c af3d 07d1 573e
0.042246692 -0.18901934 0.012177254 0.0064119454 -0.10355499 -0.09064243 0.099845685 0.03672717
0.0716525 -0.033073008 -0.03656124 0.100439295 -0.011129278 -0.079724304 -0.04976408 -0.13086107
0.06097497 -0.11351812 -0.11270939 -0.033992186 -0.019860366 -0.0670597 -0.003189956 0.030931458
0.20084545 0.016882058 -0.055916186 -0.1387138 0.055871323 0.080067985 0.07841438 -0.007565789
0.013440039 -0.036672194 0.07889351 -0.044719465 -0.021382017 0.05877875 -0.07270536 -0.06575371
0.053510763 0.03947281 0.0018839999 0.07510024 -0.1088179 -0.011626759 0.0800155 -0.0010243133
-0.080446854 -0.013501126 0.13147768 -0.1496244 -0.033418804 0.078738414 -0.012988935 -0.055307522
-0.07567507 0.101869024 0.10256752 0.119600825 -0.070773974 -0.06970382 -0.12829943 0.013513027
0.048964553 -0.007660581 -0.0015828833 0.08292043 -0.10080139 0.107830495 0.05969383 0.018053358
0.09177221 0.09691901 0.09520804 0.12071334 0.04035896 0.074154146 0.040766995 0.009709571
0.061066948 0.18407254 0.14524025 0.07856036 -0.016282083 0.116591945 0.044800032 -0.1405813
0.040438727 0.035740398 -0.16024344 0.036669668 0.14272612 0.099371046 0.15984684 0.09106498
-0.104907796 -0.061649982 0.020331252 0.082148425 0.10697778 0.08225697 -0.08804791 0.032736097
0.07799927 0.14611629 0.0257799 0.07992903 -0.031679224 -0.019322501 0.101191394 -0.019214502
-0.0014521405 0.0926632 0.024986392 0.20395713 0.1456468 0.048213597 0.034559384 0.07846195
-0.1148269 -0.028113022 -0.05108635 -0.0013017998 0.12607789 -0.04760841 0.046152417 -0.08797934
-0.058289517 0.08496222 0.14041954 0.28887886 -0.06399671 0.09722661 0.034579314 0.23085466
0.062093336 -0.14822395 0.063466854 0.1678426 0.09127312 0.2063209 0.1776938 0.09145707
0.119997084 0.16154428 -0.028525643 -0.072021015 0.023424769 0.19836931 -0.19257519 0.2201524
-0.06366578 0.07318485 0.028415002 0.13402162 -0.058563694 -0.027877107 0.01736057 0.12719834
-0.018451184 0.15062164 0.17943494 -0.0022995207 0.09360778 0.3175387 0.037777353 0.119152926
0.120830454 -0.1390253 0.08842314 -0.027275478 0.07601556 0.11364396 0.22412796 0.08436586
0.14741655 0.25121775 0.05914823 -0.03164662 0.2404004 -0.039295822 0.2409343 0.14048207
0.21275693 0.25119865 0.17478156 -0.04372115 0.24768062 -0.025688075 0.16517217 -0.046132416
0.15334064 0.17808671 0.2075029 -0.34234267 0.057847224 0.1716572 0.17089085 -0.012964515
-0.042355906 0.11728095 0.07577854 0.24053265 0.18116057 0.12379237 0.18467897 -0.16843714
0.15804727 -0.03500198 0.15313494 0.19046906 0.16877624 0.09673848 -0.024847459 0.050351266
0.06445455 -0.044617157 0.15106218 -0.024828155 0.20805688 0.0043732803 -0.004611868 0.1603748
0.057897948 0.099289514 0.0725562 0.055075426 0.17376041 -0.03375742 0.11604225 0.13070457
0.18068945 0.0071357316 0.19854702 0.23830305 0.029964441 -0.032029614 0.106927864 0.013039351
0.16361299 0.09163472 0.122337244 0.13219197 -0.009401945 0.044556834 0.17859286 0.14694904
0.10193362 0.08031801 -0.01056686 0.18777207 0.014364047 0.03244511 0.08571813 0.21075831
