scripts/results/MAPPOTraining2v1/2v1/NoWeapon/MAPPOTraining/mappo/v1_2v1_mappo_training/wandb/offline-run-20250807_165042-zjjd28i2/files/actor_episode_8500.pt (torch, 700146 bytes, 30 tensors)

base.mlp.fc.0.weight f4 [128, 21]
0	0xbad623d4	-0.0016337582
1	0x3defbdfd	0.11706159
2	0xbe37e9e5	-0.17960317
3	0xbe247308	-0.16059506
4	0xbdac2123	-0.08404758
5	0x3d6faf3e	0.058516733
6	0xbb8dace8	-0.0043235905
7	0x3e312cdb	0.17302267
8	0xbc9ea47a	-0.019365538
9	0x3d6c8421	0.057743195
10	0xbd870fe7	-0.0659483
11	0xbd2fb1b5	-0.042894084
12	0xbe557a3e	-0.20847413
13	0xbe13fd86	-0.1445218
14	0xbdb83a0b	-0.08995446
15	0x3c0470f3	0.00808357
16	0x3db0adea	0.086269215
17	0x3e061403	0.13093571
18	0xbe177d4a	-0.14793888
19	0xbdc29ce1	-0.095025785
20	0x3da25351	0.079260476
21	0x3e0b2c62	0.1359115
22	0xbd9bd7e6	-0.07609539
23	0x3e53ac05	0.20671089
24	0xbd118e8b	-0.03553633
25	0xbd7172e7	-0.05894747
26	0x3e4434b3	0.19160728
27	0xbe500529	-0.20314468
28	0xbe480c83	-0.19536023
29	0xbda85504	-0.082193404
30	0xbe048bd9	-0.12943973
31	0x3f18f406	0.5974735
32	0xbe133b07	-0.14377986
33	0xbdb7ba1b	-0.08971044
34	0xbe0bf8fa	-0.13669196
35	0xbe15ca9e	-0.14628074
36	0xbe3f4793	-0.18679647
37	0x3eea734c	0.4579109
38	0x3dcb80b5	0.09936658
39	0x3e044f98	0.12920988
40	0x3b017703	0.0019754774
41	0xbe03d108	-0.12872708
42	0x3c9b43fe	0.01895332
43	0xbe5a3649	-0.2130977
44	0xbe31e107	-0.17370997
45	0xbe027b88	-0.12742436
46	0x3de9ecf9	0.11422152
47	0x3dec65eb	0.11542877
48	0xbde4f9dc	-0.111804694
49	0x3a67f2d3	0.00088481343
50	0x3e189320	0.14899874
51	0x3e6536ae	0.2238414
52	0x3d9face9	0.07796652
53	0x3c5a4112	0.013321178
54	0x3e061b01	0.13096239
55	0xbe15718c	-0.14594096
56	0x3cff2c1f	0.031148968
57	0xbe3db043	-0.1852427
58	0xbe134db1	-0.14385106
59	0xbe043cbc	-0.12913793
60	0x3dab1494	0.08353534
61	0x3d9361a5	0.071963586
62	0xbde9e189	-0.114199705
63	0x3caf96c3	0.021434193
64	0x3df0fe9a	0.117673114
65	0xbdd3ef7b	-0.10348412
66	0xbd400782	-0.04688216
67	0x3d4ad247	0.049516942
68	0x3de1ac24	0.11019161
69	0x3e225d77	0.15855967
70	0xbe49c0a3	-0.19702391
71	0x3e3e66c8	0.18593895
72	0xbe1616f2	-0.1465719
73	0x3ea7eaee	0.32796425
74	0x3e0f4285	0.13990219
75	0x3e08c64c	0.13356894
76	0xbc56617b	-0.013084765
77	0xbe9a88cf	-0.30182502
78	0xbd76df0a	-0.0602713
79	0x3e3f7af4	0.18699247
80	0xbe859b63	-0.26095113
81	0x3e0f9aa3	0.14023833
82	0x3df6ba04	0.120471984
83	0xbe2283a9	-0.15870537
84	0x3cbfed06	0.023428451
85	0xbd852842	-0.06501819
86	0xbd95c420	-0.073127985
87	0xbe05661d	-0.13027234
88	0x3d6396dc	0.055563793
89	0xbe16aad9	-0.1471361
90	0x3d54da10	0.051965773
91	0x3e1aab6c	0.15104455
92	0x3d98c3b7	0.07459205
93	0x3df2d130	0.118563056
94	0xbe96fb88	-0.29488778
95	0xbe2e6015	-0.1702884
96	0x3da582a0	0.08081555
97	0x3c391660	0.0112968385
98	0xbe16850c	-0.14699191
99	0xbdc7aee5	-0.09750155
100	0x3e31e795	0.17373498
101	0x3defa98a	0.11702259
102	0xbe025d0d	-0.12730809
103	0xbda919f5	-0.08256904
104	0xbe345107	-0.17609034
105	0xbb808675	-0.0039222785
106	0xbe28465e	-0.16433093
107	0xbe2c5d15	-0.16832383
108	0xbc44ff23	-0.01202372
109	0x3d0633e6	0.032764338
110	0xbdb705f6	-0.08936684
111	0x3e0497e0	0.1294856
112	0xbe07fb2f	-0.13279413
113	0x3e4ac1aa	0.1980044
114	0x3e19223f	0.1495447
115	0xbe3c6f97	-0.18401943
116	0xbd5e7539	-0.05431101
117	0x3c21537b	0.009846563
118	0x3d0268cd	0.031838227
119	0x3d53fdc1	0.05175567
120	0x3daf6156	0.08563487
121	0x3c5628f4	0.013071287
122	0xbdda0f74	-0.10647479
123	0x3dd37917	0.103258304
124	0xbe56595d	-0.20932527
125	0xbe04717f	-0.1293392
126	0xbd5fbffd	-0.054626454
127	0xbdd9b22a	-0.10629685
128	0xbd9c5818	-0.0763399
129	0xbe37260f	-0.17885612
130	0xbd3e2111	-0.046418253
131	0x3d3f0f55	0.04664548
132	0xbe1192c8	-0.14216149
133	0xbc377b2f	-0.011198803
134	0x3e1ff5e6	0.15621147
135	0xbcb7c51b	-0.022432854
136	0x3bc6bae2	0.0060647586
137	0xbc9a37c3	-0.018825417
138	0x3d34e483	0.04416324
139	0x3e0e14e3	0.13875155
140	0x3e53aac2	0.20670608
141	0x3e0de810	0.13858056
142	0x3e5426bd	0.20717902
143	0xbc814900	-0.01578188
144	0xbe48bc0b	-0.19602983
145	0xbdd3deb6	-0.10345213
146	0x3e1826da	0.1485857
147	0xbab969e2	-0.0014145935
148	0xbdde2296	-0.108464405
149	0xbe2b3c7e	-0.16722295
150	0xbe511ef6	-0.20421967
151	0xbe3c9914	-0.1841777
152	0xbd354cb6	-0.04426261
153	0x3df51698	0.119672
154	0x3df19e37	0.11797755
155	0xbe5781db	-0.2104563
156	0x3e0b6326	0.13612041
157	0xbe2edb12	-0.17075756
158	0xbd3cf67d	-0.046133507
159	0xbdb535ba	-0.08848138
160	0xbd2c29da	-0.0420321
161	0xbd2f7ec1	-0.04284549
162	0xbe488477	-0.19581781
163	0xbe40f08b	-0.1884176
164	0xbd0bdd54	-0.03414662
165	0x3b38f1dd	0.0028220334
166	0xbdcb0526	-0.09913091
167	0x3da859ca	0.08220251
168	0xbe850c6b	-0.25986037
169	0xbdfa9b64	-0.1223667
170	0x3e70a415	0.23500092
171	0xbdca68ed	-0.09883294
172	0x3e39eb31	0.18156125
173	0x3d1e15cb	0.038595002
174	0xbe5640b1	-0.20923115
175	0x3e1e69b0	0.15470004
176	0x3e1c25ac	0.15248746
177	0xbdb3ead0	-0.08785021
178	0x3ee5ed04	0.4490739
179	0xbe462e3b	-0.19353573
180	0x3c824488	0.015901819
181	0xbd33e1fd	-0.04391669
182	0x3ea8ef63	0.32995138
183	0x3d5e4667	0.05426636
184	0x3e4454f4	0.19173032
185	0x3da10677	0.07862561
186	0xbd2dca18	-0.04242906
187	0xbda62a13	-0.08113494
188	0xbe3eb316	-0.18623003
189	0x3da0dc7e	0.078545555
190	0x3e1f1041	0.15533544
191	0x3e4ef572	0.20210817
192	0xbe132ca0	-0.14372492
193	0xbd1b8950	-0.03797275
194	0xbe226fc1	-0.15862943
195	0xbde32ea5	-0.11092881
196	0xbe53f49c	-0.2069878
197	0x3d58b23f	0.052904364
198	0xbe83afb8	-0.2572
199	0x3ee549d4	0.4478289
200	0x3c9015bd	0.01758849
201	0x3e1ec300	0.15504074
202	0xbe0d08aa	-0.13772836
203	0xbdd5d89b	-0.10441705
204	0xbe66ecb5	-0.22551234
205	0x3eddc2ae	0.4331259
206	0xbd871581	-0.065958984
207	0x3e5f42e9	0.21802868
208	0x3da1248a	0.078682974
209	0x3b0464b6	0.002020163
210	0xbda90a8c	-0.08253965
211	0xbd8983b5	-0.06714574
212	0x3d03ca8a	0.03217558
213	0xbda5656a	-0.08075984
214	0x3ca521b8	0.02015768
215	0xbd708c55	-0.05872758
216	0xbe59e9c3	-0.2128058
217	0xbe4471c8	-0.19184029
218	0x3e60fc9b	0.21971361
219	0xbe5342d3	-0.2063096
220	0x3d0c637b	0.03427456
221	0x3e464c09	0.19364943
222	0x3d797897	0.06090602
223	0xbccba379	-0.024858223
224	0xbe4236f7	-0.1896628
225	0x3d1f2ad6	0.03885921
226	0x3a8f2371	0.0010920597
227	0xbdc2ed66	-0.095179364
228	0xbda2f4da	-0.07956858
229	0xbd964919	-0.07338161
230	0x3cf32796	0.029681962
231	0x3da8c725	0.08241109
232	0xbcd5fbd6	-0.026121061
233	0x3e553a40	0.20823002
234	0x3dbfff71	0.093748935
235	0xbe7720fc	-0.24133676
236	0x3ce9f3b1	0.028558584
237	0xbe4be466	-0.19911346
238	0xbdb04818	-0.08607501
239	0x3dc1672f	0.09443509
240	0xbd10fa44	-0.035394922
241	0x3f0b06ac	0.54307055
242	0xbde317eb	-0.11088546
243	0xbcfb9411	-0.030710252
244	0x3db1a37a	0.08673759
245	0xbe28986a	-0.16464391
246	0x3b7537b1	0.0037417228
247	0x3db8b15b	0.09018203
248	0xbd1a7be2	-0.0377158
249	0xbd4fb0f1	-0.050705854
250	0xbe2cb5c2	-0.1686621
251	0x3d605fd1	0.054778878
252	0x3e4abc10	0.19798303
253	0xbd70532f	-0.05867308
254	0xbe313c01	-0.17308046
255	0xbdd4c817	-0.103897266

base.mlp.fc.0.bias f4 [128]
0	0x3da69486	0.08133797
1	0xbd0c025c	-0.034181938
2	0x3e497e1b	0.19677012
3	0xbd6d9316	-0.0580016
4	0xbe127854	-0.14303714
5	0x3d667c58	0.056270927
6	0x3de86c04	0.11348727
7	0xb9e34d1c	-0.00043354265
8	0x3e45eaa3	0.19327788
9	0xbde5eb31	-0.112265
10	0x3d870eed	0.06594644
11	0x3dc8b4d3	0.098001145
12	0x3da943ff	0.08264922
13	0x3cf6f10e	0.03014424
14	0x3c9854d0	0.01859513
15	0xbe721437	-0.23640524
16	0xbe88099e	-0.26569837
17	0xbd3e14a6	-0.04640641
18	0xbdd45484	-0.103676826
19	0x3e0d8d3c	0.13823408
20	0x3e1998c2	0.14999679
21	0x3e274526	0.16334972
22	0xbdb17565	-0.08664969
23	0xbe4c41ae	-0.1994693
24	0xbe626855	-0.22110112
25	0x3dd067c0	0.10176039
26	0xbe6436fc	-0.222866
27	0xbe8884db	-0.2666386
28	0xbdb809f2	-0.08986272
29	0xbe5e06bd	-0.21682258
30	0xbe20659a	-0.15663758
31	0xbe0cace7	-0.13737832
32	0xbe164a0f	-0.14676689
33	0x3e9434b8	0.2894647
34	0xbd8d8752	-0.06910576
35	0x3e0f1eb9	0.13976564
36	0x3b9ea727	0.0048417035
37	0xbce5e11c	-0.028061442
38	0xbd6ea1fc	-0.05825995
39	0xbe1fbb57	-0.15598808
40	0xbe3388d9	-0.17532672
41	0x3e176275	0.14783652
42	0xbddbf9a5	-0.10740975
43	0xbe59dd3c	-0.212758
44	0x3e372c4a	0.17887989
45	0x3b84a3cc	0.0040478464
46	0xbe076ee0	-0.13225889
47	0xbe2dc66c	-0.16970223
48	0xbe523947	-0.20529662
49	0xbe542347	-0.20716582
50	0x3db0e126	0.08636694
51	0x3e1a1224	0.15045983
52	0x3c923619	0.017848061
53	0xbe3e71ef	-0.1859815
54	0xbd69c7c2	-0.05707527
55	0xbe640175	-0.22266181
56	0x3d341891	0.04396874
57	0xbd6d53ae	-0.05794113
58	0xbd845c78	-0.064629495
59	0xbd6e025f	-0.05810773
60	0x3d8e85b6	0.06959097
61	0x3dd431a3	0.1036103
62	0x3d8b9056	0.06814639
63	0xbcfe17ab	-0.031017145
64	0xbd0e3fb1	-0.03472871
65	0xbc875293	-0.016518867
66	0xbe0ee82a	-0.13955751
67	0x3e36d63a	0.17855158
68	0xbdc0be9d	-0.094113566
69	0x3dc10df3	0.09426489
70	0xbdc35361	-0.09537388
71	0x3ac002e4	0.0014649299
72	0x3d79ad4d	0.060956288
73	0xbe27a49c	-0.16371387
74	0x3dccff66	0.10009651
75	0xbe2b0ae5	-0.16703375
76	0xbbbdfc1e	-0.005797877
77	0xbd95ebc1	-0.07320357
78	0x3de42dfc	0.11141583
79	0x3e609170	0.2193048
80	0x3d3e74f7	0.046498265
81	0xbca64d93	-0.020300662
82	0xbe28732d	-0.16450186
83	0x3da69fd1	0.08135951
84	0xbdd71ba4	-0.10503319
85	0x3db89a97	0.09013861
86	0xbdccdc87	-0.10003
87	0x3e42c981	0.1902218
88	0x3e197c01	0.1498871
89	0x3ded64a6	0.11591463
90	0x3c47a8d0	0.012186244
91	0x3e053a55	0.13010533
92	0xbe538315	-0.20655473
93	0x3e2a7045	0.1664439
94	0xbcdddb58	-0.02708213
95	0x3d9b2442	0.07575275
96	0xbd2296c3	-0.03969456
97	0xbd83dc39	-0.064384885
98	0xbdd34796	-0.10316388
99	0x3e102238	0.14075553
100	0xbdf1b0f2	-0.11801328
101	0xbc9f4294	-0.019440927
102	0x3de171a4	0.11008003
103	0xbc9e252c	-0.019304834
104	0xbe1bb038	-0.15203941
105	0xbe67ed1a	-0.22649041
106	0xbe0407b0	-0.12893558
107	0x3e3f15fb	0.18660729
108	0xbe164384	-0.14674193
109	0x3de82f9b	0.11337205
110	0x3e01135e	0.12605044
111	0xbe04f197	-0.12982784
112	0xbdc55bcc	-0.096366495
113	0xbe389100	-0.18024063
114	0x3c6f709a	0.014614249
115	0xbce1a7c7	-0.027545823
116	0x3c2db455	0.010602077
117	0x3d5ed258	0.05439982
118	0x3d999e5d	0.075009085
119	0xbd5e0338	-0.05420229
120	0x3c758deb	0.014987449
121	0x3d4e0d2a	0.050305523
122	0xbd4df9bf	-0.050287005
123	0xba81c8ac	-0.0009901724
124	0xbd353062	-0.044235595
125	0x3e3b8d71	0.18315674
126	0xbe02c417	-0.12770115
127	0x3cc61243	0.02417863

base.mlp.fc.2.weight f4 [128]
0	0x3f77364d	0.9656723
1	0x3f8fd307	1.1236275
2	0x3f76aeb5	0.9636033
3	0x3f65a448	0.897038
4	0x3f5a2f75	0.85228664
5	0x3f66287c	0.89905524
6	0x3f61638d	0.8804253
7	0x3f5fa15d	0.87355596
8	0x3f98da22	1.1941569
9	0x3f8af7b4	1.0856843
10	0x3f3a602f	0.72803015
11	0x3f8591ce	1.0435121
12	0x3f709da7	0.9399056
13	0x3f81a45a	1.0128281
14	0x3f6b8fb4	0.9201615
15	0x3f3e3aa7	0.74308246
16	0x3f5d5c74	0.864692
17	0x3f58531f	0.8450183
18	0x3f29bd40	0.663044
19	0x3f6c4633	0.92294616
20	0x3f815ad4	1.0105844
21	0x3f89f28e	1.0777147
22	0x3f86b452	1.0523779
23	0x3f6d847a	0.9278027
24	0x3f63e356	0.8901876
25	0x3f82aa79	1.0208274
26	0x3f86f168	1.0542421
27	0x3f666278	0.89994
28	0x3f8a6412	1.0811789
29	0x3f76bf8e	0.9638604
30	0x3f5e11fd	0.867462
31	0x3f5eff16	0.8710798
32	0x3f6e832c	0.931689
33	0x3f842a28	1.0325365
34	0x3f81ace0	1.0130882
35	0x3f502ca2	0.81318104
36	0x3f55b295	0.8347562
37	0x3f627d5a	0.8847252
38	0x3f6b5cb7	0.91938347
39	0x3f754d4b	0.95821065
40	0x3f68c29b	0.90921944
41	0x3f6f2725	0.93419105
42	0x3f6cc47a	0.924873
43	0x3f4941c0	0.7861595
44	0x3f652e39	0.89523655
45	0x3f5de9c6	0.86684835
46	0x3f612748	0.87950563
47	0x3f801872	1.000746
48	0x3f728083	0.94727343
49	0x3f6866c1	0.9078179
50	0x3f46e7b7	0.7769732
51	0x3f706785	0.9390796
52	0x3f7563cb	0.95855397
53	0x3f59db10	0.8509989
54	0x3f6b3335	0.9187501
55	0x3f662f38	0.899158
56	0x3f6d0371	0.92583376
57	0x3f56d831	0.8392363
58	0x3f9eef0d	1.2416703
59	0x3f8068fa	1.0032036
60	0x3f71d62e	0.9446744
61	0x3f409ed6	0.75242364
62	0x3f86e2d2	1.053797
63	0x3f7e24b3	0.9927475
64	0x3f7524e9	0.95759445
65	0x3f8dc195	1.1074702
66	0x3f8f3191	1.1187001
67	0x3f6c189b	0.92225045
68	0x3f71b58f	0.9441766
69	0x3f68a60a	0.90878356
70	0x3f993071	1.1967908
71	0x3f5b2dfc	0.8561704
72	0x3f511a3f	0.81680673
73	0x3f81adf5	1.0131212
74	0x3f6aca39	0.9171482
75	0x3f5b73d1	0.85723597
76	0x3f4f8070	0.81055355
77	0x3f52a25d	0.82278997
78	0x3f7ddc5c	0.99164367
79	0x3f95d1fb	1.1704706
80	0x3f7cc111	0.98732096
81	0x3f641e55	0.89108783
82	0x3f48feed	0.78513986
83	0x3f66a72f	0.9009885
84	0x3f5b46f7	0.8565516
85	0x3f6fc8f8	0.9366603
86	0x3f740260	0.95316124
87	0x3f92320a	1.1421521
88	0x3f7d8e69	0.99045426
89	0x3f38928c	0.7209861
90	0x3f88aa9d	1.0677067
91	0x3f8e8340	1.1133804
92	0x3f7f1fe6	0.9965805
93	0x3f595516	0.84895456
94	0x3f9da9e2	1.2317469
95	0x3f8126a5	1.0089918
96	0x3f6431b0	0.8913832
97	0x3f989b61	1.1922418
98	0x3f849258	1.035716
99	0x3f75c4c4	0.96003366
100	0x3f5c5e3e	0.860813
101	0x3f888764	1.0666318
102	0x3f71c49a	0.94440615
103	0x3f78c46e	0.9717473
104	0x3f857812	1.0427268
105	0x3f68a9a4	0.9088385
106	0x3f7ee23f	0.99563974
107	0x3f900f21	1.1254617
108	0x3f857f20	1.042942
109	0x3f8b0375	1.086043
110	0x3f8d7bd8	1.1053419
111	0x3f782ec7	0.96946377
112	0x3f6f5d13	0.93501395
113	0x3f563687	0.8367695
114	0x3f738984	0.9513171
115	0x3f4f81f4	0.8105767
116	0x3f6c0f29	0.9221063
117	0x3f7651b6	0.9621843
118	0x3f81590c	1.01053
119	0x3f8ada87	1.0847939
120	0x3f63b998	0.8895507
121	0x3f608550	0.8770342
122	0x3f431f93	0.76220053
123	0x3f7abad1	0.9794131
124	0x3f609ffa	0.87744105
125	0x3f6f9fec	0.93603396
126	0x3f44edc7	0.7692532
127	0x3f87ddcc	1.0614562

base.mlp.fc.2.bias f4 [128]
0	0x3d3da77f	0.046302315
1	0x3c045c3d	0.008078632
2	0x3d2a596d	0.04158919
3	0xbdbdb98e	-0.092639074
4	0x3e1953c5	0.14973362
5	0x3dda7ffc	0.10668942
6	0x3e089757	0.13338982
7	0x3e0b88d8	0.1362642
8	0x3d1de77b	0.038550835
9	0x3c7ca292	0.015419619
10	0x3e1c9fbf	0.15295313
11	0x3c257252	0.010098057
12	0x3d4fc518	0.050725073
13	0xbc295a63	-0.010336491
14	0x3d9a214d	0.07525883
15	0x3e4eba1a	0.2018818
16	0xbd99767b	-0.074933015
17	0x3e286b11	0.16447093
18	0xbd5ba2a5	-0.053621907
19	0x3da961d7	0.082706146
20	0x3c721912	0.014776485
21	0x3dc7b2e9	0.09750921
22	0x3c92af89	0.017905967
23	0xbaaed2a1	-0.0013337919
24	0x3dda92b6	0.10672514
25	0xbb2c9ca9	-0.0026338494
26	0xbd536eab	-0.051619213
27	0xbb6326d4	-0.0034660595
28	0xbd2781d8	-0.040895313
29	0x3d047ca8	0.032345444
30	0x3dde2d96	0.108485386
31	0x3e0aefa7	0.13567983
32	0x3b450341	0.0030061754
33	0x3c1f12f9	0.009709113
34	0xbd228360	-0.03967607
35	0x3e309d05	0.17247398
36	0x3e35ec85	0.17766006
37	0x3e0bab4b	0.13639562
38	0x3cad726d	0.021172727
39	0x3d665a0e	0.056238227
40	0x3dc9dcaf	0.09856545
41	0x3da0adaa	0.07845624
42	0xbc785ec7	-0.015159315
43	0x3e5d601b	0.21618693
44	0xbcc660f7	-0.024216158
45	0x3e0cbc92	0.13743809
46	0x3d90d000	0.07070923
47	0x3c00ff0d	0.007873309
48	0x3d7a52af	0.06111401
49	0x3ca3e88e	0.020008352
50	0xbdcb5bb7	-0.099296026
51	0x3d9689e6	0.07350521
52	0x3d5d5673	0.054037523
53	0x3e2a3edc	0.16625541
54	0x3dbf674f	0.093458764
55	0x3de79c0f	0.11309063
56	0xbd1fc501	-0.039006237
57	0x3e2e35d5	0.17012723
58	0x3c71f6c5	0.014768307
59	0x3ac4d506	0.0015017099
60	0xbcd0914a	-0.025459904
61	0xbbf0ee35	-0.0073526152
62	0x3bf79673	0.0075557767
63	0x3cb6e626	0.02232654
64	0xbca15c54	-0.019697346
65	0xbd26ab02	-0.04069043
66	0xbcfc1338	-0.030770883
67	0x3db66e81	0.08907796
68	0x3d93918d	0.07205496
69	0xbcdced5d	-0.026968652
70	0x3cee56a3	0.029094046
71	0x3e261c8b	0.16221826
72	0x3e42dff8	0.1903075
73	0xbc18ca15	-0.009325524
74	0x3dd2b678	0.102887094
75	0x3e18a77e	0.14907643
76	0x3d5c248a	0.053745784
77	0x3d19066b	0.037359636
78	0xbc3fa3e7	-0.011696792
79	0xbce6ca87	-0.028172744
80	0x3cd2aca6	0.02571709
81	0x3dec15ce	0.115275964
82	0x3c85b213	0.016320264
83	0x3de0bf3e	0.109739766
84	0x3e1f734d	0.15571328
85	0x3d9b4058	0.07580632
86	0x3d6bc064	0.057556525
87	0x3cb679c2	0.022274856
88	0xbccdce10	-0.025122672
89	0x3e8b8ebb	0.27257332
90	0x3c3bf0f3	0.011471021
91	0xbc77702b	-0.0151024265
92	0x3c5ee13a	0.013603503
93	0x3e23cef0	0.15996909
94	0x3d272823	0.04080976
95	0xbcc6a8bb	-0.024250379
96	0x3de885e6	0.11353664
97	0xbcb384b9	-0.021913873
98	0x3b5b5cd7	0.0033472085
99	0x3d35e29d	0.04440557
100	0xbca55859	-0.020183729
101	0xbbf4e0b7	-0.007473077
102	0x3d9c9755	0.07646052
103	0xbd459a9d	-0.048243154
104	0x3cabc005	0.020965585
105	0x3de03898	0.109482944
106	0xbcea8b1b	-0.028630784
107	0xbd71c722	-0.0590278
108	0x3ba408f3	0.0050059496
109	0xbcbd0557	-0.023073835
110	0xbd72b2a2	-0.05925239
111	0x3d1bf2be	0.038073294
112	0x3d9614a4	0.07328156
113	0x3e0035cd	0.12520523
114	0xbc9ac673	-0.018893456
115	0x3e4607f1	0.19338967
116	0x3dbc8c88	0.09206492
117	0xbdb88099	-0.09008903
118	0x3c0589e9	0.008150556
119	0x3cf3a3ae	0.029741134
120	0x3e010704	0.12600332
121	0x3e06ffdb	0.13183539
122	0x3dd34891	0.10316575
123	0xbd408690	-0.04700333
124	0xbc7934d5	-0.01521035
125	0x3cac38ca	0.021023173
126	0x3c857b93	0.016294276
127	0x3caabdfa	0.020842541

base.mlp.fc.3.weight f4 [128, 128]
0	0xbd9ae8bc	-0.07563922
1	0xbbfbe3b3	-0.007687056
2	0x3bb50e48	0.005525384
3	0x3bce5427	0.006296653
4	0xbcf5f7bf	-0.030025361
5	0x3d3a3032	0.04545612
6	0xbc07bbbc	-0.008284505
7	0x3d012d6d	0.031537462
8	0x3d7f6742	0.062354334
9	0x3d025c4b	0.0318263
10	0x3d85b739	0.065290876
11	0x3dae65b8	0.08515495
12	0x3d89def1	0.06731976
13	0xbdfed2e8	-0.12442571
14	0x3bd07a16	0.00636221
15	0x3d11e202	0.03561593
16	0x3e169fa1	0.14709331
17	0x3da1b966	0.0789669
18	0x3beb4870	0.007180266
19	0x3c4c565e	0.012471763
20	0x3c783232	0.015148686
21	0xbdd12b31	-0.10213316
22	0xbd67dc2c	-0.056606457
23	0x3dfd045d	0.12354348
24	0x3d0a6a6c	0.033792898
25	0xbcb9035b	-0.022584608
26	0xbda844ba	-0.082162336
27	0x3e14ed6f	0.14543699
28	0xbdadd8a9	-0.0848859
29	0x3cd4a3b5	0.025956968
30	0xbcfb0812	-0.030643497
31	0x3d6e358a	0.058156528
32	0x3d8df65e	0.069317564
33	0xbdc9633e	-0.09833382
34	0xbd4ace0f	-0.04951292
35	0x3c8b0099	0.016968058
36	0xbd842822	-0.06452967
37	0x3bc5dc5e	0.0060382327
38	0xbdadba7a	-0.08482833
39	0x3d053fe9	0.032531653
40	0x3d0f61ca	0.03500537
41	0xbd615485	-0.055012245
42	0x3e0b4a2a	0.1360251
43	0x3d8464c3	0.06464531
44	0xbcf3f22f	-0.029778568
45	0x3d37bf6f	0.0448603
46	0xbdbd4756	-0.09242122
47	0x3daeae94	0.08529392
48	0x3cdfe372	0.027330134
49	0xbced8f9d	-0.028999144
50	0x3dd77012	0.105194226
51	0xbda3a187	-0.07989793
52	0xbcf7d519	-0.03025298
53	0xbd541655	-0.05177911
54	0xbd529980	-0.05141592
55	0xbd57062e	-0.052496128
56	0xbdd1179d	-0.10209582
57	0x3c85affb	0.016319266
58	0x3ce6dc28	0.02818115
59	0xbd089e05	-0.033353824
60	0xbd195d0a	-0.037442245
61	0xbd8acb47	-0.06777053
62	0x3e13c873	0.14431934
63	0xbd8719ba	-0.06596704
64	0xbd23fc9e	-0.040035836
65	0xbc5397d1	-0.012914614
66	0xbd20c252	-0.03924782
67	0x3bb17475	0.005415494
68	0x3cdd2b3c	0.026998155
69	0x3e042aca	0.12906948
70	0xbd152f9f	-0.03642237
71	0x3d722670	0.059118688
72	0x3d99fbc2	0.07518722
73	0xbd86cbc5	-0.06581835
74	0x3cc35ab8	0.023846969
75	0x3d454d4f	0.04816943
76	0x3d779779	0.06044719
77	0x3e674b5f	0.22587346
78	0xbc89f298	-0.01683931
79	0xbbc43a5e	-0.005988403
80	0x3bcf8a7e	0.006333648
81	0xbd602f04	-0.054732338
82	0x3dffc1e7	0.12488156
83	0x3ce68e35	0.028143981
84	0x3d9cd920	0.07658601
85	0x3cc57d2f	0.024107544
86	0x3d4e3ec6	0.050352834
87	0x3c25da08	0.0101227835
88	0xbcc8a5c6	-0.02449311
89	0xbd206d25	-0.03916659
90	0x3d5841e0	0.0527972
91	0xbde1b24e	-0.11020337
92	0x3bca2e4b	0.0061700693
93	0xbce739c6	-0.02822579
94	0xbd498736	-0.049201213
95	0xbde76ee1	-0.11300445
96	0x3d61a25d	0.055086482
97	0xbdfefabc	-0.124501675
98	0x3dba0278	0.09082502
99	0x3d74dba9	0.059779797
100	0xbca8a360	-0.020585716
101	0x3bb637d9	0.005560857
102	0xbd7deab2	-0.0619914
103	0xbc7b734e	-0.015347315
104	0x3d59cf21	0.05317605
105	0xbce1491b	-0.02750068
106	0x3d44122d	0.047868896
107	0xbd3e450a	-0.04645256
108	0xbd83f124	-0.06442478
109	0xbdb22a87	-0.08699518
110	0xbd86b98c	-0.06578359
111	0x3db16fb3	0.08663883
112	0x3d8d288f	0.068925016
113	0x3d7c290c	0.061562583
114	0x3b06e6d2	0.0020584357
115	0xbd990df0	-0.074733615
116	0x3d8da888	0.069169104
117	0x3bbb420e	0.0057146614
118	0xbd04455c	-0.03229271
119	0xbdb8108d	-0.08987532
120	0x3d96ed2b	0.07369455
121	0x3d1d0202	0.038331993
122	0x3de798eb	0.11308464
123	0xbacd15ad	-0.0015646719
124	0xbd8c6d4b	-0.068567835
125	0x3da6dfaf	0.08148133
126	0x3dd14817	0.10218828
127	0x3d340e0a	0.0439587
128	0x3d961526	0.073282525
129	0xbea5ce4f	-0.32383963
130	0x3e2ba8c6	0.167636
131	0x3c21c7c3	0.009874287
132	0x3d34fe6e	0.044187956
133	0x3dd21a6e	0.10258947
134	0x3d9a33eb	0.07529434
135	0x3db4a15d	0.0881984
136	0x3de5620c	0.112003416
137	0xbe5a543c	-0.21321195
138	0x3daa03d6	0.08301513
139	0xbd504229	-0.050844345
140	0x3cba487a	0.022739638
141	0xbe315258	-0.17316568
142	0x3e166615	0.14687379
143	0x3ca418da	0.020031381
144	0xbaf5c21c	-0.0018749866
145	0x3d4a9bf2	0.049465127
146	0x3e01191e	0.12607238
147	0x3bf7e9af	0.007565699
148	0x3d98832f	0.07446896
149	0x3e16d5e1	0.14730026
150	0xbd1165e6	-0.03549757
151	0xbd7d2de6	-0.06181135
152	0x3e16f4e2	0.14741853
153	0xbe1c0025	-0.1523443
154	0xbdfd4a3b	-0.12367674
155	0x3d609153	0.054826092
156	0xbea7abf5	-0.3274838
157	0x3dafced1	0.08584369
158	0x3d237bdb	0.03991304
159	0x3d5625a4	0.05228199
160	0x3d31583a	0.04329703
161	0xbd3f5750	-0.046714127
162	0xbd2f57eb	-0.042808454
163	0x3e05e021	0.1307378
164	0x3e1b6d07	0.1517831
165	0x3e112a53	0.14176302
166	0x3dd37995	0.10325924
167	0x3c7a45f8	0.015275471
168	0x3c28dfb4	0.010307241
169	0x3dfa5bcd	0.12224541
170	0xbdb31634	-0.08744469
171	0x3d1c2def	0.038129743
172	0x3b513d22	0.0031927307
173	0x3e3358b4	0.17514306
174	0xbd848cc7	-0.06472164
175	0x3d483fd0	0.04888898
176	0x3de2d823	0.11076381
177	0xbdd499cd	-0.10380898
178	0x3db59829	0.08866913
179	0x3cd0ebe6	0.02550311
180	0x3e1e79e8	0.15476191
181	0x3d5c617e	0.053803913
182	0x3d786800	0.060646057
183	0x3ca8abad	0.020589674
184	0xbdb7bd51	-0.08971656
185	0x3dab4474	0.08362666
186	0xbdedbd60	-0.11608386
187	0xbbc70b83	-0.0060743704
188	0xbd7e05e2	-0.06201733
189	0xbe48989c	-0.19589466
190	0xbdfb4589	-0.12269122
191	0x3dfeb72d	0.12437282
192	0x3dc11f86	0.09429841
193	0xbda6c6ae	-0.08143364
194	0x3c86062c	0.016360365
195	0x3db66e10	0.089077115
196	0x3d74b9d9	0.05974755
197	0xbc29ba98	-0.010359429
198	0xb9972d9b	-0.00028834943
199	0x3e2bff05	0.16796501
200	0x3e398dec	0.18120545
201	0xbdfc226b	-0.12311252
202	0x3e0351c3	0.12824158
203	0x3e3be8cd	0.18350525
204	0x3e287a67	0.16452943
205	0x3d2f0fff	0.042739864
206	0x3da3065c	0.07960197
207	0x3d014ecd	0.03156929
208	0x3deb6207	0.114933066
209	0x3d3eac0d	0.0465508
210	0xbd30d6fb	-0.04317377
211	0x3d679ef0	0.05654806
212	0x3de43cdd	0.11144421
213	0x3d8bea3d	0.06831787
214	0x3e0f07d0	0.13967824
215	0xbe3e286a	-0.18570104
216	0x3d277872	0.04088635
217	0x3d6ed453	0.058307957
218	0xbe0c0ab6	-0.13675961
219	0x3dcdee42	0.1005521
220	0x3d3e98e7	0.046532538
221	0x3cac8390	0.021058828
222	0x3e04ea3c	0.12979978
223	0x3d83bbd9	0.064323135
224	0x3d7a7a3f	0.06115174
225	0x3ca959a3	0.020672625
226	0xbd100194	-0.035157755
227	0x3d84077a	0.064467385
228	0xbba9c022	-0.0051803747
229	0x3d65a74a	0.056067742
230	0x3e1ec281	0.15503885
231	0xbd5d7aec	-0.054072306
232	0xbe5d556a	-0.21614614
233	0x3d099f6c	0.033599302
234	0xbc9d4ef0	-0.01920268
235	0xbdf84b5d	-0.121237494
236	0xb9fedcf2	-0.00048611272
237	0x3e308478	0.17238033
238	0xbd96e5bf	-0.07368039
239	0x3d182de0	0.037153125
240	0x3df9ae94	0.12191501
241	0x3e100271	0.14063431
242	0xbd1477fa	-0.03624723
243	0x3dde1f20	0.108457804
244	0x3e28ef73	0.16497593
245	0xbe001446	-0.12507734
246	0x3dcfd03b	0.10147139
247	0x3d8e83ad	0.06958709
248	0x3cd8e0c0	0.026474357
249	0x3e12db95	0.14341576
250	0x3db455c8	0.08805424
251	0xbdaa70db	-0.08322307
252	0x3d8d87a0	0.06910634
253	0x3dccb9a3	0.09996345
254	0x3d8b7232	0.068088904
255	0xbcba0b1e	-0.02271038

base.mlp.fc.3.bias f4 [128]
0	0x3d666155	0.056245167
1	0xbd6e26ca	-0.05814246
2	0x3cc0c904	0.023533352
3	0xbe18da7a	-0.14927092
4	0x3d7f196f	0.062280115
5	0x3d108268	0.035280615
6	0x3d57e143	0.05270506
7	0xbd833df5	-0.06408302
8	0x3b463e54	0.0030249553
9	0xbd82f3af	-0.06394135
10	0x3d9ca362	0.0764835
11	0x3ddc76fa	0.107648805
12	0xbd32f847	-0.043693807
13	0xbb04881f	-0.0020222736
14	0x3d4f15e6	0.050557993
15	0xbdb38c69	-0.087670155
16	0x3d03a300	0.03213787
17	0x3cd8b2f3	0.026452517
18	0xbcf35cc9	-0.02970733
19	0x3c9990a8	0.018745735
20	0xbd3b3086	-0.045700572
21	0x3cc36643	0.023852473
22	0xbdb79641	-0.089642055
23	0x3dd4af30	0.10384977
24	0x3b84a721	0.0040482436
25	0x3d886c0f	0.066612355
26	0x3ccec064	0.025238223
27	0x3cf510a8	0.029915169
28	0x3e2ee1be	0.17078301
29	0xbdcfee20	-0.101528406
30	0x3b82b6f6	0.003989096
31	0x3c92c4e8	0.017916158
32	0xbdc60cc8	-0.096704066
33	0x3d29ea32	0.04148311
34	0xbdff34fb	-0.12461277
35	0xbd896a49	-0.067097254
36	0xbd89baf6	-0.06725113
37	0xbdb588c6	-0.08863978
38	0xbde30c3b	-0.11086317
39	0x3d18298e	0.037149005
40	0x3c6e29b0	0.014536306
41	0xbdadf80d	-0.084945776
42	0xbdd8ac54	-0.10579744
43	0xbd6271d3	-0.055284332
44	0xbc88c3e8	-0.016694978
45	0xbc36e815	-0.011163731
46	0xbc9464c5	-0.018114457
47	0xbc125637	-0.008931688
48	0xbbccb887	-0.0062475833
49	0x3d6f7a3c	0.05846618
50	0x3d06c61d	0.03290378
51	0xbd4e7bfb	-0.050411206
52	0x3db50513	0.088388585
53	0xbd8ff516	-0.07029168
54	0xbe04a577	-0.12953745
55	0xbd590968	-0.052987486
56	0x3d7d5fb1	0.061858837
57	0xbc104798	-0.008806132
58	0x3d085b86	0.03329041
59	0x3d2cfc2d	0.04223268
60	0x3bd73d38	0.006568577
61	0x3cbe1135	0.023201564
62	0x3db0a601	0.08625413
63	0x3bbeb46b	0.0058198473
64	0xbdb538ef	-0.0884875
65	0xbd246873	-0.040138673
66	0xbb1e1768	-0.0024122838
67	0x3bdc5b45	0.0067247474
68	0x3cd77fd0	0.026306063
69	0x3cae9840	0.021312833
70	0xbd3fc72d	-0.04682081
71	0x3d40887f	0.047005173
72	0xbce15aaa	-0.027509052
73	0xbca46661	-0.02006835
74	0xbd56f086	-0.052475475
75	0xbc960815	-0.0183144
76	0xbd591587	-0.052999046
77	0xbd591999	-0.053002927
78	0x3d250d78	0.040296048
79	0xbd5964de	-0.05307471
80	0x3d03d553	0.032185864
81	0x3da0834c	0.07837543
82	0xbdc77794	-0.097396046
83	0x3d750420	0.059818387
84	0x3c7ab388	0.015301593
85	0xbca59a84	-0.02021528
86	0x3cea643f	0.028612254
87	0xbdb9a201	-0.09064103
88	0xbd8d0d6c	-0.06887326
89	0xbdc9ccd7	-0.09853523
90	0x3d82d776	0.06388752
91	0xbcea83ff	-0.028627394
92	0xbd8a1bd4	-0.06743589
93	0xbb648a18	-0.003487235
94	0xbc6005ae	-0.013673229
95	0x3d49f9cc	0.04931049
96	0x3d1d9d10	0.038479865
97	0x3cdf2f17	0.027244134
98	0xbd0a6d73	-0.033795785
99	0x3d7556f5	0.05989738
100	0xbd2b707e	-0.041855328
101	0xbd86cee1	-0.06582428
102	0x3e082d28	0.13298476
103	0xbb9bcfb9	-0.004754987
104	0xbd96adf8	-0.07357401
105	0x3d3b730d	0.045764018
106	0xbb0bcba9	-0.0021331108
107	0xbe00bdf5	-0.12572463
108	0x3d87a8a6	0.06623964
109	0x3d8d5f06	0.0690289
110	0xbd824a9c	-0.06361887
111	0x3cc36169	0.02385016
112	0x3d754913	0.059884142
113	0xbdddda7a	-0.10832687
114	0xbca7fe26	-0.02050693
115	0x3e21f28b	0.15815179
116	0xbda5f1b5	-0.081027426
117	0xbbac1134	-0.005251074
118	0xbdaa7530	-0.08323133
119	0x3d7a8a48	0.06116703
120	0xbd24ab7b	-0.0402026
121	0x3d9169d9	0.07100267
122	0x3d9c4ac7	0.0763145
123	0xbd0cee7f	-0.034407135
124	0xbd6953cc	-0.05696468
125	0xbcf6e956	-0.03014056
126	0xb96f03c8	-0.00022794225
127	0xbd68045e	-0.05664479

base.mlp.fc.5.weight f4 [128]
0	0x3f7a7402	0.97833264
1	0x3f75837e	0.95903766
2	0x3f7934d3	0.9734623
3	0x3f60cdae	0.8781384
4	0x3f8b051d	1.0860935
5	0x3f86280a	1.0480969
6	0x3f82b145	1.0210348
7	0x3f80ffff	1.0078124
8	0x3f96f4c8	1.1793451
9	0x3f90a8d1	1.1301519
10	0x3f74a142	0.9555856
11	0x3f81bf0f	1.0136431
12	0x3f6bebe5	0.9215682
13	0x3f6b7c4b	0.9198653
14	0x3f84956d	1.0358101
15	0x3f7e5333	0.993457
16	0x3f8212aa	1.0161946
17	0x3f926810	1.1438007
18	0x3f823076	1.0171039
19	0x3f8dad8f	1.1068591
20	0x3f819812	1.0124533
21	0x3f83e741	1.0304948
22	0x3f906f53	1.1283973
23	0x3f8d9ddb	1.1063799
24	0x3f5bf329	0.8591791
25	0x3f9e58ad	1.2370812
26	0x3f75eb43	0.96062106
27	0x3f7bc0b9	0.98340946
28	0x3f9579e6	1.1677825
29	0x3f8a4084	1.0800939
30	0x3f83a97c	1.0286098
31	0x3f800eef	1.0004557
32	0x3f93f3a4	1.1558728
33	0x3f7ccafa	0.9874722
34	0x3f5f8675	0.8731454
35	0x3fa0d3fc	1.2564692
36	0x3f930e7a	1.1488793
37	0x3f7dc6a9	0.99131256
38	0x3f6bdc22	0.9213277
39	0x3f8b2b81	1.0872651
40	0x3f969121	1.176304
41	0x3f588183	0.8457262
42	0x3f81e72f	1.0148677
43	0x3f82897f	1.019821
44	0x3f801646	1.0006797
45	0x3f45260c	0.7701118
46	0x3f69a5c3	0.9126856
47	0x3f932654	1.1496072
48	0x3f5956a9	0.8489786
49	0x3f862583	1.0480198
50	0x3f7d3825	0.98913795
51	0x3f8ce0e9	1.1006137
52	0x3f8e11ae	1.1099145
53	0x3f854c92	1.0413992
54	0x3f574ec8	0.84104586
55	0x3fa45263	1.2837642
56	0x3f93d187	1.1548318
57	0x3f667cb2	0.9003402
58	0x3f7d9b6c	0.9906528
59	0x3f73401f	0.95019716
60	0x3f8678c2	1.0505602
61	0x3f61ef88	0.8825612
62	0x3f7eb077	0.99488014
63	0x3f5976d3	0.84946936
64	0x3f60af85	0.8776782
65	0x3f8aceef	1.0844401
66	0x3f63dd84	0.8900988
67	0x3f8e9871	1.1140271
68	0x3f714511	0.9424601
69	0x3f72b35a	0.9480492
70	0x3f8ef57d	1.1168667
71	0x3f729718	0.947618
72	0x3f83b583	1.0289768
73	0x3f7a42e5	0.9775832
74	0x3f85c4d3	1.0450691
75	0x3f84fa3b	1.0388864
76	0x3f879645	1.0592734
77	0x3f8623bf	1.0479659
78	0x3f9028a1	1.1262399
79	0x3f806cbe	1.0033185
80	0x3f8643ac	1.0489402
81	0x3f9f0680	1.2423859
82	0x3f69770f	0.91197294
83	0x3f825921	1.018345
84	0x3f77de99	0.9682403
85	0x3f714b05	0.94255096
86	0x3f784099	0.9697357
87	0x3f808a3c	1.0042186
88	0x3f42b97f	0.76064295
89	0x3f82da87	1.0222939
90	0x3f9ed5b8	1.2408972
91	0x3f84ba03	1.0369266
92	0x3f7b6993	0.9820797
93	0x3f9314e5	1.1490752
94	0x3f85e513	1.0460533
95	0x3f6d6989	0.9273916
96	0x3f8f0300	1.117279
97	0x3f79209d	0.9731539
98	0x3f77e130	0.96827984
99	0x3f866fc2	1.0502856
100	0x3f8a1cab	1.0789999
101	0x3f7723af	0.96538824
102	0x3f9758ce	1.1823976
103	0x3f8be9c4	1.0930715
104	0x3f6d314f	0.92653364
105	0x3f86d7c0	1.0534592
106	0x3f6c7be6	0.92376554
107	0x3f5b1d5a	0.8559166
108	0x3f785f9b	0.9702088
109	0x3faa2644	1.3292928
110	0x3f8ea3fa	1.1143792
111	0x3f932b77	1.149764
112	0x3f928a13	1.1448387
113	0x3f60e20c	0.8784492
114	0x3f89e738	1.0773687
115	0x3fa62113	1.2978843
116	0x3f8d9c63	1.106335
117	0x3f6a9c23	0.91644496
118	0x3f80eb3e	1.007179
119	0x3f8eb8bf	1.115013
120	0x3f85f205	1.0464483
121	0x3f68fa3d	0.91006833
122	0x3f8d600c	1.1044936
123	0x3f7138b5	0.94227153
124	0x3f8639f0	1.0486431
125	0x3f7807ea	0.96887076
126	0x3f94b8b8	1.1618872
127	0x3f7b7757	0.98228973

base.mlp.fc.5.bias f4 [128]
0	0x3daa9649	0.08329446
1	0x3cd8d1e8	0.026467279
2	0x3dc59283	0.096470855
3	0x3dae12f7	0.08499711
4	0xbded305c	-0.115814894
5	0xbd847f51	-0.06469596
6	0xbd005e4f	-0.03133994
7	0xbc899d50	-0.016798645
8	0x3e677d16	0.2260631
9	0xbe1777ff	-0.14791869
10	0xba281e12	-0.0006413172
11	0xbd788ad8	-0.060679287
12	0x3d1e7418	0.038684934
13	0xbd2323f5	-0.039829213
14	0x3d86a37c	0.06574151
15	0x3c038525	0.00802735
16	0x3dd02ae3	0.1016443
17	0xbd986bd2	-0.0744244
18	0xbc881328	-0.016610697
19	0x3de103b7	0.10987037
20	0xbcc84765	-0.024448106
21	0xbd4ab235	-0.049486358
22	0xbe0f96ca	-0.14022365
23	0xbdd6cbae	-0.104880676
24	0x3e0aad45	0.1354266
25	0xbdde96af	-0.10868584
26	0xba9902db	-0.0011673825
27	0xbd0fdd9b	-0.03512345
28	0x3e4909a6	0.19632587
29	0xbd25de53	-0.040495228
30	0xbd08d721	-0.033408288
31	0x3bd7540a	0.0065712975
32	0xbe266453	-0.16249208
33	0x3bd6130a	0.0065330314
34	0x3df062f1	0.117376216
35	0x3d2e7d4b	0.042599957
36	0xbd563c9a	-0.052303888
37	0xbbf5ddd2	-0.0075032497
38	0x3c421237	0.011845163
39	0xbdba45e3	-0.09095361
40	0x3e38856f	0.18019651
41	0x3e04434c	0.12916297
42	0xbc47105d	-0.012149897
43	0xbcf5aade	-0.029988702
44	0xbc74fe5c	-0.014953222
45	0x3e307f37	0.17236029
46	0xbcc5c20d	-0.024140382
47	0xbe20e8a5	-0.15713747
48	0x3e508fcf	0.20367359
49	0x3da5e434	0.08100167
50	0xbdd0eb08	-0.10201079
51	0x3d7ba613	0.061437678
52	0x3df556ef	0.11979472
53	0xbdab5ff6	-0.083679125
54	0x3e0ecfe4	0.13946491
55	0xbda7a4b3	-0.08185711
56	0x3e20265d	0.15639634
57	0x3db4a0ba	0.08819719
58	0x3b979d4c	0.0046269055
59	0x3d303a8c	0.043024585
60	0xbd39ce3d	-0.0453627
61	0x3d89980e	0.06718455
62	0xbd6fc08c	-0.058533236
63	0x3e12243c	0.14271635
64	0x3dcadf5c	0.09905884
65	0xbdbedea7	-0.09319811
66	0x3d8a9e4a	0.067684725
67	0x3d6d433f	0.05792546
68	0x3d884db7	0.06655448
69	0x3cbde59e	0.02318078
70	0x3dc4c792	0.096083775
71	0x3d675db1	0.056485835
72	0xbd725745	-0.059165258
73	0x3d02d0df	0.031937476
74	0xbdd85ca6	-0.10564546
75	0xbd4bb56d	-0.049733568
76	0xbd999c52	-0.07500519
77	0xbd6621ab	-0.056184452
78	0xbd0a7db8	-0.0338113
79	0xba1f6be0	-0.0006081443
80	0xbdb13add	-0.086538054
81	0x3e623e56	0.22094092
82	0x3d78a2ec	0.06070225
83	0xbc5d8ee7	-0.01352284
84	0x3cfe83ef	0.03106877
85	0x3da1a62d	0.07893024
86	0x3c7b6d46	0.015345877
87	0xbc03dd47	-0.008048362
88	0x3e7084bc	0.23488134
89	0xbd6a9c53	-0.05727799
90	0x3db482d0	0.08814013
91	0x3cc22677	0.023699982
92	0x3b3580cf	0.0027695184
93	0x3d5c91db	0.053850036
94	0xbd3ebf92	-0.046569414
95	0x3d732435	0.0593607
96	0x3d578993	0.052621435
97	0x3d4e7de9	0.050413046
98	0x3b5c3c53	0.0033605292
99	0xbb97c09c	-0.004631115
100	0xbd14ac50	-0.036297143
101	0x3c7ad9a1	0.015310676
102	0x3e33bdde	0.17552897
103	0xbce85dd6	-0.028365057
104	0x3d7d6cbe	0.061871283
105	0x3d45d4bf	0.048298594
106	0x3cc21968	0.023693755
107	0xbc5b467e	-0.013383506
108	0x3e2e447f	0.17018317
109	0x3de92b70	0.11385238
110	0xbdfac8d2	-0.12245335
111	0xbe44e834	-0.19229203
112	0x3e062b37	0.13102423
113	0x3deb978c	0.11503515
114	0xbddda842	-0.10823108
115	0x3e631579	0.2217616
116	0xbde6c6ca	-0.11268385
117	0x3d1e7252	0.038683243
118	0xbd241f85	-0.040069122
119	0xbca04887	-0.019565834
120	0x38abe818	8.197146e-05
121	0x3d011eb5	0.031523425
122	0xbd0c7da6	-0.034299515
123	0x3d23681a	0.0398942
124	0xbd56bd8c	-0.05242686
125	0xbd8a9200	-0.067661285
126	0xbe319f26	-0.17345867
127	0x3b06dd3e	0.0020578648

rnn.gru.weight_ih_l0 f4 [384, 128]
0	0x3d8c2b77	0.06844228
1	0x3d8d7f5b	0.06909057
2	0xbdab655e	-0.08368944
3	0x3c89ccb9	0.016821252
4	0x3c99c887	0.018772377
5	0xbd9fcafc	-0.07802388
6	0x3c000b5c	0.007815208
7	0xbd9de8f5	-0.07710449
8	0xbd9013b7	-0.0703501
9	0x3d99de92	0.07513155
10	0x3d451924	0.04811968
11	0x3c35fa74	0.011107076
12	0x3e02f2be	0.12787911
13	0xb9532180	-0.00020135008
14	0xbcfa83e3	-0.030580467
15	0xbc481916	-0.012213012
16	0x3cd7b675	0.02633212
17	0xbd11bde2	-0.035581477
18	0xbd82b2cd	-0.0638176
19	0x3e4d4265	0.20044859
20	0xbdfb4363	-0.12268712
21	0x3ceabccf	0.028654484
22	0x3d0948c5	0.033516664
23	0xbd183c19	-0.03716669
24	0x3d4d46ef	0.050116476
25	0x3cf16639	0.029467689
26	0xbce4586c	-0.027874194
27	0xbd7a9c7c	-0.06118439
28	0x3d8cad64	0.06869009
29	0xbd4e55b3	-0.050374698
30	0x3ced8f71	0.028999062
31	0xbb103daa	-0.002200941
32	0x3d283199	0.041062925
33	0x3c963894	0.018337525
34	0xbd286495	-0.041111547
35	0x3d731083	0.05934192
36	0x3b826935	0.003979827
37	0x3c74d622	0.014943631
38	0xbd04c6bd	-0.032416094
39	0x3cf15632	0.029460046
40	0xbc18111c	-0.009281423
41	0xbdcc27d7	-0.09968536
42	0x3d6ccd73	0.05781312
43	0xbd831b98	-0.064017475
44	0x3d0ecdd7	0.034864273
45	0x3d9a8f60	0.07546878
46	0xbe1670ba	-0.1469144
47	0x3d5d098b	0.05396418
48	0x3c95276d	0.018207276
49	0xbe039159	-0.12848414
50	0xbd509ede	-0.050932758
51	0x3cb5c9d7	0.022190971
52	0x3c7f0777	0.015565745
53	0xbc19862e	-0.00937037
54	0x3cde3e21	0.027129235
55	0x3bb5bb3b	0.0055460013
56	0x3db8cad7	0.09023064
57	0x3ca54322	0.020173613
58	0xbd9db9fd	-0.0770149
59	0xbcbe41d5	-0.02322475
60	0xbdc5577a	-0.096358255
61	0x3e331bb7	0.17491041
62	0xbe5403ea	-0.20704618
63	0x3d33b2fd	0.04387187
64	0x3dac2e4a	0.084072664
65	0xbcbad8d6	-0.022808474
66	0xbdb4d9f3	-0.08830633
67	0x3e05e032	0.13073805
68	0x3cf12a20	0.029439032
69	0xbdb93098	-0.09042472
70	0x3e57cdb8	0.21074569
71	0xbc40b6d1	-0.011762337
72	0xbd8aba95	-0.06773869
73	0x3c442d06	0.011973625
74	0x3d31cb38	0.043406695
75	0xbb4b1a93	-0.0030991181
76	0xbd87b2ea	-0.06625922
77	0xbd579cd0	-0.052639782
78	0xbccf7d94	-0.025328435
79	0x3d3670a8	0.04454103
80	0x3c4c1649	0.012456485
81	0x3c97677a	0.018481959
82	0xbb24e4f9	-0.0025160892
83	0xbd613fb9	-0.05499241
84	0x3d124fca	0.035720624
85	0x3de74357	0.11292141
86	0x3d0432b0	0.032274902
87	0x3d941459	0.072304435
88	0xbd52c160	-0.051453948
89	0x3df738b0	0.12071359
90	0xbd93781f	-0.07200646
91	0x3d7c0775	0.06153055
92	0xbcc635d9	-0.024195598
93	0xba647286	-0.0008714575
94	0xbc91005a	-0.017700363
95	0xbb6395f5	-0.0034726833
96	0x3e336d3a	0.17522135
97	0xbd840862	-0.064469114
98	0xbc71afea	-0.014751414
99	0xbd5be7e3	-0.05368794
100	0x3df62b82	0.12020017
101	0x3d3768e9	0.044777784
102	0xbd099510	-0.033589423
103	0xbdc34082	-0.09533788
104	0x3d8e50dc	0.069490165
105	0x3d729bcf	0.059230622
106	0x3db7f7cf	0.089828126
107	0xbd0c8975	-0.034310777
108	0xbe418b43	-0.1890078
109	0xbd827cb8	-0.063714445
110	0xbd8c1dd7	-0.06841629
111	0xbd3d53b8	-0.04622242
112	0x3cc53d68	0.024077132
113	0xbd5aa4b9	-0.053379748
114	0xbd21a255	-0.039461453
115	0x3c96a641	0.018389823
116	0xbcc41ab8	-0.023938522
117	0xbd473e2e	-0.048643284
118	0x3e0d4536	0.13795933
119	0x3d679afa	0.05654428
120	0xbc6e9d16	-0.014563819
121	0x3d50f17f	0.05101156
122	0xbe19c071	-0.15014817
123	0xbca0e557	-0.019640608
124	0xbe42d932	-0.19028166
125	0x3d980a9c	0.074238986
126	0xbd71c4ce	-0.05902558
127	0x3d5ac339	0.053408835
128	0xbe1bf600	-0.1523056
129	0x3bd308a9	0.0064402414
130	0xbd00269b	-0.031286817
131	0xbd6b59b2	-0.057458587
132	0x3dc85e8b	0.09783658
133	0x3e0274f2	0.12739924
134	0x3e59dd21	0.2127576
135	0x3d4cc30c	0.0499907
136	0xbd5e780f	-0.054313716
137	0x3e3bcd2a	0.18339983
138	0x3ddb1ae2	0.10698487
139	0xbd4d9744	-0.050193086
140	0x3da28a69	0.07936556
141	0xbd2f3e8d	-0.042784262
142	0x3d491c35	0.049099166
143	0x3dbaf562	0.09128834
144	0xbd0ea088	-0.034821063
145	0xbdc7f565	-0.09763602
146	0x3d31a014	0.043365553
147	0xbd086610	-0.03330046
148	0xbcb6dcf3	-0.022322154
149	0x3d606eb5	0.05479308
150	0x3da5bae3	0.080922864
151	0x3d8cbf20	0.06872392
152	0x3d820429	0.0634845
153	0x3d708587	0.05872109
154	0x3e57db3e	0.21079728
155	0x3d429e68	0.04751435
156	0x3c99fd09	0.018797414
157	0x3d039756	0.032126747
158	0x3e33a089	0.17541708
159	0x3ddea09b	0.10870477
160	0x3dadacfb	0.08480259
161	0x3e2821e0	0.16419172
162	0x3e4faba8	0.20280325
163	0x3dad1699	0.08451576
164	0xbc01bd8b	-0.007918726
165	0x3e40bdf7	0.18822466
166	0x3db7bf58	0.08972043
167	0x3dabc829	0.08387787
168	0xbd37f519	-0.044911478
169	0x3dbebda1	0.093135126
170	0x3e4c7849	0.1996776
171	0x3e113c78	0.14183223
172	0x3e47e372	0.19520357
173	0x3e15c5f9	0.14626302
174	0x3debedfa	0.1152
175	0x3e3245f7	0.17409502
176	0x3db56376	0.08856861
177	0xbdef6995	-0.1169006
178	0x3e160e40	0.14653873
179	0x3dc86a64	0.097859174
180	0x3b89fba1	0.0042109047
181	0x3e0360a2	0.12829831
182	0x3e485572	0.19563845
183	0xbd3b94c0	-0.045796156
184	0xbaae3cd2	-0.0013293272
185	0x3db86e71	0.0900544
186	0x3d84de9f	0.06487774
187	0x3e4a7e63	0.19774775
188	0xbd8c6490	-0.06855118
189	0x3d1a45c4	0.03766419
190	0x3d8baa94	0.068196446
191	0x3e40d1aa	0.1882998
192	0x3e21e62b	0.15810458
193	0x3d7d3536	0.061818324
194	0x3d87afd4	0.066253334
195	0xbddf88f0	-0.10914791
196	0x3e177873	0.14792041
197	0x3d1f6f7f	0.03892469
198	0xbde4a393	-0.11164012
199	0x3d2760da	0.04086385
200	0x3e00bd2b	0.12572162
201	0x3e5539b6	0.20822796
202	0x3e1d3c5a	0.15355054
203	0x3e0b8b82	0.13627437
204	0x3e2633be	0.16230676
205	0x3d8fa296	0.07013433
206	0xbd8cca8d	-0.06874571
207	0x3e493550	0.19649243
208	0xbdcd0ea0	-0.10012555
209	0xbe6234a3	-0.22090392
210	0x3dc0c202	0.09412004
211	0x3a309391	0.00067358563
212	0x3de5ceb2	0.112210646
213	0x3c809c3a	0.015699495
214	0x3e09e7a3	0.13467269
215	0x3e183aeb	0.14866225
216	0x3e1e33a2	0.15449384
217	0x3af76954	0.0018875995
218	0xbd97b411	-0.07407392
219	0x3e451988	0.1924802
220	0x3e4aa273	0.19788532
221	0xbe79f751	-0.2441075
222	0x3b489d26	0.0030611246
223	0x3d95fa52	0.073231354
224	0xbdeddc2e	-0.116142616
225	0xbe0e8196	-0.1391662
226	0x3e3faf7e	0.18719289
227	0x3d8ec458	0.06971043
228	0x3d15d2ea	0.036578096
229	0x3e06cb24	0.1316343
230	0x3b2eef57	0.002669295
231	0xbc8a5547	-0.016886367
232	0x3e12b908	0.14328396
233	0xbe87fd38	-0.26560378
234	0x3da7c1d1	0.081912644
235	0x3d80cf5d	0.062895514
236	0xbd8daf5b	-0.06918212
237	0x3dbf0fc0	0.09329176
238	0x3d339cad	0.04385059
239	0x3db0bbd5	0.08629576
240	0xbd80a820	-0.06282067
241	0x3ddbea4b	0.10738047
242	0x3dd402a4	0.10352066
243	0xbdea2c8c	-0.11434278
244	0x3e3e2902	0.1857033
245	0xbd57f670	-0.052725255
246	0x3e15b59f	0.14620064
247	0xbd228490	-0.039677203
248	0xbe13f6ed	-0.14449663
249	0x3c672a10	0.01410915
250	0x3cbfbfe8	0.023406938
251	0x3e133cfe	0.14378735
252	0x3dee6c5f	0.11641764
253	0x3af8f950	0.0018995199
254	0x3dc74667	0.09730225
255	0x3e3f9407	0.18708812

rnn.gru.weight_hh_l0 f4 [384, 128]
0	0xbdbc4bd3	-0.0919415
1	0xbd8c43da	-0.06848879
2	0xbcb1528e	-0.02164581
3	0x3d87907c	0.06619355
4	0x3bbb491d	0.005715503
5	0x3c925154	0.017861046
6	0x3d89c0ab	0.067262016
7	0x3cc4ae0f	0.024008779
8	0xbd4b9882	-0.04970599
9	0xbce0baf6	-0.0274329
10	0x3d500c0e	0.050792746
11	0x3d9927f3	0.07478323
12	0x3d49c3fe	0.04925918
13	0xbd099b36	-0.033595286
14	0x3cabc3d9	0.02096741
15	0x3d1bc6b3	0.03803129
16	0x3caddc6f	0.021223275
17	0x3d56d92c	0.052453205
18	0xbcb517b0	-0.022106022
19	0xbc6c2f5b	-0.014415587
20	0xbcbde4e0	-0.023180425
21	0x3cea01f5	0.028565386
22	0x3c185255	0.009296973
23	0x3d36d2f1	0.044634763
24	0xbdd9bbe1	-0.10631538
25	0xbd13e04d	-0.03610258
26	0x3e31b2e3	0.17353396
27	0x3dda5039	0.106598325
28	0xbce78fb8	-0.028266773
29	0x3d165795	0.03670462
30	0xbe10b19d	-0.14130254
31	0x3dfe021a	0.124027446
32	0x3d931ccc	0.07183227
33	0x3d5094eb	0.05092327
34	0x3d430357	0.047610607
35	0x3d307c1e	0.043087117
36	0xbdfcb2ac	-0.123387665
37	0x3ddca7d8	0.10774201
38	0x3d1603b6	0.036624633
39	0xbce93e6a	-0.028472144
40	0xbd83a6d6	-0.06428306
41	0xbcc628c5	-0.024189362
42	0x3dc21cc9	0.094781466
43	0x3dbff5ad	0.09373031
44	0xbe36cba2	-0.17851117
45	0x3d113e62	0.035459884
46	0xbde1a0e6	-0.11017017
47	0xbdceb7b7	-0.100936346
48	0xbb232e5e	-0.0024899463
49	0x3dad5746	0.08463912
50	0xbdd2e5a6	-0.10297708
51	0x3d126f03	0.0357504
52	0xbce08455	-0.02740685
53	0x3e0a5edb	0.13512747
54	0xbd6bc3c3	-0.05755974
55	0x3c19d6c2	0.009389581
56	0xbd91da5e	-0.07121728
57	0xbd3df922	-0.04638017
58	0xbdd7c927	-0.10536414
59	0x3d07b818	0.03313455
60	0xbd23db5a	-0.04000411
61	0xbdfee8ee	-0.124467716
62	0x3d15e606	0.03659632
63	0xbdd98812	-0.106216565
64	0xbe12c4f0	-0.14332938
65	0xbd4d00c4	-0.05004956
66	0x3d768037	0.06018087
67	0xbd9f66b8	-0.07783264
68	0x3dc32719	0.09528942
69	0x3da3da5a	0.08000632
70	0x3db108ed	0.086442806
71	0xbdf660a4	-0.120301515
72	0xbd957a9a	-0.07298775
73	0x3d8500dc	0.064943045
74	0x3da2b54e	0.079447374
75	0xbdb1bb5d	-0.08678315
76	0xbcc8b2bc	-0.02449929
77	0x3dda7884	0.10667518
78	0xbd3cfa7a	-0.04613731
79	0x3de18d18	0.110132396
80	0x3e2c27e3	0.1681209
81	0xbdb3d831	-0.087814696
82	0xbd26205f	-0.040558215
83	0x3bf0ed57	0.007352512
84	0x3dbc9c10	0.09209454
85	0xbcd8f31a	-0.026483107
86	0x3e3b6573	0.18300419
87	0xbe02271b	-0.1271023
88	0x3d49eca8	0.04929796
89	0xbdea9d99	-0.114558406
90	0xbca80946	-0.020512234
91	0xbe20b1a8	-0.1569277
92	0x3dc579e9	0.09642393
93	0x3d068c6f	0.03284877
94	0x3c83c8c2	0.01608694
95	0x3cc318ac	0.023815475
96	0x3da0f8ef	0.0785998
97	0x3cb9c0aa	0.022674877
98	0x3d7579e2	0.05993069
99	0x3dc1a206	0.09454732
100	0xbd4527ba	-0.04813359
101	0x3d83eac4	0.06441262
102	0xbd8e1d82	-0.06939222
103	0xbca5b40b	-0.020227453
104	0xbda27cc4	-0.079339534
105	0x3e3497f7	0.17636095
106	0x3d44a444	0.04800822
107	0xbd661caf	-0.0561797
108	0xbd4f36d5	-0.0505894
109	0x3df7d56a	0.121012524
110	0xbd0032a7	-0.031298306
111	0x3c8a1a3d	0.016858215
112	0x3c26f4b4	0.010190178
113	0xbd937986	-0.07200913
114	0xbdd35258	-0.1031844
115	0xbd9c656b	-0.076365314
116	0xbcab782f	-0.020931331
117	0x3dac7464	0.08420637
118	0xbce8a6dd	-0.02839988
119	0x3b18bd49	0.0023306182
120	0x3dc88c53	0.0979239
121	0xbb1c9160	-0.0023890361
122	0xbe3dec85	-0.18547256
123	0xbd420830	-0.04737109
124	0x3de8b779	0.1136312
125	0xbe0c1c77	-0.13682733
126	0xbdc7e07e	-0.09759615
127	0xbd52cfd3	-0.051467728
128	0xbd04a280	-0.032381535
129	0xbe063101	-0.13104631
130	0x3cb25504	0.021769054
131	0xbda7ea48	-0.081989825
132	0xbdd836a8	-0.105573
133	0xbe25316e	-0.16132137
134	0xbdac4cfb	-0.0841312
135	0x3de2392e	0.110460624
136	0x3d82e077	0.063904695
137	0x3c8b75b7	0.017023904
138	0xbdfbd6aa	-0.12296803
139	0x3cfbfde8	0.03076072
140	0x3cc4b112	0.024010215
141	0x3da5a156	0.08087413
142	0xbd260f3f	-0.040541884
143	0x3db11d27	0.086481385
144	0xbc1e446c	-0.009659868
145	0x3dcaee7f	0.09908771
146	0x3e134888	0.14383137
147	0xbe3737c7	-0.17892371
148	0x3e0c6f5b	0.13714354
149	0xbe1a3002	-0.15057376
150	0x3d39f114	0.045395926
151	0xbe1bded3	-0.1522172
152	0x3d756428	0.05990997
153	0x3d27cc2a	0.04096619
154	0xbabbc602	-0.0014325979
155	0x3d9c707b	0.076386414
156	0x3d1c04da	0.038090564
157	0xbd16f93c	-0.036858782
158	0x3e007306	0.12543878
159	0x3db4b211	0.08823026
160	0xbe1debcb	-0.15421979
161	0xbd1b09a7	-0.037851002
162	0x3d2f35da	0.042775966
163	0x3e45a95c	0.19302887
164	0x3d211391	0.0393253
165	0xbd19adf0	-0.037519395
166	0x3c837360	0.016046226
167	0xbd607deb	-0.054807585
168	0xbe398abb	-0.18119328
169	0xbe615ca6	-0.22007999
170	0xbd857506	-0.06516461
171	0xbe9b26da	-0.3030308
172	0x3d594859	0.05304751
173	0xbdec017f	-0.11523723
174	0xbd2417c2	-0.04006172
175	0x3d87872e	0.0661758
176	0x3e0f701a	0.14007607
177	0xbe27109f	-0.16314934
178	0x3dda750c	0.10666856
179	0xbdea7b1f	-0.11449265
180	0xbc188cb3	-0.009310889
181	0x3d662bdb	0.056194168
182	0x3ced3316	0.028955024
183	0xbdda513c	-0.106600255
184	0x3bf2d024	0.007410066
185	0x3dba8f6c	0.09109387
186	0xbc619818	-0.013769172
187	0xbca09642	-0.019602899
188	0x3d8d95fc	0.06913373
189	0x3c97a3bc	0.018510692
190	0xbd7966ce	-0.060889058
191	0x3dcaabf6	0.0989608
192	0x3db8f1cd	0.09030495
193	0x3e37a3c3	0.17933564
194	0x3cac1a86	0.021008741
195	0x3d0b92ee	0.03407567
196	0xbd43b9c2	-0.047784574
197	0x3d3b6494	0.045750216
198	0xbde57fa6	-0.11205988
199	0x3c6d8018	0.014495872
200	0xbdf928b7	-0.12165969
201	0x3e4ee5a2	0.20204785
202	0x3c952d73	0.018210148
203	0xbc86f57b	-0.016474476
204	0xbd2a4c84	-0.041576877
205	0x3c943d3f	0.01809561
206	0xbd2c660b	-0.042089503
207	0x3bc3efe0	0.005979523
208	0x3ba334bd	0.004980652
209	0xbceb1bef	-0.028699843
210	0xbd81b70f	-0.06333744
211	0xbce27fe5	-0.027648875
212	0xbd8b5e6f	-0.06805121
213	0x3d9160ed	0.07098565
214	0xbc9498b5	-0.018139223
215	0xbe27b7ae	-0.16378662
216	0x3c3ab007	0.011394507
217	0xbe111b42	-0.14170554
218	0x3d81bbea	0.0633467
219	0x3ce7fc93	0.028318679
220	0xbd817949	-0.063219614
221	0x3dd83032	0.105560675
222	0x3cfe542d	0.031045998
223	0x3d22a3fe	0.039707176
224	0xbc63fffa	-0.01391601
225	0xbe1451f7	-0.14484392
226	0x3e0e38a3	0.13888793
227	0x3ce306d8	0.027713224
228	0xbd1bf122	-0.03807176
229	0xbdc40e7b	-0.095730744
230	0xbd51581a	-0.05110941
231	0xbd7aafed	-0.061202932
232	0x3d1462ea	0.036227144
233	0x3dda5c31	0.10662115
234	0xbd1b4595	-0.037908155
235	0x3dda182b	0.10649141
236	0xbd0177b4	-0.0316083
237	0x3d05ddc0	0.03268218
238	0x3e2313c4	0.15925509
239	0x3e04afb0	0.12957644
240	0xbbf4c237	-0.0074694413
241	0xbe03f88a	-0.12887779
242	0xbd7d27f3	-0.061805677
243	0x3d2ba41b	0.04190455
244	0xbc023b0b	-0.007948647
245	0x3e1c51c7	0.1526557
246	0x3cbc31eb	0.022973021
247	0xbd839068	-0.06424028
248	0x3d654d76	0.055982076
249	0x3ddba141	0.10724116
250	0x3d3088a2	0.043099053
251	0xbcd3bd60	-0.025847137
252	0xbe070ef2	-0.13189295
253	0xbe01bdd7	-0.12670074
254	0x3cdf80f5	0.027283171
255	0x3e1154ba	0.14192477
