scripts/results/MAPPOTraining2v1/2v1/NoWeapon/MAPPOTraining/mappo/v1_2v1_mappo_training/wandb/offline-run-20250807_165042-zjjd28i2/files/actor_episode_2400.pt (torch, 700146 bytes, 30 tensors)

base.mlp.fc.0.weight f4 [128, 21]
00000000: d423 d6ba fdbd ef3d e5e9 37be 0873 24be
00000010: 2321 acbd 3eaf 6f3d e8ac 8dbb db2c 313e
00000020: 7aa4 9ebc 2184 6c3d e70f 87bd b5b1 2fbd
00000030: 3e7a 55be 86fd 13be 0b3a b8bd f370 043c
00000040: eaad b03d 0314 063e 4a7d 17be e19c c2bd
00000050: 5153 a23d 2888 1c3e b6fe 49bd 69b2 383e
00000060: d13c 16bd deca f4bc 2a3d 373e e925 54be
00000070: fafb 4dbe ba89 d7bc c657 14be f98d a43e
00000080: 2f9b 12be ed7d c4bd d3fe 19be 3daa 49be
00000090: 67ee 35be a971 933e ee10 bc3d 217c f63d
000000a0: 9501 9f3b c9fa ecbd fe43 9b3c 4936 5abe
000000b0: 07e1 31be 887b 02be f9ec e93d eb65 ec3d
000000c0: dcf9 e4bd d3f2 673a 2093 183e ae36 653e
000000d0: e9ac 9f3d 1241 5a3c 011b 063e 8c71 15be
000000e0: 1f2c ff3c 43b0 3dbe b14d 13be bc3c 04be
000000f0: 9414 ab3d a561 933d 89e1 e9bd 3aa9 f43b
00000100: ccd9 8e3d b983 b5bd dcc8 41bd a734 2b3c
00000110: 6843 9d3d a577 1d3e eb2e 1cbe 0872 4d3d
00000120: ece9 1e3d 5677 653e c846 0a3e 7a27 0c3e
00000130: ba8b 41bc 4b4f 4cbe d6fe 9fbb dc02 f9bc
00000140: 6be1 85be 5bae 0e3e 558f e13d 6234 25be
00000150: 06ed bf3c 4228 85bd 20c4 95bd 1d66 05be
00000160: dc96 633d d9aa 16be 10da 543d 6cab 1a3e
00000170: b7c3 983d 30d1 f23d 88fb 96be 1560 2ebe
00000180: a082 a53d 6016 393c 0c85 16be e5ae c7bd
00000190: 95e7 313e 8aa9 ef3d 0d5d 02be f519 a9bd
000001a0: 0751 34be 7586 80bb 5e46 28be 155d 2cbe
000001b0: 23ff 44bc e633 063d f605 b7bd e097 043e
000001c0: 2ffb 07be aac1 4a3e 3f22 193e 976f 3cbe
000001d0: 3975 5ebd 7b53 213c cd68 023d c1fd 533d
000001e0: 5661 af3d f428 563c 740f dabd 1779 d33d
000001f0: 5d59 56be 7f71 04be fdbf 5fbd 2ab2 d9bd
00000200: 1858 9cbd 0f26 37be 1121 3ebd 550f 3f3d
00000210: c892 11be 2f7b 37bc e6f5 1f3e 1bc5 b7bc
00000220: e2ba c63b c337 9abc 83e4 343d e314 0e3e
00000230: c2aa 533e 10e8 0d3e bd26 543e 0049 81bc
00000240: 0bbc 48be b6de d3bd da26 183e e269 b9ba
00000250: 9622 debd 7e3c 2bbe f61e 51be 1499 3cbe
00000260: b64c 35bd 9816 f53d 379e f13d db81 57be
00000270: 2663 0b3e 12db 2ebe 7df6 3cbd ba35 b5bd
00000280: da29 2cbd c17e 2fbd 7784 48be 8bf0 40be
00000290: 54dd 0bbd ddf1 383b 2605 cbbd ca59 a83d
000002a0: cb4e 5bbe b068 1abc 97b6 5a3e 45b3 aebd
000002b0: b28a 4e3e c440 723d c167 4bbe 6929 803d
000002c0: bd53 d13c 94ac eabd 73f5 703e 7f92 36be
000002d0: 473b d63c 21fb 3bbd 71b8 1b3e b526 2cb9
000002e0: 0f41 d83d 9cb3 a23d 875d 43bd afc6 4dbd
000002f0: b2e4 3abe 6759 d03d 3ece 2d3e c72d 353e
00000300: 45ab 0fbe 9333 c9bc d525 28be 4539 e3bd
00000310: 6857 64be fd48 d13d 376e 73be c399 2b3e
00000320: b1bb a83c 9c9a 1d3e c89b 17be 5d5e 0bbe
00000330: ec97 41be 83b7 693e b34b 8fbd 7883 583e
00000340: 866f aa3d 022f 393c e8c7 f0bc 9d8d 3fbd
00000350: 319b 723d 2808 44bd 17ca 443d 4413 55bc
00000360: b39c 32be c8a0 e6bd da52 583e ed33 43be
00000370: 13b0 8dbc 8ac6 683e d1b6 c23d acaa 2d3c
00000380: 2cb6 3ebe f697 a03d a4aa 12be 0330 69bd
00000390: 431d 4cbd f19f 17bd 8781 c4bb c2ce 0f3e
000003a0: a7f1 833c bd4c 593e 4c9a 033e 4d97 2cbe
000003b0: 726b 623d a9a7 2abe 5c60 26be 3a09 ea3d
000003c0: dd9e 14bc 4473 983e 1e3c 99bd af3f 2bbb
000003d0: add5 df3d b854 50be 9783 903d d009 dbbd
000003e0: 79ec edbb f524 e6bc 2ffc 05be 7416 033d
000003f0: 8628 693e 1b60 30bd 4f26 f0bd 34bc 6abd
-0.0016337582 0.11706159 -0.17960317 -0.16059506 -0.08404758 0.058516733 -0.0043235905 0.17302267
-0.019365538 0.057743195 -0.0659483 -0.042894084 -0.20847413 -0.1445218 -0.08995446 0.00808357
0.086269215 0.13093571 -0.14793888 -0.095025785 0.079260476 0.15286314 -0.049315177 0.18036808
-0.036679093 -0.02988189 0.17894426 -0.20717587 -0.20115653 -0.02631079 -0.14486608 0.32139567
-0.1431701 -0.09594331 -0.15038614 -0.19693847 -0.17766725 0.28797653 0.091829166 0.120353945
0.0048524835 -0.11571271 0.01895332 -0.2130977 -0.17370997 -0.12742436 0.11422152 0.11542877
-0.111804694 0.00088481343 0.14899874 0.2238414 0.07796652 0.013321178 0.13096239 -0.14594096
0.031148968 -0.1852427 -0.14385106 -0.12913793 0.08353534 0.071963586 -0.114199705 0.0074664624
0.06975135 -0.08863015 -0.047310695 0.010449565 0.07678872 0.15377672 -0.15252273 0.050157577
0.038797304 0.22408804 0.13503563 0.13686934 -0.011813099 -0.19952123 -0.0048826737 -0.030396871
-0.26148543 0.13933699 0.110136665 -0.16133264 0.023428451 -0.06501819 -0.073127985 -0.13027234
0.055563793 -0.1471361 0.051965773 0.15104455 0.07459205 0.118563056 -0.29488778 -0.1702884
0.08081555 0.0112968385 -0.14699191 -0.09750155 0.17373498 0.11702259 -0.12730809 -0.08256904
-0.17609034 -0.0039222785 -0.16433093 -0.16832383 -0.01202372 0.032764338 -0.08936684 0.1294856
-0.13279413 0.1980044 0.1495447 -0.18401943 -0.05431101 0.009846563 0.031838227 0.05175567
0.08563487 0.013071287 -0.10647479 0.103258304 -0.20932527 -0.1293392 -0.054626454 -0.10629685
-0.0763399 -0.17885612 -0.046418253 0.04664548 -0.14216149 -0.011198803 0.15621147 -0.022432854
0.0060647586 -0.018825417 0.04416324 0.13875155 0.20670608 0.13858056 0.20717902 -0.01578188
-0.19602983 -0.10345213 0.1485857 -0.0014145935 -0.108464405 -0.16722295 -0.20421967 -0.1841777
-0.04426261 0.119672 0.11797755 -0.2104563 0.13612041 -0.17075756 -0.046133507 -0.08848138
-0.0420321 -0.04284549 -0.19581781 -0.1884176 -0.03414662 0.0028220334 -0.09913091 0.08220251
-0.21416776 -0.0094243735 0.21358715 -0.08530287 0.20170096 0.059143797 -0.19863798 0.06257898
0.025552625 -0.11458698 0.23531131 -0.17829321 0.026151313 -0.045893792 0.15207078 -0.00016417618
0.10559284 0.07944414 -0.047696617 -0.050238308 -0.18251303 0.10173302 0.16973206 0.17693244
-0.14030178 -0.024560725 -0.16420682 -0.11094908 -0.22298968 0.102189995 -0.23772512 0.16757874
0.02059731 0.1539101 -0.1480552 -0.13610215 -0.1890561 0.2282391 -0.0699686 0.21143901
0.08322053 0.011302711 -0.029392198 -0.046765912 0.059230033 -0.04785934 0.04804429 -0.013005082
-0.17442589 -0.11261135 0.21125355 -0.19062777 -0.017295873 0.22731987 0.09507526 0.010599773
-0.1862418 0.07841484 -0.14322907 -0.056930553 -0.049832594 -0.037017766 -0.005996886 0.14043716
0.01610644 0.2122068 0.12851828 -0.16854592 0.05527825 -0.1666552 -0.16247696 0.11427541
-0.009071079 0.2977544 -0.074821696 -0.0026130488 0.10929427 -0.20344818 0.07056349 -0.10695231
-0.0072608558 -0.028093794 -0.13084482 0.032003835 0.22769365 -0.043060403 -0.11726057 -0.05730839

base.mlp.fc.0.bias f4 [128]
00000000: 8694 a63d 0550 41bd 1b7e 493e dc45 64bd
00000010: 5478 12be 587c 663d 046c e83d 1c4d e3b9
00000020: 491c 423e 7389 f9bd 90df cf3d fe54 f73d
00000030: 6e8d 073e c324 9f3c 61b9 243d b58c 60be
00000040: 821b 57be f0e5 00bd 83f6 a8bd 344c 273e
00000050: 565d 2c3e 5a6c 103e 0afd a7bd bf34 2fbe
00000060: 5568 62be 41cd d63d 314c 58be 5284 75be
00000070: 9c14 b0bd c8da 32be 6abb 00be e7ac 0cbe
00000080: 2d67 ffbd 55a0 8a3e 34de 5dbd b91e 0f3e
00000090: 27a7 9e3b 1ce1 e5bc f3c0 a1bd 57bb 1fbe
000000a0: d988 33be 7562 173e 89e3 a4bd 3cdd 59be
000000b0: 83cf 2a3e cca3 843b b56c 1dbe c747 1abe
000000c0: 52bc 41be a952 47be 3d09 093e 2412 1a3e
000000d0: 1936 923c ef71 3ebe c2c7 69bd 7fa6 59be
000000e0: 45df 773d ae53 6dbd 0fe9 89bd 10da 9ebd
000000f0: b57f 683d eb68 b73d ed79 3b3d ab17 febc
00000100: 241c e8bc 6644 ff3b fa1a 1cbe 3ad6 363e
00000110: 9dbe c0bd 9828 f73d b6c1 e0bd e402 c03a
00000120: 57fd 983d 78e2 35be 66ff cc3d e50a 2bbe
00000130: 54b2 763b 84d4 0ebd 4268 d73d 7411 5d3e
00000140: 5c3e 513d 26a1 30bc 853e 18be d19f a63d
00000150: a41b d7bd 979a b83d 87dc ccbd 1542 2e3e
00000160: 1bd4 213e eafd 003e 31a8 05bb b4dd f23d
00000170: 6449 48be 4570 2a3e dde1 2dbd ee2d 9b3d
00000180: c396 22bd 082c 7ebd 015f b3bd 3822 103e
00000190: 8f41 f5bd b8e0 cbbc a471 e13d 85b3 cbbb
000001a0: 925c 22be 9a95 62be da62 11be 006c 4d3e
000001b0: 12e3 27be 3398 df3d eb38 1e3e 689e 90bd
000001c0: cc5b c5bd 8e74 2abe f721 e13b 2fdb e8bc
000001d0: 55b4 2d3c fab2 823d 659e a53d 1a55 88bd
000001e0: eb8d 753c 2a0d 4e3d bcaa 10bd cd98 063d
000001f0: 70a6 36bd d9c2 4a3e 8ed2 bcbd 1927 08bb
0.08133797 -0.047195453 0.19677012 -0.055730686 -0.14303714 0.056270927 0.11348727 -0.00043354265
0.18956102 -0.121844195 0.10150063 0.12076758 0.13237545 0.019426709 0.040215854 -0.21928675
-0.21006587 -0.031469285 -0.082501434 0.16337663 0.1683248 0.14103833 -0.0820256 -0.17109965
-0.22110112 0.10488368 -0.21122815 -0.23976257 -0.08597681 -0.17466271 -0.12571493 -0.13737832
-0.12470851 0.2707545 -0.054166988 0.13976564 0.0048417035 -0.028061442 -0.0789813 -0.15598808
-0.17532672 0.14783652 -0.080512114 -0.212758 0.16680722 0.0040478464 -0.153735 -0.15066443
-0.18919495 -0.19465126 0.1338243 0.15045983 0.017848061 -0.1859815 -0.05707527 -0.2125492
0.06051566 -0.05794113 -0.067339055 -0.07756436 0.056762416 0.089555584 0.045770574 -0.031017145
-0.028333731 0.007790136 -0.15244666 0.17855158 -0.094113566 0.120682895 -0.109744474 0.0014649299
0.07470196 -0.17762172 0.10009651 -0.16703375 0.0037642913 -0.03487064 0.105179325 0.21588689
0.05108486 -0.010780608 -0.148676 0.08135951 -0.10503319 0.09013861 -0.10003 0.17017396
0.15803568 0.1259686 -0.002039444 0.11858693 -0.19559246 0.1664439 -0.042451728 0.0757712
-0.03969456 -0.06205371 -0.08758355 0.14075553 -0.11975395 -0.024887428 0.11008003 -0.0062164688
-0.15855625 -0.22127381 -0.14197865 0.2006073 -0.16395214 0.109177016 0.154514 -0.070614636
-0.096366495 -0.16646025 0.006870504 -0.028424827 0.010602077 0.06381793 0.08086852 -0.06656857
0.014987449 0.050305523 -0.035319075 0.032860566 -0.04459232 0.19800891 -0.092198476 -0.0020775257

base.mlp.fc.2.weight f4 [128]
00000000: 4825 7f3f e453 893f a1e1 793f 905c 763f
00000010: c50b 723f 018c 753f 9610 6e3f e4e5 653f
00000020: 66e4 823f f8b3 883f e296 6c3f 8ac3 853f
00000030: f784 743f d329 843f 314a 753f c5ce 6f3f
00000040: 91fb 783f 128b 663f 8115 723f f1e2 773f
00000050: a94d 873f b016 6e3f 68e0 843f f480 7f3f
00000060: 2b12 6c3f 901c 7e3f c1c2 7c3f 719b 7a3f
00000070: 7644 813f 8185 7c3f d3e9 683f 2655 6e3f
00000080: 9d32 803f 976a 823f 8d0a 813f 1624 743f
00000090: 0c60 703f 7659 703f 57d5 733f 67a9 7d3f
000000a0: 209d 743f 7aaf 783f cce9 7c3f 3ff5 693f
000000b0: 1760 6c3f 5ec9 6a3f 9dca 6f3f e80f 843f
000000c0: 12d5 773f 53a2 813f 3363 6b3f 0398 7d3f
000000d0: 574d 773f 0866 733f cd45 793f 33c7 6e3f
000000e0: 1c7a 793f 3743 6e3f 891e 963f 890d 813f
000000f0: 6c41 6d3f 9736 703f e47a 863f dc47 813f
00000100: f5b8 7f3f 750a 873f 2bbe 8b3f 6745 773f
00000110: bea5 793f b68f 7f3f 8dbe 8a3f 3d1c 6a3f
00000120: 0744 633f 5b64 773f eeb0 733f 5a30 673f
00000130: 5ae0 803f 9064 603f 83fb 813f 7375 903f
00000140: a101 823f 72dd 763f 186d 6c3f 5b35 6d3f
00000150: 1062 773f 8012 793f 23b0 723f 2674 8c3f
00000160: aa56 803f 2411 6c3f 2c21 863f 00dd 883f
00000170: 528a 7c3f 86fb 6b3f 016a 8d3f beb0 843f
00000180: d523 6f3f c35b 953f 43d1 843f 4f24 7c3f
00000190: 8d51 753f e89c 853f 4f8c 7d3f 9e14 7f3f
000001a0: edc6 863f 467c 6d3f 466e 7a3f bf16 883f
000001b0: 6546 813f 5807 843f 8c19 843f b786 803f
000001c0: 89cf 793f e0b6 6f3f 7b7b 7d3f 11a8 6c3f
000001d0: 9326 773f 3c42 793f 88fa 7f3f 1de0 843f
000001e0: 67c1 713f 9f93 753f affa 5e3f 9ad5 803f
000001f0: c929 7c3f 53e3 743f 7fde 653f f448 853f
0.9966626 1.0728726 0.9760991 0.9623499 0.9454921 0.95916754 0.9299406 0.8980391
1.0225952 1.0679922 0.9241773 1.0450299 0.9551539 1.0325264 0.9581633 0.9367488
0.9725886 0.90055954 0.9456406 0.9683066 1.0570575 0.9300337 1.0380983 0.9980614
0.9221522 0.9926233 0.9873467 0.97893435 1.0099018 0.9864121 0.9098179 0.93098676
1.0015446 1.0188779 1.0081345 0.9536756 0.93896556 0.93886507 0.95247406 0.9908661
0.95552254 0.97142756 0.98794246 0.9138984 0.9233412 0.9171351 0.9366854 1.0317354
0.96809494 1.0127662 0.9194824 0.99060076 0.96602386 0.9507756 0.9737213 0.93272704
0.9745195 0.9307131 1.1728069 1.0082256 0.9267795 0.938333 1.0506253 1.0100055
0.998916 1.0550066 1.091741 0.96590275 0.9751853 0.9982866 1.0839401 0.9144934
0.88775676 0.96637505 0.9519185 0.90308154 1.0068467 0.87653446 1.015488 1.1285843
1.0156747 0.9643165 0.92353964 0.9265954 0.96634007 0.97293854 0.94800013 1.0972946
1.0026448 0.92213655 1.0478873 1.0692444 0.9864856 0.9218067 1.1047975 1.0366437
0.9341405 1.1668628 1.0376362 0.984929 0.9582756 1.0438509 0.9904222 0.99640834
1.0529457 0.9276775 0.97824514 1.0631942 1.0099608 1.0314741 1.0320296 1.0041112
0.975823 0.9363842 0.9901654 0.9244395 0.96543235 0.9736669 0.99991655 1.0380894
0.94435734 0.95928377 0.8710126 1.0065186 0.9850126 0.9565937 0.8979263 1.0412889

base.mlp.fc.2.bias f4 [128]
00000000: 4bf3 633b 83d1 5fbb 72e8 cb3c 0d65 65bd
00000010: 51be 563d 67a4 1e3d 6fc0 8e3d ecc4 d73d
00000020: 5f35 143c 5086 e23b 94c0 183d 7ed4 b33a
00000030: 0f5b fc3c cd32 1fbb a19c e53c d299 fc3b
00000040: 8d5b fcbc 04ef c43d 3b2a 40bd 4067 d83c
00000050: c7a9 233c 1beb 893d 191a 203c ec39 54ba
00000060: 05b9 963d 4fe0 8d3c e404 8bbc 03d7 05bc
00000070: e088 adb9 7364 1f3b b25f 643d 030b 893d
00000080: 5bc9 f9bb 3806 823c 9ce6 85bc 5684 033d
00000090: 1393 813d c00d 863d a3f0 f93b 04b5 493c
000000a0: 3243 2b3d 1710 f43c 5553 edbb d82c a03d
000000b0: b173 d6bc 0b00 a13d 649d dc3a a38a 053b
000000c0: 20eb f73c f076 9ab9 3cb2 82bd 3f1a 3e3c
000000d0: 69b1 103d f9cb 573d c2a3 cb3c 3d0a 8c3d
000000e0: 2966 6ebc 78f0 963d cdfd 2a3b 5447 7f3a
000000f0: cf92 0abd 13ac dabc b3af 783b 03b9 d8bb
00000100: f8cc 1dbc 54fa 87bc 7067 1fbc e460 ea3c
00000110: 5f89 ea3c 62a3 caba 9350 723c bbbc b93d
00000120: b8ca e63d bc5d 39ba 6624 553d fc23 be3d
00000130: d5f1 9fbc a3e6 3f3c 91a8 39bc 1feb 16bc
00000140: 2771 86bc 5e41 1f3d acfa 8dbc ff7e 973d
00000150: 307a 1d3d 9983 ef3c 9b71 5b3d 7c6b 513c
00000160: 02c4 39bc 6237 ab3d 53bb 183b c8ad 44bb
00000170: 3847 7d3c eabe a53d e22a a83c e79f 10bc
00000180: 6641 853d 8987 d8bb a021 363c 8595 563c
00000190: 887e 05bc e24c b33b c33f 5d3c adc4 eabc
000001a0: a1fb 593c 426a 9f3d addc d4bc 517c debc
000001b0: 7e91 7fbb 6697 18bc 246e 89bc c196 e13c
000001c0: 5338 dd3c c214 a53c c204 7fbc 31f2 983d
000001d0: ead8 1a3d 7916 08bd 2982 053b f72a ec3b
000001e0: 7936 683d 8145 203d 8dad 10bc 0592 1bbc
000001f0: 6c60 163b 105e 573a 205a 2abd 953e 8b3c
0.0034782465 -0.0034151978 0.024891112 -0.056004573 0.052427594 0.038731005 0.069702975 0.10535607
0.009045928 0.006912984 0.03729303 0.0013719944 0.030805139 -0.0024291754 0.028028788 0.0077087665
-0.030805374 0.09615901 -0.046915274 0.026416421 0.009989209 0.06734296 0.009771847 -0.0008095789
0.073595084 0.017318873 -0.016970105 -0.008168939 -0.0003309911 0.0024321347 0.055755325 0.066915534
-0.0076228804 0.015872106 -0.016345315 0.032108627 0.0632688 0.06545591 0.007627563 0.012311224
0.04181213 0.029792828 -0.0072426 0.07821053 -0.026178213 0.07861336 0.0016831574 0.0020376823
0.030263484 -0.00029461784 -0.06381652 0.011602937 0.03532544 0.052684758 0.02485836 0.0683789
-0.014550724 0.073700845 0.0026091218 0.0009738107 -0.033831414 -0.02669338 0.0037946522 -0.006613852
-0.009631388 -0.016598858 -0.009729251 0.028610654 0.028629957 -0.0015460069 0.014789718 0.090692006
0.11269134 -0.00070711575 0.052036665 0.09284207 -0.019524494 0.011712703 -0.011331693 -0.009211331
-0.016411377 0.0388807 -0.017331444 0.073972695 0.038446605 0.029237555 0.05357514 0.012781974
-0.011338236 0.08360173 0.0023305013 -0.0030010808 0.015458874 0.080930546 0.02052826 -0.008827186
0.065066144 -0.006607954 0.011116415 0.013097172 -0.008147843 0.0054718116 0.0135039715 -0.028658235
0.013304622 0.07783939 -0.025984133 -0.027158888 -0.0038996632 -0.00931344 -0.016776152 0.027537705
0.027004397 0.0201515 -0.015565099 0.07468069 0.03780452 -0.033224557 0.002037177 0.0072072702
0.056692574 0.039128784 -0.00883044 -0.009495263 0.0022945656 0.00082156155 -0.041589856 0.016997615

base.mlp.fc.3.weight f4 [128, 128]
00000000: 5c14 c1bd 0a66 84bd d9b8 4bbc 71c4 8c3c
00000010: f771 3dbd 067f f83c 924a c4bc 3f8e 753c
00000020: 170b 573d ce53 a43b 095d 02bd 7bb9 bb3c
00000030: 066f 833c 41e6 78bd a298 37bc d39c 9f3c
00000040: d5d4 5a3d 35b2 833d cab2 9e3d b77b babb
00000050: dc5c e9bc 7eb2 6bbd 021e f5bc bce7 83bb
00000060: f48a 8e3c 75aa 55bd d937 86bd 415f 673d
00000070: 03f8 a1bd e4c6 0dbd 879f 4abd 3667 303d
00000080: 9397 e8bb 0159 83bd dbc4 debc a850 0f3a
00000090: 4b7d a4bd 25dc 2cbc a663 07bd 8722 753c
000000a0: 7175 9a3c cfdc 94bd 5dd5 5c3d 71ce 503d
000000b0: 4506 50bc 3063 ef3c 360a c6bd d9ae 933d
000000c0: f76a 263c af03 c9bc f9d4 883d 762b cabd
000000d0: b130 46bd 4452 8bbd 87df 8abd e608 8fbd
000000e0: 81d3 00be adcb 8cb9 89ba 833c ba14 82bd
000000f0: 5d7b 2ebd 82b8 8fbc 6972 a73d eda8 acbd
00000100: 310a 04bd bae5 213d 3b2c 363c a12e 5ebc
00000110: a844 083c 3a31 e63d f6df ffbc 4be9 333d
00000120: 9767 723d c714 96bd 493a c33b f2dc 093d
00000130: acf0 013d b855 e93d 32d7 36bd 5157 2f3d
00000140: 6437 4dbc 5219 94bd bad5 e63c 1860 313c
00000150: a4fb 733d 3eef c53b 0e91 033d c2c3 05bc
00000160: fe79 3f3c aee7 12bd 76d1 1b3d 97bf 97bd
00000170: c05f 44bc ae70 36bd 8cc9 16bb 1013 c0bd
00000180: d835 1d3d 685d d9bd b9c5 503d b6cd 2e3d
00000190: 6a07 afbc 69c9 6f3d 03df a4bd 365d 2b3b
000001a0: 771d 503d 32bf 34bd 631c bb3d 8f76 4ebd
000001b0: 35e1 76bd e61e a1bc 2e74 2fbd 02a7 9e3d
000001c0: 965c 503d bc68 353d f8b0 833c 4567 babd
000001d0: e871 523d ce5c cb3c 4f2f 53bd 0cb6 babd
000001e0: 08a7 6a3d 68b0 bb3c bbf4 cd3d 9cab 153c
000001f0: 31a8 babd 4bcd 873d 1362 1f3d 8573 393c
00000200: 96ff bebc 9d94 33be 16d8 913d 2c57 2e3c
00000210: 6bbc 52bd fc6d dd3b b76f a4bc 9b85 00bc
00000220: ca7e c33d 56df 22be f764 0a3d f685 693b
00000230: 59e7 e5bb 4a66 54bc 0d7f 4e3d 8959 91bd
00000240: bd2a 793d 922c 3abd 25e7 a63c fde4 b3bd
00000250: 1904 0cbd c875 c93d 71c9 b5bd 9c34 1bbd
00000260: 62d4 553d 497f e83c 6811 cc3c 9b92 623a
00000270: 92a6 dbbd a6dd fcba 8166 5cbd 5aa9 2fbd
00000280: 4d4e 8e3d dd01 953d 1a29 4e3d cd1e 173d
00000290: 6f96 6d3d e0c6 3a3d c3fd 193d 6c36 a5bd
000002a0: feca afbd d51d d73c 83ed 0bbd 4d40 66bd
000002b0: 3ecd a63d bc18 a33d c59b 003d f09f 29bd
000002c0: dda3 693c bc7c 39be 208b b93c 904a 8fbd
000002d0: 1f60 723d d714 2abd 484d 14bd 3645 99bd
000002e0: e94d e13c 4ef5 1dbc fe25 5bbe 8350 89bd
000002f0: 1bdc 6b3d 4e55 cebd caa4 0abe f29a e83c
00000300: 524b fa3d cf32 923c d225 f23d 8815 bbbb
00000310: 478c 11bd 73e8 273d 636a 56bd 8912 953d
00000320: 27f8 b23d cafb 09bd 8a42 083d cb58 b33d
00000330: c373 aa3d ec4c 4cbb a19a fdbc 0b3c f23d
00000340: 3f2e a03c 3089 44bd 8f16 9a3d a06a 21bd
00000350: c6ad 993c a945 debc 14a7 2f3d 7971 f0bd
00000360: 0545 f33d e1cc bdbc 4e09 96bd f6e6 303e
00000370: 7f65 51bd 1f94 95bd d9c3 813d 4829 c43d
00000380: daa5 0bbd fecd ac3d a810 e9bd 78c2 02bd
00000390: 2861 893c c6ae f23d 9349 753d c3f9 7f3d
000003a0: 0c1b 04be fbce 7cbd 2e98 a53a 2b9d dc3c
000003b0: 22f7 37bc 050e 503e b324 633d 036f ec3d
000003c0: 9061 e03c 660b 443d 7c17 9bbc 6932 6f3c
000003d0: e580 8f3d 454d a0bd f8b7 9d3b 4b82 8f3c
000003e0: 3e9d 8dbd 3d79 423d cf11 26bc fc87 2fbc
000003f0: 45d9 643c aa01 743b c7eb fa3c 37c7 4fbd
-0.09427711 -0.06464775 -0.012434208 0.017183514 -0.046251263 0.030334007 -0.02396134 0.014987527
0.05250081 0.005014873 -0.031827006 0.022915592 0.016044151 -0.060766462 -0.011205824 0.01948396
0.05342563 0.06430475 0.07748945 -0.0056910175 -0.028486662 -0.05754327 -0.029921535 -0.0040254276
0.017400242 -0.052164514 -0.06553621 0.056487326 -0.079086326 -0.034613505 -0.049468543 0.04306718
-0.007098147 -0.064134605 -0.027193477 0.0005467036 -0.0803171 -0.010550533 -0.033054017 0.014961845
0.018854829 -0.072686784 0.053914417 0.050978128 -0.012696807 0.029222101 -0.09669916 0.07211084
0.010157338 -0.02453789 0.06681246 -0.09871571 -0.04838628 -0.068028 -0.06780916 -0.06984119
-0.12580682 -0.0002685463 0.016080158 -0.063516095 -0.042598117 -0.017544035 0.08176119 -0.084306575
-0.03223628 0.039525725 0.011118944 -0.013560922 0.00831715 0.11239858 -0.031234723 0.043923657
0.059180822 -0.07328182 0.005957876 0.033657975 0.031723663 0.11393303 -0.04463882 0.04280788
-0.012525413 -0.07231392 0.028178085 0.010826133 0.059566155 0.006040483 0.032120757 -0.008164348
0.0116868 -0.03586548 0.038041554 -0.0740959 -0.011985719 -0.044541053 -0.0023008315 -0.09378636
0.038381428 -0.10613519 0.050969813 0.04267665 -0.02136584 0.05854169 -0.080503486 0.0026148087
0.05080935 -0.04412765 0.09136274 -0.050406035 -0.060273368 -0.019668054 -0.042835407 0.07746698
0.050869547 0.044289336 0.016075596 -0.09101728 0.05137816 0.024824526 -0.05155879 -0.09116754
0.0572882 0.022911265 0.10056444 0.009135153 -0.09114111 0.066309534 0.03891189 0.011319046
-0.023315232 -0.1753716 0.07121293 0.010640901 -0.05144922 0.006757496 -0.020072801 -0.007844354
0.095456675 -0.15905508 0.033787694 0.0035632825 -0.007016104 -0.012963841 0.050414134 -0.070971556
0.060831774 -0.04545266 0.02037389 -0.087839104 -0.034183595 0.09836918 -0.088763125 -0.03789197
0.052204497 0.028381007 0.024910644 0.0008643062 -0.1072513 -0.0019292131 -0.053808693 -0.042886116
0.069485284 0.07275746 0.050332166 0.03689461 0.058004793 0.04559982 0.03759552 -0.08067021
-0.085836396 0.026259342 -0.034162056 -0.056213666 0.081446156 0.07963702 0.031398553 -0.041412294
0.014260259 -0.18113989 0.022649348 -0.069966435 0.0591737 -0.04152378 -0.036206514 -0.07483904
0.02750297 -0.009641005 -0.21401212 -0.067048095 0.057582956 -0.10074864 -0.13539425 0.028394196
0.122213975 0.017846493 0.1182362 -0.005709354 -0.03553417 0.040993165 -0.052347552 0.07278926
0.087387376 -0.03368739 0.03326658 0.0875717 0.08322861 -0.0031173779 -0.030957522 0.118278585
0.019553302 -0.047982395 0.07523834 -0.039408326 0.01875962 -0.027132826 0.042883947 -0.11740393
0.11878399 -0.023168983 -0.073259935 0.17275605 -0.051122185 -0.073036425 0.06336183 0.09578186
-0.034093715 0.084377274 -0.1138013 -0.03192374 0.01676996 0.11849742 0.05988462 0.06249405
-0.12900943 -0.06172083 0.0012633854 0.026930412 -0.011228355 0.20317848 0.05545492 0.11544611
0.027390271 0.047862433 -0.018932097 0.014599421 0.070070066 -0.07827238 0.0048131905 0.017518183
-0.06914757 0.047478903 -0.010136082 -0.010713574 0.013967817 0.0037232437 0.030630006 -0.050727095

base.mlp.fc.3.bias f4 [128]
00000000: 6efb b13d 33fa 113d 46a5 e53d d58f b3bd
00000010: fedf 8e3d 6882 103d 1c82 753d cdc8 38bd
00000020: 1a7c 2bbd 34b3 3fbd 5c76 643d 0e60 a43d
00000030: 34fa 8dbc db8f 183c 2e6a 173c 4885 23bc
00000040: a1f8 313d e465 ba3c 8718 763a 2c10 4fbd
00000050: 0b7a 823c 6d85 083d e089 9abd 917c 833d
00000060: 21a7 843b 6d83 d73c 6413 043d cbaf 7e3d
00000070: 150d d43d e80e 6dbd d1dd 5f3c ef87 f93c
00000080: c80c c6bd 32ea 293d c01e debd 8e1d 87bd
00000090: 1247 4ebd ee49 a3bd 5b26 92bd 9afe 393d
000000a0: 67d9 2ebd 3fa0 87bd d3b0 c7bd 8111 4cbd
000000b0: e8c3 88bc 373c f93b 5e41 a9bd a1c1 1d3c
000000c0: 0f24 993c 00ad ce3d 4cc0 c7bc a90c 7fbd
000000d0: 643f ac3d 4127 41bd 13b7 c7bd 836b 4ebd
000000e0: 8a8e 683c 87aa 553b 0dc1 4b3d 4b80 533d
000000f0: d1ae dcbc 0389 243d c9e9 093d 6bb4 be3b
00000100: f4c3 a1bd 17f8 fcbc 7285 3c3c c145 fdbc
00000110: d07f d73c 4098 ae3c 8fce 89bd a029 823d
00000120: 3d36 733a 6166 a4bc 7a94 a0bc 3c6a 3ebc
00000130: ece2 23bd 7828 20bd 8789 003d de64 59bd
00000140: aa79 be3d 5509 8abb 5696 b2bd 2ede 8c3d
00000150: d1c4 ca3c 1588 1cbd e25b 753d 01a2 b9bd
00000160: 7894 61bd cc2b 8fbd de4f a93c cfcf 1f3d
00000170: 07bb 5fbd 9d6c a7ba 3f46 34bd 9e5e 703d
00000180: 775a 683d f4cd b03c 9e64 5cbc 9632 213d
00000190: 4e7f d5ba a0c9 5bbd 739a c23d a0a5 87bc
000001a0: ceea 84bd 5ee2 133c 262f 1a3d 73da acbd
000001b0: 38b8 843b de58 9c3b 199b 5dbd 905c ae3b
000001c0: fb68 1f3d a875 ccbd 46ab 043d 8810 9d3d
000001d0: 28e7 5fbd 06f1 083c 455d 91bd 2730 8b3d
000001e0: d88b d4bb d4d5 a13b 4a6f 373d d996 a6bb
000001f0: 28b2 6ebd fe15 833c cee0 1f3d 04a5 4dbd
0.086905345 0.035639 0.11213164 -0.08767668 0.06976317 0.035280615 0.059938535 -0.045113374
-0.0418664 -0.04680176 0.05577694 0.080261335 -0.01733122 0.009311642 0.009241624 -0.009980507
0.04345 0.022753663 0.000938781 -0.050552532 0.015927335 0.03333037 -0.07545829 0.064202435
0.0040482436 0.026307786 0.032245055 0.062179368 0.10354058 -0.057875544 0.013663725 0.030460326
-0.096704066 0.04148311 -0.10845709 -0.06597434 -0.050360747 -0.07973085 -0.07136222 0.045408823
-0.0426878 -0.066223614 -0.097505234 -0.04982138 -0.016694978 0.007606055 -0.08264421 0.009628684
0.018693952 0.10091591 -0.024383686 -0.062267933 0.08410528 -0.047156576 -0.097517155 -0.0503955
0.01419414 0.0032602863 0.049744654 0.05163602 -0.026938828 0.040169727 0.03367022 0.0058198473
-0.07898703 -0.030880017 0.011506425 -0.03091705 0.026306063 0.021312833 -0.06728851 0.063555956
0.00092777965 -0.02006835 -0.01960205 -0.011622008 -0.04001133 -0.039101094 0.031381156 -0.05307471
0.09300549 -0.0042125382 -0.087200806 0.06878315 0.024752053 -0.038215715 0.05990208 -0.09064103
-0.05507323 -0.069907755 0.020667966 0.03901654 -0.054621723 -0.0012773458 -0.044012304 0.058683984
0.0567269 0.021582581 -0.013451723 0.039354883 -0.001628855 -0.05365908 0.09502115 -0.016558468
-0.06490098 0.009026138 0.03764262 -0.084401034 0.004050281 0.004771336 -0.05410299 0.005321093
0.038918477 -0.09983379 0.0323899 0.07669169 -0.054663807 0.008358246 -0.07097868 0.06796294
-0.0064863972 0.0049388204 0.044783868 -0.0050839004 -0.05827537 0.016001698 0.03903275 -0.0502062

base.mlp.fc.5.weight f4 [128]
00000000: 8f1e 873f 390a 843f 992e 843f 0ada 7c3f
00000010: c3d4 853f 6017 823f 781e 813f aaf1 823f
00000020: f647 843f ff02 8a3f 98c0 843f 3a8c 863f
00000030: b241 7b3f e86e 813f 8467 853f e56a 793f
00000040: a22e 873f bb82 823f 31ff 873f 23c3 863f
00000050: 6f81 863f 6744 7e3f 9317 8a3f bdc4 893f
00000060: b3d0 5e3f 8aca 723f b17f 6e3f 5fff 773f
00000070: 9da9 813f cc5b 813f c9b9 843f 62d2 7b3f
00000080: 5f01 863f b13c 853f 96d8 6e3f e50b 903f
00000090: d9ed 8c3f 5579 733f 29b3 7f3f b11c 853f
000000a0: 9f02 873f 67dc 6b3f 13a1 853f 970f 833f
000000b0: b747 803f f41a 6f3f 50d0 783f c7e9 893f
000000c0: 7f8b 803f 57f8 8a3f 4e13 893f 60fe 803f
000000d0: 100d 843f d08b 8a3f 191e 863f c43f 8c3f
000000e0: 8faa 843f fa1b 753f d40d 803f a796 7c3f
000000f0: 599a 813f a8c2 723f 7255 843f fc4b 7b3f
00000100: 38b2 803f 4075 823f 2df2 7b3f 6405 883f
00000110: e4f6 833f 5e79 783f a013 8a3f 5e3b 833f
00000120: 96b4 823f dde5 813f 1924 843f 6733 8b3f
00000130: d2e7 873f c3f7 843f c696 8a3f 9a77 6e3f
00000140: b47f 883f 8137 853f bc5a 743f 3ca8 7a3f
00000150: c7fd 833f 4c7a 7c3f 949d 773f 2d32 853f
00000160: 6621 643f e602 843f 63fb 853f 47d4 693f
00000170: 7661 7c3f 2d5f 8d3f bd16 863f 1cdb 783f
00000180: b875 843f 4042 823f 6f0a 843f bb51 883f
00000190: 9273 843f 67e3 813f 4df9 8b3f 8335 853f
000001a0: dff7 843f 7d0c 813f 474c 723f 1fc5 7f3f
000001b0: 709f 6a3f 9c29 8a3f 4f41 883f 6458 873f
000001c0: 1ae7 873f 5f37 813f 1beb 813f c63c 8d3f
000001d0: 0c06 853f a71d 793f 59ca 803f 19a0 883f
000001e0: 311a 783f 584d 833f 94fc 893f f761 863f
000001f0: 3d58 813f bfc9 7f3f 22ef 833f 1a59 833f
1.0556201 1.031562 1.032672 0.987702 1.0455555 1.0163383 1.0087423 1.023
1.0334461 1.0782164 1.0371275 1.0511544 0.9814712 1.0111971 1.0422215 0.97428733
1.0561106 1.0196146 1.0624753 1.0528301 1.050825 0.99323124 1.0788444 1.0763165
0.870372 0.948403 0.9316359 0.9687404 1.0129887 1.0106139 1.0369197 0.98367894
1.0469168 1.0409147 0.93299234 1.125363 1.1010085 0.95107013 0.9988275 1.0399381
1.0547675 0.9213318 1.0439781 1.0239133 1.0021886 0.934005 0.9719286 1.0774468
1.0042571 1.0857037 1.0709016 1.0077629 1.0316486 1.0823917 1.0477935 1.095696
1.036455 0.95745814 1.000422 0.9866738 1.0125228 0.9482827 1.0338576 0.9816282
1.0054388 1.0192032 0.98416406 1.0626645 1.030972 0.9706019 1.0787239 1.0252492
1.021136 1.0148274 1.0323516 1.0875062 1.0617621 1.0388111 1.0827262 0.9315125
1.0663972 1.0407563 0.9545095 0.97912955 1.0311822 0.9862411 0.9672482 1.0405937
0.8911346 1.0313385 1.0467342 0.91339535 0.98586214 1.104467 1.0475689 0.97209334
1.0348425 1.0176468 1.0315684 1.0649942 1.0347769 1.0147523 1.0935456 1.0406955
1.0388144 1.0081936 0.9464764 0.9991016 0.9164953 1.0793948 1.0644931 1.057385
1.0617402 1.0095023 1.0149873 1.1034172 1.039247 0.9731087 1.0061752 1.0673858
0.96914965 1.0257978 1.0780206 1.0498646 1.0105053 0.99917215 1.0307353 1.0261567

base.mlp.fc.5.bias f4 [128]
00000000: 8f49 4b3d 3869 0ebc d25e 313d 605a 453b
00000010: 62b8 88bd 2952 fcbc 5434 63bc b9e9 e7bc
00000020: 06f6 9c3d 177e c0bd ec81 16bd d53a bfbc
00000030: b322 87bc a956 43bd 8232 053d da35 b33c
00000040: f2bc 923d 6821 e8bc 5afe ac3b 5501 0c3d
00000050: 8919 73bb 58a4 2abc 939d b5bd 4e64 9fbd
00000060: 5739 fe3d 0fdc 0e3d 58fd ba3c fcce 653c
00000070: e2d2 493d a6bb edbc 5487 0abd 7df2 b43c
00000080: 1311 5bbd d339 3cbd 5d7e 6a3d 5931 023d
00000090: 7b06 25bd a0f1 0a3d bccc b83b c211 14bd
000000a0: 84fc 923d b9b2 6f3d 05e7 3abd 0269 07bd
000000b0: b92d 56bc 4633 a53c 3d0b 2bbd 4400 9fbd
000000c0: 2fc8 393d f6c3 3e3d 8d1f 9ebd 2106 c13c
000000d0: 2164 643d ca98 f6bd f1f0 6abd e56f 0abd
000000e0: 7857 5c3d cf72 123d 2c1c 24bb a15a 2f3c
000000f0: 3425 f1bc 5a57 d839 7eb0 cabc f656 a73c
00000100: cb04 cbbc 2396 b6bc 54c6 31bc 9c62 c53c
00000110: 6620 dbbc 6e60 313c cb35 323d ffaf bbbc
00000120: db5a d4bc 6074 febb f98d 15bd 56e2 bbbd
00000130: 71da 99bd cea6 2ebd df63 a5bc f83b 8b3d
00000140: 0b75 f4bc ff1d 2e3d 8254 8d3c dc28 e83c
00000150: 88fe f2bc 3e89 383d c299 d03c 6381 20bd
00000160: d2b7 d43d a333 6cbd 2607 7fbc d480 b13d
00000170: 9383 f13a cfa6 0a3d e758 7bbc 0beb ad3c
00000180: d04c 113d f22e 8d3c 923b 1fbd f2d4 a03a
00000190: 0dee 51bc 82e6 cdbc 3550 8e3d 5f85 12bb
000001a0: 5c96 47bd 0206 7dbc 81c0 113c 9063 19bc
000001b0: a89c 963d 853b db3b f4ac 93bd a4d2 87bd
000001c0: f753 713d 3474 fabb 9ab0 24bd 580d aa3d
000001d0: 4860 54bd 1bd7 f4bb e706 11bd fe9d 3fbc
000001e0: 6b6d 473d 7880 b6bd 48fc c2bc 17af 5abd
000001f0: f148 57bc bd31 38bc 1c6b 20bd fd27 02bd
0.049630698 -0.008692078 0.04330332 0.0030113682 -0.06675793 -0.030800896 -0.0138674565 -0.02830969
0.07664113 -0.0939905 -0.036744997 -0.023343483 -0.016496038 -0.047690067 0.03251887 0.021876264
0.07164945 -0.028336242 0.0052793445 0.034180958 -0.0037094078 -0.010415159 -0.088679455 -0.077828035
0.124132805 0.034877833 0.022825882 0.0140264 0.04927338 -0.029020142 -0.033820465 0.022088284
-0.05348308 -0.045953583 0.057249416 0.031785343 -0.040289383 0.033921838 0.0056396406 -0.036149748
0.0717707 0.058520053 -0.045630474 -0.033059128 -0.013072425 0.02016605 -0.041758765 -0.077637225
0.045356926 0.0465736 -0.077208616 0.023562493 0.055759553 -0.12040861 -0.057358686 -0.033798117
0.053794354 0.03575402 -0.0025041206 0.01070276 -0.029436685 0.00041263812 -0.024742361 0.020427208
-0.024782559 -0.022288388 -0.010850508 0.024094872 -0.026748847 0.010826213 0.043508332 -0.02291107
-0.02592223 -0.007765338 -0.03651235 -0.091740295 -0.075123675 -0.042639546 -0.020189224 0.067985475
-0.029840967 0.042509075 0.01725221 0.028339796 -0.029662386 0.04505276 0.025463942 -0.039185893
0.103866234 -0.057666432 -0.015565669 0.0866715 0.0018426053 0.033850487 -0.01534102 0.021230241
0.035473645 0.0172343 -0.03887517 0.0012270494 -0.012813103 -0.025134329 0.06948892 -0.0022357327
-0.04872738 -0.015443327 0.008895994 -0.009362116 0.073540986 0.006690445 -0.072107226 -0.066319734
0.058917966 -0.007643247 -0.040207483 0.08303326 -0.051849633 -0.0074719316 -0.035406973 -0.011695383
0.048688333 -0.08911222 -0.023801938 -0.053389635 -0.013139949 -0.011242327 -0.039164647 -0.031776417

rnn.gru.weight_ih_l0 f4 [384, 128]
00000000: 126b 483d 9bd0 a13d 9d1c 6abd 4df3 3c3d
00000010: 4595 efbc e99e ffbd 1594 1cbd 09dd fbbd
00000020: 24f2 103a 973a d83c ad84 bebb 87a5 993d
00000030: d69a ac3d 1747 aabd 0a8e 143d e9eb 85bd
00000040: d7a7 ad3d 05e4 bc3c db2e d1bc 979c 113e
00000050: 54c8 89bd df3f 8ebc 86ab 7abc 3d5b c2bd
00000060: e859 0f3c 3b30 5f3c e41c 90bd ec58 e8bd
00000070: ab32 063e 7690 003d ab7b 91bc 1e6d 3cbd
00000080: c3a1 06bc b354 d8bc b2c8 a8bd 78c6 483c
00000090: c6a6 4ebd 17bd e3bc 9026 99bd a811 94bc
000000a0: 9a10 d93c a0b7 0cbe 520b 343c cec0 dbbd
000000b0: 3ac4 0cbc a86f cc3c 6701 cdbd 961f 723b
000000c0: d4fc c5bc 807b 31bd ac47 babd 0ed8 aebc
000000d0: 6865 373c 62d6 67bd 0d7b 62bc f209 c63c
000000e0: 4f15 0e3e 0c7a b6bc 0681 f9bd 14e1 85bd
000000f0: 822e c6bc 0539 093e 86df 09be ec04 f53a
00000100: d058 303d 3c01 90bd 58a6 0ebe 3dc9 a93d
00000110: 08ec 89bc 74d9 07be 18a2 183e 346d 67bd
00000120: 289e f1bd 0592 fcbc 3a76 dcba 5568 4abd
00000130: df78 e9bd 2ca2 cabd 8bf9 683d e007 383a
00000140: 9cbc 5e3d 0bbe 003e 6cfe 3bbd 4a4f cebd
00000150: 0335 27bc 0faf 1a3d ffdd 47bc c612 e13c
00000160: be89 b2bd cc38 943d 5bb7 ffbc bd8f 703d
00000170: 1d27 8bbd 774f b13d 5975 d2bc 1580 39bd
00000180: d751 f53d 7672 e63c 1450 70bd fbbe 3cbd
00000190: 2c68 833d 243c 3c3a 58d7 823c ea9a d4bc
000001a0: 2603 dc3c f50f ad3d 5144 303d a526 c8bd
000001b0: a7f2 eebd a2e1 e9bc eada efbd e52a 69bd
000001c0: 5dfb 1f3d a818 c2bd 90c6 a1bd 7a02 b63d
000001d0: 088f 91bd a825 c3bd 101a bd3d 74f3 2cbb
000001e0: 9a7b 13bc 5acd 09ba ccfc 94bd 38ee 80bd
000001f0: 8731 f4bd 5870 e23d 4752 f4bc e97d 153c
00000200: a4e7 d1bd 192d 34bd b93d 9fbd e9a7 dfbd
00000210: 540e 1a3d 6259 8a3d ce41 1a3e 6584 3abc
00000220: 6371 c1bc dbfe fe3d 8cf0 3c3d dd14 2bbd
00000230: e308 9c3c 261d 36bd 8892 833d 2b9b 123d
00000240: 4999 7c3b 0268 bcbd 57d9 873d 69f5 5ebc
00000250: 7435 0fbc d7af afbb 08ff ad3c dc08 383c
00000260: 7387 d63a 9af8 113d ee69 193e 88e0 49bc
00000270: 3154 623d 06f1 633d 8f61 eb3d 86f9 4b3d
00000280: cd02 c73c 179e d53d 1c6f 0f3e 9f25 bf3c
00000290: a049 b93c 5ce3 013e 26c2 4c3d 0a9b b83c
000002a0: 8808 0dbb 9595 043d 8a7e 0f3e caa6 a43d
000002b0: 902e 0a3e 79a8 a63d 18c2 723d 8cbb ea3d
000002c0: cdf3 e23c 16d9 9dbd 9029 a83d 1ec2 cd3d
000002d0: b5ec 2f3d 5e86 8d3d 7070 093e 6edf 3bbd
000002e0: d360 163d a689 dd3c d0b6 5c3b 8864 0e3e
000002f0: af4f d53b 6366 bfbc d342 563d 5079 023e
00000300: 826a c83d da33 e33a 3777 f03b 1fe7 d6bd
00000310: 446b b13d f7f1 b7bc 03c0 b2bd aa93 9ebc
00000320: 7dd5 853d 0a1b 173e dc08 c03d 1ddc 9a3d
00000330: 2bae d03d 76c1 203c 9abe 1abc a947 0b3e
00000340: d2d5 6fbd 1396 2ebe 6482 083d 6417 76bd
00000350: da44 573d dea6 103d ad4e 993d 9c63 b63d
00000360: 8187 bc3d 8102 6abd 0c00 e8bd 6d97 fd3d
00000370: e8f0 0b3e 01e1 e0bd 5251 973d 67f3 3c3c
00000380: 5ffe f1bd 8aed 8cbd 3ca0 033e 8953 be3c
00000390: f211 b73c 8374 8f3d 008b 86bc c713 fb3c
000003a0: 5b97 aa3d 0ced 33be cca1 b33c 6d0e 923d
000003b0: 5e78 d6bc bf11 1c3d 53a9 80bc 4bb0 aa3d
000003c0: 8cc9 bcbc adf6 443d cabf 433d be9c 83bd
000003d0: fa73 013e b1a2 e2bd 6b34 af3d 4fb8 7dbc
000003e0: 37c7 2ebe c59c 40bd 8a2f 273d c683 a73d
000003f0: 5467 513d b0d7 22bd 86ba c33d 07d6 023e
0.048930235 0.079011165 -0.057156194 0.046130467 -0.029245982 -0.124814816 -0.03822716 -0.122980185
0.0005529246 0.026395125 -0.005814156 0.07502275 0.0842797 -0.083143406 0.03626827 -0.06539137
0.084792785 0.023057947 -0.025535038 0.1421989 -0.06727663 -0.01736444 -0.015299683 -0.094900586
0.008749463 0.013622339 -0.070367604 -0.113450855 0.13105266 0.03138777 -0.017759165 -0.0460025
-0.008217278 -0.026407575 -0.082414046 0.01225435 -0.050452016 -0.027800126 -0.07478058 -0.018074825
0.026497174 -0.13741922 0.010989027 -0.10730134 -0.008591706 0.024955586 -0.10010033 0.0036945096
-0.02416841 -0.04333067 -0.090957016 -0.021343257 0.011193611 -0.056600936 -0.013823283 0.024174664
0.13875316 -0.022274993 -0.121828124 -0.06537071 -0.024192099 0.13400657 -0.13464174 0.0018693483
0.04305345 -0.070314854 -0.13930643 0.08290336 -0.016836181 -0.13266546 0.14905584 -0.05650063
-0.11797744 -0.030831346 -0.0016819902 -0.049415905 -0.114000075 -0.09894213 0.056878608 0.00070202164
0.05437909 0.12572496 -0.045896932 -0.10073717 -0.01020551 0.037764605 -0.012198924 0.027474772
-0.087176785 0.07237396 -0.03121536 0.05873083 -0.0679457 0.08657735 -0.025690721 -0.045288164
0.119785 0.028130751 -0.05867012 -0.04608057 0.064163536 0.00071805925 0.015971825 -0.025952775
0.02685697 0.08450309 0.0430339 -0.09772996 -0.11667376 -0.028549973 -0.117116764 -0.056925673
0.039058078 -0.09477359 -0.07899201 0.08887191 -0.07107359 -0.09528667 0.09233487 -0.0026390227
-0.009001637 -0.0005256735 -0.0727478 -0.062954366 -0.11923509 0.11056584 -0.02982439 0.009124258
-0.1024926 -0.04398832 -0.077754445 -0.10920698 0.03761132 0.0675533 0.15064165 -0.011384104
-0.023613637 0.124509536 0.04612784 -0.041767944 0.019047206 -0.044461392 0.06424433 0.03579251
0.0038543514 -0.091995254 0.06633251 -0.013608315 -0.008740772 -0.005361538 0.021239772 0.011232581
0.0016367271 0.035637476 0.14981815 -0.012321599 0.055256072 0.05564978 0.11493217 0.04979851
0.024293328 0.10430544 0.14007229 0.023333369 0.022618115 0.12684387 0.049989842 0.022534866
-0.0021519978 0.032369215 0.14013115 0.08039625 0.13494325 0.08137602 0.059267133 0.11461553
0.027704144 -0.077074215 0.082110524 0.100467905 0.04295035 0.06910394 0.13421798 -0.045867376
0.036713433 0.027043175 0.00336783 0.13905537 0.006509743 -0.023364251 0.052309822 0.1274159
0.0978594 0.0017334179 0.0073384303 -0.104933016 0.086630374 -0.022454245 -0.087280296 -0.019357521
0.0653486 0.14756408 0.0937669 0.075615145 0.1018947 0.00981175 -0.009444857 0.13601555
-0.058553524 -0.17049436 0.033327475 -0.0600809 0.052555896 0.035315387 0.07485709 0.08905718
0.09205533 -0.057131294 -0.11328134 0.12382398 0.13666117 -0.10980416 0.073885575 0.011532641
-0.118160956 -0.068812445 0.12854093 0.023233192 0.022347424 0.07004645 -0.016423702 0.030649079
0.0832965 -0.17570895 0.021927737 0.07131658 -0.026180442 0.03810286 -0.01570574 0.083344065
-0.023045324 0.04808681 0.047790326 -0.064263806 0.12641898 -0.11066187 0.0855492 -0.015485837
-0.17068182 -0.047024507 0.04081682 0.08179431 0.051123932 -0.039756477 0.09557061 0.12776957

rnn.gru.weight_hh_l0 f4 [384, 128]
00000000: 4a97 d4bc 31b1 28bc 5164 8bbd 859c a93d
00000010: f230 87bd 91b8 e73c bb1c b13d 545a a3bc
00000020: d974 a7bd 2126 b3bd 964e cf3c c7c5 a33d
00000030: 2029 f03a c950 ccbc 1c90 2fbc 2d2d 9cbc
00000040: 5db9 47bd c019 7d3c 2be7 1bbd 8d61 443d
00000050: 8e8b a5bd 5c04 2a3c 71fa 473b aa8a 5b3d
00000060: 0762 d8bd ef17 80bb 864f df3d 3856 ba3d
00000070: d4a0 29bd a4b7 1fbd 6d1f abbd 163d ee3d
00000080: 8c45 ea3d ba96 043d ed57 633d f759 7dbc
00000090: ccfc ffbd f778 dc3d 4a4d 453d 7608 c7bb
000000a0: d4f4 6ebd 58ba 233d d0f3 a93d 9814 d43d
000000b0: a69d f7bd f9f7 bfbc 3df0 89bd 1987 7fbd
000000c0: 6a03 b7bc b6f1 913d 79ad 6abd d073 1cbc
000000d0: 5a83 e0bc beda b93d ab8c dabc 7163 eb3c
000000e0: de73 1ebd 9941 72bd 57c9 97bd 8048 163d
000000f0: 2176 083d 9bcb bcbd 057d 123d f801 20bd
00000100: aca8 1fbe a293 85bd 9ba2 703d 9ab9 96bd
00000110: 1ccc 123e 3407 9dbc 9148 f43d 288e 0ebe
00000120: a792 35bd 5bad d23c 9968 1b3d 2829 85bd
00000130: 8a06 0abc 17f4 053e 8708 8cbd a227 4a3d
00000140: 4a00 023e 1011 92bd 2867 a93b d395 51bc
00000150: 6586 bc3d d239 1cbc 2689 113e 0c41 85bd
00000160: 6ccb f03a 7502 27be 4a1f 2bbd e373 9bbd
00000170: 8499 8d3d c199 14bc ba8e c23d eb98 4b3d
00000180: a7ab 483b 9535 7a3d 12d4 913c c70d 8a3d
00000190: 1d88 47bd 8d77 6b3d 5d36 edbd 1368 263c
000001a0: f1d0 9abd 8e6d ab3d 5c0b 413d 883f 7fbd
000001b0: 17bc 6abc a7ca bb3d 5cb2 8cbd 0bc0 0cbc
000001c0: 27ec 473d 0109 53bd b9cd c1bd c970 e3bd
000001d0: d9de 1abd 6d30 bc3d 39b6 27bd 1a53 113d
000001e0: 41e3 673d 0195 a63d 032a e3bd 9fb7 8bbc
000001f0: 344e 303e 2934 83bd f06d a0bd b5bd 53bd
00000200: 132d b23c d7f2 92bd 2f7c 51bc 02af b3bd
00000210: 1932 9bbd d1c5 cebd 831d 96bd a9b6 e33d
00000220: 0de9 453c 2770 18bd 1116 c6bd ccaa 2e3d
00000230: 0275 633c ad83 bb3d dc67 07bd 64c6 603d
00000240: 6c0a c2bc f28e bb3d fdfe aa3d 9a41 ffbd
00000250: f424 b13d ec66 07be 009d e53c ab6e f9bd
00000260: 4737 d03c cc08 d53c 9378 afb8 8b77 903d
00000270: b518 3d3d f97a 00bd 7b36 023e 8441 bc3d
00000280: 41f2 ccbd b8be eebc 9698 043d 33b4 0e3e
00000290: a3f7 d53c df5c 16bd b5cf 32bd 8299 65bc
000002a0: e82f 05be 01e8 2abe 2a2e 95bd 6ea2 4bbe
000002b0: f85a a13d 58b0 86bd 59aa ad3c 334b b13d
000002c0: e9e2 d73d 6014 11be d0f4 823d 2c73 24be
000002d0: 33a8 c6bb d23d 02bd 978e ca3c e57a c9bd
000002e0: 02c9 a13b e09b 9e3d 0794 203d 144a 08bc
000002f0: c6d0 c53d ed3c 833d e01a 84bc ed27 df3d
00000300: 9cca a43d cd4c 1e3e fffd 2d3d 4fa6 be3b
00000310: d8cf c7bc 3767 5ebc e0c9 8cbd 7cb8 4abd
00000320: eb8a cbbd 612e 1a3e ff23 033b 7a4f 8fbd
00000330: 9d0b cabc a866 cd3c 9609 2fbd 41d8 46bd
00000340: ab0a 90bd 78ba f9bb 6cf2 8dbc 90a5 04bd
00000350: 6b17 b5bd 6a3c a73d 1da8 25bd 6571 c7bd
00000360: ce6c ae3c 4c56 afbd 7e4f 863d 29ed 0e3d
00000370: ebb3 84bd b6bb 5e3d d61f 4abb 24b9 063d
00000380: a59d 52bd 85a1 03be cf46 c23d df7a debc
00000390: 3a3f 23bd dadb 4cbd 9217 39bd 4731 adbb
000003a0: 083b 3a3d 4258 ae3d ecbe 19bd 8013 bb3d
000003b0: fa66 c53c c7cc 29bc 4469 e53d f9f4 ff3d
000003c0: 1ed6 df3b 34f1 dcbd 13cc 23bc c215 ce3c
000003d0: 687b b9bc ed66 053e 592d 093d 164d 73bd
000003e0: 702b a9b9 39e6 ab3d 3274 453d 9561 98bb
000003f0: 2fb1 9ebd e838 a3bd 4ef9 9e3c b57c 003e
-0.025951046 -0.010296152 -0.06806243 0.08281807 -0.066011325 0.02828625 0.08648058 -0.019940533
-0.08176584 -0.08747507 0.025306027 0.079967074 0.0018322803 -0.024940865 -0.010715511 -0.01906451
-0.04876076 0.015448034 -0.038062256 0.047944594 -0.080832586 0.010377016 0.0030514265 0.053599037
-0.10565572 -0.003909103 0.1090384 0.09098476 -0.041413143 -0.038993493 -0.08355603 0.11632745
0.11439046 0.032370307 0.055503774 -0.015463344 -0.12499389 0.1076526 0.04816941 -0.0060740067
-0.058338955 0.039972633 0.08298457 0.103554904 -0.12090616 -0.023433672 -0.06735275 -0.0623847
-0.022340495 0.07126181 -0.057294343 -0.009549096 -0.027406383 0.09074925 -0.026678404 0.02873394
-0.03868472 -0.05914459 -0.074114494 0.036690235 0.03331578 -0.09218522 0.03576376 -0.039064378
-0.15591687 -0.06522299 0.058748823 -0.073596194 0.14335674 -0.019168474 0.119279034 -0.13921416
-0.04432931 0.025717428 0.03794155 -0.065019906 -0.008424411 0.13081394 -0.06837564 0.049354203
0.12695423 -0.07132161 0.005169768 -0.0127920685 0.09205321 -0.00953527 0.14212474 -0.06506547
0.0018371171 -0.16309531 -0.041777886 -0.07590463 0.069140464 -0.009069861 0.09499879 0.04970638
0.003061989 0.061086256 0.017801318 0.06740909 -0.048713792 0.05748706 -0.115826346 0.010156649
-0.07559384 0.08370505 0.047129974 -0.062316447 -0.014327071 0.09169512 -0.06869957 -0.0085907085
0.048809197 -0.05152226 -0.094630666 -0.111054964 -0.03781018 0.09188924 -0.040945265 0.035479642
0.05661321 0.08133889 -0.110919975 -0.01705533 0.17217332 -0.06406433 -0.07833469 -0.05169459
0.021750009 -0.07175224 -0.012785955 -0.087736145 -0.07577915 -0.10096324 -0.07329848 0.11118824
0.012079489 -0.03721633 -0.096721776 0.042643353 0.013882877 0.091559745 -0.033058032 0.0548767
-0.02368661 0.09158124 0.083494164 -0.124636844 0.086496264 -0.13222855 0.028028965 -0.12179311
0.025416983 0.026005171 -8.367109e-05 0.07054051 0.04616614 -0.031367276 0.12716095 0.091921836
-0.10007144 -0.029143676 0.03237208 0.13935928 0.026119059 -0.036709663 -0.043655116 -0.01401365
-0.13006556 -0.16690065 -0.07284196 -0.19886181 0.07878679 -0.06576604 0.021199392 0.08656921
0.105413266 -0.14167929 0.063943505 -0.1605956 -0.0060625314 -0.031797238 0.024726195 -0.098378934
0.004937292 0.077445745 0.03920367 -0.008318443 0.09658961 0.06408105 -0.016126096 0.10896287
0.08046457 0.15458985 0.042478558 0.0058181654 -0.0243911 -0.013574413 -0.06874442 -0.049492344
-0.09938606 0.15056755 0.002001047 -0.06997581 -0.02466374 0.025073364 -0.04273375 -0.04854608
-0.07033285 -0.0076211058 -0.01732751 -0.032384455 -0.08842357 0.0816582 -0.04044353 -0.09738425
0.021292116 -0.08561382 0.06558131 0.034894142 -0.06479629 0.054378234 -0.003084173 0.032891408
-0.051419873 -0.12854584 0.09486162 -0.027158199 -0.03985522 -0.050014354 -0.045188494 -0.0052854153
0.045466453 0.085129276 -0.037535593 0.09134579 0.024096955 -0.010363764 0.112017184 0.12497897
0.0068309447 -0.10788193 -0.009997386 0.02515686 -0.022641852 0.13027544 0.033490513 -0.059399687
-0.00032266555 0.08393521 0.048206516 -0.0046503046 -0.07748639 -0.079698384 0.019405987 0.12547572

rnn.gru.bias_ih_l0 f4 [384]
00000000: 305d b33d 38eb 09be a4f0 87bd e78f de3c
00000010: f389 49bd 574a 40bd bdcd 8b3d 8d51 553d
00000020: 325d 8a3d 025d 133d b275 d7bd cef8 c23d
00000030: f310 d33b 4af2 95bd 8690 b9bc 0130 e9bd
00000040: 7fb8 10bd 5cd4 83bd 485b 48bc 6dd3 46bc
00000050: 87e0 cebc 2eed c5bb 67e3 88bd 0d38 f83c
00000060: ed79 823d b790 233b 16a3 96bd 57f0 1dbd
00000070: 2e62 213a da1a be3d 1f61 1e3c 3ee7 f5bc
00000080: d7e5 c83d 3aa7 a8bb 5bd3 1c3d 8a03 87bd
00000090: c726 73bc 1c87 803d bb1e 9abd 15df 06bd
000000a0: df79 863c f710 3eba 3784 653d e28c 893c
000000b0: d60e adbd ddc6 a93d bc28 853c 4a43 693c
000000c0: 6fd5 86bd 55e2 9cbb 0080 883d 272a 05bd
000000d0: 6cc8 153c cfdb 56bc af11 dcbb ba2a 9dbc
000000e0: e6cc 0abd 92a4 9d3d 98d7 8e3d 1893 e13d
000000f0: c3a1 a6bc 9f9e 8cbc f5ae 0abe 38fe 3dbd
00000100: 6f20 5dbd 8313 0cbb 27d4 cd3b b13c 9b3d
00000110: f76d 47bd 1354 8b3d b151 813d c3d2 433d
00000120: 251c 403b c515 3f3d 4a37 cc3d f46b b33d
00000130: bf3d 273d a84e 8f3d 9b54 fd3d 6ee6 4fbc
00000140: 2140 0d3d fad9 193e ec2c 813d b887 bb3d
00000150: 97e3 5dbc 48bc cd3d 07eb 643c ed3b b1bd
00000160: b1db af3c 0437 0dbd 4278 09be 539e da3c
00000170: d60f d83d e338 f93d 87dd 163e 9605 973d
00000180: e433 dfbd 7ada 1abd ecd5 0bbc 191c 84bb
00000190: 0217 2fbd ae14 133d ef86 8fbd 0be0 3b3d
000001a0: 1a16 4a3d 9eee f93d 34ce f03c 0009 b63d
000001b0: 6a22 073c 4f65 9cbd 118e be3d 0577 c53c
000001c0: 9c3a 0cbd 5728 023e a9c1 d33b fa25 3c3e
000001d0: a5b2 e83d 8cba a63c 5089 f43c 9839 5c38
000001e0: e7eb c6bd 6624 2fbd 1879 05bd e1b7 a63c
000001f0: 2b2f ca3d 2273 313d 5a4b d73d 5baa 61bd
00000200: ca82 e8bb 7741 923d a4d7 bc3d 2e08 3d3e
00000210: c30d c33d 7877 e2ba 33eb ae3d 8690 233e
00000220: 0695 273e 9c1c 91bd c71c 67bb 2d27 fc3d
00000230: ad23 cf3d 6997 fe3d 1ce8 733d 39ec 4c3d
00000240: cbc4 293e a3fc 183e f71c dbbc 1421 debd
00000250: 1e6f 2b3d 4b8f 113e a769 063a fe3f 023e
00000260: 4319 e7bc 9fbb 353d 4e71 84bd 9496 a43d
00000270: 2564 163d f1be fd3c 97e1 b83d 3555 be3c
00000280: 2652 963d 83cd 6e3d f813 0b3e d38c b5ba
00000290: d9b1 053d 5820 553e b502 093e d120 6d3d
000002a0: 5220 5b3d 7f6b c13c 79c1 153d dfda 643d
000002b0: be4b 213e 75dd fe3d 0f8c e73d 5b0f e3bc
000002c0: 6b81 693d 0dc2 5c3e 426f b13d 41cd 883c
000002d0: b62b 0a3e c021 913c 254f 3e3e aa1e 293e
000002e0: 5547 133e 59c3 393e f2db dd3d c205 4bbd
000002f0: 38be 443e 8674 9fbd ec47 da3d 0049 c1bc
00000300: 7046 12bc 64a9 963d af63 223e d39c 6dbe
00000310: 2173 4439 acc0 a73d d6b3 c73d 0afe 993d
00000320: 226a e53c c263 7b3d 5c67 333d 8a2a 173e
00000330: f245 5c3e 81b7 a23d d5b1 ff3d dc4f 2fbe
00000340: 86ed 1e3e 391f 04bd 8799 113e d0dc e53d
00000350: 57d1 aa3d 322a f03c bcec fcbd bafd 4a3d
00000360: ac2b c13d 3ff9 1e3d 8aab 133e 9e97 313e
00000370: b2fb 1e3e 250b c93d 7800 0bb9 f979 fa3d
00000380: f3eb 163e 36aa dc3d 8b58 b43d a5b6 d93b
00000390: 771b 0f3e 17dd 243d a8f5 a43d 67af 343e
000003a0: e5cd 853c a725 51bc 2fca cf3d 78f0 ff3d
000003b0: 9912 303d 8716 9e3b ce31 063d 5a0a 903d
000003c0: a5f9 bc3d 546a debc 5aaa 1e3e 9115 843d
000003d0: d70d 043d a309 b23d 74cf c03d 413b 2b3e
000003e0: b894 433d b558 9f3d 2916 c63d 6986 a13d
000003f0: af66 9ebb 1966 f23b 81e2 98bc 5720 243e
0.087580085 -0.13468635 -0.066376954 0.027168227 -0.049203824 -0.046945896 0.06826351 0.052079726
0.06756057 0.03597737 -0.105204955 0.09520112 0.0064412295 -0.073216036 -0.022651922 -0.11386109
-0.0353322 -0.06436989 -0.012228794 -0.012135369 -0.025253547 -0.006040237 -0.066839986 0.030300165
0.06370912 0.0024958083 -0.07355325 -0.038559284 0.00061562925 0.09282465 0.00966671 -0.030017491
0.098094635 -0.005146888 0.0382875 -0.06592472 -0.014840788 0.0627577 -0.075253926 -0.03292759
0.016415535 -0.0007250453 0.056034293 0.016790811 -0.08450095 0.08289883 0.016254775 0.014237234
-0.06583678 -0.004787723 0.06665039 -0.032510903 0.009142023 -0.01311393 -0.0067159752 -0.019185413
-0.033886813 0.07697405 0.06974715 0.11014384 -0.020340806 -0.01716548 -0.13543303 -0.04638502
-0.05398601 -0.0021373935 0.006281394 0.07579935 -0.048688855 0.06803145 0.063144095 0.04780842
0.002931365 0.04665162 0.09971483 0.08760825 0.04083037 0.06997424 0.12369653 -0.012689216
0.034484986 0.15024558 0.06307396 0.09156746 -0.013543031 0.100456774 0.0139720505 -0.08654008
0.021467062 -0.034476295 -0.13424781 0.026686823 0.105498955 0.121690534 0.14732943 0.07374112
-0.10898569 -0.03780601 -0.00853489 -0.00403167 -0.04274655 0.035908394 -0.070081584 0.04586796
0.049337484 0.12203716 0.0293952 0.08888435 0.008247951 -0.076365106 0.09304441 0.024104604
-0.03423558 0.12710701 0.006462295 0.18373862 0.11362199 0.020352624 0.029850632 5.2505726e-05
-0.097129636 -0.04275932 -0.032586187 0.020351352 0.09872278 0.04332269 0.10512419 -0.055094104
-0.0070956694 0.07141393 0.09220818 0.18460152 0.09524109 -0.0017278036 0.085409544 0.159731
0.16365442 -0.07085535 -0.0035264955 0.1231216 0.101142265 0.12431223 0.05954753 0.050029967
0.16578977 0.14940123 -0.02674721 -0.10846153 0.041854016 0.14214818 0.0005127438 0.12719724
-0.028210288 0.044368383 -0.06466924 0.08036533 0.0367166 0.030974837 0.09027403 0.02323399
0.07339887 0.05830146 0.13581836 -0.0013851173 0.032640312 0.2081312 0.13379939 0.057892624
0.05349762 0.023610828 0.036561463 0.055872794 0.1575155 0.12444583 0.11306011 -0.027717283
0.05700819 0.215584 0.08663799 0.016699435 0.13493237 0.017716289 0.18584879 0.16515604
0.1438268 0.18140925 0.10832967 -0.049566038 0.19213188 -0.07785897 0.10658249 -0.02359438
-0.008927926 0.073565274 0.15858339 -0.23204355 0.00018734905 0.08191046 0.09751098 0.07519157
0.02800471 0.061374433 0.043799743 0.14762321 0.21511057 0.07945157 0.12485091 -0.17120308
0.15520296 -0.03225634 0.14218722 0.11223757 0.0834071 0.029316995 -0.12349841 0.04955838
0.09432158 0.03881192 0.14420906 0.17342994 0.15525702 0.09816579 -0.00013256248 0.12230296
0.14738445 0.10774653 0.08805951 0.0066440874 0.13975321 0.04024991 0.08054668 0.17645036
0.01633353 -0.012765325 0.10145985 0.12497038 0.042986486 0.004824463 0.03276234 0.070332244
0.092273034 -0.02715031 0.15494671 0.06449426 0.03223976 0.08693244 0.094145685 0.16721822
0.04774925 0.077805914 0.096721955 0.07886965 -0.004834018 0.007397425 -0.018662693 0.16027962
