scripts/results/MAPPOTraining2v1/2v1/NoWeapon/MAPPOTraining/mappo/v1_2v1_mappo_training/wandb/offline-run-20250807_165042-zjjd28i2/files/critic_episode_100.pt (torch, 640962 bytes, 23 tensors)

base.mlp.fc.0.weight f4 [128, 63]
-0.07943863 0.11489174 -0.070141576 0.06291155 -0.09701228 0.02087548 0.03353518 -0.014641958
-0.053421598 -0.103967026 -0.10584669 0.0141338715 0.08579847 -0.092610165 0.08930966 0.10051853
0.11707763 -0.028465256 0.11203762 0.001903097 -0.04859861 -0.10845425 0.028832618 -0.06491647
0.08566001 0.085363574 -0.10323353 -0.040553458 -0.083499774 -0.103046246 -0.02139237 0.016911369
0.03779103 0.035904422 -0.09414728 0.108622216 -0.08722884 -0.11141425 0.05990294 -0.02231275
0.087514125 -0.07864325 -0.039839234 0.10680086 -0.015185177 0.135496 -0.06577683 0.059113458
0.107713275 -0.053280827 -0.03326362 -0.026028492 -0.013611545 -0.09088927 -0.11237366 0.03591659
0.116029084 -0.020533865 -0.038244657 -0.06490668 0.005555166 -0.02730937 -0.09401623 0.07303343
-0.07770877 -0.049257156 0.1094437 -0.0925083 -0.09593949 0.13525654 0.029315664 0.069071494
0.09359569 0.011761506 0.07239012 0.04308265 0.055792388 0.06872661 -0.08397533 0.059247337
-0.014719375 0.02309807 0.041637782 0.018927911 -0.10772524 0.012789431 0.02497114 -0.0032043026
-0.10636792 -0.12090232 -0.07174663 -0.03333082 0.051853266 -0.023891697 0.08377285 0.06959885
0.11533409 0.1134501 -0.11338415 0.02888299 0.037839524 0.03521454 0.048842523 0.020441556
-0.005108093 0.075731926 -0.0075466116 -0.13530394 -0.049599264 0.07075321 -0.005796914 0.0052330727
0.13145372 0.08313785 0.012978465 0.03720584 -0.07717834 0.06499828 -0.035500064 0.038261823
-0.016584754 0.044785373 -0.09918902 -0.073038064 0.008664406 -0.07438083 -0.09632432 -0.035533953
0.086407416 -0.07616632 0.042891398 -0.09813527 -0.04381966 -0.015919765 -0.0144451745 0.041388433
-0.10266229 0.027998943 -0.08291659 0.08442726 -0.016804263 -0.03796545 -0.03615048 0.01473534
0.028950019 0.122350365 0.06457706 -0.019114088 0.065987915 0.11694105 0.115872495 0.047823533
0.06741222 -0.03817923 0.10838089 0.08772616 0.12598623 0.06364587 -0.110791266 -0.06818003
0.011639903 -0.07577009 -0.0085550845 0.055287324 -0.07443884 -0.021926718 -0.101334 0.020828472
0.049857415 -0.015025207 -0.034434147 0.10267669 -0.059750672 0.06052322 -0.122001946 -0.08808006
0.026488487 0.08743482 -0.09976658 -0.11183361 0.06864257 -0.088819824 0.09760615 0.019585699
0.021775043 0.05398766 -0.102394246 -0.09621956 0.11874705 -0.09141344 0.048258133 -0.039431147
-0.04315267 -0.087234944 -0.062121093 -0.01029517 0.08195881 0.15633084 -0.009185771 0.11973733
-0.061830565 0.120830685 -0.08077433 0.0005923634 0.11541969 -0.17074099 -0.0045461594 -0.053765424
-0.04653076 0.04595246 0.045843273 -0.057965055 0.112265356 -0.11708658 -0.08123252 0.0607716
-0.089284584 0.10471253 -0.04160809 0.10995361 -0.06765284 -0.102407 0.1494809 -0.02671176
0.08464419 0.1527358 -0.18021166 -0.070035756 0.14661075 -0.009782668 -0.064119175 0.022967096
0.057361342 -0.13292454 0.017412974 -0.0064932937 -0.0040006 0.08387848 0.105250575 0.09555637
0.051321533 0.17026192 0.05097089 0.10092201 -0.06295013 -0.14060329 -0.09356509 0.15458202
-0.03417843 -0.02668331 0.10602285 0.091586486 -0.119742125 -0.09715082 -0.024747858 -0.12595165
00000000: b8b0 a2bd 5c4c eb3d 63a6 8fbd c5d7 803d
00000010: 60ae c6bd 0e03 ab3c 2f5c 093d d3e4 6fbc
00000020: 9bd0 5abd aaec d4bd 26c6 d8bd c191 673c
00000030: 1cb7 af3d 66aa bdbd fce7 b63d a9dc cd3d
00000040: 65c6 ef3d f82f e9bc fb73 e53d 5771 f93a
00000050: 560f 47bd 431d debd 6232 ec3c edf2 84bd
00000060: 846e af3d 19d3 ae3d 1a6c d3bd 621b 26bd
00000070: ee01 abbd e909 d3bd 0d3f afbc b689 8a3c
00000080: c4ca 1a3d 8410 133d 4ad0 c0bd 5375 de3d
00000090: 09a5 b2bd 282d e4bd c95c 753d 3ac9 b6bc
000000a0: 9b3a b33d b60f a1bd 772e 23bd 69ba da3d
000000b0: 40cb 78bc 77bf 0a3e 01b6 86bd f420 723d
000000c0: c798 dc3d ff3c 5abd 6f3f 08bd b439 d5bc
000000d0: f502 5fbc 2724 babd 2924 e6bd 461d 133d
000000e0: a8a0 ed3d a336 a8bc 6ea6 1cbd cbed 84bd
000000f0: 1c08 b63b e6b7 dfbc 958b c0bd 8d92 953d
00000100: c725 9fbd dfc1 49bd 0524 e03d fe74 bdbd
00000110: ec7b c4bd b180 0a3e 6727 f03c 5b75 8d3d
00000120: 19af bf3d 55b3 403c 4541 943d 6f77 303d
00000130: 8f86 643d 89c0 8c3d 42fb abbd 56ad 723d
00000140: 8929 71bc 2a38 bd3c 618c 2a3d b50e 9b3c
00000150: 0d9f dcbd c38a 513c 4790 cc3c 47ff 51bb
00000160: 6dd7 d9bd a39b f7bd e6ef 92bd e685 08bd
00000170: 1764 543d 85b8 c3bc 1a91 ab3d d889 8e3d
00000180: 4834 ec3d 8758 e83d f335 e8bd 059c ec3c
00000190: 9efd 1a3d 1f3d 103d 190f 483d 0d75 a73c
000001a0: ca61 a7bb 5719 9b3d 9149 f7bb 1e8d 0abe
000001b0: 9928 4bbd 0fe7 903d 0af4 bdbb 327a ab3b
000001c0: ce9b 063e 2d44 aa3d a1a3 543c 2765 183d
000001d0: ad0f 9ebd d11d 853d 8468 11bd 6eb8 1c3d
000001e0: c0dc 87bc de70 373d 9d23 cbbd fb94 95bd
000001f0: 27f5 0d3c fa54 98bd af45 c5bd 0d8c 11bd
00000200: 5ff6 b03d 16fd 9bbd e4ae 2f3d 25fb c8bd
00000210: 3e7c 33bd 2b6a 82bc 74ab 6cbc eb86 293d
00000220: 9b40 d2bd 0a5e e53c 2cd0 a9bd 33e8 ac3d
00000230: 18a9 89bc a981 1bbd 8712 14bd 7f6c 713c
00000240: 9728 ed3c d492 fa3d fa40 843d 2695 9cbc
00000250: ac24 873d ca7e ef3d 8f4e ed3d 9ce2 433d
00000260: 6b0f 8a3d d361 1cbd cdf6 dd3d c6a9 b33d
00000270: 8902 013e c458 823d 88e6 e2bd f9a1 8bbd
00000280: 4bb5 3e3c 592d 9bbd a02a 0cbc f674 623d
00000290: 6473 98bd a99f b3bc 3388 cfbd 79a0 aa3c
000002a0: 4a37 4c3d 492c 76bc d20a 0dbd 2848 d23d
000002b0: 1fbd 74bd 32e7 773d 28dc f9bd 5263 b4bd
000002c0: 62fe d83c 0711 b33d 6c52 ccbd 0509 e5bd
000002d0: 7a94 8c3d 2be7 b5bd bce5 c73d 3072 a03c
000002e0: 9361 b23c 2a22 5d3d 13b4 d1bd c30e c5bd
000002f0: a731 f33d f836 bbbd 52aa 453d 8e82 21bd
00000300: dbc0 30bd 3ca8 b2bd b072 7ebd 13ad 28bc
00000310: 05da a73d 3115 203e eb7f 16bc d838 f53d
00000320: 0c42 7dbd 1476 f73d 036d a5bd d648 1b3a
00000330: 2961 ec3d bad6 2ebe f3f7 94bb 2239 5cbd
00000340: 0a97 3ebd a638 3c3d 28c6 3b3d c46c 6dbd
00000350: 61eb e53d 17cb efbd 3c5d a6bd a4eb 783d
00000360: d6da b6bd 8673 d63d 3f6d 2abd 5c2f e13d
00000370: 928d 8abd c3ba d1bd 8511 193e 9fd2 dabc
00000380: ef59 ad3d c666 1c3e 6889 38be e86e 8fbd
00000390: 2121 163e 7c47 20bc ea50 83bd 7e25 bc3c
000003a0: baf3 6a3d 5f1d 08be a7a5 8e3c b2c5 d4bb
000003b0: 7717 83bb 7bc8 ab3d 9d8d d73d 0fb3 c33d
000003c0: 8736 523d 2459 2e3e dac6 503d 33b0 ce3d
000003d0: ffeb 80bd 4ffa 0fbe 0e9f bfbd c04a 1e3e
000003e0: aefe 0bbd f596 dabc 8222 d93d b291 bb3d
000003f0: 5c3b f5bd 02f7 c6bd 05bc cabc 78f9 00be

base.mlp.fc.0.bias f4 [128]
0.031676173 0.1028602 -0.011651137 0.082013234 0.06867431 0.083249286 -0.120113075 -0.014473712
0.07888675 0.051413596 -0.05910892 0.09793972 0.093664415 0.00237144 -0.12961584 -0.0060435478
-0.044368085 0.04980178 0.038799103 -0.09134686 -0.009063911 -0.08742862 0.014208073 -0.033549964
0.021434585 0.081854224 -0.0006991753 0.057621744 0.012033404 0.017662037 0.045470327 0.042586833
-0.031041075 -0.052950047 -0.029508006 -0.11111398 0.008857715 0.11824394 -0.10728438 -0.11736871
-0.064541884 0.038624063 0.047344964 -0.12381888 -0.12192078 0.056379065 -0.065929376 -0.08634071
0.08794563 0.022728505 -0.005786547 -0.08879322 0.0054274593 -0.09785945 -0.009016036 0.074116305
0.056011807 0.010376147 0.094226174 -0.1299687 0.05663619 0.01550319 0.085358836 -0.047167603
-0.02918977 -0.10661761 0.09107855 0.052211717 -0.007837008 0.085428126 0.0447163 -0.029576072
-0.035230685 -0.042786855 0.020080585 -0.030564684 -0.05966789 -0.024246328 -0.07451825 -0.04600614
-0.057197608 -0.122665524 0.031692266 -0.09390097 -0.0035444268 -0.09693942 0.09529413 0.027400456
0.034438375 -0.097889125 0.10718772 0.027460847 -0.107728384 -0.089753166 0.094414294 -0.01891747
0.078457706 -0.12340548 0.01159661 0.083444715 -0.065220766 -0.05376423 -0.06312271 0.10535319
-0.026680855 0.023382606 -0.12426105 -0.08480652 -0.042833265 0.071483076 0.060098108 0.0007666282
0.11521845 -0.09785756 -0.11794124 -0.054772247 0.09437784 0.0037045751 -0.09859649 0.10017042
-0.012850632 0.03695052 -0.11805277 0.04110103 -0.112382576 0.07833726 0.033136103 -0.11738766
00000000: e0be 013d 5ea8 d23d 69e4 3ebc 8ef6 a73d
00000010: 1ea5 8c3d 9a7e aa3d d8fd f5bd 2623 6dbc
00000020: 608f a13d 1097 523d 321c 72bd 9f94 c83d
00000030: 21d3 bf3d 296a 1b3b 04ba 04be f408 c6bb
00000040: 4fbb 35bd f4fc 4b3d cfeb 1e3d 1014 bbbd
00000050: cc80 14bc c70d b3bd fac8 683c b06b 09bd
00000060: 9597 af3c 30a3 a73d dc48 37ba c704 6c3d
00000070: c127 453c faaf 903c 183f 3a3d 886f 2e3d
00000080: da49 febc 26e2 58bd c6ba f1bc ba8f e3bd
00000090: f31f 113c e129 f23d eab7 dbbd 025f f0bd
000000a0: 892e 84bd 4434 1e3d cbec 413d c194 fdbd
000000b0: 9ab1 f9bd bced 663d fb05 87bd 66d3 b0bd
000000c0: d71c b43d 2131 ba3c 139d bdbb 38d9 b5bd
000000d0: d4d8 b13b 896a c8bd ffb7 13bc 4aca 973d
000000e0: a36c 653d b700 2a3c a7f9 c03d 8416 05be
000000f0: 59fb 673d 1801 7e3c 9dd0 ae3d d132 41bd
00000100: 621f efbc 555a dabd 6487 ba3d f4db 553d
00000110: cb66 00bc f1f4 ae3d 7028 373d 8549 f2bc
00000120: 0d4e 10bd 4541 2fbd 0a80 a43c ca62 fabc
00000130: 5166 74bd 3ca0 c6bc 069d 98bd ef70 3cbd
00000140: 0a48 6abd 1038 fbbd c0cf 013d 274f c0bd
00000150: 9d49 68bb 2d88 c6bd 9229 c33d ec76 e03c
00000160: 410f 0d3d 187a c8bd 3c85 db3d 92f5 e03c
00000170: b3a0 dcbd 82d0 b7bd 485c c13d cff8 9abc
00000180: 6fae a03d 03bc fcbd b5ff 3d3c 10e5 aa3d
00000190: 7792 85bd e237 5cbd 7b46 81bd 6ac3 d73d
000001a0: cf91 dabc e18c bf3c 947c febd 0aaf adbd
000001b0: ef71 2fbd b865 923d 6f29 763d 8cf7 483a
000001c0: a7f7 eb3d 8b69 c8bd 2d8b f1bd dd58 60bd
000001d0: 2b49 c13d 75c8 723b f5ec c9bd 2626 cd3d
000001e0: 758b 52bc 6e59 173d a7c5 f1bd 8e59 283d
000001f0: d628 e6bd 496f a03d b9b9 073d f168 f0bd

base.mlp.fc.2.weight f4 [128]
1.0009538 0.9936415 0.9885473 1.0252734 1.0044322 0.9883924 1.0034059 0.9951676
0.9948194 0.9963041 1.0132011 1.0028355 0.98654044 0.9951092 0.9886581 1.0184801
0.9956344 1.0189793 0.9896561 0.99059 0.9978299 1.0029395 1.0238928 1.0007821
1.0077394 0.99033195 1.0235159 0.9886976 0.9892302 0.982315 0.9951747 1.0004464
1.011697 0.99789387 1.0019896 1.013546 1.0005515 0.99503016 1.0049797 0.9854041
0.98787445 1.0018818 0.99583125 0.9952011 1.0110611 1.0085496 1.0142223 1.0017681
0.9964876 1.0268329 0.9964797 0.9908968 0.99613726 0.9974926 0.9825607 0.994079
0.994266 0.99744487 0.99777925 1.0040795 1.0012741 1.0003318 1.0038006 0.9927287
0.9903816 0.99904436 0.98409724 0.99812263 1.001228 1.0020146 0.9873037 0.9940934
0.9917604 1.007843 0.995231 1.005211 0.99331367 0.98258144 0.9989219 0.99205875
0.99841285 1.0014808 0.99434286 0.99801445 0.9956891 0.997598 1.002604 0.9970471
0.99363655 1.0075692 1.00497 1.0166843 0.99385554 0.995382 1.0145446 0.9914503
0.9945037 1.003657 1.0240924 1.0046525 0.993867 0.99116856 0.9880042 0.99562097
1.0196987 1.0003021 0.9936683 0.9908028 0.99653745 0.99627805 1.0023501 0.99543494
0.98833805 0.99658775 1.0014976 1.0165559 0.9952153 0.98825645 1.0037838 1.0066043
0.9971247 0.99646765 1.0129237 0.9932332 0.9952167 0.999096 0.9928952 0.99651206
00000000: 411f 803f 4a5f 7e3f 7011 7d3f 293c 833f
00000010: 3c91 803f 4907 7d3f 9b6f 803f 4ec3 7e3f
00000020: 7cac 7e3f c90d 7f3f 93b0 813f ea5c 803f
00000030: ea8d 7c3f 7abf 7e3f b218 7d3f 8e5d 823f
00000040: e5e1 7e3f ea6d 823f 1a5a 7d3f 4e97 7d3f
00000050: c871 7f3f 5260 803f eb0e 833f a119 803f
00000060: 9bfd 803f 6586 7d3f 9202 833f 491b 7d3f
00000070: 313e 7d3f ff78 7b3f c5c3 7e3f a10e 803f
00000080: 4a7f 813f f975 7f3f 3241 803f e0bb 813f
00000090: 1212 803f 4cba 7e3f 2da3 803f 7143 7c3f
000000a0: 57e5 7c3f aa3d 803f ccee 7e3f 80c5 7e3f
000000b0: 736a 813f 2718 813f 09d2 813f f039 803f
000000c0: d019 7f3f 436f 833f 4b19 7f3f 6aab 7d3f
000000d0: da02 7f3f ad5b 7f3f 1989 7b3f f67b 7e3f
000000e0: 3788 7e3f 8c58 7f3f 766e 7f3f ad85 803f
000000f0: c029 803f df0a 803f 8a7c 803f 7823 7e3f
00000100: a689 7d3f 5fc1 7f3f cced 7b3f f784 7f3f
00000110: 3d28 803f 0442 803f efbf 7c3f e87c 7e3f
00000120: 02e4 7d3f 0001 813f 75c7 7e3f c1aa 803f
00000130: ce49 7e3f 758a 7b3f 58b9 7f3f 90f7 7d3f
00000140: fc97 7f3f 8630 803f 418d 7e3f e07d 7f3f
00000150: 7be5 7e3f 9562 7f3f 5455 803f 7b3e 7f3f
00000160: f75e 7e3f 07f8 803f dba2 803f b622 823f
00000170: 516d 7e3f 5bd1 7e3f 99dc 813f b0cf 7d3f
00000180: cb97 7e3f d577 803f 7615 833f 7498 803f
00000190: 116e 7e3f 39bd 7d3f d8ed 7c3f 04e1 7e3f
000001a0: 7d85 823f e609 803f 0c61 7e3f 41a5 7d3f
000001b0: 141d 7f3f 140c 7f3f 024d 803f d3d4 7e3f
000001c0: b903 7d3f 6020 7f3f 1331 803f 811e 823f
000001d0: 6ec6 7e3f 60fe 7c3f fd7b 803f 69d8 803f
000001e0: 9043 7f3f 8118 7f3f 7ca7 813f 8844 7e3f
000001f0: 86c6 7e3f c1c4 7f3f 612e 7e3f 6a1b 7f3f

base.mlp.fc.2.bias f4 [128]
-0.002183517 -0.005500092 0.01196984 0.020295164 0.0020354022 0.0040729824 -0.00023987977 0.004343118
-0.0032871482 -0.0029472676 -0.0019396223 -0.004098037 0.012647717 0.005179571 -0.0050313068 -0.00017140091
0.006768639 0.004668874 0.009585043 0.005423046 -0.0029744674 -0.00092596153 0.0044068485 -0.0014730858
0.0025489116 -0.0081575895 -0.0008469924 -0.0014211122 0.009247665 0.0070151715 -0.0032235137 -0.0006528087
-0.00021943272 -0.006435976 0.0033476574 -0.0054232324 -0.0015384186 -0.00082794786 0.0057196906 0.011614626
-0.003362293 -0.002619132 0.005155664 -0.00028340606 -0.004745752 -0.0053489474 -0.0040126937 0.00283592
0.003032336 -0.004554465 0.007960771 0.0029767524 -0.0003398689 0.002382506 0.00045458038 -0.001033307
-0.002639652 0.0037791021 0.0032185088 -0.0068819667 0.002156897 0.007916465 0.0032364212 0.007108298
0.008777251 0.0028714947 0.009468268 0.0041956613 0.00761868 -0.0013597863 0.009101946 -0.005144054
0.004447051 0.0053667007 0.0063672494 -0.0038759 0.005800143 0.008699804 0.00042091357 0.0065505877
0.000796047 -0.0014625898 -0.0024635866 -0.0018116464 0.0015105831 0.0019180685 0.005817505 0.0018316831
0.006607659 -0.0018839613 -0.009040504 -0.0067093666 -0.008083251 0.004566783 -0.0057276706 0.004451359
0.010225598 -0.006145829 0.0046835593 -0.0051327157 0.005439432 0.007760978 0.012256751 -0.0020534177
0.0012216589 0.007200196 0.0060019097 0.008836264 0.0023183613 0.0049105682 -0.009566245 -0.009286315
0.011657242 0.0027831197 -0.001758088 -0.0010879905 -0.0011269018 -0.0077775307 -0.00027943891 -0.0077097863
0.007578655 -0.00021012675 0.0030421317 0.006356988 0.0040214686 0.0075815143 -0.004960958 -0.0047610076
00000000: 5619 0fbb 1e3a b4bb 261d 443c 0b42 a63c
00000010: 6264 053b a776 853b 3c88 7bb9 b750 8e3b
00000020: 326d 57bb f226 41bb ed3a feba d348 86bb
00000030: 5f38 4f3c 64b9 a93b a9dd a4bb 15ba 33b9
00000040: 76cb dd3b 5bfd 983b 960a 1d3c cfb3 b13b
00000050: 48ef 42bb 3abc 72ba 5367 903b 8f14 c1ba
00000060: a40b 273b 69a7 05bc b308 5eba 9d44 baba
00000070: 8583 173c 86df e53b 9641 53bb 4021 2bba
00000080: 8617 66b9 e1e4 d2bb 5f64 5b3b 5fb5 b1bb
00000090: c3a4 c9ba a40a 59ba 3e6c bb3b 464b 3e3c
000000a0: ea59 5cbb bea5 2bbb d8f0 a83b 1e96 94b9
000000b0: 4182 9bbb 3946 afbb ea7c 83bb d8da 393b
000000c0: 28ba 463b 9f3d 95bb e56d 023c 9e15 433b
000000d0: 6e30 b2b9 d123 1c3b bf54 ee39 0870 87ba
000000e0: 03fe 2cbb d0aa 773b 9eed 523b 1f82 e1bb
000000f0: ba5a 0d3b 10b4 013c 231a 543b baec e83b
00000100: 75ce 0f3c b02f 3c3b cb20 1b3c c27b 893b
00000110: 1fa6 f93b db3a b2ba 5420 153c 748f a8bb
00000120: 91b8 913b 26db af3b 5ca4 d03b d002 7ebb
00000130: 200f be3b 9f89 0e3c 10ae dc39 50a6 d63b
00000140: cfad 503a 5fb4 bfba 2074 21bb c474 edba
00000150: c2fe c53a b367 fb3a c5a0 be3b 1615 f03a
00000160: 1085 d83b 40ef f6ba 9f1e 14bc 3fda dbbb
00000170: 9d6f 04bc f4a4 953b 2faf bbbb b5dc 913b
00000180: 4489 273c f362 c9bb 8b78 993b 5730 a8bb
00000190: 433d b23b cd4f fe3b 8ad0 483c a292 06bb
000001a0: 1220 a03a 9fef eb3b abab c43b fac5 103c
000001b0: a6ef 173b d5e8 a03b bdbb 1cbc a125 18bc
000001c0: 04fe 3e3c 0065 363b a56f e6ba e79a 8eba
000001d0: 8db4 93ba a8da febb a881 92b9 60a2 fcbb
000001e0: 5e56 f83b 7855 5cb9 805e 473b 484e d03b
000001f0: 86c6 833b 5a6e f83b 888f a2bb 3a02 9cbb

base.mlp.fc.3.weight f4 [128, 128]
0.06709589 -0.023684248 0.038362186 0.048533715 -0.07499837 -0.017948324 0.057516858 -0.035827685
0.0064640674 -0.086633824 -0.042357262 0.04181105 -0.040716484 -0.009666914 -0.05897339 -0.041768942
0.085323915 -0.08430102 -0.04264794 0.037631568 0.02736463 0.036100775 0.06029834 -0.084388435
0.011398698 0.063172095 -0.024489535 0.0734923 -0.061132196 -0.069384255 -0.042513013 0.017314186
-0.07516999 0.017946023 -0.039997023 0.06931081 -0.03808875 -0.0015292978 0.04858176 -0.06984714
0.046830423 0.06566659 -0.08316739 -0.019556692 0.045488544 -0.0056016333 -0.010497768 0.057822783
-0.021170167 -0.063121416 0.032587398 -0.071790054 -0.047367465 0.023547517 -0.04040065 0.03845961
0.037055813 0.038451694 -0.018986262 0.046277773 -0.015661376 0.012226618 -0.04372146 0.06702637
0.022873614 0.027052006 -0.009278536 -0.07113529 -0.052552536 0.040429898 0.040576104 0.023776496
-0.0073436447 -0.039116256 0.07357082 -0.07474402 0.08897256 -0.050170697 0.07603348 -0.0058316863
-0.051927343 -0.020258496 -0.0877891 0.081281096 0.082589835 0.055132445 -0.08078089 0.037847243
-0.0406283 -0.018054437 0.078647524 0.016104408 -0.06526534 -0.019101473 0.048980325 0.04883879
-0.07159018 0.00983731 0.067541346 0.017846487 -0.009101995 0.05761616 0.07636723 0.07683598
-0.047007848 -0.00036365644 -0.06546667 -0.0074220765 0.017735291 -0.0040321746 0.069240294 0.036179673
0.043315075 -0.078915656 -0.075232714 0.068338975 0.027744958 -0.059456255 0.077409126 0.007962124
0.012214571 -0.064234965 0.05858988 -0.0697156 0.021688625 0.023105422 -0.008486066 0.030010475
-0.0403284 -0.014378681 -0.07681218 -0.019273361 -0.017405098 -0.012257825 -0.030889962 0.0024033121
0.018879564 0.045420334 0.07029796 0.06150462 -0.068933055 0.06903474 0.056680568 -0.069433115
0.0063630654 -0.08878723 -0.03383883 -0.07913893 0.05506888 0.028478155 -0.076950975 0.06772879
0.023163177 0.07376189 0.08271788 0.019140035 -0.064575635 -0.030400962 0.08289523 -0.063980356
0.019573739 0.07228692 -0.03453647 -0.037808552 0.072082154 -0.011899256 -0.0589584 -0.08649352
0.03746798 0.082334936 -0.08545393 -0.012220889 -0.042766675 0.08548531 0.100772485 -0.026075158
0.017584853 0.114837095 -0.007854839 -0.084144026 -0.06790884 0.053467494 -0.023809023 0.026462713
-0.035032947 -0.0017448348 0.042133167 -0.0025505526 -0.03587331 -0.05488021 0.07803456 -0.03720363
-0.04400882 0.030613929 0.0031116132 0.010301056 -0.06439409 0.04918695 -0.08310802 -0.072224736
-0.044301443 -0.06068923 0.023891056 0.010749852 -0.040096674 -0.028682025 0.010812912 -0.06997401
-0.071390174 -0.057939645 -0.03551014 -0.011298976 -0.0052262386 0.01619977 -0.06224788 -0.045027517
-0.018528612 -0.06961695 0.0070856605 0.080388755 0.0044263955 -0.0779891 0.0917277 0.042419057
-0.062210217 0.06262356 -0.054584697 0.026536446 -0.022529839 -0.070271865 -0.046231862 0.058252215
0.016756078 0.039268725 -0.07627802 -0.027774977 0.092099786 -0.073659666 0.09572013 0.04910902
-0.045155074 0.00085034705 0.061798885 0.06582134 0.07565698 0.030857692 0.05716307 0.09718516
0.006776495 0.041170035 -0.009455577 0.031197412 0.0014738968 -0.013811175 -0.084465854 -0.07056693
00000000: 9269 893d 7805 c2bc ab21 1d3d 4acb 463d
00000010: bf98 99bd 5d08 93bc cc96 6b3d 0dc0 12bd
00000020: 87d0 d33b 136d b1bd cf7e 2dbd 1042 2b3d
00000030: 54c6 26bd fa61 1ebc 158e 71bd e915 2bbd
00000040: 4ebe ae3d 03a6 acbd 9baf 2ebd 8f23 1a3d
00000050: ca2b e03c 68de 133d 64fb 763d d8d3 acbd
00000060: 9bc1 3a3c 5f60 813d 479e c8bc 2283 963d
00000070: c165 7abd 5519 8ebd 2022 2ebd 7bd6 8d3c
00000080: b9f2 99bd 8a03 933c ebd3 23bd d3f2 8d3d
00000090: f302 1cbd b872 c8ba abfd 463d 040c 8fbd
000000a0: 42d1 3f3d 357c 863d aa53 aabd 5b35 a0bc
000000b0: 3252 3a3d e88d b7bb d5fe 2bbc 95d7 6c3d
000000c0: 0f6d adbc cd45 81bd 5d7a 053d aa06 93bd
000000d0: 6304 42bd b9e6 c03c 277b 25bd d387 1d3d
000000e0: d6c7 173d 867f 1d3d 1489 9bbc c38d 3d3d
000000f0: 494c 80bc 2752 483c 4615 33bd 1f45 893d
00000100: 7261 bb3c 2b9c dd3c 0005 18bc 61af 91bd
00000110: 5441 57bd d299 253d 2133 263d edc6 c23c
00000120: f5a2 f0bb 5e38 20bd 4cac 963d 6513 99bd
00000130: 3f37 b63d ca7f 4dbd 71b7 9b3d bb17 bfbb
00000140: c4b1 54bd 25f5 a5bc c6ca b3bd b476 a63d
00000150: dc24 a93d 8fd2 613d 7470 a5bd b605 1b3d
00000160: dc69 26bd e6e6 93bc f411 a13d 64ed 833c
00000170: d6a9 85bd b17a 9cbc 989f 483d 2f0b 483d
00000180: df9d 92bd ab2c 213c 1e53 8a3d cc32 923c
00000190: 8920 15bc ecfe 6b3d 6c66 9c3d 2f5c 9d3d
000001a0: 4d8b 40bd 24a9 beb9 6413 86bd e434 f3bb
000001b0: 9a49 913c 5520 84bb dbcd 8d3d 2331 143d
000001c0: 266b 313d 889e a1bd 9c13 9abd 4ef5 8b3d
000001d0: 6549 e33c 6788 73bd ad88 9e3d 9273 023c
000001e0: a01f 483c 9f8d 83bd f1fb 6f3d 0dc7 8ebd
000001f0: 58ac b13c 9547 bd3c 2409 0bbc 87d8 f53c
00000200: 642f 25bd 8f94 6bbc b44f 9dbd 2be3 9dbc
00000210: 2395 8ebc 0bd5 48bc f20c fdbc e380 1d3b
00000220: 51a9 9a3c ac0a 3a3d 60f8 8f3d 45ec 7b3d
00000230: c62c 8dbd 1662 8d3d e229 683d f332 8ebd
00000240: 4381 d03b 14d6 b5bd 969a 0abd 9713 a2bd
00000250: e88f 613d 054b e93c 7998 9dbd 64b5 8a3d
00000260: b4c0 bd3c 7910 973d fe67 a93d 90cb 9c3c
00000270: 3b40 84bd 700b f9bc f9c4 a93d 2208 83bd
00000280: 1b59 a03c 2a0b 943d 1d76 0dbd 24dd 1abd
00000290: cf9f 933d 19f5 42bc 5d7e 71bd 8423 b1bd
000002a0: 0678 193d 389f a83d 7802 afbd 203a 48bc
000002b0: 1c2c 2fbd ec12 af3d ce61 ce3d 929b d5bc
000002c0: 1c0e 903c b62f eb3d 95b1 00bc b453 acbd
000002d0: ca13 8bbd bb00 5b3d 240b c3bc 55c8 d83c
000002e0: b57e 0fbd f1b2 e4ba d493 2c3d 2c27 27bb
000002f0: e4ef 12bd 12ca 60bd 95d0 9f3d d562 18bd
00000300: 9842 34bd 10ca fa3c 35ec 4b3b c3c5 283c
00000310: 0ce1 83bd 4178 493d 8a34 aabd 90ea 93bd
00000320: 6e75 35bd 4595 78bd 2db7 c33c 2620 303c
00000330: 693c 24bd 91f6 eabc a428 313c 894e 8fbd
00000340: 0335 92bd 1f52 6dbd 1573 11bd 571f 39bc
00000350: de40 abbb 61b5 843c a2f7 7ebd c66e 38bd
00000360: 51c9 97bc 5593 8ebd d42e e83b dca2 a43d
00000370: 4c0b 913b c0b8 9fbd bbdb bb3d 9bbf 2d3d
00000380: 24d0 7ebd c840 803d 3494 5fbd f662 d93c
00000390: 7f90 b8bc b2ea 8fbd 9f5d 3dbd e099 6e3d
000003a0: 0b44 893c 3ed8 203d a737 9cbd 5988 e3bc
000003b0: d09e bc3d e1da 96bd ea08 c43d 8a26 493d
000003c0: 87f4 38bd d3e9 5e3a d420 7d3d 57cd 863d
000003d0: 0cf2 9a3d 45c9 fc3c d323 6a3d 0309 c73d
000003e0: 5c0d de3b e9a1 283d 90eb 1abc b791 ff3c
000003f0: c52f c13a 4448 62bc 6ffc acbd 6585 90bd

base.mlp.fc.3.bias f4 [128]
-0.020402182 -0.032327812 0.004808083 0.069607556 0.06321491 -0.04525058 -0.016514484 -0.07750884
0.07915923 0.063683055 -0.051125158 -0.039810874 0.010671812 -0.06717135 0.07258041 -0.06598004
-0.009639767 -0.03171163 0.026948573 0.041343607 -0.017377358 0.064175434 0.06936163 -0.009604956
-0.027865779 -0.06094049 0.060562626 -0.012075541 0.012497955 -0.011510427 0.086966686 0.057393137
0.07999207 -0.074993834 -0.029957302 0.04907199 0.00079710217 0.0551929 0.060145564 0.06444597
-0.018484807 0.06988877 0.07894906 0.078782104 0.019168274 0.07473123 -0.088381514 -0.03768571
-0.02749642 0.073132865 0.07071838 -0.01793317 -0.04867286 0.044142563 0.034211006 0.090703055
0.06314219 -0.07173117 0.048273277 0.061452392 0.05181881 -0.051401913 -0.03987694 -0.012041871
-0.07763384 0.05995003 -0.04625427 -0.06732806 -0.046448074 -0.093229875 -0.030710071 0.008281372
-0.080026455 0.045589678 -0.042848103 0.06251081 -0.011201473 -0.029865569 0.07531898 0.045300297
-0.08621493 0.06606566 0.051741377 -0.0009089364 0.06746151 -0.032067735 0.012715595 -0.017796747
0.039853178 8.2630875e-05 0.06904875 -0.010394276 0.07545919 0.08596193 0.07835206 -0.053684928
-0.025113337 -0.019581955 -0.028562836 -0.013481572 -0.034267727 0.043291774 0.016754065 -0.02823092
-0.09226963 0.022940302 0.006625998 -0.058987334 -0.067419305 -0.052705325 -0.0576261 -0.075362556
-0.07360638 0.04504716 0.046625834 0.07786925 -0.038104832 0.02361803 -0.06283715 0.014483209
-0.009481987 0.08233452 0.07665362 -0.007625965 -0.08287796 -0.06789543 -0.012855759 0.025831778
00000000: 7a22 a7bc 2b6a 04bd 208d 9d3b 688e 8e3d
00000010: d276 813d ac58 39bd 6249 87bc f4bc 9ebd
00000020: 3c1e a23d 436c 823d 9d68 51bd ba10 23bd
00000030: d3d8 2e3c 2291 89bd 0aa5 943d 8b20 87bd
00000040: 1df0 1dbc 0ee4 01bd 41c3 dc3c ea57 293d
00000050: f65a 8ebc 696e 833d 780d 8e3d 1b5e 1dbc
00000060: c646 e4bc bc9c 79bd 8410 783d 7dd8 45bc
00000070: 39c4 4c3c 3b96 3cbc 971b b23d 1115 6b3d
00000080: e2d2 a33d 5e96 99bd 0469 f5bc b6ff 483d
00000090: 9ff4 503a f311 623d 325b 763d 40fc 833d
000000a0: 736d 97bc d821 8f3d 0bb0 a13d 8358 a13d
000000b0: c906 9d3c b00c 993d 5e01 b5bd 555c 1abd
000000c0: 2c40 e1bc afc6 953d ccd4 903d 95e8 92bc
000000d0: 315d 47bd d5ce 343d d720 0c3d 86c2 b93d
000000e0: b150 813d cbe7 92bd 33ba 453d 81b5 7b3d
000000f0: f63f 543d d08a 52bd 0156 23bd 454b 45bc
00000100: 7efe 9ebd 2a8e 753d 1e75 3dbd 4be3 89bd
00000110: 5640 3ebd 4eef bebd b093 fbbc 97ae 073c
00000120: e9e4 a3bd 3ebc 3a3d 7e81 2fbd ab05 803d
00000130: 6286 37bc a3a8 f4bc d640 9a3d ce8c 393d
00000140: 7491 b0bd 6f4d 873d c4ee 533d b045 6eba
00000150: 4329 8a3d 7559 03bd 1255 503c 7cca 91bc
00000160: 163d 233d 1d4a ad38 6e69 8d3d c14c 2abc
00000170: 598a 9a3d cf0c b03d 0b77 a03d bae4 5bbd
00000180: 7cba cdbc 566a a0bc 9cfc e9bc d0e1 5cbc
00000190: 515c 0cbd b752 313d d23f 893c 8844 e7bc
000001a0: dcf7 bcbd 4ded bb3c e61e d93b b49c 71bd
000001b0: 2213 8abd 8ae1 57bd 5809 6cbd af57 9abd
000001c0: f1be 96bd 5f83 383d bbfa 3e3d ea79 9f3d
000001d0: d013 1cbd 997a c13c c4b0 80bd fb4a 6d3c
000001e0: 565a 1bbc 009f a83d 93fc 9c3d 3be3 f9bb
000001f0: ebbb a9bd c20c 8bbd f6a0 52bc 2a9d d33c

base.mlp.fc.5.weight f4 [128]
0.9955827 1.0030746 0.9966564 0.991352 1.0119991 0.9972092 0.9961775 0.9982019
1.0087589 1.0036922 1.0050657 0.9954065 0.9991366 0.9849137 1.0063573 1.0015684
0.996808 0.99715126 1.0053366 1.0120307 1.0039309 0.99515337 0.9993784 1.0033561
0.99415535 1.0004286 1.0013324 0.99903154 0.9959323 0.9925006 1.0006131 1.0017833
1.0004643 1.0009376 1.0076183 1.0047106 1.0069078 1.0076536 0.9861916 1.0091844
0.9899849 1.0027537 0.9875006 1.0042058 1.0010991 0.9986679 1.0020524 1.006677
1.0062996 0.99886876 0.98682535 0.9871011 1.0059291 1.0065966 1.0002141 1.0018655
1.0185437 0.9924739 0.9989609 1.0108045 1.0045311 0.9901929 0.9982957 1.0043699
0.9953348 1.0148709 1.0008982 1.0004333 0.98445743 0.99255097 1.0166287 1.0060261
1.0011333 0.993967 1.0138532 0.9989844 0.99911875 1.0065905 0.98241186 1.0020453
0.9919877 0.9811728 0.9992562 1.0091473 1.0037185 1.0100762 0.99422973 1.0019604
0.98993963 1.0011905 1.0160662 0.9999509 0.99834955 1.0040653 1.0134337 0.99923265
0.9907044 1.0071846 1.006886 1.0066406 0.99622583 0.9749677 0.99845326 0.99476945
0.9984376 1.0053692 0.98864007 1.0021477 1.0037647 1.0017159 0.9934556 1.0017697
0.9997459 1.000393 1.0085052 1.0032928 1.0031288 1.0086005 1.0063277 0.98974574
0.99870193 1.0173514 1.0002285 1.0058564 0.99286044 0.98864263 0.99634075 1.0027508
00000000: 82de 7e3f c064 803f e024 7f3f 3fc9 7d3f
00000010: 3089 813f 1a49 7f3f 7d05 7f3f 298a 7f3f
00000020: 031f 813f fc78 803f fea5 803f f6d2 7e3f
00000030: 6bc7 7f3f 4e23 7c3f 51d0 803f 6533 803f
00000040: cf2e 7f3f 4e45 7f3f dfae 803f 398a 813f
00000050: cf80 803f 5fc2 7e3f 43d7 7f3f f96d 803f
00000060: f780 7e3f 0b0e 803f a92b 803f 88c0 7f3f
00000070: 6bf5 7e3f 8514 7e3f 1714 803f 6f3a 803f
00000080: 370f 803f b91e 803f a3f9 803f 5b9a 803f
00000090: 5be2 803f cbfa 803f 0d77 7c3f f42c 813f
000000a0: a76f 7d3f 3c5a 803f d7cc 7c3f d189 803f
000000b0: 0424 803f b3a8 7f3f 4143 803f cbda 803f
000000c0: 6dce 803f ddb5 7f3f 96a0 7c3f a8b2 7c3f
000000d0: 49c2 803f 28d8 803f 0407 803f 213d 803f
000000e0: a45f 823f c512 7e3f e7bb 7f3f 0b62 813f
000000f0: 7a94 803f 487d 7d3f 4f90 7f3f 318f 803f
00000100: 43ce 7e3f 4ae7 813f 6f1d 803f 330e 803f
00000110: 6705 7c3f d217 7e3f e420 823f 77c5 803f
00000120: 2325 803f 9f74 7e3f f1c5 813f 71bd 7f3f
00000130: 3fc6 7f3f f5d7 803f 587f 7b3f 0543 803f
00000140: e8f2 7d3f 242e 7b3f 41cf 7f3f bd2b 813f
00000150: d979 803f 2d4a 813f d785 7e3f 3d40 803f
00000160: af6c 7d3f 0327 803f 750e 823f c8fc 7f3f
00000170: d693 7f3f 3685 803f 32b8 813f b6cd 7f3f
00000180: ce9e 7d3f 6deb 803f a4e1 803f 99d9 803f
00000190: a808 7f3f 7c97 793f a29a 7f3f 36a9 7e3f
000001a0: 9b99 7f3f f0af 803f 8417 7d3f 6046 803f
000001b0: 5d7b 803f 3a38 803f 1b53 7e3f fd39 803f
000001c0: 59ef 7f3f e10c 803f b316 813f e66b 803f
000001d0: 8666 803f d219 813f 59cf 803f fa5f 7d3f
000001e0: eeaa 7f3f 9238 823f 7d07 803f e7bf 803f
000001f0: 1a2c 7e3f af17 7d3f 3010 7f3f 235a 803f

base.mlp.fc.5.bias f4 [128]
0.0022140583 -0.0037885706 -0.008428375 -0.0043484676 0.0014487993 0.0021695339 -0.0025662973 -0.0022625457
0.008767235 -0.0032802424 -0.002051654 0.006632179 0.009789628 0.0046929186 -0.00650447 -0.0018123398
0.0026271027 0.0030966168 0.0035226145 -0.007239927 -0.015327653 -0.001536126 -0.005134605 0.0010557198
0.00479048 -0.0002418271 -0.0022401589 0.0011733654 0.00027704932 -0.0029622915 -0.0064782193 -0.002892151
-0.002839142 -0.010246981 -0.00865138 0.00589242 -0.0051415307 0.0040958067 0.001954355 -0.009237874
0.0020131574 -0.0041175107 0.0066005723 0.0025609785 0.0015588097 -0.003932743 -0.0023738423 -0.01024028
-0.0043277605 0.000690312 -0.004186187 -0.00408211 0.005996486 -0.00137037 -0.005418949 -0.0032277945
-0.0048960787 0.009955877 -0.00645049 -0.0023419678 -0.0053397436 0.0064066513 0.009257588 -0.0060523245
0.0018792686 -0.0060509304 -0.0057344656 -0.0012669185 -0.0022182644 0.006980925 -0.0044214735 -0.0072691925
-0.006685128 -0.005940005 0.005654401 0.0028104037 0.010261238 0.0018819487 -0.0044459873 -0.0071179913
0.003391656 0.006209884 0.005130684 -0.010100969 -0.003394577 0.007380985 -0.008878248 0.0039660707
0.0044589113 -0.0016399774 0.0020520717 0.005525084 0.006356197 -0.0013969886 0.006710275 -0.0025868607
0.00016502144 0.002953318 -0.0085267825 -0.008724821 0.0012399856 0.0023472598 0.006687761 0.0049204505
0.0019383741 0.006427676 -0.0063236817 0.0027102777 -0.0064077014 -0.0015113459 0.007016422 -0.00236185
-0.0035488196 0.0013169359 -0.00914037 0.005195862 -0.005202444 -0.009481785 0.0054501146 0.0060467385
0.00010709174 -0.006764399 0.005550989 -0.0068778866 0.0022753016 0.00802805 0.003255463 -0.0049605477
00000000: bc19 113b ab49 78bb 2b17 0abc 977d 8ebb
00000010: a3e5 bd3a bd2e 0e3b 532f 28bb 3847 14bb
00000020: 73a4 0f3c 56f9 56bb 0b75 06bb c052 d93b
00000030: ad64 203c 0ec7 993b 7323 d5bb 088c edba
00000040: 782b 2c3b 9cf0 4a3b aadb 663b e93c edbb
00000050: d620 7bbc d657 c9ba 3040 a8bb 1460 8a3a
00000060: 75f9 9c3b f892 7db9 a1cf 12bb 9ccb 993a
00000070: ee40 9139 0123 42bb 3e47 d4bb 3e8a 3dbb
00000080: e610 3abb f4e2 27bc 85be 0dbc 3415 c13b
00000090: 497a a8bb 1e36 863b a314 003b 745a 17bc
000000a0: 2def 033b 2fec 86bb 9d49 d83b 17d6 273b
000000b0: f950 cc3a 3dde 80bb 7792 1bbb d9c6 27bc
000000c0: e3cf 8dbb 0ef6 343a 482c 89bb 38c3 85bb
000000d0: 2c7e c43b fd9d b3ba 7091 b1bb 6889 53bb
000000e0: 496f a0bb fa1d 233c a25e d3bb b37b 19bb
000000f0: 04f9 aebb e3ee d13b 23ad 173c 9452 c6bb
00000100: ca51 f63a e246 c6bb 2fe8 bbbb bb0e a6ba
00000110: 4d60 11bb 3ec0 e43b 02e2 90bb 6832 eebb
00000120: eb0e dbbb 60a4 c2bb 8e48 b93b c02e 383b
00000130: c01e 283c b8ab f63a a5af 91bb 0a3e e9bb
00000140: 8c46 5e3b 487c cb3b 4c1f a83b 897e 25bc
00000150: 8d77 5ebb 31dc f13b 1276 11bc d0f5 813b
00000160: 0f1c 923b 83f4 d6ba 0d7c 063b c40b b53b
00000170: a547 d03b 291b b7ba dee1 db3b 5288 29bb
00000180: 9b09 2d39 748c 413b ebb3 0bbc 8df2 0ebc
00000190: 0387 a23a 7cd4 193b 0125 db3b bb3b a13b
000001a0: 0b11 fe3a 419f d23b e336 cfbb ea9e 313b
000001b0: b2f7 d1bb 5a18 c6ba 04ea e53b 45c9 1abb
000001c0: 5093 68bb 099d ac3a 7ec1 15bc 0d42 aa3b
000001d0: 4379 aabb 7d59 1bbc e096 b23b b823 c63b
000001e0: 7196 e038 e4a7 ddbb 12e5 b53b e55f e1bb
000001f0: 3a1d 153b 1588 033c 9b59 553b 178c a2bb

rnn.gru.weight_ih_l0 f4 [384, 128]
0.05632284 -0.07092783 0.045367196 -0.02171673 -0.07270503 -0.085727 0.06980455 0.0030997368
-0.03139249 -0.084159575 -0.06016048 -0.032057863 0.030489916 0.063221574 -0.030797176 0.041525014
0.013100037 0.030047018 0.07084282 -0.07356958 0.05889616 0.0940612 -0.07240086 0.09103149
-0.045751005 -0.080782056 0.026865518 0.048765644 0.01618169 -0.067215465 0.08588465 -0.0018366802
0.037106156 -0.04424515 0.0182038 0.027240401 -0.079246886 -0.059430107 0.0069963895 0.053469487
0.05753817 0.06819847 -0.055172175 -0.07582515 -0.057118256 -0.040404458 -0.03846084 -0.07157277
0.037242517 -0.008142192 0.029057715 0.021117011 0.035627082 -0.05072623 0.027719209 -0.08346423
0.011633829 0.009520363 0.017901406 -0.039527312 -0.041886553 -0.07267799 -0.0071801483 -0.049030494
-0.09575454 0.04789811 0.0007971111 -0.03640641 0.023432814 -0.060034953 0.07669087 0.06963194
0.062979005 -0.06620218 -0.06708454 -0.046188507 -0.016689286 -0.03782542 0.05021664 0.052464407
0.053656362 0.07286442 -0.033129413 -0.021416951 -0.044997416 -0.031753663 -0.057383075 0.06485473
-0.073551245 -0.08534994 0.06877593 -0.072013386 -0.052550152 0.087646976 0.041979924 -0.061287336
0.036802676 -0.03963436 -0.015517043 -0.0269491 0.08800284 -0.026860565 0.025001818 -0.09730652
0.019740451 -0.04214184 0.015003546 -0.08018224 -0.09123421 -0.076070674 0.043064922 -0.090655744
0.026752708 0.06455595 -0.009016311 -0.04872311 -0.03470568 0.01996258 -0.041583728 0.0051677
-0.02986231 -0.054009188 0.07381354 0.05631545 0.08525831 -0.05678283 0.018654846 0.042464048
-0.011650833 -0.03287721 -0.068198316 -0.08388275 0.04188542 -0.08795119 -0.085251816 -0.022103718
0.05332802 -0.06000504 0.079324484 -0.010697291 0.03330442 0.07108709 -0.015651332 0.06964734
-0.027451938 0.044757545 0.0077250996 -0.0075747683 -0.03576149 0.040022917 0.05862161 0.05431848
0.011920605 -0.051426187 -0.042603295 0.023813596 0.031936448 -0.09164828 -0.07516928 -0.07776046
-0.074737914 0.05146111 -0.021064501 -0.024579484 -0.0048280805 -0.07483724 -0.059525575 -0.03303056
0.0033823373 -0.022634385 0.053441945 0.029949881 0.053666588 0.0532342 0.040113118 -0.04535456
0.032680787 -0.011216594 -0.04845102 -0.08052075 -0.05712627 0.017215293 0.06382994 0.037186913
-0.07248535 0.084073454 0.019593108 -0.08011051 0.044788674 -0.044259656 -0.057308506 -0.052408285
0.059469715 0.0005247904 -0.011924335 -0.086042866 0.080534145 -0.0059988555 0.058968745 -0.017652217
-0.03887087 -0.019520564 0.02424461 0.08419863 -0.048298955 -0.02203299 -0.048371777 0.014988578
0.023598567 0.068703786 0.043901365 0.04673225 -0.015998228 -0.039260212 0.043605316 0.06975396
-0.038087115 -0.0005701656 -0.013124788 0.05582473 0.04704829 -0.034909923 0.05718412 -0.067522205
-0.06727462 0.04849492 0.08177963 -0.06412731 -0.0050141644 -0.029569805 0.034581017 0.03871232
0.019451216 0.06128319 0.032650862 -0.014474814 -0.03656389 0.023012092 0.081516646 0.023762947
-0.071437284 -0.0072965734 -0.07895143 -0.025696835 -0.0642235 -0.08436736 -0.08166922 0.095539235
0.010910107 -0.0094966935 0.056341533 -0.07874234 0.057925656 0.015675347 -0.082140714 0.06331852
00000000: c7b2 663d 9c42 91bd f4d2 393d 49e7 b1bc
00000010: 60e6 94bd a391 afbd b0f5 8e3d f424 4b3b
00000020: 6995 00bd db5b acbd d66a 76bd 1b4f 03bd
00000030: fdc5 f93c 507a 813d 5c4a fcbc 2216 2a3d
00000040: 8aa1 563c 2a25 f63c 0a16 913d a6ab 96bd
00000050: 1a3d 713d 29a3 c03d e746 94bd b86e ba3d
00000060: 6865 3bbd 1071 a5bd 1315 dc3c 7cbe 473d
00000070: 778f 843c 43a8 89bd 4be4 af3d c3bc f0ba
00000080: a0fc 173d 673a 35bd 2320 953c 4327 df3c
00000090: 314c a2bd fc6c 73bd f841 e53b d202 5b3d
000000a0: 25ad 6b3d a4ab 8b3d 38fc 61bd 374a 9bbd
000000b0: d5f4 69bd 257f 25bd 1d89 1dbd bf94 92bd
000000c0: 9c8b 183d d466 05bc 720a ee3c 95fd ac3c
000000d0: b4ed 113d 4fc6 4fbd 6513 e33c 4bef aabd
000000e0: d19b 3e3c 4cfb 1b3c f8a5 923c 64e7 21bd
000000f0: 3c91 2bbd 33d8 94bd 7347 ebbb 33d4 48bd
00000100: f51a c4bd cf30 443d 38f5 503a e31e 15bd
00000110: 2cf6 bf3c 36e7 75bd 1a10 9d3d 319b 8e3d
00000120: 23fb 803d 0295 87bd 9f63 89bd 2930 3dbd
00000130: f8b7 88bc d4ee 1abd f7af 4d3d ebe4 563d
00000140: c6c6 5b3d f139 953d b5b2 07bd 9a72 afbc
00000150: 364f 38bd 2110 02bd 840a 6bbd 8fd2 843d
00000160: 09a2 96bd f3cb aebd 65da 8c3d c17b 93bd
00000170: d43e 57bd 4280 b33d 24f3 2b3d 6e08 7bbd
00000180: 67be 163d a357 22bd 323b 7ebc 5cc4 dcbc
00000190: d53a b43d b00a dcbc 9dd0 cc3c a448 c7bd
000001a0: bab6 a13c ec9c 2cbd 6fd1 753c 9636 a4bd
000001b0: 00d9 babd f1ca 9bbd d864 303d b8a9 b9bd
000001c0: 7f28 db3c e935 843d 26b9 13bc e291 47bd
000001d0: 8b27 0ebd 9188 a33c b353 2abd cf55 a93b
000001e0: cea1 f4bc bd38 5dbd 8e2b 973d 08ab 663d
000001f0: e99b ae3d 1d95 68bd 0cd2 983c c8ee 2d3d
00000200: 23e3 3ebc 41aa 06bd 8fab 8bbd b8ca abbd
00000210: 0c90 2b3d c11f b4bd 8198 aebd db12 b5bc
00000220: 7b6e 5a3d d8c7 75bd e074 a23d b143 2fbc
00000230: 376a 083d 1c96 913d 3937 80bc 44a3 8e3d
00000240: e3e2 e0bc b053 373d d522 fd3b c335 f8bb
00000250: a47a 12bd 12ef 233d 371d 703d 0e7d 5e3d
00000260: a44e 433c 44a4 52bd cb80 2ebd bb14 c33c
00000270: cbcf 023d 18b2 bbbd 5af2 99bd e040 9fbd
00000280: 3110 99bd e3c8 523d 768f acbc ea5a c9bc
00000290: e034 9ebb 4444 99bd 17d1 73bd 0d4b 07bd
000002a0: 34aa 5d3b bf6b b9bc f1e5 5a3d 7459 f53c
000002b0: 7fd1 5b3d 1b0c 5a3d a74d 243d b4c5 39bd
000002c0: 4adc 053d cec5 37bc 9474 46bd 10e8 a4bd
000002d0: 3cfd 69bd 1607 8d3c 46b9 823d 4e51 183d
000002e0: 3373 94bd b42e ac3d ba81 a03c fb10 a4bd
000002f0: 5474 373d 9d49 35bd 53bc 6abd 12aa 56bd
00000300: 8496 733d 1692 093a 495e 43bc 3e37 b0bd
00000310: 16ef a43d 0c92 c4bb 3689 713d 629b 90bc
00000320: 1037 1fbd 97e9 9fbc a29c c63c 5570 ac3d
00000330: 20d5 45bd 877e b4bc 7c21 46bd a792 753c
00000340: c851 c13c 92b4 8c3d ebd1 333d 516a 3f3d
00000350: b70e 83bc 51cf 20bd 7d9b 323d 2adb 8e3d
00000360: 3c01 1cbd 2a77 15ba 5a09 57bc 79a8 643d
00000370: b5b5 403d b5fd 0ebd e539 6a3d 1549 8abd
00000380: 47c7 89bd 9ca2 463d 147c a73d 2e55 83bd
00000390: dc4d a4bb 603c f2bc d3a4 0d3d cf90 1e3d
000003a0: 2858 9f3c 1504 7b3d e9bc 053d c527 6dbc
000003b0: 04c4 15bd db83 bc3c 33f2 a63d 83aa c23c
000003c0: b64d 92bd 1818 efbb 4ab1 a1bd 2b82 d2bc
000003d0: 9c87 83bd cbc8 acbd 3142 a7bd 13aa c33d
000003e0: 4ec0 323c 0598 1bbc 61c6 663d aa43 a1bd
000003f0: 7443 6d3d 9669 803c 6439 a8bd 24ad 813d

rnn.gru.weight_hh_l0 f4 [384, 128]
-0.027197467 -0.02293595 0.005692314 -0.041536976 0.086192556 0.07983267 -0.042732336 0.028102601
0.060324594 -0.06482566 0.053983692 -0.06928105 -0.025659917 0.020449912 -0.07649756 -0.06379262
-0.0724119 -0.046835244 0.05762468 -0.08333247 -0.06501446 0.07943541 0.068938024 0.017281633
-0.06626198 -0.0019689966 0.054951206 0.07993194 0.007910679 0.05980615 0.06915226 0.070915505
-0.006870731 0.042834964 -0.045280103 0.04282727 0.004093717 -0.012555739 0.058074567 0.02031267
-0.055790547 0.018021636 0.06742573 0.0980529 0.038524467 -0.031388715 0.06428205 -0.043808
-0.02404089 -0.04846832 -0.062704235 -0.029124461 0.012588086 0.080688626 0.023660537 0.03944493
-0.032826394 -0.06754475 -0.071302205 0.017583486 0.03915782 -0.052170105 -0.08293198 -0.052346054
0.026576495 -0.06966984 0.05666482 -0.07548956 0.059789028 -0.0097120125 0.07866653 -0.045848265
0.029512765 0.048280675 0.018692538 0.023271168 -0.06560569 -0.015103651 -0.017563885 0.033814017
0.025496243 -0.040855266 0.009882137 -0.053051244 0.05521041 -0.049045734 -0.07286379 -0.043328363
0.0069450866 -0.089913264 0.06786902 0.042363778 -0.00280877 0.054473184 0.07389476 -0.012667277
0.020445796 0.04176009 0.054242533 -0.044985577 0.06921611 0.027568685 0.06102527 -0.066006415
0.047998488 0.05256824 -0.08380429 -0.0033535867 -0.038043894 -0.065059975 0.030749308 0.056304347
0.019601168 -0.026298897 0.06274703 0.041135665 -0.027221646 -0.011340847 0.03661742 0.06873978
-0.051133793 0.06636942 -0.034266114 0.01142024 -0.025962235 -0.06842162 0.09309224 -0.062004074
-0.0010953181 -0.06804108 0.0027279896 -0.07480538 0.01781794 -0.024631113 -0.019879999 0.049597964
0.026406964 -0.08549996 -0.08543407 0.079731755 -0.018931968 0.057102688 0.015375242 -0.03921622
-0.04906064 -0.028483884 0.072995685 0.0006078722 0.06059205 0.016127057 0.05536389 0.058131073
-0.07852683 -0.04442356 -0.04969968 -0.03139758 -0.05600354 0.033173233 0.0815624 0.08324839
-0.015664982 -0.020980628 0.014189893 -0.016091114 -0.057842497 -0.01214332 -0.060302857 0.08630131
0.06396785 0.03953112 0.072543606 0.012488344 0.04748757 0.04352624 -0.035553288 0.056550547
0.040502395 -0.027407233 0.004231938 0.06098795 0.040665384 -0.0595096 -0.028233383 0.011299005
0.058971506 0.03630833 0.0038649002 0.074937426 -0.025888028 0.05784606 0.08391421 -0.055947267
0.08351491 -0.0016860071 0.03793597 0.031080365 0.011423241 -0.058539443 0.09814862 0.0097037
0.07112257 0.050974693 0.0011809852 -0.028939791 -0.050751958 -0.027481945 0.009124174 -0.044699132
-0.06791537 -0.047595177 0.08770018 0.055177104 0.073655434 0.07015474 0.028383557 -0.05003332
-0.043772608 -0.022765724 0.031485874 0.031035775 0.008347297 0.0026768704 -0.016274717 0.05578922
0.0037084026 0.07839625 -0.02927177 -0.05168875 -0.08864486 -0.0350236 0.036497302 -0.08142842
0.024182806 -0.06232232 -0.06202903 0.048658825 -0.05206353 -0.06775914 -0.028446173 0.059450217
-0.07054677 0.08793445 0.08076223 0.02178595 0.0047731283 -0.06178703 -0.05162947 0.007343278
-0.0023345998 0.006355941 0.039112255 0.061099872 -0.053217694 0.06629759 0.03196575 -0.019428954
00000000: 39cd debc 2ce4 bbbc 9786 ba3b ad22 2abd
00000010: b985 b03d 507f a33d 1a08 2fbd 6d37 e63c
00000020: ec16 773d 51c3 84bd 011e 5d3d 39e3 8dbd
00000030: bf34 d2bc 9386 a73c c1aa 9cbd b5a5 82bd
00000040: b14c 94bd 50d6 3fbd db07 6c3d 37aa aabd
00000050: 4d26 85bd 08af a23d 612f 8d3d 3692 8d3c
00000060: 5cb4 87bd 480a 01bb 8414 613d 5bb3 a33d
00000070: cb9b 013c 4bf7 743d b39f 8d3d 263c 913d
00000080: de23 e1bb b773 2f3d a177 39bd a66b 2f3d
00000090: 9624 863b 96b6 4dbc 99df 6d3d c266 a63c
000000a0: a184 64bd 1ca2 933c 8016 8a3d f5cf c83d
000000b0: d5cb 1d3d 7491 00bd 4fa6 833d 0470 33bd
000000c0: 67f1 c4bc b886 46bd 146b 80bd 6c96 eebc
000000d0: 423e 4e3c 1440 a53d bed3 c13c 0291 213d
000000e0: f874 06bd e754 8abd e406 92bd 3e0b 903c
000000f0: f363 203d 52b0 55bd 3ed8 a9bd d168 56bd
00000100: f3b6 d93c 10af 8ebd 5f19 683d 459a 9abd
00000110: 57e5 743d 221f 1fbc eb1b a13d 64cb 3bbd
00000120: c1c4 f13c f5c1 453d 1821 993c 2da3 be3c
00000130: 475c 86bd 4e75 77bc 23e2 8fbc 9180 0a3d
00000140: 7fdd d03c da57 27bd b0e8 213c 434c 59bd
00000150: 5024 623d 2ee4 48bd 9c39 95bd 1579 31bd
00000160: 9c93 e33b 7224 b8bd eafe 8a3d a485 2d3d
00000170: 5713 38bb 461f 5f3d 2356 973d 698a 4fbc
00000180: f17d a73c a10c 2b3d 6b2d 5e3d cc42 38bd
00000190: 2dc1 8d3d b9d7 e13c a2f5 793d 5f2e 87bd
000001a0: 109a 443d cb51 573d 95a1 abbd d9c7 5bbb
000001b0: ead3 1bbd 2a3e 85bd f9e5 fb3c 639f 663d
000001c0: a192 a03c c970 d7bc 8481 803d df7d 283d
000001d0: eeff debc f6ce 39bc 26fc 153d 71c7 8c3d
000001e0: ab71 51bd b1ec 873d a05a 0cbd f51b 3b3c
000001f0: c1ae d4bc a220 8cbd 25a7 be3d fcf7 7dbd
00000200: c790 8fba 1f59 8bbd 12c8 323b 9033 99bd
00000210: eef6 913c 30c7 c9bc 61db a2bc 3c27 4b3d
00000220: 6b53 d83c 9a1a afbd 0ff8 aebd 674a a33d
00000230: 3717 9bbc 82e4 693d 70e8 7b3c 30a1 20bd
00000240: cff3 48bd 0957 e9bc c37e 953d 9d59 1f3a
00000250: 5f2f 783d e41c 843c 3fc5 623d d91a 6e3d
00000260: add2 a0bd 7bf5 35bd e491 4bbd c09a 00bd
00000270: f863 65bd a8e0 073d 300a a73d 227e aa3d
00000280: d953 80bc 91df abbc ba7c 683c 83d1 83bc
00000290: 41ec 6cbd c7f4 46bc 2100 77bd bebe b03d
000002a0: 9301 833d 62eb 213d be91 943d e99b 4c3c
000002b0: 5482 423d 9248 323d 53a0 11bd 8ca1 673d
000002c0: d7e5 253d 2285 e0bc 12ac 8a3b 80ce 793d
000002d0: bf90 263d 57c0 73bd b249 e7bc 761f 393c
000002e0: 1b8c 713d 0bb8 143d 444a 7d3b cb78 993d
000002f0: 2113 d4bc fdef 6c3d 37db ab3d f628 65bd
00000300: dd09 ab3d 03fd dcba bf62 1b3d 409c fe3c
00000310: 8c28 3b3c 0ec7 6fbd 2502 c93d 45fc 1e3c
00000320: b6a8 913d d7ca 503d 4acb 9a3a 2413 edbc
00000330: 49e1 4fbd d121 e1bc 8f7d 153c 7016 37bd
00000340: 3717 8bbd 29f3 42bd 279c b33d 6301 623d
00000350: a9d8 963d 4aad 8f3d a284 e83c bdef 4cbd
00000360: e84a 33bd 2f7f babc 55f7 003d bd3e fe3c
00000370: 1ac3 083c 6f6e 2f3b 8e52 85bc 3d83 643d
00000380: ac08 733b 378e a03d 5acb efbc 95b7 53bd
00000390: 708b b5bd e874 0fbd 327e 153d f2c3 a6bd
000003a0: 051b c63c b045 7fbd 2712 7ebd 7a4e 473d
000003b0: 9140 55bd 4ec5 8abd f307 e9bc 1282 733d
000003c0: d37a 90bd fa16 b43d ab66 a53d 7378 b23c
000003d0: e767 9c3b 6614 7dbd 6c79 53bd e19f f03b
000003e0: 1600 19bb 7f45 d03b 2c34 203d dc43 7a3d
000003f0: ccfa 59bd 08c7 873d 85ee 023d 7829 9fbc
