scripts/results/MAPPOTraining2v1/2v1/NoWeapon/MAPPOTraining/mappo/v1_2v1_mappo_training/wandb/offline-run-20250807_165042-zjjd28i2/files/critic_episode_3800.pt (torch, 640990 bytes, 23 tensors)

base.mlp.fc.0.weight f4 [128, 63]
0	0xbd8a8320	-0.06763291
1	0x3de52ee4	0.11190584
2	0xbd8d23be	-0.06891583
3	0x3b1a7fdc	0.0023574745
4	0xbd984186	-0.074343726
5	0x3d805810	0.062667966
6	0xbc07560c	-0.008260261
7	0xbd58fd9f	-0.052976247
8	0xbc03edd2	-0.008052306
9	0xbe1b9800	-0.15194702
10	0xbce041da	-0.02737515
11	0x3d0f98ac	0.03505771
12	0x3de537d6	0.111922905
13	0xbd88f964	-0.066881925
14	0x3df642dc	0.12024471
15	0x3dd0b651	0.10191024
16	0x3de752a5	0.1129506
17	0x3c4e3d15	0.012587805
18	0x3dffd160	0.12491107
19	0x3d414ee3	0.047194373
20	0xbda1a668	-0.078930676
21	0xbdb4b0cc	-0.08822784
22	0x3bd815ac	0.0065943804
23	0xbb4d4ee2	-0.0031327535
24	0x3d330568	0.043706328
25	0x3df2452f	0.11829602
26	0xbd844541	-0.06458522
27	0xbdb99dfd	-0.09063337
28	0xbdc7a785	-0.09748749
29	0xbd7f4bbb	-0.06232808
30	0x3cd94959	0.026524233
31	0xbd7a4757	-0.06110319
32	0x3d927aec	0.07152352
33	0x3d9776c4	0.073956996
34	0xbd888394	-0.066657215
35	0x3da062b5	0.07831327
36	0x3d63cb43	0.055613767
37	0xbe32bb0c	-0.17454165
38	0x3dce5b41	0.10075999
39	0xbbacd27f	-0.0052741165
40	0x3e01ba51	0.1266873
41	0xbddf2e7e	-0.108975396
42	0xbcd9cc6e	-0.026586737
43	0x3df66440	0.1203084
44	0xbd93c746	-0.07215743
45	0x3d9ac1a9	0.07556469
46	0xbd2a5086	-0.0415807
47	0x3dd0d9fc	0.10197827
48	0x3d89627a	0.06708236
49	0xbd91ac66	-0.071129605
50	0x3c513aaf	0.012770339
51	0xbcdc1eb7	-0.026870115
52	0xbc28b97b	-0.010298128
53	0xbd5285d3	-0.051397156
54	0xbdd04a16	-0.10170381
55	0x3da4e392	0.08051218
56	0x3db0c0b8	0.08630508
57	0xbe274c4f	-0.16337703
58	0x3ccbd687	0.024882568
59	0xbcd52903	-0.026020532
60	0x3c9a361e	0.018824633
61	0x3c4260ea	0.011863926
62	0xbdfeaa58	-0.12434834
63	0x3ccc7a45	0.024960646
64	0xbdae137d	-0.08499811
65	0xbd463eca	-0.048399724
66	0x3e623301	0.22089769
67	0xbe1553db	-0.1458277
68	0xbe1dd47c	-0.15413088
69	0x3e35ce3c	0.17754453
70	0x3daf9773	0.085738085
71	0x3c20b90c	0.009809744
72	0x3d6e53bd	0.058185328
73	0x3cddd786	0.027080309
74	0x3c42e18f	0.011894598
75	0x3a1d95ef	0.00060114166
76	0xbcf275eb	-0.029597243
77	0x3d923928	0.07139808
78	0xbdda59d0	-0.106616616
79	0x3d93a90a	0.07209976
80	0xbcee7fe4	-0.029113717
81	0x3cdefc27	0.027219845
82	0x3d075ef7	0.03304955
83	0x3cc4f47b	0.024042359
84	0xbdfd5dba	-0.123713925
85	0x3df15019	0.117828555
86	0xbcf30a8e	-0.029668119
87	0xbd2b54a0	-0.04182875
88	0xbdf9d3b8	-0.12198585
89	0xbdfbeb0a	-0.123006895
90	0xbc9ad6b2	-0.018901203
91	0xbd7d739d	-0.061877836
92	0x3d527557	0.051381435
93	0xbc112195	-0.008858104
94	0x3d7d4be0	0.06183994
95	0x3d8b7e54	0.068112046
96	0x3dc46d4c	0.09591159
97	0x3e0f248e	0.13978788
98	0xbdd56f40	-0.1042161
99	0xbcb634b9	-0.022241937
100	0x3e121097	0.14264141
101	0x3ccecbf9	0.025243746
102	0x3d5688b2	0.052376457
103	0x3c6392d8	0.013889991
104	0x36d67c28	6.3921507e-06
105	0x3d6fbd0d	0.058529902
106	0xbbe28c17	-0.0069136727
107	0xbe71e59f	-0.2362275
108	0xbd3cac25	-0.046062607
109	0x3d6c926e	0.057756834
110	0xbc5a9fc0	-0.013343751
111	0x3c23a2a9	0.009987512
112	0x3e10bcc1	0.14134504
113	0x3d9d702c	0.07687411
114	0x3c8d68c6	0.017261874
115	0x3cd2c815	0.025730172
116	0xbdb42e06	-0.08797841
117	0x3d65ff74	0.056151822
118	0xbd1a0f6e	-0.03761237
119	0x3d4e95e1	0.050435904
120	0x3d0d79e1	0.03454006
121	0xbd75d417	-0.060016718
122	0xbde33c8a	-0.11095531
123	0xbd9599d1	-0.07304729
124	0x3b0a7796	0.0021128408
125	0xbd8ddb7f	-0.06926631
126	0xbdc545af	-0.09632432
127	0xbd118c0d	-0.035533953
128	0x3db0f65f	0.086407416
129	0xbd9bfd16	-0.07616632
130	0x3d2faee4	0.042891398
131	0xbdc8fb25	-0.09813527
132	0xbd337c3e	-0.04381966
133	0xbc826a2b	-0.015919765
134	0xbc6cab74	-0.0144451745
135	0x3d2986eb	0.041388433
136	0xbdd2409b	-0.10266229
137	0x3ce55e0a	0.027998943
138	0xbda9d02c	-0.08291659
139	0x3dace833	0.08442726
140	0xbc89a918	-0.016804263
141	0xbd1b81a9	-0.03796545
142	0xbd141287	-0.03615048
143	0x3c716c7f	0.01473534
144	0x3ced2897	0.028950019
145	0x3dfa92d4	0.122350365
146	0x3d8440fa	0.06457706
147	0xbc9c9526	-0.019114088
148	0x3d8724ac	0.065987915
149	0x3def7eca	0.11694105
150	0x3ded4e8f	0.115872495
151	0x3d43e29c	0.047823533
152	0x3d8a0f6b	0.06741222
153	0xbd1c61d3	-0.03817923
154	0x3dddf6cd	0.10838089
155	0x3db3a9c6	0.08772616
156	0x3e010289	0.12598623
157	0x3d8258c4	0.06364587
158	0xbde2e688	-0.110791266
159	0xbd8ba1f9	-0.06818003
160	0x3c3eb54b	0.011639903
161	0xbd9b2d59	-0.07577009
162	0xbc0c2aa0	-0.0085550845
163	0x3d6274f6	0.055287324
164	0xbd987364	-0.07443884
165	0xbcb39fa9	-0.021926718
166	0xbdcf8833	-0.101334
167	0x3caaa079	0.020828472
168	0x3d4c374a	0.049857415
169	0xbc762c49	-0.015025207
170	0xbd0d0ad2	-0.034434147
171	0x3dd24828	0.10267669
172	0xbd74bd1f	-0.059750672
173	0x3d77e732	0.06052322
174	0xbdf9dc28	-0.122001946
175	0xbdb46352	-0.08808006
176	0x3cd8fe62	0.026488487
177	0x3db31107	0.08743482
178	0xbdcc526c	-0.09976658
179	0xbde50905	-0.11183361
180	0x3d8c947a	0.06864257
181	0xbdb5e72b	-0.088819824
182	0x3dc7e5bc	0.09760615
183	0x3ca07230	0.019585699
184	0x3cb26193	0.021775043
185	0x3d5d222a	0.05398766
186	0xbdd1b413	-0.102394246
187	0xbdc50ec3	-0.09621956
188	0x3df331a7	0.11874705
189	0xbdd61ba7	-0.10454493
190	0x3d142f01	0.03617764
191	0xbc7aefa0	-0.01531592
192	0xbca376a0	-0.019954026
193	0xbda001c9	-0.078128405
194	0xbd635a07	-0.05550578
195	0xbc74fca0	-0.014952809
196	0x3df9e14d	0.12201176
197	0x3e288db1	0.16460301
198	0xbd32695f	-0.04355752
199	0x3e262158	0.16223657
200	0xbd82bc51	-0.06383575
201	0x3df46b34	0.1193451
202	0xbdaa5d55	-0.08318583
203	0xbb244264	-0.0025063986
204	0x3d3061b6	0.043061934
205	0xbea856e7	-0.328788
206	0x3b659e8c	0.0035037128
207	0xbd9e446f	-0.077278964
208	0xbd1a7d94	-0.037717417
209	0x3d482398	0.04886207
210	0x3d18d2f5	0.03731056
211	0xbd3310d7	-0.04371723
212	0x3dd74a5b	0.10512229
213	0xbd055576	-0.032552205
214	0xbd36f05d	-0.044662822
215	0x3d872965	0.06599692
216	0xbdd27f28	-0.102781594
217	0x3e1b252c	0.15150899
218	0xbd103cbb	-0.035214167
219	0x3e1543cd	0.14576645
220	0xbde13d12	-0.10997976
221	0xbdd53765	-0.10410956
222	0x3e16ce1c	0.14727062
223	0xbcb67dde	-0.022276815
224	0x3daf8b89	0.08571536
225	0x3df50523	0.119638704
226	0xbf1505a0	-0.5821171
227	0xbd76c994	-0.060250834
228	0x3e01e8b8	0.12686431
229	0xbba7e3ab	-0.0051235757
230	0xbd7a639c	-0.06113015
231	0x3b02100b	0.0019845988
232	0x3d80e9db	0.062946044
233	0xbde1362b	-0.1099666
234	0xbd4215d3	-0.047384094
235	0xbc9193cd	-0.017770672
236	0x3b3b99ef	0.0028625687
237	0x3def435a	0.11682768
238	0x3dba5da9	0.090998955
239	0x3dd794bd	0.105264165
240	0x3e001cf7	0.12511049
241	0x3ea7688c	0.3269695
242	0x3d702648	0.058630258
243	0x3d97409e	0.073853716
244	0xbd50827d	-0.050905693
245	0xbe0f1f62	-0.13976815
246	0xbd77ad2c	-0.060467884
247	0x3f0e7617	0.5564894
248	0xbcebb2fa	-0.028771866
249	0xbd5d8a48	-0.054086953
250	0x3de2ad24	0.1106818
251	0x3dc18704	0.0944958
252	0xbe13005f	-0.1435561
253	0xbd37dd10	-0.044888556
254	0xbc38d4af	-0.0112811765
255	0xbe6b207b	-0.22961609

base.mlp.fc.0.bias f4 [128]
0	0x3d7b7e93	0.061400007
1	0x3db9b984	0.090685874
2	0xbc3ee469	-0.011651137
3	0x3da64029	0.08117706
4	0x3d6968a2	0.05698455
5	0x3d9cb615	0.07651917
6	0xbe1218eb	-0.14267318
7	0xbced3cd8	-0.028959677
8	0x3daa1126	0.08304052
9	0x3d3d304a	0.04618863
10	0xbd717736	-0.05895158
11	0x3dc116e9	0.09428198
12	0x3d863688	0.0655337
13	0xbc8757e2	-0.016521398
14	0xbdf45330	-0.11929929
15	0xbc374fbe	-0.011188446
16	0xbd130d0d	-0.035901118
17	0x3d498881	0.049202446
18	0x3d1eebcf	0.038799103
19	0xbde5c2cc	-0.11218795
20	0xbcb02ebd	-0.021506662
21	0xbe033334	-0.12812501
22	0x3bb39c33	0.005481267
23	0xbd096bb0	-0.033549964
24	0x3c1b4bac	0.009478491
25	0x3d8bbfdd	0.068237044
26	0x3c423fe6	0.011856055
27	0x3d48683e	0.048927538
28	0x3c26d633	0.010182905
29	0x3c729f35	0.014808466
30	0x3c9d655a	0.019213367
31	0x3cb21855	0.021740118
32	0xbd552ef8	-0.052046746
33	0xbd6af87f	-0.05736589
34	0xbced80ce	-0.028992083
35	0xbdfd3e68	-0.12365419
36	0x3c111ff3	0.008857715
37	0x3e02bbd0	0.12766957
38	0xbdd655b2	-0.10465564
39	0xbe025467	-0.1272751
40	0xbdb93c90	-0.090447545
41	0x3d31d741	0.043418173
42	0x3d47c083	0.048767578
43	0xbe0232a4	-0.1271463
44	0xbdf7a80f	-0.120926015
45	0x3d5341ed	0.051576544
46	0xbd8cb66f	-0.06870734
47	0xbdac2c8f	-0.084069364
48	0x3db436fc	0.0879955
49	0x36062731	1.9990368e-06
50	0xbc04ffa2	-0.008117588
51	0xbdd7edc6	-0.105433986
52	0xbc9886cf	-0.01861897
53	0xbdc6b253	-0.097019814
54	0xbd03bf85	-0.03216507
55	0x3d3fb17e	0.04680013
56	0x3cf1ec79	0.029531704
57	0xbc02f01b	-0.007991816
58	0x3dc24b9b	0.09487077
59	0xbe059a40	-0.13047123
60	0x3d7a724f	0.06114417
61	0x3ba6d33d	0.0050910995
62	0x3e0ef64e	0.13961145
63	0xbd1d938b	-0.038470786
64	0xba942248	-0.001130172
65	0xbddcc1a7	-0.10779124
66	0x3dab5410	0.08365643
67	0x3d1e1155	0.038590748
68	0xbbf28c7b	-0.0074020005
69	0x3d9ec28b	0.0775195
70	0x3d642a04	0.05570413
71	0xbd6e08f4	-0.058114007
72	0xbd1596f8	-0.03652093
73	0xbd325952	-0.043542214
74	0xbca9d6b3	-0.02073226
75	0xbcf524a6	-0.029924702
76	0xbd746651	-0.05966789
77	0xbd2d8530	-0.042363346
78	0xbd989d06	-0.07451825
79	0xbd734e65	-0.059400935
80	0xbd706b15	-0.05869587
81	0xbe1b985a	-0.15194836
82	0x3ca58492	0.020204816
83	0xbde30d5c	-0.110865325
84	0xbd1b9800	-0.037986755
85	0xbdc6882d	-0.09693942
86	0x3dd41b0a	0.1035672
87	0x3ce076ec	0.027400456
88	0x3d21b77a	0.039481618
89	0xbdc891e6	-0.09793453
90	0x3dcf0759	0.10108823
91	0x3d0a1064	0.033707038
92	0xbe2399b6	-0.15976605
93	0xbdd8dc50	-0.10588896
94	0x3ddc709b	0.10763665
95	0xbd30ab86	-0.043132327
96	0x3d8a9d98	0.0676834
97	0xbdff11d5	-0.12454573
98	0x3c216e9f	0.009853034
99	0x3daae510	0.083444715
100	0xbda794b9	-0.081826635
101	0xbd7f0379	-0.06225917
102	0xbd94a3da	-0.07257815
103	0x3dbf5899	0.093430705
104	0xbc8b97c2	-0.017040137
105	0x3d2fd219	0.042924974
106	0xbdfe7c94	-0.12426105
107	0xbdadaf0a	-0.08480652
108	0x3d7c0f2a	0.0615379
109	0x3d2c0920	0.04200089
110	0x3d79cbde	0.06098544
111	0xbcc3fa66	-0.02392311
112	0x3debf7a7	0.11521845
113	0xbdc8698b	-0.09785756
114	0xbdfbd9c4	-0.12297395
115	0xbd31d228	-0.04341331
116	0x3dbf6d88	0.09347063
117	0xbc214bb0	-0.009844705
118	0xbdec1d41	-0.11529017
119	0x3de2eb2a	0.1108001
120	0xba2e2892	-0.00066436187
121	0x3cc191a5	0.023629019
122	0xbdf1f92a	-0.118151024
123	0x3d28598e	0.04110103
124	0xbde628d6	-0.112382576
125	0x3e04808e	0.12939665
126	0x3c931b1c	0.017957263
127	0xbe052770	-0.13003325

base.mlp.fc.2.weight f4 [128]
0	0x3f649f0f	0.89305204
1	0x3f3d5918	0.7396407
2	0x3f5baf02	0.85813916
3	0x3f8a0402	1.0782473
4	0x3f762005	0.9614261
5	0x3f585e35	0.8451875
6	0x3f540d60	0.8283291
7	0x3f5dabb3	0.8659012
8	0x3f6e7952	0.9315387
9	0x3f650b13	0.8947002
10	0x3f8da236	1.1065128
11	0x3f751ba9	0.9574533
12	0x3f44dbca	0.7689787
13	0x3f717921	0.94325453
14	0x3f7b73a4	0.9822333
15	0x3f8222c3	1.0166858
16	0x3f7a5292	0.9778224
17	0x3f895162	1.0727961
18	0x3f6dce15	0.9289258
19	0x3f6ae813	0.9176037
20	0x3f732910	0.9498453
21	0x3f5c5fd1	0.86083704
22	0x3f860e1d	1.0473057
23	0x3f6f7daf	0.9355115
24	0x3f7920b8	0.9731555
25	0x3f6ccb56	0.92497766
26	0x3f8b5ca8	1.0887651
27	0x3f4d76a4	0.80259156
28	0x3f682194	0.90676236
29	0x3f5518e9	0.83241135
30	0x3f744806	0.954224
31	0x3f4cfbc7	0.8007168
32	0x3f671d56	0.9027914
33	0x3f5b9330	0.85771465
34	0x3f6b772c	0.91978717
35	0x3f779aea	0.96720755
36	0x3f6ea76a	0.93224204
37	0x3f7b3c19	0.98138577
38	0x3f7ebaef	0.9950399
39	0x3f4d9b4b	0.80315083
40	0x3f6c7816	0.92370737
41	0x3f6e8614	0.93173337
42	0x3f8a3f0e	1.0800493
43	0x3f82bd1a	1.0213959
44	0x3f88e8f6	1.0696094
45	0x3f6f8950	0.935689
46	0x3f8a6e0a	1.0814831
47	0x3f85307a	1.0405419
48	0x3f5718bf	0.84022135
49	0x3f4f610b	0.8100745
50	0x3f83dc87	1.0301675
51	0x3f7598d6	0.95936334
52	0x3f5d9d7f	0.86568445
53	0x3f82d380	1.0220795
54	0x3f4e1cab	0.80512494
55	0x3f55090a	0.8321692
56	0x3f5891d8	0.8459754
57	0x3f56301c	0.8366716
58	0x3f8415c2	1.031914
59	0x3f89905c	1.074718
60	0x3f87938e	1.0591905
61	0x3f74a6a3	0.9556677
62	0x3f74cec6	0.9562801
63	0x3f81fdc6	1.015557
64	0x3f6ea788	0.9322438
65	0x3f71ea21	0.9449788
66	0x3f6184ab	0.8809306
67	0x3f4c2d66	0.7975677
68	0x3f8bce7d	1.092239
69	0x3f6ee074	0.9331124
70	0x3f720c73	0.94550246
71	0x3f3a9896	0.7288908
72	0x3f72a2ea	0.9477984
73	0x3f8271a8	1.0190935
74	0x3f6aa15f	0.9165248
75	0x3f7314c4	0.9495356
76	0x3f4fbc50	0.8114672
77	0x3f60ed1a	0.8786179
78	0x3f730d76	0.94942415
79	0x3f5ab1b0	0.8542738
80	0x3f59082b	0.8477809
81	0x3f795944	0.97401834
82	0x3f80295b	1.0012621
83	0x3f658758	0.89659643
84	0x3f564605	0.8370059
85	0x3f73cceb	0.95234555
86	0x3f897aff	1.074066
87	0x3f560bba	0.83611643
88	0x3f61873d	0.8809698
89	0x3f72c3d9	0.9483009
90	0x3f8ea349	1.1143581
91	0x3f84dc36	1.0379703
92	0x3f625c47	0.88422054
93	0x3f721395	0.9456113
94	0x3f87f63f	1.0622023
95	0x3f60730c	0.8767555
96	0x3f6d55a6	0.92708814
97	0x3f80c2f4	1.0059495
98	0x3f9802ad	1.1875817
99	0x3f5c2cb4	0.8600571
100	0x3f62361c	0.88363814
101	0x3f6ba1eb	0.9204394
102	0x3f62d9ab	0.88613385
103	0x3f4d69aa	0.80239356
104	0x3f862022	1.0478556
105	0x3f6d7249	0.9275251
106	0x3f69e87f	0.91370386
107	0x3f6b9349	0.92021614
108	0x3f75e85a	0.96057665
109	0x3f4fdb50	0.8119402
110	0x3f650b70	0.8947058
111	0x3f6e1a6c	0.93009067
112	0x3f6d32d6	0.92655694
113	0x3f7722ae	0.9653729
114	0x3f665759	0.8997703
115	0x3f892719	1.0715057
116	0x3f804d1e	1.0023534
117	0x3f3b04df	0.7305431
118	0x3f55115c	0.83229613
119	0x3f87ce10	1.060976
120	0x3f64dc28	0.8939843
121	0x3f6b474d	0.9190567
122	0x3f8ad08e	1.0844896
123	0x3f6526a9	0.89512116
124	0x3f77682b	0.9664332
125	0x3f78cf47	0.9719128
126	0x3f67957b	0.90462464
127	0x3f8274a7	1.019185

base.mlp.fc.2.bias f4 [128]
0	0x3d9a42eb	0.07532295
1	0x3e266230	0.16248393
2	0x3e156e77	0.1459292
3	0x3c43c04b	0.011947702
4	0x3c1d058c	0.009583842
5	0x3db84cd8	0.08999032
6	0x3db9d9a6	0.09074716
7	0x3e0e8801	0.13919069
8	0x3d899ece	0.06719743
9	0x3d7a8b89	0.061168227
10	0xbae5a490	-0.0017520357
11	0x3d405327	0.0469543
12	0x3e3485da	0.17629185
13	0x3d6fe2b6	0.058565818
14	0x3c1b6227	0.009483851
15	0xbc89d72e	-0.016826238
16	0x3d0c47d5	0.034248192
17	0x3bfda904	0.0077410955
18	0x3da4afcd	0.08041344
19	0x3da89ffd	0.0823364
20	0x3cc9d2b1	0.024636598
21	0x3daa36e9	0.083112545
22	0xba98c693	-0.0011655859
23	0x3d85faad	0.06541953
24	0x3c153422	0.009106668
25	0xbbb2b9e9	-0.005454291
26	0xbc5e4c78	-0.013568036
27	0x3e36c497	0.1784843
28	0x3dc9625f	0.09833216
29	0x3d921419	0.071327396
30	0xbcacb060	-0.021080196
31	0x3e41626b	0.188852
32	0x3d3102b5	0.043215472
33	0x3ccc04cf	0.024904637
34	0x3ce2565e	0.027629074
35	0xbcae37a9	-0.021266775
36	0x3d8dd3f8	0.069251955
37	0xbc7d5654	-0.015462477
38	0x3bde7fe1	0.0067901467
39	0x3e27846b	0.16359107
40	0x3d95dcff	0.07317542
41	0x3c3a5365	0.011372422
42	0x3c05d4aa	0.008168379
43	0xbcdbd6c7	-0.026835812
44	0xbce8b391	-0.028405936
45	0xbc895ad1	-0.016766937
46	0xbc44fb44	-0.012022797
47	0x3c3ef2d9	0.011654579
48	0x3d007c08	0.031368285
49	0x3dd24a5b	0.102680884
50	0x3c2bcc50	0.010485724
51	0x3d211daf	0.03933495
52	0x3dabda57	0.083912544
53	0x3ae2c59e	0.0017301326
54	0x3d9eefd3	0.077605866
55	0x3defb08f	0.11703598
56	0x3e0ac75c	0.13552612
57	0x3e110a5a	0.14164105
58	0xbb922e1c	-0.004461063
59	0xbd1c3e0c	-0.03814511
60	0xbcb23888	-0.021755472
61	0xba969568	-0.0011488618
62	0x3dc864ee	0.09784876
63	0xbc05eed3	-0.008174616
64	0x3d7ed13b	0.062211256
65	0xba9854a3	-0.0011621903
66	0x3d8e3587	0.06943803
67	0x3df166df	0.11787199
68	0x3c2612d3	0.010136324
69	0x3d553a2b	0.052057426
70	0x3d0a0009	0.03369144
71	0x3e4a2f6e	0.19744655
72	0x3ca0d514	0.019632854
73	0x3b8392a1	0.0040152823
74	0x3da6f34c	0.08151874
75	0xbca34171	-0.019928666
76	0x3e43b28c	0.19111079
77	0x3da30385	0.07959656
78	0x3d689cbf	0.05679011
79	0x3d8b57bc	0.068038434
80	0x3e2200f0	0.1582067
81	0x3a9fe814	0.0012199902
82	0xbc8b0479	-0.016969906
83	0x3d9f68c9	0.07783658
84	0x3d9cd226	0.0765727
85	0x3d5b85f6	0.053594552
86	0xbb8830da	-0.004156214
87	0x3e2ac3fe	0.16676328
88	0x3df6d7a9	0.12052853
89	0xbb6d1a7f	-0.0036179123
90	0xbc282276	-0.010262122
91	0xbcdf629b	-0.027268698
92	0x3d3c04b0	0.045902908
93	0x3d73b684	0.059500232
94	0xbc517675	-0.01278459
95	0x3d9e5786	0.077315375
96	0x3cdf7d93	0.027281558
97	0xbcd3a6b4	-0.025836326
98	0x3ba8c8bd	0.005150883
99	0x3e1405b9	0.14455308
100	0x3defbd40	0.117060184
101	0x3dab5e53	0.083676
102	0x3dfda579	0.12385077
103	0x3e29b5b7	0.16573225
104	0xbc4ee2f1	-0.012627349
105	0x3dd617bd	0.104537465
106	0x3dbe8763	0.09303167
107	0x3dae22e2	0.08502747
108	0x3d3df2f5	0.04637428
109	0x3e392b20	0.18082857
110	0x3cb75d01	0.022383215
111	0xbcac9b90	-0.021070272
112	0x3d9d64b3	0.076852225
113	0x3d282ff8	0.04106137
114	0x3dda1b5f	0.10649752
115	0xbc836b76	-0.016042452
116	0x3b403d44	0.0029333392
117	0x3e626f57	0.22112785
118	0x3dbd25fb	0.0923576
119	0xbcd5f1bd	-0.026116246
120	0x3d6fdb5a	0.0585588
121	0xb9b2abfe	-0.0003407895
122	0x3bdbfaba	0.0067132385
123	0x3dee6c88	0.116417944
124	0x3d237524	0.039906636
125	0x3dee425b	0.1163375
126	0x3c8a9710	0.016917735
127	0xbca7c73d	-0.020480746

base.mlp.fc.3.weight f4 [128, 128]
0	0x3d8b93e7	0.068153195
1	0xbbfc30fd	-0.0076962695
2	0x3d2c8d17	0.04212674
3	0x3db7bb3c	0.08971259
4	0xbdde0565	-0.10840873
5	0xbd2c8080	-0.042114735
6	0x3d7445a3	0.059636723
7	0xbcfe3119	-0.031029271
8	0x3cd90ef1	0.026496382
9	0xbdd0e23d	-0.101994015
10	0xbe1ad4bc	-0.15120214
11	0x3d355793	0.04427297
12	0xbd77a078	-0.06045577
13	0xbbcc2171	-0.0062295725
14	0xbdb843f6	-0.089973375
15	0xbdf387ea	-0.11891158
16	0xbd04446c	-0.032291815
17	0xbe40a89c	-0.1881432
18	0xbd20501c	-0.0391389
19	0x3d2738c0	0.040825605
20	0x3ccd7f78	0.025085196
21	0x3d0900c4	0.033447996
22	0xbd0564c9	-0.03256682
23	0xbda6d770	-0.0814656
24	0xbbcd5056	-0.0062656803
25	0x3d4319d7	0.047632065
26	0xbcb1373f	-0.021632789
27	0x3da74051	0.08166564
28	0xbd6f098b	-0.05835871
29	0xbd489d0c	-0.048977897
30	0xbd1e0ca6	-0.03858628
31	0x3c8b5473	0.017008042
32	0x3c57c6f0	0.013169989
33	0x3cb20b53	0.021733915
34	0xbdf151b5	-0.117831625
35	0x3d144581	0.036199097
36	0xbd0fbf9c	-0.035094842
37	0xbc4e08c7	-0.012575335
38	0x3d14a316	0.036288343
39	0xbd993564	-0.074808866
40	0x3d4af427	0.049549248
41	0x3e193e89	0.14965262
42	0xbe49c315	-0.19703324
43	0x3df991bc	0.12186
44	0x3e2cdd57	0.1688131
45	0xbc199dd1	-0.009376005
46	0x3dfeccec	0.124414295
47	0x3d1b2a8d	0.037882376
48	0x3bd81eb1	0.0065954556
49	0xbb867b76	-0.004104073
50	0xbd968b84	-0.07350829
51	0xbd8af1e8	-0.06784421
52	0xbd3cc492	-0.0460859
53	0xbd6a407d	-0.057190407
54	0xbd897f82	-0.06713773
55	0x3d4afaf0	0.04955572
56	0x3cbbc303	0.022920137
57	0x3cf2fee4	0.029662557
58	0xbd966d5b	-0.07345077
59	0x3da268eb	0.07930168
60	0x3a558128	0.0008144551
61	0x3cf4a341	0.029863002
62	0xbd4ec540	-0.05048108
63	0x3e16c99a	0.14725342
64	0x3cb31a28	0.021863058
65	0x3d98b951	0.07457221
66	0xbb80bbb5	-0.0039286264
67	0xbdac9eb0	-0.08428705
68	0xbdaad153	-0.08340707
69	0x3d9bc8b3	0.0760664
70	0xbd621cac	-0.055203125
71	0x3ca4df6c	0.020126067
72	0xbd5e5cf3	-0.054287862
73	0xbcc6f6fb	-0.024287691
74	0x3da0a900	0.07844734
75	0xbd92e56e	-0.071726665
76	0x3dbed871	0.09318627
77	0xbd427862	-0.047478087
78	0x3da1d079	0.07901091
79	0xbc159d3d	-0.009131727
80	0xbd43546a	-0.047687925
81	0xbd23ced5	-0.039992172
82	0xbdc0e9f6	-0.094196245
83	0x3dcb1c0b	0.09917458
84	0x3ddb3a5c	0.107044905
85	0x3d6d6159	0.057954166
86	0xbbe97018	-0.0071239583
87	0x3d2aed13	0.041729998
88	0xbd30c34f	-0.04315501
89	0x3dc44df5	0.095851816
90	0x3b4dc157	0.0031395757
91	0x3cf155ff	0.029459951
92	0xbd7e222b	-0.062044304
93	0xbc85a9f1	-0.016316386
94	0x3d9a94d7	0.0754792
95	0x3ce31e83	0.02772451
96	0xbe087eaf	-0.13329576
97	0x3cc063fe	0.02348518
98	0xbdcbe4ad	-0.09955726
99	0x3caf8ca2	0.021429364
100	0xbb9636be	-0.0045841625
101	0x3d4b22ef	0.049593862
102	0x3da3be05	0.07995228
103	0x3d951660	0.07279658
104	0x3c856993	0.016285693
105	0xbc6fe6b0	-0.0146424025
106	0xbd7b4fb3	-0.061355304
107	0xbb9b9eac	-0.00474914
108	0xbc0bd8be	-0.008535562
109	0x3988a05a	0.00026059413
110	0x3d1f1f1d	0.03884803
111	0x3db8af27	0.09017783
112	0x3d436c9d	0.047711004
113	0xbd9b4235	-0.07580987
114	0xbd91a7c8	-0.0711208
115	0x3d6d84f5	0.057988126
116	0x3d8d4317	0.06897562
117	0xbdeab695	-0.11460606
118	0x3a6ed0ff	0.00091101223
119	0x3db5a41f	0.08869194
120	0xbc35f2b7	-0.011105231
121	0xbe02e8d3	-0.12784128
122	0xbcfb894f	-0.030705122
123	0xbd86844b	-0.06568202
124	0x3cc7b764	0.02437944
125	0xbc022a3a	-0.007944638
126	0xbd29f213	-0.041490626
127	0xbd4c120e	-0.049821906
128	0xbd554ba1	-0.05207408
129	0xbc9254ce	-0.017862704
130	0xbdd5cbf9	-0.10439295
131	0xbbfe44e3	-0.007759677
132	0xbd1e81b1	-0.038697902
133	0xbcb42b0c	-0.021993183
134	0xbcb247ea	-0.021762807
135	0xbcc567be	-0.02409732
136	0x3b5c3d06	0.0033605709
137	0x3c405685	0.011739378
138	0x3d1cee5e	0.038313262
139	0x3d07414b	0.033021253
140	0xbd9c41ce	-0.07629739
141	0x3d2a3f5f	0.04156434
142	0x3d988895	0.07447926
143	0xbd9a2dd0	-0.07528269
144	0x3c89cbe6	0.01682086
145	0xbdc77301	-0.09738732
146	0xbd7dd22a	-0.061968006
147	0xbdd95f34	-0.10613862
148	0x3c34edd6	0.011043033
149	0xbc855011	-0.01627353
150	0xbd698de8	-0.057020098
151	0x3d1b93d1	0.037982766
152	0x3d18fdd5	0.037351448
153	0x3d8da984	0.06917098
154	0x3e4014d5	0.18757947
155	0xbc69c4c1	-0.014268101
156	0xbdb9538c	-0.090491384
157	0xbd6186b3	-0.0550601
158	0x3dbb0ba6	0.09133081
159	0xbd9bd590	-0.07609093
160	0xbcb2821a	-0.021790553
161	0x3d03333c	0.032031283
162	0xbc811ee4	-0.0157618
163	0xbd84822e	-0.06470142
164	0x3d2d6e1e	0.042341344
165	0xbb232942	-0.0024896418
166	0xbd73628a	-0.059420146
167	0xbda73c6e	-0.08165823
168	0x3bbeee0f	0.0058267186
169	0x3d07ab4b	0.033122342
170	0xbd8db172	-0.06918611
171	0xbc3516ca	-0.011052797
172	0x3d2438a5	0.040093083
173	0x3daa7154	0.08322397
174	0x3d727779	0.05919597
175	0xbd88fdeb	-0.06689056
176	0x3c50ad1f	0.012736588
177	0x3dbbc2fa	0.09168048
178	0xbc87db1f	-0.016583977
179	0xbde2d508	-0.11075789
180	0xbdd12109	-0.10211379
181	0x3d09e5f2	0.03366656
182	0xbcc02bd0	-0.023458391
183	0x3c993205	0.018700609
184	0xbd8904fc	-0.06690404
185	0x3c53d6cc	0.01292963
186	0x3c95d7e4	0.018291421
187	0x3d8abe40	0.067745686
188	0x3c81b2c4	0.015832312
189	0xbde19b81	-0.11015988
190	0x3db7621f	0.08954262
191	0x3c4d041e	0.012513189
192	0xbd8ebf14	-0.06970039
193	0x38028e1a	3.1126758e-05
194	0xbc669de0	-0.014075726
195	0x3abeac5c	0.0014547217
196	0xbd9948df	-0.07484602
197	0x3cb24d37	0.021765335
198	0xbd70bb19	-0.05877218
199	0xbdc5166b	-0.096234165
200	0xbc811743	-0.015758162
201	0xbd5c4d68	-0.053784758
202	0xbb5c13fa	-0.0033581243
203	0x3d83574f	0.06413137
204	0xbd88cb61	-0.066794164
205	0xbd5013b2	-0.050800033
206	0xbc8f99ee	-0.017529454
207	0xbd9e85aa	-0.07740338
208	0xbdc9053f	-0.09815454
209	0xbd99ca3a	-0.07509275
210	0xbc3ce16c	-0.011528354
211	0xbd2f442b	-0.04278962
212	0xbcd023c3	-0.025407678
213	0xbc5c822a	-0.013458768
214	0x3cd48855	0.025943914
215	0xbd964c1c	-0.073387355
216	0xbd2cb053	-0.042160343
217	0xbd8eeb7d	-0.069785096
218	0xbd639c52	-0.055569
219	0x3dfbabb1	0.12288607
220	0xbd02af38	-0.031905383
221	0xbdda5750	-0.10661185
222	0x3e41fffb	0.18945305
223	0x3caaa83a	0.02083217
224	0xbd9bc091	-0.076050885
225	0x3d42dda6	0.04757466
226	0xbe016ddd	-0.12639566
227	0xbab4d2f0	-0.0013795774
228	0xbd5a47ed	-0.05329125
229	0xbdce3c13	-0.10070052
230	0xbd9496a7	-0.07255297
231	0x3cd4d1c4	0.02597893
232	0x3d924f0b	0.071439825
233	0x3d86eafd	0.06587789
234	0xbdd4c648	-0.10389382
235	0xbd66989b	-0.05629788
236	0x3e0e118e	0.13873884
237	0xbdb50412	-0.08838667
238	0x3db42ee0	0.08798003
239	0x3ba0e686	0.004910293
240	0xbd93f22c	-0.07223925
241	0xbce0fdf3	-0.027464842
242	0x3d0e2ee9	0.034712706
243	0x3e265662	0.1624389
244	0x3d548620	0.051885724
245	0x3a178640	0.00057801977
246	0x3cb52bc8	0.022115603
247	0x3e06e089	0.13171591
248	0x3b855df3	0.0040700375
249	0x3d9a62e4	0.07538393
250	0xbcb9ebb7	-0.022695405
251	0x3b80c947	0.003930244
252	0xbce10919	-0.027470158
253	0x3be2a522	0.006916658
254	0xbd881eda	-0.066465095
255	0xbd9bfab9	-0.07616181

base.mlp.fc.3.bias f4 [128]
0	0xbc9df6dd	-0.019282753
1	0xbbb26247	-0.0054438445
2	0xbd54bc46	-0.051937364
3	0x3d3be0a1	0.04586852
4	0x3dcf6845	0.1012731
5	0xbca2151d	-0.019785458
6	0xbd321eab	-0.04348628
7	0xbdf0dc1a	-0.11760731
8	0x3dbde6c4	0.09272531
9	0x3d75d939	0.060021613
10	0xbc315db3	-0.010825562
11	0xbd022cda	-0.031781055
12	0x3d26c815	0.040718157
13	0xbe032c03	-0.12809758
14	0x3d431e82	0.047636516
15	0xbdaf276e	-0.085524425
16	0xbc48529a	-0.012226725
17	0xbd935913	-0.07194724
18	0x3cca221a	0.024674464
19	0x3d7292b7	0.05922195
20	0xbca5884d	-0.020206595
21	0x3d84c7e9	0.06483442
22	0x3d862433	0.06549873
23	0xbcb0b7f7	-0.021572096
24	0x3c7040a9	0.014663854
25	0xbd35baf3	-0.04436774
26	0x3d961aad	0.07329307
27	0x3c04ae4a	0.008098194
28	0xbc9e69fb	-0.019337645
29	0xbad0a328	-0.0015917765
30	0x3dbfea42	0.09370853
31	0xbc634eeb	-0.013873796
32	0x3c75349e	0.014966158
33	0xbdb1f640	-0.086895466
34	0xbdaba213	-0.083805226
35	0x3d917436	0.071022436
36	0x3c518316	0.012787601
37	0x3da92c3f	0.082603924
38	0x3d9e0150	0.07715094
39	0x3cc8acd7	0.024496479
40	0xbc01b639	-0.00791698
41	0x3ccce0f2	0.025009606
42	0x3d9bb7c5	0.07603411
43	0x3d827a11	0.063709386
44	0x3d24779b	0.040153127
45	0x3d87335e	0.066015944
46	0xbda9e18a	-0.08294971
47	0xbd98c381	-0.074591644
48	0xbd041ac5	-0.032252092
49	0x3da7f16c	0.082003444
50	0x3dcc97d5	0.09989897
51	0xbd338bd2	-0.043834515
52	0xbd2b99bb	-0.041894656
53	0x3d985b04	0.07439235
54	0x3d2ee9ef	0.042703565
55	0x3d4c7c87	0.049923446
56	0x3db17f35	0.08666841
57	0xbe0137f8	-0.12619007
58	0x3d6554d8	0.055989116
59	0x3d80df4e	0.06292592
60	0x3cbedaa4	0.023297615
61	0xbd2e4633	-0.042547416
62	0xbd4f8b5c	-0.050670013
63	0xbd39e56d	-0.045384813
64	0xbe01f308	-0.12690365
65	0x3dbbd9f6	0.09172432
66	0xbd031c89	-0.032009635
67	0xbddd0104	-0.10791209
68	0xbd9856d5	-0.07438437
69	0xbe0e48e2	-0.1389499
70	0xbc0d5f9e	-0.008628754
71	0xbbd053f5	-0.0063576647
72	0xbdc95cd4	-0.09832159
73	0x3d8208e5	0.06349353
74	0xbc0d139e	-0.008610634
75	0x3d9225a0	0.07136083
76	0x3b86aae1	0.004109726
77	0xbd57a356	-0.052646004
78	0x3d9070dd	0.07052777
79	0x3d7dbd61	0.061948184
80	0xbd87fd2f	-0.06640088
81	0x3dccc9bb	0.099994145
82	0x3da73966	0.08165245
83	0xbd4073a9	-0.046985302
84	0x3c20dc9d	0.009818223
85	0xbd412a10	-0.047159255
86	0x3c93b208	0.018029228
87	0xbcb490ac	-0.022041641
88	0x3d3a7c45	0.04552867
89	0xbd7ecb0b	-0.062205356
90	0x3dc58adf	0.09645628
91	0xbbf069cb	-0.0073368303
92	0xbb46b9f1	-0.0030323232
93	0x3dbcc837	0.092178755
94	0x3dbf846c	0.09351429
95	0xbda18124	-0.0788596
96	0xbcabebf5	-0.020986537
97	0x3aeb46f0	0.0017950218
98	0xbda620e9	-0.08111746
99	0xbd347008	-0.044052154
100	0x3bd58f2c	0.0065173116
101	0x3d13b1c7	0.036058214
102	0xbd0133ff	-0.031543728
103	0xbd1c0779	-0.038093064
104	0xbe004c5f	-0.12529133
105	0x3d069b85	0.03286316
106	0x3d5d4a5d	0.054025996
107	0xbd2732ed	-0.04082005
108	0xbdf013be	-0.117225155
109	0xbd9f9b9f	-0.07793354
110	0xbdb2b3fb	-0.08725735
111	0xbd60d2b5	-0.054888446
112	0xbdc7d9f3	-0.097583674
113	0x3cd9d5f7	0.026591284
114	0x3cad40a3	0.021148985
115	0x3dcfcc64	0.10146406
116	0xbd9bab70	-0.076010585
117	0x3cd28af0	0.025701016
118	0xbd7252b0	-0.05916089
119	0x3cff636f	0.031175343
120	0xbcfcfbfe	-0.030881878
121	0x3dbd9c60	0.09258342
122	0x3dd0e8a6	0.10200624
123	0xbd958972	-0.07301606
124	0xbdb5aab0	-0.08870447
125	0xbdd26cff	-0.102746956
126	0xbca8ed36	-0.020620923
127	0x3d39cce5	0.04536142

base.mlp.fc.5.weight f4 [128]
0	0x3f810380	1.0079193
1	0x3f85df39	1.0458747
2	0x3f82f4cd	1.0230957
3	0x3f67972f	0.9046506
4	0x3f885c4c	1.0653167
5	0x3f7bb370	0.98320675
6	0x3f80ea66	1.0071533
7	0x3f79ea7f	0.9762344
8	0x3f797b41	0.97453696
9	0x3f6b1cd7	0.9184088
10	0x3f84f3f5	1.038695
11	0x3f835993	1.0261711
12	0x3f7fa17f	0.998558
13	0x3f7195f8	0.9436946
14	0x3f81f8fb	1.0154108
15	0x3f6b4a5a	0.91910326
16	0x3f7983f1	0.9746695
17	0x3f764dbe	0.96212375
18	0x3f800c72	1.0003798
19	0x3f861e73	1.0478042
20	0x3f61ec58	0.88251257
21	0x3f784c39	0.96991307
22	0x3f806961	1.0032159
23	0x3f73e023	0.9526388
24	0x3f7cf990	0.988183
25	0x3f88901d	1.066898
26	0x3f7a4428	0.9776025
27	0x3f817f9c	1.0117068
28	0x3f79f9f5	0.9764703
29	0x3f84eef7	1.0385426
30	0x3f81f931	1.0154172
31	0x3f7b5c85	0.9818805
32	0x3f7f04b8	0.99616575
33	0x3f6710c9	0.9025999
34	0x3f816169	1.0107852
35	0x3f7a31de	0.9773234
36	0x3f81cff1	1.0141584
37	0x3f83e7a4	1.0305066
38	0x3f7d5a2d	0.9896572
39	0x3f85e4fa	1.0460503
40	0x3f8484f8	1.0353079
41	0x3f6ff52d	0.93733484
42	0x3f816a91	1.0110646
43	0x3f72bf18	0.94822836
44	0x3f788e23	0.97091883
45	0x3f831508	1.0240793
46	0x3f80d97b	1.006637
47	0x3f7cbe45	0.9872783
48	0x3f88caae	1.0686853
49	0x3f80ed67	1.007245
50	0x3f711fbe	0.9418906
51	0x3f6ec3a4	0.93267274
52	0x3f82fd56	1.0233562
53	0x3f66df20	0.9018421
54	0x3f7a0952	0.9767047
55	0x3f74ea67	0.9567017
56	0x3f88058a	1.062669
57	0x3f61feff	0.8827972
58	0x3f7671a4	0.9626715
59	0x3f858fd7	1.0434521
60	0x3f7d1f62	0.9887601
61	0x3f7483ed	0.955138
62	0x3f85be4c	1.0448699
63	0x3f80fd22	1.007725
64	0x3f7fb3ce	0.99883735
65	0x3f8998fd	1.0749813
66	0x3f81b71e	1.0134008
67	0x3f6b33d9	0.9187599
68	0x3f799186	0.97487676
69	0x3f64e1d4	0.89407086
70	0x3f893930	1.0720577
71	0x3f78e02c	0.9721706
72	0x3f82704f	1.0190524
73	0x3f7bf61e	0.9842242
74	0x3f83b210	1.0288715
75	0x3f7ef804	0.9959719
76	0x3f781ec4	0.96921945
77	0x3f851ba5	1.0399061
78	0x3f55c471	0.8350287
79	0x3f6b0e21	0.91818434
80	0x3f673626	0.90317
81	0x3f74d145	0.9563182
82	0x3f7a19cd	0.9769562
83	0x3f87e867	1.0617799
84	0x3f8133f9	1.0093986
85	0x3f6bf75e	0.9217433
86	0x3f732f6b	0.9499423
87	0x3f5c1315	0.85966617
88	0x3f6bcc0e	0.9210824
89	0x3f824403	1.0177006
90	0x3f819f4c	1.0126739
91	0x3f6a5106	0.9152988
92	0x3f752928	0.95765924
93	0x3f717ff3	0.9433586
94	0x3f7eef02	0.99583447
95	0x3f834efc	1.0258479
96	0x3f78bd63	0.9716398
97	0x3f81cfdb	1.0141557
98	0x3f7163df	0.94293016
99	0x3f830ac2	1.0237658
100	0x3f7c226e	0.98490036
101	0x3f44b929	0.7684503
102	0x3f4042b6	0.7510179
103	0x3f80311d	1.0014988
104	0x3f7ea690	0.99472904
105	0x3f6cda31	0.92520434
106	0x3f71b7bc	0.9442098
107	0x3f886533	1.0655884
108	0x3f829666	1.0202148
109	0x3f7e22c9	0.9927183
110	0x3f66e579	0.901939
111	0x3f8ea41f	1.1143836
112	0x3f78edd7	0.97237915
113	0x3f78112e	0.96901214
114	0x3f805140	1.0024796
115	0x3f861be7	1.0477265
116	0x3f79c899	0.9757171
117	0x3f703b2b	0.93840283
118	0x3f6c000b	0.92187566
119	0x3f7d50ce	0.98951423
120	0x3f7d4419	0.98932034
121	0x3f8349f2	1.0256941
122	0x3f88c687	1.0685586
123	0x3f83acda	1.0287125
124	0x3f6f5e9c	0.9350374
125	0x3f79b210	0.97537327
126	0x3f7f0c55	0.9962819
127	0x3f84abe9	1.0364963

base.mlp.fc.5.bias f4 [128]
0	0xbcd1b64f	-0.025599627
1	0x3b6a0413	0.0035707995
2	0xbcb1ce34	-0.02170477
3	0x3d96dd5e	0.07366441
4	0x3c540901	0.0129416
5	0xbc6c9719	-0.014440321
6	0xbc647f89	-0.013946422
7	0x38e3d49a	0.000108638036
8	0x3bbf5b8a	0.0058397697
9	0xbc17fc5d	-0.009276477
10	0x3c104ed3	0.008807856
11	0x3bb30566	0.00546329
12	0x3c931c79	0.017957913
13	0x3cd496f1	0.02595088
14	0xbc1c0f16	-0.009525081
15	0xbcd1e249	-0.025620596
16	0x3d573030	0.05253619
17	0x3c9735c4	0.018458255
18	0xbbfe34f2	-0.0077577764
19	0xbc78257f	-0.0151456585
20	0x3d246226	0.040132664
21	0x3d566e2e	0.05235117
22	0xbc077677	-0.00826799
23	0x3cba70be	0.022758838
24	0x3d5f69b0	0.05454415
25	0x3bd58e3c	0.0065172
26	0x3cabf6c3	0.020991689
27	0x3b5dfe4b	0.0033873494
28	0xbbf7805b	-0.007553143
29	0xbb81e005	-0.003963473
30	0x3cb1f734	0.021724321
31	0xbb302b95	-0.0026881446
32	0xbb1a89cb	-0.0023580666
33	0xbc691dcb	-0.014228295
34	0xbd77c008	-0.06048587
35	0x3c79908f	0.015232219
36	0xbc0d9a8a	-0.008642802
37	0x3bc000c6	0.005859467
38	0x3d34611b	0.04403792
39	0xbd21ad27	-0.03947177
40	0xbca2c277	-0.019868119
41	0x3cdf2684	0.027240045
42	0x3c505d09	0.012717494
43	0x3cb09d5e	0.021559414
44	0x3d256212	0.04037673
45	0x3d424f9b	0.0474392
46	0x3ca4bbee	0.020109143
47	0xbcb98129	-0.022644596
48	0xba8edbab	-0.0010899206
49	0x3c55de95	0.013053556
50	0x3d5b31e9	0.053514395
51	0x3d035150	0.032059968
52	0x3b453737	0.0030092725
53	0x3ce6df9d	0.028182799
54	0x3d00a6e4	0.03140916
55	0x3ca5da1d	0.020245606
56	0xbb8111fc	-0.0039389115
57	0x3dba4381	0.090949066
58	0xbcdab2e5	-0.026696632
59	0xbc3d32dc	-0.01154777
60	0x3c1dd10e	0.009632362
61	0x3cae9262	0.021310035
62	0x3c854ad1	0.016271027
63	0xbcd13dd0	-0.02554217
64	0x3acee79d	0.0015785579
65	0xbb50c2aa	-0.003185431
66	0xbc85a45b	-0.016313722
67	0x3d5cc98b	0.053903144
68	0xb90fba1d	-0.00013706875
69	0x3d5c815a	0.053834297
70	0xbb81a09b	-0.0039559132
71	0xbcb94d1d	-0.022619778
72	0xbd358ed2	-0.044325657
73	0x3ccbffa2	0.024902169
74	0x3cae2fc3	0.021263009
75	0x3c2253b1	0.009907649
76	0x3c57d207	0.013172633
77	0xbab1e408	-0.0013571987
78	0x3d84018f	0.0644561
79	0x3d2297e0	0.03969562
80	0x3cfc0bff	0.030767439
81	0x3cd0f12b	0.025505623
82	0x3c80e147	0.01573242
83	0xbd64c8cf	-0.05585557
84	0xbbb07880	-0.0053854585
85	0x3d1eb162	0.038743384
86	0x3c835a70	0.016034335
87	0x3d8fd6b2	0.07023372
88	0x3d07c573	0.033147287
89	0xbc31a91a	-0.01084354
90	0xba9d800e	-0.0012016313
91	0x3d22e921	0.03977311
92	0x3c668622	0.014070066
93	0x3cbc122a	0.02295788
94	0x3d255f51	0.040374104
95	0xba71cf12	-0.00092242763
96	0xbc907743	-0.017634993
97	0x3c880fb3	0.016609048
98	0x3ccca6fb	0.024981966
99	0x3c732123	0.014839443
100	0x3d5f9c8d	0.054592658
101	0x3ddaa2c8	0.10675579
102	0x3e5d32c7	0.21601401
103	0x3c8f84dc	0.017519407
104	0x3c03772f	0.008024021
105	0x3c904e07	0.017615331
106	0x3c07621f	0.00826314
107	0xbb1ab42b	-0.0023605924
108	0xbcce6191	-0.025193008
109	0x3ac6587f	0.0015132575
110	0x3cad1da4	0.021132298
111	0xbc29cf09	-0.010364302
112	0x3c00e3d3	0.0078668175
113	0x3c34f5e9	0.011044958
114	0xbcb7de80	-0.022444963
115	0x3bdef54e	0.006804145
116	0xbc272ea9	-0.010203996
117	0xbce74761	-0.028232278
118	0x3dead9fd	0.11467359
119	0x3c5e6a94	0.013575215
120	0xbc9ff891	-0.019527705
121	0x3b834041	0.0040054624
122	0x3b9c58bb	0.0047713197
123	0xbd373a48	-0.044733316
124	0x3d95a638	0.07307094
125	0x3caacea1	0.020850481
126	0x3c722c92	0.014781134
127	0xbbf20fb1	-0.0073871245

rnn.gru.weight_ih_l0 f4 [384, 128]
0	0x3d1aa14d	0.037751485
1	0xbdce616b	-0.10077175
2	0x3d42075e	0.047370307
3	0x3bef59e1	0.0073044156
4	0xbda99a7c	-0.08281419
5	0xbd9d4d54	-0.07680765
6	0x3d8dd5bb	0.069255315
7	0x3c928ff7	0.017890913
8	0x3b3a8384	0.0028459737
9	0xbe1652ec	-0.1468007
10	0xbe1f1bd3	-0.15537958
11	0xbaa35223	-0.0012460392
12	0x3d55a790	0.052161753
13	0x3d8b04e7	0.067880444
14	0xbd000da9	-0.031263027
15	0x3d04be4e	0.03240805
16	0xbd27c6ee	-0.0409612
17	0x3cef27c2	0.029193763
18	0x3d11a0da	0.03555379
19	0xbdd431f1	-0.10361088
20	0x3dad1140	0.08450556
21	0x3df6ec0e	0.120567426
22	0xbe147a3b	-0.14499752
23	0x3d08ebdf	0.03342807
24	0xbd8a80b2	-0.06762828
25	0xbd8c0f5e	-0.068388686
26	0xbd030865	-0.031990428
27	0x3df7f1e7	0.12106686
28	0x3d6ed18e	0.058305316
29	0xbd1f7c9b	-0.038937192
30	0x3b1f775d	0.002433262
31	0xbaa64391	-0.0012684931
32	0x3d0d389d	0.03447782
33	0xbd0e88c5	-0.034798402
34	0x3c2030df	0.009777277
35	0x3cfc5b6f	0.030805318
36	0xbde63fb8	-0.11242622
37	0xbda5a2c8	-0.08087689
38	0xbcd5c8aa	-0.02609666
39	0x3d512ec5	0.051069994
40	0x3d0d28f8	0.0344629
41	0x3de3e50e	0.11127673
42	0xbd4f8fb1	-0.050674144
43	0xbdabe427	-0.08393126
44	0xbc4171e8	-0.0118069425
45	0xbd644ad9	-0.055735443
46	0x381a24e5	3.6750822e-05
47	0xbd94221f	-0.072330706
48	0xbbf957e6	-0.0076093553
49	0xbd3153d8	-0.04329285
50	0x3c1b231e	0.009468822
51	0x3d4baa59	0.049723003
52	0x3d8d6dfd	0.06905744
53	0xbd81f629	-0.063457794
54	0x3a67f591	0.0008848543
55	0xbdad5a1f	-0.08464455
56	0xbd5ef92e	-0.054436855
57	0x3cd70a6d	0.026250089
58	0xbca89e65	-0.02058334
59	0x3c0b41c9	0.008499571
60	0xbd4aba7b	-0.049494248
61	0xbdc14f9e	-0.09439014
62	0xbcd2c67f	-0.025729416
63	0xbd09d2aa	-0.03364817
64	0xbdc9e1b7	-0.09857505
65	0x3c611ebd	0.013740239
66	0xbd8ed5db	-0.069743834
67	0xbd132e6e	-0.03593295
68	0x3d0a2a62	0.033731826
69	0xbd189216	-0.037248693
70	0x3c444013	0.011978167
71	0x3dc391f2	0.09549321
72	0x3da26a7a	0.07930465
73	0xbe17b37a	-0.14814559
74	0xbb8ef07a	-0.004362163
75	0xbe0e990c	-0.1392557
76	0xbcd844cc	-0.026399992
77	0xbb4417d7	-0.0029921436
78	0xbc0e4b3a	-0.008684928
79	0x3d32b87f	0.04363298
80	0x3d2bb6de	0.041922443
81	0x3ddd0eb8	0.10793823
82	0xbb7bfc2d	-0.003844987
83	0xbcb6a902	-0.022297386
84	0xbd4f05c4	-0.050542608
85	0xbca4f5a4	-0.020136662
86	0xbde9fe80	-0.11425495
87	0x3dae8764	0.085219175
88	0xbe2d25e0	-0.1690898
89	0xbdb44097	-0.08801382
90	0x3d21749e	0.039417855
91	0xbd5de28c	-0.05417113
92	0xbd8cd019	-0.06875629
93	0x3dd2e165	0.10296897
94	0x3db5cd5f	0.08877062
95	0xbd777a6a	-0.060419478
96	0xbc355c86	-0.011069423
97	0x3c2fd416	0.010731718
98	0x3bb45bda	0.0055041136
99	0xbd7ea1e9	-0.06216613
100	0xbba34201	-0.0049822335
101	0xbc53168b	-0.012883793
102	0x3d0adc1f	0.03390133
103	0xbd97d981	-0.074145325
104	0x3c8f105e	0.01746386
105	0xbc0d06ea	-0.0086076055
106	0x3bcd7cdd	0.0062709884
107	0xbcc711d0	-0.024300486
108	0xbdbf74da	-0.093484595
109	0xbda1542e	-0.07877384
110	0x3d5e6806	0.054298423
111	0xbd764259	-0.060121868
112	0x3cc139b9	0.023587095
113	0x3d77feb5	0.060545642
114	0xbc44673d	-0.011987505
115	0xbda623ff	-0.081123345
116	0xbaf28cff	-0.0018505155
117	0x3a4cd16d	0.00078131893
118	0xbcd510ec	-0.026009046
119	0xbccab97a	-0.024746645
120	0xbb71a44e	-0.0036871615
121	0xbdf9d2a5	-0.121983804
122	0x3dff4bc5	0.12465624
123	0x3db54834	0.08851662
124	0x3e020041	0.1269541
125	0xbd7513aa	-0.059833206
126	0x3cebf425	0.02880294
127	0xbbee8a00	-0.0072796345
128	0x3acded46	0.0015710972
129	0xbd6e2ce1	-0.05814827
130	0xbdc1d794	-0.094649464
131	0xbe2c2982	-0.16812709
132	0x3cc9e24b	0.024644038
133	0xbe66a6fd	-0.22524638
134	0xbdc3d544	-0.095621616
135	0xbdad0f3a	-0.0845017
136	0x3d94ae21	0.07259775
137	0xbd71a599	-0.058995817
138	0x3cbe6ac9	0.023244279
139	0xbc438fd8	-0.0119361505
140	0x3d5aa062	0.05337561
141	0x3d1524e2	0.036412127
142	0xbd34acb1	-0.044110004
143	0x3d1d27b8	0.038367957
144	0x3c7f505b	0.015583123
145	0x3ae93ead	0.0017795168
146	0x3d82ec17	0.06392687
147	0x3bb7bf36	0.005607511
148	0xbccfa7f8	-0.025348648
149	0xbd4ce187	-0.050019767
150	0x3d1837ab	0.037162464
151	0x3dc659d1	0.096851
152	0xbd0d123a	-0.03444121
153	0xbd233a0d	-0.039850283
154	0xbda7f235	-0.08200494
155	0x3c1b89e1	0.009493322
156	0xbbf5a7d6	-0.0074968142
157	0xbde1d7b3	-0.110274695
158	0xbdb6764d	-0.08909283
159	0xbddefaea	-0.10887702
160	0xbde64406	-0.11243443
161	0x3c3d0564	0.01153693
162	0xbdc33e18	-0.09533328
163	0xbe532771	-0.20620514
164	0x3d2b9a37	0.041895118
165	0xbdaf0533	-0.085459135
166	0x3bfde12a	0.007747789
167	0xbd91d9d9	-0.07121629
168	0x3d5dcf1e	0.0541526
169	0xbd25b85b	-0.04045902
170	0x3de04377	0.10950368
171	0xbcd711a5	-0.02625353
172	0x3c6e327e	0.014538405
173	0x3d60bab1	0.054865543
174	0x3d73a4cc	0.059483334
175	0xbdaa92fc	-0.08328816
176	0x3d1c9c5c	0.038235053
177	0xbd99d296	-0.07510869
178	0xbd23a830	-0.039955318
179	0xbdf7089c	-0.12062189
180	0xbdbd8b30	-0.092550635
181	0x3c52a2d9	0.012856209
182	0x3a6d5502	0.00090534997
183	0x3ca52564	0.02015943
184	0xbdf5c660	-0.12000728
185	0x3cc28048	0.02374281
186	0xba4ceeb3	-0.00078175514
187	0xbde19a70	-0.11015785
188	0x3be29556	0.006914775
189	0xbde23d8f	-0.110468976
190	0xbb4d7cd2	-0.0031354916
191	0xbda2846c	-0.07935414
192	0x3ca7c3a9	0.02047904
193	0xbd3a878c	-0.045539424
194	0xbd261e51	-0.040556256
195	0xbded61a7	-0.11590891
196	0x3d70387c	0.058647618
197	0xbd2c33d2	-0.042041607
198	0x3d6af909	0.057366405
199	0xbe049803	-0.12948613
200	0xbdf97a20	-0.121814966
201	0x3c93e752	0.018054638
202	0x3b67b259	0.0035354106
203	0x3dd8b421	0.10581232
204	0xbd02b09d	-0.031906713
205	0x3cebd508	0.028788105
206	0xbcf57641	-0.029963614
207	0xbe1f6506	-0.15565881
208	0xbd443728	-0.047904164
209	0x3d352450	0.044224083
210	0x3c0b09da	0.0084862355
211	0x3c01d8b3	0.0079252
212	0xbd5e0b7e	-0.05421018
213	0xbd130bd1	-0.03589994
214	0x3d3d0845	0.046150465
215	0x3dd74c3a	0.10512586
216	0xbdb3b42e	-0.08774601
217	0xbc68a852	-0.014200287
218	0x3cf0b4ff	0.02938318
219	0x3d74af7e	0.059737675
220	0x3cbdbbc7	0.023160828
221	0xbe2ed889	-0.17074789
222	0x3cbbac63	0.022909349
223	0xbd971277	-0.07376569
224	0xbd29f1bf	-0.041490313
225	0x3c69ad2e	0.014262481
226	0x3d2ae6b9	0.04172394
227	0xbd2f0a2d	-0.042734314
228	0x3beb16c9	0.007174347
229	0xbdc02f28	-0.09383994
230	0x3cafa090	0.021438867
231	0x3ce93205	0.028466234
232	0xbc9344e5	-0.017977187
233	0x3d0107d9	0.031501625
234	0x3c5550e9	0.013019779
235	0xbd302fa1	-0.043014172
236	0xbd9cd19e	-0.07657169
237	0xbc772ef7	-0.015086881
238	0x3da8ffad	0.08251891
239	0xbc90eebf	-0.017691968
240	0xbe1690d8	-0.14703691
241	0x3d285c31	0.041103546
242	0xbdb0c142	-0.08630611
243	0x3d1018a7	0.03517976
244	0xbdd71d22	-0.105036035
245	0xbdc53f3a	-0.096312
246	0xbe6250c2	-0.22101119
247	0x3da6082d	0.08107028
248	0xbd763f85	-0.06011917
249	0xbb187e7b	-0.0023268748
250	0x3d2c9262	0.04213179
251	0xbe03acee	-0.12858936
252	0xbd03c13b	-0.0321667
253	0xbca8f4fd	-0.020624632
254	0xbdd95713	-0.10612311
255	0x3d2b65f7	0.041845288

rnn.gru.weight_hh_l0 f4 [384, 128]
0	0xbc15e679	-0.009149187
1	0xbb1e2380	-0.0024130046
2	0xbc1c3359	-0.009533727
3	0xbcc37d53	-0.02386347
4	0x3d6c1a67	0.057642367
5	0x3daf3a0a	0.08555992
6	0xbd93fdeb	-0.072261654
7	0x3cb91084	0.022590883
8	0x3ce28c4a	0.027654786
9	0xbd318195	-0.04333647
10	0x3d831078	0.063996255
11	0xbe167948	-0.14694703
12	0x3c9e4cc7	0.01932372
13	0x3c419801	0.011816026
14	0xbdd31c0e	-0.103080854
15	0xbd494d4b	-0.049145978
16	0xbe02c620	-0.12770891
17	0xbd3288c7	-0.043587472
18	0x3e10827a	0.14112273
19	0xbe1fd963	-0.1561027
20	0xbd3f7f12	-0.046752043
21	0x3c1fb4db	0.009747709
22	0x3d2c1af9	0.04201791
23	0x3bf813d0	0.007570721
24	0xbd9228ed	-0.07136712
25	0xbd4a37fa	-0.04936979
26	0x3cb0f2c8	0.021600142
27	0x3df6ea58	0.12056416
28	0x3cedf5e0	0.029047906
29	0x3d702608	0.05863002
30	0x3d6a676f	0.05722755
31	0x3cf240f5	0.02957199
32	0xbc2ec9b3	-0.010668206
33	0x3c87b5ed	0.016566241
34	0xbdd4c648	-0.10389382
35	0x3dd40028	0.10351592
36	0x3c4b71d7	0.012417278
37	0xbc13f82e	-0.009031339
38	0x3d70e1b1	0.058808986
39	0x3a83bf47	0.0010051512
40	0xbdd7dde3	-0.105403684
41	0x3b46d6ee	0.003034051
42	0x3d3bb4d2	0.04582674
43	0x3e04410e	0.12915441
44	0x3de13fe7	0.109985165
45	0xbd076536	-0.033055507
46	0x3da33893	0.07969775
47	0xbd1bfe46	-0.03808429
48	0xbd47dd9c	-0.048795328
49	0xbd9bc88e	-0.07606612
50	0xbd8306d1	-0.063977845
51	0xbd8b86ee	-0.06812845
52	0x3df1d8e2	0.11808945
53	0x3de30ca8	0.11086398
54	0x3c8a08f5	0.016849974
55	0x3c16ae46	0.009196823
56	0x3d148e19	0.036268327
57	0xbd2f708c	-0.042831942
58	0xbd8eb60b	-0.06968316
59	0x3b8df908	0.0043326654
60	0x3d83c742	0.0643449
61	0xbb6245b5	-0.0034526412
62	0xbdc5ce89	-0.09658534
63	0xbdb3f1b1	-0.08786333
64	0x3d02f327	0.03197017
65	0xbdbf8b32	-0.09352721
66	0x3db50ca0	0.08840299
67	0xbd81dbb6	-0.06340735
68	0x3d96992a	0.073534325
69	0xbd14e1a6	-0.036348008
70	0x3d5ad9fd	0.053430546
71	0xbb876c90	-0.0041328147
72	0xbce3fdbc	-0.02783095
73	0x3d9e44cc	0.07727966
74	0x3d516502	0.05112172
75	0xbc9857ea	-0.018596608
76	0xbda1744f	-0.07883512
77	0xbd10c924	-0.035348073
78	0x3d5658c1	0.052330736
79	0x3d98caa7	0.07460528
80	0x3c8dde9c	0.017318062
81	0xbd47f7a2	-0.048820145
82	0xbcbcf670	-0.02306673
83	0xbdd86dc2	-0.1056781
84	0x3db8c396	0.0902168
85	0xbc312bd0	-0.010813668
86	0xbdaf35f1	-0.085552104
87	0xbd887e77	-0.06664746
88	0x3ae018b3	0.0017097205
89	0xbda6eab7	-0.08150237
90	0x3daa031e	0.08301376
91	0x3d5cb48e	0.053883128
92	0x3d5cb956	0.053887688
93	0x3dbbb07a	0.091645196
94	0x3c9e4947	0.01932205
95	0x3c8b85a9	0.017031508
96	0x3d073f73	0.033019494
97	0x3d601036	0.05470296
98	0xbccaf901	-0.024776937
99	0xbd8f75cd	-0.070048906
100	0x3d922ed3	0.07137837
101	0xbbba5512	-0.0056864107
102	0x3d2a4200	0.04156685
103	0xbdd3a937	-0.103350095
104	0x3d993bcd	0.07482109
105	0x3d145383	0.036212455
106	0xbde5a677	-0.11213391
107	0xbd11d857	-0.03560671
108	0x3c267f4e	0.010162188
109	0xbd4a4593	-0.049382757
110	0x3cb0fae7	0.021604015
111	0x3dab50cc	0.0836502
112	0x3c48e050	0.0122605115
113	0x3cc4d272	0.02402613
114	0x3de361d1	0.111026414
115	0xbca47b1b	-0.020078233
116	0xb8c9a6d5	-9.615502e-05
117	0x3da901a1	0.08252264
118	0x3d6f3602	0.058401115
119	0x3da2fc4a	0.079582766
120	0xbd739bf0	-0.059474885
121	0x3d83c0db	0.06433269
122	0xbd0bcae7	-0.03412905
123	0xbbb169c0	-0.0054142177
124	0xbd036e84	-0.032087818
125	0xbcf1c662	-0.029513542
126	0x3de8192c	0.11332926
127	0xbda0a9bf	-0.078448765
128	0x3cb09311	0.021554502
129	0xbce05c38	-0.027387723
130	0x3c82ff5e	0.01599091
131	0xbd088d14	-0.033337668
132	0x3d5c3aae	0.0537669
133	0x3c20a440	0.009804785
134	0xbce2a76d	-0.027667725
135	0x3d48c392	0.049014635
136	0x3d759a27	0.059961464
137	0xbd978a07	-0.073993735
138	0xbdfe4808	-0.124160826
139	0x3e045f42	0.12926963
140	0xbcc610bb	-0.0241779
141	0x3dbdba9a	0.09264107
142	0xbad87e6a	-0.0016517167
143	0x3d01e20e	0.031709723
144	0xbdc71033	-0.09719887
145	0xbc1c68a3	-0.009546432
146	0x3d77de54	0.060514763
147	0xbd1ae4d5	-0.037815887
148	0x3e0018eb	0.12509505
149	0xbcafcc42	-0.021459702
150	0x3c2a004c	0.010376047
151	0x3d058cfa	0.03260515
152	0xbd871963	-0.06596639
153	0xbdab3c73	-0.08361139
154	0xbd9ca496	-0.0764858
155	0xbd7721b6	-0.060334884
156	0xbd23675e	-0.0398935
157	0x3c528529	0.012849131
158	0x3d9d0318	0.07666606
159	0x3de3a82f	0.11116063
160	0xbc02e94e	-0.0079901945
161	0x3bc5786a	0.0060263174
162	0xbd14d3d9	-0.036334846
163	0xbd87af9f	-0.06625294
164	0xbd254602	-0.040349968
165	0x3bebab8b	0.0071920804
166	0xbccc8910	-0.0249677
167	0x3df69b1f	0.12041306
168	0x3cd3efb0	0.025871128
169	0x3c35f019	0.011104607
170	0x3cddfba2	0.027097527
171	0x3d2599d0	0.04042989
172	0x3d909e29	0.07061417
173	0xbc372c78	-0.011180036
174	0xbd3944c8	-0.04523161
175	0x3d6772a2	0.056505807
176	0x3da23487	0.07920175
177	0x3cdbf24c	0.026848935
178	0xbcd75730	-0.026286691
179	0x3c693ca5	0.01423565
180	0x3cffe8d9	0.03123896
181	0xbc62d0c4	-0.013843719
182	0xbd29f514	-0.04149349
183	0xbcddb2f3	-0.027062869
184	0x3daa79aa	0.08323987
185	0x3db0bbaa	0.08629544
186	0xbb49a0c0	-0.003076598
187	0x3d9de1e5	0.077091016
188	0xbd302aa5	-0.04300942
189	0x3d54a95f	0.051919337
190	0x3c42f6ed	0.011899692
191	0xbd9579c1	-0.07298613
192	0x3daf4a8e	0.08559142
193	0x3b28f0c4	0.0025778273
194	0x3d3788a5	0.04480805
195	0x3d259e96	0.040434442
196	0xbd80f21a	-0.06296177
197	0xbdbb66b7	-0.09150451
198	0x3de4fbff	0.11180877
199	0xbc62f7e9	-0.013853052
200	0x3dda4e3b	0.106594525
201	0x3d1920bb	0.03738473
202	0x3b8ae830	0.0042391047
203	0xbd9efb57	-0.07762783
204	0xbd5654db	-0.05232702
205	0xbd365e25	-0.044523377
206	0x3c9af398	0.018914983
207	0xbd198277	-0.037477937
208	0xbe1e3e08	-0.1545335
209	0xba229ab7	-0.0006202864
210	0x3db6156e	0.08890806
211	0x3d6f0321	0.058352593
212	0x3d9d4821	0.07679773
213	0x3dc07f30	0.09399259
214	0x3c31925c	0.010838117
215	0xbd950376	-0.07276051
216	0xbcd85c18	-0.026411101
217	0xbd857068	-0.065155804
218	0x3c7017ca	0.014654109
219	0x3cedc5ae	0.029024925
220	0x3d3815bb	0.0449426
221	0x3be16ccd	0.006879425
222	0x3a3427af	0.00068723684
223	0x3dd18e27	0.102321915
224	0x39130680	0.00014021434
225	0x3df7e31f	0.12103867
226	0xbd934e8c	-0.07192716
227	0xbd82589a	-0.06364556
228	0xbc9ea47b	-0.01936554
229	0xbd7b9db8	-0.06142971
230	0x3d60a221	0.05484212
231	0xbdbaaa30	-0.09114492
232	0x3d5ef263	0.054430377
233	0xbd936a2e	-0.071979865
234	0xbdd86d2d	-0.10567699
235	0x3c8a0577	0.016848309
236	0xbcecd9b5	-0.028912405
237	0xbd1df7b9	-0.038566325
238	0xbcd07a2d	-0.025448883
239	0x3ddafa82	0.10692312
240	0xbe3dca38	-0.18534172
241	0x3dc5febb	0.096677266
242	0x3da10603	0.07862475
243	0x3d90a371	0.07062424
244	0x3c4c2c81	0.012461782
245	0xbd2c6d52	-0.042096443
246	0xbd30a7f1	-0.04312891
247	0x3d379754	0.044822052
248	0xbc22e872	-0.009943115
249	0x3cedd6aa	0.029033024
250	0x3d23b36f	0.039966043
251	0xbc8bef39	-0.017081844
252	0xbd77fb39	-0.06054232
253	0x3dc30d67	0.09524041
254	0x3d9615fb	0.07328411
255	0xbd1f690d	-0.038918544
