scripts/results/MAPPOTraining2v1/2v1/NoWeapon/MAPPOTraining/mappo/v1_2v1_mappo_training/wandb/offline-run-20250807_165042-zjjd28i2/files/critic_episode_8300.pt (torch, 640990 bytes, 23 tensors)

base.mlp.fc.0.weight f4 [128, 63]
0	0xbdf59bad	-0.119925834
1	0x3e0c5360	0.1370368
2	0xbd6a4ebe	-0.057204
3	0x3d052b77	0.032512154
4	0xbdf6147c	-0.12015626
5	0x3cc635b0	0.024195522
6	0x3d0f2f58	0.03495726
7	0xbc457d7c	-0.012053844
8	0xbd37ada8	-0.044843346
9	0xbe1b9c61	-0.15196373
10	0x3b222dca	0.002474653
11	0xbbf95da9	-0.007610042
12	0x3d8c33ee	0.06845842
13	0xbde1b6e5	-0.110212125
14	0x3d9e0ed3	0.07717671
15	0x3deed0d0	0.116609216
16	0x3de6ac51	0.112633355
17	0xbce4c336	-0.027925115
18	0x3d9caea4	0.076504976
19	0x3c3d9d13	0.011573094
20	0xbd132515	-0.035924036
21	0xbe10ff72	-0.14159945
22	0xbc9af22a	-0.018914301
23	0x3c901b7b	0.017591229
24	0x3d9eba4b	0.07750376
25	0x3d96606e	0.07342611
26	0xbdd53add	-0.10411618
27	0xbd260118	-0.040528387
28	0xbdb2a9a0	-0.0872376
29	0xbdccffee	-0.10009752
30	0x3cd976fd	0.026545996
31	0xbdba4f13	-0.090971135
32	0x3cedb590	0.02901724
33	0x3cfbdddc	0.03074544
34	0xbde1bbcd	-0.11022148
35	0x3df87695	0.12131993
36	0x3d694c55	0.05695756
37	0xbe60ca7b	-0.2195224
38	0x3d79c546	0.06097915
39	0xbd594784	-0.05304672
40	0x3db4592e	0.08806072
41	0xbd871a97	-0.065968685
42	0xbda21751	-0.079146035
43	0x3dfd310c	0.123628706
44	0xbdd24eb5	-0.102689184
45	0x3dd40ac3	0.10353615
46	0xbdb42c2d	-0.08797488
47	0x3d82fbb4	0.06395665
48	0x3dd80c31	0.105492
49	0xbcc29787	-0.023753894
50	0xbcbfb74c	-0.023402832
51	0xbd2a3a36	-0.04155942
52	0xbc274dcc	-0.010211419
53	0xbdbcbf4a	-0.09216173
54	0xbe19f604	-0.15035254
55	0x3d3826e9	0.044958983
56	0x3e0458e1	0.1292453
57	0xbe28acde	-0.16472194
58	0x3d8f1413	0.06986251
59	0xbd889df8	-0.06670755
60	0xbcf2ffd7	-0.02966301
61	0xbcdb3eae	-0.026763286
62	0xbda69675	-0.08134166
63	0x3990cf2a	0.0002762017
64	0xbde1f597	-0.11033171
65	0x3c833d92	0.01602057
66	0x3e838682	0.2568856
67	0xbe32216f	-0.17395566
68	0xbe3f7f5f	-0.18700932
69	0x3e4c3b60	0.19944525
70	0x3de75c67	0.11296921
71	0xbcc3da85	-0.02390791
72	0x3d60dc90	0.054897845
73	0x3cfb8a0f	0.03070548
74	0xbc8c8081	-0.01715112
75	0xbcf82d91	-0.030295165
76	0xbd7053e3	-0.05867375
77	0x3d291b28	0.041285664
78	0xbdbe39b4	-0.0928835
79	0x3dc5ca4a	0.09657724
80	0xbd7f39f5	-0.06231113
81	0x3a17c69b	0.00057897874
82	0xbafc97aa	-0.0019271274
83	0x3d5dd226	0.05415549
84	0xbde56287	-0.11200433
85	0x3e872bba	0.26400548
86	0xbd13e5b2	-0.036107726
87	0xbd6c48a8	-0.057686478
88	0xbdeab835	-0.11460916
89	0xbdea3a58	-0.114369094
90	0x3b87b8e2	0.004141913
91	0xbdafe667	-0.08588868
92	0x3d73d7d2	0.059531994
93	0x3d7b6994	0.061379984
94	0x3da7c2e2	0.08191468
95	0x3da12f0b	0.07870301
96	0x3dd2fb49	0.10301835
97	0x3e1cb1da	0.1530222
98	0xbde96fa7	-0.11398249
99	0xbbfd6d0e	-0.0077339476
100	0x3e1ab933	0.1510971
101	0xbbcfb748	-0.0063389875
102	0x3cd09be4	0.02546496
103	0xbc9ac61e	-0.018893298
104	0x3cf6bd58	0.030119583
105	0x3d92a243	0.07159855
106	0x3d4ad258	0.049517006
107	0xbeb36662	-0.3503905
108	0xbd4c52c5	-0.049883623
109	0x3d8d10d8	0.06887978
110	0xbba2c6ff	-0.00496757
111	0x3bc2a83e	0.005940466
112	0x3dec083c	0.11525008
113	0x3dad6d21	0.0846808
114	0xbd7a5b2a	-0.061122097
115	0xbbdc6cac	-0.006726822
116	0xbda2a270	-0.07941139
117	0x3d94399a	0.07237549
118	0xbcf58e46	-0.029975068
119	0x3d26908a	0.040665187
120	0x3ca41a73	0.020032143
121	0xbd8c3baf	-0.06847321
122	0xbe124f14	-0.14287978
123	0xbdce15ac	-0.10062727
124	0xbcfb4093	-0.03067044
125	0xbd205efe	-0.03915309
126	0xbdc545af	-0.09632432
127	0xbd118c0d	-0.035533953
128	0x3db0f65f	0.086407416
129	0xbd9bfd16	-0.07616632
130	0x3d2faee4	0.042891398
131	0xbdc8fb25	-0.09813527
132	0xbd337c3e	-0.04381966
133	0xbc826a2b	-0.015919765
134	0xbc6cab74	-0.0144451745
135	0x3d2986eb	0.041388433
136	0xbdd2409b	-0.10266229
137	0x3ce55e0a	0.027998943
138	0xbda9d02c	-0.08291659
139	0x3dace833	0.08442726
140	0xbc89a918	-0.016804263
141	0xbd1b81a9	-0.03796545
142	0xbd141287	-0.03615048
143	0x3c716c7f	0.01473534
144	0x3ced2897	0.028950019
145	0x3dfa92d4	0.122350365
146	0x3d8440fa	0.06457706
147	0xbc9c9526	-0.019114088
148	0x3d8724ac	0.065987915
149	0x3def7eca	0.11694105
150	0x3ded4e8f	0.115872495
151	0x3d43e29c	0.047823533
152	0x3d8a0f6b	0.06741222
153	0xbd1c61d3	-0.03817923
154	0x3dddf6cd	0.10838089
155	0x3db3a9c6	0.08772616
156	0x3e010289	0.12598623
157	0x3d8258c4	0.06364587
158	0xbde2e688	-0.110791266
159	0xbd8ba1f9	-0.06818003
160	0x3c3eb54b	0.011639903
161	0xbd9b2d59	-0.07577009
162	0xbc0c2aa0	-0.0085550845
163	0x3d6274f6	0.055287324
164	0xbd987364	-0.07443884
165	0xbcb39fa9	-0.021926718
166	0xbdcf8833	-0.101334
167	0x3caaa079	0.020828472
168	0x3d4c374a	0.049857415
169	0xbc762c49	-0.015025207
170	0xbd0d0ad2	-0.034434147
171	0x3dd24828	0.10267669
172	0xbd74bd1f	-0.059750672
173	0x3d77e732	0.06052322
174	0xbdf9dc28	-0.122001946
175	0xbdb46352	-0.08808006
176	0x3cd8fe62	0.026488487
177	0x3db31107	0.08743482
178	0xbdcc526c	-0.09976658
179	0xbde50905	-0.11183361
180	0x3d8c947a	0.06864257
181	0xbdb5e72b	-0.088819824
182	0x3dc7e5bc	0.09760615
183	0x3ca07230	0.019585699
184	0x3cb26193	0.021775043
185	0x3d5d222a	0.05398766
186	0xbdd1b413	-0.102394246
187	0xbdc50ec3	-0.09621956
188	0x3df331a7	0.11874705
189	0xbdeee443	-0.11664631
190	0x3d46a67c	0.048498616
191	0x3c78f1a8	0.015194334
192	0xbc996889	-0.018726604
193	0xbdb1e9b4	-0.086871535
194	0xbd71d193	-0.059037756
195	0xbc993e8d	-0.018706584
196	0x3e123bb4	0.14280587
197	0x3e254743	0.16140465
198	0xbd811239	-0.06302304
199	0x3e37b198	0.1793884
200	0xbd9f4770	-0.077772975
201	0x3ddbe79d	0.10737536
202	0xbdbf943c	-0.09354445
203	0x3bd46880	0.006482184
204	0xbdeb3458	-0.11484593
205	0xbec15200	-0.37757874
206	0x3c822029	0.015884476
207	0xbdb80143	-0.08984616
208	0xbcfed9b0	-0.03110966
209	0x3d3bf511	0.04588801
210	0x3d2f2fa6	0.04277005
211	0xbdac7ac8	-0.08421856
212	0x3d3b1df7	0.045682874
213	0xbd0d5a76	-0.0345101
214	0xbd03f858	-0.03221926
215	0x3d9ff1e4	0.07809809
216	0xbdf15d83	-0.11785414
217	0x3e2be48b	0.16786401
218	0xbcbb2126	-0.022842955
219	0x3e4903a7	0.196303
220	0xbdffe429	-0.1249469
221	0xbdbf83b6	-0.09351294
222	0x3e205b21	0.15659763
223	0xbc2801ed	-0.010254365
224	0x3da20f4c	0.07913074
225	0x38cb77e9	9.702129e-05
226	0xbf3e5b87	-0.7435841
227	0xbd4abc9c	-0.04949628
228	0x3df31534	0.118692786
229	0xb8fc1ed4	-0.000120220386
230	0xbd8348e7	-0.064103894
231	0xbc0708cb	-0.0082418425
232	0x3da98795	0.08277813
233	0xbe13d059	-0.14434947
234	0xbdac6853	-0.08418336
235	0xbcf370f0	-0.029716939
236	0x39b97343	0.00035371826
237	0x3e10e53e	0.14149949
238	0x3d9a6e1f	0.07540535
239	0x3dd387a8	0.10328609
240	0x3e80c89a	0.25153047
241	0x3ebb347b	0.36563477
242	0x3d6fe106	0.05856421
243	0x3d47781e	0.048698537
244	0xbd568ba5	-0.05237927
245	0xbe0963f2	-0.13417032
246	0x3d71f801	0.059074406
247	0x3f37cbff	0.7179565
248	0xbca5a8ae	-0.020222034
249	0xbd8755a4	-0.066081315
250	0x3decec95	0.11568562
251	0x3dbb6ff2	0.09152211
252	0xbe114303	-0.14185719
253	0xbdc32061	-0.0952766
254	0xbce76030	-0.028244108
255	0xbe83b49e	-0.25723737

base.mlp.fc.0.bias f4 [128]
0	0x3c97372e	0.018458929
1	0x3dcdbc0d	0.100456335
2	0xbc3ee469	-0.011651137
3	0x3d9ac94d	0.07557926
4	0x3d78ef3a	0.06077502
5	0x3d936dd7	0.07198685
6	0xbe29612d	-0.16540976
7	0xbced3cd8	-0.028959677
8	0x3d70ddd0	0.058805287
9	0x3cb2fa16	0.021847766
10	0xbd4ebd3c	-0.050473437
11	0x3dc116e9	0.09428198
12	0x3ddfa26c	0.109196514
13	0xbc8757e2	-0.016521398
14	0xbe0c9552	-0.13728836
15	0xbc28d38a	-0.010304341
16	0xbcaaf375	-0.020868042
17	0x3d50b15f	0.050950404
18	0x3d1eebcf	0.038799103
19	0xbde5c2cc	-0.11218795
20	0xbd1d1a85	-0.03835537
21	0xbe033334	-0.12812501
22	0x3c35c676	0.01109468
23	0xbd096bb0	-0.033549964
24	0x3c08f5ef	0.008359416
25	0x3d9bdf88	0.076109946
26	0x3b18784e	0.0023265067
27	0x3d48683e	0.048927538
28	0x3c26d633	0.010182905
29	0xbcde8883	-0.027164703
30	0xbd0eca37	-0.034860816
31	0x3cb21855	0.021740118
32	0xbd5bd2de	-0.053667895
33	0xbd899750	-0.06718314
34	0xbcc57597	-0.024103923
35	0xbdf55dd7	-0.11980789
36	0x3c111ff3	0.008857715
37	0x3db908db	0.09034892
38	0xbdd9bd77	-0.10631841
39	0xbde6f4e0	-0.11277175
40	0xbdb93c90	-0.090447545
41	0x3d117c81	0.035519127
42	0x3d463ef7	0.04839989
43	0xbe067741	-0.1313143
44	0xbe09d471	-0.13459946
45	0x3d249c16	0.040187918
46	0xbd95957c	-0.073039025
47	0xbda5201a	-0.080627635
48	0x3d9cefaf	0.076629035
49	0xba5e8943	-0.00084890815
50	0xbba49f5e	-0.005023881
51	0xbdd7edc6	-0.105433986
52	0xbc9886cf	-0.01861897
53	0xbdc0be34	-0.09411278
54	0xbd857e94	-0.065182835
55	0x3d68aa95	0.056803305
56	0x3cf1ec79	0.029531704
57	0x3b7e0ccd	0.0038764954
58	0x3dcb3e6c	0.099240154
59	0xbe0a1e12	-0.13488033
60	0x3d4a780a	0.049430884
61	0x3caaec65	0.020864675
62	0x3e178dc6	0.14800176
63	0xbd7029b7	-0.058633532
64	0x3ca051f6	0.019570332
65	0xbdd4cf37	-0.103910856
66	0x3ddd2911	0.107988484
67	0x3ca2da60	0.01987952
68	0xbb9e1f12	-0.004825481
69	0x3d9cbe18	0.07653445
70	0x3d431e2a	0.04763619
71	0xbd6e08f4	-0.058114007
72	0x3b9ed5e6	0.004847276
73	0xbd4aaf0f	-0.049483355
74	0xbca9d6b3	-0.02073226
75	0xbd4f9886	-0.050682567
76	0xbd746651	-0.05966789
77	0xbd1a36fd	-0.037650097
78	0xbd989d06	-0.07451825
79	0xbcaae301	-0.020860197
80	0xbd706b15	-0.05869587
81	0xbe1b985a	-0.15194836
82	0x3c8e73f1	0.01738927
83	0xbde30d5c	-0.110865325
84	0xbd3b09c9	-0.04566363
85	0xbdc6882d	-0.09693942
86	0x3de22afd	0.110433556
87	0x3ce076ec	0.027400456
88	0x3c777dd5	0.015105684
89	0xbdd1477a	-0.10218711
90	0x3dd394e2	0.103311315
91	0x3ccf1fb9	0.025283681
92	0xbe2399b6	-0.15976605
93	0xbdd8dc50	-0.10588896
94	0x3de598ca	0.11210783
95	0xbd30ab86	-0.043132327
96	0x3cdd19f1	0.026989909
97	0xbdf990db	-0.12185832
98	0x3c44ceb7	0.012012175
99	0x3daae510	0.083444715
100	0xbda794b9	-0.081826635
101	0xbd7f0379	-0.06225917
102	0xbd94a3da	-0.07257815
103	0x3dbab849	0.09117181
104	0xbd0a03ff	-0.033695217
105	0x3d59a0c3	0.05313183
106	0xbdfe7c94	-0.12426105
107	0xbdadaf0a	-0.08480652
108	0x3da0ed23	0.0785773
109	0x3d2c0920	0.04200089
110	0x3d8b304a	0.0679632
111	0xbd004641	-0.031317
112	0x3debf7a7	0.11521845
113	0xbdc8698b	-0.09785756
114	0xbdfbd9c4	-0.12297395
115	0xbd2ff840	-0.04296136
116	0x3dc1bfc9	0.09460408
117	0xbb2f9325	-0.0026790586
118	0xbdec1d41	-0.11529017
119	0x3dc461b9	0.095889516
120	0x3bf9f5e7	0.007628191
121	0x3ba8f061	0.0051556085
122	0xbdf30d24	-0.11867741
123	0x3d28598e	0.04110103
124	0xbde628d6	-0.112382576
125	0x3e04c96e	0.12967464
126	0x3c931b1c	0.017957263
127	0xbe1c5c14	-0.152695

base.mlp.fc.2.weight f4 [128]
0	0x3f55f464	0.83576035
1	0x3f3b2165	0.7309783
2	0x3f518a37	0.81851524
3	0x3f8856ee	1.0651529
4	0x3f76c57a	0.96395075
5	0x3f53ab63	0.8268339
6	0x3f4ccea4	0.8000281
7	0x3f5655ab	0.8372447
8	0x3f54a280	0.83060455
9	0x3f4fb61e	0.81137264
10	0x3f916745	1.135964
11	0x3f6f0345	0.93364364
12	0x3f37cb07	0.7179417
13	0x3f694bff	0.91131586
14	0x3f7c04c2	0.9844476
15	0x3f8581f9	1.043029
16	0x3f7d1ac7	0.98868984
17	0x3f8a5752	1.0807898
18	0x3f6939dc	0.9110391
19	0x3f6422fd	0.8911589
20	0x3f5d94a8	0.86554956
21	0x3f51e416	0.81988657
22	0x3f85db3b	1.0457529
23	0x3f649cc9	0.89301735
24	0x3f62be84	0.88571954
25	0x3f627981	0.8846665
26	0x3f89c65d	1.0763661
27	0x3f3f589e	0.74744594
28	0x3f62ac89	0.8854452
29	0x3f4d5924	0.8021414
30	0x3f542892	0.82874405
31	0x3f3b1a8d	0.7308739
32	0x3f540776	0.82823884
33	0x3f41e910	0.7574625
34	0x3f5d934a	0.8655287
35	0x3f749778	0.9554362
36	0x3f639cc4	0.8891108
37	0x3f6b56f5	0.9192956
38	0x3f8186bc	1.0119243
39	0x3f42918a	0.76003325
40	0x3f692c4d	0.9108322
41	0x3f6ff6c1	0.9373589
42	0x3f8e1356	1.1099651
43	0x3f840101	1.0312806
44	0x3f8dd45c	1.1080432
45	0x3f614e61	0.8801022
46	0x3f8ae528	1.0851183
47	0x3f82c746	1.0217063
48	0x3f4ae5a9	0.79256684
49	0x3f313142	0.69215786
50	0x3f86952e	1.0514276
51	0x3f6f97e1	0.93591124
52	0x3f52b93b	0.8231389
53	0x3f852792	1.0402701
54	0x3f3b95a1	0.7327519
55	0x3f4ed605	0.8079532
56	0x3f482791	0.78185374
57	0x3f3fa6e7	0.7486405
58	0x3f89f833	1.0778869
59	0x3f892309	1.0713817
60	0x3f849b74	1.035994
61	0x3f7122aa	0.9419352
62	0x3f6611b5	0.8987077
63	0x3f82c727	1.0217026
64	0x3f6a7d65	0.91597587
65	0x3f6b2a77	0.9186167
66	0x3f5ac4a0	0.85456276
67	0x3f2bf42c	0.6716945
68	0x3f8e97fe	1.1140134
69	0x3f6713f9	0.9026485
70	0x3f752e50	0.9577379
71	0x3f2d269b	0.6763703
72	0x3f6bae02	0.9206239
73	0x3f88c54b	1.0685209
74	0x3f609bac	0.87737536
75	0x3f6d1682	0.9261247
76	0x3f463cba	0.7743641
77	0x3f498a20	0.7872639
78	0x3f6a599b	0.9154298
79	0x3f5851a4	0.84499574
80	0x3f506291	0.814004
81	0x3f7686a5	0.962992
82	0x3f84c593	1.0372795
83	0x3f615b08	0.8802953
84	0x3f463c9c	0.7743623
85	0x3f6ff0cc	0.937268
86	0x3f8bd1a8	1.0923357
87	0x3f512f57	0.8171286
88	0x3f58d8be	0.8470572
89	0x3f75a3fb	0.9595334
90	0x3f94f562	1.1637385
91	0x3f811c99	1.0086852
92	0x3f4de896	0.8043302
93	0x3f6c0880	0.9220047
94	0x3f880359	1.0626022
95	0x3f507574	0.8142922
96	0x3f5f2a41	0.8717385
97	0x3f7fbf6f	0.9990148
98	0x3f9c9d18	1.2235441
99	0x3f554e79	0.83322865
100	0x3f577f8f	0.84179014
101	0x3f642c73	0.89130324
102	0x3f5a0815	0.8516858
103	0x3f41eafe	0.75749195
104	0x3f7fafcf	0.9987764
105	0x3f5d9995	0.8656247
106	0x3f621257	0.88309234
107	0x3f60c8c5	0.8780635
108	0x3f72e428	0.9487939
109	0x3f42372c	0.75865436
110	0x3f5e6a0d	0.8688057
111	0x3f73605a	0.95068896
112	0x3f6041f9	0.87600666
113	0x3f73df99	0.9526306
114	0x3f5cc2e6	0.8623489
115	0x3f8918ab	1.0710653
116	0x3f83c805	1.0295416
117	0x3f24e4c3	0.6441156
118	0x3f41dd71	0.7572852
119	0x3f8996ed	1.0749184
120	0x3f5a6607	0.8531193
121	0x3f546ef3	0.82981795
122	0x3f8ea371	1.1143628
123	0x3f5bd194	0.85866666
124	0x3f74ff7d	0.95702344
125	0x3f6fa7ac	0.9361522
126	0x3f61779f	0.8807315
127	0x3f80cacd	1.006189

base.mlp.fc.2.bias f4 [128]
0	0x3dcfaff5	0.10140983
1	0x3e587389	0.21137823
2	0x3e413d4a	0.18871036
3	0xbb15fb01	-0.0022885206
4	0x3be8dfb4	0.0071067456
5	0x3df7f8cb	0.12108
6	0x3df94f76	0.12173359
7	0x3e2d4fce	0.16924974
8	0x3e10a111	0.14123942
9	0x3e05c946	0.13065061
10	0xba98a06a	-0.0011644487
11	0x3d95f542	0.0732217
12	0x3e67a3ef	0.2262113
13	0x3dbf1eea	0.09332068
14	0x3c8025a8	0.015642956
15	0xbc63fd6b	-0.0139154
16	0x3cf09afb	0.029370775
17	0x3c30788a	0.010770926
18	0x3dd12e2e	0.10213886
19	0x3de6c80c	0.11268625
20	0x3d620a77	0.05518576
21	0x3dffed34	0.12496415
22	0x3c0a7f4a	0.0084532
23	0x3de619f4	0.11235419
24	0x3d8b7413	0.06809249
25	0x3cd7bc89	0.026335018
26	0xbcaa4116	-0.020782989
27	0x3e720b61	0.23637153
28	0x3dfb31cd	0.12265358
29	0x3dd907a6	0.10597162
30	0x3dc782f5	0.09741775
31	0x3e879441	0.26480296
32	0x3df56182	0.11981489
33	0x3da8ce4f	0.08242475
34	0x3d0b86ff	0.03406429
35	0xbce3fe11	-0.02783111
36	0x3deaaa40	0.11458254
37	0x3bb0d309	0.005396251
38	0x3c53eb3a	0.0129345
39	0x3e5762bd	0.2103376
40	0x3db979ea	0.090564564
41	0x3c16cbee	0.009203894
42	0x3c8d091d	0.01721626
43	0xbce2ef10	-0.027701885
44	0xbcf99b47	-0.03046955
45	0x3b63e39e	0.0034773122
46	0xbbfb92df	-0.0076774205
47	0x3c881e31	0.016615959
48	0x3d0af0c7	0.03392103
49	0x3e656674	0.22402364
50	0x3c5e1331	0.01355438
51	0x3d87b9b4	0.06627217
52	0x3e06fb46	0.1318179
53	0x3c9f3129	0.019432621
54	0x3e17512a	0.14777055
55	0x3e206a6d	0.15665598
56	0x3e4f71a0	0.20258188
57	0x3e228d7e	0.15874287
58	0x3b192114	0.0023365663
59	0xbd65ea98	-0.05613193
60	0xbd1c1dc2	-0.038114317
61	0xbc4f7e98	-0.01266446
62	0x3df3a7ab	0.118972145
63	0x388232f7	6.208376e-05
64	0x3db382ef	0.08765208
65	0x3c03264e	0.008004738
66	0x3daae4c8	0.08344418
67	0x3e574ae6	0.21024665
68	0x3cb96c1f	0.022634564
69	0x3d8c5cd2	0.068536416
70	0x3d141b6b	0.03615896
71	0x3e831f56	0.25609845
72	0x3d44343c	0.047901377
73	0x3b0dd586	0.0021642162
74	0x3dfb2e07	0.122646384
75	0xbc835f48	-0.016036645
76	0x3e6b5abe	0.22983834
77	0x3e1e7147	0.154729
78	0x3dc448ac	0.095841736
79	0x3dafcbc1	0.08583785
80	0x3e47fec2	0.19530776
81	0x3c82ca38	0.015965566
82	0xbca50a55	-0.020146528
83	0x3dc92e7e	0.09823321
84	0x3e1244ff	0.14284132
85	0x3d96ddbd	0.07366512
86	0xbc33362f	-0.010938211
87	0x3e412422	0.1886144
88	0x3e2187e7	0.15774499
89	0xbc87b61f	-0.016566334
90	0xbc7bf4ff	-0.015378236
91	0xbd40d620	-0.047079206
92	0x3e03dbea	0.1287686
93	0x3db0a16b	0.08624538
94	0xbc853998	-0.016262814
95	0x3e0f20ff	0.13977431
96	0x3db03392	0.08603586
97	0xbd2f49f4	-0.042795137
98	0x3ca5a1f5	0.020218829
99	0x3e347f95	0.17626794
100	0x3e25cdb0	0.16191745
101	0x3def085a	0.11671515
102	0x3e268716	0.16262469
103	0x3e585cf2	0.21129206
104	0xbcad44ba	-0.021150935
105	0x3e30ec87	0.17277728
106	0x3e02006e	0.12695476
107	0x3e04e89e	0.12979361
108	0x3d839654	0.06425157
109	0x3e743195	0.23847039
110	0x3d5ae1bc	0.053437933
111	0xbc8e9cde	-0.017408784
112	0x3e06feb0	0.13183093
113	0x3d6b3b7b	0.057429772
114	0x3e18072d	0.14846487
115	0xbcb6f5ab	-0.02233394
116	0x3c5c846e	0.013459308
117	0x3e94766b	0.28996596
118	0x3e33c604	0.17556006
119	0xbd18dc47	-0.037319448
120	0x3db875b1	0.09006823
121	0x3dc85469	0.09781725
122	0x3c3bfa81	0.011473299
123	0x3e20771a	0.15670434
124	0x3d5e1415	0.05421837
125	0x3e04cbb3	0.1296833
126	0x3d415b1c	0.04720603
127	0x3bd0c40a	0.006371026

base.mlp.fc.3.weight f4 [128, 128]
0	0x3d8c1f80	0.06841946
1	0xbba7bbd4	-0.0051188264
2	0x3d8eaca2	0.06966521
3	0x3dcdf570	0.10056579
4	0xbe326d48	-0.174245
5	0xbd131de2	-0.03591717
6	0x3db2a773	0.08723345
7	0xbb59d395	-0.0033237685
8	0x3db860d0	0.090028405
9	0xbdb9d6aa	-0.09074147
10	0xbe582a0d	-0.21109791
11	0x3d9292ed	0.0715693
12	0xbd1116fd	-0.035422314
13	0x3cafba30	0.021451086
14	0xbdf5c6e3	-0.12000825
15	0xbe2ef31f	-0.17084931
16	0xbd70fb7c	-0.058833584
17	0xbe5ddc61	-0.21666099
18	0xbc3da6d1	-0.011575417
19	0x3d8b30fa	0.06796451
20	0x3d620bcf	0.055187043
21	0x3d77a540	0.06046033
22	0xbc69516c	-0.014240604
23	0xbd5c1bb2	-0.05373735
24	0x3cc66577	0.024218304
25	0x3919328a	0.00014610044
26	0xbd7a3316	-0.061083876
27	0x3de0dc11	0.10979474
28	0xbcf947cd	-0.030429745
29	0xbcc082f0	-0.023499936
30	0xbc174e0c	-0.009234916
31	0x3d366e9e	0.044539087
32	0x3d22f350	0.039782822
33	0x3ce9570d	0.028483892
34	0xbdf01ab3	-0.117238425
35	0x3ce2908c	0.027656816
36	0xbbf972ab	-0.0076125464
37	0x3b804be0	0.003915295
38	0x3d0a3777	0.0337443
39	0xbd1e65dc	-0.03867136
40	0x3d9e1a74	0.07719889
41	0x3e5cbe60	0.21556997
42	0xbe6af1b3	-0.22943763
43	0x3e32bc18	0.17454565
44	0x3e4031fd	0.18769069
45	0xbc0f0229	-0.008728542
46	0x3e04c41a	0.12965432
47	0x3c0e66f8	0.008691542
48	0xbbbf7759	-0.005843085
49	0x3cc0d045	0.02353681
50	0xbe1de992	-0.15421131
51	0xbd248b3e	-0.040171854
52	0xbc939591	-0.018015655
53	0xbd981d99	-0.0742752
54	0xbd16d499	-0.036823843
55	0x3db68f0e	0.08914004
56	0x3d4d6571	0.05014557
57	0x3d3b85e4	0.045781985
58	0xbdea4705	-0.11439327
59	0x3d9a6d8b	0.07540425
60	0xbd95a327	-0.073065095
61	0xbca18d3d	-0.019720668
62	0xbcd80f3d	-0.026374454
63	0x3e165c3f	0.14683627
64	0x3d82c021	0.06384302
65	0x3d5f3b63	0.054499995
66	0x3b7818b5	0.0037856523
67	0xbd67e35d	-0.056613315
68	0xbdc64b48	-0.096823275
69	0x3d901997	0.07036131
70	0xbd93f8ed	-0.07225213
71	0x3d468f6e	0.04847663
72	0xbd0ec41e	-0.034855
73	0xbd513b07	-0.051081683
74	0x3dd9e021	0.10638452
75	0xbd68e753	-0.056861233
76	0x3df842d9	0.12122125
77	0xbd0333c1	-0.03203178
78	0x3dda0faf	0.10647523
79	0xbad1aef7	-0.0015997578
80	0xbc9fb214	-0.019494094
81	0xbc479813	-0.012182253
82	0xbded823f	-0.11597108
83	0x3e018982	0.12650111
84	0x3e08ade4	0.13347584
85	0x3daf386a	0.08555682
86	0x3bdd36d2	0.00675092
87	0x3d8d889b	0.06910821
88	0xbc71298d	-0.014719379
89	0x3dc1b58f	0.09458458
90	0xbc5e4548	-0.013566323
91	0x3c741e1f	0.01489976
92	0xbd0b7929	-0.034051094
93	0x3c352b36	0.011057666
94	0x3d6b6d51	0.0574773
95	0x3d63d17a	0.055619694
96	0xbde0fb43	-0.10985424
97	0x3c827e45	0.01592935
98	0xbe2ea4d1	-0.1705506
99	0x3d493fa7	0.04913297
100	0x3cbe00e6	0.023193788
101	0x3d9d2dee	0.07674776
102	0x3ddd35ad	0.108012535
103	0x3dcd7c1c	0.100334376
104	0x3c69fb59	0.014281117
105	0x3cc987c0	0.024600863
106	0xbd0a4abb	-0.033762675
107	0x3cb99a90	0.022656709
108	0x3c2b23da	0.010445559
109	0x3cedc647	0.02902521
110	0x3da67ee6	0.08129673
111	0x3dad1c9c	0.084527224
112	0x3d9b6430	0.075874686
113	0xbd459db7	-0.04824611
114	0xbd30d81c	-0.043174848
115	0x3d384da4	0.04499592
116	0x3dbe05bd	0.09278438
117	0xbdce6ef0	-0.100797534
118	0x3cf69a52	0.030102883
119	0x3de3366c	0.110943645
120	0xbd50fdcc	-0.05102329
121	0xbe0ae706	-0.13564691
122	0xbdd5cf8e	-0.104399785
123	0xbd19daa5	-0.03756203
124	0x3d53b4c1	0.051686052
125	0x3c87a864	0.016559787
126	0xbc61f502	-0.013791325
127	0xbd96d935	-0.07365648
128	0xbd888119	-0.066652484
129	0x3af16749	0.0018417622
130	0xbdf25157	-0.118319206
131	0xbc417bbe	-0.011809288
132	0xbd3ccc29	-0.04609314
133	0x3ce72756	0.028216999
134	0xbd0eb981	-0.03484488
135	0xbd1e76c3	-0.03868748
136	0xbc67cc7a	-0.014147872
137	0x3c2e21c2	0.010628166
138	0x3d61f353	0.055163693
139	0x3c951869	0.018200116
140	0xbd8277ff	-0.06370544
141	0x3ce1e7e1	0.027576389
142	0x3d81234c	0.063055605
143	0xbda24b6b	-0.07924541
144	0x3cacb806	0.021083843
145	0xbd969926	-0.073534295
146	0xbd9d8f23	-0.07693317
147	0xbdf67033	-0.12033119
148	0x3cf4a999	0.029866027
149	0xbd0233fa	-0.03178785
150	0xbd1338b0	-0.035942733
151	0x3cb749e6	0.022374105
152	0x3d1e8cd9	0.03870854
153	0x3daaeb06	0.083456084
154	0x3e3df2b1	0.1854961
155	0xbceb34fe	-0.028711792
156	0xbdd6aa70	-0.10481727
157	0xbd93255c	-0.0718486
158	0x3d94eb37	0.07271426
159	0xbdb7498e	-0.08949576
160	0xbd14c0c0	-0.036316633
161	0xbb76ddd9	-0.0037668853
162	0xbcd674de	-0.026178773
163	0xbd8701ab	-0.06592115
164	0x3cdf890b	0.027287027
165	0xbcbfb534	-0.023401834
166	0xbd5d4218	-0.05401811
167	0xbda2811c	-0.07934782
168	0xbc1a3ced	-0.00941394
169	0x3c979a1b	0.0185061
170	0xbd22c42e	-0.039737873
171	0xbd11670b	-0.03549866
172	0x3c7c36c0	0.015393913
173	0x3d5705e0	0.052495837
174	0x3d7797c9	0.060447488
175	0xbd3f92cb	-0.046770852
176	0xbd03c06c	-0.03216593
177	0x3d9d48a8	0.07679874
178	0x3be58f3d	0.0070056007
179	0xbdffb01f	-0.12484764
180	0xbdecbfa6	-0.115599915
181	0x3d352443	0.044224035
182	0xbd1bb65b	-0.038015705
183	0xba87af92	-0.0010352007
184	0xbda4b7e6	-0.08042888
185	0x3c6a2f31	0.014293478
186	0x3d2d2033	0.042267036
187	0x3d92664e	0.07148419
188	0xba939d76	-0.0011262137
189	0xbe007bfe	-0.125473
190	0x3dc7f7ed	0.09764085
191	0xbc1737a4	-0.009229574
192	0xbd81869b	-0.06324502
193	0x3d22bb4b	0.039729398
194	0x3c04543b	0.008076723
195	0x3c5197f5	0.012792577
196	0xbd0fad5a	-0.03507743
197	0x3cc3cc00	0.023900986
198	0xbd43c42c	-0.047794506
199	0xbde3a036	-0.11114542
200	0x3c298700	0.010347128
201	0xbd33cf4a	-0.043898858
202	0xbc920154	-0.017822899
203	0x3d6a950b	0.057271045
204	0xbda7b9c7	-0.08189731
205	0xbd54d63e	-0.05196213
206	0xbd04b784	-0.032401577
207	0xbd3b7a61	-0.045771006
208	0xbde67b7e	-0.11254023
209	0xbdb8cbea	-0.090232685
210	0x3b9350c0	0.00449571
211	0xbd6cb9c8	-0.057794362
212	0xbd235cae	-0.039883308
213	0xbcee91e1	-0.029122295
214	0x3d5744ab	0.05255572
215	0xbdb5c4d6	-0.08875434
216	0xbd6ad682	-0.057333477
217	0xbd36b8ff	-0.04461002
218	0xbd168ae5	-0.036753554
219	0x3dcdee74	0.10055247
220	0xbd40b877	-0.04705092
221	0xbdf859e7	-0.121265225
222	0x3e59ae74	0.21257955
223	0x3bd3389a	0.0064459564
224	0xbdb5c1c6	-0.0887485
225	0x3d86997d	0.06572244
226	0xbdcda3b5	-0.1004099
227	0xbc80e684	-0.015734918
228	0xbd89cfec	-0.06729111
229	0xbdec2d1e	-0.11532043
230	0xbdb1ad7d	-0.086756684
231	0x3c86ce1e	0.016455706
232	0x3cb21f9a	0.021743584
233	0x3d9724bd	0.07380054
234	0xbdf2952d	-0.11844859
235	0xbd91bb33	-0.071157835
236	0x3e113906	0.14181909
237	0xbdd3d415	-0.10343186
238	0x3e060371	0.1308725
239	0x3d23f0c2	0.040024526
240	0xbdb04a9d	-0.08607981
241	0xbd2e4f4d	-0.042556096
242	0x3ca7d095	0.020485202
243	0x3e343b1f	0.17600678
244	0x3d747def	0.059690412
245	0xbc01d37a	-0.007923955
246	0x3bd70f82	0.006563128
247	0x3dfdbb02	0.123891845
248	0x3d19a70d	0.037512828
249	0x3d42dd71	0.047574464
250	0xbb21ed90	-0.0024708249
251	0xbc2e3054	-0.0106316395
252	0xbd2e7da9	-0.042600308
253	0x3c1bf4dd	0.009518829
254	0xbda78dc9	-0.0818134
255	0xbdb36ed4	-0.08761373

base.mlp.fc.3.bias f4 [128]
0	0xbd347576	-0.044057332
1	0x3c0a99aa	0.008459488
2	0xbd6fb719	-0.058524225
3	0x3d645eac	0.05575435
4	0x3dcb30ad	0.099213935
5	0xbd0ae743	-0.033911955
6	0xbcfe0d15	-0.031012097
7	0xbdd0352f	-0.10166394
8	0x3ddbfc6c	0.10741505
9	0x3d2d675c	0.0423349
10	0xb98e7723	-0.00027173114
11	0xbd258172	-0.04040665
12	0x3d4aa373	0.049472284
13	0xbe032c03	-0.12809758
14	0x3d431e82	0.047636516
15	0xbd9f3a11	-0.07774747
16	0xbceed77e	-0.029155489
17	0xbdbda415	-0.09259812
18	0x3d0e5ee4	0.034758464
19	0x3d7263b4	0.059177116
20	0xbd885b07	-0.06657987
21	0x3db84757	0.08997982
22	0x3da4ef9c	0.08053514
23	0xbcdfaca9	-0.02730401
24	0x3d00093f	0.031258818
25	0xbd65adfc	-0.056074128
26	0x3dbcf83f	0.09227037
27	0x3b28ae3a	0.0025738613
28	0x39f81d3c	0.00047324027
29	0xbc3a067b	-0.011354084
30	0x3de812c1	0.11331702
31	0xbd3158cd	-0.043297578
32	0xbb2eaf35	-0.0026654724
33	0xbd94f3fc	-0.07273099
34	0xbe1c11a0	-0.15241098
35	0x3d8a02b3	0.06738796
36	0x3c0a09d9	0.008425199
37	0x3db80bc1	0.08986617
38	0x3dab7d13	0.083734654
39	0xbc3fbe8d	-0.011703146
40	0xbd8f64c8	-0.070016444
41	0x3b0bf83a	0.0021357671
42	0x3d8f5df2	0.070003405
43	0x3d580ddc	0.052747592
44	0x3ca2cf53	0.01987425
45	0x3d993e72	0.074826136
46	0xbd9edaf7	-0.07756608
47	0xbd4ce001	-0.050018314
48	0xbd2e8c41	-0.042614225
49	0x3dae9179	0.085238405
50	0x3cf37c36	0.029722314
51	0xbd81fa55	-0.06346575
52	0xbd852447	-0.0650106
53	0x3d9507fe	0.07276915
54	0x3d6ead53	0.058270764
55	0xbc4f01f9	-0.012634748
56	0x3dd2d7e2	0.10295083
57	0xbe04207d	-0.12903018
58	0x3ce85736	0.028361898
59	0x3daed69e	0.08537029
60	0x3b9ceb90	0.0047888234
61	0xbd7a9af3	-0.061182927
62	0xbde7f49d	-0.11325953
63	0xbd39e56d	-0.045384813
64	0xbe1e89ad	-0.15482207
65	0x3ddbff06	0.10742001
66	0xbccac0e9	-0.02475019
67	0xbdefbd69	-0.11706049
68	0xbde7710e	-0.1130086
69	0xbe30a271	-0.17249466
70	0x3c7bd4b8	0.01537054
71	0xbc1dbabe	-0.009627042
72	0xbe235b44	-0.15952784
73	0x3d46ccc4	0.048535123
74	0xbbea149e	-0.007143571
75	0x3d9dfc85	0.0771418
76	0xbc53914b	-0.0129130585
77	0xbd61ec17	-0.055156793
78	0x3d4c886e	0.049934797
79	0x3daf2b9e	0.08553241
80	0xbd9fe517	-0.07807367
81	0x3df2ef7e	0.11862086
82	0x3d7c61af	0.061616596
83	0xbd4073a9	-0.046985302
84	0x3b50c8a8	0.0031857882
85	0xbd5e89bd	-0.054330576
86	0x3d05b645	0.03264453
87	0xbd923344	-0.071386844
88	0x3d3c6e9a	0.046003915
89	0xbd70dcf1	-0.058804456
90	0x3dc5f9ad	0.096667625
91	0xbb02d3f6	-0.0019962764
92	0xbc4dcfe6	-0.012561774
93	0x3dbf8475	0.09351436
94	0x3db3a23b	0.087711774
95	0xbd9191be	-0.07107876
96	0xbb13a0aa	-0.0022526183
97	0x3cce97c2	0.025218848
98	0xbdd554f0	-0.10416591
99	0xbd425f82	-0.047454365
100	0x3b331f8a	0.0027332031
101	0x3da1c815	0.07899491
102	0xbd28352e	-0.04106634
103	0xbd8668ec	-0.06562981
104	0xbe0fba88	-0.14036
105	0x3d1a89ce	0.037729077
106	0x3da9b013	0.082855366
107	0xbc8dbd93	-0.01730231
108	0xbe00f4ea	-0.12593427
109	0xbdde8883	-0.10865881
110	0xbdd28476	-0.10279171
111	0xbd734328	-0.059390217
112	0xbe1e7a54	-0.15476352
113	0x3d7a3979	0.061089966
114	0x3c7440bf	0.014908015
115	0x3dbdcd6c	0.09267697
116	0xbd9bab70	-0.076010585
117	0xb9b818c2	-0.0003511366
118	0xbd127f8d	-0.035766173
119	0x3c8f059f	0.017458735
120	0xbda316c3	-0.07963326
121	0x3dc8e1d8	0.09808701
122	0x3dfaa0ce	0.12237702
123	0xbddb7a11	-0.10716642
124	0xba6429ca	-0.0008703737
125	0xbdd26cff	-0.102746956
126	0xbcc63e62	-0.024199668
127	0x3d8e8d9e	0.06960605

base.mlp.fc.5.weight f4 [128]
0	0x3f847859	1.0349227
1	0x3f888e10	1.0668354
2	0x3f8104c4	1.0079579
3	0x3f5d49a0	0.8644047
4	0x3f8b50c7	1.0884026
5	0x3f76d983	0.96425647
6	0x3f860973	1.0471634
7	0x3f77f6ac	0.96860766
8	0x3f72f738	0.94908476
9	0x3f5c7444	0.8611491
10	0x3f85f9e0	1.0466881
11	0x3f842f05	1.0326849
12	0x3f8376c5	1.027062
13	0x3f75ca4f	0.96011823
14	0x3f810396	1.0079219
15	0x3f7c2db7	0.98507255
16	0x3f7bb126	0.9831718
17	0x3f73f9f9	0.95303303
18	0x3f8283c2	1.0196459
19	0x3f86d2f1	1.0533124
20	0x3f6505ac	0.8946178
21	0x3f630f03	0.8869478
22	0x3f857660	1.042675
23	0x3f59fd36	0.85151994
24	0x3f7916f9	0.9730068
25	0x3f8b379c	1.0876346
26	0x3f70e6a6	0.9410194
27	0x3f84dc5f	1.0379752
28	0x3f73b94a	0.95204604
29	0x3f84e902	1.0383608
30	0x3f87055b	1.0548509
31	0x3f7a8779	0.97862965
32	0x3f8257c8	1.0183039
33	0x3f5b9cf3	0.8578636
34	0x3f82c553	1.0216469
35	0x3f6ff3a8	0.93731165
36	0x3f80d180	1.0063934
37	0x3f848a1a	1.0354645
38	0x3f7b8cd3	0.98261756
39	0x3f8745da	1.0568192
40	0x3f82be6c	1.0214362
41	0x3f7567d3	0.9586155
42	0x3f77fd8f	0.96871275
43	0x3f76ff3b	0.964832
44	0x3f6f9cd1	0.9359866
45	0x3f881734	1.0632081
46	0x3f8633be	1.048454
47	0x3f749573	0.9554054
48	0x3f92642b	1.1436819
49	0x3f793345	0.97343856
50	0x3f6a0493	0.9141323
51	0x3f7033e2	0.93829167
52	0x3f80ca9b	1.006183
53	0x3f5abc8f	0.8544397
54	0x3f82e27d	1.0225369
55	0x3f6edbbe	0.9330405
56	0x3f8b3540	1.0875626
57	0x3f5aff3d	0.8554571
58	0x3f69d9a8	0.9134774
59	0x3f85b678	1.044631
60	0x3f7c0f64	0.98460984
61	0x3f66ccdf	0.9015636
62	0x3f85d39e	1.0455205
63	0x3f808664	1.0041013
64	0x3f8172fd	1.0113217
65	0x3f8aad5f	1.0834159
66	0x3f810854	1.0080667
67	0x3f636249	0.88821846
68	0x3f7ac0f3	0.9795067
69	0x3f6587c1	0.8966027
70	0x3f8c405e	1.0957143
71	0x3f797de3	0.9745771
72	0x3f83cc4c	1.0296721
73	0x3f706781	0.93907934
74	0x3f8947d5	1.0725046
75	0x3f713ca8	0.9423318
76	0x3f7655e4	0.9622481
77	0x3f862fe6	1.0483367
78	0x3f494f0b	0.78636235
79	0x3f5c7981	0.861229
80	0x3f64a064	0.89307237
81	0x3f78fe30	0.9726286
82	0x3f6e7114	0.93141294
83	0x3f873155	1.056193
84	0x3f821fdd	1.0165974
85	0x3f6e324d	0.930455
86	0x3f6c6878	0.92346907
87	0x3f6138c5	0.8797725
88	0x3f577be6	0.8417343
89	0x3f7c644d	0.98590547
90	0x3f81d56d	1.0143257
91	0x3f67a733	0.904895
92	0x3f6b2970	0.91860104
93	0x3f6441b2	0.89162743
94	0x3f7738e1	0.96571165
95	0x3f85adce	1.0443666
96	0x3f721380	0.94561005
97	0x3f838920	1.0276222
98	0x3f6eb632	0.9324676
99	0x3f8e8d62	1.1136897
100	0x3f7506ba	0.9571339
101	0x3f36a5d8	0.7134681
102	0x3f387281	0.7204972
103	0x3f830fb8	1.0239172
104	0x3f76a08a	0.96338713
105	0x3f642713	0.8912212
106	0x3f67e93f	0.9059028
107	0x3f8e7caf	1.11318
108	0x3f858212	1.0430319
109	0x3f8146dc	1.009975
110	0x3f619b15	0.8812726
111	0x3f90c8df	1.1311301
112	0x3f79d9d6	0.97598016
113	0x3f774de3	0.9660322
114	0x3f7a39ec	0.9774463
115	0x3f896e53	1.0736793
116	0x3f7a6785	0.9781421
117	0x3f45934d	0.7717789
118	0x3f56cb24	0.8390372
119	0x3f72446f	0.9463567
120	0x3f814e2a	1.0101979
121	0x3f84536a	1.0337956
122	0x3f8c4a72	1.0960219
123	0x3f8616a7	1.0475663
124	0x3f702591	0.9380732
125	0x3f7dab58	0.99089575
126	0x3f7dcb31	0.9913817
127	0x3f86cd0b	1.0531324

base.mlp.fc.5.bias f4 [128]
0	0xbb1dc29a	-0.002407229
1	0x3cd13e0f	0.025542287
2	0xbbf7a596	-0.007557581
3	0x3dd64adc	0.10463497
4	0x3b97a5ed	0.004627934
5	0xbd04f758	-0.032462448
6	0xbcf23e38	-0.029570684
7	0xbc19b195	-0.009380718
8	0x3cbeb031	0.023277374
9	0x3ac6b2a6	0.0015159443
10	0x3cfac069	0.030609326
11	0xbc69e33a	-0.014275366
12	0x3c4a51fa	0.012348646
13	0x3bd40d48	0.00647131
14	0xb96aa7fc	-0.00022378558
15	0xbcdf35c0	-0.02724731
16	0x3dbe87a9	0.09303219
17	0x3cd39731	0.02582893
18	0xbca044af	-0.019564
19	0x3c60155b	0.013676967
20	0x3ce40256	0.027833145
21	0x3dabcd31	0.083887465
22	0x3c991a05	0.018689165
23	0x3d2fe314	0.042941168
24	0x3d36d6e4	0.04463853
25	0xbc0304ee	-0.007996781
26	0x3ca44961	0.020054521
27	0xbc1a4306	-0.009415394
28	0x3c080a88	0.008303292
29	0xbcc1c071	-0.023651334
30	0x3d45de9c	0.048308
31	0xbcf92bd1	-0.030416401
32	0xbca0ebc1	-0.019643666
33	0x3d038d72	0.032117315
34	0xbdac3605	-0.08408741
35	0x3cca1dd2	0.024672423
36	0xbc922da2	-0.017844025
37	0x3cbba8bd	0.02290761
38	0x3d781f6c	0.06057684
39	0xbd464437	-0.0484049
40	0xbcb851cc	-0.022499941
41	0x3c430bba	0.011904651
42	0x3bff04ac	0.0077825394
43	0x3ae1ce2f	0.0017227585
44	0x3d507cae	0.050900154
45	0x3d98240c	0.074287504
46	0x3d5081d8	0.05090508
47	0xbc02aa3b	-0.007975156
48	0x3caa3a62	0.020779792
49	0xbab70057	-0.0013961893
50	0x3db7e1c5	0.08978609
51	0x3d5b8299	0.053591345
52	0xbb26152d	-0.0025342212
53	0x3d0a9ca8	0.033840805
54	0x3d32495e	0.043527
55	0x3cfc84a8	0.030824974
56	0x3cb7112d	0.022347057
57	0x3de66ac1	0.112508304
58	0xbcfa7e17	-0.030577702
59	0xbccab43e	-0.02474415
60	0x3c81aaf0	0.01582858
61	0x3b880572	0.0041510398
62	0x3b6eca9f	0.003643669
63	0xbca09657	-0.019602938
64	0xbc258752	-0.010103064
65	0x3c8da0a5	0.017288515
66	0xbbdd0943	-0.006745489
67	0x3da412d3	0.08011403
68	0xbb355f1e	-0.0027675102
69	0x3d6331b1	0.05546731
70	0x3c933939	0.017971622
71	0xbd079361	-0.033099536
72	0xbd381c3f	-0.044948813
73	0x3cb8ca8c	0.02255752
74	0x3beb83dc	0.0071873497
75	0x3ca462ab	0.02006658
76	0x3ca8b714	0.020595111
77	0xbc6038a1	-0.013685376
78	0x3db67ce0	0.08910537
79	0x3d59398b	0.053033393
80	0x3cc412d2	0.023934755
81	0x3c3adb9c	0.011404898
82	0x3c957d37	0.018248184
83	0xbd54535c	-0.05183731
84	0xbc54b9d8	-0.012983762
85	0x3d0dfd1f	0.034665223
86	0x3d089c8f	0.03335243
87	0x3d44934d	0.04799204
88	0x3c744480	0.01490891
89	0xbb8e69fb	-0.00434613
90	0xbc5f3edc	-0.013625827
91	0x3d98a361	0.07453037
92	0x3d4bd5c7	0.04976442
93	0x3be61a9a	0.007022214
94	0x3d591108	0.052994758
95	0x3bd09070	0.0063648745
96	0x3cad991a	0.021191169
97	0x3c308180	0.010773063
98	0x3d0b8b7a	0.034068562
99	0x3d12cf9e	0.03584253
100	0x3d097812	0.033561774
101	0x3e1aa72d	0.15102835
102	0x3e7a1431	0.24421765
103	0xbbd6e06a	-0.006557514
104	0x3c84c3b8	0.016206607
105	0x3bcf8551	0.006333031
106	0x3a996439	0.0011702842
107	0xbc3256ab	-0.010884921
108	0xbd37d829	-0.04488388
109	0xbc86d685	-0.016459713
110	0x3c1938eb	0.009351949
111	0x3c955de7	0.018233253
112	0x3a95d54e	0.0011431368
113	0x3c6876b2	0.014188455
114	0xbd00bf26	-0.031432293
115	0xbb3b7035	-0.0028600816
116	0xbc7a1203	-0.015263083
117	0xbd44a949	-0.048013005
118	0x3e3125b5	0.1729954
119	0xbcc42162	-0.0239417
120	0xbd2f5c58	-0.042812675
121	0x3cc4a6f2	0.024005387
122	0xbbe04922	-0.0068446556
123	0xbd7a6f8e	-0.061141543
124	0x3de4b3d3	0.11167111
125	0x3bb7e915	0.0056125023
126	0x3b517f22	0.0031966646
127	0x3c6d7cd7	0.014495096

rnn.gru.weight_ih_l0 f4 [384, 128]
0	0xbd475275	-0.04866262
1	0xbd458043	-0.048218023
2	0xbdafdfcd	-0.085876085
3	0xbe1ab3ae	-0.15107605
4	0xbcd2d2af	-0.025735227
5	0xbe1997b1	-0.14999272
6	0xbd34a793	-0.044105124
7	0xbda2d007	-0.07949834
8	0x3d589706	0.052878402
9	0xbe2a69ee	-0.16641971
10	0xbce341b3	-0.027741289
11	0xbd97e0ae	-0.07415901
12	0x3def8574	0.11695376
13	0xbd86d0ff	-0.065828316
14	0xbe288087	-0.1645528
15	0xbd414d9a	-0.047193147
16	0xbd8c7670	-0.06858528
17	0xbdd54d63	-0.10415151
18	0x3d6f2f3b	0.05839465
19	0xbd967bfe	-0.073478684
20	0xbd550655	-0.05200799
21	0x3df0d78b	0.117598616
22	0xbdb8b562	-0.09018971
23	0x3d831373	0.06400194
24	0x3cdc3d57	0.026884718
25	0xbdac20e5	-0.08404712
26	0x3dbe909d	0.093049265
27	0x3e0a3dcf	0.1350014
28	0xbd9860b5	-0.074403204
29	0xbd7c4438	-0.061588496
30	0x3c1b8aec	0.009493571
31	0xbdb14ffd	-0.08657835
32	0xbdcaf1ba	-0.09909387
33	0xbe07d33a	-0.1326417
34	0xbdfa81c4	-0.12231782
35	0xbcfe81c2	-0.031067733
36	0xbdddca85	-0.10829643
37	0xbbe15590	-0.006876655
38	0xbc8341a3	-0.016022509
39	0xbda80e05	-0.08205799
40	0xbd02f23f	-0.031969305
41	0x3c3b124b	0.011417936
42	0xbcd7d91a	-0.02634864
43	0xbe3d6aea	-0.18497816
44	0xbc16746f	-0.009183033
45	0xbde2772d	-0.11057887
46	0xbd8e78aa	-0.069566086
47	0xbddb9129	-0.107210465
48	0xbd08b6a4	-0.033377305
49	0x3d64b0f0	0.055832803
50	0x3c1536df	0.009107321
51	0xbdb53b45	-0.088491954
52	0x3d7d4ae1	0.06183899
53	0xbde36571	-0.11103333
54	0xbc7bf07c	-0.01537716
55	0xbe5e116a	-0.2168633
56	0x3d08c14d	0.03338747
57	0xbddc455c	-0.10755417
58	0xbdd6d2f8	-0.10489458
59	0xbb2c525a	-0.0026294203
60	0xbe3e55d6	-0.18587431
61	0xbdd2522c	-0.10269579
62	0xbd860001	-0.065429695
63	0xbe2ae5d0	-0.16689229
64	0xbe6db001	-0.23211671
65	0x3da3c874	0.07997218
66	0xbcbab3bd	-0.022790784
67	0xbe2cd2c5	-0.16877277
68	0xbdca942f	-0.09891545
69	0xbe2fe1b1	-0.17175938
70	0x3c5371c7	0.012905545
71	0xbb5ab870	-0.0033374093
72	0xbd6b79e2	-0.057489283
73	0xbd8b1639	-0.06791348
74	0x3cb42b7f	0.021993397
75	0xbd84118d	-0.0644866
76	0xbd1158bd	-0.035485018
77	0xbd2c9585	-0.04213478
78	0xbdbc984d	-0.092087366
79	0x3d78eb49	0.06077126
80	0xbd2d22e1	-0.04226959
81	0x3dd494c2	0.10379936
82	0xbca5171b	-0.02015262
83	0xbe1f4524	-0.15553719
84	0xbe3c643d	-0.18397613
85	0xbe02e5fb	-0.12783043
86	0xbdfb29c9	-0.12263829
87	0xbc1ec1ad	-0.009689731
88	0xbe1d4113	-0.15356855
89	0xbe64ebe4	-0.2235561
90	0x3d30c35e	0.043155067
91	0xbd9e4c20	-0.077293634
92	0xbe4e86f8	-0.20168674
93	0x3da2d01e	0.079498515
94	0x3e01446c	0.12623757
95	0xbe30b88d	-0.172579
96	0x3b9be29f	0.00475724
97	0x3c987650	0.018611103
98	0xbe00ee91	-0.12591006
99	0xbdcbb929	-0.09947426
100	0x3db10913	0.08644309
101	0xbd2734b4	-0.040821746
102	0xbdcb8989	-0.09938342
103	0xbe0a3754	-0.13497669
104	0xbdef3c81	-0.11681462
105	0xbcb5e79a	-0.022205163
106	0x3e0138f9	0.1261939
107	0x3b898ce1	0.0041977023
108	0xbe686d92	-0.22698048
109	0xbe5996ae	-0.21248886
110	0xbcba7471	-0.022760602
111	0xbe1c1e44	-0.1524592
112	0xbe044bd6	-0.12919554
113	0x3d8af4e1	0.06784988
114	0xbdb789c6	-0.08961825
115	0xbd94f145	-0.07272581
116	0xbe0a98f0	-0.13534904
117	0x3ceebc9a	0.029142667
118	0xbdb21f0d	-0.08697329
119	0x3df1d83e	0.11808823
120	0xbe1b8aeb	-0.15189712
121	0xbdfc87e5	-0.12330607
122	0x3e08b9f1	0.13352181
123	0xbd38a8f9	-0.04508302
124	0x3dfd20d9	0.12359781
125	0xbe4612be	-0.19343087
126	0xbc3ae66b	-0.011407475
127	0x3d3e3a66	0.04644241
128	0xbcbe75d7	-0.02324955
129	0xbda48494	-0.080331
130	0xbce12a11	-0.02748588
131	0xbe0a2d9b	-0.1349396
132	0x3bfc6c1f	0.0077033187
133	0xbe65af3e	-0.22430131
134	0xbd953717	-0.07285898
135	0xbc09c50b	-0.008408795
136	0x3da2044e	0.07910977
137	0xbdd61f7f	-0.10455226
138	0xbbf0b6f7	-0.00734603
139	0x3d613a58	0.05498728
140	0x3d9e9186	0.077426
141	0x3dd2dcca	0.102960184
142	0x3cb6fd1f	0.022337494
143	0xbc849027	-0.016182018
144	0x3dfff8a4	0.12498596
145	0x3d8c902e	0.068634376
146	0x3ddba924	0.107256204
147	0x3ce17eb2	0.027526233
148	0x3d64eb1f	0.05588829
149	0xbdea00d7	-0.114259414
150	0x3cfc2ecb	0.030784031
151	0x3d1ccb60	0.03827989
152	0xbd9187a4	-0.071059495
153	0x3d797887	0.06090596
154	0xbe319c45	-0.17344768
155	0x3d32266b	0.04349367
156	0x3d39a513	0.045323443
157	0xbc42cceb	-0.011889677
158	0xbdce5404	-0.100746185
159	0xbc5282db	-0.012848581
160	0xbd38419e	-0.044984452
161	0x3d10b418	0.035328
162	0xbc9bbcb1	-0.019010874
163	0xbe5f7dc5	-0.21825321
164	0x3de0c965	0.10975913
165	0xbdfbbac3	-0.12291481
166	0x3d69ff43	0.057128202
167	0xbb8bbd70	-0.004264526
168	0x3e0f7ec8	0.14013207
169	0x3cc6a19c	0.024246983
170	0x3df7ac48	0.12093407
171	0x3c857ee0	0.01629585
172	0x3d7dac57	0.061931934
173	0x3dcec959	0.10096998
174	0x3d8fb625	0.07017163
175	0xbdd94a8a	-0.1060992
176	0x3d75b68a	0.059988536
177	0xbe1feb43	-0.15617089
178	0xbceb4ec2	-0.028724078
179	0xbd33a3b7	-0.043857303
180	0xbc5df177	-0.013546339
181	0x3c30488f	0.010759487
182	0xbd2093dc	-0.03920351
183	0x3dcc6a34	0.09981194
184	0xbe0fe2fb	-0.1405143
185	0x3db8a77c	0.0901632
186	0x3d2c57d4	0.042075947
187	0xbd62f20d	-0.05540662
188	0x3d94c6b5	0.07264463
189	0xbdc84a73	-0.09779825
190	0x3da9adfa	0.082851365
191	0xbc5407dd	-0.012941328
192	0x3db42e21	0.08797861
193	0xbd846101	-0.064638145
194	0xbd1e69be	-0.038675062
195	0xbd4763c6	-0.048679136
196	0x3e0e21ee	0.1388013
197	0x3cca9ee2	0.024733964
198	0x3d8126d5	0.06306235
199	0xbdd09b4a	-0.10185869
200	0xbd7d190b	-0.06179146
201	0xbd2687dc	-0.04065691
202	0x3c255204	0.010090355
203	0x3d8213be	0.06351422
204	0x3d034364	0.03204669
205	0x3db1890b	0.08668717
206	0xbcdd19f5	-0.026989916
207	0xbe870ea0	-0.26378345
208	0xbce0da01	-0.027447702
209	0x3dbe6371	0.09296311
210	0x3d8f9399	0.07010574
211	0x3d98e26d	0.07465062
212	0x3c5b92e2	0.013401719
213	0x3caa053c	0.02075445
214	0x3c93b346	0.01802982
215	0x3e01f405	0.12690742
216	0xbd9e08f6	-0.07716553
217	0x3d8597a2	0.06523062
218	0x3dab2f42	0.08358623
219	0x3e07a358	0.13245904
220	0x3db82483	0.08991339
221	0xbe83ba9c	-0.2572831
222	0x3d205985	0.039147872
223	0xbd53de26	-0.05172553
224	0xbd8af69d	-0.06785319
225	0x3d7790c6	0.0604408
226	0x3dddf938	0.1083855
227	0xbd20d6d6	-0.039267384
228	0x3c677b4b	0.014128516
229	0xbdd88d49	-0.10573823
230	0x3db125e4	0.08649805
231	0x3d47c398	0.048770517
232	0x3d6f25b6	0.058385573
233	0x3d5960c1	0.053070787
234	0xbdd2416a	-0.10266383
235	0xbc4183b1	-0.011811183
236	0xbc1e73f6	-0.009671202
237	0x3d579c89	0.052639518
238	0x3e0d73c4	0.13813692
239	0x3d330786	0.043708347
240	0xbda42531	-0.08014906
241	0x3dc9d8c9	0.098558016
242	0xbdb15696	-0.08659093
243	0x3da742b6	0.08167021
244	0xbd1b8797	-0.037971105
245	0xbe04bdc2	-0.12963012
246	0xbe777043	-0.24163918
247	0x3d46adab	0.048505466
248	0x3b9f26c4	0.004856916
249	0x3c900679	0.017581211
250	0x3dc928bc	0.098222226
251	0xbd7c79c7	-0.061639573
252	0xbd7b2ed0	-0.06132394
253	0x3d3e5fc0	0.046478033
254	0xbd58a151	-0.05288822
255	0x3cf81991	0.030285629

rnn.gru.weight_hh_l0 f4 [384, 128]
0	0xbcc55a00	-0.024090767
1	0xbcd4df20	-0.0259853
2	0x3be30506	0.006928089
3	0x3c18e21d	0.009331253
4	0xbcde8182	-0.027161364
5	0xbbb97a52	-0.0056603337
6	0xbd84c50e	-0.06482898
7	0xbca5edc0	-0.02025497
8	0x3e0f9029	0.14019836
9	0x3d86de9b	0.065854274
10	0xbb4a6541	-0.0030883106
11	0xbe4e44b9	-0.20143403
12	0xbde6e08d	-0.112732984
13	0x3b7a0b81	0.003815383
14	0xbe1d8b43	-0.15385155
15	0xbe1618c6	-0.14657888
16	0xbdb2b494	-0.08725849
17	0x3d35a822	0.044349797
18	0x3db27bf3	0.08715048
19	0xbdc2ce6a	-0.095120266
20	0xbdd856de	-0.105634436
21	0x3da72bf0	0.08162677
22	0x3d0dc24b	0.03460912
23	0xbd0d46d8	-0.03449139
24	0xbcc390ea	-0.023872811
25	0x3db6531a	0.08902569
26	0x3e06cfec	0.13165253
27	0x3d963df6	0.07336037
28	0x3d105d26	0.035245083
29	0x3dcaf77d	0.09910486
30	0x3d51c440	0.05121255
31	0x3d8213aa	0.06351407
32	0xbc7a0542	-0.015260043
33	0x3c044502	0.008073093
34	0xba7cdade	-0.0009645651
35	0x3d822489	0.06354625
36	0x3d19d110	0.037552893
37	0x3daa7f5f	0.08325075
38	0x3d2b000b	0.041748088
39	0x3d83da63	0.06438138
40	0xbd7362e5	-0.059420485
41	0x3d127f6e	0.035766058
42	0x3dc26ec9	0.09493787
43	0x3df3ba77	0.119008
44	0x3ddfefad	0.109343864
45	0xbe12de72	-0.14342669
46	0x3dbd9ae0	0.09258056
47	0x3b91205c	0.0044289064
48	0x3d9545fd	0.0728874
49	0xbd85354f	-0.065043084
50	0xbdfb0218	-0.12256259
51	0x3ba41fce	0.005008674
52	0x3ca52749	0.020160334
53	0x3dcce86a	0.10005267
54	0xbdb26869	-0.08711321
55	0x3c0d79c9	0.008634993
56	0xbccd0221	-0.02502543
57	0xbcf846c6	-0.030307185
58	0xbdd0ba02	-0.10191728
59	0x3beb1d83	0.007175149
60	0xba43fd44	-0.0007476399
61	0x3d171a45	0.036890287
62	0xbc62ee0f	-0.013850703
63	0xbd2998e4	-0.041405573
64	0xbccf6727	-0.025317742
65	0xbd38192e	-0.04494589
66	0x3b9eeda3	0.004850106
67	0xbdc49e41	-0.09600497
68	0x3e360f67	0.17779313
69	0x3b8511e5	0.004060971
70	0x3d21d228	0.03950706
71	0xbda9203c	-0.08258101
72	0x3d08c2ac	0.03338878
73	0xbd7891a4	-0.06068577
74	0x3cab6986	0.020924341
75	0xbdbf20b0	-0.093324065
76	0xbda1dc5d	-0.07903359
77	0xbd083e4b	-0.033262532
78	0x3d050148	0.032471925
79	0x3d1fad52	0.03898365
80	0x3d45f599	0.048329923
81	0xbd865866	-0.065598294
82	0x3cb43cf6	0.022001725
83	0xbe0734de	-0.13203761
84	0xbd110979	-0.035409424
85	0xbc277bf9	-0.0102224285
86	0xbe12e03c	-0.14343351
87	0xbdc96724	-0.09834126
88	0xbdc1c2de	-0.09460996
89	0xbdad43cb	-0.08460196
90	0x3d98a2ad	0.07452903
91	0x3e404a35	0.18778308
92	0xbcad757c	-0.021174185
93	0x3d30f729	0.04320446
94	0x3cb9d467	0.02268429
95	0xbc58d119	-0.0132334465
96	0xbd5e2c9a	-0.054241754
97	0x3d160fb9	0.036636088
98	0x3a7ddad8	0.00096837943
99	0xbd994255	-0.07483355
100	0x3e009a4e	0.12558863
101	0xbd40e2e3	-0.047091376
102	0x3d4f605b	0.050629
103	0xbe50fd57	-0.20409141
104	0x3dcbd1a5	0.09952096
105	0xbd3c3284	-0.045946613
106	0xbe067af5	-0.13132842
107	0xbdb93e5c	-0.09045097
108	0x3d8c2c6a	0.06844409
109	0xbdb00780	-0.085951805
110	0xbc5eddb1	-0.01360266
111	0x3d8e5cc2	0.06951286
112	0x3c2602d2	0.010132508
113	0xbd34f116	-0.04417523
114	0x3d1e6bb4	0.038676932
115	0x3cb520b8	0.022110328
116	0xbd359413	-0.044330668
117	0xbbd1e14e	-0.0064050322
118	0x3dc29f95	0.09503094
119	0xbd80478b	-0.06263646
120	0xbdbeacf7	-0.09310334
121	0x3dcab68e	0.09898101
122	0xbd579c0b	-0.05263905
123	0x3ccdd4fc	0.025125973
124	0x3cd619ca	0.026135344
125	0xbdb79b8d	-0.08965216
126	0x3dfb1e89	0.122616835
127	0xbdfcdeef	-0.12347209
128	0xbd2815cf	-0.041036423
129	0x3cd88f5a	0.026435543
130	0x3cae6c27	0.021291805
131	0x3ac534cf	0.0015045645
132	0x3db75968	0.089526
133	0x3c352b1a	0.0110576395
134	0xbd72725a	-0.059191085
135	0xbc23519f	-0.00996819
136	0x3d845703	0.06461909
137	0xbe14da23	-0.14536338
138	0xbe2af2ae	-0.16694137
139	0x3e103c48	0.14085495
140	0x3cd59648	0.026072636
141	0x3b8a2988	0.0042163767
142	0xbd0cdef2	-0.034392305
143	0x3caaa642	0.020831231
144	0xbd45c211	-0.04828078
145	0xbd697246	-0.056993745
146	0x3c916c56	0.017751854
147	0xbddb7357	-0.10715359
148	0x3e2f3036	0.17108235
149	0xba4d6a92	-0.00078360096
150	0xbd360ec8	-0.04444769
151	0x3ce751f8	0.028237328
152	0xbe431043	-0.19049172
153	0xbe088fc7	-0.13336097
154	0xbdb1e843	-0.086868785
155	0x3cc10c64	0.023565479
156	0xbdb7576f	-0.089522235
157	0x3d4a0fb0	0.049331367
158	0x3dd656c5	0.10465769
159	0x3de5f59d	0.11228488
160	0xbc779dc1	-0.015113295
161	0xbb44d8fe	-0.0030036564
162	0xbd5f59c6	-0.054528974
163	0xbe1db050	-0.15399289
164	0xbdc07daa	-0.093989685
165	0x3b700934	0.003662658
166	0x3cae426b	0.021271905
167	0x3d66a417	0.056308832
168	0xbce3be10	-0.02780059
169	0xbdaadee7	-0.083432965
170	0xbd524cee	-0.051342897
171	0x3d8cbe22	0.068722025
172	0x3ca8b818	0.020595595
173	0x3d0ac07c	0.033874974
174	0xbe10ae76	-0.14129052
175	0xbc4ef2ac	-0.0126311
176	0x3d40651b	0.04697142
177	0x3c433d65	0.011916493
178	0xbd78954e	-0.060689263
179	0x3cbfede1	0.02342886
180	0x3d5d7c7b	0.054073792
181	0x3ca4308f	0.020042686
182	0x3ca53754	0.020167984
183	0xbdc57fa2	-0.09643485
184	0x3d80cbea	0.062888935
185	0x3e03fcb0	0.12889361
186	0x3d9040b6	0.07043593
187	0x3dccf37a	0.10007377
188	0xbd616929	-0.05503193
189	0x3d9c3ca0	0.07628751
190	0xbd262e3d	-0.04057144
191	0xbc986d17	-0.018606706
192	0x3db4ca6d	0.08827672
193	0x3dc46ecf	0.095914476
194	0x3dc139b9	0.09434838
195	0x3c0ad777	0.008474222
196	0xbe1ffa45	-0.15622814
197	0xbde7c2e1	-0.11316467
198	0x3dfe98cb	0.12431487
199	0x3b63a996	0.0034738532
200	0x3dcb778b	0.099349104
201	0x3e0eb85b	0.13937514
202	0x3c299992	0.010351555
203	0xbd77ac8e	-0.060467295
204	0x3d11746b	0.035511415
205	0x3d49cd52	0.049268074
206	0x3ca67a12	0.02032188
207	0xbda9c5b3	-0.08289661
208	0xbe859d01	-0.26096347
209	0x3b8910c7	0.004182908
210	0x3dfdb392	0.12387766
211	0xbac8d014	-0.0015320801
212	0x3dfbcc2b	0.12294801
213	0x3db2e544	0.08735135
214	0x3c011ccc	0.007880401
215	0xbdf25a89	-0.118336745
216	0x3b905c53	0.004405537
217	0xbdb73418	-0.08945483
218	0x3cf4bf8f	0.029876499
219	0xbd2ad002	-0.041702278
220	0xbb75f1a9	-0.0037528074
221	0xbce45019	-0.027870225
222	0x3cfe1aa0	0.031018555
223	0x3d58d356	0.05293592
224	0xbc5866f4	-0.01320814
225	0x3e07ff5d	0.13281007
226	0xbd29d839	-0.04146597
227	0xbd7faf72	-0.062423177
228	0x3cf093ad	0.029367292
229	0xbd39c7fa	-0.045356728
230	0x3db2497d	0.08705423
231	0xbdcc9017	-0.099884205
232	0x3da9cd64	0.08291128
233	0xbd7b07e8	-0.061286837
234	0xbd912be2	-0.07088448
235	0x3d274c02	0.04084397
236	0x3c8ca4b8	0.017168388
237	0xbd64013f	-0.05566525
238	0xbd10437f	-0.03522062
239	0x3deb1e0b	0.114803396
240	0xbe99d71f	-0.30046937
241	0x3d936026	0.07196073
242	0x3e1c7f0d	0.15282841
243	0x3d76c993	0.06025083
244	0xbc23de74	-0.010001767
245	0xbd82308c	-0.06356916
246	0xba9bb4c6	-0.0011879436
247	0x3c7d6a68	0.015467264
248	0x3c9429e9	0.01808639
249	0x3ddf85c3	0.10914185
250	0x3c95faa2	0.018307988
251	0xbd98ad42	-0.07454921
252	0xbd6d71a9	-0.057969723
253	0x3d89be37	0.06725734
254	0x3e39de92	0.1815131
255	0xbdb38cbc	-0.08767077
