scripts/results/MAPPOTraining2v1/2v1/NoWeapon/MAPPOTraining/mappo/v1_2v1_mappo_training/wandb/offline-run-20250807_165042-zjjd28i2/files/critic_episode_900.pt (torch, 640962 bytes, 23 tensors)

base.mlp.fc.0.weight f4 [128, 63]
0	0xbda4c40f	-0.08045208
1	0x3de8911c	0.113558024
2	0xbd8e2ca5	-0.06942109
3	0x3d81c248	0.06335884
4	0xbdc8a273	-0.0979661
5	0x3ca52b64	0.020162292
6	0x3d0e641d	0.034763444
7	0xbc5fc006	-0.013656622
8	0xbd5d99ae	-0.05410164
9	0xbdd500f5	-0.10400573
10	0xbdd8b8ec	-0.10582146
11	0x3c59090d	0.013246787
12	0x3dae1cf2	0.08501615
13	0xbdbf9931	-0.09355391
14	0x3db5139e	0.08841632
15	0x3dcdcbe9	0.100486584
16	0x3defce1b	0.117092334
17	0xbceed500	-0.0291543
18	0x3de2a4d9	0.110665984
19	0x3a9bf63b	0.0011898944
20	0xbd4366a8	-0.047705323
21	0xbde08b6e	-0.10964094
22	0x3cda4aa9	0.026646929
23	0xbd83c546	-0.06434111
24	0x3db02b15	0.08601967
25	0x3dacc337	0.08435672
26	0xbdd4e0ac	-0.10394415
27	0xbd1aa264	-0.037752524
28	0xbda8012c	-0.082033485
29	0xbdd463c0	-0.10370588
30	0xbcaeee40	-0.02135384
31	0x3c8a54b7	0.016886098
32	0x3d169f9c	0.03677331
33	0x3d0f6ff0	0.03501886
34	0xbdc2bf15	-0.09509102
35	0x3de049b1	0.109515555
36	0xbdb2a11d	-0.08722136
37	0xbde43f38	-0.111448705
38	0x3d72205d	0.059112895
39	0xbcc12369	-0.023576455
40	0x3db18eec	0.08669838
41	0xbd9f3b58	-0.07774991
42	0xbd27c15d	-0.04095589
43	0x3dd7ee8a	0.105435446
44	0xbc6adb3e	-0.014334498
45	0x3e0b1914	0.13583785
46	0xbd88c48b	-0.066781126
47	0x3d6f5f57	0.058440533
48	0x3dde6637	0.1085934
49	0xbd557774	-0.052115873
50	0xbd0ad522	-0.033894666
51	0xbcd4f654	-0.025996365
52	0xbc5f419e	-0.013626484
53	0xbdbb8513	-0.09156241
54	0xbde8ce82	-0.11367513
55	0x3d10318d	0.035203505
56	0x3def7506	0.11692242
57	0xbca846e0	-0.020541608
58	0xbd1c829f	-0.038210507
59	0xbd865a18	-0.06560153
60	0x3b94f2e9	0.0045455587
61	0xbce666f5	-0.028125266
62	0xbdbeb737	-0.09312289
63	0x3d6cb0d6	0.05778583
64	0xbd455965	-0.048180956
65	0xbd96948b	-0.07352551
66	0x3de8a7cd	0.113601305
67	0xbddb3ea9	-0.10705311
68	0xbdd8e0ee	-0.10589777
69	0x3e20f84a	0.15719715
70	0x3cf19586	0.029490244
71	0x3d754023	0.05987562
72	0x3db80865	0.08985976
73	0x3c93fc4f	0.018064646
74	0x3d7eba59	0.062189434
75	0x3cf6bc52	0.030119095
76	0x3d38dffd	0.045135487
77	0x3d683855	0.056694347
78	0xbdaa744e	-0.083229646
79	0x3dc498a3	0.09599426
80	0xbce3cc99	-0.02780752
81	0x3c05bce2	0.008162709
82	0x3d0140cc	0.031555936
83	0x3cfb9506	0.030710708
84	0xbdf17332	-0.1178955
85	0x3d565552	0.05232746
86	0x3cdc010a	0.026855964
87	0xbc425c2b	-0.011862795
88	0xbdebbb45	-0.11510328
89	0xbe001a2d	-0.12509985
90	0xbd57750a	-0.05260185
91	0xbd130415	-0.035892565
92	0x3d4647ba	0.048408248
93	0xbc672db5	-0.0141100185
94	0x3d91755b	0.07102462
95	0x3d87a820	0.06623864
96	0x3dd8641f	0.105659716
97	0x3df21962	0.11821248
98	0xbddbb062	-0.10727002
99	0x3d117c00	0.035518646
100	0x3d882764	0.06648138
101	0x3cca18d2	0.024670038
102	0x3d102627	0.035192635
103	0x3c1d848b	0.00961412
104	0x3bdab6d0	0.006674625
105	0x3d888910	0.066667676
106	0xbc635b2a	-0.013876716
107	0xbe0b7739	-0.13619699
108	0xbd3d1d3b	-0.046170454
109	0x3d849388	0.06473452
110	0xbc1490f5	-0.009067764
111	0x3b9c8f7b	0.0047778464
112	0x3e15c542	0.14626029
113	0x3da4dc19	0.08049793
114	0x3be0d91f	0.0068618204
115	0x3c244d16	0.010028144
116	0xbda79c8b	-0.08184155
117	0x3d7a73cb	0.061145585
118	0xbd17d066	-0.03706398
119	0x3d34a5b1	0.04410333
120	0xbcbe38c8	-0.023220435
121	0x3c843f8c	0.016143583
122	0xbde1a8e2	-0.1101854
123	0xbdb308f0	-0.08741939
124	0xbb0dc192	-0.002163027
125	0xbd80335f	-0.06259798
126	0xbdc545af	-0.09632432
127	0xbd118c0d	-0.035533953
128	0x3db0f65f	0.086407416
129	0xbd9bfd16	-0.07616632
130	0x3d2faee4	0.042891398
131	0xbdc8fb25	-0.09813527
132	0xbd337c3e	-0.04381966
133	0xbc826a2b	-0.015919765
134	0xbc6cab74	-0.0144451745
135	0x3d2986eb	0.041388433
136	0xbdd2409b	-0.10266229
137	0x3ce55e0a	0.027998943
138	0xbda9d02c	-0.08291659
139	0x3dace833	0.08442726
140	0xbc89a918	-0.016804263
141	0xbd1b81a9	-0.03796545
142	0xbd141287	-0.03615048
143	0x3c716c7f	0.01473534
144	0x3ced2897	0.028950019
145	0x3dfa92d4	0.122350365
146	0x3d8440fa	0.06457706
147	0xbc9c9526	-0.019114088
148	0x3d8724ac	0.065987915
149	0x3def7eca	0.11694105
150	0x3ded4e8f	0.115872495
151	0x3d43e29c	0.047823533
152	0x3d8a0f6b	0.06741222
153	0xbd1c61d3	-0.03817923
154	0x3dddf6cd	0.10838089
155	0x3db3a9c6	0.08772616
156	0x3e010289	0.12598623
157	0x3d8258c4	0.06364587
158	0xbde2e688	-0.110791266
159	0xbd8ba1f9	-0.06818003
160	0x3c3eb54b	0.011639903
161	0xbd9b2d59	-0.07577009
162	0xbc0c2aa0	-0.0085550845
163	0x3d6274f6	0.055287324
164	0xbd987364	-0.07443884
165	0xbcb39fa9	-0.021926718
166	0xbdcf8833	-0.101334
167	0x3caaa079	0.020828472
168	0x3d4c374a	0.049857415
169	0xbc762c49	-0.015025207
170	0xbd0d0ad2	-0.034434147
171	0x3dd24828	0.10267669
172	0xbd74bd1f	-0.059750672
173	0x3d77e732	0.06052322
174	0xbdf9dc28	-0.122001946
175	0xbdb46352	-0.08808006
176	0x3cd8fe62	0.026488487
177	0x3db31107	0.08743482
178	0xbdcc526c	-0.09976658
179	0xbde50905	-0.11183361
180	0x3d8c947a	0.06864257
181	0xbdb5e72b	-0.088819824
182	0x3dc7e5bc	0.09760615
183	0x3ca07230	0.019585699
184	0x3cb26193	0.021775043
185	0x3d5d222a	0.05398766
186	0xbdd1b413	-0.102394246
187	0xbdc50ec3	-0.09621956
188	0x3df331a7	0.11874705
189	0xbdc33888	-0.09532267
190	0x3d134c88	0.035961658
191	0xbca485d9	-0.020083355
192	0xbba4e27d	-0.0050318823
193	0xbda92da6	-0.0826066
194	0xbd8605d5	-0.06544081
195	0xbc03092c	-0.007997792
196	0x3dbea0dc	0.09308025
197	0x3e1c98d5	0.15292676
198	0xbc19d2d7	-0.009388647
199	0x3de116da	0.10990687
200	0xbd8724c6	-0.06598811
201	0x3dee960d	0.11649714
202	0xbdac8468	-0.08423692
203	0xbb77e51a	-0.0037825764
204	0x3df0b789	0.117537566
205	0xbe8a7346	-0.27041072
206	0xbb9326c0	-0.0044907033
207	0xbd76a615	-0.060216982
208	0xbd44c96e	-0.04804366
209	0x3d4e5ecd	0.050383378
210	0x3d2bdfa2	0.04196132
211	0xbd288bfd	-0.04114913
212	0x3ddb5d62	0.10711171
213	0xbdd6d3a8	-0.10489589
214	0xbda82a2e	-0.0821117
215	0x3d6de35e	0.058078162
216	0xbdaad38c	-0.083411306
217	0x3dd0c429	0.101936646
218	0xbd355e8d	-0.044279624
219	0x3de4cdd1	0.11172069
220	0xbd6f27ea	-0.058387674
221	0xbdd9069d	-0.105969645
222	0x3e14bd1d	0.14525266
223	0xbcdeb6aa	-0.02718671
224	0x3db500e1	0.08838058
225	0x3e2560e0	0.16150236
226	0xbea6abf1	-0.32553056
227	0xbd941a68	-0.07231599
228	0x3e0f8da8	0.14018881
229	0xbc45887a	-0.012056464
230	0xbd747bc2	-0.059688337
231	0x3c5bf388	0.013424762
232	0x3d43c1e3	0.047792327
233	0xbdf8c5ff	-0.1214714
234	0x3b713eb5	0.0036811058
235	0xbc6771fc	-0.014126297
236	0xbbd67571	-0.006544762
237	0x3dcce9f0	0.100055575
238	0x3dc47d1e	0.09594177
239	0x3dc03550	0.093851686
240	0x3d43bfa4	0.047790185
241	0x3e8ab8fa	0.2709425
242	0x3d448fb2	0.0479886
243	0x3db131bc	0.08652064
244	0xbd81f37e	-0.063452706
245	0xbe0c194d	-0.13681526
246	0xbdd1936e	-0.10233198
247	0x3e998cb2	0.29990155
248	0xbd1a3857	-0.037651386
249	0xbd107d9e	-0.035276048
250	0x3dd47a5a	0.10374899
251	0x3dc4a4c0	0.09601736
252	0xbe006755	-0.12539418
253	0xbd920e48	-0.0713163
254	0xbcc32651	-0.023821982
255	0xbe26d580	-0.16292381

base.mlp.fc.0.bias f4 [128]
0	0x3cfc2c4c	0.030782841
1	0x3dc6b18b	0.097018324
2	0xbc3ee469	-0.011651137
3	0x3da0343c	0.07822463
4	0x3d83f9cc	0.06444129
5	0x3d9e2002	0.07720949
6	0xbdfdb581	-0.12388135
7	0xbc9f374d	-0.01943555
8	0x3d912608	0.07087332
9	0x3d1f8383	0.03894378
10	0xbd7ae4ac	-0.061253235
11	0x3dc116e9	0.09428198
12	0x3db4af62	0.08822514
13	0xbb8d4cba	-0.004312125
14	0xbe066dde	-0.13127849
15	0xbc2d9ef2	-0.010596978
16	0xbd1775c2	-0.036977537
17	0x3d411eae	0.0471484
18	0x3d1eebcf	0.038799103
19	0xbdbb4974	-0.091448694
20	0xbc9068a9	-0.01762803
21	0xbdde55a5	-0.10856179
22	0x3c2c6217	0.010521433
23	0xbd096bb0	-0.033549964
24	0x3ca17330	0.019708246
25	0x3d863e00	0.06554794
26	0xb9278084	-0.00015974237
27	0x3d48683e	0.048927538
28	0x3c2ac651	0.010423259
29	0x3c2119c5	0.009832804
30	0x3d015d9a	0.031583406
31	0x3d09b3c3	0.0336187
32	0xbd19c2c6	-0.037539266
33	0xbd7e927c	-0.062151417
34	0xbd10cda6	-0.03535237
35	0xbdf7714c	-0.120821565
36	0x3c111ff3	0.008857715
37	0x3deaa22e	0.114567146
38	0xbdd7d1f9	-0.10538096
39	0xbdfa3bc8	-0.122184336
40	0xbd9f565b	-0.07780143
41	0x3d16a517	0.036778536
42	0x3d44f755	0.048087437
43	0xbe069511	-0.13142802
44	0xbdff7338	-0.12473148
45	0x3d4be366	0.04977741
46	0xbd8fa1d6	-0.0701329
47	0xbdb3e314	-0.08783546
48	0x3dab8efa	0.0837688
49	0x3c8f5821	0.017498078
50	0xbb7bc3d4	-0.0038416283
51	0xbdb6d197	-0.08926695
52	0xbc7d4b2b	-0.015459816
53	0xbdc5e610	-0.096630216
54	0xbc8f9a02	-0.017529491
55	0x3d78f548	0.060780793
56	0x3d494108	0.049134284
57	0x3c2de417	0.010613463
58	0x3dca89f8	0.09889597
59	0xbe0e9650	-0.13924527
60	0x3d68509b	0.056717496
61	0x3c590917	0.013246796
62	0x3dce32ee	0.10068308
63	0xbd3e9a31	-0.046533767
64	0xbc88416f	-0.016632764
65	0xbde9d503	-0.11417582
66	0x3dac661c	0.08417913
67	0x3d4dd4c9	0.050251756
68	0xbbb231df	-0.005438074
69	0x3da1fbeb	0.07909378
70	0x3d4cf9c9	0.0500429
71	0xbd1cfc7b	-0.03832672
72	0xbd1e0a64	-0.038584128
73	0xbd458f29	-0.04823223
74	0xbb169f48	-0.0022983123
75	0xbd187db3	-0.03722925
76	0xbd746651	-0.05966789
77	0xbcfc3904	-0.030788906
78	0xbd989d06	-0.07451825
79	0xbd88e98b	-0.0668517
80	0xbd6d37fc	-0.05791472
81	0xbe0d4c72	-0.13798693
82	0x3ca742ce	0.020417597
83	0xbddae8ef	-0.1068896
84	0xbc482f21	-0.012218268
85	0xbdc6882d	-0.09693942
86	0x3dc1c49e	0.0946133
87	0x3ce076ec	0.027400456
88	0x3d0587ac	0.03260009
89	0xbdcd5289	-0.10025508
90	0x3dd833d4	0.105567604
91	0x3cbb6c12	0.02287868
92	0xbdfa2e1a	-0.122158244
93	0xbdc55815	-0.09635941
94	0x3dbfbf43	0.09362652
95	0xbca57059	-0.020195173
96	0x3d99ab4a	0.07503374
97	0xbe01475a	-0.12624875
98	0x3c44ffdf	0.012023895
99	0x3daae510	0.083444715
100	0xbd880a46	-0.066425845
101	0xbd6af31f	-0.057360765
102	0xbd94a3da	-0.07257815
103	0x3dd72086	0.1050425
104	0xbcedd70a	-0.029033203
105	0x3d21129b	0.039324384
106	0xbdfe7c94	-0.12426105
107	0xbdadaf0a	-0.08480652
108	0xbc01a7c7	-0.007913536
109	0x3d921bf6	0.071342394
110	0x3d72914f	0.05922061
111	0xbc50db30	-0.012747571
112	0x3debf7a7	0.11521845
113	0xbdc8698b	-0.09785756
114	0xbdfbd9c4	-0.12297395
115	0xbd560927	-0.052254822
116	0x3db5abd8	0.08870667
117	0xbc0993c1	-0.008397044
118	0xbdd0a025	-0.10186795
119	0x3dc786bf	0.09742498
120	0xbace71e8	-0.00157505
121	0x3cd9d6af	0.026591627
122	0xbdf782f6	-0.12085526
123	0x3d28598e	0.04110103
124	0xbde628d6	-0.112382576
125	0x3ddfbe30	0.10924947
126	0x3cdfbe1d	0.027312333
127	0xbe009216	-0.12555727

base.mlp.fc.2.weight f4 [128]
0	0x3f7cc382	0.9873582
1	0x3f680bc9	0.9064298
2	0x3f73113a	0.9494816
3	0x3f8a1475	1.0787493
4	0x3f78a81d	0.9713152
5	0x3f733a9c	0.95011306
6	0x3f68b0c3	0.90894717
7	0x3f717deb	0.9433276
8	0x3f7ba380	0.98296356
9	0x3f77627f	0.9663467
10	0x3f86983f	1.0515212
11	0x3f7d3ce3	0.9892103
12	0x3f6f048e	0.93366325
13	0x3f7a58ba	0.97791636
14	0x3f7d2cb2	0.98896325
15	0x3f82d084	1.0219884
16	0x3f7c4eab	0.9855754
17	0x3f83ed21	1.0306741
18	0x3f74cf47	0.9562878
19	0x3f74c388	0.95610857
20	0x3f7be64c	0.9839828
21	0x3f78a50b	0.97126836
22	0x3f88532f	1.0650386
23	0x3f7c1809	0.98474175
24	0x3f82b204	1.0210576
25	0x3f796995	0.9742673
26	0x3f88053a	1.0626595
27	0x3f749773	0.95543593
28	0x3f738285	0.9512103
29	0x3f6ae4be	0.9175528
30	0x3f7c3ae0	0.98527336
31	0x3f79f34c	0.97636867
32	0x3f7f445b	0.9971368
33	0x3f7a1d81	0.9770127
34	0x3f7b9ed3	0.9828922
35	0x3f822000	1.0166016
36	0x3f7b3a49	0.9813581
37	0x3f813218	1.0093412
38	0x3f81369b	1.0094789
39	0x3f6ccafa	0.9249722
40	0x3f7a523e	0.9778174
41	0x3f8054c7	1.0025872
42	0x3f85a96e	1.0442331
43	0x3f82823b	1.0195993
44	0x3f8191e9	1.0122653
45	0x3f809d99	1.0048095
46	0x3f84c774	1.0373368
47	0x3f80de4e	1.0067842
48	0x3f7162d7	0.9429144
49	0x3f806307	1.0030221
50	0x3f815c1c	1.0106235
51	0x3f78e55a	0.9722496
52	0x3f7209d4	0.94546247
53	0x3f8139da	1.009578
54	0x3f72bc19	0.94818264
55	0x3f727a7f	0.94718164
56	0x3f745dba	0.95455515
57	0x3f771946	0.9652294
58	0x3f7e585b	0.9935357
59	0x3f84564d	1.0338837
60	0x3f8518f9	1.0398246
61	0x3f7229da	0.9459511
62	0x3f7959c7	0.97402614
63	0x3f7fd070	0.99927425
64	0x3f798d66	0.9748138
65	0x3f7c069c	0.98447585
66	0x3f6e6682	0.93125165
67	0x3f73eb66	0.95281065
68	0x3f85f674	1.0465837
69	0x3f7acd76	0.9796976
70	0x3f7a962f	0.9788541
71	0x3f681b7d	0.90666944
72	0x3f7bfb95	0.9843076
73	0x3f80a246	1.0049522
74	0x3f79a774	0.9752114
75	0x3f7e979b	0.9945008
76	0x3f7337cb	0.9500701
77	0x3f71b765	0.9442046
78	0x3f7e03ec	0.99224734
79	0x3f78b397	0.9714903
80	0x3f72577c	0.9466474
81	0x3f8009ea	1.0003026
82	0x3f7e2228	0.9927087
83	0x3f7195ed	0.94369394
84	0x3f70b443	0.9402506
85	0x3f7e5925	0.99354774
86	0x3f84faf6	1.0389087
87	0x3f79488e	0.97376335
88	0x3f748b40	0.9552498
89	0x3f785dc9	0.97018105
90	0x3f87d25d	1.0611073
91	0x3f84317d	1.0327603
92	0x3f7a499b	0.97768563
93	0x3f7be7d6	0.9840063
94	0x3f8354e3	1.026028
95	0x3f746a7e	0.95474994
96	0x3f77fd3c	0.9687078
97	0x3f84a43a	1.0362618
98	0x3f90045e	1.1251333
99	0x3f768706	0.9629978
100	0x3f788e98	0.9709258
101	0x3f79a6da	0.9752022
102	0x3f74d176	0.9563211
103	0x3f73c63c	0.95224357
104	0x3f861cf6	1.0477588
105	0x3f7ef4b7	0.99592155
106	0x3f732555	0.9497884
107	0x3f7a426a	0.9775759
108	0x3f7a0d7e	0.9767684
109	0x3f744349	0.9541517
110	0x3f7d39f2	0.9891654
111	0x3f7c83d4	0.98638654
112	0x3f78cc0a	0.9718634
113	0x3f7b913a	0.98268473
114	0x3f75dd72	0.96041024
115	0x3f85b38d	1.044542
116	0x3f7e84af	0.9942121
117	0x3f6a1661	0.914404
118	0x3f767b2f	0.96281713
119	0x3f835789	1.0261089
120	0x3f7a78c9	0.97840554
121	0x3f7a047e	0.97663105
122	0x3f86ca22	1.0530436
123	0x3f74718d	0.95485765
124	0x3f7bc71b	0.98350686
125	0x3f79ee4e	0.9762925
126	0x3f77a522	0.9673635
127	0x3f816550	1.0109043

base.mlp.fc.2.bias f4 [128]
0	0x3c18d3db	0.009327854
1	0x3cf320c2	0.029678706
2	0x3d519c10	0.051174223
3	0x3c488f59	0.012241208
4	0x3b909d66	0.0044132946
5	0x3c51db8f	0.0128086945
6	0x3cb5fb68	0.022214606
7	0x3d680129	0.05664173
8	0xbc1feb2b	-0.009760658
9	0x39cdbf7b	0.0003924331
10	0x3b0dd5d5	0.0021642346
11	0x3c14f351	0.009091214
12	0x3cd7db38	0.026349649
13	0x3cabd061	0.020973386
14	0x3b656bee	0.0035006958
15	0xbb4e564e	-0.0031484547
16	0x3cb4ee24	0.02208621
17	0x3c23887d	0.009981272
18	0x3d3a74b2	0.045521446
19	0x3d264b41	0.04059911
20	0xbba384d3	-0.004990199
21	0xbb7867f1	-0.003790375
22	0x3b681054	0.0035410123
23	0x3c58caae	0.013231916
24	0x3a05ad5e	0.0005099381
25	0xbc73a576	-0.014870992
26	0xbbc26bc0	-0.005933255
27	0x3cbe9d70	0.023268431
28	0x3d43ac4e	0.047771744
29	0x3cf52c88	0.02992846
30	0xbc4fe6d6	-0.012689313
31	0x3cbaa78f	0.022784976
32	0xbb7fced9	-0.0039033203
33	0xbc7a3799	-0.015272045
34	0x3c5eb16b	0.013592104
35	0xbc6c3ec6	-0.014419263
36	0x3c8dbf06	0.017303001
37	0xbc2ad419	-0.010426545
38	0x3b66adaf	0.0035198738
39	0x3d60f85b	0.05492435
40	0x3c577463	0.013150307
41	0xbc4cf8f4	-0.012510527
42	0x3bfb1077	0.007661875
43	0xbc5eb94d	-0.013593984
44	0xbc59ccd4	-0.013293464
45	0xbc649c88	-0.013953336
46	0xbbf61757	-0.0075101065
47	0x3c02ab62	0.007975431
48	0x3b95a6c4	0.004566999
49	0xbc92540a	-0.017862339
50	0x3c061de5	0.008185838
51	0x3cb3fa13	0.02196983
52	0x39a928cf	0.00032264597
53	0x3ad23cfa	0.0016039901
54	0xb80b6ed7	-3.324341e-05
55	0x3c993373	0.01870129
56	0x3ccbe8f5	0.024891356
57	0x3d07ab59	0.033122394
58	0x3a1fb84b	0.00060928304
59	0xbc9c4429	-0.01907547
60	0xbbd32646	-0.0064437715
61	0x3cd47172	0.025933001
62	0x3d439fd6	0.047759853
63	0x3af22fc1	0.0018477367
64	0x3cc66713	0.024219071
65	0xbc336f1e	-0.010951785
66	0x3d1bd49c	0.038044557
67	0x3d0286b5	0.031866748
68	0x3c003342	0.007824721
69	0xbba9fac8	-0.005187366
70	0x3cb1598f	0.02164915
71	0x3ca9a450	0.020708233
72	0x3c150d48	0.009097405
73	0x3b636abe	0.0034701074
74	0x3cca802d	0.024719322
75	0xbc1fcf1d	-0.0097539695
76	0x3d49863c	0.04920028
77	0x3c75df7c	0.015006896
78	0x3bece017	0.007228862
79	0x3ce2a5d7	0.02766697
80	0x3d53fca2	0.0517546
81	0xb9faafc0	-0.0004781466
82	0xbc080a19	-0.008303189
83	0x3cbd5cfb	0.023115626
84	0xbb4283b7	-0.002968056
85	0x3bc6476e	0.0060509956
86	0x39b71da0	0.00034926552
87	0x3ccff457	0.025385065
88	0x3d452ba4	0.048137322
89	0xbbf6fb66	-0.0075372932
90	0xbbce4625	-0.006294983
91	0xbc6ff24c	-0.01464517
92	0xbc9f5605	-0.019450197
93	0x3c7e5981	0.015524269
94	0xbc36f1d2	-0.011166053
95	0x3b9b8992	0.0047466243
96	0x3d06a6e0	0.03287399
97	0xbc4bdc27	-0.012442625
98	0x3bacef24	0.005277531
99	0x3d10eced	0.0353822
100	0x3ce62135	0.028092006
101	0x3cb1a4b6	0.021684986
102	0x3d3933ef	0.045215543
103	0x3c8d067a	0.017215002
104	0xbbafda99	-0.005366635
105	0x3c874336	0.01651154
106	0x3d57b042	0.052658327
107	0x3cb4d6c6	0.022075068
108	0x3d03b8bd	0.032158602
109	0x3d40612f	0.04696768
110	0xbc9ab08b	-0.01888301
111	0xbca6fcd2	-0.020384226
112	0x3ce541a7	0.027985407
113	0x3c9471de	0.018120702
114	0x3d2535b7	0.04033443
115	0xbbe66252	-0.0070307637
116	0xbc040e60	-0.008060068
117	0x3ce8ff65	0.028442094
118	0x3c099318	0.008396886
119	0xbca908c4	-0.020634063
120	0x3ce22f80	0.02761054
121	0x3a9df2d8	0.0012050522
122	0x3be5c941	0.0070125167
123	0x3d3d986e	0.046287946
124	0x3c83f08b	0.01610591
125	0x3d77b829	0.060478363
126	0x3b8aa316	0.004230867
127	0xbc89b2b9	-0.016808854

base.mlp.fc.3.weight f4 [128, 128]
0	0x3d9aa29a	0.07550545
1	0x3bbe949d	0.005816056
2	0x3d40af05	0.04704191
3	0x3d82b184	0.06381515
4	0xbdc94758	-0.09828061
5	0xbd2edcd4	-0.042691067
6	0x3d82578b	0.06364354
7	0xbcdf4d7e	-0.02725863
8	0x3b8ad0a3	0.004236297
9	0xbda6c8d5	-0.081437744
10	0xbd05c1ef	-0.032655653
11	0x3d4e4391	0.050357405
12	0xbd4a1a90	-0.04934174
13	0xba7a28d4	-0.0009542827
14	0xbd858f1e	-0.06521438
15	0xbd21c2ab	-0.03949229
16	0x3db8c8e0	0.09022689
17	0xbdae0fd6	-0.08499114
18	0xbd0b0703	-0.033942234
19	0x3d3c7c0a	0.04601673
20	0x3cec5338	0.028848276
21	0x3d177b76	0.036982976
22	0x3d6c9e32	0.057768054
23	0xbd9b19e4	-0.075732976
24	0xbbdfaae8	-0.0068257935
25	0x3d76f0e5	0.06028833
26	0xbcb436c0	-0.021998763
27	0x3db0fdce	0.086421594
28	0xbd567403	-0.05235673
29	0xbd81096a	-0.06300624
30	0xbd41f12b	-0.047349136
31	0x3cd470cd	0.025932694
32	0xbd845538	-0.06461567
33	0x3cacbacb	0.021085164
34	0xbd44f381	-0.048083786
35	0x3d8418dc	0.06450054
36	0xbcf0e160	-0.029404342
37	0xbb39996e	-0.002832021
38	0x3c6dd4fa	0.01451611
39	0xbd804052	-0.06262268
40	0x3d6220ec	0.055207178
41	0x3d74446f	0.059635576
42	0xbde335fb	-0.1109428
43	0xbcb5b938	-0.022183046
44	0x3d2ee2d7	0.0426968
45	0xbba38e96	-0.004991363
46	0xbc2bca6a	-0.010485271
47	0x3d5f5a56	0.05452951
48	0xbb92f2b5	-0.0044844993
49	0xbd9d0d48	-0.07668549
50	0xbb68b60a	-0.0035508894
51	0xbd810923	-0.06300571
52	0xbd2d9a7f	-0.042383667
53	0x3bdceac2	0.0067418525
54	0xbc92e92f	-0.017933456
55	0x3d54a2a2	0.05191291
56	0x3ce8540c	0.02836039
57	0x3d31e739	0.0434334
58	0xbd2ef752	-0.04271633
59	0x3d52fbe4	0.051509753
60	0xbc75907e	-0.014988063
61	0x3c44ceab	0.012012164
62	0xbd38c7bc	-0.045112357
63	0x3d8f7555	0.07004801
64	0x3ce1c105	0.02755786
65	0x3d20ea2d	0.039285827
66	0x3ba45147	0.005014572
67	0xbd7dae15	-0.061933596
68	0xbd7aa04d	-0.06118803
69	0x3d89943d	0.06717727
70	0x3d0da4a5	0.034580845
71	0x3cf5b767	0.02999468
72	0xbccb101a	-0.024787951
73	0xbd2e1fd0	-0.042510808
74	0x3da83c78	0.082146585
75	0xbd17336b	-0.03691427
76	0x3dc7d4c3	0.09757378
77	0xbd3085ca	-0.04309634
78	0x3dad5059	0.08462591
79	0x3b370f42	0.0027932678
80	0xbd357656	-0.044302307
81	0xbb1cc6ef	-0.0023922285
82	0xbdb5d03e	-0.0887761
83	0x3dd9e9f0	0.10640323
84	0x3df4212f	0.11920392
85	0x3d827dd4	0.06371656
86	0xbda4428b	-0.080205046
87	0x3d3e1bf1	0.046413366
88	0xbd03fc50	-0.032223046
89	0xbc037741	-0.008024038
90	0x3da7a322	0.08185412
91	0x3c98c463	0.018648332
92	0xbd8678e8	-0.0656603
93	0xbc2c2015	-0.010505696
94	0x3ce621a1	0.028092207
95	0x3d00e908	0.031472236
96	0xbd8c2402	-0.068428054
97	0x3c835f21	0.016036572
98	0x38be4af9	9.073871e-05
99	0x3cd7c68a	0.026339788
100	0x3aa08f2c	0.00122497
101	0x3d62c6a0	0.055365205
102	0x3daca12f	0.08429181
103	0x3db3221f	0.087467425
104	0xbd8171fe	-0.063205704
105	0xbb29519f	-0.0025836003
106	0xbd692d59	-0.056928013
107	0x3a988ba2	0.0011638294
108	0x3c9d418c	0.019196294
109	0x3b932b0e	0.0044912165
110	0x3da83c67	0.08214646
111	0x3cff1061	0.03113574
112	0x3d557001	0.05210877
113	0xbd900cd4	-0.07033697
114	0xbd88d64f	-0.06681501
115	0x3d3fec7a	0.04685638
116	0x3ce3fbc6	0.027830016
117	0xbd1f1c43	-0.03884531
118	0x3dab2603	0.083568595
119	0x3c0963ed	0.008385641
120	0x3ca9915b	0.020699194
121	0xbdab7f53	-0.083738945
122	0x3d8d559b	0.069010936
123	0xbd7a37d9	-0.061088417
124	0x3cf7cce1	0.030249061
125	0x3c90c5fb	0.01767253
126	0xbc500714	-0.012697
127	0x3c0776c6	0.008268064
128	0xbd1b56a3	-0.03792442
129	0xbc902f00	-0.017600536
130	0xbd982aeb	-0.07430061
131	0xbc27dff4	-0.010246266
132	0xbce8f01a	-0.028434802
133	0xbb809362	-0.0039238194
134	0x3abc9d36	0.0014390114
135	0x3baa884b	0.0052042357
136	0x3c5889f2	0.0132164825
137	0x3d1b4a58	0.037912697
138	0x3d6ee82a	0.058326878
139	0x3d830645	0.0639768
140	0xbd8bd208	-0.0682717
141	0x3d934811	0.0719148
142	0x3d677832	0.05651111
143	0xbdbc0067	-0.09179764
144	0x3cb82137	0.022476776
145	0xbdb44706	-0.08802609
146	0xbd004d91	-0.031323973
147	0xbd9bf452	-0.0761496
148	0x3d3fc4b4	0.04681845
149	0x3c5814d8	0.013188563
150	0xbdda4226	-0.10657148
151	0x3d8fb156	0.07016246
152	0x3caca603	0.021075254
153	0x3d95a5ec	0.07307038
154	0x3df403a1	0.11914755
155	0x3c83512f	0.016029922
156	0xbd7c858f	-0.06165081
157	0xbcfa95e3	-0.03058905
158	0x3da6f635	0.08152429
159	0xbd7c3058	-0.06156954
160	0x3c9805db	0.01855748
161	0x3d861420	0.06546807
162	0xbc773194	-0.015087504
163	0xbcff9def	-0.031203238
164	0x3d9883f0	0.0744704
165	0xbc99a747	-0.018756522
166	0xbd8e2cd3	-0.06942143
167	0xbd9fb1d3	-0.07797589
168	0x3d158be8	0.036510378
169	0x3d7b9231	0.061418716
170	0xbdd9bd91	-0.1063186
171	0xbcbbad27	-0.022909714
172	0xbce5a5a6	-0.028033089
173	0x3db346b7	0.08753722
174	0x3db16332	0.08661498
175	0xbd4724d3	-0.048619103
176	0x3c3f72be	0.0116850715
177	0x3deaf116	0.11471765
178	0xbc66ba36	-0.014082482
179	0xbda60c16	-0.08107774
180	0xbd948618	-0.07252139
181	0x3d0be7f3	0.03415675
182	0xbc16203c	-0.009162959
183	0x3cf933ca	0.030420203
184	0xbd12be54	-0.035826042
185	0x3bc6c132	0.006065511
186	0x3cd214ac	0.025644623
187	0x3c960b14	0.01831583
188	0xbc54e6f1	-0.012994514
189	0xbd267ea8	-0.040648133
190	0x3daa0f43	0.08303692
191	0xbd329b26	-0.043604992
192	0xbd2ca84f	-0.0421527
193	0x3cf654f1	0.0300698
194	0x3bca0e92	0.0061662877
195	0x3c001418	0.007817291
196	0xbdc48f81	-0.09597684
197	0x3d4d2ce8	0.050091654
198	0xbdc5588b	-0.09636029
199	0xbd8f0bab	-0.06984647
200	0xbcebc6ac	-0.028781258
201	0xbd8dc7a1	-0.06922842
202	0x3ce081f1	0.02740571
203	0x3ca87e3c	0.020568006
204	0xbd194faa	-0.03742949
205	0xbcc097da	-0.023509908
206	0x3c595766	0.013265466
207	0xbd8a3773	-0.06748857
208	0xbd8c823f	-0.0686078
209	0xbd84c86e	-0.064835414
210	0xbd2360b3	-0.03988714
211	0xbc59fcb4	-0.013304878
212	0xbb2d3bfd	-0.002643346
213	0x3c9827d3	0.018573677
214	0xbd096629	-0.033544693
215	0xbd2ea942	-0.042641886
216	0xbc82af63	-0.015952772
217	0xbd8ff588	-0.07029253
218	0x3ab3bef2	0.0013713522
219	0x3dbd9dd5	0.0925862
220	0xbb05408e	-0.0020332667
221	0xbd9aac9e	-0.07552455
222	0x3dcf331b	0.101171695
223	0x3d4f14e2	0.050557025
224	0xbd7a1887	-0.061058547
225	0x3d82171d	0.06352065
226	0xbdf00021	-0.117187746
227	0x3cee8a22	0.029118601
228	0xbcbfc724	-0.023410387
229	0xbd8f82b2	-0.0700735
230	0xbd3088e4	-0.0430993
231	0x3d714df2	0.058912225
232	0x3d3e3876	0.046440564
233	0x3d414c81	0.0471921
234	0xbd9713c9	-0.073768206
235	0xbccfb319	-0.025353955
236	0x3dc9021d	0.09814856
237	0xbd8e4760	-0.069472075
238	0x3dc3f692	0.09568514
239	0x3d483c60	0.048885703
240	0xbd2d400e	-0.042297415
241	0x3b585c1b	0.0033013884
242	0x3d840ea8	0.06448108
243	0x3dc4211d	0.09576628
244	0x3d8758eb	0.06608757
245	0x3d0be24b	0.034151357
246	0x3d14da24	0.036340848
247	0x3dc33a66	0.09532623
248	0x3c13622b	0.008995573
249	0x3d587e9c	0.05285512
250	0xbc85f685	-0.016352901
251	0x3d0abded	0.033872534
252	0x3b7e2dbb	0.0038784582
253	0xbbe5f058	-0.0070171766
254	0xbda5a2d2	-0.08087696
255	0xbda8a73c	-0.082350224

base.mlp.fc.3.bias f4 [128]
0	0xbce899b8	-0.028393611
1	0xbd121a20	-0.035669446
2	0xbc97536a	-0.018472392
3	0x3d36e6af	0.04465359
4	0x3d916e4d	0.07101116
5	0xbd578a47	-0.052622106
6	0xbcd0f564	-0.025507636
7	0xbdc36b46	-0.09541945
8	0x3db33f4a	0.08752306
9	0x3d8bba11	0.06822599
10	0xbd3de2e6	-0.046358965
11	0xbd477350	-0.048693955
12	0x3c49d13e	0.012317954
13	0xbdbd0eb9	-0.09231324
14	0x3d8c7f9a	0.068602756
15	0xbdad67fc	-0.08467099
16	0xbbe7fa92	-0.007079431
17	0xbd294c7d	-0.04133271
18	0x3ca8cb98	0.020604894
19	0x3d30c3e8	0.04315558
20	0xbcc3e754	-0.023914017
21	0x3d856b50	0.06514609
22	0x3d62a074	0.0553288
23	0xbcb38c9d	-0.021917636
24	0xbcca2a04	-0.024678238
25	0xbd79c7b3	-0.060981464
26	0x3d6a4b90	0.05720097
27	0xbc1ee409	-0.0096979225
28	0x3c40902e	0.011753125
29	0xbb15016e	-0.0022736448
30	0x3db8c7bc	0.09022471
31	0x3cef7bdc	0.029233865
32	0x3d7491eb	0.05970947
33	0xbd90e5a2	-0.07075049
34	0xbd3a7b2e	-0.04552763
35	0x3d580a94	0.052744463
36	0x3a9424e0	0.0011302494
37	0x3d6db1b3	0.058030795
38	0x3d870b5c	0.065939635
39	0x3d2c8c5c	0.042126045
40	0xbc711eab	-0.0147167845
41	0x3d6437c5	0.05571725
42	0x3d968f9f	0.07351612
43	0x3d3f08ed	0.04663937
44	0x3ccb3344	0.024804719
45	0x3d93fe7f	0.07226276
46	0xbdb465d4	-0.08808485
47	0xbd2ef9f0	-0.042718828
48	0xbcdb6df4	-0.026785828
49	0x3d97aafb	0.07405659
50	0x3da65dde	0.081233725
51	0xbcee9d71	-0.029127808
52	0xbd354c2a	-0.04426209
53	0x3d713e5e	0.05889737
54	0x3cf03cf4	0.02932594
55	0x3d7b0924	0.061288014
56	0x3d72d61d	0.059286226
57	0xbd9a6e50	-0.07540572
58	0x3d10e1ef	0.035371717
59	0x3d7b2d61	0.061322574
60	0x3d2f7a3e	0.04284119
61	0xbd6b35d6	-0.05742439
62	0xbd14257b	-0.036168557
63	0xbcc00c64	-0.023443408
64	0xbdbb1c15	-0.091362156
65	0x3d825ee9	0.06365759
66	0xbd39637f	-0.045260902
67	0xbd9cfa44	-0.07664922
68	0xbd770c13	-0.06031425
69	0xbdb1d47a	-0.08683105
70	0xbcf90a04	-0.030400284
71	0x3b34d487	0.0027592496
72	0xbdba15ae	-0.09086166
73	0x3d17538a	0.036944903
74	0xbd0ca377	-0.03433558
75	0x3d7df71b	0.062003236
76	0xbbe6ce6f	-0.007043652
77	0xbd1115e9	-0.035421286
78	0x3d83deb4	0.064389616
79	0x3d131bf0	0.035915315
80	0xbdb7382e	-0.08946262
81	0x3d9f1720	0.077680826
82	0x3d6d9f64	0.058013335
83	0xbc4449d2	-0.011980491
84	0x3d6613b0	0.05617112
85	0xbcd8cf8c	-0.026466154
86	0x3c89101d	0.016731316
87	0xbc365784	-0.011129264
88	0x3d362641	0.044470076
89	0xbca70281	-0.020386936
90	0x3d942dda	0.07235308
91	0xbb2b4537	-0.0026133785
92	0x3d84a6af	0.06477105
93	0x3d99e370	0.075140834
94	0x3da48b22	0.0803435
95	0xbd8b4d24	-0.06801823
96	0xbc4fd1a7	-0.012684262
97	0xbc57ee82	-0.013179423
98	0xbd379c68	-0.044826895
99	0xbcb8f556	-0.022577923
100	0xbcb7e4a6	-0.022447895
101	0x3d07aa3a	0.033121325
102	0x3b845d35	0.0040394315
103	0xbd5d3bcb	-0.0540121
104	0xbdde38b7	-0.10850661
105	0x3cc1eeaf	0.023673384
106	0x3be7793a	0.007064012
107	0xbd6ed5e4	-0.05830945
108	0xbdb80763	-0.08985784
109	0xbd9f9b9f	-0.07793354
110	0xbd67dbb3	-0.056606006
111	0xbd75a27e	-0.059969418
112	0xbdb7f46b	-0.08982166
113	0x3d275f81	0.040862564
114	0x3cd76c08	0.02629663
115	0x3da96430	0.082710624
116	0xbd5253ba	-0.05134938
117	0x3cadf2cf	0.021233944
118	0xbd8c787c	-0.06858918
119	0x3c624ece	0.013812734
120	0xbcc41844	-0.023937352
121	0x3da2cf7c	0.07949731
122	0x3da58736	0.0808243
123	0xbce1890e	-0.027531173
124	0xbd97567b	-0.07389542
125	0xbd9e9f77	-0.07745259
126	0xbcf6462f	-0.030062763
127	0x3cc307b0	0.023807377

base.mlp.fc.5.weight f4 [128]
0	0x3f791274	0.9729378
1	0x3f81dc1f	1.0145301
2	0x3f822375	1.0167071
3	0x3f7f047f	0.99616235
4	0x3f81b61d	1.0133702
5	0x3f8048c1	1.0022203
6	0x3f81d9c8	1.0144587
7	0x3f7e4a97	0.99332565
8	0x3f81ee00	1.0150757
9	0x3f808869	1.0041629
10	0x3f818ec1	1.012169
11	0x3f814430	1.0098934
12	0x3f80dce8	1.0067415
13	0x3f77174e	0.96519935
14	0x3f81d3a1	1.0142709
15	0x3f832211	1.0244771
16	0x3f808405	1.0040289
17	0x3f7cd0af	0.98755926
18	0x3f8030f4	1.0014939
19	0x3f82e334	1.0225587
20	0x3f748f71	0.95531374
21	0x3f78e585	0.9722522
22	0x3f8199c4	1.012505
23	0x3f7fb243	0.9988138
24	0x3f784901	0.96986395
25	0x3f8060c4	1.002953
26	0x3f7e8d58	0.99434423
27	0x3f804250	1.0020237
28	0x3f7ce1ec	0.9878223
29	0x3f822053	1.0166115
30	0x3f81cd35	1.0140749
31	0x3f7f6dbd	0.9977682
32	0x3f7ea9ab	0.9947764
33	0x3f7edd3a	0.99556315
34	0x3f815b8e	1.0106065
35	0x3f7e4fb9	0.993404
36	0x3f81500b	1.0102552
37	0x3f80e89b	1.0070986
38	0x3f7e3314	0.9929669
39	0x3f84d791	1.0378286
40	0x3f80f1ff	1.0073851
41	0x3f8072bf	1.0035018
42	0x3f7872ef	0.97050375
43	0x3f7edf73	0.99559706
44	0x3f812793	1.0090202
45	0x3f7fd92e	0.99940765
46	0x3f80d7ce	1.0065858
47	0x3f7edcd8	0.9955573
48	0x3f82bcc6	1.0213859
49	0x3f82a1e9	1.0205661
50	0x3f792206	0.9731754
51	0x3f733b57	0.9501242
52	0x3f82b511	1.0211507
53	0x3f79bfdd	0.97558385
54	0x3f7f3fb3	0.9970657
55	0x3f7ad93a	0.9798771
56	0x3f839844	1.0280843
57	0x3f779642	0.9671365
58	0x3f80dff3	1.0068344
59	0x3f8459c9	1.03399
60	0x3f804462	1.0020869
61	0x3f792a9b	0.97330636
62	0x3f8319d9	1.0242263
63	0x3f81d361	1.0142633
64	0x3f7cf2da	0.9880806
65	0x3f8540ee	1.041044
66	0x3f80eb7e	1.0071867
67	0x3f79a787	0.9752125
68	0x3f7a0de6	0.9767746
69	0x3f7679d7	0.9627966
70	0x3f8495ef	1.0358256
71	0x3f81f694	1.0153375
72	0x3f8383fe	1.0274656
73	0x3f76c4ae	0.9639386
74	0x3f836923	1.026646
75	0x3f807519	1.0035735
76	0x3f7db2dc	0.9910104
77	0x3f8142fe	1.0098569
78	0x3f695a36	0.91153276
79	0x3f79516c	0.97389865
80	0x3f795134	0.9738953
81	0x3f771bdf	0.965269
82	0x3f7d7936	0.9901308
83	0x3f84f161	1.0386163
84	0x3f8037d9	1.0017043
85	0x3f818fa4	1.0121961
86	0x3f7eef1f	0.9958362
87	0x3f782fd6	0.9694799
88	0x3f7bc854	0.9835255
89	0x3f822027	1.0166062
90	0x3f821c77	1.0164937
91	0x3f7c8228	0.986361
92	0x3f80195e	1.0007741
93	0x3f7ba001	0.9829102
94	0x3f82dc2f	1.0223445
95	0x3f8102ac	1.007894
96	0x3f7d7b39	0.9901615
97	0x3f83a22a	1.0283864
98	0x3f7d2bf2	0.9889518
99	0x3f818be2	1.0120814
100	0x3f79e6b7	0.9761767
101	0x3f6dda4a	0.9291121
102	0x3f760bca	0.9611174
103	0x3f7d9973	0.9906227
104	0x3f81affc	1.0131831
105	0x3f7b8f20	0.98265266
106	0x3f734d44	0.95039773
107	0x3f84c9be	1.0374067
108	0x3f81786a	1.0114872
109	0x3f7f698b	0.9977042
110	0x3f7cb5e1	0.98715025
111	0x3f859050	1.0434666
112	0x3f7faf5f	0.9987697
113	0x3f7d5a11	0.98965555
114	0x3f80f25d	1.0073963
115	0x3f82ebda	1.0228226
116	0x3f840941	1.0315324
117	0x3f8160cf	1.0107669
118	0x3f7dd478	0.99152327
119	0x3f7d90e9	0.9904924
120	0x3f81e4bd	1.014793
121	0x3f83cb4f	1.029642
122	0x3f85cc22	1.0452921
123	0x3f83f3af	1.0308741
124	0x3f749548	0.95540285
125	0x3f791df2	0.9731132
126	0x3f7c832d	0.9863766
127	0x3f81c302	1.0137637

base.mlp.fc.5.bias f4 [128]
0	0xbcc1652f	-0.023607818
1	0x3a525a1a	0.00080242904
2	0xbc4fe637	-0.012689165
3	0x3bcb36ab	0.0062015853
4	0x3c7c96f9	0.015416854
5	0xbb0ac170	-0.0021172427
6	0xbc3505dd	-0.011048761
7	0xbb8d8e51	-0.004319944
8	0x3cc38107	0.023865236
9	0xbcbda5eb	-0.023150405
10	0xba76dade	-0.0009416769
11	0x3b11c245	0.0022241038
12	0x3cb2b69e	0.021815594
13	0x3ad82018	0.0016489057
14	0xbc61aad7	-0.013773642
15	0xbcf69b91	-0.030103477
16	0x3bef36d7	0.0073002386
17	0x3c0d6ebf	0.008632361
18	0x3af5ae9a	0.0018744052
19	0xbc4a1587	-0.012334234
20	0xbb436375	-0.002981392
21	0x3ce64406	0.028108608
22	0xbca327bf	-0.019916413
23	0x3a862e01	0.0010237099
24	0x3d1f4b60	0.038890243
25	0x3b490d21	0.0030677991
26	0xbc7e744e	-0.015530659
27	0xbab35e5d	-0.0013684739
28	0xbc312a62	-0.0108133275
29	0xba83da77	-0.0010059614
30	0xbb32dadb	-0.0027291093
31	0xbbc70cd2	-0.0060745263
32	0xbb0bd737	-0.0021337995
33	0xbccdbb4e	-0.025113728
34	0xbd126245	-0.03573825
35	0x3c7c1d24	0.015387807
36	0xbb6265c7	-0.0034545527
37	0x3c4b041b	0.012391116
38	0x3c1f830e	0.009735836
39	0xbd199232	-0.03749294
40	0xbc0c1b74	-0.008551467
41	0xbc020e9e	-0.007938055
42	0x3c7048e6	0.014665818
43	0x3bf1ed3c	0.007383017
44	0x3c8bd432	0.017068956
45	0x3bfcbbf3	0.007712835
46	0x3b6252b7	0.0034534165
47	0xbc87f23d	-0.016595
48	0xbc78dc98	-0.015189312
49	0xb9a04e8f	-0.0003057611
50	0x3d0432dc	0.032275066
51	0x3c3d9dab	0.0115732355
52	0x3b232068	0.0024891142
53	0x3bf12672	0.0073593194
54	0xbc0f2b58	-0.008738361
55	0x3c012c82	0.007884147
56	0xbc146b01	-0.009058715
57	0x3cf10e0d	0.029425645
58	0xbc36c5e6	-0.011155581
59	0xbc25e3fa	-0.010125155
60	0xbb6b05d5	-0.003586163
61	0x3cac895f	0.021061597
62	0x3ca0ae3f	0.019614337
63	0xbca5974e	-0.02021375
64	0x3be8affc	0.007101057
65	0xbbe50530	-0.006989144
66	0xbc364100	-0.011123896
67	0x3c501bbe	0.012701927
68	0xba9d78b6	-0.0012014124
69	0x3c5bc570	0.013413772
70	0xbc23232e	-0.009957118
71	0xbc91c8a3	-0.017795866
72	0xbd0fe222	-0.035127766
73	0x3acef0b2	0.0015788286
74	0x3c6cc473	0.014451134
75	0x3bba6f69	0.0056895507
76	0x3c73f2ff	0.014889478
77	0xbc1a9573	-0.0094350455
78	0x3c509688	0.012731202
79	0xbac15966	-0.0014751374
80	0xbc8d514e	-0.017250683
81	0x3c88be59	0.016692327
82	0x3c628a97	0.013826988
83	0xbd1a634d	-0.037692357
84	0xbb4255c4	-0.002965317
85	0x3c6cd39d	0.014454749
86	0xbb89bb13	-0.004203209
87	0x3d0ce8ca	0.034401692
88	0x3c63a075	0.013893236
89	0xbc7c841d	-0.015412358
90	0x3b9a2965	0.0047046416
91	0x3c5a8b51	0.01333888
92	0x3a206a33	0.00061193405
93	0x3c0f235b	0.008736457
94	0x3c566b48	0.013087101
95	0xb792dcb2	-1.7507326e-05
96	0xbc300715	-0.010743876
97	0x3c15db79	0.009146565
98	0x3bfd2bd5	0.0077261725
99	0xbc232749	-0.009958097
100	0x3cadbe7f	0.021209
101	0x3cac90c0	0.021065116
102	0x3d012b28	0.031535298
103	0x3b815a18	0.0039475076
104	0xbc500528	-0.012696542
105	0x3c88ef39	0.016715633
106	0xb9a0b254	-0.00030650443
107	0x3ab6d415	0.0013948703
108	0xbcb042d3	-0.02151624
109	0xb97fab56	-0.00024382523
110	0x3ba7f3f5	0.0051255175
111	0x3a23a9c5	0.0006243254
112	0xbc14e535	-0.00908785
113	0x3b680092	0.003540073
114	0xbc7d6986	-0.015467053
115	0x3bfa2d5e	0.0076348027
116	0xbd1932b4	-0.03740187
117	0xbd11553b	-0.035481673
118	0x3c5b1b64	0.01337323
119	0x3c33f0de	0.01098272
120	0xbc8e3499	-0.017359065
121	0xbc0cfc51	-0.008605079
122	0x3be218be	0.006899922
123	0xbd06467a	-0.032782055
124	0x3ce16ba4	0.027517147
125	0x3ca5851b	0.020205071
126	0x3c192f26	0.00934962
127	0xbb945c2e	-0.0045275902

rnn.gru.weight_ih_l0 f4 [384, 128]
0	0x3d2d6036	0.042328082
1	0xbd82d97f	-0.0638914
2	0x3d09d08d	0.033646155
3	0xbca1d39a	-0.01975422
4	0xbd24f3bf	-0.040271517
5	0xbdcfc0bf	-0.10144185
6	0x3d6aa646	0.057287477
7	0xbc3598f4	-0.01108383
8	0x3c3b931d	0.011448649
9	0xbdc8c3c9	-0.09802968
10	0xbdc95a41	-0.09831668
11	0xbcec7f81	-0.028869392
12	0x3d4217e6	0.047386073
13	0x3d600821	0.054695252
14	0xbd37317d	-0.04472493
15	0x3cd82508	0.026384845
16	0x3ceb9319	0.028756665
17	0x3c76d028	0.015064277
18	0x3dc574e3	0.09641435
19	0xbd51d79a	-0.051231004
20	0x3d96400e	0.07336436
21	0x3dcc3f56	0.09973018
22	0xbde3f0e2	-0.11129929
23	0x3dd64a59	0.104633994
24	0xbc9c7343	-0.01909793
25	0xbdcb1abd	-0.09917209
26	0x3c52f57e	0.012875913
27	0x3dac2451	0.08405364
28	0x3c4caa83	0.012491825
29	0xbd807e65	-0.06274108
30	0x3d2f8013	0.04284675
31	0xbc83ec71	-0.016103955
32	0x3cae3ccf	0.02126923
33	0xbd1e3c69	-0.03863183
34	0xb9a127a0	-0.00030737836
35	0x3d02b2c1	0.031908754
36	0xbd64b544	-0.05583693
37	0xbd509f74	-0.050933316
38	0x3d2a6d13	0.041607928
39	0x3d1a43b0	0.037662208
40	0x3db140c5	0.08654932
41	0x3d575283	0.052568924
42	0xbd70f3ed	-0.058826376
43	0xbdae019a	-0.08496399
44	0xbd42d21c	-0.047563657
45	0xbcf226c4	-0.0295595
46	0xbc66bf3d	-0.014083681
47	0xbda07f4b	-0.07836779
48	0x3bbdd536	0.005793239
49	0xbd3a3a1f	-0.045465585
50	0x3d513f81	0.051085953
51	0x3cf6daef	0.030133693
52	0x3d32c008	0.043640167
53	0xbd63fb9f	-0.055659886
54	0xbc279805	-0.010229115
55	0xbdc3089e	-0.09523128
56	0xbb65ca59	-0.0035063236
57	0x3a9417f8	0.0011298647
58	0x3b1b4624	0.002369293
59	0xbc94bf8a	-0.01815774
60	0xbd6f80d6	-0.058472477
61	0xbda101f3	-0.078617
62	0x3cf2f2b8	0.029656753
63	0xbd7709be	-0.060312025
64	0xbde46148	-0.111513674
65	0x3d123a2c	0.03570001
66	0xbc963ff0	-0.018341035
67	0xbd3a40b0	-0.045471847
68	0x3cd0ba37	0.02547942
69	0xbd8283f0	-0.06372821
70	0x3d241ea2	0.040068276
71	0x3d7ef6df	0.062247153
72	0x3d429850	0.047508538
73	0xbd770c9a	-0.060314752
74	0xbd06d6c0	-0.032919645
75	0xbd887b0c	-0.06664094
76	0x3c1aff18	0.009460233
77	0xbc20afae	-0.00980751
78	0x3cbc0512	0.022951636
79	0x3d50d130	0.050980747
80	0x3ce26785	0.027637253
81	0x3dbddea3	0.0927098
82	0xbc969502	-0.0183816
83	0xbd18dca6	-0.0373198
84	0xbd791c77	-0.06081816
85	0xbccb2189	-0.024796264
86	0xbd502699	-0.05081806
87	0x3da6bbd2	0.08141293
88	0xbddb7cec	-0.10717186
89	0xbdcf68c7	-0.101274066
90	0x3dbdb730	0.09263456
91	0xbd837b52	-0.06420006
92	0xbd6923b0	-0.0569188
93	0x3db648c5	0.089005984
94	0x3d8c6dbb	0.06856867
95	0xbd8eb5ec	-0.069682926
96	0x3d2f3184	0.04277183
97	0xbccd72fb	-0.025079241
98	0xbd05ecd8	-0.032696575
99	0xbd577dfb	-0.05261038
100	0x3da6407c	0.08117768
101	0xbc8045b8	-0.015658244
102	0x3c1f6061	0.009727568
103	0xbdd50cee	-0.10402857
104	0x3b844298	0.004036259
105	0xbce797c0	-0.028270602
106	0x3cd70323	0.026246613
107	0xbd7d276a	-0.061805166
108	0xbdda1fc4	-0.1065059
109	0xbdbc07ed	-0.09181199
110	0x3ce6b73f	0.02816355
111	0xbd8b7b07	-0.06810575
112	0x3c8e084d	0.017337942
113	0x3dcbc390	0.0994941
114	0xbccbe169	-0.024887757
115	0xbc9524c0	-0.018206
116	0xbd4e73f8	-0.050403565
117	0x3a6aa30d	0.0008950688
118	0xbce88dcd	-0.028387928
119	0xbc4e7ddb	-0.0126032485
120	0xbd5064c5	-0.05087735
121	0xbdbb64aa	-0.091500595
122	0x3dd86a90	0.105672
123	0x3d179f01	0.037016872
124	0x3dd81684	0.105511695
125	0xbd9381d2	-0.07202496
126	0x3b3ba6e2	0.0028633405
127	0x3d37da41	0.044885878
128	0xbc7161f2	-0.014732825
129	0xbd06a50d	-0.03287225
130	0xbd7fe47f	-0.06247377
131	0xbd4ccc76	-0.049999677
132	0x3c3a1600	0.011357784
133	0xbdbf7a3b	-0.093494855
134	0xbda4319d	-0.080172755
135	0xbce9bdfa	-0.02853297
136	0x3d511ed4	0.05105479
137	0xbd70a2a9	-0.058748875
138	0x3d86c418	0.06580371
139	0xbc3eaf22	-0.011638435
140	0x3cff08b1	0.031132074
141	0x3d8a7c8a	0.06762035
142	0xbc3c0137	-0.011474899
143	0x3d962558	0.073313415
144	0xbce737ce	-0.028224852
145	0x3d268f2f	0.040663894
146	0x3cc4771f	0.023982583
147	0x3b2eba2d	0.0026661262
148	0xbd3e215b	-0.04641853
149	0x3cf5a976	0.029988032
150	0x3d78c64e	0.060735993
151	0x3d849832	0.064743415
152	0xbcc13c8a	-0.023588438
153	0xbd293ff0	-0.04132074
154	0xbd9200ae	-0.07129036
155	0x3a6ff3c1	0.00091534486
156	0x3cf47726	0.02984197
157	0xbdd66837	-0.10469096
158	0xbda30446	-0.079597995
159	0xbd95523a	-0.07291074
160	0xbda46779	-0.08027548
161	0x3d45b75a	0.04827056
162	0xbce63783	-0.028102642
163	0xbd949e55	-0.07256762
164	0xbba32f8a	-0.0049800323
165	0xbd875dd3	-0.066096924
166	0xbd33fe8e	-0.043943934
167	0xbd1df372	-0.038562246
168	0x3c07b849	0.008283683
169	0xbce6a44d	-0.028154517
170	0x3d484cd6	0.0489014
171	0x3d20cd87	0.039258506
172	0x3cdd5165	0.027016351
173	0x3d65324a	0.055956163
174	0x3d6a290e	0.05716806
175	0xbd53f44d	-0.051746655
176	0x3cd12207	0.02552892
177	0xbd485946	-0.048913263
178	0xbd2f4fdc	-0.04280077
179	0xbd7cb41a	-0.061695196
180	0xbdb15a94	-0.086598545
181	0x3d00a7cd	0.031410027
182	0x3d994f40	0.07485819
183	0x3d38c3c6	0.04510858
184	0xbd7754d0	-0.060383618
185	0x3d873fbb	0.066039525
186	0x3c73383d	0.014844951
187	0xbdd54087	-0.10412698
188	0x3d20bfbc	0.039245352
189	0xbd7aa9bc	-0.061197028
190	0xbd329358	-0.04359755
191	0xbd8167c6	-0.06318621
192	0x3d5e34b6	0.054249488
193	0x3c649cc0	0.013953388
194	0x3baad8fc	0.005213855
195	0xbdbbc553	-0.09168496
196	0x3dc05b13	0.09392371
197	0xbc30fa31	-0.010801838
198	0x3d91f72f	0.07127225
199	0xbc7cfa36	-0.015440514
200	0xbd38ca69	-0.04511491
201	0xbca8cbed	-0.020605052
202	0x3c2e34f6	0.010632744
203	0x3db505c7	0.088389926
204	0xbd489998	-0.048974603
205	0xbc956479	-0.018236386
206	0xbd14e4f6	-0.036351167
207	0xbc06d79b	-0.008230115
208	0xbc477ca0	-0.012175709
209	0x3d2bdd0e	0.04195886
210	0x3cb3b711	0.021937879
211	0x3d28dd2b	0.041226547
212	0xbcb33166	-0.021874141
213	0xbd8c4b56	-0.06850307
214	0x3d0ecb27	0.03486171
215	0x3d9d12b5	0.07669584
216	0xbd748747	-0.059699323
217	0xbbb8d451	-0.0056405445
218	0xbc0116bf	-0.007878958
219	0x3d3f7aab	0.046747845
220	0x3d3b13d9	0.045673225
221	0xbd756c21	-0.059917573
222	0x3cfeeae9	0.031117873
223	0xbd6eb9c1	-0.058282617
224	0xbdc32f1d	-0.095304705
225	0x3c2a979c	0.010412123
226	0x3d9b6312	0.075872555
227	0xbd57bae6	-0.052668475
228	0xbd04be0a	-0.032407798
229	0xbce551c3	-0.027993089
230	0x3cf0c48a	0.029390592
231	0x3d21d1ba	0.03950665
232	0x3c6547f8	0.0139942095
233	0x3d33125c	0.04371868
234	0x3d0cec26	0.034404896
235	0xbd2dabbf	-0.042400118
236	0xbd33ad1f	-0.043866273
237	0x3c8e4561	0.017367067
238	0x3d9cf28e	0.07663451
239	0x3d6c7356	0.05772718
240	0xbd96188a	-0.07328899
241	0xbc511a67	-0.012762642
242	0xbdabd024	-0.08389309
243	0xbc9bb510	-0.019007236
244	0xbd8cd96e	-0.06877409
245	0xbdb7ead8	-0.0898034
246	0xbde8f5dc	-0.11375019
247	0x3d91b29a	0.07114144
248	0x3bafac49	0.005361114
249	0xbb5e5842	-0.0033927117
250	0x3d1d06b8	0.038336486
251	0xbdab1d4b	-0.083551966
252	0x3d414ee9	0.047194395
253	0x3c2f2d74	0.010691989
254	0xbdb3ac38	-0.087730825
255	0x3d93dadd	0.07219479

rnn.gru.weight_hh_l0 f4 [384, 128]
0	0xbd19337e	-0.037402622
1	0xbc3e097a	-0.011598939
2	0xbaa7ff55	-0.0012817184
3	0xbd1554e2	-0.036457904
4	0x3d77bf6e	0.060485296
5	0x3d52b09b	0.051437955
6	0xbdb5e958	-0.088823974
7	0x3c470f0b	0.012149583
8	0x3d5f248b	0.05447821
9	0xbd85a2ac	-0.06525168
10	0x3c9b1e0e	0.01893523
11	0xbdbccf71	-0.09219254
12	0xbcde81d4	-0.027161516
13	0x3cad366c	0.021144114
14	0xbd92918c	-0.07156667
15	0xbd932cc0	-0.0718627
16	0xbd8b5bfe	-0.068046555
17	0xbd15b607	-0.036550548
18	0x3d98e7af	0.07466065
19	0xbdb77b3e	-0.089590535
20	0xbd7f5601	-0.06233788
21	0x3d8af46a	0.067848995
22	0x3d883254	0.06650224
23	0x3cbc2888	0.022968546
24	0xbd884704	-0.0665417
25	0xbbe8ac2f	-0.007100604
26	0x3d22aed5	0.039717514
27	0x3d9a2b8f	0.075278394
28	0xbc334327	-0.010941303
29	0x3d293f1e	0.04131996
30	0x3d887059	0.066620536
31	0x3da39e7e	0.07989214
32	0x3ca12e25	0.019675324
33	0x3d25f0df	0.040512916
34	0xbce2f1e9	-0.027703242
35	0x3d56c530	0.052434146
36	0x3d5c28e6	0.05374994
37	0xbc0d72d8	-0.008633338
38	0x3d610e20	0.05494511
39	0x3d2a2060	0.04153478
40	0xbd954e69	-0.07290346
41	0x3cf43024	0.029808111
42	0x3dc04c6b	0.093895756
43	0x3dd2a640	0.10285616
44	0x3d8859ec	0.06657776
45	0xbcc905bf	-0.024538873
46	0x3d98d847	0.07463127
47	0xbd5df75e	-0.054190986
48	0xbd2e9cc4	-0.042629972
49	0xbd7f19a3	-0.06228031
50	0xbd7cd781	-0.061728958
51	0xbd24be97	-0.040220823
52	0x3d4f614e	0.050629906
53	0x3dbc084e	0.091812715
54	0x3cb92555	0.02260081
55	0x3ccb6fd8	0.024833605
56	0xbc127de5	-0.008941148
57	0xbd9a4236	-0.0753216
58	0xbd876bd2	-0.06612362
59	0x3b239df0	0.0024965964
60	0x3d692942	0.056924112
61	0xba0c5ea5	-0.00053546793
62	0xbd966c2d	-0.07344852
63	0xbd2a1456	-0.0415233
64	0x3d44ca10	0.048044264
65	0xbda1a287	-0.07892328
66	0x3d689881	0.056786064
67	0xbd85c6e1	-0.06532074
68	0x3daaec97	0.08345907
69	0x3c16e065	0.009208773
70	0x3d8dd4d9	0.06925363
71	0xbce1cd05	-0.027563581
72	0x3cbfb3ce	0.023401167
73	0x3cf57487	0.029962791
74	0x3cfda41a	0.030962039
75	0x3c582d06	0.013194328
76	0xbd2f0e49	-0.042738233
77	0xbc98fa44	-0.018674023
78	0xbc3cc1dc	-0.011520829
79	0x3cfe78e5	0.031063506
80	0x3d2b672d	0.041846443
81	0xbd31e582	-0.043431766
82	0xbc34e8cd	-0.011041832
83	0xbd8a1e7f	-0.06744098
84	0x3d375514	0.04475887
85	0xbd350443	-0.044193517
86	0xbd4c1adc	-0.049830303
87	0xbd2dc095	-0.04241999
88	0x3a7eae73	0.0009715326
89	0xbdb55400	-0.08853912
90	0x3dc0e7b0	0.09419191
91	0x3da60a90	0.081074834
92	0x3c848a68	0.016179278
93	0x3d682390	0.05667454
94	0x3d96736b	0.07346233
95	0xbcfd56e8	-0.03092523
96	0x3c995a8d	0.018719936
97	0x3d2183b3	0.03943224
98	0x3d35904c	0.044327065
99	0xbcf42f4d	-0.029807711
100	0x3d1a185b	0.037620883
101	0x3c9bb98a	0.01900937
102	0x3d33b22e	0.043871097
103	0xbd9b74cd	-0.07590637
104	0x3d3c6c3f	0.04600167
105	0x3cedeeb9	0.029044496
106	0xbdabda9a	-0.08391304
107	0xbc554c54	-0.013018686
108	0xbd450bac	-0.048106834
109	0xbd32edc3	-0.04368378
110	0x3cd73da7	0.026274515
111	0x3d837bde	0.0642011
112	0x3ca48521	0.020083012
113	0xbcffadbc	-0.031210773
114	0x3d6887e7	0.05677023
115	0x3d2d6c0d	0.042339373
116	0x3c2b595c	0.010458317
117	0xbc2d87f6	-0.010591498
118	0x3d3dd8d9	0.04634938
119	0x3d836a1a	0.06416722
120	0xbd9b565a	-0.0758483
121	0x3d827921	0.0637076
122	0xbd3b6af0	-0.04575628
123	0x3bd91d11	0.0066257794
124	0xbcbcd7a2	-0.02305204
125	0xbd60216e	-0.05471938
126	0x3dcd3c03	0.10021212
127	0xbd494fa3	-0.049148213
128	0x3b5d3146	0.0033751293
129	0xbd676037	-0.056488242
130	0x3b1a3494	0.0023529874
131	0xbd890e6c	-0.06692204
132	0x3c95fa33	0.01830778
133	0xbcbdbcf4	-0.023161389
134	0xbc8212ff	-0.015878199
135	0x3d58010e	0.05273538
136	0x3d0695ef	0.03285783
137	0xbdaa002e	-0.083008155
138	0xbdc031cb	-0.09384497
139	0x3da8c049	0.082398005
140	0xbc93ea09	-0.018055933
141	0x3d91730d	0.07102022
142	0x3c41d9bd	0.011831698
143	0xbceeb1b4	-0.02913747
144	0xbd51673d	-0.051123846
145	0xbca62083	-0.020279175
146	0x3da244af	0.079232566
147	0xbb73f69b	-0.0037225846
148	0x3d9c131d	0.07620833
149	0x3c5f0b48	0.0136135295
150	0x3d7826c5	0.06058385
151	0x3d44081a	0.04785929
152	0xbd9d8d53	-0.07692971
153	0xbd8a8d4f	-0.06765234
154	0xbd962af1	-0.07332409
155	0xbd438b6e	-0.047740392
156	0xbd65cc5e	-0.056103103
157	0x3c8f314f	0.017479567
158	0x3dc051d1	0.09390605
159	0x3db9c673	0.09071054
160	0xbc4da87b	-0.012552376
161	0xbc6b39bb	-0.014357026
162	0x3c71615d	0.014732686
163	0xbc804b9b	-0.015661051
164	0xbd3a7335	-0.045520026
165	0xbc5d1cc0	-0.013495624
166	0xbd736a49	-0.059427533
167	0x3dafbb95	0.085807
168	0x3d227a6c	0.03966753
169	0x3d5df236	0.05418607
170	0x3d6af78a	0.057364978
171	0x3a526501	0.0008025915
172	0x3d525e96	0.051359735
173	0x3d3075bf	0.04308104
174	0xbd2355c1	-0.039876703
175	0x3d314237	0.043276038
176	0x3d18a311	0.037264887
177	0xbc5b2edf	-0.013377874
178	0x3b176d99	0.0023106097
179	0x3d427037	0.047470298
180	0x3d2a0712	0.04151065
181	0xbd456e80	-0.048201084
182	0xbd29dc13	-0.041469645
183	0x3c4483cb	0.0119943125
184	0x3da80d22	0.0820563
185	0x3ced2527	0.02894838
186	0xb95dbaa2	-0.00021145729
187	0x3d9b8e4a	0.07595499
188	0xbcd01397	-0.025399966
189	0x3d11c7e6	0.03559103
190	0x3dbfb21d	0.09360144
191	0xbd656397	-0.05600318
192	0x3dc3149b	0.095254146
193	0xbcafa771	-0.021442147
194	0x3d33800d	0.04382329
195	0x3d659e46	0.056059144
196	0x3d0b82d1	0.034060303
197	0xbd3561fb	-0.044282895
198	0x3ddf1c91	0.108941205
199	0x3c4d01b8	0.012512617
200	0x3d83d97e	0.06437968
201	0x3d49babc	0.04925035
202	0xbb177c75	-0.0023114954
203	0xbd10e710	-0.03537661
204	0xbce828b3	-0.02833972
205	0xbcf2ebdb	-0.02965348
206	0x3bb80821	0.0056162034
207	0xbd578140	-0.052613497
208	0xbd96c9e4	-0.07362726
209	0xbd307e35	-0.04308911
210	0x3da7d79c	0.08195421
211	0x3d92078a	0.07130344
212	0x3d9c064b	0.07618388
213	0x3d97c897	0.07411306
214	0x3cdea894	0.027179994
215	0xbd250612	-0.040288992
216	0xbd41e43a	-0.047336794
217	0xbd311ee9	-0.04324237
218	0x3be5906c	0.007005742
219	0x3d21fca8	0.039547592
220	0x3c34d0cc	0.011036109
221	0x3be2bb52	0.006919303
222	0xbcbdda0f	-0.023175268
223	0x3d424113	0.04742534
224	0x3c1db7bc	0.009626325
225	0x3d99dbac	0.07512602
226	0xbd18f868	-0.037346274
227	0xbd4003c4	-0.04687859
228	0xbd989e43	-0.07452061
229	0xbd328c48	-0.043590814
230	0x3ce936d4	0.028468527
231	0xbdba54ba	-0.090981916
232	0x3d0e8277	0.03479239
233	0xbd5720f2	-0.052521653
234	0xbda1d243	-0.07901432
235	0x3d36d21e	0.044633977
236	0xbd6bcd06	-0.057568572
237	0xbd7b2ba7	-0.061320927
238	0xbce3a053	-0.02778641
239	0x3d95299c	0.07283327
240	0xbd941991	-0.07231439
241	0x3dafa0ff	0.085756294
242	0x3d9bbf8f	0.07604896
243	0x3d287263	0.041124713
244	0x3b603cac	0.003421585
245	0xbd7ec0b6	-0.062195502
246	0xbd903fdb	-0.070434295
247	0xbb4a5509	-0.0030873439
248	0xbaa8654e	-0.0012847574
249	0x3c09ba11	0.008406178
250	0x3cdc5fbb	0.026901117
251	0x3d47a7cc	0.048744008
252	0xbd7566e5	-0.05991258
253	0x3d93be1f	0.07213997
254	0x3d157d29	0.036496315
255	0xbcadba56	-0.021207016
