scripts/results/MAPPOTraining2v1/2v1/NoWeapon/MAPPOTraining/mappo/v1_2v1_mappo_training/wandb/offline-run-20250807_165042-zjjd28i2/files/critic_episode_9800.pt (torch, 640990 bytes, 23 tensors)

base.mlp.fc.0.weight f4 [128, 63]
-0.12753178 0.12809467 -0.057276126 0.040773362 -0.12762986 0.016466744 0.042582303 -0.005336605
-0.052584562 -0.14279912 -0.005819289 -0.015156871 0.061322633 -0.1182957 0.06944732 0.11999089
0.11809215 -0.035459235 0.06844635 0.0041106986 -0.028194614 -0.15027858 -0.022646582 0.009026228
0.08326041 0.065202534 -0.111582026 -0.041538246 -0.07793702 -0.10739711 0.017381256 -0.08267719
0.02087161 0.022879632 -0.11830506 0.12904936 0.04829969 -0.21011932 0.052988183 -0.06119189
0.08043446 -0.058239285 -0.08703046 0.12402484 -0.09339457 0.1113495 -0.095638275 0.056401655
0.11334603 -0.015874615 -0.030945836 -0.044941135 -0.01567024 -0.09975933 -0.15863885 0.037496593
0.13697474 -0.15606408 0.060459398 -0.074229725 -0.036601767 -0.034389507 -0.07361227 0.0002762017
-0.11033171 0.01602057 0.2568856 -0.17395566 -0.18700932 0.19944525 0.11296921 -0.02390791
0.054897845 0.03070548 -0.01715112 -0.030295165 -0.05867375 0.041285664 -0.0928835 0.09657724
-0.06231113 0.00057897874 -0.0019271274 0.05415549 -0.15133463 0.25727218 0.009521064 -0.01910803
-0.15575403 -0.15524948 0.04663468 -0.058895238 0.01852462 0.030888543 0.12381553 0.037917938
0.06264815 0.11205427 -0.07341259 -0.0077339476 0.1510971 -0.0063389875 0.02546496 -0.018893298
0.030119583 0.032499563 0.08204835 -0.3358728 -0.010249719 0.028141802 -0.04569118 0.047433052
0.15561238 0.043807123 -0.030630654 -0.048627872 -0.120060526 0.032488264 -0.07094316 0.08123502
0.020032143 -0.06847321 -0.14287978 -0.10062727 -0.03067044 -0.03915309 -0.09632432 -0.035533953
0.086407416 -0.07616632 0.042891398 -0.09813527 -0.04381966 -0.015919765 -0.0144451745 0.041388433
-0.10266229 0.027998943 -0.08291659 0.08442726 -0.016804263 -0.03796545 -0.03615048 0.01473534
0.028950019 0.122350365 0.06457706 -0.019114088 0.065987915 0.11694105 0.115872495 0.047823533
0.06741222 -0.03817923 0.10838089 0.08772616 0.12598623 0.06364587 -0.110791266 -0.06818003
0.011639903 -0.07577009 -0.0085550845 0.055287324 -0.07443884 -0.021926718 -0.101334 0.020828472
0.049857415 -0.015025207 -0.034434147 0.10267669 -0.059750672 0.06052322 -0.122001946 -0.08808006
0.026488487 0.08743482 -0.09976658 -0.11183361 0.06864257 -0.088819824 0.09760615 0.019585699
0.021775043 0.05398766 -0.102394246 -0.09621956 0.11874705 -0.11705135 0.010587355 -0.009774565
-0.017154928 -0.089190006 -0.062610805 -0.008566621 0.12539877 0.15753023 -0.043347597 0.1830829
-0.080630824 0.10702315 -0.09787041 0.0037461203 -0.18099406 -0.39850026 0.012700752 -0.092906654
-0.03490933 0.048560664 0.043850854 -0.05241916 0.05996704 -0.005062051 -0.02504682 0.075897224
-0.1252566 0.16040225 -0.025361527 0.17781737 -0.12873119 -0.09641942 0.15490824 -0.009663281
0.08051479 -0.08093363 -0.8287187 -0.052664306 0.11490878 -0.0036976447 -0.061431292 -0.0084319655
0.08397147 -0.1284934 -0.09143476 -0.03244386 -0.0029827247 0.1549319 0.050029457 0.09972518
0.31156737 0.3865752 0.057342626 0.048870314 -0.05456663 -0.13285047 0.14010477 0.8030911
-0.02232276 -0.067652576 0.11210808 0.09419485 -0.14954488 -0.11429482 -0.06630444 -0.27348742
00000000: b197 02be 402b 033e 5f9a 6abd f801 273d
00000010: 67b1 02be 44e5 863c c86a 2e3d b0de aebb
00000020: e962 57bd ef39 12be bcaf bebb 8654 78bc
00000030: 712d 7b3d 0445 f2bd 663a 8e3d c9bd f53d
00000040: 4cda f13d b43d 11bd 9a2d 8c3d 0ab3 863b
00000050: 64f8 e6bc a1e2 19be 5385 b9bc bfe2 133c
00000060: 6f84 aa3d e888 853d 1e85 e4bd 0224 2abd
00000070: 729d 9fbd 04f3 dbbd 2363 8e3c a952 a9bd
00000080: f0fa aa3c 116e bb3c ec49 f2bd 8425 043e
00000090: e5d5 453d 8529 57be 230a 593d 59a4 7abd
000000a0: d2ba a43d 518c 6ebd 073d b2bd bc00 fe3d
000000b0: a745 bfbd 350b e43d 00de c3bd 6c05 673d
000000c0: f721 e83d 7b0b 82bc 1f82 fdbc 3214 38bd
000000d0: e05e 80bc 9f4e ccbd 3972 22be 0796 193d
000000e0: 1b43 0c3e 43cf 1fbe 46a4 773d c105 98bd
000000f0: bceb 15bd 03dc 0cbd 08c2 96bd 2acf 9039
00000100: 97f5 e1bd 923d 833c 8286 833e 6f21 32be
00000110: 5f7f 3fbe 603b 4c3e 675c e73d 85da c3bc
00000120: 90dc 603d 0f8a fb3c 8180 8cbc 912d f8bc
00000130: e353 70bd 281b 293d b439 bebd 4aca c53d
00000140: f539 7fbd 9bc6 173a aa97 fcba 26d2 5d3d
00000150: 77f7 1abe 2eb9 833e 3dfe 1b3c 7188 9cbc
00000160: fc7d 1fbe b8f9 1ebe 0204 3f3d 223c 71bd
00000170: f2c0 973c f809 fd3c ff92 fd3d d74f 1b3d
00000180: ac4d 803d b67c e53d 5759 96bd 0e6d fdbb
00000190: 33b9 1a3e 48b7 cfbb e49b d03c 1ec6 9abc
000001a0: 58bd f63c 431e 053d f708 a83d 85f7 abbe
000001b0: 70ee 27bc a389 e63c ad26 3bbd 2949 423d
000001c0: da58 1f3e 196f 333d 23ed fabc 052e 47bd
000001d0: 4be2 f5bd 6a12 053d a64a 91bd 8c5e a63d
000001e0: 731a a43c af3b 8cbd 144f 12be ac15 cebd
000001f0: 9340 fbbc fe5e 20bd af45 c5bd 0d8c 11bd
00000200: 5ff6 b03d 16fd 9bbd e4ae 2f3d 25fb c8bd
00000210: 3e7c 33bd 2b6a 82bc 74ab 6cbc eb86 293d
00000220: 9b40 d2bd 0a5e e53c 2cd0 a9bd 33e8 ac3d
00000230: 18a9 89bc a981 1bbd 8712 14bd 7f6c 713c
00000240: 9728 ed3c d492 fa3d fa40 843d 2695 9cbc
00000250: ac24 873d ca7e ef3d 8f4e ed3d 9ce2 433d
00000260: 6b0f 8a3d d361 1cbd cdf6 dd3d c6a9 b33d
00000270: 8902 013e c458 823d 88e6 e2bd f9a1 8bbd
00000280: 4bb5 3e3c 592d 9bbd a02a 0cbc f674 623d
00000290: 6473 98bd a99f b3bc 3388 cfbd 79a0 aa3c
000002a0: 4a37 4c3d 492c 76bc d20a 0dbd 2848 d23d
000002b0: 1fbd 74bd 32e7 773d 28dc f9bd 5263 b4bd
000002c0: 62fe d83c 0711 b33d 6c52 ccbd 0509 e5bd
000002d0: 7a94 8c3d 2be7 b5bd bce5 c73d 3072 a03c
000002e0: 9361 b23c 2a22 5d3d 13b4 d1bd c30e c5bd
000002f0: a731 f33d 9eb8 efbd 9676 2d3c 7f25 20bc
00000300: 7e88 8cbc 40a9 b6bd 183a 80bd 035b 0cbc
00000310: 8968 003e 9b4f 213e 408d 31bd 157a 3b3e
00000320: c621 a5bd f42e db3d 4870 c8bd 7881 753b
00000330: 8256 39be 3a08 ccbe d116 503c d845 bebd
00000340: 16fd 0ebd 8ce7 463d f49c 333d 79b5 56bd
00000350: 00a0 753d 90df a5bb fd2e cdbc 0170 9b3d
00000360: 4443 00be 7d40 243e fac2 cfbc c215 363e
00000370: 1cd2 03be 8b77 c5bd 44a0 1e3e bd52 1ebc
00000380: f0e4 a43d 88c0 a5bd e926 54bf 87b6 57bd
00000390: 4b55 eb3d 2f54 72bb 619f 7bbd 3a26 0abc
000003a0: 3cf9 ab3d c693 03be 2642 bbbd dae3 04bd
000003b0: d179 43bb 78a6 1e3e b0eb 4c3d b73c cc3d
000003c0: c285 9f3e 2fed c53e 1ae0 6a3d 3d2c 483d
000003d0: 4281 5fbd f409 08be a077 0f3e 6197 4d3f
000003e0: 39de b6bc 6f8d 8abd ec98 e53d 3be9 c03d
000003f0: 4b22 19be 6713 eabd 9fca 87bd 8b06 8cbe

base.mlp.fc.0.bias f4 [128]
0.010729502 0.059886437 -0.011651137 0.074260324 0.06171744 0.07619984 -0.16540976 -0.028959677
0.06794655 0.021847766 -0.051495437 0.09428198 0.11796788 -0.016521398 -0.14271079 -0.0110599045
-0.019554636 0.04666006 0.038799103 -0.11218795 -0.025814338 -0.12812501 0.0100507485 -0.033549964
0.0060890983 0.07756387 0.006429212 0.048927538 0.010182905 -0.027164703 -0.034860816 0.021740118
-0.06319356 -0.0725453 -0.04048166 -0.12556936 0.008857715 0.09034892 -0.107085325 -0.10441394
-0.090447545 0.027896047 0.046452783 -0.12973726 -0.13757944 0.045582954 -0.07082738 -0.081124865
0.06030212 -0.00084890815 -0.0062605995 -0.105433986 -0.01861897 -0.0946538 -0.065182835 0.080030575
0.029531704 -0.0037396979 0.097796924 -0.12519027 0.049737427 0.009618044 0.15808737 -0.052867677
0.04022226 -0.11882392 0.121823296 0.01987952 -0.007933632 0.0757932 0.04821123 -0.058114007
-0.010174632 -0.045529 -0.02073226 -0.05087511 -0.05966789 -0.048621 -0.07451825 -0.052298013
-0.05869587 -0.15194836 0.021205999 -0.110865325 -0.04566363 -0.09693942 0.115961015 0.027400456
0.015105684 -0.106770836 0.10299035 0.024175182 -0.15976605 -0.10588896 0.12079567 -0.043132327
0.026989909 -0.12672892 0.010370967 0.083444715 -0.081826635 -0.06225917 -0.07257815 0.10603927
-0.03140553 0.07400182 -0.12426105 -0.08480652 0.08121071 0.04200089 0.070695356 -0.029034078
0.11521845 -0.09785756 -0.12297395 -0.037972122 0.09295366 -0.0013447172 -0.11529017 0.09111071
0.013355293 0.041310262 -0.12152718 0.04110103 -0.112382576 0.1474944 0.017957263 -0.152695
00000000: cbca 2f3c 7b4b 753d 69e4 3ebc cc15 983d
00000010: 6dcb 7c3d a90e 9c3d 2d61 29be d83c edbc
00000020: 9027 8b3d 16fa b23c e1ec 52bd e916 c13d
00000030: 2599 f13d e257 87bc c722 12be 9a34 35bc
00000040: 0b31 a0bc 9e1e 3f3d cfeb 1e3d ccc2 e5bd
00000050: 9778 d3bc 3433 03be e5ab 243c b06b 09bd
00000060: 0f87 c73b ced9 9e3d 24ac d23b 3e68 483d
00000070: 33d6 263c 8388 debc 37ca 0ebd 5518 b23c
00000080: a06b 81bd a192 94bd 19d0 25bd 4195 00be
00000090: f31f 113c db08 b93d 8d4f dbbd fad6 d5bd
000000a0: 903c b9bd 4086 e43c 4645 3e3d d8d9 04be
000000b0: a0e1 0cbe 31b5 3a3d f20d 91bd cb24 a6bd
000000c0: 5bff 763d 4389 5eba b725 cdbb c6ed d7bd
000000d0: cf86 98bc dad9 c1bd 947e 85bd 12e7 a33d
000000e0: 79ec f13c b815 75bb c149 c83d e131 00be
000000f0: 79b9 4b3d 0095 1d3c a8e1 213e c78b 58bd
00000100: 19c0 243d f559 f3bd 7e7e f93d 60da a23c
00000110: 10fc 01bc 7739 9b3d 2479 453d f408 6ebd
00000120: 80b3 26bc 9e7c 3abd b3d6 a9bc 6b62 50bd
00000130: 5166 74bd d026 47bd 069d 98bd 7136 56bd
00000140: 156b 70bd 5a98 1bbe 34b8 ad3c 5c0d e3bd
00000150: c909 3bbd 2d88 c6bd f87c ed3d ec76 e03c
00000160: d57d 773c abaa dabd 9bec d23d 080b c63c
00000170: b699 23be 50dc d8bd b863 f73d 86ab 30bd
00000180: f119 dd3c 3ac5 01be fdea 293c 10e5 aa3d
00000190: b994 a7bd 7903 7fbd daa3 94bd 1e2b d93d
000001a0: 16a3 00bd 448e 973d 947c febd 0aaf adbd
000001b0: cd51 a63d 2009 2c3d bac8 903d e0d8 edbc
000001c0: a7f7 eb3d 8b69 c8bd c4d9 fbbd a888 1bbd
000001d0: 7d5e be3d 3941 b0ba 411d ecbd 4098 ba3d
000001e0: 29d0 5a3c f334 293d 3ee3 f8bd 8e59 283d
000001f0: d628 e6bd c608 173e 1c1b 933c 145c 1cbe

base.mlp.fc.2.weight f4 [128]
0.8239992 0.70057327 0.8150184 1.0554125 0.94438034 0.81450087 0.78210926 0.8287971
0.7858426 0.7957938 1.1468652 0.92129344 0.7016058 0.90202034 0.961124 1.0609785
0.98352265 1.0795882 0.9012776 0.8804038 0.8273801 0.80159515 1.0410362 0.8807364
0.82480705 0.8985551 1.0849134 0.73614025 0.8807784 0.7910916 0.80865264 0.725388
0.8068632 0.7186435 0.828461 0.9318061 0.8671989 0.8975078 1.0103272 0.7411673
0.9052605 0.90339035 1.1175383 1.029837 1.1421483 0.8627084 1.1122915 1.0209764
0.7440994 0.65864724 1.0361761 0.93143827 0.81635386 1.0464064 0.70743614 0.7931999
0.7681591 0.6874031 1.0779461 1.0766331 1.0224798 0.93442905 0.87960446 1.0089793
0.8858222 0.8967536 0.8273368 0.6458197 1.1178597 0.881559 0.9323667 0.6615325
0.9068087 1.0736122 0.8699879 0.91416395 0.76222754 0.77159435 0.908749 0.82297796
0.8081393 0.96243596 1.0417769 0.86862004 0.7575511 0.9251703 1.0960349 0.8029056
0.84304684 0.95668423 1.1803012 1.011084 0.78498703 0.9118409 1.0694209 0.793665
0.85640484 0.988501 1.2296274 0.8253272 0.82931346 0.88448864 0.8460547 0.73282355
0.9841431 0.85758364 0.8767286 0.8684818 0.9490002 0.74402595 0.8681072 0.9384772
0.86906606 0.9440704 0.8535678 1.08011 1.0288961 0.6577702 0.7512097 1.0796087
0.84586453 0.80756533 1.123959 0.8491424 0.948641 0.92804945 0.8799148 0.99888986
00000000: 9df1 523f c558 333f 0ca5 503f c217 873f
00000010: e9c2 713f 2183 503f 5038 483f 0c2c 543f
00000020: fb2c 493f 24b9 4b3f 7bcc 923f e3d9 6b3f
00000030: 709c 333f ceea 663f 390c 763f 25ce 873f
00000040: 24c8 7b3f f22f 8a3f 21ba 663f 2562 613f
00000050: 2fcf 533f 5735 4d3f ad40 853f f177 613f
00000060: 8e26 533f b507 663f 71de 8a3f b073 3c3f
00000070: b17a 613f fb84 4a3f dc03 4f3f 07b3 393f
00000080: 968e 4e3f 05f9 373f 0516 543f d88a 6e3f
00000090: bf00 5e3f 12c3 653f 6752 813f 24bd 3d3f
000000a0: 27bf 673f 9744 673f 7f0b 8f3f b3d1 833f
000000b0: ea31 923f 75da 5c3f 915f 8e3f 5baf 823f
000000c0: 4c7d 3e3f 1b9d 283f 6ba1 843f bd72 6e3f
000000d0: 91fc 503f a5f0 853f 891a 353f 260f 4b3f
000000e0: 13a6 443f a6f9 2f3f 23fa 893f 1dcf 893f
000000f0: 9ee0 823f be36 6f3f c22d 613f 3c26 813f
00000100: 3ec5 623f a591 653f 58cc 533f 7154 253f
00000110: 0716 8f3f daad 613f 96af 6e3f 325a 293f
00000120: 9d24 683f 206c 893f 87b7 5e3f a606 6a3f
00000130: 5821 433f 3587 453f c6a3 683f afae 523f
00000140: 38e2 4e3f 3462 763f f258 853f e25d 5e3f
00000150: deee 413f f6d7 6c3f df4a 8c3f 398b 4d3f
00000160: ebd1 573f 42e9 743f 1c14 973f 336b 813f
00000170: e9f4 483f 686e 693f c9e2 883f a12d 4b3f
00000180: 593d 5b3f 670e 7d3f 6e64 9d3f a548 533f
00000190: e34d 543f d96d 623f 0a97 583f 539a 3b3f
000001a0: cdf0 7b3f 9a8a 5b3f 4971 603f d354 5e3f
000001b0: adf1 723f 7c78 3e3f 463c 5e3f 0b40 703f
000001c0: 1d7b 5e3f 99ae 713f 6b83 5a3f 0b41 8a3f
000001d0: deb2 833f a163 283f 474f 403f 9e30 8a3f
000001e0: 948a 583f 9abc 4e3f e3dd 8f3f 6561 593f
000001f0: 23da 723f a694 6d3f 1942 613f 3fb7 7f3f

base.mlp.fc.2.bias f4 [128]
0.11570464 0.23625581 0.19439654 -0.0008775053 0.005297522 0.12901445 0.14163785 0.17940319
0.19135551 0.14799146 -0.006283766 0.08747243 0.23116499 0.104345255 0.025260456 -0.02010587
0.021991262 0.0057782275 0.11392612 0.12566866 0.08639478 0.14432675 0.01210387 0.12670718
0.1021024 0.027237985 -0.024616968 0.24986124 0.12979068 0.11819429 0.118115894 0.27309397
0.14387669 0.09826818 0.032944832 -0.03347657 0.13742533 0.02755977 0.016937312 0.22277696
0.0994759 0.0014435262 0.022962917 -0.02667884 -0.024089288 0.018816859 -0.0037701852 0.017929425
0.056752127 0.25713065 0.016195856 0.072856314 0.14151956 0.025103142 0.17176121 0.17149301
0.21760339 0.19817376 0.003204925 -0.060576424 -0.04132741 -0.032979954 0.13338766 0.0074506537
0.11562629 -0.008718597 0.1046858 0.23701786 0.02816276 0.083604984 0.039662562 0.2710013
0.057500746 -0.0005527441 0.13168542 -0.0017368521 0.24384272 0.17138577 0.10552611 0.09744806
0.20384015 0.018083774 -0.021498183 0.11186821 0.1612328 0.08850576 -0.0081944205 0.20402579
0.16318277 -0.016829511 -0.02198937 -0.054011993 0.15004325 0.10007035 -0.01124702 0.16203691
0.1013903 -0.053244516 0.021321282 0.18662417 0.17627716 0.12640968 0.17118812 0.23192629
-0.01765014 0.18392226 0.1359387 0.14218616 0.083200954 0.25515398 0.06900707 -0.025977416
0.14078377 0.06794202 0.15992999 -0.021051537 0.017417045 0.27770808 0.18476054 -0.0335066
0.11167663 0.11716584 0.007500962 0.16850495 0.065009154 0.15327011 0.051391564 0.011637215
00000000: 8ef6 ec3d 0bed 713e e30f 473e 6208 66ba
00000010: d696 ad3b 5d1c 043e 8309 113e 78b5 373e
00000020: b3f2 433e 138b 173e 0de8 cdbb bf24 b33d
00000030: 84b6 6c3e f7b2 d53d 04ef ce3c 11b5 a4bc
00000040: 0527 b43c 4957 bd3b 1952 e93d 49af 003e
00000050: bfef b03d 64ca 133e 4f4f 463c 87bf 013e
00000060: 101b d13d 3222 df3c 86a9 c9bc a0db 7f3e
00000070: d9e7 043e d90f f23d bfe6 f13d f9d2 8b3e
00000080: 6954 133e d440 c93d 29f1 063d ba1e 09bd
00000090: 3ab9 0c3e 07c5 e13c 1ec0 8a3c a51f 643e
000000a0: 05ba cb3d b434 bd3a ba1c bc3c 958d dabc
000000b0: e656 c5bc d025 9a3c 3615 77bb bbe0 923c
000000c0: eb74 683d a1a6 833e 2cad 843c b135 953d
000000d0: 81ea 103e 1ba5 cd3c 2ce2 2f3e dd9b 2f3e
000000e0: 6cd3 5e3e 10ee 4a3e b809 523b fc1e 78bd
000000f0: ee46 29bd fd15 07bd c696 083e 9d24 f43b
00000100: 7acd ec3d 72d8 0ebc 8265 d63d cfb4 723e
00000110: 97b5 e63c 1739 ab3d 3675 223d afc0 8a3e
00000120: e785 6b3d 07e6 10ba 8bd8 063e 16a7 e3ba
00000130: e8b1 793e c07f 2f3e 131e d83d d992 c73d
00000140: 79bb 503e 6c24 943c f51c b0bc 291b e53d
00000150: 361a 253e 8242 b53d e441 06bc 23ec 503e
00000160: 6219 273e 0bde 89bc 0d23 b4bc ae3b 5dbd
00000170: f0a4 193e aff1 cc3d 6c45 38bc 01ed 253e
00000180: b8a5 cf3d ec16 5abd f8a9 ae3c 681a 3f3e
00000190: 0082 343e 8a71 013e f04b 2f3e 167e 6d3e
000001a0: 0797 90bc 1e56 3c3e 8433 0b3e 4099 113e
000001b0: 4365 aa3d 8ba3 823e 9453 8d3d 97ce d4bc
000001c0: 9f29 103e 3025 8b3d b0c4 233e 4674 acbc
000001d0: 31ae 8e3c c12f 8e3e de31 3d3e 373e 09bd
000001e0: b8b6 e43d a5f4 ef3d a1ca f53b 908c 2c3e
000001f0: 8523 853d d7f2 1c3e f67f 523d 04aa 3e3c

base.mlp.fc.3.weight f4 [128, 128]
0.06199796 -0.006780788 0.0648743 0.103063814 -0.18016447 -0.058688756 0.08151 -0.008223538
0.09526563 -0.09625576 -0.22345471 0.06483631 -0.03561517 0.015062744 -0.11632775 -0.19334011
-0.0497621 -0.21726264 -0.01778347 0.061652664 0.051973432 0.05459485 -0.03755353 -0.05983447
0.015952608 -0.012593204 -0.039146986 0.10899985 -0.036500584 -0.0288115 -0.015127085 0.04957273
0.033887394 0.021661546 -0.13354482 0.031815674 -0.013646527 -0.0029811847 0.02770326 -0.039524227
0.07069526 0.200728 -0.24626562 0.16629516 0.22305386 0.013657199 0.13658278 -0.015139902
-0.011626197 0.026318518 -0.16073106 -0.046907842 -0.023529805 -0.08882847 -0.039597817 0.08565764
0.046380203 0.03801972 -0.12548387 0.088262886 -0.054934397 -0.014743495 -0.031512614 0.14565694
0.058692247 0.05960625 -0.0024047154 -0.05616215 -0.09983003 0.068396136 -0.085312404 0.059032485
-0.041582573 -0.06179476 0.10090183 -0.063999034 0.119342774 -0.036541067 0.09999623 -0.007971989
-0.02313419 -0.018691327 -0.14829753 0.120091446 0.12802705 0.078969136 0.020014083 0.06465972
-0.019230222 0.09370907 -0.040479135 0.032176346 -0.039700527 0.004401081 0.07091337 0.05012772
-0.11622994 0.02853222 -0.18871237 0.04412815 0.018236488 0.07053292 0.102933764 0.09873424
0.029121187 0.020791689 -0.039637163 0.016845169 0.012259867 0.029605037 0.07229133 0.08605644
0.06989472 -0.054887682 -0.048746347 0.060616612 0.07585736 -0.13391058 0.02587791 0.12286493
-0.041990552 -0.13709554 -0.11091628 -0.042374417 0.044818502 0.0113353105 -0.020641813 -0.07990325
-0.07429046 -0.0036108594 -0.12514795 -0.017045854 -0.055680096 0.012413802 -0.042300142 -0.0457565
-0.01827949 0.002853378 0.072244205 0.010167917 -0.058651704 0.020179892 0.059050996 -0.07379422
0.03397416 -0.05500201 -0.08481415 -0.12794802 0.01947494 -0.03962252 -0.024576522 0.014166629
0.048718657 0.084987246 0.18276681 -0.034402948 -0.11240531 -0.0798579 0.0644808 -0.09387886
-0.043912854 -0.014978682 0.008845597 -0.09799129 0.019488288 -0.031997696 -0.05950804 -0.07957797
-0.017530875 0.004059282 -0.033399757 -0.049399354 0.025866844 0.040673945 0.03562537 -0.041211925
-0.03851443 0.07170534 0.021477843 -0.13256001 -0.12272788 0.044766735 -0.04552695 -0.012439584
-0.086565755 0.0033998466 0.04320023 0.08004228 -0.0051812073 -0.1319961 0.10082134 -0.013423017
-0.06653239 0.02915728 0.007609149 0.0061787944 -0.034938116 0.021770598 -0.04119619 -0.11386684
-0.0010866061 -0.0412103 -0.025386985 0.04839291 -0.08778631 -0.056831453 -0.040481444 -0.047972668
-0.11920907 -0.09878079 0.009588831 -0.065726794 -0.047261935 -0.037551496 0.06398506 -0.09572287
-0.06497273 -0.03647845 -0.022409651 0.106585756 -0.054719824 -0.1292328 0.22115444 -0.00080166897
-0.096455425 0.06031337 -0.09586515 -0.023069337 -0.07433072 -0.123139754 -0.093877435 0.024452444
0.020794649 0.07262971 -0.12608908 -0.079099044 0.13315722 -0.10954101 0.14151606 0.029002106
-0.09368919 -0.050779022 0.013167702 0.19250695 0.057072878 0.0065166745 -0.00074858195 0.12000663
0.024450094 0.04539052 0.005551919 -0.018298993 -0.05096752 0.007828625 -0.0903185 -0.09593568
00000000: 93f1 7d3d 5f31 debb d1dc 843d 1f13 d33d
00000010: 097d 38be 9f63 70bd b7ee a63d 05bc 06bc
00000020: a01a c33d bd21 c5bd 50d1 64be e6c8 843d
00000030: 36e1 11bd bac9 763c 3e3d eebd f3fa 45be
00000040: 58d3 4bbd 197a 5ebe a4ae 91bc 8187 7c3d
00000050: 18e2 543d d99e 5f3d bbd1 19bd fd14 75bd
00000060: 0baf 823c ba53 4ebc 9758 20bd 503b df3d
00000070: a381 15bd 1806 ecbc 98d7 77bc c60c 4b3d
00000080: 82cd 0a3d 8e73 b13c f9bf 08be 2751 023d
00000090: af95 5fbc fb5f 43bb f2f1 e23c 28e4 21bd
000000a0: adc8 903d a48b 4d3e 0e2d 7cbe 4749 2a3e
000000b0: 3b68 643e 72c2 5f3c 5bdc 0b3e 5a0d 78bc
000000c0: ce7b 3ebc ef99 d73c af96 24be 7022 40bd
000000d0: 94c1 c0bc b3eb b5bd 5231 22bd 466d af3d
000000e0: 2bf9 3d3d 91ba 1b3d d87e 00be 2cc3 b43d
000000f0: e402 61bd b38e 71bc 5f13 01bd 1827 153e
00000100: 4867 703d af25 743d 6e98 1dbb 480a 66bd
00000110: b073 ccbd 4613 8c3d 45b8 aebd 0ccc 713d
00000120: 7d52 2abd 811c 7dbd 9ea5 ce3d ed11 83bd
00000130: fc69 f43d 16ac 15bd d3ca cc3d f29c 02bc
00000140: ea83 bdbc 8e1e 99bc 4fdb 17be 81f2 f53d
00000150: 8619 033e 92ba a13d 93f4 a33c 516c 843d
00000160: b388 9dbc 8aea bf3d 73cd 25bd 58cb 033d
00000170: 059d 22bd f136 903b 073b 913d b952 4d3d
00000180: f609 eebd 67bc e93c d13d 41be b8bf 343d
00000190: b064 953c 9073 903d f0ce d23d 2d35 ca3d
000001a0: 8e8f ee3c 5553 aa3c 945a 22bd e1fe 893c
000001b0: 9cdd 483c 4386 f23c 7a0d 943d 5c3e b03d
000001c0: f724 8f3d e8d1 60bd 40aa 47bd 2049 783d
000001d0: 1b5b 9b3d db1f 09be e9fd d33c 9ca0 fb3d
000001e0: 49fe 2bbd c662 0cbe 1328 e3bd cc90 2dbd
000001f0: 9b93 373d bdb7 393c 0519 a9bc 51a4 a3bd
00000200: 9925 98bd 2ba4 6cbb c926 00be bfa3 8bbc
00000210: d010 64bd 4263 4b3c ea42 2dbd 2b6b 3bbd
00000220: debe 95bc bdff 3a3b c5f4 933d 5697 263c
00000230: c53c 70bd 4d50 a53c 75df 713d 6d21 97bd
00000240: 7d28 0b3d ca49 61bd 0bb3 adbd ce04 03be
00000250: e989 9f3c 394b 22bd b454 c9bc 261b 683c
00000260: 378d 473d cb0d ae3d 3927 3b3e 1bea 0cbd
00000270: c134 e6bd 8a8c a3bd 820e 843d 8f43 c0bd
00000280: f7dd 33bd 2569 75bc 1fed 103c a8af c8bd
00000290: e7a5 9f3c 0410 03bd b4be 73bd c6f9 a2bd
000002a0: e99c 8fbc ba03 853b 2fce 08bd fa56 4abd
000002b0: b4e6 d33c b999 263d e8eb 113d d6cd 28bd
000002c0: 4fc1 1dbd 40da 923d 4df2 af3c d0bd 07be
000002d0: c158 fbbd 535d 373d 787a 3abd 66cf 4bbc
000002e0: 6349 b1bd f6cf 5e3b b9f2 303d 35ed a33d
000002f0: 1ec7 a9bb fc29 07be 6b7b ce3d 37ec 5bbc
00000300: 2242 88bd 40db ee3c 2b56 f93b 7c77 ca3b
00000310: 451b 0fbd 4158 b23c 56bd 28bd 0533 e9bd
00000320: 736c 8eba 22cc 28bd 5ef8 cfbc a537 463d
00000330: 4fc9 b3bd 19c8 68bd dfcf 25bd fd7e 44bd
00000340: e323 f4bd 954d cabd 791a 1d3c c59b 86bd
00000350: bb95 41bd 99cf 19bd 990a 833d 5a0a c4bd
00000360: 6c10 85bd 6d6a 15bd 7294 b7bc a249 da3d
00000370: e521 60bd 9a55 04be 4f76 623e 1827 52ba
00000380: 6c8a c5bd 270b 773d f354 c4bd e8fb bcbc
00000390: b43a 98bd b230 fcbd d042 c0bd 7e50 c83c
000003a0: 8a59 aa3c e3be 943d 7f1d 01be aefe a1bd
000003b0: 5e5a 083e 0957 e0bd 96e9 103e d395 ed3c
000003c0: 1ee0 bfbd aafd 4fbd 58bd 573c 8b20 453e
000003d0: 40c5 693d d489 d53b 7c3c 44ba 09c6 f53d
000003e0: 904b c83c 69eb 393d dfec b53b c5e7 95bc
000003f0: 51c3 50bd a243 003c e8f8 b8bd ed79 c4bd

base.mlp.fc.3.bias f4 [128]
-0.034101848 0.01793382 -0.058524225 0.06103271 0.093181215 -0.03799061 -0.031032644 -0.10862913
0.08101517 0.04299351 0.011653527 -0.044484165 0.056761075 -0.12809758 0.047636516 -0.076084845
-0.03427316 -0.09259812 0.02731932 0.057423532 -0.027922984 0.10686081 0.09481234 -0.017983837
0.034814864 -0.04778046 0.10874847 0.0014113748 -0.015174837 -0.004759121 0.11688806 -0.052153084
-0.0026654724 -0.07179207 -0.15241098 0.06105762 0.003096922 0.0905406 0.08197923 -0.011703146
-0.07175854 0.0021357671 0.053359874 0.050960213 0.03274858 0.07874697 -0.07747433 -0.04598715
-0.042196397 0.09646156 0.024523336 -0.06737166 -0.05980242 0.07281404 0.053242337 -0.012634748
0.11749667 -0.12903018 0.033021875 0.08656925 -0.004740745 -0.054941904 -0.11198062 -0.045384813
-0.15482207 0.11059148 -0.023697028 -0.11706049 -0.094616644 -0.17249466 0.02573948 0.0007572452
-0.17123652 0.063188545 -0.00468278 0.073160104 -0.01720044 -0.064303756 0.059023842 0.080563925
-0.07259339 0.112120144 0.04941069 -0.046985302 0.024964271 -0.033655558 0.04378353 -0.07461815
0.049697556 -0.066846624 0.09071721 0.003433775 -0.012561774 0.10602527 0.11039628 -0.071080424
0.005400292 0.026795236 -0.10416591 -0.04849851 0.015174506 0.06424952 -0.04106634 -0.089720026
-0.14988518 0.031108245 0.08808285 -0.015020736 -0.12593427 -0.11805148 -0.11229131 -0.027230978
-0.16427262 0.03986813 0.017144103 0.08689361 -0.076010585 0.013434372 -0.01825998 0.027152352
-0.07963326 0.09278663 0.11782609 -0.10716642 0.011905346 -0.102746956 -0.028822266 0.081917204
00000000: 61ae 0bbd f2e9 923c 19b7 6fbd 6ffd 793d
00000010: cbd5 be3d 0b9c 1bbd 2c38 febc f378 debd
00000020: 48eb a53d f619 303d 6fee 3e3c 0735 36bd
00000030: 4d7e 683d 032c 03be 821e 433d 5fd2 9bbd
00000040: 0362 0cbd 15a4 bdbd c4cc df3c f034 6b3d
00000050: bebe e4bc d7d9 da3d f92c c23d d752 93bc
00000060: 089a 0e3d 72b5 43bd 85b7 de3d e1fd b83a
00000070: e19f 78bc 67f2 9bbb 0263 ef3d 799e 55bd
00000080: 35af 2ebb b907 93bd a011 1cbe 8e17 7a3d
00000090: bbf5 4a3b 5a6d b93d bae4 a73d 8dbe 3fbc
000000a0: 24f6 92bd 3af8 0b3b e28f 5a3d a8bb 503d
000000b0: 6023 063d 1746 a13d ddaa 9ebd 065d 3cbd
000000c0: 21d6 2cbd a38d c53d 2ae5 c83c 27fa 89bd
000000d0: 62f3 74bd 871f 953d a314 5a3d f901 4fbc
000000e0: 18a2 f03d 7d20 04be f241 073d 384b b13d
000000f0: 4058 9bbb c30a 61bd 1856 e5bd 6de5 39bd
00000100: ad89 1ebe c97d e23d 4520 c2bc 69bd efbd
00000110: 5fc6 c1bd 71a2 30be 9adb d23c dd81 463a
00000120: a058 2fbe ff68 813d 0172 99bb f7d4 953d
00000130: f0e7 8cbc b0b1 83bd fcc2 713d b3fe a43d
00000140: d8ab 94bd 3f9f e53d dd62 4a3d a973 40bd
00000150: df81 cc3c 69da 09bd 5c56 333d 67d1 98bd
00000160: aa8f 4b3d e2e6 88bd f2c9 b93d 2f09 613b
00000170: e6cf 4dbc c723 d93d 7217 e23d 9d92 91bd
00000180: eff4 b03b af81 db3c f054 d5bd 60a6 46bd
00000190: 7e9e 783c 4195 833d 2e35 28bd 22bf b7bd
000001a0: 807b 19be b8d6 fe3c c864 b43d 8819 76bc
000001b0: eaf4 00be f9c4 f1bd fdf8 e5bd 8013 dfbc
000001c0: 1537 28be c44c 233d ca71 8c3c 47f5 b13d
000001d0: 70ab 9bbd d71b 5c3c f495 95bc 9c6e de3c
000001e0: c316 a3bd eb06 be3d ce4e f13d 117a dbbd
000001f0: a40e 433c ff6c d2bd ac1c ecbc 35c4 a73d

base.mlp.fc.5.weight f4 [128]
1.0231665 1.0786384 1.0003529 0.8682929 1.0953456 0.94869107 1.0668652 0.96179205
0.91248417 0.8480465 1.0330317 1.0382216 1.0427059 0.9549329 1.0055523 1.0118151
0.96474034 0.9526025 1.0228267 1.0623788 0.89202124 0.8660554 1.0352074 0.79974437
0.9767097 1.1075766 0.94204366 1.0366619 0.9523862 1.0422791 1.0392802 0.98884803
1.0171287 0.8826136 1.0235951 0.90985316 1.0079876 1.0337256 0.9846056 1.0630721
1.020919 0.9571502 0.96450585 0.9713961 0.9292249 1.0758468 1.0620329 0.95443517
1.1466476 0.9603571 0.9006723 0.9487111 1.0073287 0.82905924 1.0198095 0.93894917
1.0888343 0.8499707 0.90889686 1.0341932 0.98051715 0.8659625 1.0529708 1.0056193
1.0204359 1.090162 0.9984115 0.89078295 0.98147136 0.89214087 1.0985996 0.9599324
1.0341574 0.9272865 1.0713618 0.91072613 0.9666815 1.0586996 0.79823333 0.8335846
0.9171878 0.9486607 0.9185799 1.0457399 1.0162659 0.9021918 0.9099325 0.88653475
0.8373247 0.98347586 1.0225106 0.8877488 0.91910136 0.8668091 0.9825674 1.0663266
0.92217267 1.013621 0.93835616 1.109413 0.9500688 0.68390876 0.7106579 1.0314981
0.9747249 0.8848743 0.9183939 1.1117665 1.0553035 1.0158587 0.88389105 1.1396934
0.9639716 0.96830225 0.9684224 1.0914962 0.9781423 0.77704 0.8210082 0.93991864
1.0092242 1.0061166 1.0908601 1.047325 0.9288484 1.0027282 1.0051259 1.0594648
00000000: 1ff7 823f d310 8a3f 900b 803f 7248 5e3f
00000010: 4934 8c3f 6bdd 723f 0a8f 883f 0138 763f
00000020: 9098 693f 9319 593f 623a 843f 72e4 843f
00000030: 6377 853f 7c76 743f f0b5 803f 2883 813f
00000040: 39f9 763f c2dd 733f fceb 823f 07fc 873f
00000050: 815b 643f cfb5 5d3f ad81 843f 0cbc 4c3f
00000060: a609 7a3f 12c5 8d3f c629 713f 56b1 843f
00000070: 95cf 733f 6769 853f 2207 853f 2525 7d3f
00000080: 4631 823f f7f2 613f 2a05 833f 23ec 683f
00000090: bd05 813f 1f51 843f 1d0f 7c3f bf12 883f
000000a0: 79ad 823f cc07 753f dbe9 763f 6aad 783f
000000b0: afe1 6d3f 59b5 893f b2f0 873f dd55 743f
000000c0: 59c5 923f f7d9 753f 7692 663f bbde 723f
000000d0: 26f0 803f 3a3d 543f 1e89 823f f95e 703f
000000e0: ec5e 8b3f ae97 593f 77ad 683f 7160 843f
000000f0: 2c03 7b3f b8af 5d3f bfc7 863f 22b8 803f
00000100: a59d 823f 6e8a 8b3f e597 7f3f 5a0a 643f
00000110: b541 7b3f 5863 643f e99e 8c3f 21be 753f
00000120: 455f 843f a662 6d3f 6222 893f 5925 693f
00000130: 7078 773f 7883 873f 0559 4c3f cd65 553f
00000140: d2cc 6a3f 6ddb 723f 0d28 6b3f ceda 853f
00000150: 0015 823f 0bf6 663f 56f1 683f f1f3 623f
00000160: e95a 563f 13c5 7b3f a1e1 823f 8143 633f
00000170: 3a4a 6b3f 34e7 5d3f 8a89 7b3f 647d 883f
00000180: 8213 6c3f 55be 813f 1c38 703f 3f01 8e3f
00000190: b537 733f a514 2f3f aded 353f 2108 843f
000001a0: 9287 793f 1f87 623f dd1b 6b3f 5d4e 8e3f
000001b0: 2f14 873f a807 823f af46 623f 79e1 913f
000001c0: d8c6 763f a8e2 773f 88ea 773f 26b6 8b3f
000001d0: 8967 7a3f 18ec 463f 982d 523f 829e 703f
000001e0: 422e 813f 6ec8 803f 4ea1 8b3f bf0e 863f
000001f0: 02c9 6d3f 6659 803f f7a7 803f 8b9c 873f

base.mlp.fc.5.bias f4 [128]
0.00024160124 0.033635307 -0.00039899733 0.09535323 -0.0033726469 -0.03161971 -0.03993365 -0.0062452555
0.03164486 -0.011376856 0.034945577 -0.017093431 0.012957348 0.00994345 0.0015272709 -0.06687746
0.11045276 0.024928723 -0.026278432 0.025240269 0.023290845 0.09566059 0.026789512 0.041441534
0.04895939 -0.013437815 0.020846447 -0.018592505 -0.005098382 -0.034395985 0.045854285 -0.042009614
-0.021010472 0.019062107 -0.08793091 0.0349487 -0.02632726 0.03008913 0.059626173 -0.05402578
-0.026976679 0.009158995 0.0061135185 -0.022211675 0.061012927 0.08827005 0.064760685 -0.031288728
0.02790401 -0.0038501052 0.09113461 0.048358098 -0.0046326234 0.044329725 0.049226873 0.022236504
0.036336116 0.11470596 -0.05001125 -0.032906547 0.018603018 0.044563644 -0.0071167457 -0.020230807
-0.021215918 0.022541154 -0.007927608 0.07162168 -0.006256974 0.061181206 0.02619285 -0.03333219
-0.05377961 0.020697683 0.00028429393 0.012108803 0.009205539 -0.02670082 0.09257493 0.056352627
0.009697482 -0.0040119574 0.015610513 -0.04341932 -0.015059851 0.024912834 0.031425543 0.04203691
0.01754628 -0.017120123 -0.02660848 0.06941709 0.048281893 0.020772833 0.05186135 0.014727767
0.02616417 0.0014829789 0.024574822 0.046371505 0.042831305 0.16072924 0.2543522 -0.011869681
0.0038878524 0.0036232206 0.008240026 -0.018928625 -0.05772595 -0.022110904 0.0030803496 0.036877304
0.013925977 0.0024652185 -0.043921374 -0.017597128 -0.023072468 -0.054965317 0.20236792 -0.024435306
-0.04278445 0.019416234 -0.013759589 -0.06304541 0.13063441 -0.0068620048 -0.0033333749 0.021699859
00000000: 5756 7d39 2dc5 093d 8430 d1b9 8e48 c33d
00000010: a007 5dbb ab83 01bd 7891 23bd 00a5 ccbb
00000020: 0a9e 013d fe65 3abc 1823 0f3d 8607 8cbc
00000030: 0e4b 543c dae9 223c b52e c83a 0df7 88bd
00000040: 0e35 e23d 5237 cc3c de45 d7bc aec4 ce3c
00000050: 71cc be3c b3e9 c33d ae75 db3c 99be 293d
00000060: a489 483d 482a 5cbc 2bc6 aa3c 4f4f 98bc
00000070: 5410 a7bb cee2 0cbd b4d1 3b3d 4612 2cbd
00000080: 271e acbc 2328 9c3c 1f15 b4bd 5e26 0f3d
00000090: 44ac d7bc 7b7d f63c 933a 743d 234a 5dbd
000000a0: 32fe dcbc 9c0f 163c e953 c83b 42f5 b5bc
000000b0: b1e8 793d eec6 b43d 40a1 843d 9c28 00bd
000000c0: f396 e43c 0c52 7cbb c8a4 ba3d 2413 463d
000000d0: 43cd 97bb 1693 353d 1ea2 493d 5429 b63c
000000e0: 2ed5 143d f5ea ea3d 99d8 4cbd 04c9 06bd
000000f0: 5b65 983c 5e88 363d 9733 e9bb 14bb a5bc
00000100: 01cd adbc 3aa8 b83c cce2 01bc 63ae 923d
00000110: 4d07 cdbb 2599 7a3d 6392 d63c 5687 08bd
00000120: 0248 5cbd 308e a93c 490d 9539 0064 463c
00000130: d4d2 163c aebb dabc ed97 bd3d 03d2 663d
00000140: 30e2 1e3c bd76 83bb 3dc3 7f3c 75d8 31bd
00000150: 98bd 76bc 0016 cc3c 12b8 003d e52e 2c3d
00000160: 37bd 8f3c 803f 8cbc 07fa d9bc 8c2a 8e3d
00000170: 3cc3 453d ca2b aa3c 916c 543d bb4c 713c
00000180: 3e56 d63c 8460 c23a 2351 c93c 0cf0 3d3d
00000190: e16f 2f3d 3596 243e 743a 823e 0d79 42bc
000001a0: 57cb 7e3b 8e73 6d3b 2d01 073c 3410 9bbc
000001b0: 0c72 6cbd ed21 b5bc b1df 493b a80c 173d
000001c0: c829 643c 818f 213b e6e6 33bd da27 90bc
000001d0: 7902 bdbc 5023 61bd 8939 4f3e 8d2c c8bc
000001e0: bf3e 2fbd cb0e 9f3c e66f 61bc f41d 81bd
000001f0: 07c5 053e abda e0bb c074 5abb e7c3 b13c

rnn.gru.weight_ih_l0 f4 [384, 128]
-0.05867375 -0.015664442 -0.114435725 -0.17418532 -0.022770414 -0.16604066 -0.05676839 -0.10665125
0.025524432 -0.13062604 -0.011689699 -0.10098552 0.09116975 -0.09419602 -0.1929166 -0.02439671
-0.088101335 -0.13246535 0.064834625 -0.027386893 -0.07832059 0.111505166 -0.07920048 0.08032042
0.030037863 -0.10948089 0.14247143 0.110787004 -0.08904748 -0.08772009 0.04390619 -0.11495998
-0.12755731 -0.16129649 -0.15077029 -0.04280106 -0.10933892 0.023235515 -0.012396582 -0.110498115
-0.05952961 -0.016915279 -0.027119352 -0.19166365 -0.034591816 -0.10810298 -0.07762886 -0.08865315
-0.024884174 0.07883628 0.00092723407 -0.115664326 0.035642423 -0.14332744 -0.02583457 -0.2452742
0.070913225 -0.13564122 -0.118130684 -0.051272627 -0.2141635 -0.11423034 -0.09270555 -0.19520015
-0.26069286 0.09167175 0.017203998 -0.19740017 -0.12726942 -0.19997506 0.03290118 -0.026865913
-0.08611647 -0.031566996 -0.0010249343 -0.025782892 -0.038003843 -0.044212222 -0.101307504 0.077052765
-0.027631178 0.07733503 -0.045503125 -0.18402424 -0.21234998 -0.12496533 -0.086217605 -0.037984252
-0.19830795 -0.25020137 0.041931234 -0.10075863 -0.23020308 0.0902892 0.10342924 -0.18997212
0.043227527 -0.014079374 -0.15436049 -0.09579232 0.09007726 -0.059403237 -0.12701246 -0.16240072
-0.14516425 -0.046694584 0.14007658 -0.026794462 -0.2553997 -0.24093184 -0.050963763 -0.18983482
-0.15755828 0.07145862 -0.08644452 -0.07168067 -0.16362086 0.02061878 -0.09768864 0.12874646
-0.18028766 -0.11829621 0.11013379 -0.073429 0.110458486 -0.22186083 -0.038566727 0.08343517
-0.0044149854 -0.09775147 -0.006964171 -0.11363594 -0.012301207 -0.20360799 -0.052340012 0.012623906
0.09694897 -0.12423796 0.016422281 0.077675834 0.08564217 0.12356687 0.042909857 0.0013278592
0.10752229 0.08926612 0.08808869 0.030750988 0.076481 -0.0961236 0.043955304 0.018245537
-0.092218876 0.08230214 -0.19756801 0.06501765 0.044541202 0.011019502 -0.098958 0.0077649276
-0.024404505 0.05597094 0.001569068 -0.19701612 0.09038816 -0.124392316 0.037642073 0.016296394
0.1630723 0.044873588 0.10124275 0.030681634 0.083995424 0.118463546 0.09055799 -0.104222
0.07728304 -0.15683785 -0.042022016 -0.023213362 0.00654054 0.03697519 -0.018296605 0.12041025
-0.14417008 0.110881 0.06517812 -0.03642739 0.093261056 -0.085073404 0.10614884 0.0076541686
0.10861493 -0.038815714 -0.06412241 -0.028106734 0.15940054 0.045302052 0.084965535 -0.08131324
-0.041211337 -0.06487925 0.019624766 0.043909464 0.013364568 0.06803508 -0.0066986145 -0.2815504
-0.00712543 0.10695073 0.08910627 0.09513683 0.033973183 -0.00033344643 -0.0032310246 0.14761142
-0.06684558 0.08633116 0.06403811 0.14589301 0.11045985 -0.23709339 0.05913551 -0.03124742
-0.08841332 0.0719375 0.129016 -0.019161453 -0.0084839305 -0.08373723 0.10709596 0.07153005
0.07897449 0.06659642 -0.1232104 -0.0034800752 0.01094688 0.07322152 0.15873307 0.0720517
-0.05955866 0.07964237 -0.06626313 0.062303904 -0.017322943 -0.109906115 -0.23471211 0.024960402
0.025424054 0.039571125 0.107867666 -0.041090377 -0.0483534 0.067067325 -0.031801928 0.008273128
00000000: e353 70bd b752 80bc 475d eabd a35d 32be
00000010: 0589 babc 9006 2abe f985 68bd f86b dabd
00000020: 9d18 d13c d5c2 05be 2786 3fbc 7fd1 cebd
00000030: 35b7 ba3d d8e9 c0bd ee8b 45be 9cdb c7bc
00000040: 796e b4bd ffa4 07be 04c8 843d 7a5a e0bc
00000050: 8c66 a0bd d25c e43d dc33 a2bd 087f a43d
00000060: f711 f63c 8437 e0bd 08e4 113e 4ce4 e23d
00000070: 865e b6bd 97a6 b3bd fad6 333d 2370 ebbd
00000080: 629e 02be e82a 25be 8763 1abe 2a50 2fbd
00000090: 15ed dfbd 6858 be3c 091b 4bbc d64c e2bd
000000a0: 52d5 73bd e991 8abc 6729 debc 7a43 44be
000000b0: 26b0 0dbd 1865 ddbd e1fb 9ebd c88f b5bd
000000c0: e5d9 cbbc ea74 a13d a011 733a 6be1 ecbd
000000d0: cafd 113d 6ec4 12be 05a3 d3bc 2929 7bbe
000000e0: f43a 913d 88e5 0abe 80ee f1bd 3f03 52bd
000000f0: ad4d 5bbe 99f1 e9bd 68dc bdbd 8ce2 47be
00000100: 8979 85be 66be bb3d 66ef 8c3c 4523 4abe
00000110: ea52 02be 43c6 4cbe 63c3 063d e715 dcbc
00000120: d55d b0bd 654c 01bd 1757 86ba a536 d3bc
00000130: eba9 1bbd e017 35bd 4f7a cfbd d7cd 9d3d
00000140: c85a e2bc d461 9e3d 7c61 3abd da70 3cbe
00000150: 4672 59be d3ed ffbd db92 b0bd 6095 1bbd
00000160: 3d11 4bbe 651a 80be 16c0 2b3d 8a5a cebd
00000170: 5bba 6bbe 8be9 b83d b6d2 d33d 0d88 42be
00000180: 590f 313d 2dad 66bc ad10 1ebe c42e c4bd
00000190: 6d7a b83d cf50 73bd 8e0f 02be 604c 26be
000001a0: f0a5 14be d242 3fbd 3c70 0f3e 0f80 dbbc
000001b0: c0c3 82be d6b6 76be 61bf 50bd 0f64 42be
000001c0: f556 21be e658 923d d309 b1bd 51cd 92bd
000001d0: 3a8c 27be b7e8 a83c fb10 c8bd 1dd6 033e
000001e0: 549d 38be 4945 f2bd d38d e13d f261 96bd
000001f0: 0f38 e23d 7c2f 63be 25f8 1dbd 0fe0 aa3d
00000200: 95ab 90bb ec31 c8bd b333 e4bb f6b9 e8bd
00000210: 008b 49bc 9d7e 50be 7b62 56bd 80d4 4e3c
00000220: 2e8d c63d 7970 febd 0588 863c 8214 9f3d
00000230: 2965 af3d a110 fd3d 3fc2 2f3d 900b ae3a
00000240: a534 dc3d 28d1 b63d d867 b43d 7fe9 fb3c
00000250: 12a2 9c3d 73dc c4bd 7a0a 343d aa77 953c
00000260: 40dd bcbd 068e a83d 454f 4abe f927 853d
00000270: d670 363d 248b 343c 7eaa cabd ef70 fe3b
00000280: f5eb c7bc c941 653d 2fa9 cd3a 98be 49be
00000290: 6d1d b93d 66c1 febd 932e 1a3d 0480 853c
000002a0: 6dfc 263e 5ecd 373d 5c58 cf3d 0d58 fb3c
000002b0: cb05 ac3d 049d f23d 7876 b93d 5872 d5bd
000002c0: 9246 9e3d 1a9a 20be 471f 2cbd f329 bebc
000002d0: 0752 d63b 4c73 173d c3e2 95bc a699 f63d
000002e0: 52a1 13be 9415 e33d 1b7c 853d e334 15bd
000002f0: a7ff be3d f73a aebd 9064 d93d d2cf fa3b
00000300: 8171 de3d 3afd 1ebd 9c52 83bd 1840 e6bc
00000310: e539 233e a58e 393d 6902 ae3d 8e87 a6bd
00000320: 38cd 28bd 6adf 84bd 1ec4 a03c 69da 333d
00000330: 10f7 5a3c fa55 8b3d 0d80 dbbb 6027 90be
00000340: 707c e9bb fc08 db3d 597d b63d 19d7 c23d
00000350: 7727 0b3d 6cd2 aeb9 99bf 53bb 7327 173e
00000360: 56e6 88bd 64ce b03d 6a26 833d fa64 153e
00000370: c638 e23d 9cc8 72be 1438 723d 97fa ffbc
00000380: 0b12 b5bd f853 933d c51c 043e 7bf8 9cbc
00000390: 2f00 0bbc 6d7e abbd 2055 db3d 597e 923d
000003a0: 61bd a13d b463 883d bc55 fcbd f911 64bb
000003b0: 8b5a 333c 2af5 953d ec8a 223e d78f 933d
000003c0: c8f3 73bd 8a1b a33d f7b4 87bd 6132 7f3d
000003d0: d8e8 8dbc 7516 e1bd 5f58 70be c279 cc3c
000003e0: 1b46 d03c 5515 223d b9e9 dc3d 624e 28bd
000003f0: 370e 46bd 985a 893d bd42 02bd 048c 073c

rnn.gru.weight_hh_l0 f4 [384, 128]
-0.039859675 -0.04370919 -0.0015774219 0.017209454 -0.03723112 -0.012624901 -0.03552023 -0.032767404
0.14673017 0.07653232 -0.02025961 -0.18867528 -0.10867861 0.0137706995 -0.17047824 -0.16397314
-0.07443265 0.062356 0.0753498 -0.09203822 -0.09270064 0.089683965 0.024992304 -0.03081745
0.0073801684 0.10371716 0.1416414 0.06541946 0.03071355 0.09568529 0.06141714 0.08083343
-0.0077207275 0.016756548 0.02523961 0.04121697 0.045770258 0.06821121 0.062971786 0.0731855
-0.033763938 0.051815238 0.10841479 0.114805885 0.11016237 -0.14182036 0.106249385 -0.0016625253
0.11888375 -0.038170137 -0.13021405 -0.0025142094 0.012604895 0.106838726 -0.09518716 0.006525118
-0.03791332 -0.02386687 -0.092865385 0.009001699 0.006685045 0.030285701 0.0008497785 -0.033758193
-0.016837275 -0.030576857 -0.013360305 -0.07906532 0.18293974 0.01125762 0.028959662 -0.10999622
0.023505947 -0.09607274 0.03711323 -0.10876328 -0.06878705 -0.03726403 0.019906033 0.035532963
0.06594145 -0.05898953 0.026907725 -0.14579894 -0.046812937 -0.00083684636 -0.16207652 -0.09083422
-0.10781976 -0.11168741 0.04690257 0.21601743 -0.027637923 0.052834995 0.030910915 -0.029280405
-0.06660885 0.046090066 0.009771732 -0.06987303 0.13263601 -0.05908443 0.041656148 -0.21235354
0.10711531 -0.044042718 -0.11966067 -0.11051177 0.0860464 -0.103700064 -0.02246023 0.06413687
0.029804397 -0.0505301 0.02299827 0.03476685 -0.04776717 -0.026442446 0.08939696 -0.065272786
-0.09933385 0.11529067 -0.06656381 0.036976587 0.019156989 -0.09893102 0.109872736 -0.13896787
-0.020272233 0.04646904 0.04117872 4.7090027e-05 0.10630855 0.031411648 -0.06777479 -0.00015478337
0.07475176 -0.16821823 -0.14700817 0.11291895 0.00848929 -0.02404687 -0.018984996 0.036739618
-0.062352482 -0.07237993 0.038401008 -0.12799245 0.14673167 -0.020084415 -0.029404523 0.00043243507
-0.21352208 -0.1556759 -0.10405912 0.044202823 -0.0725668 0.07435123 0.086261846 0.092845805
-0.033978354 -0.028222922 -0.07454448 -0.1374298 -0.114616565 -0.01709069 -0.0039253007 0.053024374
-0.023339618 -0.10696315 -0.07230568 0.085771106 0.019536588 0.045986086 -0.16806988 0.016278837
0.026578704 -0.009981835 -0.04087316 0.04135361 0.07499319 0.0056568943 0.033567935 -0.09668618
0.074182004 0.12491071 0.05227558 0.07625098 -0.06965492 0.052215006 -0.05811833 -0.037097868
0.06512912 0.0775348 0.10971143 -0.016536187 -0.17583656 -0.13233924 0.14219023 0.024864106
0.10373401 0.16300642 -0.012153827 -0.04100703 0.019002724 0.071658805 0.03667705 -0.06412951
-0.27975577 -0.016263135 0.1203365 0.03855229 0.14966613 0.08769301 0.008054147 -0.14007619
0.026507782 -0.075291276 0.05113644 -0.062048577 0.013012528 -0.053898886 0.010854065 0.07482015
0.005107796 0.11115273 -0.057976194 -0.086742125 0.0009362183 -0.024776831 0.10801402 -0.12825608
0.08710764 -0.040940955 -0.09063731 0.059465516 0.0025363823 -0.033134487 -0.03994252 0.13169883
-0.32610565 0.09042698 0.17008732 0.031440865 -0.009475075 -0.0437446 0.018186662 0.034901474
0.027015995 0.09068023 0.04074588 -0.096882254 -0.037351526 0.08843966 0.2108506 -0.07442183
00000000: e643 23bd 6808 33bd 7fc1 ceba d7fa 8c3c
00000010: a97f 18bd acd8 4ebc a97d 11bd 1d37 06bd
00000020: 6f40 163e fabc 9c3d 7bf7 a5bc 1834 41be
00000030: e492 debd 809e 613c d991 2ebe 93e8 27be
00000040: 2570 98bd 0169 7f3d ff50 9a3d 897e bcbd
00000050: d5d9 bdbd 3aac b73d a9bc cc3c e074 fcbc
00000060: 57d5 f13b aa69 d43d 710a 113e a3fa 853d
00000070: fc9a fb3c a6f6 c33d 8a90 7b3d ff8b a53d
00000080: 28fe fcbb 0745 893c 4cc3 ce3c 20d3 283d
00000090: 9879 3b3d 52b2 8b3d 5af7 803d 48e2 953d
000000a0: 0e4c 0abd 373c 543d 9308 de3d 591f eb3d
000000b0: cf9c e13d 5b39 11be 4799 d93d 18e9 d9ba
000000c0: 5379 f33d 4a58 1cbd d556 05be 6fc5 24bb
000000d0: c384 4e3c 43ce da3d 7cf1 c2bd a8d0 d53b
000000e0: ff4a 1bbd 7484 c3bc 3530 bebd dd7b 133c
000000f0: 390e db3b b819 f83c abc3 5e3a 0846 0abd
00000100: 53ee 89bc 517c fabc 2ee5 5abc 00ed a1bd
00000110: 8e54 3b3e e171 383c d03c ed3c b345 e1bd
00000120: 8b8f c03c c9c1 c4bd 0b04 183d 48bf debd
00000130: 3ae0 8cbd 2ba2 18bd fa11 a33c 038b 113d
00000140: 500c 873d 019f 71bd 976d dc3c 514c 15be
00000150: ecbe 3fbd cf5f 5bba 63f7 25be 4b07 babd
00000160: 9bd0 dcbd 5ebc e4bd e91c 403d ac33 5d3e
00000170: ed68 e2bc 8269 583d e338 fd3c 76dd efbc
00000180: 396a 88bd f0c8 3c3d 9d19 203c 9719 8fbd
00000190: bcd1 073e 8402 72bd a39f 2a3d 3573 59be
000001a0: 465f db3d 2366 34bd a710 f5bd ff53 e2bd
000001b0: 1839 b03d b360 d4bd 84fe b7bc 315a 833d
000001c0: 5a28 f43c a6f8 4ebd de66 bc3c af67 0e3d
000001d0: 82a7 43bd d49d d8bc c115 b73d bdad 85bd
000001e0: 8c6f cbbd 841d ec3d 9b52 88bd c374 173d
000001f0: 1eef 9c3c 599c cabd f504 e13d 984d 0ebe
00000200: f411 a6bc 5256 3e3d 04ab 283d 8882 4538
00000210: 4cb8 d93d 80a9 003d 82cd 8abd 584d 22b9
00000220: 7317 993d 6641 2cbe 4f89 16be 0d42 e73d
00000230: aa16 0b3c f1fd c4bc 6c86 9bbc 487c 163d
00000240: 5165 7fbd ee3b 94bd 604a 1d3d 7410 03be
00000250: d440 163e 1288 a4bc c1e1 f0bc 74b8 e239
00000260: 88a5 5abe 8169 1fbe f31c d5bd 050e 353d
00000270: e79d 94bd 7545 983d 0daa b03d f125 be3d
00000280: e32c 0bbd c233 e7bc c7aa 98bd 66ba 0cbe
00000290: 17bc eabd c601 8cbc cf9f 80bb 1630 593d
000002a0: ba32 bfbc 7f0f dbbd 0015 94bd c3a8 af3d
000002b0: 320b a03c e85b 3c3d 831a 2cbe 325b 853c
000002c0: 95bb d93c da8a 23bc 9d6a 27bd 6762 293d
000002d0: 0896 993d 785d b93b 887e 093d 6703 c6bd
000002e0: bcec 973d 30d1 ff3d eb1e 563d 7929 9c3d
000002f0: 3da7 8ebd 67df 553d 7c0d 6ebd eff3 17bd
00000300: 6b62 853d 91ca 9e3d 63b0 e03d e676 87bc
00000310: 800e 34be f083 07be 519a 113e cfaf cb3c
00000320: 7f72 d43d 28eb 263e d820 47bc fdf6 27bd
00000330: 9aab 9b3c dac1 923d ad3a 163d 5556 83bd
00000340: 263c 8fbe 443a 85bc fc72 f63d 02e9 1d3d
00000350: 1442 193e 6598 b33d 8af5 033c 2270 0fbe
00000360: d926 d93c 5032 9abd 7274 513d a626 7ebd
00000370: 8032 553c 14c5 5cbd 40d5 313c 4f3b 993d
00000380: 4c5f a73b 0ba4 e33d 7278 6dbd dba5 b1bd
00000390: 8c6c 753a c8f8 cabc 7436 dd3d 9055 03be
000003a0: 7e65 b23d b4b1 27bd 0ea0 b9bd 1d92 733d
000003b0: 6f39 263b 07b8 07bd c59a 23bd 0fdc 063e
000003c0: 52f7 a6be c831 b93d 5f2b 2e3e 23c8 003d
000003d0: 583d 1bbc 8a2d 33bd 32fc 943c d9f4 0e3d
000003e0: a650 dd3c 8eb6 b93d 27e5 263d 346a c6bd
000003f0: eafd 18bd da1f b53d 38e9 573e 796a 98bd

rnn.gru.bias_ih_l0 f4 [384]
0.17415935 -0.0945367 0.045822613 0.029758923 0.010188134 -0.02584714 -0.31294277 -0.08551112
-0.09384793 0.0026869 0.10315888 -0.06802221 -0.18619207 -0.13968734 0.07857764 -0.021753196
0.20149711 0.08641993 0.0054359166 0.066922486 0.08748884 0.07350487 -0.043340772 0.016057275
0.060425803 -0.07598597 0.011199174 -0.087605774 -0.024425576 0.027063118 0.085363545 -0.009535466
0.1176449 -0.059911113 0.024559867 -0.12288198 0.10671902 -0.12622583 0.010164201 -0.12670767
0.094840266 0.068175025 -0.0021064489 -0.02416613 -0.063907124 0.10169172 -0.010345791 0.12960458
-0.12420989 0.022319984 0.051459923 -0.13488448 0.16573673 0.047260817 -0.0045743445 0.051505905
-0.15267882 -0.020093935 -0.013259757 -0.16206534 -0.04181758 0.043090355 -0.0049451604 -0.14541611
-0.10244765 -0.0054893396 0.06514942 -0.046810344 -0.009812894 -0.093134314 -0.02753598 0.031057721
0.07420325 -0.08663788 -0.03134199 -0.17729102 -0.045568828 0.12187299 -0.03217044 0.03549362
-0.13720244 0.05865927 0.040771265 0.19697608 0.004218246 -0.029185148 -0.16466235 -0.027321788
0.046333145 -0.037749246 -0.054853994 -0.0357219 0.21407975 -0.08857764 -0.011134267 0.049072295
-0.05292868 0.030551173 0.051512193 0.049689658 -0.0086160395 0.05651356 0.009426596 -0.052289743
0.012303249 -0.028615093 -0.019134346 0.023705458 -0.019229809 0.11881696 -0.03447672 0.031685118
0.15989977 0.007991703 -0.037085056 -0.08678448 -0.07636859 0.035807624 -0.030633494 -0.035457235
0.0035262646 0.015278098 -0.1737255 0.013323054 0.049426697 0.00300018 -0.08868293 -0.011121754
0.22154944 0.060699545 0.17950948 0.30155534 0.33470726 0.1572832 0.13554351 0.2647352
0.19706826 0.2672724 0.06364013 0.19836237 0.2675036 -0.0031251034 0.20742671 0.15475257
0.061378956 0.20571886 0.17995062 0.29485396 0.22565128 0.14049046 0.098099746 0.18441828
0.11367246 0.21803239 0.103016004 -0.0010422633 0.24792148 0.2086163 0.14256401 0.016638083
0.07291703 0.13334562 0.11976194 0.20531549 0.2949847 0.0793024 0.10056476 0.041664336
0.09040747 0.189224 0.11346953 0.27922708 0.23792562 0.19174816 0.11651574 0.124062635
0.014961183 -0.07725153 0.05807165 0.14007679 0.2003523 0.25836837 0.17344451 0.24538143
0.079852 0.1223032 0.12169199 0.25861317 0.18578231 0.20294634 0.14537282 0.22231168
0.17941445 0.060111437 0.15215911 -0.021696543 0.07027942 0.15567312 0.08264162 0.04588344
0.16472046 0.22494721 0.29790893 0.13657477 0.16174375 -0.008785925 0.2204796 0.11381638
0.19575016 0.08753412 0.054875117 0.05164067 0.23646526 0.20881692 0.05377766 0.12029665
0.3234334 -0.068510324 0.026604097 -0.11111266 0.0837052 0.13017625 0.14135565 0.14912936
0.09229923 0.116434745 0.12299411 0.23344332 0.1367509 0.17684582 0.10069561 0.09701138
0.2004352 0.033191293 0.19346043 0.123780236 0.10586851 0.01300636 0.252472 0.19812045
0.086082734 0.15684763 0.20957775 0.09013956 0.11846318 -0.019040495 0.2727179 0.15598878
0.17318548 0.16249444 0.18326735 0.28022414 0.21189451 0.27391773 0.02809138 0.18139248
00000000: d456 323e 759c c1bd 7eb0 3b3d fcc8 f33c
00000010: 22ec 263c 62bd d3bc 093a a0be 7420 afbd
00000020: 5833 c0bd b416 303b f644 d33d 3a4f 8bbd
00000030: 22a9 3ebe 330a 0fbe 50ed a03d c233 b2bc
00000040: 4255 4e3e effc b03d c61f b23b a80e 893d
00000050: 592d b33d b989 963d 1886 31bd 8c8a 833c
00000060: 0c81 773d 889e 9bbd be7c 373c a86a b3bd
00000070: 2518 c8bc 79b3 dd3c 15d3 ae3d a53a 1cbc
00000080: cfef f03d 5b65 75bd c631 c93c 8ca9 fbbd
00000090: 808f da3d 5841 01be c087 263c a8bf 01be
000000a0: 9d3b c23d 599f 8b3d 590c 0abb 0cf8 c5bc
000000b0: bde1 82bd c043 d03d 6481 29bc 10b7 043e
000000c0: c161 febd 66d8 b63c a4c7 523d 281f 0abe
000000d0: e4b6 293e 8f94 413d 62e4 95bb dbf7 523d
000000e0: d657 1cbe 099c a4bc 743f 59bc 75f4 25be
000000f0: e948 2bbd 837f 303d 030b a2bb f6e7 14be
00000100: 13d0 d1bd ebdf b3bb 0f6d 853d 34bc 3fbd
00000110: 43c6 20bc 34bd bebd 2393 e1bc c36c fe3c
00000120: e0f7 973d 336f b1bd 7560 00bd c78b 35be
00000130: 61a6 3abd 8c98 f93d 27c5 03bd c261 113d
00000140: cc7e 0cbe b444 703d c5ff 263d 19b4 493e
00000150: 3639 8a3b b115 efbc 3f9d 28be f1d1 dfbc
00000160: d3c7 3d3d f49e 1abd 95ae 60bd 2151 12bd
00000170: b937 5b3e 3268 b5bd 806c 36bc 0800 493d
00000180: becb 58bd 7446 fa3c 73fe 523d 6287 4b3d
00000190: 4a2a 0dbc c37a 673d 0272 1a3c c52d 56bd
000001a0: 9193 493c 336a eabc a2bf 9cbc f331 c23c
000001b0: d587 9dbc 4e56 f33d 7637 0dbd 41c8 013d
000001c0: c4bc 233e a2ef 023c 80e6 17bd 10bc b1bd
000001d0: 2367 9cbd 04ab 123d 18f3 fabc 9b3b 11bd
000001e0: e718 673b fd50 7a3c 19e5 31be f048 5a3c
000001f0: a673 4a3d ab9e 443b 659f b5bd 0438 36bc
00000200: dbdd 623e 16a0 783d 55d1 373e 7665 9a3e
00000210: c05e ab3e d90e 213e ebcb 0a3e 5f8b 873e
00000220: 43cc 493e eed7 883e c255 823d 811f 4b3e
00000230: 3bf6 883e 89ce 4cbb ab67 543e 7577 1e3e
00000240: 8068 7b3d f7a7 523e fa44 383e 19f7 963e
00000250: 2111 673e bbdc 0f3e 85e8 c83d 25d8 3c3e
00000260: 1bcd e83d e243 5f3e 0efa d23d 8e9c 88ba
00000270: 21df 7d3e 839f 553e 4dfc 113e 974c 883c
00000280: 8655 953d c18b 083e bf45 f53d 393e 523e
00000290: 3c08 973e 4c69 a23d e6f4 cd3d 39a8 2a3d
000002a0: 8d27 b93d f0c3 413e b762 e83d daf6 8e3e
000002b0: c6a2 733e a159 443e ce9f ee3d 8d14 fe3d
000002c0: c01f 753c 0d36 9ebd 8adc 6d3d 4a70 0f3e
000002d0: 2729 4d3e dc48 843e 709b 313e 4545 7b3e
000002e0: 7289 a33d 1a7a fa3d a639 f93d f268 843e
000002f0: b83d 3e3e 2ad1 4f3e 9ddc 143e aca5 633e
00000300: 6cb8 373e 6937 763d 99cf 1b3e f3bc b1bc
00000310: a8ee 8f3d c668 1f3e 0240 a93d 46f0 3b3d
00000320: 7bac 283e 9058 663e 8587 983e 42da 0b3e
00000330: 27a0 253e d7f2 0fbc 67c5 613e 9018 e93d
00000340: bb72 483e 1745 b33d bbc4 603d 2b85 533d
00000350: f323 723e 1ad4 553e f745 5c3d 175e f63d
00000360: 1099 a53e 244f 8cbd d6f0 d93c 098f e3bd
00000370: a26d ab3d ec4c 053e 89bf 103e 5eb5 183e
00000380: 6107 bd3d 5775 ee3d 56e4 fb3d c40b 6f3e
00000390: 6e08 0c3e 1217 353e 8039 ce3d e7ad c63d
000003a0: e33e 4d3e 98f3 073d 7e1a 463e 7e80 fd3d
000003b0: 97d1 d83d a118 553c 0344 813e 16e0 4a3e
000003c0: 254c b03d aa9c 203e 8d9b 563e 179b b83d
000003d0: d39c f23d d0fa 9bbc aea1 8b3e 86bb 1f3e
000003e0: 8957 313e f164 263e 70aa 3b3e 8a79 8f3e
000003f0: e0fa 583e f23e 8c3e e51f e63c f3be 393e
