scripts/results/MAPPOTraining2v1/2v1/NoWeapon/MAPPOTraining/mappo/v1_2v1_mappo_training/wandb/offline-run-20250807_165042-zjjd28i2/files/critic_episode_8700.pt (torch, 640990 bytes, 23 tensors)

base.mlp.fc.0.weight f4 [128, 63]
000000 ad 9b f5 bd 60 53 0c 3e be 4e 6a bd 77 2b 05 3d
       -0.119925834 0.1370368 -0.057204 0.032512154
000010 7c 14 f6 bd b0 35 c6 3c 58 2f 0f 3d 7c 7d 45 bc
       -0.12015626 0.024195522 0.03495726 -0.012053844
000020 a8 ad 37 bd 61 9c 1b be ca 2d 22 3b a9 5d f9 bb
       -0.044843346 -0.15196373 0.002474653 -0.007610042
000030 ee 33 8c 3d e5 b6 e1 bd d3 0e 9e 3d d0 d0 ee 3d
       0.06845842 -0.110212125 0.07717671 0.116609216
000040 51 ac e6 3d 36 c3 e4 bc a4 ae 9c 3d 13 9d 3d 3c
       0.112633355 -0.027925115 0.076504976 0.011573094
000050 15 25 13 bd 72 ff 10 be 2a f2 9a bc 7b 1b 90 3c
       -0.035924036 -0.14159945 -0.018914301 0.017591229
000060 4b ba 9e 3d 6e 60 96 3d dd 3a d5 bd 18 01 26 bd
       0.07750376 0.07342611 -0.10411618 -0.040528387
000070 a0 a9 b2 bd ee ff cc bd fd 76 d9 3c 13 4f ba bd
       -0.0872376 -0.10009752 0.026545996 -0.090971135
000080 90 b5 ed 3c dc dd fb 3c cd bb e1 bd 95 76 f8 3d
       0.02901724 0.03074544 -0.11022148 0.12131993
000090 55 4c 69 3d 7b ca 60 be 46 c5 79 3d 84 47 59 bd
       0.05695756 -0.2195224 0.06097915 -0.05304672
0000a0 2e 59 b4 3d 97 1a 87 bd 51 17 a2 bd 0c 31 fd 3d
       0.08806072 -0.065968685 -0.079146035 0.123628706
0000b0 b5 4e d2 bd c3 0a d4 3d 2d 2c b4 bd b4 fb 82 3d
       -0.102689184 0.10353615 -0.08797488 0.06395665
0000c0 31 0c d8 3d 87 97 c2 bc 4c b7 bf bc 36 3a 2a bd
       0.105492 -0.023753894 -0.023402832 -0.04155942
0000d0 cc 4d 27 bc 4a bf bc bd 04 f6 19 be e9 26 38 3d
       -0.010211419 -0.09216173 -0.15035254 0.044958983
0000e0 e1 58 04 3e de ac 28 be 13 14 8f 3d f8 9d 88 bd
       0.1292453 -0.16472194 0.06986251 -0.06670755
0000f0 d7 ff f2 bc ae 3e db bc 75 96 a6 bd 2a cf 90 39
       -0.02966301 -0.026763286 -0.08134166 0.0002762017
000100 97 f5 e1 bd 92 3d 83 3c 82 86 83 3e 6f 21 32 be
       -0.11033171 0.01602057 0.2568856 -0.17395566
000110 5f 7f 3f be 60 3b 4c 3e 67 5c e7 3d 85 da c3 bc
       -0.18700932 0.19944525 0.11296921 -0.02390791
000120 90 dc 60 3d 0f 8a fb 3c 81 80 8c bc 91 2d f8 bc
       0.054897845 0.03070548 -0.01715112 -0.030295165
000130 e3 53 70 bd 28 1b 29 3d b4 39 be bd 4a ca c5 3d
       -0.05867375 0.041285664 -0.0928835 0.09657724
000140 f5 39 7f bd 9b c6 17 3a aa 97 fc ba 26 d2 5d 3d
       -0.06231113 0.00057897874 -0.0019271274 0.05415549
000150 23 da 07 be 5b 6a 70 3e 85 bd 78 bb ac 0f 15 bd
       -0.13266806 0.23478071 -0.003795476 -0.0363919
000160 63 27 0b be d1 01 0b be 9f fa cc 3c d1 f9 9f bd
       -0.13589244 -0.13574912 0.02502185 -0.078113206
000170 d4 fe 1b 3d 54 3c 2e 3d 4f 41 c8 3d ca f2 69 3d
       0.03808482 0.042538002 0.097780816 0.057116307
000180 c5 41 a7 3d cb b6 06 3e 26 b8 bd bd 0e 6d fd bb
       0.081668414 0.13155667 -0.09263639 -0.0077339476
000190 33 b9 1a 3e 48 b7 cf bb e4 9b d0 3c 1e c6 9a bc
       0.1510971 -0.0063389875 0.02546496 -0.018893298
0001a0 58 bd f6 3c 7f 84 4f 3d e7 b9 8e 3d 23 90 b5 be
       0.030119583 0.050663467 0.06969052 -0.3546153
0001b0 e9 24 f7 bc 43 fe 40 3d f8 d5 d7 bc 6f d3 e8 3c
       -0.030168967 0.047117483 -0.026347145 0.028421132
0001c0 8c 2f 0b 3e 32 8d 81 3d ea 2d 2d bd f2 14 b9 bc
       0.13592356 0.06325759 -0.042280115 -0.022592995
0001d0 4b 57 ce bd be d5 53 3d 7c b3 52 bd 7f ff 7d 3d
       -0.100752436 0.051717512 -0.0514407 0.06201124
0001e0 73 1a a4 3c af 3b 8c bd 14 4f 12 be ac 15 ce bd
       0.020032143 -0.06847321 -0.14287978 -0.10062727
0001f0 93 40 fb bc fe 5e 20 bd af 45 c5 bd 0d 8c 11 bd
       -0.03067044 -0.03915309 -0.09632432 -0.035533953
000200 5f f6 b0 3d 16 fd 9b bd e4 ae 2f 3d 25 fb c8 bd
       0.086407416 -0.07616632 0.042891398 -0.09813527
000210 3e 7c 33 bd 2b 6a 82 bc 74 ab 6c bc eb 86 29 3d
       -0.04381966 -0.015919765 -0.0144451745 0.041388433
000220 9b 40 d2 bd 0a 5e e5 3c 2c d0 a9 bd 33 e8 ac 3d
       -0.10266229 0.027998943 -0.08291659 0.08442726
000230 18 a9 89 bc a9 81 1b bd 87 12 14 bd 7f 6c 71 3c
       -0.016804263 -0.03796545 -0.03615048 0.01473534
000240 97 28 ed 3c d4 92 fa 3d fa 40 84 3d 26 95 9c bc
       0.028950019 0.122350365 0.06457706 -0.019114088
000250 ac 24 87 3d ca 7e ef 3d 8f 4e ed 3d 9c e2 43 3d
       0.065987915 0.11694105 0.115872495 0.047823533
000260 6b 0f 8a 3d d3 61 1c bd cd f6 dd 3d c6 a9 b3 3d
       0.06741222 -0.03817923 0.10838089 0.08772616
000270 89 02 01 3e c4 58 82 3d 88 e6 e2 bd f9 a1 8b bd
       0.12598623 0.06364587 -0.110791266 -0.06818003
000280 4b b5 3e 3c 59 2d 9b bd a0 2a 0c bc f6 74 62 3d
       0.011639903 -0.07577009 -0.0085550845 0.055287324
000290 64 73 98 bd a9 9f b3 bc 33 88 cf bd 79 a0 aa 3c
       -0.07443884 -0.021926718 -0.101334 0.020828472
0002a0 4a 37 4c 3d 49 2c 76 bc d2 0a 0d bd 28 48 d2 3d
       0.049857415 -0.015025207 -0.034434147 0.10267669
0002b0 1f bd 74 bd 32 e7 77 3d 28 dc f9 bd 52 63 b4 bd
       -0.059750672 0.06052322 -0.122001946 -0.08808006
0002c0 62 fe d8 3c 07 11 b3 3d 6c 52 cc bd 05 09 e5 bd
       0.026488487 0.08743482 -0.09976658 -0.11183361
0002d0 7a 94 8c 3d 2b e7 b5 bd bc e5 c7 3d 30 72 a0 3c
       0.06864257 -0.088819824 0.09760615 0.019585699
0002e0 93 61 b2 3c 2a 22 5d 3d 13 b4 d1 bd c3 0e c5 bd
       0.021775043 0.05398766 -0.102394246 -0.09621956
0002f0 a7 31 f3 3d b0 c4 f5 bd f0 63 3e 3d be 3f 3c 3c
       0.11874705 -0.12000406 0.046482027 0.011489807
000300 5f 37 83 bc 6f a6 b8 bd ec e9 7e bd 42 cd 50 bc
       -0.016017614 -0.0901612 -0.062234804 -0.01274425
000310 0b 8e 08 3e 80 07 22 3e 6d a0 59 bd ba 2f 30 3e
       0.13335435 0.15823174 -0.05313151 0.17205706
000320 62 4d a6 bd 74 a7 d5 3d bb 79 c7 bd fe 34 69 3b
       -0.08120228 0.1043233 -0.09740015 0.0035584564
000330 a3 84 f5 bd 0c bb c9 be 35 12 53 3c 94 8a bc bd
       -0.11988189 -0.39400518 0.012882759 -0.09206119
000340 77 c9 09 bd 1d 22 48 3d 42 e7 24 3d 29 b0 9d bd
       -0.033639397 0.048860658 0.040259607 -0.076996155
000350 30 1d 4c 3d e5 30 c9 bc d4 89 fb bc cc e5 9d 3d
       0.049832523 -0.024559448 -0.03070537 0.07709846
000360 a6 a7 ee bd a6 57 25 3e 60 03 c2 bc 2f 64 41 3e
       -0.1165307 0.16146716 -0.02368325 0.18885873
000370 8e 16 f1 bd c7 eb bf bd 69 c3 1e 3e 65 35 c3 bb
       -0.1177188 -0.09371143 0.1550423 -0.005957293
000380 d4 2c a4 3d 37 99 c1 bc b5 a3 45 bf 69 64 55 bd
       0.08016363 -0.023632629 -0.7720292 -0.05209771
000390 38 dd ec 3d b6 4b 38 bb d9 64 7a bd 88 e4 35 bc
       0.11565632 -0.00281213 -0.061131332 -0.011101849
0003a0 57 0d d0 3d 54 85 16 be dc f1 ae bd 49 d2 00 bd
       0.101587944 -0.14699298 -0.08542225 -0.031450544
0003b0 f0 48 5f ba dc 53 18 3e cb 94 8b 3d ac 6e d1 3d
       -0.00085176434 0.1487574 0.068154894 0.10226187
0003c0 77 c1 80 3e e6 a3 c3 3e 11 da 69 3d 5e de 42 3d
       0.25147602 0.38210982 0.05709273 0.047575347
0003d0 21 57 56 bd 7e 48 08 be 22 95 a9 3d 2d 14 3f 3f
       -0.052329186 -0.13308904 0.08280398 0.7464016
0003e0 a8 ae bd bc 11 f5 8e bd 49 69 e7 3d 6b 86 c1 3d
       -0.023154572 -0.069803365 0.112993784 0.09449466
0003f0 6a d9 0f be 87 2a d6 bd 3f 35 86 bd ea 08 84 be
       -0.1404778 -0.1045733 -0.06553125 -0.2578805

base.mlp.fc.0.bias f4 [128]
000000 2e 37 97 3c 8c 04 a2 3d 69 e4 3e bc b7 92 98 3d
       0.018458929 0.079110235 -0.011651137 0.07449859
000010 4a 46 78 3d 16 79 a8 3d 2d 61 29 be d8 3c ed bc
       0.060613908 0.0822622 -0.16540976 -0.028959677
000020 b1 1e b0 3d 16 fa b2 3c 78 69 4a bd e9 16 c1 3d
       0.08599604 0.021847766 -0.04941699 0.09428198
000030 42 4d c3 3d e2 57 87 bc 65 e0 0b be 8a 79 22 bc
       0.0953622 -0.016521398 -0.13659818 -0.0099166725
000040 c6 12 8e bc 9e 1b 46 3d cf eb 1e 3d cc c2 e5 bd
       -0.017342936 0.04836618 0.038799103 -0.11218795
000050 11 69 fa bc 34 33 03 be 6b 7a 19 3c b0 6b 09 bd
       -0.030567678 -0.12812501 0.009367566 -0.033549964
000060 f8 fd 42 3c 10 fd 9a 3d 4f f8 1e 3c 3e 68 48 3d
       0.011901371 0.07567799 0.009702756 0.048927538
000070 33 d6 26 3c 83 88 de bc 37 ca 0e bd 55 18 b2 3c
       0.010182905 -0.027164703 -0.034860816 0.021740118
000080 a0 6b 81 bd 98 f0 9d bd e6 43 cd bc 96 0b f4 bd
       -0.06319356 -0.07711905 -0.02505679 -0.11916272
000090 f3 1f 11 3c db 08 b9 3d 42 47 e6 bd 01 85 ec bd
       0.008857715 0.09034892 -0.1124406 -0.11548806
0000a0 90 3c b9 bd b0 2c 0c 3d f4 38 41 3d 2e 3c 07 be
       -0.090447545 0.034222305 0.047173455 -0.1320655
0000b0 7b 97 09 be 24 e9 39 3d 8a 57 91 bd 1f 3f ae bd
       -0.13436691 0.045388356 -0.07096775 -0.08508133
0000c0 ef 47 83 3d 43 89 5e ba 36 32 47 bc c6 ed d7 bd
       0.064102046 -0.00084890815 -0.012157967 -0.105433986
0000d0 cf 86 98 bc b8 cc c1 bd 94 7e 85 bd 36 3f 8e 3d
       -0.01861897 -0.09462875 -0.065182835 0.0694565
0000e0 79 ec f1 3c f1 0c 5f bc 9a 30 cb 3d 47 ae f6 bd
       0.029531704 -0.013613925 0.099213794 -0.120449595
0000f0 ac be 4f 3d fd 98 b1 3c 94 b8 12 3e 8b 3f 49 bd
       0.05071895 0.021679396 0.14328223 -0.049132865
000100 42 17 d7 3c a9 47 cc bd 89 47 c7 3d 60 da a2 3c
       0.026256207 -0.099746056 0.09730441 0.01987952
000110 fa 24 c5 bb 9a 32 92 3d 22 4b 4e 3d f4 08 6e bd
       -0.006016371 0.07138558 0.05036462 -0.058114007
000120 6e f3 48 bc fd 15 4b bd b3 d6 a9 bc 6b 62 50 bd
       -0.012265069 -0.049581517 -0.02073226 -0.05087511
000130 51 66 74 bd d0 26 47 bd 06 9d 98 bd ab 3a 10 bd
       -0.05966789 -0.048621 -0.07451825 -0.0352122
000140 15 6b 70 bd 5a 98 1b be 81 bf 9f 3c 5c 0d e3 bd
       -0.05869587 -0.15194836 0.019500496 -0.110865325
000150 c9 09 3b bd 2d 88 c6 bd ec 1f ee 3d ec 76 e0 3c
       -0.04566363 -0.09693942 0.11627182 0.027400456
000160 d5 7d 77 3c f8 2a d3 bd ef c9 d0 3d 23 f1 f6 3c
       0.015105684 -0.1031093 0.10194766 0.03014428
000170 b6 99 23 be 50 dc d8 bd 3c da f6 3d 86 ab 30 bd
       -0.15976605 -0.10588896 0.12053344 -0.043132327
000180 f1 19 dd 3c e2 60 f3 bd 39 cb 01 3c 10 e5 aa 3d
       0.026989909 -0.11883713 0.007921987 0.083444715
000190 b9 94 a7 bd 79 03 7f bd da a3 94 bd 49 b8 ba 3d
       -0.081826635 -0.06225917 -0.07257815 0.09117181
0001a0 f9 95 19 bd a0 50 47 3d 94 7c fe bd 0a af ad bd
       -0.03749654 0.048660874 -0.12426105 -0.08480652
0001b0 54 c1 8c 3d 20 09 2c 3d da c2 93 3d 38 b8 c5 bc
       0.06872812 0.04200089 0.07214899 -0.024135694
0001c0 a7 f7 eb 3d 8b 69 c8 bd c4 d9 fb bd 14 f8 17 bd
       0.11521845 -0.09785756 -0.12297395 -0.03710182
0001d0 4a ef c0 3d d3 b9 ae bb 41 1d ec bd ed 0f c6 3d
       0.09420641 -0.0053322106 -0.11529017 0.09671006
0001e0 31 8d 11 3c 69 4e 9d 3c b2 95 f0 bd 8e 59 28 3d
       0.00888376 0.019202428 -0.11747302 0.04110103
0001f0 d6 28 e6 bd d4 c9 05 3e 1c 1b 93 3c 14 5c 1c be
       -0.112382576 0.13065273 0.017957263 -0.152695

base.mlp.fc.2.weight f4 [128]
000000 91 c3 55 3f 63 be 37 3f d1 68 52 3f 1e 27 88 3f
       0.83501536 0.7177488 0.8219119 1.0636938
000010 ce 30 72 3f 3e 14 53 3f 12 5a 4d 3f 94 74 56 3f
       0.9460572 0.8245276 0.8021556 0.83771634
000020 06 1d 52 3f 31 24 4f 3f 8f ee 91 3f ae 28 6f 3f
       0.82075536 0.809146 1.1400927 0.9342145
000030 37 66 34 3f 6f 0e 69 3f d1 09 7c 3f 76 d6 84 3f
       0.7046847 0.9103765 0.9845248 1.0377948
000040 01 60 7b 3f 88 71 8a 3f 38 26 69 3f 0a 8b 63 3f
       0.98193365 1.0815897 0.9107394 0.8888403
000050 b8 e8 5b 3f 2e a7 50 3f 8e 80 84 3f 8f 2d 63 3f
       0.85901976 0.81505096 1.0351732 0.8874139
000060 76 c9 61 3f 63 ee 65 3f d4 24 8a 3f c8 88 3f 3f
       0.8819803 0.89816874 1.0792489 0.74818087
000070 6d c9 63 3f 42 97 4c 3f d1 82 51 3f e8 06 3b 3f
       0.88979226 0.799183 0.81840235 0.73057413
000080 18 46 53 3f 59 9d 3e 3f 72 14 5a 3f fe 07 74 3f
       0.8252883 0.74458843 0.8518745 0.95324695
000090 ba 8e 62 3f 66 f1 68 3f e7 ce 80 3f 2f 71 41 3f
       0.88499033 0.90993345 1.0063142 0.7556333
0000a0 e0 a9 69 3f a7 3b 70 3f 1e 96 8d 3f 44 93 85 3f
       0.91274834 0.9384102 1.1061437 1.0435567
0000b0 ca f7 8d 3f 5b 81 5e 3f 33 45 8d 3f fd 8a 82 3f
       1.1091244 0.8691613 1.1036743 1.0198666
0000c0 86 ed 47 3f 91 91 30 3f ae 38 86 3f e9 6b 70 3f
       0.78096807 0.68972117 1.0486047 0.9391466
0000d0 a4 e3 53 3f d9 25 85 3f ac 3d 3a 3f 95 70 4e 3f
       0.8276923 1.0402175 0.72750354 0.80640537
0000e0 c2 2a 48 3f a0 cf 3c 3f 49 6e 89 3f bc ab 8a 3f
       0.78190243 0.7375431 1.0736781 1.0833659
0000f0 b0 d1 83 3f 20 c7 70 3f dd 7a 62 3f f7 3c 83 3f
       1.0298367 0.9405384 0.88468724 1.025298
000100 d7 66 68 3f 7f 17 6b 3f 24 0a 57 3f 38 2b 2a 3f
       0.9078192 0.9183273 0.8399985 0.66472197
000110 07 52 8e 3f 55 3d 67 3f 96 68 71 3f 4e 99 2c 3f
       1.1118783 0.9032796 0.9430021 0.67421424
000120 b2 4c 69 3f 97 ea 88 3f 35 bb 5f 3f 25 3c 6c 3f
       0.9113265 1.0696591 0.8739503 0.92279273
000130 52 b0 45 3f 22 59 4a 3f b4 19 6a 3f 47 60 55 3f
       0.7722217 0.79042256 0.9144547 0.8335003
000140 0a bf 50 3f c3 8c 76 3f 97 f6 84 3f ae 17 61 3f
       0.815415 0.96308535 1.0387753 0.8792676
000150 f9 02 46 3f 5b ac 6e 3f a6 fd 8b 3f 21 72 4f 3f
       0.77348286 0.93231744 1.0936782 0.8103352
000160 c3 dc 58 3f 64 82 75 3f ab e0 95 3f a2 fb 81 3f
       0.84711856 0.95902085 1.1709188 1.0154917
000170 a1 e6 4c 3f a2 16 6c 3f 6e 95 88 3f e6 a3 50 3f
       0.8003941 0.92222035 1.0670602 0.8150009
000180 c7 b7 5e 3f d1 41 80 3f d2 40 9c 3f b5 d1 55 3f
       0.8699917 1.0020086 1.2207282 0.8352311
000190 31 5a 57 3f 19 73 64 3f b5 a7 5a 3f 4d 7b 42 3f
       0.84121996 0.89238125 0.8541215 0.7596939
0001a0 72 2d 7e 3f ff 7b 5a 3f 62 c2 61 3f 2a 8e 60 3f
       0.99288094 0.85345453 0.8818723 0.87716925
0001b0 f7 a4 70 3f 14 45 41 3f 44 f5 5d 3f cf 3a 73 3f
       0.94001716 0.7549603 0.8670237 0.9501161
0001c0 b4 ad 60 3f 6e 54 73 3f ce 30 5d 3f ab 87 89 3f
       0.8776505 0.95050704 0.86402595 1.0744528
0001d0 7b 49 83 3f af 32 28 3f d1 ee 41 3f 26 dc 89 3f
       1.02568 0.6570234 0.7575503 1.0770309
0001e0 e0 16 59 3f 86 39 53 3f 9b 5d 8f 3f 6d 24 5d 3f
       0.8480053 0.8250965 1.1200441 0.86383706
0001f0 89 71 74 3f f7 e7 6d 3f fb 09 62 3f 53 e8 80 3f
       0.9548574 0.92932075 0.8829648 1.00709

base.mlp.fc.2.bias f4 [128]
000000 1c 16 d3 3d 0e e6 5f 3e e3 81 3e 3e 95 0b 09 3b
       0.103069514 0.21865103 0.18604235 0.0020911444
000010 0b bc 19 3c b2 09 00 3e a6 f4 f5 3d d8 a4 2d 3e
       0.009383212 0.12503698 0.120095536 0.16957414
000020 bb ad 1b 3e 47 87 08 3e 42 37 b1 bb 59 72 95 3d
       0.15202992 0.13332854 -0.0054081986 0.07297201
000030 e4 1f 64 3e 08 0a c3 3d ce 9e 95 3c 4a 39 8b bc
       0.2227779 0.09523398 0.0182642 -0.016995091
000040 3f 18 b9 3c 72 d1 bf 3b 59 cd d2 3d 9b d4 ec 3d
       0.02259457 0.0058538252 0.10293073 0.11563989
000050 9c a7 81 3d 21 e4 04 3e 0e 83 1f 3c 7b ce f1 3d
       0.06330797 0.1297765 0.009735836 0.11806961
000060 09 e6 90 3d dc 75 d7 3c 01 92 98 bc 14 14 72 3e
       0.07075126 0.026301317 -0.018624308 0.23640472
000070 31 d7 f3 3d 66 93 dd 3d f1 b8 db 3d a7 07 88 3e
       0.11906279 0.1081913 0.10728634 0.26568338
000080 45 c6 fc 3d 2f 85 b3 3d e1 53 09 3d 88 a4 e1 bc
       0.123425044 0.08765637 0.03352726 -0.027544275
000090 92 b1 f2 3d 13 6f 6e 3c 94 2d 84 3c af 26 55 3e
       0.11850275 0.014552849 0.016135015 0.20815538
0000a0 96 d6 b6 3d 28 dc 1d 3c 3a 4f 9e 3c 9d cd ab bc
       0.08927648 0.009635009 0.019324888 -0.020972067
0000b0 e9 9d ca bc d5 52 49 3c 91 36 a6 ba 8b d8 80 3c
       -0.0247335 0.012287815 -0.0012681057 0.015728256
0000c0 8b a7 ed 3c 21 07 68 3e 40 81 3f 3c c5 f2 82 3d
       0.029010555 0.2265897 0.01168853 0.06393961
0000d0 de 98 03 3e 63 98 b4 3c d9 6a 1b 3e f1 6c 22 3e
       0.12851283 0.02204532 0.15177478 0.1586187
0000e0 0c d6 4f 3e 43 ac 23 3e 95 01 86 3b 20 54 5d bd
       0.20296496 0.15983681 0.004089544 -0.054035306
0000f0 7f 93 13 bd ea ac a5 bc d7 c1 f6 3d dd 04 e2 3b
       -0.036029335 -0.020224053 0.12048691 0.0068975524
000100 3f 88 bd 3d b8 41 37 3c fd b5 b3 3d a7 76 5d 3e
       0.092545025 0.011185102 0.08774946 0.21627294
000110 08 06 d0 3c 4e d8 8f 3d 61 ca 38 3d 4d 6c 84 3e
       0.0253935 0.07023679 0.04511488 0.25863877
000120 64 51 4d 3d 9d 53 10 3b 65 e2 01 3e ca 81 56 bc
       0.05012645 0.0022022494 0.12684019 -0.013092468
000130 bb a5 6d 3e e8 8a 1b 3e 79 bc c6 3d 6c 30 b1 3d
       0.23207752 0.15189707 0.09703917 0.08651814
000140 4e 51 47 3e 0a ca 82 3c 30 c9 9e bc bc 62 cc 3d
       0.19464609 0.01596548 -0.019383043 0.099797696
000150 99 e9 13 3e 78 e6 9f 3d 32 ca c6 bb c9 9b 48 3e
       0.14444579 0.0780763 -0.006066584 0.19590677
000160 67 73 22 3e 69 93 89 bc 30 db a1 bc 82 24 3c bd
       0.15864335 -0.016793923 -0.019757837 -0.045933254
000170 8b e2 08 3e ba 15 b2 3d 75 ee 25 bc 80 83 0f 3e
       0.1336767 0.0869555 -0.010127653 0.14015007
000180 38 c4 b3 3d 0f 29 2d bd 78 95 9b 3c 46 53 33 3e
       0.0877766 -0.042275485 0.01899217 0.17512235
000190 af dc 26 3e fe 66 ee 3d 7b e1 24 3e 9f 6d 56 3e
       0.16295122 0.11640738 0.16101639 0.20940255
0001a0 1b 26 84 bc 25 55 35 3e a1 a4 03 3e 7b db 05 3e
       -0.016131451 0.17708261 0.1285577 0.13072006
0001b0 92 34 91 3d 4d ad 77 3e a8 dd 84 3d 70 c9 75 bc
       0.07090105 0.24187203 0.0648759 -0.01500164
0001c0 9b 44 06 3e ae 44 75 3d e0 19 17 3e f8 bc 98 bc
       0.13112108 0.05987995 0.14755964 -0.018644795
0001d0 ea a0 9b 3c 8b 84 90 3e 06 b3 33 3e 81 7a 01 bd
       0.018997628 0.28226122 0.17548761 -0.03161097
0001e0 bf ef c8 3d 91 fb d1 3d 1b 9f 0c 3c a7 86 1b 3e
       0.09811353 0.102530606 0.008582856 0.15188085
0001f0 94 3b 68 3d 3f f9 06 3e bb 45 37 3d 00 11 ca 3b
       0.056697443 0.13181017 0.044744235 0.0061665773

base.mlp.fc.3.weight f4 [128, 128]
000000 0d 2c 89 3d 03 30 ca bb 2c 80 8c 3d 5b c4 cc 3d
       0.06697855 -0.006170274 0.06860384 0.09998389
000010 be 3d 31 be d5 bf 4d bd 9c 10 b0 3d ca 9d 90 bb
       -0.17308709 -0.050231773 0.08596918 -0.004413341
000020 19 b2 b6 3d b3 6e bc bd 00 74 5e be ec 8a 8f 3d
       0.08920688 -0.09200802 -0.21723938 0.07008919
000030 4d e4 14 bd ad f1 a3 3c 8f 09 01 be 36 fa 3c be
       -0.036350537 0.0200127 -0.12601303 -0.18454823
000040 10 d8 75 bd c3 8a 61 be 49 4a 54 bc 59 55 88 3d
       -0.060020506 -0.2202559 -0.012957164 0.06656904
000050 48 cd 5c 3d 9e 58 72 3d 76 95 69 bc 39 b8 61 bd
       0.05390671 0.059166543 -0.014256826 -0.05510733
000060 c2 15 b6 3c 2f 7b 00 bc fa 01 68 bd 7c 5e e0 3d
       0.022227172 -0.007841869 -0.05664251 0.109555215
000070 ec 29 02 bd 06 76 ca bc 09 39 2c bc 84 c6 3b 3d
       -0.03177826 -0.024714481 -0.010511645 0.045843616
000080 f9 a8 1d 3d 05 38 9d 3c 8a fd 03 be b7 f6 d8 3c
       0.038491223 0.019191751 -0.12889686 0.02648483
000090 2b e7 12 bc 4c a5 1d 3b 06 18 0c 3d 6d 87 21 bd
       -0.008966248 0.0024054823 0.034202598 -0.039435793
0000a0 5b 23 9b 3d b4 47 5f 3e 55 22 66 be 18 b0 39 3e
       0.07575103 0.21804696 -0.22474034 0.1813358
0000b0 07 21 42 3e 2d d8 16 bc ad f5 08 3e 5f de 9c 3b
       0.18957911 -0.009206814 0.13374968 0.004787251
0000c0 ab ce 23 bc 58 8e c2 3c cf 58 19 be d9 a6 2a bd
       -0.009998004 0.023749515 -0.14975284 -0.041663025
0000d0 1d 85 9d bc 8c 1d 94 bd fd b4 19 bd 19 4e b4 3d
       -0.019228512 -0.07232198 -0.03752612 0.088039584
0000e0 ef 17 4a 3d a2 e1 31 3d e4 f6 e7 bd 1d bc 9f 3d
       0.04933923 0.04342807 -0.113263875 0.07799552
0000f0 ee a2 91 bd 17 c4 bb bc 9d 66 e5 bc 35 6a 13 3e
       -0.071111545 -0.022920651 -0.028003031 0.14395984
000100 92 97 7f 3d 21 2e 5e 3d a2 1f 09 3b 13 01 68 bd
       0.062400408 0.05424321 0.0020923396 -0.05664165
000110 bd fc b6 bd d8 19 96 3d 79 f7 8f bd 58 2f 4e 3d
       -0.08934925 0.07329148 -0.070296235 0.05033812
000120 ce 2f 16 bd dc bc 7c bd dc 4e d7 3d aa 5f 6f bd
       -0.036666684 -0.061703548 0.10513088 -0.05844084
000130 91 5f f7 3d 57 0b 08 bd a3 20 d7 3d 2c ab 4d bb
       0.12078775 -0.03321394 0.10504272 -0.0031382544
000140 67 68 a6 bc e7 72 5f bc 7a 48 08 be 39 0f 00 3e
       -0.020313455 -0.013638235 -0.13308898 0.12505807
000150 d3 62 07 3e 5c 46 ac 3d 94 08 19 3c d5 76 8b 3d
       0.13221292 0.084118575 0.009340424 0.06809775
000160 ec 1c 81 bc 8b 03 cd 3d a4 40 9a bc 6e 80 90 3c
       -0.015760861 0.100104414 -0.018829651 0.017639365
000170 ea ce 10 bd c0 e7 1c 3c 2a 08 79 3d 9d b3 5e 3d
       -0.03535358 0.009576738 0.0607988 0.05437051
000180 8c f9 e3 bd 9d d4 84 3c 47 c7 2b be 61 b5 44 3d
       -0.11131582 0.016214663 -0.16775237 0.04802454
000190 e0 be b4 3c 99 5f 9a 3d b6 e8 da 3d 0e 2f cc 3d
       0.022063673 0.07537765 0.10688917 0.099699125
0001a0 36 40 e2 3c 60 f6 bd 3c be 98 0f bd a5 2e af 3c
       0.027618509 0.02318877 -0.035057776 0.021384547
0001b0 ae a5 5e 3c e8 8d ee 3c 3f ef 9c 3d c3 1c ad 3d
       0.013589306 0.0291204 0.0766282 0.084527515
0001c0 54 9b 98 3d e2 b7 4b bd 27 ec 35 bd ea 1c 47 3d
       0.074515015 -0.04973591 -0.044414666 0.04861156
0001d0 78 78 c7 3d 46 1d af bd 75 0f ee 3c 50 66 ee 3d
       0.097397745 -0.08550505 0.029060105 0.11640608
0001e0 35 22 58 bd 9b f0 0b be b2 3a e1 bd 1a 1e 1e bd
       -0.052766997 -0.13666002 -0.10997523 -0.038602926
0001f0 3f 77 4d 3d bf cc 6f 3c 3a 41 7b bc e5 9b 99 bd
       0.05016255 0.014636218 -0.015335375 -0.07500438
000200 fa a2 9f bd da 88 84 3b af e2 04 be 10 24 65 bc
       -0.07794757 0.0040446343 -0.12977098 -0.013985649
000210 17 57 11 bd 54 c7 1a 3d e3 0c 3d bd ba 24 4d bd
       -0.035483446 0.03778775 -0.046154868 -0.050083853
000220 62 f2 d6 bc 83 8a 44 ba 2b 33 84 3d 11 e2 e0 3b
       -0.026238624 -0.00074974465 0.06455072 0.0068628867
000230 80 df 71 bd 84 24 86 3c 72 22 4a 3d b8 b3 7c bd
       -0.059051037 0.016374834 0.049349256 -0.06169483
000240 bc 7d 08 3d 0c 79 8a bd b8 d0 b4 bd 7d d0 06 be
       0.033323035 -0.06761369 -0.088288724 -0.1316547
000250 76 08 95 3c 04 5d 31 bd d2 38 ee bc e6 8a 32 3c
       0.018192511 -0.043301597 -0.029079828 0.010897374
000260 b9 75 d9 3c 90 1a a9 3d 97 f5 38 3e 4a cb 25 bd
       0.026545392 0.082570195 0.18062435 -0.040477075
000270 45 d0 ed bd 65 6f aa bd 16 c5 7a 3d f0 41 d0 bd
       -0.1161199 -0.08322028 0.061223112 -0.101688266
000280 64 f8 42 bd 32 79 95 bc 06 6b 8f bc 7f 01 7b bd
       -0.047600165 -0.018246267 -0.017507087 -0.061280724
000290 8b de 82 3c c1 5e 0e bd 90 ff 4e bd 57 19 a5 bd
       0.015975257 -0.034758333 -0.050536692 -0.08061474
0002a0 22 75 aa bc 4b 4d 29 3c a8 14 06 bd 23 2c 4f bd
       -0.020807806 0.0103333695 -0.032734543 -0.0505792
0002b0 a9 ca f9 3b 05 58 24 3d 22 bb 26 3d 15 e3 30 bd
       0.007623036 0.040123004 0.040705808 -0.043185312
0002c0 aa e5 25 bd 6f f9 84 3d 2a 22 8b 3b f5 57 0b be
       -0.040502228 0.06492888 0.004246016 -0.13607772
0002d0 a5 d8 01 be 5e 33 47 3d 0d c5 49 bd b9 28 6e bc
       -0.126803 0.048632972 -0.049260188 -0.014536076
0002e0 c4 49 bc bd 7e 12 84 3c 9d 85 40 3d d4 f5 a8 3d
       -0.09193757 0.016122099 0.047002424 0.08250013
0002f0 49 29 80 bb f9 7d eb bd 28 17 d0 3d c6 2d ff bb
       -0.0039111716 -0.11498637 0.10160667 -0.007787439
000300 50 79 8b bd 53 23 40 3d d7 e3 41 3c 52 72 3b 3a
       -0.06810248 0.046908688 0.011834106 0.0007150519
000310 4d 4b fa bc 01 99 ae 3c 55 c5 22 bd 51 4f fc bd
       -0.030553484 0.021313192 -0.03973897 -0.12319816
000320 3d c3 6f 3c 7d 24 13 bd 48 9d ee bc 8a e3 3b 3d
       0.014633951 -0.03592347 -0.029127732 0.045871295
000330 ce 74 bf bd f7 9a 7a bd 58 62 33 bd 1e 2e 2f bd
       -0.093484506 -0.061182942 -0.04379496 -0.04276859
000340 d1 f1 fd bd 86 16 d0 bd 61 f2 94 3c 9c a6 8d bd
       -0.123996384 -0.10160546 0.018181982 -0.06916544
000350 7a d4 51 bd f6 0c 26 bd 32 eb 77 3d d7 37 cd bd
       -0.051228024 -0.040539704 0.060527034 -0.10020416
000360 43 d2 8c bd d2 6a 47 bd ef 42 11 bd 98 af d9 3d
       -0.06876042 -0.048685856 -0.035464223 0.10629195
000370 d0 2f 6f bd be c4 07 be 0f 4d 62 3e 8d 0e 9c bb
       -0.058395207 -0.13258645 0.22099708 -0.004762477
000380 4b bc cc bd e0 14 92 3d ef a1 c0 bd 46 df de bc
       -0.099968515 0.07132888 -0.094058864 -0.027206074
000390 c9 17 a1 bd eb bf 01 be 22 d8 c8 bd 93 5d a3 3b
       -0.07865865 -0.12670867 -0.09806849 0.00498552
0003a0 1e af 05 3c 2e 8e a2 3d 2d ed 04 be e8 34 a9 bd
       0.008159427 0.07937275 -0.129811 -0.08262044
0003b0 69 91 17 3e 05 37 ec bd 7f 3d 04 3e 60 b1 05 3d
       0.14801563 -0.11533932 0.12914084 0.03263986
0003c0 52 7c c7 bd 24 cc 5c bd d8 e2 15 3c 9b ae 3e 3e
       -0.09740509 -0.05390562 0.009148322 0.18621294
0003d0 5e f1 82 3d 0f 76 7b bc 22 67 9f bb ba 67 f9 3d
       0.063936934 -0.015347972 -0.0048645893 0.121779874
0003e0 18 93 24 3d 4d f8 14 3d 1b be 91 3b 99 25 b5 bc
       0.040179342 0.03636961 0.004447711 -0.022112655
0003f0 d1 19 5d bd 80 da 5a 3c e4 f1 be bd 39 b6 ca bd
       -0.0539797 0.0133577585 -0.09323481 -0.098980375

base.mlp.fc.3.bias f4 [128]
000000 a5 40 2b bd c2 c9 9f 3c 19 b7 6f bd 35 e9 74 3d
       -0.041809697 0.019505385 -0.058524225 0.059792716
000010 14 96 c6 3d b0 8a 18 bd 9f 01 12 bd bd 0b d2 bd
       0.09696594 -0.037241638 -0.035646077 -0.10256145
000020 7b 58 da 3d 6c 34 33 3d 62 11 d8 3b 89 50 28 bd
       0.106614076 0.043751165 0.006593869 -0.04109243
000030 70 35 57 3d 03 2c 03 be 82 1e 43 3d d9 e3 9d bd
       0.052541196 -0.12809758 0.047636516 -0.07709474
000040 55 04 10 bd 15 a4 bd bd 14 4a e9 3c 4e ea 6a 3d
       -0.03516038 -0.09259812 0.028477706 0.057352357
000050 07 5b 88 bd c6 65 ab 3d d6 28 af 3d d1 5f 5b bc
       -0.06657987 0.08369021 0.08552711 -0.013389544
000060 bb 65 fd 3c 9e ea 77 bd 20 1d ce 3d c9 d3 1e bb
       0.030932298 -0.060526483 0.10064149 -0.002423512
000070 df 91 be bb 07 0c 91 bc 35 09 00 3e 67 1f 33 bd
       -0.005815729 -0.01770593 0.12503512 -0.04373112
000080 35 af 2e bb 1f b6 8a bd a0 11 1c be bf 69 78 3d
       -0.0026654724 -0.06773018 -0.15241098 0.060647722
000090 f2 82 bd 3b 8d f3 be 3d a5 9f a8 3d 8d be 3f bc
       0.005783432 0.093237974 0.08233575 -0.011703146
0000a0 c8 64 8f bd 3a f8 0b 3b fa ae 72 3d c3 0e 6f 3d
       -0.070016444 0.0021357671 0.059248902 0.058363687
0000b0 ed 10 82 3c 06 a8 87 3d 9d f0 a4 bd f1 0e 51 bd
       0.015877211 0.06623845 -0.08053706 -0.05103964
0000c0 0e b0 2e bd 74 c5 c8 3d d0 e3 ef 3c 32 40 82 bd
       -0.042648368 0.09803286 0.029283434 -0.063599005
0000d0 66 64 89 bd 52 42 94 3d 21 0f 7e 3d f9 01 4f bc
       -0.067086026 0.07239212 0.062026147 -0.012634748
0000e0 72 29 db 3d 7d 20 04 be 89 7a 23 3d 5a 46 9d 3d
       0.107012644 -0.12903018 0.03991178 0.07679434
0000f0 90 eb 9c 3b 93 60 7d bd 9d f4 e7 bd 6d e5 39 bd
       0.0047888234 -0.06185968 -0.11325953 -0.045384813
000100 ad 89 1e be b0 87 e9 3d 67 b6 6a bc 69 bd ef bd
       -0.15482207 0.114028335 -0.014325715 -0.11706049
000110 0e 71 e7 bd 71 a2 30 be b2 8a b5 3c 63 1b 3b 3b
       -0.1130086 -0.17249466 0.022160862 0.002855026
000120 78 ad 2c be 1e 11 79 3d 04 be b8 bb fb a4 b0 3d
       -0.16863048 0.06080734 -0.005637886 0.086252175
000130 de 22 56 bc c4 28 46 bd 37 74 4e 3d 9e c1 d1 3d
       -0.013069836 -0.04837872 0.0504038 0.10242008
000140 7c 3b 99 bd 73 63 e9 3d 1f 3c 4a 3d a9 73 40 bd
       -0.07482049 0.113959216 0.049373742 -0.046985302
000150 50 c7 cf bb 86 97 15 bd 2a 1b 52 3d 67 d1 98 bd
       -0.0063408986 -0.036521457 0.051295437 -0.07461815
000160 1e c2 89 3d 2a 17 8e bd 87 0b b8 3d 37 fe fc bb
       0.06726478 -0.06938012 0.08986574 -0.0077207345
000170 e6 cf 4d bc 43 7e cf 3d 2b 66 b0 3d 1d 5b 96 bd
       -0.012561774 0.101315044 0.08613237 -0.07341597
000180 9a 99 db 3b 33 0b c5 3c f0 54 d5 bd b5 c4 40 bd
       0.0067016603 0.024053192 -0.10416591 -0.047062594
000190 7e 9f 41 3b 1e fd 88 3d 2e 35 28 bd d1 86 8b bd
       0.0029544528 0.06688903 -0.04106634 -0.068128236
0001a0 88 ba 0f be 9e c6 d9 3c e8 da ae 3d 84 ab 63 bc
       -0.14036 0.026583966 0.08537847 -0.013895873
0001b0 ea f4 00 be f9 c4 f1 bd 76 84 d2 bd 46 84 3f bd
       -0.12593427 -0.11805148 -0.10279171 -0.046757005
0001c0 15 37 28 be 6d c1 50 3d 9c d3 7e 3c e1 b7 b0 3d
       -0.16427262 0.050965715 0.015553381 0.08628822
0001d0 70 ab 9b bd 2f 47 35 3c db 0d 12 bd a1 e7 c9 3c
       -0.076010585 0.011064335 -0.035657745 0.024646582
0001e0 c3 16 a3 bd f3 4f cf 3d bb ca fa 3d 11 7a db bd
       -0.07963326 0.10122671 0.12245699 -0.10716642
0001f0 6a 73 4c bc ff 6c d2 bd 2a 04 d3 bc fe 1f a5 3d
       -0.012478689 -0.102746956 -0.025758822 0.08062743

base.mlp.fc.5.weight f4 [128]
000000 aa 17 84 3f 89 95 8a 3f 85 7e 80 3f 1a b4 5c 3f
       1.0319722 1.0826885 1.0038611 0.86212313
000010 1d 69 8c 3f 03 61 75 3f 3f 55 87 3f 5e 3f 7b 3f
       1.0969578 0.95851153 1.057289 0.98143566
000020 1d 6d 6e 3f c8 79 5b 3f 51 ef 84 3f 09 67 87 3f
       0.93135244 0.857327 1.0385534 1.0578319
000030 18 6c 82 3f f5 a9 74 3f 6f c2 82 3f d2 0a 80 3f
       1.0189238 0.95571834 1.0215586 1.0003302
000040 04 74 79 3f e6 74 75 3f 08 9d 82 3f 5e 4f 86 3f
       0.9744265 0.958815 1.0204172 1.0492971
000050 86 de 67 3f 1a 6b 61 3f 70 c7 84 3f 9f 44 56 3f
       0.9057392 0.8805405 1.0373363 0.8369846
000060 07 44 7b 3f 08 63 8e 3f 05 30 72 3f 3a 98 84 3f
       0.98150676 1.1123972 0.9460452 1.0358956
000070 88 ed 73 3f 96 3e 86 3f b2 1f 87 3f 44 f9 7c 3f
       0.9528432 1.048785 1.0556548 0.9881785
000080 87 52 82 3f f5 09 5b 3f 9a 24 83 3f f0 29 6f 3f
       1.0181435 0.8556207 1.0245545 0.93423367
000090 d1 13 82 3f 4a 48 85 3f 83 15 7b 3f e8 79 88 3f
       1.0162297 1.0412686 0.980797 1.0662203
0000a0 1a 31 83 3f 95 e0 74 3f 5a 42 76 3f 79 ab 7b 3f
       1.024936 0.95655185 0.96194994 0.9830852
0000b0 4c 26 72 3f cb ee 86 3f 38 00 86 3f 44 1d 78 3f
       0.94589686 1.0541624 1.0468817 0.96919656
0000c0 ad f8 91 3f 71 10 7a 3f 7e cf 6b 3f 7f c0 72 3f
       1.1404015 0.9768134 0.9211348 0.94824976
0000d0 8f 9e 82 3f 9e 67 56 3f 13 66 82 3f 22 a1 6e 3f
       1.0204638 0.8375186 1.01874 0.9321462
0000e0 f3 90 8a 3f a3 20 5a 3f d4 8c 6b 3f 74 69 84 3f
       1.0825485 0.8520605 0.9201176 1.0344682
0000f0 bf 4b 7e 3f 3b f6 65 3f db 47 86 3f 0b 6e 80 3f
       0.9933433 0.8982884 1.0490679 1.0033582
000100 e6 c3 80 3f 19 71 8b 3f 9c bc 82 3f ff 39 63 3f
       1.0059783 1.089389 1.0213809 0.8876037
000110 21 60 7b 3f 21 ab 69 3f d4 92 8c 3f 78 13 79 3f
       0.98193556 0.91276747 1.0982308 0.9729533
000120 42 28 84 3f 91 85 71 3f 9b 80 87 3f 30 76 74 3f
       1.0324786 0.9434443 1.0586122 0.9549284
000130 20 ed 78 3f 3c b8 85 3f 8a 8c 45 3f c7 e1 60 3f
       0.97236824 1.0446849 0.7716757 0.8784451
000140 e4 e2 66 3f c6 31 73 3f 4b b0 6f 3f 53 7c 87 3f
       0.9018996 0.94997823 0.93628377 1.0584816
000150 ae c1 81 3f b0 9a 6f 3f dd ee 6c 3f 87 78 64 3f
       1.0137231 0.9359541 0.92551976 0.8924641
000160 74 20 5c 3f 9f 7a 79 3f 4f 3e 82 3f b6 7c 61 3f
       0.8598702 0.9745273 1.0175265 0.8808092
000170 b7 6d 6e 3f 83 50 68 3f 49 cf 7a 3f 78 f9 85 3f
       0.9313616 0.9074785 0.9797254 1.0466757
000180 2a 53 71 3f b4 3a 81 3f c3 a7 70 3f f8 da 8d 3f
       0.94267523 1.009604 0.94005984 1.1082449
000190 33 d9 74 3f 53 1a 34 3f d0 b4 3b 3f 01 ec 84 3f
       0.9564392 0.7035267 0.7332277 1.0384523
0001a0 b5 ea 78 3f e6 69 5d 3f d2 26 6b 3f 10 04 8e 3f
       0.97233135 0.86489713 0.9185611 1.109499
0001b0 b4 a2 86 3f 39 d7 82 3f b7 5d 61 3f d7 da 90 3f
       1.0518403 1.0221931 0.8803362 1.1316785
0001c0 0b d9 77 3f a0 59 77 3f 1b f2 79 3f e1 e2 8a 3f
       0.96815556 0.9662113 0.9763505 1.0850488
0001d0 36 29 79 3f 21 46 41 3f 3e 5c 54 3f 75 54 73 3f
       0.9732851 0.75497633 0.8295325 0.95050746
0001e0 92 5a 82 3f e3 4d 83 3f 2a 84 8b 3f 75 87 86 3f
       1.018389 1.0258144 1.0899708 1.0510088
0001f0 ab a1 71 3f 38 84 80 3f e5 ea 80 3f 40 00 88 3f
       0.9438731 1.004035 1.0071684 1.0625076

base.mlp.fc.5.bias f4 [128]
000000 bc 6d e6 ba c7 84 0f 3d 8a 9c a6 bb 91 51 cb 3d
       -0.0017580311 0.035038736 -0.005084579 0.09927667
000010 38 92 fd ba e9 79 1b bd 51 e1 1f bd 03 79 48 bc
       -0.0019345945 -0.03795806 -0.039033238 -0.012235883
000020 03 24 99 3c 49 a2 84 ba c5 9a 0e 3d 48 17 c1 bc
       0.01869393 -0.0010119166 0.03481557 -0.023570672
000030 34 ab 23 3c bd f8 c9 3b 58 86 7c bc 59 c4 41 bd
       0.0099895485 0.006163685 -0.015412889 -0.047306392
000040 d1 3a c5 3d ae 34 91 3c d1 4d c6 bc 33 b0 b5 3c
       0.09630359 0.017725315 -0.024207028 0.022178745
000050 6b ef 61 3c cb de a5 3d 19 4b fa 3c c3 75 60 3d
       0.013789992 0.08099135 0.030553387 0.054799806
000060 c2 40 27 3d d4 b8 9c bc e8 f2 ce 3c 6f 09 61 bc
       0.040833242 -0.019131102 0.025262311 -0.013735159
000070 b1 b8 5d bb a1 0b 23 bd 56 3e 79 3d b1 91 27 bd
       -0.0033832008 -0.039806012 0.060850464 -0.040910427
000080 ba 05 bf bc 82 93 ea 3c aa 38 bb bd 76 6b 23 3c
       -0.02331816 0.02863479 -0.09141667 0.009974351
000090 4a d7 e5 bc 88 b5 f0 3c 48 40 80 3d 69 a6 73 bd
       -0.02805676 0.029383436 0.06262261 -0.059484873
0000a0 e7 17 f1 bc 8a 67 07 3c ef 2a 9b 3b 47 dd 4c bc
       -0.029430343 0.008264432 0.0047353427 -0.0125039285
0000b0 72 91 28 3d 65 07 ae 3d 5a 08 70 3d ef 5e af bc
       0.041154332 0.08497504 0.058601715 -0.021407573
0000c0 f1 fc f1 3c f3 6b 6e 3b 1a 6f a4 3d 36 b5 2f 3d
       0.029539557 0.003638026 0.080290034 0.042897426
0000d0 a6 bf 1c bc a7 81 21 3d 2b d4 46 3d 5c 43 de 3c
       -0.009567177 0.039430287 0.048542183 0.027131729
0000e0 93 5d 01 3d a7 2b e2 3d 54 f7 07 bd d6 f5 11 bd
       0.03158338 0.11043482 -0.033194855 -0.035634838
0000f0 7c e3 8e 3b 15 e9 f4 3b 6f be 54 bb 5d a0 a7 bc
       0.0043606143 0.0074740746 -0.003246214 -0.02046221
000100 cf 91 0d bc 17 a4 c6 3c d0 0d 7f 3a fe f6 98 3d
       -0.0086407205 0.024248166 0.0009729536 0.07468985
000110 94 70 09 bc 9b 75 1d 3d f7 2b e1 3c e3 59 2b bd
       -0.008388657 0.038442235 0.027486784 -0.04183377
000120 ae 0a 58 bd 9b 20 18 3d 40 c1 1c 3b 9c 0f e7 3c
       -0.05274456 0.03714047 0.0023918897 0.028205685
000130 8b ee 45 3c 8c 6e 57 bc 86 56 c0 3d e4 09 84 3d
       0.012080799 -0.013148915 0.09391503 0.06447199
000140 39 03 78 3c 26 d0 36 bb 00 b4 22 3c 01 5a 6e bd
       0.015137487 -0.0027895062 0.009930611 -0.058191303
000150 0c 32 4d bc 2a e9 aa 3c fc 3d 38 3d 64 91 0c 3d
       -0.012524139 0.020863134 0.044980988 0.034318343
000160 f0 2b 92 3c b4 b4 ff bb 57 0b ab bc 45 6c 8b 3d
       0.017843217 -0.007803524 -0.02087943 0.0680776
000170 cf 2c 12 3d 4f 5f c8 b9 8b 2e 35 3d e2 cf 3f 3c
       0.035687264 -0.00038217983 0.04423384 0.011707278
000180 ec 7a fa 3c 14 be 3a 3b 86 e0 b7 3c 11 a6 36 3d
       0.030576192 0.0028494643 0.022445928 0.044591967
000190 3b e7 30 3d fe 14 0e 3e a4 d6 6b 3e 25 5e 4d bc
       0.04318927 0.13875195 0.23031098 -0.012534653
0001a0 5a f8 ae 3b 3d f8 db bb e6 e5 39 3c 59 a2 69 bc
       0.0053396644 -0.006712942 0.011346316 -0.014259898
0001b0 22 7e 64 bd 03 69 f6 bc 03 29 cc 3b a0 03 e2 3c
       -0.055784352 -0.03007937 0.006230475 0.02758962
0001c0 8d 76 04 3c c4 7e 6e 3c 79 84 18 bd c6 49 86 bc
       0.008084905 0.0145565905 -0.03723571 -0.0163926
0001d0 af a3 8c bc ab e8 4d bd 4f 89 39 3e 5f 6c b8 bc
       -0.017167894 -0.050270718 0.18118785 -0.022512613
0001e0 97 40 5b bd 14 a5 03 3d e1 4f 26 bc 01 f9 8a bd
       -0.053528395 0.032139853 -0.010150881 -0.06785775
0001f0 1d a6 f0 3d 69 5b 25 bc af 0b 17 3b f9 3a b7 3c
       0.117504336 -0.010092595 0.0023047735 0.022366988

rnn.gru.weight_ih_l0 f4 [384, 128]
000000 6a 75 3a bd ec 46 fb bc 4c c1 d6 bd 98 94 27 be
       -0.04552213 -0.030673467 -0.10486087 -0.16365278
000010 b3 62 95 bc b0 c6 20 be f8 0d 3f bd aa 54 c7 bd
       -0.01823554 -0.15700793 -0.04664418 -0.09732945
000020 6d dd 19 3d 16 23 17 be af 67 97 bc 3d a0 bb bd
       0.037564684 -0.14759478 -0.018482057 -0.091614224
000030 f1 bb d5 3d 35 22 ad bd ec c6 3b be 4d af 1a bd
       0.104362376 -0.0845379 -0.18337601 -0.037764836
000040 e6 d9 9b bd 0b fd fb bd fb c3 8b 3d 87 60 62 bd
       -0.0760992 -0.123041235 0.0682449 -0.055267837
000050 a2 e6 90 bd 48 fe f5 3d 44 d4 9e bd 4a e6 9b 3d
       -0.0707524 0.12011391 -0.0775533 0.076122835
000060 f2 5f 10 3d 08 48 cd bd d9 d4 e0 3d b9 4d f5 3d
       0.03524775 -0.100235045 0.109780975 0.11977715
000070 61 50 ab bd 64 99 9f bd f7 7f 07 3d 37 0b d8 bd
       -0.083649404 -0.07792929 0.03308102 -0.10549014
000080 f6 8b f1 bd a3 bf 1b be dc 7a 10 be 7c 52 0a bd
       -0.117942736 -0.15209822 -0.14109367 -0.03377007
000090 e1 e9 d2 bd ee 5d 19 3c 81 96 0d bc 9e e1 ce bd
       -0.10298515 0.0093607735 -0.00864184 -0.10101627
0000a0 86 ab 50 bd 2d 01 f1 bb f4 ad b8 bc 16 59 38 be
       -0.050944827 -0.0073548765 -0.022543885 -0.18002734
0000b0 e1 90 d1 bc fe 96 d4 bd 0d 33 8b bd 3c 38 b5 bd
       -0.025581779 -0.10380362 -0.067968465 -0.088486165
0000c0 c9 76 9f bc 67 fa a3 3d b2 59 54 3b 20 99 d8 bd
       -0.01946582 0.08006745 0.0032402095 -0.10576081
0000d0 cd c9 37 3d 99 cf 08 be ca c0 22 bc a1 93 71 be
       0.044870187 -0.13360442 -0.00993366 -0.23591472
0000e0 92 56 5f 3d a1 a5 01 be 49 83 e1 bd 82 3b 8e bc
       0.05452592 -0.12660839 -0.11011369 -0.01736236
0000f0 bb af 51 be d2 22 d7 bd b7 10 ae bd 0a 26 3e be
       -0.20477192 -0.10504688 -0.08499282 -0.18569198
000100 f6 86 80 be 5c 67 c1 3d 5c 35 94 bb 10 79 40 be
       -0.25102967 0.09443542 -0.0045229625 -0.18796182
000110 88 2d f1 bd aa 1d 43 be 21 1a ec 3c 15 1c 8d bc
       -0.117762625 -0.19054285 0.028821053 -0.017225305
000120 aa d8 9c bd 69 63 55 bd a3 aa 02 3c b0 3b 54 bd
       -0.07658513 -0.052096758 0.007975253 -0.051814735
000130 92 f2 02 bd 1d d8 2c bd 1b f0 b9 bd b8 9d 9e 3d
       -0.031969614 -0.04219829 -0.090789996 0.07744926
000140 67 84 09 bd da 02 b7 3d 49 04 16 bd ee a4 32 be
       -0.033573534 0.08936091 -0.03662518 -0.17445728
000150 12 d8 4f be 26 3c f2 bd f3 b2 da bd 34 0e ea bc
       -0.20297268 -0.11827879 -0.10678663 -0.028571226
000160 65 e2 30 be 81 af 76 be 81 97 44 3d 02 34 bc bd
       -0.17273863 -0.24090387 0.047996048 -0.09189607
000170 77 f4 61 be b6 5f c2 3d 57 77 e5 3d 4f 10 35 be
       -0.22065912 0.09490912 0.11204403 -0.17682002
000180 65 9b 97 3c 39 fe a7 3b 79 4d 14 be 6c 64 b0 bd
       0.018506715 0.0051267412 -0.14482678 -0.08612904
000190 00 50 c3 3d be 9c 51 bd 14 19 f3 bd 7d a2 1c be
       0.09536743 -0.05117487 -0.11870018 -0.1529636
0001a0 c9 22 0b be 99 b2 1a bd 93 76 0f 3e ed f8 f6 bb
       -0.13587488 -0.03776798 0.14010076 -0.0075369985
0001b0 63 bb 7b be 9d f4 6c be ec e3 2a bd df 15 2c be
       -0.24583201 -0.23140188 -0.04172127 -0.16805218
0001c0 10 90 17 be ec 2f 9a 3d 54 14 aa bd 09 4b 88 bd
       -0.14801049 0.075286716 -0.083046585 -0.06654937
0001d0 3f cf 1d be fa a8 aa 3c 88 ee aa bd b1 8f 05 3e
       -0.1541109 0.020832527 -0.083462775 0.13043095
0001e0 03 e0 2e be 48 ba e9 bd d9 45 f8 3d 38 e7 82 bd
       -0.17077641 -0.114124835 0.121226974 -0.06391758
0001f0 34 48 06 3e 70 6b 59 be c8 e8 ef bc 57 b0 86 3d
       0.13113481 -0.2123239 -0.029285803 0.06576603
000200 69 58 96 bc 82 9a ae bd 22 4e b1 bc a0 27 04 be
       -0.018352704 -0.08525564 -0.021643702 -0.1290574
000210 8b 7c a0 ba 7a 9b 5f be dd 59 89 bd b7 c7 f8 3a
       -0.0012244148 -0.21836653 -0.06706593 0.0018980418
000220 d8 28 ae 3d 2f 3c e3 bd f4 48 02 3c c5 df 8b 3d
       0.08503884 -0.110954635 0.007951964 0.0682979
000230 e2 26 a6 3d 2d cc de 3d 0f ab e6 3c 8e a8 e4 bb
       0.08112885 0.10878787 0.028157739 -0.006978101
000240 46 c3 e5 3d 7d 87 98 3d 81 1d cd 3d bb 9a ac 3c
       0.11218886 0.07447717 0.10015393 0.021069875
000250 cb b7 7c 3d a2 a2 dd bd e0 f9 23 3d 88 9e f0 3c
       0.061698716 -0.10822035 0.04003322 0.029372469
000260 cd 11 a5 bd 1a f1 99 3d bd 2d 39 be 7e 8a 75 3d
       -0.08060036 0.075166896 -0.18083854 0.05994653
000270 0e 93 41 3d 85 c7 8d 3b f3 96 cc bd 7a 08 e5 bb
       0.047259383 0.004326763 -0.09989729 -0.006989536
000280 5d 52 20 bd e1 b5 28 3d 5a d8 57 bc ce 94 59 be
       -0.039141048 0.04118908 -0.013174141 -0.2124817
000290 b8 3d cf 3d 1f ec fd bd 4c fa 49 3d 5c 80 cf 3a
       0.10119194 -0.12398552 0.049310967 0.0015831101
0002a0 ca 80 15 3e 4c a5 f6 3c 55 81 e9 3d 0a c4 a1 3c
       0.1459991 0.030108117 0.11401621 0.019746799
0002b0 8d c8 9f 3d b7 a3 d3 3d 22 8e 9b 3d 88 a4 df bd
       0.07801924 0.103339605 0.07595469 -0.10920054
0002c0 0e 02 81 3d 9c 95 23 be 73 90 07 bd 03 ba 1b bd
       0.0629922 -0.1597504 -0.033096742 -0.03801919
0002d0 a6 cc 8e ba dc 64 9b 3c 8d bf 06 bd 95 80 d8 3d
       -0.001089473 0.018968992 -0.03289752 0.105714
0002e0 4b 99 0e be ea c7 c4 3d 9a ac 4f 3d 5d a8 25 bd
       -0.13925664 0.09608443 0.050701715 -0.040443767
0002f0 e6 b6 a0 3d 84 37 bc bd 2a b2 b5 3d c8 e3 e8 bb
       0.07847385 -0.09190276 0.08871873 -0.0071072318
000300 ee 34 c0 3d 3e 2a 43 bd e9 ee 52 bd 1d 4a 2f bd
       0.093850955 -0.047647707 -0.051497374 -0.04279529
000310 a5 14 14 3e a4 3a fa 3c ff 94 a3 3d 20 a5 c4 bd
       0.14461 0.03054554 0.07987403 -0.096018076
000320 9d 1d 65 bd 6a bb 4b bd aa ca 84 3c ab 29 5e 3d
       -0.055936445 -0.04973928 0.016209919 0.054238956
000330 87 10 c8 3c 5f 51 a2 3d 06 09 b0 bc d8 b4 8a be
       0.024421943 0.079256766 -0.021488678 -0.27091098
000340 57 97 b3 bc 99 1b d0 3d fa 72 a7 3d 9f c9 a4 3d
       -0.02192275 0.10161514 0.08176227 0.08046269
000350 95 d1 9d 3c 79 e5 4e 3c d0 ae 0f 3c 89 f6 07 3e
       0.019264976 0.012627953 0.008769706 0.1327764
000360 94 ee 8f bd 65 9b 92 3d 71 fc 99 3d 49 04 10 3e
       -0.07027927 0.071585454 0.075188525 0.14064135
000370 0c 2c c4 3d c0 ad 80 be f8 e6 58 3d a2 39 3c bd
       0.09578714 -0.2513256 0.052954644 -0.0459534
000380 88 a8 9d bd 30 c5 8c 3d 8d f8 e9 3d 1e f1 09 bd
       -0.076981604 0.06873548 0.114243604 -0.033677213
000390 75 be 84 3b ff 36 c8 bd 41 0e bd 3d bb ca 71 3d
       0.0040510246 -0.09776115 0.09231234 0.05903123
0003a0 3c 91 83 3d fc 8c 77 3d 8c 03 e5 bd f3 8f ab bb
       0.06424186 0.060437188 -0.11182317 -0.005235666
0003b0 2d fc 79 bb cf 91 6f 3d d6 6f 13 3e 08 66 4e 3d
       -0.0038144693 0.058488663 0.14398131 0.050390273
0003c0 48 23 98 bd cc a3 bb 3d 98 4b a6 bd 7a f9 95 3d
       -0.07428604 0.09162101 -0.08119887 0.073229745
0003d0 4c 67 03 bd af 92 f9 bd a7 dd 73 be 1c 49 1d 3d
       -0.032080933 -0.12186181 -0.23815022 0.0383998
0003e0 23 25 2f 3c 42 a1 e1 3c ca f1 d7 3d 89 aa 64 bd
       0.010690006 0.027542714 0.105441645 -0.055826697
0003f0 2d 0a 56 bd 35 34 56 3d 82 bb 2a bd 56 df c9 3c
       -0.052255798 0.052295882 -0.041682728 0.024642628

rnn.gru.weight_hh_l0 f4 [384, 128]
000000 3c 32 0b bd f0 1a 1b bd 2b 8e d8 b9 01 b0 14 3c
       -0.033983454 -0.037867486 -0.00041304654 0.009075166
000010 2d 95 08 bd 17 5c 43 bc ae 8f 25 bd a0 35 d6 bc
       -0.03334539 -0.011923811 -0.040420227 -0.026148617
000020 1e 75 0d 3e 1b e2 8e 3d ac c8 52 bc 71 03 48 be
       0.13814208 0.0697672 -0.012865227 -0.19532563
000030 40 81 e2 bd b4 fa 04 3c 34 e6 25 be 07 38 20 be
       -0.11059809 0.008116413 -0.16201097 -0.15646373
000040 e5 df a6 bd cb c4 5f 3d b2 b9 9d 3d 3a 25 be bd
       -0.08148173 0.054631036 0.07701434 -0.09284444
000050 22 08 d2 bd fe 47 b5 3d 3e 4a 22 3d 37 3d 17 bd
       -0.102554575 0.08851622 0.039621584 -0.036923613
000060 32 fc 7c bb 9f 92 c9 3d 2d 69 0d 3e 6c 65 83 3d
       -0.0038602469 0.09842419 0.13809653 0.06415829
000070 8c 36 16 3d d4 0f b5 3d ce 49 67 3d e5 3a 9e 3d
       0.036673114 0.088409096 0.05646687 0.07726077
000080 cc da 05 bc 05 ec 4e 3c 67 ce 54 3c ca b8 36 3d
       -0.008169841 0.012629514 0.012988663 0.044609822
000090 ad 5c 2e 3d 1d 06 b0 3d 7c 19 58 3d 92 5f 8c 3d
       0.04256885 0.08594916 0.05275868 0.06854166
0000a0 ab c2 4d bd a0 f0 31 3d 98 f4 cd 3d e3 0a ee 3d
       -0.050234478 0.04344237 0.10056418 0.1162317
0000b0 58 ae d8 3d 77 50 1a be 07 85 ca 3d 83 40 f0 3b
       0.105801284 -0.15069757 0.09888654 0.007331909
0000c0 10 d8 bd 3d 8e 19 42 bd 96 06 08 be 6d 31 9b 3b
       0.09269726 -0.047387652 -0.13283762 0.0047361166
0000d0 8b 17 4d 3c 8c 66 cb 3d 4c ad ce bd d4 d8 94 3c
       0.01251782 0.09931669 -0.100916475 0.018169798
0000e0 2c 26 e3 bc ce 50 19 bd ad f3 c9 bd fa 24 b8 3b
       -0.027728163 -0.037430577 -0.098609306 0.0056196423
0000f0 9c 3f 16 3b 91 b1 19 3d 47 e5 bf bb f2 55 19 bd
       0.0022926098 0.037522856 -0.0058561894 -0.03743548
000100 29 6e a1 bc 68 d0 12 bd 0d ec da bb 25 9c a4 bd
       -0.019705849 -0.035843283 -0.0066809715 -0.08037595
000110 5c e7 39 3e 0e 33 1a 3c c7 c1 1b 3d 44 5d cf bd
       0.18154663 0.009411586 0.038026597 -0.10125211
000120 79 2c 07 3d 5a 62 ab bd 1a f3 e5 3c f6 10 d9 bd
       0.033001397 -0.083683684 0.028070021 -0.10598938
000130 70 66 97 bd 60 dd 25 bd a7 d2 de 3c 71 00 11 3d
       -0.07392585 -0.040494323 0.027200056 0.03540081
000140 36 6a 6a 3d f5 03 81 bd 83 58 fd 3c 82 32 09 be
       0.057230197 -0.06299583 0.030925995 -0.13398173
000150 92 0b 22 bd e0 5c 81 bc 5f 92 20 be ac 28 be bd
       -0.039561816 -0.015791357 -0.15680836 -0.09285101
000160 a7 56 ce bd b6 fe d0 bd 56 03 68 3d 3f 40 53 3e
       -0.100751214 -0.10204832 0.056643806 0.20629977
000170 41 23 d9 bc 2a 2a 3b 3d 8e a9 fc 3c 75 e7 b5 bc
       -0.026506068 0.045694508 0.030842569 -0.022205094
000180 2b c0 7c bd e0 b7 24 3d 27 b4 a7 3b f5 78 8f bd
       -0.061706703 0.04021442 0.0051179114 -0.070054926
000190 c6 e8 fb 3d 73 e0 64 bd 72 3c 3b 3d 13 bd 4d be
       0.123002574 -0.055878114 0.045711942 -0.20091657
0001a0 f7 53 c4 3d 22 9a 48 bd 5c 75 03 be 5c 50 d5 bd
       0.095863275 -0.048975118 -0.12837738 -0.10415718
0001b0 2b e4 a3 3d 82 d5 c0 bd 20 fa 2c bc 22 43 86 3d
       0.08002504 -0.094157234 -0.010557681 0.06555773
0001c0 81 89 a1 3c 85 e7 43 bd 8a 8c fd 3c 32 b2 f5 3c
       0.019718887 -0.047828216 0.030950803 0.029992197
0001d0 0b d7 60 bd 5c c4 ab bc b1 f0 b4 3d 72 b8 80 bd
       -0.05489258 -0.020967655 0.08834971 -0.0628518
0001e0 93 1d bb bd 90 73 da 3d ae cc 70 bd 84 53 0b 3d
       -0.091365 0.10666573 -0.058788948 0.034015194
0001f0 9b 35 a9 3c 3c 2e c0 bd a9 11 f2 3d 8d c7 06 be
       0.020655444 -0.093838185 0.11819775 -0.1316206
000200 69 55 15 bd 5d 02 0e 3d fc 46 ff 3c 1e 19 89 3c
       -0.036458407 0.034670223 0.031161778 0.01673561
000210 3b 95 c5 3d 6b 1e 92 3c a9 39 85 bd 2d 64 4c bc
       0.09647604 0.01783677 -0.065051384 -0.012475056
000220 9b 9e a4 3d 34 3e 1c be 7e c8 27 be e5 36 08 3e
       0.08038064 -0.15258104 -0.16385075 0.1330219
000230 00 16 a2 3c 49 6f a7 bc 17 02 f1 bc 28 09 b6 3c
       0.019785881 -0.020438807 -0.029419942 0.022221163
000240 e7 eb 5f bd 77 d0 76 bd ca f2 d8 3c c9 58 e5 bd
       -0.054668333 -0.0602574 0.026482958 -0.11198575
000250 78 32 20 3e 28 55 01 bc b0 a7 20 bd 04 24 af 3c
       0.15644252 -0.007893838 -0.03922242 0.021379478
000260 96 d0 4c be 07 5d 0a be 68 6c b8 bd b6 34 04 3d
       -0.20001444 -0.1351205 -0.09005052 0.03227683
000270 0e df b3 bd a0 40 71 3d 78 a6 ca 3d e6 f2 cf 3d
       -0.08782779 0.05889952 0.09895033 0.10153751
000280 0d 27 b4 bc 0c 59 88 bc 12 27 74 bd 68 35 1c be
       -0.021991277 -0.016644023 -0.059607573 -0.15254748
000290 09 37 cb bd d3 ed b0 bb 55 5b a8 3c 50 e2 44 3d
       -0.099226065 -0.0053994446 0.020551363 0.04806739
0002a0 33 99 f4 bc e5 95 bd bd 59 38 70 bd 92 42 9a 3d
       -0.029858207 -0.09257106 -0.058647487 0.075322285
0002b0 92 89 ab 3c 47 e1 f0 3c 63 b2 21 be 53 a5 ff 3b
       0.020939622 0.029404296 -0.15790705 0.0078016906
0002c0 ea 3c 28 3d b8 40 a4 ba da c8 70 bd d8 f0 17 3d
       0.041073717 -0.0012531495 -0.058785297 0.03709492
0002d0 86 33 7b 3d ac 35 9c 3c 4f a6 6d 3c fe f8 d5 bd
       0.061328433 0.019068561 0.014504983 -0.10447882
0002e0 6c b3 a5 3d 2d ca 09 3e 1c b0 82 3d d0 8f c6 3d
       0.08090863 0.1345603 0.063812464 0.09695399
0002f0 8b cc 7d bd 3e 5b 8f 3d bc ea 3a bd c2 6b c8 bc
       -0.061962646 0.06999825 -0.045634016 -0.024465445
000300 ec e9 a7 3d 74 9a b9 3d 82 c0 c2 3d 1f 22 c6 bb
       0.08198914 0.09062663 0.09509374 -0.006046548
000310 7d 60 27 be 8a b2 f5 bd 32 60 05 3e 41 10 18 3c
       -0.16345401 -0.11996944 0.13024977 0.009281219
000320 4c f5 e5 3d 3e 65 13 3e 78 2f 01 ba ca ea 5b bd
       0.11228427 0.1439409 -0.0004928033 -0.05369071
000330 83 52 fc 3c 62 1a 78 3d 32 af a5 3c e5 fc 9d bd
       0.030801063 0.060572036 0.020225141 -0.077142514
000340 cb 08 8b be 7f ae 8c bb 07 0e f0 3d 41 1f 37 3c
       -0.27155146 -0.0042932625 0.117214255 0.011176885
000350 92 e8 02 3e 68 18 be 3d 03 e3 56 3c ba e2 00 be
       0.12784031 0.09281999 0.013115647 -0.1258649
000360 26 eb 13 3c a3 cc ac bd db fb 2b 3d a1 74 42 bd
       0.009028232 -0.08437469 0.041988235 -0.047474507
000370 f2 a2 7a 38 6a cc 3c bd 00 07 07 3d 67 96 72 3d
       5.97564e-05 -0.046093382 0.03296566 0.059225466
000380 0b 5c f2 bb c5 c9 00 3e f9 4f 48 bd 94 e4 8b bd
       -0.0073962263 0.12576969 -0.048904393 -0.06830707
000390 c8 e0 e2 3b e0 d9 26 bd ed 3c c1 3d b7 1a e0 bd
       0.0069237687 -0.040735126 0.09435449 -0.109425955
0003a0 5a 82 c2 3d d1 fc 62 bd 89 fc a1 bd 73 7e 1d 3d
       0.09497519 -0.055416886 -0.079094954 0.03845067
0003b0 c7 58 45 3c 0a 05 4f bd a5 71 58 bd 46 97 f9 3d
       0.012045092 -0.050541915 -0.052842755 0.12187056
0003c0 27 64 9f be 81 43 a0 3d af 7f 24 3e 30 04 39 3d
       -0.31131098 0.07825375 0.16064332 0.04517001
0003d0 1b fb 88 bb 1f 25 67 bd 29 04 00 3c c6 ee ad 3c
       -0.0041803247 -0.056431886 0.007813492 0.02123202
0003e0 0a e6 82 3c ad 0a d0 3d 68 d4 ca 3c e8 78 a6 bd
       0.015978832 0.10158286 0.024759486 -0.0812853
0003f0 5b 0a 51 bd e7 99 99 3d 15 c6 4d 3e 22 64 b1 bd
       -0.051035266 0.07500058 0.20095094 -0.08661677
