scripts/results/MAPPOTraining2v1/2v1/NoWeapon/MAPPOTraining/mappo/v1_2v1_mappo_training/wandb/offline-run-20250807_165042-zjjd28i2/files/critic_episode_4500.pt (torch, 640990 bytes, 23 tensors)

base.mlp.fc.0.weight f4 [128, 63]
00000000: 03a7 cdbd 2fda 043e 445e 8abd 827c cb3c
00000010: b75a d3bd 87b2 173d 8cc4 c23c 1399 e2bc
00000020: 6742 06bd e705 19be 2860 57bc 6035 f33b
00000030: 01af ab3d 0ecc c2bd eec0 bc3d 73bf 043e
00000040: 71d4 d23d 815a 60bc 16fb c03d 70ee be3c
00000050: d388 50bd 473c f9bd 01cb 903a d4b6 f1bc
00000060: 86b8 8f3d d0c0 b83d 61c3 bbbd 6856 72bd
00000070: 5904 9fbd 2544 b5bd cdba c43c a751 9abd
00000080: 4a58 333d bc32 3b3d 6dd0 c2bd afc4 d93d
00000090: 42c5 813d b7e1 4dbe 7347 993d ac28 12bd
000000a0: 97cd ce3d 7dcc a5bd fec3 75bd e576 0b3e
000000b0: 6e39 cfbd fda7 bf3d 6804 93bd f9fd 9c3d
000000c0: 5175 bc3d 10c2 28bd 91d8 3cbc 4e96 5fbd
000000d0: a973 07ba 8d40 a0bd f9c4 08be b336 683d
000000e0: 3a00 ea3d 3f3c 2fbe bc85 523d 447a 58bd
000000f0: a8ce 4cbc 75d7 62bc 5b48 c5bd e40e 9f3c
00000100: 6b3b 02be 42db 5d3c 309b 7a3e c594 1fbe
00000110: f2cc 2cbe 0a44 3c3e 63e6 bf3d 291f bebb
00000120: 0729 673d 97fa f93c 369d 583a 3b1e 48bc
00000130: 906a 25bd c547 743d c994 e7bd 9445 be3d
00000140: 91af 32bd 385c 973c c047 833c 98a5 123d
00000150: 15df fcbd 6455 253e b852 09bd c1d6 0cbd
00000160: 3276 02be e9ff 05be e26f 0f3c 39d1 93bd
00000170: 7582 2e3d 846a 1dbb a6df 603d fb9a 813d
00000180: ef41 b53d edaf 0a3e 0008 c9bd 6df0 b7bc
00000190: 5796 123e da50 493c 5215 323d c553 52ba
000001a0: 5bc8 403c 5b09 703d 2448 3f3c ce62 63be
000001b0: fc4b 07bd 120b 5b3d fec4 afbc 2890 9a3c
000001c0: 0f58 103e df1c 8b3d 46e5 983b f0cc 9f3c
000001d0: 04af c2bd 7894 5f3d 9108 40bd 1460 673d
000001e0: c957 0e3d caeb 77bd 1d7e febd 8b3c a9bd
000001f0: 241a 4ebc 8c8b 6bbd af45 c5bd 0d8c 11bd
00000200: 5ff6 b03d 16fd 9bbd e4ae 2f3d 25fb c8bd
00000210: 3e7c 33bd 2b6a 82bc 74ab 6cbc eb86 293d
00000220: 9b40 d2bd 0a5e e53c 2cd0 a9bd 33e8 ac3d
00000230: 18a9 89bc a981 1bbd 8712 14bd 7f6c 713c
00000240: 9728 ed3c d492 fa3d fa40 843d 2695 9cbc
00000250: ac24 873d ca7e ef3d 8f4e ed3d 9ce2 433d
00000260: 6b0f 8a3d d361 1cbd cdf6 dd3d c6a9 b33d
00000270: 8902 013e c458 823d 88e6 e2bd f9a1 8bbd
00000280: 4bb5 3e3c 592d 9bbd a02a 0cbc f674 623d
00000290: 6473 98bd a99f b3bc 3388 cfbd 79a0 aa3c
000002a0: 4a37 4c3d 492c 76bc d20a 0dbd 2848 d23d
000002b0: 1fbd 74bd 32e7 773d 28dc f9bd 5263 b4bd
000002c0: 62fe d83c 0711 b33d 6c52 ccbd 0509 e5bd
000002d0: 7a94 8c3d 2be7 b5bd bce5 c73d 3072 a03c
000002e0: 9361 b23c 2a22 5d3d 13b4 d1bd c30e c5bd
000002f0: a731 f33d 1d82 cbbd d992 0f3d 633a fdbc
00000300: 2087 b3bc 12ab 97bd c160 55bd bc85 b0bc
00000310: af53 f03d 18ca 2b3e 5ff8 13bd 5b51 1e3e
00000320: 9fd7 76bd 2469 fa3d 6d7b a3bd b9ab eb3a
00000330: 266a 0d3d 88c9 b1be e19e ff3b f33d 97bd
00000340: 8f79 0abd a673 373d 0558 2e3d f115 aabc
00000350: 77d5 b33d 406c 05bd a746 1cbd d01a 903d
00000360: 8f1c dbbd b359 1f3e d044 febc 68a3 0d3e
00000370: ee80 d1bd f354 c9bd d954 1b3e c381 84bc
00000380: dc3d a63d 89bd e33d 3c4c 18bf 387d 61bd
00000390: c260 053e d594 86ba d089 85bd 2724 ce3b
000003a0: bd48 6a3d 0617 e0bd ac80 5bbd f240 62bc
000003b0: 69ad d93b 1552 ea3d 8e59 aa3d 521c df3d
000003c0: 9ee3 083e 5df4 b03e 375a 813d 7701 9f3d
000003d0: 1ed3 3ebd e788 13be bf1d 55bd b3bc 113f
000003e0: 2acc c7bc 32ff 54bd 1d11 eb3d 0d2f b93d
000003f0: 695f 10be 7d14 a6bd 186e 03bd 6817 72be
-0.100416206 0.12973855 -0.06756261 0.024839643 -0.10320037 0.03703549 0.023775361 -0.027660882
-0.03277817 -0.14943658 -0.013145484 0.0074221343 0.08382989 -0.095115766 0.09216486 0.12963657
0.10294426 -0.013693453 0.09422891 0.023307055 -0.050911736 -0.121697 0.0011046828 -0.029506125
0.07017617 0.09021151 -0.09168125 -0.059164435 -0.07764501 -0.08850888 0.024014855 -0.07535105
0.04378537 0.04570268 -0.0951241 0.106332175 0.06336452 -0.20105635 0.07484331 -0.03568332
0.10097807 -0.08095644 -0.060001366 0.13619573 -0.10118376 0.09358213 -0.07178575 0.07665629
0.09202064 -0.041200697 -0.011526243 -0.0545867 -0.0005167076 -0.07824812 -0.13356389 0.05669279
0.114258245 -0.17112826 0.05139707 -0.052850977 -0.012500443 -0.013845314 -0.09632941 0.01941628
-0.12717979 0.013541045 0.24473262 -0.15584095 -0.16875055 0.1838533 0.09370115 -0.0058020544
0.05643561 0.030514998 0.00082631723 -0.012214239 -0.04038483 0.059638757 -0.113076754 0.09290615
-0.043624464 0.01847659 0.016025424 0.035802454 -0.12347237 0.16145855 -0.033526152 -0.034384493
-0.127404 -0.13085903 0.008754702 -0.072176404 0.042604882 -0.0024019787 0.054900788 0.06328388
0.088504665 0.13543673 -0.09815979 -0.022453511 0.14315163 0.012287343 0.043477364 -0.0008023347
0.0117665185 0.058602672 0.0116749145 -0.2220566 -0.03303145 0.053477354 -0.021456238 0.018867567
0.14096092 0.06792616 0.0046660034 0.019506902 -0.09506038 0.05458495 -0.04688317 0.05648811
0.034751687 -0.0605276 -0.12426398 -0.08263501 -0.012579475 -0.05750613 -0.09632432 -0.035533953
0.086407416 -0.07616632 0.042891398 -0.09813527 -0.04381966 -0.015919765 -0.0144451745 0.041388433
-0.10266229 0.027998943 -0.08291659 0.08442726 -0.016804263 -0.03796545 -0.03615048 0.01473534
0.028950019 0.122350365 0.06457706 -0.019114088 0.065987915 0.11694105 0.115872495 0.047823533
0.06741222 -0.03817923 0.10838089 0.08772616 0.12598623 0.06364587 -0.110791266 -0.06818003
0.011639903 -0.07577009 -0.0085550845 0.055287324 -0.07443884 -0.021926718 -0.101334 0.020828472
0.049857415 -0.015025207 -0.034434147 0.10267669 -0.059750672 0.06052322 -0.122001946 -0.08808006
0.026488487 0.08743482 -0.09976658 -0.11183361 0.06864257 -0.088819824 0.09760615 0.019585699
0.021775043 0.05398766 -0.102394246 -0.09621956 0.11874705 -0.099369265 0.035052154 -0.03091163
-0.021915019 -0.07405676 -0.052094225 -0.021548145 0.117347114 0.16776311 -0.036125537 0.15460722
-0.060264226 0.12227085 -0.07982526 0.0017980254 0.03452506 -0.3472407 0.0078009223 -0.07384863
-0.033807334 0.044788025 0.04256441 -0.020762416 0.087809496 -0.03257394 -0.038153317 0.07036364
-0.106988065 0.15561561 -0.031038672 0.13831866 -0.102296695 -0.09830656 0.15169086 -0.016175156
0.081172675 0.11120135 -0.59491324 -0.05505106 0.13025191 -0.0010267744 -0.06520426 0.006290931
0.057198275 -0.10941891 -0.053589508 -0.0138094295 0.0066429866 0.11441437 0.083178625 0.108940735
0.13368079 0.34561434 0.06316035 0.07763951 -0.046588056 -0.14407693 -0.05203032 0.5692856
-0.024389345 -0.052001186 0.114778735 0.09042177 -0.14098896 -0.081093766 -0.032087415 -0.23641741

base.mlp.fc.0.bias f4 [128]
00000000: 40ff 083d 6054 ad3d 69e4 3ebc 0d13 af3d
00000010: 90fe 803d f28d 943d f291 0bbe d83c edbc
00000020: f97c 863d 920c 173d 3a46 7bbd e916 c13d
00000030: a1c1 aa3d e257 87bc c27f 01be 7465 4dbc
00000040: 1460 f7bc 00de 3e3d cfeb 1e3d ccc2 e5bd
00000050: b46f debc 3433 03be a3ea 143c b06b 09bd
00000060: 702e 153b a4db 8c3d 785a 123c 3e68 483d
00000070: 33d6 263c 1811 9d3c f520 523c 5518 b23c
00000080: ded2 5bbd e336 93bd 2571 02bd 611f f6bd
00000090: f31f 113c 8385 fe3d 0453 dcbd 32ab f6bd
000000a0: 903c b9bd 4776 1a3d b959 4e3d 0e9c 01be
000000b0: 038d 00be 8d69 613d 0e2e 89bd 6d59 aebd
000000c0: 9e27 bb3d 4389 5eba 344a a0ba c6ed d7bd
000000d0: cf86 98bc 1314 cbbd f3fe 03bd 4731 393d
000000e0: 79ec f13c 51f1 99bc a12c cb3d a1a3 08be
000000f0: e26e 5c3d c4e7 b63b fd77 103e a7d5 3bbd
00000100: 8f00 323b c6ce e5bd abea c93d 1ecd 853d
00000110: 3827 6dbb a0e5 9e3d 9967 6c3d f408 6ebd
00000120: a5ed 16bd ad2f 57bd b3d6 a9bc 3655 d5bc
00000130: 5166 74bd 3085 2dbd 069d 98bd f66d 76bd
00000140: 156b 70bd 5a98 1bbe e83f be3c 5c0d e3bd
00000150: 68f1 0fbd 2d88 c6bd 803f c93d ec76 e03c
00000160: d57d 773c fc13 d2bd da16 d13d 0edc 013d
00000170: b699 23be 50dc d8bd 0664 dc3d 86ab 30bd
00000180: 93f3 5d3d d196 00be 3e75 213c 10e5 aa3d
00000190: b994 a7bd 7903 7fbd daa3 94bd 3d2a c53d
000001a0: f15e c5bc eb5c a43c 947c febd 0aaf adbd
000001b0: 6e3b 523d 2009 2c3d 6a3c 913d 3840 88bc
000001c0: a7f7 eb3d 8b69 c8bd c4d9 fbbd acda 3ebd
000001d0: 4ae5 b53d 69ac 1abc 411d ecbd fcc7 db3d
000001e0: 0879 003b d726 e23c 7f24 f7bd 8e59 283d
000001f0: d628 e6bd 3bb1 e53d 1c1b 933c d972 05be
0.03344655 0.08463359 -0.011651137 0.085485555 0.06298554 0.072536364 -0.13629892 -0.028959677
0.065668054 0.036877222 -0.06134627 0.09428198 0.08337713 -0.016521398 -0.12646392 -0.012536395
-0.03019718 0.046598434 0.038799103 -0.11218795 -0.027152874 -0.12812501 0.009089145 -0.033549964
0.0022763275 0.068778306 0.008932702 0.048927538 0.010182905 0.01917319 0.01282524 0.021740118
-0.053667895 -0.07188203 -0.031846184 -0.12017704 0.008857715 0.12427809 -0.107580215 -0.12044372
-0.090447545 0.037710454 0.050378535 -0.12657186 -0.12553792 0.0550323 -0.06698237 -0.0851315
0.09138416 -0.00084890815 -0.0012229146 -0.105433986 -0.01861897 -0.09915938 -0.03222556 0.04521301
0.029531704 -0.018791826 0.09920622 -0.1334367 0.053816684 0.005581828 0.14108272 -0.04585805
0.0027160977 -0.112210795 0.098592125 0.065332636 -0.0036186706 0.07758641 0.057715986 -0.058114007
-0.03684773 -0.0525357 -0.02073226 -0.026041608 -0.05966789 -0.042363346 -0.07451825 -0.06016346
-0.05869587 -0.15194836 0.023223832 -0.110865325 -0.035142332 -0.09693942 0.09826565 0.027400456
0.015105684 -0.10257718 0.10209437 0.031704 -0.15976605 -0.10588896 0.107612655 -0.043132327
0.05418737 -0.12557532 0.009854613 0.083444715 -0.081826635 -0.06225917 -0.07257815 0.09627197
-0.024093123 0.020063838 -0.12426105 -0.08480652 0.051326208 0.04200089 0.07091601 -0.016632184
0.11521845 -0.09785756 -0.12297395 -0.04659526 0.08881624 -0.00944052 -0.11529017 0.10731503
0.001960339 0.02760641 -0.12067508 0.04110103 -0.112382576 0.11215445 0.017957263 -0.13032092

base.mlp.fc.2.weight f4 [128]
00000000: 4d6a 613f a5ad 3c3f 61b3 573f 5563 8b3f
00000010: d433 783f 4327 553f 1285 513f 5d12 5c3f
00000020: a834 6c3f 1702 5f3f c525 8e3f db52 733f
00000030: e050 3e3f 9553 703f b8c1 783f e729 843f
00000040: cfe6 783f 59b6 893f d6ae 6b3f fcfc 673f
00000050: d2ea 6d3f 32a2 583f 415e 853f c0e9 6d3f
00000060: 6499 743f 1c40 6c3f 759c 8b3f 69ff 4b3f
00000070: 12ea 663f fcd9 543f 0e76 713f 0f6f 473f
00000080: 7c0d 653f 6c9d 593f f077 6a3f 9e3d 773f
00000090: d2a3 6c3f 61a0 7a3f 45bd 7e3f 09e7 4a3f
000000a0: eb1c 6c3f 7f70 6d3f a025 8a3f d545 853f
000000b0: 26e3 893f 3075 6e3f ebbe 8c3f fa9e 843f
000000c0: f560 563f b947 483f 7ed7 823f d0d1 733f
000000d0: d9ac 5b3f e709 803f fb2b 493f 381d 4f3f
000000e0: 8642 553f 48cc 503f f9eb 843f e5a7 883f
000000f0: c29c 863f 9485 743f 89f1 6d3f da24 833f
00000100: 6ea0 6d3f 8ad2 703f 03c8 5f3f c0a8 473f
00000110: 6ce1 8a3f 845a 703f 7da6 713f 79fc 353f
00000120: c9fd 6f3f e923 833f c5c6 693f 18ef 713f
00000130: 1391 4f3f 9ff9 5a3f 1446 703f 7bae 593f
00000140: 2d9f 553f 5d1b 783f 85fa 813f aaa6 643f
00000150: ff57 533f 3b95 723f cc37 893f a35a 563f
00000160: 025f 5e3f e76e 743f 4da8 8e3f b9a8 843f
00000170: 3245 5f3f 9259 703f 41ad 883f 77db 5d3f
00000180: 444a 693f eb0a 803f 8a30 973f ff83 593f
00000190: bd1d 603f 175b 693f 88a1 603f 5cbe 4b3f
000001a0: 0a2a 853f 63e0 613f fa2e 673f 16b3 663f
000001b0: 2e46 733f 6cc6 493f 9796 683f 4577 6f3f
000001c0: 1118 6a3f 2bf3 753f 6d90 633f e748 893f
000001d0: f31f 803f 2c1b 363f bdec 4b3f 4d06 883f
000001e0: 81e0 613f f4ba 6b3f c121 8b3f 5bce 623f
000001f0: d684 753f 1fb2 733f 45fe 633f fb83 813f
0.8805283 0.7370246 0.84258085 1.0889689 0.96954083 0.83263034 0.81843674 0.8596552
0.9226785 0.87112564 1.1105276 0.950483 0.74342155 0.93877536 0.9717059 1.0325288
0.97227186 1.0758773 0.92063653 0.906204 0.9293643 0.8462249 1.0419389 0.929348
0.95546556 0.92285323 1.0907122 0.796866 0.9020091 0.8314512 0.9432076 0.77903837
0.894737 0.8500583 0.9158926 0.96578395 0.9243747 0.9790097 0.9950755 0.7925878
0.92231625 0.9274978 1.0792732 1.0411936 1.0772445 0.93147564 1.0995764 1.0361016
0.83741695 0.7823444 1.0222013 0.95242023 0.8581062 1.0003022 0.78582734 0.8090396
0.8330463 0.8156171 1.0384513 1.0676237 1.0516589 0.95516324 0.9294668 1.0245621
0.9282292 0.9407126 0.8741457 0.7799187 1.0850043 0.93888116 0.94394666 0.7108837
0.9374662 1.0245334 0.91318923 0.94505453 0.8108074 0.8553714 0.9385693 0.8503186
0.8344601 0.96916753 1.0154577 0.8931681 0.82556146 0.9475896 1.0720153 0.8373205
0.8686372 0.95481724 1.1145111 1.036399 0.8721496 0.93886673 1.0677873 0.86663
0.91128945 1.0003332 1.1811688 0.84967035 0.87545377 0.9115462 0.8774648 0.7958734
1.0403454 0.8823301 0.90306056 0.90117013 0.9502896 0.7881839 0.9085478 0.93541366
0.9144297 0.9607417 0.8889225 1.0725373 1.000975 0.7113521 0.7965811 1.0626923
0.8823319 0.9208214 1.0869676 0.88596123 0.95905817 0.95193666 0.8905986 1.0118402

base.mlp.fc.2.bias f4 [128]
00000000: ddf6 6b3d 8156 3a3e ff90 253e d92e 1a3c
00000010: 4d5d 543c 7849 d63d 0739 cf3d 80e3 143e
00000020: bc2a 873d 49c5 8a3d e6fa cfba 380b 5e3d
00000030: 2a4a 493e ba82 823d f6d4 ef3b 1ea0 6fbc
00000040: a100 133d 30e5 203c c103 b63d 80e9 c13d
00000050: d85a 083d 80a8 c73d a5a2 f33b b596 913d
00000060: 759b d93c 6d52 11bc 794e 97bc 5772 3c3e
00000070: 4784 d33d c421 973d 4c8c 02bc 1403 593e
00000080: f838 4f3d 45d7 f63c 2ed5 ce3c 58c7 aebc
00000090: 70bf 9c3d 3d00 88bc b6c8 203c 9aec 333e
000000a0: 4b89 983d 1042 193c ca1e 833c bd79 f0bc
000000b0: bc33 f9bc 832d 93bc b628 67bc c3ec 8e3c
000000c0: 10e6 c73c 29da 053e 4d97 9c3c 787a 403d
000000d0: 1654 bd3d 0721 5a3c b58b c33d 7464 0d3e
000000e0: f71d 183e bca9 253e 6620 3f3a f4e6 3ebd
000000f0: 1204 e8bc 629a 113b 6fd3 c13d 07ca 3abc
00000100: 1509 8c3d d5d1 40bb 7678 943d 51ab 0b3e
00000110: 1994 8b3c 31f8 613d e8bf 213d 1a53 5e3e
00000120: 53ce f23c f4c0 1e3a a8e1 ae3d b430 95bc
00000130: 7bde 433e 4934 d33d 0a5e 8c3d 66ee 9b3d
00000140: 8cfd 2f3e 2f32 c23b 478a 86bc 0fa6 a63d
00000150: 12d7 b43d a3a7 6e3d f62f 21bc dbd9 293e
00000160: db59 083e 7aaf f9bb bdd4 1cbc 43ab 14bd
00000170: ad97 6c3d 29a9 883d 1bb7 76bc 7502 b13d
00000180: 0570 343d 943f f5bc 1f01 693c 4f3c 1f3e
00000190: 66fb 003e 9073 be3d 7f2a 083e 6386 2e3e
000001a0: 6786 a2bc 4a4e 093e 8cb2 d43d 572f d43d
000001b0: e07b 4b3d 77e7 513e c75b 033d ea79 19bc
000001c0: 8363 b93d d0cd 3a3d 4e84 f13d a95e aabc
000001d0: 9556 e83b c418 703e 788b 033e e556 f8bc
000001e0: f09d 8a3d f52a 19bb 5bf3 013c b597 013e
000001f0: d5c3 433d ebc1 003e a6b3 ff3c b3a0 11bc
0.057608474 0.18197061 0.16168593 0.009410583 0.012961698 0.10463232 0.10118299 0.1453991
0.06599948 0.067759104 -0.001586762 0.054209918 0.19657198 0.0637259 0.007319088 -0.014625577
0.03588927 0.009820268 0.08887435 0.09468365 0.03328976 0.09748936 0.00743516 0.07108823
0.026563386 -0.0088697495 -0.018470036 0.18402992 0.10327964 0.07379487 -0.00796802 0.2119258
0.05059144 0.030131945 0.025248136 -0.021335289 0.07653701 -0.016601676 0.009813478 0.17570725
0.074480616 0.009354129 0.016005892 -0.029354924 -0.030420177 -0.017966038 -0.014108827 0.017446881
0.024401695 0.13071503 0.019115115 0.046991795 0.09244554 0.013313538 0.095481314 0.13807851
0.1485518 0.1617803 0.00072908995 -0.046606973 -0.028322253 0.0022217263 0.09464156 -0.011400706
0.0683767 -0.0029421945 0.072495386 0.13639571 0.017038392 0.055168334 0.039489657 0.21711388
0.029639399 0.0006055974 0.08539134 -0.0182117 0.19127838 0.10312707 0.06853874 0.0761383
0.17186564 0.0059263925 -0.016423358 0.08137142 0.08830084 0.05826534 -0.009838095 0.16587012
0.13315527 -0.0076197954 -0.009572205 -0.03629614 0.057761837 0.0667289 -0.015058304 0.08643047
0.044052143 -0.029937543 0.014221459 0.1555035 0.12595901 0.092993855 0.13297461 0.17043452
-0.019839479 0.13408771 0.103856176 0.10360592 0.049678683 0.20498453 0.032069948 -0.0093674455
0.090521835 0.045606434 0.11792813 -0.02079709 0.0070903995 0.23446947 0.12846172 -0.030314872
0.067684054 -0.0023371552 0.007931556 0.12655528 0.04779418 0.12573974 0.031213593 -0.008888411

base.mlp.fc.3.weight f4 [128, 128]
00000000: 5305 6f3d 6797 60bc 72cd 673d 8900 bd3d
00000010: 1bdd 03be 4ec3 01bd 18e4 973d 65c3 86bc
00000020: f0c4 f83c 2813 d5bd 54f3 25be c456 713d
00000030: f0a0 3dbd b25a 0b3c 18bb d6bd 0b21 fdbd
00000040: 295e 04bd f8af 4dbe 0ade c8bc 819b 623d
00000050: 44d5 2d3d 8b29 443d cb13 a2bc 6aa7 88bd
00000060: 5ad0 193c 6381 023d ae61 15bd 8722 c53d
00000070: aecf 32bd 98c1 19bd fd5d c2bc 17e1 fc3c
00000080: 3a80 e03c 2ba6 f93c b977 d5bd 5b5f 303d
00000090: 20bb a7bc d2d8 cbbc 3497 093d 6304 77bd
000000a0: 478d 833d ceb5 1d3e 237e 4ebe f97e 0a3e
000000b0: fb9e 2d3e 0820 26bb 1226 0a3e a43e 053d
000000c0: 94d0 e33b 2fcb 293c b201 9dbd 3391 59bd
000000d0: b66f 00bd f217 26bd 78a7 55bd 9a2d 833d
000000e0: 890a 193d c1df 343d 7afe 9ebd 007e 873d
000000f0: 7fd1 91bc be48 153d a3de 89bd 4b63 1a3e
00000100: c42c 163d efd2 983d 1ac2 2d3c 3b00 a2bd
00000110: 7fc6 a4bd da5c 813d b5bf 57bd 9da4 0c3d
00000120: 81a9 0fbd a4f1 0ebd 6ff1 be3d 8682 89bd
00000130: 5b81 dc3d 8637 06bd c2d9 bf3d c490 9f3b
00000140: 304e 07bd f455 cebc 5c83 c4bd 7e18 e93d
00000150: bb4b f73d bb95 943d 335a 75bc 68ff 653d
00000160: 4753 e8bc e88c d23d 24a4 163c 0325 ae3c
00000170: abad 41bd 2b7a e1ba c898 7b3d ff84 2d3d
00000180: 413a fcbd 35b2 523c d8c4 c4bd 3fd2 123d
00000190: 522a 233c 5457 833d fdc9 c13d 7cb0 b23d
000001a0: 36d1 31b8 6998 9c38 4c72 3fbd 892b 1f3c
000001b0: dec9 c53b ffb8 6e3c 8a1a 593d afbc b03d
000001c0: 26bd 7f3d d15f 7abd 60c4 66bd c582 323d
000001d0: e4a6 a23d 2255 f7bd c68f 803c 12ff a23d
000001e0: 57bc b9ba 5b02 15be 2beb 3dbd 3bf2 50bd
000001f0: 6db7 1f3d 5b2c d93b 500c dbbc 5cd5 39bd
00000200: 0d4f 63bd 128f 1fbc 3fe5 debd 6d42 40bb
00000210: 35b7 01bd c958 c6bc 0349 cdbc 7f1f ebbc
00000220: f418 5abc c0aa aa3c a516 253d 5a59 ea3c
00000230: 6ab8 95bd 8344 183d 2201 9f3d 4b8a 95bd
00000240: c037 713c 9af8 c2bd b711 88bd 043e e2bd
00000250: ac29 1b3c 17d0 aabc 619d 6abd 4200 083d
00000260: 10bb 083d 4ca3 9d3d 6cb6 453e e580 9dbc
00000270: 1c80 c2bd 9c70 78bd 9257 c03d c850 a5bd
00000280: 5ffd d7bc 134f 013d 9c69 ebbc f685 6dbd
00000290: a53e 1a3d 10ca 113c 2d07 4bbd 6950 b2bd
000002a0: 2664 a43a a363 363d 2d6b 64bd dfa4 19bc
000002b0: 5e71 273d c2c2 b03d df5f 863d 9778 7bbd
000002c0: 97ac e83c df83 b23d 5d7b 95bc 879b ebbd
000002d0: cc02 dabd bf5d f13c 0e49 e0bc 69a2 723c
000002e0: 8948 92bd 3f25 7a3c b4a7 cc3c a696 913d
000002f0: 973a 533c 3f27 ebbd 6dd9 ba3d 9b28 883a
00000300: ed4f 9dbd ac4e f439 0204 7dbc 009d f63c
00000310: 7370 74bd c96f d53c 097a 7dbd cd58 cfbd
00000320: a868 96bc ce86 4abd e443 ffbb f8ac 9d3d
00000330: 12b1 93bd 2a29 62bd 1255 b3bc a17b 8bbd
00000340: a375 d2bd 1cb9 a2bd bc93 9c3a 89f0 41bd
00000350: 9a9a f5bc ed86 94bc 03cb b23c e11d a1bd
00000360: 056f 41bd 6b5c 99bd bcf7 6fbd 4d2c 033e
00000370: f2aa 15bd 6a7a e3bd aed7 513e 10c2 843c
00000380: 5ccb a1bd d42b 623d 89b3 00be 42d2 c3bb
00000390: de30 6cbd 493f d7bd fcb8 9dbd b04b bb3c
000003a0: 9724 8f3d 561f 843d 7fb5 ddbd f55c 78bd
000003b0: 2b26 0f3e 0262 bebd 9572 e13d 5e1e 073d
000003c0: bfc6 9cbd 7eab 02bd 06f0 f73c 82d4 293e
000003d0: c520 5a3d cf1c e2ba e6b8 8f3c 64f0 113e
000003e0: f84b f43b 5dcc 983d 9592 a4bc 6e29 0fba
000003f0: a69f 02bd ccc8 9b3b 7a07 91bd 01d1 9abd
0.058354687 -0.013707972 0.056592412 0.09228618 -0.12877314 -0.031680398 0.07416552 -0.016450593
0.030367345 -0.104040444 -0.16206104 0.058920637 -0.04629606 0.00850551 -0.10484904 -0.12359818
-0.03231636 -0.20086658 -0.024519939 0.05532408 0.042439714 0.04789118 -0.019784829 -0.06672557
0.009388054 0.031861674 -0.036470108 0.09625726 -0.04365509 -0.03753814 -0.023726458 0.03086905
0.027404893 0.030474743 -0.10423226 0.043059688 -0.02047497 -0.024883661 0.033591464 -0.060306918
0.06423431 0.15401384 -0.20165305 0.13524999 0.16955177 -0.0025348682 0.13491085 0.032530442
0.0069523547 0.010363384 -0.07666339 -0.05311699 -0.031356536 -0.04055018 -0.052161664 0.06405182
0.037363563 0.0441587 -0.07763381 0.066158295 -0.01780009 0.036446325 -0.06731918 0.1507694
0.036663786 0.074621074 0.010605359 -0.079102 -0.080456726 0.06316538 -0.05267306 0.034336675
-0.03507376 -0.034898415 0.093233936 -0.067143485 0.1076686 -0.032767795 0.09367706 0.0048695523
-0.03303355 -0.02518747 -0.09595367 0.11381625 0.12074991 0.07255121 -0.014975118 0.056151778
-0.028360022 0.10280782 0.009194408 0.021257883 -0.047284763 -0.0017202547 0.061425 0.042363163
-0.123157986 0.012859871 -0.096078575 0.035845038 0.00995882 0.06413141 0.09462354 0.08725068
-4.239493e-05 7.467048e-05 -0.04673986 0.009714969 0.0060360273 0.014570474 0.053003825 0.086297385
0.062436245 -0.061126534 -0.05633962 0.043581743 0.07941988 -0.12076785 0.015693557 0.07958807
-0.001417051 -0.1455168 -0.04636685 -0.05101226 0.038993288 0.006627602 -0.02673927 -0.04536949
-0.05549531 -0.0097387 -0.10883569 -0.0029336468 -0.03166886 -0.024212258 -0.025059229 -0.028701542
-0.013311613 0.020833373 0.0403048 0.02860706 -0.07310565 0.037174713 0.07763888 -0.07301768
0.0147227645 -0.09520073 -0.06644004 -0.11046985 0.009470385 -0.020851178 -0.057278994 0.03320337
0.03338152 0.07697162 0.1930787 -0.0192265 -0.09497091 -0.060654268 0.09391703 -0.080720484
-0.026365934 0.03156955 -0.028736882 -0.057989083 0.0376574 0.008898273 -0.04956739 -0.08706743
0.0012542054 0.044528615 -0.055766273 -0.009377687 0.0408796 0.08630897 0.06561255 -0.0613943
0.02840261 0.08716559 -0.0182473 -0.11504274 -0.10645065 0.029463647 -0.027378585 0.014809229
-0.07142741 0.015267669 0.02498231 0.07108812 0.012892387 -0.11482095 0.09123502 0.0010388078
-0.0768126 0.00046597922 -0.01544285 0.03010416 -0.059677552 0.02605428 -0.06188396 -0.10124359
-0.01836045 -0.049444966 -0.0077900756 0.07699007 -0.07211508 -0.05521504 -0.02189115 -0.0681069
-0.10276344 -0.07945463 0.0011945884 -0.047348533 -0.029980946 -0.018130744 0.02182532 -0.07867027
-0.047225017 -0.074883305 -0.058585867 0.12809868 -0.03653998 -0.11107333 0.20492432 0.016205817
-0.07900116 0.05521758 -0.12568487 -0.0059759924 -0.05766379 -0.105101176 -0.077012986 0.022863239
0.06989401 0.06451289 -0.10825633 -0.060635526 0.13979404 -0.09296037 0.11008183 0.032987945
-0.07655095 -0.03190183 0.03026582 0.16584972 0.053253908 -0.0017251017 0.017544221 0.14251858
0.0074553452 0.07460854 -0.020089427 -0.00054611906 -0.031890534 0.0047541615 -0.07081504 -0.075593956

base.mlp.fc.3.bias f4 [128]
00000000: ac23 0bbd 1d37 05bb 19b7 6fbd 6c0c 383d
00000010: 9bd4 d13d 902b c5bc 978f 3fbd 9196 d6bd
00000020: 9cdd ea3d c1bf 403d 6b40 43bc 40d4 1abd
00000030: 41dc 583d 032c 03be 821e 433d d9d0 9abd
00000040: 91dc 1fbc 84d4 a6bd 187c cd3c f369 6d3d
00000050: 44ff 74bc a8a2 5c3d 9757 823d 0124 01bd
00000060: b5b3 653c 0b54 51bd 5e59 723d 4ece 5b3b
00000070: fb69 9ebc 3c2c bbba 3cc3 bf3d 5f70 afba
00000080: 9e34 753c 2ddf bbbd c735 c4bd 784c a73d
00000090: 0f7a 1d3c 2f9b a53d 7906 a73d d7ac c83c
000000a0: 1fd8 04bc 557a 8a3c f7d4 883d 6360 4f3d
000000b0: c486 b23c a213 893d 5e99 abbd 2cf5 8bbd
000000c0: e31f 0bbd 180f 963d 44c8 d53d d898 72bd
000000d0: 0f3b 46bd 23e8 bb3d a1db 553d d114 ea3c
000000e0: 7351 aa3d 7d20 04be 3476 233d ea73 5e3d
000000f0: 3660 6a3c 69ce 10bd 45cb 6cbd 6de5 39bd
00000100: 08f3 01be f85b b23d bdec 0dbd 0401 ddbd
00000110: 6a9d a6bd d19f 07be ed24 12bc f446 143c
00000120: 9d14 d3bd 198c 423d 4ba9 00bc 0996 913d
00000130: 0d54 ca3b 92bc 77bd 7154 783d f817 783d
00000140: 18e0 a9bd 634b d63d 006a a83d a973 40bd
00000150: 9ddc 203c ba4a e0bc a75d c73c 4e05 80bc
00000160: 30be 4d3d 91b5 32bd 448f c53d 3370 56bc
00000170: f1b9 46bb 0ee4 bc3d 3c02 bd3d 6c5e 94bd
00000180: 5f27 8bbc 1529 613b e920 a6bd e8ef f6bc
00000190: 3f91 b7bb add1 613d 2e35 28bd 6f50 2ebd
000001a0: 49f7 edbd 05d5 223d cbd8 5f3d 3b6c 24bd
000001b0: be13 f0bd b1ff bebd 1fce 9dbd 87f3 74bd
000001c0: b5da c7bd 9f38 c03c 557b 873c 99f5 d23d
000001d0: 70ab 9bbd c037 b53b 4bc5 50bd 6c96 af3c
000001e0: 9311 f4bc 875e bb3d 0eba d13d 2672 b4bd
000001f0: 0a72 6bbd ff6c d2bd 87f6 a6bc 1e9b 3b3d
-0.033969566 -0.002032704 -0.058524225 0.04493372 0.102456294 -0.024068624 -0.046767797 -0.10477937
0.1146805 0.04705787 -0.011917214 -0.037800074 0.052944425 -0.12809758 0.047636516 -0.07559366
-0.009757177 -0.08146003 0.025083587 0.05796237 -0.014953438 0.05386606 0.06364363 -0.031528477
0.014019896 -0.05110554 0.05916726 0.0033539715 -0.019337645 -0.0014280151 0.0936341 -0.001338493
0.014966158 -0.09173427 -0.0958057 0.08168882 0.009611621 0.080862395 0.081555314 0.024496479
-0.008108168 0.016904036 0.06681245 0.05062903 0.021792777 0.06693198 -0.08378862 -0.06833872
-0.033965956 0.07327098 0.10438588 -0.059227794 -0.048396166 0.09175136 0.052211408 0.02857438
0.083163165 -0.12903018 0.03990765 0.054309763 0.014305165 -0.035353098 -0.05781104 -0.045384813
-0.12690365 0.08708948 -0.0346496 -0.10791209 -0.08135493 -0.13244559 -0.008919937 0.00905012
-0.10306666 0.04749689 -0.007852863 0.07108695 0.0061745704 -0.06048257 0.060627405 0.060569733
-0.082946956 0.104635976 0.08223343 -0.046985302 0.009818223 -0.027379382 0.02433665 -0.01562753
0.050230205 -0.043630186 0.096464664 -0.013088274 -0.0030323232 0.092231855 0.09228942 -0.07244572
-0.016986547 0.0034356762 -0.08111746 -0.030143693 -0.0056020315 0.055131603 -0.04106634 -0.042557176
-0.116194315 0.039753933 0.05465011 -0.04014228 -0.117225155 -0.09326113 -0.0770533 -0.05980256
-0.09758512 0.023464499 0.016538301 0.1030075 -0.076010585 0.0055303276 -0.050969403 0.021434031
-0.029793536 0.09148889 0.10240565 -0.088108346 -0.057481803 -0.102746956 -0.020381225 0.04580223

base.mlp.fc.5.weight f4 [128]
00000000: a331 833f b5c7 863f 1fcf 813f 2c10 653f
00000010: 672d 893f 6651 7c3f d018 803f a839 7a3f
00000020: add5 793f 5e2f 6e3f 3750 843f f11b 843f
00000030: 8640 803f a437 733f dd88 823f a757 6b3f
00000040: 9aed 793f 28b8 753f ff30 803f 9448 863f
00000050: 2147 603f cc8d 733f 3f13 813f 19a8 6f3f
00000060: 1cc6 7e3f 8819 883f 810a 773f 820e 813f
00000070: 25d7 783f 7ca7 843f 1541 833f 1ffe 7a3f
00000080: b85c 7d3f 89c0 633f b4b6 823f 0277 793f
00000090: 6575 813f f0a1 843f 5e53 7d3f 155f 853f
000000a0: e2dc 843f daec 713f 433f 7f3f d0e3 723f
000000b0: 1cc9 753f 41e2 823f 76bd 803f 9db4 7a3f
000000c0: b513 8b3f b7e0 803f e076 753f ec73 6a3f
000000d0: 1825 823f 14f8 673f 0771 7c3f c398 713f
000000e0: ed71 883f 8760 633f 8760 723f 3471 853f
000000f0: c26c 7a3f 6213 743f ac1e 863f 8693 803f
00000100: cded 7d3f bed6 893f 91e8 813f 2847 683f
00000110: c9af 793f 243a 653f baa3 8a3f ec68 763f
00000120: 174e 823f efd1 7a3f 7359 823f 0601 7e3f
00000130: 4c3c 7a3f dacb 843f d17f 513f 4c82 6a3f
00000140: 3ab3 623f aba1 733f ac50 763f 6d99 873f
00000150: 36b2 7f3f 8caf 693f 549b 753f e2c6 593f
00000160: 2d90 653f 15f7 803f 8c06 823f ac16 653f
00000170: 10e7 703f 0186 703f e345 7d3f 7966 813f
00000180: f906 7c3f c4ac 813f be84 6e3f 5813 873f
00000190: abc0 783f 185d 423f 3ea1 3f3f 6a54 813f
000001a0: 25e0 7f3f d71a 6c3f ebd1 6f3f 5ed2 883f
000001b0: 167e 823f 228d 7c3f 063b 683f de48 903f
000001c0: f36b 7c3f 5a54 7a3f 23c3 823f f17e 863f
000001d0: 4288 7a3f e222 6b3f c2d2 6a3f 12d6 753f
000001e0: 368e 803f 1a5c 843f 781f 893f 0bbc 833f
000001f0: 6fe7 6e3f 028e 7a3f 7ce1 7f3f ba92 853f
1.0249523 1.0529696 1.0141333 0.894778 1.0716981 0.98561704 1.0007572 0.97744226
0.9759167 0.93041027 1.033698 1.0321027 1.0019691 0.95006776 1.0198017 0.9193062
0.97628176 0.95984125 1.0014952 1.0490899 0.87608534 0.9513824 1.0083998 0.9361587
0.9952104 1.0632792 0.965004 1.0082552 0.97203285 1.0363612 1.0254236 0.9804401
0.989696 0.8896566 1.0212007 0.97447217 1.0113951 1.0361919 0.98955333 1.0419642
1.0379908 0.9450203 0.99705905 0.94878864 0.96009994 1.0225297 1.0057819 0.97931844
1.0865389 1.0068578 0.95884514 0.9158313 1.016757 0.9061291 0.98609966 0.9437372
1.0659767 0.88819164 0.9467854 1.0425172 0.978222 0.95342076 1.047811 1.004502
0.9919098 1.0768659 1.0149099 0.90733576 0.9753385 0.8954184 1.0831215 0.9625385
1.0180081 0.97976583 1.0183548 0.9922031 0.97748256 1.037471 0.8183566 0.9160507
0.8855473 0.9516856 0.96216846 1.0593697 0.99881303 0.9128349 0.95940137 0.85069096
0.8967312 1.0075403 1.0158248 0.8948772 0.94102573 0.93954474 0.98934764 1.0109397
0.9844814 1.0130849 0.931713 1.0552778 0.9716899 0.759233 0.7485541 1.0103886
0.9995139 0.92228454 0.93679684 1.0689199 1.0194728 0.9865285 0.9071506 1.1272237
0.9860222 0.9778496 1.0215801 1.050749 0.9786416 0.918501 0.9172784 0.9602977
1.0043399 1.0340607 1.0712729 1.0291761 0.9332189 0.97872937 0.99953437 1.0435402

base.mlp.fc.5.bias f4 [128]
00000000: 125f 29bd 0235 3e3b 0de6 4dbc 62e5 ae3d
00000010: d352 3c3c 2c02 a5bc 256d 54bc 961b 2dba
00000020: 5442 913c f5cc 74bc 47cc 7e3b f449 9e3b
00000030: 9ac9 b03c abf5 9e3c 761a 55bc cd91 a5bc
00000040: dc11 683d 732c b03c b3b3 d7bb 65ca 86bc
00000050: 5432 593d afad 8e3d 631a 4bbc 2ced f93c
00000060: 645b 493d 72a4 203c 2972 143a 6fae 223b
00000070: 8445 2abb 523f 98bb 1c6f 923c 5c1f 84bc
00000080: a8ca 993b 461c 2bbc aaa2 94bd f410 af3c
00000090: e200 44bc 5649 d43a e292 473d 5ca0 0fbd
000000a0: f201 b1bc f58a 9b3c 74ec a93c c87e dc3b
000000b0: 0784 213d 1aa5 4b3d 6915 963c 5c05 d5bc
000000c0: 0cad 5abb 5a21 243c 73a2 4d3d 3727 f83c
000000d0: 56e5 223c b826 153d 32cf 133d 7b0b b43c
000000e0: 5289 fabb 91ff af3d 8215 36bd b6a9 01bc
000000f0: 5ff2 9e3c f947 533c 118d 8c3c 4b75 b1bc
00000100: 8a12 1c3c 8ce2 ebbb db25 aebc 3ae1 823d
00000110: aee8 a4b7 e01d 613d f871 f5bb f865 74bc
00000120: bb03 1ebd 636b 583b 0bf1 eb3c bbb5 a53b
00000130: dce7 0b3c 17ea 3f3b 175b 933d 21d6 453d
00000140: 9952 9c3c d68c 013d 90b1 c33c cb1a 5abd
00000150: eb49 9b3b e238 493d a1ae 8c3c 7434 ad3d
00000160: a352 f53c f964 253b 0e6b 7fbb 704f 743d
00000170: d4d1 ed3c acee a33c 27ef 4a3d a687 0b3c
00000180: 4899 90bc fb50 a93c 6c42 153d 47c3 733c
00000190: 83ca 173d 2c12 df3d 2617 603e 3717 9f3c
000001a0: 0357 863b 1b4c e63c 4d49 053b b4df 2d3b
000001b0: daa6 c1bc b4e2 f93b d6dc 403b fde2 34bc
000001c0: 6609 0cbc 0008 243c 35b9 e6bc bcc8 8d3b
000001d0: b0fc 5ebc 6cc3 3fbd 18f6 fe3d 87ee 56bb
000001e0: bc66 0ebd 2f91 ed3a cb78 f43b be42 38bd
000001f0: 0417 b13d 2b09 9a3c 29c4 9f3c 7b5b 27bc
-0.04135043 0.0029023294 -0.012567055 0.08539845 0.011494356 -0.020142637 -0.012965475 -0.0006603537
0.017731823 -0.014941444 0.0038879083 0.0048305932 0.021580506 0.019404253 -0.013006797 -0.020211125
0.056657657 0.02150557 -0.006582701 -0.016453931 0.053026512 0.06966721 -0.012396428 0.0305086
0.049159423 0.009804832 0.0005662763 0.0024823209 -0.0025981376 -0.0046462202 0.017875247 -0.016128235
0.004693348 -0.010443753 -0.07257588 0.021370389 -0.011963101 0.0016196172 0.048724063 -0.03506504
-0.021607373 0.018987158 0.020742632 0.0067289807 0.03943255 0.049718 0.018320756 -0.026003532
-0.0033367304 0.010017717 0.05020375 0.030292137 0.009942373 0.03641388 0.03608627 0.02197813
-0.0076457644 0.08593667 -0.044454105 -0.007913997 0.01940268 0.012895578 0.01715711 -0.021662375
0.009525904 -0.0071986374 -0.021258285 0.06390615 -1.9658673e-05 0.05496013 -0.007490393 -0.014916889
-0.038577776 0.0033022992 0.028801462 0.0050570644 0.008539166 0.0029283816 0.071951084 0.048299912
0.019082354 0.031628452 0.02388838 -0.053248208 0.0047390363 0.049126513 0.017173113 0.0845727
0.02994663 0.0025237186 -0.0038973722 0.05964607 0.029030718 0.020011269 0.04954448 0.008516228
-0.017651215 0.020668497 0.036440298 0.014878101 0.037058365 0.10892138 0.2188383 0.01942025
0.004099728 0.028112462 0.002033788 0.0026531043 -0.023639131 0.007625902 0.0029428503 -0.011040446
-0.008547163 0.010011673 -0.028164485 0.004326908 -0.01361005 -0.04681723 0.124492824 -0.0032795982
-0.034765944 0.0018124933 0.0074606887 -0.044985525 0.08646968 0.0188032 0.019502716 -0.010214682

rnn.gru.weight_ih_l0 f4 [384, 128]
00000000: 7625 713c 4806 9ebd afbc d53c e9f1 1cbd
00000010: e077 76bd cb77 fabd b164 443d 3a59 35bb
00000020: 9f01 d23b f7a1 19be 59dc 10be 7973 4bbc
00000030: b7b9 b23d 93e4 3e3d 2676 57bd 7878 363c
00000040: 690f adbc 23a3 013c 00c7 633d 4562 9bbd
00000050: a9df 8e3d c0e3 a73d 2508 2bbe 57fc 683d
00000060: ada3 42bd 878f 9bbd 8f4f 8dbc 4693 d83d
00000070: cee7 173d 9441 42bd fa2c c0bc 9b84 b2bb
00000080: 9d2d 593c fb5a 27bd 8588 3dbc d1a1 33bc
00000090: 0a12 babd e5e2 98bd 0b23 afbb 00f3 f33c
000000a0: f4ac 673d e072 b83d 6844 cdbc 5218 e4bd
000000b0: bbd8 dfbc 554c 99bd 570a b0bc 222a c6bd
000000c0: b7e3 f0bc 2807 7bbd 3b25 f53c d240 913c
000000d0: b322 783d ee4b b9bd f40d 06bd daae d6bd
000000e0: 379e fcbc f0bf ab3b f26b 5a3b cf0a 9dbb
000000f0: f70c 97bd d15f cabd 58a3 c6bb aa1b 61bd
00000100: d06b f5bd 27d5 df3b a1fe 97bd 469f 68bd
00000110: 7a96 4b3c d627 73bd 611f 72bc c14b 723d
00000120: 02f3 2e3d c598 fcbd 1008 e8bb ca83 e0bd
00000130: 11a3 19bc dae0 b73c 5705 09bd 3fcd 64b9
00000140: 0b62 ba3c f16e ce3d 3e52 1dbc 9679 32bd
00000150: 4708 93bd 17cc 6dbd 9951 eabd 3126 873d
00000160: bd21 28be da63 dfbd e20b 7a3d e46c 91bd
00000170: 818a b8bd d48b 7c3d 300a 933d ef6f adbd
00000180: 7503 853c 0081 273c cac3 80bc f744 abbd
00000190: 7ec2 c43c cb2e 1cbd 3342 563c f1cc b2bd
000001a0: 2ba5 52bb f72d c4bc f27d e63c 67c0 cbbc
000001b0: 952f ebbd 05f2 ccbd 323a 513d d4b8 9bbd
000001c0: 3924 88bc ddd4 aa3d 1fca 09bd f131 78bd
000001d0: c30b bcbc 4e3c c43b 8175 9abd 8ccd d9b9
000001e0: 0bd9 20bd 9632 11be 1a13 fe3d d497 893d
000001f0: e171 e13d 2928 a6bd 3264 c43c ad98 1a3c
00000200: 2a60 dcbc 39cc 61bd 9e70 dcbd e4a1 47be
00000210: 4f73 e73c 46a1 81be 83c2 eabd 33cb a1bd
00000220: a30c b13d 47ce a6bd a586 ae3c 24bf a93b
00000230: 7f5e 903d 02a6 bf3c 441f 6abd c9fd 923b
00000240: 55ee ec3c 9f2b 35bc ee22 8c3d 9095 6e3c
00000250: 7021 cabb b7cf 80bd 6f71 b13c 13fe b13d
00000260: 1e80 03bd b79a b0bc 7e68 f7bd 318b 863c
00000270: 4911 a7bc 3297 bebd 33d1 d6bd 8df5 d9bd
00000280: 2f4c 00be c653 ff3b b700 d4bd 6a40 75be
00000290: c5f4 463d 5238 b4bd 36d1 653c 75ae acbd
000002a0: 486d 723d f06b 5abd f7eb d03d 9e89 4ebd
000002b0: d68c 963c 57bc 4f3d 8126 243d b18c d4bd
000002c0: 1e79 8d3c bb1a d9bd b5a5 0ebd f43c 00be
000002d0: 2793 97bd 4407 d13a bffa dfbc 9c2a 9e3c
000002e0: 7830 f1bd b8a7 353c 4f1f 483b 45da b5bd
000002f0: c036 e2bb 4603 f5bd e29a d1ba 205e bdbd
00000300: 5d02 f93b 5f2b 4abd 6198 3cbd f368 03be
00000310: e092 613d cd00 60bd 64ed 273d ce04 13be
00000320: 2dcf 0ebe f5dd 213c 30a9 163c f81c ce3d
00000330: be52 debc d6ac fa3c cb99 48bd 502b 3ebe
00000340: df59 82bd 9765 773d abb6 bf3c 0c99 aabb
00000350: a937 89bd cb58 5cbd 7a27 4b3d 12e1 ff3d
00000360: 0a22 c2bd b3db abbc 8a8b 073d a461 a53d
00000370: b281 2c3c 3165 4abe 5404 e63c cbed b0bd
00000380: 45d5 32bd 1621 833c 6b70 ec3c 49fb 88bd
00000390: d6e0 903c d24a debd f642 2b3c 20c6 473d
000003a0: 53fe 96bc 1208 533d 0ede 813c e427 1abd
000003b0: 428f b7bd 9ca1 e2bc 3b7d 853d 36b1 4ebc
000003c0: 4882 24be 4af7 2f3d 942b ebbd 355f 2a3d
000003d0: 6be1 f1bd 4669 f3bd 7069 81be c8ff b83d
000003e0: b2ef 99bd a0d8 88bc b6ff 583d abc9 10be
000003f0: adf9 2ebd e2ad 08bd 75b5 b6bd 53de 1f3d
0.014718404 -0.07716042 0.026090948 -0.03831664 -0.060172915 -0.1222988 0.04794759 -0.0027671591
0.0064088847 -0.15003191 -0.14146556 -0.012417668 0.087268285 0.046604704 -0.05260291 0.01113712
-0.021125512 0.00791243 0.055609703 -0.07587103 0.069762535 0.08197737 -0.16702326 0.056881275
-0.047519375 -0.07595735 -0.01724985 0.10574965 0.0370863 -0.04742582 -0.023458946 -0.0054479367
0.013255504 -0.04085825 -0.011568193 -0.010963873 -0.09085472 -0.07465152 -0.0053447536 0.029778957
0.056561425 0.09006286 -0.025057033 -0.11137451 -0.027325025 -0.07485262 -0.021489305 -0.09676005
-0.029405458 -0.06128612 0.02992498 0.017731104 0.060579967 -0.090476856 -0.03272815 -0.10482569
-0.030837161 0.0052413866 0.00333285 -0.0047925483 -0.0737552 -0.09881557 -0.0060619526 -0.054958023
-0.11983454 0.0068308297 -0.074216135 -0.05679252 0.012426013 -0.059364162 -0.014777989 0.059154276
0.04271222 -0.12333826 -0.0070810392 -0.10962637 -0.009377257 0.022446085 -0.033452358 -0.00021820235
0.022751829 0.10079754 -0.009602128 -0.043572985 -0.07179313 -0.058055963 -0.11441345 0.06599081
-0.1641912 -0.10907717 0.06104649 -0.07100847 -0.090107925 0.061656788 0.071796775 -0.08468615
0.016237 0.010223627 -0.01571836 -0.083627634 0.024018522 -0.038130563 0.013077307 -0.08730496
-0.0032141905 -0.023947699 0.028136227 -0.024872018 -0.11483685 -0.10007099 0.05108089 -0.076036125
-0.016618835 0.08341382 -0.033640023 -0.060594503 -0.022954827 0.005988634 -0.07541943 -0.0004154261
-0.03926949 -0.14179453 0.12405987 0.06718412 0.11008049 -0.08113129 0.023973558 0.009435815
-0.026901323 -0.055126403 -0.107636675 -0.1949535 0.028253226 -0.25318354 -0.114628814 -0.07900085
0.086449884 -0.08144813 0.021304438 0.0051802564 0.07049274 0.023394588 -0.057158723 0.00448582
0.02892224 -0.011057763 0.068426 0.014562026 -0.006168537 -0.062896185 0.021660535 0.08691039
-0.032104604 -0.021558149 -0.12080477 0.016423794 -0.020393984 -0.09306182 -0.1048912 -0.10642538
-0.12529062 0.007791969 -0.10351699 -0.23950353 0.048573274 -0.08799805 0.014026931 -0.084317125
0.05918625 -0.053325593 0.10201257 -0.05042421 0.018377703 0.050716724 0.040075783 -0.10378397
0.017269667 -0.106008016 -0.034826 -0.12523252 -0.07401114 0.00159476 -0.027341245 0.019307427
-0.11776823 0.011087351 0.003053624 -0.08879522 -0.0069034994 -0.11963515 -0.0015991593 -0.092464685
0.0075991587 -0.04935777 -0.046043757 -0.12833004 0.05507171 -0.054688264 0.040997878 -0.14357302
-0.13946219 0.009879579 0.009195611 0.10064119 -0.027139064 0.030599993 -0.048974793 -0.1857121
-0.06364798 0.060399618 0.023402533 -0.005206233 -0.067000695 -0.053795617 0.049598195 0.12494101
-0.09479149 -0.020978784 0.03309206 0.08075264 0.010528969 -0.19765164 0.028078236 -0.086391054
-0.04366042 0.016006988 0.028862199 -0.06688554 0.017685335 -0.108541146 0.010452976 0.04877293
-0.018431818 0.05152137 0.015852954 -0.0376357 -0.08962871 -0.027664952 0.065180264 -0.012615493
-0.16065323 0.042960443 -0.11482921 0.041594703 -0.11810573 -0.11885314 -0.25275755 0.090331614
-0.075164214 -0.016704857 0.05297824 -0.1413943 -0.042718578 -0.033368953 -0.08921329 0.039030384

rnn.gru.weight_hh_l0 f4 [384, 128]
00000000: 9d2a a8bc 4827 533b 707f adbb 2cd3 d8bc
00000010: bc74 6d3d 4bfa 953d f6cc c1bd d757 323c
00000020: 479b cd3c 9b26 a2bc 3c5e 783d 37f8 1dbe
00000030: 746b 613a 7a58 cf3c e5b8 ebbd c408 91bd
00000040: 34ae febd 5df0 e7bc c8ce fa3d ec61 12be
00000050: ddae 85bd eecb 083d dd31 1b3d 8770 0e3c
00000060: 0f7f b7bd 4a57 0dbd da6a 263d 3318 083e
00000070: 6cc3 c13c 30d1 803d 463a 5b3d ec68 2e3d
00000080: 5066 8dbc 16a7 183d 1f8e b4bd 4690 a33d
00000090: 0989 c33c 7960 493c 6cd0 3a3d 456b af3c
000000a0: 613e e8bd af62 96ba e6e3 0c3d b3d6 073e
000000b0: a966 cb3d 4c0e 31bd e7ec bf3d 4921 b3bc
000000c0: 66f8 ddbc 9eee 75bd e12e 8fbd 53a2 68bd
000000d0: 6843 d63d 6bb1 e83d 48ec 5d3c 05cc 44b9
000000e0: b40f b23c 0754 2dbd e99e 7ebd 7fdb 10bb
000000f0: 371c 8c3d e9b0 913c 57ba c1bd 3a9d 9cbd
00000100: fab8 0b3d 9c5f b2bd e2bf 923d 956a b1bd
00000110: cb01 903d 2709 44bd d473 7f3d 6842 673b
00000120: bd56 0bbd 963b 693d 6571 353d c7bd ebbc
00000130: 34a2 85bd 79a4 a5bc e388 073d 44b5 6d3d
00000140: f433 753b 1ed1 84bd 40f1 80bc 44ee a4bd
00000150: adb7 8f3d a091 3ebc a0cb 95bd db6a 8fbd
00000160: 4db2 f6bb 033b babd 2a2a d03d bce8 9c3d
00000170: fc2c 083d 0117 943d 55a8 943c f75a 833c
00000180: fbf0 423c 6a82 443d c7ba e6bc fa30 70bd
00000190: 28d9 be3d 6b2e 17bc ea3d c53c 7862 e6bd
000001a0: d563 8d3d c8a9 593c b18f d2bd 38a6 17bd
000001b0: 42bf cb3c 2db8 2dbd 811d 243c e5bd a53d
000001c0: 2b67 6cbb a2c1 0d3c 7611 c83d 1688 8abb
000001d0: 6be0 2d3c 87d9 523d 4e92 8c3d 6ecf 553d
000001e0: 5636 8dbd 16d0 933d c9d1 3cbd c211 283b
000001f0: 3541 91bc c5ed 22bd 1fbc 083e 655b babd
00000200: 9c40 9b3c b3f8 e0bc 7c72 ea3c 391e c0bc
00000210: fa3e 183d 312c 3c3c 6feb 37bd 3476 803d
00000220: 8970 833d ca28 dfbd d845 b9bd 1bb0 e53d
00000230: 672d 25bd 275b 9c3d a76b ddbc 7151 663c
00000240: 56e9 e7bd 6148 373a 1936 693d bb41 15bd
00000250: 7663 e73d 19e8 9bbc 356d b03a 6ec6 913c
00000260: 0da4 89bd b4bb 90bd 11e6 8fbd 1aeb 2ebd
00000270: a0f3 1fbd aa78 253d 20bb 883d 51c2 ca3d
00000280: f667 bcbc d385 33bc eaa6 f9bc bad9 b7bd
00000290: 9d81 83bd 8d00 733c 97ce f4bc 16bc c73d
000002a0: 294a 9f3c 40c5 c43b a86c c13a a294 843d
000002b0: d2f1 b43d a0ac 87bc 5dd3 88bd 18aa 973d
000002c0: 15cf bf3d db69 913c 4fae 9c3b accd e73c
000002d0: 471d 4a3d 129c e4bb 74a6 48bd 92f0 f8bc
000002e0: e85c a23d 4868 c83d 2ffd edbb d6e8 4c3d
000002f0: c03d 7ebd c6ae 913d 8bae ac3c f454 9cbd
00000300: b24c 8d3d 3c52 e6bb 674c 043d 3255 e73c
00000310: bf47 94bd d71b dbbd a880 e03d 2eb8 3f3c
00000320: ebe1 da3d a1a0 063d c155 a13c fd0a b2bd
00000330: 994a 69bd 93ec e4bc 222f f33c 1800 c0bc
00000340: cec7 23be 76d2 9abc 8a9b 993d 1605 713d
00000350: b699 893d 4669 d13d 777b 0a3d 8654 b0bd
00000360: 9e64 26bd 8815 80bd eefc e03c f395 223d
00000370: 792c 543d 8dc4 42bc 1d41 93bc 39b6 ee3d
00000380: bbca 3fbc 8b57 d23d f9cd acbd 9f93 97bd
00000390: 5acf ecbb e64f 9abd f79a 813d 74eb e8bd
000003a0: d52d 8e3d 7700 bcbd 5592 cfbd d0a5 223b
000003b0: 59f7 8ebc 48b4 5bbd c526 30bd a35e eb3d
000003c0: 4bba 48be a5d5 d13d f46f a03d 3d80 6f3d
000003d0: 1afe f13c 50a5 31bd e64d cfbc 34d1 203d
000003e0: 49da 3dbd fedc 3b3d 9bde 4f3d 1c31 cfbc
000003f0: e566 4abd cfc9 e03d cc31 be3d 4efa 64bc
-0.020528132 0.0032219458 -0.0052947327 -0.026467882 0.057972655 0.0732313 -0.09462921 0.0108852
0.025098456 -0.0197938 0.060636744 -0.15426718 0.00085990806 0.025310744 -0.11509875 -0.0708175
-0.1243557 -0.028312856 0.12246472 -0.14295167 -0.06527493 0.033397608 0.03788935 0.008693821
-0.089597814 -0.034507073 0.040629245 0.13290481 0.023652755 0.06289899 0.05352237 0.04258053
-0.0172607 0.03726872 -0.0881617 0.07986502 0.023869054 0.012291067 0.045608923 0.021413455
-0.11340023 -0.0011473502 0.03439703 0.13265495 0.0993169 -0.043226525 0.093713574 -0.021866458
-0.027095985 -0.060042016 -0.06991363 -0.05679543 0.104620755 0.11361965 0.013545103 -0.0001876802
0.021736003 -0.042316463 -0.062163267 -0.0022103486 0.06841319 0.017784553 -0.0945937 -0.07647176
0.034111954 -0.08709642 0.07165505 -0.08662907 0.07031592 -0.04786029 0.06236632 0.0035287384
-0.034018267 0.05694159 0.044297595 -0.028777016 -0.065250784 -0.020220028 0.03308953 0.058034196
0.0037415 -0.064851984 -0.015740037 -0.08053258 0.07017455 -0.011631399 -0.07314229 -0.07002803
-0.0075285793 -0.09093287 0.10164292 0.07661578 0.033246025 0.0723095 0.018146673 0.016034586
0.0118982745 0.047975935 -0.028165234 -0.058640458 0.09318763 -0.0092273755 0.024077374 -0.1124925
0.06903807 0.013285108 -0.10281313 -0.037023753 0.024871472 -0.04241197 0.0100168 0.0809286
-0.0036072235 0.008652123 0.097689554 -0.0042276485 0.010612587 0.05147698 0.06863843 0.052199773
-0.068951294 0.072174236 -0.046098504 0.002564535 -0.017731288 -0.039777536 0.13353013 -0.090994634
0.018951707 -0.027462339 0.028619044 -0.023451911 0.037169434 0.011485145 -0.04490226 0.062725455
0.06417949 -0.10896452 -0.09046525 0.1121523 -0.040326502 0.076345734 -0.027028872 0.014057503
-0.11323802 0.00069916813 0.056936357 -0.03643964 0.112982675 -0.019031571 0.0013460281 0.017794814
-0.06720743 -0.070670515 -0.070263036 -0.04270468 -0.0390507 0.040398277 0.06676316 0.09900344
-0.022998791 -0.010957199 -0.030475099 -0.08977075 -0.06421206 0.014831674 -0.029883666 0.097526714
0.019444542 0.0060049593 0.0014757114 0.06473662 0.08835186 -0.016561806 -0.06680939 0.0740549
0.0936567 0.017750671 0.0047815214 0.028296314 0.049344327 -0.006976613 -0.048986867 -0.03038815
0.07927877 0.09785515 -0.007262848 0.050026737 -0.06207061 0.071134135 0.021079322 -0.07633391
0.06899394 -0.007028846 0.032299425 0.028238866 -0.07240247 -0.106986694 0.10962039 0.011701627
0.10687622 0.03286803 0.019694211 -0.08693502 -0.056955907 -0.027944839 0.02968556 -0.023437545
-0.15994188 -0.018899184 0.0750037 0.05884274 0.06718771 0.102251574 0.03380915 -0.086098716
-0.0406233 -0.06254107 0.027464356 0.039693784 0.051800225 -0.011887682 -0.017975384 0.1165585
-0.01170605 0.10270604 -0.08437724 -0.07401203 -0.0072268667 -0.07534771 0.06328385 -0.11373034
0.069423355 -0.09179776 -0.101353325 0.002481807 -0.017451929 -0.053638726 -0.043005724 0.1149266
-0.19602315 0.102458276 0.07833853 0.058471907 0.02954011 -0.043370545 -0.0253057 0.03926201
-0.04635075 0.04586505 0.050749402 -0.025291972 -0.049414534 0.10975992 0.09286842 -0.013975693

rnn.gru.bias_ih_l0 f4 [384]
00000000: 90bb 123d 5c54 0b3c 7652 d43c 538e 52bc
00000010: b38a 173c 8f63 84bd 9fbd 48be ecee edbd
00000020: bcb3 adbd 71c9 70bc ae77 983c fbe4 91bd
00000030: 8308 81bd ca93 9dbd a64b d1bc f5dd 93bc
00000040: 06ef 303e bb39 eb3d df11 913d 106e f93d
00000050: af5f c03d 8912 593c 2ec0 50bd 0eb4 41bd
00000060: 045c 4d3d 50e7 c3bc 5991 6b3c eb83 da3c
00000070: cd47 f1bc 6a4f ddbc c71c ca3d 0c61 303c
00000080: 1ad5 c83d f8d3 96bd 67ef fdbb 43f7 5fbd
00000090: dff6 573d 2b34 62bd 40c3 463d 9966 29be
000000a0: 59db 3cbb 7db4 793c 9900 4dbc ed5d 2abd
000000b0: dead 8d3b 5ebc 533d 71b2 3dbb ba06 163e
000000c0: fc39 03be 8df8 463c b79a d03c 4613 cdbd
000000d0: ed7e 043e e43c 35bc 6a68 3abc 7669 8a3c
000000e0: fa7a 2dbe 012d 423b 51b5 803b 1018 4fbd
000000f0: 50e6 adbc 42a6 223d 8d66 893c 556f babd
00000100: 31e2 0dbe 0537 c7bc 762b 453d 5161 94bd
00000110: 5aab 893d 2e32 06be 4b7c 8fbd fbbb 9d3b
00000120: 2181 033d 55cd c6bd 79ac 213d 6d49 dbbd
00000130: c956 efbc a5e2 843d f8eb 83bd b61e 473c
00000140: 3778 87bd a5dc 6d3c 7f39 7cbb 3f2c 183e
00000150: f078 cc3c c2e2 663c 3f3c 20be 333e afbc
00000160: 657d ab3d deb8 cebb 875e 46bd db08 85bd
00000170: 3b49 2f3e 3d61 2abe 29bb b83c a82a 46bd
00000180: 3945 f5bc 0c6c 1d3d a092 ca3d 8408 463d
00000190: 219e 1bbd c74c 193d 5069 88bd 4ed9 7bbd
000001a0: 4e10 2f3c fd5c 80bd c169 46bd 06dc 8dbc
000001b0: 28b9 cfba 9c70 b13d d492 bdbd 8dc7 853d
000001c0: 768a b83d a85a c83c a3c0 643d 013f 8cbd
000001d0: a429 c8bd 902a 01bc 5db8 27bd 4507 ecbb
000001e0: 891d 443d 2003 86bc c2e1 1bbe 959f 71bd
000001f0: 264b 893c 910d 9d3c a5ce f9bd 6a24 88bd
00000200: 56a2 3d3e 7462 793d 4491 ee3d 6268 783e
00000210: bc2b 7e3e 0d62 cd3d debe c63d bfa6 333e
00000220: b3a4 e73d b746 613e d2d8 073d 8790 1f3e
00000230: cbfd 2a3e 6096 84bc 2dc1 533e 2731 f43d
00000240: 2c40 443c 0692 263e f035 463e 4439 8a3e
00000250: ecae 433e c53a 8b3d 1be2 983d 95b2 7e3e
00000260: 3170 123e 5b68 293e 5a8e 353d 8e59 98bb
00000270: 41f5 453e add6 343e 6927 183e 7a58 103d
00000280: d922 593d d845 833d 0f99 663d 6143 3e3e
00000290: e9d0 6b3e 6b4d c83c 5b22 e03d 08f1 fdbc
000002a0: 49cb 8d3d bc1d 2d3e 463e e23d d953 3a3e
000002b0: 1126 3f3e 8713 0f3e 17b1 a53d af93 b93d
000002c0: 1945 25bd d24a ddbd 1d07 383d 7760 8a3d
000002d0: 22a4 313e d92d 573e ea2e 293e 474f 5e3e
000002e0: 378f a93d 24a2 ad3d 5947 c53d fd74 683e
000002f0: e076 123e e06c 2e3e 360a 663d 3ccb 203e
00000300: d145 0a3e 423d 813d db79 fc3d 92f8 e1bd
00000310: 8fa4 823d c458 323e 7cfb fb3c c5f1 473d
00000320: 3181 d63d 65ed 4e3e 3f3e 873e e36d 013e
00000330: 4ed5 043e e952 38bd ad3c 2f3e 8a1c 8d3c
00000340: 6ac9 4b3e 6f98 953d 39c9 343d 2b68 2b3d
00000350: 3902 423e 001b 423e 0cb5 1c3d b78a be3d
00000360: ceff 883e 4da8 3cbd 2048 99bb 8e17 92bd
00000370: 1e85 ad3c 9cf1 813d d2b3 e83d ddbb e73d
00000380: 0416 1f3d f260 ce3d 5a08 7a3d 8bb9 4a3e
00000390: 038c a03d efed 083e 9dc7 3e3d c103 ab3d
000003a0: bd79 143e 17f8 003d 57a8 363e 556c 013e
000003b0: f2d4 793d d6bd 1fbb cb9b 753e 82ee f53d
000003c0: c92a c73d 62a5 b73d cc56 363e 2cf6 1fbc
000003d0: 18d9 ba3d 6bf5 50bd a9a9 543e 1da5 323e
000003e0: 25ad c43d de98 fd3d 80c1 df3d 988a 6a3e
000003f0: 689a e03d 2a46 693e 3d15 593a 2acc a83d
0.035823405 0.008504 0.025918227 -0.012851316 0.009249377 -0.06464302 -0.19603585 -0.11617836
-0.08481547 -0.014696465 0.018611755 -0.07123753 -0.063004516 -0.07694204 -0.025548767 -0.018050173
0.1727868 0.114856206 0.07083487 0.12179196 0.0939325 0.013249048 -0.050964527 -0.047290854
0.05013658 -0.02391401 0.014377915 0.026674232 -0.029453183 -0.027015407 0.0986877 0.010765325
0.09806271 -0.073646486 -0.0077494862 -0.054679167 0.05272567 -0.055225533 0.04852605 -0.16543044
-0.0028817265 0.015240786 -0.0125123495 -0.04159348 0.004323705 0.051693313 -0.002894547 0.14651003
-0.12815088 0.01214422 0.025464399 -0.10013442 0.12939043 -0.011061881 -0.011377433 0.01689599
-0.16941443 0.0029628875 0.0039278646 -0.050560057 -0.021227986 0.039709337 0.016772533 -0.09103266
-0.13855816 -0.024318228 0.04813715 -0.07245124 0.06722136 -0.1310508 -0.07006129 0.004813669
0.03210557 -0.09707133 0.039471123 -0.10707364 -0.029216187 0.064885415 -0.06441492 0.012153318
-0.06614726 0.014517938 -0.0038486419 0.14860629 0.024960011 0.014092149 -0.15647982 -0.021391964
0.083735265 -0.006308659 -0.048429992 -0.0649583 0.17117779 -0.16638656 0.022550182 -0.048380524
-0.029940234 0.03843312 0.09891248 0.048347965 -0.0379926 0.037426736 -0.06660712 -0.061486535
0.01068504 -0.06267736 -0.0484407 -0.01731683 -0.0015848028 0.08664057 -0.09256521 0.06532202
0.09010784 0.02445729 0.055847775 -0.068479545 -0.09773567 -0.007883683 -0.040947307 -0.007203015
0.04787973 -0.016358912 -0.15222839 -0.05899008 0.016759466 0.019171508 -0.121976174 -0.066475704
0.18518957 0.060884908 0.11648801 0.24258569 0.24821371 0.10028467 0.09704374 0.17544077
0.11310711 0.21999632 0.03316576 0.15582477 0.16698377 -0.016184986 0.2067916 0.119234376
0.01197819 0.16266641 0.19356513 0.26996815 0.19109696 0.06798319 0.07465001 0.24872811
0.1430061 0.16543715 0.04432521 -0.0046493476 0.19331838 0.17660017 0.14858784 0.035240628
0.05301175 0.06409806 0.05629831 0.1858039 0.23028912 0.024450978 0.10944053 -0.030998722
0.06923539 0.16905874 0.11047034 0.18196048 0.18666865 0.13972293 0.08090418 0.090613715
-0.0403491 -0.108052865 0.04492866 0.067566805 0.17347768 0.21013583 0.16521803 0.2170993
0.08279269 0.084781915 0.09632749 0.22700877 0.1430316 0.1703372 0.05616208 0.15702528
0.13503195 0.06310512 0.123279296 -0.11033739 0.06379043 0.17416674 0.030759566 0.048814554
0.1047386 0.20207746 0.26414678 0.12639575 0.12971994 -0.045000944 0.1711299 0.017225523
0.19901052 0.07304465 0.044137213 0.04184739 0.1894616 0.18955612 0.038258597 0.093038015
0.26757663 -0.04605894 -0.0046777874 -0.07133399 0.02118164 0.063449115 0.11362423 0.11315129
0.038839355 0.100770846 0.06104312 0.19797342 0.07839205 0.13372014 0.046577085 0.083503254
0.14499564 0.031486597 0.17837654 0.12638982 0.060994096 -0.0024374626 0.23985212 0.120083824
0.097249575 0.08967091 0.17806548 -0.009763282 0.091234386 -0.0510153 0.20767845 0.17445798
0.09603337 0.12382673 0.10925579 0.22904432 0.10966951 0.22780672 0.0008281058 0.08242066
