scripts/results/MAPPOTraining2v1/2v1/NoWeapon/MAPPOTraining/mappo/v1_2v1_mappo_training/wandb/offline-run-20250730_164853-gurihghs/files/critic_episode_100.pt (torch, 640962 bytes, 23 tensors)

base.mlp.fc.0.weight f4 [128, 63]
000000 94 b2 9c bd 05 1e cb 3d 5c 23 b9 bd f1 6b 19 3d
       -0.076512486 0.09917835 -0.090399474 0.037456457
000010 dd 7f ad bd be 37 16 3d 69 dc fc 3c 2a 86 9c bb
       -0.084716536 0.036674254 0.030866819 -0.004776736
000020 43 d0 16 bd 86 fd d3 bd a2 61 ea bd d5 63 d1 3c
       -0.036819708 -0.1035109 -0.11444403 0.025560299
000030 eb 49 c3 3d 11 79 a6 bd 61 5a bc 3d 5d de ea 3d
       0.09535583 -0.0812856 0.09196926 0.11468194
000040 e4 fb f0 3d ba 2a 73 bc f2 59 f8 3d 80 32 99 3c
       0.11766794 -0.01484173 0.12126531 0.018700838
000050 28 9a 6f bd e0 72 dd bd 24 e1 1a 3d d9 dc a4 bd
       -0.058496624 -0.10812926 0.037812367 -0.08049936
000060 53 31 7f 3d cd 4f bf 3d 30 ac b7 bd ef 0b 58 bd
       0.0623029 0.09341393 -0.08968389 -0.052745756
000070 a1 3b 99 bd a8 5b b5 bd 88 fb b2 bc b2 f7 d0 3c
       -0.074820764 -0.08855373 -0.021848455 0.025508735
000080 02 9f 49 3d 79 ee 3a 3d f5 9e a9 bd cd e1 d8 3d
       0.049223907 0.04563758 -0.08282272 0.10589943
000090 77 de b8 bd 06 e7 c5 bd d1 1c 8a 3d 94 67 a2 bc
       -0.09026807 -0.09663205 0.067437775 -0.01982478
0000a0 c4 89 c0 3d 08 25 ac bd a2 50 14 bd 3f df e7 3d
       0.09401277 -0.08405501 -0.03620971 0.11321878
0000b0 ff 0f 2b 3b 95 1e f2 3d a0 56 58 bd b9 00 9b 3d
       0.0026102064 0.11822239 -0.052816987 0.07568497
0000c0 c0 cc bc 3d c8 1a 7d bd 27 41 82 bc 47 a0 24 bd
       0.092187405 -0.06179312 -0.015900208 -0.040191915
0000d0 dc ae 68 bc 2a 4e 99 bd c5 5f cd bd fe ea 57 3d
       -0.014201846 -0.07485612 -0.10028032 0.05271434
0000e0 78 b0 f3 3d cb 50 8f bc e8 32 59 bd 7a a9 6c bd
       0.11898893 -0.01749458 -0.053027064 -0.057778813
0000f0 60 1e 02 3c f8 7a aa bc e7 a0 cb bd 82 28 ad 3d
       0.007941812 -0.02081059 -0.09942799 0.08454992
000100 7c df 9d bd 1a 93 4f bd 9b 09 b2 3d 83 a1 97 bd
       -0.07708642 -0.050677396 0.08693238 -0.07403853
000110 1b 2f a6 bd 70 8a 02 3e cc a5 ae 3c 70 38 ac 3d
       -0.081144534 0.12748122 0.021319292 0.08409202
000120 c0 a0 c4 3d 92 c5 35 3c 39 34 b0 3d b3 ec 5f 3d
       0.09600973 0.011094468 0.08603711 0.054669093
000130 8d 5f 90 3d b9 fd 7f 3d 25 c0 b2 bd 38 99 93 3d
       0.07049475 0.06249783 -0.08728055 0.072069585
000140 e0 1e 12 bb 98 a4 11 3d 90 9d 5c 3d fa e9 78 3b
       -0.0022296235 0.03555736 0.0538612 0.0037981258
000150 65 51 cb bd e3 2e a6 3c b4 c7 39 3c 56 f9 0f bc
       -0.09927634 0.02028603 0.011339117 -0.008787474
000160 44 38 c0 bd f0 f8 e1 bd 13 c8 8c bd 5c 4a 2c bd
       -0.09385732 -0.11033809 -0.06874099 -0.042063102
000170 82 06 80 3d 00 60 c5 bc 08 0e a9 3d 0b 41 a5 3d
       0.06251241 -0.024093628 0.082546294 0.080690466
000180 8a 85 ff 3d 06 78 01 3e 87 74 e7 bd aa af 69 3c
       0.124766424 0.12643442 -0.11301523 0.014263073
000190 65 41 62 3d f2 5f 25 3d 85 88 63 3d f7 8a cf 3c
       0.055238146 0.040374704 0.055550117 0.025334818
0001a0 46 b3 39 bc e2 b5 b5 3d c4 3e d5 3c e8 49 ea bd
       -0.011334246 0.08872582 0.026030906 -0.11439878
0001b0 74 dd 71 bd 90 e0 b2 3d f7 20 fb 3b b6 3f 66 bb
       -0.059049085 0.08734238 0.007663842 -0.003513319
0001c0 b8 d8 ed 3d 78 0c c5 3d a6 a6 60 3c a2 5c e1 3c
       0.116136014 0.09621519 0.013711607 0.027509991
0001d0 c3 1d 7a bd 45 3a ab 3d ab 76 ab bc c0 bc 04 3d
       -0.06106354 0.083607234 -0.020930609 0.03240657
0001e0 dd c4 00 bb 2b 5a e0 3c 46 f4 be bd f8 00 85 bd
       -0.001964859 0.027386745 -0.09323935 -0.064943254
0001f0 e1 20 5e 3c 40 15 a5 bd c2 ee d0 bd ce d5 c6 bc
       0.013557644 -0.08060694 -0.102017894 -0.024271872
000200 39 a7 c4 3d 8b 52 8b bd e0 7e 08 3d 99 d8 d7 bd
       0.09602208 -0.06802853 0.033324122 -0.105393596
000210 f4 6c 59 bd a1 f0 c9 bc 4f 38 b2 bc eb 86 29 3d
       -0.05308242 -0.024650874 -0.021755366 0.041388433
000220 9b 40 d2 bd 0a 5e e5 3c 2c d0 a9 bd 33 e8 ac 3d
       -0.10266229 0.027998943 -0.08291659 0.08442726
000230 18 a9 89 bc d4 19 3e bd 7b 39 28 bd 3d eb 03 3c
       -0.016804263 -0.04641135 -0.041070443 0.008051691
000240 35 57 93 3c 2c 15 e6 3d 40 ad 87 3d 26 95 9c bc
       0.01798592 0.11234507 0.06624842 -0.019114088
000250 ac 24 87 3d ca 7e ef 3d 8f 4e ed 3d 9c e2 43 3d
       0.065987915 0.11694105 0.115872495 0.047823533
000260 6b 0f 8a 3d d3 61 1c bd cd f6 dd 3d c6 a9 b3 3d
       0.06741222 -0.03817923 0.10838089 0.08772616
000270 89 02 01 3e c4 58 82 3d 88 e6 e2 bd f9 a1 8b bd
       0.12598623 0.06364587 -0.110791266 -0.06818003
000280 4b b5 3e 3c 59 2d 9b bd a0 2a 0c bc f6 74 62 3d
       0.011639903 -0.07577009 -0.0085550845 0.055287324
000290 64 73 98 bd a9 9f b3 bc 33 88 cf bd 79 a0 aa 3c
       -0.07443884 -0.021926718 -0.101334 0.020828472
0002a0 62 e4 35 3d 81 d3 39 bc af a7 1a bd d2 8e e6 3d
       0.044407256 -0.01134193 -0.03775757 0.112577096
0002b0 50 79 8d bd 1b 87 56 3d 85 73 eb bd f0 73 9f bd
       -0.06907904 0.05237494 -0.11496643 -0.07785785
0002c0 7c fa 95 3c 24 5d c4 3d e6 3e c2 bd 03 fc f6 bd
       0.018307917 0.09588078 -0.09484653 -0.12059786
0002d0 8f 47 6d 3d d3 64 ca bd 04 5b b5 3d 30 72 a0 3c
       0.05792957 -0.09882512 0.088552505 0.019585699
0002e0 93 61 b2 3c 2a 22 5d 3d 13 b4 d1 bd c3 0e c5 bd
       0.021775043 0.05398766 -0.102394246 -0.09621956
0002f0 a7 31 f3 3d 93 2c 00 be 8e 1c 8c 3d c3 42 1d bc
       0.11874705 -0.12517004 0.06841384 -0.009598437
000300 f2 79 45 bb 66 dd 01 be aa 09 d7 bd ef 65 b3 bb
       -0.00301325 -0.12682113 -0.1049989 -0.005474798
000310 c4 d3 cc 3d 5e 9d e6 3d b3 dd 13 3d 7f f4 a6 3d
       0.100013286 0.11260484 0.0361001 0.08152103
000320 eb 72 ce bd 1b 0e ac 3d c3 9f f4 bd ba 7a bf bc
       -0.100805126 0.08401128 -0.11944535 -0.02337395
000330 85 fc 92 3d 32 a6 ab bd f8 e7 20 bd af a3 aa bd
       0.071770705 -0.083813086 -0.039283723 -0.083320014
000340 90 36 ad bd a8 63 9f 3d 57 0f 86 3c 18 1d 83 bd
       -0.084576726 0.0778268 0.016364736 -0.064020336
000350 92 df e9 3d e8 10 9b bd ab 97 e5 bd 01 1b dd 3c
       0.11419596 -0.07571584 -0.11210569 0.026990416
000360 91 2d 82 bd 28 65 d2 3d 43 76 9b bd 45 7c 8c 3d
       -0.06356347 0.102732 -0.07590916 0.0685964
000370 7c 0d f4 bc d5 e0 07 be 60 4e ea 3d 4c 2b 51 bd
       -0.029791586 -0.1326936 0.1144073 -0.05106668
000380 a7 f6 d0 3d ca 74 e6 3d 6d 82 ed bd 20 40 d8 bd
       0.10203295 0.112527445 -0.11597142 -0.10559106
000390 6b 8b f0 3d 9d 84 3a bd 2c 13 04 bd 52 81 1e 3c
       0.11745342 -0.045536626 -0.032244846 0.009674387
0003a0 d0 f7 16 3d f6 64 e6 bd de 87 71 3d db fa d4 bc
       0.036857426 -0.112497255 0.058967464 -0.025998523
0003b0 b2 78 03 bd 51 74 e2 3d 23 61 f5 3d 2c d1 86 3d
       -0.032097526 0.11057342 0.11981418 0.06582865
0003c0 4f 0b ab 3d c3 59 c6 3d 1a 44 cb 3c 8a 68 ab 3d
       0.08351766 0.096850894 0.024812747 0.083695486
0003d0 ed fd bc bd c4 aa ed bd 4d 8c 5a bd 03 05 b9 3d
       -0.0922812 -0.116048366 -0.053356458 0.09034159
0003e0 aa 4b 8a bd 68 fc 4b bd 1a e9 8f 3d fd d8 fc 3d
       -0.06752713 -0.04980126 0.070268825 0.12346075
0003f0 2b 6e db bd cd 8e d7 bd a4 6a 4e bc 3e 28 e2 bd
       -0.10714372 -0.10525284 -0.012598667 -0.11042832

base.mlp.fc.0.bias f4 [128]
000000 03 9a 3a 3d f0 c4 f8 3d 58 e8 ab bc fe c5 4d 3d
       0.045557033 0.12146938 -0.020984814 0.05023765
000010 7d c6 96 3d 57 53 8c 3d db 3d ef bd da 03 6f bc
       0.073620774 0.06851833 -0.1168172 -0.014588321
000020 6b 45 bf 3d 89 a8 30 3d c8 9e 75 bd 71 4f f2 3d
       0.09339412 0.043129478 -0.05996588 0.118315585
000030 4e 38 a7 3d 04 28 74 3b 47 da 03 be 07 c2 a2 bb
       0.08165036 0.0037255296 -0.12876235 -0.0049669775
000040 d8 a8 53 bd 4d 1d 25 3d cc e2 23 3d c8 bc bb bd
       -0.051674694 0.040311147 0.040011212 -0.091668665
000050 f1 c9 23 3b f1 77 a1 bd 2c 8c 30 3c 6a d4 21 bd
       0.0024992193 -0.07884205 0.010775607 -0.039509214
000060 de f6 be 3b 24 22 b6 3d e4 75 44 bc 2b 62 78 3d
       0.0058277687 0.088932306 -0.011990998 0.060640495
000070 4b cf 88 3c da cf 37 3c db 8f 5f 3d 74 64 23 3d
       0.016700407 0.011218989 0.05458055 0.03989072
000080 be 76 30 bd ac a6 3b bd 5a 47 1e bd 30 97 dc bd
       -0.04308199 -0.045813248 -0.038642265 -0.10771024
000090 42 2f 86 3c 9d a6 f5 3d 98 be db bd 7e 6e 03 be
       0.016379956 0.119946696 -0.10729712 -0.12835118
0000a0 45 36 82 bd 70 7d 32 3d 9b 47 6f 3d fb 91 01 be
       -0.06358007 0.043576658 0.058417898 -0.12653343
0000b0 25 93 f4 bd 7d 4a 86 3d 15 4c 8b bd b8 c5 c6 bd
       -0.11942128 0.06557176 -0.06801621 -0.097056806
0000c0 2c cd a5 3d a2 4b 98 3c bc 61 ea bb 2e f5 aa bd
       0.08095774 0.018590752 -0.007152764 -0.083475456
0000d0 77 0a 7d 3c 03 f8 e0 bd 36 90 4d bc 72 73 a6 3d
       0.01544439 -0.109848045 -0.01254659 0.08127488
0000e0 b8 66 97 3d 9d 76 d8 bb 63 3c b6 3d 66 43 f4 bd
       0.07392639 -0.0066059367 0.088982366 -0.11926918
0000f0 38 1d 6a 3d 8e c8 1a 3c 17 44 a0 3d 7d 3a 49 bd
       0.05715677 0.00944723 0.07825487 -0.049128044
000100 ef f3 dd bc fa 56 d0 bd d2 d1 ac 3d 01 48 2e 3d
       -0.027093856 -0.101728395 0.084384575 0.042549137
000110 59 b6 28 bc 41 fe b4 3d bd e2 5b 3d af c2 03 bd
       -0.010297381 0.088375576 0.05368303 -0.032168087
000120 40 1f 1d bd 82 05 4d bd d4 16 c3 3c 1a b4 0e bd
       -0.03835988 -0.05005408 0.023814596 -0.034839727
000130 51 66 74 bd 36 ac fc bc 9a a9 af bd 17 a4 46 bd
       -0.05966789 -0.030843835 -0.08577271 -0.048496332
000140 96 38 4b bd 0c ec 03 be e9 85 14 3d 56 4e b1 bd
       -0.04961451 -0.12883013 0.03626052 -0.086575195
000150 13 8f 4c bc c0 37 bd bd c3 49 8a 3d 97 4a f7 3c
       -0.012485283 -0.09239149 0.0675235 0.030186934
000160 fe 6b f1 3c 72 d4 d1 bd 76 83 d2 3d 66 92 14 3d
       0.02947044 -0.10245599 0.102789804 0.03627243
000170 fe 82 d4 bd 96 fa ba bd 8d 5e c3 3d 30 1e 9e bc
       -0.10376547 -0.09129827 0.095395185 -0.019301504
000180 b0 b0 8a 3d d0 3f f5 bd 4f 5a fa 3b e2 3b b9 3d
       0.06771982 -0.11975062 0.00764016 0.09044625
000190 f9 84 b9 bd 4a e0 32 bd f4 70 90 bd 08 b4 e7 3d
       -0.09058566 -0.04367093 -0.07052794 0.11313635
0001a0 cc bb 13 bd bc a7 33 3c 70 d3 0c be f0 e4 af bd
       -0.03606777 0.010965284 -0.13752532 -0.08588588
0001b0 95 f0 10 bd dd c3 80 3d 2c 72 8d 3d 57 56 a3 3c
       -0.035385687 0.06287358 0.06906542 0.019938631
0001c0 4c 3b eb 3d 51 a6 c2 bd 51 08 f0 bd a9 6e 73 bd
       0.11485919 -0.095043786 -0.11720336 -0.059431706
0001d0 4e a4 db 3d ca a9 7f 3c b9 60 d8 bd bf c7 d4 3d
       0.10724698 0.015604446 -0.105653234 0.10389661
0001e0 e3 98 ad bc ca 17 2a 3d 00 5a d1 bd 35 4d 30 3d
       -0.021191066 0.041526593 -0.10222244 0.04304238
0001f0 d7 b3 d0 bd 1b 53 a3 3d ce 5a 14 3d 06 28 e7 bd
       -0.10190552 0.079748355 0.03621941 -0.11286931

base.mlp.fc.2.weight f4 [128]
000000 46 34 7f 3f ad 0f 80 3f de ff 80 3f 8d 33 7e 3f
       0.9968914 1.0004784 1.0078084 0.9929741
000010 3f 0c 80 3f f1 2e 7e 3f 67 a7 7e 3f 8e 42 7d 3f
       1.0003737 0.99290377 0.99474186 0.9892968
000020 63 1c 81 3f 89 57 7f 3f 7c 09 7e 3f 64 b0 7e 3f
       1.0086788 0.99742943 0.9923322 0.994879
000030 25 e6 80 3f a8 2d 80 3f 71 37 7e 3f 09 69 7f 3f
       1.0070235 1.0013933 0.99303347 0.99769646
000040 0f 70 80 3f 5d 7d 81 3f 7e 51 80 3f db 4c 80 3f
       1.0034198 1.0116383 1.002487 1.0023454
000050 a5 23 7f 3f 3b 5f 80 3f fe d4 80 3f 5f a8 7f 3f
       0.99663764 1.0029062 1.0065 0.9986629
000060 cd e2 7f 3f 50 1e 7f 3f df 84 7f 3f 02 d7 7e 3f
       0.99955446 0.9965563 0.9981212 0.99546826
000070 18 c9 80 3f 6e b6 7e 3f 05 72 80 3f 1d 16 80 3f
       1.0061369 0.99497116 1.0034796 1.0006748
000080 2a ce 7f 3f 77 42 80 3f a4 9e 7d 3f 6d 1a 80 3f
       0.99923956 1.0020283 0.9907019 1.0008065
000090 00 aa 7e 3f 46 15 80 3f a6 9a 7d 3f db 59 7f 3f
       0.9947815 1.0006492 0.990641 0.99746484
0000a0 2a b4 7f 3f d4 0d 7f 3f 65 36 7e 3f 85 8e 80 3f
       0.99884284 0.99630475 0.9930175 1.0043494
0000b0 51 66 80 3f 57 05 80 3f 3b de 7d 3f a5 d2 7f 3f
       1.0031224 1.000163 0.9916722 0.99930793
0000c0 6c ff 7f 3f 2e 4f 80 3f a4 3e 7f 3f 93 57 80 3f
       0.9999912 1.0024164 0.99704957 1.0026726
0000d0 f3 82 80 3f 2c 39 80 3f d0 88 80 3f 74 8e 80 3f
       1.0039963 1.0017447 1.0041752 1.0043473
0000e0 cd 3a 80 3f dd 10 80 3f ea c3 80 3f 1d 59 7f 3f
       1.0017945 1.0005146 1.0059788 0.9974535
0000f0 38 1b 7e 3f 9e a9 7f 3f 4c e4 7e 3f a3 a3 80 3f
       0.9926028 0.9986819 0.99567103 1.0049938
000100 cd 45 7f 3f a9 2e 80 3f 78 70 7e 3f a7 50 80 3f
       0.9971588 1.001424 0.99390364 1.0024613
000110 8e 2c 81 3f 81 1d 7f 3f c1 30 80 3f 29 52 7f 3f
       1.0091722 0.99654394 1.0014879 0.9973474
000120 a8 7f 7f 3f 93 4f 80 3f d1 de 80 3f 1c 40 80 3f
       0.9980416 1.0024284 1.0067998 1.0019565
000130 8a 48 80 3f 73 f0 80 3f c0 1f 80 3f 5c cf 80 3f
       1.0022137 1.0073379 1.0009689 1.0063281
000140 94 bf 80 3f 54 75 7f 3f 5d a5 7e 3f 63 7b 7f 3f
       1.0058465 0.99788404 0.99471074 0.9979765
000150 71 71 7d 3f 51 73 80 3f d7 89 80 3f 15 0e 7d 3f
       0.9900122 1.0035192 1.0042065 0.9884961
000160 b0 f7 7d 3f ac ef 80 3f 96 b1 7e 3f 6e 24 80 3f
       0.99206066 1.0073142 0.99489725 1.0011117
000170 0b d1 7f 3f bf db 7e 3f 8b 3e 7f 3f fd 28 80 3f
       0.9992835 0.99554056 0.9970481 1.0012509
000180 0e ed 80 3f 1e d8 7f 3f 4b cf 7e 3f 4e d2 7d 3f
       1.0072343 0.99939144 0.99535054 0.99149024
000190 ae 2e 81 3f 12 3f 7e 3f fe b0 81 3f 1c 68 80 3f
       1.009237 0.9931499 1.0132139 1.0031772
0001a0 3b 7b 7e 3f 59 0b 7f 3f 97 a1 7f 3f 1d f0 7f 3f
       0.99406785 0.9962669 0.9985594 0.9997576
0001b0 91 b5 7d 3f 2b 25 80 3f 25 e4 7f 3f bc e5 80 3f
       0.99105173 1.0011343 0.99957496 1.0070109
0001c0 57 75 80 3f cf f1 80 3f 3a 67 7d 3f a6 0d 80 3f
       1.0035809 1.0073794 0.98985636 1.0004165
0001d0 2a d3 7f 3f 8a f5 7f 3f bf ba 7f 3f f8 bc 7f 3f
       0.99931586 0.9998404 0.99894327 0.9989772
0001e0 8a 7c 80 3f 02 9e 80 3f 7e 18 80 3f c7 2b 81 3f
       1.0038006 1.004822 1.0007474 1.0091485
0001f0 8a 13 7d 3f 68 6e 80 3f 8b 7e 7e 3f 32 38 80 3f
       0.9885794 1.0033693 0.9941184 1.001715

base.mlp.fc.2.bias f4 [128]
000000 60 b3 05 3c d8 a9 d8 3b 22 06 04 bc fb 55 de 3b
       0.008160442 0.006612044 -0.008058103 0.006785152
000010 7b b0 70 3b 03 7c f9 ba f9 6e b2 3a cf 17 48 3a
       0.0036726284 -0.0019034151 0.0013613395 0.0007632942
000020 4b be fd 3b c4 43 2e bb f4 1c 8c 3a 9b 3f b2 3b
       0.007743632 -0.0026590684 0.0010689781 0.0054397113
000030 b4 7c 09 bc e7 83 4e bb bb e9 2a bb ba 88 4b 3b
       -0.008391548 -0.0031511725 -0.0026079256 0.0031056837
000040 03 b3 71 3b b7 b5 3e bc 17 79 aa bb 6a 12 8e bb
       0.003688038 -0.011640004 -0.0052024233 -0.004335691
000050 1c 06 f0 38 34 8e bd 3b f1 df b2 bb a6 4d 3d 3a
       0.0001144523 0.005784774 -0.005458825 0.00072213484
000060 50 ad 7c bb 6c 45 6d b9 84 c0 3c 3a c8 da 92 3b
       -0.003855545 -0.00022627943 0.0007200318 0.004481647
000070 fa 0b cd bb a8 45 32 bb 4d 9e 95 3b ae 7c 2e ba
       -0.0062575312 -0.0027202163 0.00456599 -0.0006656152
000080 b9 89 12 ba 9f c4 10 3c 0d 98 a8 bb a0 f3 bc 3b
       -0.000558998 0.008835941 -0.005145079 0.005766347
000090 60 50 9b 3b 94 77 ac 3a 2a a1 de b9 84 00 9c bb
       0.004739806 0.0013158196 -0.00042463216 -0.0047608037
0000a0 e2 2c 44 3b f8 22 eb 3b b3 21 d5 3b 36 ab de bb
       0.0029933979 0.0071757995 0.0065042614 -0.0067953123
0000b0 27 9d c4 ba a1 0f 30 3b fa 91 e3 ba dc 7a 5e bb
       -0.0015000448 0.0026864784 -0.001736223 -0.0033947742
0000c0 4c 09 12 ba e0 03 2b bb 8e 20 27 3b 8e 3e 37 bb
       -0.00055708434 -0.002609484 0.0025501582 -0.002796087
0000d0 ad 3d ad 3b 91 15 dc bb 36 30 ee bb 3a 75 ad 3b
       0.0052868933 -0.006716438 -0.007268931 0.0052935155
0000e0 68 e8 21 3c 87 c6 28 bb 78 06 05 bc 24 47 2b 3b
       0.00988207 -0.0025753097 -0.008119218 0.0026134932
0000f0 19 76 a8 bb 73 3c 03 3b 5f 52 f9 ba 79 e4 34 bb
       -0.0051410315 0.0020025044 -0.0019021741 -0.0027602
000100 c2 65 12 3b 02 96 c5 3a 4b 6a f0 ba d4 60 1b bb
       0.0022338484 0.0015074613 -0.0018342225 -0.0023708837
000110 c7 f6 18 bc c5 69 ca 3b 05 fa 7d 39 8d 0a 01 bb
       -0.00933618 0.0061771595 0.000242211 -0.0019690127
000120 67 23 79 ba 0b 01 ba bb e5 36 61 39 ac 5a 9d bb
       -0.00095038716 -0.005676394 0.00021478122 -0.0048020687
000130 94 24 19 bb e9 82 f6 bb bb 99 1f bb e0 5d d2 bb
       -0.002336775 -0.00752293 -0.0024353105 -0.006419882
000140 d4 b5 c3 bb 00 d0 20 bc 3a 5b 15 bb 65 0c ec 3b
       -0.0059726033 -0.009815216 -0.002278997 0.007203626
000150 71 a9 cf 3b 14 08 77 bb 7b 17 c2 bb d5 f1 42 3c
       0.0063373377 -0.0037694024 -0.0059232092 0.011898478
000160 65 50 d9 3b 7b 24 21 bb 48 1a de b9 2c d3 99 3b
       0.006631898 -0.0024588394 -0.0004236272 0.004694363
000170 19 4d 7f ba 09 bc b9 bb c3 06 14 3a f5 6b 85 3a
       -0.00097389665 -0.0056681675 0.00056467595 0.0010179268
000180 0c 0b df bb fd 0a 75 bb bc ff 74 3b 1e 88 0f 3c
       -0.006806737 -0.0037390583 0.0037383875 0.00876048
000190 4c ef 16 bc bd ae 3d 3b 28 25 5d bc 7c 58 08 3c
       -0.009212326 0.0028943263 -0.013497628 0.008321878
0001a0 6c fa 8b bb ed bb d5 bb 58 5b c2 3a 66 20 a4 39
       -0.004271796 -0.0065226466 0.0014828248 0.00031304656
0001b0 51 a7 c8 3b 40 3a 93 bb 43 8b 81 3b 9e 05 25 3c
       0.0061234613 -0.004493028 0.003953369 0.01007214
0001c0 fc 49 57 bb 6e af 1d bc a6 bd e9 ba ae 3e 4e 3b
       -0.0032850495 -0.009624345 -0.0017833009 0.0031470465
0001d0 20 56 84 3b 81 02 b4 3b 89 6a bb 37 68 56 f3 b9
       0.004038587 0.0054934626 2.2341746e-05 -0.0004641295
0001e0 0e 39 8c bb 0a a4 19 3b 2a 61 6f 3b 2b 16 19 bc
       -0.0042792624 0.0023443722 0.003652642 -0.009343664
0001f0 e9 57 25 3c 4b fc 0e 3c 5a 2b b0 3b bf a5 e4 ba
       0.01009176 0.0087271435 0.0053762617 -0.0017444416

base.mlp.fc.3.weight f4 [128, 128]
000000 07 44 88 3d 63 e1 7c bc ae 24 e6 3c a4 9c 24 3d
       0.066536 -0.015434596 0.028093662 0.040188447
000010 cf 29 6c bd 3a 17 9c bc 4e a1 85 3d 49 61 18 bd
       -0.05765706 -0.019054044 0.06524907 -0.037202153
000020 97 c4 bd 3c 26 6e ab bd f4 d3 3d bd b5 5a 0c 3d
       0.02316503 -0.083706185 -0.046344712 0.034266192
000030 a9 8a 4c bd 92 b4 98 bc a4 1e 7c bd 01 db db bc
       -0.049936924 -0.01864079 -0.06155266 -0.026837828
000040 e6 be bb 3d 74 f8 b2 bd 39 a7 4c bd 9d 7e ea 3c
       0.0916727 -0.08738795 -0.049964163 0.028624827
000050 e5 a6 0d 3d 27 a7 2b 3d b8 fe 6a 3d 24 31 c1 bd
       0.03458299 0.041907456 0.057371825 -0.09433201
000060 6e 09 09 3c 7b d6 83 3d 55 4c e3 bc 4f 98 83 3d
       0.008364065 0.06437393 -0.027746359 0.06425535
000070 6c 32 94 bd 8a f2 6f bd 2a 9b f5 bc 7e 4c db 3b
       -0.0723618 -0.058580913 -0.029981215 0.006692468
000080 82 62 b5 bd ce 91 a5 3c a9 c8 0c bd 29 19 92 3d
       -0.088566795 0.020211127 -0.034371052 0.07133705
000090 e6 48 49 bd 2c 8d 95 3c 5b 9a 48 3d 38 50 99 bd
       -0.049141787 0.018255793 0.04897533 -0.07486004
0000a0 e4 ac 37 3d 16 56 69 3d 19 b2 b7 bd 42 40 0c bd
       0.044842616 0.056966864 -0.08969516 -0.03424097
0000b0 fe 9c 1d 3d f3 70 ca bb a5 b2 3e bc 99 58 6b 3d
       0.038479798 -0.0061780154 -0.011639272 0.05745754
0000c0 c8 6f f4 bc 3e 5e a2 bd 2a 32 02 3d db c6 a7 bd
       -0.029838458 -0.079281315 0.03178612 -0.081922255
0000d0 d2 28 1b bd bf a6 7b 3c bd d5 1c bd dd 8e 5a 3d
       -0.037880726 0.01535958 -0.038289774 0.0533589
0000e0 ae 0a 27 3d 7b 48 01 3d 84 57 d1 bc ee 7f 47 3d
       0.04078167 0.031563263 -0.025554426 0.048705988
0000f0 82 9d 66 bc fb 65 9b 3c 93 b4 38 bd 8b e8 5d 3d
       -0.014075639 0.018969527 -0.045094084 0.05417685
000100 0c 85 58 3c 4e 62 9c 3c 03 87 c7 bb 91 09 9f bd
       0.013215315 0.019089844 -0.0060890927 -0.077654965
000110 ac 0e 84 bd 4a 05 37 3d e4 b6 14 3d 8d 63 c1 3c
       -0.06448111 0.04468278 0.03630723 0.02360704
000120 43 3f 8d bc 85 f7 0b bd 85 88 9a 3d b4 69 a2 bd
       -0.01724208 -0.0341716 0.0754557 -0.079303175
000130 38 8e a0 3d c8 da 6c bd 84 01 89 3d e4 d4 71 bc
       0.07839626 -0.057825834 0.06689742 -0.01476023
000140 ef 83 8a bd 13 62 ad bc 5f 05 9f bd 3c ae a6 3d
       -0.067634456 -0.02116493 -0.07764696 0.08138701
000150 1d 97 9d 3d e8 8c 37 3d 4a de b4 bd 2d ba e0 3c
       0.07694838 0.044812113 -0.08831461 0.027432526
000160 1a 47 4c bd 9f 26 fb bc 7a 91 a3 3d 56 94 c4 3c
       -0.049872495 -0.030658064 0.07986732 0.023996513
000170 e1 58 86 bd 30 e9 bd bc fc 1f 46 3d 4e c5 58 3d
       -0.06559921 -0.023182482 0.048370346 0.05292254
000180 42 d6 a0 bd 3e 49 23 3c de b6 64 3d d4 11 0e 3c
       -0.078533664 0.009966193 0.05583846 0.008671243
000190 95 b3 a1 bc c4 47 3e 3d d8 d6 84 3d d6 8e a6 3d
       -0.019738952 0.04645516 0.06486291 0.081327125
0001a0 40 4f 29 bd 75 00 49 3a 08 ca 9b bd 87 f2 92 bc
       -0.041335344 0.00076676096 -0.07606894 -0.017937912
0001b0 e7 36 8c 3c fb 19 50 bc 45 c5 8a 3d a3 a6 38 3d
       0.017116023 -0.012701507 0.067759074 0.045080792
0001c0 36 ea 06 3d 29 15 b8 bd 95 14 9f bd 7f 22 99 3d
       0.032938205 -0.08988411 -0.077675976 0.07477283
0001d0 75 e5 00 3d 95 7c 80 bd 8b 0c 80 3d 73 5b ab 3b
       0.031468827 -0.06273762 0.062523924 0.0052294075
0001e0 d9 b9 3c 3b 74 25 5e bd fd 2f 6e 3d 92 91 a4 bd
       0.0028797297 -0.054234937 0.058151234 -0.08035578
0001f0 b9 19 55 3c 0d c3 0a 3d 3d 64 71 bc 4e 5c 02 3d
       0.013006621 0.03387742 -0.014733371 0.03182631
000200 08 92 4f bd 62 53 00 ba 0d 59 ba bd 5f f9 28 bd
       -0.050676376 -0.00048952375 -0.09099016 -0.041253444
000210 cf b4 aa 3b 57 f7 d8 bc 00 cc 9b bc cb 71 5e bb
       0.0052095423 -0.026485128 -0.019018173 -0.0033942338
000220 d4 fe 14 3d 96 48 4d 3d d9 24 b1 3d 43 83 42 3d
       0.036375836 0.05011805 0.08649606 0.047488462
000230 3a 5f 93 bd 05 fd 7f 3d 54 63 56 3d ee d9 22 bd
       -0.071958974 0.062497158 0.05234082 -0.039758615
000240 cd 18 9b 3c 93 13 a6 bd e8 2e 39 bd 02 aa c7 bd
       0.018932724 -0.08109202 -0.04521075 -0.09749223
000250 91 52 81 3d fc 2a 16 3d ca bc 8c bd d4 98 5e 3d
       0.063145764 0.036662087 -0.06871946 0.054344967
000260 d2 44 da 3c 36 51 a2 3d 3b b6 64 3d 43 2e a3 3c
       0.026644144 0.07925646 0.05583785 0.01991952
000270 d7 26 a2 bd ab 8b 9c bc b7 07 c8 3d e7 ae 9f bd
       -0.07917564 -0.019109568 0.097670965 -0.07797032
000280 2f ab 8d bb a8 a9 97 3d f3 0c b0 bc 41 6a 2e bd
       -0.004323385 0.07405406 -0.02149055 -0.0425818
000290 d5 29 71 3d 3a 4f be bb 36 3d 48 bd 3e c7 aa bd
       0.058877785 -0.0058077844 -0.0488865 -0.08338784
0002a0 c6 3a f4 3c 77 51 8d 3d 7f 5d be bd a4 ea 03 bd
       0.029813182 0.06900304 -0.09295177 -0.032206193
0002b0 49 46 84 bd c9 14 98 3d bd cb a4 3d af f7 b1 bc
       -0.06458718 0.074258395 0.080466725 -0.02172455
0002c0 a0 da fc 3b 88 75 9b 3d ae b7 89 bb 14 c0 c3 bd
       0.007716492 0.07590777 -0.0042028045 -0.0955812
0002d0 e0 4a 6a bd ed fb 1b 3d dc e0 c2 bc 2e 5d 49 3d
       -0.057200313 0.038082052 -0.023788862 0.04916113
0002e0 05 5f 1c bd 74 b5 38 bc d0 e8 11 3d a2 9f 37 3b
       -0.038176555 -0.011273731 0.035622418 0.0028018733
0002f0 60 4d 06 bd d7 5d 30 bd c7 aa b1 3d ac bf 5f bd
       -0.032788634 -0.043058243 0.08675151 -0.054626152
000300 31 e5 68 bd 36 f4 82 3c b7 84 95 ba 02 12 43 3b
       -0.0568592 0.01598559 -0.001140735 0.0029765372
000310 db 2f 89 bd 61 60 50 3d 57 28 af bd 57 b3 81 bd
       -0.06698581 0.050873164 -0.08552616 -0.063330345
000320 b0 18 5b bd 4d f9 3a bd ca ad ed 3c 97 da 01 bc
       -0.05349034 -0.045647908 0.029013533 -0.007925651
000330 28 b8 5e bd a6 0e 27 bd 04 d5 28 bb b7 4c aa bd
       -0.054374844 -0.040785454 -0.0025761733 -0.083154134
000340 17 33 aa bd 3b 63 66 bd 0a aa b9 bc a4 3a 5d bc
       -0.08310526 -0.056246977 -0.022664089 -0.013502751
000350 b4 b7 47 bc 47 69 f7 3a dd d5 a5 bd d0 a9 72 bd
       -0.012189794 0.001887598 -0.08097432 -0.059243977
000360 85 25 f4 bc 78 0c b6 bd b0 9a eb 3c 98 ec ad 3d
       -0.029803047 -0.08889097 0.028760284 0.08492392
000370 3a 29 8b 3b 6c 63 a7 bd f1 fd ad 3d 25 f4 20 3d
       0.004246858 -0.0817326 0.08495701 0.039295334
000380 ad 28 96 bd 96 d4 5a 3d 67 b3 3a bd 46 1c 61 3c
       -0.07331977 0.053425394 -0.045581248 0.013739651
000390 68 7a 16 bd d1 c2 aa bd f0 5a 7c bd af 2d 84 3d
       -0.03673783 -0.083379395 -0.061610162 0.06454026
0003a0 99 79 8c bb d7 2e 54 3d 2a 83 b9 bd c3 a0 2b bd
       -0.0042869565 0.051802482 -0.09058221 -0.04190136
0003b0 50 c6 b2 3d 42 aa af bd a9 90 b1 3d af f4 76 3d
       0.08729231 -0.08577396 0.0867017 0.060291942
0003c0 d3 50 74 bd f4 e4 37 bc 91 c0 67 3d 0b 52 8d 3d
       -0.059647392 -0.01122402 0.05658013 0.06900414
0003d0 6c 1c ab 3d cc 58 db 3c 92 59 19 3d ad 4c b3 3d
       0.083550304 0.02677574 0.037438937 0.08754859
0003e0 ff 71 ad bb a8 eb 57 3d 39 d2 33 3b 04 3c 8a 3c
       -0.0052931304 0.052714974 0.0027438535 0.01687432
0003f0 a0 bc 30 bc e3 c4 ed 3b 88 91 b0 bd 5c 0e 85 bd
       -0.010787159 0.0072561367 -0.08621508 -0.064968795

base.mlp.fc.3.bias f4 [128]
000000 26 3b 1d bc 24 d7 8b bc 28 0c 1e 3c 6a 13 93 3d
       -0.009596622 -0.01707036 0.009646453 0.07181437
000010 5d c5 51 3d 89 6d 32 bd 85 8e 49 bc 6f f9 9f bd
       0.05121361 -0.043561492 -0.012302046 -0.078112476
000020 3c 56 86 3d e0 e9 7d 3d 89 ae 16 bd fb dd 3d bd
       0.06559417 0.06199062 -0.036787543 -0.046354275
000030 4e 69 c3 3b e7 59 9d bd f6 95 a0 3d b4 82 8a bd
       0.005963481 -0.07683163 0.07841103 -0.06763211
000040 bf 7c 18 bc 0e 4e ff bc b7 c3 1b 3c c7 09 06 3d
       -0.009307086 -0.031165149 0.009507111 0.03272417
000050 61 bc ad bc 73 0e 95 3d 6e 9d 9b 3d e1 ed e3 bb
       -0.02120799 0.072781466 0.07598387 -0.0069558476
000060 2c da e9 bc b9 11 6f bd be 3b 73 3d 82 a8 5e bc
       -0.028546415 -0.05836651 0.059383146 -0.01358998
000070 e4 91 66 3c ca bf bb bb b9 82 be 3d 63 5f 51 3d
       0.014072869 -0.00572965 0.09302277 0.05111636
000080 7f c3 b6 3d e7 28 9d bd c8 86 ba bc 49 2b 0d 3d
       0.08924007 -0.07673817 -0.022769347 0.034465108
000090 bf 9d 15 bc 4b e2 65 3d 2d dd 69 3d 46 4f 9c 3d
       -0.009131848 0.056124013 0.057095695 0.07632308
0000a0 8c 27 ba bc 15 a3 9d 3d ca 59 a1 3d 32 11 88 3d
       -0.022723936 0.07697121 0.07878454 0.06643905
0000b0 ac e5 df 3c 68 b2 9d 3d 21 0d aa bd 88 a0 db bc
       0.027331196 0.07700044 -0.083032854 -0.026809946
0000c0 a1 73 17 bd 65 55 9d 3d 8f 4b a1 3d cc 6a 1d bb
       -0.036975507 0.07682303 0.0787574 -0.0024019955
0000d0 08 b7 62 bd da b6 2e 3d 60 02 1c 3d 65 07 ab 3d
       -0.055350333 0.04265485 0.038088202 0.0835102
0000e0 e5 76 85 3d f7 89 a1 bd 67 b4 55 3d d3 b8 57 3d
       0.06516818 -0.07887643 0.052174 0.052666496
0000f0 a4 47 63 3d 1c f1 3e bd 6a eb 3c bd ad 78 9e bb
       0.055488244 -0.04661666 -0.046122946 -0.004836163
000100 d3 07 97 bd 00 bb 8b 3d a7 fc 36 bd 06 1a 81 bd
       -0.07374539 0.06822777 -0.04467454 -0.06303792
000110 81 84 2d bd bf bd bc bd 0c d1 bd bc f7 20 42 bc
       -0.042362694 -0.09215879 -0.02317097 -0.01184868
000120 9f c3 98 bd 79 77 55 3d ac a9 53 bd 08 83 7b 3d
       -0.07459187 0.05211589 -0.051675484 0.061404258
000130 d1 e4 b3 bc 06 6f d1 bc c7 60 a6 3d 24 79 29 3d
       -0.021959694 -0.025565635 0.081239276 0.041375294
000140 f2 cb b5 bd 0e ff 9e 3d 80 be 26 3d 26 aa 9d 3c
       -0.0887679 0.077634916 0.04070902 0.019246172
000150 77 bc 7f 3d 6e 78 28 bd a2 f0 d6 3c 46 30 ca bc
       0.062435593 -0.041130476 0.02623779 -0.024681222
000160 7a 6a 48 3d 1b 01 88 3b 40 7b 91 3d c3 b4 5c bc
       0.04892967 0.0041505224 0.07103586 -0.013470831
000170 e4 9e 6b 3d ef 62 b7 3d f6 be 8e 3d 64 64 58 bd
       0.057524577 0.08954417 0.06970017 -0.052830115
000180 33 fe 9d bc a0 0d a4 bc df 9a 9d bc b9 1e 0e bc
       -0.01928625 -0.020026028 -0.019238887 -0.008674317
000190 9a d6 01 bd c6 f4 19 3d 78 fe 82 3c 6d a6 f8 bc
       -0.0316988 0.03758695 0.01599048 -0.030352795
0001a0 b1 1f ae bd b5 b3 87 3c 16 2b 5b 3c 3e 63 9d bd
       -0.085021384 0.016565183 0.013376972 -0.076849446
0001b0 f6 30 64 bd 88 7a 48 bd 18 48 86 bd ac d4 af bd
       -0.055710755 -0.04894498 -0.065567195 -0.08585486
0001c0 f2 0b 98 bd 46 a2 24 3d 9e 18 58 3d f0 77 8d 3d
       -0.074241534 0.04019382 0.05275785 0.06907642
0001d0 46 ed ec bc 6c ed e8 3c 8e fc 8b bd 45 37 89 3c
       -0.028921735 0.028433524 -0.0683528 0.016749987
0001e0 36 83 40 bc ca cb a5 3d a8 8d a0 3d 3b 52 6b bb
       -0.011750033 0.0809551 0.07839519 -0.0035907167
0001f0 da ab a8 bd 87 76 8c bd 43 fb 64 bc 1d 22 ce 3c
       -0.08235903 -0.06858545 -0.013975921 0.02516275

base.mlp.fc.5.weight f4 [128]
000000 32 df 80 3f 11 df 80 3f 59 73 7e 3f b9 50 81 3f
       1.0068114 1.0068074 0.99394757 1.010276
000010 39 e5 7e 3f 08 24 7e 3f 66 29 7d 3f e0 4c 7f 3f
       0.99568516 0.9927373 0.98891294 0.99726677
000020 25 26 7f 3f 86 2e 80 3f f6 de 81 3f 20 81 80 3f
       0.9966758 1.0014198 1.0146167 1.0039406
000030 18 eb 7f 3f 10 09 80 3f 63 63 80 3f e4 1c 81 3f
       0.999681 1.0002766 1.003033 1.0086942
000040 97 67 7f 3f 07 91 80 3f f1 cd 80 3f eb 38 80 3f
       0.9976744 1.0044259 1.0062848 1.001737
000050 90 8d 80 3f 7b 7a 80 3f 51 90 7e 3f f2 cd 7f 3f
       1.0043201 1.0037378 0.9943896 0.9992362
000060 52 35 7e 3f 87 2a 80 3f d4 0b 7f 3f 7d 18 7f 3f
       0.9930011 1.0012978 0.99627423 0.9964674
000070 05 96 7f 3f 7e 47 80 3f d1 05 80 3f 96 3f 7f 3f
       0.99838287 1.0021818 1.0001775 0.997064
000080 52 fa 7f 3f e9 eb 7f 3f e5 6a 80 3f dc 37 7e 3f
       0.99991333 0.99969345 1.0032622 0.99303985
000090 8a ea 7e 3f 68 72 7f 3f 93 bb 7e 3f 1f fc 7e 3f
       0.9957663 0.99783945 0.99504966 0.99603456
0000a0 6e 6e 81 3f 06 25 7f 3f ec dd 7e 3f 5c 80 81 3f
       1.0111825 0.9966587 0.99557376 1.0117297
0000b0 10 04 81 3f 87 85 7e 3f 70 b6 7f 3f cb d5 7d 3f
       1.0079365 0.99422497 0.9988775 0.9915435
0000c0 f7 fd 7f 3f 90 3b 7e 3f 89 a3 7e 3f e8 44 81 3f
       0.99996895 0.99309635 0.99468285 1.0099154
0000d0 45 35 7f 3f b8 27 81 3f 4d 99 7e 3f c1 0c 81 3f
       0.9969066 1.0090246 0.9945267 1.0082017
0000e0 06 34 7e 3f 79 8d 7f 3f 87 dd 80 3f a1 be 80 3f
       0.9929813 0.99825245 1.0067605 1.0058175
0000f0 56 e6 7e 3f bd f4 7f 3f 04 62 7f 3f 8b d4 7e 3f
       0.99570215 0.99982816 0.99758935 0.99543065
000100 a3 c4 80 3f 1c e8 7f 3f 0d c1 7e 3f aa 03 80 3f
       1.0060009 0.99963546 0.9951332 1.0001118
000110 08 c4 7e 3f aa 87 7f 3f 1b 7d 7e 3f 4f cc 80 3f
       0.9951787 0.9981638 0.99409646 1.006235
000120 7a bb 7f 3f a2 a7 7d 3f 65 34 7f 3f 98 ac 7e 3f
       0.9989544 0.9908391 0.9968932 0.9948211
000130 1c 22 7f 3f 1f b7 80 3f a0 a6 7f 3f 30 03 80 3f
       0.9966142 1.0055884 0.99863625 1.0000973
000140 75 8e 80 3f 4b a1 81 3f 05 f5 7e 3f 68 3c 80 3f
       1.0043474 1.0127348 0.9959262 1.0018435
000150 b1 b4 80 3f 8e a6 7f 3f b4 95 7f 3f 5f bb 7e 3f
       1.0055143 0.9986352 0.99837804 0.99504656
000160 21 3e 80 3f 7f 70 7f 3f ec d8 80 3f 12 77 7f 3f
       1.001896 0.9978103 1.0066199 0.9979106
000170 a5 99 80 3f e8 81 7f 3f 77 80 7d 3f 50 b7 7e 3f
       1.0046889 0.99807596 0.99024147 0.9949846
000180 84 25 80 3f 9c 80 7e 3f c0 10 7e 3f 01 d2 7f 3f
       1.0011449 0.9941499 0.9924431 0.99929816
000190 cc 56 80 3f 98 39 7f 3f 80 ba 7f 3f aa bf 80 3f
       1.0026488 0.99697256 0.9989395 1.0058491
0001a0 8a 62 7e 3f c7 c8 7d 3f de 3a 7f 3f 8a 46 81 3f
       0.9936911 0.99134487 0.996992 1.0099652
0001b0 92 4e 7f 3f 46 2c 80 3f f3 b0 80 3f d8 c2 7e 3f
       0.99729264 1.0013511 1.0054001 0.9951606
0001c0 cb 3b 7e 3f 6f 43 7f 3f 65 ef 7d 3f 77 5e 80 3f
       0.99309987 0.9971227 0.9919341 1.0028828
0001d0 f3 58 80 3f 0d 00 80 3f 86 72 80 3f 38 2f 80 3f
       1.0027145 1.0000015 1.003495 1.001441
0001e0 97 f8 7e 3f a9 c7 7e 3f a5 8a 7e 3f 8a 68 7f 3f
       0.9959807 0.9952341 0.99430305 0.9976889
0001f0 79 d3 7d 3f fe 9a 7f 3f 06 09 80 3f 37 8e 7e 3f
       0.99150807 0.99845874 1.0002754 0.9943575

base.mlp.fc.5.bias f4 [128]
000000 c4 9c 04 3c e9 a7 05 3c db b3 45 3b 75 31 0a bc
       0.008094016 0.008157709 0.0030167017 -0.008434643
000010 35 f2 de bb ee b5 9b 3b 40 46 f4 3a b1 e9 80 3a
       -0.0068037757 0.0047519123 0.0018636659 0.000983527
000020 e6 83 aa bb dc c8 08 bb ef 83 0e 3c 69 23 ad bb
       -0.005203712 -0.0020871675 0.008698448 -0.0052837622
000030 5c aa 77 3b bf 91 47 bb fe 02 fe ba 9e b6 15 bc
       0.003779075 -0.0030451862 -0.0019379554 -0.009137778
000040 a8 83 d2 3a 48 26 98 bb 87 cd cf bb e8 78 79 bb
       0.0016060965 -0.0046432354 -0.0063416394 -0.003806645
000050 8d 65 e3 bb 83 ce f9 3b 52 12 b3 3b 83 10 97 3b
       -0.006939596 0.007623495 0.0054648304 0.0046101226
000060 c1 e9 c9 3b 00 14 87 ba 81 63 2e 39 3f f5 26 bb
       0.006161899 -0.0010305643 0.00016631001 -0.0025475768
000070 c9 6f c7 ba 30 64 4e bb e0 e2 9e 3b ae f6 1f 3b
       -0.001521581 -0.0031492822 0.004848823 0.0024408507
000080 53 17 f3 3a 66 79 05 bc e4 55 b3 bb f5 28 58 bb
       0.001854638 -0.008146619 -0.0054728854 -0.0032983397
000090 6b 7d 9f 3a 0b 95 95 3b 8e f4 d1 3a 6b 25 ca 3b
       0.0012168115 0.0045648864 0.0016018318 0.0061690114
0000a0 ac a4 3b bc e8 d2 ad 3b 99 e4 e3 b9 a7 76 27 bc
       -0.011452835 0.005304683 -0.00043467132 -0.01022116
0000b0 15 13 ee 3b 17 d3 b9 3b 07 23 ec 3b 25 e3 ac 3a
       0.0072654583 0.005670916 0.007206324 0.0013190253
0000c0 5a ee 10 bb c1 93 39 3b 68 b6 13 3b c1 a4 31 3c
       -0.0022114725 0.0028316828 0.0022539143 0.010842503
0000d0 e1 3a 8f bb 83 52 1b bc ad 73 93 3b ae 62 0b bc
       -0.0043710326 -0.009480122 0.0044998736 -0.008507414
0000e0 c9 e6 00 3c d6 a8 a4 bb a5 c4 c6 bb 63 7a be bb
       0.0078675235 -0.0050250096 -0.0060659223 -0.0058129295
0000f0 bc fa 7a 3b 3b 3b 94 3b 4e 7b f0 b9 89 9d 19 3b
       0.0038296422 0.0045236624 -0.00045868236 0.0023439846
000100 60 d4 cf bb be 70 2f 3c 15 52 c7 3a 04 0c d4 ba
       -0.0063424557 0.010708032 0.0015206957 -0.0016177897
000110 dc 60 d6 ba 82 d2 c9 3a 90 a7 ac 3b 55 6e cb bb
       -0.0016355771 0.0015397819 0.0052689984 -0.006208221
000120 b9 a2 6f ba fa 2d cd 3b d9 73 be bb 0f 5c c2 39
       -0.0009141374 0.0062615843 -0.00581215 0.00037071152
000130 6d 07 d0 3a c7 c2 9f bb 52 f1 0d 3b 86 f4 d6 bb
       0.0015871354 -0.004875514 0.002165873 -0.006559911
000140 0d 99 c2 bb 2b 6c 02 3c ef d8 c1 3a 01 dc 86 3b
       -0.005938655 0.00796036 0.0014789383 0.004115582
000150 41 9f b6 bb 6c 2c 53 3a b6 b8 5c 3b 45 7e 5c bb
       -0.0055731838 0.00080556306 0.0033679432 -0.0033644598
000160 f6 27 ef 3b 06 c6 0f 3b 7a 88 30 bc 51 e3 f4 ba
       0.007298465 0.00219381 -0.010774726 -0.0018683468
000170 ae 70 c3 bb 5d 82 34 3a 7f b3 35 bb 18 32 51 3a
       -0.00596436 0.0006885881 -0.0027725396 0.0007980182
000180 a4 cb c7 3b 1f 2b 8e 39 24 6c 37 3b f2 01 8d 3a
       0.006097274 0.00027116478 0.002798804 0.0010758026
000190 31 ee bc 3b 98 fe ae bb 9f 48 a2 3b 48 c2 b3 bb
       0.0057656993 -0.0053404085 0.0049525048 -0.0054858066
0001a0 3e 73 d1 3b ca 39 6c 3a 17 56 01 3b 62 6d 2c bc
       0.006391912 0.0009011297 0.0019735151 -0.010524126
0001b0 4e cf 83 b9 25 54 8a bb 5e db b9 bb 02 e8 98 3b
       -0.0002514072 -0.0042214566 -0.0056719026 0.0046663294
0001c0 ac 40 ea 3b 03 f2 c8 bb 4f 6c 41 3b fa f5 90 bb
       0.007148823 -0.0061323657 0.002951402 -0.004423854
0001d0 f3 f7 dd 3a f6 11 c5 bb fa a0 3e bb bc 78 c4 3b
       0.0016934857 -0.006014104 -0.0029087649 0.005995838
0001e0 ac 69 ff 3a f0 fc c5 bb 40 d6 d9 3a 43 72 14 3b
       0.0019486449 -0.0060421154 0.0016619638 0.0022651113
0001f0 60 13 11 3b 4b 9f d8 3a 23 54 cb bb 0c b9 1e 3a
       0.0022136793 0.0016526965 -0.0062050982 0.0006054796

rnn.gru.weight_ih_l0 f4 [384, 128]
000000 43 31 7a 3d d8 75 a0 bd 9e 3f 54 3d 9a 4d ea bb
       0.061082136 -0.07834977 0.051818483 -0.007150364
000010 99 d4 ae bd 71 16 95 bd b0 5a 8f 3d 3e 44 5d 3c
       -0.085366435 -0.07279671 0.06999719 0.01350504
000020 52 52 05 bd 10 97 9b bd ad f5 83 bd 6a d3 0b bd
       -0.03254921 -0.07597172 -0.06443343 -0.034137167
000030 50 68 01 3d fa 63 8f 3d 75 6d aa bc 05 b5 51 3d
       0.03159362 0.07001491 -0.020804146 0.051198024
000040 48 48 cf 3b 72 89 22 3d 82 2a 8c 3d c8 1c 85 bd
       0.0063257553 0.03968186 0.06844045 -0.0649963
000050 b7 69 86 3d 23 18 ad 3d b8 31 87 bd 8b 16 a5 3d
       0.06563132 0.08451869 -0.0660128 0.0806094
000060 a2 5a 43 bd d9 55 a3 bd e6 b9 b5 3c fd 64 61 3d
       -0.047693856 -0.079753585 0.02218337 0.05502795
000070 84 db b4 3c a8 1d 8d bd 39 6c 9d 3d 0e aa df 3b
       0.02207733 -0.06890422 0.076866575 0.006825692
000080 11 20 48 3d e9 11 0b bd 70 89 e3 3c 8f 84 d4 3c
       0.048858706 -0.033952627 0.027775496 0.025942115
000090 cc 5b 8e bd b0 a5 9c bd e0 86 8a 3a 2d 5c 7a 3d
       -0.069511026 -0.0764879 0.001056876 0.061123062
0000a0 e9 37 8a 3d eb 56 9e 3d b5 27 55 bd 09 38 99 bd
       0.06748945 0.07731422 -0.05203982 -0.07481391
0000b0 63 83 87 bd fe f0 39 bd 2a 55 b3 bc 9d fd 81 bd
       -0.06616857 -0.045395844 -0.021891195 -0.06347201
0000c0 11 3d 1d 3d 5d 67 b3 bc 63 87 be 3c ba fc 6f 3c
       0.038388316 -0.021899873 0.023257917 0.014647657
0000d0 ba a3 0d 3d 1b 3a 61 bd bb 3d db 3c bd b1 98 bd
       0.03457997 -0.054987054 0.026762834 -0.07455776
0000e0 9f 54 81 3c cf 5d 10 3c ef 79 c3 3c e0 46 2d bd
       0.01578742 0.008811428 0.023861853 -0.04230392
0000f0 bd c2 03 bd 36 77 8d bd ea 6f 13 bb 85 05 1d bd
       -0.03216814 -0.06907503 -0.0022497126 -0.038335342
000100 b9 1a b1 bd 7c 34 63 3d 9d 66 1c bc e3 bb d9 bc
       -0.08647675 0.055469975 -0.009545949 -0.02657885
000110 15 37 9f 3c cf e1 4d bd 7a a5 9e 3d fb c7 9c 3d
       0.019435445 -0.050264176 0.07746406 0.07655331
000120 c9 12 92 3d 97 1a 90 bd ea 99 96 bd 83 33 5d bd
       0.07132489 -0.070363216 -0.073535755 -0.054004204
000130 37 0f 82 bc ba 21 1c bd 89 35 32 3d 25 aa 68 3d
       -0.015876396 -0.0381181 0.043508086 0.056802887
000140 4a 43 7c 3d 5c 94 8f 3d 9d 36 02 bd 88 8c 36 bc
       0.06158761 0.07010719 -0.031790365 -0.011141904
000150 33 84 10 bd 02 5f 25 bd aa b4 85 bd 45 8b 80 3d
       -0.035282325 -0.04037381 -0.065285996 0.062765636
000160 80 fa aa bd 29 bf 9a bd f8 ca 76 3d 6e 55 9e bd
       -0.0834856 -0.07555992 0.06025216 -0.07731138
000170 f4 fb 40 bd 02 6e b0 3d 83 db de 3c a1 92 53 bd
       -0.04711528 0.08614732 0.02720428 -0.051653508
000180 43 5b 32 3d 20 e2 46 bd dd ab 4c bb 72 3a dc bc
       0.043544065 -0.048555493 -0.0031230368 -0.026883338
000190 35 22 96 3d 37 4b a8 bc 0a 5a bb 3c 27 a4 ae bd
       0.07330743 -0.020543678 0.022870082 -0.08527403
0001a0 94 2a f3 3c d3 a1 4a bd 3f 00 10 3c 6b ee 98 bd
       0.029683389 -0.049470734 0.008789121 -0.074673496
0001b0 8a dd a3 bd 1a 5a 88 bd d8 00 58 3d 44 33 a1 bd
       -0.080012396 -0.066578105 0.05273518 -0.07871106
0001c0 44 61 fb 3c 8b 34 82 3d ba 81 02 bb 58 6c 2b bd
       0.030686028 0.06357678 -0.001991375 -0.04185137
0001d0 3a 27 dd bc 54 5e fb 3c ea d4 3b bd f0 57 13 3b
       -0.026996244 0.030684628 -0.045857348 0.0022482835
0001e0 1b 5e ad bc b9 02 50 bd d1 da 8c 3d 8e 32 86 3d
       -0.021163037 -0.050783847 0.068776734 0.06552611
0001f0 d7 e7 a6 3d 9f cc 41 bd e5 05 04 3d cf d2 0e 3d
       0.08149689 -0.047314283 0.032232184 0.03486901
000200 20 c5 b1 bb 25 3d 15 bd 1c cd 41 bd da 70 86 bd
       -0.0054251105 -0.036435265 -0.04731475 -0.065644935
000210 0c fb 53 3d dd 2f b1 bd 4c 0a 9d bd df da 96 bc
       0.05175309 -0.08651707 -0.076679796 -0.018414913
000220 b6 34 6c 3d 9f 52 78 bd 89 4b 8b 3d 50 9b 31 3b
       0.057667457 -0.06062567 0.068015166 0.002710063
000230 9e b7 ed 3c 6c 0b 86 3d 51 3c 66 bc 67 65 96 3d
       0.02901822 0.06545147 -0.0140524665 0.0734356
000240 c1 2d d6 bc 6d 08 56 3d ea c0 16 3b 7b b6 0d bc
       -0.026144864 0.05225413 0.002300317 -0.008649464
000250 ca 8c b4 bc ff a0 23 3d f2 aa 60 3d 97 97 60 3d
       -0.02203979 0.03994846 0.054850526 0.054832067
000260 a9 76 6f 3c 48 02 32 bd 48 de 3b bd bb 62 35 3d
       0.014615693 -0.043459207 -0.04586628 0.04428361
000270 0c 8c 19 3d 39 29 a9 bd 4a cf bc bd 41 8e 98 bd
       0.037487075 -0.08259816 -0.09219225 -0.07449008
000280 90 b6 91 bd f9 46 65 3d 9b bf 04 bc 3f 6f d3 bc
       -0.07114899 0.055975888 -0.008102323 -0.025809882
000290 0f 0a a6 ba 22 34 a8 bd 7d b6 6b bd e1 fb c8 bc
       -0.0012667793 -0.082130685 -0.05754708 -0.024534168
0002a0 df 55 46 3b fb 2d 59 bc d4 d3 63 3d 38 20 ee 3c
       0.0030263586 -0.0132555915 0.055621937 0.029068097
0002b0 7f ca 69 3d 48 2c 4d 3d b0 97 3e 3d 92 4e 2a bd
       0.05707788 0.050091058 0.04653138 -0.041578837
0002c0 e6 58 c7 39 92 0c a1 bc 1e ee 3c bd 69 40 96 bd
       0.00038022472 -0.019659314 -0.046125524 -0.07336504
0002d0 24 17 88 bd 04 a8 e9 3b 0a 1b 80 3d 20 a9 21 3d
       -0.06645039 0.0071306247 0.06255157 0.03946793
0002e0 7a 1e 9e bd 38 74 a5 3d a6 54 d9 3c 8a 9f 9e bd
       -0.07720657 0.080788076 0.026529621 -0.077452734
0002f0 b0 e1 55 3d e7 56 12 bd e8 32 59 bd e8 67 34 bd
       0.052217185 -0.035727408 -0.053027064 -0.044044405
000300 fa ab 8c 3d a6 07 26 bc c3 0c fc bc 34 e3 a4 bd
       0.068687394 -0.0101336595 -0.030767804 -0.08051148
000310 26 ef 97 3d 3f 78 c3 3a 09 76 77 3d 39 75 1c bc
       0.07418661 0.0014913155 0.0604153 -0.009549432
000320 ee 57 c7 bc e1 bd aa bc d0 9d c9 3c fe c1 ad 3d
       -0.02433392 -0.020842494 0.024611384 0.08484267
000330 3f a9 5f bd e5 ad b0 bc dc 27 48 bd 07 19 76 3c
       -0.054604765 -0.021567294 -0.048866138 0.015020615
000340 56 01 e6 3c 81 79 b5 3d e8 cf 4f 3d 8b a1 76 3d
       0.028076809 0.08861066 0.050735384 0.060212653
000350 66 89 09 bc 26 b5 40 bd d1 9e 47 3d 2a 98 8c 3d
       -0.008394575 -0.047047757 0.048735444 0.068649605
000360 46 5b 3c bd 8b 77 e2 3b 96 92 83 bc 82 dd 41 3d
       -0.045985483 0.0069112233 -0.016061109 0.047330387
000370 66 b8 35 3d 49 2d 12 bd 8f f9 5f 3d 4a d1 88 bd
       0.04436531 -0.03568772 0.054681357 -0.06680544
000380 7a 61 a7 bd b0 e9 28 3d 76 23 ab 3d 8b 28 9f bd
       -0.08172889 0.041238487 0.08356373 -0.07771405
000390 8b 79 b0 3b cd a6 fb bc b1 14 d1 3c 3c 03 2c 3d
       0.005385583 -0.030719185 0.025522562 0.041995272
0003a0 cb 98 de 3c d4 e7 6e 3d 9f f7 c6 3c e9 a6 6b bc
       0.027172467 0.058326557 0.024287997 -0.014383056
0003b0 49 8b 0a bd 9b e7 02 3d be 65 b6 3d ab de ea 3c
       -0.03382424 0.031959157 0.089061245 0.02867063
0003c0 b6 61 8a bd b5 b3 b7 bb 0c 91 a6 bd bc 11 b2 bc
       -0.06756918 -0.0056061395 -0.08133134 -0.021736972
0003d0 1a 40 73 bd 3a 56 a8 bd 70 b7 a5 bd 76 17 ab 3d
       -0.059387304 -0.082195714 -0.080916286 0.08354084
0003e0 38 be aa 3c 3d a4 d0 bc 20 76 96 3d 9f 60 9b bd
       0.020842656 -0.02546894 0.07346749 -0.075867884
0003f0 03 50 7a 3d 0a e1 bb 3c 53 ed b6 bd f1 42 86 3d
       0.06111146 0.022934455 -0.08931985 0.06555737

rnn.gru.weight_hh_l0 f4 [384, 128]
000000 ff b6 65 bd 27 d2 0e bd 12 bc a8 3c 45 8a 4e bd
       -0.05608272 -0.034868386 0.020597491 -0.050424833
000010 fb af 9e 3d d7 e4 83 3d 3c 1d 3a bd 3b 19 6f 3c
       0.07748409 0.06440132 -0.045438036 0.014593418
000020 12 95 4b 3d 0b 4c 5d bd 3e d1 4f 3d 1e f2 92 bd
       0.04970271 -0.0540276 0.05073666 -0.071750864
000030 43 0c f1 bc 11 6b 4c 3c 76 e7 8b bd cf b1 98 bd
       -0.029424792 0.0124766985 -0.06831257 -0.07455789
000040 4a 45 6c bd 11 aa 6c bd df 90 56 3d 6d c7 8b bd
       -0.057683267 -0.057779375 0.052384254 -0.06825147
000050 23 df 98 bd c8 c9 91 3d e4 e2 a3 3d 0a fb e0 3c
       -0.07464435 0.07118565 0.0800226 0.027463455
000060 dd 3f a9 bd 80 42 13 3c 58 0f 4f 3d cd 73 8e 3d
       -0.08264134 0.008988023 0.050551742 0.06955681
000070 75 e0 01 3b 81 aa 81 3d 26 63 a9 3d 73 40 7d 3d
       0.0019817625 0.06331349 0.08270864 0.06182904
000080 41 6c 5d bc 0f d2 15 3d 32 1e 5a bd 36 86 20 3d
       -0.013514579 0.03657728 -0.053251453 0.039190494
000090 97 bf 18 3c 01 65 7f bc c8 93 4c 3d 58 01 d8 3c
       0.009323022 -0.015588046 0.049945623 0.026367828
0000a0 e6 93 7d bd d2 4e af 3c 08 bc 87 3d 12 86 c1 3d
       -0.061908625 0.02139989 0.06627661 0.094494
0000b0 7f 10 23 3d 52 c1 b6 bc c3 4b 86 3d 64 15 32 bd
       0.039810654 -0.02230898 0.06557419 -0.04347743
0000c0 43 df 02 bd a9 9b 67 bd 71 55 66 bd 7b 4d cf bc
       -0.0319512 -0.056544933 -0.056233827 -0.0253055
0000d0 57 2d 9e 3c 38 80 82 3d 69 a1 01 3d 66 e7 42 3d
       0.01930873 0.06372112 0.031648073 0.04758396
0000e0 5e e9 e3 bc f2 91 a7 bd 47 d4 73 bd 73 f7 c0 3b
       -0.02782124 -0.08182134 -0.059528615 0.0058888732
0000f0 e2 98 4a 3d 8f f1 2e bd 06 4c 91 bd 77 e0 3a bd
       0.049462207 -0.042710837 -0.070945784 -0.045624223
000100 f2 08 bb 3c 85 32 5b bd 60 a2 6d 3d bf cd a6 bd
       0.022831414 -0.053514976 0.05801618 -0.08144712
000110 88 85 80 3d 27 35 2a bc 6e 17 ad 3d a3 79 0d bd
       0.06275469 -0.010388649 0.084517345 -0.03453983
000120 71 7e b1 3c c5 fd 1c 3d eb 72 0d 3c 51 64 06 3d
       0.021666737 0.03832795 0.008633356 0.032810513
000130 7a 45 6b bd 23 e1 2f bc d3 87 89 bc e1 60 c1 3c
       -0.057439305 -0.010734829 -0.016788399 0.023605766
000140 4b 5e e4 3c cf 26 09 bd bf 6a ea 3c 50 10 5c bd
       0.027876994 -0.033484276 0.028615354 -0.053726494
000150 c2 3c 37 3d f3 6b 7e bd 68 b7 9d bd ee fc 27 bd
       0.044735678 -0.062114667 -0.077009976 -0.041012697
000160 48 33 5a 3b 88 21 a3 bd f2 0c 97 3d 5e 99 03 3d
       0.0033294726 -0.0796538 0.07375516 0.032128684
000170 99 25 48 3a 6d c9 82 3d ac 4b a8 3d 75 09 cf bc
       0.0007634997 0.06386075 0.08217558 -0.025273064
000180 bc b2 f7 3c 9a 9c 39 3d 71 b8 85 3d 3b 7e 03 bd
       0.030236594 0.045315363 0.0652932 -0.032102805
000190 c0 8d 66 3d bd 9d 2a 3d 6a c4 6b 3d 4d 54 8c bd
       0.056287527 0.041654337 0.057560362 -0.068520166
0001a0 88 22 1a 3d 8d a9 59 3d f2 ba 9c bd 7d c2 d8 3b
       0.037630588 0.05314021 -0.076528445 0.0066149817
0001b0 0d fa 31 bd 62 34 99 bd bf ab 31 3d 37 00 35 3d
       -0.043451358 -0.07480694 0.04337668 0.044189658
0001c0 62 b0 a9 3c 00 65 e3 bc e8 2f 88 3d 5f 18 1d 3d
       0.020713989 -0.027758121 0.066497624 0.03835332
0001d0 f9 e9 c2 bc d6 02 3c bb bc 52 fc 3c 16 d2 6d 3d
       -0.023793207 -0.0028688214 0.03080117 0.05806168
0001e0 51 e7 83 bd ee 97 6b 3d 83 4b 34 bd 55 d1 a0 3c
       -0.064406045 0.05751794 -0.044017326 0.019631067
0001f0 70 69 0f bd f7 df 9c bd b8 bc b3 3d 1b 6f 90 bd
       -0.035012662 -0.076599054 0.087762296 -0.07052442
000200 9d 3d fe 3b 98 24 86 bd 95 19 ae bb 01 6d 9e bd
       0.0077588097 -0.065499485 -0.005313108 -0.077356346
000210 fb 2c 0d 3d 80 1a ba bc 27 64 a1 bc 17 f2 21 3d
       0.034466725 -0.022717714 -0.019701077 0.039537515
000220 56 ea a6 3c d3 51 b9 bd b6 6f ad bd d0 03 a3 3d
       0.020375412 -0.0904881 -0.08468573 0.079597116
000230 af 2b de bc 79 74 2e 3d ef ae 1e 3c 3b a2 23 bd
       -0.02712044 0.042591546 0.009685262 -0.039949637
000240 11 a6 72 bd 7f 46 06 bd 63 7d ac 3d 19 57 e6 b9
       -0.059240405 -0.032782074 0.08422353 -0.0004393391
000250 1e b5 84 3d e6 dd 48 3c 28 43 83 3d 9e 16 82 3d
       0.06479858 0.012259936 0.064092934 0.0635197
000260 22 a4 8a bd 76 3e 09 bd 70 b6 5a bd 98 51 07 bd
       -0.06769587 -0.033506833 -0.053396642 -0.0330368
000270 ce fa 87 bd 40 59 05 3d 8d 5d aa 3d 70 16 aa 3d
       -0.06639634 0.03255582 0.08318625 0.08305061
000280 61 80 45 bc ff 50 af bc 03 86 3a 3b 16 5b c8 bc
       -0.012054534 -0.021400927 0.0028461225 -0.024457496
000290 e6 63 89 bd 1c ec d4 bc 96 09 85 bd e0 c6 bd 3d
       -0.06708507 -0.025991492 -0.06495969 0.09266448
0002a0 53 12 84 3d c2 2f 31 3d ae 46 78 3d 51 60 0d bc
       0.064488076 0.043258436 0.06061428 -0.008628921
0002b0 7d 4f 6a 3d 35 ab 37 3d 98 fa 16 bd 6c e5 43 3d
       0.057204712 0.04484101 -0.03686008 0.047826216
0002c0 a3 ed 13 3d ff 3b e4 bc ec 69 9a 3b 28 cc 68 3d
       0.0361153 -0.02786064 0.004712334 0.056835324
0002d0 87 15 1d 3d f2 07 68 bd 60 86 db bb fe 88 e3 3c
       0.03835061 -0.056648202 -0.0066993684 0.027775284
0002e0 5e c0 60 3d 93 9a 11 3d 5f d1 1d 3c d3 cc 83 3d
       0.054870956 0.035547804 0.0096324375 0.064355515
0002f0 f5 bc cd bc e0 21 7a 3d 13 66 9b 3d 54 83 46 bd
       -0.025114516 0.061067462 0.075878285 -0.048465088
000300 78 f7 9b 3d 4b 47 4f bb d3 00 19 3d c2 b7 0d 3d
       0.0761556 -0.0031628187 0.0373543 0.034599073
000310 f6 48 8a b9 00 7b 7a bd 4e 8e ae 3d 8d 7d 41 3c
       -0.0002637577 -0.06115246 0.08523236 0.011809719
000320 dc d5 9e 3d ba f3 40 3d 1f 3d 17 3b 89 eb ad bc
       0.07755634 0.047107436 0.0023077202 -0.021230476
000330 53 f4 37 bd fb 0b 1f bd 7c f8 07 3c e4 61 5d bd
       -0.04491074 -0.038829785 0.008298989 -0.054048434
000340 14 fc 7e bd e5 78 3d bd 5a 27 ac 3d bc 47 7a 3d
       -0.06225212 -0.046257872 0.08405943 0.061103567
000350 82 12 97 3d 8c 2d 91 3d eb 59 ce 3c 9e 62 61 bd
       0.07376577 0.070887655 0.02518936 -0.05502569
000360 95 77 4f bd d4 f1 b1 bc f1 02 1b 3d 0f 4b 13 3d
       -0.05065115 -0.021721758 0.037844602 0.035960253
000370 5b 73 b2 3c 40 7b ee ba 90 30 84 bc 29 47 68 3d
       0.021783521 -0.001819469 -0.016136438 0.05670849
000380 a0 f4 5f 3b 6a aa ad 3d 51 2e e0 bc c0 9d 43 bd
       0.0034172907 0.084797695 -0.027365835 -0.047757864
000390 b0 3f a8 bd 14 ac fa bc 99 7e f5 3c 44 d0 a1 bd
       -0.082152724 -0.030599631 0.029967593 -0.07901052
0003a0 05 4e ae 3c de 18 79 bd 31 7a 45 bd a7 f8 6a 3d
       0.021277437 -0.06081473 -0.048212234 0.05736604
0003b0 90 de 1d bd cf 84 93 bd 97 04 c5 bc a9 f6 5f 3d
       -0.03854233 -0.072030656 -0.02405004 0.054678593
0003c0 d6 28 4c bd cc 6b a8 3d cd 28 85 3d 6e 2e ac 3c
       -0.04984363 0.082236856 0.06501923 0.021018233
0003d0 b2 8b e2 3b f5 f7 78 bd a6 82 76 bd 00 5d 15 3c
       0.0069136256 -0.060783345 -0.06018319 0.009116411
0003e0 84 44 6b bb 8e 76 49 bb a1 88 26 3d e2 d4 83 3d
       -0.0035898993 -0.003074083 0.040657643 0.064370885
0003f0 1b 19 77 bd 88 f3 97 3d 1b 75 0b 3d b8 25 58 bc
       -0.060326677 0.07419497 0.034047227 -0.013192587
