scripts/results/SingleCombat/1v1/NoWeapon/Selfplay/ppo/v1_selfplay_from_baseline/run3/actor_200.pt (torch, 696704 bytes, 30 tensors)

base.mlp.fc.0.weight f4 [128, 15]
0	0x3dfc2626	0.12311964
1	0xbe166b65	-0.14689405
2	0xbd9cdaf0	-0.076589465
3	0x3e6c1bf8	0.23057544
4	0xbe7e96a1	-0.24862148
5	0x3e248c8e	0.16069242
6	0xbd9f82f1	-0.07788647
7	0x3e2866c9	0.1644546
8	0x3d3061ed	0.04306214
9	0xbccdebd5	-0.025136868
10	0x3d2fac8d	0.042889167
11	0xbc3c7aa8	-0.011503853
12	0x3dceb01b	0.10092183
13	0xbdde150b	-0.108438574
14	0x3bb10b07	0.005402926
15	0x3ca41c78	0.020033106
16	0x3cba60c5	0.022751221
17	0xbce093de	-0.027414259
18	0x3e9bd36a	0.30434734
19	0x3dd6f3c2	0.10495712
20	0xbda29e70	-0.07940376
21	0xbd4163e1	-0.047214393
22	0xbd9a2682	-0.07526876
23	0xbdc77ecc	-0.097409815
24	0xbc7845f5	-0.015153398
25	0xbe3a2ce0	-0.18181181
26	0x3e379ba2	0.17930463
27	0x3e2e4cba	0.17021456
28	0xbe6aa90f	-0.22916053
29	0x3dd4aab8	0.103841245
30	0x3d1b96e2	0.03798569
31	0x3e94ae1f	0.29039094
32	0x3e1f351d	0.15547605
33	0xbe9bd687	-0.3043711
34	0xbe916308	-0.28395867
35	0xbe1ca720	-0.15298128
36	0x3e720df0	0.23638129
37	0xbb8aa1f9	-0.0042307344
38	0x3da9b76f	0.0828694
39	0xbe51b71a	-0.20480004
40	0x3ecf945a	0.4054287
41	0xbe43480a	-0.1907045
42	0x3e36b9b4	0.17844278
43	0xbc83c175	-0.016083458
44	0xbe231732	-0.15926817
45	0x3e277c41	0.16355993
46	0xbe11b30b	-0.14228456
47	0x3dfca472	0.12336053
48	0x3d948fc5	0.07253984
49	0xbbebccd2	-0.0071960473
50	0xbe70d6bb	-0.23519413
51	0xbdca90b3	-0.098908804
52	0x3e1ba46a	0.15199438
53	0xbd5977ec	-0.053092882
54	0x3e7592e9	0.23981823
55	0x3e15361a	0.1457142
56	0xbcaba193	-0.020951068
57	0xbe38016a	-0.1796929
58	0x3e43a655	0.1910642
59	0x3da60ea8	0.08108264
60	0xbe448358	-0.19190729
61	0x3e1bfbde	0.15232798
62	0x3deef9dc	0.11668751
63	0x3e40cc4f	0.18827938
64	0xbe2233f8	-0.15840137
65	0xbd7c490e	-0.061593108
66	0xbcb5e2cf	-0.022202877
67	0xbce8ba2c	-0.028409086
68	0xbe594751	-0.21218611
69	0xbe50371c	-0.20333523
70	0x3e1f56db	0.15560476
71	0xbd8f0935	-0.06984178
72	0x3dd220a4	0.10260132
73	0xbc40c9b4	-0.01176684
74	0x3d5bce0a	0.05366329
75	0x3d8a6a2c	0.06758532
76	0x3d7fb954	0.062432602
77	0x3e0e4abe	0.138957
78	0xbe9baf9b	-0.30407414
79	0x3e03f6e2	0.12887147
80	0xbe4d8d47	-0.20073424
81	0xbea83458	-0.32852435
82	0x3e8389e3	0.25691137
83	0xbd8885f2	-0.06666173
84	0x3e2eaab9	0.17057313
85	0xbe2003af	-0.15626405
86	0xbe7b2c24	-0.24528557
87	0x3e3aa0de	0.18225428
88	0x3cd92445	0.026506552
89	0x3e163e9d	0.14672323
90	0x3dac67d2	0.0841824
91	0xbe8b49b5	-0.27204672
92	0x3d93fc2a	0.07225831
93	0xbd367c47	-0.044552114
94	0xbe2ce733	-0.1688507
95	0xbe004b6b	-0.1252877
96	0xbd0daa4c	-0.034586236
97	0x3da1c9b5	0.07899801
98	0xbde59e75	-0.11211864
99	0xbd6bbc60	-0.057552695
100	0x3e75f074	0.24017507
101	0xbd9541a7	-0.07287913
102	0x3e1225ce	0.14272234
103	0x3e063087	0.13104449
104	0xbe370be5	-0.17875631
105	0xbe68bfaa	-0.22729364
106	0x3ea07e99	0.31346586
107	0xbd3998b7	-0.045311656
108	0x3e9439ab	0.28950247
109	0x3d10ad2c	0.0353214
110	0x3d89d7a0	0.0673058
111	0x3e9244ac	0.28568017
112	0x3e875232	0.26429898
113	0xbe401e09	-0.18761458
114	0x3c068539	0.008210474
115	0x3e616b7e	0.22013661
116	0x3e40712c	0.18793172
117	0x3e1cf968	0.15329516
118	0xbe633505	-0.22188194
119	0xbe26565f	-0.16243885
120	0xbe2c9b4c	-0.16856116
121	0x3cb6502a	0.022255022
122	0x3e892721	0.26787665
123	0xbe5cf53a	-0.21577922
124	0x3dfaac5d	0.12239907
125	0xbe16fa12	-0.14743832
126	0xbea63729	-0.3246396
127	0xbe550a15	-0.20804627
128	0x3e1586a0	0.14602137
129	0x3e791de6	0.24327812
130	0xbe1e00f4	-0.15430051
131	0x3d9d0d01	0.07668496
132	0x3e5595f8	0.2085799
133	0x3e6764b3	0.22597007
134	0x3e0730e4	0.13202244
135	0x3e3a8395	0.18214257
136	0x3e814a1c	0.25251853
137	0x3d32bafb	0.04363535
138	0xbe87c0cf	-0.2651429
139	0xbe6c1bb5	-0.23057444
140	0xbe10ffe9	-0.14160122
141	0x3c80497e	0.015660044
142	0xbe7300a7	-0.23730718
143	0x3d8d051e	0.06885742
144	0x3d7239fb	0.059137326
145	0xbdeb896e	-0.11500822
146	0x3de146fb	0.109998666
147	0x3d977141	0.07394648
148	0x3e2dacfc	0.1696052
149	0x3e11eae0	0.14249754
150	0xbdfa25a3	-0.1221421
151	0x3e84042c	0.25784433
152	0xbd70adca	-0.05875949
153	0x3b80a36a	0.0039257305
154	0xbe8b8fe0	-0.27258205
155	0xbe49d72c	-0.19710988
156	0xbd44fd3e	-0.048093073
157	0xbe1446c2	-0.14480117
158	0x3e1b4061	0.15161277
159	0xbe07c99d	-0.13260503
160	0xbe312382	-0.17298701
161	0x3dcc833f	0.09985971
162	0x3d63e555	0.05563863
163	0x3e309831	0.17245556
164	0xbdb3723a	-0.08762021
165	0x3d6afd76	0.057370625
166	0xbdd9bbfd	-0.10631559
167	0xbdac677a	-0.08418174
168	0xbe6b8582	-0.23000148
169	0xbdece776	-0.11567585
170	0xbda0b104	-0.07846263
171	0x3cf2ba83	0.029629951
172	0x3ad5d81f	0.001631502
173	0x3d865723	0.06559589
174	0x3e913e87	0.28368017
175	0x3e99b53f	0.30021092
176	0x3e251505	0.161213
177	0x3d4dc65e	0.050238006
178	0xbe36090e	-0.17776892
179	0x3e399b51	0.18125655
180	0x3cb3685d	0.02190035
181	0xbde2a369	-0.11066324
182	0xbe508f3c	-0.2036714
183	0xbe2ca1ce	-0.16858599
184	0xbdebbc40	-0.11510515
185	0x3e9afcf8	0.30271125
186	0xbe969cf6	-0.29416627
187	0xbe81ad33	-0.25327453
188	0x3d53afe4	0.051681414
189	0xbd550610	-0.052007735
190	0x3d9a70c3	0.07541039
191	0xbe5dbb3b	-0.21653454
192	0xbd9735cc	-0.07383308
193	0x3dfacd4c	0.122461885
194	0x3e62b818	0.22140539
195	0xbe3cbf6a	-0.18432394
196	0x3e5d0784	0.21584898
197	0x3e452d00	0.19255447
198	0x3e7c77fa	0.24655142
199	0xbe345666	-0.17611083
200	0x3d976a69	0.07393343
201	0xbdaaa908	-0.083330214
202	0x3e249a4d	0.16074486
203	0xbdb36811	-0.087600835
204	0x3e4e6df4	0.20159131
205	0xbdf21c16	-0.11821763
206	0xbbdf19cd	-0.0068084956
207	0xbb98e522	-0.0046659866
208	0x3d35171d	0.044211496
209	0x3e00272f	0.12514947
210	0x3d49512f	0.04914969
211	0x3d83ebee	0.064414844
212	0xbeaac9d5	-0.3335711
213	0x3e5ccfcc	0.21563643
214	0x3e677c11	0.22605921
215	0x3e6931ad	0.22772856
216	0x3e727e25	0.23680933
217	0xbeb3358c	-0.3500179
218	0xbda9f765	-0.0829914
219	0x3e3d6266	0.18494567
220	0xbe35ccd9	-0.17753924
221	0x3e7b9f18	0.24572408
222	0xbe3d8aa1	-0.18509914
223	0xbe6a9182	-0.2290707
224	0x3e2ebd78	0.17064464
225	0xbe589e9e	-0.21154258
226	0xbdec36b1	-0.11533869
227	0x3e6499a8	0.2232424
228	0x3e8e5cf9	0.27805308
229	0x3e6b5ba8	0.22984183
230	0xbd7e0c30	-0.06202334
231	0xbe97da43	-0.29658708
232	0x3ee0d752	0.43914276
233	0xbd7d176f	-0.061789926
234	0xbd9c17d9	-0.07621736
235	0x3d8f90d4	0.07010046
236	0xbe5a185e	-0.21298358
237	0x3e109759	0.14120235
238	0x3dc389b8	0.09547752
239	0xbe212d01	-0.15739824
240	0xbe44e03a	-0.1922616
241	0xbdab25ef	-0.08356845
242	0x3e04a310	0.12952828
243	0xbd040a8a	-0.032236613
244	0xbe0aa14d	-0.13538094
245	0x3c807985	0.015682945
246	0xbe9edc1b	-0.31027302
247	0xbdfbee2e	-0.123012885
248	0xbe27d4e1	-0.163898
249	0x3e1dfe39	0.1542901
250	0x3e64a26a	0.22327581
251	0xbdcf37a9	-0.10118038
252	0x3c3361ef	0.010948642
253	0x3e11c4cf	0.14235233
254	0x3d7d65c1	0.06186462
255	0xbe113cbe	-0.14183328

base.mlp.fc.0.bias f4 [128]
0	0xbdc0b57a	-0.09409614
1	0xbe4e32c2	-0.2013655
2	0x3d27f10e	0.041001372
3	0xbdb68e2c	-0.08913836
4	0xbe6dcffe	-0.23223874
5	0xbd0b53f2	-0.034015603
6	0xbe5d4c89	-0.21611227
7	0x3deb9010	0.11502087
8	0xbe3205c4	-0.17385012
9	0xbdcf005a	-0.10107489
10	0xbe938b49	-0.28817204
11	0xbcdf0987	-0.027226223
12	0xbbfaf808	-0.007658962
13	0x3e177b04	0.1479302
14	0xbd65884a	-0.05603818
15	0x3e2233c6	0.15840062
16	0x3e73e733	0.23818664
17	0x3d12d84f	0.03585082
18	0xbdead73e	-0.114668354
19	0xbe44df31	-0.19225766
20	0xbe2e5168	-0.17023242
21	0xbdddf1ac	-0.10837111
22	0xbde6b9f5	-0.11265937
23	0x3e146b3f	0.14494036
24	0xbda5d086	-0.08096413
25	0xbcd883ae	-0.026429977
26	0x3b40e0d4	0.0029430883
27	0xbe60d388	-0.21955693
28	0x3e5e6be1	0.2172084
29	0xbdc00e53	-0.09377732
30	0xbe6e7a81	-0.23288919
31	0xbc8e69f6	-0.01738451
32	0xbe8072d4	-0.25087607
33	0x3c95b7dd	0.01827615
34	0xbe467808	-0.19381726
35	0xbcf54a5c	-0.029942684
36	0xbdcc8deb	-0.09988006
37	0x3e28e5dc	0.16493934
38	0x3e45eab4	0.19327813
39	0x3e7b62de	0.24549434
40	0x3d67647c	0.056492314
41	0x3e13810f	0.144047
42	0xbe605f57	-0.2191137
43	0xbe40018a	-0.18750587
44	0x3deed6f1	0.116620906
45	0x3d5c8ec8	0.053847104
46	0x3db8e38f	0.09027778
47	0x3e2d3ca6	0.16917667
48	0x3e1fe5af	0.15614961
49	0x3db9dac0	0.090749264
50	0xbde07d50	-0.109614015
51	0xbd95d4ea	-0.07316001
52	0x3db015f7	0.085979395
53	0x3e47c783	0.19509701
54	0xbc952e91	-0.018210681
55	0xbdaf1c32	-0.085503
56	0x3e29ffcd	0.16601487
57	0x3e10f87d	0.14157291
58	0xbce4d6f4	-0.027934529
59	0xbda2dcdb	-0.07952281
60	0xbe612726	-0.2198759
61	0xbb8b80a5	-0.004257279
62	0x3d6ea6a6	0.058264397
63	0xbe60d740	-0.21957111
64	0xbe407c60	-0.18797445
65	0xbe7b5e5b	-0.24547713
66	0x3e1c4d75	0.15263923
67	0x3e84cb4e	0.2593636
68	0x3e82050d	0.25394478
69	0x3e5d47a0	0.21609354
70	0xbc9f6481	-0.019457104
71	0x3d920791	0.071303494
72	0x3e32bc5a	0.17454663
73	0xbdb8105c	-0.08987495
74	0xbe1137e1	-0.14181472
75	0x3e2df69c	0.16988605
76	0x3c834415	0.016023675
77	0x3e080184	0.13281828
78	0xbe096bcb	-0.13420026
79	0xbe1559b4	-0.14585
80	0xbb89500d	-0.004190451
81	0x3d28edcf	0.041242417
82	0x3e0cb47e	0.13740727
83	0x3e372e95	0.17888863
84	0xbd922bc0	-0.07137251
85	0x3e80e97c	0.25178134
86	0xbe1de754	-0.15420276
87	0xbce6cc14	-0.028173484
88	0xbe08d425	-0.13362177
89	0x3d64ea55	0.05588754
90	0x3e5f4c3c	0.21806425
91	0xbe70c15c	-0.23511261
92	0x3d4e1016	0.05030831
93	0xbe64f782	-0.22360042
94	0xbcd0afb7	-0.025474412
95	0xbdf03cdf	-0.1173036
96	0xbb3d50fb	-0.002888738
97	0xbe3d7dcd	-0.1850502
98	0x3d32164c	0.043478295
99	0xbe6a04ce	-0.22853395
100	0x3d7df8a8	0.062004715
101	0xbde2ac0d	-0.11067972
102	0xbe4fde02	-0.20299533
103	0x3e34812f	0.17627405
104	0x3b448554	0.0029986696
105	0xbe09b0f4	-0.13446409
106	0xbdfad8fe	-0.12248419
107	0xbdfc69db	-0.12324878
108	0xbe0f3271	-0.13984086
109	0x3c5c7458	0.013455473
110	0xbc4d87c5	-0.012544577
111	0x3e3659cb	0.17807691
112	0x3cdc1df7	0.026869757
113	0xbdc2f335	-0.09519044
114	0x3e3f8cf9	0.1870612
115	0x3d9e0583	0.07715895
116	0xbd6e38b3	-0.05815954
117	0x3e33fcb9	0.17576875
118	0x3e716f15	0.2357753
119	0xbe61d75b	-0.22054808
120	0xbe6019e0	-0.2188487
121	0xbe56b691	-0.20968081
122	0xbe5fb31a	-0.21845666
123	0xbdd7677d	-0.10517786
124	0x3e147c73	0.14500599
125	0xbe7ffb6e	-0.24998257
126	0xbe97dc9a	-0.29660493
127	0xbe1c083c	-0.15237516

base.mlp.fc.2.weight f4 [128]
0	0x3f86e725	1.053929
1	0x3f85855a	1.0431321
2	0x3f8690f5	1.0512987
3	0x3f7acd57	0.97969574
4	0x3f7895a5	0.9710334
5	0x3f7d9c85	0.99066955
6	0x3f808623	1.0040935
7	0x3f80cb65	1.0062071
8	0x3f800db4	1.0004182
9	0x3f83e63c	1.0304637
10	0x3f7bd84e	0.9837693
11	0x3f74b0c0	0.955822
12	0x3f7789ad	0.9669445
13	0x3f75768e	0.95884025
14	0x3f82a9cd	1.0208069
15	0x3f80d80d	1.0065933
16	0x3f789915	0.97108585
17	0x3f800f75	1.0004717
18	0x3f86c45b	1.0528673
19	0x3f84bc84	1.037003
20	0x3f7004e4	0.9375746
21	0x3f7768a9	0.96644074
22	0x3f787b78	0.970634
23	0x3f86be7f	1.0526885
24	0x3f83cb88	1.0296488
25	0x3f8594c3	1.0436023
26	0x3f863ff8	1.0488272
27	0x3f7dbd8e	0.9911736
28	0x3f813985	1.0095679
29	0x3f83640c	1.0264907
30	0x3f7b30bb	0.9812123
31	0x3f827449	1.0191737
32	0x3f799748	0.9749646
33	0x3f7e7f31	0.9941283
34	0x3f7451fa	0.95437586
35	0x3f7df04d	0.99194795
36	0x3f855cd3	1.0418953
37	0x3f79cf10	0.9758158
38	0x3f914ba9	1.1351215
39	0x3f830066	1.0234497
40	0x3f80c3e5	1.0059782
41	0x3f7b6ffa	0.9821774
42	0x3f83bcb9	1.0291969
43	0x3f811f84	1.0087743
44	0x3f7179af	0.943263
45	0x3f806e44	1.003365
46	0x3f76a752	0.9634906
47	0x3f83229e	1.0244939
48	0x3f851c50	1.0399265
49	0x3f814c60	1.0101433
50	0x3f7f5f23	0.9975454
51	0x3f79d921	0.9759694
52	0x3f82bc8a	1.0213788
53	0x3f824beb	1.0179418
54	0x3f7aad1d	0.979204
55	0x3f761b49	0.96135384
56	0x3f7c82da	0.98637164
57	0x3f7653d0	0.9622164
58	0x3f7c65c7	0.985928
59	0x3f85998c	1.0437484
60	0x3f8b1852	1.0866797
61	0x3f7bf06e	0.9841374
62	0x3f7f57ef	0.9974355
63	0x3f7c8c9f	0.9865207
64	0x3f83c8f8	1.0295706
65	0x3f836359	1.0264693
66	0x3f69f272	0.9138557
67	0x3f7eff60	0.9960842
68	0x3f81a52c	1.0128531
69	0x3f853fdf	1.0410117
70	0x3f756325	0.9585441
71	0x3f7e7c15	0.99408084
72	0x3f879ff2	1.0595686
73	0x3f8619c4	1.0476613
74	0x3f90949e	1.1295354
75	0x3f7b725b	0.9822137
76	0x3f76907c	0.96314216
77	0x3f7af100	0.98023987
78	0x3f8463b1	1.0342923
79	0x3f80626e	1.0030038
80	0x3f778d3b	0.96699876
81	0x3f80fb00	1.0076599
82	0x3f807822	1.0036662
83	0x3f84a883	1.0363926
84	0x3f7ba833	0.98303527
85	0x3f822727	1.0168198
86	0x3f7b3d37	0.9814028
87	0x3f7129ed	0.942046
88	0x3f7bd321	0.9836903
89	0x3f87fc34	1.0623841
90	0x3f811c1f	1.0086707
91	0x3f8061d3	1.0029854
92	0x3f7dabfd	0.9909056
93	0x3f7934dd	0.9734629
94	0x3f7b66de	0.9820384
95	0x3f8208a9	1.0158893
96	0x3f813241	1.0093461
97	0x3f77f6c7	0.9686093
98	0x3f84f5d2	1.0387518
99	0x3f749f43	0.95555514
100	0x3f7e108f	0.99244016
101	0x3f7d9401	0.9905396
102	0x3f763df4	0.9618828
103	0x3f78db13	0.9720928
104	0x3f74fc15	0.95697147
105	0x3f7db0b6	0.99097764
106	0x3f7c02cc	0.9844177
107	0x3f8055e2	1.0026209
108	0x3f831489	1.0240642
109	0x3f8920fe	1.0713193
110	0x3f7d626e	0.98978317
111	0x3f7acb4e	0.9796647
112	0x3f85fd2b	1.0467886
113	0x3f7184c2	0.943432
114	0x3f75f501	0.9607697
115	0x3f73ccc2	0.9523431
116	0x3f87e667	1.0617188
117	0x3f81040b	1.0079359
118	0x3f7a67dc	0.97814727
119	0x3f7cf9c7	0.9881863
120	0x3f809724	1.0046124
121	0x3f77a54f	0.96736616
122	0x3f69c662	0.91318333
123	0x3f80d870	1.0066051
124	0x3f7065f0	0.93905544
125	0x3f766d3c	0.9626043
126	0x3f7bd54b	0.98372334
127	0x3f82b9f4	1.0212998

base.mlp.fc.2.bias f4 [128]
0	0x3c1b1012	0.009464281
1	0x3c46d360	0.012135357
2	0xbb9bab59	-0.004750651
3	0x3cb64457	0.022249384
4	0x3cea43ed	0.028596843
5	0xbbf693d6	-0.0075249476
6	0x3c678f1a	0.014133239
7	0x3bc66181	0.006054104
8	0xbab19d16	-0.0013550844
9	0x3c2bb77c	0.010480758
10	0x3d02401e	0.03179943
11	0x3ce2528e	0.027627256
12	0x3d0c0771	0.034186784
13	0x3d47d5cb	0.048787873
14	0x3c9dc5d6	0.019259375
15	0xbcc76a60	-0.024342716
16	0x3d039a1b	0.03212939
17	0x3ca1b340	0.019738793
18	0xbc825317	-0.015908761
19	0x3c23986a	0.009985069
20	0x3d805bf3	0.06267538
21	0x3d03f221	0.032213334
22	0x3d006f64	0.03135623
23	0xbbfc421e	-0.0076983115
24	0xbb44713f	-0.0029974726
25	0xbc4b8f8f	-0.012424364
26	0xbbfd8e9f	-0.007737949
27	0x3ca12a3a	0.019673456
28	0x3cb09c51	0.021558912
29	0x3c67462c	0.014115851
30	0xbc6b774a	-0.014371702
31	0xbc456d2b	-0.012049953
32	0xbca5b620	-0.020228446
33	0x3ce71e40	0.028212667
34	0x3d41d054	0.047317818
35	0x3c94e89a	0.01817732
36	0xbb6a86f5	-0.0035786007
37	0x3cd063c0	0.02543819
38	0x3c0c10d9	0.008548939
39	0x3b3c52ac	0.00287358
40	0x3cdada63	0.026715463
41	0xbca891a8	-0.020577267
42	0xbbc94989	-0.0061427993
43	0xbc584dc0	-0.013202131
44	0x3d5a1422	0.053241856
45	0x3bd4a020	0.006488815
46	0x3c84d573	0.016215062
47	0x3c8ac0f5	0.016937712
48	0xbbc2c35a	-0.005943698
49	0xbc429b70	-0.0118778795
50	0xbc64cf18	-0.013965391
51	0x3cf11438	0.029428586
52	0xbb84daee	-0.0040544188
53	0xbc697d39	-0.014251047
54	0x3cae6033	0.021286106
55	0x3d0a6264	0.03378524
56	0x3b85da80	0.004084885
57	0x3d247110	0.040146887
58	0x3c8ec03f	0.017425654
59	0xbc04c1e0	-0.008102864
60	0x3baae9de	0.0052158674
61	0xbcd1c0f8	-0.02560471
62	0xbc95c688	-0.018283144
63	0xbccb7746	-0.024837147
64	0xba360c57	-0.0006944588
65	0x3b19e3f3	0.0023481816
66	0x3da90faf	0.082549445
67	0x3c9fc37b	0.019502392
68	0xbaebd8c6	-0.0017993681
69	0xbc05e5b5	-0.008172442
70	0x3d1f23aa	0.03885237
71	0xbcdd1a7a	-0.026990164
72	0xbb49a036	-0.003076566
73	0xbc560ec4	-0.013065044
74	0xbab63224	-0.0013900441
75	0xbd0d1467	-0.034443285
76	0x3d2f178a	0.042747058
77	0x3d0ef5a8	0.034902245
78	0xbc855c7b	-0.01627945
79	0x3c1c6dbe	0.009547649
80	0x3d2e35fb	0.04253195
81	0x3ca6f20b	0.020379087
82	0xbc8299aa	-0.015942413
83	0x3cae850e	0.02130368
84	0xbcff26d8	-0.031146452
85	0x3b9f3232	0.0048582787
86	0xbc9729af	-0.018452493
87	0xbd144ec1	-0.036207918
88	0x3cd9cdfb	0.026587477
89	0x3c8705b1	0.016482206
90	0xbc2f76e5	-0.010709499
91	0x3c6a895e	0.014314977
92	0x3cbd8f31	0.023139568
93	0x3d0e507d	0.03474473
94	0x3cdf9f43	0.027297622
95	0xbbb462a9	-0.0055049253
96	0xbbb752d0	-0.005594589
97	0x3d0db2ec	0.03459446
98	0xbc8636d0	-0.016383559
99	0x3d5692ee	0.052386217
100	0x3cbd16c6	0.023082148
101	0x388b7cdb	6.651293e-05
102	0x3d29f0d5	0.04148944
103	0xbd09ad1c	-0.033612356
104	0x3d26cebb	0.040724497
105	0x3c973862	0.018459503
106	0x3ca54bf3	0.020177817
107	0x3b03d957	0.0020118558
108	0x3c9aa74a	0.018878598
109	0xbc730dc9	-0.01483483
110	0xbca17f52	-0.019714031
111	0xbd067f92	-0.032836504
112	0x3cc7b69d	0.024379069
113	0x3d62e287	0.055391815
114	0xbc8d034c	-0.017213486
115	0x3d19a02a	0.03750626
116	0xbc7a5ab6	-0.015280416
117	0xbc5242a8	-0.012833275
118	0x3cf89f8a	0.030349512
119	0x3ca792ef	0.020455806
120	0x3bfe3d69	0.0077587855
121	0x3d3c9950	0.046044648
122	0x3db82568	0.0899151
123	0xbcb6d248	-0.022317067
124	0x3d731029	0.059341583
125	0x3d133f5e	0.035949104
126	0xbc33d746	-0.010976618
127	0x3c3c44bd	0.011490998

base.mlp.fc.3.weight f4 [128, 128]
0	0xbbfec94b	-0.007775461
1	0x3cfd5b88	0.030927435
2	0x3def364e	0.1168028
3	0x3db78709	0.08961303
4	0x3c7a5ad6	0.015280446
5	0xbd69b2d3	-0.057055306
6	0x3dddc872	0.108292475
7	0xbd5b0880	-0.053474903
8	0x3d219759	0.039450977
9	0x3d433b40	0.047663927
10	0x3d348073	0.04406781
11	0x3ca05f25	0.019576618
12	0xbd968c59	-0.07350988
13	0xbc9ddeb5	-0.019271234
14	0xbda1c865	-0.0789955
15	0x3d87b234	0.066257864
16	0xbd00a32c	-0.031405613
17	0x3c82aba7	0.01595099
18	0x3d88d4be	0.06681202
19	0x3d9a3d06	0.075311705
20	0xbd46a4fa	-0.048497178
21	0xbd725b39	-0.059169028
22	0x3da4b57a	0.080424264
23	0x3cfed4d4	0.031107344
24	0xbd9fde2e	-0.07806049
25	0x3d9b3120	0.07577729
26	0xbdb29fcf	-0.08721887
27	0x3dbc3a05	0.09190754
28	0x3da1e359	0.07904691
29	0x3da2df4c	0.07952747
30	0x3a41532b	0.0007374759
31	0x3d013a95	0.03155001
32	0xbd8adc2a	-0.06780274
33	0x3d834f20	0.06411576
34	0x3c9fe0a6	0.0195163
35	0x3da13f41	0.07873393
36	0xbb1ef7a8	-0.0024256501
37	0x3dcd154c	0.10013828
38	0x3d575f32	0.05258102
39	0xbd38fe17	-0.045164194
40	0x3d0fb054	0.03508027
41	0xbdadc972	-0.08485688
42	0xbd2547a7	-0.040351536
43	0xbd1e636c	-0.038669035
44	0xbd1df216	-0.03856095
45	0x3d196c03	0.037456524
46	0xbca418f2	-0.020031426
47	0xbcaa8028	-0.020813063
48	0x3d36332c	0.044482395
49	0x3b8642dd	0.004097326
50	0xbcd091e4	-0.025460191
51	0xbc636625	-0.013879334
52	0xbbc92e9c	-0.0061395895
53	0x3d457234	0.048204616
54	0x3d5381d4	0.051637486
55	0x3d920bd8	0.07131165
56	0xbd10fd10	-0.03539759
57	0x3c57a92a	0.01316289
58	0x3d0fa49a	0.035069086
59	0xbcd4f425	-0.025995323
60	0x3d888259	0.06665487
61	0xbcd7ce58	-0.02634351
62	0xbc4cc2a1	-0.012497575
63	0xbdaa760b	-0.08323296
64	0x3d791ec6	0.060820363
65	0xbd2c0bfd	-0.04200362
66	0x3bd77e95	0.006576369
67	0xbda03d56	-0.07824199
68	0x3dc588b2	0.09645213
69	0xbb08309e	-0.0020780931
70	0x3d4867f0	0.048927248
71	0xbd36c0a2	-0.044617303
72	0xbd511c23	-0.051052224
73	0x3d129738	0.035788745
74	0x3d99ec87	0.07515817
75	0x3d539956	0.051659904
76	0xbb12eb31	-0.0022418017
77	0x3bc2f2b8	0.0059493445
78	0x3ae18c6c	0.0017207987
79	0xbd935858	-0.071945846
80	0xbd1216fe	-0.03566646
81	0xbd9afc6a	-0.075676754
82	0xbdb01814	-0.085983425
83	0xbc90698c	-0.017628454
84	0x3c2e37a3	0.010633382
85	0x3ae1abe4	0.0017217365
86	0xb8b37ce5	-8.5586486e-05
87	0x3c4b3aac	0.012404125
88	0xbc0f068a	-0.008729586
89	0xbd999e6d	-0.075009204
90	0x3d3abdd4	0.04559119
91	0xbd88d8db	-0.06681987
92	0x3bdfeee9	0.0068339
93	0x3a2b1647	0.0006526452
94	0x3d3939cd	0.04522114
95	0xbd8c2fe5	-0.06845073
96	0xbd81be01	-0.063350685
97	0x3dafe898	0.085892856
98	0xbc0b84f5	-0.008515586
99	0x3dc8e3da	0.09809084
100	0x3d06d7c1	0.032920603
101	0x3d8d6a64	0.06905058
102	0x3cd0a89c	0.025471024
103	0xbd0bde30	-0.03414744
104	0xbd115a36	-0.035486422
105	0xbcceb394	-0.025232114
106	0x3da06ba8	0.07833034
107	0x3d8db5f7	0.06919473
108	0x3dbe992e	0.093065605
109	0x3dace229	0.08441574
110	0x3d861829	0.06547577
111	0xbd7e98a6	-0.062157296
112	0xbd39b5e0	-0.045339465
113	0xbcd1a3a6	-0.025590729
114	0xbd46ffd5	-0.048583824
115	0x3bd76870	0.006573729
116	0xbc7367a6	-0.014856255
117	0x3dc8bd18	0.09801692
118	0xbcbec93b	-0.023289314
119	0x3deb8ea1	0.11501814
120	0xbd9c2405	-0.07624058
121	0xbd92952f	-0.07157361
122	0x3cdd8b56	0.02704398
123	0x3a23391c	0.00062264665
124	0xbccc87f5	-0.024967173
125	0xbcf7dc4b	-0.030256411
126	0x3cb62330	0.022233576
127	0x3c27b144	0.0102351345
128	0xbb313d18	-0.0027044471
129	0x3d46eda3	0.04856647
130	0xbd645028	-0.055740505
131	0x3d9c8035	0.07641641
132	0xbd569312	-0.05238635
133	0xbd2cdddc	-0.04220377
134	0x3d0d3609	0.03447536
135	0x3d38c206	0.04510691
136	0x3bedf29e	0.0072615882
137	0xbc967e93	-0.018370902
138	0x3d27988c	0.040916964
139	0xbd101753	-0.035178494
140	0xbc829b6d	-0.015943253
141	0xbc83c854	-0.016086735
142	0xbc508753	-0.012727576
143	0xbccceab1	-0.025014253
144	0xbd5daeb9	-0.054121707
145	0x3a6f6228	0.0009131753
146	0xbda37c42	-0.07982685
147	0xbddaffaf	-0.10693299
148	0x3d4d39b3	0.050103854
149	0x3d6a9f0c	0.057280585
150	0x3db258cf	0.08708345
151	0xbaa7fbca	-0.0012816128
152	0xbdb00076	-0.08593838
153	0xbd67ebca	-0.05662135
154	0x3d186433	0.037204932
155	0xbd3b5ac5	-0.04574086
156	0x3de1b779	0.11021323
157	0xbd7afeb0	-0.061278045
158	0xbd62ff08	-0.055418998
159	0xbd861ac2	-0.065480724
160	0x3d925269	0.07144625
161	0x3dd76c1e	0.105186686
162	0x3cced2cd	0.025247002
163	0xbbd74400	-0.0065693855
164	0x3d833539	0.06406636
165	0x3dca16a8	0.098676026
166	0x3d5722ff	0.05252361
167	0xbd83a324	-0.06427601
168	0x3d0b725d	0.034044612
169	0x3d6c21f9	0.057649586
170	0xbd94747e	-0.072487816
171	0x3d6f5f3d	0.058440436
172	0xbd4d9970	-0.050195158
173	0xbd097d51	-0.033566777
174	0xbb8326bc	-0.00400242
175	0x3d80f52c	0.06296763
176	0x3cc6e7df	0.024280487
177	0xbd7f4c92	-0.062328883
178	0x3d45bb12	0.048274107
179	0xbb043d97	-0.0020178312
180	0x3c658eca	0.014011094
181	0xbd9ba094	-0.07598987
182	0x3dabba45	0.083851375
183	0xbcde3fac	-0.02712997
184	0xbd5aff74	-0.053466275
185	0x3da2c89e	0.07948421
186	0xbd1d47a0	-0.038398385
187	0x3d9fdca2	0.07805754
188	0x3d5615c3	0.052266847
189	0xbd4e1266	-0.050310515
190	0xbe17bebf	-0.14818858
191	0xbd9c227f	-0.07623767
192	0x3bcbe829	0.006222744
193	0x3d900725	0.07032613
194	0x3d30ac66	0.043133162
195	0xbbacb7cd	-0.005270934
196	0xbd3a731c	-0.045519933
197	0xbdb3fc85	-0.08788399
198	0x3da61e3b	0.08111235
199	0xbbafe983	-0.005368413
200	0xbda42b38	-0.08016056
201	0xbd700907	-0.05860236
202	0x3d54f3b8	0.05199024
203	0xbace87e1	-0.0015757048
204	0x3dda9a8b	0.10674008
205	0xbc69c7e5	-0.01426885
206	0xbd17dad0	-0.03707391
207	0x3c890847	0.01672758
208	0xbc338476	-0.010956874
209	0xbc118f44	-0.008884255
210	0x3d0f8e06	0.035047553
211	0xbd2e430b	-0.042544406
212	0xbd824b81	-0.063620575
213	0xbcc0ab33	-0.023519134
214	0xbd3b34ac	-0.04570453
215	0x3aac474c	0.0013143807
216	0x3c71abfb	0.014750476
217	0x3dbcadac	0.09212813
218	0x3a355584	0.0006917345
219	0x3bf1a4a3	0.0073743626
220	0xbd1c98de	-0.038231723
221	0xbd8fb774	-0.07017413
222	0x3c406eff	0.0117452135
223	0xbd20f730	-0.039298236
224	0x3d34e8b9	0.044167254
225	0x3db891b6	0.09012167
226	0x3d1a6b59	0.03770003
227	0xbd5e9b46	-0.0543473
228	0xbd1eea66	-0.03879776
229	0x3da17098	0.07882804
230	0xbc04c876	-0.008104434
231	0xbe086218	-0.1331867
232	0xbc8da221	-0.017289223
233	0x3b8ef332	0.0043624872
234	0xbcbd8e17	-0.023139043
235	0x3cf85ee3	0.030318683
236	0xbd89942e	-0.06717716
237	0x3d2e280e	0.042518668
238	0xbd2d64d0	-0.04233247
239	0xbd8138a7	-0.06309634
240	0x3d91bc7d	0.071160294
241	0xbd60d8ea	-0.054894365
242	0xbd5d70a5	-0.054062504
243	0x3bd0215b	0.0063516325
244	0xbcee53f4	-0.029092766
245	0x3d1c6078	0.038177937
246	0x3cb01aa4	0.021497078
247	0x3cb56f47	0.022147788
248	0xbcd289fa	-0.025700558
249	0x3d0430ed	0.03227322
250	0x3d0d6b52	0.034526177
251	0xbdace319	-0.08441753
252	0x3d86a677	0.065747194
253	0xbc281c4b	-0.010260652
254	0x3db23ab9	0.08702607
255	0xbdbd10f7	-0.092317514

base.mlp.fc.3.bias f4 [128]
0	0xbd6650af	-0.05622929
1	0x3c8aa6ef	0.016925303
2	0x3c007806	0.007841116
3	0xbdbb902c	-0.09158358
4	0xbcf699fb	-0.03010272
5	0x3c9fb36b	0.019494733
6	0xbd53cf3a	-0.0517113
7	0xbdbe4cf4	-0.092920214
8	0xbd38d3d2	-0.045123883
9	0x3d92e433	0.07172432
10	0xbd17c604	-0.037054077
11	0x3d0676f8	0.0328283
12	0xbcd605c1	-0.02612579
13	0xbc520dc2	-0.012820663
14	0x3d463cac	0.048397705
15	0xbd72fe2e	-0.059324436
16	0xbd15a8b1	-0.03653783
17	0xbd9aced6	-0.07558982
18	0xbd42abe7	-0.04752722
19	0x3d30f190	0.043199122
20	0xbdcf7028	-0.10128814
21	0x3cdf0a00	0.027226448
22	0xbb8aa15e	-0.0042306622
23	0xba0b1519	-0.0005305573
24	0x3c455b27	0.012045658
25	0x3bb70a18	0.00558592
26	0x3d8d25cd	0.068919756
27	0xbdb12e38	-0.08651394
28	0xbc86ca24	-0.01645381
29	0x3d70921d	0.058733094
30	0x3d388376	0.045047246
31	0x3d6e0571	0.058110658
32	0xbd989894	-0.07450977
33	0xbd92b457	-0.07163303
34	0xbd180348	-0.037112504
35	0x3d9caaa9	0.07649738
36	0xbd8bf3f5	-0.068336405
37	0xbd163f96	-0.036681734
38	0xbca3c466	-0.019991111
39	0xbd15d74f	-0.036582287
40	0xbd39289c	-0.045204744
41	0x3d93a4e7	0.07209187
42	0xbd10e576	-0.03537508
43	0xbd05dfb8	-0.032684058
44	0x3d178cae	0.036999397
45	0xbc3d2e6d	-0.011546713
46	0xbcbdfd39	-0.023192035
47	0xbd20f9c4	-0.039300695
48	0x3c5ad8d3	0.013357359
49	0xbd370f6b	-0.044692438
50	0xbdb38605	-0.087657966
51	0x3d9af9ff	0.07567214
52	0x3d46b68e	0.04851394
53	0x3d9d9138	0.07693714
54	0xbda1876b	-0.07887157
55	0xbd4453fd	-0.04793166
56	0x3d73d37e	0.059527867
57	0x3aa1d3f0	0.0012346487
58	0xbc12e40c	-0.008965503
59	0x3d3f98f4	0.046776727
60	0x3d58ebdc	0.052959308
61	0xbc2f26ee	-0.010690434
62	0xbbccbd18	-0.0062481277
63	0xbd5e6c02	-0.054302223
64	0xbd9464e6	-0.07245807
65	0x3c82d994	0.01597289
66	0xbb5eda71	-0.0034004713
67	0x3cdc5a55	0.026898542
68	0xbd5276e3	-0.05138291
69	0x3d09d03e	0.03364586
70	0x3d23ca9a	0.039988138
71	0xbd9ff46d	-0.078102924
72	0x3bb127b5	0.005406345
73	0xbd76e382	-0.060275562
74	0x3cfd5489	0.030924099
75	0x3c9f4689	0.019442813
76	0xbbb08440	-0.005386859
77	0xbda10c40	-0.078636646
78	0x3cb24a4e	0.021763947
79	0x3d6db428	0.05803314
80	0xba8fabe7	-0.0010961265
81	0xbc919238	-0.017769918
82	0xbdb46836	-0.08808939
83	0xbdba56ee	-0.09098612
84	0xbdac0954	-0.08400217
85	0x3d5e3ab9	0.05425522
86	0x3c097c2c	0.008391421
87	0x3d6f1af6	0.05837532
88	0xbd56eb33	-0.052470397
89	0x3a92416c	0.0011158413
90	0x3d962286	0.073308036
91	0xbd861b02	-0.0654812
92	0xbc1cc8aa	-0.009569326
93	0x3d80c177	0.062869005
94	0x3cfa5749	0.030559199
95	0x3d489e95	0.04897936
96	0xbb8fd3ea	-0.004389276
97	0x3bec2c5a	0.0072074356
98	0xbd8c7e36	-0.0686001
99	0x3c4ff9dc	0.012693848
100	0xbdaf8113	-0.08569541
101	0x3c9bce73	0.019019341
102	0x3c3d472c	0.011552613
103	0xbd378ed6	-0.044813953
104	0xbcff71a5	-0.03118212
105	0xbc606aee	-0.013697369
106	0x3b08adc2	0.002085552
107	0xbc40802a	-0.011749307
108	0x3d4f860b	0.050664943
109	0xbda0110e	-0.07815753
110	0xbd676fdc	-0.05650316
111	0xbd5c3b08	-0.053767234
112	0x3b890b9d	0.0041822926
113	0xbd6d2204	-0.057893768
114	0xbd458011	-0.048217837
115	0x3d83fe93	0.064450406
116	0x3d1568d2	0.036476918
117	0x3c211f4f	0.009834125
118	0x3c0ab154	0.00846513
119	0xbd7a9ec0	-0.061186552
120	0xbd258ae1	-0.04041565
121	0x3d7ab197	0.06120452
122	0x3d50d79c	0.05098687
123	0xbdb138f1	-0.08653439
124	0x3d620ed8	0.055189937
125	0xbcc368d1	-0.023853691
126	0x3d67c1fe	0.05658149
127	0xbc76b078	-0.015056722

base.mlp.fc.5.weight f4 [128]
0	0x3f827dd3	1.0194649
1	0x3f7b5f2d	0.981921
2	0x3f790f58	0.9728904
3	0x3f7e4742	0.9932748
4	0x3f84fcb6	1.0389621
5	0x3f834bca	1.0257504
6	0x3f86e234	1.0537782
7	0x3f856000	1.0419922
8	0x3f83dced	1.0301796
9	0x3f849d43	1.0360492
10	0x3f7e7694	0.99399686
11	0x3f7a8b02	0.9786836
12	0x3f817d7d	1.0116421
13	0x3f840563	1.0314144
14	0x3f802469	1.0011111
15	0x3f8834fc	1.064117
16	0x3f780bbb	0.968929
17	0x3f823ef2	1.0175459
18	0x3f8247e0	1.0178185
19	0x3f85b247	1.0445031
20	0x3f76fabb	0.96476334
21	0x3f7e225b	0.9927117
22	0x3f813708	1.0094919
23	0x3f7c69fc	0.9859922
24	0x3f844702	1.033417
25	0x3f839af4	1.0281663
26	0x3f856ba9	1.042348
27	0x3f84177e	1.0319669
28	0x3f854102	1.0410464
29	0x3f8593e1	1.0435754
30	0x3f851a64	1.0398679
31	0x3f7b66fc	0.98204017
32	0x3f8032ed	1.0015541
33	0x3f79707c	0.9743726
34	0x3f7f7113	0.9978191
35	0x3f8b38d5	1.0876719
36	0x3f7feafb	0.99967927
37	0x3f7eb469	0.99494034
38	0x3f79419f	0.97365755
39	0x3f8d1d0d	1.102449
40	0x3f8026e9	1.0011874
41	0x3f7c59cf	0.9857454
42	0x3f71ec9a	0.9450165
43	0x3f7a1600	0.9768982
44	0x3f802fc0	1.0014572
45	0x3f82c5e5	1.0216643
46	0x3f7f0104	0.99610925
47	0x3f7d2a55	0.9889272
48	0x3f84bd02	1.0370181
49	0x3f79961e	0.97494686
50	0x3f7322fb	0.9497525
51	0x3f847609	1.0348521
52	0x3f871417	1.0553006
53	0x3f7dea9a	0.991861
54	0x3f7eaf52	0.9948627
55	0x3f84f122	1.0386088
56	0x3f88bd06	1.0682685
57	0x3f82151a	1.016269
58	0x3f7ccaa8	0.9874673
59	0x3f831a03	1.0242313
60	0x3f8d5a2b	1.1043142
61	0x3f7a21f1	0.9770804
62	0x3f845526	1.0338485
63	0x3f7db86e	0.9910954
64	0x3f7d213c	0.98878837
65	0x3f8da9ea	1.1067479
66	0x3f844ac2	1.0335314
67	0x3f7d88e6	0.99037015
68	0x3f89f12c	1.0776725
69	0x3f88b917	1.0681485
70	0x3f7e20ff	0.992691
71	0x3f7bd972	0.9837867
72	0x3f8319ac	1.024221
73	0x3f84fc11	1.0389425
74	0x3f86f5e7	1.0543793
75	0x3f7b4dac	0.9816539
76	0x3f6d9592	0.9280635
77	0x3f880a55	1.0628153
78	0x3f7c66e6	0.9859451
79	0x3f807d03	1.003815
80	0x3f845023	1.0336956
81	0x3f83cff4	1.0297837
82	0x3f80a802	1.0051272
83	0x3f858ec3	1.0434192
84	0x3f86af3d	1.0522228
85	0x3f7c398a	0.985253
86	0x3f89b8f0	1.0759563
87	0x3f8319c2	1.0242236
88	0x3f81eff3	1.0151352
89	0x3f82697f	1.0188445
90	0x3f7bf141	0.98415
91	0x3f7e97d8	0.99450445
92	0x3f84c1d1	1.0371648
93	0x3f83e717	1.0304898
94	0x3f7f2538	0.99666166
95	0x3f7962ef	0.97416586
96	0x3f83cece	1.0297487
97	0x3f81a1ac	1.0127463
98	0x3f7d04de	0.9883555
99	0x3f7f1e88	0.9965596
100	0x3f82bc71	1.0213758
101	0x3f888907	1.0666817
102	0x3f816d6e	1.011152
103	0x3f7e52a6	0.9934486
104	0x3f8442ea	1.033292
105	0x3f76c016	0.9638685
106	0x3f86f8ee	1.0544717
107	0x3f7c1379	0.9846721
108	0x3f7b3afb	0.9813687
109	0x3f827bc7	1.0194024
110	0x3f843b05	1.0330511
111	0x3f84a003	1.0361332
112	0x3f8046f4	1.0021653
113	0x3f8bb795	1.09154
114	0x3f7d664e	0.9898423
115	0x3f7d4691	0.989358
116	0x3f7e023a	0.9922215
117	0x3f7d507b	0.9895093
118	0x3f828389	1.0196391
119	0x3f76c51b	0.9639451
120	0x3f7ca38e	0.98687065
121	0x3f79fd02	0.97651684
122	0x3f811347	1.0084008
123	0x3f89eefb	1.0776056
124	0x3f89d302	1.076752
125	0x3f7f6bd1	0.9977389
126	0x3f804312	1.0020468
127	0x3f790ee3	0.9728834

base.mlp.fc.5.bias f4 [128]
0	0xbbebe505	-0.007198932
1	0x3ca597ff	0.020214079
2	0x3ceeab74	0.02913449
3	0x3c219582	0.009862306
4	0xbc82b671	-0.015956135
5	0x3c4ccf79	0.012500637
6	0xbc6d9631	-0.01450114
7	0xbab75d9b	-0.0013989689
8	0xbb1a1f1a	-0.0023517073
9	0xbc4d2943	-0.012522045
10	0x3c86e214	0.016465224
11	0x3c59ba42	0.013289036
12	0x3c8c2574	0.017107703
13	0xbc474936	-0.012163451
14	0x3a9661b0	0.0011473205
15	0x3bc555e5	0.0060222023
16	0x3c91f040	0.017814755
17	0x3c16c246	0.009201592
18	0x3c831286	0.016000044
19	0xbb7fa428	-0.0039007757
20	0x3d30dea2	0.04318107
21	0x3b6db26f	0.0036269685
22	0x3bc7f7f0	0.0061025545
23	0x3bbba509	0.005726461
24	0xbb8eed1b	-0.0043617613
25	0x3bcdff09	0.006286506
26	0x39370c14	0.0001745674
27	0xba3ce19d	-0.000720525
28	0xbb460409	-0.0030214807
29	0xbbcf4328	-0.0063251443
30	0x3bcfc8db	0.0063410825
31	0x3c88939d	0.01667195
32	0x3c0fe801	0.008783341
33	0x3bbe7d8a	0.0058133053
34	0x3c13a10d	0.0090105655
35	0xbbe589ed	-0.0070049674
36	0x3c60c3fc	0.013718601
37	0x3c28798c	0.010282885
38	0x3cc5edbc	0.024161212
39	0x3b017d64	0.0019758577
40	0x3bc630f3	0.0060483157
41	0x3c4a29f1	0.012339101
42	0x3d630c50	0.055431664
43	0xbb737613	-0.0037149235
44	0xbb3b3695	-0.002856647
45	0x3c9ca986	0.019123804
46	0xbbd66dbf	-0.0065438445
47	0x3ccc38d0	0.024929434
48	0x3c378ecc	0.011203479
49	0x3cb8eed6	0.022574823
50	0x3ca1597c	0.01969599
51	0xbbad8f70	-0.00529664
52	0x3c0dcb2b	0.008654396
53	0xbc05b612	-0.008161085
54	0x3c7cacc6	0.015422052
55	0x3bb624d2	0.0055585885
56	0xbb831f50	-0.0040015355
57	0x3bfbf76e	0.007689408
58	0x3d02a491	0.031895224
59	0x3b32bb8a	0.0027272427
60	0xbc28cbb9	-0.0103024775
61	0x3c9041b0	0.017609447
62	0x3c3180d3	0.010833937
63	0x3c56e53d	0.013116178
64	0x3ca44e42	0.020056847
65	0xb9b604ba	-0.00034717267
66	0x3b1db35b	0.0024063203
67	0x3b7c7014	0.0038518952
68	0x3bf090a2	0.0073414603
69	0x3b9cb71a	0.0047825696
70	0x3c89e578	0.016833052
71	0x3d0a5f20	0.033782125
72	0xbb7cd53d	-0.0038579248
73	0xbadf80b3	-0.0017051905
74	0xbb36d746	-0.002789931
75	0x3c8d34ae	0.017237034
76	0x3d5dddc8	0.054166585
77	0x3b02b046	0.0019941493
78	0x3c64e57b	0.013970728
79	0x3b179760	0.0023130998
80	0xbb98b553	-0.0046602874
81	0x3a754a03	0.0009357037
82	0xbcc5c6f3	-0.024142718
83	0x3b5f3783	0.0034060187
84	0x3c40ce3e	0.011767922
85	0x3cae1dcd	0.021254444
86	0xbc2b67bd	-0.010461745
87	0xb7a0f402	-1.9187111e-05
88	0xbc9b7454	-0.018976368
89	0xbc59d2b6	-0.013294866
90	0x3c7921bc	0.015205797
91	0x3bd145bc	0.006386487
92	0xbbcb4e65	-0.0062044137
93	0xbc57f877	-0.013181797
94	0x3c5b704e	0.013393475
95	0x3c4e67af	0.012597962
96	0x3ae99a11	0.0017822405
97	0xba01a33d	-0.0004945284
98	0x3c94a55b	0.018145254
99	0x3bed2a2f	0.0072376947
100	0xbcdbfde4	-0.026854463
101	0x3c855b49	0.01627888
102	0x3c851a9d	0.016248042
103	0x3c7bb282	0.015362384
104	0x3c7eb2f8	0.015545599
105	0x3cf787ff	0.030216215
106	0xbc076d7d	-0.00826585
107	0x3c415d20	0.011801988
108	0x3cae2a1d	0.021260316
109	0x3bcaf74e	0.006194032
110	0x3ca767be	0.02043521
111	0x3bff0242	0.0077822516
112	0x3cbb999a	0.022900391
113	0x3b97a2bd	0.004627554
114	0x3caa76f1	0.020808669
115	0x3ab62890	0.0013897587
116	0x3ccd3ceb	0.025053462
117	0x3bfdba48	0.0077431537
118	0xbbc148d4	-0.0058985744
119	0x3cd8052d	0.026369656
120	0x3ba927c8	0.005162213
121	0x3c9aa7a0	0.018878758
122	0xbc3f4866	-0.011674976
123	0x3b48255d	0.0030539848
124	0xbae2e297	-0.0017309961
125	0xbb36b907	-0.002788128
126	0xbb070c8e	-0.0020606848
127	0x3ce4c920	0.027927935

rnn.gru.weight_ih_l0 f4 [384, 128]
0	0x3d62cfb4	0.055373862
1	0x3db52569	0.08845026
2	0x3e046dd6	0.12932524
3	0x3ab08710	0.0013467986
4	0x3dcb3ee5	0.099241056
5	0xbdc8fa81	-0.09813405
6	0xbdafc47f	-0.085824005
7	0xbb9a12b0	-0.0047019348
8	0x3acde73d	0.0015709173
9	0x3c4ac9bd	0.0123772
10	0x3e07d640	0.13265324
11	0x3d6ade8e	0.05734115
12	0xbc9825b3	-0.018572664
13	0xbdb5145c	-0.08841774
14	0x3da48238	0.0803265
15	0xbd5e61ca	-0.054292478
16	0x3dd56cc2	0.104211345
17	0xbca8604c	-0.02055373
18	0xbd03a6e9	-0.0321416
19	0xbd703bfd	-0.05865096
20	0x3d0d25b6	0.034459792
21	0x3d712d9e	0.058881395
22	0x3c710137	0.014709762
23	0xbe21a08b	-0.15783899
24	0xbce6f032	-0.028190706
25	0xbd2e2ca3	-0.042523038
26	0xbd8af953	-0.06785836
27	0xbcb743df	-0.02237123
28	0x3d205a08	0.03914836
29	0xbd83411c	-0.06408903
30	0x3d9dae3d	0.07699249
31	0x3cf9f6f5	0.030513266
32	0x3d3b0ec7	0.04566839
33	0x3cc6998d	0.02424314
34	0xbd560d22	-0.05225862
35	0xbded3db0	-0.115840316
36	0x3d9491d3	0.07254376
37	0x3dad52e4	0.08463076
38	0x3d4f9500	0.050679207
39	0x3dbbf218	0.09177035
40	0xbd4f7059	-0.050644252
41	0xbd252df2	-0.04032702
42	0x3de52800	0.1118927
43	0x3d975827	0.073898606
44	0x3c7e525c	0.015522566
45	0x3d9a6398	0.07538527
46	0x3e011cda	0.12608662
47	0x3d64a36f	0.055819925
48	0x3d66e34c	0.05636911
49	0x3dd21133	0.10257187
50	0xbda579e1	-0.08079887
51	0xbddb0e53	-0.106960915
52	0x3b0b8763	0.0021290414
53	0xbd3645f2	-0.0445003
54	0x3d9eb546	0.07749419
55	0x3d29a051	0.041412655
56	0x3da934de	0.08262037
57	0xbd063933	-0.032769393
58	0x3e0f8c56	0.14018378
59	0x3d044a98	0.0322977
60	0xbc59ee32	-0.013301419
61	0x3df05d67	0.11736565
62	0xbcbdd6c5	-0.0231737
63	0x3e0ff717	0.14059101
64	0x3ddc434c	0.10755023
65	0xbd6ade27	-0.057340767
66	0x3e0bc345	0.13648708
67	0xbd3cb9bc	-0.046075568
68	0x3d277854	0.04088624
69	0xbceb2be5	-0.028707454
70	0x3b82c2a9	0.0039904905
71	0x3e2ae8f2	0.16690424
72	0x3d549791	0.051902357
73	0xbd6a5666	-0.057211302
74	0xbb99fbab	-0.0046991906
75	0x3d957b31	0.072988875
76	0xbcbfd408	-0.023416534
77	0xbdb6143a	-0.08890577
78	0x3c8e2180	0.017349958
79	0xbd9e9ee3	-0.07745149
80	0xbccbb57b	-0.02486681
81	0xbc891637	-0.016734226
82	0x3db1e049	0.08685357
83	0x3ce44460	0.027864635
84	0xbcb94a5b	-0.022618463
85	0x3d86a8cf	0.065751664
86	0x3d85dbbe	0.06536053
87	0x3b2483d3	0.0025102987
88	0xbdf1e380	-0.1181097
89	0x3d24eb5d	0.040263522
90	0xbdd016ca	-0.10160597
91	0xbdf22a0f	-0.11824428
92	0x3cf4c76e	0.029880252
93	0xbc4a9522	-0.012364658
94	0x3e181fc2	0.14855865
95	0xbba2eb76	-0.004971917
96	0x3cca9641	0.02472985
97	0xbd378807	-0.04480746
98	0x3dd62cfa	0.10457797
99	0xbcbf0b1c	-0.023320727
100	0xbd8d2f50	-0.0689379
101	0x3d6714e9	0.056416426
102	0x3cfa97c2	0.030589942
103	0xbd65772a	-0.056021847
104	0xbe0e40a9	-0.13891853
105	0x3c955e9a	0.018233586
106	0x3dff98a5	0.124802865
107	0xbc98069a	-0.018557835
108	0x3d8e7e92	0.06957735
109	0xbdcba803	-0.09944155
110	0x3be57c0a	0.007003312
111	0xbcf4b3e2	-0.029870931
112	0x3db94bb1	0.0904764
113	0x3c6151f9	0.013752454
114	0x3d1c57d6	0.038169704
115	0xbdf363a4	-0.11884239
116	0x3b7d9ab4	0.0038696947
117	0x3d098b94	0.033580378
118	0xbd8dfcbb	-0.0693297
119	0x3bd08fce	0.006364799
120	0xbddcc4a1	-0.107796915
121	0xbccd5a74	-0.025067545
122	0x3cc626de	0.024188455
123	0x3d79e550	0.061009705
124	0xbda4bf8d	-0.08044348
125	0x3d0f67c5	0.03501107
126	0x3bb4474f	0.0055016647
127	0x3cb9cd81	0.022681
128	0x3dc08326	0.094000146
129	0x3deedbf2	0.11663045
130	0x3d8c0cfc	0.06838414
131	0x3db55abd	0.088551976
132	0x3d0d9413	0.034565043
133	0xbcb1fe2d	-0.021727646
134	0x3dfc0cc6	0.12307124
135	0xbd47478e	-0.048652224
136	0xbdc023b9	-0.093818136
137	0xbbab19ab	-0.0052215657
138	0x3d6373f7	0.055530515
139	0x3dab345f	0.08359598
140	0x3d478556	0.048711143
141	0xbd95ba21	-0.07310892
142	0xbd46b180	-0.04850912
143	0xbd501e70	-0.050810277
144	0x3dca8c5f	0.09890055
145	0x3cfce795	0.030872146
146	0xbcb7ae55	-0.022421995
147	0xbc591f7a	-0.0132521335
148	0x3d0c4eeb	0.03425495
149	0x3d7b18af	0.061302837
150	0x3c31128c	0.010807645
151	0xbd96a0ac	-0.073548645
152	0xbd03bf65	-0.03216495
153	0x3cd4cf71	0.025977822
154	0x3c701124	0.014652524
155	0x3d66cb37	0.056346145
156	0xbd187c75	-0.037228066
157	0x3ca583f1	0.020204516
158	0x3d7e0cfe	0.06202411
159	0xba600e7c	-0.000854708
160	0xbd2ba240	-0.04190278
161	0xbba44b42	-0.0050138542
162	0xbd5d6e2c	-0.054060146
163	0xbd44638a	-0.04794649
164	0x3dab9b1f	0.083791964
165	0x3dbffcf2	0.09374417
166	0x3d489334	0.04896851
167	0xbd9f4573	-0.07776918
168	0x3d87e92e	0.06636272
169	0xba085a3a	-0.0005201433
170	0xbcfa4965	-0.030552575
171	0x3dafa1b6	0.08575766
172	0x3d9fc890	0.07801926
173	0x3c6b228a	0.0143514965
174	0x3ccd8335	0.025086978
175	0xbd0a9eab	-0.033842724
176	0x3db42fd6	0.087981865
177	0x3d1e96e5	0.038718123
178	0x3cce9e0c	0.025221847
179	0x3d7a1075	0.06105085
180	0x3dc681f9	0.09692759
181	0xbdf00816	-0.11720292
182	0xbcf441dd	-0.029816562
183	0x3da09d81	0.078425415
184	0x3e24f7ea	0.16110197
185	0x3d4e0d23	0.050305497
186	0x3dede2b8	0.11615509
187	0x3dac4d60	0.084131956
188	0x3d11bb72	0.035579152
189	0x3ca258c6	0.019817721
190	0xbdd5dc52	-0.104424134
191	0x3cdfbe3c	0.02731239
192	0xbc1849f0	-0.009294972
193	0x3bd13d2e	0.006385467
194	0x3d33536a	0.04378072
195	0xbcb65b89	-0.022260444
196	0x3d77b21d	0.060472596
197	0xbe187424	-0.14888054
198	0x3d4ede05	0.050504703
199	0xbd2a93dc	-0.041644916
200	0x3ddc73fb	0.10764309
201	0xbcbd116e	-0.0230796
202	0xbb874f09	-0.004129295
203	0x3db95c70	0.09050834
204	0x3dbeaa2d	0.09309802
205	0xbc2e7bcb	-0.010649632
206	0x3de917ad	0.11381469
207	0x3d8ec994	0.06972042
208	0x3cb44330	0.022004694
209	0xbc73b0d6	-0.014873704
210	0xbd3e52a3	-0.046465527
211	0x3d1a76d0	0.037710965
212	0x3c08b369	0.008343556
213	0x3d2acbf7	0.041698422
214	0xbcf92f87	-0.03041817
215	0xbc90bdcb	-0.017668625
216	0x3d314b97	0.04328498
217	0xbb80e612	-0.0039336765
218	0x3d814183	0.063113235
219	0xbdcc8a95	-0.0998737
220	0xbd63c4f7	-0.055607762
221	0xbe18b76e	-0.14913723
222	0x3d3b3100	0.045701027
223	0xbcf5efca	-0.030021567
224	0x3d8fd749	0.07023484
225	0x3e16d0c7	0.1472808
226	0x3d65faa3	0.05614723
227	0xbd84b436	-0.06479685
228	0xbe106c0d	-0.14103718
229	0xbd0029a5	-0.031289715
230	0x3c3fb137	0.011699966
231	0x3c239e71	0.009986506
232	0xbbaa1820	-0.005190864
233	0xbd54318c	-0.051805064
234	0xb9381789	-0.00017556375
235	0xbabbbebb	-0.001432381
236	0x3d5eb06c	0.054367468
237	0xbdcfb6e4	-0.101423055
238	0x3c737743	0.014859977
239	0xbd9a888e	-0.07545577
240	0x3bc921e1	0.006138072
241	0xbda9d9e3	-0.08293512
242	0x3de13609	0.109966345
243	0x3de45df5	0.111507334
244	0x3cdeff21	0.027221264
245	0xbd25c934	-0.040475085
246	0x3d43ec32	0.047832675
247	0xbd1cfbe4	-0.03832616
248	0xbc8ab955	-0.016934076
249	0x3dbe758f	0.09299766
250	0x3de9be7d	0.11413286
251	0xbd2a96cc	-0.041647717
252	0x3df40270	0.119145274
253	0x3d43f6d2	0.047842808
254	0xbda80bba	-0.08205362
255	0xbd1b059a	-0.03784714

rnn.gru.weight_hh_l0 f4 [384, 128]
0	0x3dc723bf	0.09723615
1	0xbc84c857	-0.01620881
2	0xbd3ed681	-0.046591286
3	0x3dbd0c1b	0.092308246
4	0x3c5ab751	0.01334937
5	0x3de9f64e	0.11423932
6	0xbe09f957	-0.13474022
7	0xbc8a6179	-0.016892182
8	0x3c1d7308	0.009609945
9	0xbe3ba76e	-0.18325588
10	0xbd2cdeb1	-0.042204563
11	0x3e291a22	0.16513875
12	0xbbcdd56f	-0.006281547
13	0x3d28305e	0.04106175
14	0x3e1f93fc	0.15583795
15	0x3ca8a2d7	0.02058546
16	0x3d8a21ac	0.06744704
17	0x3dcc4ec9	0.099759646
18	0xbdef9a15	-0.11699311
19	0xbdbc628b	-0.09198483
20	0x3e146c79	0.14494504
21	0xbca302ea	-0.01989885
22	0xba874299	-0.001031953
23	0xbe057d22	-0.13036016
24	0xbdc81835	-0.09770242
25	0xbd551670	-0.05202335
26	0x3d880a0d	0.06642542
27	0xbe3f2a40	-0.18668461
28	0x3c1977fe	0.009366987
29	0x3d2adda0	0.041715264
30	0x3dea5546	0.11442046
31	0x3d94b09c	0.07260248
32	0xbda60fe9	-0.08108503
33	0x3e3c54d2	0.18391731
34	0xbdaf3c8e	-0.08556472
35	0x3cb488a2	0.022037808
36	0x3dcf47ca	0.101211146
37	0xbafa760e	-0.0019108669
38	0xbdcebb65	-0.100943364
39	0x3d8c532a	0.068518
40	0xbd3b8fe2	-0.045791514
41	0x3c9b28bc	0.018940322
42	0xbbdaa4ab	-0.006672462
43	0xbd412e03	-0.04716302
44	0xbcd27abc	-0.02569329
45	0xbca54ff2	-0.020179722
46	0xbd0cedf1	-0.034406606
47	0xbd6b3993	-0.057427954
48	0xbd5fe975	-0.054666
49	0xbdd30578	-0.103037775
50	0x3d470dc2	0.048597105
51	0x3cd79ed7	0.026320858
52	0xbcd0926f	-0.02546045
53	0xbd8ec894	-0.06971851
54	0x3db76468	0.08954698
55	0x3d8f2616	0.06989686
56	0xbbb12d84	-0.005407037
57	0xbd5aa18f	-0.05337673
58	0xbdcf6fe1	-0.10128761
59	0xbcd79749	-0.026317256
60	0x3d60ff77	0.05493113
61	0x3da8bafe	0.08238791
62	0x3da9baac	0.08287558
63	0x3d390c73	0.045177888
64	0x3d4080fb	0.046998005
65	0xbcdf7900	-0.027279377
66	0x3de1e70d	0.110303976
67	0xbdb3ba14	-0.08775726
68	0x3dfc3d37	0.12316363
69	0xbd745668	-0.059652716
70	0x3d9e1c0e	0.07720195
71	0xbdd38892	-0.10328783
72	0x3dd98266	0.10620575
73	0xbd0577e1	-0.03258503
74	0xbcb6095d	-0.022221262
75	0xbd8114a0	-0.06302762
76	0xbd8c909f	-0.06863522
77	0xbde52405	-0.11188511
78	0xbd0f5f15	-0.035002787
79	0xbcdce1dc	-0.026963167
80	0xbd3047b6	-0.04303714
81	0x3e1e927e	0.1548557
82	0x3d0e9fe5	0.034820456
83	0x3e1cadc8	0.15300667
84	0xbd2e6551	-0.04257709
85	0xbc1541e9	-0.0091099525
86	0xbd4797f0	-0.048728883
87	0xbc365f56	-0.011131128
88	0xbde8cd00	-0.11367226
89	0xbd8813d6	-0.066444084
90	0x3dde479d	0.10853503
91	0xbcee823f	-0.02911484
92	0x3b8adec4	0.0042379815
93	0x3dd51b82	0.10405637
94	0xbd2a6d4b	-0.041608136
95	0x3d6208b2	0.055184074
96	0x3c2a26bb	0.010385211
97	0xba72bf53	-0.0009260077
98	0x3dd744d5	0.105111755
99	0x3db1e0a8	0.08685428
100	0xbce142c7	-0.027497662
101	0x3c11b704	0.008893732
102	0x3d1dee07	0.03855708
103	0xbd16e29f	-0.036837216
104	0xbde431cf	-0.11142313
105	0xbb92bb64	-0.004477905
106	0xbd7c35fc	-0.06157492
107	0x3e1bd119	0.15216483
108	0x3d0d759a	0.03453598
109	0x3dbac240	0.091190815
110	0x3c7d75cf	0.015469982
111	0x3d8d1ed3	0.06890645
112	0x3e0d4697	0.13796459
113	0xbd1142ba	-0.035464026
114	0xbd5db8c4	-0.054131284
115	0xbde803d9	-0.11328859
116	0x3cebc4e2	0.028780404
117	0xbd974ee6	-0.073880956
118	0xbd311ed8	-0.043242306
119	0x3d4dd0ec	0.05024807
120	0xbd8652dc	-0.06558773
121	0x3d9fc3fc	0.07801053
122	0xbd9d2932	-0.07673873
123	0x3c8f4837	0.01749049
124	0x3ce440fb	0.027863016
125	0x3dc478f6	0.09593384
126	0xbcd64294	-0.026154794
127	0x3e00b71a	0.12569848
128	0xbd022ae4	-0.031779185
129	0x3d303b26	0.04302516
130	0x3c47d62f	0.012197061
131	0x3c4c5b59	0.012472951
132	0xbdec04de	-0.11524366
133	0x3cd5a502	0.026079658
134	0x3d6dd8ce	0.05806809
135	0xbda3757c	-0.07981393
136	0x3d6345d8	0.05548653
137	0xbca99791	-0.020702155
138	0x3d4ed4f3	0.050496053
139	0x3de076bb	0.10960146
140	0x3ccb5e69	0.024825292
141	0xbcdd4f70	-0.027015418
142	0xbc7669b3	-0.015039849
143	0x3c6bdd66	0.014396047
144	0xbb498d7d	-0.00307545
145	0xbcd6a560	-0.026201904
146	0xbdb56682	-0.088574424
147	0xbd1d6c9c	-0.038433656
148	0xbd617374	-0.055041745
149	0x3dad9a1f	0.08476662
150	0xbcd2ca43	-0.025731212
151	0xbd4fba4a	-0.05071477
152	0x3d76b87d	0.060234535
153	0x3c16ba2e	0.009199662
154	0x3d14c295	0.03631838
155	0x3d2560ab	0.040375393
156	0x3da43da4	0.080195695
157	0x3c4350c5	0.011921112
158	0x3d881a73	0.0664567
159	0x3d5aaa91	0.05338532
160	0x3d66fbd6	0.056392513
161	0x3d2fc5b3	0.04291315
162	0x3ce54a4a	0.027989525
163	0xbd1c3686	-0.038137935
164	0x3d7d56bb	0.06185029
165	0x3da6ce5c	0.08144829
166	0xbdcbc2fc	-0.099493
167	0x3e0184d2	0.12648323
168	0x3d3f9122	0.04676927
169	0xbd3731a5	-0.04472508
170	0x3bf2ee68	0.007413674
171	0x3ac33b50	0.0014894996
172	0x3cbcdfdf	0.023055969
173	0x3e09d67a	0.13460723
174	0x3dd55f4a	0.104185656
175	0x3b5c5637	0.0033620724
176	0xbbae26ff	-0.0053147073
177	0x3be14571	0.006874733
178	0x3c181642	0.00928265
179	0x3d0a2fa5	0.033736844
180	0x3d6e73ba	0.058215834
181	0x3daf9c66	0.085747525
182	0x3dfade9b	0.1224949
183	0xbbef65b4	-0.007305825
184	0xbd7a608b	-0.061127227
185	0xbc6c284b	-0.0144139035
186	0x3d587815	0.052848894
187	0xbc7a8a74	-0.015291799
188	0x3d0b5f07	0.034026172
189	0xbb52e68e	-0.0032180878
190	0x3bafb0d4	0.0053616557
191	0xbdefda4b	-0.11711558
192	0xbd9c5b1b	-0.076345645
193	0xbcb2b97f	-0.021816967
194	0x3d49c72a	0.049262203
195	0xbdc27318	-0.09494609
196	0x3cc03748	0.02346386
197	0xbdcec08d	-0.1009532
198	0xbce2f1ac	-0.027703129
199	0x3cf2dd2d	0.02964648
200	0x3dd95907	0.10612684
201	0x3d233350	0.039843857
202	0xbc92444a	-0.017854828
203	0xbcf75b68	-0.030194953
204	0x3c41cb76	0.011828294
205	0x3c2a4c26	0.010394132
206	0x3c9774fe	0.018488403
207	0xbcbfeb09	-0.023427503
208	0x3e0d22e8	0.13782847
209	0xbd815fdc	-0.06317112
210	0x3d214e64	0.0393814
211	0x3c4af26c	0.012386899
212	0xbe01390f	-0.12619422
213	0x3e1ed953	0.1551259
214	0x3da169e1	0.07881523
215	0x3cf99412	0.030466113
216	0xbc70f91b	-0.014707829
217	0x3d164c44	0.036693826
218	0xbdd73b34	-0.10509339
219	0xbe152b59	-0.14567317
220	0x3dae839b	0.085211955
221	0x3da19bb8	0.07891029
222	0xbd93a93b	-0.072100125
223	0xbc1fd14c	-0.00975449
224	0xbd9da3bb	-0.07697245
225	0xbdc1f411	-0.0947038
226	0xbcdcd3f9	-0.026956545
227	0x3da87a69	0.08226473
228	0xbdbb114c	-0.091341585
229	0xbdb68d96	-0.08913724
230	0x3da2ecf6	0.07955353
231	0xbb0f405e	-0.0021858434
232	0xbbdaaa7b	-0.006673155
233	0xbc3c5fa5	-0.011497413
234	0xbdf7f869	-0.12107927
235	0xbdb1fb31	-0.08690489
236	0x3d0fed10	0.03513819
237	0xbd62f176	-0.055406056
238	0x3e32a404	0.1744538
239	0xbc958f3b	-0.018256774
240	0x3b3f07d0	0.0029148944
241	0xbd96905e	-0.073517546
242	0x3b8c774d	0.0042866827
243	0x3d5ffb8f	0.054683264
244	0xbdc42ce6	-0.09578876
245	0xbb5e4496	-0.0033915392
246	0xbd963aa0	-0.073354006
247	0x3dbe7783	0.09300139
248	0xbdca0216	-0.09863679
249	0x3c987e5a	0.018614937
250	0x3c861ef5	0.016372183
251	0xbd8a85f3	-0.0676383
252	0xbd380714	-0.044928625
253	0x3e06b62c	0.1315543
254	0x3d99d4c1	0.07511283
255	0xbd83ebae	-0.06441437
