scripts/results/SingleCombat/1v1/NoWeapon/Selfplay/ppo/v1_selfplay_from_baseline/run3/actor_590.pt (torch, 696704 bytes, 30 tensors)

base.mlp.fc.0.weight f4 [128, 15]
0	0x3e0a01e3	0.13477282
1	0xbe2e3ca8	-0.17015326
2	0xbd9f0b94	-0.0776588
3	0x3e8ea0dd	0.27857104
4	0xbe728134	-0.236821
5	0x3e30a6b9	0.172511
6	0xbcb6d338	-0.022317514
7	0x3e24c9cf	0.16092609
8	0x3d611b8a	0.054957904
9	0xbcf502a4	-0.029908486
10	0x3b874e85	0.0041292333
11	0xbcee3c08	-0.02908136
12	0x3dd9a44e	0.10627042
13	0xbdcbdd31	-0.09954298
14	0xba586f8b	-0.00082563673
15	0x3ca0083b	0.019535175
16	0x3ca605c9	0.02026643
17	0xbce99466	-0.028513145
18	0x3ea6ce99	0.32579497
19	0x3dd6cc4a	0.10488184
20	0xbda44bb0	-0.08022249
21	0xbcc0ebdb	-0.023549965
22	0xbd5f183c	-0.05446647
23	0xbdc90959	-0.09816236
24	0xbcba17f5	-0.022716502
25	0xbe3e4dad	-0.18584318
26	0x3e46e94e	0.19424936
27	0x3e2ebfac	0.17065305
28	0xbe735ec0	-0.23766613
29	0x3dc656af	0.09684502
30	0x3d12a9f2	0.035806604
31	0x3e969384	0.2940942
32	0x3e1d3dc8	0.15355599
33	0xbe9ae186	-0.30250186
34	0xbe927ef2	-0.28612477
35	0xbe1f204e	-0.15539667
36	0x3e409ac6	0.18809041
37	0x3cddda0d	0.027081514
38	0x3da4b531	0.08042372
39	0xbe6450c5	-0.22296436
40	0x3f0b49cc	0.5440948
41	0xbe6f3547	-0.23360167
42	0x3e34bc7a	0.17650023
43	0xbc7657a5	-0.0150355445
44	0xbe1c9f30	-0.152951
45	0x3e24f927	0.16110669
46	0xbe129fd3	-0.1431878
47	0x3df71b11	0.120657094
48	0x3e196578	0.14980114
49	0xbc1ddc79	-0.009635084
50	0xbe70ee9e	-0.23528525
51	0xbdcdee4b	-0.100552164
52	0x3dfc6bdf	0.12325262
53	0xbd5ceaed	-0.05393498
54	0x3e65c57f	0.2243862
55	0x3e231339	0.15925302
56	0xbce95ef8	-0.028487667
57	0xbe3175dc	-0.17330116
58	0x3e61035f	0.21973942
59	0x3d8e77c0	0.06956434
60	0xbe448358	-0.19190729
61	0x3e1bfbde	0.15232798
62	0x3deef9dc	0.11668751
63	0x3e40cc4f	0.18827938
64	0xbe2233f8	-0.15840137
65	0xbd7c490e	-0.061593108
66	0xbcb5e2cf	-0.022202877
67	0xbce8ba2c	-0.028409086
68	0xbe594751	-0.21218611
69	0xbe50371c	-0.20333523
70	0x3e1f56db	0.15560476
71	0xbd8f0935	-0.06984178
72	0x3dd220a4	0.10260132
73	0xbc40c9b4	-0.01176684
74	0x3d5bce0a	0.05366329
75	0x3d96a733	0.073561095
76	0x3d69bdb0	0.057065666
77	0x3e0be30f	0.13660835
78	0xbe9f0970	-0.31061888
79	0x3e07f2a5	0.13276155
80	0xbe4695f8	-0.19393146
81	0xbead90b1	-0.33899453
82	0x3e9eb0b6	0.30994195
83	0xbd762b8f	-0.060100134
84	0x3e325f94	0.17419273
85	0xbe231954	-0.1592763
86	0xbe8aac0d	-0.2708439
87	0x3e36e09b	0.17859118
88	0x3d37400c	0.044738814
89	0x3e0d88d7	0.13821732
90	0x3db1e6a0	0.08686566
91	0xbe9351d4	-0.28773367
92	0x3d9c9a16	0.07646577
93	0xbd8c2dc5	-0.06844667
94	0xbe29a40e	-0.16566488
95	0xbdfbeec0	-0.12301397
96	0xbd680a87	-0.056650665
97	0x3d928c65	0.071556844
98	0xbde097fd	-0.109664895
99	0xbd4cfad9	-0.050043914
100	0x3eae27fd	0.34014884
101	0xbdb10f0a	-0.086454466
102	0x3e11bbed	0.14231844
103	0x3dfa377f	0.12217616
104	0xbe30168d	-0.17196102
105	0xbe627d74	-0.22118169
106	0x3ea00778	0.31255698
107	0xbd3b86d7	-0.04578289
108	0x3eacd121	0.33753303
109	0x3d27c2c2	0.04095722
110	0x3d9769bd	0.07393215
111	0x3e808b87	0.2510645
112	0x3ea9e738	0.33184218
113	0xbe39321f	-0.18085526
114	0xbc6524ba	-0.013985807
115	0x3eb10c85	0.34579864
116	0x3e52b7e6	0.20577964
117	0x3e21bfe7	0.15795861
118	0xbe5158ad	-0.20443983
119	0xbe16247c	-0.14662355
120	0xbe24f253	-0.16108064
121	0x3c5d94eb	0.013524274
122	0x3e718040	0.2358408
123	0xbe706c3e	-0.23478791
124	0x3e062196	0.1309875
125	0xbe090c55	-0.1338361
126	0xbecc75da	-0.39933664
127	0xbe7bda6d	-0.24595042
128	0x3e247464	0.16060024
129	0x3e803fff	0.25048825
130	0xbe284302	-0.16431811
131	0x3d9e2713	0.077222966
132	0x3e5379ab	0.20651881
133	0x3e7a09cf	0.24417804
134	0x3df2bab2	0.118520156
135	0x3e3e6622	0.18593648
136	0x3e772323	0.24134497
137	0x3d2e415b	0.042542797
138	0xbe9ca17a	-0.30591947
139	0xbe68ed59	-0.22746791
140	0xbe0a1f83	-0.13488583
141	0xba67e5e2	-0.0008846206
142	0xbe96f674	-0.29484904
143	0x3d9c3c5f	0.07628702
144	0x3da0c0dd	0.07849286
145	0xbe159132	-0.14606169
146	0x3dc799e7	0.097461514
147	0x3d96aaa6	0.07356767
148	0x3e3a2dcd	0.18181534
149	0x3e03edfe	0.12883756
150	0xbdbd6169	-0.09247095
151	0x3e70763d	0.23482604
152	0xbd8f162f	-0.06986653
153	0xbd09d126	-0.033646725
154	0xbe83598b	-0.25654253
155	0xbe2d97bd	-0.16952415
156	0xbd7b6021	-0.061370973
157	0xbdffd579	-0.124918886
158	0x3e35a541	0.1773882
159	0xbdf5e83b	-0.12007185
160	0xbe51bc84	-0.20482069
161	0x3da5a2c0	0.08087683
162	0x3db68352	0.08911766
163	0x3e3bb1d8	0.18329561
164	0xbdd3b4cf	-0.10337221
165	0x3d5c317b	0.053758126
166	0xbda60c7f	-0.08107852
167	0xbdba1835	-0.090866484
168	0xbe447f0d	-0.19189091
169	0xbdf3d96b	-0.119067036
170	0xbda59620	-0.08085275
171	0x3c0cea8c	0.008600842
172	0x3aabe5e4	0.0013114777
173	0x3d813b37	0.063101225
174	0x3e81f3f3	0.2538143
175	0x3eb4a7d3	0.3528429
176	0x3e10fb1e	0.14158294
177	0x3d6bcfd6	0.057571255
178	0xbe3b4f51	-0.18291976
179	0x3e469531	0.1939285
180	0x3caae768	0.020862296
181	0xbddb4474	-0.10706416
182	0xbe4c633a	-0.19959727
183	0xbe308c2e	-0.17240974
184	0xbdf304e3	-0.118661664
185	0x3e9c0583	0.30472955
186	0xbeaa1341	-0.33217815
187	0xbe7f6adf	-0.24943112
188	0x3d5ba8f9	0.05362794
189	0xbd79aa28	-0.06095329
190	0x3d9db859	0.07701177
191	0xbe8d18b2	-0.27557904
192	0xbd912860	-0.07087779
193	0x3e055f99	0.13024749
194	0x3e641f6d	0.22277613
195	0xbe3da1f6	-0.18518814
196	0x3e57c52b	0.21071307
197	0x3e4cc5ff	0.19997405
198	0x3e846e31	0.2586532
199	0xbe359c05	-0.17735298
200	0x3d923fd1	0.07141078
201	0xbdbcc42b	-0.092171036
202	0x3e231955	0.15927632
203	0xbdb98a2d	-0.09059558
204	0x3e2c7768	0.16842425
205	0xbdd3b2c2	-0.1033683
206	0xbd637e2b	-0.055540245
207	0xbb13e2d2	-0.0022565615
208	0x3d559b80	0.05215025
209	0x3dfc3c4a	0.12316187
210	0x3d30e654	0.043188408
211	0x3d8c11aa	0.06839307
212	0xbea71ba7	-0.32638285
213	0x3e67b843	0.22628884
214	0x3e63c107	0.22241603
215	0x3e625ac0	0.22104931
216	0x3e72d48b	0.23713891
217	0xbeb3dc9b	-0.35129246
218	0xbdb71767	-0.089400105
219	0x3e36e27e	0.17859837
220	0xbe306e03	-0.17229466
221	0x3e870dcf	0.26377723
222	0xbe493bc5	-0.19651707
223	0xbe7cbcfb	-0.24681465
224	0x3e3381e9	0.17530026
225	0xbe580508	-0.2109567
226	0xbdf16d81	-0.11788464
227	0x3e4a652f	0.19765161
228	0x3e924cc1	0.28574184
229	0x3e6d10f9	0.23151006
230	0xbd795170	-0.06086868
231	0xbe759c34	-0.23985368
232	0x3ee064c9	0.43826893
233	0xbd7946d7	-0.060858574
234	0xbd9d5699	-0.07682533
235	0x3d8414a5	0.0644925
236	0xbe904739	-0.2817934
237	0x3e0821a3	0.13294081
238	0x3dc56b41	0.09639598
239	0xbe2282e5	-0.15870245
240	0xbe498b2e	-0.19681999
241	0xbd56f730	-0.05248183
242	0x3e120b37	0.1426209
243	0xbd10516b	-0.035233896
244	0xbe13312a	-0.14374223
245	0x3b8e759d	0.0043475167
246	0xbea2dc31	-0.31808618
247	0xbdc06d47	-0.09395843
248	0xbe34a7d6	-0.1764215
249	0x3e0becd7	0.13664566
250	0x3e745dc7	0.23863898
251	0xbdbf8861	-0.09352184
252	0x3cadc583	0.021212345
253	0x3e1365ed	0.1439435
254	0x3d3fc282	0.046816356
255	0xbe0fc4a0	-0.1403985

base.mlp.fc.0.bias f4 [128]
0	0xbda89ce6	-0.08233051
1	0xbe4e5714	-0.20150405
2	0x3d1e7f86	0.038695835
3	0xbdba0407	-0.090827994
4	0xbe6dcffe	-0.23223874
5	0xbcf6b43d	-0.030115241
6	0xbe5a10c6	-0.21295461
7	0x3df89034	0.121368796
8	0xbe27d01d	-0.16387983
9	0xbdc50fe8	-0.096221745
10	0xbe885ab1	-0.26631692
11	0xbcf92516	-0.030413192
12	0xbc2db3ae	-0.010601921
13	0x3e149d92	0.14513233
14	0xbd763b84	-0.060115352
15	0x3e23a4fb	0.15980904
16	0x3e6a722d	0.22895117
17	0x3d1d74d6	0.0384415
18	0xbdf02d99	-0.11727447
19	0xbe439481	-0.19099618
20	0xbe2175e2	-0.15767625
21	0xbdddf1ac	-0.10837111
22	0xbdf3c76f	-0.11903273
23	0x3e129b75	0.14317115
24	0xbda137e0	-0.078719854
25	0xbca15657	-0.01969449
26	0x3b03a738	0.0020088684
27	0xbe7234ae	-0.23652908
28	0x3e664c50	0.22490048
29	0xbdcea515	-0.10090081
30	0xbe6dda35	-0.2322777
31	0xbc9d9cbf	-0.019239781
32	0xbe81e11d	-0.2536706
33	0x3c42d4d8	0.011891566
34	0xbe402afd	-0.18766399
35	0xbcf07b34	-0.029355623
36	0xbdc6a327	-0.096990876
37	0x3e1e665d	0.15468736
38	0x3e429b7c	0.19004625
39	0x3e6dd52d	0.23225851
40	0x3d7bbebc	0.061461195
41	0x3e115bea	0.14195219
42	0xbe676428	-0.225968
43	0xbe429955	-0.19003804
44	0x3df451e7	0.11929684
45	0x3d50a2ac	0.050936386
46	0x3da916fd	0.08256338
47	0x3e29a51d	0.16566892
48	0x3e1ef857	0.15524422
49	0x3db89b21	0.090139635
50	0xbde7f1f4	-0.11325446
51	0xbd906050	-0.0704962
52	0x3dacea2c	0.08443102
53	0x3e4a6632	0.19765547
54	0xbd1bb8d0	-0.038018048
55	0xbdbd4947	-0.09242492
56	0x3e195309	0.14973082
57	0x3e1170f6	0.14203247
58	0xbcabc26c	-0.020966731
59	0xbd87868d	-0.066174604
60	0xbe5cbade	-0.21555659
61	0xbae5cd62	-0.0017532522
62	0x3d80c802	0.062881485
63	0xbe676b85	-0.22599609
64	0xbe4eb1eb	-0.20185058
65	0xbe8237c3	-0.25433168
66	0x3e17453b	0.14772503
67	0x3e80d81d	0.2516488
68	0x3e821be1	0.25411895
69	0x3e5b70b6	0.21429715
70	0xbcdec9ef	-0.027195899
71	0x3d803e6e	0.062619075
72	0x3e2d0f58	0.16900384
73	0xbdc4d4ef	-0.09610926
74	0xbe115db3	-0.141959
75	0x3e271c1f	0.16319321
76	0x3cf219ff	0.029553412
77	0x3e0d4278	0.13794887
78	0xbe0511ba	-0.12995043
79	0xbe2907aa	-0.1650683
80	0x3b194b90	0.0023390986
81	0x3d2d7892	0.042351313
82	0x3e0d5c92	0.13804844
83	0x3e3aca36	0.182412
84	0xbd9a8a4f	-0.075459115
85	0x3e830a8c	0.25593984
86	0xbe1ea5ea	-0.15492979
87	0xbd176642	-0.036962755
88	0xbe0c2a48	-0.13688004
89	0x3d5920d0	0.053009808
90	0x3e56e35c	0.20985168
91	0xbe6882e4	-0.22706181
92	0x3d3cac60	0.046062827
93	0xbe59ac06	-0.21257028
94	0xbce2fdcc	-0.02770891
95	0xbdf2ea12	-0.118610516
96	0x3b97fbce	0.0046381718
97	0xbe38f68b	-0.18062799
98	0x3d259ab9	0.04043076
99	0xbe6c1cba	-0.23057833
100	0x3d78fe94	0.06078966
101	0xbdfb47c1	-0.12269545
102	0xbe5988f2	-0.21243647
103	0x3e2caa03	0.1686173
104	0xbc7f7b54	-0.015593369
105	0xbe0dc116	-0.13843188
106	0xbdfd4d57	-0.12368267
107	0xbdffd7ae	-0.124923095
108	0xbe0df867	-0.13864289
109	0x3c29d30f	0.010365262
110	0xbc6a904b	-0.014316629
111	0x3e3775d6	0.17916045
112	0x3ceed8ad	0.029156053
113	0xbdd24cce	-0.102685556
114	0x3e40f50e	0.18843481
115	0x3d9a6152	0.075380936
116	0xbd7afd9d	-0.06127702
117	0x3e2a19fb	0.16611473
118	0x3e73c76b	0.2380654
119	0xbe6ef733	-0.23336487
120	0xbe55a719	-0.20864524
121	0xbe4e8e37	-0.20171438
122	0xbe6f31ba	-0.23358813
123	0xbde104de	-0.109872565
124	0x3e0afb14	0.13572341
125	0xbe84a221	-0.25904945
126	0xbe937ad5	-0.2880465
127	0xbe1b1567	-0.15144883

base.mlp.fc.2.weight f4 [128]
0	0x3f8758f8	1.0574026
1	0x3f857bf9	1.0428458
2	0x3f876c69	1.0579959
3	0x3f78b59d	0.9715212
4	0x3f76f37e	0.9646529
5	0x3f7da6bb	0.99082536
6	0x3f805c4b	1.0028166
7	0x3f80e0e8	1.0068636
8	0x3f81bb7c	1.0135341
9	0x3f833250	1.0249729
10	0x3f788f18	0.97093344
11	0x3f72f672	0.94907296
12	0x3f7916ab	0.97300214
13	0x3f728b0a	0.94743407
14	0x3f82b58e	1.0211656
15	0x3f80cc74	1.0062394
16	0x3f76df1b	0.9643418
17	0x3f819dbf	1.0126265
18	0x3f85fd9e	1.0468023
19	0x3f84e15d	1.0381275
20	0x3f6e009e	0.9296969
21	0x3f761edd	0.96140844
22	0x3f78ac4e	0.97137916
23	0x3f8b1030	1.0864315
24	0x3f845715	1.0339075
25	0x3f854a94	1.0413384
26	0x3f86b418	1.052371
27	0x3f7c4ff0	0.98559475
28	0x3f830a4a	1.0237515
29	0x3f82e7c0	1.0226974
30	0x3f78a910	0.9713297
31	0x3f852c25	1.0404097
32	0x3f781077	0.96900123
33	0x3f7c9d44	0.9867747
34	0x3f738cd4	0.9513676
35	0x3f7df956	0.9920858
36	0x3f8ed68e	1.1159227
37	0x3f788d08	0.97090197
38	0x3f936055	1.1513773
39	0x3f81fa58	1.0154524
40	0x3f82eb84	1.0228124
41	0x3f778109	0.9668127
42	0x3f83a563	1.0284847
43	0x3f8020db	1.0010027
44	0x3f6d2b8c	0.9264457
45	0x3f8054d8	1.0025892
46	0x3f736d1f	0.9508838
47	0x3f828176	1.0195758
48	0x3f85f193	1.0464348
49	0x3f820100	1.0156555
50	0x3f7e854b	0.9942214
51	0x3f7b85e9	0.98251206
52	0x3f8486a9	1.0353595
53	0x3f833343	1.0250019
54	0x3f76cf9a	0.96410525
55	0x3f751147	0.9572949
56	0x3f7612e9	0.96122605
57	0x3f761a9f	0.9613437
58	0x3f7ac8b1	0.9796248
59	0x3f8580dc	1.042995
60	0x3f8d4e08	1.1039438
61	0x3f7a5341	0.97783285
62	0x3f806b70	1.0032787
63	0x3f7b83d3	0.9824802
64	0x3f821b32	1.0164549
65	0x3f82e442	1.0225909
66	0x3f623b0b	0.8837134
67	0x3f7d55c1	0.98958975
68	0x3f817f06	1.011689
69	0x3f86c2dc	1.0528216
70	0x3f72093a	0.9454533
71	0x3f7a9673	0.9788582
72	0x3f86bd65	1.0526549
73	0x3f854059	1.0410262
74	0x3f9240ad	1.1425987
75	0x3f7c7839	0.98620945
76	0x3f73ceb2	0.95237267
77	0x3f7b3f25	0.98143226
78	0x3f85b1f3	1.0444931
79	0x3f7f6af5	0.9977258
80	0x3f7616e9	0.9612871
81	0x3f812e0f	1.0092181
82	0x3f7fbf4d	0.99901277
83	0x3f871469	1.0553104
84	0x3f7b8114	0.9824383
85	0x3f812e74	1.0092301
86	0x3f7a0892	0.9766933
87	0x3f6ecdee	0.93282974
88	0x3f8122b7	1.0088719
89	0x3f87cf39	1.0610114
90	0x3f809356	1.0044963
91	0x3f7dad52	0.9909259
92	0x3f7c7a65	0.9862426
93	0x3f79e3c1	0.9761315
94	0x3f796647	0.9742169
95	0x3f8254ce	1.018213
96	0x3f81380d	1.009523
97	0x3f758682	0.9590837
98	0x3f84c16c	1.0371528
99	0x3f725a16	0.9466871
100	0x3f7e5d6c	0.993613
101	0x3f79a273	0.975135
102	0x3f740267	0.95316166
103	0x3f79b29d	0.9753817
104	0x3f7356b3	0.9505417
105	0x3f77c638	0.9678683
106	0x3f7dd693	0.9915554
107	0x3f7f153f	0.99641794
108	0x3f843196	1.0327632
109	0x3f8b50fb	1.0884088
110	0x3f7b1b3b	0.98088425
111	0x3f7e8d20	0.9943409
112	0x3f88852e	1.0665643
113	0x3f6ed615	0.93295413
114	0x3f73c07d	0.9521559
115	0x3f708490	0.93952274
116	0x3f8bae8c	1.0912642
117	0x3f80ba68	1.0056887
118	0x3f76a181	0.96340185
119	0x3f7a7861	0.97839934
120	0x3f80726c	1.0034919
121	0x3f761dce	0.9613923
122	0x3f664e66	0.89963377
123	0x3f8094cf	1.0045413
124	0x3f6f1a94	0.9339993
125	0x3f729953	0.94765204
126	0x3f799acb	0.9750182
127	0x3f837f2a	1.0273182

base.mlp.fc.2.bias f4 [128]
0	0x3c9271dc	0.017876558
1	0x3c837aec	0.016049825
2	0xbb98ca81	-0.004662812
3	0x3cffeb8a	0.031240243
4	0x3d0fe172	0.03512711
5	0xbc2cc6be	-0.010545431
6	0x3c902328	0.017594889
7	0x3c435a61	0.0119234035
8	0xbb20fed5	-0.0024565954
9	0x3c923cec	0.017851315
10	0x3d37a62a	0.0448362
11	0x3d104604	0.035223022
12	0x3d0d7820	0.03453839
13	0x3d766dc2	0.060163267
14	0x3c9c0c09	0.019048708
15	0xbcc57e8f	-0.0241082
16	0x3d17b7ba	0.03704045
17	0x3c96f948	0.018429413
18	0xbc4b658c	-0.012414347
19	0x3c243190	0.010021582
20	0x3d93981b	0.07206746
21	0x3d1ac340	0.03778386
22	0x3cec3f69	0.02883883
23	0xbc2337e3	-0.009962055
24	0x3a27be2d	0.0006398883
25	0xbbb535bb	-0.005530087
26	0xbc111daa	-0.00885717
27	0x3cd75f7d	0.02629065
28	0x3cdfae59	0.027304815
29	0x3c9a903a	0.0188676
30	0xbc441dc9	-0.011969992
31	0xbc5489bb	-0.012972291
32	0xbc7ddc1b	-0.015494372
33	0x3cee769a	0.029109288
34	0x3d510427	0.05102935
35	0x3cb36da5	0.021902869
36	0xbac4b2b7	-0.0015006874
37	0x3cfa937b	0.030587902
38	0x3baafd01	0.0052181487
39	0x3c199929	0.009374895
40	0x3ce3b701	0.027797224
41	0xbc8c2946	-0.017109524
42	0xbbd29e02	-0.0064275274
43	0xbc3c022a	-0.011475125
44	0x3d902aa0	0.0703938
45	0x3bbc0338	0.0057376884
46	0x3c53934a	0.012913534
47	0x3cab8c0b	0.020940801
48	0xbba517c2	-0.0050382325
49	0xbc38c356	-0.0112770405
50	0xbc72ad3d	-0.014811811
51	0x3cf23b6d	0.029569352
52	0xbbd24ce3	-0.006417857
53	0xbc562dcc	-0.013072442
54	0x3d066d92	0.03281934
55	0x3d1f5d90	0.038907588
56	0xbc1cd0ed	-0.009571296
57	0x3d28c482	0.04120303
58	0x3cc07886	0.02349497
59	0xbbbaa38c	-0.005695766
60	0x3b8046fd	0.0039147125
61	0xbcf499df	-0.029858528
62	0xbca19774	-0.019725539
63	0xbcf82e1a	-0.03029542
64	0xbbecca35	-0.0072262534
65	0x3bd7b4d9	0.006582838
66	0x3de4a62e	0.11164509
67	0x3c64dc81	0.013968588
68	0xbb3f4cd6	-0.0029190085
69	0xbc27002c	-0.010192912
70	0x3d293caa	0.04131762
71	0xbced10f7	-0.028938754
72	0xbb5e5753	-0.003392656
73	0xbc5207e4	-0.012819264
74	0x398dfb29	0.00027080745
75	0xbd281d7e	-0.04104375
76	0x3d5b3a14	0.053522184
77	0x3d1d417c	0.03839253
78	0xbc827248	-0.015923634
79	0x3c750762	0.0149553735
80	0x3d475fa2	0.048675187
81	0x3ca10e97	0.019660277
82	0xbc7b8425	-0.01535133
83	0x3cc2ca59	0.023778128
84	0xbd060d8f	-0.032727774
85	0x3be0148a	0.006838386
86	0xbc8be082	-0.017074827
87	0xbd2c426f	-0.042055544
88	0x3cd2dbc5	0.02573956
89	0x3c85f74b	0.01635327
90	0xbc77f9b4	-0.015135217
91	0x3ce3c9f7	0.027806265
92	0x3c9335a9	0.017969923
93	0x3d1a399b	0.037652593
94	0x3cda9b3d	0.026685352
95	0xbbe4a918	-0.0069781654
96	0xbba2faa8	-0.004973728
97	0x3d2a30ad	0.041550327
98	0xbc4437af	-0.011976167
99	0x3d4befb4	0.049789146
100	0x3ca61ea6	0.020278286
101	0x3c3ee737	0.011651806
102	0x3d4e2cb4	0.0503356
103	0xbd20b1e8	-0.039232165
104	0x3d3e601d	0.04647838
105	0x3cb5c591	0.022188934
106	0x3cb29a92	0.02180222
107	0x3bba4fb0	0.005685769
108	0x3ca575c7	0.020197762
109	0xbc9474ef	-0.018122165
110	0xbc879762	-0.016551677
111	0xbd03344a	-0.03203229
112	0x3cd44540	0.025911927
113	0x3d8d5faf	0.06903016
114	0xb9db07b9	-0.0004177669
115	0x3d28e9ef	0.04123872
116	0xbc8199c7	-0.015820397
117	0xbc9c823f	-0.019105075
118	0x3d0cf39f	0.034412023
119	0x3cfaa304	0.03059531
120	0x3c3def2b	0.011592667
121	0x3d6196c5	0.055075426
122	0x3dd485bf	0.103770725
123	0xbcd28bea	-0.025701482
124	0x3d5d3344	0.05400397
125	0x3d571228	0.05250755
126	0xbac9a1f3	-0.0015383348
127	0x3c054929	0.0081351185

base.mlp.fc.3.weight f4 [128, 128]
0	0xbc2dd0e4	-0.010608885
1	0x3d248b5e	0.040171973
2	0x3e0ca119	0.13733329
3	0x3ddad1ac	0.10684523
4	0x3ccaa082	0.02473474
5	0xbd59b5ce	-0.053151898
6	0x3e0084b0	0.12550616
7	0xbd38bc42	-0.04510141
8	0x3d3afb9c	0.04565011
9	0x3d5ecb01	0.05439282
10	0x3d57bfd0	0.05267316
11	0x3ce75bfc	0.028242104
12	0xbd9a26e7	-0.07526951
13	0xbc212953	-0.009836513
14	0xbd94c812	-0.07264723
15	0x3d6e505f	0.058182117
16	0x3c104130	0.008804604
17	0xbba906a2	-0.0051582614
18	0x3d9c3315	0.076269306
19	0x3d87d298	0.066319644
20	0xbd1fc6e9	-0.039008055
21	0xbd4b9028	-0.049698025
22	0x3d65a30c	0.056063697
23	0x3d2bb7a5	0.041923184
24	0xbd9fb320	-0.07797837
25	0x3da321cf	0.07965433
26	0xbdc8a396	-0.097968265
27	0x3dcf0c20	0.101097345
28	0x3db2115e	0.08694719
29	0x3db15168	0.08658105
30	0x3a7d9c9a	0.00096745195
31	0x3d02cd85	0.03193428
32	0xbd992d2a	-0.074793175
33	0x3d96899d	0.073504664
34	0x3ced877c	0.028995268
35	0x3db5821e	0.088627085
36	0xbccabc2b	-0.024747929
37	0x3de0822e	0.1096233
38	0x3d49289c	0.049110994
39	0xbd2d9b3d	-0.042384375
40	0x3d08bbc5	0.033382196
41	0xbdc2498c	-0.09486684
42	0xbd03eeb2	-0.03221006
43	0xbd054e8d	-0.032545615
44	0xbced0399	-0.02893238
45	0x3c8a632b	0.01689299
46	0xbcb03b9d	-0.0215128
47	0xbd024d3b	-0.031811934
48	0x3d3a72b1	0.045519534
49	0x3abaa117	0.0014238682
50	0xbc8d23e4	-0.017229028
51	0xbc88e19b	-0.01670914
52	0x3b28316b	0.002566422
53	0x3d39070e	0.045172743
54	0x3d6707fb	0.056404095
55	0x3da5a0be	0.080873
56	0xbd80ba28	-0.062855065
57	0x3c670ceb	0.014102201
58	0x3d36689c	0.044533357
59	0xbc8f65e0	-0.017504632
60	0x3d978dbf	0.07400083
61	0xbcbd1db9	-0.023085462
62	0xbd21ea83	-0.03953029
63	0xbdb16d1a	-0.086633876
64	0x3d8619e1	0.06547905
65	0xbd08cdf7	-0.03339955
66	0x3c7df7cb	0.015500973
67	0xbdb922f6	-0.090398714
68	0x3dd5ad89	0.1043349
69	0x39f17107	0.00046051314
70	0x3d7e101f	0.062027093
71	0xbd0fc28d	-0.035097647
72	0xbd68f85e	-0.056877486
73	0x3d550b92	0.052012987
74	0x3dc29976	0.095019266
75	0x3d7927b5	0.060828883
76	0x3bdff829	0.006835003
77	0x3c70bef8	0.014693968
78	0x3c2f25d8	0.010690175
79	0xbd570035	-0.05249043
80	0xbc9f57be	-0.019451018
81	0xbda27155	-0.079317726
82	0xbdbd5ebd	-0.092465855
83	0x3ba1f749	0.0049428088
84	0xbd217491	-0.039417807
85	0xbc7afb98	-0.015318774
86	0xbcec3621	-0.028834404
87	0x3c06d52c	0.008229535
88	0xbbf4bc86	-0.007468763
89	0xbd911b31	-0.070852645
90	0x3cc87516	0.024469893
91	0xbd713e33	-0.05889721
92	0xbbfc0b13	-0.00769175
93	0x3c2983dd	0.01034638
94	0x3d613bfb	0.054988842
95	0xbd9cd57f	-0.07657909
96	0xbd9b9569	-0.07596857
97	0x3dc34d4b	0.09536227
98	0x39a285dd	0.00030998784
99	0x3dd2e3b2	0.10297336
100	0x3d0dbfa2	0.034606583
101	0x3d9f3838	0.07774395
102	0x3d1b28b8	0.03788063
103	0xbd3e4d2f	-0.046460327
104	0xbcd5b815	-0.026088754
105	0xbcf1dca3	-0.029524153
106	0x3d3ef0bb	0.046616297
107	0x3d71dc95	0.059048254
108	0x3df6e7f0	0.12055957
109	0x3d850218	0.0649454
110	0x3d989632	0.074505225
111	0xbda7435c	-0.08167145
112	0xbd45585e	-0.048179977
113	0xbc8b159b	-0.016978076
114	0xbd0e2041	-0.03469873
115	0x3ca1b649	0.01974024
116	0xbd57f5a9	-0.052724514
117	0x3dae5ccc	0.08513793
118	0xbccaa447	-0.024736537
119	0x3e02ef0a	0.12786499
120	0xbd889954	-0.0666987
121	0xbd067ceb	-0.032833975
122	0x3d154b9f	0.03644907
123	0xbbf8712a	-0.0075818496
124	0xbd04ccc7	-0.032421853
125	0xbcaaa733	-0.02083168
126	0x3d37bac7	0.04485586
127	0x3b9c99be	0.0047790697
128	0x3b1fb4c2	0.0024369215
129	0x3d348365	0.04407062
130	0xbd799182	-0.060929783
131	0x3dbe0fd5	0.092803635
132	0xbd36c163	-0.04461802
133	0xbce70951	-0.028202685
134	0x3d139dab	0.036039036
135	0x3d39587a	0.045250393
136	0x3c4d0560	0.0125134885
137	0xbccf9519	-0.02533965
138	0x3d2c0c7e	0.0420041
139	0xbce72e28	-0.028220251
140	0xbb96266c	-0.004582217
141	0xbc19b62c	-0.009381812
142	0xbcae19d7	-0.021252556
143	0x3b041ed8	0.0020159986
144	0xbd3c4039	-0.045959685
145	0x3c5db731	0.013532446
146	0xbdaffb95	-0.08592907
147	0xbdb3cee5	-0.087796964
148	0x3d815088	0.06314188
149	0x3d853894	0.06504932
150	0x3dd32db1	0.10311449
151	0xbd9b7910	-0.0759145
152	0xbd7f7d4d	-0.062375356
153	0xbd9c49c7	-0.076312594
154	0x3cd0f511	0.025507482
155	0xbd1b7d58	-0.037961334
156	0x3e191217	0.14948307
157	0xbd7dfd00	-0.062008858
158	0xbd032dfc	-0.032026276
159	0xbdacaa10	-0.08430874
160	0x3d93f5fe	0.07224654
161	0x3dc26617	0.09492128
162	0x3ce80d96	0.02832679
163	0x3c422858	0.011850439
164	0x3d25dc7f	0.040493485
165	0x3de18418	0.11011523
166	0x3d2267a8	0.039649636
167	0xbd381d45	-0.04494979
168	0x3da21489	0.07914073
169	0x3d835e30	0.06414449
170	0xbda635ae	-0.08115707
171	0x3d88517f	0.06656169
172	0xbd2dbede	-0.042418353
173	0xbd514f2e	-0.051100902
174	0x3bc64205	0.0060503506
175	0x3dbe088c	0.09278974
176	0xbc3f7643	-0.011685911
177	0xbd818348	-0.06323868
178	0x3d37dd57	0.04488882
179	0x3b43bd9e	0.002986766
180	0x3d0c6791	0.034278456
181	0xbde41e6a	-0.111386135
182	0x3d8d175c	0.06889221
183	0xbc99536d	-0.018716538
184	0xbd905db3	-0.07049122
185	0x3d994f5f	0.07485842
186	0xbcf32002	-0.029678348
187	0x3de6e996	0.11275022
188	0x3d286661	0.04111326
189	0xbd31ec2e	-0.04343813
190	0xbdfca2e3	-0.12335756
191	0xbdc4134e	-0.095739946
192	0xbc7d490a	-0.015459308
193	0x3d9049fc	0.070453614
194	0x3d5acf80	0.053420544
195	0xbce5cfb6	-0.028053146
196	0xbd63400b	-0.055480998
197	0xbe188de4	-0.14897877
198	0x3d980dee	0.07424532
199	0xbcee69c9	-0.029103177
200	0xbd5ac59a	-0.053411104
201	0xbd5e85fe	-0.054327004
202	0x3d5d81d8	0.054078907
203	0xbc8c7e3e	-0.01715004
204	0x3e1685da	0.14699498
205	0xbc994827	-0.018711163
206	0xbd066fa1	-0.0328213
207	0x3cd03517	0.02541594
208	0x3b08afab	0.002085666
209	0xbc24e042	-0.010063233
210	0x3d22144a	0.03957013
211	0xbd3f1657	-0.046652164
212	0xbdaa8e8f	-0.08327972
213	0xbc81c419	-0.015840577
214	0xbce3b0c6	-0.027794253
215	0xbc4b663e	-0.012414513
216	0x3c59be21	0.013289959
217	0x3dcbd9ac	0.09953627
218	0xbc689bca	-0.014197299
219	0x3c7d0a88	0.015444405
220	0xbd03a1f7	-0.032136884
221	0xbd90f40c	-0.07077798
222	0xba59d45f	-0.0008309539
223	0xbd0e66ac	-0.034765884
224	0x3b3597f8	0.0027708989
225	0x3d932b7a	0.07186027
226	0x3cbb297c	0.02284693
227	0xbd9626d8	-0.073316276
228	0xbc27317d	-0.01020467
229	0x3d9d8ee9	0.076932736
230	0xb98f9e2a	-0.00027392927
231	0xbe259242	-0.16169074
232	0xbc27c057	-0.0102387285
233	0x3ce6f615	0.028193513
234	0x3d3df85c	0.046379432
235	0x3c0ede0b	0.008719931
236	0xbd9bd559	-0.07609052
237	0x3d6cfb26	0.0578567
238	0xbd052be0	-0.032512546
239	0xbde3f24d	-0.111301996
240	0x3dd0e903	0.102006935
241	0xbd395e9c	-0.045256242
242	0xbd7e76de	-0.06212508
243	0xbca28b9e	-0.019841965
244	0xbd2a3835	-0.04155751
245	0x3d5215c1	0.051290277
246	0x3d4983f9	0.049198125
247	0x3cf53c65	0.029936025
248	0xbce3484a	-0.027744431
249	0x3d113a72	0.03545613
250	0x3d2d17cf	0.042259034
251	0xbdcd6573	-0.100291155
252	0x3d81a242	0.06329776
253	0xbb2439f8	-0.0025058966
254	0x3dc22d62	0.09481312
255	0xbd69e336	-0.05710145

base.mlp.fc.3.bias f4 [128]
0	0xbd87f819	-0.06639118
1	0x3c0f753f	0.008755981
2	0x3c07c7f1	0.008287416
3	0xbdc45a54	-0.09587541
4	0xbce875fc	-0.028376572
5	0x3c92254b	0.017840048
6	0xbd5ff60c	-0.054678008
7	0xbdbd45d4	-0.09241834
8	0xbd4481ff	-0.047975536
9	0x3d92bd86	0.07165055
10	0xbd12a2d5	-0.03579982
11	0x3ccfc592	0.025362764
12	0xbce25ced	-0.027632201
13	0xbc9d2f22	-0.019187514
14	0x3d51dbc9	0.051234994
15	0xbd73d4dd	-0.059529174
16	0xbcc4a23d	-0.024003142
17	0xbda6b15e	-0.08139299
18	0xbd5649f8	-0.052316636
19	0x3d1081d9	0.035280082
20	0xbdebde38	-0.11516994
21	0x3ca96f75	0.02068303
22	0xbb548e97	-0.0032433623
23	0xbba91c68	-0.005160857
24	0x3c11bdbb	0.008895333
25	0x3ab88158	0.0014076633
26	0x3d8206e9	0.06348974
27	0xbdb3f80f	-0.08787548
28	0xbcab2c66	-0.020895194
29	0x3d745a28	0.059656292
30	0x3d2c839c	0.0421177
31	0x3d72fcf3	0.059323262
32	0xbd97b167	-0.07406884
33	0xbd8da4c8	-0.06916195
34	0xbd249cc4	-0.040188566
35	0x3d9626ac	0.07331595
36	0xbd9464b1	-0.07245768
37	0xbd15e1a1	-0.03659213
38	0xbca2042d	-0.019777382
39	0xbd1589ee	-0.036508493
40	0xbd6d7528	-0.057973057
41	0x3d8b1c85	0.06792549
42	0xbce979b5	-0.028500417
43	0xbd11240a	-0.03543476
44	0x3cec6d28	0.028860644
45	0xbc34a337	-0.011025242
46	0xbc980a6a	-0.018559653
47	0xbd244196	-0.04010161
48	0x3c46bd45	0.012130086
49	0xbd3bfc6b	-0.04589502
50	0xbda7e7bc	-0.08198497
51	0x3d90ac67	0.07064133
52	0x3d450884	0.048103824
53	0x3d954ed5	0.07290427
54	0xbdc69671	-0.09696663
55	0xbd405122	-0.046952374
56	0x3d74c5c2	0.05975891
57	0xbb176ad0	-0.0023104437
58	0xbc08d0da	-0.008350575
59	0x3d35cd69	0.044385348
60	0x3d58ad88	0.052899867
61	0xbc247902	-0.010038616
62	0xbc187206	-0.009304529
63	0xbd7427f0	-0.0596084
64	0xbd957543	-0.072977565
65	0x3c686524	0.01418427
66	0xbae63957	-0.0017564696
67	0x3cac6bd6	0.021047514
68	0xbd5edd40	-0.05441022
69	0x3cea65a1	0.028612914
70	0x3d20604b	0.039154332
71	0xbda66a2f	-0.08125722
72	0x3aa393ba	0.0012479939
73	0xbd88cc55	-0.06679598
74	0x3cde2391	0.027116569
75	0x3c24c2f3	0.010056245
76	0xbbd844b1	-0.0065999855
77	0xbdb50abb	-0.08839937
78	0x3c9908c9	0.018680947
79	0x3d5eeb35	0.05442353
80	0x3bf11e2d	0.0073583336
81	0xbca3f289	-0.02001311
82	0xbdbdeb6c	-0.09273419
83	0xbdbc97fe	-0.09208678
84	0xbda9c211	-0.08288968
85	0x3d474690	0.048651278
86	0x3c05a3a6	0.008156693
87	0x3d67a20c	0.056551024
88	0xbd63471f	-0.05548775
89	0x397cb347	0.00024099379
90	0x3d9b7d19	0.0759222
91	0xbd87735b	-0.06613799
92	0xbc3f404d	-0.011673045
93	0x3d748aef	0.05970281
94	0x3cbc5b6e	0.022992816
95	0x3d428691	0.047491614
96	0xbbc2f8ab	-0.0059500537
97	0xb9c16cb3	-0.00036892816
98	0xbd9fd856	-0.07804935
99	0x3c0a0b5e	0.008425562
100	0xbdb531c9	-0.088473864
101	0x3c22006d	0.009887797
102	0x3c520fce	0.012821151
103	0xbd28a94c	-0.04117708
104	0xbd05d70f	-0.0326758
105	0xbcab46ea	-0.020907838
106	0xbaa9ccd4	-0.001295472
107	0xbc8de73f	-0.01732218
108	0x3d2886da	0.04114423
109	0xbda2996b	-0.079394184
110	0xbd718e72	-0.058973737
111	0xbd810a88	-0.06300837
112	0x3b365407	0.002782108
113	0xbd8490ee	-0.06472956
114	0xbd4238da	-0.0474175
115	0x3d84ce41	0.06484652
116	0x3cfb60a3	0.030685728
117	0x3b475352	0.0030414653
118	0x3b349a90	0.0027557947
119	0xbd7a9ec0	-0.061186552
120	0xbd29e7f4	-0.041480973
121	0x3d7b2b76	0.061320744
122	0x3d421160	0.04737985
123	0xbdbf6a4b	-0.09346446
124	0x3d566c37	0.052349295
125	0xbcdfb3e6	-0.027307462
126	0x3d4164ab	0.047215145
127	0xbcc63fec	-0.024200402

base.mlp.fc.5.weight f4 [128]
0	0x3f825a8d	1.0183884
1	0x3f76194b	0.96132344
2	0x3f7be9b2	0.98403466
3	0x3f7a8180	0.9785385
4	0x3f860b2f	1.0472163
5	0x3f837a7f	1.0271758
6	0x3f876a98	1.0579405
7	0x3f8945c7	1.0724419
8	0x3f8607c8	1.0471125
9	0x3f87104c	1.0551848
10	0x3f83c3b0	1.0294094
11	0x3f7ed598	0.9954467
12	0x3f849b32	1.0359862
13	0x3f85e728	1.0461168
14	0x3f818d7a	1.01213
15	0x3f87e1b6	1.0615757
16	0x3f777705	0.96665984
17	0x3f8483ba	1.03527
18	0x3f82f104	1.0229802
19	0x3f86504f	1.0493258
20	0x3f72294f	0.9459428
21	0x3f7bc68c	0.98349833
22	0x3f83292a	1.0246937
23	0x3f7ca683	0.98691577
24	0x3f8593ac	1.0435691
25	0x3f8376be	1.0270612
26	0x3f85dcff	1.0458068
27	0x3f823270	1.0171642
28	0x3f851a50	1.0398655
29	0x3f85711b	1.0425142
30	0x3f8725a4	1.0558362
31	0x3f79009f	0.9726657
32	0x3f803ae1	1.0017968
33	0x3f7689af	0.9630384
34	0x3f7a8cb4	0.97870946
35	0x3f8df6a2	1.1090891
36	0x3f7f0553	0.996175
37	0x3f7f1412	0.9964
38	0x3f7cb85b	0.98718804
39	0x3f9305e9	1.1486179
40	0x3f7ca7e8	0.98693705
41	0x3f7d832c	0.9902828
42	0x3f6f9b37	0.93596214
43	0x3f7a1c42	0.9769937
44	0x3f7c63ce	0.9858979
45	0x3f86bc5a	1.052623
46	0x3f7cd757	0.9876608
47	0x3f77d895	0.9681485
48	0x3f85ab92	1.0442984
49	0x3f78133e	0.9690436
50	0x3f6eca76	0.9327768
51	0x3f8490a7	1.0356644
52	0x3f8a0b1a	1.0784638
53	0x3f7c3102	0.9851228
54	0x3f7c5c90	0.9857874
55	0x3f8598c9	1.0437251
56	0x3f8ad90d	1.0847489
57	0x3f83770f	1.0270709
58	0x3f7ee63e	0.9957007
59	0x3f8395cc	1.0280089
60	0x3f8dfb53	1.1092323
61	0x3f758d58	0.959188
62	0x3f84f61a	1.0387604
63	0x3f79c360	0.97563744
64	0x3f7de781	0.9918137
65	0x3f8e1c3c	1.1102366
66	0x3f853af1	1.0408612
67	0x3f7e2472	0.9927436
68	0x3f8a706a	1.0815556
69	0x3f894af8	1.0726004
70	0x3f7dcf53	0.99144477
71	0x3f7e00f1	0.99220186
72	0x3f857820	1.0427284
73	0x3f82da86	1.0222938
74	0x3f884a35	1.0647646
75	0x3f76ad18	0.9635787
76	0x3f6e0d7e	0.9298934
77	0x3f87cf34	1.0610108
78	0x3f804af0	1.0022869
79	0x3f813eab	1.009725
80	0x3f8480ad	1.0351769
81	0x3f841592	1.0319083
82	0x3f819af5	1.0125414
83	0x3f84d3aa	1.0377095
84	0x3f87070a	1.0549023
85	0x3f7f56f9	0.99742085
86	0x3f8acf73	1.0844558
87	0x3f843323	1.0328106
88	0x3f8362cb	1.0264524
89	0x3f80a844	1.005135
90	0x3f787d3e	0.97066104
91	0x3f7d72b2	0.99003136
92	0x3f86122e	1.0474298
93	0x3f857515	1.0426356
94	0x3f8037ac	1.001699
95	0x3f7ad420	0.9797993
96	0x3f847734	1.0348878
97	0x3f806762	1.003155
98	0x3f7b2bcf	0.9811372
99	0x3f7e00eb	0.9922015
100	0x3f838bc9	1.0277034
101	0x3f882b06	1.063813
102	0x3f8904dd	1.0704609
103	0x3f816ccc	1.0111327
104	0x3f86462a	1.0490162
105	0x3f753423	0.9578268
106	0x3f883f47	1.0644311
107	0x3f7c202f	0.9848661
108	0x3f79748d	0.9744347
109	0x3f819425	1.0123335
110	0x3f84d4c9	1.0377437
111	0x3f842783	1.0324558
112	0x3f8103aa	1.0079243
113	0x3f8e564b	1.1120085
114	0x3f7eb6bf	0.994976
115	0x3f78a9e9	0.9713426
116	0x3f813b07	1.0096139
117	0x3f7bb5ba	0.9832417
118	0x3f830484	1.0235753
119	0x3f761213	0.9612133
120	0x3f7f96e2	0.99839604
121	0x3f79912d	0.97487146
122	0x3f86febd	1.054649
123	0x3f89d135	1.076697
124	0x3f8a864f	1.0822238
125	0x3f803b49	1.0018092
126	0x3f7ff2fc	0.9998014
127	0x3f7b92ac	0.9827068

base.mlp.fc.5.bias f4 [128]
0	0xbbb42404	-0.0054974575
1	0x3d302b0b	0.0430098
2	0x3d08d01d	0.033401597
3	0x3c86fab1	0.01647696
4	0xbc9a9d15	-0.01887373
5	0x3ca74874	0.02042029
6	0xbc81612a	-0.015793402
7	0x3a2930f5	0.00064541335
8	0xbbd95fdd	-0.0066337422
9	0xbc503cf4	-0.012709845
10	0x3c96bc32	0.018400285
11	0x3c832127	0.01600702
12	0x3cec4b6e	0.028844561
13	0xbc7659e2	-0.015036078
14	0xbb8b8c2e	-0.004258654
15	0x3b9558af	0.004557691
16	0x3cffa171	0.031204911
17	0x3c536a47	0.012903756
18	0x3c6278ca	0.013822744
19	0xbbc655e9	-0.0060527218
20	0x3d7c2645	0.061559934
21	0x3c65fd16	0.014037391
22	0x3b70625c	0.003667972
23	0xbbef6dfe	-0.0073068133
24	0xba54f99e	-0.0008124354
25	0x3c1c1be8	0.009528138
26	0xb9b252a5	-0.0003401238
27	0x3c5ffc97	0.013671062
28	0xbaaf9e3f	-0.0013398601
29	0xbb1011db	-0.00219833
30	0x3b136752	0.0022492004
31	0x3cda974b	0.02668347
32	0x3c33c348	0.010971852
33	0x3c8318cf	0.01600304
34	0x3cbdfbbf	0.023191331
35	0xbbd23add	-0.0064157085
36	0x3c78e372	0.015190946
37	0x3cbcf19f	0.023064433
38	0x3ce4799a	0.027890015
39	0x3b03c453	0.0020106032
40	0x3c8f57eb	0.017497977
41	0x3c3fa8ce	0.011697961
42	0x3d8c2c4a	0.06844385
43	0xb933f0ce	-0.00017160477
44	0xbb7d184a	-0.0038619214
45	0x3cc71209	0.024300592
46	0x3b1d808f	0.0024032926
47	0x3d529a7e	0.051416866
48	0x3c8b07eb	0.016971549
49	0x3ce2a839	0.027668105
50	0x3d0f3191	0.03495938
51	0x3abf908f	0.0014615225
52	0x3c060b92	0.0081814695
53	0xbc124b10	-0.008929029
54	0x3cc9f2d0	0.024651915
55	0x3ba72ca1	0.0051017557
56	0xbb7c008d	-0.0038452477
57	0x3c4f8841	0.012666763
58	0x3cfa17a4	0.03052885
59	0x3bb5248b	0.005528038
60	0xbc860f22	-0.016364638
61	0x3cef6c2b	0.029226383
62	0x3c314fd7	0.010822258
63	0x3cbd1853	0.023082888
64	0x3cbc8683	0.023013359
65	0xbb84c520	-0.0040518194
66	0xbb67983d	-0.0035338544
67	0x3c0b4926	0.008501327
68	0x3c634bb8	0.013873033
69	0x3b3704f0	0.0027926527
70	0x3c2dd07d	0.0106087895
71	0x3d19678e	0.037452273
72	0xbab9c614	-0.0014173412
73	0xbaed9ea0	-0.0018128939
74	0xba2b9a57	-0.0006546131
75	0x3d051216	0.03248795
76	0x3d96e6a2	0.073682085
77	0x3b8a2649	0.0042159897
78	0x3c8d2283	0.01722837
79	0x3bf8f649	0.007597719
80	0xbb6353b3	-0.003468734
81	0x3b1e8b41	0.0024191889
82	0xbcd3b47b	-0.025842896
83	0x3c038cff	0.008029222
84	0x3c676c1b	0.014124895
85	0x3cf8e10a	0.030380744
86	0xbc480953	-0.012209254
87	0x3ad01e6b	0.0015878206
88	0xbcea3de1	-0.02859396
89	0xbc2b659f	-0.01046124
90	0x3cae44f3	0.021273112
91	0x3be45556	0.0069681806
92	0xbbdf0c0d	-0.0068068565
93	0xbc8f6ca8	-0.017507866
94	0x3bcca3ae	0.006245098
95	0x3c65aa23	0.014017615
96	0xbac3295f	-0.0014889649
97	0x3baae999	0.0052158353
98	0x3ce2a28c	0.027665399
99	0x3b8fff2a	0.0043944316
100	0xbd001415	-0.03126915
101	0x3c4c56ce	0.012471868
102	0x3cb219aa	0.021740753
103	0x3cb4e9a0	0.022084057
104	0x3c85e4c8	0.016344443
105	0x3d12e573	0.03586335
106	0xba55461c	-0.0008135752
107	0x3c620309	0.013794669
108	0x3d146127	0.036225464
109	0x3b9aa5d3	0.004719475
110	0x3cd73eb8	0.026275024
111	0x3b9a16ef	0.004702441
112	0x3c90ec80	0.017690897
113	0x3a848e46	0.0010113202
114	0x3cce9606	0.025218021
115	0x3c2065c7	0.009789891
116	0x3cdcc26e	0.02694818
117	0x3c035efe	0.008018253
118	0xbb174931	-0.0023084397
119	0x3cf33290	0.029687196
120	0x3b949813	0.00453473
121	0x3ce7533b	0.02823793
122	0xbc488a08	-0.01223994
123	0x3b5bc9e1	0.0033537077
124	0xbad0e568	-0.0015937509
125	0xbc8739b8	-0.016507015
126	0xba78f651	-0.0009497153
127	0x3ca0df6b	0.019637784

rnn.gru.weight_ih_l0 f4 [384, 128]
0	0x3d34e1ef	0.04416078
1	0x3d9db6f0	0.07700908
2	0x3df81329	0.121130295
3	0xbc8dc3a7	-0.017305208
4	0x3dc71616	0.097210094
5	0xbde4cb1a	-0.11171551
6	0xbdc89cb9	-0.097955175
7	0xbccf94e6	-0.025339555
8	0xbb8ab55c	-0.0042330455
9	0xbb5a2e40	-0.0033291727
10	0x3e10ae02	0.14128879
11	0x3d21078e	0.039313845
12	0xbd04d17a	-0.032426335
13	0xbd9578b5	-0.07298414
14	0x3dab0024	0.08349636
15	0xbd56e6e9	-0.052466307
16	0x3dd1180b	0.10209664
17	0xbc5b78ac	-0.01339547
18	0xbd5b63ee	-0.053562097
19	0xbda7a732	-0.08186187
20	0x3cbbf847	0.022945536
21	0x3d69ad73	0.05705018
22	0x3d18a08a	0.037262477
23	0xbe414447	-0.18873702
24	0xbd456512	-0.04819209
25	0xbd850e74	-0.06496897
26	0xbda45d8e	-0.08025657
27	0xbd0ab88b	-0.0338674
28	0x3d32e4d6	0.043675266
29	0xbd6a6bce	-0.057231717
30	0x3da6f0be	0.08151387
31	0x3c84c6e2	0.016208116
32	0x3cdd2ed2	0.026999865
33	0x3c485754	0.012227852
34	0xbd845a81	-0.06462575
35	0xbde1dee2	-0.1102884
36	0x3d820ae7	0.06349736
37	0x3d914e51	0.07095016
38	0x3d28ef49	0.041243825
39	0x3ddfd839	0.10929913
40	0xbd8287c1	-0.06373549
41	0xbd299133	-0.04139824
42	0x3dcd1104	0.10013011
43	0x3d639bf5	0.055568654
44	0x3cab31f5	0.020897845
45	0x3dcb91c7	0.09939914
46	0x3de7d19a	0.11319275
47	0x3d0046d2	0.03131754
48	0x3dab3989	0.08360583
49	0x3db92a7f	0.090413086
50	0xbde83885	-0.11338905
51	0xbdee9793	-0.11650004
52	0x3c19aa6a	0.009379009
53	0xbd9d53d3	-0.07682004
54	0x3d85c16b	0.06531032
55	0x3cceb4b8	0.025232658
56	0x3dd4c77f	0.10389613
57	0xbd112eda	-0.03544507
58	0x3e20a844	0.15689188
59	0x3c6b93c3	0.014378491
60	0xbc865f3f	-0.016402839
61	0x3dc37508	0.09543806
62	0xbd1bf3ff	-0.03807449
63	0x3e036e63	0.12835078
64	0x3dd1f283	0.102513336
65	0xbd4cfbc1	-0.05004478
66	0x3e2b7d75	0.16747077
67	0xbd57f4b6	-0.05272361
68	0x3d380756	0.04492887
69	0xbcf3aa29	-0.029744225
70	0x3c7100c3	0.014709654
71	0x3e447f46	0.19189176
72	0x3d383864	0.044975653
73	0xbd486be2	-0.04893101
74	0xbd083628	-0.033254772
75	0x3d78a930	0.060708225
76	0xbbf681d4	-0.007522801
77	0xbd8ff88a	-0.07029827
78	0x3cbf0056	0.02331559
79	0xbdba7f84	-0.09106353
80	0xbd2fa7fa	-0.042884804
81	0xbcff1618	-0.031138465
82	0x3dabf9cb	0.083972536
83	0x3c79b8bd	0.015241799
84	0xbc4d9625	-0.012548004
85	0x3d2ec90a	0.042672195
86	0x3d9c370f	0.07627689
87	0x3bb99875	0.0056639262
88	0xbe0f221c	-0.13977855
89	0x3d06ef2f	0.032942947
90	0xbdf01797	-0.117232494
91	0xbe118a63	-0.14212947
92	0x3d11a387	0.035556342
93	0xbd35cf30	-0.044387043
94	0x3e2d051e	0.16896483
95	0xba8905a5	-0.0010453953
96	0x3c6346ab	0.013871829
97	0xbd6e74fd	-0.058217037
98	0x3dbd1fbd	0.09234569
99	0xbcfa9a77	-0.030591233
100	0xbd894d1a	-0.06704159
101	0x3d86f900	0.06590462
102	0x3c51cfd3	0.012805897
103	0xbcf541ee	-0.029938664
104	0xbe08a598	-0.13344419
105	0xbb9bec36	-0.004758383
106	0x3de3aec1	0.11117316
107	0xbd3459c0	-0.044030905
108	0x3db26c16	0.08712022
109	0xbdffc7f9	-0.12489314
110	0x39332ac3	0.000170867
111	0xbcb6d118	-0.0223165
112	0x3dced50f	0.100992315
113	0x3d0fc38f	0.03509861
114	0x3c80b4a7	0.015711142
115	0xbe045f41	-0.12926961
116	0x3ce78dbb	0.028265825
117	0x3d3e5d61	0.04647577
118	0xbd90cc08	-0.07070166
119	0xbbbde247	-0.0057947966
120	0xbe0530ea	-0.1300694
121	0x3d01002b	0.0314943
122	0x3d8f6fc4	0.070037395
123	0x3dbd6442	0.09247638
124	0xbdadd90a	-0.084886625
125	0x3d7957c0	0.0608747
126	0xbbb599d0	-0.0055420175
127	0x3cf10aa8	0.029424027
128	0x3dbf02b4	0.093266875
129	0x3e0981d3	0.1342843
130	0x3db3cac6	0.0877891
131	0x3ddeb792	0.10874857
132	0xbcf7ee66	-0.030265044
133	0xbc30a6d1	-0.01078196
134	0x3dcfc963	0.10145833
135	0xbda31866	-0.07963638
136	0xbdafa218	-0.08575839
137	0x3d3dd4c5	0.04634549
138	0x3da663d9	0.08124513
139	0x3ddd9d2c	0.10820994
140	0x3cf9b580	0.030482054
141	0xbdc57c3a	-0.09642835
142	0x3b3a4fb0	0.0028428845
143	0xbd1cdcaa	-0.03829638
144	0x3d9efc0c	0.07762918
145	0x3b9b05fe	0.004730939
146	0xbd436f06	-0.047713302
147	0xbd0b8b67	-0.03406849
148	0x3d0a94a4	0.03383316
149	0x3d3081ef	0.043092664
150	0xbd0a0fce	-0.03370648
151	0xbd82b652	-0.06382431
152	0xbd389d25	-0.04507174
153	0x3ccbbee0	0.02487129
154	0x3ceb7540	0.028742433
155	0x3d2ad24a	0.041704454
156	0xbc990a9a	-0.018681813
157	0xbbd2b5d5	-0.0064303675
158	0x3d937086	0.071991965
159	0x3ca7fcb2	0.020506237
160	0xbd85bd61	-0.06530262
161	0xbbce0e16	-0.0062883003
162	0xbd9d589f	-0.07682919
163	0xbd89f569	-0.067362614
164	0x3da617f0	0.081100345
165	0x3dab2dba	0.08358331
166	0x3d3e559c	0.046468362
167	0xbcca50b5	-0.024696687
168	0x3d49e6d5	0.049292404
169	0x3ccb1780	0.02479148
170	0xbd200e4d	-0.03907614
171	0x3d812c2c	0.06307253
172	0x3dd8c7fe	0.105850205
173	0x3a40a2e8	0.00073484937
174	0x3ca4cf8e	0.020118501
175	0xbcc4dfcd	-0.024032498
176	0x3da2c03f	0.07946824
177	0x3d1bc3be	0.03802847
178	0xbc947791	-0.01812342
179	0x3d76a6f1	0.0602178
180	0x3dc4f54b	0.096170984
181	0xbe00a312	-0.12562206
182	0xbcfa9db6	-0.03059278
183	0x3dee2016	0.11627214
184	0x3e2d43d7	0.1692041
185	0x3d0f4ed9	0.034987304
186	0x3dda594a	0.10661562
187	0x3d92f274	0.071751505
188	0x3d875f57	0.066099815
189	0xbbd3fa30	-0.0064690337
190	0xbdd7bed2	-0.10534443
191	0x3cdbe34d	0.026841784
192	0xbcc86126	-0.024460386
193	0x3cc5cd81	0.024145843
194	0x3c3bd5fa	0.01146459
195	0xbce19c5e	-0.027540382
196	0x3d2fe629	0.042944107
197	0xbe292e4c	-0.16521567
198	0x3d69cbd7	0.057079162
199	0xbd11c616	-0.0355893
200	0x3da7580c	0.081710905
201	0xbd8c8940	-0.06862116
202	0xbbbfed5d	-0.0058571533
203	0x3db7f026	0.089813516
204	0x3dc1f96e	0.09471403
205	0x3a9b3d1e	0.0011843776
206	0x3dab03ce	0.08350335
207	0x3da0cde7	0.07851773
208	0x3c9f9af9	0.019483076
209	0xbd022726	-0.031775616
210	0xbd963cfe	-0.07335852
211	0x3d07a9a8	0.03312078
212	0xbbcad530	-0.0061899647
213	0x3ce6906e	0.028145041
214	0xb98749f4	-0.00025804306
215	0xbbc83f90	-0.006111093
216	0x3d379a3a	0.044824816
217	0x3b19e686	0.002348335
218	0x3d5d5dcf	0.05404454
219	0xbdedfba3	-0.116202615
220	0xbd4b404a	-0.049621858
221	0xbe24ebcd	-0.16105576
222	0x3d8249f9	0.063617654
223	0xbd5f70fe	-0.054551117
224	0x3da7988e	0.08183394
225	0x3e126665	0.14296873
226	0x3d633e37	0.055479255
227	0xbd292857	-0.041298237
228	0xbdf58fb0	-0.11990297
229	0xbccbc695	-0.024874965
230	0x3ced3a2a	0.028958399
231	0xbd0213b9	-0.03175709
232	0xbcbdf637	-0.023188693
233	0xbcbfd563	-0.02341718
234	0xba6ea618	-0.00091037294
235	0x3ca7ce02	0.020483974
236	0x3d932e9a	0.07186623
237	0xbdb7abc7	-0.08968311
238	0x3c4ef36b	0.012631278
239	0xbd9dc1a4	-0.0770295
240	0xbc637b26	-0.013884341
241	0xbda6a167	-0.08136254
242	0x3d9ad433	0.07560005
243	0x3defe04b	0.11712702
244	0x3d0802f4	0.03320594
245	0xbcda7493	-0.026666915
246	0x3d25045a	0.040287353
247	0xbd1fda6e	-0.03902667
248	0xbc3911fa	-0.01129579
249	0x3d379da4	0.044828072
250	0x3df441fa	0.119266465
251	0xbd3cb785	-0.046073455
252	0x3de40564	0.11133841
253	0x3db2219f	0.08697819
254	0xbd9e0237	-0.07715266
255	0x3b60a4f4	0.0034278007

rnn.gru.weight_hh_l0 f4 [384, 128]
0	0x3d7839fc	0.060602173
1	0xbaae0724	-0.0013277275
2	0xbd2dac2f	-0.042400535
3	0x3e18253e	0.14857957
4	0x3d6e2f3f	0.058150526
5	0x3e126967	0.1429802
6	0xbe26ca46	-0.16288099
7	0xbc421576	-0.011845937
8	0x3cabbfd9	0.020965504
9	0xbe2e682e	-0.17031929
10	0xbd423fac	-0.047424003
11	0x3e200546	0.15627012
12	0xbba71ee9	-0.0051001203
13	0x3d20c9f2	0.03925509
14	0x3df1eabd	0.11812351
15	0x3d810314	0.06299415
16	0x3d80dea4	0.06292465
17	0x3dd42bad	0.10359893
18	0xbddcfc05	-0.107902564
19	0xbda52d7c	-0.08065316
20	0x3e08241a	0.13295022
21	0xbd01ae0c	-0.031660125
22	0xbd2b861f	-0.041875955
23	0xbe07b0f7	-0.132511
24	0xbe153bcb	-0.1457359
25	0xbd3f9f7e	-0.046782963
26	0x3e00ca73	0.12577228
27	0xbe4656e1	-0.19369079
28	0xbcb32b7e	-0.021871325
29	0x3d126266	0.03573837
30	0x3ddcd042	0.107819095
31	0x3d8304ff	0.06397437
32	0xbdb3ab57	-0.08772915
33	0x3e19e2cc	0.15027922
34	0xbdbbdd5a	-0.09173079
35	0x3d6b04ff	0.05737781
36	0x3d49c9f2	0.049264856
37	0x3bb2d99f	0.0054580714
38	0xbdb06d73	-0.08614626
39	0x3d7186ee	0.05896657
40	0xbceba8c5	-0.028766999
41	0x3bcedc54	0.0063128863
42	0x3bc2773f	0.0059346254
43	0xbd4e3100	-0.0503397
44	0xb7e9b7df	-2.7861386e-05
45	0xbcbe9ada	-0.023267198
46	0xbd33c8cb	-0.043892663
47	0xbd6208ff	-0.05518436
48	0xbd78f146	-0.06077697
49	0xbd6efd77	-0.05834719
50	0x3d5d83cb	0.054080766
51	0x3d09ae9f	0.033613797
52	0xbc1a3d00	-0.009413958
53	0xbd938eb8	-0.07204956
54	0x3da693ff	0.08133697
55	0x3d6411af	0.055680927
56	0x3b4bef4a	0.003111797
57	0xbd7dedb7	-0.06199428
58	0xbdc5d482	-0.09659673
59	0xbd3a2391	-0.045444075
60	0x3d6d4244	0.057924524
61	0x3dc3ce41	0.09560824
62	0x3d9d7cfd	0.07689855
63	0x3ccf58a8	0.02531083
64	0x3d2e4bec	0.042552873
65	0xbd14c87e	-0.036324017
66	0x3e0d0ac3	0.13773637
67	0xbddd2c60	-0.107994795
68	0x3def4f26	0.11685018
69	0xbd41dc03	-0.04732896
70	0x3db034a9	0.08603794
71	0xbdbd8629	-0.09254105
72	0x3dd701ff	0.104984276
73	0x3d39633c	0.045260653
74	0xbc701c6e	-0.014655216
75	0xbd82aabc	-0.06380221
76	0xbdad02c9	-0.08447797
77	0xbdca0a5f	-0.098652594
78	0xbc54e0cb	-0.012993048
79	0xbd229ec2	-0.039702184
80	0xbcf5f882	-0.030025724
81	0x3e206bbb	0.15666096
82	0x3d29b1bc	0.041429266
83	0x3e0301e4	0.1279369
84	0xbc8da0c4	-0.017288573
85	0x3c5d6396	0.013512513
86	0xbd99bc9b	-0.07506677
87	0x3d08b9d6	0.033380352
88	0xbdaba73d	-0.083815075
89	0xbd97dd93	-0.07415309
90	0x3dc8e63c	0.09809539
91	0xbd17b43a	-0.03703711
92	0xbbf73952	-0.007544675
93	0x3dcd7993	0.10032954
94	0xbd4ec43a	-0.050480105
95	0x3d6cb518	0.057789892
96	0x3d4732bc	0.04863237
97	0xbc03510a	-0.008014927
98	0x3d9afceb	0.075677715
99	0x3d94d8a8	0.072678864
100	0xbd075125	-0.03303637
101	0x3caa00fa	0.020752419
102	0x3c4eefd7	0.012630424
103	0xbcee3dcf	-0.029082207
104	0xbdcba814	-0.09944168
105	0x390efcc9	0.00013636345
106	0xbd4a8744	-0.049445406
107	0x3e21984a	0.1578075
108	0x3d9331d6	0.0718724
109	0x3ddf5b00	0.10906029
110	0x3b2f33bb	0.0026733715
111	0x3d3461cd	0.044038583
112	0x3e095a29	0.134133
113	0x3c9b77dc	0.018978052
114	0xbd03240b	-0.032016795
115	0xbde51359	-0.11185331
116	0x3d2ac9b6	0.041696273
117	0xbdcb3943	-0.09923031
118	0xbd0a050e	-0.033696227
119	0x3da614ce	0.08109437
120	0xbd9be3b0	-0.07611787
121	0x3d73b9c2	0.059503324
122	0xbd801cba	-0.06255479
123	0x3d50da35	0.05098935
124	0xba5a145c	-0.0008319074
125	0x3dc757b3	0.09733524
126	0xbd525db1	-0.051358882
127	0x3e1dec21	0.15422107
128	0xbc9caff3	-0.019126868
129	0x3d4dd66d	0.05025332
130	0x3c7d1d26	0.015448844
131	0x3d05aba7	0.032634404
132	0xbdca423c	-0.098759145
133	0x3c3d6156	0.011558851
134	0x3c1c7391	0.009549038
135	0xbd70f9ac	-0.058831856
136	0x3d7a1550	0.06105548
137	0x3cc8e3fd	0.024522776
138	0x3cdb7474	0.026788928
139	0x3e301e0a	0.17198959
140	0x3ce04116	0.027374785
141	0xbd147395	-0.03624304
142	0x3a76121a	0.00093868526
143	0x3cf848b9	0.030308114
144	0x3cb4760d	0.022028947
145	0xbc5d45bc	-0.0135053955
146	0xbda38d10	-0.0798589
147	0xbd09925c	-0.033586845
148	0xbd8ce726	-0.068800256
149	0x3dae59e9	0.08513243
150	0xbd8e8173	-0.06958284
151	0xbd5e879c	-0.054328546
152	0x3d774b50	0.060374558
153	0xbc10c9de	-0.008837191
154	0x3bff2137	0.007785942
155	0x3d09e43a	0.03366492
156	0x3d7554f8	0.059895486
157	0x3c909faf	0.017654268
158	0x3dc592d1	0.09647144
159	0x3d4962d2	0.049166508
160	0x3cd022cd	0.02540722
161	0x3ca4000a	0.02001955
162	0x3d4882ec	0.04895298
163	0xbc605a4f	-0.013693406
164	0x3db5c82d	0.08876071
165	0x3dabccdb	0.083886825
166	0xbdd16362	-0.10224034
167	0x3dfe97cd	0.124312975
168	0x3d283fab	0.041076344
169	0xbd43f1f2	-0.04783816
170	0xbc0b37e7	-0.008497215
171	0x3cf81f0c	0.030288242
172	0x3d61c3da	0.05511842
173	0x3e1f4c32	0.1555641
174	0x3e0173fb	0.126419
175	0x3c6410c3	0.013920012
176	0x3c2d0a53	0.0105615435
177	0x3d32d069	0.043655787
178	0x3cef2363	0.029191678
179	0x3d2d1e46	0.0422652
180	0x3d67e370	0.056613386
181	0x3dd23790	0.10264504
182	0x3e027ce0	0.12742949
183	0xbb254703	-0.0025219328
184	0xbd943580	-0.07236767
185	0xbb24d05d	-0.0025148608
186	0x3d677837	0.05651113
187	0xbd0c52fa	-0.03425882
188	0x3d126ac1	0.03574634
189	0xbcd56f8d	-0.026054168
190	0xbcc7dddc	-0.024397783
191	0xbddd2122	-0.10797335
192	0xbdab121f	-0.08353066
193	0x3b760bc3	0.0037543632
194	0x3d510b65	0.051036257
195	0xbd8c7a16	-0.068592235
196	0x3cde0911	0.027103933
197	0xbdcb3e20	-0.09923959
198	0xbcd3da5e	-0.025860962
199	0x3c7a53c5	0.015278761
200	0x3d93fa2e	0.07225452
201	0x3ae4caf8	0.0017455509
202	0x3b2470d1	0.0025091658
203	0xbcd64a54	-0.02615849
204	0x3c477da5	0.012175952
205	0x3cc3fddf	0.023924766
206	0xbb33bd84	-0.0027426193
207	0xbc7d45c0	-0.015458524
208	0x3dc17a36	0.09447138
209	0xbda0faa5	-0.07860307
210	0xbbe95bbd	-0.0071215318
211	0x3c0c4d9e	0.008563427
212	0xbdad60d2	-0.08465733
213	0x3df663e6	0.12030773
214	0x3dd5ce1e	0.10439704
215	0x3d2658b1	0.040611926
216	0x3bfd79ac	0.0077354517
217	0x3c30f20b	0.010799895
218	0xbe3cf78b	-0.18453805
219	0xbe1972dc	-0.14985222
220	0x3d9a6625	0.07539014
221	0x3da2ede5	0.07955531
222	0xbd7c16d8	-0.061545223
223	0xbbb9fa74	-0.0056756083
224	0xbd89ec4c	-0.06734523
225	0xbde4f6b9	-0.11179871
226	0xbcc35d61	-0.023848237
227	0x3d49c7eb	0.049262922
228	0xbdeeb2ba	-0.11655183
229	0xbdfcf060	-0.123505354
230	0x3da12e5a	0.07870169
231	0xbb7db20b	-0.0038710858
232	0xbd529ca2	-0.051418908
233	0xbce67780	-0.028133154
234	0xbdf6895a	-0.120379165
235	0xbdd5dd69	-0.10442621
236	0x3d210408	0.039310485
237	0xbcdba542	-0.0268122
238	0x3e1bdf1c	0.15221828
239	0xbd8395eb	-0.06425079
240	0xbbce366b	-0.006293108
241	0xbda53e2f	-0.08068501
242	0x3c58d4df	0.013234346
243	0x3d0a3811	0.033744875
244	0xbde649b8	-0.112445295
245	0x3ca24be4	0.019811578
246	0xbd92129c	-0.07132456
247	0x3de429e7	0.11140805
248	0xbdffbdc1	-0.124873646
249	0x3cd63dd8	0.026152536
250	0xbd216a45	-0.039407987
251	0xbd3ef268	-0.046617895
252	0x3c06e750	0.00823386
253	0x3e0effed	0.13964815
254	0x3da080d6	0.078370735
255	0xbd6dfddf	-0.05810344
