scripts/results/SingleCombat/1v1/NoWeapon/Selfplay/ppo/v1_selfplay_from_baseline/run3/actor_580.pt (torch, 696704 bytes, 30 tensors)

base.mlp.fc.0.weight f4 [128, 15]
0.13440813 -0.16909277 -0.076576084 0.27967525 -0.2372713 0.17227769 -0.021181723 0.16149262
0.05472345 -0.031637672 0.0051246635 -0.02729725 0.1066698 -0.09980132 -0.0013206673 0.019737277
0.01931085 -0.028494475 0.32254526 0.10514593 -0.08000442 -0.021375066 -0.054750618 -0.097932175
-0.01981627 -0.18607624 0.19570099 0.17086971 -0.2377903 0.09759769 0.03563218 0.29445347
0.15319659 -0.30140504 -0.2863564 -0.15566126 0.18802829 0.026509546 0.080149226 -0.22346658
0.5421379 -0.23269081 0.17623328 -0.014845653 -0.15244958 0.16048129 -0.14299554 0.118160255
0.15026724 -0.010376293 -0.23589568 -0.10031799 0.11875124 -0.054542884 0.22422993 0.15931205
-0.028578606 -0.17496723 0.21772261 0.07001878 -0.19190729 0.15232798 0.11668751 0.18827938
-0.15840137 -0.061593108 -0.022202877 -0.028409086 -0.21218611 -0.20333523 0.15560476 -0.06984178
0.10260132 -0.01176684 0.05366329 0.073310934 0.057500664 0.13671908 -0.31056708 0.13248725
-0.19432479 -0.33890316 0.30959216 -0.06050311 0.17412688 -0.15892288 -0.26912153 0.17924657
0.043832853 0.13859954 0.08656064 -0.28663749 0.07652794 -0.06509459 -0.16619007 -0.12353153
-0.055236198 0.069570914 -0.110235184 -0.052264027 0.340538 -0.08664626 0.14228842 0.12257783
-0.17158416 -0.22223186 0.31234542 -0.046698797 0.33500394 0.040019184 0.07284485 0.25177535
0.32509446 -0.18193386 -0.01085125 0.3432868 0.20359518 0.15698417 -0.20559949 -0.14766957
-0.16153032 0.01415854 0.23612969 -0.23430407 0.13044888 -0.13442111 -0.3989758 -0.24391867
0.1599996 0.25001803 -0.16395232 0.07891099 0.2063734 0.24326587 0.11922509 0.18629187
0.24197027 0.04265692 -0.308125 -0.22697681 -0.13428795 0.001290266 -0.2968557 0.07696137
0.079687536 -0.14749208 0.09933174 0.073709436 0.18239303 0.12824626 -0.089013346 0.22974858
-0.07310034 -0.03592917 -0.25338018 -0.1661389 -0.057948016 -0.12762061 0.18065836 -0.11784046
-0.20924993 0.08058378 0.09154772 0.18821307 -0.106505916 0.053614266 -0.08185481 -0.09191592
-0.19385691 -0.119252495 -0.08072572 0.0108853085 0.0012421431 0.06330432 0.25476262 0.35151437
0.14256468 0.057481423 -0.18370216 0.1927773 0.021589225 -0.10753486 -0.19936256 -0.1723011
-0.11809374 0.3052435 -0.33359718 -0.24976073 0.054093406 -0.060696952 0.07690567 -0.27280796
-0.0692353 0.13049306 0.2221868 -0.18728349 0.21073245 0.19727169 0.2579823 -0.17957851
0.06932878 -0.09291708 0.1564436 -0.09267445 0.16427314 -0.10506765 -0.051881853 -0.0046149003
0.0501282 0.120832264 0.04346059 0.06839008 -0.3267219 0.22623307 0.22245425 0.22102435
0.24088837 -0.35061508 -0.08947554 0.17867106 -0.17232528 0.26445132 -0.19620925 -0.24651816
0.17551291 -0.21138176 -0.11748848 0.1982811 0.28657067 0.23107384 -0.06135286 -0.2409657
0.4371357 -0.06135894 -0.07709522 0.06514437 -0.28395325 0.13337155 0.09612608 -0.15815857
-0.19832632 -0.051499736 0.13983451 -0.04106299 -0.14484495 0.0033994487 -0.3137745 -0.09625951
-0.17722462 0.13695805 0.24064954 -0.090149246 0.018588193 0.14504233 0.046444356 -0.14019343
00000000: 49a2 093e a826 2dbe ecd3 9cbd 9831 8f3e
00000010: 3ff7 72be 9069 303e 4b85 adbc 525e 253e
00000020: b225 603d 8196 01bd cbec a73b 7c9e dfbc
00000030: b275 da3d a264 ccbd 3e1a adba 12b0 a13c
00000040: ca31 9e3c 3f6d e9bc a724 a53e c056 d73d
00000050: 5bd9 a3bd c31a afbc 2f42 60bd aa90 c8bd
00000060: bb55 a2bc c58a 3ebe d765 483e 78f8 2e3e
00000070: 4d7f 73be 4ce1 c73d 0cf3 113d 9bc2 963e
00000080: 91df 1c3e c351 9abe 4e9d 92be aa65 1fbe
00000090: 7d8a 403e 8c2a d93c 4725 a43d 6cd4 64be
000000a0: 8dc9 0a3f 8046 6ebe 7f76 343e 2f3b 73bc
000000b0: be1b 1cbe 3555 243e 6c6d 12be 01fe f13d
000000c0: a8df 193e 5401 2abc a38e 71be 8573 cdbd
000000d0: da33 f33d 5c68 5fbd 889c 653e b322 233e
000000e0: ae1d eabc 9c2a 33be adf2 5e3e 0266 8f3d
000000f0: 5883 44be defb 1b3e dcf9 ee3d 4fcc 403e
00000100: f833 22be 0e49 7cbd cfe2 b5bc 2cba e8bc
00000110: 5147 59be 1c37 50be db56 1f3e 3509 8fbd
00000120: a420 d23d b4c9 40bc 0ace 5b3d 0b24 963d
00000130: d185 6b3d 1600 0c3e a602 9fbe bdaa 073e
00000140: 14fd 46be b784 adbe dd82 9e3e 1cd2 77bd
00000150: 514e 323e aebc 22be 4cca 89be 6a8c 373e
00000160: 148a 333d 0aed 0d3e b446 b13d 26c2 92be
00000170: aeba 9c3d 5050 85bd bb2d 2abe 19fe fcbd
00000180: 5a3f 62bd 327b 8e3d fcc2 e1bd ce12 56bd
00000190: ff5a ae3e 9873 b1bd 0eb4 113e 160a fb3d
000001a0: c2b3 2fbe c090 63be bdeb 9f3e 3d47 3fbd
000001b0: a385 ab3e 28eb 233d ae2f 953d b3e8 803e
000001c0: c872 a63e df4c 3abe 71c9 31bc 4ac3 af3e
000001d0: 417b 503e 75c0 203e ac88 52be b136 17be
000001e0: 3468 25be 39f9 673c fbcb 713e 68ed 6fbe
000001f0: 6494 053e b0a5 09be 8e46 ccbe d1c5 79be
00000200: efd6 233e 5d02 803e 1ee3 27be 169c a13d
00000210: 8c53 533e b01a 793e 492c f43d 4cc3 3e3e
00000220: 0ec7 773e 06b9 2e3d 8fc2 9dbe 9c6c 68be
00000230: c882 09be 251e a93a 78fd 97be ec9d 9d3d
00000240: 3833 a33d 2a08 17be 706e cb3d f9f4 963d
00000250: 3dc5 3a3e fd52 033e a14c b6bd 3643 6b3e
00000260: a2b5 95bd 772a 13bd 0cbb 81be 5120 2abe
00000270: e65a 6dbd faae 02be 81fe 383e 5756 f1bd
00000280: 9d45 56be 1c09 a53d 5f7d bb3d edba 403e
00000290: c61f dabd a29a 5b3d 7fa3 a7bd 6a3e bcbd
000002a0: 6d82 46be a73a f4bd 8753 a5bd 4b58 323c
000002b0: 68cf a23a b2a5 813d 3f70 823e b1f9 b33e
000002c0: 7afc 113e a471 6b3d 6b1c 3cbe 6a67 453e
000002d0: e3db b03c 3d3b dcbd b325 4cbe b36f 30be
000002e0: 21db f1bd e048 9c3e 40cd aabe 47c1 7fbe
000002f0: 0c91 5d3d 5e9d 78bd b880 9d3d 7cad 8bbe
00000300: 3dcb 8dbd f99f 053e f084 633e 3ec7 3fbe
00000310: 3fca 573e 9701 4a3e 4216 843e 6ee3 37be
00000320: 3ffc 8d3d 4f4b bebd c032 203e 1acc bdbd
00000330: 3837 283e b52d d7bd 1182 54bd 9738 97bb
00000340: 3a53 4d3d e876 f73d bb03 323d 1910 8c3d
00000350: 1848 a7be a4a9 673e 0ccb 633e 3554 623e
00000360: 71ab 763e d283 b3be f43e b7bd 8cf5 363e
00000370: 0a76 30be 2a66 873e 14eb 48be 426f 7cbe
00000380: a8b9 333e 7674 58be cd9d f0bd 330a 4b3e
00000390: 64b9 923e 9f9e 6c3e 234d 7bbd b6bf 76be
000003a0: 40d0 df3e 8353 7bbd 19e4 9dbd 696a 853d
000003b0: 5262 91be 8d92 083e c0dd c43d 52f4 21be
000003c0: 0e16 4bbe 63f1 52bd c730 0f3e aa31 28bd
000003d0: 3c52 14be 49c9 5e3b 0da7 a0be b523 c5bd
000003e0: 5f7a 35be bb3e 0c3e d56c 763e 2ba0 b8bd
000003f0: 4446 983c fa85 143e 703c 3e3d de8e 0fbe

base.mlp.fc.0.bias f4 [128]
-0.08280064 -0.20122558 0.038477045 -0.09147085 -0.23223874 -0.030349197 -0.21345195 0.12038904
-0.16440068 -0.095654525 -0.26335776 -0.030374985 -0.010087629 0.14302014 -0.060069703 0.15931061
0.22776058 0.03871197 -0.11843434 -0.1909174 -0.15919407 -0.10837111 -0.11872947 0.14320718
-0.078287795 -0.020180088 0.0020269703 -0.23258948 0.22519888 -0.100879066 -0.23150924 -0.019109748
-0.2534864 0.011573699 -0.1876634 -0.029429926 -0.09706891 0.1541053 0.18997395 0.23307855
0.061290417 0.14149836 -0.22663864 -0.18948466 0.11956342 0.05088077 0.083089925 0.16580813
0.15431409 0.089686505 -0.11306155 -0.07057927 0.084200144 0.19775839 -0.036447156 -0.092682056
0.14958918 0.14229234 -0.0217638 -0.06629031 -0.21539159 -0.0017464187 0.06310236 -0.22563626
-0.2025737 -0.253944 0.15596724 0.2516115 0.25426903 0.2142688 -0.027308667 0.06353882
0.16858266 -0.095646314 -0.14189643 0.16338852 0.027904455 0.13789661 -0.13016583 -0.16348022
0.004548306 0.04243419 0.13792175 0.18269747 -0.07540292 0.25607502 -0.1545647 -0.036958188
-0.13686205 0.053034168 0.21000955 -0.22954318 0.045974884 -0.21255882 -0.027507544 -0.11839622
0.0046820096 -0.18203242 0.040178325 -0.2302563 0.06077804 -0.121520996 -0.20878106 0.1686368
-0.016477006 -0.13842964 -0.12349051 -0.1254931 -0.13823265 0.010359767 -0.015082273 0.17935298
0.028925579 -0.10386717 0.1886783 0.07540227 -0.061247364 0.16686507 0.23863618 -0.2331434
-0.20825192 -0.202181 -0.23358813 -0.10984553 0.13620684 -0.25904945 -0.28812477 -0.15172221
00000000: 6293 a9bd 140e 4ebe 1b9a 1d3d 1255 bbbd
00000010: fecf 6dbe e19e f8bc 2693 5abe 878e f63d
00000020: a758 28be 85e6 c3bd d4d6 86be f6d4 f8bc
00000030: 9546 25bc df73 123e a60b 76bd 5222 233e
00000040: 123a 693e 7190 1e3d b48d f2bd da7f 43be
00000050: c503 23be acf1 ddbd 7028 f3bd e7a4 123e
00000060: 5a55 a0bd b650 a5bc ebd6 043b f02b 6ebe
00000070: 899a 663e af99 cebd c210 6dbe 0c8c 9cbc
00000080: f8c8 81be 9d9f 3d3c d62a 40be 0717 f1bc
00000090: 11cc c6bd c8cd 1d3e 8888 423e 25ac 6e3e
000000a0: a90b 7b3d f2e4 103e f613 68be 4408 42be
000000b0: abdd f43d 5b68 503d 0d2b aa3d 9bc9 293e
000000c0: 8304 1e3e 8fad b73d d08c e7bd dd8b 90bd
000000d0: 2071 ac3d 2d81 4a3e 9d49 15bd 17d0 bdbd
000000e0: e82d 193e 15b5 113e ff49 b2bc 37c3 87bd
000000f0: 9d8f 5cbe 16e8 e4ba cf3b 813d 310d 67be
00000100: 7b6f 4fbe f304 82be e0b5 1f3e 39d3 803e
00000110: 8d2f 823e 4869 5b3e 6db6 dfbc a420 823d
00000120: efa0 2c3e 37e2 c3bd 4c4d 11be 524f 273e
00000130: e297 e43c c534 0d3e 314a 05be 5c67 27be
00000140: f509 953b 79cf 2d3d 5c3b 0d3e 0c15 3b3e
00000150: d96c 9abd 441c 833e 3546 1ebe 7861 17bd
00000160: 9125 0cbe 5b3a 593d be0c 573e 5e0d 6bbe
00000170: 2950 3c3d 05a9 59be 8057 e1bc b879 f2bd
00000180: 8b6b 993b b566 3abe 0792 243d 4fc8 6bbe
00000190: 65f2 783d 00e0 f8bd b4ca 55be 20af 2c3e
000001a0: c9fa 86bc 80c0 0dbe 98e8 fcbd 4381 00be
000001b0: dc8c 0dbe 03bc 293c a31b 77bc 4fa8 373e
000001c0: 56f5 ec3c 50b8 d4bd e234 413e 816c 9a3d
000001d0: 84de 7abd adde 2a3e 0b5d 743e 25bd 6ebe
000001e0: fe3f 55be 8908 4fbe ba31 6fbe b1f6 e0bd
000001f0: ce79 0b3e 21a2 84be 1785 93be 115d 1bbe

base.mlp.fc.2.weight f4 [128]
1.0572741 1.0432863 1.0575341 0.97083604 0.964794 0.99165946 1.0032449 1.0056335
1.0130783 1.0255631 0.97248995 0.9501358 0.9726316 0.94801116 1.0213861 1.0064554
0.96469945 1.0132614 1.0467968 1.0383457 0.93121314 0.96104336 0.9715582 1.0853394
1.0326049 1.0407069 1.0524611 0.98568547 1.0224361 1.0229017 0.9712065 1.0405176
0.97113246 0.98625034 0.952364 0.9914232 1.1159579 0.97079873 1.1510737 1.0156991
1.0239103 0.96633834 1.0284925 1.0017453 0.927684 1.0027394 0.95092696 1.0196165
1.0459467 1.0156273 0.99470884 0.9821447 1.0344263 1.0255163 0.96462494 0.95779383
0.96124566 0.9621278 0.97980285 1.042324 1.1030662 0.9781808 1.00278 0.9825599
1.0170968 1.0228231 0.88398254 0.9895609 1.0103636 1.0518416 0.9436921 0.9786335
1.0532697 1.0414873 1.142094 0.9857927 0.95359933 0.98146206 1.0437741 0.997734
0.96146756 1.0091764 0.9993926 1.0551567 0.9826454 1.0076182 0.97696817 0.93236643
1.0063945 1.0609907 1.004841 0.99112445 0.9862242 0.97624004 0.9747659 1.0181684
1.0090362 0.959284 1.0371498 0.94673795 0.9937564 0.9757102 0.95357233 0.9753035
0.95062023 0.9692602 0.9914486 0.9965604 1.0328099 1.0883156 0.98091537 0.99415165
1.0660931 0.93330884 0.95244503 0.939921 1.091618 1.0056202 0.96407646 0.97931653
1.0033933 0.96046275 0.90067244 1.0044314 0.93418944 0.9479887 0.9739665 1.0274863
00000000: c254 873f 688a 853f 475d 873f b688 783f
00000010: bdfc 763f 65dd 7d3f 546a 803f 99b8 803f
00000020: 8dac 813f a745 833f 1af5 783f 1a3c 733f
00000030: 62fe 783f dcb0 723f c8bc 823f 88d3 803f
00000040: 8bf6 763f 8db2 813f 70fd 853f 83e8 843f
00000050: fc63 6e3f f006 763f 0ab8 783f 67ec 8a3f
00000060: 662c 843f e235 853f 0cb7 863f e255 7c3f
00000070: 30df 823f 71ee 823f fda0 783f ae2f 853f
00000080: 239c 783f e77a 7c3f 21ce 733f e9cd 7d3f
00000090: b5d7 8e3f 4486 783f 6256 933f 6e02 823f
000000a0: 7e0f 833f f361 773f a4a5 833f 3139 803f
000000b0: b37c 6d3f c459 803f f36f 733f cb82 823f
000000c0: 95e1 853f 1300 823f 3da5 7e3f d66d 7b3f
000000d0: 1568 843f 1e44 833f a9f1 763f fa31 753f
000000e0: 3214 763f 024e 763f 5cd4 7a3f df6a 853f
000000f0: 4631 8d3f 0f6a 7a3f 185b 803f 0c89 7b3f
00000100: 3a30 823f deeb 823f ae4c 623f dd53 7d3f
00000110: 9853 813f bfa2 863f ce95 713f ba87 7a3f
00000120: 8bd1 863f 754f 853f 2330 923f e95c 7c3f
00000130: 161f 743f 1941 7b3f 649a 853f 7f6b 7f3f
00000140: bd22 763f b12c 813f 32d8 7f3f 600f 873f
00000150: a68e 7b3f a2f9 803f 961a 7a3f 91af 6e3f
00000160: 89d1 803f 8bce 873f a19e 803f 55ba 7d3f
00000170: 3079 7c3f deea 793f 428a 793f 5853 823f
00000180: 1928 813f a393 753f 53c1 843f 6b5d 723f
00000190: d266 7e3f 25c8 793f 511d 743f 7dad 793f
000001a0: d95b 733f 7021 783f 93cf 7d3f 951e 7f3f
000001b0: 1d33 843f ed4d 8b3f 451d 7b3f b980 7e3f
000001c0: bd75 883f 54ed 6e3f 70d3 733f aa9e 703f
000001d0: 23ba 8b3f 2ab8 803f b7cd 763f 7db4 7a3f
000001e0: 316f 803f e3e0 753f 7892 663f 3591 803f
000001f0: 0a27 6f3f 63af 723f de55 793f ac84 833f

base.mlp.fc.2.bias f4 [128]
0.018214753 0.015961267 -0.004993699 0.03165024 0.03495919 -0.010719857 0.017464614 0.011801427
-0.0024171616 0.018386949 0.04353679 0.034450524 0.034277596 0.059465934 0.019212548 -0.024344973
0.03668989 0.018854594 -0.012811869 0.01023184 0.0707593 0.03806148 0.028787654 -0.009956884
0.0008463518 -0.0052210763 -0.008605751 0.026148997 0.027668659 0.018811226 -0.012529203 -0.013170133
-0.015935767 0.02880705 0.05090362 0.022266855 -0.0016499583 0.030650457 0.0051360005 0.009049185
0.02748199 -0.017213872 -0.0066058123 -0.011550076 0.069011375 0.0057621463 0.012916602 0.020844989
-0.0051207193 -0.011444111 -0.014786887 0.029724382 -0.006430994 -0.012983826 0.032419473 0.038373843
-0.009849559 0.041104894 0.02325446 -0.005928668 0.0039188243 -0.029640697 -0.01926797 -0.029874193
-0.008370234 0.0066662407 0.11153355 0.013891285 -0.0032524024 -0.010234222 0.041969825 -0.02884978
-0.0032447788 -0.0130713675 0.0002840659 -0.04088499 0.052074496 0.038092896 -0.015464864 0.014887421
0.048516314 0.019812655 -0.015479183 0.023748718 -0.032856677 0.0072171767 -0.016777098 -0.042080034
0.026334776 0.016174652 -0.015239755 0.027445085 0.018010631 0.03748758 0.02634297 -0.006604184
-0.0049963337 0.04109392 -0.011851458 0.049940623 0.020285165 0.011485292 0.049943678 -0.03916618
0.046304736 0.02182791 0.021792876 0.0056352452 0.020028878 -0.018284336 -0.016329607 -0.03167667
0.025906134 0.06836626 -0.0003501377 0.040931817 -0.015758714 -0.01887215 0.03428958 0.029649941
0.011586233 0.055034496 0.102646135 -0.02572158 0.054269746 0.052010413 -0.0010221472 0.00809776
00000000: 1b37 953c 34c1 823c 2fa2 a3bb afa3 013d
00000010: 5e31 0f3d 57a2 2fbc f311 8f3c c65a 413c
00000020: 3e69 1ebb 3aa0 963c a253 323d fe1b 0d3d
00000030: aa66 0c3d 8d92 733d a263 9d3c 1c6f c7bc
00000040: 2348 163d f374 9a3c e0e8 51bc 73a3 273c
00000050: 40ea 903d 5be6 1b3d 16d4 eb3c 3322 23bc
00000060: b5dd 5d3a 9015 abbb 23ff 0cbc 6c36 d63c
00000070: 62a9 e23c 001a 9a3c 4947 4dbc 8bc7 57bc
00000080: ba8b 82bc c3fc eb3c 5080 503d fb68 b63c
00000090: 6a43 d8ba ab16 fb3c e54b a83b 0843 143c
000000a0: e921 e13c 1b04 8dbc 9275 d8bb 883c 3dbc
000000b0: d655 8d3d 63d0 bc3b 28a0 533c 1cc3 aa3c
000000c0: b5cb a7bb 1580 3bbc b344 72bc 8c80 f33c
000000d0: 16bb d2bb 1dba 54bc 48ca 043d e42d 1d3d
000000e0: 0b60 21bc 9b5d 283d 2380 be3c 4645 c2bb
000000f0: 7b69 803b 0cd1 f2bc ddd7 9dbc b9ba f4bc
00000100: 4e23 09bc 7b70 da3b b46b e43d 4698 633c
00000110: 4226 55bb 70ad 27bc 8de8 2b3d 6056 ecbc
00000120: 5ba6 54bb 4a29 56bc aeee 9439 0577 27bd
00000130: 114c 553d 4c07 1c3d 5760 7dbc 5fea 733c
00000140: 0bb9 463d 264e a23c 669c 7dbc ac8c c23c
00000150: b994 06bd 117e ec3b 2070 89bc 1d5c 2cbd
00000160: 07bc d73c b480 843c 2ab0 79bc 84d4 e03c
00000170: 088b 933c 948c 193d 36cd d73c e967 d8bb
00000180: 49b8 a3bb 1952 283d 9e2c 42bc 8a8e 4c3d
00000190: 132d a63c ce2c 3c3c be91 4c3d b76c 20bd
000001a0: 09aa 3d3d 72d0 b23c f986 b23c dda7 b83b
000001b0: 9a13 a43c 08c9 95bc abc5 85bc 65bf 01bd
000001c0: 1a39 d43c 9c03 8c3d b092 b7b9 1fa8 273d
000001d0: 6b18 81bc c499 9abc 3b73 0c3d 6fe4 f23c
000001e0: 2fd4 3d3c da6b 613d 2338 d23d 10b6 d2bc
000001f0: f449 5e3d df08 553d 92f9 85ba 78ac 043c

base.mlp.fc.3.weight f4 [128, 128]
-0.009315668 0.04059967 0.13461883 0.10756859 0.025160287 -0.052731458 0.1253868 -0.0469301
0.04606704 0.05479108 0.053103693 0.02628497 -0.07525533 -0.009415488 -0.0722268 0.05849723
0.0078300955 -0.0053946613 0.07670353 0.06688377 -0.038588274 -0.049273126 0.057024684 0.040917076
-0.07750785 0.08001877 -0.09760523 0.1015245 0.08737569 0.087013796 0.00052700244 0.031897526
-0.07350431 0.07393013 0.029418679 0.08905447 -0.024124626 0.11004891 0.048248548 -0.042619992
0.034184743 -0.09460249 -0.031775158 -0.032123968 -0.029639143 0.017372876 -0.02109613 -0.031041376
0.04423618 -8.898663e-05 -0.016797295 -0.01631061 0.0029978645 0.04468833 0.05612386 0.08129642
-0.06282622 0.01377521 0.04495956 -0.017072085 0.074418396 -0.022667823 -0.03882418 -0.08659856
0.06433532 -0.03297065 0.015680233 -0.09093259 0.1047657 -2.4657244e-05 0.062482744 -0.03466465
-0.056683578 0.05117397 0.09234239 0.060037237 0.007257876 0.01164654 0.011145468 -0.052830927
-0.018660389 -0.078830704 -0.09219961 0.0021711288 -0.038672026 -0.014979434 -0.02687242 0.008422788
-0.007025908 -0.07040973 0.024425061 -0.059754398 -0.0071386523 0.010771996 0.05425126 -0.07626464
-0.07596005 0.09578623 0.0007414954 0.103348225 0.03504187 0.07646456 0.03696698 -0.04620885
-0.025665235 -0.029318001 0.04820027 0.058065113 0.11945906 0.06545814 0.07494565 -0.081039235
-0.047645546 -0.016726477 -0.035565455 0.020630475 -0.05190986 0.08580847 -0.024497813 0.12790163
-0.06627163 -0.031867955 0.036862142 -0.007883783 -0.03372027 -0.020410322 0.045702282 0.0048848693
0.00021679465 0.04107819 -0.06271527 0.08797201 -0.046720173 -0.030298669 0.03394503 0.043276895
0.01533518 -0.033445455 0.039201584 -0.030317506 -0.010503882 -0.012058395 -0.02900203 0.004939452
-0.048222307 0.018802918 -0.08810912 -0.08192039 0.061578788 0.0629462 0.10710113 -0.07534184
-0.055631444 -0.078830495 0.026456982 -0.04006291 0.14678584 -0.06474983 -0.03161158 -0.08766585
0.0689974 0.08909695 0.025050668 0.007252131 0.038638324 0.107553184 0.03290361 -0.045736693
0.078912094 0.057107814 -0.08424259 0.06724524 -0.044513073 -0.049192682 0.0050810133 0.08985148
-0.013205902 -0.06512698 0.042519856 0.00802541 0.029802307 -0.117040545 0.06823425 -0.020813342
-0.07054905 0.0714152 -0.03188125 0.115557596 0.03774137 -0.046964426 -0.12352723 -0.08675281
-0.015146431 0.068352334 0.04823597 -0.025072686 -0.060257923 -0.14633346 0.078608975 -0.036064964
-0.054580774 -0.056914907 0.051967863 -0.011937264 0.15093118 -0.020649329 -0.026360521 0.022921888
-0.0028062463 -0.009917106 0.04107794 -0.048247814 -0.084527835 -0.018832808 -0.023603048 -0.0082508605
0.021824488 0.0976793 -0.016318137 0.013418979 -0.02742026 -0.07457985 -0.0065365485 -0.030693945
0.006606968 0.06791622 0.018447224 -0.07626066 -0.0090222 0.0747919 -0.0023736425 -0.16058372
-0.012343602 0.02105897 0.050526768 0.0073316297 -0.07762952 0.061291076 -0.03379186 -0.11502079
0.10981881 -0.047870543 -0.064680494 -0.020645682 -0.045446567 0.05535511 0.041784585 0.027842402
-0.03341218 0.033072308 0.040153477 -0.09397856 0.06552819 -0.004601162 0.09271721 -0.050921474
00000000: bea0 18bc d74b 263d 85d9 093e ec4c dc3d
00000010: f21c ce3c f1fc 57bd 6665 003e c739 40bd
00000020: cbb0 3c3d 9d6c 603d 4283 593d 9453 d73c
00000030: 771f 9abd 6b43 1abc a5eb 93bd cb9a 6f3d
00000040: cd49 003c b3c5 b0bb be16 9d3d 5cfa 883d
00000050: bd0e 1ebd 9ed2 49bd b792 693d aa98 273d
00000060: 70bc 9ebd e2e0 a33d 40e5 c7bd 14ec cf3d
00000070: 07f2 b23d 4a34 b23d 8926 0a3a fba6 023d
00000080: 6d89 96bd ae68 973d 71ff f03c 3162 b63d
00000090: 02a1 c5bc 5361 e13d 45a0 453d 4d92 2ebd
000000a0: 4d05 0c3d f3be c1bd ab26 02bd 6c94 03bd
000000b0: cacd f2bc 9051 8e3c cbd1 acbc 7c4a febc
000000c0: ff30 353d 559e bab8 7b9a 89bc d49d 85bc
000000d0: d277 443b 1c0b 373d 22e2 653d bd7e a63d
000000e0: 09ab 80bd 6bb1 613c 8427 383d c2da 8bbc
000000f0: ac68 983d dfb1 b9bc 1a06 1fbd 965a b1bd
00000100: 3cc2 833d 3b0c 07bd d573 803c de3a babd
00000110: 668f d63d 07d7 ceb7 e8ed 7f3d 85fc 0dbd
00000120: 0a2d 68bd cc9b 513d 021e bd3d 9be9 753d
00000130: 7ad3 ed3b 21d1 3e3c 7b9b 363c 3e65 58bd
00000140: acdd 98bc fe71 a1bd 26d3 bcbd 7f49 0e3b
00000150: 8f66 1ebd 4d6c 75bc 8d23 dcbc bcff 093c
00000160: 9739 e6bb fa32 90bd 1117 c83c 07c1 74bd
00000170: 5beb e9bb 077d 303c 9236 5e3d a330 9cbd
00000180: f190 9bbd 922b c43d ea60 423a 3ca8 d33d
00000190: 1088 0f3d 7499 9c3d b06a 173d 7e45 3dbd
000001a0: e63f d2bc 4e2c f0bc a56d 453d afd5 6d3d
000001b0: f4a6 f43d eb0e 863d 1b7d 993d e6f7 a5bd
000001c0: fa27 43bd f705 89bc 15ad 11bd 3e01 a93c
000001d0: 6f9f 54bd 5abc af3d a3af c8bc a5f8 023e
000001e0: 6cb9 87bd f987 02bd c2fc 163d fc2a 01bc
000001f0: 441e 0abd 8c33 a7bc 5132 3b3d 4111 a03b
00000200: 5f53 6339 9b41 283d dd70 80bd ab2a b43d
00000210: a75d 3fbd ea34 f8bc f209 0b3d 1d43 313d
00000220: 6840 7b3c 1afe 08bd d791 203d 6b5c f8bc
00000230: 7918 2cbc 9390 45bc aa95 edbc 20db a13b
00000240: c184 45bd 9408 9a3c 8e72 b4bd e1c5 a7bd
00000250: 0a3a 7c3d f0e9 803d d657 db3d d34c 9abd
00000260: ccdd 63bd e271 a1bd 50bc d83c 0219 24bd
00000270: 074f 163e 8f9b 84bd 257b 01bd 278a b3bd
00000280: 824e 8d3d 7678 b63d 0f37 cd3c 49a3 ed3b
00000290: 3843 1e3d d844 dc3d f0c5 063d 6656 3bbd
000002a0: aa9c a13d e2e9 693d 6187 acbd dfb7 893d
000002b0: 5753 36bd 447e 49bd a17e a63b 0e04 b83d
000002c0: 915d 58bc 4b61 85bd 4d29 2e3d 027d 033c
000002d0: f823 f43c f4b2 efbd 66be 8b3d be80 aabc
000002e0: 057c 90bd 2242 923d ea95 02bd 76a9 ec3d
000002f0: b296 1a3d c55d 40bd d8fb fcbd 75ab b1bd
00000300: bc28 78bc 4ffc 8b3d 1593 453d 3c65 cdbc
00000310: 03d1 76bd 70d8 15be befd a03d dbb8 13bd
00000320: 1790 5fbd 9b1f 69bd 41dc 543d 8494 43bc
00000330: b48d 1a3e c828 a9bc 05f2 d7bc afc6 bb3c
00000340: 00e9 37bb 5b7b 22bc 5841 283d 809f 45bd
00000350: ee1c adbd 4347 9abc 2e5b c1bc 9e2e 07bc
00000360: 45c9 b23c 160c c83d 9dad 85bc 47db 5b3c
00000370: 74a0 e0bc 52bd 98bd 8b30 d6bb de71 fbbc
00000380: 447f d83b a917 8b3d a21e 973c 8d2e 9cbd
00000390: d9d1 13bc 7f2c 993d 1d8f 1bbb 0f70 24be
000003a0: d23c 4abc dc83 ac3c 28f5 4e3d 2b3e f03b
000003b0: 3afc 9ebd 5a0c 7b3d 5569 0abd 0590 ebbd
000003c0: afe8 e03d e713 44bd 3577 84bd 2221 a9bc
000003d0: 2e26 3abd 0abc 623d 5026 2b3d c015 e43c
000003e0: 36db 08bd d476 073d f977 243d d577 c0bd
000003f0: a533 863d 58c5 96bb 85e2 bd3d 0993 50bd

base.mlp.fc.3.bias f4 [128]
-0.066896 0.010746419 0.0074880007 -0.095648505 -0.027978854 0.018286483 -0.05635446 -0.09208457
-0.047878444 0.07181396 -0.035525918 0.025721151 -0.024664056 -0.019390399 0.050704572 -0.059804317
-0.022365376 -0.08133257 -0.051856205 0.036174547 -0.1105762 0.01944466 -0.002904777 -0.005055299
0.008694114 0.00123376 0.06258142 -0.08623245 -0.021195915 0.059422053 0.041928727 0.06018768
-0.07288002 -0.07046683 -0.041132916 0.073645845 -0.072171934 -0.036072765 -0.020030385 -0.036546204
-0.056110643 0.068066105 -0.028642694 -0.03388036 0.029369982 -0.011174664 -0.020555163 -0.03817288
0.011932026 -0.05499458 -0.08342674 0.07066281 0.048738606 0.07323285 -0.09505642 -0.046144348
0.06003489 -0.0023374 -0.008239525 0.044259924 0.052793257 -0.009825716 -0.008964335 -0.058980525
-0.07413772 0.014086771 -0.001973833 0.01981238 -0.054456234 0.028516266 0.03921238 -0.0812253
0.00075913203 -0.06513391 0.026964188 0.008777142 -0.005784665 -0.08810056 0.01888149 0.05408949
0.0077046696 -0.020388464 -0.09379481 -0.09135592 -0.08332354 0.04852696 0.0078973 0.056261588
-0.055745803 0.0002574734 0.076762654 -0.06653142 -0.011490654 0.060177874 0.022733223 0.049380675
-0.0059423414 -0.0005189 -0.07804935 0.008239743 -0.08820423 0.010091219 0.012718693 -0.041338857
-0.03229489 -0.020307457 -0.0011270625 -0.01820273 0.040319193 -0.07985825 -0.058756344 -0.06376239
0.0028962255 -0.064446844 -0.046814986 0.06512405 0.03073616 0.002792911 0.0029276584 -0.061186552
-0.041216925 0.061502278 0.04712977 -0.093741 0.05219203 -0.027495872 0.048277304 -0.023538306
00000000: c500 89bd c011 303c e75d f53b 5de3 c3bd
00000010: e933 e5bc 89cd 953c efd3 66bd d696 bcbd
00000020: 301c 44bd 3313 933d a083 11bd 2ab5 d23c
00000030: 460c cabc 9dd8 9ebc 99af 4f3d 5ff5 74bd
00000040: 9837 b7bc b191 a6bd 2c67 54bd c32b 143d
00000050: c675 e2bd 684a 9f3c 125e 3ebb eca6 a5bb
00000060: c271 0e3c 1eb6 a13a b02a 803d a49a b0bd
00000070: 0ea3 adbc 8a64 733d 75bd 2b3d 5b87 763d
00000080: 1f42 95bd ea50 90bd fd7a 28bd a2d3 963d
00000090: e1ce 93bd 09c1 13bd c316 a4bc 79b1 15bd
000000a0: 46d4 65bd 3e66 8b3d 15a4 eabc 22c6 0abd
000000b0: 5199 f03c f015 37bc 4d63 a8bc 2a5b 1cbd
000000c0: 8b7e 433c ff41 61bd a3db aabd aab7 903d
000000d0: 22a2 473d 1bfb 953d f1ac c2bd db01 3dbd
000000e0: 25e7 753d 112f 19bb 13ff 06bc e549 353d
000000f0: be3d 583d 0afc 20bc 25df 12bc 9095 71bd
00000100: 84d5 97bd 33cc 663c 6c5b 01bb 934d a23c
00000110: 800d 5fbd f29a e93c 299d 203d 7359 a6bd
00000120: 7d00 473a ed64 85bd 00e4 dc3c 00ce 0f3c
00000130: 498d bdbb 116e b4bd 5bad 9a3c f18c 5d3d
00000140: 7477 fc3b b505 a7bc 7e17 c0bd d018 bbbd
00000150: 88a5 aabd 35c4 463d ad63 013c 8d72 663d
00000160: b655 64bd 7ffd 8639 bd35 9d3d a041 88bd
00000170: 4c43 3cbc 137d 763d 063b ba3c 6443 4a3d
00000180: f9b7 c2bb ca06 08ba 56d8 9fbd fdff 063c
00000190: 6ba4 b4bd a455 253c 1162 503c ef52 29bd
000001a0: a647 04bd d35b a6bc f1b9 93ba e41d 95bc
000001b0: bd25 253d b98c a3bd 7eaa 70bd db95 82bd
000001c0: 9ace 3d3b b5fc 83bd 12c1 3fbd c25f 853d
000001d0: 66ca fb3c 4509 373b f5dd 3f3b c09e 7abd
000001e0: 14d3 28bd d0e9 7b3d 250b 413d 48fb bfbd
000001f0: 4fc7 553d 063f e1bc 6cbe 453d 68d3 c0bc

base.mlp.fc.5.weight f4 [128]
1.0177959 0.9620367 0.9848984 0.97867113 1.0477891 1.0268346 1.0575011 1.0727903
1.0465204 1.0550724 1.0284679 0.9949911 1.0354213 1.045451 1.0110683 1.0613893
0.9676369 1.0351087 1.0215479 1.0507805 0.94666636 0.98402834 1.023526 0.9863955
1.0428437 1.0285168 1.0451379 1.0176504 1.0395334 1.0414882 1.0554888 0.97316486
1.0012403 0.9627393 0.9782403 1.108138 0.9946623 0.9955476 0.98889923 1.1484101
0.9873847 0.9900231 0.93456525 0.9774852 0.98835635 1.0558641 0.98683983 0.97058314
1.04446 0.9693476 0.9348469 1.0352762 1.0788243 0.98216623 0.9866272 1.044143
1.0844791 1.0247887 0.99597114 1.02769 1.1096246 0.9595204 1.0386177 0.9726879
0.9916491 1.1102222 1.0401394 0.9927099 1.0804224 1.0719649 0.9926141 0.9925137
1.0420806 1.0224185 1.0648438 0.9647365 0.92947024 1.0638194 1.0016222 1.0093074
1.033464 1.0312978 1.0115774 1.0377249 1.0544207 0.9965209 1.0838723 1.0321594
1.0237609 1.0053669 0.97283715 0.9908894 1.0487108 1.0434184 1.0004933 0.978831
1.0347731 1.0046711 0.9814918 0.9920233 1.027734 1.0646563 1.0701171 1.0122486
1.0476195 0.95922816 1.0625259 0.984632 0.9735642 1.0134691 1.038052 1.0326679
1.0080696 1.1114131 0.9945171 0.9698261 1.0101174 0.9824072 1.0236009 0.9614007
0.9990563 0.97710264 1.0535486 1.077021 1.0811899 1.0048053 0.9997123 0.98403895
00000000: 2347 823f 0a48 763f 4d22 7c3f 318a 7a3f
00000010: f41d 863f 516f 833f 325c 873f 3151 893f
00000020: 61f4 853f 9d0c 873f d6a4 833f bdb7 7e3f
00000030: af88 843f 57d1 853f b06a 813f 9bdb 873f
00000040: 0db7 773f 717e 843f 15c2 823f fa7f 863f
00000050: ba58 723f 48e9 7b3f e602 833f 6a84 7c3f
00000060: e77b 853f 70a6 833f 14c7 853f 5e42 823f
00000070: 6e0f 853f 7c4f 853f 421a 873f 5521 793f
00000080: a428 803f 1576 763f f56d 7a3f 77d7 8d3f
00000090: 30a2 7e3f 35dc 7e3f 8028 7d3f 1aff 923f
000000a0: 3ec5 7c3f 2772 7d3f ab3f 6f3f 783c 7a3f
000000b0: ec04 7d3f 8e26 873f 89a1 7c3f 2378 783f
000000c0: deb0 853f 2a27 783f 2052 6f3f ee83 843f
000000d0: ea16 8a3f 3f6f 7b3f 9a93 7c3f 7aa6 853f
000000e0: 36d0 8a3f 472c 833f f7f7 7e3f 598b 833f
000000f0: 2e08 8e3f 21a3 753f 6df1 843f 1302 793f
00000100: b7dc 7d3f c31b 8e3f 4a23 853f 3c22 7e3f
00000110: 484b 8a3f 2536 893f f51b 7e3f 6115 7e3f
00000120: e662 853f 9cde 823f cd4c 883f f9f8 763f
00000130: c3f1 6d3f 3c2b 883f 2835 803f fc30 813f
00000140: 8c48 843f 9101 843f 5e7b 813f 2bd4 843f
00000150: 42f7 863f fe1b 7f3f 54bc 8a3f cd1d 843f
00000160: 990a 833f ddaf 803f db0b 793f edaa 7d3f
00000170: 283c 863f bc8e 853f 2a10 803f ab94 7a3f
00000180: 7273 843f 1099 803f 0c43 7b3f 3df5 7d3f
00000190: ca8c 833f a846 883f 99f9 883f 5d91 813f
000001a0: 6518 863f fa8f 753f d900 883f d810 7c3f
000001b0: 813b 793f 5bb9 813f e3de 843f 762e 843f
000001c0: 6d08 813f c942 8e3f ac98 7e3f 8646 783f
000001d0: 874b 813f 0a7f 7b3f 5b05 833f 5b1e 763f
000001e0: 27c2 7f3f 6623 7a3f aeda 863f d3db 893f
000001f0: 6e64 8a3f 769d 803f 25ed 7f3f fae9 7b3f

base.mlp.fc.5.bias f4 [128]
-0.0050730314 0.04212671 0.0333218 0.016403878 -0.018330963 0.01988271 -0.01657723 0.00086946576
-0.0061664586 -0.012935897 0.018543601 0.016156593 0.028685657 -0.014646358 -0.004484692 0.004672463
0.030886214 0.013486836 0.013755135 -0.0060457466 0.06067676 0.014270215 0.0037563178 -0.0070679015
-0.0009781378 0.009792615 -0.00031568238 0.01340494 -0.0015344818 -0.0025865848 0.0023245465 0.026346058
0.010620648 0.016408624 0.023294616 -0.006876912 0.015458043 0.022500968 0.028129375 0.002209437
0.017115723 0.011466608 0.067893095 -0.0002786122 -0.004146931 0.024152795 0.0024022409 0.049747285
0.01683301 0.027206788 0.03240398 0.0010075436 0.008144203 -0.008744732 0.023754431 0.0048364005
-0.003551098 0.013157982 0.02992555 0.0053226477 -0.016215732 0.029418994 0.011102738 0.024982091
0.02278347 -0.0037770844 -0.0032397932 0.008523304 0.013913261 0.0029282153 0.010700024 0.037019517
-0.0012961105 -0.0016757355 -0.0007700031 0.031735647 0.072075166 0.0027894122 0.017070645 0.008226179
-0.0039653243 0.0027132423 -0.02620862 0.007987965 0.0138255125 0.029536527 -0.012613974 0.0024484573
-0.028809706 -0.010863325 0.020156877 0.0062035434 -0.006435705 -0.017436542 0.006683101 0.014256309
-0.0016042556 0.0041417014 0.027243938 0.004951819 -0.03119903 0.0128325755 0.021171423 0.02217077
0.016558085 0.035506073 -0.0010173914 0.013360544 0.036481768 0.0046746437 0.02592458 0.004948496
0.017688388 0.0012597345 0.025639022 0.008700689 0.026739944 0.008081082 -0.002971161 0.029515032
0.005072377 0.027408933 -0.011676567 0.0031940176 -0.0017588136 -0.016227674 -0.0008313139 0.020996701
00000000: ac3b a6bb 0f8d 2c3d 717c 083d 6d61 863c
00000010: d12a 96bc 11e1 a23c f9cc 87bc dcec 633a
00000020: 0110 cabb 16f1 53bc c0e8 973c d55a 843c
00000030: 2ffe ea3c 47f7 6fbc 53f4 92bb 761b 993b
00000040: 1605 fd3c e4f7 5c3c 385d 613c 661b c6bb
00000050: 3288 783d 9fcd 693c 8e2c 763b db99 e7bb
00000060: dc34 80ba 3471 203c 2c82 a5b9 65a0 5b3c
00000070: aa20 c9ba b183 29bb 6b57 183b b0d3 d73c
00000080: 3a02 2e3c 616b 863c 5ad4 be3c b857 e1bb
00000090: bb43 7d3c f353 b83c 936f e63c 34cc 103b
000000a0: 4636 8c3c 71de 3b3c 890b 8b3d b212 92b9
000000b0: fbe2 87bb 15dc c53c ea6e 1d3b cfc3 4b3d
000000c0: 61e5 893c c5e0 de3c 09ba 043d 8e0f 843a
000000d0: 436f 053c 1046 0fbc a798 c23c ab7a 9e3b
000000e0: 8ab9 68bb 9494 573c 6d26 f53c 9b69 ae3b
000000f0: dbd6 84bc 1a00 f13c 42e8 353c 3ea7 cc3c
00000100: 66a4 ba3c f688 77bb b652 54bb 54a5 0b3c
00000110: 72f4 633c 4de7 3f3b 274f 2f3c c7a1 173d
00000120: 40e2 a9ba 5aa4 dbba 09da 49ba 3dfd 013d
00000130: 259c 933d 92ce 363b bdd7 8b3c 18c7 063c
00000140: 8def 81bb a7d0 313b 76b3 d6bc f4df 023c
00000150: 6784 623c 96f6 f13c d7aa 4ebc 4c76 203b
00000160: 5502 ecbc 16fc 31bc 0920 a53c 1847 cb3b
00000170: 9be2 d2bb 14d7 8ebc eafd da3b 4b93 693c
00000180: e345 d2ba 1cb7 873b ae2e df3c de42 a23b
00000190: 1c95 ffbc b93f 523c b16f ad3c 7a9f b53c
000001a0: d2a4 873c d16e 113d fe59 85ba 2fe6 5a3c
000001b0: e86d 153d c12d 993b c95f d43c fe26 a23b
000001c0: 3de7 903c ad1d a53a ed08 d23c 568d 0e3c
000001d0: ba0d db3c 8466 043c cfb7 42bb 82c9 f13c
000001e0: 2f36 a63b b388 e03c 124f 3fbc b952 513b
000001f0: fe87 e6ba e6ef 84bc 88ec 59ba 4601 ac3c

rnn.gru.weight_ih_l0 f4 [384, 128]
0.04463204 0.07702581 0.12277737 -0.014983474 0.09915115 -0.11225878 -0.09848576 -0.025550753
-0.0043032337 -0.0018651355 0.13947777 0.03926356 -0.03132481 -0.07518852 0.08254617 -0.051613804
0.10131841 -0.010888366 -0.056568015 -0.082714476 0.023393286 0.0565248 0.039612666 -0.18914492
-0.048854757 -0.06268856 -0.07833838 -0.03277043 0.043841183 -0.05791217 0.08085437 0.016413493
0.027299302 0.012638043 -0.063985236 -0.11079569 0.0644148 0.07209449 0.0418355 0.10922212
-0.06325904 -0.042784717 0.10140305 0.055497486 0.021504108 0.10122067 0.11324043 0.033052713
0.08758483 0.09088254 -0.11058602 -0.11568076 0.013653462 -0.08087551 0.06578279 0.026930781
0.103933975 -0.03381517 0.15771933 0.014430208 -0.019590497 0.09629857 -0.036855344 0.12888671
0.10310536 -0.051035948 0.17131683 -0.05266569 0.04539955 -0.029127317 0.01460039 0.18915007
0.04139133 -0.04928493 -0.033706237 0.06118654 -0.008852739 -0.07083123 0.0226313 -0.089900106
-0.041771594 -0.030800382 0.08634562 0.015661217 -0.013029209 0.04251796 0.07454339 0.0044268128
-0.13844733 0.03110479 -0.11508621 -0.14327751 0.03672238 -0.046793155 0.16786806 -0.00096358714
0.013258249 -0.057561725 0.09281981 -0.030767584 -0.06955635 0.06542259 0.014262861 -0.029506383
-0.1350903 -0.00383937 0.11184668 -0.04456226 0.08707479 -0.124089494 0.0012649343 -0.022210082
0.102108985 0.037249696 0.015455651 -0.12934126 0.030222217 0.04277649 -0.07078681 -0.0053249775
-0.12834929 0.033025518 0.071800105 0.09303105 -0.08315958 0.059963066 -0.0050205383 0.030039856
0.09357875 0.13454689 0.08986441 0.108810134 -0.028556056 -0.007878998 0.100504026 -0.08004249
-0.086520895 0.041368775 0.08117674 0.10803252 0.03187586 -0.09133343 0.00066863827 -0.03816289
0.082949266 0.008299627 -0.047980364 -0.031689156 0.034090184 0.044935264 -0.02929663 -0.062257633
-0.043577783 0.028526986 0.028646149 0.0407074 -0.018601185 -0.0039048784 0.07261183 0.020946609
-0.06131989 -0.006161334 -0.075086825 -0.062270004 0.08192663 0.08611131 0.04872522 -0.035537295
0.051429905 0.023154026 -0.03901378 0.0659076 0.1042361 0.0007679167 0.019456422 -0.030555679
0.08062268 0.03835781 -0.014902212 0.060064167 0.095559314 -0.13169251 -0.030288892 0.11399069
0.16892299 0.03628497 0.10876873 0.072428375 0.06026817 -0.0032301848 -0.10625255 0.027289515
-0.024492247 0.021007523 0.013291888 -0.026863331 0.044800878 -0.16660745 0.055692293 -0.035560705
0.082745284 -0.06254494 -0.0040122643 0.090145774 0.095557034 0.0019238477 0.08793161 0.08025298
0.019001909 -0.03127471 -0.07146454 0.03402263 -0.0047424706 0.03068883 -0.0022238267 -0.0073847733
0.0469835 0.0017601699 0.053602185 -0.117974915 -0.045704223 -0.16106859 0.060706027 -0.05305083
0.079057716 0.14130181 0.05582539 -0.0436729 -0.124167055 -0.026010029 0.029632498 -0.027189992
-0.023683494 -0.021846944 -0.0004979735 0.013079143 0.068929344 -0.09028677 0.011565463 -0.07652011
-0.010024265 -0.07928904 0.08030287 0.114423 0.03682211 -0.021935377 0.042528883 -0.03868869
-0.012944733 0.044496886 0.11875064 -0.04291566 0.110492714 0.08275707 -0.07644345 0.002225516
00000000: 16d0 363d b5bf 9d3d b472 fb3d 3f7d 75bc
00000010: c20f cb3d eee7 e5bd e7b2 c9bd d04f d1bc
00000020: 2402 8dbb 9077 f4ba 43d3 0e3e d4d2 203d
00000030: 724e 00bd 70fc 99bd f70d a93d ff68 53bd
00000040: 0780 cf3d 1e65 32bc ddb3 67bd 3566 a9bd
00000050: 47a3 bf3c 8c86 673d e440 223d 35af 41be
00000060: ed1b 48bd dc62 80bd df6f a0bd 493a 06bd
00000070: d092 333d 5035 6dbd fa96 a53d 9775 863c
00000080: c9a2 df3c cb0f 4f3c b10a 83bd dae8 e2bd
00000090: e8eb 833d 47a6 933d b45b 2b3d d9af df3d
000000a0: f58d 81bd 073f 2fbd 67ac cf3d 5551 633d
000000b0: 6229 b03c c84c cf3d 99ea e73d 4862 073d
000000c0: ad5f b33d a020 ba3d ec7a e2bd 09ea ecbd
000000d0: c5b2 5f3c 0fa2 a5bd 21b9 863d f19d dc3c
000000e0: 56db d43d c781 0abd 2d81 213e ae6c 6c3c
000000f0: 407c a0bc 2f38 c53d a1f5 16bd e1fa 033e
00000100: e728 d33d 120b 51bd ae6d 2f3e fbb7 57bd
00000110: e1f4 393d 699c eebc 7936 6f3c 8eb0 413e
00000120: f589 293d ffde 49bd 8d0f 0abd bd9e 7a3d
00000130: 140b 11bc f70f 91bd 4765 b93c 8c1d b8bd
00000140: b118 2bbd 1551 fcbc f9d5 b03d f44b 803c
00000150: 7778 55bc 5027 2e3d 34aa 983d cc0e 913b
00000160: 23c5 0dbe 79cf fe3c 52b2 ebbd 57b7 12be
00000170: 356a 163d 2eaa 3fbd 9be5 2b3e 3d99 7cba
00000180: 2039 593c d8c5 6bbd 5018 be3d 4d0c fcbc
00000190: 8f73 8ebd 47fc 853d c6ae 693c 5fb7 f1bc
000001a0: 1d55 0abe f19d 7bbb df0f e53d eb86 36bd
000001b0: 4454 b23d a222 febd 27cc a53a ebf1 b5bc
000001c0: 841e d13d 2393 183d b339 7d3c 0972 04be
000001d0: 9594 f73c 6736 2f3d adf8 90bd 267d aebb
000001e0: ff6d 03be c445 073d ef0b 933d 1087 be3d
000001f0: 924f aabd d59b 753d 5483 a4bb 2516 f63c
00000200: 37a6 bf3d a9c6 093e d50a b83d d9d7 de3d
00000210: 64ee e9bc ea16 01bc 0ed5 cd3d 51ed a3bd
00000220: de31 b1bd 4e72 293d fe3f a63d 2740 dd3d
00000230: 4390 023d 050d bbbd 8e47 2f3a b150 1cbd
00000240: 4ee1 a93d 29fb 073c 0f87 44bd 7dcc 01bd
00000250: 26a2 0b3d 0a0e 383d 7cff efbc dc01 7fbd
00000260: 9e7e 32bd 6db1 e93c 54ab ea3c cdbc 263d
00000270: 8361 98bc fde8 7fbb 83b5 943d 3998 ab3c
00000280: 912a 7bbd 04e5 c9bb 1fc7 99bd d50e 7fbd
00000290: 26c9 a73d 205b b03d 1994 473d 8e8f 11bd
000002a0: 2aa8 523d 83ad bd3c eacc 1fbd 90fa 863d
000002b0: bd79 d53d 044e 493a 1363 9f3c e74f fabc
000002c0: 811d a53d 141d 1d3d 6828 74bc d805 763d
000002d0: 9ab4 c33d 67da 06be 6920 f8bc f373 e93d
000002e0: 26fa 2c3e 8c9f 143d 24c2 de3d 5455 943d
000002f0: c2db 763d 82b1 53bb f09a d9bd 438e df3c
00000300: f7a3 c8bc f817 ac3c 38c6 593c 7d10 dcbc
00000310: 2081 373d 259b 2abe 9a1d 643d 1aa8 11bd
00000320: 5c76 a93d 9017 80bd 5079 83bb 599e b83d
00000330: 68b3 c33d 9e29 fc3a 7d15 b43d ad5b a43d
00000340: e4a9 9b3c e919 00bd 005c 92bd 505b 0b3d
00000350: ba66 9bbb 2467 fb3c 9fbd 11bb f8fb f1bb
00000360: c571 403d 80b5 e63a f78d 5b3d d59c f1bd
00000370: 5a34 3bbd 2aef 24be e2a6 783d d44b 59bd
00000380: 03e9 a13d 6cb1 103e 2aa9 643d 5be2 32bd
00000390: 4c4b febd fc12 d5bc dabf f23c 8cbd debc
000003a0: e303 c2bc 5df8 b2bc 708a 02ba e749 563c
000003b0: d42a 8d3d 45e8 b8bd 117d 3d3c 93b6 9cbd
000003c0: d13c 24bc 4b62 a2bd d575 a43d 9b56 ea3d
000003d0: c8d2 163d d2b1 b3bc c432 2e3d 0878 1ebd
000003e0: 2516 54bc 5e42 363d 8933 f33d 55c8 2fbd
000003f0: 014a e23d 8a7c a93d 628e 9cbd f6d9 113b

rnn.gru.weight_hh_l0 f4 [384, 128]
0.063069366 -4.0066043e-06 -0.04137699 0.15106308 0.05808355 0.14387774 -0.16459009 -0.013746236
0.020112969 -0.17142193 -0.049028978 0.15545468 -0.0053932955 0.03984776 0.11934491 0.06038562
0.06279978 0.10259155 -0.107449226 -0.0811963 0.13353418 -0.028355733 -0.041400112 -0.13198404
-0.14487411 -0.045082457 0.12504591 -0.19472234 -0.022940185 0.035429813 0.10922485 0.06393571
-0.08873253 0.15053648 -0.09694358 0.058136266 0.046894655 0.006138763 -0.08642396 0.05941177
-0.026305567 0.005851563 0.002928861 -0.04978331 0.0016219844 -0.024032949 -0.041943148 -0.061218727
-0.05667211 -0.05831902 0.05503305 0.033097062 -0.0097521935 -0.07437938 0.08270124 0.05608331
0.0028079955 -0.06122214 -0.09546934 -0.04395284 0.057039436 0.0907647 0.074656956 0.026763078
0.050538525 -0.04206334 0.13938467 -0.110300854 0.11764292 -0.04863927 0.08449602 -0.0898276
0.105240375 0.043640018 -0.016428506 -0.062338512 -0.085153446 -0.098889686 -0.016858675 -0.0392586
-0.028809123 0.1561337 0.040309306 0.13037121 -0.018497627 0.010763307 -0.07881617 0.029066792
-0.08517456 -0.076014146 0.10085294 -0.03760026 -0.009073094 0.101684615 -0.051097006 0.057764526
0.049134318 -0.00802124 0.07513314 0.07376361 -0.033034902 0.026644694 0.012541715 -0.030116837
-0.098802924 -4.328369e-05 -0.050114814 0.15780134 0.07412666 0.11069658 0.0016726671 0.045557547
0.1313445 0.01863505 -0.03238553 -0.10895426 0.042463858 -0.09994388 -0.034144774 0.08031743
-0.07628978 0.060400885 -0.062751405 0.051803026 -0.000694382 0.099646345 -0.050557233 0.15225822
-0.027435394 0.04979806 0.018962746 0.029860176 -0.102423206 0.010981929 0.010768026 -0.06189812
0.059302237 0.02449914 0.032081068 0.16650131 0.030097002 -0.03454991 -0.0025625194 0.029618273
0.016114788 -0.016752824 -0.08092445 -0.033904392 -0.06728929 0.08818818 -0.070269406 -0.052761164
0.05661827 -0.008415583 0.0025834672 0.038167194 0.059925586 0.014259826 0.09249954 0.05022911
0.025263561 0.02069801 0.04560818 -0.022681551 0.08159143 0.08363031 -0.10628659 0.12642501
0.038984727 -0.045251157 -0.009047081 0.028682407 0.0514007 0.15319979 0.12618165 0.009891643
0.011302979 0.044155613 0.028248573 0.041156903 0.054791853 0.09705563 0.12594965 -0.0010746178
-0.07371645 -0.00087679236 0.0553495 -0.033532698 0.036739666 -0.03347797 -0.021276766 -0.10757204
-0.08054024 -0.0030462868 0.052693214 -0.075327754 0.029640693 -0.09940941 -0.02686437 0.020850297
0.07272704 0.004998729 -0.00067774614 -0.022663612 0.009674526 0.022665558 -0.0029510993 -0.014253234
0.10322609 -0.078218624 -0.00643202 0.009885691 -0.08593028 0.13003096 0.10061441 0.04600429
0.0077433423 0.011659207 -0.17691997 -0.1505437 0.07236462 0.08128776 -0.06222552 -0.003610307
-0.07157061 -0.107981056 -0.027483141 0.053419974 -0.11813993 -0.10938823 0.079349846 -0.00854698
-0.050787985 -0.017942905 -0.12147077 -0.11343976 0.036207598 -0.021122852 0.15422438 -0.061961304
-0.0038281144 -0.0761634 0.016569147 0.03931241 -0.11133228 0.018135598 -0.07270347 0.11051031
-0.12251691 0.025783842 -0.03446152 -0.044753868 0.0062853443 0.14376074 0.08075074 -0.06171141
00000000: 832a 813d 7870 86b6 eb7a 29bd 48b0 1a3e
00000010: 04e9 6d3d b054 133e 4e8a 28be e537 61bc
00000020: f4c3 a43c 3b89 2fbe 9cd2 48bd 832f 1f3e
00000030: 3eba b0bb 6837 233d 1b6b f43d e956 773d
00000040: 2c9d 803d 851b d23d 570e dcbd 3f4a a6bd
00000050: 2fbd 083e 484a e8bc 2a93 29bd d326 07be
00000060: e159 14be 62a8 38bd 090c 003e 4b65 47be
00000070: 0eed bbbc da1e 113d 47b1 df3d baf0 823d
00000080: 67b9 b5bd 3c26 1a3e 5b8a c6bd 4b20 6e3d
00000090: 9c14 403d ad27 c93b 0cff b0bd c259 733d
000000a0: c67e d7bc 78be bf3b 22f2 3f3b 96e9 4bbd
000000b0: c498 d43a bfe0 c4bc 94cc 2bbd 7dc0 7abd
000000c0: 0421 68bd eddf 6ebd 566a 613d c990 073d
000000d0: aac7 1fbc 3754 98bd 455f a93d 9db7 653d
000000e0: 5906 383b 11c4 7abd 6e85 c3bd e507 34bd
000000f0: 2fa2 693d d8e2 b93d bfe5 983d 3e3e db3c
00000100: 7c01 4f3d 9c4a 2cbd dbba 0e3e 6ae5 e1bd
00000110: c5ee f03d f939 47bd 400c ad3d 88f7 b7bd
00000120: 4488 d73d e0bf 323d 1395 86bc ab56 7fbd
00000130: ee64 aebd ad86 cabd 341b 8abc a0cd 20bd
00000140: 1c01 ecbc 83e1 1f3e 5f1b 253d 0880 053e
00000150: 5688 97bc 9558 303c 5f6a a1bd 7b1d ee3c
00000160: 0070 aebd 4ead 9bbd fc8b ce3d bb02 1abd
00000170: 51a7 14bc 0640 d03d 184b 51bd 7f9a 6c3d
00000180: 1141 493d 856b 03bc 67df 993d 6011 973d
00000190: 9b4f 07bd f945 da3c c47b 4d3c 96b7 f6bc
000001a0: 3059 cabd 828b 35b8 3145 4dbd ad96 213e
000001b0: b8cf 973d e3b4 e23d 653d db3a 8d9a 3a3d
000001c0: 2c7f 063e 88a8 983c b1a6 04bd 6923 dfbd
000001d0: 95ee 2d3d 61af ccbd 64db 0bbd 777d a43d
000001e0: d13d 9cbd eb66 773d cf83 80bd 692f 543d
000001f0: 3007 36ba 6213 cc3d 1a15 4fbd 94e9 1b3e
00000200: 31c0 e0bc 0df9 4b3d c357 9b3c 549d f43c
00000210: 42c3 d1bd 8ced 333c 606c 303c e288 7dbd
00000220: e7e6 723d 6cb2 c83c 7067 033d 527f 2a3e
00000230: fd8d f63c 3584 0dbd f1ef 27bb 05a2 f23c
00000240: 2903 843c 383d 89bc b8bb a5bd 55df 0abd
00000250: f8ce 89bd 019c b43d 68e9 8fbd 171c 58bd
00000260: 8fe8 673d 83e1 09bc 634f 293b 3455 1c3d
00000270: 8874 753d 0ca2 693c 6670 bd3d 0abd 4d3d
00000280: 87f5 ce3c e08e a93c a5cf 3a3d a9ce b9bc
00000290: 6819 a73d 5e46 ab3d c9ac d9bd 8f75 013e
000002a0: 73ae 1f3d 4759 39bd 353a 14bc 5ef7 ea3c
000002b0: 8a89 523d 68e0 1c3e c335 013e 8f10 223c
000002c0: 2130 393c 84dc 343d 8d69 e73c 2494 283d
000002d0: 6c6d 603d 1ac5 c63d f2f8 003e 31da 8cba
000002e0: a6f8 96bd 8ad8 65ba 28b6 623d 9559 09bd
000002f0: 557c 163d 3220 09bd 9d4c aebc bb4e dcbd
00000300: 48f2 a4bd 36a4 47bb d7d4 573d 7045 9abd
00000310: 0ad1 f23c 2997 cbbd ab12 dcbc 3ece aa3c
00000320: eaf1 943d 61cc a33b c6aa 31ba 0aa9 b9bc
00000330: e781 1e3c 1fad b93c 3b67 41bb 6586 69bc
00000340: 3368 d33d 1631 a0bd b2c3 d2bb 98f7 213c
00000350: 37fc afbd d626 053e ee0e ce3d ff6e 3c3d
00000360: ddbb fd3b 4206 3f3c 822a 35be 2128 1abe
00000370: e733 943d 327a a63d 30e0 7ebd e69a 6cbb
00000380: 9d93 92bd 2c25 ddbd 5324 e1bc e7ce 5a3d
00000390: 59f3 f1bd f006 e0bd 2c82 a23d a208 0cbc
000003a0: 1007 50bd 00fd 92bc abc5 f8bd 1b53 e8bd
000003b0: 6b4e 143d d509 adbc ffec 1d3e 23cb 7dbd
000003c0: 1ae1 7abb 8ffb 9bbd 05bc 873c 0d06 213d
000003d0: 2e02 e4bd 1b91 943c 8fe5 94bd 3b53 e23d
000003e0: 25ea fabd a338 d33c 8627 0dbd d54f 37bd
000003f0: 4af5 cd3b 0436 133e a560 a53d 1ac5 7cbd

rnn.gru.bias_ih_l0 f4 [384]
0.020216508 -0.0991195 -0.0905981 0.022461798 0.014820755 -0.0074988254 0.03406033 0.1095135
-0.08553664 -0.01221047 0.09083591 0.008596864 -0.08305421 0.05183131 0.00903243 0.034933083
0.027400536 -0.040690895 0.003533103 0.012897835 -0.059010006 -0.0034870824 0.077699445 0.02572198
-0.024941122 -0.004720125 0.05832286 -0.06430234 -0.01613068 -0.028516646 0.009383059 0.051542584
0.028281149 0.06933309 -0.094917506 0.07070831 -0.035859127 0.006251576 -0.006746713 -0.0013531965
-0.020253137 -0.08786796 -0.034357145 0.021339804 0.09496618 -0.07721942 -0.0027563402 0.0344141
0.027338168 0.025755798 0.03067729 0.012647981 0.015683474 0.091916166 0.07330532 0.00039357104
-0.004174157 0.044468377 0.09886438 -0.07240275 0.1143037 0.04415388 -0.02481353 -0.12516806
-0.010652901 0.023278378 0.11419691 0.055979695 -0.03330097 -0.049801305 -0.0073962198 -0.012271051
-0.031711377 0.004447867 0.08681548 0.029440308 0.100348614 0.06867929 -0.057336215 0.008987099
0.077926695 -0.013174159 -0.06284329 -0.034203313 0.051874872 0.002431567 0.014871711 -0.052995298
0.097518526 -0.10374398 -0.027873768 0.0817445 0.04418414 -0.08442304 -0.07016491 -0.050326116
-0.016308269 0.046377633 0.061940096 -0.020105105 0.10563201 0.043095667 0.09697729 -0.03309192
-0.085340515 -0.054068018 0.015377892 -0.003023226 -0.03914433 0.084804036 -0.008190042 -0.027396828
-0.10572127 0.05917874 -0.0076323296 -0.00073160796 0.09404331 -0.013180717 0.070677415 -0.04962094
-0.08048426 -0.051472068 0.061670497 -0.10146258 0.0172705 0.047456674 0.10455452 -0.11606729
-0.013606373 0.14262827 0.0593649 -0.12332962 0.088760026 -0.12451048 -0.106681734 -0.044056516
-0.14084873 0.12016487 -0.11099211 0.05068533 0.093367755 0.10140819 0.17161165 0.1364145
0.21578002 0.13024276 0.081020325 0.055871777 -0.015020471 -0.17213681 0.018694812 0.05055761
0.1779948 -0.0806947 -0.1567408 0.13794097 0.051415905 -0.072144575 0.15915725 0.058746003
0.17246518 0.13978069 0.09157061 0.09491878 0.016018601 0.11425852 -0.05493316 -0.038839918
0.037169896 0.14051127 0.12416525 0.14572832 0.04080051 -0.04011571 -0.012432526 0.016202549
-0.2503037 0.20337127 0.000406932 -0.030595168 -0.010294553 -0.0027285726 -0.16192223 0.0898528
0.177745 -0.02657304 0.0120086 0.018977042 0.03577493 -0.105723456 0.14175414 0.14224888
0.021559633 -0.1433669 -0.2067573 -0.07103757 -0.017404217 0.074687876 -0.0998735 0.046358515
0.010964796 0.012935507 0.07167172 0.028782617 0.037146136 0.099272735 -0.0010786002 0.067235745
-0.035491493 0.144779 -0.058600415 -0.047780402 0.10903541 -0.17915264 0.0917886 0.038708035
0.047961038 -0.0065674316 -0.08612807 0.10762168 0.03229557 -0.030538253 -0.10461466 0.113731496
0.16738868 -0.07821427 0.12804835 0.022731485 -0.03276376 0.024635194 0.08263199 -0.13035771
-0.034083795 0.04953708 -0.039285496 0.0054005273 -0.009908801 0.0032757632 -0.1079628 -0.03196806
-0.0947748 0.055719014 0.15343775 -0.02864187 -0.06434001 -0.07046454 0.027513793 0.10335581
-0.021707587 0.07366231 -0.029062584 0.100227006 0.023598593 -0.031377178 0.02297612 0.062458582
00000000: 179d a53c 2aff cabd 7f8b b9bd ce01 b83c
00000010: c1d2 723c b5b8 f5bb d882 0b3d 9d48 e03d
00000020: d52d afbd 6c0e 48bc 2d08 ba3d dcd9 0c3c
00000030: 5318 aabd 114d 543d c2fc 133c fe15 0f3d
00000040: 1777 e03c 7fab 26bd a28b 673b 7151 533c
00000050: 7ab4 71bd 8987 64bb e320 9f3d e7b6 d23c
00000060: 5351 ccbc 47ab 9abb f4e3 6e3d f2b0 83bd
00000070: 7d24 84bc be9b e9bc 67bb 193c 511e 533d
00000080: dead e73c 82fe 8d3d 1c64 c2bd 85cf 903d
00000090: 05e1 12bd 05da cc3b 8813 ddbb bd5d b1ba
000000a0: e8e9 a5bc 1ef4 b3bd 14ba 0cbd d0d0 ae3c
000000b0: a17d c23d 3725 9ebd b7a3 34bb cdf5 0c3d
000000c0: 4bf4 df3c d3fd d23c f14e fb3c 7a39 4f3c
000000d0: a17a 803c 8b3e bc3d 1a21 963d 3658 ce39
000000e0: 5ec7 88bb 7924 363d 6879 ca3d e547 94bd
000000f0: 0f18 ea3d b3da 343d be45 cbbc 0e2c 00be
00000100: 8189 2ebc 4cb2 be3c 12e0 e93d f74a 653d
00000110: 9966 08bd 74fc 4bbd fd5b f2bb 850c 49bc
00000120: cae3 01bd 6abf 913b 50cc b13d cd2c f13c
00000130: 9383 cd3d baa7 8c3d 61d9 6abd a03e 133c
00000140: 0898 9f3d 6ed8 57bc fcb3 80bd c618 0cbd
00000150: bf7a 543d ed5a 1f3b 7aa8 733c 9911 59bd
00000160: cbb7 c73d b977 d4bd 8757 e4bc a969 a73d
00000170: 6efa 343d fde5 acbd 9fb2 8fbd c222 4ebd
00000180: eb98 85bc 79f6 3d3d e6b4 7d3d 76b3 a4bc
00000190: 9855 d83d 1585 303d 089c c63d 658b 07bd
000001a0: 02c7 aebd 6d76 5dbd 8ef3 7b3c 5121 46bb
000001b0: ce55 20bd bdad ad3d 872f 06bc 506f e0bc
000001c0: 6584 d8bd 6865 723d 9f18 fabb 61c9 3fba
000001d0: c799 c03d eff3 57bc 52bf 903d 543f 4bbd
000001e0: efd4 a4bd 60d4 52bd 349a 7c3d 9dcb cfbd
000001f0: dd7a 8d3c ee61 423d ae20 d63d b0b4 edbd
00000200: 44ed 5ebc 250d 123e 9c28 733d 3d94 fcbd
00000210: d1c7 b53d 5aff febd f47b dabd 9b74 34bd
00000220: a63a 10be 0019 f63d d54f e3bd 6c9b 4f3d
00000230: 9837 bf3d 19af cf3d f7ba 2f3e 3eb0 0b3e
00000240: 70f5 5c3e 5c5e 053e fced a53d ced9 643d
00000250: 6c18 76bc a244 30be dd25 993c 7f15 4f3d
00000260: 4544 363e 4343 a5bd a980 20be 6640 0d3e
00000270: 7c99 523d 89c0 93bd 1efa 223e a69f 703d
00000280: b69a 303e ab22 0f3e 5f89 bb3d c764 c23d
00000290: 7139 833c 5f00 ea3d 9801 61bd 9b16 1fbd
000002a0: 763f 183d 30e2 0f3e 5a4a fe3d ce39 153e
000002b0: 701e 273d 5f50 24bd cbb1 4bbc 35bb 843c
000002c0: ce27 80be 8f40 503e 7d59 d539 b8a2 fabc
000002d0: 7caa 28bc dad1 32bb f1ce 25be bf04 b83d
000002e0: c902 363e b4af d9bc b8bf 443c be75 9b3c
000002f0: bc88 123d 8a85 d8bd ff27 113e b1a9 113e
00000300: d49d b03c c6ce 12be 30b8 53be 257c 91bd
00000310: 4a93 8ebc f5f5 983d 7a8a ccbd 6de2 3d3d
00000320: b0a5 333c 73ef 533c 9fc8 923d 86c9 eb3c
00000330: 8c26 183d 814f cb3d d15f 8dba e5b2 893d
00000340: 875f 11bd f240 143e fd06 70bd 62b5 43bd
00000350: f54d df3d ca73 37be a9fb bb3d 518c 1e3d
00000360: cb72 443d 9c33 d7bb ea63 b0bd c168 dc3d
00000370: 5c48 043d 5c2b fabc 3640 d6bd 0fec e83d
00000380: f067 2b3e ce2e a0bd 1b1f 033e 6137 ba3c
00000390: 4b33 06bd bfcf c93c f63a a93d 7e7c 05be
000003a0: 739b 0bbd 65e7 4a3d d4e9 20bd e8f6 b03b
000003b0: 8658 22bc 30ae 563b 9a1b ddbd f1f0 02bd
000003c0: 4a19 c2bd 9f39 643d c91e 1d3e 5ba2 eabc
000003d0: b2c4 83bd b64f 90bd 9b64 e13c 36ac d33d
000003e0: 1cd4 b1bc 44dc 963d a814 eebc d143 cd3d
000003f0: d651 c13c 5b85 00bd 6a38 bc3c 92d4 7f3d
