scripts/results/SingleCombat/1v1/NoWeapon/Selfplay/ppo/v1_selfplay_from_baseline/run3/actor_40.pt (torch, 696670 bytes, 30 tensors)

base.mlp.fc.0.weight f4 [128, 15]
0	0x3df8a164	0.12140158
1	0xbe127ad4	-0.14304668
2	0xbd9ef72f	-0.0776199
3	0x3e5869a1	0.21134044
4	0xbe7f5cc4	-0.24937731
5	0x3e237c2c	0.15965337
6	0xbdc273ac	-0.09494719
7	0x3e30417a	0.17212477
8	0x3d2d4902	0.042305954
9	0xbc35df90	-0.011100665
10	0x3d6f6ca8	0.058453232
11	0xbbd7b1d1	-0.0065824767
12	0x3dcb9279	0.09940047
13	0xbddbcc49	-0.10732324
14	0x3b61fca0	0.0034482852
15	0x3c952bb7	0.018209321
16	0x3d166df8	0.036725968
17	0xbcedc0fa	-0.029022682
18	0x3eaa3bd6	0.33248776
19	0x3dd33348	0.103125155
20	0xbda74fa3	-0.081694864
21	0xbd55668b	-0.052099746
22	0xbd8f477e	-0.06996058
23	0xbdcc4163	-0.09973409
24	0xbd3160f2	-0.043305345
25	0xbdd0f6ed	-0.10203347
26	0x3e352468	0.17689669
27	0x3e2c8b82	0.16850093
28	0xbe6e95e9	-0.23299374
29	0x3dd979fb	0.10618969
30	0x3d2287c6	0.039680265
31	0x3e89c818	0.26910472
32	0x3e1e2ef0	0.15447593
33	0xbea23c97	-0.3168685
34	0xbe907777	-0.28216144
35	0xbe1a61dc	-0.15076393
36	0x3e7dce17	0.24785648
37	0xbc968892	-0.018375669
38	0x3dae5962	0.08513142
39	0xbe3774ea	-0.17915693
40	0x3e96648e	0.29373592
41	0xbe273eb9	-0.1633252
42	0x3e38484c	0.17996329
43	0xbc90daf0	-0.017682523
44	0xbe32a7c1	-0.17446806
45	0x3e2ca2d3	0.16858988
46	0xbe12c74f	-0.14333843
47	0x3e068d73	0.13139896
48	0x3c820d12	0.015875373
49	0xbacffccb	-0.0015868185
50	0xbe6beff0	-0.23040748
51	0xbddeb1a2	-0.108737245
52	0x3e1d48b4	0.15359765
53	0xbd45537a	-0.048175313
54	0x3e7633e8	0.24043238
55	0x3e0de8bb	0.13858311
56	0xbbb5568e	-0.0055339998
57	0xbe2dda68	-0.16977847
58	0x3e3eef90	0.18646073
59	0x3d9959a8	0.07487804
60	0xbe448358	-0.19190729
61	0x3e1bfbde	0.15232798
62	0x3deef9dc	0.11668751
63	0x3e40cc4f	0.18827938
64	0xbe2233f8	-0.15840137
65	0xbd7c490e	-0.061593108
66	0xbcb5e2cf	-0.022202877
67	0xbce8ba2c	-0.028409086
68	0xbe594751	-0.21218611
69	0xbe50371c	-0.20333523
70	0x3e1f56db	0.15560476
71	0xbd8f0935	-0.06984178
72	0x3dd220a4	0.10260132
73	0xbc40c9b4	-0.01176684
74	0x3d5bce0a	0.05366329
75	0x3d89dc5d	0.06731484
76	0x3d7ca157	0.061677303
77	0x3e0eab0a	0.13932434
78	0xbe9979b7	-0.29975674
79	0x3e053fd0	0.13012624
80	0xbe4d85f5	-0.20070632
81	0xbea5d536	-0.3238923
82	0x3e3781a3	0.17920546
83	0xbd884114	-0.06653038
84	0x3e2ea392	0.17054585
85	0xbe1f34e3	-0.15547518
86	0xbe698c71	-0.2280748
87	0x3e3bb7ed	0.18331881
88	0x3c94ce8a	0.018164892
89	0x3e1705c9	0.147483
90	0x3da791ef	0.081821315
91	0xbe8497a5	-0.25896946
92	0x3d93f692	0.07224764
93	0xbbe769e2	-0.0070621828
94	0xbe2fa692	-0.17153385
95	0xbe01a2b8	-0.12659729
96	0xbd2154d9	-0.039387558
97	0x3dd0802b	0.10180696
98	0xbde840eb	-0.11340507
99	0xbd7f8e30	-0.06239146
100	0x3e659b04	0.22422415
101	0xbd8b1064	-0.06790236
102	0x3e118d25	0.14213999
103	0x3e04708b	0.12933557
104	0xbe3312dc	-0.17487663
105	0xbe6c922e	-0.23102638
106	0x3ea0d5d8	0.3141315
107	0xbd46831a	-0.048464872
108	0x3e840a0c	0.25788915
109	0x3d021105	0.031754512
110	0x3d827361	0.06369663
111	0x3e95e1d1	0.29273847
112	0x3e6e7426	0.23286495
113	0xbe43d9ae	-0.19126007
114	0x3c0e7003	0.008693698
115	0x3e309142	0.17242911
116	0x3e3524a9	0.17689766
117	0x3e1b8c4b	0.15190236
118	0xbe689fc8	-0.22717202
119	0xbe2a6047	-0.1663829
120	0xbe323eca	-0.17406765
121	0x3ce3c7fa	0.027805317
122	0x3e89cd49	0.26914433
123	0xbe574cfe	-0.21025464
124	0x3dee782b	0.11644014
125	0xbe1e76f2	-0.15475062
126	0xbe90da3c	-0.282915
127	0xbe23f568	-0.16011584
128	0x3e0db95e	0.13840243
129	0x3e759b4c	0.23985022
130	0xbe1a3105	-0.15057762
131	0x3d9d4b3c	0.076803654
132	0x3e54bc34	0.20774919
133	0x3e51fb88	0.20506108
134	0x3e10e768	0.14150774
135	0x3e3a2697	0.18178783
136	0x3e8051ca	0.250624
137	0x3d2e8906	0.042611144
138	0xbe831597	-0.2560241
139	0xbe6c8366	-0.23097
140	0xbe11c796	-0.14236292
141	0x3c5b2a0e	0.013376726
142	0xbe46a591	-0.19399096
143	0x3d8b2020	0.06793237
144	0x3d5d724b	0.054064076
145	0xbde6db99	-0.11272354
146	0x3dc630a8	0.09677249
147	0x3d977375	0.073950686
148	0x3e252793	0.16128378
149	0x3e195f69	0.14977802
150	0xbdd7dcaf	-0.10540139
151	0x3e84f220	0.25965977
152	0xbdbf26d0	-0.09333575
153	0xbc89e741	-0.016833903
154	0xbe82fa3e	-0.25581545
155	0xbe366ed7	-0.1781572
156	0xbd3ebaba	-0.046564795
157	0xbe099083	-0.13434033
158	0x3e2ed6c1	0.1707411
159	0xbded6ae0	-0.115926504
160	0xbe451fcc	-0.19250411
161	0x3de11b22	0.10991503
162	0x3d8db122	0.06918551
163	0x3e361e0a	0.17784896
164	0xbde78b66	-0.11305885
165	0x3d6cf845	0.057853956
166	0xbdecf929	-0.11570961
167	0xbdb0e489	-0.086373396
168	0xbe823ef4	-0.25438654
169	0xbdef52f9	-0.11685748
170	0xbda63800	-0.0811615
171	0x3ce2b30a	0.027673263
172	0x3c1b1610	0.009465709
173	0x3d8042c6	0.06262736
174	0x3ea1025d	0.31447116
175	0x3e84ef4c	0.2596382
176	0x3e28fd5e	0.16502902
177	0x3d2b4913	0.041817736
178	0xbe319698	-0.17342603
179	0x3e2f57ae	0.17123291
180	0x3be66667	0.0070312503
181	0xbdbd2842	-0.09236194
182	0xbe37b920	-0.17941713
183	0xbe1135cd	-0.1418068
184	0xbe04da75	-0.1297396
185	0x3e91cd6d	0.2847704
186	0xbe926301	-0.2859116
187	0xbe598183	-0.21240811
188	0x3d099c85	0.033596534
189	0xbd8ca412	-0.068672314
190	0x3dc029de	0.093829855
191	0xbe61a997	-0.2203735
192	0xbd8f3fd0	-0.06994593
193	0x3ddb330b	0.10703095
194	0x3e745231	0.23859479
195	0xbe3baa50	-0.18326688
196	0x3e73bd2e	0.23802635
197	0x3e45cbbc	0.19316
198	0x3e948d07	0.29013845
199	0xbe331f19	-0.17492332
200	0x3d988a09	0.07448203
201	0xbd8be9cb	-0.06831702
202	0x3e489d8a	0.19591346
203	0xbdb20e89	-0.086941786
204	0x3e3562f3	0.17713527
205	0xbd5c9e45	-0.053861875
206	0xbcff4a17	-0.031163258
207	0xbb481730	-0.00305314
208	0x3d2eac99	0.04264507
209	0x3e000e80	0.12505531
210	0x3d5676fa	0.05235956
211	0x3d8247c4	0.063613445
212	0xbeb0f730	-0.3456359
213	0x3e55b895	0.20871194
214	0x3e682478	0.22670162
215	0x3e6a30b1	0.22870137
216	0x3e7129a9	0.23551048
217	0xbeac44d7	-0.3364627
218	0xbda91a0c	-0.08256921
219	0x3e413014	0.18865997
220	0xbe397eba	-0.18114749
221	0x3e7868ac	0.24258679
222	0xbe354c48	-0.1770488
223	0xbe635f2c	-0.22204274
224	0x3e2a68af	0.16641496
225	0xbe57460f	-0.21022819
226	0xbdea85a2	-0.1145127
227	0x3e7086be	0.234889
228	0x3e8cb8a2	0.27484614
229	0x3e6d179c	0.23153538
230	0xbd7a1deb	-0.06106369
231	0xbea41e8d	-0.32054558
232	0x3ec36e7e	0.38170236
233	0xbd7874a0	-0.060658097
234	0xbd980942	-0.07423641
235	0x3d93feb8	0.07226318
236	0xbe480be8	-0.19535792
237	0x3e16d89e	0.1473107
238	0x3dd270d5	0.10275427
239	0xbe228975	-0.15872748
240	0xbe49ecaa	-0.19719186
241	0xbdaeabff	-0.085288994
242	0x3df44f42	0.1192918
243	0xbd1a5a23	-0.037683617
244	0xbe121081	-0.14264108
245	0x3ba57491	0.005049296
246	0xbeab7812	-0.33490044
247	0xbe007c8e	-0.12547514
248	0xbe330ac0	-0.1748457
249	0x3e3c7247	0.18402968
250	0x3e7266be	0.23672006
251	0xbdafdd87	-0.08587175
252	0xbc4e3648	-0.012586184
253	0x3dff9d1b	0.12481137
254	0x3d39225b	0.04519878
255	0xbe141521	-0.14461185

base.mlp.fc.0.bias f4 [128]
0	0xbdc23087	-0.09481912
1	0xbe501e6f	-0.2032411
2	0x3d2fc151	0.04290897
3	0xbdac67a6	-0.08418207
4	0xbe6dcffe	-0.23223874
5	0xbd08c6fc	-0.03339289
6	0xbe5fa546	-0.2184039
7	0x3de3ef2b	0.11129602
8	0xbe37bf31	-0.17944027
9	0xbdcfc824	-0.10145596
10	0xbe8a4961	-0.2700911
11	0xbce1ae89	-0.027549045
12	0xbcb9b57b	-0.022669544
13	0x3e18a176	0.14905342
14	0xbd609542	-0.054829843
15	0x3e23ad6d	0.15984125
16	0x3e6d0839	0.23147668
17	0x3d0ca649	0.03433827
18	0xbdde941b	-0.108680926
19	0xbe451994	-0.19248039
20	0xbe37cfb6	-0.17950329
21	0xbdddf1ac	-0.10837111
22	0xbdddbe79	-0.108273454
23	0x3e0b7203	0.13617711
24	0xbda7ed42	-0.0819955
25	0xbca5219c	-0.020157628
26	0x3af906f4	0.0018999265
27	0xbe5f2f6a	-0.21795431
28	0x3e5c0b09	0.21488585
29	0xbdbce04e	-0.0922247
30	0xbe68842e	-0.22706673
31	0xbc836ca7	-0.01604302
32	0xbe816757	-0.25274155
33	0x3c95bd78	0.018278822
34	0xbe521f34	-0.20519716
35	0xbd0478af	-0.032341655
36	0xbdca0502	-0.098642364
37	0x3e3feaa9	0.1874186
38	0x3e46db54	0.19419605
39	0x3e778ea6	0.2417551
40	0x3d670427	0.056400444
41	0x3e0fdbb6	0.14048657
42	0xbe5f8647	-0.21828566
43	0xbe3d9d21	-0.18516971
44	0x3deed6f1	0.116620906
45	0x3d660157	0.05615362
46	0x3dcd4c00	0.100242615
47	0x3e2fec35	0.1717995
48	0x3e1e2783	0.1544476
49	0x3dbce377	0.09223073
50	0xbdd9613f	-0.10614251
51	0xbd937a6c	-0.072010845
52	0x3dbf4ed8	0.0934121
53	0x3e3f8dc8	0.18706429
54	0xbca6d0ac	-0.020363174
55	0xbdbbb207	-0.091648154
56	0x3e30366e	0.17208263
57	0x3e05f481	0.13081552
58	0xbc9eaa5f	-0.019368349
59	0xbdb6208a	-0.08892925
60	0xbe67e42e	-0.22645637
61	0xbb0629d5	-0.0020471711
62	0x3d70454a	0.05865983
63	0xbe5f8894	-0.21829444
64	0xbe3be1fe	-0.18347928
65	0xbe7bda9e	-0.24595115
66	0x3e26f562	0.16304544
67	0x3e85fd95	0.2617003
68	0x3e813dc4	0.25242436
69	0x3e5f7bfa	0.21824637
70	0xbcb7246b	-0.022356233
71	0x3d9ef5f3	0.07761755
72	0x3e2f82d0	0.17139745
73	0xbdb81c14	-0.089897305
74	0xbe141447	-0.1446086
75	0x3e2fbac7	0.17161094
76	0x3c012e34	0.007884551
77	0x3e14424f	0.1447842
78	0xbe0911d6	-0.1338571
79	0xbe0f09c0	-0.13968563
80	0xba37b3c8	-0.00070076855
81	0x3d2f511d	0.042801965
82	0x3e10135f	0.1406989
83	0x3e34964c	0.17635459
84	0xbd89c3c1	-0.0672679
85	0x3e7ee00a	0.24890152
86	0xbe1c134f	-0.1524174
87	0xbcaadc43	-0.020856982
88	0xbe1aea08	-0.15128338
89	0x3d726811	0.059181277
90	0x3e614dcb	0.22002332
91	0xbe727860	-0.23678732
92	0x3d5e50c5	0.054276247
93	0xbe67c7ee	-0.22634861
94	0xbd16a2f6	-0.036776505
95	0xbdf31429	-0.118690796
96	0xbc3b8f8e	-0.0114478
97	0xbe391163	-0.18073039
98	0x3d2fe0e7	0.042939093
99	0xbe698673	-0.22805195
100	0x3d862319	0.06549663
101	0xbde66dc1	-0.11251403
102	0xbe53a41f	-0.20668076
103	0x3e39fcbf	0.18162821
104	0x3cbcf281	0.023064854
105	0xbe09046c	-0.13380593
106	0xbdfd41a6	-0.12366037
107	0xbdfc7361	-0.12326694
108	0xbe0f67aa	-0.14004388
109	0x3c8b5801	0.017009737
110	0xbc92401a	-0.017852832
111	0x3e346041	0.17614843
112	0x3cdb8340	0.026795983
113	0xbdfe20f6	-0.124086305
114	0x3e41ee12	0.18938473
115	0x3daf63ce	0.08563958
116	0xbd717e20	-0.058958173
117	0x3e3b015d	0.18262239
118	0x3e6f0b6e	0.23344204
119	0xbe63dc8a	-0.22252098
120	0xbe63cb3a	-0.22245494
121	0xbe5817dd	-0.21102853
122	0xbe5f0d7a	-0.21782485
123	0xbdd313cc	-0.1030651
124	0x3e17608b	0.14782922
125	0xbe77a3e1	-0.24183609
126	0xbe9405e3	-0.2891074
127	0xbe1d6546	-0.15370664

base.mlp.fc.2.weight f4 [128]
0	0x3f872254	1.0557351
1	0x3f85823e	1.0430372
2	0x3f861d40	1.0477676
3	0x3f7b18bb	0.9808461
4	0x3f78620a	0.97024596
5	0x3f7b9e96	0.9828886
6	0x3f80aea7	1.00533
7	0x3f822905	1.0168768
8	0x3f7d2ed6	0.9889959
9	0x3f844381	1.03331
10	0x3f7d3f6a	0.9892489
11	0x3f74920b	0.95535344
12	0x3f780021	0.96875197
13	0x3f76de7e	0.96433246
14	0x3f82ab1d	1.020847
15	0x3f81b745	1.0134054
16	0x3f7972ee	0.97440994
17	0x3f805cb9	1.0028297
18	0x3f86fb2e	1.0545404
19	0x3f849257	1.0357159
20	0x3f728fa7	0.94750446
21	0x3f77f4a3	0.9685766
22	0x3f78094b	0.9688918
23	0x3f8575ae	1.0426538
24	0x3f83e6f7	1.030486
25	0x3f85fa82	1.0467074
26	0x3f85ac43	1.0443195
27	0x3f7e7a32	0.99405205
28	0x3f80d1f7	1.0064076
29	0x3f83d73b	1.0300058
30	0x3f7c5bbd	0.9857748
31	0x3f83008d	1.0234543
32	0x3f7b81df	0.9824504
33	0x3f792d38	0.97334623
34	0x3f752c3e	0.95770633
35	0x3f7d0f13	0.98851126
36	0x3f7dc557	0.9912924
37	0x3f7a1b4c	0.976979
38	0x3f8f0f3b	1.1176523
39	0x3f83a0a4	1.0283399
40	0x3f7fc17b	0.999046
41	0x3f7cd473	0.9876167
42	0x3f839dd9	1.0282546
43	0x3f814e30	1.0101986
44	0x3f745c40	0.9545326
45	0x3f8055ba	1.0026162
46	0x3f7ad7d6	0.9798559
47	0x3f83872e	1.0275629
48	0x3f843a23	1.0330242
49	0x3f817bbb	1.0115885
50	0x3f7f80f9	0.9980617
51	0x3f797e62	0.9745847
52	0x3f82a610	1.0206928
53	0x3f8246cd	1.0177857
54	0x3f7c0b77	0.98454994
55	0x3f763512	0.9617473
56	0x3f7f2e57	0.99680084
57	0x3f77686e	0.9664372
58	0x3f7c7d27	0.9862847
59	0x3f85dc6f	1.0457896
60	0x3f8a61ad	1.0811058
61	0x3f7e3a7d	0.99307996
62	0x3f802dc3	1.0013965
63	0x3f7c7c8a	0.9862753
64	0x3f841595	1.0319086
65	0x3f83dcc4	1.0301747
66	0x3f6e3b15	0.930589
67	0x3f800164	1.0000424
68	0x3f8158fa	1.0105278
69	0x3f844cfb	1.0335993
70	0x3f75e2e9	0.9604936
71	0x3f801b23	1.0008281
72	0x3f879871	1.0593396
73	0x3f85d96d	1.0456978
74	0x3f8fd1ff	1.1235961
75	0x3f7a88ab	0.9786479
76	0x3f765fc6	0.9623989
77	0x3f7b1f1f	0.9809436
78	0x3f8474fe	1.0348203
79	0x3f80e200	1.006897
80	0x3f787e57	0.9706778
81	0x3f80ab72	1.0052321
82	0x3f80d806	1.0065925
83	0x3f836804	1.0266118
84	0x3f7b5f01	0.9819184
85	0x3f82a973	1.0207962
86	0x3f7d9bf1	0.9906607
87	0x3f71e3d5	0.9448827
88	0x3f79693e	0.9742621
89	0x3f87862e	1.0587823
90	0x3f80d301	1.0064393
91	0x3f808505	1.0040594
92	0x3f7de4eb	0.99177426
93	0x3f776ff4	0.966552
94	0x3f7b9738	0.98277617
95	0x3f81a211	1.0127584
96	0x3f81a12f	1.0127314
97	0x3f78f082	0.97241986
98	0x3f849307	1.0357369
99	0x3f746c64	0.9547789
100	0x3f7c1832	0.9847442
101	0x3f7e3d37	0.99312156
102	0x3f76d03c	0.9641149
103	0x3f7a2d6a	0.97725546
104	0x3f75d36f	0.9602575
105	0x3f813dc8	1.0096979
106	0x3f7a9548	0.97884035
107	0x3f80657f	1.0030974
108	0x3f830973	1.0237259
109	0x3f8813ee	1.0631082
110	0x3f7d08fe	0.98841846
111	0x3f790342	0.97270596
112	0x3f82e135	1.0224978
113	0x3f73c993	0.9522945
114	0x3f774158	0.9658408
115	0x3f7747a1	0.9659367
116	0x3f8621ad	1.0479027
117	0x3f81c736	1.0138919
118	0x3f7aef3c	0.9802129
119	0x3f7e5d1e	0.99360836
120	0x3f80b0c2	1.0053942
121	0x3f789d66	0.9711517
122	0x3f6c0e88	0.9220967
123	0x3f80cd08	1.006257
124	0x3f7087b8	0.9395709
125	0x3f779ed1	0.9672671
126	0x3f7da79c	0.99083877
127	0x3f82083c	1.0158763

base.mlp.fc.2.bias f4 [128]
0	0x3bbc558a	0.0057475017
1	0x3c1ae78f	0.009454622
2	0xbbd9f987	-0.0066520604
3	0x3ca06cd5	0.019583145
4	0x3cf145a4	0.029452153
5	0xbbad688a	-0.005292003
6	0x3c33f13d	0.010982809
7	0xbac699ba	-0.0015152015
8	0xba02d360	-0.0004990604
9	0x3bf15678	0.007365044
10	0x3ce0075a	0.027347255
11	0x3cc1834e	0.023622181
12	0x3d001015	0.031265337
13	0x3d38fc7f	0.045162674
14	0x3c9c1bb9	0.019056188
15	0xbcc1defe	-0.023665901
16	0x3cf149e0	0.029454172
17	0x3cab0811	0.02087787
18	0xbc879369	-0.016549783
19	0x3c3d1778	0.01154124
20	0x3d56ce4f	0.052442845
21	0x3cf5e851	0.030018004
22	0x3d068c47	0.032848623
23	0xbc0f2ec4	-0.008739177
24	0xbb1ec2d5	-0.0024225016
25	0xbc72244d	-0.014779163
26	0xbbfea39f	-0.00777097
27	0x3c906ac7	0.01762904
28	0x3ca65432	0.02030382
29	0x3c228046	0.009918278
30	0xbc7873b5	-0.015164305
31	0xbc39f294	-0.011349339
32	0xbcca07d8	-0.024661943
33	0x3d043a00	0.032281876
34	0x3d2a105a	0.0415195
35	0x3c8a5280	0.016885042
36	0xbb9da7c3	-0.0048112585
37	0x3cc29687	0.023753418
38	0x3c127876	0.008939853
39	0x3a522f0a	0.00080178736
40	0x3ce62a70	0.028096408
41	0xbcb487ba	-0.022037376
42	0xbba16343	-0.004925163
43	0xbc4b0549	-0.012391397
44	0x3d2d1e33	0.04226513
45	0x3c183a53	0.009291249
46	0x3cc890ec	0.024483167
47	0x3c8528bf	0.01625478
48	0xbbf95d1a	-0.0076099755
49	0xbc82eb54	-0.015981354
50	0xbc3d9064	-0.01157007
51	0x3cffe4cf	0.031237034
52	0x3b87532a	0.004129787
53	0xbc7ce156	-0.015434584
54	0x3c7fdf33	0.01561718
55	0x3d0582fe	0.032595627
56	0x3c0616a3	0.008184108
57	0x3d19be97	0.037535276
58	0x3c891555	0.016733805
59	0xbc0e7116	-0.008693954
60	0x3bbe6650	0.0058105364
61	0xbcb26372	-0.021775935
62	0xbc7c6840	-0.0154057145
63	0xbcbfa95b	-0.023396185
64	0x3b16d019	0.002301222
65	0xb92c1606	-0.00016411403
66	0x3d864226	0.065555856
67	0x3cbc86fa	0.02301358
68	0xbb018886	-0.0019765212
69	0xbc0b2fee	-0.008495314
70	0x3d2092be	0.039202444
71	0xbcd23470	-0.02565977
72	0xbad9673d	-0.0016586554
73	0xbc671212	-0.014103429
74	0xbb762290	-0.0037557222
75	0xbd0483d4	-0.032352284
76	0x3d2b919b	0.041886907
77	0x3d0cb35a	0.03435073
78	0xbc69a411	-0.014260308
79	0x3beff4d2	0.007322886
80	0x3d215ec6	0.039397024
81	0x3cb7008e	0.022339132
82	0xbc67b62d	-0.014142555
83	0x3ca2157e	0.019785639
84	0xbcf47c23	-0.02984435
85	0x3b2a2b56	0.0025965772
86	0xbc7c441e	-0.0153971
87	0xbd03af4e	-0.032149605
88	0x3ce7015a	0.028198887
89	0x3c94260a	0.018084545
90	0xbc165c37	-0.009177259
91	0x3c52fa0d	0.012877
92	0x3cd99c81	0.026563885
93	0x3d0672e2	0.032824405
94	0x3cd44e01	0.025916101
95	0xbbbac426	-0.0056996522
96	0xbc005e50	-0.007834986
97	0x3cf01f99	0.029311942
98	0xbc93c818	-0.018039748
99	0x3d57038c	0.052493617
100	0x3cc36450	0.023851544
101	0xba86cd14	-0.0010284507
102	0x3d213efa	0.0393667
103	0xbcf78de4	-0.030219026
104	0x3d1acba7	0.037791874
105	0x3c971000	0.018440247
106	0x3c9b7316	0.018975776
107	0xbaa7a7ad	-0.001279106
108	0x3c8dfb93	0.017331874
109	0xbc4eb52d	-0.012616438
110	0xbca1c9b8	-0.019749507
111	0xbd0cf15c	-0.034409866
112	0x3cc898be	0.024486896
113	0x3d3e266f	0.046423372
114	0xbcbf54ca	-0.02335586
115	0x3d05c9bf	0.032663103
116	0xbc7a689a	-0.015283728
117	0xbc0e4459	-0.008683288
118	0x3cfd44dd	0.030916626
119	0x3c79c558	0.015244804
120	0x3bd805f1	0.006592505
121	0x3d241949	0.040063176
122	0x3da46494	0.08026996
123	0xbcb03f68	-0.02151461
124	0x3d77a5f9	0.06046102
125	0x3cfe5e82	0.031050924
126	0xbc93f307	-0.01806022
127	0x3c542417	0.012948058

base.mlp.fc.3.weight f4 [128, 128]
0	0xbc4a3523	-0.01234177
1	0x3ccdaa3c	0.025105588
2	0x3de7563d	0.112957455
3	0x3dbbf53d	0.09177635
4	0x3c190675	0.009339918
5	0xbd7f9784	-0.062400356
6	0x3ddcc43b	0.107796155
7	0xbd7040ae	-0.058655433
8	0x3d13bbe6	0.036067866
9	0x3d2b1463	0.04176749
10	0x3d1c7192	0.038194247
11	0x3c9b771a	0.01897769
12	0xbd9e919e	-0.07742618
13	0xbcc9e273	-0.024644112
14	0xbda6fa9f	-0.08153271
15	0x3d8eb69f	0.06968426
16	0xbd0be2f4	-0.034151986
17	0x3cd87f76	0.026427966
18	0x3d7aa775	0.061194856
19	0x3da6c618	0.08143252
20	0xbd5eb32d	-0.054370094
21	0xbd8548e7	-0.06508046
22	0x3db26e46	0.08712439
23	0x3ce656e8	0.028117612
24	0xbd8f4fd7	-0.0699765
25	0x3d94f7cc	0.07273826
26	0xbda95d08	-0.082696974
27	0x3dafd4fc	0.085855454
28	0x3d9845b0	0.07435167
29	0x3d969d39	0.073542066
30	0x3b91d996	0.004450987
31	0x3cfee86c	0.031116687
32	0xbd90682e	-0.07051121
33	0x3d6db165	0.058030505
34	0x3c5fbcbc	0.013655838
35	0x3d95648b	0.07294568
36	0xbc147dd8	-0.009063207
37	0x3dc0f1dd	0.09421132
38	0x3d49fc83	0.04931308
39	0xbd26ea32	-0.04075069
40	0x3d02b525	0.031911034
41	0xbda5ba70	-0.08092201
42	0xbd3a2e25	-0.045454163
43	0xbd379606	-0.044820808
44	0xbd35d080	-0.044388294
45	0x3d0f0dc8	0.034925252
46	0xbc8e6aed	-0.01738497
47	0xbcaaa162	-0.020828906
48	0x3d3db311	0.04631335
49	0x3a990e39	0.0011677212
50	0xbce4fb0a	-0.027951736
51	0xbc1e9b19	-0.009680533
52	0xbc4029a0	-0.011728674
53	0x3d2346d3	0.039862465
54	0x3d601a43	0.054712545
55	0x3d85e3a3	0.06537559
56	0xbd0e053b	-0.034672957
57	0x3c0598f5	0.008154144
58	0x3cef6fa5	0.029228041
59	0xbcd88470	-0.026430339
60	0x3d78c5be	0.060735457
61	0xbccd0b88	-0.025029913
62	0xbc1e83f4	-0.009675015
63	0xbda2dad2	-0.07951893
64	0x3d8144fa	0.06311984
65	0xbd4414b0	-0.04787129
66	0x3aba5698	0.0014216481
67	0xbd9963fe	-0.07489775
68	0x3db7e823	0.089798234
69	0x3a89a14c	0.0010500341
70	0x3d59280c	0.053016707
71	0xbd491fb2	-0.049102493
72	0xbd429dff	-0.047513958
73	0x3d02770d	0.031851817
74	0x3d8d9997	0.069140606
75	0x3d65f46f	0.056141313
76	0xbc08c304	-0.008347277
77	0x3a1bd630	0.0005944697
78	0x3c160d6c	0.009158473
79	0xbd8df394	-0.069312245
80	0xbd07e0e5	-0.03317346
81	0xbd988fc1	-0.07449294
82	0xbda9ba16	-0.08287446
83	0xbcc09c77	-0.023512108
84	0x3bf8344d	0.007574594
85	0xbb9bd3eb	-0.004755487
86	0x3bd33249	0.0064452034
87	0x3c766a39	0.015039974
88	0xbbd35286	-0.0064490465
89	0xbd953ee7	-0.07287388
90	0x3d4c3f7e	0.04986524
91	0xbd94f51b	-0.07273313
92	0x3c2f2a4c	0.010691237
93	0xbaa321a8	-0.0012445943
94	0x3d20fd9f	0.039304372
95	0xbd81fba0	-0.06346822
96	0xbd958c82	-0.0730219
97	0x3da400c7	0.08007961
98	0xbc706dbb	-0.014674599
99	0x3dc18945	0.0945001
100	0x3d1bda0b	0.03804974
101	0x3d83aa12	0.06428923
102	0x3ca04046	0.019561898
103	0xbd06ae49	-0.032881055
104	0xbd280802	-0.04102326
105	0xbcc972e0	-0.02459091
106	0x3daf61d5	0.08563582
107	0x3d79722b	0.060899895
108	0x3db2750b	0.087137304
109	0x3db59b07	0.0886746
110	0x3d7560b6	0.059906684
111	0xbd8d4bae	-0.068992004
112	0xbd1c71cd	-0.038194466
113	0xbd003f48	-0.03131035
114	0xbd4b14c5	-0.049580354
115	0xbb89d5b9	-0.004206386
116	0xbcb69ab7	-0.02229057
117	0x3dd40ad8	0.10353631
118	0xbc961db6	-0.018324714
119	0x3ddf8a1f	0.109150164
120	0xbda84654	-0.08216539
121	0xbd9ca292	-0.07648195
122	0x3cabf911	0.020992788
123	0x3b953efa	0.0045546265
124	0xbca2111b	-0.019783547
125	0xbd14146e	-0.036152296
126	0x3c944d31	0.018103214
127	0x3c73d619	0.014882588
128	0xbb9e7818	-0.0048360936
129	0x3d4cdd3a	0.050015666
130	0xbd29ce6e	-0.041456632
131	0x3d9461e3	0.07245233
132	0xbd66e098	-0.056366533
133	0xbd2e875c	-0.042609558
134	0x3d0d4232	0.034486957
135	0x3d6913a7	0.056903508
136	0x3b893aaf	0.004187904
137	0xbd564477	-0.052311387
138	0x3d06761f	0.032827493
139	0xbd204e7a	-0.03913734
140	0xbced2618	-0.028948829
141	0xbc71b3cd	-0.0147523405
142	0xbbf6f137	-0.0075360793
143	0xbc99938d	-0.018747116
144	0xbd6ddae6	-0.058070086
145	0xbcb4c4c3	-0.02206648
146	0xbd8bd442	-0.06827594
147	0xbdc9f5a1	-0.09861303
148	0x3d3f8151	0.046754185
149	0x3d5a6399	0.05331764
150	0x3d928b87	0.07155519
151	0x3c1a8b60	0.009432644
152	0xbd7d46a2	-0.06183494
153	0xbd60b81b	-0.054863077
154	0x3d0e9217	0.03480729
155	0xbd4ac452	-0.049503632
156	0x3da7b39a	0.08188553
157	0xbd3f77ad	-0.04674499
158	0xbd86157c	-0.065470666
159	0xbd84a6b0	-0.064771056
160	0x3d9587b2	0.073012725
161	0x3da4401d	0.08020041
162	0x3ccda400	0.025102615
163	0xbb96d3a7	-0.0046028676
164	0x3da95b6a	0.08269389
165	0x3d8ddb40	0.06926584
166	0x3d3ba470	0.045811117
167	0xbd8e1d25	-0.06939153
168	0x3be7e3c6	0.0070767133
169	0x3d80dc36	0.06292002
170	0xbd8e120e	-0.069370374
171	0x3da74431	0.08167303
172	0xbd5da4e7	-0.05411234
173	0xbd03ba08	-0.032159835
174	0xbb727d02	-0.003700078
175	0x3d49f387	0.04930451
176	0x3cd1b2db	0.02559798
177	0xbd5462f0	-0.051852167
178	0x3d434e42	0.047682054
179	0x3c0dfdb1	0.008666442
180	0x3a9f6042	0.0012159424
181	0xbd805ca3	-0.06267669
182	0x3da5e411	0.08100141
183	0xbcfd1190	-0.030892164
184	0xbd5c5739	-0.05379412
185	0x3d9c2567	0.076243214
186	0xbd29fd1c	-0.04150115
187	0x3daaa678	0.08332533
188	0x3d7976ec	0.06090443
189	0xbd73e019	-0.059539888
190	0xbde129fa	-0.109943345
191	0xbd46efbc	-0.048568472
192	0x3c8cc00d	0.01718142
193	0x3dafcd55	0.08584086
194	0x3c8e6e99	0.017386721
195	0xbc9359ac	-0.017987095
196	0xbc851cdd	-0.016249115
197	0xbd9bd6ea	-0.07609351
198	0x3db0d31b	0.08634015
199	0x3ba9ddf1	0.005183928
200	0xbdd774d8	-0.10520333
201	0xbd7feb24	-0.062480107
202	0x3d71e8ba	0.059059836
203	0x3ce13bf3	0.027494406
204	0x3da04643	0.07825901
205	0xbb8004f4	-0.0039068405
206	0xbcecfaa8	-0.028928116
207	0x3c524198	0.012833022
208	0xbc71168f	-0.014714851
209	0xbc7bb3c6	-0.015362686
210	0x3cf62341	0.030046107
211	0xbd17e15a	-0.037080146
212	0xbd5ec0ab	-0.05438296
213	0xbc9fc851	-0.019504698
214	0xbd78d355	-0.060748417
215	0x3c2eb08b	0.010662208
216	0x3c6f24b1	0.01459615
217	0x3db052af	0.08609521
218	0x39d5df99	0.0004079312
219	0x3b601520	0.003419228
220	0xbd4a654a	-0.049413003
221	0xbd80125b	-0.06253501
222	0xba5c09ce	-0.0008393795
223	0xbd50686f	-0.050880846
224	0x3d21dc08	0.03951648
225	0x3da6b4aa	0.08139928
226	0x3d46e5c5	0.04855897
227	0xbd391519	-0.045186136
228	0xbd1d67b5	-0.03842898
229	0x3db8ff9d	0.09033129
230	0xbc463a62	-0.0120988805
231	0xbde05af0	-0.10954845
232	0xbc20d261	-0.009815783
233	0xbc0d6996	-0.008631131
234	0xbd6237fd	-0.055229176
235	0x3cc609d8	0.024174616
236	0xbd89ba9d	-0.06725047
237	0x3d0e9420	0.03480923
238	0xbd34af3a	-0.04411242
239	0xbc97fdd0	-0.018553644
240	0x3d8d18b1	0.06889475
241	0xbd755b11	-0.0599013
242	0xbd346267	-0.044039156
243	0x3c558a95	0.013033529
244	0xbc518a8a	-0.012789378
245	0x3d38aa9b	0.045084577
246	0xbca638c3	-0.020290738
247	0x3c950d0a	0.018194694
248	0xbd0d8d8d	-0.03455882
249	0x3d040894	0.032234743
250	0x3cfa6e47	0.030570162
251	0xbdab6208	-0.08368307
252	0x3d63f822	0.05565656
253	0xbc68b831	-0.014204071
254	0x3daa3355	0.08310572
255	0xbdbd548f	-0.09244644

base.mlp.fc.3.bias f4 [128]
0	0xbd4d7963	-0.05016459
1	0x3ca830b8	0.020531043
2	0x3b420a84	0.0029608319
3	0xbdbac1d5	-0.09119002
4	0xbcfd0321	-0.030885281
5	0x3c96ba1d	0.018399293
6	0xbd3e2072	-0.04641766
7	0xbdc08ddc	-0.094020575
8	0xbd29aef0	-0.0414266
9	0x3d95d217	0.07315462
10	0xbd190f73	-0.03736825
11	0x3d0b3bf4	0.033992723
12	0xbce2ef3d	-0.027701968
13	0xbc3ef44a	-0.011654923
14	0x3d4480bf	0.047974344
15	0xbd803e6a	-0.062619045
16	0xbd02c93e	-0.0319302
17	0xbd94afcb	-0.07260092
18	0xbd36affc	-0.044601426
19	0x3d41c7b0	0.047309577
20	0xbdbd5ad9	-0.092458434
21	0x3ceda066	0.029007148
22	0x3abd2d1b	0.0014432998
23	0xb989c5ce	-0.00026278052
24	0x3c58f01f	0.013240843
25	0x3bd3868c	0.006455248
26	0x3d9323d4	0.07184568
27	0xbd9e94c8	-0.077432215
28	0xbc91624c	-0.017747067
29	0x3d77eba9	0.060527477
30	0x3d3641e3	0.04449643
31	0x3d77f4e9	0.0605363
32	0xbd96e19a	-0.07367249
33	0xbd883329	-0.06650383
34	0xbce7e2ea	-0.028306443
35	0x3da0034b	0.07813128
36	0xbd84c85a	-0.064835265
37	0xbd12ef6e	-0.03587287
38	0xbc98c9dd	-0.018650943
39	0xbd12ae3c	-0.035810694
40	0xbd5a7488	-0.05333379
41	0x3d959433	0.073036574
42	0xbd04f098	-0.03245601
43	0xbd04060e	-0.032232337
44	0x3d1c3481	0.03813601
45	0xbc3ceacd	-0.01153059
46	0xbc8dc753	-0.01730696
47	0xbd012404	-0.031528488
48	0x3c48f7c6	0.012266105
49	0xbd370f6b	-0.044692438
50	0xbdb59090	-0.08865464
51	0x3da28a2a	0.07936509
52	0x3d499885	0.04921772
53	0x3da2b885	0.079453506
54	0xbd9ab277	-0.07553571
55	0xbd4c8ef3	-0.049941014
56	0x3d79d41c	0.0609933
57	0x3b67679d	0.003530956
58	0xbc43f5bf	-0.011960446
59	0x3d43dcf5	0.047818143
60	0x3d57da69	0.052698527
61	0xbbc89032	-0.006120705
62	0xbb807f50	-0.003921427
63	0xbd6345d6	-0.055486523
64	0xbda60278	-0.081059396
65	0x3c845d40	0.016157746
66	0xbbe5e05c	-0.007015271
67	0x3cfa252c	0.030535303
68	0xbd5add5a	-0.053433754
69	0x3d0d7c19	0.034542177
70	0x3d2fb8c4	0.042900816
71	0xbda042d7	-0.07825249
72	0x3bb2f3d7	0.005461197
73	0xbd6feaab	-0.058573406
74	0x3d009ffe	0.03140258
75	0x3cb28768	0.021793082
76	0xbb1a3047	-0.002352731
77	0xbd9e6db8	-0.07735771
78	0x3c83510a	0.016029853
79	0x3d72ad26	0.05924716
80	0x3b7ab2df	0.0038253588
81	0xbc7e16b8	-0.015508346
82	0xbdb07f20	-0.08617997
83	0xbdb4e77c	-0.08833215
84	0xbdaf7e26	-0.08568983
85	0x3d552bd0	0.052043736
86	0x3c2cd5e4	0.010549042
87	0x3d7b5438	0.061359614
88	0xbd50e34e	-0.050998025
89	0xba13a3de	-0.0005632023
90	0x3d985d4a	0.074396685
91	0xbd82df54	-0.06390253
92	0xbbb5ae71	-0.0055444767
93	0x3d7c8cb3	0.06165762
94	0x3d11a545	0.035558004
95	0x3d703eea	0.05865375
96	0xbb6595be	-0.003503188
97	0x3bd30d64	0.0064408053
98	0xbd88f013	-0.066864155
99	0x3c156d65	0.00912032
100	0xbda6a7d2	-0.08137478
101	0x3cc2c4bf	0.023775456
102	0x3c7480b1	0.014923261
103	0xbd1d13e1	-0.038349036
104	0xbcf25491	-0.02958134
105	0xbc8066db	-0.015674045
106	0x3b386923	0.0028138838
107	0xbc2aa93f	-0.010416328
108	0x3d142ffb	0.03617857
109	0xbda0f9da	-0.078601554
110	0xbd663c85	-0.05621006
111	0xbd3bd3be	-0.04585623
112	0x3ba2511f	0.004953518
113	0xbd72a44d	-0.05923872
114	0xbd3a20c3	-0.0454414
115	0x3d86f9a6	0.065905854
116	0x3d0ced5a	0.034406044
117	0x3c247c90	0.010039464
118	0x3bf7ca44	0.0075619537
119	0xbd599876	-0.053123914
120	0xbd350a20	-0.04419911
121	0x3d791138	0.060807437
122	0x3d5f7e1e	0.054563634
123	0xbdae2417	-0.08502977
124	0x3d689ffb	0.056793194
125	0xbccf08c8	-0.025272742
126	0x3d863f24	0.06555012
127	0xbc072cbe	-0.008250413

base.mlp.fc.5.weight f4 [128]
0	0x3f82a434	1.0206361
1	0x3f7b6cb6	0.98212755
2	0x3f778a52	0.96695435
3	0x3f8131b3	1.0093292
4	0x3f850967	1.0393494
5	0x3f81daf6	1.0144947
6	0x3f86a033	1.0517639
7	0x3f811c68	1.0086794
8	0x3f828e26	1.019963
9	0x3f80d6f8	1.0065603
10	0x3f7b1fd0	0.9809542
11	0x3f7e8bde	0.9943217
12	0x3f81a79e	1.0129278
13	0x3f8241c9	1.0176326
14	0x3f7d6e80	0.98996735
15	0x3f888070	1.0664196
16	0x3f78ad8c	0.9713981
17	0x3f8351b1	1.0259305
18	0x3f8225b9	1.0167762
19	0x3f855000	1.0415039
20	0x3f795846	0.9740032
21	0x3f7e2b14	0.9928448
22	0x3f80a2e5	1.0049711
23	0x3f7cdaf9	0.98771626
24	0x3f84633c	1.0342784
25	0x3f83e265	1.0303465
26	0x3f8577b0	1.0427151
27	0x3f833170	1.0249462
28	0x3f8539af	1.0408229
29	0x3f85db3d	1.0457531
30	0x3f839526	1.0279891
31	0x3f7c4e7a	0.98557246
32	0x3f7db651	0.9910632
33	0x3f799d41	0.97505575
34	0x3f81481a	1.0100129
35	0x3f8a2654	1.0792947
36	0x3f7f03ed	0.99615365
37	0x3f7ddc85	0.9916461
38	0x3f7999ad	0.97500116
39	0x3f8a2435	1.07923
40	0x3f7ff75f	0.99986833
41	0x3f7bafb4	0.98314977
42	0x3f744166	0.9541229
43	0x3f7abbb1	0.97942644
44	0x3f7f948a	0.9983603
45	0x3f7ca9ec	0.9869678
46	0x3f7e9e48	0.9946027
47	0x3f7e76e2	0.9940015
48	0x3f8286ec	1.0197425
49	0x3f79e253	0.9761097
50	0x3f73dd3d	0.9525946
51	0x3f83c0c9	1.0293208
52	0x3f84d1f7	1.0376576
53	0x3f7edca0	0.995554
54	0x3f7eae8f	0.99485105
55	0x3f84497d	1.0334927
56	0x3f876e80	1.0580597
57	0x3f825b2f	1.0184077
58	0x3f7bbbe8	0.983336
59	0x3f829608	1.0202036
60	0x3f8aacfc	1.0834041
61	0x3f7a13c9	0.9768644
62	0x3f84b060	1.0366325
63	0x3f7eaae6	0.9947952
64	0x3f7d3df1	0.9892264
65	0x3f8d85aa	1.1056416
66	0x3f82e321	1.0225564
67	0x3f7cdfbc	0.9877889
68	0x3f883969	1.064252
69	0x3f8799a9	1.0593768
70	0x3f7dc270	0.99124813
71	0x3f7966d4	0.9742253
72	0x3f8161a2	1.010792
73	0x3f851627	1.0397385
74	0x3f867294	1.0503716
75	0x3f7cd62d	0.98764306
76	0x3f6f1584	0.93392205
77	0x3f88630f	1.065523
78	0x3f7bf191	0.98415476
79	0x3f80d224	1.006413
80	0x3f84e808	1.038331
81	0x3f836323	1.0264629
82	0x3f80b3ca	1.0054867
83	0x3f85f45f	1.0465201
84	0x3f85a4db	1.0440935
85	0x3f7dd5eb	0.9915454
86	0x3f8a2478	1.0792379
87	0x3f82bfc4	1.0214772
88	0x3f831f8d	1.0244004
89	0x3f83a3a4	1.0284314
90	0x3f7d18dd	0.98866063
91	0x3f7e7d93	0.9941036
92	0x3f84a31b	1.0362276
93	0x3f815ee2	1.0107081
94	0x3f7f0fcb	0.99633473
95	0x3f7a5bd6	0.9779638
96	0x3f82c30a	1.0215771
97	0x3f81afb1	1.0131742
98	0x3f7d2258	0.9888053
99	0x3f7fc248	0.99905825
100	0x3f82078d	1.0158554
101	0x3f88d0f6	1.068877
102	0x3f80e9e8	1.0071383
103	0x3f7fb2b0	0.9988203
104	0x3f802de4	1.0014005
105	0x3f7615d9	0.96127087
106	0x3f86d80b	1.0534681
107	0x3f7cb8d6	0.9871954
108	0x3f7ac659	0.97958905
109	0x3f82c148	1.0215235
110	0x3f846594	1.0343499
111	0x3f84e781	1.0383149
112	0x3f7b074d	0.98058015
113	0x3f8ca3a8	1.0987444
114	0x3f8093ac	1.0045066
115	0x3f7e716e	0.9939183
116	0x3f7ef5de	0.99593914
117	0x3f7f248d	0.9966515
118	0x3f826147	1.0185937
119	0x3f787fc8	0.9706998
120	0x3f7fb1d0	0.99880695
121	0x3f7b9d22	0.9828664
122	0x3f805bf2	1.002806
123	0x3f8a0559	1.0782882
124	0x3f89660c	1.0734267
125	0x3f814397	1.0098752
126	0x3f8062d7	1.0030164
127	0x3f7b6571	0.9820166

base.mlp.fc.5.bias f4 [128]
0	0xbc02a866	-0.00797472
1	0x3c8d9aaa	0.017285664
2	0x3cd740be	0.026275989
3	0x3a423a54	0.0007409204
4	0xbc640e66	-0.0139194485
5	0x3c644c05	0.01393414
6	0xbc5acdab	-0.013354699
7	0xbacaeb09	-0.0015481423
8	0xba2f2940	-0.0006681867
9	0xbc43ae02	-0.011943342
10	0x3c94abce	0.01814833
11	0x3bd805fb	0.00659251
12	0x3c076902	0.008264782
13	0xbc4db7b7	-0.012556008
14	0x3ba6f5fd	0.005095242
15	0x3b68000f	0.0035400426
16	0x3c7ba336	0.015358737
17	0x3c320125	0.010864531
18	0x3c640ea1	0.013919503
19	0xbb0ab8da	-0.002116731
20	0x3d08e3e1	0.033420447
21	0x3b3488db	0.0027547393
22	0x3c2b03a9	0.010437884
23	0x3ba6984b	0.0050840727
24	0xbb9f8530	-0.004868172
25	0x3a6c5a83	0.0009016173
26	0xbbc2f734	-0.005949879
27	0x3b3bc116	0.0028649024
28	0xbbd48a02	-0.0064861784
29	0xbbb6dcdf	-0.005580529
30	0x3bfd192d	0.0077239485
31	0x3c4d6d36	0.012538245
32	0x3c3f6a0b	0.011682997
33	0x3b9a8525	0.004715579
34	0x3c4bb21a	0.012432599
35	0xbbfab332	-0.0076507563
36	0x3c495dbf	0.012290417
37	0x3c0c0de9	0.008548238
38	0x3c99290f	0.018696336
39	0x3b6512d1	0.0034953842
40	0x3beb8c17	0.007188331
41	0x3c6cf21e	0.014462022
42	0x3d491841	0.049095396
43	0xbb8568d3	-0.004071334
44	0xbbdaab9e	-0.0066732904
45	0x3c858703	0.01629973
46	0xbbceaacd	-0.006306982
47	0x3cba554a	0.022745747
48	0x3c4da09c	0.012550499
49	0x3cb00a6c	0.021489345
50	0x3c98ece4	0.018667646
51	0xbb1edd15	-0.0024240662
52	0x3bfefb7f	0.0077814455
53	0xbbe4324c	-0.0069640037
54	0x3c88b2af	0.016686765
55	0x3ba9102b	0.005159398
56	0xbb990dc5	-0.004670831
57	0x3baec826	0.005333918
58	0x3d15a31d	0.03653251
59	0x39e1e486	0.00043085607
60	0xbc096fe5	-0.008388494
61	0x3ca7777a	0.020442713
62	0x3c2c611e	0.010521201
63	0x3c202f60	0.00977692
64	0x3c9b2ecd	0.018943215
65	0x3a234ee7	0.0006229714
66	0x3bc648a7	0.0060511413
67	0x3b7ed6b6	0.0038885302
68	0x3bca0c66	0.006166029
69	0x3ae1f918	0.0017240373
70	0x3c5d8b04	0.013521913
71	0x3d18b447	0.0372813
72	0xbb4cfe2f	-0.0031279435
73	0xb8b43064	-8.592082e-05
74	0xbb25ba77	-0.0025288144
75	0x3c5e6242	0.013573231
76	0x3d3adc26	0.045620106
77	0x3ad211db	0.001602705
78	0x3c514cd4	0.012774665
79	0xbbfc01a5	-0.0076906257
80	0xbc2622b1	-0.010140107
81	0x3b31ded4	0.0027140873
82	0xbca3b0f7	-0.019981844
83	0x3b58ed58	0.0033100452
84	0x3c2ea162	0.010658594
85	0x3c87f073	0.016594147
86	0xbc039efb	-0.008033509
87	0x3b5bfd34	0.003356767
88	0xbc88f89f	-0.016720114
89	0xbc85e3c6	-0.016343962
90	0x3c44c042	0.012008728
91	0x3b6b05c7	0.0035861598
92	0xbb18531a	-0.0023242892
93	0xbc48b596	-0.012250325
94	0x3c667d74	0.014067996
95	0x3c17d4e3	0.009267065
96	0x3b1a77db	0.0023569975
97	0xba912a26	-0.0011075183
98	0x3c754c27	0.014971769
99	0x3bcafdf5	0.006194825
100	0xbcc450ce	-0.023964312
101	0x3c80b4c3	0.015711194
102	0x3c5aabe3	0.013346645
103	0x3c67670d	0.01412369
104	0x3c5d7393	0.013516325
105	0x3cf8b64c	0.030360363
106	0xbb9766b4	-0.0046203975
107	0x3c483a1a	0.012220884
108	0x3cc52807	0.024066938
109	0x3b1f664f	0.0024322455
110	0x3c19d3f7	0.009388915
111	0x3c1f1121	0.009708674
112	0x3ccdf1a8	0.025139645
113	0x3af0215f	0.0018320492
114	0x3c9c3fcd	0.019073391
115	0xbade84d6	-0.0016976844
116	0x3ca57732	0.020198438
117	0x3b58cba2	0.003308036
118	0xbbbcc45c	-0.0057607125
119	0x3c9f9b91	0.01948336
120	0x396ee6e4	0.00022783462
121	0x3c934de6	0.01798148
122	0xbc1d3297	-0.009594581
123	0x3a8253a3	0.0009943139
124	0xba58d1f6	-0.0008271033
125	0xbb9e3cc6	-0.004829022
126	0xbb8518a0	-0.0040617734
127	0x3cc9c4a9	0.024629908

rnn.gru.weight_ih_l0 f4 [384, 128]
0	0x3d7410fb	0.059586506
1	0x3dc32423	0.09528377
2	0x3e04bf88	0.12963688
3	0x3c262e21	0.010142834
4	0x3de7229f	0.112859
5	0xbd9f802c	-0.07788119
6	0xbdbaa6e5	-0.09113864
7	0x3cd14d46	0.025549542
8	0x3d49436e	0.04913657
9	0xbc214333	-0.009842682
10	0x3df594ec	0.11991295
11	0x3d80cf5c	0.06289551
12	0xbc210478	-0.009827726
13	0xbdf28056	-0.118408844
14	0x3dd29ada	0.10283442
15	0xbd8d74be	-0.069070324
16	0x3de71afa	0.11284442
17	0xbd135279	-0.035967324
18	0xbcc6e6f7	-0.024280054
19	0xbd133111	-0.035935465
20	0x3d260454	0.04053147
21	0x3d815087	0.063141875
22	0xbbaa4fab	-0.0051974854
23	0xbdff51a4	-0.124667436
24	0xbbc534db	-0.0060182638
25	0xbca6b0ca	-0.020347971
26	0xbd7e89bd	-0.062143076
27	0xbc7a1021	-0.0152626345
28	0x3c8b8cd1	0.01703492
29	0xbd593d34	-0.053036883
30	0x3d5c840c	0.053836867
31	0x3d1da936	0.03849145
32	0x3d9106b9	0.0708136
33	0x3cfaa200	0.030594826
34	0xbceacb45	-0.02866138
35	0xbdec4187	-0.11535936
36	0x3da010e8	0.078157246
37	0x3dbad701	0.0912304
38	0x3d480736	0.048835002
39	0x3d5cf7e2	0.053947337
40	0xbd306767	-0.043067362
41	0xbcb7f20d	-0.022454286
42	0x3df7db75	0.12102405
43	0x3dc7cb59	0.09755582
44	0x3c18373d	0.009290514
45	0x3d4cf732	0.05004043
46	0x3e00f7b0	0.12594485
47	0x3d779eb6	0.060454093
48	0x3d0a4932	0.03376121
49	0x3ddea6dc	0.1087167
50	0xbdad8d9e	-0.08474277
51	0xbdbcad6b	-0.09212764
52	0xbc2403ff	-0.010010718
53	0xbd6640b9	-0.056214068
54	0x3dab392b	0.08360513
55	0x3d35fbe9	0.044429693
56	0x3d90bd56	0.07067363
57	0xbcfef8a8	-0.031124428
58	0x3dfcd613	0.12345519
59	0x3d3afb5f	0.045649882
60	0xbc02723c	-0.007961806
61	0x3e09f0eb	0.13470809
62	0x3c25929d	0.010105756
63	0x3e172f9b	0.14764254
64	0x3de0b8a4	0.109727174
65	0xbd983cc7	-0.07433467
66	0x3dff7f4f	0.12475454
67	0xbd15a37b	-0.03653286
68	0x3d1229a0	0.035684228
69	0xbd13a8ee	-0.036049776
70	0x3c27d57a	0.010243768
71	0x3e165a6c	0.1468293
72	0x3d0a7353	0.033801388
73	0xbd37d0e8	-0.044876963
74	0x3cbb0854	0.02283112
75	0x3da204e7	0.07911091
76	0xbd462aa7	-0.04838052
77	0xbd743e60	-0.059629798
78	0x3cabf690	0.020991594
79	0xbd91cfc7	-0.071197085
80	0xbc8409a4	-0.016117878
81	0x3b668d0d	0.0035179288
82	0x3d8d553b	0.06901022
83	0x3d27f4a4	0.04100479
84	0xbd68b936	-0.056817256
85	0x3dacd272	0.08438577
86	0x3d7f2865	0.062294383
87	0xbcc3daa3	-0.023907965
88	0xbdc2b5f5	-0.09507362
89	0x3cf4471d	0.029819066
90	0xbdbbfe7e	-0.091794
91	0xbdd3cdcc	-0.10341987
92	0x3cc803cd	0.024415875
93	0x3cb2c91f	0.021824418
94	0x3dfed079	0.12442107
95	0xb9743c48	-0.0002329211
96	0x3d020829	0.031746063
97	0xbd15cf53	-0.036574673
98	0x3de2eb62	0.11080052
99	0x3bf52353	0.0074810176
100	0xbd9d9961	-0.0769527
101	0x3d45aa53	0.048258137
102	0x3d5b7f50	0.05358821
103	0xbd6b378d	-0.057426024
104	0xbde92095	-0.11383168
105	0x3cb83bfe	0.022489544
106	0x3e06793f	0.13132189
107	0xbbba9287	-0.005693737
108	0x3d85e045	0.06536917
109	0xbd9b2b0d	-0.07576571
110	0x3cae02cb	0.021241566
111	0xbd072756	-0.032996498
112	0x3db8b4b0	0.090188384
113	0xbc71a5f4	-0.014749039
114	0x3d641f0a	0.055693664
115	0xbddbaf70	-0.107268214
116	0xbd142713	-0.036170077
117	0xbb5ca281	-0.0033666196
118	0xbd6fe50d	-0.05856805
119	0x3c4c5abc	0.012472805
120	0xbdcd062b	-0.10010942
121	0xbd119500	-0.035542488
122	0xbc99f9d3	-0.018795883
123	0x3d162799	0.036658857
124	0xbd92db13	-0.07170691
125	0xbc1577df	-0.009122818
126	0x3c3eff92	0.011657612
127	0xbc05532a	-0.008137504
128	0x3dbc29c9	0.091876574
129	0x3dd74bda	0.105125144
130	0x3d821592	0.063517705
131	0x3da92489	0.08258922
132	0x3d38b4d6	0.045094334
133	0xbd43c10a	-0.04779152
134	0x3dea10a6	0.11428957
135	0xbd10f0ab	-0.03538577
136	0xbd9c0f87	-0.07620149
137	0xbc4c429d	-0.012467054
138	0x3d5983ae	0.053104095
139	0x3da75fd3	0.08172574
140	0x3d54fc8f	0.05199867
141	0xbd5f1920	-0.05446732
142	0xbd9fbc41	-0.077995785
143	0xbcfc7f91	-0.030822547
144	0x3dc71b51	0.09722007
145	0x3d16cc2c	0.036815807
146	0xbc2f12b0	-0.010685608
147	0xbcd4ba8e	-0.025967862
148	0x3d069a95	0.032862265
149	0x3d79ad6f	0.060956415
150	0x3c72037f	0.014771341
151	0xbd49242f	-0.049106773
152	0xbd4103c9	-0.04712275
153	0x3cd897e9	0.026439624
154	0x3c576f89	0.013149151
155	0x3d26245c	0.04056202
156	0xbc8368d0	-0.01604119
157	0x3c2ff9e7	0.010740734
158	0x3d90ef86	0.070769355
159	0xbb549098	-0.0032434817
160	0xbcbd6a18	-0.023121879
161	0xbc5169c5	-0.012781565
162	0xbd892c13	-0.066978596
163	0xbd4f1c96	-0.05056437
164	0x3d991d7d	0.074763276
165	0x3db650f0	0.08902156
166	0x3d321d20	0.043484807
167	0xbda0191f	-0.078172915
168	0x3d70e23c	0.058809504
169	0x3c61ba19	0.013777279
170	0xbd0ff99b	-0.03515015
171	0x3dab0470	0.08350456
172	0x3db52044	0.08844045
173	0x3ce274dc	0.027643614
174	0x3cc33e7a	0.023833502
175	0xbceb1bb9	-0.028699743
176	0x3dc117a2	0.09428336
177	0x3d1b04cf	0.037846383
178	0x3cb2a8d2	0.021809015
179	0x3d43d22b	0.047807854
180	0x3d93af2b	0.07211145
181	0xbde430b9	-0.111421056
182	0xbcfb828c	-0.030701898
183	0x3da667d1	0.0812527
184	0x3e21f164	0.1581474
185	0x3d25aa95	0.040445883
186	0x3dee1771	0.11625565
187	0x3d951d7b	0.072810136
188	0x3d127977	0.03576037
189	0x3c3abd34	0.011397649
190	0xbdd46d82	-0.103724495
191	0x3cc3313b	0.023827186
192	0xbc5de390	-0.013543025
193	0x3b959b6a	0.004565646
194	0x3d20662f	0.03915995
195	0xbcd11927	-0.025524689
196	0x3d961ed2	0.07330097
197	0xbe19a348	-0.15003693
198	0x3d6a0753	0.05713589
199	0xbd61d5ca	-0.055135526
200	0x3dcb9204	0.0993996
201	0xbcff4c68	-0.031164363
202	0xbc9f8afd	-0.019475454
203	0x3db7dac3	0.08977272
204	0x3da882f7	0.082281046
205	0xbd0bd57b	-0.034139138
206	0x3dc8887b	0.097916566
207	0x3d86e700	0.065870285
208	0x3cbbf7dd	0.022945339
209	0xbc5eb6a9	-0.013593354
210	0xbd5414cb	-0.051777642
211	0x3d1d68ce	0.038430028
212	0x3c71a406	0.014748579
213	0x3cd1f002	0.02562714
214	0xbd2b3a6d	-0.041803766
215	0xbcaf0717	-0.021365685
216	0x3d2c263a	0.042028643
217	0xbc640e45	-0.013919418
218	0x3d7e73f4	0.0621223
219	0xbdc5b08d	-0.09652815
220	0xbd5a49b5	-0.05329295
221	0xbdec04fb	-0.115243874
222	0x3d433d61	0.047665957
223	0xbd09ec66	-0.033672713
224	0x3d9d5509	0.07682235
225	0x3e0bd858	0.13656747
226	0x3d625da8	0.0552651
227	0xbd494bc0	-0.049144506
228	0xbe099fe4	-0.134399
229	0xbcc92484	-0.024553545
230	0x3bdaaac6	0.00667319
231	0x3c3ae429	0.011406937
232	0x3bcb89bc	0.0062114876
233	0xbd78eff8	-0.060775727
234	0xbbf717ac	-0.0075406637
235	0x3c062e2c	0.008189719
236	0x3d4f7fdb	0.05065904
237	0xbde631fb	-0.11240002
238	0x3c98b816	0.018642467
239	0xbd937c0d	-0.07201395
240	0x3c406008	0.011741646
241	0xbd86f0cc	-0.06588897
242	0x3dbbfadf	0.09178709
243	0x3de171b2	0.11008014
244	0x3ccfd1e9	0.025368648
245	0xbd4c93b7	-0.04994556
246	0x3d3b3e6b	0.045713823
247	0xbd208886	-0.0391927
248	0xbc1ffa07	-0.009764201
249	0x3db9bc8e	0.09069167
250	0x3deea31b	0.11652204
251	0xbd0c5937	-0.03426477
252	0x3dfc2691	0.123120435
253	0x3d61a13c	0.055085406
254	0xbda5cb25	-0.08095387
255	0xbcb4ae93	-0.0220559

rnn.gru.weight_hh_l0 f4 [384, 128]
0	0x3dcee391	0.101019986
1	0xbccc4450	-0.024934918
2	0xbd5a11b0	-0.053239524
3	0x3d7dd34c	0.061969087
4	0x3baaf3b2	0.005217039
5	0x3db34677	0.087536745
6	0xbdf2f71b	-0.11863538
7	0xbd23e6cc	-0.040015027
8	0xbb92552f	-0.004465721
9	0xbe2c1ab4	-0.16807061
10	0xbd3480bb	-0.04406808
11	0x3e1ce934	0.15323335
12	0xbc506d08	-0.012721308
13	0x3d361845	0.04445674
14	0x3e259828	0.16171324
15	0x3d0a27f5	0.033729512
16	0x3cfcb0ba	0.030845989
17	0x3dbc1e95	0.091855206
18	0xbe011cd0	-0.12608647
19	0xbdc3cbf6	-0.09560387
20	0x3e167f41	0.14696981
21	0x3b81ff61	0.003967211
22	0x3d970fa8	0.07376033
23	0xbddb8fcc	-0.107207865
24	0xbdd5f879	-0.10447783
25	0xbd080de7	-0.033216383
26	0x3cf4d15d	0.029884988
27	0xbe337aa7	-0.17527257
28	0x3cf64070	0.030060023
29	0x3d465e08	0.04842952
30	0x3d533ccd	0.051571656
31	0x3dad6ce0	0.08468032
32	0xbda78655	-0.08179919
33	0x3e3d1bd2	0.18467644
34	0xbd8ad4f0	-0.06778896
35	0xbbdf586e	-0.0068159616
36	0x3dde6f0f	0.108610265
37	0x37e32927	2.7079672e-05
38	0xbddb82d1	-0.107183106
39	0x3d95be7b	0.07311722
40	0xbd5897fb	-0.052879315
41	0x3ced080e	0.028934505
42	0x3925b0e4	0.00015801523
43	0xbd5bd0cb	-0.053665917
44	0xbd2743e9	-0.04083625
45	0xbd1c25b8	-0.03812191
46	0xbcd0e2a4	-0.025498696
47	0xbd9ac188	-0.075564444
48	0xbd6b2faf	-0.05741852
49	0xbe0ab4ed	-0.1354558
50	0x3d3c92d7	0.046038475
51	0x3c94cdde	0.018164571
52	0xbd3afb93	-0.045650076
53	0xbd8bc192	-0.0682403
54	0x3d72956f	0.059224542
55	0x3db5e05e	0.08880685
56	0xbc547254	-0.012966711
57	0xbd4ce9f0	-0.050027788
58	0xbde227df	-0.11042761
59	0xbd24e6e0	-0.040259242
60	0x3d588aac	0.052866623
61	0x3dba9685	0.091107406
62	0x3dac8da4	0.08425453
63	0x3d421131	0.047379676
64	0x3d86c52a	0.06580575
65	0xbc44464d	-0.011979652
66	0x3dd6d56a	0.10489924
67	0xbdcbc9eb	-0.09950622
68	0x3e06c63b	0.13161556
69	0xbd8c56d1	-0.068524964
70	0x3d936b4d	0.071982004
71	0xbdb6e76f	-0.08930861
72	0x3dcd4e4c	0.100246996
73	0xbc4f92c5	-0.01266927
74	0xbd83f2c9	-0.06442792
75	0xbd4a26b6	-0.049353324
76	0xbd77e1b4	-0.06051798
77	0xbdf52ceb	-0.11971458
78	0xbd0d4970	-0.034493864
79	0xbbac994d	-0.0052672983
80	0xbd204232	-0.03912563
81	0x3e1276da	0.14303151
82	0x3caaf74b	0.020869872
83	0x3e2bc2f8	0.16773593
84	0xbd452e66	-0.048139952
85	0xbc9f1c54	-0.019422688
86	0xbd42e39e	-0.047580354
87	0xbb894833	-0.004189515
88	0xbd975c1e	-0.07390617
89	0xbdae438c	-0.08508977
90	0x3de62826	0.112381265
91	0xbcea4277	-0.028596146
92	0xbd07006d	-0.03295939
93	0x3dc9ae3b	0.09847685
94	0xbd0e6549	-0.03476456
95	0x3d994384	0.07483581
96	0xbbcc3f29	-0.006233115
97	0x3c16342e	0.009167714
98	0x3db8e0cc	0.090272516
99	0x3dd6b789	0.10484225
100	0xbc2245ee	-0.009904368
101	0x3c718383	0.0147408275
102	0x3d00bf7b	0.03143261
103	0xbd5185dd	-0.051153053
104	0xbdbf2da4	-0.09334877
105	0x3d199c8b	0.037502807
106	0xbd94a8ea	-0.0725878
107	0x3e150559	0.14552821
108	0xbc81d699	-0.015849398
109	0x3dc1719d	0.09445498
110	0x3ced718c	0.028984807
111	0x3dbc2c83	0.091881774
112	0x3e1ae6ad	0.15127058
113	0x3adec21c	0.0016995105
114	0xbd45c7c2	-0.048286207
115	0xbdde0737	-0.1084122
116	0x3d01cfe7	0.03169241
117	0xbd7b582b	-0.06136338
118	0xbd607606	-0.054800056
119	0x3d2747a0	0.04083979
120	0xbd177b39	-0.03698275
121	0x3dafd56e	0.0858563
122	0xbd904cef	-0.07045924
123	0x3c696f70	0.01424776
124	0x3d17d903	0.037072193
125	0x3ddbcb4c	0.10732135
126	0xbb8e9c72	-0.004352146
127	0x3dc768d2	0.0973679
128	0xbd01fbb5	-0.031734187
129	0x3d3dd6ec	0.046347544
130	0x3c541516	0.01294448
131	0x3c7ca80b	0.015420924
132	0xbdf3226c	-0.118718
133	0x3d2cd076	0.04219099
134	0x3dac699f	0.08418583
135	0xbd98bfa9	-0.07458431
136	0x3d6d7459	0.057972286
137	0xbd062825	-0.03275313
138	0x3d636e03	0.055524837
139	0x3db60ccc	0.088891596
140	0x3c3d0532	0.011536883
141	0xbcf325ea	-0.029681165
142	0xbc8ae3fa	-0.01695441
143	0xbb2b9599	-0.0026181696
144	0xbc4cc16a	-0.012497285
145	0xbd079fb1	-0.033111278
146	0xbda74aa3	-0.08168533
147	0xbd0ea15a	-0.034821846
148	0xbd7f9ef4	-0.06240745
149	0x3dad4bc7	0.08461719
150	0x3b3a1052	0.0028391075
151	0xbcb43151	-0.021996172
152	0x3dab97ee	0.08378588
153	0x3c5263cf	0.012841179
154	0x3d4c30d4	0.049851254
155	0x3d138568	0.036015898
156	0x3d8fe5eb	0.07026275
157	0x3caeff30	0.021361917
158	0x3daeb330	0.08530271
159	0x3d499a79	0.049219582
160	0x3d738d60	0.059460998
161	0x3d31ca98	0.0434061
162	0x3d07ee04	0.033185974
163	0xbd0cf394	-0.03441198
164	0x3d801c46	0.06255393
165	0x3d9ee9f5	0.077594675
166	0xbdb43610	-0.08799374
167	0x3df6bc61	0.12047649
168	0x3d40ddf8	0.047086686
169	0xbd461e36	-0.048368655
170	0x3c83a51c	0.016069941
171	0x3b9167a4	0.0044374038
172	0x3cdd774c	0.027034424
173	0x3de9ac21	0.11409784
174	0x3dd856bf	0.105634205
175	0x3c149d56	0.009070715
176	0xbb8b38ca	-0.004248713
177	0x3c11802d	0.008880657
178	0x3c3c4b60	0.01149258
179	0x3d2b79f6	0.041864358
180	0x3d851a9b	0.06499215
181	0x3dab401b	0.083618365
182	0x3de7cfad	0.11318908
183	0xbc75691c	-0.014978673
184	0xbd6b26fa	-0.057410218
185	0xbcb12428	-0.021623686
186	0x3d5ddded	0.054166723
187	0xbc9c80d4	-0.019104399
188	0x3ca512b3	0.020150518
189	0xbba7db2d	-0.0051225633
190	0xbb604e39	-0.0034226312
191	0xbe0a18f6	-0.13486084
192	0xbd8ac497	-0.06775778
193	0xbd1cb636	-0.038259707
194	0x3d7219f4	0.059106782
195	0xbdc408f8	-0.09572023
196	0x3c5767b6	0.013147285
197	0xbdc5aea1	-0.096524484
198	0xbcd6cd6f	-0.026221005
199	0x3cca3584	0.024683721
200	0x3de08cb0	0.10964334
201	0x3d4e7ab2	0.05040998
202	0xbcf00428	-0.029298857
203	0xbd1370d8	-0.035996288
204	0x3cac1387	0.021005405
205	0x3c6cbc7b	0.014449234
206	0x3c96eb43	0.018422728
207	0xbd597140	-0.05308652
208	0x3e0f1a02	0.13974765
209	0xbd8197f7	-0.06327813
210	0x3d105ea0	0.03524649
211	0x3b2e7107	0.0026617663
212	0xbdcd10fe	-0.10013007
213	0x3e231d33	0.15929107
214	0x3da2eb71	0.07955063
215	0x3d21ecb5	0.039532382
216	0xbc92ce28	-0.017920569
217	0x3cce540b	0.02518656
218	0xbdbfffc8	-0.09374958
219	0xbe156f97	-0.1459335
220	0x3db543da	0.08850832
221	0x3d8a68ea	0.06758292
222	0xbda276aa	-0.079327896
223	0xbca77a7d	-0.02044415
224	0xbdb00b21	-0.08595873
225	0xbdc648ca	-0.09681852
226	0xbca1a60e	-0.019732501
227	0x3da94c12	0.082664624
228	0xbdb34afc	-0.087545365
229	0xbdb3d133	-0.08780136
230	0x3da699a8	0.08134776
231	0x3bfc5a64	0.007701205
232	0xbb4de596	-0.0031417361
233	0xbc1d4b0c	-0.009600412
234	0xbe0cbe7c	-0.13744539
235	0xbd8e9594	-0.069621235
236	0x3d15e4d5	0.036595184
237	0xbd96f204	-0.073703796
238	0x3e253c68	0.16136324
239	0xbd012e2c	-0.031538174
240	0xbc25a7f8	-0.010110848
241	0xbd8cd977	-0.068774156
242	0xb9a22786	-0.00030928495
243	0x3d87db06	0.06633572
244	0xbdd41d6e	-0.10357176
245	0xbcfb0c5c	-0.030645542
246	0xbd84651e	-0.06464599
247	0x3dc5d30d	0.09659395
248	0xbdd79b72	-0.10527696
249	0x3c6ae6f7	0.014337293
250	0x3cea03b1	0.028566213
251	0xbd9a1f1c	-0.07525465
252	0xbd60fc59	-0.054928157
253	0x3dee1ec1	0.116269596
254	0x3d820a31	0.063496
255	0xbd78bf9b	-0.060729604
