scripts/results/SingleCombat/1v1/NoWeapon/Selfplay/ppo/v1_selfplay_from_baseline/run3/actor_750.pt (torch, 696704 bytes, 30 tensors)

base.mlp.fc.0.weight f4 [128, 15]
0.13567357 -0.16990043 -0.082275435 0.28073475 -0.2357169 0.17353947 0.01561327 0.15674144
0.055953488 -0.033288058 0.0024918362 -0.021226862 0.10590603 -0.09980666 0.0049036313 0.018218435
0.024365466 -0.02880072 0.3429361 0.10369814 -0.08178039 -0.018067861 -0.03782391 -0.099759124
-0.028305873 -0.1846702 0.1807537 0.17043422 -0.23956247 0.09622431 0.035213295 0.29066086
0.15286839 -0.30168483 -0.28680405 -0.15631147 0.18449135 0.055590328 0.07945446 -0.22785982
0.58034164 -0.25033477 0.17584082 -0.013686073 -0.1518919 0.16079456 -0.14368615 0.12517616
0.14257254 -0.006864755 -0.23110372 -0.09597814 0.12091818 -0.04924852 0.22740246 0.15087739
-0.022837246 -0.16708855 0.23129977 0.07179777 -0.20129429 0.14404044 0.10736625 0.17901136
-0.16760336 -0.070441544 -0.026493862 -0.036024112 -0.22079733 -0.21162449 0.14617574 -0.07191942
0.09348355 -0.020574175 0.044339802 0.07401967 0.0556389 0.1383558 -0.3112143 0.13295388
-0.19274688 -0.3505672 0.32448006 -0.058957774 0.1749134 -0.15938117 -0.28952247 0.17706077
0.049405172 0.13709132 0.08382022 -0.28443378 0.07373537 -0.070939414 -0.1684935 -0.12616062
-0.053635325 0.07507904 -0.11281745 -0.049594715 0.36193705 -0.09508953 0.14039046 0.115244284
-0.17112283 -0.22395912 0.30992618 -0.051769044 0.35246724 0.038304877 0.0712045 0.25021914
0.3490656 -0.18360679 -0.03177497 0.3710467 0.21074133 0.15432233 -0.19826652 -0.14865793
-0.1601586 0.012713646 0.22884814 -0.2387248 0.13211688 -0.13142748 -0.43433174 -0.2555778
0.16313979 0.2514472 -0.1656532 0.07578381 0.20648964 0.2507175 0.11519353 0.18505062
0.24872798 0.037214004 -0.30927095 -0.22761288 -0.1342493 0.024779875 -0.30637193 0.07715035
0.07765214 -0.14529735 0.08455066 0.07491279 0.1818525 0.1274803 -0.096998625 0.218046
-0.061025515 -0.03284426 -0.26761326 -0.17672627 -0.065474935 -0.13333283 0.1695068 -0.12293282
-0.20352124 0.086514786 0.08856994 0.17459686 -0.097943135 0.05498485 -0.0825671 -0.09484937
-0.1864157 -0.118063144 -0.07997015 0.013266624 -0.0064690206 0.06358735 0.24842349 0.34745297
0.13739169 0.06360558 -0.18274908 0.19655176 0.022946032 -0.108729415 -0.19522455 -0.17467254
-0.118101075 0.305796 -0.37385443 -0.24759535 0.0543721 -0.057523806 0.075998895 -0.29501924
-0.06377579 0.13508064 0.22324787 -0.177575 0.23214544 0.20697105 0.27111873 -0.16932805
0.07876282 -0.09070682 0.19531848 -0.083229005 0.19079317 -0.10261979 -0.050965365 0.0029516737
0.060768608 0.13189927 0.039752934 0.07074685 -0.32523346 0.23014675 0.22019891 0.21793108
0.23943555 -0.3559601 -0.09229095 0.17618527 -0.17067192 0.26109928 -0.20418373 -0.25303644
0.17985903 -0.21159557 -0.118202835 0.19320284 0.29137835 0.2314714 -0.06179092 -0.20785813
0.43930507 -0.061787542 -0.0765019 0.06494544 -0.30344748 0.12774403 0.09523296 -0.15824434
-0.20189346 -0.038158815 0.14319906 -0.040301505 -0.14810623 0.0036224804 -0.29986918 -0.11612074
-0.17706029 0.12726454 0.22319458 -0.118543476 0.023820475 0.15862425 0.037216976 -0.13892785
00000000: 03ee 0a3e 61fa 2dbe 0680 a8bd 77bc 8f3e
00000010: c55f 71be 55b4 313e cdce 7f3c d480 203e
00000020: 7c2f 653d 0f59 08bd 134e 233b f5e3 adbc
00000030: 43e5 d83d 6f67 ccbd a4ae a03b d43e 953c
00000040: 169a c73c 7def ebbc 5295 af3e b15f d43d
00000050: 7a7c a7bd 0d03 94bc 3fed 1abd 834e ccbd
00000060: b8e1 e7bc 2f1a 3dbe 7f17 393e 4f86 2e3e
00000070: dd4f 75be 4011 c53d d13b 103d 80d1 943e
00000080: 8889 1c3e 6f76 9abe fbd7 92be 1d10 20be
00000090: 4deb 3c3e afb2 633d 05b9 a23d 1654 69be
000000a0: 4591 143f e12b 80be 9e0f 343e 8d3b 60bc
000000b0: 8d89 1bbe 54a7 243e 7622 13be 2e2e 003e
000000c0: 89fe 113e bdf1 e0bb 74a6 6cbe 3090 c4bd
000000d0: f3a3 f73d d1b8 49bd 31dc 683e 9a7f 1a3e
000000e0: 2d15 bbbc 4319 2bbe d9d9 6c3e b60a 933d
000000f0: 1720 4ebe 567f 133e d6e2 db3d c14e 373e
00000100: 37a0 2bbe a843 90bd a809 d9bc 058e 13bd
00000110: b218 62be 17b4 58be 18af 153e 7d4a 93bd
00000120: 4e74 bf3d 2c8b a8bc a79d 353d a097 973d
00000130: 9de5 633d 25ad 0d3e 7b57 9fbe 1025 083e
00000140: 705f 45be 8b7d b3be 4022 a63e b57d 71bd
00000150: 801c 333e d134 23be 4a3c 94be 6b4f 353e
00000160: 145d 4a3d ab61 0c3e efa9 ab3d 4ea1 91be
00000170: 9202 973d af48 91bd 8f89 2cbe 4030 01be
00000180: b7b0 5bbd 0ac3 993d d60c e7bd d423 4bbd
00000190: d04f b93e 4dbe c2bd 84c2 0f3e 3205 ec3d
000001a0: d33a 2fbe 8a55 65be a5ae 9e3e c70b 54bd
000001b0: 9676 b43e 93e5 1c3d aad3 913d b91c 803e
000001c0: bab8 b23e 6b03 3cbe 7926 02bd d5f9 bd3e
000001d0: 93cc 573e ac06 1e3e 6106 4bbe c939 18be
000001e0: 9e00 24be e54c 503c 2b57 6a3e 4674 74be
000001f0: a649 073e ed94 06be bb60 debe 18db 82be
00000200: 1e0e 273e b0bd 803e fea0 29be 8b34 9b3d
00000210: 0572 533e 0b5e 803e 96ea eb3d e97d 3d3e
00000220: 8cb2 7e3e b66d 183d c358 9ebe 5a13 69be
00000230: a678 09be 2aff ca3c c8dc 9cbe 0101 9e3d
00000240: 1608 9f3d d4c8 14be e528 ad3d e06b 993d
00000250: 8b37 3a3e 328a 023e 37a7 c6bd 7347 5f3e
00000260: e4f5 79bd b487 06bd 9b04 89be bbf7 34be
00000270: b917 86bd 6788 08be 3193 2d3e 34c4 fbbd
00000280: df67 50be aa2e b13d 2864 b53d 85c9 323e
00000290: 6996 c8bd cb37 613d f118 a9bd 6340 c2bd
000002a0: c2e3 3ebe 17cb f1bd 64c7 a3bd 415c 593c
000002b0: 14fa d3bb 163a 823d ba62 7e3e 5be5 b13e
000002c0: 68b0 0c3e a443 823d 9322 3bbe dd44 493e
000002d0: 51f9 bb3c 87ad debd f2e8 47be 5cdd 32be
000002e0: fade f1bd 4b91 9c3e d969 bfbe a389 7dbe
000002f0: 47b5 5e3d 159e 6bbd 4fa5 9b3d c30c 97be
00000300: e29c 82bd 9452 0a3e 179b 643e 39d6 35be
00000310: 89b7 6d3e 38f0 533e 13d0 8a3e 5564 2dbe
00000320: 674e a13d 7fc4 b9bd 9101 483e f873 aabd
00000330: 495f 433e 532a d2bd 0fc1 50bd de70 413b
00000340: 81e8 783d 9a10 073e f9d3 223d b9e3 903d
00000350: 0085 a6be 97ab 6b3e d37b 613e 5329 5f3e
00000360: 982e 753e 6740 b6be 0a03 bdbd e969 343e
00000370: 9fc4 2ebe ceae 853e 8a15 51be fe8d 81be
00000380: f72c 383e 82ac 58be 5414 f2bd f7d6 453e
00000390: 8b2f 953e d706 6d3e 7a18 7dbd c3d8 54be
000003a0: 98ec e03e ef14 7dbd 07ad 9cbd 1d02 853d
000003b0: 785d 9bbe 55cf 023e 8009 c33d ce0a 22be
000003c0: 29bd 4ebe 6b4c 1cbd c6a2 123e 3113 25bd
000003d0: 29a9 17be 2367 6d3b 7488 99be b6d0 edbd
000003e0: 4b4f 35be a351 023e 1f8d 643e ecc6 f2bd
000003f0: 2823 c33c 656e 223e d470 183d 1a43 0ebe

base.mlp.fc.0.bias f4 [128]
-0.08133662 -0.20286003 0.03792675 -0.08836231 -0.24156217 -0.029822184 -0.21587275 0.11844418
-0.16255784 -0.096457146 -0.27420402 -0.030070921 -0.009970379 0.15269959 -0.062410835 0.15951715
0.22478814 0.038315218 -0.1149865 -0.1906838 -0.15641244 -0.10837111 -0.12253326 0.14202538
-0.07910672 -0.019381654 0.0020374556 -0.23900723 0.23009776 -0.101981364 -0.23381037 -0.021898177
-0.25443798 0.009319187 -0.18552646 -0.031988654 -0.09565537 0.17402206 0.18889147 0.2338026
0.06395765 0.14397322 -0.22472504 -0.1894473 0.11106128 0.05019762 0.081300475 0.16563982
0.15323336 0.08976453 -0.1156762 -0.07050035 0.083783925 0.19612347 -0.04551631 -0.08214709
0.14686991 0.13922477 -0.022977889 -0.06584904 -0.21525466 -0.002233761 0.061320208 -0.22978398
-0.20482552 -0.25592208 0.13377875 0.24863982 0.25618824 0.21281692 -0.024126168 0.058893345
0.16739818 -0.09758459 -0.14471164 0.15949345 0.027414082 0.13894317 -0.13245596 -0.1608901
0.0064707594 0.041866444 0.13866721 0.18206988 -0.0764253 0.25579223 -0.15840994 -0.04124001
-0.13629025 0.051984176 0.20652959 -0.22642952 0.04260888 -0.21125531 -0.027094247 -0.1199016
0.0045751566 -0.19437684 0.03974212 -0.23082533 0.05992573 -0.12601106 -0.2088784 0.16608989
-0.022865238 -0.14064617 -0.123836204 -0.12273011 -0.13984376 0.010121909 -0.011747853 0.1789957
0.029732551 -0.10546357 0.18939127 0.07548517 -0.061399687 0.16329813 0.24476938 -0.23198386
-0.20814231 -0.19721232 -0.24034563 -0.11136589 0.13231005 -0.25904945 -0.28602013 -0.15191129
00000000: d093 a6bd 8aba 4fbe 1459 1b3d 4cf7 b4bd
00000010: 135c 77be a74d f4bc bf0d 5dbe dd92 f23d
00000020: 9075 26be 538b c5bd 7864 8cbe 4b57 f6bc
00000030: cd5a 23bc 485d 1c3e 81a2 7fbd 7758 233e
00000040: dd2e 663e 6bf0 1c3d 0b7e ebbd 9d42 43be
00000050: 952a 20be acf1 ddbd b8f2 fabd 1a6f 113e
00000060: b402 a2bd 46c6 9ebc d586 053b 50be 74be
00000070: bf9e 6b3e 9bdb d0bd fc6b 6fbe ce63 b3bc
00000080: b245 82be 81af 183c a6fa 3dbe 8906 03bd
00000090: f6e6 c3bd d732 323e c46c 413e f369 6f3e
000000a0: 3afc 823d b76d 133e 521e 66be 79fe 41be
000000b0: 1974 e33d 059c 4d3d dd80 a63d 7c9d 293e
000000c0: 35e9 1c3e 77d6 b73d a5e7 ecbd 7d62 90bd
000000d0: e896 ab3d 97d4 483e 4f6f 3abd bc3c a8bd
000000e0: 1165 163e f090 0e3e 203c bcbc dddb 86bd
000000f0: b86b 5cbe 4a64 12bb e62a 7b3d 7e4c 6bbe
00000100: c8bd 51be 3808 83be 4cfd 083e 709b 7e3e
00000110: 1b2b 833e aeec 593e 3ea4 c5bc 263a 713d
00000120: 6e6a 2b3e 6eda c7bd 4a2f 14be 4052 233e
00000130: 7f93 e03c 1e47 0e3e 89a2 07be 60c0 24be
00000140: aa08 d43b 267c 2b3d c7fe 0d3e 8770 3a3e
00000150: de84 9cbd 33f7 823e 3736 22be 49eb 28bd
00000160: ac8f 0bbe 5ced 543d 7e7c 533e 24dd 67be
00000170: a686 2e3d 5053 58be c1f4 ddbc f88e f5bd
00000180: 32eb 953b b90a 47be a2c8 223d 7a5d 6cbe
00000190: af74 753d 0b09 01be 38e4 55be 7813 2a3e
000001a0: e14f bbbc 8d05 10be d69d fdbd ed59 fbbd
000001b0: 3433 0fbe 5dd6 253c 117a 40bc a64a 373e
000001c0: ae91 f33c 49fd d7bd c9ef 413e f897 9a3d
000001d0: 3d7e 7bbd a037 273e d3a4 7a3e 2d8d 6dbe
000001e0: 4223 55be 07f2 49be 2a1d 76be cd13 e4bd
000001f0: 497c 073e 21a2 84be 3b71 92be a28e 1bbe

base.mlp.fc.2.weight f4 [128]
1.0540737 1.0428203 1.0609866 0.966829 0.96078074 0.9908869 1.0010929 1.0076826
1.0167936 1.0223885 0.9658675 0.9420538 0.9767086 0.94348997 1.0230372 1.0063363
0.9595175 1.0139699 1.0469799 1.0386232 0.9275124 0.9589522 0.97265434 1.0951023
1.0332682 1.0431874 1.0531323 0.98360676 1.030509 1.0207795 0.96452546 1.0440657
0.9681528 0.98190486 0.9498572 0.9916536 1.1253201 0.9681618 1.1538545 1.0150044
1.0379366 0.9643177 1.0316582 0.9995737 0.91957116 1.0019971 0.94827175 1.0204751
1.0493352 1.016067 0.9963522 0.9833854 1.0362562 1.0265398 0.9602872 0.954584
0.95631593 0.9616386 0.97612786 1.0393763 1.1088352 0.97630775 1.0018659 0.98051935
1.0168616 1.0213441 0.8770169 0.98755217 1.0136948 1.052359 0.94497603 0.977472
1.0535178 1.0383362 1.1473866 0.9846464 0.95015204 0.98315984 1.0495616 0.9963472
0.95971775 1.0081923 0.9994133 1.0590094 0.9822374 1.0083331 0.975581 0.9253149
1.0082642 1.0607138 1.0015132 0.9848758 0.98405576 0.97821665 0.97504306 1.0187843
1.0114858 0.94463706 1.0397503 0.9432478 0.99256665 0.9689945 0.94703555 0.9765472
0.9442364 0.9579707 0.9930016 0.99412984 1.0352769 1.0931505 0.9792263 0.9990611
1.0717576 0.92786914 0.950985 0.93109614 1.100361 1.0040605 0.96599454 0.9759271
1.004063 0.961027 0.89483917 1.005051 0.93229353 0.9428786 0.9724871 1.0287241
00000000: e3eb 863f 237b 853f 69ce 873f 1b82 773f
00000010: baf5 753f c4aa 7d3f d023 803f befb 803f
00000020: 4b26 823f a0dd 823f 1843 773f 702a 713f
00000030: 9309 7a3f 8f88 713f e2f2 823f a1cf 803f
00000040: f0a2 753f c4c9 813f 7003 863f 9bf1 843f
00000050: 7471 6d3f e47d 753f e0ff 783f 502c 8c3f
00000060: 2242 843f 2a87 853f 0acd 863f a7cd 7b3f
00000070: b8e7 833f e7a8 823f 24eb 763f f2a3 853f
00000080: ddd8 773f 1e5e 7b3f d729 733f 03dd 7d3f
00000090: 7d0a 903f 74d9 773f 81b1 933f aaeb 813f
000000a0: 1bdb 843f 86dd 763f 600d 843f 10e4 7f3f
000000b0: 0469 6b3f 7141 803f f0c1 723f ee9e 823f
000000c0: 9e50 863f 7c0e 823f f010 7f3f 25bf 7b3f
000000d0: 0ba4 843f a865 833f 62d5 753f 9e5f 743f
000000e0: 1fd1 743f f32d 763f 84e3 793f 480a 853f
000000f0: 50ee 8d3f 4eef 793f 243d 803f 5103 7b3f
00000100: 8528 823f 67bb 823f 2e84 603f 38d0 7c3f
00000110: c0c0 813f b3b3 863f f3e9 713f 9b3b 7a3f
00000120: acd9 863f 33e8 843f 90dd 923f c911 7c3f
00000130: 2a3d 733f 5db0 7b3f 0958 863f 9c10 7f3f
00000140: 10b0 753f 720c 813f 8dd9 7f3f 9f8d 873f
00000150: e973 7b3f 0f11 813f adbf 793f 70e1 6c3f
00000160: cd0e 813f 78c5 873f 9631 803f d220 7c3f
00000170: 14eb 7b3f 686c 7a3f 6c9c 793f 8667 823f
00000180: 5e78 813f bcd3 713f 8a16 853f b078 713f
00000190: d918 7e3f 0610 783f ec70 723f fffe 793f
000001a0: 7ab9 713f 913d 753f 5a35 7e3f 4b7f 7e3f
000001b0: f483 843f 5bec 8b3f 93ae 7a3f 78c2 7f3f
000001c0: 5a2f 893f d588 6d3f c173 733f 515c 6e3f
000001d0: a1d8 8c3f 0e85 803f 6b4b 773f 5cd6 793f
000001e0: 2385 803f de05 763f 2e14 653f 83a5 803f
000001f0: caaa 6e3f 7e60 713f eaf4 783f 3bad 833f

base.mlp.fc.2.bias f4 [128]
0.018794667 0.017153887 -0.0057171606 0.034643296 0.03947521 -0.010703489 0.019262819 0.012272233
-0.0034909605 0.02061649 0.049393844 0.04132067 0.033613745 0.065258 0.018828811 -0.023681939
0.041093197 0.01680297 -0.011413049 0.010200612 0.07679086 0.04045034 0.027392613 -0.01119753
0.0017416152 -0.0056267017 -0.009057028 0.028111259 0.029544692 0.020892229 -0.010387479 -0.014164891
-0.012583651 0.030048816 0.054219615 0.024261886 -0.00091900094 0.03339694 0.00437972 0.010624775
0.028143456 -0.016321005 -0.0069961976 -0.00999331 0.07730024 0.005755249 0.013546054 0.022161053
-0.005630458 -0.011004038 -0.015453115 0.029363414 -0.0057066567 -0.012892377 0.037247483 0.0420992
-0.009920121 0.039502542 0.0271856 -0.005117814 0.0041042585 -0.031471394 -0.020697363 -0.034217943
-0.008711258 0.008327998 0.11769361 0.012601277 -0.0032783446 -0.011897148 0.045034837 -0.029763373
-0.0030543155 -0.013287989 0.00013245457 -0.04532037 0.05707753 0.039361686 -0.017368643 0.01717662
0.051029842 0.01992311 -0.015573143 0.024963496 -0.032338656 0.006222373 -0.018728396 -0.04413033
0.026621204 0.015528016 -0.017158033 0.033501316 0.016639188 0.0390314 0.025930429 -0.0076555447
-0.006580494 0.049465176 -0.010781522 0.049410783 0.019147312 0.016136283 0.056547973 -0.041244756
0.052000985 0.02458101 0.022243131 0.0069660586 0.021388408 -0.01914836 -0.015268964 -0.03229161
0.026626652 0.07291602 0.0014444971 0.044253085 -0.015782394 -0.021848569 0.035150208 0.033548653
0.012354055 0.057943128 0.10924692 -0.027195705 0.05307948 0.05824413 0.0025866462 0.006353164
00000000: 46f7 993c 4f86 8c3c 0557 bbbb 21e6 0d3d
00000010: c2b0 213d b05d 2fbc 0fcd 9d3c 7a11 493c
00000020: 99c8 64bb eae3 a83c 3351 4a3d dd3f 293d
00000030: 91ae 093d fca5 853d e13e 9a3c a000 c2bc
00000040: 5751 283d 62a6 893c ccfd 3abc 7820 273c
00000050: 8744 9d3d 41af 253d 7966 e03c d875 37bc
00000060: e946 e43a 3260 b8bb ee63 14bc 9549 e63c
00000070: b607 f23c 2e26 ab3c 3f30 2abc dc13 68bc
00000080: a82b 4ebc ef28 f63c 6315 5e3d ddc0 c63c
00000090: 1ce9 70ba 3bcb 083d c183 8f3b 8913 2e3c
000000a0: 1b8d e63c a1b3 85bc 5c40 e5bb fbba 23bc
000000b0: 974f 9e3d 8796 bc3b 45f0 5d3c 198b b53c
000000c0: b47f b8bb 484a 34bc 102f 7dbc 8b8b f03c
000000d0: e8fe babb 8c3a 53bc d190 183d 3670 2c3d
000000e0: 0188 22bc 6bcd 213d 56b4 de3c 56b3 a7bb
000000f0: 047d 863b 26e8 00bd 848d a9bc 1d28 0cbd
00000100: aab9 0ebc 2872 083c 5909 f13d 9675 4e3c
00000110: 7fd9 56bb 41ec 42bc 7376 383d 51d2 f3bc
00000120: e92a 48bb deb5 59bc 81e3 0a39 daa1 39bd
00000130: 21ca 693d b839 213d af48 8ebc fcb5 8c3c
00000140: ab04 513d ca35 a33c 7f26 7fbc 3f80 cc3c
00000150: 8a75 04bd 0ce5 cb3b 4b6c 99bc 01c2 34bd
00000160: b614 da3c 3869 7e3c 018f 8cbc ad38 093d
00000170: e84e 883c 64df 1f3d 0d6c d43c 5ddb fabb
00000180: 2fa1 d7bb ff9b 4a3d fba4 30bc f662 4a3d
00000190: d3da 9c3c 3d30 843c d99e 673d 43f0 28bd
000001a0: fcfe 543d 1d5e c93c 3a37 b63c 8943 e43b
000001b0: be36 af3c 05dd 9cbc ad2a 7abc 3544 04bd
000001c0: 2320 da3c ff54 953d 4855 bd3a b942 353d
000001d0: 144a 81bc c5fb b2bc aaf9 0f3d 506a 093d
000001e0: aa68 4a3c c655 6d3d d9bc df3d 87c9 debc
000001f0: de69 593d 6691 6e3d b984 293b 342e d03b

base.mlp.fc.3.weight f4 [128, 128]
-0.021706978 0.04271379 0.13033211 0.10489184 0.027287444 -0.050607394 0.12246643 -0.058318473
0.050223626 0.0561912 0.05526524 0.025389321 -0.07362738 -0.0072717187 -0.071134366 0.053381152
0.0067474395 0.0027846007 0.07878 0.068315364 -0.036428466 -0.047136784 0.06491447 0.046765547
-0.07529641 0.07682867 -0.09379792 0.103651 0.08952222 0.08915404 -0.0047305007 0.027577069
-0.084373966 0.07605544 0.03155155 0.09118063 -0.02860727 0.11217618 0.049157705 -0.046308618
0.02890919 -0.104046665 -0.029611647 -0.030001508 -0.027102822 0.017406201 -0.019121626 -0.036944572
0.04475044 -0.006034259 -0.014694598 -0.015542391 0.005109656 0.046576377 0.05696623 0.07951263
-0.058012176 0.019704474 0.04707625 -0.014964966 0.07852385 -0.02265554 -0.03703919 -0.082982056
0.067029096 -0.030859776 0.018085375 -0.088195585 0.106854804 0.0018805298 0.06465294 -0.03257796
-0.060173266 0.053227264 0.09018887 0.06604723 0.0094121 0.003779911 0.017455144 -0.05869231
-0.019695168 -0.07643738 -0.09888105 0.006630967 -0.037610356 -0.02198944 -0.03054356 0.007932637
-0.0047099567 -0.067981996 0.02475049 -0.0613844 -0.010868006 0.012878423 0.05425475 -0.07570998
-0.067185886 0.09793399 0.002842988 0.10556215 0.036348205 0.07585998 0.041263416 -0.05084726
-0.023525734 -0.033579066 0.050897136 0.06555123 0.12114626 0.07467244 0.07692453 -0.08534542
-0.045181043 -0.014711397 -0.042818874 0.03219429 -0.056666136 0.08840049 -0.03018667 0.13045697
-0.06425123 -0.0422044 0.039050527 -0.006493318 -0.029091379 -0.018271515 0.04402051 0.0044498197
0.0008827717 0.03522126 -0.06409937 0.100670494 -0.04467084 -0.032644637 0.037782535 0.041294992
0.0056486595 -0.042616196 0.04343822 -0.024770651 -0.005497708 0.0033440501 -0.030515963 0.0071344725
-0.043439407 0.017304381 -0.091822594 -0.09810827 0.058997218 0.06499831 0.102176264 -0.089698754
-0.0670109 -0.078643054 0.02783817 -0.038073797 0.17026864 -0.060799293 -0.020230211 -0.09617896
0.07296346 0.10041226 0.03153428 0.007891944 0.035124518 0.11178596 0.050652757 -0.02790025
0.076334864 0.07428177 -0.0905091 0.05197659 -0.042257868 -0.048425537 -0.015262387 0.09221165
-0.0093478365 -0.07002308 0.04551342 -0.011020123 0.013446029 -0.09957146 0.08884061 -0.018901989
-0.0802422 0.07092173 -0.030386211 0.12539516 0.031465918 -0.045158852 -0.13342234 -0.110796124
-0.010532115 0.06681911 0.06809041 -0.02699499 -0.07475073 -0.15383326 0.056090046 -0.036817778
-0.03964565 -0.04189817 0.051074166 -0.026848242 0.15685399 -0.015089746 -0.050415203 0.0476897
0.0181799 -0.003454546 0.047938805 -0.027299276 -0.07850783 -0.019189147 -0.022987174 -0.025189172
0.018816194 0.099323384 -0.010112607 0.01499786 -0.03481506 -0.09243268 0.0063116523 -0.037799817
-0.015110575 0.087243184 0.008841503 -0.07662 -0.009670089 0.07200872 -0.00023698689 -0.173663
-0.010399066 0.044579867 0.056427583 0.0053428253 -0.0866849 0.061222803 -0.04787018 -0.12902898
0.0937786 -0.049352013 -0.06220085 -0.024924913 -0.060832407 0.054040298 0.06427575 0.029846907
-0.04734908 0.03475446 0.042622544 -0.10131993 0.067746 -0.002473869 0.09492846 -0.050315127
00000000: d5d2 b1bc a8f4 2e3d c875 053e 88d1 d63d
00000010: eb89 df3c b349 4fbd aecf fa3d 5adf 6ebd
00000020: 4ab7 4d3d be28 663d ce5d 623d 44fd cf3c
00000030: f4c9 96bd 9947 eebb e5ae 91bd 32a6 5a3d
00000040: a019 dd3b d97d 363b 6957 a13d ede8 8b3d
00000050: 0436 15bd 8012 41bd e1f1 843d 3b8d 3f3d
00000060: 0135 9abd 5a58 9d3d 2019 c0bd fa46 d43d
00000070: 6d57 b73d 6596 b63d 5102 9bbb 4ee9 e13c
00000080: 42cc acbd f4c2 9b3d 333c 013d e9bc ba3d
00000090: cb59 eabc a0bc e53d 9759 493d 1bae 3dbd
000000a0: f7d2 ec3c 6b16 d5bd 2094 f2bc b9c5 f5bc
000000b0: bd06 debc 7397 8e3c f5a4 9cbc 3153 17bd
000000c0: 3d4c 373d 09bb c5bb 9cc1 70bc 83a5 7ebc
000000d0: e76e a73b dfc6 3e3d 6c55 693d 85d7 a23d
000000e0: 2d9e 6dbd 476b a13c 07d3 403d 9e2f 75bc
000000f0: 1dd1 a03d 1c98 b9bc 68b6 17bd 7ff2 a9bd
00000100: 8d46 893d a4cd fcbc c827 943c e39f b4bd
00000110: b1d6 da3d 1c7c f63a c368 843d 7870 05bd
00000120: 3e78 76bd d504 5a3d f1b4 b83d c543 873d
00000130: 3535 1a3c 62b8 773b 17fe 8e3c 5967 70bd
00000140: c357 a1bc 338b 9cbd 2682 cabd 9548 d93b
00000150: 510d 1abd 3323 b4bc 7d36 fabc e4f7 013c
00000160: fb55 9abb 253a 8bbd 8ac1 ca3c 356e 7bbd
00000170: b90f 32bc 0500 533c 3b3a 5e3d d60d 9bbd
00000180: c198 89bd 9e91 c83d 6c51 3a3b f830 d83d
00000190: dbe1 143d 7a5c 9b3d d403 293d 3745 50bd
000001a0: 0ab9 c0bc 348a 09bd 8479 503d b93f 863d
000001b0: 881b f83d dded 983d 9c8a 9d3d 94c9 aebd
000001c0: c20f 39bd 1208 71bc d862 2fbd 29de 033d
000001d0: c01a 68bd 510b b53d 094a f7bc 8396 053e
000001e0: 2696 83bd 85de 2cbd 72f3 1f3d e6c5 d4bb
000001f0: 0b51 eebc 25ae 95bc da4e 343d cbcf 913b
00000200: ce69 673a 2b44 103d 8846 83bd 552c ce3d
00000210: c5f8 36bd 62b6 05bd dcc1 1a3d f024 293d
00000220: 6418 b93b 528e 2ebd 46ec 313d d2eb cabc
00000230: 1e26 b4bb da27 5b3b 9dfc f9bc 4bc8 e93b
00000240: 85ed 31bd ebc1 8d3c 7c0d bcbd fdec c8bd
00000250: 11a7 713d d51d 853d ca41 d13d fbb3 b7bd
00000260: 033d 89bd 9c0f a1bd e00c e43c 45f3 1bbd
00000270: e75a 2e3e ae08 79bd d4b9 a5bc 79f9 c4bd
00000280: de6d 953d f1a4 cd3d 172a 013d 364d 013c
00000290: bade 0f3d 0af0 e43d 4479 4f3d 118f e4bc
000002a0: 7455 9c3d 0a21 983d d65c b9bd 68e5 543d
000002b0: 9616 2dbd db59 46bd 170f 7abc 76d9 bc3d
000002c0: ab27 19bc 4368 8fbd 486c 3a3d bf8d 34bc
000002d0: bc4c 5c3c 1fec cbbd 11f2 b53d 58d8 9abc
000002e0: 0656 a4bd 693f 913d 81ec f8bc 9767 003e
000002f0: 68e2 003d 7df8 38bd de9f 08be 14e9 e2bd
00000300: e48e 2cbc 75d8 883d fc72 8b3d 9924 ddbc
00000310: e916 99bd 7786 1dbe adbe 653d 3dce 16bd
00000320: 7a63 22bd 6a9d 2bbd 2533 513d d8f0 dbbc
00000330: 559e 203e fb3a 77bc 2c80 4ebd 4656 433d
00000340: 03ee 943c aa65 62bb 7b5b 443d bba2 dfbc
00000350: b7c8 a0bd 8f32 9dbc 994f bcbc 8659 cebc
00000360: 6b24 9a3c 0f6a cb3d 59af 25bc 96b9 753c
00000370: 3d9a 0ebd 584d bdbd fad1 ce3b fbd3 1abd
00000380: 5892 77bc 8eac b23d f4db 103c f2ea 9cbd
00000390: 4b6f 1ebc 4f79 933d af7f 78b9 b7d4 31be
000003a0: d860 2abc 6199 363d 9c20 673d de12 af3b
000003b0: da87 b1bd c3c4 7a3d 8613 44bd 2c20 04be
000003c0: ff0e c03d 5625 4abd 52c6 7ebd 552f ccbc
000003d0: 672b 79bd 5c59 5d3d 01a3 833d 8081 f43c
000003e0: 1cf1 41bd b15a 0e3d fa94 2e3d d380 cfbd
000003f0: 6abe 8a3d a220 22bb da69 c23d 3c17 4ebd

base.mlp.fc.3.bias f4 [128]
-0.06857411 0.011748112 0.006025583 -0.09810799 -0.027217979 0.017222328 -0.054281298 -0.0914602
-0.04881036 0.07334083 -0.03339257 0.022311248 -0.023334287 -0.01935517 0.04603203 -0.05949657
-0.025601042 -0.08273068 -0.05571807 0.034041744 -0.115899906 0.024410658 -0.00093755394 -0.004353288
0.009914075 -0.0018627334 0.0631631 -0.08521683 -0.024349727 0.06152008 0.038885105 0.05270849
-0.073941685 -0.07930042 -0.04045487 0.073003165 -0.07370498 -0.03670924 -0.022652159 -0.036053687
-0.06283317 0.06680901 -0.025916846 -0.037761644 0.02504613 -0.009038715 -0.01851181 -0.049633015
0.009387676 -0.053008895 -0.083421424 0.06884783 0.04778583 0.07274758 -0.10065469 -0.04440144
0.059856143 -0.0056877597 -0.011196301 0.043866906 0.054445546 -0.012798617 -0.013065869 -0.07365725
-0.07163657 0.013121995 -0.0021835724 0.01886582 -0.054859176 0.02887098 0.034675475 -0.07964687
0.00023807 -0.067686945 0.026838915 0.007362429 -0.011102842 -0.09113008 0.01846675 0.054166906
0.0034172756 -0.020769464 -0.091126196 -0.090467125 -0.08233864 0.04182152 0.008087903 0.056119107
-0.051961813 0.0015468118 0.07354301 -0.07217972 -0.010216199 0.05939597 0.02273229 0.04098763
-0.00574385 -0.0017737473 -0.080201685 0.0046319715 -0.08921929 0.008767427 0.011646519 -0.042670123
-0.033427343 -0.021706678 -0.00080946326 -0.01863699 0.04345606 -0.081065215 -0.05681042 -0.062001422
0.0028259808 -0.062488973 -0.047207154 0.06143087 0.030951092 -0.0016627889 0.0011203239 -0.061186552
-0.040077016 0.061646026 0.048049156 -0.09468009 0.052364048 -0.031063473 0.04686468 -0.028302772
00000000: 9570 8cbd 277b 403c 4172 c53b d8ec c8bd
00000010: 3df8 debc d715 8d3c 1156 5ebd 7c4f bbbd
00000020: 5fed 47bd b833 963d a6c6 08bd 14c6 b63c
00000030: 8c27 bfbc bc8e 9ebc 158c 3c3d adb2 73bd
00000040: 47b9 d1bc b46e a9bd a238 64bd 5b6f 0b3d
00000050: ee5c edbd dcf8 c73c 2ec6 75ba 07a6 8ebb
00000060: a56e 223c f626 f4ba a85b 813d 2986 aebd
00000070: 1479 c7bc 7bfc 7b3d fd45 1f3d dce4 573d
00000080: bd6e 97bd 4268 a2bd 01b4 25bd af82 953d
00000090: a3f2 96bd 6e5c 16bd 0591 b9bc 08ad 13bd
000000a0: adae 80bd 2ad3 883d 914f d4bc f4ab 1abd
000000b0: 8b2d cd3c 1e17 14bc 14a6 97bc fd4b 4bbd
000000c0: c4ce 193c db1f 59bd dad8 aabd 1700 8d3d
000000d0: 13bb 433d affc 943d 0c24 cebd 49de 35bd
000000e0: b72b 753d 6360 babb b170 37bc c9ad 333d
000000f0: 4b02 5f3d 4ab1 51bc 3a12 56bc 9dd9 96bd
00000100: 32b6 92bd a3fd 563c 441a 0fbb 7e8c 9a3c
00000110: 04b4 60bd d582 ec3c df07 0e3d e61d a3bd
00000120: 6ea2 7939 749f 8abd 49dd db3c 8840 f13b
00000130: b2e8 35bc 68a2 babd 9547 973c 1ede 5d3d
00000140: 5ff4 5f3b b924 aabc 5fa0 babd d446 b9bd
00000150: 29a1 a8bd 0b4d 2b3d 2083 043c 26dd 653d
00000160: e9d5 54bd 64be ca3a b89d 963d f6d2 93bd
00000170: d861 27bc 3049 733d 1139 ba3c a5e2 273d
00000180: e836 bcbb 157d e8ba c840 a4bd cbc7 973b
00000190: 9ab8 b6bd 41a5 0f3c 0bd1 3e3c dec6 2ebd
000001a0: 1ceb 08bd 34d2 b1bc 2932 54ba 9aac 98bc
000001b0: fbfe 313d 8505 a6bd 0bb2 68bd 34f5 7dbd
000001c0: 1734 393b 70f4 7fbd 4a5c 41bd f09e 7b3d
000001d0: 258d fd3c f0f1 d9ba d5d7 923a c09e 7abd
000001e0: cc27 24bd 8b80 7c3d 31cf 443d a3e7 c1bd
000001f0: af7b 563d d378 febc 2ef5 3f3d 37db e7bc

base.mlp.fc.5.weight f4 [128]
1.0171044 0.9582676 0.9914124 0.97635597 1.0538341 1.025388 1.0525892 1.0816958
1.0468056 1.0681891 1.0435169 1.0092587 1.0374457 1.0520418 1.0060085 1.06407
0.95985556 1.0464109 1.025572 1.0483481 0.9316324 0.9839215 1.0335221 0.9817785
1.0463322 1.0221711 1.0482609 1.0216103 1.0396109 1.0327605 1.0578842 0.9697435
1.0021355 0.9569224 0.95716286 1.1134992 0.9933436 1.0138073 1.0017248 1.1627105
0.9874593 0.9908858 0.9290141 0.9758455 0.988738 1.0738719 0.9917116 0.9576559
1.0516979 0.9653663 0.92489636 1.0376868 1.084449 0.99479353 0.9852542 1.053168
1.0884967 1.0250993 0.99331653 1.0282235 1.110695 0.9593788 1.0339804 0.9639877
1.0000739 1.1126246 1.0464277 0.99324346 1.0876619 1.0725954 0.9897073 0.99501175
1.0410445 1.0198792 1.0747523 0.9627602 0.9321453 1.0608301 1.0139487 1.0096056
1.0373982 1.0380194 1.0197518 1.0398246 1.0551335 1.0074676 1.0876251 1.0367041
1.0271705 0.9957554 0.9604917 0.9867364 1.0471511 1.0447557 1.005982 0.9792746
1.0377324 0.99438 0.9771132 1.000654 1.0293815 1.0654923 1.0949527 1.0102335
1.0525564 0.95782477 1.0597162 0.9860947 0.97928345 1.0152273 1.0390782 1.0331255
1.0057012 1.1190097 1.015274 0.95964843 1.0113866 0.98363006 1.0212184 0.9605019
1.0051908 0.9735161 1.062239 1.0843668 1.0884979 1.0055662 0.9980259 0.98397964
00000000: 7a30 823f 0751 753f 34cd 7d3f 77f2 793f
00000010: 09e4 863f ea3f 833f 3ebb 863f 0275 8a3f
00000020: bafd 853f 6cba 883f f691 853f 642f 813f
00000030: 05cb 843f 4ea9 863f e3c4 803f 7233 883f
00000040: 18b9 753f cbf0 853f f145 833f 4530 863f
00000050: 767f 6e3f 48e2 7b3f 744a 843f d655 7b3f
00000060: 37ee 853f 81d6 823f 6a2d 863f 20c4 823f
00000070: f811 853f 7f31 843f c068 873f 1c41 783f
00000080: fa45 803f def8 743f a008 753f 2487 8e3f
00000090: c44b 7e3f 70c4 813f 8538 803f b3d3 943f
000000a0: 22ca 7c3f b1aa 7d3f ded3 6d3f 03d1 793f
000000b0: ef1d 7d3f a274 893f d0e0 7d3f f028 753f
000000c0: 099e 863f 3f22 773f 02c6 6c3f ecd2 843f
000000d0: 3acf 8a3f caaa 7e3f 9f39 7c3f 36ce 863f
000000e0: dc53 8b3f 7436 833f fe49 7e3f d49c 833f
000000f0: 412b 8e3f d999 753f 7859 843f e6c7 763f
00000100: 6c02 803f 7c6a 8e3f 58f1 853f 3445 7e3f
00000110: 8138 8b3f ce4a 893f 755d 7d3f 17b9 7e3f
00000120: f240 853f 678b 823f 7c91 893f 7477 763f
00000130: 13a1 6e3f 48c9 873f 12c9 813f c23a 813f
00000140: 77c9 843f d2dd 843f 3a87 823f f918 853f
00000150: 9d0e 873f b3f4 803f 4d37 8b3f b8b2 843f
00000160: 537a 833f d3e9 7e3f c9e2 753f c29a 7c3f
00000170: 0c09 863f 8eba 853f 05c4 803f bdb1 7a3f
00000180: 6ad4 843f b08f 7e3f 1724 7a3f 6e15 803f
00000190: c6c2 833f 0d62 883f 6927 8c3f 554f 813f
000001a0: 2bba 863f 0134 753f c8a4 873f b470 7c3f
000001b0: 52b2 7a3f f8f2 813f 8400 853f 753d 843f
000001c0: d1ba 803f b63b 8f3f 80f4 813f 85ab 753f
000001d0: 1e75 813f 2ecf 7b3f 49b7 823f 74e3 753f
000001e0: 18aa 803f 5a38 793f 73f7 873f 88cc 8a3f
000001f0: e653 8b3f 65b6 803f a07e 7f3f 17e6 7b3f

base.mlp.fc.5.bias f4 [128]
-0.0036342628 0.051525556 0.036771048 0.02640948 -0.018816337 0.017319929 -0.015475246 0.00093872065
-0.003110696 -0.012580222 0.018437399 0.018864952 0.03038403 -0.01331026 -0.006736796 0.0035120496
0.03672411 0.016432017 0.018971788 -0.0029744557 0.074854314 0.017708177 0.0023760984 -0.0047299745
-0.00024790678 0.013991433 0.005184912 0.015161716 -0.00073203887 -0.0035506454 -0.0005579928 0.029501876
0.014229652 0.021451658 0.025983557 -0.006139084 0.018824311 0.020319043 0.022299852 0.001770434
0.017118532 0.013712698 0.07296523 0.0013944571 -0.0024965624 0.023593958 0.0034189606 0.05641002
0.015726238 0.030616742 0.029456982 0.0034268973 0.0072365976 -0.009198606 0.025503786 0.0031143995
-0.0047225347 0.018183092 0.026195599 0.005260083 -0.019654814 0.03092801 0.012008673 0.031377435
0.023046594 -0.00604567 -0.003598484 0.01001107 0.0151513815 0.0054895 0.015586652 0.03842689
-0.0020468899 -0.0030797515 0.00024857002 0.03030384 0.06982616 0.0009196214 0.018278215 0.013431845
0.0031880867 0.0035161297 -0.027145552 0.0087351445 0.013725164 0.03465011 -0.015583112 -0.000115079245
-0.028700512 -0.007057586 0.024905201 0.009941408 -0.006563466 -0.018575218 0.0030139459 0.016154187
-0.0031387175 0.0055889944 0.030774571 0.005807161 -0.033249017 0.011159755 0.024260473 0.029149363
0.017498571 0.03627564 0.0028647233 0.012756897 0.039502177 0.004452629 0.030179188 0.009771147
0.014638772 0.006253057 0.026525915 0.009510062 0.0278959 0.0055843783 -0.00029224466 0.030224817
0.0077855736 0.029121118 -0.012674932 0.0046987506 -0.002222017 -0.0184536 -0.0005039758 0.016682662
00000000: d02c 6ebb 760c 533d 3d9d 163d b258 d83c
00000010: b824 9abc 86e2 8d3c e38b 7dbc 7a14 763a
00000020: d2dc 4bbb 471d 4ebc 070a 973c ac8a 9a3c
00000030: eee7 f83c 4713 5abc 57c0 dcbb 6a2a 663b
00000040: 056c 163d 709c 863c b96a 9b3c 16ef 42bb
00000050: 384d 993d bd10 913c 51b8 1b3b e7fd 9abb
00000060: 7cf9 81b9 533c 653c 32e6 a93b d968 783c
00000070: 4ce6 3fba f2b1 68bb 4346 12ba ebad f13c
00000080: 7c23 693c 63bb af3c 78db d43c 5f2a c9bb
00000090: 7135 9a3c 1f74 a63c 2eae b63c e80d e83a
000000a0: 2a3c 8c3c 39ab 603c cb6e 953d 37c6 b63a
000000b0: 5e9d 23bb 1e48 c13c a410 603b 310e 673d
000000c0: 50d4 803c f6cf fa3c c54f f13c cc95 603b
000000d0: fb20 ed3b c0b5 16bc 51ed d03c f41a 4c3b
000000e0: 7ebf 9abb b5f4 943c 2798 d63c c65c ac3b
000000f0: 2203 a1bc bd5c fd3c 06c0 443c a085 003d
00000100: 36cc bc3c c11a c6bb 8bd4 6bbb 7905 243c
00000110: 803d 783c 43e1 b33b 285f 7f3c 8465 1d3d
00000120: 1d25 06bb a8d5 49bb 8152 8239 c23f f83c
00000130: 0501 8f3d bf12 713a 32bc 953c 3e11 5c3c
00000140: 38ef 503b de6e 663b 5960 debc da1d 0f3c
00000150: 83df 603c 46ed 0d3d 4f50 7fbc b356 f1b8
00000160: 561d ebbc 5343 e7bb fe05 cc3c 4ae1 223c
00000170: 5812 d7bb 0e2b 98bc 9f85 453b c955 843c
00000180: f1b2 4dbb e223 b73b f41a fc3c ff49 be3b
00000190: 1f30 08bd 68d7 363c e6bd c63c a5ca ee3c
000001a0: 2a59 8f3c c495 143d 15be 3b3b 4e02 513c
000001b0: 09cd 213d 5ce7 913b 583a f73c 2917 203c
000001c0: 76d7 6f3c 72e6 cc3b e04c d93c 17d0 1b3c
000001d0: f185 e43c 29fd b63b 6a38 99b9 099a f73c
000001e0: 201e ff3b 698f ee3c 85aa 4fbc faf7 993b
000001f0: 429f 11bb 012c 97bc 3e1d 04ba 14aa 883c

rnn.gru.weight_ih_l0 f4 [384, 128]
0.0461708 0.08135072 0.11995495 -0.019499555 0.10566874 -0.10536774 -0.09899035 -0.03586486
0.0028620837 -0.020470193 0.1310851 0.042173482 -0.02960974 -0.05089566 0.07918918 -0.055435717
0.10136311 -0.00065187557 -0.056652084 -0.07930476 0.024511805 0.057150546 0.07323278 -0.20197801
-0.041001942 -0.063419595 -0.08229263 -0.025073085 0.050241567 -0.04284044 0.082787655 0.019105958
0.040791348 0.01441286 -0.060684837 -0.09476429 0.06580606 0.07407081 0.044484064 0.10129227
-0.06546451 -0.04775861 0.10033707 0.0565261 0.028274355 0.12095588 0.11586291 0.033644535
0.1037675 0.09224777 -0.11969527 -0.11261733 -0.0056511993 -0.074240565 0.06717697 0.031486113
0.10022017 -0.034767132 0.15733877 0.018514633 -0.031921156 0.101632655 -0.03521611 0.13075519
0.10044583 -0.056231037 0.18611315 -0.04910201 0.0598788 -0.026377361 0.022748005 0.21369806
0.0437158 -0.054267135 -0.03562172 0.062428296 0.006356095 -0.059200514 0.041666586 -0.091297634
-0.043225948 -0.031222003 0.07456108 0.0149050355 -0.01595936 0.038840488 0.06682308 0.00064897764
-0.13233411 0.031171473 -0.11905544 -0.14260869 0.022858495 -0.057805534 0.17291865 0.00015494267
0.010744763 -0.054775186 0.09410353 -0.028575841 -0.077849396 0.060283557 0.0068869586 -0.016789779
-0.13450463 -0.0036818476 0.1199835 -0.014765749 0.104643255 -0.12193619 -0.0029677146 -0.022708252
0.09209223 0.04763871 0.010060242 -0.12958635 0.028191118 0.043903943 -0.07108548 -0.0039240816
-0.13390908 0.054433823 0.089754194 0.111666664 -0.084409334 0.062488403 -0.0057783737 0.02255012
0.0922942 0.13300769 0.09210465 0.09616555 -0.019201491 -0.017344005 0.11013783 -0.08414618
-0.082684755 0.054470792 0.083444715 0.14685266 0.0074071847 -0.09489194 -0.023780124 -0.034576766
0.064899184 0.021251151 -0.0791011 -0.03938387 0.03351429 0.03299671 -0.03331599 -0.06075791
-0.036048554 0.0034620725 0.027455434 0.03573299 -0.014712314 -0.0067555583 0.07220845 0.018628579
-0.09487146 -0.007406416 -0.077518076 -0.053949047 0.08961412 0.07692165 0.061388057 -0.017248822
0.050395455 0.013916352 -0.030736065 0.06042186 0.11642831 0.03409312 0.017827276 -0.038157832
0.08574353 0.037410785 -0.025833586 0.061708782 0.10003944 -0.12060962 -0.03127832 0.13418767
0.14828071 0.042660303 0.08976839 0.060314525 0.08533103 -0.01196479 -0.10389531 0.027230514
-0.033123452 0.025557373 -0.0010974696 -0.03894895 0.029618308 -0.18712048 0.045418955 -0.03781309
0.07990418 -0.079387546 -0.0015008869 0.08905517 0.09890379 -0.0064874296 0.08512594 0.07657425
0.006996069 -0.031868067 -0.07270969 0.031530343 0.0036366808 0.03853946 -0.008483296 -0.0010916565
0.06790083 0.02914943 0.060528036 -0.12545773 -0.06123747 -0.1538005 0.064488366 -0.057245687
0.07781082 0.15020299 0.05492802 -0.037727296 -0.14323762 -0.018923393 0.0035701515 -0.029193716
-0.034397792 -0.028237076 0.010694747 0.02002738 0.06983578 -0.06299275 0.0072633163 -0.083241805
0.0018295636 -0.07674735 0.07098797 0.10225038 0.035914864 -0.013566082 0.039010044 -0.039559186
-0.026176352 0.052961186 0.12444326 -0.04242492 0.11278402 0.07595293 -0.07878395 0.025883043
00000000: 981d 3d3d 359b a63d f1aa f53d 88bd 9fbc
00000010: da68 d83d 0bcb d7bd 74bb cabd 08e7 12bd
00000020: cc91 3b3b 1bb1 a7bc 2c3b 063e 1abe 2c3d
00000030: 2090 f2bc f877 50bd f02d a23d 9010 63bd
00000040: 7697 cf3d a1e2 2aba 040c 68bd 896a a2bd
00000050: fbcc c83c b116 6a3d 11fb 953d 53d3 4ebe
00000060: a7f1 27bd 22e2 81bd 0a89 a8bd 1266 cdbc
00000070: 1aca 4d3d 7579 2fbd 938c a93d 1984 9c3c
00000080: d414 273d eb23 6c3c aa90 78bd c813 c2bd
00000090: 54c5 863d 70b2 973d ec34 363d 5272 cf3d
000000a0: 4212 86bd 889e 43bd 867d cd3d e987 673d
000000b0: 9f9f e73c b7b7 f73d 8949 ed3d dace 093d
000000c0: 0e84 d43d 66ec bc3d cb22 f5bd eaa3 e6bd
000000d0: b22d b9bb 700b 98bd 1494 893d 95f7 003d
000000e0: 3c40 cd3d fb67 0ebd 6a1d 213e 00ac 973c
000000f0: c2bf 02bd c824 d03d c53e 10bd b0e4 053e
00000100: 8bb6 cd3d 8452 66bd 7294 3e3e 301f 49bd
00000110: 7943 753d 5615 d8bc 065a ba3c aad3 5a3e
00000120: 570f 333d 3747 5ebd 15e8 11bd d0b4 7f3d
00000130: ca46 d03b 3d7c 72bd 95aa 2a3d 41fa babd
00000140: b10d 31bd 49c5 ffbc 7bb3 983d 4034 743c
00000150: 34bd 82bc 3417 1f3d 8ada 883d 2720 2a3a
00000160: 9882 07be 515b ff3c 57d3 f3bd 0308 12be
00000170: bd41 bb3c 7fc5 6cbd 9611 313e 1b78 2239
00000180: cd0a 303c f25b 60bd 5ab9 c03d e217 eabc
00000190: 816f 9fbd e4eb 763d ffab e13b b88a 89bc
000001a0: 95bb 09be 274b 71bb e9b9 f53d 0aec 71bc
000001b0: 344f d63d aeb9 f9bd fd7d 42bb a806 babc
000001c0: da9a bc3d cf20 433d b7d3 243c 49b2 04be
000001d0: 0ff1 e63c 9fd4 333d 4495 91bd 9595 80bb
000001e0: 761f 09be 00f6 5e3d 0cd1 b73d 7eb1 e43d
000001f0: cdde acbd d7f3 7f3d 8358 bdbb 07bb b83c
00000200: be04 bd3d 2b33 083e 5da1 bc3d 72f2 c43d
00000210: 724c 9dbc 0415 8ebc f18f e13d d554 acbd
00000220: a056 a9bd c41c 5f3d 10e5 aa3d 8b60 163e
00000230: f8b7 f23b b556 c2bd 89ce c2bc 5ea0 0dbd
00000240: dde9 843d e516 ae3c c2ff a1bd fb50 21bd
00000250: 4846 093d 8f27 073d 5976 08bd 49dd 78bd
00000260: a6a7 13bd f0e3 623b 38ea e03c c15c 123d
00000270: eb0b 71bc bb5d ddbb 06e2 933d f69a 983c
00000280: f84b c2bd 85b1 f2bb ccc1 9ebd adf9 5cbd
00000290: 9c87 b73d 1989 9d3d 0b72 7b3d 674d 8dbc
000002a0: 776b 4e3d 6901 643c 33ca fbbc ea7c 773d
000002b0: f771 ee3d 3aa5 0b3d 820a 923c 634b 1cbd
000002c0: 4e9a af3d 0d3c 193d f5a0 d3bc 59c2 7c3d
000002d0: 7ae1 cc3d 2d02 f7bd b21d 00bd 7e68 093e
000002e0: e6d6 173e 92bc 2e3d 7dd8 b73d 5d0c 773d
000002f0: 09c2 ae3d f707 44bc 10c7 d4bd 8712 df3c
00000300: 75ac 07bd b25d d13c f8d8 8fba ef88 1fbd
00000310: 18a2 f23c 839c 3fbe 3a09 3a3d e6e1 1abd
00000320: cda4 a33d f095 a2bd 68b9 c4ba 8f62 b63d
00000330: 128e ca3d 8194 d4bb 8256 ae3d f6d2 9c3d
00000340: 483f e53b 1788 02bd d1e8 94bd f625 013d
00000350: 6155 6e3b 8edb 1d3d 86fd 0abc ea15 8fba
00000360: 970f 8b3d c9ca ee3c 3fec 773d fe77 00be
00000370: 24d4 7abd e17d 1dbe 7a12 843d 747a 6abd
00000380: 475b 9f3d d0ce 193e 34fc 603d f087 1abd
00000390: e2ac 12be 3b05 9bbc 34f9 693b a927 efbc
000003a0: b3e4 0cbd 7151 e7bc 0539 2f3c 7610 a43c
000003b0: 1006 8f3d 5802 81bd 1d01 ee3b ae7a aabd
000003c0: f8cd ef3a b72d 9dbd 2462 913d a668 d13d
000003d0: 771b 133d 4644 5ebc ffc8 1f3d d008 22bd
000003e0: ca6f d6bc d4ed 583d 1cdc fe3d c1c5 2dbd
000003f0: 4ffb e63d 368d 9b3d 7b59 a1bd ad08 d43c

rnn.gru.weight_hh_l0 f4 [384, 128]
0.08078673 0.004771935 -0.045141775 0.14449105 0.051714517 0.1499522 -0.1528346 -0.015627086
0.021924073 -0.17267072 -0.057486158 0.15753974 -0.00879218 0.04275345 0.12596993 0.07085901
0.064018644 0.092196055 -0.11028875 -0.082196325 0.13802575 -0.00026477315 -0.056473993 -0.124733336
-0.1690365 -0.04685332 0.11562209 -0.19682391 -0.027519643 0.026146565 0.102400176 0.067744516
-0.09929023 0.15273874 -0.09804703 0.050152432 0.031464398 0.002963974 -0.09537053 0.064383835
-0.018123407 0.01049943 0.014611853 -0.04507877 0.0031316362 -0.021167222 -0.034270685 -0.083715245
-0.053699907 -0.04437743 0.060204916 0.029112013 -0.010892661 -0.06871816 0.090771504 0.057689052
0.00014358944 -0.056073707 -0.09651731 -0.059590608 0.056229606 0.092571735 0.08225831 0.012947115
0.05745177 -0.054771695 0.14472243 -0.11689401 0.12425442 -0.055803403 0.08369156 -0.074049234
0.10562317 0.044688795 -0.023340408 -0.05606305 -0.09016377 -0.10349812 -0.023308791 -0.027508622
-0.019135889 0.16256313 0.035136495 0.13372797 -0.039018374 0.020059397 -0.08321447 0.022219377
-0.08924845 -0.076738074 0.121146314 -0.04333137 -0.017245831 0.09845535 -0.040334404 0.061784383
0.0652036 -0.0056344434 0.069041915 0.07839027 -0.014585076 0.0065742657 -0.0012321108 0.004398702
-0.1078032 0.01816373 -0.046504527 0.1471439 0.07274832 0.12276417 -0.01130993 0.05377222
0.13183926 0.011454196 -0.026313312 -0.1010339 0.04369536 -0.109122574 -0.03983752 0.07637979
-0.058164805 0.0636472 -0.06031815 0.055353127 0.01116393 0.104974076 -0.059813604 0.15708113
-0.025653647 0.062498868 0.02430835 0.04176857 -0.1086824 0.020861363 0.0048807217 -0.058069464
0.07158962 0.03998496 0.01790391 0.18170437 0.035335667 -0.037428293 -0.0067050993 0.042886015
-0.0017471672 -0.0022436834 -0.066368945 -0.030559078 -0.06750876 0.10760538 -0.06373737 -0.051310893
0.0378574 -0.028248198 0.0033042054 0.03741867 0.06909116 0.0032546562 0.078146204 0.05806894
0.019766368 0.020316705 0.024857372 -0.0357805 0.09912799 0.06245667 -0.10517602 0.13786528
0.033997126 -0.027045988 -0.012591162 0.0372378 0.058682356 0.16115724 0.12924212 -0.008574914
0.013811422 0.038793467 0.038550213 0.04052937 0.051511392 0.0872029 0.12027646 0.003524522
-0.07191778 -0.0010896511 0.07058314 -0.029356362 0.04284261 -0.047473397 -0.022973102 -0.12369524
-0.07569429 0.010128104 0.06269996 -0.08383519 0.040607862 -0.10874734 -0.03417358 0.03726965
0.07501968 0.0030065367 -0.002896406 -0.011497388 0.011781062 0.01794253 8.6715714e-05 -0.004354498
0.10899672 -0.084914915 -0.0048055244 0.03525649 -0.085436605 0.1064397 0.12010553 0.047892362
0.02773621 0.011354419 -0.17561613 -0.14737241 0.06600211 0.074096076 -0.075794786 0.0053684637
-0.07114266 -0.11341006 -0.032754768 0.04163166 -0.11752581 -0.08128786 0.071245156 -0.0010078866
-0.05422529 0.0014555176 -0.099733666 -0.10098606 0.034939583 -0.041892838 0.14303221 -0.057282083
-0.0040296414 -0.086803846 0.045128364 0.033588614 -0.108938806 0.02873431 -0.07947165 0.12802486
-0.11578037 0.022028023 -0.052890945 -0.050893337 0.009182818 0.14667167 0.088798486 -0.054167427
00000000: 8373 a53d e45d 9c3b 95e6 38bd 76f5 133e
00000010: 9ad2 533d 128d 193e ac80 1cbe 6004 80bc
00000020: 1d9a b33c 98d0 30be 9b76 6bbd 1952 213e
00000030: 130d 10bc 3e1e 2f3d 43fe 003e 871e 913d
00000040: 351c 833d 49d1 bc3d 11df e1bd 8c56 a8bd
00000050: 9f56 0d3e 40d1 8ab9 4651 67bd 3174 ffbd
00000060: e717 2dbe 44e9 3fbd 46cb ec3d 358c 49be
00000070: e070 e1bc 5231 d63c 2fb7 d13d a3bd 8a3d
00000080: ad58 cbbd 8b67 1c3e e2cc c8bd a36c 4d3d
00000090: d0e0 003d 3b3f 423b a051 c3bd acdb 833d
000000a0: 8a77 94bc cd05 2c3c 8e66 6f3c 84a4 38bd
000000b0: 233c 4d3b e266 adbc 6b5f 0cbd e672 abbd
000000c0: 6ff4 5bbd 1cc5 35bd 6e99 763d 517c ee3c
000000d0: 2277 32bc 1bbc 8cbd 69e6 b93d 5b4b 6c3d
000000e0: 7f90 1639 8bad 65bd deaa c5bd 4815 74bd
000000f0: 0451 663d 4096 bd3d 0b77 a83d 2320 543c
00000100: 8c52 6b3d 4958 60bd 1e32 143e 2066 efbd
00000110: 1a79 fe3d 1c92 64bd 7b66 ab3d 20a7 97bd
00000120: f650 d83d 990b 373d 6234 bfbc 5ea2 65bd
00000130: c8a7 b8bd d3f6 d3bd 14f2 bebc c359 e1bc
00000140: dec2 9cbc f376 263e 49eb 0f3d fcef 083e
00000150: bbd1 1fbd 9b53 a43c 596c aabd 6905 b63c
00000160: e4c7 b6bd da28 9dbd 8f1b f83d 3c7c 31bd
00000170: 2147 8dbc f5a2 c93d b035 25bd 9f11 7d3d
00000180: 7789 853d 23a1 b8bb d965 8d3d 148b a03d
00000190: 3ef6 6ebc f06c d73b c77e a1ba fd22 903b
000001a0: edc7 dcbd 1acc 943c 887b 3ebd e4ac 163e
000001b0: 12fd 943d c86b fb3d 494d 39bc 4240 5c3d
000001c0: df00 073e 61aa 3b3c 048f d7bc ddea cebd
000001d0: e8f9 323d a87b dfbd ab2c 23bd 026d 9c3d
000001e0: 383e 6ebd 7759 823d 2a10 77bd f6b9 623d
000001f0: ebe8 363c a6fc d63d 1cff 74bd e0d9 203e
00000200: 9927 d2bc d0fe 7f3d 4e22 c73c 8515 2b3d
00000210: e194 debd 73e5 aa3c 76ee 9f3b 3fda 6dbd
00000220: 949d 923d 45c7 233d 38ab 923c b610 3a3e
00000230: 22bc 103d 694e 19bd 73b6 dbbb 3fa9 2f3d
00000240: 3401 e5ba c30a 13bb 71ec 87bd 0857 fabc
00000250: 0842 8abd 3660 dc3d bd88 82bd 5f2b 52bd
00000260: 5c10 1b3d c468 e7bc 5e8b 583b 5244 193d
00000270: ab7f 8d3d 124c 553b 1e0b a03d b2d9 6d3d
00000280: 14ed a13c 386f a63c b0a1 cb3c 938e 12bd
00000290: 9e03 cb3d 91d2 7f3d 8666 d7bd 8e2c 0d3e
000002a0: 9240 0b3d 8c8f ddbc 294b 4ebc aa86 183d
000002b0: e95c 703d 6706 253e 0c58 043e cc7d 0cbc
000002c0: 4d49 623c e6e5 1e3d d4e6 1d3d 2002 263d
000002d0: 9cfd 523d 6f97 b23d 8153 f63d abfb 663b
000002e0: a149 93bd a0d2 8eba e58d 903d c17c f0bc
000002f0: bc7b 2f3d 7773 42bd 1632 bcbc ee53 fdbd
00000300: 9c05 9bbd 59f0 253c d668 803d c9b1 abbd
00000310: 6e54 263d edb6 debd 99f9 0bbd 0fa8 183d
00000320: eba3 993d 5109 453b a1d1 3dbb 8a5f 3cbc
00000330: 5b05 413c 36fc 923c 25db b538 2db0 8ebb
00000340: ac39 df3d dfe7 adbd a977 9dbb 1c69 103d
00000350: 63f9 aebd 0ffd d93d e3f9 f53d c82a 443d
00000360: 0c37 e33c e307 3a3c b7d4 33be cbe8 16be
00000370: 1d2c 873d afbf 973d 4c3a 9bbd f0e9 af3b
00000380: 3eb3 91bd 8943 e8bd dd29 06bd f685 2a3d
00000390: 5fb1 f0bd 407a a6bd fbe8 913d 101b 84ba
000003a0: 561b 5ebd 11c7 be3a 2a41 ccbd c8d1 cebd
000003b0: cf1c 0f3d d397 2bbd 0977 123e 9ea0 6abd
000003c0: 150b 84bb 37c6 b1bd 85d8 383d 3794 093d
000003d0: 4f1b dfbd 3764 eb3c 08c2 a2bd f318 033e
000003e0: 421e edbd 1d74 b43c 2da4 58bd 8875 50bd
000003f0: 8873 163c 1931 163e fbdb b53d aade 5dbd

rnn.gru.bias_ih_l0 f4 [384]
0.016692253 -0.09608697 -0.08294799 0.025792178 0.008021913 0.00093453383 0.03365411 0.115020916
-0.0837908 -0.014822165 0.096078895 0.0051725376 -0.08523471 0.05147019 0.0047236676 0.037222978
0.0270809 -0.037957955 0.005771638 0.0155559685 -0.066372514 -0.022164308 0.08659914 0.026186574
-0.021903887 -0.0022564277 0.05818566 -0.05660742 -0.022825563 -0.030341731 -0.019576788 0.06752157
0.014274212 0.057672415 -0.09198852 0.07284132 -0.04076922 0.0063994126 -0.009278086 -0.009002275
-0.0076698945 -0.061129656 -0.0289084 0.019617388 0.111825995 -0.078403465 -0.009947025 0.020893876
0.028877556 0.01892514 0.05354239 -0.0026611793 0.017401008 0.0953917 0.074926734 0.0019413519
-0.020591637 0.043340378 0.09286047 -0.06497054 0.13570023 0.05083866 -0.011338487 -0.13169351
-0.01386064 0.02765405 0.11875645 0.051112026 -0.038049925 -0.050719697 -0.013089648 -0.021887818
-0.029856646 -0.0005934795 0.082757466 0.036763396 0.08938597 0.07742385 -0.055566102 -0.009761872
0.07979325 -0.003787474 -0.06580849 -0.037175484 0.05536921 0.005276234 0.014762532 -0.058628205
0.10435323 -0.08746804 -0.022935124 0.1132143 0.0374279 -0.07976787 -0.045911063 -0.059738956
-0.014615945 0.049939338 0.048748635 -0.029726138 0.10209462 0.04474299 0.08848596 -0.030853279
-0.092909686 -0.06295144 0.009545012 -0.008845325 -0.048414063 0.09265589 -0.011878989 -0.030312955
-0.09478441 0.052995995 0.002375152 0.0045346455 0.08937416 -0.0142546985 0.081283666 -0.045785166
-0.082287446 -0.048003726 0.06009136 -0.08378367 0.008653553 0.068071894 0.10429428 -0.11034663
-0.016525075 0.15134391 0.06496901 -0.122869246 0.08718183 -0.13173793 -0.104967 -0.044306017
-0.1569884 0.12665233 -0.10489382 0.06472579 0.093730755 0.09581527 0.20972475 0.12121808
0.21173826 0.12828067 0.08289005 0.05116658 -0.015780205 -0.16110665 0.012646846 0.046865124
0.20054819 -0.08075205 -0.14921235 0.1374645 0.046015248 -0.078921646 0.170269 0.04971529
0.17572418 0.14439596 0.05778815 0.11360894 0.018628372 0.10966507 -0.058219027 -0.021169325
0.032301802 0.15190503 0.12976044 0.14788996 0.05507381 -0.06404417 0.0038012732 0.020579308
-0.27803925 0.17272705 0.0023894943 -0.032750465 0.010632833 -0.016796978 -0.1878623 0.087828726
0.18342817 -0.032735296 -0.008496646 0.019657806 0.056172304 -0.1073996 0.12595797 0.14010616
0.02095035 -0.15303758 -0.19872238 -0.07392929 -0.0059902905 0.0762227 -0.09569005 0.02639014
0.0067960266 0.01776429 0.082727656 0.032454833 0.019660298 0.112251274 0.0062089767 0.065299824
-0.04441362 0.15059383 -0.04542355 -0.03044935 0.09978734 -0.1708904 0.09342606 0.03801428
0.04191877 -0.014869959 -0.10688257 0.12434968 0.055602476 -0.041626994 -0.10447408 0.10542872
0.1741634 -0.10338767 0.11228683 0.030038726 -0.026072107 0.00010603262 0.07235395 -0.14415619
-0.02182784 0.054653026 -0.03486473 0.003948583 0.023433486 -0.0048051183 -0.116737 -0.032006346
-0.094205365 0.06373455 0.16861129 -0.014181963 -0.07364422 -0.06833275 0.029396595 0.106861554
-0.018181292 0.085870214 -0.026024591 0.09971313 0.01068292 -0.03098431 0.026398081 0.05768336
00000000: 31be 883c 3fc9 c4bd a3e0 a9bd 1e4a d33c
00000010: 576e 033c 81fb 743a e4d8 093d 1690 eb3d
00000020: 839a abbd aad8 72bc 03c5 c43d 647e a93b
00000030: 898f aebd 68d2 523d ffc8 9a3b 1f77 183d
00000040: c3d8 dd3c cd79 1bbd 0220 bd3b 76de 7e3c
00000050: 50ee 87bd ec91 b5bc e45a b13d 3a85 d63c
00000060: c86f b3bc 93e0 13bb 1654 6e3d 2fdd 67bd
00000070: adfc babc 398f f8bc 805f a0bc c048 8a3d
00000080: 62de 693c e939 6c3d 7a64 bcbd d42d 953d
00000090: a0fd 26bd 2ab2 d13b 1d03 18bc 477e 13bc
000000a0: bd53 fbbb 1763 7abd 4fd1 ecbc a5b4 a03c
000000b0: 0705 e53d ff91 a0bd d9f8 22bc a229 ab3c
000000c0: a090 ec3c e508 9b3c 444f 5b3d 2e67 2ebb
000000d0: 8f8c 8e3c b95c c33d 3073 993d f674 fe3a
000000e0: cbaf a8bc ae85 313d a12d be3d 460f 85bd
000000f0: 00f5 0a3e 333c 503d 10c5 39bc aada 06be
00000100: bd17 63bc bf8a e23c 9536 f33d d85a 513d
00000110: 3dda 1bbd 75bf 4fbd f775 56bc 154e b3bc
00000120: ed95 f4bc bc93 1bba bf7c a93d 3795 163d
00000130: fe0f b73d 6590 9e3d 4899 63bd 42f0 1fbc
00000140: a56a a33d 4537 78bb 9ac6 86bd 5245 18bd
00000150: d3ca 623d 42e4 ac3b 8cde 713c 2124 70bd
00000160: 25b7 d53d 7222 b3bd 71e2 bbbc e6dc e73d
00000170: ff4d 193d 565d a3bd 3d0d 3cbd d6b0 74bd
00000180: b777 6fbc 318d 4c3d a6ac 473d 3b84 f3bc
00000190: fc16 d13d 6d44 373d 2138 b53d 04c0 fcbc
000001a0: 6f47 bebd afec 80bd af62 1c3c fbeb 10bc
000001b0: d34d 46bd 5fc2 bd3d 17a0 42bc e052 f8bc
000001c0: 541e c2bd 5412 593d 70a8 1b3b 5d97 943b
000001d0: cd09 b73d 8a8c 69bc 0d78 a63d 3a89 3bbd
000001e0: 5286 a8bd 8e9f 44bd 5c22 763d c696 abbd
000001f0: a2c7 0d3c 4769 8b3d 3d98 d53d 6afd e1bd
00000200: 985f 87bc e6f9 1a3e 790e 853d dfa2 fbbd
00000210: 638c b23d 4fe6 06be f0f8 d6bd 3a7a 35bd
00000220: 91c1 20be 26b1 013e 92d2 d6bd f48e 843d
00000230: e9f5 bf3d cc3a c43d 16c2 563e 2f41 f83d
00000240: ead1 583e 025c 033e 42c2 a93d 0c94 513d
00000250: 7d45 81bc 24f9 24be b734 4f3c a5f5 3f3d
00000260: 815c 4d3e 5561 a5bd 1fcb 18be 7ec3 0c3e
00000270: 7c7a 3c3d aca1 a1bd ff5a 2e3e 43a2 4b3d
00000280: 0af1 333e 89dc 133e 44b3 6c3d ceab e83d
00000290: 879a 983c 1598 e03d 1377 6ebd 4b6b adbc
000002a0: e54e 043d fe8c 1b3e ecdf 043e 7770 173e
000002b0: 1395 613d 9729 83bd c81e 793b f095 a83c
000002c0: 295b 8ebe 5cdf 303e 1099 1c3b 5a25 06bd
000002d0: 5535 2e3c d199 89bc fa5e 40be 8cdf b33d
000002e0: 98d4 3b3e 7215 06bd 8435 0bbc 6809 a13c
000002f0: ee14 663d 52f4 dbbd 20fb 003e fd77 0f3e
00000300: 12a0 ab3c e2b5 1cbe e17d 4bbe 3d68 97bd
00000310: 334a c4bb a61a 9c3d 25f9 c3bd 2330 d83c
00000320: 34b1 de3b 6b86 913c 1e6d a93d 5cef 043d
00000330: a20e a13c ffe3 e53d ac74 cb3b eabb 853d
00000340: 0eeb 35bd 4535 1a3e 0b0e 3abd ea70 f9bc
00000350: 4e5d cc3d e5fd 2ebe 2a56 bf3d ddb4 1b3d
00000360: 04b3 2b3d 21a1 73bc 40e5 dabd 0cab fe3d
00000370: 6cbf 633d 1181 2abd 82f6 d5bd 03eb d73d
00000380: e457 323e eabc d3bd a3f6 e53d c613 f63c
00000390: 2c95 d5bc d45d de38 4f2e 943d ae9d 13be
000003a0: 4cd0 b2bc dadb 5f3d 52ce 0ebd 1d63 813b
000003b0: 95f7 bf3c 4174 9dbb cf13 efbd 1619 03bd
000003c0: beee c0bd 4287 823d 70a8 2c3e 775b 68bc
000003d0: c8d2 96bd 0af2 8bbd 21d1 f03c 3bda da3d
000003e0: eff0 94bc b9dc af3d 8631 d5bc 6636 cc3d
000003f0: 6a07 2f3c cfd2 fdbc ca40 d83c 6345 6c3d
