scripts/results/SingleCombat/1v1/NoWeapon/Selfplay/ppo/v1_selfplay_from_baseline/run3/actor_110.pt (torch, 696704 bytes, 30 tensors)

base.mlp.fc.0.weight f4 [128, 15]
0.12329989 -0.14586824 -0.076258585 0.21453805 -0.24787885 0.16113096 -0.08412877 0.1766963
0.043692008 -0.014444132 0.0466806 -0.010188985 0.1017145 -0.108208306 0.004239701 0.017377924
0.04469774 -0.028194338 0.3191433 0.10217096 -0.08229116 -0.043506123 -0.07306408 -0.10035023
-0.036693286 -0.14891611 0.17345756 0.16877396 -0.23197924 0.10685072 0.038828485 0.27575207
0.15500185 -0.30516356 -0.2830125 -0.15180513 0.24654606 -0.012160938 0.08406711 -0.19187403
0.34830332 -0.1907335 0.17924781 -0.015359551 -0.16843574 0.1640481 -0.14064474 0.1284697
0.044450555 -0.0060215597 -0.23571561 -0.09390995 0.15267928 -0.05347356 0.24243897 0.1373324
-0.024335926 -0.1760114 0.18972024 0.07996204 -0.19190729 0.15232798 0.11668751 0.18827938
-0.15840137 -0.061593108 -0.022202877 -0.028409086 -0.21218611 -0.20333523 0.15560476 -0.06984178
0.10260132 -0.01176684 0.05366329 0.066086724 0.06296502 0.13757746 -0.30232283 0.12853773
-0.20123072 -0.3240824 0.22821608 -0.06695138 0.16882385 -0.15613914 -0.23707293 0.18237409
0.021939067 0.14777678 0.08231909 -0.2601868 0.07389103 -0.020593861 -0.17071407 -0.12583406
-0.031856317 0.090972506 -0.11256753 -0.07399867 0.25533277 -0.07046133 0.14342868 0.12799181
-0.17185664 -0.232109 0.31454796 -0.049504828 0.25178838 0.030897424 0.063195065 0.2892607
0.2407773 -0.19170763 0.01123918 0.15674078 0.17894489 0.15121844 -0.2276905 -0.16262215
-0.17136367 0.024785591 0.26941487 -0.2126803 0.11990534 -0.15046726 -0.30258784 -0.1826811
0.14294705 0.24100581 -0.15319139 0.07128943 0.20983031 0.2188993 0.13667014 0.18285124
0.25061747 0.044194788 -0.2618 -0.23000164 -0.14109248 0.019180082 -0.22008294 0.06930472
0.05585919 -0.11337971 0.10817246 0.07450532 0.1667204 0.14490178 -0.106575586 0.26421165
-0.074837506 -0.014620942 -0.2578737 -0.18099594 -0.041195646 -0.14279567 0.1676751 -0.11751844
-0.18947586 0.10674525 0.07517957 0.18011896 -0.10716251 0.057958376 -0.10961947 -0.07879857
-0.23487103 -0.11545882 -0.078916825 0.033376265 0.0061035813 0.06501109 0.29359242 0.28898752
0.16190244 0.048644308 -0.17333674 0.18526416 0.012829817 -0.10117603 -0.19215995 -0.14770816
-0.122699894 0.29215083 -0.2835016 -0.23689923 0.041268468 -0.06223909 0.088532045 -0.20469621
-0.077479236 0.113092035 0.24093162 -0.18328625 0.23614809 0.19281705 0.2770744 -0.17512614
0.07456228 -0.07338853 0.18339269 -0.086947806 0.19241914 -0.08524854 -0.006235039 -0.003095246
0.040367134 0.12523381 0.050007895 0.06516176 -0.34043843 0.2123321 0.22520071 0.22674857
0.23393649 -0.34430894 -0.08433401 0.18787535 -0.17895539 0.2388932 -0.18259567 -0.22515275
0.1680251 -0.21095869 -0.114840575 0.22859396 0.27596584 0.23038048 -0.062198043 -0.31084415
0.4123751 -0.06191089 -0.07442079 0.071794555 -0.2000084 0.14501266 0.09715994 -0.15790536
-0.19647199 -0.089456975 0.123558454 -0.054165542 -0.13930513 0.010876325 -0.33266586 -0.12670411
-0.16873944 0.16128035 0.22027968 -0.094144955 0.0081732385 0.12859385 0.06823582 -0.14332177
00000000: a784 fc3d 7c5e 15be 762d 9cbd ddaf 5b3e
00000010: f4d3 7dbe 84ff 243e b44b acbd e0ef 343e
00000020: 64f6 323d 15a7 6cbc 2834 3f3d b3ef 26bc
00000030: b14f d03d 519c ddbd 31ed 8a3b 265c 8e3c
00000040: fa14 373d d0f7 e6bc c066 a33e 023f d13d
00000050: 4588 a8bd 7a33 32bd 9fa2 95bd 6c84 cdbd
00000060: b34b 16bd 777d 18be dc9e 313e 15d3 2c3e
00000070: f78b 6dbe 8dd4 da3d 9e0a 1f3d 602f 8d3e
00000080: ceb8 1e3e 663e 9cbe 04e7 90be ce72 1bbe
00000090: 9276 7c3e ac3e 47bc 612b ac3d a07a 44be
000000a0: d054 b23e a54f 43be bd8c 373e a0a6 7bbc
000000b0: 6b7a 2cbe 3afc 273e 2d05 10be 908d 033e
000000c0: c911 363d 8150 c5bb 6f5f 71be dc53 c0bd
000000d0: f557 1c3e 1707 5bbd ec41 783e dda0 0c3e
000000e0: 235c c7bc 553c 34be 0646 423e 23c3 a33d
000000f0: 5883 44be defb 1b3e dcf9 ee3d 4fcc 403e
00000100: f833 22be 0e49 7cbd cfe2 b5bc 2cba e8bc
00000110: 5147 59be 1c37 50be db56 1f3e 3509 8fbd
00000120: a420 d23d b4c9 40bc 0ace 5b3d 7a58 873d
00000130: cef3 803d 1be1 0c3e 0fca 9abe 659f 033e
00000140: 6d0f 4ebe 21ee a5be 7ab1 693e ce1d 89bd
00000150: 29e0 2c3e f0e2 1fbe 3fc3 72be 46c0 3a3e
00000160: 8fb9 b33c cc52 173e e996 a83d 3437 85be
00000170: 2e54 973d 75b4 a8bc abcf 2ebe a5da 00be
00000180: c57b 02bd cb4f ba3d ce89 e6bd 9d8c 97bd
00000190: faba 823e 084e 90bd f8de 123e 4910 033e
000001a0: 30fb 2fbe fbad 6dbe 6e0c a13e 93c5 4abd
000001b0: 68ea 803e 981c fd3c 6a6c 813d fa19 943e
000001c0: 538e 763e 014f 44be 8a24 383c a880 203e
000001d0: 543d 373e 02d9 1a3e b327 69be 6c86 26be
000001e0: f579 2fbe 270b cb3c bff0 893e ddc8 59be
000001f0: ee90 f53d 1714 1abe cbec 9abe c110 3bbe
00000200: b660 123e 3aca 763e 34de 1cbe 3100 923d
00000210: c2dd 563e 2327 603e 42f3 0b3e 5b3d 3b3e
00000220: ef50 803e 9805 353d a60a 86be 8d85 6bbe
00000230: 8c7a 10be 8c1f 9d3c 6c5d 61be a2ef 8d3d
00000240: 9bcc 643d 9f33 e8bd 8689 dd3d 3f96 983d
00000250: c1b8 2a3e 2261 143e 4d44 dabd c046 873e
00000260: 6844 99bd ad8c 6fbc 0608 84be 0057 39be
00000270: c4bc 28bd 0739 12be 05b3 2b3e 82ad f0bd
00000280: f605 42be 419d da3d bff7 993d 1b71 383e
00000290: 0578 dbbd c365 6d3d 2c80 e0bd 2561 a1bd
000002a0: 0882 70be ac75 ecbd 259f a1bd 8db5 083d
000002b0: 8d00 c83b 8924 853d bf51 963e 2cf6 933e
000002c0: c1c9 253e 413f 473d 307f 31be e3b5 3d3e
000002d0: 2734 523c 6135 cfbd 94c5 44be cf40 17be
000002e0: 154a fbbd cb94 953e 1f27 91be b695 72be
000002f0: 2009 293d 6bee 7ebd 4a50 b53d e29b 51be
00000300: 6fad 9ebd cc9c e73d c7b6 763e 64af 3bbe
00000310: ced0 713e d571 453e b2dc 8d3e 4454 33be
00000320: 1cb4 983d ba4c 96bd 4bcb 3b3e b111 b2bd
00000330: 8609 453e c996 aebd 4c4f ccbb 9cd9 4abb
00000340: 0258 253d 4b3d 003e 14d5 4c3d 8773 853d
00000350: f24d aebe 966d 593e 049b 663e c730 683e
00000360: 0c8d 6f3e 4349 b0be 4fb7 acbd 6562 403e
00000370: 1540 37be 6ba0 743e 5cfa 3abe 718e 66be
00000380: c60e 2c3e 8e05 58be 8931 ebbd 8914 6a3e
00000390: 654b 8d3e dce8 6b3e 60c3 7ebd f726 9fbe
000003a0: d422 d33e 4696 7dbd ed69 98bd 0609 933d
000003b0: 01cf 4cbe 337e 143e cafb c63d f1b1 21be
000003c0: f42f 49be 3835 b7bd 370c fd3d b0dc 5dbd
000003d0: 01a6 0ebe 9d32 323c 2e53 aabe b9be 01be
000003e0: 08ca 2cbe ad26 253e ff90 613e 12cf c0bd
000003f0: 0ce9 053c 1bae 033e 39bf 8b3d f1c2 12be

base.mlp.fc.0.bias f4 [128]
-0.093330614 -0.20419717 0.042007737 -0.08836156 -0.23223874 -0.034516975 -0.21772748 0.1104231
-0.17625886 -0.10033259 -0.27216828 -0.027007926 -0.016031755 0.14892313 -0.056617428 0.15892513
0.23401421 0.03497333 -0.11289481 -0.19216733 -0.18059686 -0.10837111 -0.11062516 0.14051262
-0.081593834 -0.019359624 0.0025884395 -0.22063217 0.21472749 -0.09231131 -0.23162045 -0.016892599
-0.25214523 0.019408781 -0.19399455 -0.029523863 -0.09867963 0.18332723 0.19484273 0.24266304
0.056134984 0.14387695 -0.21800938 -0.18478656 0.116620906 0.055411734 0.09406932 0.17127106
0.15560867 0.090798594 -0.10638529 -0.07332279 0.08924485 0.19094948 -0.014472238 -0.08258746
0.16941345 0.1334037 -0.024216888 -0.08384108 -0.22274011 -0.0033827913 0.05829546 -0.21881862
-0.18480217 -0.24599117 0.15722084 0.2609441 0.25321692 0.21622871 -0.020914556 0.075304896
0.17296797 -0.087774396 -0.14209771 0.17078637 0.009506359 0.13687377 -0.13441797 -0.1438828
-0.0007753515 0.04222239 0.13792133 0.17710903 -0.069527686 0.25265867 -0.15324767 -0.024080664
-0.13428035 0.057023957 0.2192213 -0.23622113 0.052565128 -0.22622558 -0.03579774 -0.11860548
-0.007013966 -0.18037467 0.042876232 -0.22902371 0.062745675 -0.11146248 -0.21005425 0.17777096
0.0050386894 -0.13328093 -0.1231731 -0.12524256 -0.13787712 0.015102373 -0.0145895975 0.17795591
0.026241668 -0.11144281 0.18993586 0.079563774 -0.057852425 0.17918812 0.23640245 -0.22342305
-0.22000653 -0.210185 -0.22192506 -0.10364873 0.14614187 -0.24998257 -0.2929066 -0.15366375
00000000: 1f24 bfbd 1019 51be 4e10 2c3d e8f6 b4bd
00000010: fecf 6dbe ac61 0dbd f4f3 5ebe 8225 e23d
00000020: 347d 34be 2c7b cdbd a459 8bbe ba3f ddbc
00000030: 0755 83bc 4e7f 183e ade7 67bd 45bd 223e
00000040: 6ca1 6f3e 3240 0f3d 6535 e7bd 83c7 44be
00000050: 62ee 38be acf1 ddbd 728f e2bd 8ae2 0f3e
00000060: ab1a a7bd 1398 9ebc cfa2 293b 66ed 61be
00000070: 86e1 5b3e b60d bdbd e92d 6dbe 5962 8abc
00000080: 2e19 81be 2aff 9e3c 82a6 46be 07dc f1bc
00000090: 8c18 cabd 22ba 3b3e da84 473e a97c 783e
000000a0: cced 653d 7b54 133e da3d 5fbe b038 3dbe
000000b0: f1d6 ee3d 6af7 623d 6aa7 c03d ae61 2f3e
000000c0: e157 1f3e 9df4 b93d 88e0 d9bd 422a 96bd
000000d0: 01c6 b63d 4388 433e f71c 6dbc 9d23 a9bd
000000e0: b87a 2d3e fb9a 083e 7f62 c6bc dfb4 abbd
000000f0: fc15 64be d2b1 5dbb 38c7 6e3d fd11 60be
00000100: c83c 3dbe 1ce5 7bbe 80fe 203e 779a 853e
00000110: a6a5 813e 0f6b 5d3e 0155 abbc 7439 9a3d
00000120: 841e 313e 10c3 b3bd 1082 11be 9fe2 2e3e
00000130: 8fc0 1b3c a328 0c3e dda4 09be 0356 13be
00000140: f540 4bba 63f1 2c3d 403b 0d3e 125c 353e
00000150: 8864 8ebd 7a5c 813e f5ec 1cbe d044 c5bc
00000160: ca80 09be f491 693d 8c7b 603e f4e3 71be
00000170: 884e 573d aea7 67be a7a0 12bd 6ee7 f2bd
00000180: 69d5 e5bb 23b4 38be fd9e 2f3d 3185 6abe
00000190: ce80 803d 7146 e4bd 7618 57be 9709 363e
000001a0: 971b a53b cc7a 08be 2e42 fcbd 963f 00be
000001b0: a92f 0dbe f26f 773c 3509 6fbc 133a 363e
000001c0: c4f8 d63c 213c e4bd 8c7e 423e 55f2 a23d
000001d0: aaf6 6cbd 177d 373e 7c13 723e 03c9 64be
000001e0: 6449 61be bd3a 57be 5340 63be c945 d4bd
000001f0: 37a6 153e 6efb 7fbe dbf7 95be 085a 1dbe

base.mlp.fc.2.weight f4 [128]
1.0549656 1.044321 1.049212 0.9811261 0.97215164 0.9866347 1.0065274 1.007012
0.9972101 1.0332575 0.9860706 0.9602987 0.97059923 0.96027774 1.0179489 1.0089359
0.9743669 1.0027206 1.0536007 1.0363655 0.9427724 0.9692281 0.9703542 1.0472225
1.029534 1.0458671 1.04704 0.9930693 1.0066506 1.0277098 0.980452 1.0183778
0.9788195 0.9845823 0.9563909 0.99064857 1.0302317 0.9776229 1.1275573 1.0257616
1.0035985 0.98583126 1.0276687 1.0091443 0.9491899 1.0033827 0.97089916 1.0268965
1.0371588 1.0101842 0.9957236 0.9754553 1.0211419 1.0169727 0.98249376 0.9616893
0.99193746 0.96374947 0.98516977 1.0440779 1.0846087 0.987942 0.9967333 0.9862421
1.0304085 1.0284258 0.9238417 0.9984513 1.01246 1.0364732 0.96144104 0.9979193
1.059776 1.0493641 1.1258774 0.9773433 0.96259606 0.97990084 1.032034 1.0045241
0.9680059 1.0078189 1.0071847 1.0319102 0.9822577 1.0196369 0.98534137 0.9448098
0.9759184 1.0605518 1.0073383 1.004041 0.99127305 0.9730306 0.982288 1.0140421
1.0076665 0.97214335 1.0376835 0.95597833 0.99027205 0.9919501 0.9636974 0.9723312
0.96043855 0.9964318 0.9810877 1.003086 1.0247527 1.0664777 0.9894513 0.9768086
1.0365762 0.9507 0.9643019 0.9599151 1.0525805 1.0105157 0.97930646 0.99112487
1.0063093 0.9670344 0.91726637 1.0072482 0.9391717 0.9658706 0.9864818 1.0177804
00000000: 1d09 873f 4fac 853f 944c 863f 152b 7b3f
00000010: eede 783f 1794 7c3f e4d5 803f c5e5 803f
00000020: 2949 7f3f c841 843f 1f6f 7c3f 23d6 753f
00000030: 3179 783f c3d4 753f 264c 823f d024 813f
00000040: 1c70 793f 2659 803f 63dc 863f a0a7 843f
00000050: 8859 713f 551f 783f 2269 783f 630b 863f
00000060: c5c7 833f f9de 853f 6805 863f ca39 7e3f
00000070: edd9 803f ff8b 833f e7fe 7a3f 345a 823f
00000080: ea93 7a3f 960d 7c3f 09d6 743f 259b 7d3f
00000090: a2de 833f 7f45 7a3f cc53 903f 284c 833f
000000a0: ea75 803f 705f 7c3f a68a 833f a42b 813f
000000b0: 1cfe 723f d86e 803f d98c 783f 5871 833f
000000c0: 9fc1 843f b74d 813f bee7 7e3f 70b7 793f
000000d0: c7b4 823f 292c 823f b684 7b3f 4531 763f
000000e0: 9def 7d3f 49b8 763f 1634 7c3f 58a4 853f
000000f0: 75d4 8a3f c4e9 7c3f ea29 7f3f 5d7a 7c3f
00000100: 6de4 833f 75a3 833f e480 6c3f 819a 7f3f
00000110: 4a98 813f 27ab 843f 0021 763f a477 7f3f
00000120: bda6 873f 9051 863f c01c 903f 2c33 7a3f
00000130: b26c 763f c8da 7a3f b119 843f 3f94 803f
00000140: 3ccf 773f 3600 813f 6eeb 803f a215 843f
00000150: 3e75 7b3f 7683 823f 553f 7c3f 0edf 713f
00000160: cad5 793f 29c0 873f 76f0 803f 6a84 803f
00000170: 12c4 7d3f 8918 793f 3a77 7b3f 22cc 813f
00000180: 37fb 803f 63de 783f d0d2 843f ffba 743f
00000190: 7882 7d3f 71f0 7d3f dfb4 763f b3ea 783f
000001a0: 4ddf 753f 2816 7f3f 9028 7b3f 1f65 803f
000001b0: 192b 833f 5782 883f ae4c 7d3f 2110 7a3f
000001c0: 87ae 843f 1361 733f 7ddc 763f ffbc 753f
000001d0: f5ba 863f 9458 813f d4b3 7a3f 5cba 7d3f
000001e0: bece 803f 918f 773f f8d1 6a3f 82ed 803f
000001f0: 8e6d 703f 4c43 773f 128a 7c3f a146 823f

base.mlp.fc.2.bias f4 [128]
0.008676364 0.009949799 -0.005679868 0.020392654 0.027590418 -0.006583623 0.011115039 0.0021610751
-0.00045671817 0.008324003 0.029994367 0.023497509 0.031854965 0.048013143 0.019414889 -0.023739723
0.029333156 0.020138046 -0.017148105 0.010533392 0.057594564 0.029475562 0.03223736 -0.007827257
-0.0025825256 -0.014392218 -0.0076804147 0.018270956 0.021305831 0.012274465 -0.015659893 -0.011643421
-0.022832911 0.030715104 0.044545315 0.016912695 -0.0042973086 0.023870464 0.009172116 0.002324619
0.026742553 -0.021564692 -0.0056144004 -0.012906789 0.047774065 0.0074375793 0.019458905 0.016356599
-0.005999929 -0.014164398 -0.013327854 0.029814333 -0.0012193884 -0.014743053 0.018772366 0.03311845
0.006516939 0.039028306 0.018103365 -0.008082449 0.005475311 -0.023757808 -0.0176144 -0.0243746
0.002033353 0.001370527 0.07279774 0.021179482 -0.001359556 -0.0078589525 0.038425826 -0.02632156
-0.0027445266 -0.013009286 -0.0023353368 -0.03391023 0.041375265 0.0342856 -0.01591479 0.008273113
0.041280173 0.021050556 -0.015117939 0.019886727 -0.030452713 0.0030922361 -0.016930912 -0.033525657
0.028565627 0.017324232 -0.009839105 0.013259281 0.024940081 0.03257548 0.026811963 -0.006168942
-0.006749487 0.03030101 -0.017709853 0.05208173 0.024032319 -0.0027396118 0.039688226 -0.032929484
0.037137624 0.019967787 0.01997035 0.00041632063 0.018173428 -0.013661319 -0.019975254 -0.033083685
0.02405002 0.04803918 -0.020049253 0.03194733 -0.015214212 -0.010591504 0.03068797 0.017432097
0.0063112625 0.043957796 0.085781045 -0.021657916 0.060036786 0.032695986 -0.013882982 0.012760325
00000000: 4f27 0e3c 7b04 233c 301e babb 7f0e a73c
00000010: 4d05 e23c 6fbb d7bb da1b 363c d3a0 0d3b
00000020: ad73 efb9 6661 083c bfb6 f53c d97d c03c
00000030: 5a7a 023d 6ea9 443d f90b 9f3c cf79 c2bc
00000040: 164c f03c 8bf8 a43c 2f7a 8cbc 4094 2c3c
00000050: 47e8 6b3d bc76 f13c 520b 043d e53d 00bc
00000060: 973f 29bb 56cd 6bbc fdab fbbb f9ac 953c
00000070: 9189 ae3c d61a 493c 2d49 80bc 0cc4 3ebc
00000080: 160c bbbc 3e9e fb3c 2675 363d 7e8c 8a3c
00000090: 70d0 8cbb fe8b c33c a546 163c a358 183b
000000a0: 3313 db3c 70a8 b0bc 01f9 b7bb ff76 53bc
000000b0: bdae 433d f0b6 f33b 4868 9f3c 46fe 853c
000000c0: 0d9b c4bb cb11 68bc 125d 5abc 303d f43c
000000d0: e3d3 9fba d98c 71bc 81c8 993c 36a7 073d
000000e0: 0c8c d53b 25dc 1f3d 824d 943c 406c 04bc
000000f0: 3d6a b33b bc9f c2bc 134c 90bc 3ead c7bc
00000100: 0142 053b 41a3 b33a fb16 953d 9880 ad3c
00000110: 2133 b2ba d6c2 00bc 6664 1d3d 50a0 d7bc
00000120: 84dd 33bb e624 55bc 730c 19bb 74e5 0abd
00000130: 1c79 293d 0f6f 0c3d bc5f 82bc f38b 073c
00000140: 6615 293d 3772 ac3c 3bb1 77bc 7de9 a23c
00000150: f877 f9bc 1da7 4a3b b2b2 8abc 3352 09bd
00000160: 7602 ea3c 8ceb 8d3c 3334 21bc 753d 593c
00000170: 244f cc3c de6d 053d c3a4 db3c d624 cabb
00000180: cd2a ddbb d339 f83c 4114 91bc a753 553d
00000190: 6ddf c43c 0f8b 33bb 1f90 223d 11e1 06bd
000001a0: 9f1d 183d 7c93 a33c dc98 a33c 9c45 da39
000001b0: 71e0 943c bad3 5fbc 25a3 a3bc c282 07bd
000001c0: 8c04 c53c bbc4 443d 553e a4bc 34db 023d
000001d0: 0845 79bc fd87 2dbc 5665 fb3c c2cd 8e3c
000001e0: b5ce ce3b 170d 343d f9ad af3d f16b b1bc
000001f0: 22e9 753d 3aec 053d 7275 63bc af10 513c

base.mlp.fc.3.weight f4 [128, 128]
-0.009423797 0.028424893 0.11803002 0.09010452 0.012765794 -0.056876432 0.11005563 -0.05503779
0.039961413 0.04529872 0.041582283 0.02038117 -0.072498776 -0.021498015 -0.08026959 0.06702056
-0.031686045 0.015596819 0.06440326 0.07428849 -0.05097815 -0.061666496 0.08134824 0.032847356
-0.0778989 0.07920943 -0.0872429 0.089423455 0.07688698 0.07737518 0.00422703 0.032331802
-0.06800415 0.06152814 0.017039938 0.07741263 -0.0041428255 0.09763094 0.055535473 -0.040931646
0.03475807 -0.07932367 -0.04260433 -0.039474912 -0.041016277 0.030950911 -0.024154449 -0.022355905
0.05084554 0.0039234157 -0.02857084 -0.015205419 -0.006454817 0.04577069 0.05364581 0.06877029
-0.0381988 0.012105728 0.03256331 -0.026887244 0.064102076 -0.025598053 -0.011153165 -0.082858145
0.061462544 -0.044465214 0.0044888835 -0.07905776 0.09515812 0.00017443443 0.047629423 -0.046210304
-0.04733822 0.041242402 0.07256538 0.054628756 -0.0043523503 0.0052890372 0.00056172186 -0.06873281
-0.032710023 -0.0809358 -0.08259244 -0.016252615 0.007817624 -0.0018594952 0.0026890014 0.01301674
-0.01213975 -0.0736455 0.048155386 -0.06932674 0.0057854564 0.00033611202 0.04272775 -0.0680634
-0.0623749 0.08339916 -0.011035644 0.09483964 0.035043526 0.06844153 0.022971643 -0.033531662
-0.038046815 -0.022149557 0.08137396 0.06574125 0.0961436 0.08742452 0.063165635 -0.06268079
-0.04990135 -0.02791835 -0.04733727 -0.0034403703 -0.018238833 0.099365585 -0.018841691 0.11255202
-0.07875271 -0.073199205 0.024341272 0.0024542261 -0.025467955 -0.03275211 0.019410688 0.012399169
-0.0073659173 0.04526768 -0.053860337 0.07157443 -0.057268824 -0.04322933 0.03045991 0.045000024
0.0028374956 -0.034470845 0.034415755 -0.040080488 -0.026992729 -0.023576895 -0.0078741815 -0.028996503
-0.05896213 -0.0040329974 -0.08040231 -0.09831136 0.04563604 0.052411273 0.08290623 0.008690515
-0.08051206 -0.06122141 0.04161823 -0.050647404 0.0904192 -0.06023775 -0.06676266 -0.06847085
0.067498505 0.10416247 0.023347959 -0.01776717 0.07579558 0.086709335 0.05963293 -0.071524404
0.017524336 0.04895319 -0.07542623 0.06673245 -0.0550053 -0.02087016 0.0033681772 0.057823267
0.01342926 -0.06272136 0.052558113 0.010785694 0.0065043047 -0.061255913 0.08130256 -0.031747695
-0.042482104 0.078263976 -0.04319658 0.07792292 0.054935664 -0.055269502 -0.15373881 -0.058935884
0.021743417 0.07343713 0.03687451 0.0019607807 -0.035421234 -0.08669168 0.07869502 0.0054115113
-0.10588153 -0.06334454 0.05059524 0.007913349 0.098832175 -0.014779429 -0.03571739 0.011763571
-0.017063381 -0.0043973797 0.03320212 -0.045615517 -0.052225843 -0.02187739 -0.05857453 0.010747409
0.010028415 0.09628347 -0.0037382755 0.0024945282 -0.033760183 -0.07188702 0.011391615 -0.041684315
0.048396032 0.09281296 0.043886274 -0.04359975 -0.042419855 0.0794801 -0.012984333 -0.121541895
-0.020700548 -0.006458891 -0.05232499 0.031948276 -0.07086168 0.03962922 -0.042391863 -0.039134905
0.07730969 -0.060544018 -0.054937985 0.012394252 -0.020971503 0.043206673 -0.0077525703 0.017277662
-0.034463074 0.02854377 0.029719593 -0.07368773 0.07175339 -0.015116037 0.08215486 -0.10040167
00000000: 4566 1abc 52db e83c b9b9 f13d b888 b83d
00000010: 9f27 513c 43f7 68bd d964 e13d 4e6f 61bd
00000020: 94ae 233d 278b 393d 2f52 2a3d 69f6 a63c
00000030: 3d7a 94bd 9b1c b0bc 6264 a4bd 1342 893d
00000040: 3ac9 01bd cd89 7f3c dbe5 833d 9024 983d
00000050: 77ce 50bd 0296 7cbd e899 a63d f38a 063d
00000060: 7589 9fbd 8e38 a23d 68ac b2bd a523 b73d
00000070: ec76 9d3d e176 9e3d e682 8a3b 5a6e 043d
00000080: c345 8bbd ee04 7c3d 5797 8b3c 838a 9e3d
00000090: 8ac0 87bb bbf2 c73d 2a79 633d f1a7 27bd
000000a0: 7a5e 0e3d 7374 a2bd e181 2ebd 72b0 21bd
000000b0: af00 28bd c48c fd3c 8ddf c5bc bb23 b7bc
000000c0: 6a43 503d ff8f 803b 650d eabc 2620 79bc
000000d0: ee82 d3bb 0c7a 3b3d b5bb 5b3d 70d7 8c3d
000000e0: 5876 1cbd 1a57 463c 1b61 053d a342 dcbc
000000f0: f347 833d 02b3 d1bc c4bb 36bc 88b1 a9bd
00000100: 26c0 7b3d 2821 36bd 7c17 933b 09e9 a1bd
00000110: 43e2 c23d 63e8 3639 1217 433d 0447 3dbd
00000120: b9e5 41bd cbed 283d 289d 943d 67c2 5f3d
00000130: 299e 8ebb a94f ad3b 8440 133a cac3 8cbd
00000140: f2fa 05bd abc1 a5bd 3a26 a9bd 3424 85bc
00000150: 7e15 003c 4eba f3ba f539 303b 2a44 553c
00000160: cde5 46bc 74d3 96bd 953e 453d 2efb 8dbd
00000170: ed93 bd3b 3138 b039 4b03 2f3d d364 8bbd
00000180: d37c 7fbd 2ecd aa3d d9ce 34bc 493b c23d
00000190: cd89 0f3d 132b 8c3d 072f bc3c 7f58 09bd
000001a0: fad6 1bbd fd72 b5bc 64a7 a63d 59a3 863d
000001b0: f0e6 c43d a00b b33d fc5c 813d c95e 80bd
000001c0: 5c65 4cbd 06b5 e4bc bae4 41bd d677 61bb
000001d0: 9b69 95bc 2f80 cb3d e459 9abc ac81 e63d
000001e0: 1a49 a1bd 77e9 95bd 5967 c73c 15d7 203b
000001f0: 2ca2 d0bc 1427 06bd 2a03 9f3c e225 4b3c
00000200: cb5d f1bb 9a6a 393d a89c 5cbd 9d95 923d
00000210: b792 6abd 3d11 31bd 1087 f93c f251 383d
00000220: 47f5 393b 4d31 0dbd 89f7 0c3d 702b 24bd
00000230: db1f ddbc 5524 c1bc b602 01bc 138a edbc
00000240: 4682 71bd 3c27 84bb f7a9 a4bd 7757 c9bd
00000250: dbec 3a3d 34ad 563d beca a93d a962 0e3c
00000260: 82e3 a4bd 4dc3 7abd e177 2a3d a773 4fbd
00000270: b42d b93d dcbb 76bd ddba 88bd 723a 8cbd
00000280: a83c 8a3d 2253 d53d 3844 bf3c 758c 91bc
00000290: b73a 9b3d aa94 b13d a941 743d 637b 92bd
000002a0: 328f 8f3c 2483 483d 1179 9abd 06ab 883d
000002b0: 3d4d 61bd e6f7 aabc a3bc 5c3b 17d8 6c3d
000002c0: 6606 5c3c 0e74 80bd 2d47 573d 7bb6 303c
000002d0: 1022 d53b 7be7 7abd f581 a63d df09 02bd
000002e0: b701 2ebd dd48 a03d e6ee 30bd 0d96 9f3d
000002f0: 3804 613d 4662 62bd b56d 1dbe c166 71bd
00000300: 401f b23c 3566 963d ba09 173d 7180 003b
00000310: db15 11bd 688b b1bd db2a a13d 0c53 b13b
00000320: 6ad8 d8bd c8ba 81bd f43c 4f3d fea6 013c
00000330: 8668 ca3d 6b25 72bc 664c 12bd febb 403c
00000340: 81c8 8bbc e517 90bb f2fe 073d 56d7 3abd
00000350: c4ea 55bd 3638 b3bc d9eb 6fbd e715 303c
00000360: 394e 243c 4530 c53d dbfd 74bb 3d7b 233b
00000370: 1e48 0abd 8039 93bd e5a3 3a3c 2cbd 2abd
00000380: eb3a 463d b914 be3d 18c2 333d a795 32bd
00000390: 71c0 2dbd 76c6 a23d 3dbc 54bc f5ea f8bd
000003a0: 3294 a9bc 1ba5 d3bb bb52 56bd 32dc 023d
000003b0: ee1f 91bd 4052 223d 17a3 2dbd ec4b 20bd
000003c0: 8b54 9e3d 01fd 77bd a706 61bd 4311 4b3c
000003d0: 6ecc abbc 7bf9 303d 4609 febb e289 8d3c
000003e0: 2729 0dbd a0d4 e93c 8176 f33c 98e9 96bd
000003f0: 71f3 923d 41a9 77bc cf40 a83d 649f cdbd

base.mlp.fc.3.bias f4 [128]
-0.05364918 0.02207767 0.0073614093 -0.089498095 -0.0294803 0.0194784 -0.048179485 -0.09327228
-0.04220196 0.07074778 -0.037778493 0.032170944 -0.029546203 -0.012825878 0.04939236 -0.061836284
-0.031492565 -0.07480693 -0.047671787 0.046532452 -0.09470362 0.0205999 -0.0019729761 -0.0010661158
0.012240319 0.0060835565 0.07149095 -0.08213511 -0.017034674 0.05960817 0.045413546 0.067322485
-0.07288513 -0.0656755 -0.031063776 0.0772073 -0.06512208 -0.034279324 -0.019472677 -0.036351778
-0.054371692 0.0717749 -0.030715222 -0.030017963 0.038686175 -0.012193592 -0.02606997 -0.039253484
0.013445078 -0.044692438 -0.089328855 0.07815444 0.04818797 0.07812351 -0.07607871 -0.049023557
0.059787508 0.002385297 -0.008969554 0.046814255 0.052396636 -0.007945562 -0.007079273 -0.060243648
-0.078140445 0.016693916 -0.0045293886 0.033234756 -0.050711382 0.033843454 0.042256206 -0.07870704
0.0051999292 -0.05890512 0.029322091 0.019048413 -0.0035597936 -0.0801955 0.021015817 0.05654681
0.0005533753 -0.017055143 -0.08753518 -0.0897275 -0.08469513 0.05020065 0.010660412 0.05802114
-0.05283135 -0.00013465436 0.074473314 -0.0627069 -0.008259007 0.06348691 0.034045614 0.053900436
-0.004238619 0.008927005 -0.069106355 0.0117439395 -0.08435937 0.020823045 0.013710786 -0.041064344
-0.028850343 -0.012182632 0.00036903503 -0.012144996 0.047888048 -0.07856845 -0.05817235 -0.048463564
0.004595995 -0.059477933 -0.04657693 0.06480655 0.03544439 0.011256084 0.010460967 -0.05356789
-0.04384105 0.058206927 0.0523381 -0.08393996 0.05570889 -0.0224214 0.06164566 -0.012775374
00000000: 3ebf 5bbd 3bdc b43c fa37 f13b c74a b7bd
00000010: ac80 f1bc 2a91 9f3c da57 45bd 8a05 bfbd
00000020: f6db 2cbd 36e4 903d 9fbd 1abd aec5 033d
00000030: e10a f2bc a223 52bc a54f 4a3d 0b48 7dbd
00000040: 59fe 00bd 6034 99bd 7e43 43bd d098 3e3d
00000050: f9f3 c1bd 1fc1 a83c 0c4d 01bb e9bc 8bba
00000060: 9e8b 483c 9258 c73b d969 923d 7436 a8bd
00000070: 4d8c 8bbc b227 743d 8e03 3a3d 5fe0 893d
00000080: cd44 95bd e080 86bd 7679 febc dc1e 9e3d
00000090: ba5e 85bd 7a68 0cbd 2a85 9fbc 9ae5 14bd
000000a0: dab4 5ebd b8fe 923d 7d9e fbbc 3be8 f5bc
000000b0: 6575 1e3d a2c7 47bc b190 d5bc 43c8 20bd
000000c0: bf48 5c3c 6b0f 37bd 0cf2 b6bd 6f0f a03d
000000d0: c060 453d 38ff 9f3d 28cf 9bbd edcc 48bd
000000e0: bfe3 743d a552 1c3b 09f5 12bc 4ec0 3f3d
000000f0: db9d 563d 1a2e 02bc 3ff9 e7bb 0bc2 76bd
00000100: 1908 a0bd aec1 883c 446b 94bb 2b21 083d
00000110: bdb6 4fbd 6f9f 0a3d d814 2d3d 2831 a1bd
00000120: 2b64 aa3b 7f46 71bd e234 f03c 6b0b 9c3c
00000130: 6d4b 69bb 8a3d a4bd 5d29 ac3c a19d 673d
00000140: 6310 113a 3ab7 8bbc a545 b3bd 0dc3 b7bd
00000150: a474 adbd 329f 4d3d 02a9 2e3c 93a7 6d3d
00000160: b065 58bd 0132 0db9 7785 983d 7a6c 80bd
00000170: c950 07bc 6d05 823d 6a73 0b3d b4c6 5c3d
00000180: 1de4 8abb 9342 123c a287 8dbd a769 403c
00000190: 9bc4 acbd 1795 aa3c 34a3 603c 1633 28bd
000001a0: 8e57 ecbc aa99 47bc 0b7b c139 cefb 46bc
000001b0: 4226 443d 7fe8 a0bd 2146 6ebd bb81 46bd
000001c0: 009a 963b 229f 73bd 73c7 3ebd 4cb9 843d
000001d0: 232e 113d 706b 383c 7a64 2b3c 016a 5bbd
000001e0: ac92 33bd 636a 6e3d 7a60 563d b7e8 abbd
000001f0: 012f 643d 15ad b7bc 2980 7c3d cd4f 51bc

base.mlp.fc.5.weight f4 [128]
1.0194604 0.981337 0.96351826 1.00224 1.0374348 1.024348 1.0495418 1.0254825
1.0295398 1.0209374 0.9857216 0.9841056 1.014162 1.0308203 0.99390936 1.0674936
0.9711092 1.0202348 1.0164967 1.0396676 0.9709998 0.9932664 1.0082854 0.984949
1.0323828 1.0303361 1.0420452 1.0330989 1.0367585 1.0446247 1.0326521 0.9846978
1.0001389 0.975667 1.004857 1.0845184 0.99649775 0.9954262 0.97376746 1.0899372
1.0007778 0.98564446 0.9512922 0.9768689 0.9995027 1.0097893 0.9959448 0.99071836
1.0286353 0.9760271 0.94993764 1.0326884 1.0447655 0.9952686 0.9947588 1.033645
1.0652603 1.0172107 0.98608124 1.0221833 1.0945992 0.9774136 1.0344585 0.9936526
0.990437 1.1053337 1.0291886 0.99140745 1.0690207 1.0632092 0.99343336 0.97939247
1.0164258 1.0428451 1.0523626 0.9849406 0.9405089 1.0656691 0.9852076 1.0014312
1.0364951 1.0279427 1.0029243 1.0440087 1.0499812 0.9914225 1.0786132 1.0215318
1.0222642 1.0245782 0.98606986 0.9950199 1.0333706 1.02511 0.9959985 0.97550905
1.0270674 1.0115666 0.9892916 1.0024099 1.0184983 1.0669569 1.0091151 0.9942696
1.0215065 0.96035117 1.0549415 0.98678446 0.98313075 1.020307 1.0298481 1.0377376
0.999423 1.0953404 1.001767 0.99012387 0.9879042 0.9975612 1.0190667 0.96414673
0.991746 0.9773631 1.0061646 1.0803969 1.074974 1.0030608 1.0021858 0.9785611
00000000: ae7d 823f e738 7b3f 22a9 763f 6649 803f
00000010: aaca 843f d61d 833f 6357 863f 0343 833f
00000020: f6c7 833f 14ae 823f 4058 7c3f 58ee 7b3f
00000030: 0fd0 813f ebf1 833f d870 7e3f a1a3 883f
00000040: 9d9a 783f 0e97 823f 901c 823f d413 853f
00000050: 7193 783f b546 7e3f 7f0f 813f 9e25 7c3f
00000060: 1f25 843f 0ee2 833f bd61 853f 963c 843f
00000070: 81b4 843f 43b6 853f f22d 843f 2815 7c3f
00000080: 8d04 803f 50c5 793f 279f 803f 80d1 8a3f
00000090: 7a1a 7f3f 40d4 7e3f d348 793f 1083 8b3f
000000a0: 7d19 803f 3253 7c3f e387 733f 1514 7a3f
000000b0: 69df 7f3f c740 813f 3df6 7e3f b89f 7d3f
000000c0: 52aa 833f e9dc 793f 1d2f 733f 222f 843f
000000d0: e0ba 853f ecc9 7e3f 83a8 7e3f 7b4e 843f
000000e0: 735a 883f f633 823f d26f 7c3f e7d6 823f
000000f0: d41b 8c3f c737 7a3f 2369 843f 0460 7e3f
00000100: 478d 7d3f 937b 8d3f 74bc 833f e1cc 7d3f
00000110: acd5 883f 3d17 883f a651 7e3f 77b9 7a3f
00000120: 3e1a 823f f37b 853f d1b3 863f 1125 7c3f
00000130: 31c5 703f d867 883f 9136 7c3f e62e 803f
00000140: dfab 843f a093 833f d35f 803f 14a2 853f
00000150: c965 863f ddcd 7d3f ff0f 8a3f 8ec1 823f
00000160: 8ed9 823f 6125 833f 136f 7c3f a0b9 7e3f
00000170: 7d45 843f ce36 833f c2f9 7e3f f6ba 793f
00000180: f276 833f 047b 813f 3742 7d3f f84e 803f
00000190: 275e 823f 0b92 883f af2a 813f 7488 7e3f
000001a0: bac0 823f 93d9 753f 5308 873f e89d 7c3f
000001b0: 75ae 7b3f 6b99 823f 10d2 833f 96d4 843f
000001c0: 30da 7f3f 1d34 8c3f e739 803f c278 7d3f
000001d0: 4ae7 7c3f 2c60 7f3f c770 823f 52d2 763f
000001e0: 11e3 7d3f 7834 7a3f 00ca 803f 724a 8a3f
000001f0: bf98 893f 4c64 803f a047 803f fb82 7a3f

base.mlp.fc.5.bias f4 [128]
-0.007203498 0.021589363 0.028666718 0.007383749 -0.014346669 0.012394642 -0.012993938 -0.0019251702
-0.0020272618 -0.012972608 0.016730797 0.011654937 0.010596197 -0.011311672 0.000730046 0.0043706372
0.015792713 0.010351186 0.014545025 -0.0030427238 0.037098892 0.002913875 0.0075325663 0.0062099113
-0.004928676 0.0028288728 -0.0028231526 -6.09695e-05 -0.0039615957 -0.0059266076 0.0071254377 0.014427383
0.011497259 0.004786441 0.009312479 -0.007290528 0.0134299295 0.008818127 0.019101648 0.0026956545
0.005270403 0.013033033 0.050468225 -0.0040384703 -0.003757262 0.017193075 -0.0076929564 0.02235445
0.012595223 0.021165786 0.020248523 -0.0026027388 0.008516961 -0.007743218 0.01584603 0.005526088
-0.0037702888 0.00714165 0.034625165 0.0014172315 -0.008927807 0.017913317 0.00978929 0.0115339905
0.018172141 0.0002690329 0.0057607335 0.0024839907 0.006325368 0.0042897034 0.014751251 0.03490301
-0.0032394931 -0.0016669208 -0.0028820995 0.014911594 0.044993613 0.0025654135 0.013195555 -0.003393059
-0.006004849 0.001963271 -0.021362629 0.004376806 0.010796753 0.018136838 -0.009529866 0.0013626625
-0.018659577 -0.016021319 0.014231531 0.004493495 -0.007199002 -0.01295767 0.013957006 0.01125476
0.0018681224 0.000219698 0.016322143 0.0076525384 -0.025694687 0.015566288 0.013980242 0.016129613
0.015832843 0.030808948 -0.0076105185 0.011140192 0.019227669 0.0036056177 0.018821958 0.009797763
0.024329832 0.004281864 0.018573526 -0.00040066987 0.022094887 0.0068735303 -0.005799811 0.025796125
0.0043286365 0.018218681 -0.011891506 0.0019573288 -0.00090093806 -0.0036863252 -0.0024087213 0.02715677
00000000: 520b ecbb 2ddc b03c 77d6 ea3c 60f3 f13b
00000010: 4b0e 6bbc e612 4b3c 87e4 54bc fe55 fcba
00000020: cfdb 04bb 108b 54bc 060f 893c 59f4 3e3c
00000030: ac9b 2d3c 9754 39bc 8f60 3f3a 9037 8f3b
00000040: b85f 813c 0598 293c 424e 6e3c 6f68 47bb
00000050: 02f5 173d b6f6 3e3b bfd3 f63b 837c cb3b
00000060: bb80 a1bb 9c64 393b a404 39bb 81b9 7fb8
00000070: 46d0 81bb fd33 c2bb 817c e93b d560 6c3c
00000080: 005f 3c3c 94d7 9c3b 5e93 183c 62e5 eebb
00000090: 3509 5c3c e879 103c 0f7b 9c3c 94a9 303b
000000a0: 58b3 ac3b 8188 553c c5b7 4e3d 2555 84bb
000000b0: 653c 76bb 7ed8 8c3c 3215 fcbb ae20 b73c
000000c0: 325c 4e3c df63 ad3c 3be0 a53c b692 2abb
000000d0: b98a 0b3c d2ba fdbb 89cf 813c 3014 b53b
000000e0: f316 77bb 8104 ea3b 1ed3 0d3d 66c2 b93a
000000f0: f045 12bc f3be 923c 4263 203c 10f9 3c3c
00000100: bedd 943c fc0c 8d39 89c4 bc3b 73ca 223b
00000110: 0845 cf3b a490 8c3b 3baf 713c 75f6 0e3d
00000120: ad4d 54bb 957c daba 9be1 3cbb c24f 743c
00000130: 394b 383d 7f20 283b 2b32 583c 155e 5ebb
00000140: 53c4 c4bb 39aa 003b ae00 afbc 4f6b 8f3b
00000150: dde4 303c b593 943c 2823 1cbc 5e9b b23a
00000160: f8db 98bc 243f 83bc 5e2b 693c 2b3e 933b
00000170: 9be5 ebbb 684c 54bc edab 643c e365 383c
00000180: c9db f43a bc5e 6639 04b6 853c 25c2 fa3b
00000190: aa7d d2bc be09 7f3c 630d 653c 4022 843c
000001a0: e1b3 813c 0c63 fc3c a861 f9bb 5a85 363c
000001b0: 5883 9d3c 3a4c 6c3b 8230 9a3c cc86 203c
000001c0: 5b4f c73c e14e 8c3b 8227 983c 0011 d2b9
000001d0: 5600 b53c 5a3b e13b 570c bebb 6552 d33c
000001e0: 3cd7 8d3b 583f 953c 97d4 42bc 8746 003b
000001f0: ee2c 6cba 4696 71bb a3db 1dbb e077 de3c

rnn.gru.weight_ih_l0 f4 [384, 128]
0.058204122 0.09235952 0.12621848 0.0043375473 0.09839884 -0.09242267 -0.088514544 0.003075862
0.017073417 0.0062853754 0.12951161 0.060289953 -0.01410034 -0.106834576 0.08225674 -0.056232978
0.108544126 -0.02207978 -0.026955985 -0.054616578 0.03729315 0.06295888 0.0058445316 -0.13516092
-0.019939035 -0.03520581 -0.06558092 -0.022012154 0.033678263 -0.05922527 0.066275775 0.03510524
0.03955556 0.027147349 -0.048120685 -0.118050374 0.0785056 0.08784746 0.04658867 0.0795653
-0.04615913 -0.035008963 0.119525574 0.086060375 0.014181165 0.077398404 0.12581374 0.057705015
0.049333397 0.105448596 -0.07907256 -0.10035964 -0.0007562278 -0.050832972 0.08035463 0.046285655
0.07611576 -0.030832468 0.12766494 0.036771785 -0.008383724 0.121992804 -0.015936771 0.14388956
0.1133871 -0.06380412 0.12270024 -0.041464273 0.036992878 -0.031000122 0.0016551883 0.15676156
0.03848281 -0.05123712 0.005998102 0.07586712 -0.047295224 -0.08530832 0.017281637 -0.074682206
-0.021123093 -0.010570052 0.07837168 0.032374483 -0.029924084 0.077665195 0.062386453 -0.011626189
-0.10298095 0.035721168 -0.09819041 -0.10653641 0.03012899 0.0061266473 0.13715278 0.0049563367
0.023396825 -0.042109273 0.107495345 -0.01410308 -0.073200434 0.054750036 0.0358784 -0.05933229
-0.13031068 0.022988468 0.124932304 -0.01981905 0.06999202 -0.08727567 0.013375278 -0.031253193
0.09596756 0.0061651403 0.045864817 -0.11214257 -0.011642305 0.015371439 -0.062171582 0.009228826
-0.1033804 -0.032230165 0.008789076 0.04939751 -0.07790188 0.016481332 0.008141503 0.01633713
0.09011546 0.10901279 0.060337193 0.08271652 0.03569847 -0.037932254 0.12039191 -0.04123282
-0.09482708 -0.017708091 0.053335465 0.07806817 0.04550022 -0.06533198 -0.06234048 -0.03775121
0.09434065 0.03661645 -0.015300353 -0.015316808 0.029815916 0.05798274 0.0127981305 -0.06596724
-0.037468158 0.022715544 0.010767556 0.052059524 -0.026572805 0.015832786 0.065666355 -0.006515207
-0.03892364 -0.009149708 -0.060194734 -0.05085131 0.07683069 0.09011923 0.041409954 -0.07859572
0.059933737 0.0067423554 -0.034713376 0.08275579 0.08327875 0.021991525 0.021090746 -0.034013186
0.09563284 0.034727674 0.027205046 0.054042097 0.08964415 -0.11995104 -0.03382181 0.07562341
0.16405672 0.04486901 0.1136644 0.07420335 0.02571246 0.01946522 -0.101163015 0.023028996
-0.01157291 0.009696365 0.04212679 -0.028404702 0.07467951 -0.1474371 0.056491237 -0.037000436
0.10496174 -0.021247663 -0.010675516 0.0865445 0.08756137 -0.026276873 0.10942003 0.06381358
0.019397726 -0.018513452 -0.049086906 0.03518524 0.018411746 0.035940412 -0.033930715 -0.017604679
0.04308854 -0.011932228 0.060427114 -0.09472693 -0.054070625 -0.13211092 0.050818194 -0.032227006
0.0731431 0.14121859 0.052134465 -0.06427564 -0.1402683 -0.026470922 0.002643528 0.010565048
-0.0012394608 -0.05622823 -0.0045877574 0.0016939035 0.055672664 -0.110223435 0.014466575 -0.07209132
0.011298052 -0.07184659 0.1115033 0.10747539 0.031098407 -0.045768417 0.043283865 -0.042300362
-0.016157424 0.09330524 0.11984305 -0.038360465 0.11460573 0.053207587 -0.084780246 -0.026473565
00000000: 7267 6e3d fd26 bd3d 6b3f 013e fc21 8e3b
00000010: 5585 c93d 1948 bdbd 1d47 b5bd 6794 493b
00000020: 8ddd 8b3c 8df5 cd3b b19e 043e 99f2 763d
00000030: 1d05 67bc 16cc dabd 3976 a83d 8d54 66bd
00000040: 624c de3d a8e0 b4bc ccd2 dcbc a2b5 5fbd
00000050: b4c0 183d 96f0 803d 7c83 bf3b a067 0abe
00000060: 3057 a3bc f833 10bd 4a4f 86bd d552 b4bc
00000070: 38f2 093d 3296 72bd 98bb 873d 83ca 0f3d
00000080: 0305 223d 1e64 de3c 321a 45bd 65c4 f1bd
00000090: 8bc7 a03d 5ee9 b33d c3d3 3e3d 22f3 a23d
000000a0: 5b11 3dbd 8f65 0fbd d3c9 f43d 6c40 b03d
000000b0: 1e58 683c 0e83 9e3d 51d5 003e 185c 6c3d
000000c0: d111 4a3d 6ff5 d73d cbf0 a1bd 5b89 cdbd
000000d0: 973d 46ba 3c36 50bd f890 a43d 0796 3d3d
000000e0: 94e2 9b3d 5f94 fcbc 99ba 023e 039e 163d
000000f0: e35b 09bc 5dd7 f93d d58d 82bc c957 133e
00000100: 7f37 e83d bcab 82bd 434a fb3d 71d6 29bd
00000110: d885 173d f8f3 fdbc e7f2 d83a 1a86 203e
00000120: 27a0 1d3d 04de 51bd ba8b c43b 3860 9b3d
00000130: a3b8 41bd 21b6 aebd 3892 8d3c fcf2 98bd
00000140: 560a adbc 032e 2dbc 5581 a03d 1b9b 043d
00000150: 5a23 f5bc ee0e 9f3d f088 7f3d c57b 3ebc
00000160: ade7 d2bd 5c50 123d 0e18 c9bd c32f dabd
00000170: 12d1 f63c 0bc2 c83b c771 0c3e c468 a23b
00000180: b3aa bf3c c67a 2cbd 8526 dc3d 9b10 67bc
00000190: 1cea 95bd 9341 603d 3bf5 123d 6a06 73bd
000001a0: 2a70 05be 5052 bc3c 82dc ff3d 8f5b a2bc
000001b0: fa57 8f3d 96bd b2bd fb23 5b3c 5903 00bd
000001c0: a48a c43d f204 ca3b bfdc 3b3d 01ab e5bd
000001d0: 5ebf 3ebc 7dd8 7b3c a1a7 7ebd 8034 173c
000001e0: 1ab9 d3bd c703 04bd 0e00 103c 0b55 4a3d
000001f0: 058b 9fbd dc03 873c f063 053c 72d5 853c
00000200: 748e b83d 1942 df3d 2224 773d 4767 a93d
00000210: 8f38 123d da5e 1bbd 0990 f63d bfe3 28bd
00000220: b334 c2bd 8f10 91bc 4a76 5a3d 34e2 9f3d
00000230: 705e 3a3d c6cc 85bd bb58 7fbd 03a1 1abd
00000240: ac35 c13d 21fb 153d 55ae 7abc 59f3 7abc
00000250: 8240 f43c 4f7f 6d3d 40af 513c d519 87bd
00000260: 3678 19bd f315 ba3c 676a 303c 5e3c 553d
00000270: 36af d9bc c2b3 813c 157c 863d 847d d5bb
00000280: 656e 1fbd a8e8 15bc c18e 76bd 7749 50bd
00000290: 6959 9d3d 6e90 b83d 7c9d 293d cbf6 a0bd
000002a0: 147d 753d faee dc3b 9d2f 0ebd de7b a93d
000002b0: 0d8e aa3d 9227 b43c 80c6 ac3c 6951 0bbd
000002c0: 27db c33d 9b3e 0e3d 1edd de3c 3f5b 5d3d
000002d0: 5a97 b73d e4a8 f5bd bd88 0abd 72e0 9a3d
000002e0: 7cfe 273e 91c8 373d e2c8 e83d edf7 973d
000002f0: f0a2 d23c 8675 9f3c 8e2e cfbd 4ea7 bc3c
00000300: 4d9c 3dbc 81dd 1e3c 248d 2c3d fab0 e8bc
00000310: 92f1 983d c0f9 16be 5b63 673d c58d 17bd
00000320: 2ef6 d63d 940f aebc 5ce8 2ebc 3e3e b13d
00000330: 6053 b33d 9942 d7bc 9c17 e03d b2b0 823d
00000340: fbe7 9e3c 86a9 97bc 5a0f 49bd 661e 103d
00000350: 3bd4 963c 4136 133d effa 0abd b037 90bc
00000360: 9c7d 303d 647f 43bc 6c82 773d 3100 c2bd
00000370: 2979 5dbd 1648 07be bd26 503d 7700 04bd
00000380: 0dcc 953d 9b9b 103e f38a 553d f2a2 83bd
00000390: 7ea2 0fbe 8cd9 d8bc 0a3f 2d3b 0619 2d3c
000003a0: 6775 a2ba 934f 66bd e654 96bb f805 de3a
000003b0: 0509 643d d3bc e1bd 3705 6d3c 9da4 93bd
000003c0: 771b 393c 4e24 93bd d85b e43d 0f1c dc3d
000003d0: 16c2 fe3c aa77 3bbd 6c4a 313d 2543 2dbd
000003e0: 935c 84bc d116 bf3d 4670 f53d dd1f 1dbd
000003f0: 69b6 ea3d 33f0 593d 44a1 adbd 17df d8bc

rnn.gru.weight_hh_l0 f4 [384, 128]
0.09922424 -0.018034818 -0.048781052 0.07369815 0.0024210138 0.11527152 -0.1186982 -0.03517307
0.0041893804 -0.18948317 -0.043432314 0.16036366 -0.008658754 0.042236656 0.15475948 0.023029687
0.057952177 0.092944995 -0.11997939 -0.09188673 0.14810301 -0.003661282 0.03737151 -0.11229664
-0.10275143 -0.03987033 0.048454028 -0.1842736 0.022251813 0.044270273 0.088534914 0.07625829
-0.07736799 0.18179733 -0.07278887 0.015333539 0.10038467 0.0028441164 -0.10267699 0.07180348
-0.045354083 0.023892682 0.0001540654 -0.048442557 -0.044614576 -0.039915007 -0.031498924 -0.072457165
-0.057008058 -0.124164455 0.048608866 0.02171284 -0.033301998 -0.071252696 0.073777914 0.07591766
-0.007947107 -0.050989054 -0.10435043 -0.040211465 0.053503316 0.08825146 0.082519636 0.044062197
0.057985075 -0.024832817 0.11345688 -0.09201093 0.12481895 -0.062743045 0.0751643 -0.08926043
0.106683545 -0.02317118 -0.046593595 -0.060658477 -0.060675804 -0.11574817 -0.033882346 -0.01638082
-0.04275383 0.1493012 0.024902184 0.15962194 -0.050600935 -0.012333041 -0.04663849 -0.009377775
-0.09167182 -0.08241221 0.11347515 -0.02771628 -0.029494269 0.09799478 -0.04041903 0.063321
-0.00450348 0.003223738 0.10074537 0.0942385 -0.00989776 0.011022859 0.030383887 -0.03986409
-0.10496654 0.010171469 -0.06276775 0.15772544 0.0023909826 0.08956229 0.021467425 0.08422519
0.1394987 -0.020778935 -0.05204705 -0.10538973 0.028564075 -0.06150685 -0.04870004 0.036907244
-0.0443384 0.07977676 -0.06526047 0.01490568 0.032789968 0.09992174 -0.014904326 0.118377395
-0.032847177 0.045261785 0.014871637 0.012773584 -0.11131883 0.039715894 0.07328023 -0.07674186
0.0586453 -0.026556857 0.05027079 0.09774145 0.02580538 -0.033120703 -0.02250926 -0.0029245622
-0.0025943336 -0.031173218 -0.08357043 -0.033862025 -0.06071868 0.08390937 -0.01191116 -0.03727781
0.0739935 0.008311515 0.04463377 0.037324138 0.076843254 0.016360704 0.07676213 0.047611315
0.063227735 0.042643696 0.029628865 -0.031137107 0.059790887 0.08081337 -0.09146622 0.120302334
0.046270426 -0.049231928 0.015366156 0.00439741 0.02735702 0.1237088 0.10010785 0.0078045325
0.00018700109 0.008858653 0.01322238 0.03900534 0.06359339 0.08358598 0.1232684 -0.013747546
-0.055346478 -0.019770881 0.055771317 -0.020011634 0.033693608 -0.0057845917 -0.0014138084 -0.12834455
-0.07282719 -0.03263894 0.04802115 -0.0931392 0.013733687 -0.09631307 -0.024126835 0.030849963
0.10571648 0.039807983 -0.020895103 -0.038446162 0.023551397 0.015419126 0.02117636 -0.04046827
0.14919557 -0.061219715 0.035137013 0.0074697323 -0.10984973 0.15916175 0.07631529 0.039204534
-0.017728096 0.031065354 -0.09899269 -0.14541394 0.10061438 0.064216316 -0.078054994 -0.021345638
-0.0815465 -0.09831961 -0.01976772 0.0823221 -0.088290825 -0.087759025 0.0776352 0.005405647
-0.01610304 -0.013294973 -0.12344904 -0.08183672 0.051890694 -0.06693064 0.16693158 -0.023545135
-0.005882298 -0.067829475 0.0004765362 0.068129085 -0.10224035 -0.020924592 -0.067075126 0.09914997
-0.10028904 0.015314185 0.029170362 -0.06975144 -0.045428183 0.12219285 0.06399058 -0.055779748
00000000: 1436 cb3d c1bd 93bc a4ce 47bd 0eef 963d
00000010: dfa9 1e3b 7a13 ec3d 0b18 f3bd a311 10bd
00000020: 1247 893b e007 42be 15e6 31bd 5f36 243e
00000030: 72dd 0dbc 5800 2d3d 4579 1e3e c1a8 bc3c
00000040: 435f 6d3d f259 be3d c1b7 f5bd 1c2f bcbd
00000050: 51a8 173e 1ef2 6fbb de12 193d c8fb e5bd
00000060: 576f d2bd 124f 23bd bb77 463d 38b2 3cbe
00000070: 6f49 b63c bf54 353d cb51 b53d 4e2d 9c3d
00000080: 1c73 9ebd 1429 3a3e 5512 95bd 8639 7b3c
00000090: 7a96 cd3d 5b64 3a3b 5048 d2bd b40d 933d
000000a0: 34c5 39bd 96ba c33c 9e8c 2139 b46b 46bd
000000b0: c6bd 36bd eb7d 23bd 0405 01bd 6c64 94bd
000000c0: 4881 69bd ef49 febd 171a 473d 20df b13c
000000d0: ad67 08bd efec 91bd e018 973d b87a 9b3d
000000e0: 9534 02bc e6d9 50bd aeb5 d5bd c7b4 24bd
000000f0: 4b26 5b3d 2ebd b43d 0e00 a93d 907a 343d
00000100: c281 6d3d 316e cbbc 155c e83d 3a70 bcbd
00000110: 14a1 ff3d 6d7f 80bd beef 993d 2cce b6bd
00000120: e77c da3d 7dd1 bdbc edd8 3ebd 0675 78bd
00000130: 3187 78bd 600d edbd 37c8 0abd 1231 86bc
00000140: a41e 2fbd 6ae2 183e aaff cb3c ef73 233e
00000150: ed42 4fbd 8610 4abc 0008 3fbd 3da5 19bc
00000160: 6fbe bbbd bcc7 a8bd a965 e83d 410d e3bc
00000170: f79d f1bc 7db1 c83d 6d8e 25bd 71ae 813d
00000180: ee91 93bb 5945 533b 9753 ce3d 1d00 c13d
00000190: 372a 22bc 3999 343c a1e7 f83c 8748 23bd
000001a0: b3f8 d6bd 3ca6 263c 618c 80bd c782 213e
000001b0: 08b2 1c3b 6f6c b73d 74dc af3c 427e ac3d
000001c0: bfd8 0e3e 9638 aabc 4a2f 55bd 92d6 d7bd
000001d0: 35ff e93c 9bee 7bbd b179 47bd 0d2c 173d
000001e0: 2f9c 35bd ff61 a33d 48a7 85bd f436 743c
000001f0: c64e 063d c5a3 cc3d 4631 74bc d96f f23d
00000200: c38a 06bd 6c64 393d 2ba8 733c 4b48 513c
00000210: 20fb e3bd 22ad 223d f213 963d d62a 9dbd
00000220: 0e36 703d c48d d9bc bee8 4d3d ab2c c83d
00000230: ce65 d33c 93a9 07bd 5765 b8bc 03aa 3fbb
00000240: b205 2abb fa5e ffbc f926 abbd e8b2 0abd
00000250: 27b4 78bd add8 ab3d 0727 43bc 9eb0 18bd
00000260: e789 973d 052d 083c e6d1 363d 32e1 183d
00000270: ff5f 9d3d e206 863c 7735 9d3d 1504 433d
00000280: 8b7d 813d 28ab 2e3d 3cb8 f23c 3f13 ffbc
00000290: 4ae7 743d 7b81 a53d a452 bbbd 1261 f63d
000002a0: 0f86 3d3d 6ba7 49bd 54c2 7b3c 2618 903b
000002b0: d41b e03c 0a5b fd3d 5805 cd3d 2abd ff3b
000002c0: b915 4439 e223 113c aea2 583c 10c4 1f3d
000002d0: 403d 823d 202f ab3d 2574 fc3d 633d 61bc
000002e0: fdb2 62bd 8bf6 a1bc 7770 643d 70ef a3bc
000002f0: 4f02 0a3d ac8c bdbb 8a4f b9ba c16c 03be
00000300: 6c26 95bd 69b0 05bd d3b1 443d c4bf bebd
00000310: 4203 613c c93f c5bd a4a5 c5bc 10b9 fc3c
00000320: e281 d83d b20d 233d 352c abbc b979 1dbd
00000330: dcee c03c 80a0 7c3c 0c7a ad3c 0fc2 25bd
00000340: b9c6 183e 86c1 7abd d4eb 0f3d a8c4 f43b
00000350: e5f8 e0bd 4cfb 223e 314b 9c3d ef94 203d
00000360: 833a 91bc c57c fe3c aebc cabd 64e7 14be
00000370: e90e ce3d d883 833d 4cdb 9fbd 0cdd aebc
00000380: da01 a7bd cb5b c9bd eaef a1bc 7d98 a83d
00000390: d2d1 b4bd 01bb b3bd 34ff 9e3d db21 b13b
000003a0: 86ea 83bc 29d3 59bc dad2 fcbd 039a a7bd
000003b0: 568b 543d ee12 89bd 1df0 2a3e bae1 c0bc
000003c0: 4bc0 c0bb 2eea 8abd 9bd7 f939 4387 8b3d
000003d0: 6363 d1bd 0d6a abbc af5e 89bd 240f cb3d
000003e0: 5764 cdbd 59e8 7a3c aff6 ee3c d8d9 8ebd
000003f0: e712 3abd 3f40 fa3d 7e0d 833d 4e79 64bd

rnn.gru.bias_ih_l0 f4 [384]
0.009302049 -0.09971901 -0.098552 0.027530616 0.0010212448 -0.015625007 0.03939223 0.10041222
-0.064865895 -0.0062748194 0.08938564 0.010167584 -0.058708195 0.057872564 -0.0014774585 0.03330884
0.039852224 -0.0026347346 0.029512588 -0.011780513 -0.027206562 -0.0023255097 0.07040294 0.015398303
-0.0105475085 -0.007075266 0.061210796 -0.053941384 -0.01762953 -0.016888367 -0.00658881 0.06402555
0.03174978 0.072507374 -0.08587092 0.052822676 -0.04847515 0.009588095 -0.016983276 -0.02685431
-0.02021472 -0.071539976 -0.027249899 0.024593446 0.063649915 -0.073273145 -0.010116474 0.064796224
0.02828854 -0.0056494637 0.020557607 -0.008748089 0.01764793 0.093786724 0.07299894 -0.008634731
-0.0037162371 0.03685654 0.08819896 -0.053371057 0.084105946 0.049723387 0.020868685 -0.10473126
-0.007503498 0.015021689 0.09163795 0.05865008 -0.02902518 -0.060554937 -0.005679452 -0.02591692
-0.030660836 0.0050901906 0.059309933 0.015174167 0.09304659 0.068403535 -0.060891412 0.015358332
0.07667547 -0.017605634 -0.054812737 -0.031269763 0.054361504 0.015554249 0.011126736 -0.06285029
0.10417439 -0.10198296 -0.025866278 0.07081603 0.035563864 -0.10329826 -0.039298743 -0.058426805
0.007873596 0.05517976 0.06594142 0.006796883 0.10121916 0.049623765 0.09013435 -0.031137403
-0.07373091 -0.062306732 0.028141312 -0.0054827984 -0.046512127 0.078102835 -0.008847376 -0.016073022
-0.07369956 0.06822383 0.020306518 0.00419131 0.08330097 -0.006221909 0.063595 -0.05445551
-0.07917477 -0.061454017 0.055243626 -0.09488551 0.0038557823 0.019253407 0.10608713 -0.14277215
-0.010684516 0.1400873 0.048935898 -0.11660557 0.04382331 -0.13034894 -0.11125624 -0.03526354
-0.11569348 0.11096736 -0.10678144 0.080597095 0.13104907 0.100384586 0.16544852 0.13126786
0.19401367 0.115542576 0.09200711 0.058558654 -0.013568399 -0.16560812 0.016632179 0.058251597
0.10628904 -0.09874557 -0.16163202 0.16371576 0.07093677 -0.06634677 0.15147667 0.03233041
0.19591588 0.09905607 0.08171711 0.094755836 0.04493685 0.12590608 -0.057149556 -0.01986934
0.061031714 0.13152747 0.12449709 0.16058867 0.07851688 -0.053412184 0.023416137 0.040469125
-0.14215 0.18689264 0.0020984758 -0.060089305 -0.014872483 0.05616789 -0.13465375 0.06389983
0.13101189 -0.013257934 0.03863389 0.020479456 0.030000424 -0.08812049 0.1486316 0.13253814
0.010652739 -0.13219109 -0.17227308 -0.05819795 -0.01824149 0.06292634 -0.102634154 0.07464136
0.017139336 -0.0070769684 0.09679975 0.023103056 0.05043453 0.105342515 -0.009250418 0.09140623
-0.041922837 0.12779352 -0.092337966 -0.011996178 0.121809915 -0.15387914 0.07452239 0.037959278
0.03088332 -0.022091132 -0.052291628 0.06783766 0.057522196 0.00888716 -0.072432734 0.0940484
0.14704394 -0.07615473 0.08759005 0.040998798 0.009397354 0.0022796344 0.08279282 -0.16154414
0.0051009995 0.061850995 -0.03158166 0.021560723 -0.003930447 0.019380234 -0.081048034 -0.017558489
-0.06270061 0.033139244 0.096420966 -0.01945702 -0.046302136 -0.03823133 0.017836053 0.09059136
0.0065288083 0.072534025 -0.028592285 0.07439919 0.03265122 -0.0071813427 0.03539319 0.05968851
00000000: 9f67 183c 7b39 ccbd a2d5 c9bd e387 e13c
00000010: 4adb 853a 0400 80bc bf59 213d eca4 cd3d
00000020: 69d8 84bd 009d cdbb d20f b73d f095 263c
00000030: 0178 70bd c80b 6d3d 48a7 c1ba da6e 083d
00000040: 163c 233d 83ab 2cbb 62c4 f13c 0e03 41bc
00000050: 4ce0 debc 9467 18bb 6b2f 903d 2a49 7c3c
00000060: 75cf 2cbc a2d7 e7bb 2cb8 7a3d a4f1 5cbd
00000070: ce6b 90bc 7959 8abc f2e6 d7bb d41f 833d
00000080: 0f0c 023d bf7e 943d 18dd afbd 975c 583d
00000090: e18d 46bd 6317 1d3c 8320 8bbc 92fd dbbc
000000a0: 5799 a5bc 8d83 92bd 2e3b dfbc 3278 c93c
000000b0: e35a 823d 3b10 96bd 91bf 25bc e2b3 843d
000000c0: 5ebd e73c 231f b9bb 6d68 a83c 2554 0fbc
000000d0: 6492 903c 4113 c03d 7880 953d b078 0dbc
000000e0: 1d8c 73bb e2f6 163d a8a1 b43d 9c9b 5abd
000000f0: bd3f ac3d c0aa 4b3d cef4 aa3c 587d d6bd
00000100: e7df f5bb 881d 763c adac bb3d 113b 703d
00000110: 37c6 edbc 7408 78bd b21a babb b84f d4bc
00000120: 6f2c fbbc 9dcb a63b f9ee 723d 129d 783c
00000130: 368f be3d 2717 8c3d 4669 79bd 83a1 7b3c
00000140: 0708 9d3d b139 90bc 5283 60bd b914 00bd
00000150: 2baa 5e3d 40d7 7e3c ea4c 363c a7b7 80bd
00000160: 6259 d53d 71dc d0bd 84e5 d3bc ff07 913d
00000170: 6aab 113d 0a8e d3bd b8f7 20bd f250 6fbd
00000180: 4100 013c 2c04 623d 4c0c 873d 63b8 de3b
00000190: fe4b cf3d 4a42 4b3d 5c98 b83d de13 ffbc
000001a0: 3b00 97bd 5835 7fbd 9c88 e63c 0ca9 b3bb
000001b0: 8083 3ebd 61f4 9f3d 96f4 10bc 92ab 83bc
000001c0: cbef 96bd efb8 8b3d db59 a63c 4257 893b
000001d0: b399 aa3d 28e1 cbbb 183e 823d be0c 5fbd
000001e0: 6226 a2bd 35b7 7bbd 2447 623d 5653 c2bd
000001f0: 4bb1 7c3b 52b9 9d3c 3644 d93d dd32 12be
00000200: 1c0e 2fbc 0c73 0f3e 0271 483d e7ce eebd
00000210: 1280 333d 317a 05be 50da e3bd 8070 10bd
00000220: b4f0 ecbd db42 e33d 3ab0 dabd 1710 a53d
00000230: ba31 063e 6f96 cd3d 566b 293e 156b 063e
00000240: 85ab 463e 96a1 ec3d 396e bc3d 33db 6f3d
00000250: fd4d 5ebc 2d95 29be 3540 883c 3a99 6e3d
00000260: 11ae d93d 1e3b cabd dd82 25be 1ba5 273e
00000270: 4c47 913d d1e0 87bd b31c 1b3e e46c 043d
00000280: 2c9e 483e e9dd ca3d 4d5b a73d 590f c23d
00000290: b40f 383d 86ed 003e a715 6abd 07c5 a2bc
000002a0: 64fc 793d 23af 063e 55f8 fe3d 5b71 243e
000002b0: 75cd a03d bcc6 5abd 33d3 bf3c f4c2 253d
000002c0: c58f 11be c960 3f3e 9586 093b 3420 76bd
000002d0: b7ab 73bc 4d10 663d ace2 09be eadd 823d
000002e0: fb27 063e ce37 59bc 923e 1e3d 88c4 a73c
000002f0: 73c3 f53c 8478 b4bd e232 183e 14b8 073e
00000300: d388 2e3c 1a5d 07be 5b68 30be f960 6ebd
00000310: 2d6f 95bc 86df 803d db31 d2bd 92dd 983d
00000320: cb67 8c3c eae5 e7bb f33e c63d 9f42 bd3c
00000330: 7094 4e3d d1bd d73d 118f 17bc 3133 bb3d
00000340: 48b7 2bbd 4edc 023e b01b bdbd 9e8b 44bc
00000350: 7a77 f93d 7e92 1dbe 329f 983d 307b 1b3d
00000360: 04ff fc3c 76f8 b4bc bf2f 56bd 79ee 8a3d
00000370: 659c 6b3d 739b 113c 9d57 94bd 739c c03d
00000380: b092 163e 03f7 9bbd 6a62 b33d 5bee 273d
00000390: 5cf7 193c eb65 153b 488f a93d d46b 25be
000003a0: 4926 a73b 7857 7d3d c55b 01bd 1da0 b03c
000003b0: fbca 80bb 4cc3 9e3c 83fc a5bd d2d6 8fbc
000003c0: 2d69 80bd 04bd 073d 5b78 c53d 5464 9fbc
000003d0: 4fa7 3dbd 7598 1cbd ea1c 923c f787 b93d
000003e0: 9def d53b b88c 943d 5e3a eabc 9a5e 983d
000003f0: 49bd 053d 7851 ebbb 73f8 103d f07b 743d
