scripts/results/SingleCombat/1v1/NoWeapon/Selfplay/ppo/v1_selfplay_from_baseline/run3/actor_360.pt (torch, 696704 bytes, 30 tensors)

base.mlp.fc.0.weight f4 [128, 15]
00000000: 55e7 033e 0c48 1ebe cc0a 95bd 21d7 893e
00000010: f1d1 78be d56b 2b3e 9c97 62bd c138 233e
00000020: f946 4c3d dfbf 11bd 5699 043d 1d55 70bc
00000030: 0a05 d63d a3e6 d4bd d3b7 9f3b 9689 a73c
00000040: 60f2 683c 5e3b dabc 1d8b 9c3e 0905 d93d
00000050: b09c a0bd a7fc 0dbd 66e3 a3bd 9e0c c5bd
00000060: 4e3a 43bc 07ce 40be 1439 3e3e b65f 2f3e
00000070: e117 6fbe da05 cf3d cf57 0e3d b02b 9a3e
00000080: e82f 1d3e 3667 94be 6b06 93be 021e 20be
00000090: 5526 553e 1c9c 103c d1c1 a23d 9b2a 68be
000000a0: b62b f63e 2cfa 5fbe f236 343e 23fd 6ebc
000000b0: 5f28 20be ba96 283e 4095 15be ac66 f93d
000000c0: 522b cf3d d8e7 b1bb 2909 6bbe 18de e0bd
000000d0: 205f fb3d 97b7 42bd 0298 6f3e 3282 093e
000000e0: 47b9 36bd 4bfb 3cbe 1c29 563e 5cae 9f3d
000000f0: 5883 44be defb 1b3e dcf9 ee3d 4fcc 403e
00000100: f833 22be 0e49 7cbd cfe2 b5bc 2cba e8bc
00000110: 5147 59be 1c37 50be db56 1f3e 3509 8fbd
00000120: a420 d23d b4c9 40bc 0ace 5b3d 58e3 8e3d
00000130: 15fc 773d 6d33 0e3e b589 9dbe f419 063e
00000140: 3f95 4abe 9833 adbe 0e26 963e 3e6c 82bd
00000150: 9ed3 323e fece 20be d535 81be 11d1 393e
00000160: c2f6 063d 2201 133e e537 ad3d 08ca 8cbe
00000170: c3a1 983d bac6 3fbd dc9a 2cbe f5aa 00be
00000180: 2629 1dbd 2f40 a03d 7252 e6bd 343d 7abd
00000190: f3c5 983e 2a09 adbd 1352 113e 4778 063e
000001a0: 8018 34be 5453 6abe 4fec a23e 90d1 42bd
000001b0: 4db7 a23e 7be2 083d 4528 873d 5b79 873e
000001c0: 4b5b 8e3e 6e80 41be 9012 99bc 3c7b 8f3e
000001d0: 31a1 453e 5f61 1c3e 4c18 5cbe 6576 21be
000001e0: b7b3 2abe 3a80 a53c d9c5 833e cb1a 63be
000001f0: 9a68 fe3d ebb2 12be 83b9 b7be 6386 60be
00000200: c220 1a3e 160a 7a3e 9e35 20be 097d 9f3d
00000210: 3a4a 543e 82b9 6e3e 1fd9 023e 134d 3c3e
00000220: 5499 7c3e 3132 363d 4614 8dbe 6756 69be
00000230: 9f37 0dbe 39d9 883c a29c 91be b37a 953d
00000240: d647 673d f448 01be 0d0c ba3d 8460 9d3d
00000250: bdc0 353e f43f 073e 6680 06be fb44 7d3e
00000260: e19f 55bd c70f 4f3c 0995 90be b5bf 53be
00000270: ee82 32bd 7a6d 16be 2410 113e 8779 10be
00000280: 15aa 29be 2bed b63d dd5c 4f3d 6ad6 283e
00000290: 8c5e 9fbd 060f 563d 69db b7bd ceae b2bd
000002a0: a0a3 49be ff28 f7bd 2751 abbd ea11 c13c
000002b0: 2e0c a7bb 8140 773d c2f6 893e efed a93e
000002c0: fc3b 1a3e 2897 4a3d 907e 36be 9dc2 3d3e
000002d0: 08e1 c63c 2ec2 e4bd 05ac 52be dfef 30be
000002e0: ec87 eabd d0b7 9c3e be8a a3be b54b 7dbe
000002f0: 9609 613d 1898 5cbd 0acd 983d 9f84 61be
00000300: b1d0 99bd 2c69 023e ef56 643e 42fb 39be
00000310: a984 683e 19e2 473e c8f9 7f3e 80ae 31be
00000320: 7236 9b3d f0fa 6cbd 88fc 143e 07a1 afbd
00000330: 7fde 483e de57 f9bd d151 0dbd 2f8e 3dbb
00000340: 044a 433d 693f 013e eed5 4a3d 8720 823d
00000350: b964 a9be a14f 5f3e 6d81 683e f8b6 683e
00000360: 6b24 7c3e a10d b6be a6ea aabd a428 3c3e
00000370: 8fcb 35be 791f 813e 5427 3bbe 9b4f 70be
00000380: f71f 2f3e 1dc3 59be f86e ecbd 9781 5d3e
00000390: 5fa3 903e c043 6b3e 5f5f 80bd 7008 8bbe
000003a0: e3d6 de3e bbe5 7fbd 2bf7 9cbd eaec 8d3d
000003b0: 7110 78be e0b2 0d3e d5c4 c03d a07d 1fbe
000003c0: b0b2 4bbe f5ec 7dbd 565d 043e bd08 24bd
000003d0: 8c08 12be a81f 233c 92b0 9abe ade5 cebd
000003e0: ace2 2dbe 2931 063e b834 633e 0bef b3bd
000003f0: 5d6f 8b3c 4e30 093e 41cd 913d 9b27 0fbe
0.12881215 -0.15457171 -0.0727745 0.26921943 -0.24298836 0.16740353 -0.055320367 0.15939619
0.049872372 -0.035583373 0.032372795 -0.01466873 0.1045018 -0.10395553 0.0048742085 0.020451348
0.014217943 -0.026639637 0.30574885 0.105966635 -0.07842386 -0.034664776 -0.08002357 -0.09621547
-0.011915756 -0.18828593 0.18576461 0.17126355 -0.23348953 0.10108538 0.03475171 0.30111456
0.15350306 -0.28984994 -0.28715834 -0.15636447 0.20815404 0.008826282 0.07947124 -0.22672503
0.48080224 -0.21872777 0.17599085 -0.01458672 -0.156404 0.16463748 -0.14607716 0.12177786
0.101156846 -0.0054292493 -0.22952713 -0.10979861 0.12274003 -0.047538366 0.2339783 0.13428572
-0.044610288 -0.18455236 0.2091412 0.07796928 -0.19190729 0.15232798 0.11668751 0.18827938
-0.15840137 -0.061593108 -0.022202877 -0.028409086 -0.21218611 -0.20333523 0.15560476 -0.06984178
0.10260132 -0.01176684 0.05366329 0.06976956 0.06054314 0.13886805 -0.30769125 0.13095838
-0.19783495 -0.33828425 0.29325908 -0.06368302 0.17463538 -0.15703961 -0.25236383 0.18146159
0.03295017 0.14355901 0.08457927 -0.27497888 0.074527286 -0.04682038 -0.16855949 -0.12565215
-0.03836932 0.07824742 -0.11246194 -0.061093524 0.29838523 -0.084490135 0.14191465 0.1313182
-0.17587471 -0.2288335 0.31820914 -0.047563136 0.31780472 0.033419114 0.06599478 0.26459774
0.27804026 -0.18896648 -0.01868561 0.28023708 0.19299771 0.15271519 -0.21493644 -0.1576782
-0.16670118 0.020202745 0.25736883 -0.2217819 0.12422295 -0.14326064 -0.35883722 -0.21926264
0.15051559 0.2441791 -0.15645453 0.077875204 0.2073144 0.23312953 0.12778138 0.18388776
0.24667865 0.04448146 -0.2755453 -0.22786866 -0.13790749 0.016705142 -0.28439814 0.07298794
0.056464992 -0.12625486 0.0908433 0.076844245 0.17749305 0.1320799 -0.13134918 0.24733345
-0.052154426 0.012638039 -0.28238705 -0.20678599 -0.043581896 -0.146902 0.14166313 -0.14108859
-0.16568787 0.08931955 0.05062567 0.16488042 -0.07781705 0.05226042 -0.08977396 -0.087247476
-0.19691324 -0.12068366 -0.08365088 0.023568112 -0.0050978875 0.06036425 0.26946074 0.3318934
0.15061945 0.04946056 -0.17821717 0.1853127 0.024277225 -0.11169849 -0.20573433 -0.17279004
-0.11451706 0.30608988 -0.3194179 -0.24735911 0.054940782 -0.053855985 0.07460983 -0.22023247
-0.07510508 0.12735432 0.22298788 -0.18162253 0.22706856 0.19519843 0.24997628 -0.17351723
0.07578744 -0.0578565 0.14549458 -0.085756354 0.19616126 -0.121749625 -0.034501854 -0.002892386
0.04767801 0.12621845 0.049520425 0.0635386 -0.33084658 0.2180772 0.22705622 0.22726047
0.24623267 -0.35557273 -0.08345537 0.18374878 -0.17753433 0.25219324 -0.18276721 -0.23467867
0.17102037 -0.21265836 -0.11544603 0.21631466 0.28249642 0.22975063 -0.062681906 -0.27154875
0.4352332 -0.062474947 -0.07664331 0.069299534 -0.24225022 0.13837767 0.09412543 -0.15575266
-0.19892383 -0.061993558 0.1292623 -0.040047396 -0.14261073 0.009956278 -0.30212837 -0.10102401
-0.16981 0.1310469 0.2218808 -0.08785828 0.017020876 0.13397333 0.07119227 -0.13979952

base.mlp.fc.0.bias f4 [128]
00000000: 2923 b5bd 780b 4dbe 8b63 1a3d 3c62 b2bd
00000010: fecf 6dbe 369e 02bd 11f0 5cbe a63c e83d
00000020: a0b7 2fbe 930c cabd f89d 98be 0ab6 03bd
00000030: 624d d8bb ffd9 193e cc54 62bd 98e5 213e
00000040: 1328 6c3e 850c 193d 83be edbd a2d7 43be
00000050: 65e6 28be acf1 ddbd f24c ecbd e691 143e
00000060: 493a 9fbd 10c0 c8bc dfa1 1b3b ec23 6abe
00000070: 8f12 623e fe83 c7bd 16d9 6ebe abb0 9bbc
00000080: 96a1 80be 70e7 733c 154b 3fbe 620c fbbc
00000090: 6817 cbbd 565e 183e 9eef 443e 1091 793e
000000a0: dfbb 6d3d d933 133e 9cf1 62be 5117 40be
000000b0: 14d5 da3d fc97 583d d285 b23d 2ef9 2a3e
000000c0: 05ed 1d3e 7693 b43d 2b86 ecbd f6e1 92bd
000000d0: 6153 ad3d 7156 4a3e c366 08bd 74ac abbd
000000e0: 998e 243e d0d1 103e 68b6 dabc b2b1 94bd
000000f0: e93c 5fbe 4887 5dbb d4f8 753d 05fd 62be
00000100: c73a 43be f10c 7fbe 2f99 083e eb5f 833e
00000110: 4213 823e d231 5c3e 28cf b7bc 936c 863d
00000120: 7436 303e 329a bbbd 87dd 10be c4bd 2a3e
00000130: d45a 173c 9062 073e eb74 08be f138 1abe
00000140: 6179 41bb 6e47 2c3d 7685 0b3e c7c3 383e
00000150: a2ce 93bd 66f8 823e 40eb 1ebe a166 02bd
00000160: 58a8 09be 2906 603d 9c8e 5c3e 300c 6fbe
00000170: fe58 453d 9ec8 60be e547 bbbc 3702 f2bd
00000180: 02f3 b339 242a 3ebe f2f1 313d f775 6abe
00000190: 2b3e 7f3d 7a4b f1bd 3097 5cbe 45df 303e
000001a0: 2d56 a439 f02b 02be dd01 fbbd 09ec febd
000001b0: 06b5 0dbe 67ab 393c d11c 18bc 28fc 363e
000001c0: c7a5 e03c f119 cebd bae8 3d3e 5357 9f3d
000001d0: 2695 72bd 8789 2e3e d260 753e 2110 57be
000001e0: 09e4 5cbe d10d 54be b517 65be ee75 ddbd
000001f0: 75a5 113e 6efb 7fbe 047a 95be e1f7 1bbe
-0.08844597 -0.20023906 0.037692588 -0.08710143 -0.23223874 -0.031889163 -0.21575953 0.11339693
-0.17159891 -0.098656796 -0.2980802 -0.032156028 -0.0066010216 0.15024565 -0.05525665 0.1581024
0.23062162 0.037365455 -0.11608603 -0.19125226 -0.16494139 -0.10837111 -0.11538114 0.14508781
-0.07774789 -0.024505645 0.0023747606 -0.22865266 0.22077392 -0.097419724 -0.23324999 -0.01900514
-0.2512328 0.014886722 -0.18680985 -0.030645553 -0.09916574 0.14879736 0.19232032 0.24371743
0.058040496 0.14375247 -0.22162479 -0.18758895 0.10685173 0.05287932 0.087169304 0.16696617
0.15422447 0.088171884 -0.11549028 -0.07172005 0.08463169 0.19759537 -0.033301126 -0.08382502
0.16070022 0.14142537 -0.026698306 -0.07260455 -0.21800579 -0.0033802558 0.060051754 -0.22166832
-0.1906539 -0.2490728 0.13339685 0.25659117 0.25405318 0.2150338 -0.022437647 0.06563678
0.17208272 -0.0916027 -0.14147006 0.16673952 0.009237964 0.13221192 -0.1332585 -0.15060784
-0.002952181 0.04206031 0.1362513 0.18043433 -0.072171465 0.25580138 -0.15519428 -0.031836156
-0.13443124 0.054693375 0.21538776 -0.23344493 0.048180573 -0.2195153 -0.02286143 -0.11816829
0.00034322595 -0.18570763 0.043443628 -0.22896563 0.062315147 -0.11781974 -0.21542048 0.1727267
0.00031344724 -0.12712073 -0.12256215 -0.12447364 -0.13838586 0.011332369 -0.009284214 0.17869627
0.027422799 -0.10063542 0.1854581 0.07780328 -0.05922427 0.1704465 0.23962715 -0.21002246
-0.21571364 -0.20708396 -0.22372325 -0.10813509 0.14223273 -0.24998257 -0.29194653 -0.15231277

base.mlp.fc.2.weight f4 [128]
00000000: 83ae 863f 4982 853f 0ef9 863f 77ea 793f
00000010: e5d1 773f 6d90 7e3f 83dd 803f dbaf 803f
00000020: 9521 813f 6846 833f 2593 7a3f 64b7 733f
00000030: 5246 793f df75 743f 92db 823f d7ae 803f
00000040: fa7b 773f b6b0 803f f967 863f 80d8 843f
00000050: 02ea 6e3f 8bd7 763f 94ad 783f 980f 893f
00000060: e196 833f d545 853f 5e8e 863f 79fd 7c3f
00000070: d56a 813f 4806 833f 019b 793f c7d9 833f
00000080: c671 793f 98f0 7e3f 8858 743f 3e43 7e3f
00000090: 2f62 883f d862 793f a7b0 923f 2c3a 833f
000000a0: f207 823f c9f1 793f b0b7 833f cabc 803f
000000b0: d88b 6f3f 6c75 803f 5e4f 753f 69b7 823f
000000c0: e425 853f 6db6 813f 9925 7f3f f47e 7a3f
000000d0: 5268 833f b9c5 823f f430 793f e21a 763f
000000e0: f4e6 7a3f 7525 763f f5bb 7b3f 635f 853f
000000f0: 42dc 8b3f d934 7b3f 0cbf 7f3f 2c3d 7c3f
00000100: 02cd 823f 912e 833f d0a5 663f 5d4d 7e3f
00000110: 5984 813f 7a4f 853f 1031 753f 2722 7c3f
00000120: d2ba 863f 19e5 853f bc46 913f 315d 7c3f
00000130: 3f60 743f 3c0f 7b3f f0a5 843f 9418 803f
00000140: 0fcd 763f 6d0e 813f 8920 803f 421b 863f
00000150: 5ae6 7b3f 4395 813f 28ff 7a3f b61f 703f
00000160: 73b3 7d3f fde3 873f 5bef 803f 2d7b 7f3f
00000170: 1235 7d3f 5674 793f d8f4 7a3f d721 823f
00000180: bb46 813f 5a97 763f 0ce3 843f f6f0 733f
00000190: 9263 7e3f c598 7c3f a638 753f 4e40 793f
000001a0: 4b3a 743f 7619 7b3f a968 7c3f 5107 803f
000001b0: 325b 833f ace1 893f 56f2 7b3f 5796 7c3f
000001c0: 5204 873f b136 703f 7ce0 743f f8f7 713f
000001d0: ac57 893f 03d0 803f 5fee 793f fa06 7c3f
000001e0: 7eca 803f 299c 763f d385 683f 15b7 803f
000001f0: ac4f 703f 10d4 743f 4ed6 7a3f 2c02 833f
1.0522007 1.0430385 1.0544755 0.9762339 0.9680465 0.99439126 1.00676 1.0053667
1.0088373 1.0255861 0.97880775 0.95201707 0.97372925 0.95492357 1.0223258 1.0053357
0.9667355 1.0053928 1.050048 1.037857 0.9332582 0.9642264 0.9713986 1.0707884
1.028042 1.0411936 1.0512197 0.9882427 1.0110728 1.0236292 0.9750214 1.0300835
0.9743923 0.99585867 0.9544759 0.99321353 1.0654963 0.9741645 1.146016 1.0252128
1.0158675 0.9763456 1.0290432 1.0057614 0.9357276 1.0035834 0.9582423 1.0212222
1.0402188 1.0133797 0.99666744 0.97849965 1.0266211 1.021659 0.9734032 0.9613477
0.98008657 0.96150905 0.98333675 1.0419735 1.0926592 0.98127514 0.9990089 0.9853084
1.0218813 1.0248586 0.9009676 0.99336797 1.0118514 1.0414879 0.9577799 0.9848961
1.0525763 1.046054 1.1349711 0.985797 0.9545936 0.9807012 1.036314 1.0007501
0.96406645 1.0082527 1.0009929 1.0477068 0.98398364 1.0123676 0.9804559 0.9379839
0.9910194 1.0616452 1.0073045 0.99797326 0.98909104 0.9744314 0.9802985 1.0166577
1.009971 0.96324694 1.0381789 0.9528955 0.9937068 0.9867061 0.95789564 0.97363746
0.9540145 0.98085725 0.985972 1.0002233 1.0262206 1.0771995 0.9841665 0.986669
1.0548193 0.9383345 0.95655036 0.94518995 1.072988 1.006348 0.9762935 0.98448145
1.0061796 0.9633203 0.908292 1.0055872 0.9387157 0.9563608 0.97983253 1.0235038

base.mlp.fc.2.bias f4 [128]
00000000: 8b01 783c a9cb 6d3c f27d 96bb acc4 d33c
00000010: 630b 023d b46b 18bc 443f 603c 3453 053c
00000020: 36c9 26bb 78d7 4c3c afc5 173d 84f0 ff3c
00000030: 9d50 123d d648 5a3d 8466 a93c 66c9 c5bc
00000040: c3bc 103d 3492 9b3c 42d9 6bbc 21da 263c
00000050: c791 883d 76f4 0d3d 9510 f33c d3a2 0dbc
00000060: 8812 b2b9 fcbd 24bc 0516 10bc 5151 be3c
00000070: c0e7 c73c 24f8 8b3c db12 65bc 9109 4dbc
00000080: 052b 8dbc 4915 e33c 18aa 473d 421f a23c
00000090: 961a 1bbb 2865 de3c a4ba f53b 3f94 bc3b
000000a0: baee dc3c ba3c 9abc b26a d9bb 62f9 65bc
000000b0: 527b 783d 3156 c73b 423d 6f3c eebc 953c
000000c0: 12ff bcbb b999 42bc 4908 76bc 28d3 f03c
000000d0: e1be b9bb 8d3e 57bc 8299 dc3c b577 0d3d
000000e0: a6b1 4d39 255f 253d ecaa a03c 7dd9 e3bb
000000f0: 3805 a13b d8f6 e2bc 00e4 97bc 35b3 d9bc
00000100: 4c73 1eba c0f5 903b 9039 c23d 2f0b 903c
00000110: 05c4 20bb ab27 19bc 8271 173d 2e7d e5bc
00000120: 5b1e 8bbb 89a1 52bc 5f4e ed39 3b84 1abd
00000130: 5801 4d3d f217 133d 8765 87bc 7ff5 353c
00000140: 6c4d 383d 159d a83c e416 88bc 04b8 ac3c
00000150: 405d 00bd 9d66 003c bd18 9dbc 395c 1ebd
00000160: 1a41 e23c 9ab8 733c cadc 4bbc 8e68 a43c
00000170: 66ff af3c eb89 153d 2c0b ef3c 1509 cabb
00000180: 8814 b9bb d049 1d3d a076 76bc 5bbc 513d
00000190: ba39 b33c 9bfd 523b 7f9a 3b3d 0659 12bd
000001a0: 8fd5 303d 8d9d ac3c 146e a93c 5e2f 2b3b
000001b0: d065 9d3c cdd7 88bc ed08 9fbc c144 04bd
000001c0: e77d cd3c 0e8b 783d 039c 58bc 87cd 283d
000001d0: 8db3 6fbc 9abd 86bc e116 fe3c d2ff c63c
000001e0: 084d 1c3c a3e3 4f3d b3b7 c23d adbf c9bc
000001f0: 025c 6e3d f993 303d df30 bebb 571b 2b3c
0.015137087 0.014513888 -0.0045926506 0.025850616 0.03174914 -0.009303022 0.013686959 0.008137513
-0.002544952 0.012502544 0.03705376 0.031242616 0.03572141 0.053292118 0.020678766 -0.024143886
0.035336267 0.018990614 -0.01439506 0.010183842 0.0666843 0.034656964 0.029670993 -0.008644777
-0.00033964613 -0.010055061 -0.008794312 0.023232134 0.0244025 0.017086096 -0.013981546 -0.012514488
-0.017232427 0.02772011 0.0487462 0.019790296 -0.002366697 0.027147844 0.007499056 0.005754977
0.026969302 -0.018827785 -0.0066350335 -0.014036508 0.060664482 0.006083273 0.014602007 0.018278565
-0.0057677114 -0.011877471 -0.015016624 0.029397562 -0.0056685065 -0.013137472 0.026928667 0.03453799
0.00019616503 0.04037394 0.019612752 -0.006953417 0.004913952 -0.027705595 -0.018541336 -0.02657471
-0.0006044402 0.004423827 0.094836354 0.017583458 -0.00245309 -0.0093478365 0.036973484 -0.028013792
-0.004245562 -0.012855896 0.00045262554 -0.03772376 0.05005011 0.035911508 -0.016527904 0.011105894
0.04499571 0.020582715 -0.016612478 0.02108384 -0.03133893 0.007836965 -0.019176835 -0.03866217
0.027618933 0.014875555 -0.012442777 0.020069387 0.021484088 0.036508482 0.029180132 -0.0061656334
-0.0056481995 0.03840047 -0.015042931 0.05120502 0.021878112 0.0032194618 0.045801636 -0.03572943
0.043172415 0.02107122 0.020682372 0.0026120762 0.019213587 -0.016704464 -0.019413436 -0.03229213
0.025084449 0.060679488 -0.01322079 0.04121163 -0.014630211 -0.016447831 0.031016769 0.024291907
0.00953985 0.0507542 0.09507694 -0.024627531 0.058193214 0.043109868 -0.0058041657 0.01044353

base.mlp.fc.3.weight f4 [128, 128]
00000000: 7151 9bbc b9a1 fd3c 4603 013e 12eb e43d
00000010: 91a7 7e3c f87d 77bd 0bab f33d 50e4 5fbd
00000020: 2879 193d 5243 443d 6da3 353d 7b94 7f3c
00000030: b687 a3bd 8d99 9bbc 26d0 a4bd 8c89 883d
00000040: 4c1f 8fbc 85b0 473c bcaa 893d 5082 8f3d
00000050: 2537 45bd 7a36 71bd baa7 ac3d 6066 bd3c
00000060: 37d5 b0bd 5c44 aa3d 4cfe babd 872d bc3d
00000070: 9f24 9f3d faff a23d e4d0 ee3b 539b 173d
00000080: fa3d 9fbd 77a3 833d c343 a23c 138e a23d
00000090: ec1f aebc b4a5 cd3d b6ac 683d b513 1ebd
000000a0: b798 3e3d 9e53 a8bd c502 27bd fb10 29bd
000000b0: d9a4 1cbd 0956 b93c 91f1 d9bc 6b30 f2bc
000000c0: aad9 4c3d 839a f2ba 8a42 d9bc a41e 4dbc
000000d0: 7d5c d9bb 5ea2 333d 5d1d 693d 5b98 923d
000000e0: b52a 33bd 1cd0 ac3c 4ab8 103d 4933 e2bc
000000f0: 5085 883d 5585 e6bc 2755 e5bc c1d9 c1bd
00000100: 35bc 813d d993 2ebd b7a4 dd3b 8b41 99bd
00000110: c2cc c33d ab86 b2ba ba8b 803d 9c95 36bd
00000120: f272 3bbd 07d5 e33c c5d5 9b3d 0ae6 263d
00000130: 6e01 02bb ce0a 433c ef3e beba 7acd 57bd
00000140: 0165 66bc db0b a7bd 9364 a7bd 0f52 f7bb
00000150: 531c 43bc e4af 6abc 8ad1 e8bb d0a9 493c
00000160: 2443 66bc d96d 9ebd 67e3 213d 9f74 87bd
00000170: 87aa 1f3c c267 a63a 5a0b 383d 1f1c 87bd
00000180: 52b9 a3bd f97b b03d 6a6d 0cbc 8a67 c13d
00000190: b937 ea3c 163f 863d 02cc d23c e8a0 1cbd
000001a0: db6a 10bd 602c 87bc 1e7d 973d 05ad 883d
000001b0: 74c2 e33d 91a7 b03d 42dd 853d 3351 bbbd
000001c0: bfe4 54bd 5c33 cfbc e4c7 40bd bff9 0c3d
000001d0: fa6e d1bc f370 bc3d 9832 d2bb e41d eb3d
000001e0: 2c95 9bbd 3d23 8bbd eca8 e23c 0861 9cba
000001f0: cd3f cbbc cfaa f5bc 8ebc 9a3c 59aa 553c
00000200: 44dd 0cbc 6ce3 153d 2a0a 8ebd ff1d 943d
00000210: 0baf 64bd 9b96 edbc 1310 ca3c 9062 0e3d
00000220: 44e8 c33c 8fea 21bd ef69 153d e438 20bd
00000230: eda4 cbbc 345d b4bc 3500 39bd 1dea 083c
00000240: 7945 6abd 4721 983c 5087 c2bd bb53 9cbd
00000250: 3630 3e3d 1e8b 5c3d b392 df3d e0a1 52bd
00000260: 62d4 4fbd 1cb2 9dbd e53c 113d f561 49bd
00000270: 99e7 f03d 6418 98bd 8108 1cbd 04db 96bd
00000280: 9255 7b3d 0626 a13d 0ebf 523c 8ef5 15bc
00000290: 6f3b 483d 6582 c43d 41fd bf3c da9f 81bd
000002a0: 71cb 993d 122b 333d df99 b3bd dfba a03d
000002b0: 0fc8 5bbd b59b 0ebd ca8a 763b 6eaf a43d
000002c0: 988f 6cbc 1ea5 98bd 6928 573d 2a13 923c
000002d0: c7f1 0a3c 9e7f ddbd 0b9a 7c3d 4e24 fbbc
000002e0: 3e5e 79bd 1051 8c3d 0a90 28bd 8802 e23d
000002f0: d9ba ef3c b916 50bd 1889 fbbd ab5a 87bd
00000300: 43c7 a2bc 0457 713d 4f02 1f3d c12e 4abc
00000310: 20ea 94bd 4dd3 fdbd ae92 953d cbb9 37bd
00000320: b66c 85bd e2cd 89bd 4137 303d 3b67 9dba
00000330: c19f 063e fde5 f8bc 5825 56bc 2a99 813c
00000340: 0dda 3abc a8c7 d639 e60b 493d a1bc 68bd
00000350: 8829 89bd cbe8 f0bc 3c1d a3bc 1d8e 1b3c
00000360: 640c a93c c65d c73d 4504 b7bc 4c91 823b
00000370: 2da4 9ebc b9b6 a6bd e87d 87bc 4eb7 b5bc
00000380: 8f31 043d 596f 8a3d 9cba 273d a176 9abd
00000390: b4e1 cfbc 25a9 883d 4aae 3cbc 0f13 08be
000003a0: 183e aabc 38c1 0e3a 19eb be3c 3502 b23c
000003b0: 1a8f a4bd a817 833d 06c1 f2bc 240c 9abd
000003c0: 9a39 e03d c816 7dbd 46d9 8bbd ae36 96bc
000003d0: 4338 46bd c6b7 6d3d 3a4a a33c a598 993c
000003e0: 15eb 24bd 3a78 bd3c 78a7 fd3c 24b1 9fbd
000003f0: 7b4e 893d 4891 60bc 9f61 ab3d d56e 54bd
-0.018959733 0.030960904 0.12598905 0.111776486 0.015542881 -0.060422868 0.11897858 -0.054661095
0.03746906 0.047915764 0.044345308 0.015599365 -0.07984869 -0.018994117 -0.08047514 0.0666686
-0.017470978 0.012188082 0.06722018 0.07007277 -0.048148293 -0.058889844 0.08430429 0.023120105
-0.086344175 0.0831382 -0.091305345 0.09188371 0.07770657 0.0795898 0.0072880853 0.037013363
-0.07775493 0.06427663 0.019807702 0.07937255 -0.021255456 0.10041371 0.056805335 -0.038593013
0.04653236 -0.08219074 -0.040774126 -0.04127596 -0.03824315 0.022624033 -0.026604446 -0.029564103
0.050012268 -0.0018509183 -0.026520986 -0.012519512 -0.00663334 0.043856017 0.05691277 0.07157966
-0.0437419 0.021095328 0.035332 -0.027612345 0.06666052 -0.02813975 -0.027994705 -0.094653614
0.06334726 -0.042621467 0.0067640203 -0.074832045 0.09560539 -0.0013620456 0.06276651 -0.044576272
-0.045763917 0.02781154 0.07609133 0.040746726 -0.0019837278 0.0119044315 -0.0014514605 -0.052686192
-0.014062167 -0.08156558 -0.0817348 -0.007547624 -0.0119086085 -0.014324162 -0.007105057 0.012308553
-0.0140540935 -0.077357955 0.03952351 -0.066140406 0.009745247 0.0012695717 0.0449327 -0.065971605
-0.079943314 0.08617396 -0.008571008 0.09443577 0.028591024 0.065550014 0.025732044 -0.03823939
-0.035258155 -0.016500652 0.07396911 0.06673626 0.11121073 0.08625711 0.06536342 -0.09146347
-0.05197596 -0.025293045 -0.04706563 0.034417864 -0.025565613 0.09201231 -0.0064147227 0.114803106
-0.07596812 -0.067938305 0.027668439 -0.0011930773 -0.024810696 -0.029988674 0.018888738 0.013041102
-0.008597676 0.03659384 -0.069355324 0.07232284 -0.055830996 -0.029002478 0.024665868 0.034761965
0.023914464 -0.039530333 0.03647798 -0.039116755 -0.024858916 -0.022017099 -0.045166213 0.008356598
-0.05719516 0.018570555 -0.09498465 -0.07633158 0.046432696 0.05384361 0.109166525 -0.051423907
-0.050739653 -0.07699987 0.035458464 -0.049165685 0.11762924 -0.07426527 -0.038094047 -0.07365993
0.061360903 0.078685805 0.012862934 -0.009152783 0.048884805 0.09595183 0.02343619 -0.063293174
0.075095065 0.043742247 -0.08769583 0.07848143 -0.053657588 -0.034816463 0.0037619346 0.08041273
-0.014438532 -0.074533686 0.052528773 0.017831404 0.008480496 -0.10815357 0.061670344 -0.03065696
-0.060880892 0.06851399 -0.04115299 0.11035639 0.0292639 -0.05080292 -0.12282008 -0.066090904
-0.019870406 0.058920875 0.03882056 -0.012340249 -0.07271218 -0.12393818 0.073033676 -0.04485492
-0.065148756 -0.06728722 0.043021444 -0.0012008914 0.13146879 -0.030383104 -0.013070427 0.015820105
-0.011404526 0.00040966016 0.049083613 -0.056820516 -0.066973746 -0.02940788 -0.019911401 0.009494332
0.020635791 0.09734683 -0.022340903 0.003984606 -0.019365394 -0.0814032 -0.016539529 -0.022182133
0.032273825 0.06759519 0.04094945 -0.07542158 -0.025376178 0.06672887 -0.011516163 -0.1328852
-0.020781562 0.0005445662 0.023305463 0.021729568 -0.08035107 0.064009964 -0.029633056 -0.07521847
0.109484866 -0.061789304 -0.06828551 -0.01833662 -0.0483935 0.058036588 0.019932855 0.018749544
-0.040263254 0.023128618 0.030963644 -0.07797459 0.06704422 -0.013706513 0.08368229 -0.05186351

base.mlp.fc.3.bias f4 [128]
00000000: 29c2 67bd 138b 9b3c dd0a 1c3c 8437 bebd
00000010: 8e6d efbc b6c1 8e3c bed1 57bd 515d bebd
00000020: 429b 42bd 73ac 923d 240e 12bd 57ec f33c
00000030: 5d40 c2bc 65f3 76bc 9c54 483d e02d 6abd
00000040: e959 03bd 9fa9 a3bd ff34 4fbd edd2 273d
00000050: 0e1b dbbd 4df1 ae3c 3aaf 26bb d70b 78bb
00000060: 383a 183c 2756 a43b 0c61 8b3d a93f aebd
00000070: 7bc2 83bc 7031 6c3d 53d0 363d 7ce4 753d
00000080: 6711 9dbd e545 97bd 79bb 2fbd a0bf 983d
00000090: 3110 94bd 59df 07bd 9030 bdbc ba76 16bd
000000a0: 4b3c 6ebd 2e2c 923d 97c4 0abd c0ad 01bd
000000b0: bf8a 0f3d 10f5 3abc cb57 b5bc aa82 0abd
000000c0: 086e 4a3c 77fe 5bbd 0add a9bd bb86 a63d
000000d0: aa1d 4b3d f00f 9a3d a530 a6bd 6b8a 40bd
000000e0: f871 733d a91f 22ba ce6a 17bc 2c59 3b3d
000000f0: b62d 573d 8262 5abc 2e2c 02bc 396b 71bd
00000100: 4e13 95bd 2012 7b3c 9404 21ba 5721 d23c
00000110: 3cbd 53bd ea8f f43c a779 303d a37d a3bd
00000120: 499d 9b3b aef9 7abd 72ef ee3c 1e60 843c
00000130: f2b0 96bb 351f acbd 10d7 b83c df17 6b3d
00000140: 5cbb 163c bd95 99bc 7b50 babd cb25 b9bd
00000150: e194 aabd 141d 553d e0dd 0a3c f720 6a3d
00000160: ee58 62bd 74dd 263b b87f 973d b450 74bd
00000170: a73f 1bbc 31a5 7b3d 5dbc e83c 9a32 2f3d
00000180: 8fdb a5bb 9c6b 943b 20db 97bd d39d 3b3c
00000190: 9d97 b2bd 0f17 873c f9eb 603c 8ac2 30bd
000001a0: 09f8 f0bc f0b6 a6bc 59cb 20bb 43f3 60bc
000001b0: 235b 333d 09ce 9ebd d7a3 63bd 6eca 71bd
000001c0: 0feb 873b 0e78 74bd 5e91 44bd 497b 813d
000001d0: d465 1a3d 09d7 eb3b 6d08 d53b c09e 7abd
000001e0: 39e7 1ebd c46c 823d 0384 473d f956 b5bd
000001f0: 882a 613d d3dc 9dbc 3c1d 703d f667 8fbc
-0.05658165 0.018987214 0.009524074 -0.092879325 -0.029227044 0.017426353 -0.05269026 -0.092951424
-0.047511347 0.07161798 -0.035658017 0.029775782 -0.023712331 -0.015072678 0.048908815 -0.057172656
-0.032068167 -0.07991337 -0.05058765 0.04097264 -0.1069852 0.021355296 -0.0025434033 -0.0037848854
0.009291224 0.005015153 0.068056196 -0.08508236 -0.016083946 0.057664335 0.044632267 0.060032353
-0.07669335 -0.07386378 -0.042903397 0.074584246 -0.07229651 -0.033171985 -0.023094445 -0.03673432
-0.05816297 0.07137333 -0.03387889 -0.03165984 0.035044428 -0.0114109665 -0.02213659 -0.033816017
0.012355335 -0.053709473 -0.08294113 0.081311665 0.049588837 0.07522571 -0.08114747 -0.047007006
0.05943486 -0.00061845273 -0.009241773 0.045739338 0.052533828 -0.01332915 -0.007945104 -0.058940146
-0.07279073 0.015324146 -0.0006142345 0.025650663 -0.05169414 0.02985378 0.043084767 -0.07982948
0.0047489745 -0.06127327 0.02916691 0.016159113 -0.0045987302 -0.0840439 0.022563487 0.057395812
0.009199943 -0.018748159 -0.09097382 -0.090404116 -0.08329178 0.052029684 0.008475751 0.057160344
-0.05526059 0.0025461586 0.07397407 -0.059647277 -0.009475625 0.061436836 0.028410131 0.042772867
-0.005061574 0.0045294296 -0.07414842 0.011451202 -0.08720324 0.016490487 0.013728135 -0.043154277
-0.029415147 -0.020350903 -0.0024535267 -0.013729873 0.043788087 -0.07754142 -0.05557617 -0.059030943
0.004147894 -0.059684806 -0.047990195 0.06322343 0.037694767 0.007197265 0.0065012486 -0.061186552
-0.03879473 0.06368402 0.04870988 -0.08854479 0.0549722 -0.019270336 0.05862163 -0.017505627

base.mlp.fc.5.weight f4 [128]
00000000: 4548 823f 1cea 793f a88a 7c3f c7b5 7d3f
00000010: 7a9b 853f 8912 843f 187d 873f 2e0c 873f
00000020: 1f2c 863f a893 853f fa50 813f 4499 7a3f
00000030: ed15 823f 4ad4 843f 9d6c 803f 6014 873f
00000040: 0a2c 763f 0384 823f c85b 823f 16ae 853f
00000050: 6b87 753f dfc7 7c3f b135 823f 30ca 7c3f
00000060: 496e 843f 0f37 833f a777 853f f318 843f
00000070: 4419 853f 8a61 853f ba8f 863f 0797 793f
00000080: cab2 7f3f 2cd5 773f 336d 7c3f 552f 8c3f
00000090: 1b26 7e3f f378 7e3f 72d5 7a3f 02cc 8f3f
000000a0: 78b1 7e3f 0287 7c3f c8b1 713f 6852 7a3f
000000b0: 8ec3 7e3f 8a0d 843f 8368 7d3f 1a89 7c3f
000000c0: 72dd 843f cc7c 793f 0ee0 6e3f 3c6a 843f
000000d0: 0f0b 893f 5b1f 7c3f ce8c 7d3f f0e5 843f
000000e0: ff93 893f 0950 823f 0f9e 7d3f f430 833f
000000f0: edaa 8d3f 069e 783f ae38 853f ed70 7b3f
00000100: 01c1 7d3f c40b 8e3f 9a98 843f 526e 7d3f
00000110: fca2 893f 43c3 883f 0b7b 7d3f 88c6 7e3f
00000120: db80 833f 2c60 843f 752b 873f db83 793f
00000130: 58c5 6d3f 6706 883f 60dd 7e3f b718 813f
00000140: d435 843f 0c97 833f 0605 813f 8fcf 843f
00000150: 6fb1 863f eda3 7c3f ae1e 8a3f c3a2 833f
00000160: 7a29 823f e62a 823f 0745 7b3f 08c7 7f3f
00000170: 5def 853f 11bd 843f 970e 803f 6a3c 7a3f
00000180: e714 843f 0ab6 803f ce05 7c3f 8718 7f3f
00000190: 3dfb 823f bd5d 883f 23ad 833f 7c38 803f
000001a0: ff44 853f f52a 773f 2542 873f a422 7b3f
000001b0: 60a6 7b3f f455 823f 6cee 843f be9d 843f
000001c0: 1498 803f 36e6 8c3f edab 7d3f 2244 7b3f
000001d0: b6c5 7d3f ad76 7b3f 5879 823f eee8 763f
000001e0: 29e0 7c3f 8fe4 7a3f 3f38 823f a73e 893f
000001f0: 9e42 8a3f d640 803f bc57 803f 0e32 7c3f
1.0178305 0.9762285 0.9864907 0.99105495 1.0438073 1.0318156 1.058505 1.0550592
1.0482215 1.0435686 1.0102837 0.97890115 1.0162941 1.0377285 1.0033146 1.0553093
0.9616095 1.0196537 1.018426 1.0443752 0.95909756 0.9874248 1.0172635 0.98746014
1.0346156 1.0251178 1.042714 1.0320114 1.0398335 1.0420392 1.0512612 0.97496074
0.99882185 0.9680965 0.98604125 1.0951945 0.99276894 0.99403304 0.9798194 1.1234133
0.99489546 0.98643506 0.944119 0.9778199 0.9951714 1.0316632 0.989876 0.986467
1.038008 0.9745605 0.9331063 1.034492 1.07065 0.98485345 0.99042976 1.0382671
1.074829 1.0180675 0.99069303 1.0249314 1.1067787 0.97116125 1.0407922 0.98219186
0.99122626 1.109734 1.035907 0.9899646 1.0752864 1.0684589 0.99015874 0.99521685
1.0273699 1.0341849 1.0560137 0.9746682 0.9287925 1.0626954 0.9955654 1.0085667
1.0328927 1.0280471 1.0079658 1.0375842 1.0522898 0.9868763 1.0790613 1.0284046
1.0168908 1.0169342 0.981522 0.9991307 1.0463673 1.0370198 1.0004452 0.97748435
1.0318879 1.0055554 0.9844636 0.996468 1.0232922 1.0653607 1.0287212 1.0017238
1.0411681 0.9654992 1.0567061 0.9809973 0.98300743 1.0182481 1.038526 1.0360639
1.004641 1.1007755 0.9909046 0.9815084 0.9912981 0.9822796 1.0193281 0.9644917
0.9877954 0.98005 1.0173415 1.0722245 1.080158 1.0019786 1.0026774 0.9851388

base.mlp.fc.5.bias f4 [128]
00000000: 2890 acbb c643 ca3c 1ea6 fd3c e635 ff3b
00000010: 7148 8bbc cc14 7a3c a12c 67bc 2e4a 3cba
00000020: 31d9 4abb 949b 4dbc 8db5 8b3c d653 873c
00000030: 483b ae3c 7164 5dbc 4f63 35bb b776 8c3b
00000040: ab81 ce3c e5d1 1c3c c41a 763c aa9e b8bb
00000050: 7ddf 463d 287d 0b3c 9434 c33b b7ef cbba
00000060: 1f99 3bbb 9fb6 093c cb3a b5ba f454 5a3b
00000070: f098 88bb 93c8 a0bb 3d9d 983b 5783 ba3c
00000080: 57db f93b f521 3d3c 60b9 6a3c 8400 f5bb
00000090: d5e2 803c d854 803c a213 f23c a286 ef3a
000000a0: 5263 4e3c d89f 293c 4a05 773d a113 d0ba
000000b0: 19e1 47bb 9824 ab3c 0156 82ba 195d eb3c
000000c0: affa 5e3c d2f5 b73c ded7 f63c 43b9 5dbb
000000d0: 2b9b 033c 2011 00bc f14d a43c 2df2 c13b
000000e0: 597f 56bb c28b 283c 2519 fc3c 5de1 883b
000000f0: 0fec 5abc c22e ab3c ea0a 323c 4e3d 953c
00000100: 7a7f b13c ca9a ffba 10ba 0d3a acc8 d23b
00000110: dac2 353c a65c 583b a29b 783c d866 0c3d
00000120: b140 4bbb 8eca 88ba 4812 d8ba ba80 be3c
00000130: 69d4 833d 0bfc 4f3b 6776 613c 191a 6a3b
00000140: 8c53 89bb 473b 053b 8785 debc 90a8 c53b
00000150: 9403 483c db5b d43c 5e32 36bc 9e2f 753a
00000160: 7052 bbbc c9c4 59bc d7b0 763c bf87 013c
00000170: 6125 adbb 0b08 82bc 6eeb 353c 9e08 383c
00000180: e72a 6c39 e3b1 323b 45e4 bd3c e15a b63b
00000190: 0d6c e4bc eaab 713c 5980 9e3c 5172 973c
000001a0: c8cf 793c af91 013d e3c9 83bb 0a2c 743c
000001b0: 01f9 e03c 916f 713b 9963 b23c 5f5e a33b
000001c0: 8c15 a73c 34e3 5ab7 884b b63c dbd6 8c3b
000001d0: 997c df3c 6848 0c3c 0b30 7fbb 2012 d83c
000001e0: 9217 2d3b 69c6 b73c 79ce 1fbc 6745 143b
000001f0: 6419 a7ba 8962 c1bb 6eaf 73bb 6325 cf3c
-0.005266208 0.02469052 0.030963 0.0077884076 -0.017002316 0.015263747 -0.014109761 -0.00071826845
-0.003095221 -0.0125493 0.017054344 0.016519468 0.021268502 -0.013512717 -0.00276776 0.004286613
0.025208315 0.009571527 0.01502103 -0.0056341486 0.04855298 0.008513726 0.0059571955 -0.0015559111
-0.0028625203 0.008405357 -0.0013826726 0.0033314796 -0.004168622 -0.004906723 0.004657416 0.022767706
0.0076250243 0.0115437405 0.014326423 -0.007476868 0.015733162 0.015665457 0.029550377 0.0018274377
0.012596922 0.010353051 0.06030778 -0.001587499 -0.003049916 0.020891473 -0.0009943844 0.028730916
0.013609572 0.022456083 0.03013223 -0.0033832348 0.0080326 -0.007816583 0.020056697 0.005918762
-0.0032729714 0.010287227 0.030773709 0.004177256 -0.013361945 0.02089632 0.01086686 0.018217709
0.02166723 -0.0019501087 0.00054064486 0.0064326134 0.0110938195 0.0033014207 0.0151738245 0.034277767
-0.00310139 -0.0010436343 -0.001648494 0.023254741 0.064369984 0.0031735923 0.0137611395 0.0035721122
-0.0041908678 0.0020329522 -0.02716328 0.006032057 0.012207884 0.025922706 -0.011120407 0.0009353104
-0.022866458 -0.013291546 0.01505681 0.0079059 -0.005283997 -0.015872976 0.011103494 0.011232523
0.00022522696 0.0027266673 0.023180136 0.005565033 -0.027883554 0.01475046 0.01934831 0.018487127
0.015247293 0.031633075 -0.0040218695 0.014903078 0.027462484 0.003684018 0.021776007 0.004985615
0.020396017 -1.3046712e-05 0.022252813 0.0042980737 0.027281092 0.008562185 -0.0038938548 0.02637583
0.0026411754 0.022433477 -0.009753817 0.0022624375 -0.0012748656 -0.005901639 -0.0037183422 0.025286382

rnn.gru.weight_ih_l0 f4 [384, 128]
00000000: 1114 4e3d ae82 b33d 691a 0e3e 8a40 20bc
00000010: 91d9 ba3d 5782 dcbd fcdb b5bd 4555 acbc
00000020: 7bf0 4a3c 3250 2d3c 2848 043e 5b5e 473d
00000030: baa6 cbbc 9aa1 bdbd fd87 a43d 4635 75bd
00000040: e587 e03d a547 dfbc f3cb 1dbd f1d2 91bd
00000050: 5663 ee3c fec2 813d d02c 983c f0b2 2ebe
00000060: 01ad 26bd d334 6ebd 30cb 95bd 0eff b1bc
00000070: 1d57 043d e4a8 80bd 4395 8d3d 3c18 ce3c
00000080: ce1e 243d f582 9a3c e0ea 69bd e246 00be
00000090: b832 903d 15da a43d e4f1 413d 8265 d13d
000000a0: 4c87 6bbd 0be0 02bd 7e80 db3d 6a9a 8d3d
000000b0: cf13 993c 63ad b43d ca99 023e 7cb8 353d
000000c0: b841 543d 2a0d c73d e133 c1bd eb55 d9bd
000000d0: 98fa cf3b 1ca9 70bd bab8 933d b9e5 213d
000000e0: f2f5 c33d 8e08 14bd ffcc 1e3e 38a5 b13c
000000f0: 4d6d 86bc 7207 d63d 41e6 dbbc 6b4e 0b3e
00000100: 13fb e03d 1a81 57bd 1509 1f3e 6511 30bd
00000110: 599c 383d e9b5 d7bc dbe6 a43b 41d1 363e
00000120: bd85 1b3d e1fc 37bd 52c2 83bc d86c 8a3d
00000130: 1abc b2bc 6eeb 8fbd 1893 f23c cac2 a9bd
00000140: e7d3 04bd 4a9e d5bc 4642 c73d ab0c af3c
00000150: 36cb d3bc 8fbf 8b3d 6769 8f3d f336 b2bb
00000160: 4213 f7bd 55b3 153d 9a7a e2bd 4a57 01be
00000170: f80f 0b3d ebc0 f5bc 1808 233e fde0 7f3b
00000180: 7fe8 b83c 58f3 43bd b232 cb3d 5443 f0bc
00000190: 56f9 88bd 4c0a 763d 0008 c33c 1e0c 30bd
000001a0: 9052 fdbd 43fd 323c 7090 f03d e0a8 d6bc
000001b0: 6c69 9e3d 5664 f2bd be60 bc3b 8f32 dabc
000001c0: 2eaa c73d 0337 483c 48eb 203d b6f0 febd
000001d0: 411b 063c d487 333c affc 8bbd 11f3 803a
000001e0: e2de eebd 5e77 463c 77ad 343d c8a0 743d
000001f0: 82bd a2bd ce9a 3a3d 7df7 32b8 3bc1 fe3c
00000200: 7d71 b43d bfa9 f13d 5ab0 8e3d e6f4 e23d
00000210: 5fcb 5a3c 5a6d ddbc f9ee e73d dc7c 9fbd
00000220: 6280 d2bd 8aee da3b ac45 853d 8d10 ab3d
00000230: b75a 0e3d a243 9abd 95d0 00bd 63e2 1bbd
00000240: 1433 bf3d 4022 063d 3cb6 c5bc f78b f3bc
00000250: 0355 eb3c 46ab 483d 1f28 c43b 6e8b 77bd
00000260: ef8b 3bbd 866b 113d eb6b c93c 3d64 243d
00000270: 26ca 7dbc 6c74 123c 7e0d 933d 695b 89ba
00000280: 034f 3bbd 1540 2cbc 765f 8dbd e18b 73bd
00000290: 3139 b13d fc3d b23d 2c4e 393d be3f 81bd
000002a0: 52f9 643d 9e50 263b 365e 1cbd 4e01 9e3d
000002b0: 2a02 b83d a66a 853c c7af 9f3c 33d1 38bd
000002c0: fb87 b23d 2615 083d 0d62 b03b bf45 5e3d
000002d0: f58d d63d 6aff fabd 70b1 10bd 23fc ce3d
000002e0: 1743 263e 4f5b 273d 7933 ea3d f312 b03d
000002f0: 1798 3a3d f806 223c e67c e9bd 69cc d43c
00000300: 26b3 16bc f5a3 4e3c 36a9 273d a055 d2bc
00000310: 9228 513d fa75 16be 935c 543d bd47 33bd
00000320: 5980 c73d 2c79 31bd a7a7 92bc 041a ae3d
00000330: 1c7e a13d fefd 5abc 2f91 d03d c25f a13d
00000340: d725 953c 3e81 e8bc 44f1 6abd 5e47 de3c
00000350: d587 303c beca 003d 8419 babc 1291 32bc
00000360: 4b91 183d ec27 6cba d18e 743d d5b7 e7bd
00000370: df5f 5fbd 0687 26be e476 623d fba2 16bd
00000380: 5aa5 8e3d dbd6 133e cd9c 4f3d df43 56bd
00000390: 84ac 10be cae8 cebc dd9e 383c 036d 82b9
000003a0: 66f8 1bbc c014 51bd 1f67 e23a 8862 42bc
000003b0: 07ab 1c3d b502 bdbd 463c 563c ebfa 9abd
000003c0: 5126 7e3c 9712 92bd 44db c93d c8a5 f13d
000003d0: d12b 213d 7c29 e9bc 9280 2d3d 3e88 33bd
000003e0: 720b 5dbc 1ae5 a63d 6b8a fb3d 4073 d1bc
000003f0: c43e e93d 0f74 963d 9301 afbd f968 afbb
0.050312106 0.087651595 0.13877262 -0.009781012 0.09123529 -0.10767048 -0.08879849 -0.021036753
0.012386437 0.010578202 0.1291815 0.04867397 -0.024859775 -0.09259339 0.0803375 -0.05986526
0.1096342 -0.027255842 -0.03852458 -0.07120312 0.029100101 0.0633602 0.018576056 -0.17060447
-0.040692333 -0.058155846 -0.073141456 -0.021728065 0.03230964 -0.06282213 0.06913235 0.02515804
0.04006844 0.018861273 -0.05710876 -0.1252704 0.07040924 0.08049408 0.047349826 0.10224439
-0.057502076 -0.031951945 0.10717867 0.06914218 0.018686203 0.088221334 0.12753978 0.04436539
0.051820487 0.09719308 -0.09433723 -0.10612091 0.006347012 -0.058755025 0.07212968 0.03952572
0.09568395 -0.03614097 0.15507887 0.021685228 -0.01640954 0.10450639 -0.026843192 0.13604133
0.109853886 -0.052613355 0.15530808 -0.04298534 0.04507098 -0.026331859 0.005032403 0.17853262
0.03796934 -0.0449189 -0.01608387 0.067590415 -0.02181821 -0.070273265 0.029611155 -0.08289106
-0.03242865 -0.026076455 0.097294375 0.021368345 -0.025853734 0.06823646 0.07002526 -0.0054386794
-0.1206422 0.036547977 -0.11058541 -0.12630954 0.033950776 -0.029999217 0.15921056 0.0039044016
0.0225718 -0.047839493 0.09921779 -0.02932898 -0.06688182 0.060068414 0.023807526 -0.042980306
-0.12369263 0.01092464 0.11746299 -0.026203573 0.077349514 -0.11835544 0.0057488373 -0.026635436
0.09749256 0.012220147 0.03928688 -0.12448256 0.008185209 0.010957677 -0.06835305 0.0009838064
-0.11663605 0.01211342 0.04411074 0.059723645 -0.07946302 0.04555779 -4.2669e-05 0.031097999
0.08810709 0.117999546 0.0696723 0.11081867 0.0133541515 -0.027029682 0.11324877 -0.07787487
-0.10278393 0.006681268 0.065074295 0.08352766 0.03475448 -0.07532431 -0.03144892 -0.038057696
0.09335914 0.032747507 -0.024134748 -0.029729826 0.02872706 0.048991464 0.005986228 -0.060435705
-0.045787748 0.035502933 0.024587592 0.040134657 -0.0154900905 0.00893889 0.07180308 -0.0010479513
-0.04572965 -0.010513325 -0.06902973 -0.05945957 0.086534865 0.08703229 0.045240566 -0.06310986
0.055901833 0.0025377641 -0.038175784 0.077150926 0.08984788 0.016286206 0.019492997 -0.045121383
0.087173425 0.033223294 0.0053827823 0.054265734 0.10476295 -0.122557476 -0.035325468 0.10106685
0.1623653 0.040858563 0.11435599 0.08597364 0.0455552 0.009889357 -0.114007756 0.025976377
-0.009197986 0.012612333 0.040932857 -0.025675595 0.05106408 -0.14693442 0.0518461 -0.043769587
0.09741277 -0.04332845 -0.017902208 0.08501056 0.078853816 -0.0133662205 0.101839416 0.078795925
0.01820652 -0.02838194 -0.057358995 0.02713364 0.010774572 0.03144335 -0.022717245 -0.010898845
0.037247937 -0.00090086344 0.059706513 -0.1131436 -0.05453479 -0.16262445 0.055289164 -0.036776524
0.06965132 0.1443743 0.050686646 -0.05231082 -0.1412831 -0.025257487 0.011268345 -0.00024876752
-0.009519672 -0.05104518 0.0017273164 -0.011864312 0.038249042 -0.09229032 0.013075894 -0.0756739
0.015512065 -0.07132452 0.09856275 0.117991984 0.039348427 -0.028462164 0.042358942 -0.043831103
-0.013491498 0.081491664 0.122822605 -0.02556765 0.11388925 0.07346355 -0.08545222 -0.00535309

rnn.gru.weight_hh_l0 f4 [384, 128]
00000000: 524d bb3d cb54 2fbc 2ad2 32bd 1c7b 073e
00000010: 2803 593d 0bdc 143e d649 25be af53 3bba
00000020: 1daa 843c 9d25 2dbe 3f90 3ebd 09a3 383e
00000030: 071e 0dbc a9fe 2a3d 157b 133e 1897 133d
00000040: abb4 803d 63a8 df3d 9a87 eabd ebe3 b1bd
00000050: bd2c 0e3e f84b a0bc 5047 0dbd 6f0d 05be
00000060: 0f21 04be 7d41 5ebd d1b1 a93d e3b9 41be
00000070: e22e 793b 97a7 213d 7cd5 ef3d 23d7 8a3d
00000080: 2fca a7bd c3eb 273e de34 d7bd 2b16 213d
00000090: 1a87 b33d b8b3 2b3b 2668 d7bd 6a0f 883d
000000a0: 14e9 3ebd 2df9 563c 42e1 01bb a420 3cbd
000000b0: 1106 e0bb 88c7 ffbb c8af 1abd 9a3a 4ebd
000000c0: 8d66 6bbd 8d58 afbd 2abc 583d 04f4 e33c
000000d0: 7f24 98bc bf47 91bd 611d ac3d 66f1 833d
000000e0: f8de b236 2b89 5dbd 8b77 c5bd 18eb 04bd
000000f0: 3876 733d 00cb cb3d 10de a33d fdc5 083d
00000100: 9b23 3c3d dafa 50bc cc63 023e 64df c2bd
00000110: b03d f63d 751d 5dbd 10c4 a73d 4014 cebd
00000120: 2261 ce3d 82ee d83c 6e2d 8fbc 516a 88bd
00000130: 591d a1bd c74e d9bd 1a36 dbbc 1e04 09bd
00000140: c954 13bd 02bb 1a3e b234 1f3d 64a1 173e
00000150: f33f 26bd 5bec afbb c0dd 51bd 1e60 7b3c
00000160: 576d e0bd 2297 8dbd 0d5f b73d a179 12bd
00000170: 1df3 91ba 4dbc d13d 8e0c 48bd 6c93 603d
00000180: 533a 373d 1d19 5dbb 8c41 d63d ee9c a03d
00000190: ad49 f6bc ca91 693c 2631 323d 768e 10bd
000001a0: 5177 fcbd 96e1 c5bb 5eb5 54bd c2cc 113e
000001b0: 17b7 853d 41ff bc3d 5f68 123c b645 503d
000001c0: c615 103e ae67 bdbb b9c9 2fbd b490 e4bd
000001d0: 1a50 0b3d b916 a6bd d7ea 24bd 318b 903d
000001e0: 3e86 8fbd 76c7 883d 0a8c 93bd 145d 473d
000001f0: 3a07 1b3d 440e d33d 0fda 2fbd 68d2 143e
00000200: 0978 d3bc f1e4 4f3d 7e1e 983c 28d2 fb3c
00000210: 6c0a d2bd 297d 813c 8272 ff3c ab45 94bd
00000220: 031e 753d f7f6 d5bc 0dbe 5c3d b234 083e
00000230: 748a 133d 7673 e4bc acf9 24bc 6580 a93c
00000240: a8bf 383c ff88 e9bc bdc0 b3bd 17ff 05bd
00000250: 4416 7abd c01c ae3d 43b6 1bbd 448d 3cbd
00000260: bd4d 863d cff8 fc3b ac80 133d 2144 0c3d
00000270: c73c 733d 5365 993c 508a b73d fb3b 3e3d
00000280: 1e63 623d ce9f 0a3d f2d3 b93c b79b 2dbc
00000290: 08a4 723d 8324 a93d 46f6 cfbd 85fb 023e
000002a0: eca5 633d b13e 44bd d45c f13a 5cd2 2b3c
000002b0: 52d5 093d 5d7b f83d 5c34 e43d bf8a 45bc
000002c0: afec 9e3c 3fc2 b33c 67d1 a93c 3e52 213d
000002d0: c25f 683d c29a 9f3d 2d57 023e 4ef5 08bc
000002e0: 03be 73bd 3176 1dbc 4db3 683d a624 d3bc
000002f0: 8ad7 173d acfe 1cbd 9c86 8eba ed9a f9bd
00000300: bcab 83bd f269 e3bc d86a 853d 5d0c b8bd
00000310: 30df a43c 71af cfbd 7cac dbbc 890d ed3c
00000320: b30e b03d 7ba4 193d ef1a 18bc 0175 0ebd
00000330: 2f10 603c 1118 853c 7f94 223c 6dc5 a9bc
00000340: f335 e33d 6ac4 87bd 6288 d93c fb39 8a3c
00000350: a6fa e7bd 9860 113e 9490 d23d a2f4 213d
00000360: 421d 34bc d53e 0b3c 4128 f1bd 5088 11be
00000370: 488b c13d 52dd a23d e005 8fbd dd24 09bc
00000380: b07a 9ebd c223 c6bd dc08 f6bc 2ea5 773d
00000390: b207 d0bd f266 abbd 11f2 953d 9d7a 76bb
000003a0: dc5e 3ebc 72c0 a6bc f935 04be 0eec c3bd
000003b0: 3724 343d 105b 0ebd 8852 223e ed48 2ebd
000003c0: 7dab 35bc 1786 abbd 7de4 3a3c 3783 3f3d
000003d0: 0e2d cbbd 7d23 313c 946c 93bd 04ab df3d
000003e0: 915f f0bd 5461 993c c9d2 ae3b f48b 72bd
000003f0: f30a d1bc 6136 053e 711d ac3d a85b 81bd
0.09145607 -0.010701369 -0.04365746 0.13230556 0.052981526 0.14537065 -0.16141447 -0.0007145954
0.016194398 -0.1690888 -0.046524283 0.18030943 -0.008613116 0.04174677 0.14402421 0.036032766
0.0628446 0.10920789 -0.11451645 -0.0868605 0.13884254 -0.019567475 -0.034491837 -0.12993406
-0.12903236 -0.054261673 0.08285869 -0.18918566 0.003802233 0.039466467 0.11710641 0.06779315
-0.0819286 0.1639853 -0.105081305 0.03932778 0.08766003 0.002619965 -0.105179116 0.06643565
-0.046609 0.013120932 -0.0019818102 -0.045929566 -0.0068366607 -0.0078057684 -0.037765294 -0.050348856
-0.057470847 -0.085618116 0.052913822 0.027826317 -0.01857209 -0.070937626 0.08404041 0.064425275
5.3307704e-06 -0.05408589 -0.09641942 -0.032450765 0.059438914 0.099508286 0.080013394 0.03339194
0.045932394 -0.01275512 0.12733382 -0.09515265 0.12023485 -0.05398317 0.08191693 -0.10062456
0.1007712 0.026480917 -0.017477717 -0.06660903 -0.07866926 -0.10610729 -0.026759196 -0.033451192
-0.03596953 0.151104 0.038868614 0.1480766 -0.04058833 -0.005368752 -0.051236868 0.01534274
-0.10958355 -0.06913592 0.089536764 -0.035760526 -0.0011135075 0.10240994 -0.048840098 0.054828092
0.044733357 -0.0033736893 0.10461721 0.07842432 -0.030064428 0.01425595 0.043503903 -0.03529211
-0.12327445 -0.006038855 -0.051930778 0.14238265 0.06529062 0.09228373 0.008936017 0.05084773
0.14070806 -0.005780182 -0.042916987 -0.111604124 0.034011938 -0.08109803 -0.040263023 0.07057799
-0.070080265 0.06678669 -0.07204445 0.04867275 0.03784869 0.10305455 -0.042932566 0.14533389
-0.025814073 0.050755445 0.018569227 0.030739859 -0.10255894 0.015806751 0.031182531 -0.072398506
0.059843075 -0.026118739 0.053892184 0.13301352 0.03602071 -0.027887087 -0.010069292 0.020691106
0.011276163 -0.028507708 -0.08776996 -0.032713976 -0.06105639 0.085015774 -0.038015615 -0.04603316
0.06557796 0.00772009 0.036011383 0.03424466 0.059384134 0.018725073 0.08961928 0.04644392
0.055270307 0.033843808 0.022684071 -0.010596207 0.059238464 0.08258917 -0.10154395 0.1279126
0.055578157 -0.04791135 0.0018414506 0.010487165 0.033650704 0.12132905 0.11142799 -0.012057005
0.019399969 0.02194321 0.020729734 0.039385073 0.056731947 0.077931896 0.12728567 -0.008359266
-0.05950738 -0.009610699 0.05681162 -0.025774311 0.03707079 -0.03832881 -0.0010873857 -0.12187753
-0.0642924 -0.02776048 0.065145195 -0.08986733 0.020125955 -0.10140885 -0.026815645 0.028937118
0.08596554 0.037510376 -0.009283765 -0.034779552 0.0136757335 0.016246827 0.0099231 -0.020724023
0.11094274 -0.0662926 0.02655429 0.01687335 -0.11327104 0.14197004 0.10281482 0.03953994
-0.010993304 0.008498867 -0.11775256 -0.14212155 0.09450394 0.0795237 -0.069835424 -0.008370605
-0.077382445 -0.09674789 -0.030033521 0.060460262 -0.10157718 -0.08369245 0.07321561 -0.0037609704
-0.011619296 -0.020355437 -0.12911214 -0.09566508 0.04397985 -0.034754813 0.15851796 -0.042550016
-0.011088249 -0.08375185 0.011407015 0.046755996 -0.09920703 0.010811684 -0.07198444 0.109212905
-0.11736978 0.018723167 0.005335186 -0.0592155 -0.025517916 0.13009025 0.08404053 -0.0631631

rnn.gru.bias_ih_l0 f4 [384]
00000000: ce53 723c 1193 c7bd fd2b c1bd 7692 d43c
00000010: 5abd 973b d305 94bb 81e1 123d c31a cf3d
00000020: 44f9 a3bd 0be0 76bc d7f6 b73d fea9 273c
00000030: b4ae 9dbd d7cd 5c3d bcca 923c c919 fb3c
00000040: f9a5 d13c ea8f eebc 6698 4a3c c934 853a
00000050: 64ed 76bd b6b5 95bb 8446 8c3d a3b7 8e3c
00000060: 6357 5fbc ab6f 7f3b 8d04 793d fba0 85bd
00000070: 9a3c 8cbc 588b d1bc 7111 06bc 794e 7c3d
00000080: aa8a d63c aa09 803d 53ba b2bd d9a7 863d
00000090: 69b5 59bd 5ca1 923b 5c8f e5bb 4cfd 14bc
000000a0: 476e ccbc 7ac8 a3bd c77c 03bd 7bc2 a73c
000000b0: c2af 953d 7d8a 9ebd 3784 68bc b5fd 513d
000000c0: 6e58 043d 0d8f 7e3c 9f02 1d3d 6438 f13c
000000d0: bafc bd3c 74dc bf3d 6f4c 953d 9d3d 35bb
000000e0: b9ba 34bc 955d 2f3d 62b0 b83d 65c7 87bd
000000f0: 8d47 c23d 6d23 463d 4846 e3bb c38a ecbd
00000100: 8c9c 42bb 2d7d 993c f0a8 e43d 2bec 713d
00000110: d22a f7bc e814 33bd c749 923a 961e cbbc
00000120: bee6 0ebd c277 2b3b 4542 843d 1701 8a3c
00000130: 38bc ce3d c514 803d 6f00 80bd 47db 9a3c
00000140: 504e a23d 6f27 91bc 6d49 7abd 1e08 02bd
00000150: a6ce 603d 52c2 1b3a 54a9 423c cf17 5bbd
00000160: 5427 ce3d 54d0 e4bd 7899 d2bc bdad c13d
00000170: 938e 2e3d 9c14 cebd 6869 69bd b128 56bd
00000180: cba4 b3bb bd0c 533d bfd8 893d ca0b 63bb
00000190: ecf8 c13d 5ad1 303d bbff b13d 2096 c0bc
000001a0: ce78 c0bd 9fb6 4dbd b743 823c 8d88 a03a
000001b0: cd4c 48bd 02c3 a23d 70c3 16bc 6998 b4bc
000001c0: 1ab1 d8bd dbe9 653d b0e0 4a3c 126e 793b
000001d0: 28cb c43d f82e 1dbc 6923 8c3d c075 2ebd
000001e0: 3698 a5bd 82ed 2abd 6401 853d cd86 cabd
000001f0: 8df9 873c f105 3d3d faae d23d c3e5 03be
00000200: 8484 bcbc fa3d 133e b0aa 813d 59c9 f7bd
00000210: 7294 8f3d 59ec f9bd 3c67 08be 455a 70bd
00000220: 6b3c 0ebe 1650 ee3d 08d1 e7bd fc42 8e3d
00000230: 1c5a c73d 527a e43d e54a 323e 84b4 0a3e
00000240: 63cf 553e 4654 d03d d600 b23d b3bf 573d
00000250: cb40 24bc 6622 36be 5793 833c 2486 713d
00000260: baa9 0c3e cdd7 c5bd 822b 1abe 2199 0e3e
00000270: db13 6c3d a1d6 97bd 5b0d 1a3e beb1 193d
00000280: d977 493e 74f1 e63d 2209 943d bab6 ca3d
00000290: f165 ea3c d4dd e83d 19b9 8bbd df2a dcbc
000002a0: 3689 4f3d 0234 063e 1174 0a3e 5c8c 2c3e
000002b0: e82f 863d 7ec3 49bd c95d 9fba 5971 ef3c
000002c0: 6cd2 52be 67c6 4c3e 035e fe3b 460d 23bd
000002d0: 0d87 c9bc 234b 153d 2ac8 17be dc21 803d
000002e0: f5c4 163e 5c86 7ebc 5efd 133d d59b 153d
000002f0: c042 063d 7529 c3bd 38ff 0a3e d85a 0d3e
00000300: 0e96 5c3c d1e6 04be ad32 45be 8e37 96bd
00000310: db11 a3bc 143a 6d3d 9406 cfbd 3381 573d
00000320: 5a46 c53c 2dc7 6bbb 89c6 9d3d 4a4a fb3c
00000330: c32c 183d 0235 b13d 8212 c3bb 2d6c a93d
00000340: 7e14 84bd 5de8 053e dfe4 a0bd a90a 8fbc
00000350: 302d e43d a31c 25be 71d4 a23d be3c 693c
00000360: 0825 0f3d b2e6 00bd 3980 83bd f15c bc3d
00000370: 679a 2c3d ea9b e9bc 72f5 dbbd 2fc6 d83d
00000380: b07f 283e 0fd2 b3bd 5b30 d93d 5ec9 503d
00000390: 4db7 9bbc 862f b03b 974c a93d 3be3 19be
000003a0: bf85 75bc d067 703d badc c8bc f7d9 333c
000003b0: f23d 3d3c e9bc 0c3b 8ba3 c5bd a8da a0bc
000003c0: 7e35 a0bd 5d61 163d ef3b f23d 13e0 07bd
000003d0: 650c 32bd b962 69bd c339 bd3c 4b9f d63d
000003e0: 7069 2ebc 6f0b cb3d e2b1 d4bc 68c9 a43d
000003f0: 57f1 e83c 0fc5 86bc 4a75 b13c cf73 353d
0.014790488 -0.097448476 -0.09432218 0.025948744 0.0046307268 -0.004517296 0.03585959 0.10112526
-0.08006528 -0.015068064 0.08982628 0.0102334 -0.076993376 0.05390724 0.017918937 0.030651944
0.025591837 -0.029121358 0.012365436 0.0010162826 -0.060284987 -0.004568781 0.06849387 0.01742155
-0.013631674 0.0038976471 0.060795356 -0.06524845 -0.01711874 -0.02557914 -0.008182869 0.061598275
0.026189167 0.06251843 -0.08726945 0.06574983 -0.05315152 0.004474802 -0.007005615 -0.009093594
-0.024954928 -0.07997222 -0.03210142 0.020478478 0.07308914 -0.07741258 -0.014191679 0.051267345
0.032310896 0.015537036 0.038332578 0.029445834 0.023191798 0.0936822 0.07289969 -0.0027655133
-0.011030846 0.042813856 0.09018017 -0.06629828 0.094863035 0.04837363 -0.0069358684 -0.11549904
-0.002969536 0.018736446 0.11165035 0.059063118 -0.030171786 -0.04372111 0.0011160903 -0.024794858
-0.03488802 0.002616391 0.064579524 0.016846223 0.10094494 0.062539615 -0.06250083 0.018903388
0.07925093 -0.017718999 -0.06110518 -0.031746022 0.054884575 0.0005941737 0.011881191 -0.053489503
0.10066095 -0.11172548 -0.025707945 0.09456966 0.042616438 -0.10062525 -0.05698529 -0.0522849
-0.0054822913 0.05152582 0.06730794 -0.0034644478 0.09471306 0.043168403 0.08691355 -0.023509085
-0.09398042 -0.05022299 0.01590143 0.0012247727 -0.048901368 0.07947351 -0.009201869 -0.022045331
-0.105806544 0.056131225 0.012382671 0.0038059992 0.096090615 -0.009593718 0.068426915 -0.042592764
-0.080856726 -0.04173041 0.06494406 -0.098889925 0.016598487 0.046148244 0.102872804 -0.12880616
-0.023012407 0.14379111 0.06331384 -0.12098951 0.070107356 -0.12203283 -0.13320631 -0.058679838
-0.13890235 0.11636369 -0.113191664 0.0694637 0.09733984 0.11156143 0.17411382 0.13545424
0.20879893 0.10172324 0.08691566 0.052673053 -0.0100252135 -0.1778656 0.016061468 0.058965817
0.1373662 -0.09660301 -0.1505566 0.13925602 0.057636123 -0.07413984 0.15044157 0.037523024
0.19674625 0.11276522 0.072283044 0.098981336 0.028613063 0.11370435 -0.06822414 -0.026875911
0.050667964 0.13105777 0.13520838 0.16850418 0.06552106 -0.0492587 -0.0012158687 0.029228853
-0.20588082 0.1999756 0.007762672 -0.03980758 -0.02460053 0.03644861 -0.1482245 0.06256458
0.1472357 -0.015534963 0.0361303 0.036525566 0.0327785 -0.09529392 0.1357392 0.13804185
0.01346351 -0.12978674 -0.19257613 -0.07334815 -0.019905975 0.057916716 -0.101086766 0.05261345
0.024081398 -0.0035976872 0.07703883 0.030675072 0.037152063 0.086526886 -0.005953134 0.08272586
-0.06449221 0.13076921 -0.07856154 -0.017461138 0.11141431 -0.16124205 0.07950676 0.0142356735
0.034947425 -0.03147001 -0.06420941 0.09197415 0.042139437 -0.028516728 -0.10740174 0.105846755
0.16454959 -0.087803 0.10604926 0.05097329 -0.019008303 0.005376759 0.082665615 -0.15028088
-0.014985501 0.058692753 -0.024519313 0.01097726 0.011550413 0.0021474904 -0.09650334 -0.019635513
-0.07822703 0.036713947 0.11827838 -0.03317268 -0.04346885 -0.056978915 0.023098832 0.104796015
-0.010645255 0.0991429 -0.025963727 0.08046228 0.028435392 -0.016451387 0.021662373 0.044299897
