scripts/results/SingleCombat/1v1/NoWeapon/Selfplay/ppo/v1_selfplay_from_baseline/run3/actor_210.pt (torch, 696704 bytes, 30 tensors)

base.mlp.fc.0.weight f4 [128, 15]
00000000: 810d fe3d 4c44 18be 6cb3 9bbd ee0f 6a3e
00000010: 419c 7dbe 0885 253e 25b6 a2bd a3ec 293e
00000020: 4d64 343d 501c c3bc 359b 213d 6108 2ebc
00000030: 9400 cf3d 9a65 ddbd 9c96 ac3b c3f5 9e3c
00000040: dc2c d73c 6a71 dfbc c6b1 9b3e 6692 d53d
00000050: f6e2 a3bd b8fb 3cbd db6e 91bd 87ce c8bd
00000060: a20c 96bc 1aa4 38be 6765 383e a93d 2e3e
00000070: 03e5 6bbe d4a9 d33d 4323 1a3d fe0b 963e
00000080: 013c 1f3e e662 9bbe 438c 91be e303 1dbe
00000090: bcff 733e 0d0a febb 33fe a83d 3910 50be
000000a0: 3377 d23e c2bc 4cbe 6bb3 363e 4e8a 82bc
000000b0: ff2e 23be fb53 283e 02c4 12be 3c40 fc3d
000000c0: 8bca 953d bd5e d8bb 8132 70be eb41 cfbd
000000d0: 17f3 173e 0bb2 57bd 5a4a 763e 6c87 143e
000000e0: 408a c6bc 33e1 39be c694 453e 09b7 a03d
000000f0: 5883 44be defb 1b3e dcf9 ee3d 4fcc 403e
00000100: f833 22be 0e49 7cbd cfe2 b5bc 2cba e8bc
00000110: 5147 59be 1c37 50be db56 1f3e 3509 8fbd
00000120: a420 d23d b4c9 40bc 0ace 5b3d 5676 8a3d
00000130: 07ea 7e3d 90e9 0e3e e2af 9bbe f50f 043e
00000140: ed71 4dbe e9b0 a8be 3416 853e c145 88bd
00000150: 790b 2f3e 13f2 1fbe dfa1 7abe 0855 3a3e
00000160: d807 dc3c 950b 163e 5270 ab3d ef6e 8abe
00000170: 28ed 933d 8c2d 36bd d047 2dbe acb4 00be
00000180: 9269 fbbc 7945 913d ef6b e6bd 552e 74bd
00000190: 2d96 793e fcfa 9cbd e7c2 113e 8c95 063e
000001a0: cdfa 36be 96fc 68be e30c a03e fdc6 38bd
000001b0: de50 913e 1f7f 0f3d 4142 893d 565c 913e
000001c0: 414c 863e 606a 40be 385f 4f3c 1112 663e
000001d0: 1059 3f3e 18ba 1c3e 0557 63be d891 27be
000001e0: 0941 2cbe 496c b23c 8981 893e 6c58 5dbe
000001f0: c787 fb3d 6d5a 16be c5e8 a7be 2362 55be
00000200: d62f 163e 7514 793e b51b 1ebe 0ffe 9f3d
00000210: 40fa 553e dc41 683e e1b9 063e e838 3b3e
00000220: 2f6b 803e 448c 323d 481f 89be 737c 6bbe
00000230: b941 10be 53e7 833c 5bb3 72be 2782 8e3d
00000240: 675e 773d 5160 ecbd eb0c e43d 4ab5 973d
00000250: ebd1 2e3e cd9c 133e 1910 fbbd 509b 833e
00000260: 8262 6fbd 2ef5 923b 10e6 8bbe b6a5 4abe
00000270: b429 43bd abca 14be df65 1a3e 2502 08be
00000280: e9c3 30be cca6 cc3d 0436 633d 265d 303e
00000290: 8c2d b2bd d372 693d 5c6c d7bd b94f abbd
000002a0: 6849 64be 3e1d eebd 7dab a2bd 74ca f23c
000002b0: f821 483b 3844 843d c211 903e aedc 9d3e
000002c0: d86a 233e 92d7 4e3d a241 35be 6ba3 393e
000002d0: 557e c33c 371d e5bd c8f9 4ebe 6e0b 2ebe
000002e0: 0f0b e9bd e3ac 9b3e 02de 96be 1315 80be
000002f0: b1a6 583d e5cc 51bd a1d6 993d 99ec 5cbe
00000300: 2e21 8dbd 69b7 fd3d b2ee 623e 4d62 3bbe
00000310: ac67 5d3e 9b93 473e f4d9 7b3e abef 32be
00000320: 8167 9a3d 52dd a4bd 20f5 233e 0662 b0bd
00000330: 048f 4b3e d1bd f0bd 4fe4 b7bb 9cb4 38bb
00000340: 6f7c 303d 1b6d 013e d439 483d 5b88 843d
00000350: 274b abbe 760b 5d3e 8845 673e aef8 683e
00000360: 9604 733e 6fc0 b2be 7767 aabd e6d0 3c3e
00000370: 140c 36be 30db 7a3e 4644 3ebe a902 6bbe
00000380: e77a 2e3e 904a 59be 3dec eabd cad8 643e
00000390: 28cf 8e3e 26ac 6a3e c4be 80bd fa62 96be
000003a0: 6ab2 e03e 3856 80bd b0ca 9cbd cdb8 903d
000003b0: 9662 5cbe 4e46 0f3e 1fa5 c13d a29f 20be
000003c0: 0332 44be 043c adbd 0a5d 053e 43cb e5bc
000003d0: 0d4f 0abe 8f85 7e3c 9c20 a0be 8e02 f9bd
000003e0: 1914 28be 8dbd 1a3e aebc 693e 3d4b c5bd
000003f0: fe58 2b3c d609 103e 38ac 733d 31cf 10be
0.124049194 -0.14869803 -0.076025814 0.22857639 -0.24766637 0.16164029 -0.079448976 0.16594176
0.044040967 -0.023817211 0.039454658 -0.010622115 0.10107532 -0.108103946 0.0052669775 0.019404298
0.026266508 -0.02727576 0.30409068 0.10428314 -0.08002274 -0.046138495 -0.07101222 -0.09805017
-0.01831657 -0.1803135 0.18007432 0.17015709 -0.2303658 0.103351265 0.037631284 0.29306024
0.15550233 -0.3034889 -0.28427324 -0.15333514 0.23828024 -0.007752663 0.0825161 -0.20318688
0.41106567 -0.1999388 0.1784188 -0.01593509 -0.15935896 0.16438286 -0.14332584 0.12316939
0.07314023 -0.0066030906 -0.23456766 -0.10119995 0.14838825 -0.05266003 0.240518 0.14504784
-0.024235845 -0.18152313 0.19295034 0.07847411 -0.19190729 0.15232798 0.11668751 0.18827938
-0.15840137 -0.061593108 -0.022202877 -0.028409086 -0.21218611 -0.20333523 0.15560476 -0.06984178
0.10260132 -0.01176684 0.05366329 0.06760852 0.062234905 0.13956285 -0.30407625 0.12896712
-0.2006299 -0.32947472 0.25993502 -0.066539295 0.1709422 -0.15619688 -0.24475811 0.181965
0.026859209 0.14652856 0.08371033 -0.2703776 0.07222968 -0.04447703 -0.16921926 -0.12568921
-0.030689988 0.07093329 -0.112510554 -0.0596145 0.24373694 -0.07665059 0.14234506 0.13142985
-0.1786911 -0.22752604 0.31259832 -0.045111645 0.2838201 0.03503334 0.0670209 0.2839076
0.26230052 -0.18790579 0.012656979 0.2246783 0.18686318 0.15305364 -0.22201164 -0.16364229
-0.16821684 0.02178015 0.2685664 -0.21615762 0.12281757 -0.14682932 -0.32794777 -0.20838217
0.14666685 0.2432421 -0.15440257 0.0781213 0.20896244 0.22681373 0.13156845 0.18283427
0.25081775 0.0435908 -0.26781678 -0.22996692 -0.14087571 0.016101515 -0.23701231 0.06958418
0.060392763 -0.115418084 0.111352764 0.07407625 0.17072265 0.14415284 -0.1225893 0.25704432
-0.058443554 0.004484794 -0.2732396 -0.19789776 -0.047647193 -0.14530437 0.15077923 -0.13282068
-0.17262234 0.099927515 0.055471435 0.17223033 -0.087000936 0.05699427 -0.10518715 -0.08364815
-0.22293627 -0.11626671 -0.07942865 0.029637553 0.0030537825 0.06458324 0.28138548 0.30832428
0.15958726 0.050498553 -0.17700818 0.18128745 0.02386395 -0.11187213 -0.20212471 -0.16996548
-0.113790624 0.3040534 -0.29466254 -0.25016078 0.052893344 -0.051220793 0.0751164 -0.2157463
-0.06891094 0.12388498 0.22161368 -0.18299218 0.21621579 0.19489901 0.24594861 -0.17474239
0.07539273 -0.08050026 0.16011477 -0.086124465 0.19878775 -0.117549546 -0.0056119333 -0.0028183823
0.04308742 0.12639277 0.048883274 0.0647132 -0.33455774 0.21586403 0.22585118 0.22751114
0.23732218 -0.3491244 -0.083205156 0.18439063 -0.17778045 0.24497676 -0.18580732 -0.22950234
0.17039071 -0.2121985 -0.1147084 0.22348323 0.27892423 0.22917232 -0.06286386 -0.29372388
0.4388612 -0.06266445 -0.07655847 0.07066498 -0.21521983 0.13991663 0.094553225 -0.15685895
-0.19159703 -0.08458713 0.13023773 -0.028051024 -0.13506718 0.015534773 -0.3127488 -0.121586904
-0.16413917 0.1511137 0.22825882 -0.09633491 0.010458229 0.14066252 0.059490412 -0.14141537

base.mlp.fc.0.bias f4 [128]
00000000: a9b7 bebd d0e4 4ebe db91 263d c673 b5bd
00000010: fecf 6dbe f2f9 0abd beb1 5dbe f204 eb3d
00000020: bf9c 31be f1a7 cdbd 55db 93be 7ece e3bc
00000030: 7d38 ccbb a4d5 183e e578 66bd 3b82 213e
00000040: b133 743e de55 143d 4faa ebbd 3efc 44be
00000050: 4f4f 2dbe acf1 ddbd 8b39 e7bd d32c 153e
00000060: e7ea a4bd ee5c d5bc 3654 383b 1a4b 5dbe
00000070: 3645 5f3e 8dfe c0bd d574 6fbe be7f 90bc
00000080: a29f 80be a2a8 933c b6b6 46be 9da2 f6bc
00000090: 3751 cdbd 47f6 263e cb2e 463e 55d1 7a3e
000000a0: dab8 673d 8dca 123e 7cb8 60be 20c1 3fbe
000000b0: f1d6 ee3d 0c33 5c3d ca9c b83d b0e1 2c3e
000000c0: c1dd 1f3e 7b94 bb3d b8b6 e0bd 7860 96bd
000000d0: af55 b03d a4d1 473e afe2 96bc b6d1 a7bd
000000e0: 46ed 293e 9bd4 103e c3b1 d9bc a4be a2bd
000000f0: 3bdc 60be 2609 80bb f582 6e3d 99dd 60be
00000100: db69 40be 930f 7bbe 56b4 183e c7b8 843e
00000110: ddf2 813e dc20 5d3e afcd 9cbc f8a4 8f3d
00000120: 0e2d 323e 5339 b8bd 462a 11be cbcb 2d3e
00000130: 1f4f 8a3c 9432 073e 3781 09be b478 16be
00000140: 33ea d2ba e654 293d 02d7 0c3e a4a6 373e
00000150: 1d1d 92bd 7a97 803e fada 1dbe fa12 e9bc
00000160: d4d8 08be 964f 653d b65a 5f3e 22da 72be
00000170: 4565 4d3d 91b2 65be a6c7 c6bc 6188 f0bd
00000180: 7479 ebba f1fa 3cbe 9f10 313d 6007 6abe
00000190: c2b2 7e3d f6ef e2bd 88e1 4dbe 7057 343e
000001a0: 6fa5 3b3b 1edb 09be 367a fabd d6ee fbbd
000001b0: f825 0fbe fc75 5a3c a234 3bbc b54b 363e
000001c0: b066 dd3c adc7 c6bd 9e98 3f3e 4d9d 9d3d
000001d0: 9591 6ebd 5aaa 333e 3d7d 703e 2b88 62be
000001e0: 6e25 60be 4803 57be 8a6c 60be c536 d8bd
000001f0: 1a68 143e 6efb 7fbe 3c00 98be bfaf 1bbe
-0.09312374 -0.20204473 0.040666442 -0.08859973 -0.23223874 -0.033929773 -0.21649835 0.114755526
-0.1734495 -0.10041798 -0.28878275 -0.027808424 -0.00623232 0.14925247 -0.056267638 0.15772335
0.23847844 0.0362147 -0.11507093 -0.19236848 -0.16924785 -0.10837111 -0.11290272 0.1456788
-0.080526166 -0.026045289 0.0028126366 -0.2161068 0.21803746 -0.09423552 -0.23384412 -0.017639037
-0.2512179 0.018024746 -0.19405636 -0.030106837 -0.10025256 0.16304885 0.19353788 0.24493916
0.056572773 0.1433508 -0.21945375 -0.18726015 0.116620906 0.05375962 0.0901428 0.16882968
0.15611936 0.0915918 -0.10972351 -0.07342619 0.08610093 0.19513565 -0.018418638 -0.08194296
0.16594419 0.14143603 -0.026574021 -0.07946518 -0.21959011 -0.0039073406 0.05823036 -0.21959533
-0.1879038 -0.2451766 0.14912543 0.25922224 0.25380602 0.21594566 -0.019141046 0.07013887
0.174 -0.08995309 -0.14176282 0.16972272 0.016883431 0.13202888 -0.13428198 -0.14694482
-0.0016091525 0.04134073 0.13753894 0.17934662 -0.07134459 0.25115567 -0.15415564 -0.028451432
-0.13363963 0.055984102 0.21811947 -0.23716024 0.050145406 -0.22431399 -0.024265122 -0.11744762
-0.0017965273 -0.18455102 0.04322874 -0.22854376 0.062182195 -0.11080925 -0.20105565 0.1761148
0.0028632542 -0.13462493 -0.12230341 -0.12301414 -0.13979328 0.013333794 -0.011426123 0.17802317
0.027026504 -0.09706054 0.18710563 0.07696018 -0.058244307 0.17545453 0.23485275 -0.22122256
-0.21889278 -0.20997345 -0.21916404 -0.105573215 0.14492837 -0.24998257 -0.2968768 -0.1520376

base.mlp.fc.2.weight f4 [128]
00000000: e2d8 863f f28f 853f 1aa9 863f 97cb 7a3f
00000010: 689c 783f 2990 7d3f c280 803f 50a7 803f
00000020: 262a 803f ade6 833f edd7 7b3f 4168 743f
00000030: 2aae 773f 9685 753f fcb9 823f 7eb8 803f
00000040: 4c8d 783f 9229 803f b5c8 863f 0eba 843f
00000050: 9f09 703f d64b 773f fa7e 783f 47df 863f
00000060: 7bbe 833f 9d9d 853f 9047 863f dec3 7d3f
00000070: 291d 813f de5d 833f f617 7b3f 959c 823f
00000080: 176a 793f 6132 7e3f b83e 743f d3e7 7d3f
00000090: c360 853f 63b2 793f 3461 913f 041e 833f
000000a0: e8b6 803f 0a69 7b3f 2bbe 833f 742f 813f
000000b0: ca4e 713f d66d 803f fc7f 763f c212 833f
000000c0: af10 853f b05c 813f e476 7f3f bbd9 793f
000000d0: 6cc4 823f e951 823f 4cd3 7a3f 8c2d 763f
000000e0: ac84 7c3f cc5b 763f b15a 7c3f 3c8b 853f
000000f0: 1017 8b3f e2d5 7b3f 5983 7f3f 679b 7c3f
00000100: 48cb 833f 6f69 833f 076a 693f 07ea 7e3f
00000110: f599 813f 9d42 853f 2ca2 753f 3a24 7e3f
00000120: e47e 873f 8818 863f eb9d 903f 9d81 7b3f
00000130: 05d8 753f 1bdd 7a3f 0155 843f 355b 803f
00000140: c481 773f 24f9 803f 5082 803f a3bb 843f
00000150: 5f9e 7b3f 8a21 823f 3f41 7b3f d7f6 703f
00000160: 8f29 7c3f b5f8 873f 381b 813f d665 803f
00000170: 119b 7d3f 6f3d 793f 985a 7b3f fe04 823f
00000180: f52d 813f 3104 783f eaf7 843f 6ebe 743f
00000190: ae30 7e3f 5cf7 7d3f bb58 763f e2fa 783f
000001a0: 21c0 743f 1705 7e3f 76f8 7b3f cd4f 803f
000001b0: 8015 833f d638 893f 393b 7d3f dee7 7a3f
000001c0: 4801 863f 0821 713f befd 753f f14c 733f
000001d0: 3dba 873f ba11 813f 8086 7a3f 0ee4 7c3f
000001e0: e873 803f e680 773f 3eac 693f 95d7 803f
000001f0: 7480 703f f850 763f 3acb 7b3f 51c9 823f
1.0534937 1.0434554 1.0520356 0.97966903 0.97113657 0.99048096 1.0039294 1.005106
1.0012863 1.0304772 0.9837635 0.9547158 0.9675013 0.9590696 1.0213008 1.0056303
0.970906 1.0012686 1.0530001 1.0369279 0.9376468 0.9660009 0.9706875 1.0536889
1.0292505 1.0438725 1.0490589 0.99126995 1.0087024 1.0263021 0.98083436 1.0204035
0.97427505 0.9929562 0.954082 0.9918186 1.0420154 0.9753782 1.1357789 1.0243535
1.0055819 0.9820715 1.029241 1.0092607 0.9426085 1.0033519 0.9628904 1.02401
1.0395716 1.0106411 0.9979079 0.97597855 1.0216193 1.0181247 0.97978663 0.9616325
0.9863994 0.9623382 0.98575884 1.0433116 1.0866413 0.98373234 0.99809796 0.98674625
1.0296412 1.0266551 0.9117741 0.9957585 1.0125109 1.0410954 0.9595058 0.9927403
1.0585599 1.0476236 1.1298193 0.9824465 0.96032745 0.9799363 1.0338441 1.0027834
0.9668238 1.0076032 1.0039768 1.0369762 0.9828853 1.0166485 0.9814643 0.9412665
0.98500913 1.0622774 1.0086432 1.0031078 0.9906474 0.97359365 0.9818511 1.0157773
1.009215 0.96881396 1.0388157 0.9560307 0.9929303 0.99205565 0.9622914 0.97257817
0.95605665 0.99226516 0.98425996 1.0024353 1.0240936 1.072047 0.9891849 0.9801005
1.0469141 0.94191027 0.96090305 0.9503928 1.060371 1.0083535 0.9786148 0.98785484
1.0035372 0.9668106 0.91278446 1.006579 0.93946004 0.962173 0.98356974 1.0217687

base.mlp.fc.2.bias f4 [128]
00000000: 3f7d 1e3c fb73 463c dec5 8dbb d7fc b73c
00000010: c852 e93c 16f9 fabb 21fe 693c 923c dd3b
00000020: 1fe3 a3ba 7687 363c 79da 013d f01c ec3c
00000030: 4bfa 0b3d 5fd5 473d 41bf 9d3c 6eb8 c9bc
00000040: a473 043d d768 a23c cd07 81bc 47ae 203c
00000050: c1ec 803d 47b1 053d 911b 003d 6bb5 f9bb
00000060: 35d9 3cbb f0be 48bc dd7b febb 390f a13c
00000070: 15e3 b33c bc77 663c 8662 70bc 512e 45bc
00000080: 96d8 a2bc ffc5 e83c 45f7 423d 6b2e 953c
00000090: 2695 6cbb 42b4 d33c 6663 0e3c c5e9 283b
000000a0: dd6c db3c f8ee a9bc 3d92 c3bb ead7 57bc
000000b0: 1db3 5c3d 12b5 d03b f7c6 833c 4fe3 893c
000000c0: c53b bfbb 2426 3dbc a463 65bc d02d f03c
000000d0: 853e 88bb dbdb 68bc 3e40 ad3c 16f8 093d
000000e0: 7cb8 893b c45f 233d aab3 903c 1e27 08bc
000000f0: ee05 ae3b 4521 d3bc da64 96bc 9966 ccbc
00000100: e9b7 fab9 76ee 0a3b e2d5 ac3d 022e 9f3c
00000110: 2437 e0ba 622d 06bc 4360 1f3d a085 debc
00000120: 141b 59bb 36ac 56bc 3f1f 89ba 422c 0ebd
00000130: 2b96 363d 3bb1 103d 251e 86bc 7319 1d3c
00000140: d599 2e3d 6a34 a73c 393a 83bc 3dee ad3c
00000150: b698 ffbc b66c a83b 7f39 97bc fcdc 14bd
00000160: aca1 dd3c 50a4 843c e984 2ebc 8ca1 693c
00000170: 1435 bc3c 632b 0e3d a748 e43c 0002 b6bb
00000180: 30e2 a7bb ffa1 0c3d 2065 87bc 2c8f 553d
00000190: c8e1 bd3c 1f77 7ab9 dd42 283d c7aa 09bd
000001a0: 96d5 293d 7ee1 923c 48d8 a53c 52d4 023b
000001b0: 7638 9a3c 0774 74bc e8cb a0bc 2699 06bd
000001c0: 5d40 c83c bed4 673d 2efa 88bc 1e3d 1f3d
000001d0: 57f3 7abc 06db 53bc 3a70 fa3c e070 aa3c
000001e0: bd5d 0e3c 4cbd 3f3d f103 b93d 7ae3 b8bc
000001f0: 340b 733d 7abf 143d 26ea 2fbc 8704 3d3c
0.009673416 0.012112613 -0.004326566 0.02245943 0.028481856 -0.007659088 0.01428178 0.0067516053
-0.00125036 0.011140695 0.031702492 0.028822392 0.034174245 0.04878747 0.019256236 -0.024624076
0.032336846 0.019825382 -0.01575079 0.009807176 0.06295157 0.032639768 0.03127629 -0.0076205037
-0.002881599 -0.012252554 -0.0077662305 0.019660579 0.021958867 0.014066633 -0.014671927 -0.0120349685
-0.019878667 0.028414724 0.047599096 0.01821061 -0.0036099642 0.02584279 0.008690691 0.0025774103
0.026785308 -0.020743832 -0.0059683607 -0.0131740365 0.053881753 0.0063692415 0.016086085 0.016832022
-0.0058359825 -0.011544738 -0.014000807 0.02931872 -0.0041578435 -0.014212574 0.021148797 0.03368386
0.0042029005 0.03988625 0.017663796 -0.0083101075 0.0053107655 -0.0257727 -0.018358637 -0.024951266
-0.0004782074 0.0021199263 0.084392324 0.019431118 -0.0017106277 -0.008189531 0.03891016 -0.027163327
-0.0033127712 -0.013102582 -0.0010461583 -0.034710176 0.044576805 0.03532527 -0.016371796 0.009588587
0.042627174 0.020410735 -0.016018974 0.021231765 -0.031200748 0.0051399125 -0.018460033 -0.03634356
0.02705463 0.016191632 -0.010651805 0.014259707 0.022974528 0.034709346 0.027866675 -0.0055544376
-0.005123399 0.03433418 -0.016527712 0.052138492 0.02317895 -0.00023886234 0.04107939 -0.03361013
0.041463457 0.017929789 0.020244732 0.0019962979 0.01882575 -0.014920241 -0.01962848 -0.032860897
0.024444753 0.05659937 -0.016720857 0.038876645 -0.015316806 -0.012930637 0.030571092 0.020805776
0.008689341 0.046811387 0.09033955 -0.022569407 0.059336856 0.03631542 -0.010736978 0.011536724

base.mlp.fc.3.weight f4 [128, 128]
00000000: 446e fbbb 1d98 003d ff11 ee3d 0544 b53d
00000010: 2107 813c 715d 67bd 78e4 d93d a8f0 59bd
00000020: 10e9 233d 9b31 453d 3768 363d 87e7 9f3c
00000030: 653e 95bd 1e08 9abc 87bf a0bd 3988 863d
00000040: 4864 02bd 496f 873c 41ca 893d aaeb 9a3d
00000050: 60c0 44bd 7272 70bd f402 a53d 1e10 f93c
00000060: 7b71 9ebd 2cb4 983d 9851 b1bd e72e bd3d
00000070: b0ec a23d 72d2 a33d 958e 8239 6264 fa3c
00000080: 06a6 8bbd a24d 843d 9bab a33c 1145 a23d
00000090: cf86 0bbb a30a ce3d f338 523d 890d 3bbd
000000a0: 3bcb 0b3d 5c2f b0bd 3350 23bd f734 1cbd
000000b0: 0f12 1cbd e20c 1d3d 7d0b a1bc 966a a6bc
000000c0: 3974 333d 3bca 7b3b 16a8 cbbc 8e3e 64bc
000000d0: 5172 b9bb e400 483d f3c7 503d 5802 933d
000000e0: dcc1 10bd e20d 623c 2890 113d ab99 cfbc
000000f0: 6d7c 893d 5292 d3bc 8e81 44bc 946e aabd
00000100: b964 783d 2623 2abd 91ab e63b e56e a0bd
00000110: b797 c63d f490 2bbb 3adf 453d b66b 34bd
00000120: b943 54bd c8ee 0d3d 62bb 9a3d 658d 543d
00000130: 7146 e6ba 55f0 c33b 7bde 1f3b 1994 93bd
00000140: 953d 13bd 9873 99bd ca37 b1bd 35f2 8fbc
00000150: 25f4 2d3c 54d7 163b acef ab35 5668 443c
00000160: c2ed 00bc 2a3f 98bd 3af6 383d eae3 87bd
00000170: f620 d43b 35e6 963a b424 3b3d 18f4 8cbd
00000180: 9fb3 81bd 70dc b03d bbcd 03bc 4f95 ca3d
00000190: a95e 083d 5e46 8d3d 647a d43c 5525 0fbd
000001a0: d964 0fbd 2017 d8bc 1b99 a03d 4268 8f3d
000001b0: 97a2 bb3d efb0 ac3d 231f 873d 5c58 7fbd
000001c0: 48f9 34bd adde cdbc 0801 49bd aa38 d03b
000001d0: ef9b 69bc 9327 c93d c6ab c2bc 057f ec3d
000001e0: 4f2f 9bbd 9127 92bd 804e e13c 7f6a 8a39
000001f0: 73bb c9bc cc0d f4bc 01bf b53c caae 1e3c
00000200: 22b9 96bb 6add 3f3d 0241 6bbd b992 983d
00000210: 7537 5ebd 132a 1bbd b478 053d 9505 313d
00000220: bb99 383c 2783 8abc faf2 1e3d 08aa 17bd
00000230: 968e 6fbc 74b1 89bc 48bb 33bc fda0 b4bc
00000240: 7a49 65bd 33ed 3f3a 51ed a8bd 95cb d6bd
00000250: a0f9 463d 8902 633d e8d1 b33d 3191 1ebb
00000260: 4216 a9bd 8b09 70bd d100 1e3d 28f7 42bd
00000270: a163 e63d 5ff6 82bd 9d09 67bd 941c 8abd
00000280: cb73 8e3d 9de4 d33d acc7 bb3c 437c 95bb
00000290: 3f1f 7f3d b9cb c93d ee1b 543d 445d 86bd
000002a0: cb2d 103d eb77 673d 65c6 97bd 934a 783d
000002b0: 752b 55bd edc8 0bbd a5f6 4fbb f0b9 823d
000002c0: e5b6 ad3c f3bd 83bd 54e4 503d 9a6c 15bb
000002d0: 2bec 943c 4704 98bd 6e36 a73d 0ea1 edbc
000002e0: fd94 5cbd 9e81 9f3d 2af0 24bd 0859 aa3d
000002f0: 3d9b 4a3d d886 42bd f4e7 12be 9dc0 98bd
00000300: f8e7 793b 8207 8c3d ae49 213d f9ec c7bb
00000310: fa4c 26bd 2a2f b9bd 976e 993d fdae 02bb
00000320: d0a7 acbd 7fa6 77bd 4e49 4d3d b4cf 4d3b
00000330: 1f05 dc3d d28d 87bc 07de 09bd 8c1d 713c
00000340: 0e52 5bbc c32f 0fbc da0b 113d 5552 37bd
00000350: 6e52 7ebd dfcf cfbc 4a41 31bd 460d bc39
00000360: 576a 3c3c ef60 bf3d f329 cd3a face b43b
00000370: d18b 1fbd 4ed2 8fbd 731b 543c e802 23bd
00000380: eb5f 343d a704 b73d e370 223d 83b6 62bd
00000390: 6f18 0ebd 46d1 9d3d 4f02 23bc 2340 08be
000003a0: dd89 9abc 3fd2 d63a 9320 acbc 237b f23c
000003b0: 1a6c 8dbd f887 373d 6292 23bd 8c11 7ebd
000003c0: ef9c 923d a143 62bd 03a1 64bd fadb 2d3b
000003d0: 2943 fdbc f14a 293d 1d23 a93c 7944 a63c
000003e0: 7a56 d1bc 62bc f83c 27c4 053d a4bc aebd
000003f0: 1ebe 863d 718b 46bc b675 ae3d 9c5b bebd
-0.007673057 0.031395067 0.11624526 0.08850864 0.01575047 -0.056485597 0.1063928 -0.053208023
0.040017188 0.04814301 0.04453298 0.01951958 -0.072872914 -0.018802699 -0.07849031 0.06568951
-0.031833917 0.016532557 0.0672803 0.075644806 -0.048035026 -0.058702894 0.08057204 0.030403193
-0.077364884 0.0745624 -0.08658141 0.092374615 0.07955301 0.07999124 0.00024901764 0.030565444
-0.06818776 0.0646012 0.019979289 0.079233296 -0.002129007 0.100606225 0.051323842 -0.045667205
0.034129363 -0.08602783 -0.039871406 -0.03813645 -0.03810316 0.038342364 -0.019658798 -0.020314496
0.04381201 0.00384201 -0.024860423 -0.01393093 -0.0056593795 0.048828974 0.050971936 0.071781814
-0.03534113 0.013797255 0.03553787 -0.02534183 0.067131855 -0.025826607 -0.011993779 -0.08321872
0.06064293 -0.041537426 0.0070394953 -0.078336515 0.09696906 -0.0026178928 0.04830859 -0.044048034
-0.051822398 0.034651548 0.07555272 0.051892657 -0.0017568601 0.0059795775 0.0024394083 -0.07205982
-0.0359474 -0.07492751 -0.08653219 -0.017571548 0.010617291 0.002301653 1.2810247e-06 0.011987766
-0.007869186 -0.074339226 0.045156695 -0.06635268 0.006473656 0.0011512699 0.0456893 -0.06882495
-0.06333088 0.08635795 -0.008044655 0.098917596 0.0332934 0.06898187 0.025937267 -0.034947712
-0.035008285 -0.026378214 0.078417026 0.070023075 0.09161871 0.08432185 0.06597736 -0.062340125
-0.044183046 -0.025130594 -0.04907325 0.006354411 -0.014258369 0.09822001 -0.023763549 0.115476646
-0.07577383 -0.07136453 0.027503252 0.00026400757 -0.024625516 -0.029791735 0.022185804 0.009685228
-0.0045997063 0.046842016 -0.057435043 0.0744986 -0.054252107 -0.037881922 0.032585815 0.043218214
0.011267121 -0.016908241 0.03880594 -0.03702739 -0.0146213975 -0.016808249 -0.010969944 -0.022049421
-0.055978276 0.0007321417 -0.082483895 -0.10488049 0.048577905 0.05542234 0.08780271 -0.0024195428
-0.082561985 -0.05860285 0.038574997 -0.047598988 0.112494715 -0.06394648 -0.056405652 -0.06743732
0.069556795 0.10346339 0.02292236 -0.0045619323 0.062285658 0.0985331 0.05178445 -0.06560758
0.03519992 0.056510847 -0.07410888 0.060617995 -0.052043397 -0.034127165 -0.0031732705 0.06383121
0.021205375 -0.06432714 0.050999 -0.0022800327 0.01817902 -0.07422691 0.081646785 -0.02900746
-0.053853024 0.077883944 -0.0402681 0.083177626 0.049464453 -0.04749188 -0.14346296 -0.07458613
0.003813265 0.068373695 0.039376907 -0.0061012474 -0.040600754 -0.09042199 0.074917965 -0.0019940727
-0.08430445 -0.060461517 0.050118737 0.0031404318 0.10743164 -0.016547117 -0.033659007 0.014716517
-0.013386263 -0.008739415 0.035411693 -0.044756252 -0.06209033 -0.025367675 -0.043275155 0.00035868044
0.011499963 0.093446605 0.0015652761 0.0055178376 -0.0389517 -0.07022534 0.0129459975 -0.039797693
0.044036787 0.08936434 0.03965844 -0.055349838 -0.03469127 0.07705931 -0.009949281 -0.13305716
-0.018864566 0.0016389563 -0.021011626 0.029599732 -0.06905384 0.044807404 -0.039934523 -0.062028453
0.07158839 -0.055240277 -0.055817615 0.0026528821 -0.030915814 0.041331235 0.020646626 0.020296322
-0.02555393 0.030363265 0.03265777 -0.08532074 0.06579231 -0.012118206 0.08518545 -0.09294817

base.mlp.fc.3.bias f4 [128]
00000000: 2922 68bd 62ef 973c f7c3 043c 943d bcbd
00000010: ac12 f4bc b8c9 a53c 2316 54bd 9f8d bebd
00000020: 849c 39bd cd05 943d 58f7 18bd d670 013d
00000030: 81a8 d2bc e760 58bc 361d 463d aa35 71bd
00000040: 11df 16bd 7f41 9bbd 5502 42bd e053 303d
00000050: eb28 cfbd 661b ea3c acd8 9abb efc6 b3ba
00000060: db3c 393c 95e0 a73b ea17 8d3d e657 afbd
00000070: 4317 80bc 62c9 6e3d e9e2 383d fb0d 7d3d
00000080: 8362 98bd 5974 92bd 4d51 1bbd 0740 9d3d
00000090: 8694 8dbd 8fa2 08bd 8112 aabc 20e9 15bd
000000a0: 1266 3bbd 6aac 933d 89a4 0fbd a517 08bd
000000b0: 7bab 193d 9655 35bc 41f2 d2bc 0c1a 17bd
000000c0: 0db9 5b3c 6b0f 37bd 079f acbd 93a7 9b3d
000000d0: 8976 453d ebaa 9d3d 6b87 a1bd 7753 47bd
000000e0: 80ea 743d 268d 173a c2aa 18bc 3f7c 403d
000000f0: 0573 583d 15a4 2bbc d2da d6bb 5cb6 5ebd
00000100: ec64 95bd 76cf 813c 08b0 37bb 6035 da3c
00000110: d6ac 55bd 431a 0a3d 8519 233d 24d6 9fbd
00000120: aec3 c63b 0c49 75bd df18 fb3c 07bd 9c3c
00000130: a70b afbb 7f92 a1bd 9f88 bb3c 9d1c 6e3d
00000140: 4ad1 a3ba 372b 8dbc ef60 b6bd 3880 babd
00000150: 69ec acbd dbd5 5a3d d7d4 073c 8075 6e3d
00000160: 2acd 58bd 617a e13a 9ef7 953d 5cc3 88bd
00000170: ac0e 14bc a837 813d da3f fb3c 010b 4d3d
00000180: 8908 8fbb 09f4 dc3b 7d06 8fbd 74a8 473c
00000190: 11dd afbd e25d 983c 0673 4b3c f0da 3bbd
000001a0: 4b56 ffbc f31c 85bc bcdf f93a 495f 35bc
000001b0: e601 4f3d 1bed 9fbd cc66 65bd 93ed 5dbd
000001c0: f0d0 8d3b b4f8 6dbd ae58 47bd fab9 843d
000001d0: 3fd9 143d 204f 273c 07e9 153c c09e 7abd
000001e0: a890 28bd 5c4f 7d3d 7997 523d 3486 b2bd
000001f0: 774e 603d e2a4 c3bc 94d8 653d 24ba 77bc
-0.056673203 0.018546764 0.008103362 -0.091914326 -0.02979406 0.020237789 -0.051778924 -0.09304356
-0.04531528 0.07227669 -0.03734526 0.03160175 -0.025715115 -0.013206697 0.0483677 -0.05888907
-0.036833826 -0.07580852 -0.047365505 0.04304874 -0.10115226 0.028577518 -0.0047255363 -0.0013715903
0.011306013 0.005123208 0.06889327 -0.08561687 -0.015636092 0.058297522 0.045138273 0.06178091
-0.074406646 -0.07151098 -0.03791933 0.07678228 -0.06913094 -0.033358153 -0.020760776 -0.03659928
-0.04575164 0.0721062 -0.035069022 -0.033225674 0.037517052 -0.011067769 -0.025750281 -0.036890075
0.013410819 -0.044692438 -0.084287696 0.076003216 0.048208747 0.07698616 -0.07887157 -0.048663583
0.05979395 0.00057812256 -0.009318056 0.04699349 0.052844066 -0.010476132 -0.006556847 -0.05437313
-0.0729464 0.015845995 -0.0028028507 0.02663678 -0.052166782 0.03371645 0.03981926 -0.07804516
0.0060658073 -0.059884116 0.030651508 0.019133104 -0.0053419652 -0.0788927 0.022892294 0.058132757
-0.0012498286 -0.01723252 -0.08905207 -0.09106487 -0.08443529 0.053426605 0.008290491 0.058217525
-0.052930035 0.001720261 0.0732262 -0.06677887 -0.009036701 0.06309444 0.030670095 0.050059322
-0.004365031 0.0067429584 -0.069836594 0.012186158 -0.08587087 0.018599454 0.01241756 -0.045863092
-0.031169077 -0.016249156 0.001906387 -0.011070081 0.05053892 -0.07808896 -0.056006238 -0.054181647
0.004327886 -0.05809851 -0.048668556 0.06480785 0.036339995 0.010211736 0.009149796 -0.061186552
-0.04115358 0.06184326 0.051413987 -0.087170035 0.05476233 -0.023882333 0.056114748 -0.015120063

base.mlp.fc.5.weight f4 [128]
00000000: 3874 823f 8b85 7b3f 596c 793f 3c34 7e3f
00000010: 0d3c 853f b245 833f b01b 873f 883a 853f
00000020: ede3 833f c1cd 843f 0460 7e3f 5376 7a3f
00000030: 62a1 813f 1622 843f dc31 803f 46e7 873f
00000040: 0b0f 783f 5e50 823f 755e 823f ec9b 853f
00000050: 627e 763f 3629 7e3f 9458 813f b04f 7c3f
00000060: b418 843f af8f 833f 736f 853f fe0b 843f
00000070: a097 853f 4a6d 853f aa3b 853f b243 7b3f
00000080: c6cc 7f3f 845d 793f 3c3d 7f3f c92c 8b3f
00000090: 1cab 7f3f bca3 7e3f 5fe8 783f 3a2f 8d3f
000000a0: be06 803f 8159 7c3f 9b7d 713f a7ef 793f
000000b0: 241c 803f 39ca 823f 4e0f 7f3f 7c23 7d3f
000000c0: f3cf 843f 77c6 793f caaa 723f 1650 843f
000000d0: 2009 873f 334e 7d3f 418a 7e3f 83ca 843f
000000e0: ebc7 883f 05fe 813f aaf6 7c3f 352c 833f
000000f0: 667a 8d3f 5950 7a3f 2150 843f 6e1b 7d3f
00000100: 202c 7d3f 67ba 8d3f 0d60 843f 129b 7d3f
00000110: 9821 8a3f 01a8 883f 9b35 7e3f 1e3b 7c3f
00000120: 8d56 833f 7a0e 853f a1f4 863f 8150 7b3f
00000130: 14af 6d3f 0a29 883f fe43 7c3f 617b 803f
00000140: ae60 843f a0d5 833f 85b8 803f b376 853f
00000150: b6ae 863f 7ef7 7c3f fbd8 893f a412 833f
00000160: f3f7 813f f99f 823f cf84 7b3f 09ba 7e3f
00000170: 8413 853f 99e2 833f 742b 7f3f 1956 793f
00000180: 69c1 833f c879 813f f22c 7d3f c752 7f3f
00000190: 04c0 823f 3e8e 883f 2b87 813f 84c8 7e3f
000001a0: 603b 843f 80c4 763f acf8 863f b83a 7c3f
000001b0: a18e 7b3f 2494 823f 4020 843f 3694 843f
000001c0: ca6b 803f c3d6 8b3f 4b35 7d3f cb4a 7d3f
000001d0: ca1b 7e3f f11a 7d3f 9e7a 823f 97a8 763f
000001e0: b171 7c3f 0168 7a3f c900 813f 3401 8a3f
000001f0: b1de 893f c72f 7f3f 4b30 803f 4a70 793f
1.0191717 0.98250645 0.9743095 0.99298453 1.0408951 1.0255644 1.0555325 1.0408487
1.0303932 1.0375291 0.9936526 0.978368 1.0127375 1.0322902 1.0015216 1.0617454
0.96897954 1.0180776 1.0185076 1.0438209 0.96286595 0.9928163 1.0105157 0.98559093
1.0320039 1.0278224 1.0424637 1.031616 1.0436897 1.0423977 1.0408833 0.9815017
0.99921834 0.9740832 0.9970281 1.0873042 0.9987047 0.9946859 0.9722957 1.1030037
1.0002058 0.9857407 0.94332284 0.97631305 1.0008588 1.0217963 0.9963273 0.9888227
1.0375961 0.9756846 0.94791853 1.033694 1.054966 0.9894745 0.9942971 1.0374302
1.068601 1.0155646 0.9881388 1.0247866 1.1052978 0.9777885 1.0336953 0.9886998
0.98895454 1.107251 1.0341812 0.99064744 1.0791502 1.0676271 0.99300545 0.98527706
1.0260788 1.0395043 1.0543405 0.98169714 0.92845273 1.0637524 0.9854125 1.0037652
1.0342004 1.0299568 1.0056311 1.0426849 1.0522068 0.98815143 1.0769342 1.0240064
1.0153793 1.020507 0.98249525 0.9950262 1.0396581 1.0303527 0.9967568 0.97397
1.0293399 1.011529 0.98896706 0.99735683 1.0214849 1.0668409 1.0119375 0.9952471
1.033062 0.96393585 1.0544639 0.985271 0.9826451 1.0201459 1.0322342 1.035773
1.0032895 1.0924915 0.98909444 0.9894225 0.9926115 0.98869234 1.019367 0.96351
0.9861098 0.9781495 1.0078365 1.0781617 1.0771085 0.9968228 1.0014738 0.97436965

base.mlp.fc.5.bias f4 [128]
00000000: 8a0c e2bb e22d 9f3c 9f88 ef3c 108b 293c
00000010: 3953 82bc 2ef7 523c 6a84 6bbc 482d bcba
00000020: 78f1 20bb f78c 48bc a7e7 833c edce 523c
00000030: 5b0a 873c 246a 46bc 636d 783a 9b76 b43b
00000040: 83a4 903c c436 073c e04c 843c 6361 81bb
00000050: ca20 383d fd0c 703b ca18 d33b edf0 a33b
00000060: 571f 8fbb afd1 da3b 10be 8d39 8911 b0b9
00000070: 9a22 6bbb 0606 cdbb 0add c63b c9f7 8d3c
00000080: acb4 133c 8ae3 c53b c1f6 113c d009 e6bb
00000090: e711 5d3c 1b2c 293c d03f cf3c 1f9b ed3a
000000a0: dcdc ee3b f25f 473c 6da6 663d 24b2 5ebb
000000b0: c99c 81bb 1e5d 9b3c aafd debb e425 d13c
000000c0: 0584 3b3c 6985 b23c 1778 b23c 58ba acbb
000000d0: 89c5 0d3c bc70 04bc d5c9 823c a6b4 b93b
000000e0: 99aa 80bb a153 063c bff3 023d 76db 4a3b
000000f0: 0f3b 2bbc 6aa6 953c d022 353c 097e 563c
00000100: 8a23 a33c 7caa d2b9 f509 3d3b 7947 7e3b
00000110: 1605 ed3b 2eec 983b bbb0 883c 3238 083d
00000120: 9e53 91bb 7c52 ecba efa3 30bb 3649 8c3c
00000130: 837a 5d3d c9f3 f03a ac24 633c 3468 303b
00000140: 13b8 abbb 22f3 be3a 14e8 c7bc 532c 713b
00000150: c82a 3f3c 7468 a93c 6bd6 2ebc d09d bdb9
00000160: d669 9cbc 90e2 57bc a6ba 833c dbaa c13b
00000170: 7856 bfbb e95e 5bbc a7bd 573c ce09 4f3c
00000180: 6fd4 e43a 8fb9 37ba 9df2 903c d684 e53b
00000190: 3241 ddbc 5e61 803c 22d0 873c 41a8 6d3c
000001a0: b4ec 7b3c 774a f93c a627 0fbc c2d6 4a3c
000001b0: 9893 a93c c7b5 bf3b 20b4 b43c 3051 ef3b
000001c0: 8983 bc3c b386 693b 027f aa3c 90ef db3a
000001d0: 2b1c ca3c b6df 003c cc54 b8bb 4ae8 db3c
000001e0: d7ba 9a3b e4c1 973c de8b 4bbc 9857 403b
000001f0: d73d d8ba 7f08 7abb 6d84 0abb 5eae e83c
-0.0068984674 0.019431058 0.02923995 0.0103480965 -0.015908824 0.012876315 -0.014374832 -0.0014356757
-0.002455799 -0.01224064 0.016101671 0.012866718 0.01648443 -0.012110267 0.0009476749 0.005507303
0.01765657 0.008252803 0.016149938 -0.003948377 0.044953145 0.0036628835 0.006442164 0.005003086
-0.0043677497 0.0066778283 0.00027035223 -0.000335824 -0.0035878778 -0.0062568216 0.0060688304 0.017330067
0.0090152435 0.0060390877 0.008908928 -0.0070202127 0.013493038 0.010325457 0.025298983 0.0018127895
0.007289512 0.012168871 0.05631106 -0.0033980692 -0.003955458 0.0189653 -0.0068051415 0.025530763
0.01144505 0.02179213 0.021785779 -0.0052712373 0.008653053 -0.008083519 0.015965382 0.005667287
-0.003926587 0.00819865 0.031970736 0.0030953563 -0.010451092 0.018267829 0.011055663 0.013091573
0.019914407 -0.00040181342 0.0028845046 0.0038799925 0.0072332723 0.0046668267 0.016685834 0.033256717
-0.004435017 -0.0018029953 -0.002695318 0.017124753 0.054071914 0.00183832 0.013863724 0.0026917579
-0.005240449 0.0014568309 -0.024402656 0.00368001 0.011667915 0.02067969 -0.010671238 -0.0003616647
-0.019093435 -0.013176575 0.016080212 0.00591026 -0.0058391653 -0.013389328 0.013167775 0.012636615
0.001745833 -0.00070085464 0.017693812 0.0070043607 -0.027008627 0.015671428 0.016578738 0.014505447
0.015376259 0.030431015 -0.00873748 0.012380304 0.020700261 0.005850527 0.022058547 0.0073033795
0.02301194 0.0035633266 0.020812515 0.0016779769 0.024671635 0.007865837 -0.005625343 0.026844162
0.00472198 0.018525071 -0.012423484 0.0029349085 -0.0016497922 -0.0038152037 -0.002113606 0.028403457

rnn.gru.weight_ih_l0 f4 [384, 128]
00000000: f891 653d 11c9 b73d 3c5c 093e 35cc 063b
00000010: 447d cc3d 6803 ccbd 126e a9bd c485 a4bb
00000020: f04f 493c 96e2 be3b f029 0a3e 0056 6e3d
00000030: 5643 91bc a19b babd 3137 a23d 02b5 79bd
00000040: e42d d83d 3f4e c2bc e439 0dbd 305d 69bd
00000050: 63ac 0f3d fd01 7b3d 9165 743c 61d4 2abe
00000060: d651 edbc db95 35bd 3deb 89bd 7ff1 a6bc
00000070: 5d74 0b3d 6bb5 7dbd c501 9a3d a0c2 ff3c
00000080: 9269 513d c1f7 cb3c a004 52bd 638e f3bd
00000090: ad72 983d b6a9 ae3d 19f5 693d 456d b53d
000000a0: d759 49bd 58b1 21bd e145 e73d bbe5 993d
000000b0: bcf3 383c 39c3 963d 4568 033e 7963 6c3d
000000c0: 62bd 563d 4964 d33d d651 9ebd a797 d9bd
000000d0: e412 123c ce3a 2dbd 6d0c a03d 1084 3e3d
000000e0: 9b82 a93d 52ed f1bc 3be4 113e dbdf 013d
000000f0: b258 78bc e48d ec3d 0845 a3bc 8ece 103e
00000100: 3079 e33d f491 6dbd bad9 0e3e 958d 38bd
00000110: ac76 363d a76c d7bc 6140 a73b 2d2a 2c3e
00000120: 8cb3 3d3d 8c35 57bd 28e6 99bb 0dd0 963d
00000130: 2b44 87bc 480d b4bd 754a af3c 4a66 9dbd
00000140: 375a c9bc 6b2a 8dbc 865f c13d 0f61 eb3c
00000150: 458d e3bc 04ee 913d 10ef 813d 7eb8 88ba
00000160: f8f6 e3bd e25d 183d 5e97 cdbd d19a ecbd
00000170: 9118 ed3c fc77 87bc d618 173e b15e 0fbb
00000180: a0e4 ce3c 96b0 30bd db7e d73d e012 9abc
00000190: 158c 8cbd 779b 5d3d 3187 fc3c 6f53 5abd
000001a0: 2029 09be 90b8 b03c 6377 003e 84d4 a0bc
000001b0: 0af8 973d ca39 c9bd 3d74 0a3c 2ed3 f8bc
000001c0: 9e32 b63d 9bb6 063c f3a0 3c3d c767 f1bd
000001d0: 3d56 51bb be27 ee3c d696 8bbd 3cab e53b
000001e0: cfcc dabd cb54 88bc c37a ba3c fe53 753d
000001f0: 10b4 9fbd 0fc4 f93c a686 c43b 157b 793c
00000200: 2560 c23d 4044 f03d 5182 913d ee57 bb3d
00000210: 08dc 053d c724 b6bc ad6e fd3d e905 43bd
00000220: 91c9 bbbd d362 4dba 4f30 693d 876f ad3d
00000230: b43d 463d 65b4 9ebd 9bd6 38bd ff1e 5bbd
00000240: d966 cb3d 896a e63c 34ad bbbc 9cea 51bc
00000250: 9cff 0f3d 0db5 7a3d a885 233c d7d9 94bd
00000260: 9772 05bd 6da7 dd3c 10f3 893c f28f 633d
00000270: d0dc 24bd 788f 9b3c c495 783d 09c8 9938
00000280: e137 2dbd 5cbe 85bb 2f74 61bd 91dc 45bd
00000290: 956f ab3d 164a c13d ca18 573d 54f8 9dbd
000002a0: acd6 853d b481 c13a 9e92 f4bc 488f b03d
000002b0: 6323 9f3d 91b0 493c 8393 d23c 6a82 0abd
000002c0: 4644 ab3d 2054 223d 8c66 ca3c 59c3 7c3d
000002d0: 568c ca3d 44f3 edbd 4ac4 ecbc f29e aa3d
000002e0: 8676 253e 46d9 493d 508f f03d e899 ad3d
000002f0: 31c9 193d 4269 8d3c e430 d0bd 6695 e63c
00000300: 8e82 1cbc 34f5 dc3b f5f0 313d e750 b8bc
00000310: 8f90 683d 31c2 15be 4f6c 4b3d 2966 29bd
00000320: f4cb d53d a4da e3bc 86fc c5bb 6438 bb3d
00000330: 09ed c03d e786 21bc 31e3 e33d 44ec 923d
00000340: f9aa be3c 963b 70bc a5e1 38bd 8495 1d3d
00000350: a47c 6c3b 4c37 213d 7a5c f7bc 6733 9dbc
00000360: b9d4 3b3d 74fc 39bb cb15 833d 1bd5 cdbd
00000370: a899 63bd 5b08 19be 2e92 393d 83ec f7bc
00000380: e033 913d 20d3 163e 48c1 693d 642b 7dbd
00000390: af52 0fbe a905 03bd d68b 683c 61e6 0d3c
000003a0: eefc c6bb 0fad 53bd 8f93 1139 f09d b8b9
000003b0: f000 5a3d b26f cbbd fe6b 803c 048f 9abd
000003c0: b43a f43b 8f64 b4bd 738a e43d bd21 e83d
000003d0: 7d2e d13c a77d 25bd abc9 403d e23b 19bd
000003e0: 0862 81bc ff1d b93d e678 e53d 8677 2ebd
000003f0: 921c f63d 1d5a 433d d837 a6bd 71e8 1bbd
0.05604741 0.08973897 0.13414091 0.0020568494 0.0998483 -0.09961587 -0.08272947 -0.005020829
0.012287125 0.005825351 0.1349256 0.058187485 -0.017732304 -0.09111715 0.07920683 -0.060963638
0.10555628 -0.023718951 -0.034479037 -0.056973636 0.03507651 0.061281193 0.014916793 -0.16682579
-0.028969686 -0.044332366 -0.06734321 -0.020378826 0.03404652 -0.06194059 0.07519869 0.031220734
0.05112607 0.024898412 -0.051273942 -0.118923925 0.07443748 0.085284635 0.05711851 0.08858732
-0.049157944 -0.03947577 0.11292625 0.07514521 0.01128858 0.073614545 0.12832744 0.057712052
0.052426703 0.10321862 -0.07730453 -0.106246285 0.008915637 -0.04229241 0.0781487 0.046512663
0.08276864 -0.029532108 0.1424722 0.031707626 -0.015157865 0.11550501 -0.019930378 0.14141294
0.11107099 -0.05800052 0.13950244 -0.0450569 0.044546768 -0.026296927 0.00510411 0.16812964
0.046313807 -0.0525413 -0.004696626 0.07363901 -0.016511997 -0.08791596 0.021397809 -0.07685526
-0.02457915 -0.01723214 0.09442048 0.028732805 -0.027777323 0.07125476 0.06344426 -0.001043096
-0.1113109 0.03719891 -0.100386366 -0.115529664 0.028942378 -0.016536705 0.14755568 -0.0021876509
0.025255501 -0.043137155 0.10522243 -0.018807828 -0.06862656 0.05410334 0.030826183 -0.053302225
-0.13394594 0.021572381 0.12545542 -0.019632585 0.074203566 -0.098254755 0.008450565 -0.030374136
0.08896373 0.0082222475 0.04605193 -0.11787372 -0.003194227 0.029071685 -0.06815879 0.007008938
-0.106835954 -0.016641995 0.022763615 0.059894554 -0.07798016 0.030488996 0.0059974967 0.015227099
0.09490994 0.11731768 0.07104934 0.09147631 0.03268054 -0.022234334 0.12374625 -0.04761306
-0.09169305 -0.00078348554 0.056930836 0.08468538 0.04839869 -0.07749251 -0.04512654 -0.053496357
0.09931726 0.028126972 -0.022909738 -0.012812283 0.035155877 0.06120782 0.009980597 -0.07268112
-0.032579985 0.027057374 0.016839534 0.0555572 -0.040249646 0.01898931 0.060689703 7.332868e-05
-0.04228962 -0.0040815305 -0.055042442 -0.04830605 0.08370892 0.09437959 0.052513875 -0.077133805
0.06535086 0.0014763386 -0.029855069 0.08621079 0.07770421 0.012310163 0.025705105 -0.03381578
0.083626315 0.03963101 0.024707101 0.061709736 0.09890048 -0.11618665 -0.028902192 0.08331098
0.16158494 0.049279474 0.11746085 0.08476621 0.037545387 0.017262105 -0.10165575 0.02814741
-0.009552611 0.0067430977 0.043442685 -0.022499515 0.056778487 -0.1462486 0.049663838 -0.041357193
0.104392916 -0.027814217 -0.006042066 0.09141615 0.09420211 -0.009858823 0.11127318 0.0717397
0.023274885 -0.014662644 -0.045137066 0.038472667 0.0036085034 0.039359376 -0.030195463 -0.01918955
0.045857165 -0.0028379234 0.06400641 -0.10050412 -0.05556646 -0.14944594 0.045305423 -0.030264145
0.070899725 0.14728975 0.057069093 -0.06180896 -0.13996385 -0.03198782 0.014193496 0.008660884
-0.006072632 -0.051678713 0.00013883247 -0.00035212887 0.05322355 -0.099334136 0.015676495 -0.07546809
0.007453287 -0.088082425 0.111592196 0.1133456 0.025534863 -0.040403035 0.047067326 -0.037410624
-0.015793815 0.090389244 0.112047 -0.042594455 0.12017168 0.04769336 -0.0811612 -0.03806347

rnn.gru.weight_hh_l0 f4 [384, 128]
00000000: 780e c63d d06a 93bc 26f9 43bd 51f5 b43d
00000010: 9283 9c3c 00b7 e63d 6253 09be 9ccd 85bc
00000020: de6e 0f3c 07e5 38be cf92 27bd d0af 273e
00000030: daa1 0fbc 5fc1 313d 5084 203e 9d0d dd3c
00000040: 91dd 6c3d 2338 d03d 49ce f3bd 908d bebd
00000050: 3443 173e 9bae 93bc 99b7 03bc 02c2 02be
00000060: 41be d8bd ac28 4dbd 2cfb 843d dee7 3cbe
00000070: 0dfa 403c 5928 283d f415 e23d 94f9 963d
00000080: 1415 acbd a01a 3a3e f914 b7bd 86c2 9e3c
00000090: 44c2 ce3d 29b0 1bbb 1329 cfbd fb29 953d
000000a0: 42c8 3dbd e871 a33c 6482 1dbc 264b 4bbd
000000b0: 2fd5 c4bc dc46 92bc f150 f1bc 6c56 4abd
000000c0: 4f94 71bd 8e72 cabd f2d8 403d 0ec4 c73c
000000d0: 7eaa ebbc 7454 88bd eaed b13d cb23 913d
000000e0: 3da0 d4bb a57a 53bd c156 d0bd 61e5 c5bc
000000f0: 9e95 5b3d 2f6a b73d 5a2f ab3d c7cc 353d
00000100: d7c8 343d a55d b8bc 23ee dd3d f5c2 b8bd
00000110: 3c4a 023e 01e3 77bd 372c 9c3d 6d17 dbbd
00000120: 72c0 df3d 7a3e e5bc 7db2 d9bc 8d6d 76bd
00000130: b50d 95bd 872c e8bd 1d07 0cbd 25b6 c0bc
00000140: 900a 21bd 6793 1c3e 2fe4 0e3d aa47 1c3e
00000150: a7dd 3bbd 2f28 f2bb 1819 55bd ed4b 28bc
00000160: 708f efbd 112c 72bd 63f6 d03d bcd8 f6bc
00000170: 88ff 163b 0d5b dd3d e079 27bd a73a 6f3d
00000180: 84bb 393c 08d5 713a 6575 d43d 2e95 b63d
00000190: 57a6 11bd cca9 063c 2a62 123d 07ae 1abd
000001a0: 26b6 e3bd d520 4dbb 6d4a 7abd b6e2 183e
000001b0: 5e6e f93c d7d9 ba3d 7fe4 953c 02c0 913d
000001c0: 29c1 103e c356 f9bc 66d9 53bd 9fda eabd
000001d0: 961d 013d fbaf 9cbd c40d 38bd f76c 2b3d
000001e0: 7862 84bd 6cf5 a03d 17d5 9abd 2e58 c93c
000001f0: c738 e93c a32b cb3d bd02 dbbc e07a fd3d
00000200: d748 fcbc b4a4 323d 0453 373c ae70 2b3c
00000210: 5f35 eabd 0176 a83c 0c24 6c3d 8308 a5bd
00000220: 9550 613d dd05 adbc 8b2f 4c3d 8d25 e53d
00000230: 8283 c83c 46ea d3bc 1005 5cbc 3506 8f3c
00000240: d42d 95bb 1df7 dbbc bb73 b6bd 4a69 1fbd
00000250: 6e44 5fbd faf1 b03d 606e e9bc 1e88 42bd
00000260: f715 743d e242 2f3c ee13 0b3d 1ea0 213d
00000270: 243b a63d 3d86 633c d755 8c3d 8bd6 5c3d
00000280: 655a 603d 976a 293d 2a1d d23c e433 21bd
00000290: 5199 833d e416 a63d a0de ccbd 7e45 033e
000002a0: f81f 423d 46db 34bd d59b bd3b 570a 073a
000002b0: 3988 ba3c a75d 083e 2895 d73d cd6a 233b
000002c0: 8e08 90bb 91de bb3b 5c0d 1c3c 60d4 0a3d
000002d0: 9c32 653d e440 b23d 3fba f63d c2a5 d2bb
000002e0: 7407 7cbd 501a 59bc 6827 563d 6f88 82bc
000002f0: cd02 0a3d 5b6f 1dbb 3067 a23b 8dfb eebd
00000300: e724 9bbd 9b32 a7bc 9627 4c3d d8bb c1bd
00000310: dd1d cf3c 5b90 d0bd e1c3 ebbc 96df e53c
00000320: e3c7 d63d 180c 2c3d 2471 9bbc 8809 e6bc
00000330: 8d44 333c 1bb7 1f3c 60c1 8d3c c76b 9dbc
00000340: 0fe6 073e 53a3 81bd b1eb 1a3d 943f 5d3c
00000350: caf6 01be 2459 1d3e ac10 a43d e9ca fe3c
00000360: 331d 85bc 285c 183d 6bc7 ddbd 87a9 15be
00000370: a814 ad3d bf23 a33d 55b0 91bd 9c87 05bc
00000380: 24bf a6bd 7299 bebd d1cc e3bc 16db a73d
00000390: 97f9 bfbd febc b5bd 94c0 a03d a736 57bb
000003a0: df0c c6bb a9c1 17bc ad0c fabd 315a b8bd
000003b0: 5471 033d 85f6 5ebd 0dfe 313e 45aa 95bc
000003c0: 6eaf 4f3b 2f87 9abd e1cd ad3b 750f 593d
000003d0: 8ddf c2bd 5feb 84b9 31e4 97bd 4ea8 bd3d
000003e0: 659b c3bd 3cfe 9f3c de3e 693c e3fa 85bd
000003f0: b7f8 2fbd 0f60 073e ce01 9e3d 212f 88bd
0.096707284 -0.017995268 -0.04784503 0.08835853 0.019105706 0.11265373 -0.13410714 -0.016333394
0.00875446 -0.18056117 -0.040911492 0.16375661 -0.008766616 0.043397304 0.15675473 0.02698403
0.05782849 0.10166957 -0.1190458 -0.09304345 0.1477173 -0.018027594 -0.008039379 -0.1276932
-0.10583163 -0.050087616 0.0649322 -0.18447825 0.011778367 0.041054104 0.110393435 0.07371822
-0.08402458 0.18174219 -0.08939547 0.019379865 0.10095647 -0.0023756123 -0.10115256 0.07283398
-0.04633356 0.019951776 -0.009613607 -0.049632214 -0.024027435 -0.017856054 -0.029457541 -0.049398825
-0.05897933 -0.09885131 0.047081895 0.024385478 -0.02876782 -0.06656733 0.08687957 0.07086905
-0.0064888285 -0.051630635 -0.10172797 -0.024157228 0.053609483 0.089558 0.08358641 0.044384744
0.04413685 -0.02250559 0.108364366 -0.0902156 0.1272363 -0.060519222 0.07625621 -0.106978275
0.10925378 -0.027983893 -0.026574368 -0.06016307 -0.07278005 -0.11336618 -0.03418647 -0.023524353
-0.039316714 0.15290605 0.03488558 0.15261713 -0.04586568 -0.007390044 -0.052025884 -0.010272008
-0.116972804 -0.059124056 0.102032445 -0.030132644 0.0023040492 0.10808382 -0.040887713 0.058405545
0.011336211 0.00092251645 0.10373954 0.089151725 -0.035559025 0.008219194 0.035738148 -0.03776362
-0.111187264 -0.0031300087 -0.061106134 0.14930233 0.030448135 0.09123581 0.018297432 0.07116701
0.14136185 -0.030436879 -0.051721 -0.1146748 0.031522356 -0.07650753 -0.044935003 0.041851964
-0.06464094 0.078593105 -0.07560175 0.02457818 0.028469456 0.099204324 -0.026734704 0.12376952
-0.030796451 0.043614104 0.011189226 0.010463877 -0.11435961 0.020564081 0.057651564 -0.08058264
0.05500849 -0.02112096 0.049850028 0.11188803 0.02447677 -0.025868546 -0.013428941 0.017459014
-0.0045525823 -0.026851231 -0.089087926 -0.03891877 -0.05450862 0.08639903 -0.028495014 -0.047493093
0.05959126 0.010697098 0.033954553 0.03945934 0.08116749 0.013886985 0.0685231 0.05391554
0.054773707 0.041361418 0.025648672 -0.039356127 0.06425727 0.08109835 -0.100034 0.12819478
0.04739377 -0.044154428 0.005786399 0.0005151382 0.022770034 0.13316976 0.10526496 0.0024935484
-0.004395551 0.005733319 0.0095246695 0.033893943 0.055956468 0.08703783 0.120472424 -0.0064284513
-0.061530545 -0.013250902 0.052283674 -0.015934197 0.033694077 -0.0024022672 0.0049561486 -0.11669073
-0.07575398 -0.020409873 0.04984244 -0.094596565 0.025282795 -0.101837836 -0.028779926 0.028060716
0.10487344 0.04200372 -0.018974848 -0.028080717 0.010941637 0.009748246 0.017304122 -0.019216431
0.13271354 -0.0632998 0.03782243 0.013503928 -0.12691799 0.15366036 0.080109924 0.031102614
-0.016249275 0.037197262 -0.108290516 -0.14615451 0.084512055 0.079658024 -0.07113711 -0.008150008
-0.08141926 -0.09306611 -0.027807625 0.08196084 -0.09373777 -0.08873938 0.07849231 -0.0032838972
-0.006044015 -0.009262481 -0.12209449 -0.09001578 0.0320905 -0.054434318 0.17382069 -0.018269667
0.0031690258 -0.075453155 0.0053040837 0.052993257 -0.09515295 -0.00025352367 -0.07416571 0.09260617
-0.095511235 0.019530408 0.01423618 -0.065419935 -0.042961802 0.13220237 0.07715188 -0.06649614

rnn.gru.bias_ih_l0 f4 [384]
00000000: a8f9 243c 55e0 d5bd af83 d1bd 6d45 e63c
00000010: 0209 173b 4d2f 75bc ebfa 1c3d c799 c93d
00000020: 0a3d 97bd 160b d0bb e12e bd3d 4576 193c
00000030: 0e4c 8bbd 8935 653d cff4 763b cf85 153d
00000040: a84d 133d 9620 1ebc 1089 843c 49b9 9cbc
00000050: 3458 19bd a459 76bb 20f2 933d e442 933c
00000060: 882b 53bc 9477 633b c5e8 703d ff13 66bd
00000070: 0496 9ebc 092f 70bc 116b bbbb c445 6d3d
00000080: 421e fe3c 1104 8a3d 13b9 a6bd 7d61 763d
00000090: adec 59bd 0afe d33b c446 88bc afe1 9ebc
000000a0: 5802 c0bc 7a2f 63bd 2d50 d6bc e47f ba3c
000000b0: 5ba1 833d 670a 99bd e966 27bc d0b9 633d
000000c0: 78a9 d93c 2b06 113c 9a74 b73c 28b7 9b3b
000000d0: 7f1f f63c f8b6 bd3d 1aa1 993d 9bdc ebbb
000000e0: 54bd a5bb b29c f03c f116 b83d af90 75bd
000000f0: 47cf b03d af7f 4b3d 9ddf 803b 4f3b dcbd
00000100: 434a bbbb a366 a73c 92bf d73d 3047 743d
00000110: ca10 f7bc 4449 6fbd fbc6 94bb 0fab edbc
00000120: 9431 06bd 1961 063c 70ed 5b3d fb91 613c
00000130: 1456 c83d f34e 813d 0732 88bd 851c 3a3c
00000140: 3241 9a3d 3970 3dbc 7397 71bd 36b3 02bd
00000150: 17bd 663d 5948 8f3c 4ea6 163c bd0b 76bd
00000160: 5448 d13d 208d d2bd 1215 c8bc 9803 933d
00000170: d436 393d 1afb d4bd de6c 59bd 30c7 56bd
00000180: 3cda 5c3b 189c 3d3d ad07 973d a077 ea3b
00000190: 41d4 c13d 18f6 3a3d 4abe b43d b857 d2bc
000001a0: b47f a3bd a859 6bbd eecb 8b3c 7ebb d4b8
000001b0: 6245 38bd 1408 9e3d ea1f 43bc 91d4 bfbc
000001c0: a304 a1bd 7d0c 783d 7e7b a73c 58e5 c13b
000001d0: 23cf bb3d c384 eebb 08fe 703d 4793 4bbd
000001e0: 0cab a5bd b2d2 76bd a273 583d 86ad b0bd
000001f0: 2e1d 443c 6a99 153d b3d6 d83d ad0d 09be
00000200: 98e8 a8bc 57a8 0d3e 977b 6e3d 79a2 07be
00000210: 6c37 4c3d 2d18 00be 0c61 ecbd d0aa 43bd
00000220: 86e1 efbd 52af d83d 33b1 e7bd 20a4 963d
00000230: 6544 fb3d c229 d83d 88d7 1c3e 2eb7 093e
00000240: 9092 463e 994c c23d a5a4 ab3d dda8 513d
00000250: 4adb 02bc d528 2ebe 30d1 9c3c 4f63 7b3d
00000260: 7dae e33d f3ed b8bd ccf5 2fbe 7fa9 163e
00000270: be2c 873d 68d3 9bbd 883f 1f3e 7039 083d
00000280: ec02 493e 9b5f d43d bd3d a53d 7ee7 a03d
00000290: 8384 163d e6cc 003e 3e75 93bd e178 a1bc
000002a0: aa96 433d 280d 013e 810f 013e ddf9 233e
000002b0: b48c 843d 0d32 83bd 808e 5d3c df43 f53c
000002c0: 4162 25be 8025 4d3e 324e eeba 2182 6dbd
000002d0: d592 e1bc 8ecb 2a3d 5fcc 15be d5d9 9b3d
000002e0: 7edd 0a3e 943b a4ba fdb9 f43c 1a4b ef3c
000002f0: c126 013d 9cbc cfbd c3ca 113e 814a 0b3e
00000300: 36de 453c 52c6 0abe df70 3bbe 0212 86bd
00000310: 56e2 89bc 6440 613d 4160 f0bd 43ce 893d
00000320: 8d39 c53c 3b04 23bc ecd2 bd3d 048f e53c
00000330: a9fa 3c3d 6b4c cb3d 93e8 33bc e340 be3d
00000340: bf51 7bbd 280a 063e 8b2e b5bd cb42 4cbc
00000350: a4d1 e93d f02d 1fbe 54de 8b3d 5142 d23c
00000360: 64b1 fa3c c763 d4bc b2ab 83bd 6602 923d
00000370: 245d 623d bc31 d4bb 3501 c8bd 56e5 b93d
00000380: 7e29 213e fd47 97bd 0b96 b73d b21a 413d
00000390: 950d 04bc 3140 0c3c f8a3 9c3d 2cd9 21be
000003a0: 524e 053b 72d4 6c3d 3291 00bd 68b5 933c
000003b0: 92ba 593b b882 113c 4a0f c8bd 3f74 18bc
000003c0: 71f7 7cbd 80e3 213d 01c2 d23d 32d2 6dbc
000003d0: ddf9 28bd 4ef4 46bd a21a b73c 9d54 db3d
000003e0: 0bd3 28bb 6564 973d 6435 dfbc 3d89 ad3d
000003f0: 9e02 8a3c 696f f8bb 4b96 443d 5055 353d
0.010069288 -0.104431786 -0.10230195 0.028109277 0.002304614 -0.014964891 0.03832523 0.09843784
-0.07384689 -0.006348978 0.09237457 0.009366577 -0.06801616 0.05595926 0.0037682538 0.036504563
0.03596273 -0.009651324 0.016178638 -0.01913132 -0.037437633 -0.003759005 0.07223916 0.017976232
-0.012888797 0.0034708725 0.058815736 -0.056171414 -0.019358642 -0.014659652 -0.0057195504 0.05792786
0.031020287 0.06739057 -0.08140769 0.060151566 -0.053204227 0.006469493 -0.016635306 -0.019394724
-0.023438618 -0.0554652 -0.026161278 0.022766061 0.064272605 -0.07472687 -0.010217407 0.055597126
0.026570067 0.008851568 0.022394467 0.0047520585 0.030044315 0.09263414 0.07501431 -0.007197929
-0.00505797 0.029371593 0.08988751 -0.059952434 0.08633285 0.049682315 0.003932907 -0.107535
-0.00571564 0.020434683 0.10534586 0.059638202 -0.030159373 -0.05841948 -0.004540322 -0.029012231
-0.032762125 0.008201861 0.053693235 0.013767715 0.09782043 0.063138865 -0.06650167 0.011359339
0.07531966 -0.0115624005 -0.058982324 -0.03190919 0.056332674 0.017490553 0.009194924 -0.06006979
0.102188736 -0.10280824 -0.02442411 0.0717842 0.045218304 -0.10399456 -0.05308234 -0.052436054
0.0033699414 0.04629144 0.07374511 0.0071553737 0.09464312 0.04564485 0.08825357 -0.025676593
-0.07983342 -0.05745855 0.017065015 -0.00010143871 -0.044988044 0.077163845 -0.011909464 -0.02341679
-0.078622125 0.060558785 0.020444628 0.0059172325 0.091703676 -0.00727901 0.058836013 -0.049701
-0.08089265 -0.06025953 0.05284465 -0.08626847 0.011969848 0.03652326 0.105878256 -0.13384123
-0.020618722 0.13833748 0.058223333 -0.13245572 0.049857542 -0.12509222 -0.11541948 -0.04777032
-0.11712937 0.10580315 -0.11313095 0.07355523 0.122689046 0.1055484 0.15316594 0.13448784
0.19391847 0.09487266 0.08381013 0.05118643 -0.007986853 -0.17007764 0.019142717 0.061374005
0.111172654 -0.0902976 -0.17183608 0.14713095 0.06600331 -0.07608682 0.15551579 0.0332579
0.19630021 0.10369798 0.08068416 0.07856654 0.036747467 0.12578163 -0.072000965 -0.01971096
0.047751106 0.12602675 0.1260357 0.16013284 0.064721495 -0.06406031 0.013522744 0.02993959
-0.16150762 0.20033836 -0.0018181263 -0.05798543 -0.027535835 0.04169803 -0.14628743 0.076099075
0.13561055 -0.0012529963 0.029873842 0.029210616 0.0315311 -0.10143396 0.14237504 0.1360264
0.012076905 -0.13552216 -0.18304776 -0.065464035 -0.016831558 0.05499305 -0.11737109 0.067287944
0.024075294 -0.009949739 0.09268746 0.028022297 0.046137486 0.09926685 -0.010980743 0.0928972
-0.061357256 0.13089812 -0.08846768 -0.012467097 0.11416939 -0.15544868 0.06829515 0.025666388
0.030602165 -0.025926484 -0.06429233 0.07129364 0.055264607 -0.0064756554 -0.09765855 0.090769455
0.15738484 -0.073867775 0.08964165 0.0471446 -0.008059879 0.008560226 0.07648462 -0.15805501
0.0020340872 0.05781979 -0.03138847 0.018030837 0.0033222777 0.008881263 -0.09768541 -0.009305059
-0.061759416 0.0395236 0.102909096 -0.0145154465 -0.041253913 -0.04857283 0.022351567 0.10709498
-0.0025760557 0.073921956 -0.027247138 0.08473442 0.016846951 -0.0075816405 0.047994893 0.044270813
